#loc = loc("/home/ericbuehler/.cache/vllm/torch_compile_cache/torch_aot_compile/90537ea14f244a5187d6ecc853fbadcf440d710f29c8e182fe8151f3f7751a82/inductor_cache/dr/cdr4qpo4fss24kvhp6mumlmsmgyamgbqkc3qnbb4fskat3blnler.py":18:0)
#loc1 = loc(unknown)
#loc20 = loc("/home/ericbuehler/.cache/vllm/torch_compile_cache/torch_aot_compile/90537ea14f244a5187d6ecc853fbadcf440d710f29c8e182fe8151f3f7751a82/inductor_cache/dr/cdr4qpo4fss24kvhp6mumlmsmgyamgbqkc3qnbb4fskat3blnler.py":41:25)
#loc36 = loc("/home/ericbuehler/.cache/vllm/torch_compile_cache/torch_aot_compile/90537ea14f244a5187d6ecc853fbadcf440d710f29c8e182fe8151f3f7751a82/inductor_cache/dr/cdr4qpo4fss24kvhp6mumlmsmgyamgbqkc3qnbb4fskat3blnler.py":55:27)
#loc73 = loc("/home/ericbuehler/.cache/vllm/torch_compile_cache/torch_aot_compile/90537ea14f244a5187d6ecc853fbadcf440d710f29c8e182fe8151f3f7751a82/inductor_cache/dr/cdr4qpo4fss24kvhp6mumlmsmgyamgbqkc3qnbb4fskat3blnler.py":90:27)
#loc118 = loc("/home/ericbuehler/.cache/vllm/torch_compile_cache/torch_aot_compile/90537ea14f244a5187d6ecc853fbadcf440d710f29c8e182fe8151f3f7751a82/inductor_cache/dr/cdr4qpo4fss24kvhp6mumlmsmgyamgbqkc3qnbb4fskat3blnler.py":130:27)
#loc139 = loc("in_out_ptr0"(#loc))
#loc140 = loc("in_ptr0"(#loc))
#loc141 = loc("in_ptr1"(#loc))
#loc142 = loc("in_ptr2"(#loc))
#loc143 = loc("in_ptr3"(#loc))
#loc144 = loc("in_ptr4"(#loc))
#loc145 = loc("in_ptr5"(#loc))
#loc146 = loc("in_ptr6"(#loc))
#loc147 = loc("in_ptr7"(#loc))
#loc148 = loc("in_ptr8"(#loc))
#loc149 = loc("in_ptr9"(#loc))
#loc150 = loc("in_ptr10"(#loc))
#loc151 = loc("out_ptr4"(#loc))
#loc152 = loc("xnumel"(#loc))
#loc153 = loc("r0_numel"(#loc))
#loc170 = loc("tmp4"(#loc20))
#loc184 = loc("tmp10"(#loc36))
#loc218 = loc("tmp36"(#loc73))
#loc261 = loc("tmp67"(#loc118))
#loc281 = loc(callsite(#loc1 at #loc170))
#loc285 = loc(callsite(#loc1 at #loc184))
#loc289 = loc(callsite(#loc1 at #loc218))
#loc294 = loc(callsite(#loc1 at #loc261))
module {
  tt.func public @triton_red_fused_add_mul_rms_norm_2(%in_out_ptr0: !tt.ptr<f32> {tt.divisibility = 16 : i32} loc("in_out_ptr0"(#loc)), %in_ptr0: !tt.ptr<bf16> {tt.divisibility = 16 : i32} loc("in_ptr0"(#loc)), %in_ptr1: !tt.ptr<bf16> {tt.divisibility = 16 : i32} loc("in_ptr1"(#loc)), %in_ptr2: !tt.ptr<bf16> {tt.divisibility = 16 : i32} loc("in_ptr2"(#loc)), %in_ptr3: !tt.ptr<bf16> {tt.divisibility = 16 : i32} loc("in_ptr3"(#loc)), %in_ptr4: !tt.ptr<bf16> {tt.divisibility = 16 : i32} loc("in_ptr4"(#loc)), %in_ptr5: !tt.ptr<bf16> {tt.divisibility = 16 : i32} loc("in_ptr5"(#loc)), %in_ptr6: !tt.ptr<f32> {tt.divisibility = 16 : i32} loc("in_ptr6"(#loc)), %in_ptr7: !tt.ptr<bf16> {tt.divisibility = 16 : i32} loc("in_ptr7"(#loc)), %in_ptr8: !tt.ptr<bf16> {tt.divisibility = 16 : i32} loc("in_ptr8"(#loc)), %in_ptr9: !tt.ptr<bf16> {tt.divisibility = 16 : i32} loc("in_ptr9"(#loc)), %in_ptr10: !tt.ptr<bf16> {tt.divisibility = 16 : i32} loc("in_ptr10"(#loc)), %out_ptr4: !tt.ptr<bf16> {tt.divisibility = 16 : i32} loc("out_ptr4"(#loc)), %xnumel: i32 loc("xnumel"(#loc)), %r0_numel: i32 {tt.divisibility = 16 : i32} loc("r0_numel"(#loc))) attributes {noinline = false} {
    %cst = arith.constant dense<0.000000e+00> : tensor<1x1024xbf16> loc(#loc1)
    %c1024_i32 = arith.constant 1024 : i32 loc(#loc1)
    %c2816_i32 = arith.constant 2816 : i32 loc(#loc1)
    %c0_i32 = arith.constant 0 : i32 loc(#loc1)
    %cst_0 = arith.constant dense<9.99999997E-7> : tensor<1x1xf32> loc(#loc1)
    %cst_1 = arith.constant dense<2.816000e+03> : tensor<1x1xf32> loc(#loc1)
    %cst_2 = arith.constant dense<2816> : tensor<1x1024xi32> loc(#loc1)
    %cst_3 = arith.constant dense<0.000000e+00> : tensor<1x1024xf32> loc(#loc1)
    %xoffset = tt.get_program_id x : i32 loc(#loc154)
    %xmask = arith.cmpi slt, %xoffset, %xnumel : i32 loc(#loc155)
    %xmask_4 = tt.splat %xmask : i1 -> tensor<1x1xi1> loc(#loc155)
    %r0_base = tt.make_range {end = 1024 : i32, start = 0 : i32} : tensor<1024xi32> loc(#loc156)
    %r0_base_5 = tt.expand_dims %r0_base {axis = 0 : i32} : tensor<1024xi32> -> tensor<1x1024xi32> loc(#loc157)
    %_tmp4 = scf.for %r0_offset = %c0_i32 to %c2816_i32 step %c1024_i32 iter_args(%_tmp4_13 = %cst_3) -> (tensor<1x1024xf32>)  : i32 {
      %r0_index = tt.splat %r0_offset : i32 -> tensor<1x1024xi32> loc(#loc159)
      %r0_index_14 = arith.addi %r0_index, %r0_base_5 : tensor<1x1024xi32> loc(#loc159)
      %r0_mask = arith.cmpi slt, %r0_index_14, %cst_2 : tensor<1x1024xi32> loc(#loc160)
      %tmp0 = arith.muli %xoffset, %c2816_i32 : i32 loc(#loc161)
      %tmp0_15 = tt.splat %tmp0 : i32 -> tensor<1x1024xi32> loc(#loc278)
      %tmp0_16 = arith.addi %r0_index_14, %tmp0_15 : tensor<1x1024xi32> loc(#loc162)
      %tmp0_17 = tt.splat %in_ptr0 : !tt.ptr<bf16> -> tensor<1x1024x!tt.ptr<bf16>> loc(#loc163)
      %tmp0_18 = tt.addptr %tmp0_17, %tmp0_16 : tensor<1x1024x!tt.ptr<bf16>>, tensor<1x1024xi32> loc(#loc163)
      %tmp0_19 = tt.splat %xmask : i1 -> tensor<1x1024xi1> loc(#loc279)
      %tmp0_20 = arith.andi %r0_mask, %tmp0_19 : tensor<1x1024xi1> loc(#loc164)
      %tmp0_21 = tt.load %tmp0_18, %tmp0_20, %cst evictionPolicy = evict_last : tensor<1x1024x!tt.ptr<bf16>> loc(#loc165)
      %tmp0_22 = arith.extf %tmp0_21 : tensor<1x1024xbf16> to tensor<1x1024xf32> loc(#loc166)
      %tmp2 = arith.mulf %tmp0_22, %tmp0_22 : tensor<1x1024xf32> loc(#loc167)
      %tmp5 = arith.addf %_tmp4_13, %tmp2 : tensor<1x1024xf32> loc(#loc168)
      %_tmp4_23 = arith.select %tmp0_20, %tmp5, %_tmp4_13 : tensor<1x1024xi1>, tensor<1x1024xf32> loc(#loc169)
      scf.yield %_tmp4_23 : tensor<1x1024xf32> loc(#loc18)
    } loc(#loc158)
    %tmp4 = "tt.reduce"(%_tmp4) <{axis = 1 : i32}> ({
    ^bb0(%tmp4_13: f32 loc(callsite(#loc1 at #loc170)), %tmp4_14: f32 loc(callsite(#loc1 at #loc170))):
      %tmp4_15 = arith.addf %tmp4_13, %tmp4_14 : f32 loc(#loc297)
      tt.reduce.return %tmp4_15 : f32 loc(#loc280)
    }) : (tensor<1x1024xf32>) -> tensor<1xf32> loc(#loc280)
    %tmp4_6 = tt.expand_dims %tmp4 {axis = 1 : i32} : tensor<1xf32> -> tensor<1x1xf32> loc(#loc171)
    %_tmp10 = scf.for %r0_offset = %c0_i32 to %c2816_i32 step %c1024_i32 iter_args(%_tmp10_13 = %cst_3) -> (tensor<1x1024xf32>)  : i32 {
      %r0_index = tt.splat %r0_offset : i32 -> tensor<1x1024xi32> loc(#loc173)
      %r0_index_14 = arith.addi %r0_index, %r0_base_5 : tensor<1x1024xi32> loc(#loc173)
      %r0_mask = arith.cmpi slt, %r0_index_14, %cst_2 : tensor<1x1024xi32> loc(#loc174)
      %tmp6 = arith.muli %xoffset, %c2816_i32 : i32 loc(#loc175)
      %tmp6_15 = tt.splat %tmp6 : i32 -> tensor<1x1024xi32> loc(#loc282)
      %tmp6_16 = arith.addi %r0_index_14, %tmp6_15 : tensor<1x1024xi32> loc(#loc176)
      %tmp6_17 = tt.splat %in_ptr1 : !tt.ptr<bf16> -> tensor<1x1024x!tt.ptr<bf16>> loc(#loc177)
      %tmp6_18 = tt.addptr %tmp6_17, %tmp6_16 : tensor<1x1024x!tt.ptr<bf16>>, tensor<1x1024xi32> loc(#loc177)
      %tmp6_19 = tt.splat %xmask : i1 -> tensor<1x1024xi1> loc(#loc283)
      %tmp6_20 = arith.andi %r0_mask, %tmp6_19 : tensor<1x1024xi1> loc(#loc178)
      %tmp6_21 = tt.load %tmp6_18, %tmp6_20, %cst evictionPolicy = evict_last : tensor<1x1024x!tt.ptr<bf16>> loc(#loc179)
      %tmp6_22 = arith.extf %tmp6_21 : tensor<1x1024xbf16> to tensor<1x1024xf32> loc(#loc180)
      %tmp8 = arith.mulf %tmp6_22, %tmp6_22 : tensor<1x1024xf32> loc(#loc181)
      %tmp11 = arith.addf %_tmp10_13, %tmp8 : tensor<1x1024xf32> loc(#loc182)
      %_tmp10_23 = arith.select %tmp6_20, %tmp11, %_tmp10_13 : tensor<1x1024xi1>, tensor<1x1024xf32> loc(#loc183)
      scf.yield %_tmp10_23 : tensor<1x1024xf32> loc(#loc35)
    } loc(#loc172)
    %tmp10 = "tt.reduce"(%_tmp10) <{axis = 1 : i32}> ({
    ^bb0(%tmp10_13: f32 loc(callsite(#loc1 at #loc184)), %tmp10_14: f32 loc(callsite(#loc1 at #loc184))):
      %tmp10_15 = arith.addf %tmp10_13, %tmp10_14 : f32 loc(#loc298)
      tt.reduce.return %tmp10_15 : f32 loc(#loc284)
    }) : (tensor<1x1024xf32>) -> tensor<1xf32> loc(#loc284)
    %tmp10_7 = tt.expand_dims %tmp10 {axis = 1 : i32} : tensor<1xf32> -> tensor<1x1xf32> loc(#loc185)
    %_tmp36 = scf.for %r0_offset = %c0_i32 to %c2816_i32 step %c1024_i32 iter_args(%_tmp36_13 = %cst_3) -> (tensor<1x1024xf32>)  : i32 {
      %r0_index = tt.splat %r0_offset : i32 -> tensor<1x1024xi32> loc(#loc187)
      %r0_index_14 = arith.addi %r0_index, %r0_base_5 : tensor<1x1024xi32> loc(#loc187)
      %r0_mask = arith.cmpi slt, %r0_index_14, %cst_2 : tensor<1x1024xi32> loc(#loc188)
      %tmp12 = arith.muli %xoffset, %c2816_i32 : i32 loc(#loc189)
      %tmp12_15 = tt.splat %tmp12 : i32 -> tensor<1x1024xi32> loc(#loc286)
      %tmp12_16 = arith.addi %r0_index_14, %tmp12_15 : tensor<1x1024xi32> loc(#loc190)
      %tmp12_17 = tt.splat %in_ptr0 : !tt.ptr<bf16> -> tensor<1x1024x!tt.ptr<bf16>> loc(#loc191)
      %tmp12_18 = tt.addptr %tmp12_17, %tmp12_16 : tensor<1x1024x!tt.ptr<bf16>>, tensor<1x1024xi32> loc(#loc191)
      %tmp12_19 = tt.splat %xmask : i1 -> tensor<1x1024xi1> loc(#loc287)
      %tmp12_20 = arith.andi %r0_mask, %tmp12_19 : tensor<1x1024xi1> loc(#loc192)
      %tmp12_21 = tt.load %tmp12_18, %tmp12_20, %cst evictionPolicy = evict_first : tensor<1x1024x!tt.ptr<bf16>> loc(#loc193)
      %tmp12_22 = arith.extf %tmp12_21 : tensor<1x1024xbf16> to tensor<1x1024xf32> loc(#loc194)
      %tmp21 = tt.splat %in_ptr2 : !tt.ptr<bf16> -> tensor<1x1024x!tt.ptr<bf16>> loc(#loc195)
      %tmp21_23 = tt.addptr %tmp21, %r0_index_14 : tensor<1x1024x!tt.ptr<bf16>>, tensor<1x1024xi32> loc(#loc195)
      %tmp21_24 = tt.load %tmp21_23, %r0_mask, %cst evictionPolicy = evict_last : tensor<1x1024x!tt.ptr<bf16>> loc(#loc196)
      %tmp21_25 = arith.extf %tmp21_24 : tensor<1x1024xbf16> to tensor<1x1024xf32> loc(#loc197)
      %tmp23 = tt.splat %in_ptr1 : !tt.ptr<bf16> -> tensor<1x1024x!tt.ptr<bf16>> loc(#loc198)
      %tmp23_26 = tt.addptr %tmp23, %tmp12_16 : tensor<1x1024x!tt.ptr<bf16>>, tensor<1x1024xi32> loc(#loc198)
      %tmp23_27 = tt.load %tmp23_26, %tmp12_20, %cst evictionPolicy = evict_first : tensor<1x1024x!tt.ptr<bf16>> loc(#loc199)
      %tmp23_28 = arith.extf %tmp23_27 : tensor<1x1024xbf16> to tensor<1x1024xf32> loc(#loc200)
      %tmp30 = tt.splat %in_ptr3 : !tt.ptr<bf16> -> tensor<1x1024x!tt.ptr<bf16>> loc(#loc201)
      %tmp30_29 = tt.addptr %tmp30, %r0_index_14 : tensor<1x1024x!tt.ptr<bf16>>, tensor<1x1024xi32> loc(#loc201)
      %tmp30_30 = tt.load %tmp30_29, %r0_mask, %cst evictionPolicy = evict_last : tensor<1x1024x!tt.ptr<bf16>> loc(#loc202)
      %tmp30_31 = arith.extf %tmp30_30 : tensor<1x1024xbf16> to tensor<1x1024xf32> loc(#loc203)
      %tmp15 = arith.divf %tmp4_6, %cst_1 : tensor<1x1xf32> loc(#loc204)
      %tmp17 = arith.addf %tmp15, %cst_0 : tensor<1x1xf32> loc(#loc205)
      %tmp18 = tt.extern_elementwise %tmp17 {libname = "", libpath = "", pure = true, symbol = "__nv_rsqrtf"} : (tensor<1x1xf32>) -> tensor<1x1xf32> loc(#loc206)
      %tmp19 = tt.broadcast %tmp18 : tensor<1x1xf32> -> tensor<1x1024xf32> loc(#loc207)
      %tmp19_32 = arith.mulf %tmp12_22, %tmp19 : tensor<1x1024xf32> loc(#loc207)
      %tmp22 = arith.mulf %tmp19_32, %tmp21_25 : tensor<1x1024xf32> loc(#loc208)
      %tmp25 = arith.divf %tmp10_7, %cst_1 : tensor<1x1xf32> loc(#loc209)
      %tmp26 = arith.addf %tmp25, %cst_0 : tensor<1x1xf32> loc(#loc210)
      %tmp27 = tt.extern_elementwise %tmp26 {libname = "", libpath = "", pure = true, symbol = "__nv_rsqrtf"} : (tensor<1x1xf32>) -> tensor<1x1xf32> loc(#loc211)
      %tmp28 = tt.broadcast %tmp27 : tensor<1x1xf32> -> tensor<1x1024xf32> loc(#loc212)
      %tmp28_33 = arith.mulf %tmp23_28, %tmp28 : tensor<1x1024xf32> loc(#loc212)
      %tmp31 = arith.mulf %tmp28_33, %tmp30_31 : tensor<1x1024xf32> loc(#loc213)
      %tmp32 = arith.addf %tmp22, %tmp31 : tensor<1x1024xf32> loc(#loc214)
      %tmp34 = arith.mulf %tmp32, %tmp32 : tensor<1x1024xf32> loc(#loc215)
      %tmp37 = arith.addf %_tmp36_13, %tmp34 : tensor<1x1024xf32> loc(#loc216)
      %_tmp36_34 = arith.select %tmp12_20, %tmp37, %_tmp36_13 : tensor<1x1024xi1>, tensor<1x1024xf32> loc(#loc217)
      %0 = tt.splat %in_out_ptr0 : !tt.ptr<f32> -> tensor<1x1024x!tt.ptr<f32>> loc(#loc70)
      %1 = tt.addptr %0, %tmp12_16 : tensor<1x1024x!tt.ptr<f32>>, tensor<1x1024xi32> loc(#loc70)
      tt.store %1, %tmp32, %tmp12_20 : tensor<1x1024x!tt.ptr<f32>> loc(#loc71)
      scf.yield %_tmp36_34 : tensor<1x1024xf32> loc(#loc72)
    } loc(#loc186)
    %tmp36 = "tt.reduce"(%_tmp36) <{axis = 1 : i32}> ({
    ^bb0(%tmp36_13: f32 loc(callsite(#loc1 at #loc218)), %tmp36_14: f32 loc(callsite(#loc1 at #loc218))):
      %tmp36_15 = arith.addf %tmp36_13, %tmp36_14 : f32 loc(#loc299)
      tt.reduce.return %tmp36_15 : f32 loc(#loc288)
    }) : (tensor<1x1024xf32>) -> tensor<1xf32> loc(#loc288)
    %tmp36_8 = tt.expand_dims %tmp36 {axis = 1 : i32} : tensor<1xf32> -> tensor<1x1xf32> loc(#loc219)
    %tmp50 = tt.addptr %in_ptr6, %xoffset : !tt.ptr<f32>, i32 loc(#loc220)
    %tmp50_9 = tt.splat %tmp50 : !tt.ptr<f32> -> tensor<1x1x!tt.ptr<f32>> loc(#loc220)
    %tmp50_10 = tt.load %tmp50_9, %xmask_4 evictionPolicy = evict_last : tensor<1x1x!tt.ptr<f32>> loc(#loc221)
    %tmp61 = tt.load %in_ptr9 : !tt.ptr<bf16> loc(#loc222)
    %tmp61_11 = arith.extf %tmp61 : bf16 to f32 loc(#loc223)
    %_tmp67 = scf.for %r0_offset = %c0_i32 to %c2816_i32 step %c1024_i32 iter_args(%_tmp67_13 = %cst_3) -> (tensor<1x1024xf32>)  : i32 {
      %r0_index = tt.splat %r0_offset : i32 -> tensor<1x1024xi32> loc(#loc225)
      %r0_index_14 = arith.addi %r0_index, %r0_base_5 : tensor<1x1024xi32> loc(#loc225)
      %r0_mask = arith.cmpi slt, %r0_index_14, %cst_2 : tensor<1x1024xi32> loc(#loc226)
      %tmp38 = arith.muli %xoffset, %c2816_i32 : i32 loc(#loc227)
      %tmp38_15 = tt.splat %tmp38 : i32 -> tensor<1x1024xi32> loc(#loc290)
      %tmp38_16 = arith.addi %r0_index_14, %tmp38_15 : tensor<1x1024xi32> loc(#loc228)
      %tmp38_17 = tt.splat %in_out_ptr0 : !tt.ptr<f32> -> tensor<1x1024x!tt.ptr<f32>> loc(#loc229)
      %tmp38_18 = tt.addptr %tmp38_17, %tmp38_16 : tensor<1x1024x!tt.ptr<f32>>, tensor<1x1024xi32> loc(#loc229)
      %tmp38_19 = tt.splat %xmask : i1 -> tensor<1x1024xi1> loc(#loc291)
      %tmp38_20 = arith.andi %r0_mask, %tmp38_19 : tensor<1x1024xi1> loc(#loc230)
      %tmp38_21 = tt.load %tmp38_18, %tmp38_20, %cst_3 evictionPolicy = evict_first : tensor<1x1024x!tt.ptr<f32>> loc(#loc231)
      %tmp46 = tt.splat %in_ptr4 : !tt.ptr<bf16> -> tensor<1x1024x!tt.ptr<bf16>> loc(#loc232)
      %tmp46_22 = tt.addptr %tmp46, %r0_index_14 : tensor<1x1024x!tt.ptr<bf16>>, tensor<1x1024xi32> loc(#loc232)
      %tmp46_23 = tt.load %tmp46_22, %r0_mask, %cst evictionPolicy = evict_last : tensor<1x1024x!tt.ptr<bf16>> loc(#loc233)
      %tmp46_24 = arith.extf %tmp46_23 : tensor<1x1024xbf16> to tensor<1x1024xf32> loc(#loc234)
      %tmp48 = tt.splat %in_ptr5 : !tt.ptr<bf16> -> tensor<1x1024x!tt.ptr<bf16>> loc(#loc235)
      %tmp48_25 = tt.addptr %tmp48, %tmp38_16 : tensor<1x1024x!tt.ptr<bf16>>, tensor<1x1024xi32> loc(#loc235)
      %tmp48_26 = tt.load %tmp48_25, %tmp38_20, %cst evictionPolicy = evict_first : tensor<1x1024x!tt.ptr<bf16>> loc(#loc236)
      %tmp48_27 = arith.extf %tmp48_26 : tensor<1x1024xbf16> to tensor<1x1024xf32> loc(#loc237)
      %tmp56 = tt.splat %in_ptr7 : !tt.ptr<bf16> -> tensor<1x1024x!tt.ptr<bf16>> loc(#loc238)
      %tmp56_28 = tt.addptr %tmp56, %r0_index_14 : tensor<1x1024x!tt.ptr<bf16>>, tensor<1x1024xi32> loc(#loc238)
      %tmp56_29 = tt.load %tmp56_28, %r0_mask, %cst evictionPolicy = evict_last : tensor<1x1024x!tt.ptr<bf16>> loc(#loc239)
      %tmp56_30 = arith.extf %tmp56_29 : tensor<1x1024xbf16> to tensor<1x1024xf32> loc(#loc240)
      %tmp58 = tt.splat %in_ptr8 : !tt.ptr<bf16> -> tensor<1x1024x!tt.ptr<bf16>> loc(#loc241)
      %tmp58_31 = tt.addptr %tmp58, %tmp38_16 : tensor<1x1024x!tt.ptr<bf16>>, tensor<1x1024xi32> loc(#loc241)
      %tmp58_32 = tt.load %tmp58_31, %tmp38_20, %cst evictionPolicy = evict_first : tensor<1x1024x!tt.ptr<bf16>> loc(#loc242)
      %tmp58_33 = arith.extf %tmp58_32 : tensor<1x1024xbf16> to tensor<1x1024xf32> loc(#loc243)
      %tmp40 = arith.divf %tmp36_8, %cst_1 : tensor<1x1xf32> loc(#loc244)
      %tmp42 = arith.addf %tmp40, %cst_0 : tensor<1x1xf32> loc(#loc245)
      %tmp43 = tt.extern_elementwise %tmp42 {libname = "", libpath = "", pure = true, symbol = "__nv_rsqrtf"} : (tensor<1x1xf32>) -> tensor<1x1xf32> loc(#loc246)
      %tmp44 = tt.broadcast %tmp43 : tensor<1x1xf32> -> tensor<1x1024xf32> loc(#loc247)
      %tmp44_34 = arith.mulf %tmp38_21, %tmp44 : tensor<1x1024xf32> loc(#loc247)
      %tmp47 = arith.mulf %tmp44_34, %tmp46_24 : tensor<1x1024xf32> loc(#loc248)
      %tmp51 = arith.divf %tmp50_10, %cst_1 : tensor<1x1xf32> loc(#loc249)
      %tmp52 = arith.addf %tmp51, %cst_0 : tensor<1x1xf32> loc(#loc250)
      %tmp53 = tt.extern_elementwise %tmp52 {libname = "", libpath = "", pure = true, symbol = "__nv_rsqrtf"} : (tensor<1x1xf32>) -> tensor<1x1xf32> loc(#loc251)
      %tmp54 = tt.broadcast %tmp53 : tensor<1x1xf32> -> tensor<1x1024xf32> loc(#loc252)
      %tmp54_35 = arith.mulf %tmp48_27, %tmp54 : tensor<1x1024xf32> loc(#loc252)
      %tmp57 = arith.mulf %tmp54_35, %tmp56_30 : tensor<1x1024xf32> loc(#loc253)
      %tmp59 = arith.addf %tmp57, %tmp58_33 : tensor<1x1024xf32> loc(#loc254)
      %tmp60 = arith.addf %tmp47, %tmp59 : tensor<1x1024xf32> loc(#loc255)
      %tmp63 = tt.splat %tmp61_11 : f32 -> tensor<1x1024xf32> loc(#loc292)
      %tmp63_36 = arith.mulf %tmp60, %tmp63 : tensor<1x1024xf32> loc(#loc256)
      %tmp65 = arith.mulf %tmp63_36, %tmp63_36 : tensor<1x1024xf32> loc(#loc258)
      %tmp68 = arith.addf %_tmp67_13, %tmp65 : tensor<1x1024xf32> loc(#loc259)
      %_tmp67_37 = arith.select %tmp38_20, %tmp68, %_tmp67_13 : tensor<1x1024xi1>, tensor<1x1024xf32> loc(#loc260)
      tt.store %tmp38_18, %tmp63_36, %tmp38_20 : tensor<1x1024x!tt.ptr<f32>> loc(#loc116)
      scf.yield %_tmp67_37 : tensor<1x1024xf32> loc(#loc117)
    } loc(#loc224)
    %tmp67 = "tt.reduce"(%_tmp67) <{axis = 1 : i32}> ({
    ^bb0(%tmp67_13: f32 loc(callsite(#loc1 at #loc261)), %tmp67_14: f32 loc(callsite(#loc1 at #loc261))):
      %tmp67_15 = arith.addf %tmp67_13, %tmp67_14 : f32 loc(#loc300)
      tt.reduce.return %tmp67_15 : f32 loc(#loc293)
    }) : (tensor<1x1024xf32>) -> tensor<1xf32> loc(#loc293)
    %tmp67_12 = tt.expand_dims %tmp67 {axis = 1 : i32} : tensor<1xf32> -> tensor<1x1xf32> loc(#loc262)
    scf.for %r0_offset = %c0_i32 to %c2816_i32 step %c1024_i32  : i32 {
      %r0_index = tt.splat %r0_offset : i32 -> tensor<1x1024xi32> loc(#loc263)
      %r0_index_13 = arith.addi %r0_index, %r0_base_5 : tensor<1x1024xi32> loc(#loc263)
      %r0_mask = arith.cmpi slt, %r0_index_13, %cst_2 : tensor<1x1024xi32> loc(#loc264)
      %tmp69 = arith.muli %xoffset, %c2816_i32 : i32 loc(#loc265)
      %tmp69_14 = tt.splat %tmp69 : i32 -> tensor<1x1024xi32> loc(#loc295)
      %tmp69_15 = arith.addi %r0_index_13, %tmp69_14 : tensor<1x1024xi32> loc(#loc266)
      %tmp69_16 = tt.splat %in_out_ptr0 : !tt.ptr<f32> -> tensor<1x1024x!tt.ptr<f32>> loc(#loc267)
      %tmp69_17 = tt.addptr %tmp69_16, %tmp69_15 : tensor<1x1024x!tt.ptr<f32>>, tensor<1x1024xi32> loc(#loc267)
      %tmp69_18 = tt.splat %xmask : i1 -> tensor<1x1024xi1> loc(#loc296)
      %tmp69_19 = arith.andi %r0_mask, %tmp69_18 : tensor<1x1024xi1> loc(#loc268)
      %tmp69_20 = tt.load %tmp69_17, %tmp69_19, %cst_3 evictionPolicy = evict_first : tensor<1x1024x!tt.ptr<f32>> loc(#loc269)
      %tmp77 = tt.splat %in_ptr10 : !tt.ptr<bf16> -> tensor<1x1024x!tt.ptr<bf16>> loc(#loc270)
      %tmp77_21 = tt.addptr %tmp77, %r0_index_13 : tensor<1x1024x!tt.ptr<bf16>>, tensor<1x1024xi32> loc(#loc270)
      %tmp77_22 = tt.load %tmp77_21, %r0_mask, %cst evictionPolicy = evict_last : tensor<1x1024x!tt.ptr<bf16>> loc(#loc271)
      %tmp77_23 = arith.extf %tmp77_22 : tensor<1x1024xbf16> to tensor<1x1024xf32> loc(#loc272)
      %tmp71 = arith.divf %tmp67_12, %cst_1 : tensor<1x1xf32> loc(#loc273)
      %tmp73 = arith.addf %tmp71, %cst_0 : tensor<1x1xf32> loc(#loc274)
      %tmp74 = tt.extern_elementwise %tmp73 {libname = "", libpath = "", pure = true, symbol = "__nv_rsqrtf"} : (tensor<1x1xf32>) -> tensor<1x1xf32> loc(#loc275)
      %tmp75 = tt.broadcast %tmp74 : tensor<1x1xf32> -> tensor<1x1024xf32> loc(#loc276)
      %tmp75_24 = arith.mulf %tmp69_20, %tmp75 : tensor<1x1024xf32> loc(#loc276)
      %tmp78 = arith.mulf %tmp75_24, %tmp77_23 : tensor<1x1024xf32> loc(#loc277)
      %0 = tt.splat %out_ptr4 : !tt.ptr<bf16> -> tensor<1x1024x!tt.ptr<bf16>> loc(#loc136)
      %1 = tt.addptr %0, %tmp69_15 : tensor<1x1024x!tt.ptr<bf16>>, tensor<1x1024xi32> loc(#loc136)
      %2 = arith.truncf %tmp78 : tensor<1x1024xf32> to tensor<1x1024xbf16> loc(#loc137)
      tt.store %1, %2, %tmp69_19 : tensor<1x1024x!tt.ptr<bf16>> loc(#loc137)
    } loc(#loc120)
    tt.return loc(#loc138)
  } loc(#loc)
} loc(#loc)
#loc2 = loc("/home/ericbuehler/.cache/vllm/torch_compile_cache/torch_aot_compile/90537ea14f244a5187d6ecc853fbadcf440d710f29c8e182fe8151f3f7751a82/inductor_cache/dr/cdr4qpo4fss24kvhp6mumlmsmgyamgbqkc3qnbb4fskat3blnler.py":22:28)
#loc3 = loc("/home/ericbuehler/.cache/vllm/torch_compile_cache/torch_aot_compile/90537ea14f244a5187d6ecc853fbadcf440d710f29c8e182fe8151f3f7751a82/inductor_cache/dr/cdr4qpo4fss24kvhp6mumlmsmgyamgbqkc3qnbb4fskat3blnler.py":24:21)
#loc4 = loc("/home/ericbuehler/.cache/vllm/torch_compile_cache/torch_aot_compile/90537ea14f244a5187d6ecc853fbadcf440d710f29c8e182fe8151f3f7751a82/inductor_cache/dr/cdr4qpo4fss24kvhp6mumlmsmgyamgbqkc3qnbb4fskat3blnler.py":25:27)
#loc5 = loc("/home/ericbuehler/.cache/vllm/torch_compile_cache/torch_aot_compile/90537ea14f244a5187d6ecc853fbadcf440d710f29c8e182fe8151f3f7751a82/inductor_cache/dr/cdr4qpo4fss24kvhp6mumlmsmgyamgbqkc3qnbb4fskat3blnler.py":25:37)
#loc6 = loc("/home/ericbuehler/.cache/vllm/torch_compile_cache/torch_aot_compile/90537ea14f244a5187d6ecc853fbadcf440d710f29c8e182fe8151f3f7751a82/inductor_cache/dr/cdr4qpo4fss24kvhp6mumlmsmgyamgbqkc3qnbb4fskat3blnler.py":29:43)
#loc7 = loc("/home/ericbuehler/.cache/vllm/torch_compile_cache/torch_aot_compile/90537ea14f244a5187d6ecc853fbadcf440d710f29c8e182fe8151f3f7751a82/inductor_cache/dr/cdr4qpo4fss24kvhp6mumlmsmgyamgbqkc3qnbb4fskat3blnler.py":30:31)
#loc8 = loc("/home/ericbuehler/.cache/vllm/torch_compile_cache/torch_aot_compile/90537ea14f244a5187d6ecc853fbadcf440d710f29c8e182fe8151f3f7751a82/inductor_cache/dr/cdr4qpo4fss24kvhp6mumlmsmgyamgbqkc3qnbb4fskat3blnler.py":31:29)
#loc9 = loc("/home/ericbuehler/.cache/vllm/torch_compile_cache/torch_aot_compile/90537ea14f244a5187d6ecc853fbadcf440d710f29c8e182fe8151f3f7751a82/inductor_cache/dr/cdr4qpo4fss24kvhp6mumlmsmgyamgbqkc3qnbb4fskat3blnler.py":35:46)
#loc10 = loc("/home/ericbuehler/.cache/vllm/torch_compile_cache/torch_aot_compile/90537ea14f244a5187d6ecc853fbadcf440d710f29c8e182fe8151f3f7751a82/inductor_cache/dr/cdr4qpo4fss24kvhp6mumlmsmgyamgbqkc3qnbb4fskat3blnler.py":35:41)
#loc11 = loc("/home/ericbuehler/.cache/vllm/torch_compile_cache/torch_aot_compile/90537ea14f244a5187d6ecc853fbadcf440d710f29c8e182fe8151f3f7751a82/inductor_cache/dr/cdr4qpo4fss24kvhp6mumlmsmgyamgbqkc3qnbb4fskat3blnler.py":35:34)
#loc12 = loc("/home/ericbuehler/.cache/vllm/torch_compile_cache/torch_aot_compile/90537ea14f244a5187d6ecc853fbadcf440d710f29c8e182fe8151f3f7751a82/inductor_cache/dr/cdr4qpo4fss24kvhp6mumlmsmgyamgbqkc3qnbb4fskat3blnler.py":35:61)
#loc13 = loc("/home/ericbuehler/.cache/vllm/torch_compile_cache/torch_aot_compile/90537ea14f244a5187d6ecc853fbadcf440d710f29c8e182fe8151f3f7751a82/inductor_cache/dr/cdr4qpo4fss24kvhp6mumlmsmgyamgbqkc3qnbb4fskat3blnler.py":35:51)
#loc14 = loc("/home/ericbuehler/.cache/vllm/torch_compile_cache/torch_aot_compile/90537ea14f244a5187d6ecc853fbadcf440d710f29c8e182fe8151f3f7751a82/inductor_cache/dr/cdr4qpo4fss24kvhp6mumlmsmgyamgbqkc3qnbb4fskat3blnler.py":35:112)
#loc15 = loc("/home/ericbuehler/.cache/vllm/torch_compile_cache/torch_aot_compile/90537ea14f244a5187d6ecc853fbadcf440d710f29c8e182fe8151f3f7751a82/inductor_cache/dr/cdr4qpo4fss24kvhp6mumlmsmgyamgbqkc3qnbb4fskat3blnler.py":37:22)
#loc16 = loc("/home/ericbuehler/.cache/vllm/torch_compile_cache/torch_aot_compile/90537ea14f244a5187d6ecc853fbadcf440d710f29c8e182fe8151f3f7751a82/inductor_cache/dr/cdr4qpo4fss24kvhp6mumlmsmgyamgbqkc3qnbb4fskat3blnler.py":39:23)
#loc17 = loc("/home/ericbuehler/.cache/vllm/torch_compile_cache/torch_aot_compile/90537ea14f244a5187d6ecc853fbadcf440d710f29c8e182fe8151f3f7751a82/inductor_cache/dr/cdr4qpo4fss24kvhp6mumlmsmgyamgbqkc3qnbb4fskat3blnler.py":40:48)
#loc18 = loc("/home/ericbuehler/.cache/vllm/torch_compile_cache/torch_aot_compile/90537ea14f244a5187d6ecc853fbadcf440d710f29c8e182fe8151f3f7751a82/inductor_cache/dr/cdr4qpo4fss24kvhp6mumlmsmgyamgbqkc3qnbb4fskat3blnler.py":40:8)
#loc19 = loc("/home/ericbuehler/vllm/.venv-bench/lib/python3.12/site-packages/triton/language/standard.py":293:36)
#loc21 = loc("/home/ericbuehler/vllm/.venv-bench/lib/python3.12/site-packages/triton/language/standard.py":263:15)
#loc22 = loc("/home/ericbuehler/.cache/vllm/torch_compile_cache/torch_aot_compile/90537ea14f244a5187d6ecc853fbadcf440d710f29c8e182fe8151f3f7751a82/inductor_cache/dr/cdr4qpo4fss24kvhp6mumlmsmgyamgbqkc3qnbb4fskat3blnler.py":41:28)
#loc23 = loc("/home/ericbuehler/.cache/vllm/torch_compile_cache/torch_aot_compile/90537ea14f244a5187d6ecc853fbadcf440d710f29c8e182fe8151f3f7751a82/inductor_cache/dr/cdr4qpo4fss24kvhp6mumlmsmgyamgbqkc3qnbb4fskat3blnler.py":43:43)
#loc24 = loc("/home/ericbuehler/.cache/vllm/torch_compile_cache/torch_aot_compile/90537ea14f244a5187d6ecc853fbadcf440d710f29c8e182fe8151f3f7751a82/inductor_cache/dr/cdr4qpo4fss24kvhp6mumlmsmgyamgbqkc3qnbb4fskat3blnler.py":44:31)
#loc25 = loc("/home/ericbuehler/.cache/vllm/torch_compile_cache/torch_aot_compile/90537ea14f244a5187d6ecc853fbadcf440d710f29c8e182fe8151f3f7751a82/inductor_cache/dr/cdr4qpo4fss24kvhp6mumlmsmgyamgbqkc3qnbb4fskat3blnler.py":45:29)
#loc26 = loc("/home/ericbuehler/.cache/vllm/torch_compile_cache/torch_aot_compile/90537ea14f244a5187d6ecc853fbadcf440d710f29c8e182fe8151f3f7751a82/inductor_cache/dr/cdr4qpo4fss24kvhp6mumlmsmgyamgbqkc3qnbb4fskat3blnler.py":49:46)
#loc27 = loc("/home/ericbuehler/.cache/vllm/torch_compile_cache/torch_aot_compile/90537ea14f244a5187d6ecc853fbadcf440d710f29c8e182fe8151f3f7751a82/inductor_cache/dr/cdr4qpo4fss24kvhp6mumlmsmgyamgbqkc3qnbb4fskat3blnler.py":49:41)
#loc28 = loc("/home/ericbuehler/.cache/vllm/torch_compile_cache/torch_aot_compile/90537ea14f244a5187d6ecc853fbadcf440d710f29c8e182fe8151f3f7751a82/inductor_cache/dr/cdr4qpo4fss24kvhp6mumlmsmgyamgbqkc3qnbb4fskat3blnler.py":49:34)
#loc29 = loc("/home/ericbuehler/.cache/vllm/torch_compile_cache/torch_aot_compile/90537ea14f244a5187d6ecc853fbadcf440d710f29c8e182fe8151f3f7751a82/inductor_cache/dr/cdr4qpo4fss24kvhp6mumlmsmgyamgbqkc3qnbb4fskat3blnler.py":49:61)
#loc30 = loc("/home/ericbuehler/.cache/vllm/torch_compile_cache/torch_aot_compile/90537ea14f244a5187d6ecc853fbadcf440d710f29c8e182fe8151f3f7751a82/inductor_cache/dr/cdr4qpo4fss24kvhp6mumlmsmgyamgbqkc3qnbb4fskat3blnler.py":49:51)
#loc31 = loc("/home/ericbuehler/.cache/vllm/torch_compile_cache/torch_aot_compile/90537ea14f244a5187d6ecc853fbadcf440d710f29c8e182fe8151f3f7751a82/inductor_cache/dr/cdr4qpo4fss24kvhp6mumlmsmgyamgbqkc3qnbb4fskat3blnler.py":49:112)
#loc32 = loc("/home/ericbuehler/.cache/vllm/torch_compile_cache/torch_aot_compile/90537ea14f244a5187d6ecc853fbadcf440d710f29c8e182fe8151f3f7751a82/inductor_cache/dr/cdr4qpo4fss24kvhp6mumlmsmgyamgbqkc3qnbb4fskat3blnler.py":51:22)
#loc33 = loc("/home/ericbuehler/.cache/vllm/torch_compile_cache/torch_aot_compile/90537ea14f244a5187d6ecc853fbadcf440d710f29c8e182fe8151f3f7751a82/inductor_cache/dr/cdr4qpo4fss24kvhp6mumlmsmgyamgbqkc3qnbb4fskat3blnler.py":53:25)
#loc34 = loc("/home/ericbuehler/.cache/vllm/torch_compile_cache/torch_aot_compile/90537ea14f244a5187d6ecc853fbadcf440d710f29c8e182fe8151f3f7751a82/inductor_cache/dr/cdr4qpo4fss24kvhp6mumlmsmgyamgbqkc3qnbb4fskat3blnler.py":54:50)
#loc35 = loc("/home/ericbuehler/.cache/vllm/torch_compile_cache/torch_aot_compile/90537ea14f244a5187d6ecc853fbadcf440d710f29c8e182fe8151f3f7751a82/inductor_cache/dr/cdr4qpo4fss24kvhp6mumlmsmgyamgbqkc3qnbb4fskat3blnler.py":54:8)
#loc37 = loc("/home/ericbuehler/.cache/vllm/torch_compile_cache/torch_aot_compile/90537ea14f244a5187d6ecc853fbadcf440d710f29c8e182fe8151f3f7751a82/inductor_cache/dr/cdr4qpo4fss24kvhp6mumlmsmgyamgbqkc3qnbb4fskat3blnler.py":55:30)
#loc38 = loc("/home/ericbuehler/.cache/vllm/torch_compile_cache/torch_aot_compile/90537ea14f244a5187d6ecc853fbadcf440d710f29c8e182fe8151f3f7751a82/inductor_cache/dr/cdr4qpo4fss24kvhp6mumlmsmgyamgbqkc3qnbb4fskat3blnler.py":57:43)
#loc39 = loc("/home/ericbuehler/.cache/vllm/torch_compile_cache/torch_aot_compile/90537ea14f244a5187d6ecc853fbadcf440d710f29c8e182fe8151f3f7751a82/inductor_cache/dr/cdr4qpo4fss24kvhp6mumlmsmgyamgbqkc3qnbb4fskat3blnler.py":58:31)
#loc40 = loc("/home/ericbuehler/.cache/vllm/torch_compile_cache/torch_aot_compile/90537ea14f244a5187d6ecc853fbadcf440d710f29c8e182fe8151f3f7751a82/inductor_cache/dr/cdr4qpo4fss24kvhp6mumlmsmgyamgbqkc3qnbb4fskat3blnler.py":59:29)
#loc41 = loc("/home/ericbuehler/.cache/vllm/torch_compile_cache/torch_aot_compile/90537ea14f244a5187d6ecc853fbadcf440d710f29c8e182fe8151f3f7751a82/inductor_cache/dr/cdr4qpo4fss24kvhp6mumlmsmgyamgbqkc3qnbb4fskat3blnler.py":63:47)
#loc42 = loc("/home/ericbuehler/.cache/vllm/torch_compile_cache/torch_aot_compile/90537ea14f244a5187d6ecc853fbadcf440d710f29c8e182fe8151f3f7751a82/inductor_cache/dr/cdr4qpo4fss24kvhp6mumlmsmgyamgbqkc3qnbb4fskat3blnler.py":63:42)
#loc43 = loc("/home/ericbuehler/.cache/vllm/torch_compile_cache/torch_aot_compile/90537ea14f244a5187d6ecc853fbadcf440d710f29c8e182fe8151f3f7751a82/inductor_cache/dr/cdr4qpo4fss24kvhp6mumlmsmgyamgbqkc3qnbb4fskat3blnler.py":63:35)
#loc44 = loc("/home/ericbuehler/.cache/vllm/torch_compile_cache/torch_aot_compile/90537ea14f244a5187d6ecc853fbadcf440d710f29c8e182fe8151f3f7751a82/inductor_cache/dr/cdr4qpo4fss24kvhp6mumlmsmgyamgbqkc3qnbb4fskat3blnler.py":63:62)
#loc45 = loc("/home/ericbuehler/.cache/vllm/torch_compile_cache/torch_aot_compile/90537ea14f244a5187d6ecc853fbadcf440d710f29c8e182fe8151f3f7751a82/inductor_cache/dr/cdr4qpo4fss24kvhp6mumlmsmgyamgbqkc3qnbb4fskat3blnler.py":63:52)
#loc46 = loc("/home/ericbuehler/.cache/vllm/torch_compile_cache/torch_aot_compile/90537ea14f244a5187d6ecc853fbadcf440d710f29c8e182fe8151f3f7751a82/inductor_cache/dr/cdr4qpo4fss24kvhp6mumlmsmgyamgbqkc3qnbb4fskat3blnler.py":63:114)
#loc47 = loc("/home/ericbuehler/.cache/vllm/torch_compile_cache/torch_aot_compile/90537ea14f244a5187d6ecc853fbadcf440d710f29c8e182fe8151f3f7751a82/inductor_cache/dr/cdr4qpo4fss24kvhp6mumlmsmgyamgbqkc3qnbb4fskat3blnler.py":64:35)
#loc48 = loc("/home/ericbuehler/.cache/vllm/torch_compile_cache/torch_aot_compile/90537ea14f244a5187d6ecc853fbadcf440d710f29c8e182fe8151f3f7751a82/inductor_cache/dr/cdr4qpo4fss24kvhp6mumlmsmgyamgbqkc3qnbb4fskat3blnler.py":64:42)
#loc49 = loc("/home/ericbuehler/.cache/vllm/torch_compile_cache/torch_aot_compile/90537ea14f244a5187d6ecc853fbadcf440d710f29c8e182fe8151f3f7751a82/inductor_cache/dr/cdr4qpo4fss24kvhp6mumlmsmgyamgbqkc3qnbb4fskat3blnler.py":64:95)
#loc50 = loc("/home/ericbuehler/.cache/vllm/torch_compile_cache/torch_aot_compile/90537ea14f244a5187d6ecc853fbadcf440d710f29c8e182fe8151f3f7751a82/inductor_cache/dr/cdr4qpo4fss24kvhp6mumlmsmgyamgbqkc3qnbb4fskat3blnler.py":65:35)
#loc51 = loc("/home/ericbuehler/.cache/vllm/torch_compile_cache/torch_aot_compile/90537ea14f244a5187d6ecc853fbadcf440d710f29c8e182fe8151f3f7751a82/inductor_cache/dr/cdr4qpo4fss24kvhp6mumlmsmgyamgbqkc3qnbb4fskat3blnler.py":65:52)
#loc52 = loc("/home/ericbuehler/.cache/vllm/torch_compile_cache/torch_aot_compile/90537ea14f244a5187d6ecc853fbadcf440d710f29c8e182fe8151f3f7751a82/inductor_cache/dr/cdr4qpo4fss24kvhp6mumlmsmgyamgbqkc3qnbb4fskat3blnler.py":65:114)
#loc53 = loc("/home/ericbuehler/.cache/vllm/torch_compile_cache/torch_aot_compile/90537ea14f244a5187d6ecc853fbadcf440d710f29c8e182fe8151f3f7751a82/inductor_cache/dr/cdr4qpo4fss24kvhp6mumlmsmgyamgbqkc3qnbb4fskat3blnler.py":66:35)
#loc54 = loc("/home/ericbuehler/.cache/vllm/torch_compile_cache/torch_aot_compile/90537ea14f244a5187d6ecc853fbadcf440d710f29c8e182fe8151f3f7751a82/inductor_cache/dr/cdr4qpo4fss24kvhp6mumlmsmgyamgbqkc3qnbb4fskat3blnler.py":66:42)
#loc55 = loc("/home/ericbuehler/.cache/vllm/torch_compile_cache/torch_aot_compile/90537ea14f244a5187d6ecc853fbadcf440d710f29c8e182fe8151f3f7751a82/inductor_cache/dr/cdr4qpo4fss24kvhp6mumlmsmgyamgbqkc3qnbb4fskat3blnler.py":66:95)
#loc56 = loc("/home/ericbuehler/.cache/vllm/torch_compile_cache/torch_aot_compile/90537ea14f244a5187d6ecc853fbadcf440d710f29c8e182fe8151f3f7751a82/inductor_cache/dr/cdr4qpo4fss24kvhp6mumlmsmgyamgbqkc3qnbb4fskat3blnler.py":69:24)
#loc57 = loc("/home/ericbuehler/.cache/vllm/torch_compile_cache/torch_aot_compile/90537ea14f244a5187d6ecc853fbadcf440d710f29c8e182fe8151f3f7751a82/inductor_cache/dr/cdr4qpo4fss24kvhp6mumlmsmgyamgbqkc3qnbb4fskat3blnler.py":71:24)
#loc58 = loc("/home/ericbuehler/.cache/vllm/torch_compile_cache/torch_aot_compile/90537ea14f244a5187d6ecc853fbadcf440d710f29c8e182fe8151f3f7751a82/inductor_cache/dr/cdr4qpo4fss24kvhp6mumlmsmgyamgbqkc3qnbb4fskat3blnler.py":72:32)
#loc59 = loc("/home/ericbuehler/.cache/vllm/torch_compile_cache/torch_aot_compile/90537ea14f244a5187d6ecc853fbadcf440d710f29c8e182fe8151f3f7751a82/inductor_cache/dr/cdr4qpo4fss24kvhp6mumlmsmgyamgbqkc3qnbb4fskat3blnler.py":73:24)
#loc60 = loc("/home/ericbuehler/.cache/vllm/torch_compile_cache/torch_aot_compile/90537ea14f244a5187d6ecc853fbadcf440d710f29c8e182fe8151f3f7751a82/inductor_cache/dr/cdr4qpo4fss24kvhp6mumlmsmgyamgbqkc3qnbb4fskat3blnler.py":75:24)
#loc61 = loc("/home/ericbuehler/.cache/vllm/torch_compile_cache/torch_aot_compile/90537ea14f244a5187d6ecc853fbadcf440d710f29c8e182fe8151f3f7751a82/inductor_cache/dr/cdr4qpo4fss24kvhp6mumlmsmgyamgbqkc3qnbb4fskat3blnler.py":77:25)
#loc62 = loc("/home/ericbuehler/.cache/vllm/torch_compile_cache/torch_aot_compile/90537ea14f244a5187d6ecc853fbadcf440d710f29c8e182fe8151f3f7751a82/inductor_cache/dr/cdr4qpo4fss24kvhp6mumlmsmgyamgbqkc3qnbb4fskat3blnler.py":78:24)
#loc63 = loc("/home/ericbuehler/.cache/vllm/torch_compile_cache/torch_aot_compile/90537ea14f244a5187d6ecc853fbadcf440d710f29c8e182fe8151f3f7751a82/inductor_cache/dr/cdr4qpo4fss24kvhp6mumlmsmgyamgbqkc3qnbb4fskat3blnler.py":79:32)
#loc64 = loc("/home/ericbuehler/.cache/vllm/torch_compile_cache/torch_aot_compile/90537ea14f244a5187d6ecc853fbadcf440d710f29c8e182fe8151f3f7751a82/inductor_cache/dr/cdr4qpo4fss24kvhp6mumlmsmgyamgbqkc3qnbb4fskat3blnler.py":80:24)
#loc65 = loc("/home/ericbuehler/.cache/vllm/torch_compile_cache/torch_aot_compile/90537ea14f244a5187d6ecc853fbadcf440d710f29c8e182fe8151f3f7751a82/inductor_cache/dr/cdr4qpo4fss24kvhp6mumlmsmgyamgbqkc3qnbb4fskat3blnler.py":82:24)
#loc66 = loc("/home/ericbuehler/.cache/vllm/torch_compile_cache/torch_aot_compile/90537ea14f244a5187d6ecc853fbadcf440d710f29c8e182fe8151f3f7751a82/inductor_cache/dr/cdr4qpo4fss24kvhp6mumlmsmgyamgbqkc3qnbb4fskat3blnler.py":83:24)
#loc67 = loc("/home/ericbuehler/.cache/vllm/torch_compile_cache/torch_aot_compile/90537ea14f244a5187d6ecc853fbadcf440d710f29c8e182fe8151f3f7751a82/inductor_cache/dr/cdr4qpo4fss24kvhp6mumlmsmgyamgbqkc3qnbb4fskat3blnler.py":85:24)
#loc68 = loc("/home/ericbuehler/.cache/vllm/torch_compile_cache/torch_aot_compile/90537ea14f244a5187d6ecc853fbadcf440d710f29c8e182fe8151f3f7751a82/inductor_cache/dr/cdr4qpo4fss24kvhp6mumlmsmgyamgbqkc3qnbb4fskat3blnler.py":87:25)
#loc69 = loc("/home/ericbuehler/.cache/vllm/torch_compile_cache/torch_aot_compile/90537ea14f244a5187d6ecc853fbadcf440d710f29c8e182fe8151f3f7751a82/inductor_cache/dr/cdr4qpo4fss24kvhp6mumlmsmgyamgbqkc3qnbb4fskat3blnler.py":88:50)
#loc70 = loc("/home/ericbuehler/.cache/vllm/torch_compile_cache/torch_aot_compile/90537ea14f244a5187d6ecc853fbadcf440d710f29c8e182fe8151f3f7751a82/inductor_cache/dr/cdr4qpo4fss24kvhp6mumlmsmgyamgbqkc3qnbb4fskat3blnler.py":89:32)
#loc71 = loc("/home/ericbuehler/.cache/vllm/torch_compile_cache/torch_aot_compile/90537ea14f244a5187d6ecc853fbadcf440d710f29c8e182fe8151f3f7751a82/inductor_cache/dr/cdr4qpo4fss24kvhp6mumlmsmgyamgbqkc3qnbb4fskat3blnler.py":89:56)
#loc72 = loc("/home/ericbuehler/.cache/vllm/torch_compile_cache/torch_aot_compile/90537ea14f244a5187d6ecc853fbadcf440d710f29c8e182fe8151f3f7751a82/inductor_cache/dr/cdr4qpo4fss24kvhp6mumlmsmgyamgbqkc3qnbb4fskat3blnler.py":89:8)
#loc74 = loc("/home/ericbuehler/.cache/vllm/torch_compile_cache/torch_aot_compile/90537ea14f244a5187d6ecc853fbadcf440d710f29c8e182fe8151f3f7751a82/inductor_cache/dr/cdr4qpo4fss24kvhp6mumlmsmgyamgbqkc3qnbb4fskat3blnler.py":90:30)
#loc75 = loc("/home/ericbuehler/.cache/vllm/torch_compile_cache/torch_aot_compile/90537ea14f244a5187d6ecc853fbadcf440d710f29c8e182fe8151f3f7751a82/inductor_cache/dr/cdr4qpo4fss24kvhp6mumlmsmgyamgbqkc3qnbb4fskat3blnler.py":91:31)
#loc76 = loc("/home/ericbuehler/.cache/vllm/torch_compile_cache/torch_aot_compile/90537ea14f244a5187d6ecc853fbadcf440d710f29c8e182fe8151f3f7751a82/inductor_cache/dr/cdr4qpo4fss24kvhp6mumlmsmgyamgbqkc3qnbb4fskat3blnler.py":91:36)
#loc77 = loc("/home/ericbuehler/.cache/vllm/torch_compile_cache/torch_aot_compile/90537ea14f244a5187d6ecc853fbadcf440d710f29c8e182fe8151f3f7751a82/inductor_cache/dr/cdr4qpo4fss24kvhp6mumlmsmgyamgbqkc3qnbb4fskat3blnler.py":92:20)
#loc78 = loc("/home/ericbuehler/.cache/vllm/torch_compile_cache/torch_aot_compile/90537ea14f244a5187d6ecc853fbadcf440d710f29c8e182fe8151f3f7751a82/inductor_cache/dr/cdr4qpo4fss24kvhp6mumlmsmgyamgbqkc3qnbb4fskat3blnler.py":92:38)
#loc79 = loc("/home/ericbuehler/.cache/vllm/torch_compile_cache/torch_aot_compile/90537ea14f244a5187d6ecc853fbadcf440d710f29c8e182fe8151f3f7751a82/inductor_cache/dr/cdr4qpo4fss24kvhp6mumlmsmgyamgbqkc3qnbb4fskat3blnler.py":95:43)
#loc80 = loc("/home/ericbuehler/.cache/vllm/torch_compile_cache/torch_aot_compile/90537ea14f244a5187d6ecc853fbadcf440d710f29c8e182fe8151f3f7751a82/inductor_cache/dr/cdr4qpo4fss24kvhp6mumlmsmgyamgbqkc3qnbb4fskat3blnler.py":96:31)
#loc81 = loc("/home/ericbuehler/.cache/vllm/torch_compile_cache/torch_aot_compile/90537ea14f244a5187d6ecc853fbadcf440d710f29c8e182fe8151f3f7751a82/inductor_cache/dr/cdr4qpo4fss24kvhp6mumlmsmgyamgbqkc3qnbb4fskat3blnler.py":97:29)
#loc82 = loc("/home/ericbuehler/.cache/vllm/torch_compile_cache/torch_aot_compile/90537ea14f244a5187d6ecc853fbadcf440d710f29c8e182fe8151f3f7751a82/inductor_cache/dr/cdr4qpo4fss24kvhp6mumlmsmgyamgbqkc3qnbb4fskat3blnler.py":101:51)
#loc83 = loc("/home/ericbuehler/.cache/vllm/torch_compile_cache/torch_aot_compile/90537ea14f244a5187d6ecc853fbadcf440d710f29c8e182fe8151f3f7751a82/inductor_cache/dr/cdr4qpo4fss24kvhp6mumlmsmgyamgbqkc3qnbb4fskat3blnler.py":101:46)
#loc84 = loc("/home/ericbuehler/.cache/vllm/torch_compile_cache/torch_aot_compile/90537ea14f244a5187d6ecc853fbadcf440d710f29c8e182fe8151f3f7751a82/inductor_cache/dr/cdr4qpo4fss24kvhp6mumlmsmgyamgbqkc3qnbb4fskat3blnler.py":101:39)
#loc85 = loc("/home/ericbuehler/.cache/vllm/torch_compile_cache/torch_aot_compile/90537ea14f244a5187d6ecc853fbadcf440d710f29c8e182fe8151f3f7751a82/inductor_cache/dr/cdr4qpo4fss24kvhp6mumlmsmgyamgbqkc3qnbb4fskat3blnler.py":101:66)
#loc86 = loc("/home/ericbuehler/.cache/vllm/torch_compile_cache/torch_aot_compile/90537ea14f244a5187d6ecc853fbadcf440d710f29c8e182fe8151f3f7751a82/inductor_cache/dr/cdr4qpo4fss24kvhp6mumlmsmgyamgbqkc3qnbb4fskat3blnler.py":101:56)
#loc87 = loc("/home/ericbuehler/.cache/vllm/torch_compile_cache/torch_aot_compile/90537ea14f244a5187d6ecc853fbadcf440d710f29c8e182fe8151f3f7751a82/inductor_cache/dr/cdr4qpo4fss24kvhp6mumlmsmgyamgbqkc3qnbb4fskat3blnler.py":102:35)
#loc88 = loc("/home/ericbuehler/.cache/vllm/torch_compile_cache/torch_aot_compile/90537ea14f244a5187d6ecc853fbadcf440d710f29c8e182fe8151f3f7751a82/inductor_cache/dr/cdr4qpo4fss24kvhp6mumlmsmgyamgbqkc3qnbb4fskat3blnler.py":102:42)
#loc89 = loc("/home/ericbuehler/.cache/vllm/torch_compile_cache/torch_aot_compile/90537ea14f244a5187d6ecc853fbadcf440d710f29c8e182fe8151f3f7751a82/inductor_cache/dr/cdr4qpo4fss24kvhp6mumlmsmgyamgbqkc3qnbb4fskat3blnler.py":102:95)
#loc90 = loc("/home/ericbuehler/.cache/vllm/torch_compile_cache/torch_aot_compile/90537ea14f244a5187d6ecc853fbadcf440d710f29c8e182fe8151f3f7751a82/inductor_cache/dr/cdr4qpo4fss24kvhp6mumlmsmgyamgbqkc3qnbb4fskat3blnler.py":103:35)
#loc91 = loc("/home/ericbuehler/.cache/vllm/torch_compile_cache/torch_aot_compile/90537ea14f244a5187d6ecc853fbadcf440d710f29c8e182fe8151f3f7751a82/inductor_cache/dr/cdr4qpo4fss24kvhp6mumlmsmgyamgbqkc3qnbb4fskat3blnler.py":103:52)
#loc92 = loc("/home/ericbuehler/.cache/vllm/torch_compile_cache/torch_aot_compile/90537ea14f244a5187d6ecc853fbadcf440d710f29c8e182fe8151f3f7751a82/inductor_cache/dr/cdr4qpo4fss24kvhp6mumlmsmgyamgbqkc3qnbb4fskat3blnler.py":103:114)
#loc93 = loc("/home/ericbuehler/.cache/vllm/torch_compile_cache/torch_aot_compile/90537ea14f244a5187d6ecc853fbadcf440d710f29c8e182fe8151f3f7751a82/inductor_cache/dr/cdr4qpo4fss24kvhp6mumlmsmgyamgbqkc3qnbb4fskat3blnler.py":104:35)
#loc94 = loc("/home/ericbuehler/.cache/vllm/torch_compile_cache/torch_aot_compile/90537ea14f244a5187d6ecc853fbadcf440d710f29c8e182fe8151f3f7751a82/inductor_cache/dr/cdr4qpo4fss24kvhp6mumlmsmgyamgbqkc3qnbb4fskat3blnler.py":104:42)
#loc95 = loc("/home/ericbuehler/.cache/vllm/torch_compile_cache/torch_aot_compile/90537ea14f244a5187d6ecc853fbadcf440d710f29c8e182fe8151f3f7751a82/inductor_cache/dr/cdr4qpo4fss24kvhp6mumlmsmgyamgbqkc3qnbb4fskat3blnler.py":104:95)
#loc96 = loc("/home/ericbuehler/.cache/vllm/torch_compile_cache/torch_aot_compile/90537ea14f244a5187d6ecc853fbadcf440d710f29c8e182fe8151f3f7751a82/inductor_cache/dr/cdr4qpo4fss24kvhp6mumlmsmgyamgbqkc3qnbb4fskat3blnler.py":105:35)
#loc97 = loc("/home/ericbuehler/.cache/vllm/torch_compile_cache/torch_aot_compile/90537ea14f244a5187d6ecc853fbadcf440d710f29c8e182fe8151f3f7751a82/inductor_cache/dr/cdr4qpo4fss24kvhp6mumlmsmgyamgbqkc3qnbb4fskat3blnler.py":105:52)
#loc98 = loc("/home/ericbuehler/.cache/vllm/torch_compile_cache/torch_aot_compile/90537ea14f244a5187d6ecc853fbadcf440d710f29c8e182fe8151f3f7751a82/inductor_cache/dr/cdr4qpo4fss24kvhp6mumlmsmgyamgbqkc3qnbb4fskat3blnler.py":105:114)
#loc99 = loc("/home/ericbuehler/.cache/vllm/torch_compile_cache/torch_aot_compile/90537ea14f244a5187d6ecc853fbadcf440d710f29c8e182fe8151f3f7751a82/inductor_cache/dr/cdr4qpo4fss24kvhp6mumlmsmgyamgbqkc3qnbb4fskat3blnler.py":107:25)
#loc100 = loc("/home/ericbuehler/.cache/vllm/torch_compile_cache/torch_aot_compile/90537ea14f244a5187d6ecc853fbadcf440d710f29c8e182fe8151f3f7751a82/inductor_cache/dr/cdr4qpo4fss24kvhp6mumlmsmgyamgbqkc3qnbb4fskat3blnler.py":109:24)
#loc101 = loc("/home/ericbuehler/.cache/vllm/torch_compile_cache/torch_aot_compile/90537ea14f244a5187d6ecc853fbadcf440d710f29c8e182fe8151f3f7751a82/inductor_cache/dr/cdr4qpo4fss24kvhp6mumlmsmgyamgbqkc3qnbb4fskat3blnler.py":110:32)
#loc102 = loc("/home/ericbuehler/.cache/vllm/torch_compile_cache/torch_aot_compile/90537ea14f244a5187d6ecc853fbadcf440d710f29c8e182fe8151f3f7751a82/inductor_cache/dr/cdr4qpo4fss24kvhp6mumlmsmgyamgbqkc3qnbb4fskat3blnler.py":111:24)
#loc103 = loc("/home/ericbuehler/.cache/vllm/torch_compile_cache/torch_aot_compile/90537ea14f244a5187d6ecc853fbadcf440d710f29c8e182fe8151f3f7751a82/inductor_cache/dr/cdr4qpo4fss24kvhp6mumlmsmgyamgbqkc3qnbb4fskat3blnler.py":113:24)
#loc104 = loc("/home/ericbuehler/.cache/vllm/torch_compile_cache/torch_aot_compile/90537ea14f244a5187d6ecc853fbadcf440d710f29c8e182fe8151f3f7751a82/inductor_cache/dr/cdr4qpo4fss24kvhp6mumlmsmgyamgbqkc3qnbb4fskat3blnler.py":115:25)
#loc105 = loc("/home/ericbuehler/.cache/vllm/torch_compile_cache/torch_aot_compile/90537ea14f244a5187d6ecc853fbadcf440d710f29c8e182fe8151f3f7751a82/inductor_cache/dr/cdr4qpo4fss24kvhp6mumlmsmgyamgbqkc3qnbb4fskat3blnler.py":116:24)
#loc106 = loc("/home/ericbuehler/.cache/vllm/torch_compile_cache/torch_aot_compile/90537ea14f244a5187d6ecc853fbadcf440d710f29c8e182fe8151f3f7751a82/inductor_cache/dr/cdr4qpo4fss24kvhp6mumlmsmgyamgbqkc3qnbb4fskat3blnler.py":117:32)
#loc107 = loc("/home/ericbuehler/.cache/vllm/torch_compile_cache/torch_aot_compile/90537ea14f244a5187d6ecc853fbadcf440d710f29c8e182fe8151f3f7751a82/inductor_cache/dr/cdr4qpo4fss24kvhp6mumlmsmgyamgbqkc3qnbb4fskat3blnler.py":118:24)
#loc108 = loc("/home/ericbuehler/.cache/vllm/torch_compile_cache/torch_aot_compile/90537ea14f244a5187d6ecc853fbadcf440d710f29c8e182fe8151f3f7751a82/inductor_cache/dr/cdr4qpo4fss24kvhp6mumlmsmgyamgbqkc3qnbb4fskat3blnler.py":120:24)
#loc109 = loc("/home/ericbuehler/.cache/vllm/torch_compile_cache/torch_aot_compile/90537ea14f244a5187d6ecc853fbadcf440d710f29c8e182fe8151f3f7751a82/inductor_cache/dr/cdr4qpo4fss24kvhp6mumlmsmgyamgbqkc3qnbb4fskat3blnler.py":121:24)
#loc110 = loc("/home/ericbuehler/.cache/vllm/torch_compile_cache/torch_aot_compile/90537ea14f244a5187d6ecc853fbadcf440d710f29c8e182fe8151f3f7751a82/inductor_cache/dr/cdr4qpo4fss24kvhp6mumlmsmgyamgbqkc3qnbb4fskat3blnler.py":122:24)
#loc111 = loc("/home/ericbuehler/.cache/vllm/torch_compile_cache/torch_aot_compile/90537ea14f244a5187d6ecc853fbadcf440d710f29c8e182fe8151f3f7751a82/inductor_cache/dr/cdr4qpo4fss24kvhp6mumlmsmgyamgbqkc3qnbb4fskat3blnler.py":123:24)
#loc112 = loc("/home/ericbuehler/.cache/vllm/torch_compile_cache/torch_aot_compile/90537ea14f244a5187d6ecc853fbadcf440d710f29c8e182fe8151f3f7751a82/inductor_cache/dr/cdr4qpo4fss24kvhp6mumlmsmgyamgbqkc3qnbb4fskat3blnler.py":93:35)
#loc113 = loc("/home/ericbuehler/.cache/vllm/torch_compile_cache/torch_aot_compile/90537ea14f244a5187d6ecc853fbadcf440d710f29c8e182fe8151f3f7751a82/inductor_cache/dr/cdr4qpo4fss24kvhp6mumlmsmgyamgbqkc3qnbb4fskat3blnler.py":125:24)
#loc114 = loc("/home/ericbuehler/.cache/vllm/torch_compile_cache/torch_aot_compile/90537ea14f244a5187d6ecc853fbadcf440d710f29c8e182fe8151f3f7751a82/inductor_cache/dr/cdr4qpo4fss24kvhp6mumlmsmgyamgbqkc3qnbb4fskat3blnler.py":127:25)
#loc115 = loc("/home/ericbuehler/.cache/vllm/torch_compile_cache/torch_aot_compile/90537ea14f244a5187d6ecc853fbadcf440d710f29c8e182fe8151f3f7751a82/inductor_cache/dr/cdr4qpo4fss24kvhp6mumlmsmgyamgbqkc3qnbb4fskat3blnler.py":128:50)
#loc116 = loc("/home/ericbuehler/.cache/vllm/torch_compile_cache/torch_aot_compile/90537ea14f244a5187d6ecc853fbadcf440d710f29c8e182fe8151f3f7751a82/inductor_cache/dr/cdr4qpo4fss24kvhp6mumlmsmgyamgbqkc3qnbb4fskat3blnler.py":129:56)
#loc117 = loc("/home/ericbuehler/.cache/vllm/torch_compile_cache/torch_aot_compile/90537ea14f244a5187d6ecc853fbadcf440d710f29c8e182fe8151f3f7751a82/inductor_cache/dr/cdr4qpo4fss24kvhp6mumlmsmgyamgbqkc3qnbb4fskat3blnler.py":129:8)
#loc119 = loc("/home/ericbuehler/.cache/vllm/torch_compile_cache/torch_aot_compile/90537ea14f244a5187d6ecc853fbadcf440d710f29c8e182fe8151f3f7751a82/inductor_cache/dr/cdr4qpo4fss24kvhp6mumlmsmgyamgbqkc3qnbb4fskat3blnler.py":130:30)
#loc120 = loc("/home/ericbuehler/.cache/vllm/torch_compile_cache/torch_aot_compile/90537ea14f244a5187d6ecc853fbadcf440d710f29c8e182fe8151f3f7751a82/inductor_cache/dr/cdr4qpo4fss24kvhp6mumlmsmgyamgbqkc3qnbb4fskat3blnler.py":131:43)
#loc121 = loc("/home/ericbuehler/.cache/vllm/torch_compile_cache/torch_aot_compile/90537ea14f244a5187d6ecc853fbadcf440d710f29c8e182fe8151f3f7751a82/inductor_cache/dr/cdr4qpo4fss24kvhp6mumlmsmgyamgbqkc3qnbb4fskat3blnler.py":132:31)
#loc122 = loc("/home/ericbuehler/.cache/vllm/torch_compile_cache/torch_aot_compile/90537ea14f244a5187d6ecc853fbadcf440d710f29c8e182fe8151f3f7751a82/inductor_cache/dr/cdr4qpo4fss24kvhp6mumlmsmgyamgbqkc3qnbb4fskat3blnler.py":133:29)
#loc123 = loc("/home/ericbuehler/.cache/vllm/torch_compile_cache/torch_aot_compile/90537ea14f244a5187d6ecc853fbadcf440d710f29c8e182fe8151f3f7751a82/inductor_cache/dr/cdr4qpo4fss24kvhp6mumlmsmgyamgbqkc3qnbb4fskat3blnler.py":137:51)
#loc124 = loc("/home/ericbuehler/.cache/vllm/torch_compile_cache/torch_aot_compile/90537ea14f244a5187d6ecc853fbadcf440d710f29c8e182fe8151f3f7751a82/inductor_cache/dr/cdr4qpo4fss24kvhp6mumlmsmgyamgbqkc3qnbb4fskat3blnler.py":137:46)
#loc125 = loc("/home/ericbuehler/.cache/vllm/torch_compile_cache/torch_aot_compile/90537ea14f244a5187d6ecc853fbadcf440d710f29c8e182fe8151f3f7751a82/inductor_cache/dr/cdr4qpo4fss24kvhp6mumlmsmgyamgbqkc3qnbb4fskat3blnler.py":137:39)
#loc126 = loc("/home/ericbuehler/.cache/vllm/torch_compile_cache/torch_aot_compile/90537ea14f244a5187d6ecc853fbadcf440d710f29c8e182fe8151f3f7751a82/inductor_cache/dr/cdr4qpo4fss24kvhp6mumlmsmgyamgbqkc3qnbb4fskat3blnler.py":137:66)
#loc127 = loc("/home/ericbuehler/.cache/vllm/torch_compile_cache/torch_aot_compile/90537ea14f244a5187d6ecc853fbadcf440d710f29c8e182fe8151f3f7751a82/inductor_cache/dr/cdr4qpo4fss24kvhp6mumlmsmgyamgbqkc3qnbb4fskat3blnler.py":137:56)
#loc128 = loc("/home/ericbuehler/.cache/vllm/torch_compile_cache/torch_aot_compile/90537ea14f244a5187d6ecc853fbadcf440d710f29c8e182fe8151f3f7751a82/inductor_cache/dr/cdr4qpo4fss24kvhp6mumlmsmgyamgbqkc3qnbb4fskat3blnler.py":138:36)
#loc129 = loc("/home/ericbuehler/.cache/vllm/torch_compile_cache/torch_aot_compile/90537ea14f244a5187d6ecc853fbadcf440d710f29c8e182fe8151f3f7751a82/inductor_cache/dr/cdr4qpo4fss24kvhp6mumlmsmgyamgbqkc3qnbb4fskat3blnler.py":138:43)
#loc130 = loc("/home/ericbuehler/.cache/vllm/torch_compile_cache/torch_aot_compile/90537ea14f244a5187d6ecc853fbadcf440d710f29c8e182fe8151f3f7751a82/inductor_cache/dr/cdr4qpo4fss24kvhp6mumlmsmgyamgbqkc3qnbb4fskat3blnler.py":138:96)
#loc131 = loc("/home/ericbuehler/.cache/vllm/torch_compile_cache/torch_aot_compile/90537ea14f244a5187d6ecc853fbadcf440d710f29c8e182fe8151f3f7751a82/inductor_cache/dr/cdr4qpo4fss24kvhp6mumlmsmgyamgbqkc3qnbb4fskat3blnler.py":140:25)
#loc132 = loc("/home/ericbuehler/.cache/vllm/torch_compile_cache/torch_aot_compile/90537ea14f244a5187d6ecc853fbadcf440d710f29c8e182fe8151f3f7751a82/inductor_cache/dr/cdr4qpo4fss24kvhp6mumlmsmgyamgbqkc3qnbb4fskat3blnler.py":142:24)
#loc133 = loc("/home/ericbuehler/.cache/vllm/torch_compile_cache/torch_aot_compile/90537ea14f244a5187d6ecc853fbadcf440d710f29c8e182fe8151f3f7751a82/inductor_cache/dr/cdr4qpo4fss24kvhp6mumlmsmgyamgbqkc3qnbb4fskat3blnler.py":143:32)
#loc134 = loc("/home/ericbuehler/.cache/vllm/torch_compile_cache/torch_aot_compile/90537ea14f244a5187d6ecc853fbadcf440d710f29c8e182fe8151f3f7751a82/inductor_cache/dr/cdr4qpo4fss24kvhp6mumlmsmgyamgbqkc3qnbb4fskat3blnler.py":144:24)
#loc135 = loc("/home/ericbuehler/.cache/vllm/torch_compile_cache/torch_aot_compile/90537ea14f244a5187d6ecc853fbadcf440d710f29c8e182fe8151f3f7751a82/inductor_cache/dr/cdr4qpo4fss24kvhp6mumlmsmgyamgbqkc3qnbb4fskat3blnler.py":146:24)
#loc136 = loc("/home/ericbuehler/.cache/vllm/torch_compile_cache/torch_aot_compile/90537ea14f244a5187d6ecc853fbadcf440d710f29c8e182fe8151f3f7751a82/inductor_cache/dr/cdr4qpo4fss24kvhp6mumlmsmgyamgbqkc3qnbb4fskat3blnler.py":147:29)
#loc137 = loc("/home/ericbuehler/.cache/vllm/torch_compile_cache/torch_aot_compile/90537ea14f244a5187d6ecc853fbadcf440d710f29c8e182fe8151f3f7751a82/inductor_cache/dr/cdr4qpo4fss24kvhp6mumlmsmgyamgbqkc3qnbb4fskat3blnler.py":147:53)
#loc138 = loc("/home/ericbuehler/.cache/vllm/torch_compile_cache/torch_aot_compile/90537ea14f244a5187d6ecc853fbadcf440d710f29c8e182fe8151f3f7751a82/inductor_cache/dr/cdr4qpo4fss24kvhp6mumlmsmgyamgbqkc3qnbb4fskat3blnler.py":131:4)
#loc154 = loc("xoffset"(#loc2))
#loc155 = loc("xmask"(#loc3))
#loc156 = loc("r0_base"(#loc4))
#loc157 = loc("r0_base"(#loc5))
#loc158 = loc("_tmp4"(#loc6))
#loc159 = loc("r0_index"(#loc7))
#loc160 = loc("r0_mask"(#loc8))
#loc161 = loc("tmp0"(#loc9))
#loc162 = loc("tmp0"(#loc10))
#loc163 = loc("tmp0"(#loc11))
#loc164 = loc("tmp0"(#loc12))
#loc165 = loc("tmp0"(#loc13))
#loc166 = loc("tmp0"(#loc14))
#loc167 = loc("tmp2"(#loc15))
#loc168 = loc("tmp5"(#loc16))
#loc169 = loc("_tmp4"(#loc17))
#loc171 = loc("tmp4"(#loc22))
#loc172 = loc("_tmp10"(#loc23))
#loc173 = loc("r0_index"(#loc24))
#loc174 = loc("r0_mask"(#loc25))
#loc175 = loc("tmp6"(#loc26))
#loc176 = loc("tmp6"(#loc27))
#loc177 = loc("tmp6"(#loc28))
#loc178 = loc("tmp6"(#loc29))
#loc179 = loc("tmp6"(#loc30))
#loc180 = loc("tmp6"(#loc31))
#loc181 = loc("tmp8"(#loc32))
#loc182 = loc("tmp11"(#loc33))
#loc183 = loc("_tmp10"(#loc34))
#loc185 = loc("tmp10"(#loc37))
#loc186 = loc("_tmp36"(#loc38))
#loc187 = loc("r0_index"(#loc39))
#loc188 = loc("r0_mask"(#loc40))
#loc189 = loc("tmp12"(#loc41))
#loc190 = loc("tmp12"(#loc42))
#loc191 = loc("tmp12"(#loc43))
#loc192 = loc("tmp12"(#loc44))
#loc193 = loc("tmp12"(#loc45))
#loc194 = loc("tmp12"(#loc46))
#loc195 = loc("tmp21"(#loc47))
#loc196 = loc("tmp21"(#loc48))
#loc197 = loc("tmp21"(#loc49))
#loc198 = loc("tmp23"(#loc50))
#loc199 = loc("tmp23"(#loc51))
#loc200 = loc("tmp23"(#loc52))
#loc201 = loc("tmp30"(#loc53))
#loc202 = loc("tmp30"(#loc54))
#loc203 = loc("tmp30"(#loc55))
#loc204 = loc("tmp15"(#loc56))
#loc205 = loc("tmp17"(#loc57))
#loc206 = loc("tmp18"(#loc58))
#loc207 = loc("tmp19"(#loc59))
#loc208 = loc("tmp22"(#loc60))
#loc209 = loc("tmp25"(#loc61))
#loc210 = loc("tmp26"(#loc62))
#loc211 = loc("tmp27"(#loc63))
#loc212 = loc("tmp28"(#loc64))
#loc213 = loc("tmp31"(#loc65))
#loc214 = loc("tmp32"(#loc66))
#loc215 = loc("tmp34"(#loc67))
#loc216 = loc("tmp37"(#loc68))
#loc217 = loc("_tmp36"(#loc69))
#loc219 = loc("tmp36"(#loc74))
#loc220 = loc("tmp50"(#loc75))
#loc221 = loc("tmp50"(#loc76))
#loc222 = loc("tmp61"(#loc77))
#loc223 = loc("tmp61"(#loc78))
#loc224 = loc("_tmp67"(#loc79))
#loc225 = loc("r0_index"(#loc80))
#loc226 = loc("r0_mask"(#loc81))
#loc227 = loc("tmp38"(#loc82))
#loc228 = loc("tmp38"(#loc83))
#loc229 = loc("tmp38"(#loc84))
#loc230 = loc("tmp38"(#loc85))
#loc231 = loc("tmp38"(#loc86))
#loc232 = loc("tmp46"(#loc87))
#loc233 = loc("tmp46"(#loc88))
#loc234 = loc("tmp46"(#loc89))
#loc235 = loc("tmp48"(#loc90))
#loc236 = loc("tmp48"(#loc91))
#loc237 = loc("tmp48"(#loc92))
#loc238 = loc("tmp56"(#loc93))
#loc239 = loc("tmp56"(#loc94))
#loc240 = loc("tmp56"(#loc95))
#loc241 = loc("tmp58"(#loc96))
#loc242 = loc("tmp58"(#loc97))
#loc243 = loc("tmp58"(#loc98))
#loc244 = loc("tmp40"(#loc99))
#loc245 = loc("tmp42"(#loc100))
#loc246 = loc("tmp43"(#loc101))
#loc247 = loc("tmp44"(#loc102))
#loc248 = loc("tmp47"(#loc103))
#loc249 = loc("tmp51"(#loc104))
#loc250 = loc("tmp52"(#loc105))
#loc251 = loc("tmp53"(#loc106))
#loc252 = loc("tmp54"(#loc107))
#loc253 = loc("tmp57"(#loc108))
#loc254 = loc("tmp59"(#loc109))
#loc255 = loc("tmp60"(#loc110))
#loc256 = loc("tmp63"(#loc111))
#loc257 = loc("tmp62"(#loc112))
#loc258 = loc("tmp65"(#loc113))
#loc259 = loc("tmp68"(#loc114))
#loc260 = loc("_tmp67"(#loc115))
#loc262 = loc("tmp67"(#loc119))
#loc263 = loc("r0_index"(#loc121))
#loc264 = loc("r0_mask"(#loc122))
#loc265 = loc("tmp69"(#loc123))
#loc266 = loc("tmp69"(#loc124))
#loc267 = loc("tmp69"(#loc125))
#loc268 = loc("tmp69"(#loc126))
#loc269 = loc("tmp69"(#loc127))
#loc270 = loc("tmp77"(#loc128))
#loc271 = loc("tmp77"(#loc129))
#loc272 = loc("tmp77"(#loc130))
#loc273 = loc("tmp71"(#loc131))
#loc274 = loc("tmp73"(#loc132))
#loc275 = loc("tmp74"(#loc133))
#loc276 = loc("tmp75"(#loc134))
#loc277 = loc("tmp78"(#loc135))
#loc278 = loc(fused[#loc162, #loc161])
#loc279 = loc(fused[#loc164, #loc155])
#loc280 = loc(callsite(#loc19 at #loc170))
#loc282 = loc(fused[#loc176, #loc175])
#loc283 = loc(fused[#loc178, #loc155])
#loc284 = loc(callsite(#loc19 at #loc184))
#loc286 = loc(fused[#loc190, #loc189])
#loc287 = loc(fused[#loc192, #loc155])
#loc288 = loc(callsite(#loc19 at #loc218))
#loc290 = loc(fused[#loc228, #loc227])
#loc291 = loc(fused[#loc230, #loc155])
#loc292 = loc(fused[#loc256, #loc257])
#loc293 = loc(callsite(#loc19 at #loc261))
#loc295 = loc(fused[#loc266, #loc265])
#loc296 = loc(fused[#loc268, #loc155])
#loc297 = loc(callsite(#loc21 at #loc280))
#loc298 = loc(callsite(#loc21 at #loc284))
#loc299 = loc(callsite(#loc21 at #loc288))
#loc300 = loc(callsite(#loc21 at #loc293))
