#loc = loc("/home/ericbuehler/vllm/.venv-bench/lib/python3.12/site-packages/vllm/v1/attention/ops/triton_unified_attention.py":58:0)
#loc140 = loc("/home/ericbuehler/vllm/.venv-bench/lib/python3.12/site-packages/vllm/v1/attention/ops/triton_attention_helpers.py":45:0)
#loc157 = loc("/home/ericbuehler/vllm/.venv-bench/lib/python3.12/site-packages/vllm/v1/attention/ops/triton_attention_helpers.py":79:0)
#loc161 = loc("left")
#loc162 = loc("right")
#loc176 = loc("/home/ericbuehler/vllm/.venv-bench/lib/python3.12/site-packages/vllm/v1/attention/ops/triton_attention_helpers.py":22:0)
#loc182 = loc("/home/ericbuehler/vllm/.venv-bench/lib/python3.12/site-packages/vllm/v1/attention/ops/triton_attention_helpers.py":110:0)
#loc190 = loc("/home/ericbuehler/vllm/.venv-bench/lib/python3.12/site-packages/vllm/v1/attention/ops/triton_attention_helpers.py":142:0)
#loc218 = loc("/home/ericbuehler/vllm/.venv-bench/lib/python3.12/site-packages/vllm/v1/attention/ops/triton_unified_attention.py":39:0)
#loc221 = loc("/home/ericbuehler/vllm/.venv-bench/lib/python3.12/site-packages/vllm/v1/attention/ops/triton_attention_helpers.py":261:0)
#loc229 = loc("/home/ericbuehler/vllm/.venv-bench/lib/python3.12/site-packages/vllm/v1/attention/ops/triton_attention_helpers.py":361:0)
#loc244 = loc("/home/ericbuehler/vllm/.venv-bench/lib/python3.12/site-packages/triton/language/standard.py":177:0)
#loc246 = loc(unknown)
#loc249 = loc("/home/ericbuehler/vllm/.venv-bench/lib/python3.12/site-packages/triton/language/standard.py":169:0)
#loc253 = loc("/home/ericbuehler/vllm/.venv-bench/lib/python3.12/site-packages/triton/language/standard.py":287:0)
#loc257 = loc("/home/ericbuehler/vllm/.venv-bench/lib/python3.12/site-packages/triton/language/standard.py":262:0)
#loc261 = loc("/home/ericbuehler/vllm/.venv-bench/lib/python3.12/site-packages/vllm/v1/attention/ops/triton_attention_helpers.py":231:0)
#loc274 = loc("output_ptr"(#loc))
#loc275 = loc("segm_output_ptr"(#loc))
#loc276 = loc("segm_max_ptr"(#loc))
#loc277 = loc("segm_expsum_ptr"(#loc))
#loc278 = loc("query_ptr"(#loc))
#loc279 = loc("key_cache_ptr"(#loc))
#loc280 = loc("value_cache_ptr"(#loc))
#loc281 = loc("block_tables_ptr"(#loc))
#loc282 = loc("seq_lens_ptr"(#loc))
#loc283 = loc("k_scale_cache_ptr"(#loc))
#loc284 = loc("v_scale_cache_ptr"(#loc))
#loc285 = loc("scale"(#loc))
#loc286 = loc("k_scale"(#loc))
#loc287 = loc("v_scale"(#loc))
#loc288 = loc("out_scale"(#loc))
#loc289 = loc("softcap"(#loc))
#loc290 = loc("block_table_stride"(#loc))
#loc291 = loc("query_stride_0"(#loc))
#loc292 = loc("query_stride_1"(#loc))
#loc293 = loc("output_stride_0"(#loc))
#loc294 = loc("output_stride_1"(#loc))
#loc295 = loc("qq_bias_stride_0"(#loc))
#loc296 = loc("stride_k_cache_0"(#loc))
#loc297 = loc("stride_k_cache_1"(#loc))
#loc298 = loc("stride_k_cache_2"(#loc))
#loc299 = loc("stride_v_cache_0"(#loc))
#loc300 = loc("stride_v_cache_1"(#loc))
#loc301 = loc("stride_v_cache_2"(#loc))
#loc302 = loc("stride_ks_blk"(#loc))
#loc303 = loc("stride_ks_slot"(#loc))
#loc304 = loc("stride_ks_head"(#loc))
#loc305 = loc("stride_vs_blk"(#loc))
#loc306 = loc("stride_vs_slot"(#loc))
#loc307 = loc("stride_vs_head"(#loc))
#loc308 = loc("query_start_len_ptr"(#loc))
#loc309 = loc("num_seqs"(#loc))
#loc429 = loc("query_start_len_ptr"(#loc140))
#loc430 = loc("seq_lens_ptr"(#loc140))
#loc431 = loc("q_block_global_idx"(#loc140))
#loc432 = loc("num_seqs"(#loc140))
#loc447 = loc("query_start_len_ptr"(#loc157))
#loc448 = loc("target_idx"(#loc157))
#loc449 = loc("num_seqs"(#loc157))
#loc452 = loc("left"(#loc161))
#loc453 = loc("right"(#loc162))
#loc461 = loc("x"(#loc176))
#loc462 = loc("query_offset_1"(#loc182))
#loc463 = loc("query_mask_1"(#loc182))
#loc464 = loc("segm_idx_or_0"(#loc182))
#loc466 = loc("context_len"(#loc190))
#loc467 = loc("seq_len"(#loc190))
#loc468 = loc("cur_batch_query_len"(#loc190))
#loc469 = loc("q_block_local_idx"(#loc190))
#loc470 = loc("segm_idx_or_0"(#loc190))
#loc471 = loc("tiles_per_segment_or_0"(#loc190))
#loc497 = loc("data"(#loc218))
#loc498 = loc("Q"(#loc218))
#loc499 = loc("tensor_scale"(#loc218))
#loc500 = loc("query_abs_pos"(#loc221))
#loc501 = loc("seq_offset"(#loc221))
#loc502 = loc("seq_idx"(#loc221))
#loc508 = loc("S"(#loc229))
#loc509 = loc("M"(#loc229))
#loc510 = loc("L"(#loc229))
#loc523 = loc("input"(#loc244))
#loc524 = loc("a"(#loc249))
#loc525 = loc("b"(#loc249))
#loc526 = loc("input"(#loc253))
#loc527 = loc("a"(#loc257))
#loc528 = loc("b"(#loc257))
#loc529 = loc("segm_max_ptr"(#loc261))
#loc530 = loc("segm_expsum_ptr"(#loc261))
#loc531 = loc("query_offset_0"(#loc261))
#loc532 = loc("query_offset_1"(#loc261))
#loc533 = loc("segm_idx"(#loc261))
#loc534 = loc("M"(#loc261))
#loc535 = loc("L"(#loc261))
#loc536 = loc("query_mask_0"(#loc261))
#loc537 = loc("query_mask_1"(#loc261))
#loc544 = loc("right"(#loc449))
module {
  tt.func public @kernel_unified_attention(%output_ptr: !tt.ptr<bf16> {tt.divisibility = 16 : i32} loc("output_ptr"(#loc)), %segm_output_ptr: !tt.ptr<f32> {tt.divisibility = 16 : i32} loc("segm_output_ptr"(#loc)), %segm_max_ptr: !tt.ptr<f32> {tt.divisibility = 16 : i32} loc("segm_max_ptr"(#loc)), %segm_expsum_ptr: !tt.ptr<f32> {tt.divisibility = 16 : i32} loc("segm_expsum_ptr"(#loc)), %query_ptr: !tt.ptr<bf16> {tt.divisibility = 16 : i32} loc("query_ptr"(#loc)), %key_cache_ptr: !tt.ptr<bf16> {tt.divisibility = 16 : i32} loc("key_cache_ptr"(#loc)), %value_cache_ptr: !tt.ptr<bf16> {tt.divisibility = 16 : i32} loc("value_cache_ptr"(#loc)), %block_tables_ptr: !tt.ptr<i32> {tt.divisibility = 16 : i32} loc("block_tables_ptr"(#loc)), %seq_lens_ptr: !tt.ptr<i32> {tt.divisibility = 16 : i32} loc("seq_lens_ptr"(#loc)), %k_scale_cache_ptr: !tt.ptr<bf16> {tt.divisibility = 16 : i32} loc("k_scale_cache_ptr"(#loc)), %v_scale_cache_ptr: !tt.ptr<bf16> {tt.divisibility = 16 : i32} loc("v_scale_cache_ptr"(#loc)), %scale: f32 loc("scale"(#loc)), %k_scale: !tt.ptr<f32> {tt.divisibility = 16 : i32} loc("k_scale"(#loc)), %v_scale: !tt.ptr<f32> {tt.divisibility = 16 : i32} loc("v_scale"(#loc)), %out_scale: f32 loc("out_scale"(#loc)), %softcap: i32 {tt.divisibility = 16 : i32} loc("softcap"(#loc)), %block_table_stride: i64 loc("block_table_stride"(#loc)), %query_stride_0: i64 {tt.divisibility = 16 : i32} loc("query_stride_0"(#loc)), %query_stride_1: i64 {tt.divisibility = 16 : i32} loc("query_stride_1"(#loc)), %output_stride_0: i64 {tt.divisibility = 16 : i32} loc("output_stride_0"(#loc)), %output_stride_1: i64 {tt.divisibility = 16 : i32} loc("output_stride_1"(#loc)), %qq_bias_stride_0: i64 {tt.divisibility = 16 : i32} loc("qq_bias_stride_0"(#loc)), %stride_k_cache_0: i64 {tt.divisibility = 16 : i32} loc("stride_k_cache_0"(#loc)), %stride_k_cache_1: i64 {tt.divisibility = 16 : i32} loc("stride_k_cache_1"(#loc)), %stride_k_cache_2: i64 {tt.divisibility = 16 : i32} loc("stride_k_cache_2"(#loc)), %stride_v_cache_0: i64 {tt.divisibility = 16 : i32} loc("stride_v_cache_0"(#loc)), %stride_v_cache_1: i64 {tt.divisibility = 16 : i32} loc("stride_v_cache_1"(#loc)), %stride_v_cache_2: i64 {tt.divisibility = 16 : i32} loc("stride_v_cache_2"(#loc)), %stride_ks_blk: i64 {tt.divisibility = 16 : i32} loc("stride_ks_blk"(#loc)), %stride_ks_slot: i64 {tt.divisibility = 16 : i32} loc("stride_ks_slot"(#loc)), %stride_ks_head: i64 {tt.divisibility = 16 : i32} loc("stride_ks_head"(#loc)), %stride_vs_blk: i64 {tt.divisibility = 16 : i32} loc("stride_vs_blk"(#loc)), %stride_vs_slot: i64 {tt.divisibility = 16 : i32} loc("stride_vs_slot"(#loc)), %stride_vs_head: i64 {tt.divisibility = 16 : i32} loc("stride_vs_head"(#loc)), %query_start_len_ptr: !tt.ptr<i32> {tt.divisibility = 16 : i32} loc("query_start_len_ptr"(#loc)), %num_seqs: i32 {tt.divisibility = 16 : i32} loc("num_seqs"(#loc))) attributes {noinline = false} {
    %q_block_global_idx = tt.get_program_id x : i32 loc(#loc310)
    %kv_head_idx = tt.get_program_id y : i32 loc(#loc311)
    %segm_idx = tt.get_program_id z : i32 loc(#loc312)
    %0:5 = tt.call @"vllm.v1.attention.ops.triton_attention_helpers.resolve_seq_and_query_len__Pi32_Pi32_i32_i32__(4,)cconstexpr_8_"(%query_start_len_ptr, %seq_lens_ptr, %q_block_global_idx, %num_seqs) : (!tt.ptr<i32>, !tt.ptr<i32>, i32, i32) -> (i32, i32, i32, i32, i32) loc(#loc4)
    %c8_i32 = arith.constant 8 : i32 loc(#loc5)
    %c8_i32_0 = arith.constant 8 : i32 loc(#loc5)
    %1 = arith.extsi %0#1 : i32 to i64 loc(#loc5)
    %2 = arith.extsi %c8_i32_0 : i32 to i64 loc(#loc5)
    %3 = arith.muli %1, %2 : i64 loc(#loc5)
    %c2147483647_i64 = arith.constant 2147483647 : i64 loc(#loc5)
    %c-2147483648_i64 = arith.constant -2147483648 : i64 loc(#loc5)
    %4 = arith.cmpi sle, %3, %c2147483647_i64 : i64 loc(#loc5)
    %5 = arith.cmpi sge, %3, %c-2147483648_i64 : i64 loc(#loc5)
    %6 = arith.andi %4, %5 : i1 loc(#loc5)
    %7 = arith.muli %0#1, %c8_i32_0 : i32 loc(#loc5)
    %8 = arith.cmpi sge, %7, %0#3 : i32 loc(#loc6)
    cf.cond_br %8, ^bb1, ^bb2 loc(#loc6)
  ^bb1:  // pred: ^bb0
    tt.return loc(#loc7)
  ^bb2:  // pred: ^bb0
    cf.br ^bb4 loc(#loc)
  ^bb3:  // no predecessors
    cf.br ^bb4 loc(#loc)
  ^bb4:  // 2 preds: ^bb2, ^bb3
    %tiles_per_segment = tt.call @"vllm.v1.attention.ops.triton_attention_helpers.cdiv_fn__i32__(1,)cconstexpr_512_"(%0#4) : (i32) -> i32 loc(#loc313)
    %9 = arith.extsi %segm_idx : i32 to i64 loc(#loc9)
    %10 = arith.extsi %tiles_per_segment : i32 to i64 loc(#loc9)
    %11 = arith.muli %9, %10 : i64 loc(#loc9)
    %c2147483647_i64_1 = arith.constant 2147483647 : i64 loc(#loc9)
    %c-2147483648_i64_2 = arith.constant -2147483648 : i64 loc(#loc9)
    %12 = arith.cmpi sle, %11, %c2147483647_i64_1 : i64 loc(#loc9)
    %13 = arith.cmpi sge, %11, %c-2147483648_i64_2 : i64 loc(#loc9)
    %14 = arith.andi %12, %13 : i1 loc(#loc9)
    %15 = arith.muli %segm_idx, %tiles_per_segment : i32 loc(#loc9)
    %c32_i32 = arith.constant 32 : i32 loc(#loc10)
    %c32_i32_3 = arith.constant 32 : i32 loc(#loc10)
    %16 = arith.extsi %15 : i32 to i64 loc(#loc10)
    %17 = arith.extsi %c32_i32_3 : i32 to i64 loc(#loc10)
    %18 = arith.muli %16, %17 : i64 loc(#loc10)
    %c2147483647_i64_4 = arith.constant 2147483647 : i64 loc(#loc10)
    %c-2147483648_i64_5 = arith.constant -2147483648 : i64 loc(#loc10)
    %19 = arith.cmpi sle, %18, %c2147483647_i64_4 : i64 loc(#loc10)
    %20 = arith.cmpi sge, %18, %c-2147483648_i64_5 : i64 loc(#loc10)
    %21 = arith.andi %19, %20 : i1 loc(#loc10)
    %22 = arith.muli %15, %c32_i32_3 : i32 loc(#loc10)
    %23 = arith.cmpi sge, %22, %0#4 : i32 loc(#loc11)
    cf.cond_br %23, ^bb5, ^bb6 loc(#loc11)
  ^bb5:  // pred: ^bb4
    tt.return loc(#loc12)
  ^bb6:  // pred: ^bb4
    cf.br ^bb8 loc(#loc)
  ^bb7:  // no predecessors
    cf.br ^bb8 loc(#loc)
  ^bb8:  // 2 preds: ^bb6, ^bb7
    %offs_m = tt.make_range {end = 16 : i32, start = 0 : i32} : tensor<16xi32> loc(#loc314)
    %offs_d = tt.make_range {end = 256 : i32, start = 0 : i32} : tensor<256xi32> loc(#loc315)
    %offs_t = tt.make_range {end = 32 : i32, start = 0 : i32} : tensor<32xi32> loc(#loc316)
    %query_pos = arith.constant 8 : i32 loc(#loc317)
    %query_pos_6 = arith.constant 8 : i32 loc(#loc317)
    %query_pos_7 = arith.extsi %0#1 : i32 to i64 loc(#loc317)
    %query_pos_8 = arith.extsi %query_pos_6 : i32 to i64 loc(#loc317)
    %query_pos_9 = arith.muli %query_pos_7, %query_pos_8 : i64 loc(#loc317)
    %query_pos_10 = arith.constant 2147483647 : i64 loc(#loc317)
    %query_pos_11 = arith.constant -2147483648 : i64 loc(#loc317)
    %query_pos_12 = arith.cmpi sle, %query_pos_9, %query_pos_10 : i64 loc(#loc317)
    %query_pos_13 = arith.cmpi sge, %query_pos_9, %query_pos_11 : i64 loc(#loc317)
    %query_pos_14 = arith.andi %query_pos_12, %query_pos_13 : i1 loc(#loc317)
    %query_pos_15 = arith.muli %0#1, %query_pos_6 : i32 loc(#loc317)
    %query_pos_16 = arith.constant 2 : i32 loc(#loc318)
    %query_pos_17 = arith.constant 2 : i32 loc(#loc318)
    %query_pos_18 = arith.constant dense<2> : tensor<16xi32> loc(#loc318)
    %query_pos_19 = arith.divsi %offs_m, %query_pos_18 : tensor<16xi32> loc(#loc318)
    %query_pos_20 = tt.splat %query_pos_15 : i32 -> tensor<16xi32> loc(#loc319)
    %query_pos_21 = arith.extsi %query_pos_20 : tensor<16xi32> to tensor<16xi64> loc(#loc319)
    %query_pos_22 = arith.extsi %query_pos_19 : tensor<16xi32> to tensor<16xi64> loc(#loc319)
    %query_pos_23 = arith.addi %query_pos_21, %query_pos_22 : tensor<16xi64> loc(#loc319)
    %query_pos_24 = arith.constant 2147483647 : i64 loc(#loc319)
    %query_pos_25 = arith.constant -2147483648 : i64 loc(#loc319)
    %query_pos_26 = arith.constant dense<2147483647> : tensor<16xi64> loc(#loc319)
    %query_pos_27 = arith.cmpi sle, %query_pos_23, %query_pos_26 : tensor<16xi64> loc(#loc319)
    %query_pos_28 = arith.constant dense<-2147483648> : tensor<16xi64> loc(#loc319)
    %query_pos_29 = arith.cmpi sge, %query_pos_23, %query_pos_28 : tensor<16xi64> loc(#loc319)
    %query_pos_30 = arith.andi %query_pos_27, %query_pos_29 : tensor<16xi1> loc(#loc319)
    %query_pos_31 = arith.addi %query_pos_20, %query_pos_19 : tensor<16xi32> loc(#loc319)
    %query_offset_0 = tt.splat %0#2 : i32 -> tensor<16xi32> loc(#loc320)
    %query_offset_0_32 = arith.extsi %query_offset_0 : tensor<16xi32> to tensor<16xi64> loc(#loc320)
    %query_offset_0_33 = arith.extsi %query_pos_31 : tensor<16xi32> to tensor<16xi64> loc(#loc320)
    %query_offset_0_34 = arith.addi %query_offset_0_32, %query_offset_0_33 : tensor<16xi64> loc(#loc320)
    %query_offset_0_35 = arith.constant 2147483647 : i64 loc(#loc320)
    %query_offset_0_36 = arith.constant -2147483648 : i64 loc(#loc320)
    %query_offset_0_37 = arith.constant dense<2147483647> : tensor<16xi64> loc(#loc320)
    %query_offset_0_38 = arith.cmpi sle, %query_offset_0_34, %query_offset_0_37 : tensor<16xi64> loc(#loc320)
    %query_offset_0_39 = arith.constant dense<-2147483648> : tensor<16xi64> loc(#loc320)
    %query_offset_0_40 = arith.cmpi sge, %query_offset_0_34, %query_offset_0_39 : tensor<16xi64> loc(#loc320)
    %query_offset_0_41 = arith.andi %query_offset_0_38, %query_offset_0_40 : tensor<16xi1> loc(#loc320)
    %query_offset_0_42 = arith.addi %query_offset_0, %query_pos_31 : tensor<16xi32> loc(#loc320)
    %query_offset_1 = arith.constant 2 : i32 loc(#loc321)
    %query_offset_1_43 = arith.constant 2 : i32 loc(#loc321)
    %query_offset_1_44 = arith.extsi %kv_head_idx : i32 to i64 loc(#loc321)
    %query_offset_1_45 = arith.extsi %query_offset_1_43 : i32 to i64 loc(#loc321)
    %query_offset_1_46 = arith.muli %query_offset_1_44, %query_offset_1_45 : i64 loc(#loc321)
    %query_offset_1_47 = arith.constant 2147483647 : i64 loc(#loc321)
    %query_offset_1_48 = arith.constant -2147483648 : i64 loc(#loc321)
    %query_offset_1_49 = arith.cmpi sle, %query_offset_1_46, %query_offset_1_47 : i64 loc(#loc321)
    %query_offset_1_50 = arith.cmpi sge, %query_offset_1_46, %query_offset_1_48 : i64 loc(#loc321)
    %query_offset_1_51 = arith.andi %query_offset_1_49, %query_offset_1_50 : i1 loc(#loc321)
    %query_offset_1_52 = arith.muli %kv_head_idx, %query_offset_1_43 : i32 loc(#loc321)
    %query_offset_1_53 = arith.constant 2 : i32 loc(#loc322)
    %query_offset_1_54 = arith.constant 2 : i32 loc(#loc322)
    %query_offset_1_55 = arith.constant dense<2> : tensor<16xi32> loc(#loc322)
    %query_offset_1_56 = arith.remsi %offs_m, %query_offset_1_55 : tensor<16xi32> loc(#loc322)
    %query_offset_1_57 = tt.splat %query_offset_1_52 : i32 -> tensor<16xi32> loc(#loc323)
    %query_offset_1_58 = arith.extsi %query_offset_1_57 : tensor<16xi32> to tensor<16xi64> loc(#loc323)
    %query_offset_1_59 = arith.extsi %query_offset_1_56 : tensor<16xi32> to tensor<16xi64> loc(#loc323)
    %query_offset_1_60 = arith.addi %query_offset_1_58, %query_offset_1_59 : tensor<16xi64> loc(#loc323)
    %query_offset_1_61 = arith.constant 2147483647 : i64 loc(#loc323)
    %query_offset_1_62 = arith.constant -2147483648 : i64 loc(#loc323)
    %query_offset_1_63 = arith.constant dense<2147483647> : tensor<16xi64> loc(#loc323)
    %query_offset_1_64 = arith.cmpi sle, %query_offset_1_60, %query_offset_1_63 : tensor<16xi64> loc(#loc323)
    %query_offset_1_65 = arith.constant dense<-2147483648> : tensor<16xi64> loc(#loc323)
    %query_offset_1_66 = arith.cmpi sge, %query_offset_1_60, %query_offset_1_65 : tensor<16xi64> loc(#loc323)
    %query_offset_1_67 = arith.andi %query_offset_1_64, %query_offset_1_66 : tensor<16xi1> loc(#loc323)
    %query_offset_1_68 = arith.addi %query_offset_1_57, %query_offset_1_56 : tensor<16xi32> loc(#loc323)
    %query_offset = tt.expand_dims %query_offset_0_42 {axis = 1 : i32} : tensor<16xi32> -> tensor<16x1xi32> loc(#loc324)
    %query_offset_69 = arith.extsi %query_offset : tensor<16x1xi32> to tensor<16x1xi64> loc(#loc325)
    %query_offset_70 = tt.splat %query_stride_0 : i64 -> tensor<16x1xi64> loc(#loc325)
    %query_offset_71 = arith.muli %query_offset_69, %query_offset_70 : tensor<16x1xi64> loc(#loc325)
    %query_offset_72 = tt.expand_dims %query_offset_1_68 {axis = 1 : i32} : tensor<16xi32> -> tensor<16x1xi32> loc(#loc326)
    %query_offset_73 = arith.extsi %query_offset_72 : tensor<16x1xi32> to tensor<16x1xi64> loc(#loc327)
    %query_offset_74 = tt.splat %query_stride_1 : i64 -> tensor<16x1xi64> loc(#loc327)
    %query_offset_75 = arith.muli %query_offset_73, %query_offset_74 : tensor<16x1xi64> loc(#loc327)
    %query_offset_76 = arith.addi %query_offset_71, %query_offset_75 : tensor<16x1xi64> loc(#loc328)
    %query_offset_77 = tt.expand_dims %offs_d {axis = 0 : i32} : tensor<256xi32> -> tensor<1x256xi32> loc(#loc329)
    %query_offset_78 = arith.extsi %query_offset_77 : tensor<1x256xi32> to tensor<1x256xi64> loc(#loc330)
    %query_offset_79 = tt.broadcast %query_offset_76 : tensor<16x1xi64> -> tensor<16x256xi64> loc(#loc330)
    %query_offset_80 = tt.broadcast %query_offset_78 : tensor<1x256xi64> -> tensor<16x256xi64> loc(#loc330)
    %query_offset_81 = arith.addi %query_offset_79, %query_offset_80 : tensor<16x256xi64> loc(#loc330)
    %dim_mask = arith.constant 256 : i32 loc(#loc331)
    %dim_mask_82 = arith.constant dense<256> : tensor<256xi32> loc(#loc331)
    %dim_mask_83 = arith.cmpi slt, %offs_d, %dim_mask_82 : tensor<256xi32> loc(#loc331)
    %dim_mask_84 = arith.constant 1 : i32 loc(#loc332)
    %dim_mask_85 = arith.constant 0 : i32 loc(#loc332)
    %dim_mask_86 = arith.constant 1 : i32 loc(#loc332)
    %dim_mask_87 = arith.constant 0 : i32 loc(#loc332)
    %dim_mask_88 = arith.constant dense<1> : tensor<256xi32> loc(#loc332)
    %dim_mask_89 = arith.constant dense<0> : tensor<256xi32> loc(#loc332)
    %dim_mask_90 = arith.select %dim_mask_83, %dim_mask_88, %dim_mask_89 : tensor<256xi1>, tensor<256xi32> loc(#loc332)
    %dim_mask_91 = arith.constant 0 : i32 loc(#loc333)
    %dim_mask_92 = arith.constant dense<0> : tensor<256xi32> loc(#loc333)
    %dim_mask_93 = arith.cmpi ne, %dim_mask_90, %dim_mask_92 : tensor<256xi32> loc(#loc333)
    %query_mask_0 = tt.splat %0#3 : i32 -> tensor<16xi32> loc(#loc334)
    %query_mask_0_94 = arith.cmpi slt, %query_pos_31, %query_mask_0 : tensor<16xi32> loc(#loc334)
    %query_mask_0_95 = arith.constant 1 : i32 loc(#loc335)
    %query_mask_0_96 = arith.constant 0 : i32 loc(#loc335)
    %query_mask_0_97 = arith.constant 1 : i32 loc(#loc335)
    %query_mask_0_98 = arith.constant 0 : i32 loc(#loc335)
    %query_mask_0_99 = arith.constant dense<1> : tensor<16xi32> loc(#loc335)
    %query_mask_0_100 = arith.constant dense<0> : tensor<16xi32> loc(#loc335)
    %query_mask_0_101 = arith.select %query_mask_0_94, %query_mask_0_99, %query_mask_0_100 : tensor<16xi1>, tensor<16xi32> loc(#loc335)
    %query_mask_0_102 = arith.constant 0 : i32 loc(#loc336)
    %query_mask_0_103 = arith.constant dense<0> : tensor<16xi32> loc(#loc336)
    %query_mask_0_104 = arith.cmpi ne, %query_mask_0_101, %query_mask_0_103 : tensor<16xi32> loc(#loc336)
    %query_mask_1 = arith.constant 16 : i32 loc(#loc337)
    %query_mask_1_105 = arith.constant dense<16> : tensor<16xi32> loc(#loc337)
    %query_mask_1_106 = arith.cmpi slt, %query_offset_1_68, %query_mask_1_105 : tensor<16xi32> loc(#loc337)
    %query_mask_1_107 = arith.constant 1 : i32 loc(#loc338)
    %query_mask_1_108 = arith.constant 0 : i32 loc(#loc338)
    %query_mask_1_109 = arith.constant 1 : i32 loc(#loc338)
    %query_mask_1_110 = arith.constant 0 : i32 loc(#loc338)
    %query_mask_1_111 = arith.constant dense<1> : tensor<16xi32> loc(#loc338)
    %query_mask_1_112 = arith.constant dense<0> : tensor<16xi32> loc(#loc338)
    %query_mask_1_113 = arith.select %query_mask_1_106, %query_mask_1_111, %query_mask_1_112 : tensor<16xi1>, tensor<16xi32> loc(#loc338)
    %query_mask_1_114 = arith.constant 0 : i32 loc(#loc339)
    %query_mask_1_115 = arith.constant dense<0> : tensor<16xi32> loc(#loc339)
    %query_mask_1_116 = arith.cmpi ne, %query_mask_1_113, %query_mask_1_115 : tensor<16xi32> loc(#loc339)
    %Q = tt.expand_dims %dim_mask_93 {axis = 0 : i32} : tensor<256xi1> -> tensor<1x256xi1> loc(#loc340)
    %Q_117 = tt.expand_dims %query_mask_0_104 {axis = 1 : i32} : tensor<16xi1> -> tensor<16x1xi1> loc(#loc341)
    %Q_118 = tt.broadcast %Q : tensor<1x256xi1> -> tensor<16x256xi1> loc(#loc342)
    %Q_119 = tt.broadcast %Q_117 : tensor<16x1xi1> -> tensor<16x256xi1> loc(#loc342)
    %Q_120 = arith.andi %Q_118, %Q_119 : tensor<16x256xi1> loc(#loc342)
    %Q_121 = tt.expand_dims %query_mask_1_116 {axis = 1 : i32} : tensor<16xi1> -> tensor<16x1xi1> loc(#loc343)
    %Q_122 = tt.broadcast %Q_121 : tensor<16x1xi1> -> tensor<16x256xi1> loc(#loc344)
    %Q_123 = arith.andi %Q_120, %Q_122 : tensor<16x256xi1> loc(#loc344)
    %Q_124 = tt.splat %query_ptr : !tt.ptr<bf16> -> tensor<16x256x!tt.ptr<bf16>> loc(#loc345)
    %Q_125 = tt.addptr %Q_124, %query_offset_81 : tensor<16x256x!tt.ptr<bf16>>, tensor<16x256xi64> loc(#loc345)
    %Q_126 = arith.constant 0.000000e+00 : f32 loc(#loc346)
    %Q_127 = arith.constant dense<0.000000e+00> : tensor<16x256xf32> loc(#loc346)
    %Q_128 = arith.truncf %Q_127 : tensor<16x256xf32> to tensor<16x256xbf16> loc(#loc346)
    %Q_129 = tt.load %Q_125, %Q_123, %Q_128 : tensor<16x256x!tt.ptr<bf16>> loc(#loc346)
    %block_table_offset = arith.extsi %0#0 : i32 to i64 loc(#loc347)
    %block_table_offset_130 = arith.muli %block_table_offset, %block_table_stride : i64 loc(#loc347)
    %M = tt.call @"vllm.v1.attention.ops.triton_attention_helpers.init_softmax_M__i32S16S_u1S16S_i32__(0,)cconstexpr_None__(4,)cconstexpr_16__(5,)cconstexpr_False__(6,)cconstexpr_True_"(%query_offset_1_68, %query_mask_1_116, %segm_idx) : (tensor<16xi32>, tensor<16xi1>, i32) -> tensor<16xf32> loc(#loc348)
    %L = arith.constant 1.000000e+00 : f32 loc(#loc349)
    %L_131 = arith.constant dense<1.000000e+00> : tensor<16xf32> loc(#loc349)
    %acc = tt.call @"triton.language.standard.zeros____(0, 0)cconstexpr_16__(0, 1)cconstexpr_256__(1,)cconstexpr_fp32_"() : () -> tensor<16x256xf32> loc(#loc350)
    %context_len = arith.extsi %0#4 : i32 to i64 loc(#loc351)
    %context_len_132 = arith.extsi %0#3 : i32 to i64 loc(#loc351)
    %context_len_133 = arith.subi %context_len, %context_len_132 : i64 loc(#loc351)
    %context_len_134 = arith.constant 2147483647 : i64 loc(#loc351)
    %context_len_135 = arith.constant -2147483648 : i64 loc(#loc351)
    %context_len_136 = arith.cmpi sle, %context_len_133, %context_len_134 : i64 loc(#loc351)
    %context_len_137 = arith.cmpi sge, %context_len_133, %context_len_135 : i64 loc(#loc351)
    %context_len_138 = arith.andi %context_len_136, %context_len_137 : i1 loc(#loc351)
    %context_len_139 = arith.subi %0#4, %0#3 : i32 loc(#loc351)
    %24:3 = tt.call @"vllm.v1.attention.ops.triton_attention_helpers.compute_tile_loop_bounds__i32_i32_i32_i32_i32_i32__(6,)cconstexpr_32__(7,)cconstexpr_16__(8,)cconstexpr_8__(9,)cconstexpr_2__(10,)cconstexpr_1024__(11,)cconstexpr_False__(12,)cconstexpr_True__(13,)cconstexpr_-1__(14,)cconstexpr_-1_"(%context_len_139, %0#4, %0#3, %0#1, %segm_idx, %tiles_per_segment) : (i32, i32, i32, i32, i32, i32) -> (i32, i32, i32) loc(#loc51)
    %c1_i32 = arith.constant 1 : i32 loc(#loc52)
    %25 = arith.bitcast %24#0 : i32 to i32 loc(#loc52)
    %26 = arith.bitcast %24#1 : i32 to i32 loc(#loc52)
    %27 = arith.bitcast %c1_i32 : i32 to i32 loc(#loc52)
    %28 = ub.poison : i32 loc(#loc52)
    %acc_140:3 = scf.for %j = %25 to %26 step %27 iter_args(%M_183 = %M, %L_184 = %L_131, %acc_185 = %acc) -> (tensor<16xf32>, tensor<16xf32>, tensor<16x256xf32>)  : i32 {
      %seq_offset = arith.constant 32 : i32 loc(#loc353)
      %seq_offset_186 = arith.constant 32 : i32 loc(#loc353)
      %seq_offset_187 = arith.extsi %j : i32 to i64 loc(#loc353)
      %seq_offset_188 = arith.extsi %seq_offset_186 : i32 to i64 loc(#loc353)
      %seq_offset_189 = arith.muli %seq_offset_187, %seq_offset_188 : i64 loc(#loc353)
      %seq_offset_190 = arith.constant 2147483647 : i64 loc(#loc353)
      %seq_offset_191 = arith.constant -2147483648 : i64 loc(#loc353)
      %seq_offset_192 = arith.cmpi sle, %seq_offset_189, %seq_offset_190 : i64 loc(#loc353)
      %seq_offset_193 = arith.cmpi sge, %seq_offset_189, %seq_offset_191 : i64 loc(#loc353)
      %seq_offset_194 = arith.andi %seq_offset_192, %seq_offset_193 : i1 loc(#loc353)
      %seq_offset_195 = arith.muli %j, %seq_offset_186 : i32 loc(#loc353)
      %seq_offset_196 = tt.splat %seq_offset_195 : i32 -> tensor<32xi32> loc(#loc354)
      %seq_offset_197 = arith.extsi %seq_offset_196 : tensor<32xi32> to tensor<32xi64> loc(#loc354)
      %seq_offset_198 = arith.extsi %offs_t : tensor<32xi32> to tensor<32xi64> loc(#loc354)
      %seq_offset_199 = arith.addi %seq_offset_197, %seq_offset_198 : tensor<32xi64> loc(#loc354)
      %seq_offset_200 = arith.constant 2147483647 : i64 loc(#loc354)
      %seq_offset_201 = arith.constant -2147483648 : i64 loc(#loc354)
      %seq_offset_202 = arith.constant dense<2147483647> : tensor<32xi64> loc(#loc354)
      %seq_offset_203 = arith.cmpi sle, %seq_offset_199, %seq_offset_202 : tensor<32xi64> loc(#loc354)
      %seq_offset_204 = arith.constant dense<-2147483648> : tensor<32xi64> loc(#loc354)
      %seq_offset_205 = arith.cmpi sge, %seq_offset_199, %seq_offset_204 : tensor<32xi64> loc(#loc354)
      %seq_offset_206 = arith.andi %seq_offset_203, %seq_offset_205 : tensor<32xi1> loc(#loc354)
      %seq_offset_207 = arith.addi %seq_offset_196, %offs_t : tensor<32xi32> loc(#loc354)
      %tile_mask = tt.splat %24#2 : i32 -> tensor<32xi32> loc(#loc355)
      %tile_mask_208 = arith.cmpi slt, %seq_offset_207, %tile_mask : tensor<32xi32> loc(#loc355)
      %physical_block_idx = tt.addptr %block_tables_ptr, %block_table_offset_130 : !tt.ptr<i32>, i64 loc(#loc356)
      %physical_block_idx_209 = arith.constant 16 : i32 loc(#loc357)
      %physical_block_idx_210 = arith.constant 16 : i32 loc(#loc357)
      %physical_block_idx_211 = arith.constant dense<16> : tensor<32xi32> loc(#loc357)
      %physical_block_idx_212 = arith.divsi %seq_offset_207, %physical_block_idx_211 : tensor<32xi32> loc(#loc357)
      %physical_block_idx_213 = tt.splat %physical_block_idx : !tt.ptr<i32> -> tensor<32x!tt.ptr<i32>> loc(#loc358)
      %physical_block_idx_214 = tt.addptr %physical_block_idx_213, %physical_block_idx_212 : tensor<32x!tt.ptr<i32>>, tensor<32xi32> loc(#loc358)
      %physical_block_idx_215 = tt.load %physical_block_idx_214 : tensor<32x!tt.ptr<i32>> loc(#loc359)
      %physical_block_idx_216 = arith.extsi %physical_block_idx_215 : tensor<32xi32> to tensor<32xi64> loc(#loc360)
      %v_offset = tt.expand_dims %physical_block_idx_216 {axis = 1 : i32} : tensor<32xi64> -> tensor<32x1xi64> loc(#loc361)
      %v_offset_217 = tt.splat %stride_v_cache_0 : i64 -> tensor<32x1xi64> loc(#loc362)
      %v_offset_218 = arith.muli %v_offset, %v_offset_217 : tensor<32x1xi64> loc(#loc362)
      %v_offset_219 = arith.extsi %kv_head_idx : i32 to i64 loc(#loc363)
      %v_offset_220 = arith.muli %v_offset_219, %stride_v_cache_2 : i64 loc(#loc363)
      %v_offset_221 = tt.splat %v_offset_220 : i64 -> tensor<32x1xi64> loc(#loc364)
      %v_offset_222 = arith.addi %v_offset_218, %v_offset_221 : tensor<32x1xi64> loc(#loc364)
      %v_offset_223 = tt.expand_dims %offs_d {axis = 0 : i32} : tensor<256xi32> -> tensor<1x256xi32> loc(#loc365)
      %v_offset_224 = arith.constant 1 : i32 loc(#loc366)
      %v_offset_225 = arith.constant 1 : i32 loc(#loc366)
      %v_offset_226 = arith.constant dense<1> : tensor<1x256xi32> loc(#loc366)
      %v_offset_227 = arith.extsi %v_offset_223 : tensor<1x256xi32> to tensor<1x256xi64> loc(#loc366)
      %v_offset_228 = arith.extsi %v_offset_226 : tensor<1x256xi32> to tensor<1x256xi64> loc(#loc366)
      %v_offset_229 = arith.muli %v_offset_227, %v_offset_228 : tensor<1x256xi64> loc(#loc366)
      %v_offset_230 = arith.constant 2147483647 : i64 loc(#loc366)
      %v_offset_231 = arith.constant -2147483648 : i64 loc(#loc366)
      %v_offset_232 = arith.constant dense<2147483647> : tensor<1x256xi64> loc(#loc366)
      %v_offset_233 = arith.cmpi sle, %v_offset_229, %v_offset_232 : tensor<1x256xi64> loc(#loc366)
      %v_offset_234 = arith.constant dense<-2147483648> : tensor<1x256xi64> loc(#loc366)
      %v_offset_235 = arith.cmpi sge, %v_offset_229, %v_offset_234 : tensor<1x256xi64> loc(#loc366)
      %v_offset_236 = arith.andi %v_offset_233, %v_offset_235 : tensor<1x256xi1> loc(#loc366)
      %v_offset_237 = arith.muli %v_offset_223, %v_offset_226 : tensor<1x256xi32> loc(#loc366)
      %v_offset_238 = arith.extsi %v_offset_237 : tensor<1x256xi32> to tensor<1x256xi64> loc(#loc367)
      %v_offset_239 = tt.broadcast %v_offset_222 : tensor<32x1xi64> -> tensor<32x256xi64> loc(#loc367)
      %v_offset_240 = tt.broadcast %v_offset_238 : tensor<1x256xi64> -> tensor<32x256xi64> loc(#loc367)
      %v_offset_241 = arith.addi %v_offset_239, %v_offset_240 : tensor<32x256xi64> loc(#loc367)
      %v_offset_242 = arith.constant 16 : i32 loc(#loc368)
      %v_offset_243 = arith.constant 16 : i32 loc(#loc368)
      %v_offset_244 = arith.constant dense<16> : tensor<32xi32> loc(#loc368)
      %v_offset_245 = arith.remsi %seq_offset_207, %v_offset_244 : tensor<32xi32> loc(#loc368)
      %v_offset_246 = tt.expand_dims %v_offset_245 {axis = 1 : i32} : tensor<32xi32> -> tensor<32x1xi32> loc(#loc369)
      %v_offset_247 = arith.extsi %v_offset_246 : tensor<32x1xi32> to tensor<32x1xi64> loc(#loc370)
      %v_offset_248 = tt.splat %stride_v_cache_1 : i64 -> tensor<32x1xi64> loc(#loc370)
      %v_offset_249 = arith.muli %v_offset_247, %v_offset_248 : tensor<32x1xi64> loc(#loc370)
      %v_offset_250 = tt.broadcast %v_offset_249 : tensor<32x1xi64> -> tensor<32x256xi64> loc(#loc371)
      %v_offset_251 = arith.addi %v_offset_241, %v_offset_250 : tensor<32x256xi64> loc(#loc371)
      %k_offset = tt.expand_dims %physical_block_idx_216 {axis = 0 : i32} : tensor<32xi64> -> tensor<1x32xi64> loc(#loc372)
      %k_offset_252 = tt.splat %stride_k_cache_0 : i64 -> tensor<1x32xi64> loc(#loc373)
      %k_offset_253 = arith.muli %k_offset, %k_offset_252 : tensor<1x32xi64> loc(#loc373)
      %k_offset_254 = arith.extsi %kv_head_idx : i32 to i64 loc(#loc374)
      %k_offset_255 = arith.muli %k_offset_254, %stride_k_cache_2 : i64 loc(#loc374)
      %k_offset_256 = tt.splat %k_offset_255 : i64 -> tensor<1x32xi64> loc(#loc375)
      %k_offset_257 = arith.addi %k_offset_253, %k_offset_256 : tensor<1x32xi64> loc(#loc375)
      %k_offset_258 = tt.expand_dims %offs_d {axis = 1 : i32} : tensor<256xi32> -> tensor<256x1xi32> loc(#loc376)
      %k_offset_259 = arith.constant 1 : i32 loc(#loc377)
      %k_offset_260 = arith.constant 1 : i32 loc(#loc377)
      %k_offset_261 = arith.constant dense<1> : tensor<256x1xi32> loc(#loc377)
      %k_offset_262 = arith.extsi %k_offset_258 : tensor<256x1xi32> to tensor<256x1xi64> loc(#loc377)
      %k_offset_263 = arith.extsi %k_offset_261 : tensor<256x1xi32> to tensor<256x1xi64> loc(#loc377)
      %k_offset_264 = arith.muli %k_offset_262, %k_offset_263 : tensor<256x1xi64> loc(#loc377)
      %k_offset_265 = arith.constant 2147483647 : i64 loc(#loc377)
      %k_offset_266 = arith.constant -2147483648 : i64 loc(#loc377)
      %k_offset_267 = arith.constant dense<2147483647> : tensor<256x1xi64> loc(#loc377)
      %k_offset_268 = arith.cmpi sle, %k_offset_264, %k_offset_267 : tensor<256x1xi64> loc(#loc377)
      %k_offset_269 = arith.constant dense<-2147483648> : tensor<256x1xi64> loc(#loc377)
      %k_offset_270 = arith.cmpi sge, %k_offset_264, %k_offset_269 : tensor<256x1xi64> loc(#loc377)
      %k_offset_271 = arith.andi %k_offset_268, %k_offset_270 : tensor<256x1xi1> loc(#loc377)
      %k_offset_272 = arith.muli %k_offset_258, %k_offset_261 : tensor<256x1xi32> loc(#loc377)
      %k_offset_273 = arith.extsi %k_offset_272 : tensor<256x1xi32> to tensor<256x1xi64> loc(#loc378)
      %k_offset_274 = tt.broadcast %k_offset_257 : tensor<1x32xi64> -> tensor<256x32xi64> loc(#loc378)
      %k_offset_275 = tt.broadcast %k_offset_273 : tensor<256x1xi64> -> tensor<256x32xi64> loc(#loc378)
      %k_offset_276 = arith.addi %k_offset_274, %k_offset_275 : tensor<256x32xi64> loc(#loc378)
      %k_offset_277 = arith.constant 16 : i32 loc(#loc379)
      %k_offset_278 = arith.constant 16 : i32 loc(#loc379)
      %k_offset_279 = arith.constant dense<16> : tensor<32xi32> loc(#loc379)
      %k_offset_280 = arith.remsi %seq_offset_207, %k_offset_279 : tensor<32xi32> loc(#loc379)
      %k_offset_281 = tt.expand_dims %k_offset_280 {axis = 0 : i32} : tensor<32xi32> -> tensor<1x32xi32> loc(#loc380)
      %k_offset_282 = arith.extsi %k_offset_281 : tensor<1x32xi32> to tensor<1x32xi64> loc(#loc381)
      %k_offset_283 = tt.splat %stride_k_cache_1 : i64 -> tensor<1x32xi64> loc(#loc381)
      %k_offset_284 = arith.muli %k_offset_282, %k_offset_283 : tensor<1x32xi64> loc(#loc381)
      %k_offset_285 = tt.broadcast %k_offset_284 : tensor<1x32xi64> -> tensor<256x32xi64> loc(#loc382)
      %k_offset_286 = arith.addi %k_offset_276, %k_offset_285 : tensor<256x32xi64> loc(#loc382)
      %K_load = tt.expand_dims %dim_mask_93 {axis = 1 : i32} : tensor<256xi1> -> tensor<256x1xi1> loc(#loc383)
      %K_load_287 = tt.expand_dims %tile_mask_208 {axis = 0 : i32} : tensor<32xi1> -> tensor<1x32xi1> loc(#loc384)
      %K_load_288 = tt.broadcast %K_load : tensor<256x1xi1> -> tensor<256x32xi1> loc(#loc385)
      %K_load_289 = tt.broadcast %K_load_287 : tensor<1x32xi1> -> tensor<256x32xi1> loc(#loc385)
      %K_load_290 = arith.andi %K_load_288, %K_load_289 : tensor<256x32xi1> loc(#loc385)
      %K_load_291 = tt.splat %key_cache_ptr : !tt.ptr<bf16> -> tensor<256x32x!tt.ptr<bf16>> loc(#loc386)
      %K_load_292 = tt.addptr %K_load_291, %k_offset_286 : tensor<256x32x!tt.ptr<bf16>>, tensor<256x32xi64> loc(#loc386)
      %K_load_293 = arith.constant 0.000000e+00 : f32 loc(#loc387)
      %K_load_294 = arith.constant dense<0.000000e+00> : tensor<256x32xf32> loc(#loc387)
      %K_load_295 = arith.truncf %K_load_294 : tensor<256x32xf32> to tensor<256x32xbf16> loc(#loc387)
      %K_load_296 = tt.load %K_load_292, %K_load_290, %K_load_295 : tensor<256x32x!tt.ptr<bf16>> loc(#loc387)
      %K = tt.call @"vllm.v1.attention.ops.triton_unified_attention._cast_kv_tile__bf16S256_32S_bf16S16_256S_Pfp32__(3,)cconstexpr_0_"(%K_load_296, %Q_129, %k_scale) : (tensor<256x32xbf16>, tensor<16x256xbf16>, !tt.ptr<f32>) -> tensor<256x32xbf16> loc(#loc388)
      %V_load = tt.expand_dims %dim_mask_93 {axis = 0 : i32} : tensor<256xi1> -> tensor<1x256xi1> loc(#loc389)
      %V_load_297 = tt.expand_dims %tile_mask_208 {axis = 1 : i32} : tensor<32xi1> -> tensor<32x1xi1> loc(#loc390)
      %V_load_298 = tt.broadcast %V_load : tensor<1x256xi1> -> tensor<32x256xi1> loc(#loc391)
      %V_load_299 = tt.broadcast %V_load_297 : tensor<32x1xi1> -> tensor<32x256xi1> loc(#loc391)
      %V_load_300 = arith.andi %V_load_298, %V_load_299 : tensor<32x256xi1> loc(#loc391)
      %V_load_301 = tt.splat %value_cache_ptr : !tt.ptr<bf16> -> tensor<32x256x!tt.ptr<bf16>> loc(#loc392)
      %V_load_302 = tt.addptr %V_load_301, %v_offset_251 : tensor<32x256x!tt.ptr<bf16>>, tensor<32x256xi64> loc(#loc392)
      %V_load_303 = arith.constant 0.000000e+00 : f32 loc(#loc393)
      %V_load_304 = arith.constant dense<0.000000e+00> : tensor<32x256xf32> loc(#loc393)
      %V_load_305 = arith.truncf %V_load_304 : tensor<32x256xf32> to tensor<32x256xbf16> loc(#loc393)
      %V_load_306 = tt.load %V_load_302, %V_load_300, %V_load_305 : tensor<32x256x!tt.ptr<bf16>> loc(#loc393)
      %V = tt.call @"vllm.v1.attention.ops.triton_unified_attention._cast_kv_tile__bf16S32_256S_bf16S16_256S_Pfp32__(3,)cconstexpr_0_"(%V_load_306, %Q_129, %v_scale) : (tensor<32x256xbf16>, tensor<16x256xbf16>, !tt.ptr<f32>) -> tensor<32x256xbf16> loc(#loc394)
      %query_abs_pos = tt.expand_dims %query_pos_31 {axis = 1 : i32} : tensor<16xi32> -> tensor<16x1xi32> loc(#loc395)
      %query_abs_pos_307 = tt.splat %context_len_139 : i32 -> tensor<16x1xi32> loc(#loc396)
      %query_abs_pos_308 = arith.extsi %query_abs_pos_307 : tensor<16x1xi32> to tensor<16x1xi64> loc(#loc396)
      %query_abs_pos_309 = arith.extsi %query_abs_pos : tensor<16x1xi32> to tensor<16x1xi64> loc(#loc396)
      %query_abs_pos_310 = arith.addi %query_abs_pos_308, %query_abs_pos_309 : tensor<16x1xi64> loc(#loc396)
      %query_abs_pos_311 = arith.constant 2147483647 : i64 loc(#loc396)
      %query_abs_pos_312 = arith.constant -2147483648 : i64 loc(#loc396)
      %query_abs_pos_313 = arith.constant dense<2147483647> : tensor<16x1xi64> loc(#loc396)
      %query_abs_pos_314 = arith.cmpi sle, %query_abs_pos_310, %query_abs_pos_313 : tensor<16x1xi64> loc(#loc396)
      %query_abs_pos_315 = arith.constant dense<-2147483648> : tensor<16x1xi64> loc(#loc396)
      %query_abs_pos_316 = arith.cmpi sge, %query_abs_pos_310, %query_abs_pos_315 : tensor<16x1xi64> loc(#loc396)
      %query_abs_pos_317 = arith.andi %query_abs_pos_314, %query_abs_pos_316 : tensor<16x1xi1> loc(#loc396)
      %query_abs_pos_318 = arith.addi %query_abs_pos_307, %query_abs_pos : tensor<16x1xi32> loc(#loc396)
      %seq_mask = tt.call @"vllm.v1.attention.ops.triton_attention_helpers.compute_kv_seq_mask__i32S16_1S_i32S32S_i32__(3,)cconstexpr_None__(4,)cconstexpr_1024__(5,)cconstexpr_False__(6,)cconstexpr_0__(7,)cconstexpr_-1__(8,)cconstexpr_-1_"(%query_abs_pos_318, %seq_offset_207, %0#0) : (tensor<16x1xi32>, tensor<32xi32>, i32) -> tensor<16x32xi1> loc(#loc397)
      %S = tt.call @"triton.language.standard.zeros____(0, 0)cconstexpr_16__(0, 1)cconstexpr_32__(1,)cconstexpr_fp32_"() : () -> tensor<16x32xf32> loc(#loc398)
      %S_319 = arith.constant 0.000000e+00 : f32 loc(#loc399)
      %S_320 = arith.constant dense<0.000000e+00> : tensor<16x32xf32> loc(#loc399)
      %S_321 = tt.dot %Q_129, %K, %S_320, inputPrecision = tf32 : tensor<16x256xbf16> * tensor<256x32xbf16> -> tensor<16x32xf32> loc(#loc399)
      %S_322 = tt.splat %scale : f32 -> tensor<16x32xf32> loc(#loc400)
      %S_323 = arith.mulf %S_322, %S_321 : tensor<16x32xf32> loc(#loc400)
      %S_324 = arith.addf %S, %S_323 : tensor<16x32xf32> loc(#loc401)
      %S_325 = tt.expand_dims %query_mask_1_116 {axis = 1 : i32} : tensor<16xi1> -> tensor<16x1xi1> loc(#loc402)
      %S_326 = tt.expand_dims %query_mask_0_104 {axis = 1 : i32} : tensor<16xi1> -> tensor<16x1xi1> loc(#loc403)
      %S_327 = arith.andi %S_325, %S_326 : tensor<16x1xi1> loc(#loc404)
      %S_328 = tt.broadcast %S_327 : tensor<16x1xi1> -> tensor<16x32xi1> loc(#loc405)
      %S_329 = arith.andi %S_328, %seq_mask : tensor<16x32xi1> loc(#loc405)
      %S_330 = arith.constant 0xFF800000 : f32 loc(#loc406)
      %S_331 = arith.constant 0xFF800000 : f32 loc(#loc406)
      %S_332 = arith.constant dense<0xFF800000> : tensor<16x32xf32> loc(#loc406)
      %S_333 = arith.select %S_329, %S_324, %S_332 : tensor<16x32xi1>, tensor<16x32xf32> loc(#loc406)
      %39:4 = tt.call @vllm.v1.attention.ops.triton_attention_helpers.softmax_step__fp32S16_32S_fp32S16S_fp32S16S__(%S_333, %M_183, %L_184) : (tensor<16x32xf32>, tensor<16xf32>, tensor<16xf32>) -> (tensor<16xf32>, tensor<16xf32>, tensor<16x32xf32>, tensor<16xf32>) loc(#loc107)
      %acc_334 = tt.expand_dims %39#3 {axis = 1 : i32} : tensor<16xf32> -> tensor<16x1xf32> loc(#loc407)
      %acc_335 = tt.broadcast %acc_334 : tensor<16x1xf32> -> tensor<16x256xf32> loc(#loc408)
      %acc_336 = arith.mulf %acc_185, %acc_335 : tensor<16x256xf32> loc(#loc408)
      %qpos_lo = arith.constant 8 : i32 loc(#loc409)
      %qpos_lo_337 = arith.constant 8 : i32 loc(#loc409)
      %qpos_lo_338 = arith.extsi %0#1 : i32 to i64 loc(#loc409)
      %qpos_lo_339 = arith.extsi %qpos_lo_337 : i32 to i64 loc(#loc409)
      %qpos_lo_340 = arith.muli %qpos_lo_338, %qpos_lo_339 : i64 loc(#loc409)
      %qpos_lo_341 = arith.constant 2147483647 : i64 loc(#loc409)
      %qpos_lo_342 = arith.constant -2147483648 : i64 loc(#loc409)
      %qpos_lo_343 = arith.cmpi sle, %qpos_lo_340, %qpos_lo_341 : i64 loc(#loc409)
      %qpos_lo_344 = arith.cmpi sge, %qpos_lo_340, %qpos_lo_342 : i64 loc(#loc409)
      %qpos_lo_345 = arith.andi %qpos_lo_343, %qpos_lo_344 : i1 loc(#loc409)
      %qpos_lo_346 = arith.muli %0#1, %qpos_lo_337 : i32 loc(#loc409)
      %V_347 = arith.extsi %context_len_139 : i32 to i64 loc(#loc410)
      %V_348 = arith.extsi %qpos_lo_346 : i32 to i64 loc(#loc410)
      %V_349 = arith.addi %V_347, %V_348 : i64 loc(#loc410)
      %V_350 = arith.constant 2147483647 : i64 loc(#loc410)
      %V_351 = arith.constant -2147483648 : i64 loc(#loc410)
      %V_352 = arith.cmpi sle, %V_349, %V_350 : i64 loc(#loc410)
      %V_353 = arith.cmpi sge, %V_349, %V_351 : i64 loc(#loc410)
      %V_354 = arith.andi %V_352, %V_353 : i1 loc(#loc410)
      %V_355 = arith.addi %context_len_139, %qpos_lo_346 : i32 loc(#loc410)
      %V_356 = tt.expand_dims %seq_offset_207 {axis = 1 : i32} : tensor<32xi32> -> tensor<32x1xi32> loc(#loc411)
      %V_357 = tt.splat %V_355 : i32 -> tensor<32x1xi32> loc(#loc412)
      %V_358 = arith.extsi %V_357 : tensor<32x1xi32> to tensor<32x1xi64> loc(#loc412)
      %V_359 = arith.extsi %V_356 : tensor<32x1xi32> to tensor<32x1xi64> loc(#loc412)
      %V_360 = arith.subi %V_358, %V_359 : tensor<32x1xi64> loc(#loc412)
      %V_361 = arith.constant 2147483647 : i64 loc(#loc412)
      %V_362 = arith.constant -2147483648 : i64 loc(#loc412)
      %V_363 = arith.constant dense<2147483647> : tensor<32x1xi64> loc(#loc412)
      %V_364 = arith.cmpi sle, %V_360, %V_363 : tensor<32x1xi64> loc(#loc412)
      %V_365 = arith.constant dense<-2147483648> : tensor<32x1xi64> loc(#loc412)
      %V_366 = arith.cmpi sge, %V_360, %V_365 : tensor<32x1xi64> loc(#loc412)
      %V_367 = arith.andi %V_364, %V_366 : tensor<32x1xi1> loc(#loc412)
      %V_368 = arith.subi %V_357, %V_356 : tensor<32x1xi32> loc(#loc412)
      %V_369 = arith.constant 1024 : i32 loc(#loc413)
      %V_370 = arith.constant dense<1024> : tensor<32x1xi32> loc(#loc413)
      %V_371 = arith.cmpi slt, %V_368, %V_370 : tensor<32x1xi32> loc(#loc413)
      %V_372 = arith.constant 0.000000e+00 : f32 loc(#loc414)
      %V_373 = arith.constant 0.000000e+00 : bf16 loc(#loc414)
      %V_374 = arith.constant dense<0.000000e+00> : tensor<32x256xbf16> loc(#loc414)
      %V_375 = tt.broadcast %V_371 : tensor<32x1xi1> -> tensor<32x256xi1> loc(#loc414)
      %V_376 = arith.select %V_375, %V, %V_374 : tensor<32x256xi1>, tensor<32x256xbf16> loc(#loc414)
      %acc_377 = arith.truncf %39#2 : tensor<16x32xf32> to tensor<16x32xbf16> loc(#loc415)
      %acc_378 = arith.constant 0.000000e+00 : f32 loc(#loc416)
      %acc_379 = arith.constant dense<0.000000e+00> : tensor<16x256xf32> loc(#loc416)
      %acc_380 = tt.dot %acc_377, %V_376, %acc_379, inputPrecision = tf32 : tensor<16x32xbf16> * tensor<32x256xbf16> -> tensor<16x256xf32> loc(#loc416)
      %acc_381 = arith.addf %acc_336, %acc_380 : tensor<16x256xf32> loc(#loc417)
      scf.yield %39#0, %39#1, %acc_381 : tensor<16xf32>, tensor<16xf32>, tensor<16x256xf32> loc(#loc119)
    } loc(#loc549)
    %segm_output_offset = tt.expand_dims %query_offset_0_42 {axis = 1 : i32} : tensor<16xi32> -> tensor<16x1xi32> loc(#loc418)
    %segm_output_offset_141 = arith.extsi %segm_output_offset : tensor<16x1xi32> to tensor<16x1xi64> loc(#loc419)
    %segm_output_offset_142 = arith.constant 65536 : i32 loc(#loc420)
    %segm_output_offset_143 = arith.constant 65536 : i64 loc(#loc420)
    %segm_output_offset_144 = arith.constant dense<65536> : tensor<16x1xi64> loc(#loc420)
    %segm_output_offset_145 = arith.muli %segm_output_offset_141, %segm_output_offset_144 : tensor<16x1xi64> loc(#loc420)
    %segm_output_offset_146 = tt.expand_dims %query_offset_1_68 {axis = 1 : i32} : tensor<16xi32> -> tensor<16x1xi32> loc(#loc421)
    %segm_output_offset_147 = arith.constant 4096 : i32 loc(#loc422)
    %segm_output_offset_148 = arith.constant 4096 : i32 loc(#loc422)
    %segm_output_offset_149 = arith.constant dense<4096> : tensor<16x1xi32> loc(#loc422)
    %segm_output_offset_150 = arith.extsi %segm_output_offset_146 : tensor<16x1xi32> to tensor<16x1xi64> loc(#loc422)
    %segm_output_offset_151 = arith.extsi %segm_output_offset_149 : tensor<16x1xi32> to tensor<16x1xi64> loc(#loc422)
    %segm_output_offset_152 = arith.muli %segm_output_offset_150, %segm_output_offset_151 : tensor<16x1xi64> loc(#loc422)
    %segm_output_offset_153 = arith.constant 2147483647 : i64 loc(#loc422)
    %segm_output_offset_154 = arith.constant -2147483648 : i64 loc(#loc422)
    %segm_output_offset_155 = arith.constant dense<2147483647> : tensor<16x1xi64> loc(#loc422)
    %segm_output_offset_156 = arith.cmpi sle, %segm_output_offset_152, %segm_output_offset_155 : tensor<16x1xi64> loc(#loc422)
    %segm_output_offset_157 = arith.constant dense<-2147483648> : tensor<16x1xi64> loc(#loc422)
    %segm_output_offset_158 = arith.cmpi sge, %segm_output_offset_152, %segm_output_offset_157 : tensor<16x1xi64> loc(#loc422)
    %segm_output_offset_159 = arith.andi %segm_output_offset_156, %segm_output_offset_158 : tensor<16x1xi1> loc(#loc422)
    %segm_output_offset_160 = arith.muli %segm_output_offset_146, %segm_output_offset_149 : tensor<16x1xi32> loc(#loc422)
    %segm_output_offset_161 = arith.extsi %segm_output_offset_160 : tensor<16x1xi32> to tensor<16x1xi64> loc(#loc423)
    %segm_output_offset_162 = arith.addi %segm_output_offset_145, %segm_output_offset_161 : tensor<16x1xi64> loc(#loc423)
    %segm_output_offset_163 = arith.constant 256 : i32 loc(#loc424)
    %segm_output_offset_164 = arith.constant 256 : i32 loc(#loc424)
    %segm_output_offset_165 = arith.extsi %segm_idx : i32 to i64 loc(#loc424)
    %segm_output_offset_166 = arith.extsi %segm_output_offset_164 : i32 to i64 loc(#loc424)
    %segm_output_offset_167 = arith.muli %segm_output_offset_165, %segm_output_offset_166 : i64 loc(#loc424)
    %segm_output_offset_168 = arith.constant 2147483647 : i64 loc(#loc424)
    %segm_output_offset_169 = arith.constant -2147483648 : i64 loc(#loc424)
    %segm_output_offset_170 = arith.cmpi sle, %segm_output_offset_167, %segm_output_offset_168 : i64 loc(#loc424)
    %segm_output_offset_171 = arith.cmpi sge, %segm_output_offset_167, %segm_output_offset_169 : i64 loc(#loc424)
    %segm_output_offset_172 = arith.andi %segm_output_offset_170, %segm_output_offset_171 : i1 loc(#loc424)
    %segm_output_offset_173 = arith.muli %segm_idx, %segm_output_offset_164 : i32 loc(#loc424)
    %segm_output_offset_174 = arith.extsi %segm_output_offset_173 : i32 to i64 loc(#loc425)
    %segm_output_offset_175 = tt.splat %segm_output_offset_174 : i64 -> tensor<16x1xi64> loc(#loc425)
    %segm_output_offset_176 = arith.addi %segm_output_offset_162, %segm_output_offset_175 : tensor<16x1xi64> loc(#loc425)
    %segm_output_offset_177 = tt.make_range {end = 256 : i32, start = 0 : i32} : tensor<256xi32> loc(#loc426)
    %segm_output_offset_178 = tt.expand_dims %segm_output_offset_177 {axis = 0 : i32} : tensor<256xi32> -> tensor<1x256xi32> loc(#loc427)
    %segm_output_offset_179 = arith.extsi %segm_output_offset_178 : tensor<1x256xi32> to tensor<1x256xi64> loc(#loc428)
    %segm_output_offset_180 = tt.broadcast %segm_output_offset_176 : tensor<16x1xi64> -> tensor<16x256xi64> loc(#loc428)
    %segm_output_offset_181 = tt.broadcast %segm_output_offset_179 : tensor<1x256xi64> -> tensor<16x256xi64> loc(#loc428)
    %segm_output_offset_182 = arith.addi %segm_output_offset_180, %segm_output_offset_181 : tensor<16x256xi64> loc(#loc428)
    %29 = tt.expand_dims %dim_mask_93 {axis = 0 : i32} : tensor<256xi1> -> tensor<1x256xi1> loc(#loc131)
    %30 = tt.expand_dims %query_mask_0_104 {axis = 1 : i32} : tensor<16xi1> -> tensor<16x1xi1> loc(#loc132)
    %31 = tt.broadcast %29 : tensor<1x256xi1> -> tensor<16x256xi1> loc(#loc133)
    %32 = tt.broadcast %30 : tensor<16x1xi1> -> tensor<16x256xi1> loc(#loc133)
    %33 = arith.andi %31, %32 : tensor<16x256xi1> loc(#loc133)
    %34 = tt.expand_dims %query_mask_1_116 {axis = 1 : i32} : tensor<16xi1> -> tensor<16x1xi1> loc(#loc134)
    %35 = tt.broadcast %34 : tensor<16x1xi1> -> tensor<16x256xi1> loc(#loc135)
    %36 = arith.andi %33, %35 : tensor<16x256xi1> loc(#loc135)
    %37 = tt.splat %segm_output_ptr : !tt.ptr<f32> -> tensor<16x256x!tt.ptr<f32>> loc(#loc136)
    %38 = tt.addptr %37, %segm_output_offset_182 : tensor<16x256x!tt.ptr<f32>>, tensor<16x256xi64> loc(#loc136)
    tt.store %38, %acc_140#2, %36 : tensor<16x256x!tt.ptr<f32>> loc(#loc137)
    tt.call @"vllm.v1.attention.ops.triton_attention_helpers.store_segm_reduce_scalars__Pfp32_Pfp32_i32S16S_i32S16S_i32_fp32S16S_fp32S16S_u1S16S_u1S16S__(9,)cconstexpr_16__(10,)cconstexpr_16_"(%segm_max_ptr, %segm_expsum_ptr, %query_offset_0_42, %query_offset_1_68, %segm_idx, %acc_140#0, %acc_140#1, %query_mask_0_104, %query_mask_1_116) : (!tt.ptr<f32>, !tt.ptr<f32>, tensor<16xi32>, tensor<16xi32>, i32, tensor<16xf32>, tensor<16xf32>, tensor<16xi1>, tensor<16xi1>) -> () loc(#loc138)
    tt.return loc(#loc139)
  } loc(#loc)
  tt.func private @"vllm.v1.attention.ops.triton_attention_helpers.resolve_seq_and_query_len__Pi32_Pi32_i32_i32__(4,)cconstexpr_8_"(%query_start_len_ptr: !tt.ptr<i32> loc("query_start_len_ptr"(#loc140)), %seq_lens_ptr: !tt.ptr<i32> loc("seq_lens_ptr"(#loc140)), %q_block_global_idx: i32 loc("q_block_global_idx"(#loc140)), %num_seqs: i32 loc("num_seqs"(#loc140))) -> (i32, i32, i32, i32, i32) attributes {noinline = false} {
    %seq_idx = tt.call @"vllm.v1.attention.ops.triton_attention_helpers.find_seq_idx__Pi32_i32_i32__(3,)cconstexpr_8__(4,)cconstexpr_True_"(%query_start_len_ptr, %q_block_global_idx, %num_seqs) : (!tt.ptr<i32>, i32, i32) -> i32 loc(#loc433)
    %q_block_start_idx = tt.addptr %query_start_len_ptr, %seq_idx : !tt.ptr<i32>, i32 loc(#loc434)
    %q_block_start_idx_0 = tt.load %q_block_start_idx : !tt.ptr<i32> loc(#loc435)
    %q_block_start_idx_1 = arith.constant 8 : i32 loc(#loc436)
    %q_block_start_idx_2 = arith.constant 8 : i32 loc(#loc436)
    %q_block_start_idx_3 = arith.divsi %q_block_start_idx_0, %q_block_start_idx_2 : i32 loc(#loc436)
    %q_block_start_idx_4 = arith.extsi %q_block_start_idx_3 : i32 to i64 loc(#loc437)
    %q_block_start_idx_5 = arith.extsi %seq_idx : i32 to i64 loc(#loc437)
    %q_block_start_idx_6 = arith.addi %q_block_start_idx_4, %q_block_start_idx_5 : i64 loc(#loc437)
    %q_block_start_idx_7 = arith.constant 2147483647 : i64 loc(#loc437)
    %q_block_start_idx_8 = arith.constant -2147483648 : i64 loc(#loc437)
    %q_block_start_idx_9 = arith.cmpi sle, %q_block_start_idx_6, %q_block_start_idx_7 : i64 loc(#loc437)
    %q_block_start_idx_10 = arith.cmpi sge, %q_block_start_idx_6, %q_block_start_idx_8 : i64 loc(#loc437)
    %q_block_start_idx_11 = arith.andi %q_block_start_idx_9, %q_block_start_idx_10 : i1 loc(#loc437)
    %q_block_start_idx_12 = arith.addi %q_block_start_idx_3, %seq_idx : i32 loc(#loc437)
    %q_block_local_idx = arith.extsi %q_block_global_idx : i32 to i64 loc(#loc438)
    %q_block_local_idx_13 = arith.extsi %q_block_start_idx_12 : i32 to i64 loc(#loc438)
    %q_block_local_idx_14 = arith.subi %q_block_local_idx, %q_block_local_idx_13 : i64 loc(#loc438)
    %q_block_local_idx_15 = arith.constant 2147483647 : i64 loc(#loc438)
    %q_block_local_idx_16 = arith.constant -2147483648 : i64 loc(#loc438)
    %q_block_local_idx_17 = arith.cmpi sle, %q_block_local_idx_14, %q_block_local_idx_15 : i64 loc(#loc438)
    %q_block_local_idx_18 = arith.cmpi sge, %q_block_local_idx_14, %q_block_local_idx_16 : i64 loc(#loc438)
    %q_block_local_idx_19 = arith.andi %q_block_local_idx_17, %q_block_local_idx_18 : i1 loc(#loc438)
    %q_block_local_idx_20 = arith.subi %q_block_global_idx, %q_block_start_idx_12 : i32 loc(#loc438)
    %cur_start = tt.addptr %query_start_len_ptr, %seq_idx : !tt.ptr<i32>, i32 loc(#loc439)
    %cur_start_21 = tt.load %cur_start : !tt.ptr<i32> loc(#loc440)
    %cur_stop = tt.addptr %query_start_len_ptr, %seq_idx : !tt.ptr<i32>, i32 loc(#loc441)
    %cur_stop_22 = arith.constant 1 : i32 loc(#loc442)
    %cur_stop_23 = tt.addptr %cur_stop, %cur_stop_22 : !tt.ptr<i32>, i32 loc(#loc442)
    %cur_stop_24 = tt.load %cur_stop_23 : !tt.ptr<i32> loc(#loc443)
    %cur_batch_query_len = arith.extsi %cur_stop_24 : i32 to i64 loc(#loc444)
    %cur_batch_query_len_25 = arith.extsi %cur_start_21 : i32 to i64 loc(#loc444)
    %cur_batch_query_len_26 = arith.subi %cur_batch_query_len, %cur_batch_query_len_25 : i64 loc(#loc444)
    %cur_batch_query_len_27 = arith.constant 2147483647 : i64 loc(#loc444)
    %cur_batch_query_len_28 = arith.constant -2147483648 : i64 loc(#loc444)
    %cur_batch_query_len_29 = arith.cmpi sle, %cur_batch_query_len_26, %cur_batch_query_len_27 : i64 loc(#loc444)
    %cur_batch_query_len_30 = arith.cmpi sge, %cur_batch_query_len_26, %cur_batch_query_len_28 : i64 loc(#loc444)
    %cur_batch_query_len_31 = arith.andi %cur_batch_query_len_29, %cur_batch_query_len_30 : i1 loc(#loc444)
    %cur_batch_query_len_32 = arith.subi %cur_stop_24, %cur_start_21 : i32 loc(#loc444)
    %seq_len = tt.addptr %seq_lens_ptr, %seq_idx : !tt.ptr<i32>, i32 loc(#loc445)
    %seq_len_33 = tt.load %seq_len : !tt.ptr<i32> loc(#loc446)
    tt.return %seq_idx, %q_block_local_idx_20, %cur_start_21, %cur_batch_query_len_32, %seq_len_33 : i32, i32, i32, i32, i32 loc(#loc155)
  ^bb1:  // no predecessors
    %0 = ub.poison : i32 loc(#loc156)
    %1 = ub.poison : i32 loc(#loc156)
    %2 = ub.poison : i32 loc(#loc156)
    %3 = ub.poison : i32 loc(#loc156)
    %4 = ub.poison : i32 loc(#loc156)
    tt.return %0, %1, %2, %3, %4 : i32, i32, i32, i32, i32 loc(#loc156)
  } loc(#loc140)
  tt.func private @"vllm.v1.attention.ops.triton_attention_helpers.find_seq_idx__Pi32_i32_i32__(3,)cconstexpr_8__(4,)cconstexpr_True_"(%query_start_len_ptr: !tt.ptr<i32> loc("query_start_len_ptr"(#loc157)), %target_idx: i32 loc("target_idx"(#loc157)), %right: i32 loc("right"(#loc449))) -> i32 attributes {noinline = false} {
    %left = arith.constant 0 : i32 loc(#loc545)
    %right_0:2 = scf.while (%left_2 = %left, %right_3 = %right) : (i32, i32) -> (i32, i32) {
      %8 = arith.cmpi slt, %left_2, %right_3 : i32 loc(#loc160)
      scf.condition(%8) %left_2, %right_3 : i32, i32 loc(#loc160)
    } do {
    ^bb0(%left_2: i32 loc("left"(#loc161)), %right_3: i32 loc("right"(#loc162))):
      %mid = arith.extsi %left_2 : i32 to i64 loc(#loc454)
      %mid_4 = arith.extsi %right_3 : i32 to i64 loc(#loc454)
      %mid_5 = arith.addi %mid, %mid_4 : i64 loc(#loc454)
      %mid_6 = arith.constant 2147483647 : i64 loc(#loc454)
      %mid_7 = arith.constant -2147483648 : i64 loc(#loc454)
      %mid_8 = arith.cmpi sle, %mid_5, %mid_6 : i64 loc(#loc454)
      %mid_9 = arith.cmpi sge, %mid_5, %mid_7 : i64 loc(#loc454)
      %mid_10 = arith.andi %mid_8, %mid_9 : i1 loc(#loc454)
      %mid_11 = arith.addi %left_2, %right_3 : i32 loc(#loc454)
      %mid_12 = arith.constant 2 : i32 loc(#loc455)
      %mid_13 = arith.constant 2 : i32 loc(#loc455)
      %right_14 = arith.divsi %mid_11, %mid_13 : i32 loc(#loc547)
      %val = tt.addptr %query_start_len_ptr, %right_14 : !tt.ptr<i32>, i32 loc(#loc456)
      %val_15 = tt.load %val : !tt.ptr<i32> loc(#loc457)
      %mid_val = arith.constant 8 : i32 loc(#loc458)
      %mid_val_16 = arith.constant 8 : i32 loc(#loc458)
      %mid_val_17 = arith.divsi %val_15, %mid_val_16 : i32 loc(#loc458)
      %mid_val_18 = arith.extsi %mid_val_17 : i32 to i64 loc(#loc459)
      %mid_val_19 = arith.extsi %right_14 : i32 to i64 loc(#loc459)
      %mid_val_20 = arith.addi %mid_val_18, %mid_val_19 : i64 loc(#loc459)
      %mid_val_21 = arith.constant 2147483647 : i64 loc(#loc459)
      %mid_val_22 = arith.constant -2147483648 : i64 loc(#loc459)
      %mid_val_23 = arith.cmpi sle, %mid_val_20, %mid_val_21 : i64 loc(#loc459)
      %mid_val_24 = arith.cmpi sge, %mid_val_20, %mid_val_22 : i64 loc(#loc459)
      %mid_val_25 = arith.andi %mid_val_23, %mid_val_24 : i1 loc(#loc459)
      %mid_val_26 = arith.addi %mid_val_17, %right_14 : i32 loc(#loc459)
      %8 = arith.cmpi sle, %mid_val_26, %target_idx : i32 loc(#loc169)
      %9:2 = scf.if %8 -> (i32, i32) {
        %left_27 = arith.constant 1 : i32 loc(#loc460)
        %left_28 = arith.constant 1 : i32 loc(#loc460)
        %left_29 = arith.extsi %right_14 : i32 to i64 loc(#loc460)
        %left_30 = arith.extsi %left_28 : i32 to i64 loc(#loc460)
        %left_31 = arith.addi %left_29, %left_30 : i64 loc(#loc460)
        %left_32 = arith.constant 2147483647 : i64 loc(#loc460)
        %left_33 = arith.constant -2147483648 : i64 loc(#loc460)
        %left_34 = arith.cmpi sle, %left_31, %left_32 : i64 loc(#loc460)
        %left_35 = arith.cmpi sge, %left_31, %left_33 : i64 loc(#loc460)
        %left_36 = arith.andi %left_34, %left_35 : i1 loc(#loc460)
        %left_37 = arith.addi %right_14, %left_28 : i32 loc(#loc548)
        scf.yield %left_37, %right_3 : i32, i32 loc(#loc548)
      } else {
        scf.yield %left_2, %right_14 : i32, i32 loc(#loc170)
      } loc(#loc170)
      scf.yield %9#0, %9#1 : i32, i32 loc(#loc172)
    } loc(#loc546)
    %c1_i32 = arith.constant 1 : i32 loc(#loc173)
    %c1_i32_1 = arith.constant 1 : i32 loc(#loc173)
    %0 = arith.extsi %right_0#0 : i32 to i64 loc(#loc173)
    %1 = arith.extsi %c1_i32_1 : i32 to i64 loc(#loc173)
    %2 = arith.subi %0, %1 : i64 loc(#loc173)
    %c2147483647_i64 = arith.constant 2147483647 : i64 loc(#loc173)
    %c-2147483648_i64 = arith.constant -2147483648 : i64 loc(#loc173)
    %3 = arith.cmpi sle, %2, %c2147483647_i64 : i64 loc(#loc173)
    %4 = arith.cmpi sge, %2, %c-2147483648_i64 : i64 loc(#loc173)
    %5 = arith.andi %3, %4 : i1 loc(#loc173)
    %6 = arith.subi %right_0#0, %c1_i32_1 : i32 loc(#loc173)
    tt.return %6 : i32 loc(#loc174)
  ^bb1:  // no predecessors
    %7 = ub.poison : i32 loc(#loc175)
    tt.return %7 : i32 loc(#loc175)
  } loc(#loc157)
  tt.func private @"vllm.v1.attention.ops.triton_attention_helpers.cdiv_fn__i32__(1,)cconstexpr_512_"(%x: i32 loc("x"(#loc176))) -> i32 attributes {noinline = false} {
    %c512_i32 = arith.constant 512 : i32 loc(#loc177)
    %c512_i32_0 = arith.constant 512 : i32 loc(#loc177)
    %0 = arith.extsi %x : i32 to i64 loc(#loc177)
    %1 = arith.extsi %c512_i32_0 : i32 to i64 loc(#loc177)
    %2 = arith.addi %0, %1 : i64 loc(#loc177)
    %c2147483647_i64 = arith.constant 2147483647 : i64 loc(#loc177)
    %c-2147483648_i64 = arith.constant -2147483648 : i64 loc(#loc177)
    %3 = arith.cmpi sle, %2, %c2147483647_i64 : i64 loc(#loc177)
    %4 = arith.cmpi sge, %2, %c-2147483648_i64 : i64 loc(#loc177)
    %5 = arith.andi %3, %4 : i1 loc(#loc177)
    %6 = arith.addi %x, %c512_i32_0 : i32 loc(#loc177)
    %c1_i32 = arith.constant 1 : i32 loc(#loc178)
    %c1_i32_1 = arith.constant 1 : i32 loc(#loc178)
    %7 = arith.extsi %6 : i32 to i64 loc(#loc178)
    %8 = arith.extsi %c1_i32_1 : i32 to i64 loc(#loc178)
    %9 = arith.subi %7, %8 : i64 loc(#loc178)
    %c2147483647_i64_2 = arith.constant 2147483647 : i64 loc(#loc178)
    %c-2147483648_i64_3 = arith.constant -2147483648 : i64 loc(#loc178)
    %10 = arith.cmpi sle, %9, %c2147483647_i64_2 : i64 loc(#loc178)
    %11 = arith.cmpi sge, %9, %c-2147483648_i64_3 : i64 loc(#loc178)
    %12 = arith.andi %10, %11 : i1 loc(#loc178)
    %13 = arith.subi %6, %c1_i32_1 : i32 loc(#loc178)
    %c512_i32_4 = arith.constant 512 : i32 loc(#loc179)
    %c512_i32_5 = arith.constant 512 : i32 loc(#loc179)
    %14 = arith.divsi %13, %c512_i32_5 : i32 loc(#loc179)
    tt.return %14 : i32 loc(#loc180)
  ^bb1:  // no predecessors
    %15 = ub.poison : i32 loc(#loc181)
    tt.return %15 : i32 loc(#loc181)
  } loc(#loc176)
  tt.func private @"vllm.v1.attention.ops.triton_attention_helpers.init_softmax_M__i32S16S_u1S16S_i32__(0,)cconstexpr_None__(4,)cconstexpr_16__(5,)cconstexpr_False__(6,)cconstexpr_True_"(%query_offset_1: tensor<16xi32> loc("query_offset_1"(#loc182)), %query_mask_1: tensor<16xi1> loc("query_mask_1"(#loc182)), %segm_idx_or_0: i32 loc("segm_idx_or_0"(#loc182))) -> tensor<16xf32> attributes {noinline = false} {
    %M = arith.constant 0xFF800000 : f32 loc(#loc465)
    %M_0 = arith.constant dense<0xFF800000> : tensor<16xf32> loc(#loc465)
    tt.return %M_0 : tensor<16xf32> loc(#loc184)
  ^bb1:  // no predecessors
    %0 = ub.poison : tensor<16xf32> loc(#loc185)
    tt.return %0 : tensor<16xf32> loc(#loc185)
  } loc(#loc182)
  tt.func private @"triton.language.standard.zeros____(0, 0)cconstexpr_16__(0, 1)cconstexpr_256__(1,)cconstexpr_fp32_"() -> tensor<16x256xf32> attributes {noinline = false} {
    %cst = arith.constant 0.000000e+00 : f32 loc(#loc187)
    %cst_0 = arith.constant dense<0.000000e+00> : tensor<16x256xf32> loc(#loc187)
    tt.return %cst_0 : tensor<16x256xf32> loc(#loc188)
  ^bb1:  // no predecessors
    %0 = ub.poison : tensor<16x256xf32> loc(#loc189)
    tt.return %0 : tensor<16x256xf32> loc(#loc189)
  } loc(#loc186)
  tt.func private @"vllm.v1.attention.ops.triton_attention_helpers.compute_tile_loop_bounds__i32_i32_i32_i32_i32_i32__(6,)cconstexpr_32__(7,)cconstexpr_16__(8,)cconstexpr_8__(9,)cconstexpr_2__(10,)cconstexpr_1024__(11,)cconstexpr_False__(12,)cconstexpr_True__(13,)cconstexpr_-1__(14,)cconstexpr_-1_"(%context_len: i32 loc("context_len"(#loc190)), %seq_len: i32 loc("seq_len"(#loc190)), %cur_batch_query_len: i32 loc("cur_batch_query_len"(#loc190)), %q_block_local_idx: i32 loc("q_block_local_idx"(#loc190)), %segm_idx_or_0: i32 loc("segm_idx_or_0"(#loc190)), %tiles_per_segment_or_0: i32 loc("tiles_per_segment_or_0"(#loc190))) -> (i32, i32, i32) attributes {noinline = false} {
    %max_seq_prefix_len = arith.constant 8 : i32 loc(#loc472)
    %max_seq_prefix_len_0 = arith.constant 8 : i32 loc(#loc472)
    %max_seq_prefix_len_1 = arith.extsi %q_block_local_idx : i32 to i64 loc(#loc472)
    %max_seq_prefix_len_2 = arith.extsi %max_seq_prefix_len_0 : i32 to i64 loc(#loc472)
    %max_seq_prefix_len_3 = arith.muli %max_seq_prefix_len_1, %max_seq_prefix_len_2 : i64 loc(#loc472)
    %max_seq_prefix_len_4 = arith.constant 2147483647 : i64 loc(#loc472)
    %max_seq_prefix_len_5 = arith.constant -2147483648 : i64 loc(#loc472)
    %max_seq_prefix_len_6 = arith.cmpi sle, %max_seq_prefix_len_3, %max_seq_prefix_len_4 : i64 loc(#loc472)
    %max_seq_prefix_len_7 = arith.cmpi sge, %max_seq_prefix_len_3, %max_seq_prefix_len_5 : i64 loc(#loc472)
    %max_seq_prefix_len_8 = arith.andi %max_seq_prefix_len_6, %max_seq_prefix_len_7 : i1 loc(#loc472)
    %max_seq_prefix_len_9 = arith.muli %q_block_local_idx, %max_seq_prefix_len_0 : i32 loc(#loc472)
    %max_seq_prefix_len_10 = arith.extsi %context_len : i32 to i64 loc(#loc473)
    %max_seq_prefix_len_11 = arith.extsi %max_seq_prefix_len_9 : i32 to i64 loc(#loc473)
    %max_seq_prefix_len_12 = arith.addi %max_seq_prefix_len_10, %max_seq_prefix_len_11 : i64 loc(#loc473)
    %max_seq_prefix_len_13 = arith.constant 2147483647 : i64 loc(#loc473)
    %max_seq_prefix_len_14 = arith.constant -2147483648 : i64 loc(#loc473)
    %max_seq_prefix_len_15 = arith.cmpi sle, %max_seq_prefix_len_12, %max_seq_prefix_len_13 : i64 loc(#loc473)
    %max_seq_prefix_len_16 = arith.cmpi sge, %max_seq_prefix_len_12, %max_seq_prefix_len_14 : i64 loc(#loc473)
    %max_seq_prefix_len_17 = arith.andi %max_seq_prefix_len_15, %max_seq_prefix_len_16 : i1 loc(#loc473)
    %max_seq_prefix_len_18 = arith.addi %context_len, %max_seq_prefix_len_9 : i32 loc(#loc473)
    %max_seq_prefix_len_19 = arith.constant 7 : i32 loc(#loc474)
    %max_seq_prefix_len_20 = arith.constant 7 : i32 loc(#loc474)
    %max_seq_prefix_len_21 = arith.extsi %max_seq_prefix_len_18 : i32 to i64 loc(#loc474)
    %max_seq_prefix_len_22 = arith.extsi %max_seq_prefix_len_20 : i32 to i64 loc(#loc474)
    %max_seq_prefix_len_23 = arith.addi %max_seq_prefix_len_21, %max_seq_prefix_len_22 : i64 loc(#loc474)
    %max_seq_prefix_len_24 = arith.constant 2147483647 : i64 loc(#loc474)
    %max_seq_prefix_len_25 = arith.constant -2147483648 : i64 loc(#loc474)
    %max_seq_prefix_len_26 = arith.cmpi sle, %max_seq_prefix_len_23, %max_seq_prefix_len_24 : i64 loc(#loc474)
    %max_seq_prefix_len_27 = arith.cmpi sge, %max_seq_prefix_len_23, %max_seq_prefix_len_25 : i64 loc(#loc474)
    %max_seq_prefix_len_28 = arith.andi %max_seq_prefix_len_26, %max_seq_prefix_len_27 : i1 loc(#loc474)
    %max_seq_prefix_len_29 = arith.addi %max_seq_prefix_len_18, %max_seq_prefix_len_20 : i32 loc(#loc474)
    %max_seq_prefix_len_30 = arith.constant 1 : i32 loc(#loc475)
    %max_seq_prefix_len_31 = arith.constant 1 : i32 loc(#loc475)
    %max_seq_prefix_len_32 = arith.extsi %max_seq_prefix_len_29 : i32 to i64 loc(#loc475)
    %max_seq_prefix_len_33 = arith.extsi %max_seq_prefix_len_31 : i32 to i64 loc(#loc475)
    %max_seq_prefix_len_34 = arith.addi %max_seq_prefix_len_32, %max_seq_prefix_len_33 : i64 loc(#loc475)
    %max_seq_prefix_len_35 = arith.constant 2147483647 : i64 loc(#loc475)
    %max_seq_prefix_len_36 = arith.constant -2147483648 : i64 loc(#loc475)
    %max_seq_prefix_len_37 = arith.cmpi sle, %max_seq_prefix_len_34, %max_seq_prefix_len_35 : i64 loc(#loc475)
    %max_seq_prefix_len_38 = arith.cmpi sge, %max_seq_prefix_len_34, %max_seq_prefix_len_36 : i64 loc(#loc475)
    %max_seq_prefix_len_39 = arith.andi %max_seq_prefix_len_37, %max_seq_prefix_len_38 : i1 loc(#loc475)
    %max_seq_prefix_len_40 = arith.addi %max_seq_prefix_len_29, %max_seq_prefix_len_31 : i32 loc(#loc475)
    %max_seq_prefix_len_41 = arith.minsi %max_seq_prefix_len_40, %seq_len : i32 loc(#loc476)
    %num_tiles = tt.call @"vllm.v1.attention.ops.triton_attention_helpers.cdiv_fn__i32__(1,)cconstexpr_32_"(%max_seq_prefix_len_41) : (i32) -> i32 loc(#loc477)
    %tile_start = arith.constant 0 : i32 loc(#loc478)
    %qpos_lo = arith.constant 8 : i32 loc(#loc479)
    %qpos_lo_42 = arith.constant 8 : i32 loc(#loc479)
    %qpos_lo_43 = arith.extsi %q_block_local_idx : i32 to i64 loc(#loc479)
    %qpos_lo_44 = arith.extsi %qpos_lo_42 : i32 to i64 loc(#loc479)
    %qpos_lo_45 = arith.muli %qpos_lo_43, %qpos_lo_44 : i64 loc(#loc479)
    %qpos_lo_46 = arith.constant 2147483647 : i64 loc(#loc479)
    %qpos_lo_47 = arith.constant -2147483648 : i64 loc(#loc479)
    %qpos_lo_48 = arith.cmpi sle, %qpos_lo_45, %qpos_lo_46 : i64 loc(#loc479)
    %qpos_lo_49 = arith.cmpi sge, %qpos_lo_45, %qpos_lo_47 : i64 loc(#loc479)
    %qpos_lo_50 = arith.andi %qpos_lo_48, %qpos_lo_49 : i1 loc(#loc479)
    %qpos_lo_51 = arith.muli %q_block_local_idx, %qpos_lo_42 : i32 loc(#loc479)
    %qpos_hi = arith.constant 7 : i32 loc(#loc480)
    %qpos_hi_52 = arith.constant 7 : i32 loc(#loc480)
    %qpos_hi_53 = arith.extsi %qpos_lo_51 : i32 to i64 loc(#loc480)
    %qpos_hi_54 = arith.extsi %qpos_hi_52 : i32 to i64 loc(#loc480)
    %qpos_hi_55 = arith.addi %qpos_hi_53, %qpos_hi_54 : i64 loc(#loc480)
    %qpos_hi_56 = arith.constant 2147483647 : i64 loc(#loc480)
    %qpos_hi_57 = arith.constant -2147483648 : i64 loc(#loc480)
    %qpos_hi_58 = arith.cmpi sle, %qpos_hi_55, %qpos_hi_56 : i64 loc(#loc480)
    %qpos_hi_59 = arith.cmpi sge, %qpos_hi_55, %qpos_hi_57 : i64 loc(#loc480)
    %qpos_hi_60 = arith.andi %qpos_hi_58, %qpos_hi_59 : i1 loc(#loc480)
    %qpos_hi_61 = arith.addi %qpos_lo_51, %qpos_hi_52 : i32 loc(#loc480)
    %qpos_hi_62 = arith.constant 1 : i32 loc(#loc481)
    %qpos_hi_63 = arith.constant 1 : i32 loc(#loc481)
    %qpos_hi_64 = arith.extsi %cur_batch_query_len : i32 to i64 loc(#loc481)
    %qpos_hi_65 = arith.extsi %qpos_hi_63 : i32 to i64 loc(#loc481)
    %qpos_hi_66 = arith.subi %qpos_hi_64, %qpos_hi_65 : i64 loc(#loc481)
    %qpos_hi_67 = arith.constant 2147483647 : i64 loc(#loc481)
    %qpos_hi_68 = arith.constant -2147483648 : i64 loc(#loc481)
    %qpos_hi_69 = arith.cmpi sle, %qpos_hi_66, %qpos_hi_67 : i64 loc(#loc481)
    %qpos_hi_70 = arith.cmpi sge, %qpos_hi_66, %qpos_hi_68 : i64 loc(#loc481)
    %qpos_hi_71 = arith.andi %qpos_hi_69, %qpos_hi_70 : i1 loc(#loc481)
    %qpos_hi_72 = arith.subi %cur_batch_query_len, %qpos_hi_63 : i32 loc(#loc481)
    %qpos_hi_73 = arith.minsi %qpos_hi_61, %qpos_hi_72 : i32 loc(#loc482)
    %q_abs = arith.extsi %context_len : i32 to i64 loc(#loc483)
    %q_abs_74 = arith.extsi %qpos_lo_51 : i32 to i64 loc(#loc483)
    %q_abs_75 = arith.addi %q_abs, %q_abs_74 : i64 loc(#loc483)
    %q_abs_76 = arith.constant 2147483647 : i64 loc(#loc483)
    %q_abs_77 = arith.constant -2147483648 : i64 loc(#loc483)
    %q_abs_78 = arith.cmpi sle, %q_abs_75, %q_abs_76 : i64 loc(#loc483)
    %q_abs_79 = arith.cmpi sge, %q_abs_75, %q_abs_77 : i64 loc(#loc483)
    %q_abs_80 = arith.andi %q_abs_78, %q_abs_79 : i1 loc(#loc483)
    %q_abs_81 = arith.addi %context_len, %qpos_lo_51 : i32 loc(#loc483)
    %first_allowed_key = arith.constant 1024 : i32 loc(#loc484)
    %first_allowed_key_82 = arith.constant 1024 : i32 loc(#loc484)
    %first_allowed_key_83 = arith.extsi %q_abs_81 : i32 to i64 loc(#loc484)
    %first_allowed_key_84 = arith.extsi %first_allowed_key_82 : i32 to i64 loc(#loc484)
    %first_allowed_key_85 = arith.subi %first_allowed_key_83, %first_allowed_key_84 : i64 loc(#loc484)
    %first_allowed_key_86 = arith.constant 2147483647 : i64 loc(#loc484)
    %first_allowed_key_87 = arith.constant -2147483648 : i64 loc(#loc484)
    %first_allowed_key_88 = arith.cmpi sle, %first_allowed_key_85, %first_allowed_key_86 : i64 loc(#loc484)
    %first_allowed_key_89 = arith.cmpi sge, %first_allowed_key_85, %first_allowed_key_87 : i64 loc(#loc484)
    %first_allowed_key_90 = arith.andi %first_allowed_key_88, %first_allowed_key_89 : i1 loc(#loc484)
    %first_allowed_key_91 = arith.subi %q_abs_81, %first_allowed_key_82 : i32 loc(#loc484)
    %first_allowed_key_92 = arith.constant 1 : i32 loc(#loc485)
    %first_allowed_key_93 = arith.constant 1 : i32 loc(#loc485)
    %first_allowed_key_94 = arith.extsi %first_allowed_key_91 : i32 to i64 loc(#loc485)
    %first_allowed_key_95 = arith.extsi %first_allowed_key_93 : i32 to i64 loc(#loc485)
    %first_allowed_key_96 = arith.addi %first_allowed_key_94, %first_allowed_key_95 : i64 loc(#loc485)
    %first_allowed_key_97 = arith.constant 2147483647 : i64 loc(#loc485)
    %first_allowed_key_98 = arith.constant -2147483648 : i64 loc(#loc485)
    %first_allowed_key_99 = arith.cmpi sle, %first_allowed_key_96, %first_allowed_key_97 : i64 loc(#loc485)
    %first_allowed_key_100 = arith.cmpi sge, %first_allowed_key_96, %first_allowed_key_98 : i64 loc(#loc485)
    %first_allowed_key_101 = arith.andi %first_allowed_key_99, %first_allowed_key_100 : i1 loc(#loc485)
    %first_allowed_key_102 = arith.addi %first_allowed_key_91, %first_allowed_key_93 : i32 loc(#loc485)
    %last_allowed_key = arith.extsi %context_len : i32 to i64 loc(#loc486)
    %last_allowed_key_103 = arith.extsi %qpos_hi_73 : i32 to i64 loc(#loc486)
    %last_allowed_key_104 = arith.addi %last_allowed_key, %last_allowed_key_103 : i64 loc(#loc486)
    %last_allowed_key_105 = arith.constant 2147483647 : i64 loc(#loc486)
    %last_allowed_key_106 = arith.constant -2147483648 : i64 loc(#loc486)
    %last_allowed_key_107 = arith.cmpi sle, %last_allowed_key_104, %last_allowed_key_105 : i64 loc(#loc486)
    %last_allowed_key_108 = arith.cmpi sge, %last_allowed_key_104, %last_allowed_key_106 : i64 loc(#loc486)
    %last_allowed_key_109 = arith.andi %last_allowed_key_107, %last_allowed_key_108 : i1 loc(#loc486)
    %last_allowed_key_110 = arith.addi %context_len, %qpos_hi_73 : i32 loc(#loc486)
    %tile_start_111 = arith.constant 32 : i32 loc(#loc487)
    %tile_start_112 = arith.constant 32 : i32 loc(#loc487)
    %tile_start_113 = arith.divsi %first_allowed_key_102, %tile_start_112 : i32 loc(#loc487)
    %tile_start_114 = arith.constant 0 : i32 loc(#loc488)
    %tile_start_115 = arith.maxsi %tile_start_114, %tile_start_113 : i32 loc(#loc488)
    %tile_end = arith.constant 32 : i32 loc(#loc489)
    %tile_end_116 = arith.constant 32 : i32 loc(#loc489)
    %tile_end_117 = arith.divsi %last_allowed_key_110, %tile_end_116 : i32 loc(#loc489)
    %tile_end_118 = arith.constant 1 : i32 loc(#loc490)
    %tile_end_119 = arith.constant 1 : i32 loc(#loc490)
    %tile_end_120 = arith.extsi %tile_end_117 : i32 to i64 loc(#loc490)
    %tile_end_121 = arith.extsi %tile_end_119 : i32 to i64 loc(#loc490)
    %tile_end_122 = arith.addi %tile_end_120, %tile_end_121 : i64 loc(#loc490)
    %tile_end_123 = arith.constant 2147483647 : i64 loc(#loc490)
    %tile_end_124 = arith.constant -2147483648 : i64 loc(#loc490)
    %tile_end_125 = arith.cmpi sle, %tile_end_122, %tile_end_123 : i64 loc(#loc490)
    %tile_end_126 = arith.cmpi sge, %tile_end_122, %tile_end_124 : i64 loc(#loc490)
    %tile_end_127 = arith.andi %tile_end_125, %tile_end_126 : i1 loc(#loc490)
    %tile_end_128 = arith.addi %tile_end_117, %tile_end_119 : i32 loc(#loc490)
    %tile_end_129 = arith.minsi %tile_end_128, %num_tiles : i32 loc(#loc491)
    %loop_lo = arith.extsi %segm_idx_or_0 : i32 to i64 loc(#loc492)
    %loop_lo_130 = arith.extsi %tiles_per_segment_or_0 : i32 to i64 loc(#loc492)
    %loop_lo_131 = arith.muli %loop_lo, %loop_lo_130 : i64 loc(#loc492)
    %loop_lo_132 = arith.constant 2147483647 : i64 loc(#loc492)
    %loop_lo_133 = arith.constant -2147483648 : i64 loc(#loc492)
    %loop_lo_134 = arith.cmpi sle, %loop_lo_131, %loop_lo_132 : i64 loc(#loc492)
    %loop_lo_135 = arith.cmpi sge, %loop_lo_131, %loop_lo_133 : i64 loc(#loc492)
    %loop_lo_136 = arith.andi %loop_lo_134, %loop_lo_135 : i1 loc(#loc492)
    %loop_lo_137 = arith.muli %segm_idx_or_0, %tiles_per_segment_or_0 : i32 loc(#loc492)
    %loop_lo_138 = arith.maxsi %loop_lo_137, %tile_start_115 : i32 loc(#loc493)
    %loop_hi = arith.constant 1 : i32 loc(#loc494)
    %loop_hi_139 = arith.constant 1 : i32 loc(#loc494)
    %loop_hi_140 = arith.extsi %segm_idx_or_0 : i32 to i64 loc(#loc494)
    %loop_hi_141 = arith.extsi %loop_hi_139 : i32 to i64 loc(#loc494)
    %loop_hi_142 = arith.addi %loop_hi_140, %loop_hi_141 : i64 loc(#loc494)
    %loop_hi_143 = arith.constant 2147483647 : i64 loc(#loc494)
    %loop_hi_144 = arith.constant -2147483648 : i64 loc(#loc494)
    %loop_hi_145 = arith.cmpi sle, %loop_hi_142, %loop_hi_143 : i64 loc(#loc494)
    %loop_hi_146 = arith.cmpi sge, %loop_hi_142, %loop_hi_144 : i64 loc(#loc494)
    %loop_hi_147 = arith.andi %loop_hi_145, %loop_hi_146 : i1 loc(#loc494)
    %loop_hi_148 = arith.addi %segm_idx_or_0, %loop_hi_139 : i32 loc(#loc494)
    %loop_hi_149 = arith.extsi %loop_hi_148 : i32 to i64 loc(#loc495)
    %loop_hi_150 = arith.extsi %tiles_per_segment_or_0 : i32 to i64 loc(#loc495)
    %loop_hi_151 = arith.muli %loop_hi_149, %loop_hi_150 : i64 loc(#loc495)
    %loop_hi_152 = arith.constant 2147483647 : i64 loc(#loc495)
    %loop_hi_153 = arith.constant -2147483648 : i64 loc(#loc495)
    %loop_hi_154 = arith.cmpi sle, %loop_hi_151, %loop_hi_152 : i64 loc(#loc495)
    %loop_hi_155 = arith.cmpi sge, %loop_hi_151, %loop_hi_153 : i64 loc(#loc495)
    %loop_hi_156 = arith.andi %loop_hi_154, %loop_hi_155 : i1 loc(#loc495)
    %loop_hi_157 = arith.muli %loop_hi_148, %tiles_per_segment_or_0 : i32 loc(#loc495)
    %loop_hi_158 = arith.minsi %loop_hi_157, %tile_end_129 : i32 loc(#loc496)
    tt.return %loop_lo_138, %loop_hi_158, %max_seq_prefix_len_41 : i32, i32, i32 loc(#loc216)
  ^bb1:  // no predecessors
    %0 = ub.poison : i32 loc(#loc217)
    %1 = ub.poison : i32 loc(#loc217)
    %2 = ub.poison : i32 loc(#loc217)
    tt.return %0, %1, %2 : i32, i32, i32 loc(#loc217)
  } loc(#loc190)
  tt.func private @"vllm.v1.attention.ops.triton_attention_helpers.cdiv_fn__i32__(1,)cconstexpr_32_"(%x: i32 loc("x"(#loc176))) -> i32 attributes {noinline = false} {
    %c32_i32 = arith.constant 32 : i32 loc(#loc177)
    %c32_i32_0 = arith.constant 32 : i32 loc(#loc177)
    %0 = arith.extsi %x : i32 to i64 loc(#loc177)
    %1 = arith.extsi %c32_i32_0 : i32 to i64 loc(#loc177)
    %2 = arith.addi %0, %1 : i64 loc(#loc177)
    %c2147483647_i64 = arith.constant 2147483647 : i64 loc(#loc177)
    %c-2147483648_i64 = arith.constant -2147483648 : i64 loc(#loc177)
    %3 = arith.cmpi sle, %2, %c2147483647_i64 : i64 loc(#loc177)
    %4 = arith.cmpi sge, %2, %c-2147483648_i64 : i64 loc(#loc177)
    %5 = arith.andi %3, %4 : i1 loc(#loc177)
    %6 = arith.addi %x, %c32_i32_0 : i32 loc(#loc177)
    %c1_i32 = arith.constant 1 : i32 loc(#loc178)
    %c1_i32_1 = arith.constant 1 : i32 loc(#loc178)
    %7 = arith.extsi %6 : i32 to i64 loc(#loc178)
    %8 = arith.extsi %c1_i32_1 : i32 to i64 loc(#loc178)
    %9 = arith.subi %7, %8 : i64 loc(#loc178)
    %c2147483647_i64_2 = arith.constant 2147483647 : i64 loc(#loc178)
    %c-2147483648_i64_3 = arith.constant -2147483648 : i64 loc(#loc178)
    %10 = arith.cmpi sle, %9, %c2147483647_i64_2 : i64 loc(#loc178)
    %11 = arith.cmpi sge, %9, %c-2147483648_i64_3 : i64 loc(#loc178)
    %12 = arith.andi %10, %11 : i1 loc(#loc178)
    %13 = arith.subi %6, %c1_i32_1 : i32 loc(#loc178)
    %c32_i32_4 = arith.constant 32 : i32 loc(#loc179)
    %c32_i32_5 = arith.constant 32 : i32 loc(#loc179)
    %14 = arith.divsi %13, %c32_i32_5 : i32 loc(#loc179)
    tt.return %14 : i32 loc(#loc180)
  ^bb1:  // no predecessors
    %15 = ub.poison : i32 loc(#loc181)
    tt.return %15 : i32 loc(#loc181)
  } loc(#loc176)
  tt.func private @"vllm.v1.attention.ops.triton_unified_attention._cast_kv_tile__bf16S256_32S_bf16S16_256S_Pfp32__(3,)cconstexpr_0_"(%data: tensor<256x32xbf16> loc("data"(#loc218)), %Q: tensor<16x256xbf16> loc("Q"(#loc218)), %tensor_scale: !tt.ptr<f32> loc("tensor_scale"(#loc218))) -> tensor<256x32xbf16> attributes {noinline = false} {
    tt.return %data : tensor<256x32xbf16> loc(#loc219)
  ^bb1:  // no predecessors
    %0 = ub.poison : tensor<256x32xbf16> loc(#loc220)
    tt.return %0 : tensor<256x32xbf16> loc(#loc220)
  } loc(#loc218)
  tt.func private @"vllm.v1.attention.ops.triton_unified_attention._cast_kv_tile__bf16S32_256S_bf16S16_256S_Pfp32__(3,)cconstexpr_0_"(%data: tensor<32x256xbf16> loc("data"(#loc218)), %Q: tensor<16x256xbf16> loc("Q"(#loc218)), %tensor_scale: !tt.ptr<f32> loc("tensor_scale"(#loc218))) -> tensor<32x256xbf16> attributes {noinline = false} {
    tt.return %data : tensor<32x256xbf16> loc(#loc219)
  ^bb1:  // no predecessors
    %0 = ub.poison : tensor<32x256xbf16> loc(#loc220)
    tt.return %0 : tensor<32x256xbf16> loc(#loc220)
  } loc(#loc218)
  tt.func private @"vllm.v1.attention.ops.triton_attention_helpers.compute_kv_seq_mask__i32S16_1S_i32S32S_i32__(3,)cconstexpr_None__(4,)cconstexpr_1024__(5,)cconstexpr_False__(6,)cconstexpr_0__(7,)cconstexpr_-1__(8,)cconstexpr_-1_"(%query_abs_pos: tensor<16x1xi32> loc("query_abs_pos"(#loc221)), %seq_offset: tensor<32xi32> loc("seq_offset"(#loc221)), %seq_idx: i32 loc("seq_idx"(#loc221))) -> tensor<16x32xi1> attributes {noinline = false} {
    %seq_mask = tt.expand_dims %seq_offset {axis = 0 : i32} : tensor<32xi32> -> tensor<1x32xi32> loc(#loc503)
    %seq_mask_0 = tt.broadcast %seq_mask : tensor<1x32xi32> -> tensor<16x32xi32> loc(#loc504)
    %seq_mask_1 = tt.broadcast %query_abs_pos : tensor<16x1xi32> -> tensor<16x32xi32> loc(#loc504)
    %seq_mask_2 = arith.cmpi sle, %seq_mask_0, %seq_mask_1 : tensor<16x32xi32> loc(#loc504)
    %seq_mask_3 = tt.expand_dims %seq_offset {axis = 0 : i32} : tensor<32xi32> -> tensor<1x32xi32> loc(#loc505)
    %seq_mask_4 = tt.broadcast %query_abs_pos : tensor<16x1xi32> -> tensor<16x32xi32> loc(#loc505)
    %seq_mask_5 = tt.broadcast %seq_mask_3 : tensor<1x32xi32> -> tensor<16x32xi32> loc(#loc505)
    %seq_mask_6 = arith.extsi %seq_mask_4 : tensor<16x32xi32> to tensor<16x32xi64> loc(#loc505)
    %seq_mask_7 = arith.extsi %seq_mask_5 : tensor<16x32xi32> to tensor<16x32xi64> loc(#loc505)
    %seq_mask_8 = arith.subi %seq_mask_6, %seq_mask_7 : tensor<16x32xi64> loc(#loc505)
    %seq_mask_9 = arith.constant 2147483647 : i64 loc(#loc505)
    %seq_mask_10 = arith.constant -2147483648 : i64 loc(#loc505)
    %seq_mask_11 = arith.constant dense<2147483647> : tensor<16x32xi64> loc(#loc505)
    %seq_mask_12 = arith.cmpi sle, %seq_mask_8, %seq_mask_11 : tensor<16x32xi64> loc(#loc505)
    %seq_mask_13 = arith.constant dense<-2147483648> : tensor<16x32xi64> loc(#loc505)
    %seq_mask_14 = arith.cmpi sge, %seq_mask_8, %seq_mask_13 : tensor<16x32xi64> loc(#loc505)
    %seq_mask_15 = arith.andi %seq_mask_12, %seq_mask_14 : tensor<16x32xi1> loc(#loc505)
    %seq_mask_16 = arith.subi %seq_mask_4, %seq_mask_5 : tensor<16x32xi32> loc(#loc505)
    %seq_mask_17 = arith.constant 1024 : i32 loc(#loc506)
    %seq_mask_18 = arith.constant dense<1024> : tensor<16x32xi32> loc(#loc506)
    %seq_mask_19 = arith.cmpi slt, %seq_mask_16, %seq_mask_18 : tensor<16x32xi32> loc(#loc506)
    %seq_mask_20 = arith.andi %seq_mask_2, %seq_mask_19 : tensor<16x32xi1> loc(#loc507)
    tt.return %seq_mask_20 : tensor<16x32xi1> loc(#loc227)
  ^bb1:  // no predecessors
    %0 = ub.poison : tensor<16x32xi1> loc(#loc228)
    tt.return %0 : tensor<16x32xi1> loc(#loc228)
  } loc(#loc221)
  tt.func private @"triton.language.standard.zeros____(0, 0)cconstexpr_16__(0, 1)cconstexpr_32__(1,)cconstexpr_fp32_"() -> tensor<16x32xf32> attributes {noinline = false} {
    %cst = arith.constant 0.000000e+00 : f32 loc(#loc187)
    %cst_0 = arith.constant dense<0.000000e+00> : tensor<16x32xf32> loc(#loc187)
    tt.return %cst_0 : tensor<16x32xf32> loc(#loc188)
  ^bb1:  // no predecessors
    %0 = ub.poison : tensor<16x32xf32> loc(#loc189)
    tt.return %0 : tensor<16x32xf32> loc(#loc189)
  } loc(#loc186)
  tt.func private @vllm.v1.attention.ops.triton_attention_helpers.softmax_step__fp32S16_32S_fp32S16S_fp32S16S__(%S: tensor<16x32xf32> loc("S"(#loc229)), %M: tensor<16xf32> loc("M"(#loc229)), %L: tensor<16xf32> loc("L"(#loc229))) -> (tensor<16xf32>, tensor<16xf32>, tensor<16x32xf32>, tensor<16xf32>) attributes {noinline = false} {
    %m_j = tt.call @"triton.language.standard.max__fp32S16_32S__(1,)cconstexpr_1__(2,)cconstexpr_False__(3,)cconstexpr_True__(4,)cconstexpr_False_"(%S) : (tensor<16x32xf32>) -> tensor<16xf32> loc(#loc511)
    %m_j_0 = arith.maxnumf %M, %m_j : tensor<16xf32> loc(#loc512)
    %m_j_1 = arith.constant 0xFF800000 : f32 loc(#loc513)
    %m_j_2 = arith.constant dense<0xFF800000> : tensor<16xf32> loc(#loc513)
    %m_j_3 = arith.cmpf ogt, %m_j_0, %m_j_2 : tensor<16xf32> loc(#loc513)
    %m_j_4 = arith.constant 0.000000e+00 : f32 loc(#loc514)
    %m_j_5 = arith.constant 0.000000e+00 : f32 loc(#loc514)
    %m_j_6 = arith.constant dense<0.000000e+00> : tensor<16xf32> loc(#loc514)
    %m_j_7 = arith.select %m_j_3, %m_j_0, %m_j_6 : tensor<16xi1>, tensor<16xf32> loc(#loc514)
    %P = tt.expand_dims %m_j_7 {axis = 1 : i32} : tensor<16xf32> -> tensor<16x1xf32> loc(#loc515)
    %P_8 = tt.broadcast %P : tensor<16x1xf32> -> tensor<16x32xf32> loc(#loc516)
    %P_9 = arith.subf %S, %P_8 : tensor<16x32xf32> loc(#loc516)
    %P_10 = math.exp %P_9 : tensor<16x32xf32> loc(#loc517)
    %l_j = tt.call @"triton.language.standard.sum__fp32S16_32S__(1,)cconstexpr_1__(2,)cconstexpr_False__(3,)cNone"(%P_10) : (tensor<16x32xf32>) -> tensor<16xf32> loc(#loc518)
    %alpha = arith.subf %M, %m_j_7 : tensor<16xf32> loc(#loc519)
    %alpha_11 = math.exp %alpha : tensor<16xf32> loc(#loc520)
    %L_new = arith.mulf %L, %alpha_11 : tensor<16xf32> loc(#loc521)
    %L_new_12 = arith.addf %L_new, %l_j : tensor<16xf32> loc(#loc522)
    tt.return %m_j_7, %L_new_12, %P_10, %alpha_11 : tensor<16xf32>, tensor<16xf32>, tensor<16x32xf32>, tensor<16xf32> loc(#loc242)
  ^bb1:  // no predecessors
    %0 = ub.poison : tensor<16xf32> loc(#loc243)
    %1 = ub.poison : tensor<16xf32> loc(#loc243)
    %2 = ub.poison : tensor<16x32xf32> loc(#loc243)
    %3 = ub.poison : tensor<16xf32> loc(#loc243)
    tt.return %0, %1, %2, %3 : tensor<16xf32>, tensor<16xf32>, tensor<16x32xf32>, tensor<16xf32> loc(#loc243)
  } loc(#loc229)
  tt.func private @"triton.language.standard.max__fp32S16_32S__(1,)cconstexpr_1__(2,)cconstexpr_False__(3,)cconstexpr_True__(4,)cconstexpr_False_"(%input: tensor<16x32xf32> loc("input"(#loc244))) -> tensor<16xf32> attributes {noinline = false} {
    %0 = "tt.reduce"(%input) <{axis = 1 : i32}> ({
    ^bb0(%arg1: f32 loc(unknown), %arg2: f32 loc(unknown)):
      %2 = tt.call @triton.language.standard._elementwise_max__fp32_fp32__(%arg1, %arg2) : (f32, f32) -> f32 loc(#loc245)
      tt.reduce.return %2 : f32 loc(#loc245)
    }) : (tensor<16x32xf32>) -> tensor<16xf32> loc(#loc245)
    tt.return %0 : tensor<16xf32> loc(#loc247)
  ^bb1:  // no predecessors
    %1 = ub.poison : tensor<16xf32> loc(#loc248)
    tt.return %1 : tensor<16xf32> loc(#loc248)
  } loc(#loc244)
  tt.func private @triton.language.standard._elementwise_max__fp32_fp32__(%a: f32 loc("a"(#loc249)), %b: f32 loc("b"(#loc249))) -> f32 attributes {noinline = false} {
    %0 = arith.maxnumf %a, %b : f32 loc(#loc250)
    tt.return %0 : f32 loc(#loc251)
  ^bb1:  // no predecessors
    %1 = ub.poison : f32 loc(#loc252)
    tt.return %1 : f32 loc(#loc252)
  } loc(#loc249)
  tt.func private @"triton.language.standard.sum__fp32S16_32S__(1,)cconstexpr_1__(2,)cconstexpr_False__(3,)cNone"(%input: tensor<16x32xf32> loc("input"(#loc253))) -> tensor<16xf32> attributes {noinline = false} {
    %0 = "tt.reduce"(%input) <{axis = 1 : i32}> ({
    ^bb0(%arg1: f32 loc(unknown), %arg2: f32 loc(unknown)):
      %2 = tt.call @triton.language.standard._sum_combine__fp32_fp32__(%arg1, %arg2) : (f32, f32) -> f32 loc(#loc254)
      tt.reduce.return %2 : f32 loc(#loc254)
    }) : (tensor<16x32xf32>) -> tensor<16xf32> loc(#loc254)
    tt.return %0 : tensor<16xf32> loc(#loc255)
  ^bb1:  // no predecessors
    %1 = ub.poison : tensor<16xf32> loc(#loc256)
    tt.return %1 : tensor<16xf32> loc(#loc256)
  } loc(#loc253)
  tt.func private @triton.language.standard._sum_combine__fp32_fp32__(%a: f32 loc("a"(#loc257)), %b: f32 loc("b"(#loc257))) -> f32 attributes {noinline = false} {
    %0 = arith.addf %a, %b : f32 loc(#loc258)
    tt.return %0 : f32 loc(#loc259)
  ^bb1:  // no predecessors
    %1 = ub.poison : f32 loc(#loc260)
    tt.return %1 : f32 loc(#loc260)
  } loc(#loc257)
  tt.func private @"vllm.v1.attention.ops.triton_attention_helpers.store_segm_reduce_scalars__Pfp32_Pfp32_i32S16S_i32S16S_i32_fp32S16S_fp32S16S_u1S16S_u1S16S__(9,)cconstexpr_16__(10,)cconstexpr_16_"(%segm_max_ptr: !tt.ptr<f32> loc("segm_max_ptr"(#loc261)), %segm_expsum_ptr: !tt.ptr<f32> loc("segm_expsum_ptr"(#loc261)), %query_offset_0: tensor<16xi32> loc("query_offset_0"(#loc261)), %query_offset_1: tensor<16xi32> loc("query_offset_1"(#loc261)), %segm_idx: i32 loc("segm_idx"(#loc261)), %M: tensor<16xf32> loc("M"(#loc261)), %L: tensor<16xf32> loc("L"(#loc261)), %query_mask_0: tensor<16xi1> loc("query_mask_0"(#loc261)), %query_mask_1: tensor<16xi1> loc("query_mask_1"(#loc261))) attributes {noinline = false} {
    %segm_offset = arith.extsi %query_offset_0 : tensor<16xi32> to tensor<16xi64> loc(#loc538)
    %segm_offset_0 = arith.constant 256 : i32 loc(#loc539)
    %segm_offset_1 = arith.constant 256 : i64 loc(#loc539)
    %segm_offset_2 = arith.constant dense<256> : tensor<16xi64> loc(#loc539)
    %segm_offset_3 = arith.muli %segm_offset, %segm_offset_2 : tensor<16xi64> loc(#loc539)
    %segm_offset_4 = arith.constant 16 : i32 loc(#loc540)
    %segm_offset_5 = arith.constant 16 : i32 loc(#loc540)
    %segm_offset_6 = arith.constant dense<16> : tensor<16xi32> loc(#loc540)
    %segm_offset_7 = arith.extsi %query_offset_1 : tensor<16xi32> to tensor<16xi64> loc(#loc540)
    %segm_offset_8 = arith.extsi %segm_offset_6 : tensor<16xi32> to tensor<16xi64> loc(#loc540)
    %segm_offset_9 = arith.muli %segm_offset_7, %segm_offset_8 : tensor<16xi64> loc(#loc540)
    %segm_offset_10 = arith.constant 2147483647 : i64 loc(#loc540)
    %segm_offset_11 = arith.constant -2147483648 : i64 loc(#loc540)
    %segm_offset_12 = arith.constant dense<2147483647> : tensor<16xi64> loc(#loc540)
    %segm_offset_13 = arith.cmpi sle, %segm_offset_9, %segm_offset_12 : tensor<16xi64> loc(#loc540)
    %segm_offset_14 = arith.constant dense<-2147483648> : tensor<16xi64> loc(#loc540)
    %segm_offset_15 = arith.cmpi sge, %segm_offset_9, %segm_offset_14 : tensor<16xi64> loc(#loc540)
    %segm_offset_16 = arith.andi %segm_offset_13, %segm_offset_15 : tensor<16xi1> loc(#loc540)
    %segm_offset_17 = arith.muli %query_offset_1, %segm_offset_6 : tensor<16xi32> loc(#loc540)
    %segm_offset_18 = arith.extsi %segm_offset_17 : tensor<16xi32> to tensor<16xi64> loc(#loc541)
    %segm_offset_19 = arith.addi %segm_offset_3, %segm_offset_18 : tensor<16xi64> loc(#loc541)
    %segm_offset_20 = arith.extsi %segm_idx : i32 to i64 loc(#loc542)
    %segm_offset_21 = tt.splat %segm_offset_20 : i64 -> tensor<16xi64> loc(#loc542)
    %segm_offset_22 = arith.addi %segm_offset_19, %segm_offset_21 : tensor<16xi64> loc(#loc542)
    %0 = arith.andi %query_mask_0, %query_mask_1 : tensor<16xi1> loc(#loc267)
    %1 = tt.splat %segm_max_ptr : !tt.ptr<f32> -> tensor<16x!tt.ptr<f32>> loc(#loc268)
    %2 = tt.addptr %1, %segm_offset_22 : tensor<16x!tt.ptr<f32>>, tensor<16xi64> loc(#loc268)
    tt.store %2, %M, %0 : tensor<16x!tt.ptr<f32>> loc(#loc269)
    %3 = arith.andi %query_mask_0, %query_mask_1 : tensor<16xi1> loc(#loc270)
    %4 = tt.splat %segm_expsum_ptr : !tt.ptr<f32> -> tensor<16x!tt.ptr<f32>> loc(#loc271)
    %5 = tt.addptr %4, %segm_offset_22 : tensor<16x!tt.ptr<f32>>, tensor<16xi64> loc(#loc271)
    tt.store %5, %L, %3 : tensor<16x!tt.ptr<f32>> loc(#loc272)
    tt.return loc(#loc273)
  } loc(#loc261)
} loc(#loc)
#loc1 = loc("/home/ericbuehler/vllm/.venv-bench/lib/python3.12/site-packages/vllm/v1/attention/ops/triton_unified_attention.py":146:39)
#loc2 = loc("/home/ericbuehler/vllm/.venv-bench/lib/python3.12/site-packages/vllm/v1/attention/ops/triton_unified_attention.py":147:32)
#loc3 = loc("/home/ericbuehler/vllm/.venv-bench/lib/python3.12/site-packages/vllm/v1/attention/ops/triton_unified_attention.py":148:29)
#loc4 = loc("/home/ericbuehler/vllm/.venv-bench/lib/python3.12/site-packages/vllm/v1/attention/ops/triton_unified_attention.py":157:73)
#loc5 = loc("/home/ericbuehler/vllm/.venv-bench/lib/python3.12/site-packages/vllm/v1/attention/ops/triton_unified_attention.py":160:27)
#loc6 = loc("/home/ericbuehler/vllm/.venv-bench/lib/python3.12/site-packages/vllm/v1/attention/ops/triton_unified_attention.py":160:38)
#loc7 = loc("/home/ericbuehler/vllm/.venv-bench/lib/python3.12/site-packages/vllm/v1/attention/ops/triton_unified_attention.py":161:8)
#loc8 = loc("/home/ericbuehler/vllm/.venv-bench/lib/python3.12/site-packages/vllm/v1/attention/ops/triton_unified_attention.py":164:45)
#loc9 = loc("/home/ericbuehler/vllm/.venv-bench/lib/python3.12/site-packages/vllm/v1/attention/ops/triton_unified_attention.py":165:22)
#loc10 = loc("/home/ericbuehler/vllm/.venv-bench/lib/python3.12/site-packages/vllm/v1/attention/ops/triton_unified_attention.py":165:42)
#loc11 = loc("/home/ericbuehler/vllm/.venv-bench/lib/python3.12/site-packages/vllm/v1/attention/ops/triton_unified_attention.py":165:55)
#loc12 = loc("/home/ericbuehler/vllm/.venv-bench/lib/python3.12/site-packages/vllm/v1/attention/ops/triton_unified_attention.py":166:12)
#loc13 = loc("/home/ericbuehler/vllm/.venv-bench/lib/python3.12/site-packages/vllm/v1/attention/ops/triton_unified_attention.py":170:26)
#loc14 = loc("/home/ericbuehler/vllm/.venv-bench/lib/python3.12/site-packages/vllm/v1/attention/ops/triton_unified_attention.py":171:26)
#loc15 = loc("/home/ericbuehler/vllm/.venv-bench/lib/python3.12/site-packages/vllm/v1/attention/ops/triton_unified_attention.py":172:26)
#loc16 = loc("/home/ericbuehler/vllm/.venv-bench/lib/python3.12/site-packages/vllm/v1/attention/ops/triton_unified_attention.py":173:36)
#loc17 = loc("/home/ericbuehler/vllm/.venv-bench/lib/python3.12/site-packages/vllm/v1/attention/ops/triton_unified_attention.py":173:56)
#loc18 = loc("/home/ericbuehler/vllm/.venv-bench/lib/python3.12/site-packages/vllm/v1/attention/ops/triton_unified_attention.py":173:46)
#loc19 = loc("/home/ericbuehler/vllm/.venv-bench/lib/python3.12/site-packages/vllm/v1/attention/ops/triton_unified_attention.py":175:52)
#loc20 = loc("/home/ericbuehler/vllm/.venv-bench/lib/python3.12/site-packages/vllm/v1/attention/ops/triton_unified_attention.py":176:35)
#loc21 = loc("/home/ericbuehler/vllm/.venv-bench/lib/python3.12/site-packages/vllm/v1/attention/ops/triton_unified_attention.py":176:65)
#loc22 = loc("/home/ericbuehler/vllm/.venv-bench/lib/python3.12/site-packages/vllm/v1/attention/ops/triton_unified_attention.py":176:56)
#loc23 = loc("/home/ericbuehler/vllm/.venv-bench/lib/python3.12/site-packages/vllm/v1/attention/ops/triton_unified_attention.py":178:23)
#loc24 = loc("/home/ericbuehler/vllm/.venv-bench/lib/python3.12/site-packages/vllm/v1/attention/ops/triton_unified_attention.py":178:34)
#loc25 = loc("/home/ericbuehler/vllm/.venv-bench/lib/python3.12/site-packages/vllm/v1/attention/ops/triton_unified_attention.py":179:25)
#loc26 = loc("/home/ericbuehler/vllm/.venv-bench/lib/python3.12/site-packages/vllm/v1/attention/ops/triton_unified_attention.py":179:36)
#loc27 = loc("/home/ericbuehler/vllm/.venv-bench/lib/python3.12/site-packages/vllm/v1/attention/ops/triton_unified_attention.py":179:10)
#loc28 = loc("/home/ericbuehler/vllm/.venv-bench/lib/python3.12/site-packages/vllm/v1/attention/ops/triton_unified_attention.py":180:17)
#loc29 = loc("/home/ericbuehler/vllm/.venv-bench/lib/python3.12/site-packages/vllm/v1/attention/ops/triton_unified_attention.py":180:10)
#loc30 = loc("/home/ericbuehler/vllm/.venv-bench/lib/python3.12/site-packages/vllm/v1/attention/ops/triton_unified_attention.py":183:33)
#loc31 = loc("/home/ericbuehler/vllm/.venv-bench/lib/python3.12/site-packages/vllm/v1/attention/ops/triton_unified_attention.py":183:47)
#loc32 = loc("/home/ericbuehler/vllm/.venv-bench/lib/python3.12/site-packages/vllm/v1/attention/ops/triton_unified_attention.py":183:53)
#loc33 = loc("/home/ericbuehler/vllm/.venv-bench/lib/python3.12/site-packages/vllm/v1/attention/ops/triton_unified_attention.py":184:40)
#loc34 = loc("/home/ericbuehler/vllm/.venv-bench/lib/python3.12/site-packages/vllm/v1/attention/ops/triton_unified_attention.py":184:64)
#loc35 = loc("/home/ericbuehler/vllm/.venv-bench/lib/python3.12/site-packages/vllm/v1/attention/ops/triton_unified_attention.py":184:70)
#loc36 = loc("/home/ericbuehler/vllm/.venv-bench/lib/python3.12/site-packages/vllm/v1/attention/ops/triton_unified_attention.py":185:45)
#loc37 = loc("/home/ericbuehler/vllm/.venv-bench/lib/python3.12/site-packages/vllm/v1/attention/ops/triton_unified_attention.py":185:65)
#loc38 = loc("/home/ericbuehler/vllm/.venv-bench/lib/python3.12/site-packages/vllm/v1/attention/ops/triton_unified_attention.py":185:71)
#loc39 = loc("/home/ericbuehler/vllm/.venv-bench/lib/python3.12/site-packages/vllm/v1/attention/ops/triton_unified_attention.py":190:22)
#loc40 = loc("/home/ericbuehler/vllm/.venv-bench/lib/python3.12/site-packages/vllm/v1/attention/ops/triton_unified_attention.py":190:46)
#loc41 = loc("/home/ericbuehler/vllm/.venv-bench/lib/python3.12/site-packages/vllm/v1/attention/ops/triton_unified_attention.py":190:33)
#loc42 = loc("/home/ericbuehler/vllm/.venv-bench/lib/python3.12/site-packages/vllm/v1/attention/ops/triton_unified_attention.py":190:70)
#loc43 = loc("/home/ericbuehler/vllm/.venv-bench/lib/python3.12/site-packages/vllm/v1/attention/ops/triton_unified_attention.py":190:57)
#loc44 = loc("/home/ericbuehler/vllm/.venv-bench/lib/python3.12/site-packages/vllm/v1/attention/ops/triton_unified_attention.py":189:20)
#loc45 = loc("/home/ericbuehler/vllm/.venv-bench/lib/python3.12/site-packages/vllm/v1/attention/ops/triton_unified_attention.py":189:8)
#loc46 = loc("/home/ericbuehler/vllm/.venv-bench/lib/python3.12/site-packages/vllm/v1/attention/ops/triton_unified_attention.py":194:35)
#loc47 = loc("/home/ericbuehler/vllm/.venv-bench/lib/python3.12/site-packages/vllm/v1/attention/ops/triton_unified_attention.py":197:78)
#loc48 = loc("/home/ericbuehler/vllm/.venv-bench/lib/python3.12/site-packages/vllm/v1/attention/ops/triton_unified_attention.py":199:27)
#loc49 = loc("/home/ericbuehler/vllm/.venv-bench/lib/python3.12/site-packages/vllm/v1/attention/ops/triton_unified_attention.py":201:19)
#loc50 = loc("/home/ericbuehler/vllm/.venv-bench/lib/python3.12/site-packages/vllm/v1/attention/ops/triton_unified_attention.py":203:28)
#loc51 = loc("/home/ericbuehler/vllm/.venv-bench/lib/python3.12/site-packages/vllm/v1/attention/ops/triton_unified_attention.py":228:8)
#loc52 = loc("/home/ericbuehler/vllm/.venv-bench/lib/python3.12/site-packages/vllm/v1/attention/ops/triton_unified_attention.py":232:28)
#loc53 = loc("/home/ericbuehler/vllm/.venv-bench/lib/python3.12/site-packages/vllm/v1/attention/ops/triton_unified_attention.py":233:25)
#loc54 = loc("/home/ericbuehler/vllm/.venv-bench/lib/python3.12/site-packages/vllm/v1/attention/ops/triton_unified_attention.py":233:37)
#loc55 = loc("/home/ericbuehler/vllm/.venv-bench/lib/python3.12/site-packages/vllm/v1/attention/ops/triton_unified_attention.py":234:33)
#loc56 = loc("/home/ericbuehler/vllm/.venv-bench/lib/python3.12/site-packages/vllm/v1/attention/ops/triton_unified_attention.py":237:31)
#loc57 = loc("/home/ericbuehler/vllm/.venv-bench/lib/python3.12/site-packages/vllm/v1/attention/ops/triton_unified_attention.py":237:66)
#loc58 = loc("/home/ericbuehler/vllm/.venv-bench/lib/python3.12/site-packages/vllm/v1/attention/ops/triton_unified_attention.py":237:52)
#loc59 = loc("/home/ericbuehler/vllm/.venv-bench/lib/python3.12/site-packages/vllm/v1/attention/ops/triton_unified_attention.py":237:12)
#loc60 = loc("/home/ericbuehler/vllm/.venv-bench/lib/python3.12/site-packages/vllm/v1/attention/ops/triton_unified_attention.py":238:13)
#loc61 = loc("/home/ericbuehler/vllm/.venv-bench/lib/python3.12/site-packages/vllm/v1/attention/ops/triton_unified_attention.py":241:31)
#loc62 = loc("/home/ericbuehler/vllm/.venv-bench/lib/python3.12/site-packages/vllm/v1/attention/ops/triton_unified_attention.py":241:42)
#loc63 = loc("/home/ericbuehler/vllm/.venv-bench/lib/python3.12/site-packages/vllm/v1/attention/ops/triton_unified_attention.py":242:28)
#loc64 = loc("/home/ericbuehler/vllm/.venv-bench/lib/python3.12/site-packages/vllm/v1/attention/ops/triton_unified_attention.py":242:14)
#loc65 = loc("/home/ericbuehler/vllm/.venv-bench/lib/python3.12/site-packages/vllm/v1/attention/ops/triton_unified_attention.py":243:21)
#loc66 = loc("/home/ericbuehler/vllm/.venv-bench/lib/python3.12/site-packages/vllm/v1/attention/ops/triton_unified_attention.py":243:32)
#loc67 = loc("/home/ericbuehler/vllm/.venv-bench/lib/python3.12/site-packages/vllm/v1/attention/ops/triton_unified_attention.py":243:14)
#loc68 = loc("/home/ericbuehler/vllm/.venv-bench/lib/python3.12/site-packages/vllm/v1/attention/ops/triton_unified_attention.py":244:28)
#loc69 = loc("/home/ericbuehler/vllm/.venv-bench/lib/python3.12/site-packages/vllm/v1/attention/ops/triton_unified_attention.py":244:40)
#loc70 = loc("/home/ericbuehler/vllm/.venv-bench/lib/python3.12/site-packages/vllm/v1/attention/ops/triton_unified_attention.py":244:51)
#loc71 = loc("/home/ericbuehler/vllm/.venv-bench/lib/python3.12/site-packages/vllm/v1/attention/ops/triton_unified_attention.py":244:14)
#loc72 = loc("/home/ericbuehler/vllm/.venv-bench/lib/python3.12/site-packages/vllm/v1/attention/ops/triton_unified_attention.py":247:31)
#loc73 = loc("/home/ericbuehler/vllm/.venv-bench/lib/python3.12/site-packages/vllm/v1/attention/ops/triton_unified_attention.py":247:42)
#loc74 = loc("/home/ericbuehler/vllm/.venv-bench/lib/python3.12/site-packages/vllm/v1/attention/ops/triton_unified_attention.py":248:28)
#loc75 = loc("/home/ericbuehler/vllm/.venv-bench/lib/python3.12/site-packages/vllm/v1/attention/ops/triton_unified_attention.py":248:14)
#loc76 = loc("/home/ericbuehler/vllm/.venv-bench/lib/python3.12/site-packages/vllm/v1/attention/ops/triton_unified_attention.py":249:21)
#loc77 = loc("/home/ericbuehler/vllm/.venv-bench/lib/python3.12/site-packages/vllm/v1/attention/ops/triton_unified_attention.py":249:32)
#loc78 = loc("/home/ericbuehler/vllm/.venv-bench/lib/python3.12/site-packages/vllm/v1/attention/ops/triton_unified_attention.py":249:14)
#loc79 = loc("/home/ericbuehler/vllm/.venv-bench/lib/python3.12/site-packages/vllm/v1/attention/ops/triton_unified_attention.py":250:28)
#loc80 = loc("/home/ericbuehler/vllm/.venv-bench/lib/python3.12/site-packages/vllm/v1/attention/ops/triton_unified_attention.py":250:40)
#loc81 = loc("/home/ericbuehler/vllm/.venv-bench/lib/python3.12/site-packages/vllm/v1/attention/ops/triton_unified_attention.py":250:51)
#loc82 = loc("/home/ericbuehler/vllm/.venv-bench/lib/python3.12/site-packages/vllm/v1/attention/ops/triton_unified_attention.py":250:14)
#loc83 = loc("/home/ericbuehler/vllm/.venv-bench/lib/python3.12/site-packages/vllm/v1/attention/ops/triton_unified_attention.py":255:26)
#loc84 = loc("/home/ericbuehler/vllm/.venv-bench/lib/python3.12/site-packages/vllm/v1/attention/ops/triton_unified_attention.py":255:47)
#loc85 = loc("/home/ericbuehler/vllm/.venv-bench/lib/python3.12/site-packages/vllm/v1/attention/ops/triton_unified_attention.py":255:37)
#loc86 = loc("/home/ericbuehler/vllm/.venv-bench/lib/python3.12/site-packages/vllm/v1/attention/ops/triton_unified_attention.py":254:28)
#loc87 = loc("/home/ericbuehler/vllm/.venv-bench/lib/python3.12/site-packages/vllm/v1/attention/ops/triton_unified_attention.py":254:12)
#loc88 = loc("/home/ericbuehler/vllm/.venv-bench/lib/python3.12/site-packages/vllm/v1/attention/ops/triton_unified_attention.py":258:46)
#loc89 = loc("/home/ericbuehler/vllm/.venv-bench/lib/python3.12/site-packages/vllm/v1/attention/ops/triton_unified_attention.py":262:26)
#loc90 = loc("/home/ericbuehler/vllm/.venv-bench/lib/python3.12/site-packages/vllm/v1/attention/ops/triton_unified_attention.py":262:47)
#loc91 = loc("/home/ericbuehler/vllm/.venv-bench/lib/python3.12/site-packages/vllm/v1/attention/ops/triton_unified_attention.py":262:37)
#loc92 = loc("/home/ericbuehler/vllm/.venv-bench/lib/python3.12/site-packages/vllm/v1/attention/ops/triton_unified_attention.py":261:30)
#loc93 = loc("/home/ericbuehler/vllm/.venv-bench/lib/python3.12/site-packages/vllm/v1/attention/ops/triton_unified_attention.py":261:12)
#loc94 = loc("/home/ericbuehler/vllm/.venv-bench/lib/python3.12/site-packages/vllm/v1/attention/ops/triton_unified_attention.py":265:46)
#loc95 = loc("/home/ericbuehler/vllm/.venv-bench/lib/python3.12/site-packages/vllm/v1/attention/ops/triton_unified_attention.py":286:48)
#loc96 = loc("/home/ericbuehler/vllm/.venv-bench/lib/python3.12/site-packages/vllm/v1/attention/ops/triton_unified_attention.py":286:38)
#loc97 = loc("/home/ericbuehler/vllm/.venv-bench/lib/python3.12/site-packages/vllm/v1/attention/ops/triton_unified_attention.py":296:12)
#loc98 = loc("/home/ericbuehler/vllm/.venv-bench/lib/python3.12/site-packages/vllm/v1/attention/ops/triton_unified_attention.py":300:49)
#loc99 = loc("/home/ericbuehler/vllm/.venv-bench/lib/python3.12/site-packages/vllm/v1/attention/ops/triton_unified_attention.py":306:35)
#loc100 = loc("/home/ericbuehler/vllm/.venv-bench/lib/python3.12/site-packages/vllm/v1/attention/ops/triton_unified_attention.py":306:25)
#loc101 = loc("/home/ericbuehler/vllm/.venv-bench/lib/python3.12/site-packages/vllm/v1/attention/ops/triton_unified_attention.py":306:17)
#loc102 = loc("/home/ericbuehler/vllm/.venv-bench/lib/python3.12/site-packages/vllm/v1/attention/ops/triton_unified_attention.py":312:25)
#loc103 = loc("/home/ericbuehler/vllm/.venv-bench/lib/python3.12/site-packages/vllm/v1/attention/ops/triton_unified_attention.py":312:49)
#loc104 = loc("/home/ericbuehler/vllm/.venv-bench/lib/python3.12/site-packages/vllm/v1/attention/ops/triton_unified_attention.py":312:36)
#loc105 = loc("/home/ericbuehler/vllm/.venv-bench/lib/python3.12/site-packages/vllm/v1/attention/ops/triton_unified_attention.py":312:60)
#loc106 = loc("/home/ericbuehler/vllm/.venv-bench/lib/python3.12/site-packages/vllm/v1/attention/ops/triton_unified_attention.py":312:73)
#loc107 = loc("/home/ericbuehler/vllm/.venv-bench/lib/python3.12/site-packages/vllm/v1/attention/ops/triton_unified_attention.py":325:44)
#loc108 = loc("/home/ericbuehler/vllm/.venv-bench/lib/python3.12/site-packages/vllm/v1/attention/ops/triton_unified_attention.py":326:26)
#loc109 = loc("/home/ericbuehler/vllm/.venv-bench/lib/python3.12/site-packages/vllm/v1/attention/ops/triton_unified_attention.py":326:20)
#loc110 = loc("/home/ericbuehler/vllm/.venv-bench/lib/python3.12/site-packages/vllm/v1/attention/ops/triton_unified_attention.py":329:42)
#loc111 = loc("/home/ericbuehler/vllm/.venv-bench/lib/python3.12/site-packages/vllm/v1/attention/ops/triton_unified_attention.py":331:31)
#loc112 = loc("/home/ericbuehler/vllm/.venv-bench/lib/python3.12/site-packages/vllm/v1/attention/ops/triton_unified_attention.py":331:52)
#loc113 = loc("/home/ericbuehler/vllm/.venv-bench/lib/python3.12/site-packages/vllm/v1/attention/ops/triton_unified_attention.py":331:41)
#loc114 = loc("/home/ericbuehler/vllm/.venv-bench/lib/python3.12/site-packages/vllm/v1/attention/ops/triton_unified_attention.py":331:64)
#loc115 = loc("/home/ericbuehler/vllm/.venv-bench/lib/python3.12/site-packages/vllm/v1/attention/ops/triton_unified_attention.py":333:16)
#loc116 = loc("/home/ericbuehler/vllm/.venv-bench/lib/python3.12/site-packages/vllm/v1/attention/ops/triton_unified_attention.py":340:31)
#loc117 = loc("/home/ericbuehler/vllm/.venv-bench/lib/python3.12/site-packages/vllm/v1/attention/ops/triton_unified_attention.py":340:41)
#loc118 = loc("/home/ericbuehler/vllm/.venv-bench/lib/python3.12/site-packages/vllm/v1/attention/ops/triton_unified_attention.py":340:19)
#loc119 = loc("/home/ericbuehler/vllm/.venv-bench/lib/python3.12/site-packages/vllm/v1/attention/ops/triton_unified_attention.py":335:8)
#loc120 = loc("/home/ericbuehler/vllm/.venv-bench/lib/python3.12/site-packages/vllm/v1/attention/ops/triton_unified_attention.py":346:27)
#loc121 = loc("/home/ericbuehler/vllm/.venv-bench/lib/python3.12/site-packages/vllm/v1/attention/ops/triton_unified_attention.py":346:39)
#loc122 = loc("/home/ericbuehler/vllm/.venv-bench/lib/python3.12/site-packages/vllm/v1/attention/ops/triton_unified_attention.py":347:15)
#loc123 = loc("/home/ericbuehler/vllm/.venv-bench/lib/python3.12/site-packages/vllm/v1/attention/ops/triton_unified_attention.py":348:29)
#loc124 = loc("/home/ericbuehler/vllm/.venv-bench/lib/python3.12/site-packages/vllm/v1/attention/ops/triton_unified_attention.py":348:41)
#loc125 = loc("/home/ericbuehler/vllm/.venv-bench/lib/python3.12/site-packages/vllm/v1/attention/ops/triton_unified_attention.py":348:14)
#loc126 = loc("/home/ericbuehler/vllm/.venv-bench/lib/python3.12/site-packages/vllm/v1/attention/ops/triton_unified_attention.py":349:25)
#loc127 = loc("/home/ericbuehler/vllm/.venv-bench/lib/python3.12/site-packages/vllm/v1/attention/ops/triton_unified_attention.py":349:14)
#loc128 = loc("/home/ericbuehler/vllm/.venv-bench/lib/python3.12/site-packages/vllm/v1/attention/ops/triton_unified_attention.py":350:27)
#loc129 = loc("/home/ericbuehler/vllm/.venv-bench/lib/python3.12/site-packages/vllm/v1/attention/ops/triton_unified_attention.py":350:45)
#loc130 = loc("/home/ericbuehler/vllm/.venv-bench/lib/python3.12/site-packages/vllm/v1/attention/ops/triton_unified_attention.py":350:14)
#loc131 = loc("/home/ericbuehler/vllm/.venv-bench/lib/python3.12/site-packages/vllm/v1/attention/ops/triton_unified_attention.py":355:26)
#loc132 = loc("/home/ericbuehler/vllm/.venv-bench/lib/python3.12/site-packages/vllm/v1/attention/ops/triton_unified_attention.py":355:50)
#loc133 = loc("/home/ericbuehler/vllm/.venv-bench/lib/python3.12/site-packages/vllm/v1/attention/ops/triton_unified_attention.py":355:37)
#loc134 = loc("/home/ericbuehler/vllm/.venv-bench/lib/python3.12/site-packages/vllm/v1/attention/ops/triton_unified_attention.py":355:74)
#loc135 = loc("/home/ericbuehler/vllm/.venv-bench/lib/python3.12/site-packages/vllm/v1/attention/ops/triton_unified_attention.py":355:61)
#loc136 = loc("/home/ericbuehler/vllm/.venv-bench/lib/python3.12/site-packages/vllm/v1/attention/ops/triton_unified_attention.py":353:30)
#loc137 = loc("/home/ericbuehler/vllm/.venv-bench/lib/python3.12/site-packages/vllm/v1/attention/ops/triton_unified_attention.py":354:12)
#loc138 = loc("/home/ericbuehler/vllm/.venv-bench/lib/python3.12/site-packages/vllm/v1/attention/ops/triton_unified_attention.py":368:12)
#loc139 = loc("/home/ericbuehler/vllm/.venv-bench/lib/python3.12/site-packages/vllm/v1/attention/ops/triton_unified_attention.py":343:4)
#loc141 = loc("/home/ericbuehler/vllm/.venv-bench/lib/python3.12/site-packages/vllm/v1/attention/ops/triton_attention_helpers.py":67:68)
#loc142 = loc("/home/ericbuehler/vllm/.venv-bench/lib/python3.12/site-packages/vllm/v1/attention/ops/triton_attention_helpers.py":69:54)
#loc143 = loc("/home/ericbuehler/vllm/.venv-bench/lib/python3.12/site-packages/vllm/v1/attention/ops/triton_attention_helpers.py":69:32)
#loc144 = loc("/home/ericbuehler/vllm/.venv-bench/lib/python3.12/site-packages/vllm/v1/attention/ops/triton_attention_helpers.py":69:66)
#loc145 = loc("/home/ericbuehler/vllm/.venv-bench/lib/python3.12/site-packages/vllm/v1/attention/ops/triton_attention_helpers.py":69:76)
#loc146 = loc("/home/ericbuehler/vllm/.venv-bench/lib/python3.12/site-packages/vllm/v1/attention/ops/triton_attention_helpers.py":70:45)
#loc147 = loc("/home/ericbuehler/vllm/.venv-bench/lib/python3.12/site-packages/vllm/v1/attention/ops/triton_attention_helpers.py":71:46)
#loc148 = loc("/home/ericbuehler/vllm/.venv-bench/lib/python3.12/site-packages/vllm/v1/attention/ops/triton_attention_helpers.py":71:24)
#loc149 = loc("/home/ericbuehler/vllm/.venv-bench/lib/python3.12/site-packages/vllm/v1/attention/ops/triton_attention_helpers.py":72:45)
#loc150 = loc("/home/ericbuehler/vllm/.venv-bench/lib/python3.12/site-packages/vllm/v1/attention/ops/triton_attention_helpers.py":72:55)
#loc151 = loc("/home/ericbuehler/vllm/.venv-bench/lib/python3.12/site-packages/vllm/v1/attention/ops/triton_attention_helpers.py":72:23)
#loc152 = loc("/home/ericbuehler/vllm/.venv-bench/lib/python3.12/site-packages/vllm/v1/attention/ops/triton_attention_helpers.py":73:37)
#loc153 = loc("/home/ericbuehler/vllm/.venv-bench/lib/python3.12/site-packages/vllm/v1/attention/ops/triton_attention_helpers.py":74:37)
#loc154 = loc("/home/ericbuehler/vllm/.venv-bench/lib/python3.12/site-packages/vllm/v1/attention/ops/triton_attention_helpers.py":74:22)
#loc155 = loc("/home/ericbuehler/vllm/.venv-bench/lib/python3.12/site-packages/vllm/v1/attention/ops/triton_attention_helpers.py":75:11)
#loc156 = loc("/home/ericbuehler/vllm/.venv-bench/lib/python3.12/site-packages/vllm/v1/attention/ops/triton_attention_helpers.py":75:4)
#loc158 = loc("/home/ericbuehler/vllm/.venv-bench/lib/python3.12/site-packages/vllm/v1/attention/ops/triton_attention_helpers.py":94:21)
#loc159 = loc("/home/ericbuehler/vllm/.venv-bench/lib/python3.12/site-packages/vllm/v1/attention/ops/triton_attention_helpers.py":96:4)
#loc160 = loc("/home/ericbuehler/vllm/.venv-bench/lib/python3.12/site-packages/vllm/v1/attention/ops/triton_attention_helpers.py":96:17)
#loc163 = loc("/home/ericbuehler/vllm/.venv-bench/lib/python3.12/site-packages/vllm/v1/attention/ops/triton_attention_helpers.py":97:22)
#loc164 = loc("/home/ericbuehler/vllm/.venv-bench/lib/python3.12/site-packages/vllm/v1/attention/ops/triton_attention_helpers.py":97:32)
#loc165 = loc("/home/ericbuehler/vllm/.venv-bench/lib/python3.12/site-packages/vllm/v1/attention/ops/triton_attention_helpers.py":98:44)
#loc166 = loc("/home/ericbuehler/vllm/.venv-bench/lib/python3.12/site-packages/vllm/v1/attention/ops/triton_attention_helpers.py":98:22)
#loc167 = loc("/home/ericbuehler/vllm/.venv-bench/lib/python3.12/site-packages/vllm/v1/attention/ops/triton_attention_helpers.py":99:25)
#loc168 = loc("/home/ericbuehler/vllm/.venv-bench/lib/python3.12/site-packages/vllm/v1/attention/ops/triton_attention_helpers.py":99:35)
#loc169 = loc("/home/ericbuehler/vllm/.venv-bench/lib/python3.12/site-packages/vllm/v1/attention/ops/triton_attention_helpers.py":101:22)
#loc170 = loc("/home/ericbuehler/vllm/.venv-bench/lib/python3.12/site-packages/vllm/v1/attention/ops/triton_attention_helpers.py":101:11)
#loc171 = loc("/home/ericbuehler/vllm/.venv-bench/lib/python3.12/site-packages/vllm/v1/attention/ops/triton_attention_helpers.py":102:25)
#loc172 = loc("/home/ericbuehler/vllm/.venv-bench/lib/python3.12/site-packages/vllm/v1/attention/ops/triton_attention_helpers.py":101:8)
#loc173 = loc("/home/ericbuehler/vllm/.venv-bench/lib/python3.12/site-packages/vllm/v1/attention/ops/triton_attention_helpers.py":106:18)
#loc174 = loc("/home/ericbuehler/vllm/.venv-bench/lib/python3.12/site-packages/vllm/v1/attention/ops/triton_attention_helpers.py":106:11)
#loc175 = loc("/home/ericbuehler/vllm/.venv-bench/lib/python3.12/site-packages/vllm/v1/attention/ops/triton_attention_helpers.py":106:4)
#loc177 = loc("/home/ericbuehler/vllm/.venv-bench/lib/python3.12/site-packages/vllm/v1/attention/ops/triton_attention_helpers.py":24:16)
#loc178 = loc("/home/ericbuehler/vllm/.venv-bench/lib/python3.12/site-packages/vllm/v1/attention/ops/triton_attention_helpers.py":24:20)
#loc179 = loc("/home/ericbuehler/vllm/.venv-bench/lib/python3.12/site-packages/vllm/v1/attention/ops/triton_attention_helpers.py":24:26)
#loc180 = loc("/home/ericbuehler/vllm/.venv-bench/lib/python3.12/site-packages/vllm/v1/attention/ops/triton_attention_helpers.py":24:11)
#loc181 = loc("/home/ericbuehler/vllm/.venv-bench/lib/python3.12/site-packages/vllm/v1/attention/ops/triton_attention_helpers.py":24:4)
#loc183 = loc("/home/ericbuehler/vllm/.venv-bench/lib/python3.12/site-packages/vllm/v1/attention/ops/triton_attention_helpers.py":129:27)
#loc184 = loc("/home/ericbuehler/vllm/.venv-bench/lib/python3.12/site-packages/vllm/v1/attention/ops/triton_attention_helpers.py":138:11)
#loc185 = loc("/home/ericbuehler/vllm/.venv-bench/lib/python3.12/site-packages/vllm/v1/attention/ops/triton_attention_helpers.py":138:4)
#loc186 = loc("/home/ericbuehler/vllm/.venv-bench/lib/python3.12/site-packages/triton/language/standard.py":120:0)
#loc187 = loc("/home/ericbuehler/vllm/.venv-bench/lib/python3.12/site-packages/triton/language/standard.py":129:31)
#loc188 = loc("/home/ericbuehler/vllm/.venv-bench/lib/python3.12/site-packages/triton/language/standard.py":129:11)
#loc189 = loc("/home/ericbuehler/vllm/.venv-bench/lib/python3.12/site-packages/triton/language/standard.py":129:4)
#loc191 = loc("/home/ericbuehler/vllm/.venv-bench/lib/python3.12/site-packages/vllm/v1/attention/ops/triton_attention_helpers.py":178:30)
#loc192 = loc("/home/ericbuehler/vllm/.venv-bench/lib/python3.12/site-packages/vllm/v1/attention/ops/triton_attention_helpers.py":178:10)
#loc193 = loc("/home/ericbuehler/vllm/.venv-bench/lib/python3.12/site-packages/vllm/v1/attention/ops/triton_attention_helpers.py":179:10)
#loc194 = loc("/home/ericbuehler/vllm/.venv-bench/lib/python3.12/site-packages/vllm/v1/attention/ops/triton_attention_helpers.py":180:10)
#loc195 = loc("/home/ericbuehler/vllm/.venv-bench/lib/python3.12/site-packages/vllm/v1/attention/ops/triton_attention_helpers.py":187:60)
#loc196 = loc("/home/ericbuehler/vllm/.venv-bench/lib/python3.12/site-packages/vllm/v1/attention/ops/triton_attention_helpers.py":189:44)
#loc197 = loc("/home/ericbuehler/vllm/.venv-bench/lib/python3.12/site-packages/vllm/v1/attention/ops/triton_attention_helpers.py":193:17)
#loc198 = loc("/home/ericbuehler/vllm/.venv-bench/lib/python3.12/site-packages/vllm/v1/attention/ops/triton_attention_helpers.py":198:38)
#loc199 = loc("/home/ericbuehler/vllm/.venv-bench/lib/python3.12/site-packages/vllm/v1/attention/ops/triton_attention_helpers.py":200:22)
#loc200 = loc("/home/ericbuehler/vllm/.venv-bench/lib/python3.12/site-packages/vllm/v1/attention/ops/triton_attention_helpers.py":201:34)
#loc201 = loc("/home/ericbuehler/vllm/.venv-bench/lib/python3.12/site-packages/vllm/v1/attention/ops/triton_attention_helpers.py":201:12)
#loc202 = loc("/home/ericbuehler/vllm/.venv-bench/lib/python3.12/site-packages/vllm/v1/attention/ops/triton_attention_helpers.py":208:30)
#loc203 = loc("/home/ericbuehler/vllm/.venv-bench/lib/python3.12/site-packages/vllm/v1/attention/ops/triton_attention_helpers.py":214:40)
#loc204 = loc("/home/ericbuehler/vllm/.venv-bench/lib/python3.12/site-packages/vllm/v1/attention/ops/triton_attention_helpers.py":214:57)
#loc205 = loc("/home/ericbuehler/vllm/.venv-bench/lib/python3.12/site-packages/vllm/v1/attention/ops/triton_attention_helpers.py":215:41)
#loc206 = loc("/home/ericbuehler/vllm/.venv-bench/lib/python3.12/site-packages/vllm/v1/attention/ops/triton_attention_helpers.py":217:56)
#loc207 = loc("/home/ericbuehler/vllm/.venv-bench/lib/python3.12/site-packages/vllm/v1/attention/ops/triton_attention_helpers.py":217:35)
#loc208 = loc("/home/ericbuehler/vllm/.venv-bench/lib/python3.12/site-packages/vllm/v1/attention/ops/triton_attention_helpers.py":218:51)
#loc209 = loc("/home/ericbuehler/vllm/.venv-bench/lib/python3.12/site-packages/vllm/v1/attention/ops/triton_attention_helpers.py":218:64)
#loc210 = loc("/home/ericbuehler/vllm/.venv-bench/lib/python3.12/site-packages/vllm/v1/attention/ops/triton_attention_helpers.py":218:67)
#loc211 = loc("/home/ericbuehler/vllm/.venv-bench/lib/python3.12/site-packages/vllm/v1/attention/ops/triton_attention_helpers.py":221:38)
#loc212 = loc("/home/ericbuehler/vllm/.venv-bench/lib/python3.12/site-packages/vllm/v1/attention/ops/triton_attention_helpers.py":221:62)
#loc213 = loc("/home/ericbuehler/vllm/.venv-bench/lib/python3.12/site-packages/vllm/v1/attention/ops/triton_attention_helpers.py":222:39)
#loc214 = loc("/home/ericbuehler/vllm/.venv-bench/lib/python3.12/site-packages/vllm/v1/attention/ops/triton_attention_helpers.py":222:44)
#loc215 = loc("/home/ericbuehler/vllm/.venv-bench/lib/python3.12/site-packages/vllm/v1/attention/ops/triton_attention_helpers.py":222:68)
#loc216 = loc("/home/ericbuehler/vllm/.venv-bench/lib/python3.12/site-packages/vllm/v1/attention/ops/triton_attention_helpers.py":227:11)
#loc217 = loc("/home/ericbuehler/vllm/.venv-bench/lib/python3.12/site-packages/vllm/v1/attention/ops/triton_attention_helpers.py":227:4)
#loc219 = loc("/home/ericbuehler/vllm/.venv-bench/lib/python3.12/site-packages/vllm/v1/attention/ops/triton_unified_attention.py":54:11)
#loc220 = loc("/home/ericbuehler/vllm/.venv-bench/lib/python3.12/site-packages/vllm/v1/attention/ops/triton_unified_attention.py":54:4)
#loc222 = loc("/home/ericbuehler/vllm/.venv-bench/lib/python3.12/site-packages/vllm/v1/attention/ops/triton_attention_helpers.py":284:26)
#loc223 = loc("/home/ericbuehler/vllm/.venv-bench/lib/python3.12/site-packages/vllm/v1/attention/ops/triton_attention_helpers.py":284:38)
#loc224 = loc("/home/ericbuehler/vllm/.venv-bench/lib/python3.12/site-packages/vllm/v1/attention/ops/triton_attention_helpers.py":296:48)
#loc225 = loc("/home/ericbuehler/vllm/.venv-bench/lib/python3.12/site-packages/vllm/v1/attention/ops/triton_attention_helpers.py":296:62)
#loc226 = loc("/home/ericbuehler/vllm/.venv-bench/lib/python3.12/site-packages/vllm/v1/attention/ops/triton_attention_helpers.py":296:31)
#loc227 = loc("/home/ericbuehler/vllm/.venv-bench/lib/python3.12/site-packages/vllm/v1/attention/ops/triton_attention_helpers.py":318:11)
#loc228 = loc("/home/ericbuehler/vllm/.venv-bench/lib/python3.12/site-packages/vllm/v1/attention/ops/triton_attention_helpers.py":318:4)
#loc230 = loc("/home/ericbuehler/vllm/.venv-bench/lib/python3.12/site-packages/vllm/v1/attention/ops/triton_attention_helpers.py":371:31)
#loc231 = loc("/home/ericbuehler/vllm/.venv-bench/lib/python3.12/site-packages/vllm/v1/attention/ops/triton_attention_helpers.py":371:24)
#loc232 = loc("/home/ericbuehler/vllm/.venv-bench/lib/python3.12/site-packages/vllm/v1/attention/ops/triton_attention_helpers.py":374:25)
#loc233 = loc("/home/ericbuehler/vllm/.venv-bench/lib/python3.12/site-packages/vllm/v1/attention/ops/triton_attention_helpers.py":374:45)
#loc234 = loc("/home/ericbuehler/vllm/.venv-bench/lib/python3.12/site-packages/vllm/v1/attention/ops/triton_attention_helpers.py":376:23)
#loc235 = loc("/home/ericbuehler/vllm/.venv-bench/lib/python3.12/site-packages/vllm/v1/attention/ops/triton_attention_helpers.py":376:19)
#loc236 = loc("/home/ericbuehler/vllm/.venv-bench/lib/python3.12/site-packages/vllm/v1/attention/ops/triton_attention_helpers.py":376:15)
#loc237 = loc("/home/ericbuehler/vllm/.venv-bench/lib/python3.12/site-packages/vllm/v1/attention/ops/triton_attention_helpers.py":378:17)
#loc238 = loc("/home/ericbuehler/vllm/.venv-bench/lib/python3.12/site-packages/vllm/v1/attention/ops/triton_attention_helpers.py":380:23)
#loc239 = loc("/home/ericbuehler/vllm/.venv-bench/lib/python3.12/site-packages/vllm/v1/attention/ops/triton_attention_helpers.py":380:19)
#loc240 = loc("/home/ericbuehler/vllm/.venv-bench/lib/python3.12/site-packages/vllm/v1/attention/ops/triton_attention_helpers.py":382:16)
#loc241 = loc("/home/ericbuehler/vllm/.venv-bench/lib/python3.12/site-packages/vllm/v1/attention/ops/triton_attention_helpers.py":382:24)
#loc242 = loc("/home/ericbuehler/vllm/.venv-bench/lib/python3.12/site-packages/vllm/v1/attention/ops/triton_attention_helpers.py":383:11)
#loc243 = loc("/home/ericbuehler/vllm/.venv-bench/lib/python3.12/site-packages/vllm/v1/attention/ops/triton_attention_helpers.py":383:4)
#loc245 = loc("/home/ericbuehler/vllm/.venv-bench/lib/python3.12/site-packages/triton/language/standard.py":191:40)
#loc247 = loc("/home/ericbuehler/vllm/.venv-bench/lib/python3.12/site-packages/triton/language/standard.py":191:15)
#loc248 = loc("/home/ericbuehler/vllm/.venv-bench/lib/python3.12/site-packages/triton/language/standard.py":179:4)
#loc250 = loc("/home/ericbuehler/vllm/.venv-bench/lib/python3.12/site-packages/triton/language/standard.py":170:27)
#loc251 = loc("/home/ericbuehler/vllm/.venv-bench/lib/python3.12/site-packages/triton/language/standard.py":170:11)
#loc252 = loc("/home/ericbuehler/vllm/.venv-bench/lib/python3.12/site-packages/triton/language/standard.py":170:4)
#loc254 = loc("/home/ericbuehler/vllm/.venv-bench/lib/python3.12/site-packages/triton/language/standard.py":293:36)
#loc255 = loc("/home/ericbuehler/vllm/.venv-bench/lib/python3.12/site-packages/triton/language/standard.py":293:11)
#loc256 = loc("/home/ericbuehler/vllm/.venv-bench/lib/python3.12/site-packages/triton/language/standard.py":293:4)
#loc258 = loc("/home/ericbuehler/vllm/.venv-bench/lib/python3.12/site-packages/triton/language/standard.py":263:15)
#loc259 = loc("/home/ericbuehler/vllm/.venv-bench/lib/python3.12/site-packages/triton/language/standard.py":263:11)
#loc260 = loc("/home/ericbuehler/vllm/.venv-bench/lib/python3.12/site-packages/triton/language/standard.py":263:4)
#loc262 = loc("/home/ericbuehler/vllm/.venv-bench/lib/python3.12/site-packages/vllm/v1/attention/ops/triton_attention_helpers.py":252:26)
#loc263 = loc("/home/ericbuehler/vllm/.venv-bench/lib/python3.12/site-packages/vllm/v1/attention/ops/triton_attention_helpers.py":252:39)
#loc264 = loc("/home/ericbuehler/vllm/.venv-bench/lib/python3.12/site-packages/vllm/v1/attention/ops/triton_attention_helpers.py":253:27)
#loc265 = loc("/home/ericbuehler/vllm/.venv-bench/lib/python3.12/site-packages/vllm/v1/attention/ops/triton_attention_helpers.py":253:10)
#loc266 = loc("/home/ericbuehler/vllm/.venv-bench/lib/python3.12/site-packages/vllm/v1/attention/ops/triton_attention_helpers.py":254:10)
#loc267 = loc("/home/ericbuehler/vllm/.venv-bench/lib/python3.12/site-packages/vllm/v1/attention/ops/triton_attention_helpers.py":256:64)
#loc268 = loc("/home/ericbuehler/vllm/.venv-bench/lib/python3.12/site-packages/vllm/v1/attention/ops/triton_attention_helpers.py":256:28)
#loc269 = loc("/home/ericbuehler/vllm/.venv-bench/lib/python3.12/site-packages/vllm/v1/attention/ops/triton_attention_helpers.py":256:41)
#loc270 = loc("/home/ericbuehler/vllm/.venv-bench/lib/python3.12/site-packages/vllm/v1/attention/ops/triton_attention_helpers.py":257:67)
#loc271 = loc("/home/ericbuehler/vllm/.venv-bench/lib/python3.12/site-packages/vllm/v1/attention/ops/triton_attention_helpers.py":257:31)
#loc272 = loc("/home/ericbuehler/vllm/.venv-bench/lib/python3.12/site-packages/vllm/v1/attention/ops/triton_attention_helpers.py":257:44)
#loc273 = loc("/home/ericbuehler/vllm/.venv-bench/lib/python3.12/site-packages/vllm/v1/attention/ops/triton_attention_helpers.py":257:4)
#loc310 = loc("q_block_global_idx"(#loc1))
#loc311 = loc("kv_head_idx"(#loc2))
#loc312 = loc("segm_idx"(#loc3))
#loc313 = loc("tiles_per_segment"(#loc8))
#loc314 = loc("offs_m"(#loc13))
#loc315 = loc("offs_d"(#loc14))
#loc316 = loc("offs_t"(#loc15))
#loc317 = loc("query_pos"(#loc16))
#loc318 = loc("query_pos"(#loc17))
#loc319 = loc("query_pos"(#loc18))
#loc320 = loc("query_offset_0"(#loc19))
#loc321 = loc("query_offset_1"(#loc20))
#loc322 = loc("query_offset_1"(#loc21))
#loc323 = loc("query_offset_1"(#loc22))
#loc324 = loc("query_offset"(#loc23))
#loc325 = loc("query_offset"(#loc24))
#loc326 = loc("query_offset"(#loc25))
#loc327 = loc("query_offset"(#loc26))
#loc328 = loc("query_offset"(#loc27))
#loc329 = loc("query_offset"(#loc28))
#loc330 = loc("query_offset"(#loc29))
#loc331 = loc("dim_mask"(#loc30))
#loc332 = loc("dim_mask"(#loc31))
#loc333 = loc("dim_mask"(#loc32))
#loc334 = loc("query_mask_0"(#loc33))
#loc335 = loc("query_mask_0"(#loc34))
#loc336 = loc("query_mask_0"(#loc35))
#loc337 = loc("query_mask_1"(#loc36))
#loc338 = loc("query_mask_1"(#loc37))
#loc339 = loc("query_mask_1"(#loc38))
#loc340 = loc("Q"(#loc39))
#loc341 = loc("Q"(#loc40))
#loc342 = loc("Q"(#loc41))
#loc343 = loc("Q"(#loc42))
#loc344 = loc("Q"(#loc43))
#loc345 = loc("Q"(#loc44))
#loc346 = loc("Q"(#loc45))
#loc347 = loc("block_table_offset"(#loc46))
#loc348 = loc("M"(#loc47))
#loc349 = loc("L"(#loc48))
#loc350 = loc("acc"(#loc49))
#loc351 = loc("context_len"(#loc50))
#loc352 = loc("M"(#loc52))
#loc353 = loc("seq_offset"(#loc53))
#loc354 = loc("seq_offset"(#loc54))
#loc355 = loc("tile_mask"(#loc55))
#loc356 = loc("physical_block_idx"(#loc56))
#loc357 = loc("physical_block_idx"(#loc57))
#loc358 = loc("physical_block_idx"(#loc58))
#loc359 = loc("physical_block_idx"(#loc59))
#loc360 = loc("physical_block_idx"(#loc60))
#loc361 = loc("v_offset"(#loc61))
#loc362 = loc("v_offset"(#loc62))
#loc363 = loc("v_offset"(#loc63))
#loc364 = loc("v_offset"(#loc64))
#loc365 = loc("v_offset"(#loc65))
#loc366 = loc("v_offset"(#loc66))
#loc367 = loc("v_offset"(#loc67))
#loc368 = loc("v_offset"(#loc68))
#loc369 = loc("v_offset"(#loc69))
#loc370 = loc("v_offset"(#loc70))
#loc371 = loc("v_offset"(#loc71))
#loc372 = loc("k_offset"(#loc72))
#loc373 = loc("k_offset"(#loc73))
#loc374 = loc("k_offset"(#loc74))
#loc375 = loc("k_offset"(#loc75))
#loc376 = loc("k_offset"(#loc76))
#loc377 = loc("k_offset"(#loc77))
#loc378 = loc("k_offset"(#loc78))
#loc379 = loc("k_offset"(#loc79))
#loc380 = loc("k_offset"(#loc80))
#loc381 = loc("k_offset"(#loc81))
#loc382 = loc("k_offset"(#loc82))
#loc383 = loc("K_load"(#loc83))
#loc384 = loc("K_load"(#loc84))
#loc385 = loc("K_load"(#loc85))
#loc386 = loc("K_load"(#loc86))
#loc387 = loc("K_load"(#loc87))
#loc388 = loc("K"(#loc88))
#loc389 = loc("V_load"(#loc89))
#loc390 = loc("V_load"(#loc90))
#loc391 = loc("V_load"(#loc91))
#loc392 = loc("V_load"(#loc92))
#loc393 = loc("V_load"(#loc93))
#loc394 = loc("V"(#loc94))
#loc395 = loc("query_abs_pos"(#loc95))
#loc396 = loc("query_abs_pos"(#loc96))
#loc397 = loc("seq_mask"(#loc97))
#loc398 = loc("S"(#loc98))
#loc399 = loc("S"(#loc99))
#loc400 = loc("S"(#loc100))
#loc401 = loc("S"(#loc101))
#loc402 = loc("S"(#loc102))
#loc403 = loc("S"(#loc103))
#loc404 = loc("S"(#loc104))
#loc405 = loc("S"(#loc105))
#loc406 = loc("S"(#loc106))
#loc407 = loc("acc"(#loc108))
#loc408 = loc("acc"(#loc109))
#loc409 = loc("qpos_lo"(#loc110))
#loc410 = loc("V"(#loc111))
#loc411 = loc("V"(#loc112))
#loc412 = loc("V"(#loc113))
#loc413 = loc("V"(#loc114))
#loc414 = loc("V"(#loc115))
#loc415 = loc("acc"(#loc116))
#loc416 = loc("acc"(#loc117))
#loc417 = loc("acc"(#loc118))
#loc418 = loc("segm_output_offset"(#loc120))
#loc419 = loc("segm_output_offset"(#loc121))
#loc420 = loc("segm_output_offset"(#loc122))
#loc421 = loc("segm_output_offset"(#loc123))
#loc422 = loc("segm_output_offset"(#loc124))
#loc423 = loc("segm_output_offset"(#loc125))
#loc424 = loc("segm_output_offset"(#loc126))
#loc425 = loc("segm_output_offset"(#loc127))
#loc426 = loc("segm_output_offset"(#loc128))
#loc427 = loc("segm_output_offset"(#loc129))
#loc428 = loc("segm_output_offset"(#loc130))
#loc433 = loc("seq_idx"(#loc141))
#loc434 = loc("q_block_start_idx"(#loc142))
#loc435 = loc("q_block_start_idx"(#loc143))
#loc436 = loc("q_block_start_idx"(#loc144))
#loc437 = loc("q_block_start_idx"(#loc145))
#loc438 = loc("q_block_local_idx"(#loc146))
#loc439 = loc("cur_start"(#loc147))
#loc440 = loc("cur_start"(#loc148))
#loc441 = loc("cur_stop"(#loc149))
#loc442 = loc("cur_stop"(#loc150))
#loc443 = loc("cur_stop"(#loc151))
#loc444 = loc("cur_batch_query_len"(#loc152))
#loc445 = loc("seq_len"(#loc153))
#loc446 = loc("seq_len"(#loc154))
#loc450 = loc("left"(#loc158))
#loc451 = loc("left"(#loc159))
#loc454 = loc("mid"(#loc163))
#loc455 = loc("mid"(#loc164))
#loc456 = loc("val"(#loc165))
#loc457 = loc("val"(#loc166))
#loc458 = loc("mid_val"(#loc167))
#loc459 = loc("mid_val"(#loc168))
#loc460 = loc("left"(#loc171))
#loc465 = loc("M"(#loc183))
#loc472 = loc("max_seq_prefix_len"(#loc191))
#loc473 = loc("max_seq_prefix_len"(#loc192))
#loc474 = loc("max_seq_prefix_len"(#loc193))
#loc475 = loc("max_seq_prefix_len"(#loc194))
#loc476 = loc("max_seq_prefix_len"(#loc195))
#loc477 = loc("num_tiles"(#loc196))
#loc478 = loc("tile_start"(#loc197))
#loc479 = loc("qpos_lo"(#loc198))
#loc480 = loc("qpos_hi"(#loc199))
#loc481 = loc("qpos_hi"(#loc200))
#loc482 = loc("qpos_hi"(#loc201))
#loc483 = loc("q_abs"(#loc202))
#loc484 = loc("first_allowed_key"(#loc203))
#loc485 = loc("first_allowed_key"(#loc204))
#loc486 = loc("last_allowed_key"(#loc205))
#loc487 = loc("tile_start"(#loc206))
#loc488 = loc("tile_start"(#loc207))
#loc489 = loc("tile_end"(#loc208))
#loc490 = loc("tile_end"(#loc209))
#loc491 = loc("tile_end"(#loc210))
#loc492 = loc("loop_lo"(#loc211))
#loc493 = loc("loop_lo"(#loc212))
#loc494 = loc("loop_hi"(#loc213))
#loc495 = loc("loop_hi"(#loc214))
#loc496 = loc("loop_hi"(#loc215))
#loc503 = loc("seq_mask"(#loc222))
#loc504 = loc("seq_mask"(#loc223))
#loc505 = loc("seq_mask"(#loc224))
#loc506 = loc("seq_mask"(#loc225))
#loc507 = loc("seq_mask"(#loc226))
#loc511 = loc("m_j"(#loc230))
#loc512 = loc("m_j"(#loc231))
#loc513 = loc("m_j"(#loc232))
#loc514 = loc("m_j"(#loc233))
#loc515 = loc("P"(#loc234))
#loc516 = loc("P"(#loc235))
#loc517 = loc("P"(#loc236))
#loc518 = loc("l_j"(#loc237))
#loc519 = loc("alpha"(#loc238))
#loc520 = loc("alpha"(#loc239))
#loc521 = loc("L_new"(#loc240))
#loc522 = loc("L_new"(#loc241))
#loc538 = loc("segm_offset"(#loc262))
#loc539 = loc("segm_offset"(#loc263))
#loc540 = loc("segm_offset"(#loc264))
#loc541 = loc("segm_offset"(#loc265))
#loc542 = loc("segm_offset"(#loc266))
#loc543 = loc("L"(#loc352))
#loc545 = loc("left"(#loc450))
#loc546 = loc("right"(#loc451))
#loc547 = loc("right"(#loc455))
#loc548 = loc("left"(#loc460))
#loc549 = loc("acc"(#loc543))
