#loc = loc("/home/ericbuehler/.cache/vllm/torch_compile_cache/torch_aot_compile/90537ea14f244a5187d6ecc853fbadcf440d710f29c8e182fe8151f3f7751a82/inductor_cache/qx/cqxrpfohmbxcbxabgov5rbocjkj2dqpdzxiuvfm67ys7s4xokesf.py":22:0)
#loc56 = loc("/home/ericbuehler/vllm/.venv-bench/lib/python3.12/site-packages/triton/language/standard.py":287:0)
#loc58 = loc(unknown)
#loc61 = loc("/home/ericbuehler/vllm/.venv-bench/lib/python3.12/site-packages/triton/language/standard.py":262:0)
#loc65 = loc("in_ptr0"(#loc))
#loc66 = loc("out_ptr1"(#loc))
#loc67 = loc("xnumel"(#loc))
#loc68 = loc("r0_numel"(#loc))
#loc116 = loc("input"(#loc56))
#loc117 = loc("a"(#loc61))
#loc118 = loc("b"(#loc61))
module {
  tt.func public @triton_(%in_ptr0: !tt.ptr<bf16> {tt.divisibility = 16 : i32} loc("in_ptr0"(#loc)), %out_ptr1: !tt.ptr<bf16> {tt.divisibility = 16 : i32} loc("out_ptr1"(#loc)), %xnumel: i32 loc("xnumel"(#loc)), %r0_numel: i32 {tt.divisibility = 16 : i32} loc("r0_numel"(#loc))) attributes {noinline = false} {
    %r0_numel_0 = arith.constant 512 : i32 loc(#loc69)
    %xoffset = tt.get_program_id x : i32 loc(#loc70)
    %xoffset_1 = arith.constant 64 : i32 loc(#loc71)
    %xoffset_2 = arith.constant 64 : i32 loc(#loc71)
    %xoffset_3 = arith.muli %xoffset, %xoffset_2 : i32 loc(#loc71)
    %xindex = tt.make_range {end = 64 : i32, start = 0 : i32} : tensor<64xi32> loc(#loc72)
    %xindex_4 = tt.expand_dims %xindex {axis = 1 : i32} : tensor<64xi32> -> tensor<64x1xi32> loc(#loc73)
    %xindex_5 = tt.splat %xoffset_3 : i32 -> tensor<64x1xi32> loc(#loc74)
    %xindex_6 = arith.addi %xindex_5, %xindex_4 : tensor<64x1xi32> loc(#loc74)
    %xmask = tt.splat %xnumel : i32 -> tensor<64x1xi32> loc(#loc75)
    %xmask_7 = arith.cmpi slt, %xindex_6, %xmask : tensor<64x1xi32> loc(#loc75)
    %r0_base = tt.make_range {end = 64 : i32, start = 0 : i32} : tensor<64xi32> loc(#loc76)
    %r0_base_8 = tt.expand_dims %r0_base {axis = 0 : i32} : tensor<64xi32> -> tensor<1x64xi32> loc(#loc77)
    %x0 = arith.constant 2 : i32 loc(#loc78)
    %x0_9 = arith.constant 2 : i32 loc(#loc78)
    %x0_10 = arith.constant dense<2> : tensor<64x1xi32> loc(#loc78)
    %x0_11 = arith.remsi %xindex_6, %x0_10 : tensor<64x1xi32> loc(#loc78)
    %x1 = arith.constant 2 : i32 loc(#loc79)
    %x1_12 = arith.constant 2 : i32 loc(#loc79)
    %x1_13 = arith.constant dense<2> : tensor<64x1xi32> loc(#loc79)
    %x1_14 = arith.divsi %xindex_6, %x1_13 : tensor<64x1xi32> loc(#loc79)
    %_tmp4 = arith.constant 0.000000e+00 : f32 loc(#loc80)
    %_tmp4_15 = arith.constant dense<0.000000e+00> : tensor<64x64xf32> loc(#loc80)
    %c0_i32 = arith.constant 0 : i32 loc(#loc13)
    %c64_i32 = arith.constant 64 : i32 loc(#loc13)
    %0 = arith.bitcast %c0_i32 : i32 to i32 loc(#loc13)
    %1 = arith.bitcast %r0_numel_0 : i32 to i32 loc(#loc13)
    %2 = arith.bitcast %c64_i32 : i32 to i32 loc(#loc13)
    %3 = ub.poison : i32 loc(#loc13)
    %_tmp4_16 = scf.for %r0_offset = %0 to %1 step %2 iter_args(%_tmp4_20 = %_tmp4_15) -> (tensor<64x64xf32>)  : i32 {
      %r0_index = tt.splat %r0_offset : i32 -> tensor<1x64xi32> loc(#loc82)
      %r0_index_21 = arith.addi %r0_index, %r0_base_8 : tensor<1x64xi32> loc(#loc82)
      %r0_mask = arith.constant dense<512> : tensor<1x64xi32> loc(#loc83)
      %r0_mask_22 = arith.cmpi slt, %r0_index_21, %r0_mask : tensor<1x64xi32> loc(#loc83)
      %tmp0 = arith.constant 9216 : i32 loc(#loc84)
      %tmp0_23 = arith.constant 9216 : i32 loc(#loc84)
      %tmp0_24 = arith.constant dense<9216> : tensor<1x64xi32> loc(#loc84)
      %tmp0_25 = arith.addi %tmp0_24, %r0_index_21 : tensor<1x64xi32> loc(#loc84)
      %tmp0_26 = arith.constant 512 : i32 loc(#loc85)
      %tmp0_27 = arith.constant 512 : i32 loc(#loc85)
      %tmp0_28 = arith.constant dense<512> : tensor<64x1xi32> loc(#loc85)
      %tmp0_29 = arith.muli %tmp0_28, %x0_11 : tensor<64x1xi32> loc(#loc85)
      %tmp0_30 = tt.broadcast %tmp0_25 : tensor<1x64xi32> -> tensor<64x64xi32> loc(#loc86)
      %tmp0_31 = tt.broadcast %tmp0_29 : tensor<64x1xi32> -> tensor<64x64xi32> loc(#loc86)
      %tmp0_32 = arith.addi %tmp0_30, %tmp0_31 : tensor<64x64xi32> loc(#loc86)
      %tmp0_33 = arith.constant 10240 : i32 loc(#loc87)
      %tmp0_34 = arith.constant 10240 : i32 loc(#loc87)
      %tmp0_35 = arith.constant dense<10240> : tensor<64x1xi32> loc(#loc87)
      %tmp0_36 = arith.muli %tmp0_35, %x1_14 : tensor<64x1xi32> loc(#loc87)
      %tmp0_37 = tt.broadcast %tmp0_36 : tensor<64x1xi32> -> tensor<64x64xi32> loc(#loc88)
      %tmp0_38 = arith.addi %tmp0_32, %tmp0_37 : tensor<64x64xi32> loc(#loc88)
      %tmp0_39 = tt.splat %in_ptr0 : !tt.ptr<bf16> -> tensor<64x64x!tt.ptr<bf16>> loc(#loc89)
      %tmp0_40 = tt.addptr %tmp0_39, %tmp0_38 : tensor<64x64x!tt.ptr<bf16>>, tensor<64x64xi32> loc(#loc89)
      %tmp0_41 = tt.broadcast %r0_mask_22 : tensor<1x64xi1> -> tensor<64x64xi1> loc(#loc90)
      %tmp0_42 = tt.broadcast %xmask_7 : tensor<64x1xi1> -> tensor<64x64xi1> loc(#loc90)
      %tmp0_43 = arith.andi %tmp0_41, %tmp0_42 : tensor<64x64xi1> loc(#loc90)
      %tmp0_44 = arith.constant 0.000000e+00 : f32 loc(#loc91)
      %tmp0_45 = arith.constant dense<0.000000e+00> : tensor<64x64xf32> loc(#loc91)
      %tmp0_46 = arith.truncf %tmp0_45 : tensor<64x64xf32> to tensor<64x64xbf16> loc(#loc91)
      %tmp0_47 = tt.load %tmp0_40, %tmp0_43, %tmp0_46 evictionPolicy = evict_last : tensor<64x64x!tt.ptr<bf16>> loc(#loc91)
      %tmp0_48 = arith.extf %tmp0_47 : tensor<64x64xbf16> to tensor<64x64xf32> loc(#loc92)
      %tmp2 = arith.mulf %tmp0_48, %tmp0_48 : tensor<64x64xf32> loc(#loc93)
      %tmp5 = arith.addf %_tmp4_20, %tmp2 : tensor<64x64xf32> loc(#loc94)
      %_tmp4_49 = tt.broadcast %r0_mask_22 : tensor<1x64xi1> -> tensor<64x64xi1> loc(#loc95)
      %_tmp4_50 = tt.broadcast %xmask_7 : tensor<64x1xi1> -> tensor<64x64xi1> loc(#loc95)
      %_tmp4_51 = arith.andi %_tmp4_49, %_tmp4_50 : tensor<64x64xi1> loc(#loc95)
      %_tmp4_52 = arith.select %_tmp4_51, %tmp5, %_tmp4_20 : tensor<64x64xi1>, tensor<64x64xf32> loc(#loc96)
      scf.yield %_tmp4_52 : tensor<64x64xf32> loc(#loc29)
    } loc(#loc81)
    %tmp4 = tt.call @"triton.language.standard.sum__fp32S64_64S__(1,)cconstexpr_1__(2,)cconstexpr_False__(3,)cNone"(%_tmp4_16) : (tensor<64x64xf32>) -> tensor<64xf32> loc(#loc97)
    %tmp4_17 = tt.expand_dims %tmp4 {axis = 1 : i32} : tensor<64xf32> -> tensor<64x1xf32> loc(#loc98)
    %c0_i32_18 = arith.constant 0 : i32 loc(#loc32)
    %c64_i32_19 = arith.constant 64 : i32 loc(#loc32)
    %4 = arith.bitcast %c0_i32_18 : i32 to i32 loc(#loc32)
    %5 = arith.bitcast %r0_numel_0 : i32 to i32 loc(#loc32)
    %6 = arith.bitcast %c64_i32_19 : i32 to i32 loc(#loc32)
    %7 = ub.poison : i32 loc(#loc32)
    scf.for %r0_offset = %4 to %5 step %6  : i32 {
      %r0_index = tt.splat %r0_offset : i32 -> tensor<1x64xi32> loc(#loc99)
      %r0_index_20 = arith.addi %r0_index, %r0_base_8 : tensor<1x64xi32> loc(#loc99)
      %r0_mask = arith.constant dense<512> : tensor<1x64xi32> loc(#loc100)
      %r0_mask_21 = arith.cmpi slt, %r0_index_20, %r0_mask : tensor<1x64xi32> loc(#loc100)
      %tmp6 = arith.constant 9216 : i32 loc(#loc101)
      %tmp6_22 = arith.constant 9216 : i32 loc(#loc101)
      %tmp6_23 = arith.constant dense<9216> : tensor<1x64xi32> loc(#loc101)
      %tmp6_24 = arith.addi %tmp6_23, %r0_index_20 : tensor<1x64xi32> loc(#loc101)
      %tmp6_25 = arith.constant 512 : i32 loc(#loc102)
      %tmp6_26 = arith.constant 512 : i32 loc(#loc102)
      %tmp6_27 = arith.constant dense<512> : tensor<64x1xi32> loc(#loc102)
      %tmp6_28 = arith.muli %tmp6_27, %x0_11 : tensor<64x1xi32> loc(#loc102)
      %tmp6_29 = tt.broadcast %tmp6_24 : tensor<1x64xi32> -> tensor<64x64xi32> loc(#loc103)
      %tmp6_30 = tt.broadcast %tmp6_28 : tensor<64x1xi32> -> tensor<64x64xi32> loc(#loc103)
      %tmp6_31 = arith.addi %tmp6_29, %tmp6_30 : tensor<64x64xi32> loc(#loc103)
      %tmp6_32 = arith.constant 10240 : i32 loc(#loc104)
      %tmp6_33 = arith.constant 10240 : i32 loc(#loc104)
      %tmp6_34 = arith.constant dense<10240> : tensor<64x1xi32> loc(#loc104)
      %tmp6_35 = arith.muli %tmp6_34, %x1_14 : tensor<64x1xi32> loc(#loc104)
      %tmp6_36 = tt.broadcast %tmp6_35 : tensor<64x1xi32> -> tensor<64x64xi32> loc(#loc105)
      %tmp6_37 = arith.addi %tmp6_31, %tmp6_36 : tensor<64x64xi32> loc(#loc105)
      %tmp6_38 = tt.splat %in_ptr0 : !tt.ptr<bf16> -> tensor<64x64x!tt.ptr<bf16>> loc(#loc106)
      %tmp6_39 = tt.addptr %tmp6_38, %tmp6_37 : tensor<64x64x!tt.ptr<bf16>>, tensor<64x64xi32> loc(#loc106)
      %tmp6_40 = tt.broadcast %r0_mask_21 : tensor<1x64xi1> -> tensor<64x64xi1> loc(#loc107)
      %tmp6_41 = tt.broadcast %xmask_7 : tensor<64x1xi1> -> tensor<64x64xi1> loc(#loc107)
      %tmp6_42 = arith.andi %tmp6_40, %tmp6_41 : tensor<64x64xi1> loc(#loc107)
      %tmp6_43 = arith.constant 0.000000e+00 : f32 loc(#loc108)
      %tmp6_44 = arith.constant dense<0.000000e+00> : tensor<64x64xf32> loc(#loc108)
      %tmp6_45 = arith.truncf %tmp6_44 : tensor<64x64xf32> to tensor<64x64xbf16> loc(#loc108)
      %tmp6_46 = tt.load %tmp6_39, %tmp6_42, %tmp6_45 evictionPolicy = evict_first : tensor<64x64x!tt.ptr<bf16>> loc(#loc108)
      %tmp6_47 = arith.extf %tmp6_46 : tensor<64x64xbf16> to tensor<64x64xf32> loc(#loc109)
      %tmp8 = arith.constant 5.120000e+02 : f32 loc(#loc110)
      %tmp8_48 = arith.constant dense<5.120000e+02> : tensor<1x1xf32> loc(#loc110)
      %tmp9 = arith.constant dense<5.120000e+02> : tensor<64x1xf32> loc(#loc111)
      %tmp9_49 = arith.divf %tmp4_17, %tmp9 : tensor<64x1xf32> loc(#loc111)
      %tmp10 = arith.constant 9.99999997E-7 : f32 loc(#loc112)
      %tmp10_50 = arith.constant dense<9.99999997E-7> : tensor<1x1xf32> loc(#loc112)
      %tmp11 = arith.constant dense<9.99999997E-7> : tensor<64x1xf32> loc(#loc113)
      %tmp11_51 = arith.addf %tmp9_49, %tmp11 : tensor<64x1xf32> loc(#loc113)
      %tmp12 = tt.extern_elementwise %tmp11_51 {libname = "", libpath = "", pure = true, symbol = "__nv_rsqrtf"} : (tensor<64x1xf32>) -> tensor<64x1xf32> loc(#loc114)
      %tmp13 = tt.broadcast %tmp12 : tensor<64x1xf32> -> tensor<64x64xf32> loc(#loc115)
      %tmp13_52 = arith.mulf %tmp6_47, %tmp13 : tensor<64x64xf32> loc(#loc115)
      %c512_i32 = arith.constant 512 : i32 loc(#loc50)
      %c512_i32_53 = arith.constant 512 : i32 loc(#loc50)
      %cst = arith.constant dense<512> : tensor<64x1xi32> loc(#loc50)
      %8 = arith.muli %cst, %xindex_6 : tensor<64x1xi32> loc(#loc50)
      %9 = tt.broadcast %r0_index_20 : tensor<1x64xi32> -> tensor<64x64xi32> loc(#loc51)
      %10 = tt.broadcast %8 : tensor<64x1xi32> -> tensor<64x64xi32> loc(#loc51)
      %11 = arith.addi %9, %10 : tensor<64x64xi32> loc(#loc51)
      %12 = tt.splat %out_ptr1 : !tt.ptr<bf16> -> tensor<64x64x!tt.ptr<bf16>> loc(#loc52)
      %13 = tt.addptr %12, %11 : tensor<64x64x!tt.ptr<bf16>>, tensor<64x64xi32> loc(#loc52)
      %14 = tt.broadcast %r0_mask_21 : tensor<1x64xi1> -> tensor<64x64xi1> loc(#loc53)
      %15 = tt.broadcast %xmask_7 : tensor<64x1xi1> -> tensor<64x64xi1> loc(#loc53)
      %16 = arith.andi %14, %15 : tensor<64x64xi1> loc(#loc53)
      %17 = arith.truncf %tmp13_52 : tensor<64x64xf32> to tensor<64x64xbf16> loc(#loc54)
      tt.store %13, %17, %16 : tensor<64x64x!tt.ptr<bf16>> loc(#loc54)
    } loc(#loc32)
    tt.return loc(#loc55)
  } loc(#loc)
  tt.func private @"triton.language.standard.sum__fp32S64_64S__(1,)cconstexpr_1__(2,)cconstexpr_False__(3,)cNone"(%input: tensor<64x64xf32> loc("input"(#loc56))) -> tensor<64xf32> attributes {noinline = false} {
    %0 = "tt.reduce"(%input) <{axis = 1 : i32}> ({
    ^bb0(%arg1: f32 loc(unknown), %arg2: f32 loc(unknown)):
      %2 = tt.call @triton.language.standard._sum_combine__fp32_fp32__(%arg1, %arg2) : (f32, f32) -> f32 loc(#loc57)
      tt.reduce.return %2 : f32 loc(#loc57)
    }) : (tensor<64x64xf32>) -> tensor<64xf32> loc(#loc57)
    tt.return %0 : tensor<64xf32> loc(#loc59)
  ^bb1:  // no predecessors
    %1 = ub.poison : tensor<64xf32> loc(#loc60)
    tt.return %1 : tensor<64xf32> loc(#loc60)
  } loc(#loc56)
  tt.func private @triton.language.standard._sum_combine__fp32_fp32__(%a: f32 loc("a"(#loc61)), %b: f32 loc("b"(#loc61))) -> f32 attributes {noinline = false} {
    %0 = arith.addf %a, %b : f32 loc(#loc62)
    tt.return %0 : f32 loc(#loc63)
  ^bb1:  // no predecessors
    %1 = ub.poison : f32 loc(#loc64)
    tt.return %1 : f32 loc(#loc64)
  } loc(#loc61)
} loc(#loc)
#loc1 = loc("/home/ericbuehler/.cache/vllm/torch_compile_cache/torch_aot_compile/90537ea14f244a5187d6ecc853fbadcf440d710f29c8e182fe8151f3f7751a82/inductor_cache/qx/cqxrpfohmbxcbxabgov5rbocjkj2dqpdzxiuvfm67ys7s4xokesf.py":23:15)
#loc2 = loc("/home/ericbuehler/.cache/vllm/torch_compile_cache/torch_aot_compile/90537ea14f244a5187d6ecc853fbadcf440d710f29c8e182fe8151f3f7751a82/inductor_cache/qx/cqxrpfohmbxcbxabgov5rbocjkj2dqpdzxiuvfm67ys7s4xokesf.py":26:28)
#loc3 = loc("/home/ericbuehler/.cache/vllm/torch_compile_cache/torch_aot_compile/90537ea14f244a5187d6ecc853fbadcf440d710f29c8e182fe8151f3f7751a82/inductor_cache/qx/cqxrpfohmbxcbxabgov5rbocjkj2dqpdzxiuvfm67ys7s4xokesf.py":26:33)
#loc4 = loc("/home/ericbuehler/.cache/vllm/torch_compile_cache/torch_aot_compile/90537ea14f244a5187d6ecc853fbadcf440d710f29c8e182fe8151f3f7751a82/inductor_cache/qx/cqxrpfohmbxcbxabgov5rbocjkj2dqpdzxiuvfm67ys7s4xokesf.py":27:36)
#loc5 = loc("/home/ericbuehler/.cache/vllm/torch_compile_cache/torch_aot_compile/90537ea14f244a5187d6ecc853fbadcf440d710f29c8e182fe8151f3f7751a82/inductor_cache/qx/cqxrpfohmbxcbxabgov5rbocjkj2dqpdzxiuvfm67ys7s4xokesf.py":27:44)
#loc6 = loc("/home/ericbuehler/.cache/vllm/torch_compile_cache/torch_aot_compile/90537ea14f244a5187d6ecc853fbadcf440d710f29c8e182fe8151f3f7751a82/inductor_cache/qx/cqxrpfohmbxcbxabgov5rbocjkj2dqpdzxiuvfm67ys7s4xokesf.py":27:23)
#loc7 = loc("/home/ericbuehler/.cache/vllm/torch_compile_cache/torch_aot_compile/90537ea14f244a5187d6ecc853fbadcf440d710f29c8e182fe8151f3f7751a82/inductor_cache/qx/cqxrpfohmbxcbxabgov5rbocjkj2dqpdzxiuvfm67ys7s4xokesf.py":28:21)
#loc8 = loc("/home/ericbuehler/.cache/vllm/torch_compile_cache/torch_aot_compile/90537ea14f244a5187d6ecc853fbadcf440d710f29c8e182fe8151f3f7751a82/inductor_cache/qx/cqxrpfohmbxcbxabgov5rbocjkj2dqpdzxiuvfm67ys7s4xokesf.py":29:27)
#loc9 = loc("/home/ericbuehler/.cache/vllm/torch_compile_cache/torch_aot_compile/90537ea14f244a5187d6ecc853fbadcf440d710f29c8e182fe8151f3f7751a82/inductor_cache/qx/cqxrpfohmbxcbxabgov5rbocjkj2dqpdzxiuvfm67ys7s4xokesf.py":29:37)
#loc10 = loc("/home/ericbuehler/.cache/vllm/torch_compile_cache/torch_aot_compile/90537ea14f244a5187d6ecc853fbadcf440d710f29c8e182fe8151f3f7751a82/inductor_cache/qx/cqxrpfohmbxcbxabgov5rbocjkj2dqpdzxiuvfm67ys7s4xokesf.py":31:19)
#loc11 = loc("/home/ericbuehler/.cache/vllm/torch_compile_cache/torch_aot_compile/90537ea14f244a5187d6ecc853fbadcf440d710f29c8e182fe8151f3f7751a82/inductor_cache/qx/cqxrpfohmbxcbxabgov5rbocjkj2dqpdzxiuvfm67ys7s4xokesf.py":32:19)
#loc12 = loc("/home/ericbuehler/.cache/vllm/torch_compile_cache/torch_aot_compile/90537ea14f244a5187d6ecc853fbadcf440d710f29c8e182fe8151f3f7751a82/inductor_cache/qx/cqxrpfohmbxcbxabgov5rbocjkj2dqpdzxiuvfm67ys7s4xokesf.py":33:43)
#loc13 = loc("/home/ericbuehler/.cache/vllm/torch_compile_cache/torch_aot_compile/90537ea14f244a5187d6ecc853fbadcf440d710f29c8e182fe8151f3f7751a82/inductor_cache/qx/cqxrpfohmbxcbxabgov5rbocjkj2dqpdzxiuvfm67ys7s4xokesf.py":35:43)
#loc14 = loc("/home/ericbuehler/.cache/vllm/torch_compile_cache/torch_aot_compile/90537ea14f244a5187d6ecc853fbadcf440d710f29c8e182fe8151f3f7751a82/inductor_cache/qx/cqxrpfohmbxcbxabgov5rbocjkj2dqpdzxiuvfm67ys7s4xokesf.py":36:31)
#loc15 = loc("/home/ericbuehler/.cache/vllm/torch_compile_cache/torch_aot_compile/90537ea14f244a5187d6ecc853fbadcf440d710f29c8e182fe8151f3f7751a82/inductor_cache/qx/cqxrpfohmbxcbxabgov5rbocjkj2dqpdzxiuvfm67ys7s4xokesf.py":37:29)
#loc16 = loc("/home/ericbuehler/.cache/vllm/torch_compile_cache/torch_aot_compile/90537ea14f244a5187d6ecc853fbadcf440d710f29c8e182fe8151f3f7751a82/inductor_cache/qx/cqxrpfohmbxcbxabgov5rbocjkj2dqpdzxiuvfm67ys7s4xokesf.py":41:41)
#loc17 = loc("/home/ericbuehler/.cache/vllm/torch_compile_cache/torch_aot_compile/90537ea14f244a5187d6ecc853fbadcf440d710f29c8e182fe8151f3f7751a82/inductor_cache/qx/cqxrpfohmbxcbxabgov5rbocjkj2dqpdzxiuvfm67ys7s4xokesf.py":41:52)
#loc18 = loc("/home/ericbuehler/.cache/vllm/torch_compile_cache/torch_aot_compile/90537ea14f244a5187d6ecc853fbadcf440d710f29c8e182fe8151f3f7751a82/inductor_cache/qx/cqxrpfohmbxcbxabgov5rbocjkj2dqpdzxiuvfm67ys7s4xokesf.py":41:48)
#loc19 = loc("/home/ericbuehler/.cache/vllm/torch_compile_cache/torch_aot_compile/90537ea14f244a5187d6ecc853fbadcf440d710f29c8e182fe8151f3f7751a82/inductor_cache/qx/cqxrpfohmbxcbxabgov5rbocjkj2dqpdzxiuvfm67ys7s4xokesf.py":41:63)
#loc20 = loc("/home/ericbuehler/.cache/vllm/torch_compile_cache/torch_aot_compile/90537ea14f244a5187d6ecc853fbadcf440d710f29c8e182fe8151f3f7751a82/inductor_cache/qx/cqxrpfohmbxcbxabgov5rbocjkj2dqpdzxiuvfm67ys7s4xokesf.py":41:57)
#loc21 = loc("/home/ericbuehler/.cache/vllm/torch_compile_cache/torch_aot_compile/90537ea14f244a5187d6ecc853fbadcf440d710f29c8e182fe8151f3f7751a82/inductor_cache/qx/cqxrpfohmbxcbxabgov5rbocjkj2dqpdzxiuvfm67ys7s4xokesf.py":41:34)
#loc22 = loc("/home/ericbuehler/.cache/vllm/torch_compile_cache/torch_aot_compile/90537ea14f244a5187d6ecc853fbadcf440d710f29c8e182fe8151f3f7751a82/inductor_cache/qx/cqxrpfohmbxcbxabgov5rbocjkj2dqpdzxiuvfm67ys7s4xokesf.py":41:78)
#loc23 = loc("/home/ericbuehler/.cache/vllm/torch_compile_cache/torch_aot_compile/90537ea14f244a5187d6ecc853fbadcf440d710f29c8e182fe8151f3f7751a82/inductor_cache/qx/cqxrpfohmbxcbxabgov5rbocjkj2dqpdzxiuvfm67ys7s4xokesf.py":41:68)
#loc24 = loc("/home/ericbuehler/.cache/vllm/torch_compile_cache/torch_aot_compile/90537ea14f244a5187d6ecc853fbadcf440d710f29c8e182fe8151f3f7751a82/inductor_cache/qx/cqxrpfohmbxcbxabgov5rbocjkj2dqpdzxiuvfm67ys7s4xokesf.py":41:129)
#loc25 = loc("/home/ericbuehler/.cache/vllm/torch_compile_cache/torch_aot_compile/90537ea14f244a5187d6ecc853fbadcf440d710f29c8e182fe8151f3f7751a82/inductor_cache/qx/cqxrpfohmbxcbxabgov5rbocjkj2dqpdzxiuvfm67ys7s4xokesf.py":43:22)
#loc26 = loc("/home/ericbuehler/.cache/vllm/torch_compile_cache/torch_aot_compile/90537ea14f244a5187d6ecc853fbadcf440d710f29c8e182fe8151f3f7751a82/inductor_cache/qx/cqxrpfohmbxcbxabgov5rbocjkj2dqpdzxiuvfm67ys7s4xokesf.py":45:23)
#loc27 = loc("/home/ericbuehler/.cache/vllm/torch_compile_cache/torch_aot_compile/90537ea14f244a5187d6ecc853fbadcf440d710f29c8e182fe8151f3f7751a82/inductor_cache/qx/cqxrpfohmbxcbxabgov5rbocjkj2dqpdzxiuvfm67ys7s4xokesf.py":46:35)
#loc28 = loc("/home/ericbuehler/.cache/vllm/torch_compile_cache/torch_aot_compile/90537ea14f244a5187d6ecc853fbadcf440d710f29c8e182fe8151f3f7751a82/inductor_cache/qx/cqxrpfohmbxcbxabgov5rbocjkj2dqpdzxiuvfm67ys7s4xokesf.py":46:48)
#loc29 = loc("/home/ericbuehler/.cache/vllm/torch_compile_cache/torch_aot_compile/90537ea14f244a5187d6ecc853fbadcf440d710f29c8e182fe8151f3f7751a82/inductor_cache/qx/cqxrpfohmbxcbxabgov5rbocjkj2dqpdzxiuvfm67ys7s4xokesf.py":46:8)
#loc30 = loc("/home/ericbuehler/.cache/vllm/torch_compile_cache/torch_aot_compile/90537ea14f244a5187d6ecc853fbadcf440d710f29c8e182fe8151f3f7751a82/inductor_cache/qx/cqxrpfohmbxcbxabgov5rbocjkj2dqpdzxiuvfm67ys7s4xokesf.py":47:25)
#loc31 = loc("/home/ericbuehler/.cache/vllm/torch_compile_cache/torch_aot_compile/90537ea14f244a5187d6ecc853fbadcf440d710f29c8e182fe8151f3f7751a82/inductor_cache/qx/cqxrpfohmbxcbxabgov5rbocjkj2dqpdzxiuvfm67ys7s4xokesf.py":47:28)
#loc32 = loc("/home/ericbuehler/.cache/vllm/torch_compile_cache/torch_aot_compile/90537ea14f244a5187d6ecc853fbadcf440d710f29c8e182fe8151f3f7751a82/inductor_cache/qx/cqxrpfohmbxcbxabgov5rbocjkj2dqpdzxiuvfm67ys7s4xokesf.py":48:43)
#loc33 = loc("/home/ericbuehler/.cache/vllm/torch_compile_cache/torch_aot_compile/90537ea14f244a5187d6ecc853fbadcf440d710f29c8e182fe8151f3f7751a82/inductor_cache/qx/cqxrpfohmbxcbxabgov5rbocjkj2dqpdzxiuvfm67ys7s4xokesf.py":49:31)
#loc34 = loc("/home/ericbuehler/.cache/vllm/torch_compile_cache/torch_aot_compile/90537ea14f244a5187d6ecc853fbadcf440d710f29c8e182fe8151f3f7751a82/inductor_cache/qx/cqxrpfohmbxcbxabgov5rbocjkj2dqpdzxiuvfm67ys7s4xokesf.py":50:29)
#loc35 = loc("/home/ericbuehler/.cache/vllm/torch_compile_cache/torch_aot_compile/90537ea14f244a5187d6ecc853fbadcf440d710f29c8e182fe8151f3f7751a82/inductor_cache/qx/cqxrpfohmbxcbxabgov5rbocjkj2dqpdzxiuvfm67ys7s4xokesf.py":54:41)
#loc36 = loc("/home/ericbuehler/.cache/vllm/torch_compile_cache/torch_aot_compile/90537ea14f244a5187d6ecc853fbadcf440d710f29c8e182fe8151f3f7751a82/inductor_cache/qx/cqxrpfohmbxcbxabgov5rbocjkj2dqpdzxiuvfm67ys7s4xokesf.py":54:52)
#loc37 = loc("/home/ericbuehler/.cache/vllm/torch_compile_cache/torch_aot_compile/90537ea14f244a5187d6ecc853fbadcf440d710f29c8e182fe8151f3f7751a82/inductor_cache/qx/cqxrpfohmbxcbxabgov5rbocjkj2dqpdzxiuvfm67ys7s4xokesf.py":54:48)
#loc38 = loc("/home/ericbuehler/.cache/vllm/torch_compile_cache/torch_aot_compile/90537ea14f244a5187d6ecc853fbadcf440d710f29c8e182fe8151f3f7751a82/inductor_cache/qx/cqxrpfohmbxcbxabgov5rbocjkj2dqpdzxiuvfm67ys7s4xokesf.py":54:63)
#loc39 = loc("/home/ericbuehler/.cache/vllm/torch_compile_cache/torch_aot_compile/90537ea14f244a5187d6ecc853fbadcf440d710f29c8e182fe8151f3f7751a82/inductor_cache/qx/cqxrpfohmbxcbxabgov5rbocjkj2dqpdzxiuvfm67ys7s4xokesf.py":54:57)
#loc40 = loc("/home/ericbuehler/.cache/vllm/torch_compile_cache/torch_aot_compile/90537ea14f244a5187d6ecc853fbadcf440d710f29c8e182fe8151f3f7751a82/inductor_cache/qx/cqxrpfohmbxcbxabgov5rbocjkj2dqpdzxiuvfm67ys7s4xokesf.py":54:34)
#loc41 = loc("/home/ericbuehler/.cache/vllm/torch_compile_cache/torch_aot_compile/90537ea14f244a5187d6ecc853fbadcf440d710f29c8e182fe8151f3f7751a82/inductor_cache/qx/cqxrpfohmbxcbxabgov5rbocjkj2dqpdzxiuvfm67ys7s4xokesf.py":54:78)
#loc42 = loc("/home/ericbuehler/.cache/vllm/torch_compile_cache/torch_aot_compile/90537ea14f244a5187d6ecc853fbadcf440d710f29c8e182fe8151f3f7751a82/inductor_cache/qx/cqxrpfohmbxcbxabgov5rbocjkj2dqpdzxiuvfm67ys7s4xokesf.py":54:68)
#loc43 = loc("/home/ericbuehler/.cache/vllm/torch_compile_cache/torch_aot_compile/90537ea14f244a5187d6ecc853fbadcf440d710f29c8e182fe8151f3f7751a82/inductor_cache/qx/cqxrpfohmbxcbxabgov5rbocjkj2dqpdzxiuvfm67ys7s4xokesf.py":54:130)
#loc44 = loc("/home/ericbuehler/.cache/vllm/torch_compile_cache/torch_aot_compile/90537ea14f244a5187d6ecc853fbadcf440d710f29c8e182fe8151f3f7751a82/inductor_cache/qx/cqxrpfohmbxcbxabgov5rbocjkj2dqpdzxiuvfm67ys7s4xokesf.py":56:38)
#loc45 = loc("/home/ericbuehler/.cache/vllm/torch_compile_cache/torch_aot_compile/90537ea14f244a5187d6ecc853fbadcf440d710f29c8e182fe8151f3f7751a82/inductor_cache/qx/cqxrpfohmbxcbxabgov5rbocjkj2dqpdzxiuvfm67ys7s4xokesf.py":57:23)
#loc46 = loc("/home/ericbuehler/.cache/vllm/torch_compile_cache/torch_aot_compile/90537ea14f244a5187d6ecc853fbadcf440d710f29c8e182fe8151f3f7751a82/inductor_cache/qx/cqxrpfohmbxcbxabgov5rbocjkj2dqpdzxiuvfm67ys7s4xokesf.py":58:39)
#loc47 = loc("/home/ericbuehler/.cache/vllm/torch_compile_cache/torch_aot_compile/90537ea14f244a5187d6ecc853fbadcf440d710f29c8e182fe8151f3f7751a82/inductor_cache/qx/cqxrpfohmbxcbxabgov5rbocjkj2dqpdzxiuvfm67ys7s4xokesf.py":59:23)
#loc48 = loc("/home/ericbuehler/.cache/vllm/torch_compile_cache/torch_aot_compile/90537ea14f244a5187d6ecc853fbadcf440d710f29c8e182fe8151f3f7751a82/inductor_cache/qx/cqxrpfohmbxcbxabgov5rbocjkj2dqpdzxiuvfm67ys7s4xokesf.py":60:32)
#loc49 = loc("/home/ericbuehler/.cache/vllm/torch_compile_cache/torch_aot_compile/90537ea14f244a5187d6ecc853fbadcf440d710f29c8e182fe8151f3f7751a82/inductor_cache/qx/cqxrpfohmbxcbxabgov5rbocjkj2dqpdzxiuvfm67ys7s4xokesf.py":61:23)
#loc50 = loc("/home/ericbuehler/.cache/vllm/torch_compile_cache/torch_aot_compile/90537ea14f244a5187d6ecc853fbadcf440d710f29c8e182fe8151f3f7751a82/inductor_cache/qx/cqxrpfohmbxcbxabgov5rbocjkj2dqpdzxiuvfm67ys7s4xokesf.py":63:40)
#loc51 = loc("/home/ericbuehler/.cache/vllm/torch_compile_cache/torch_aot_compile/90537ea14f244a5187d6ecc853fbadcf440d710f29c8e182fe8151f3f7751a82/inductor_cache/qx/cqxrpfohmbxcbxabgov5rbocjkj2dqpdzxiuvfm67ys7s4xokesf.py":63:36)
#loc52 = loc("/home/ericbuehler/.cache/vllm/torch_compile_cache/torch_aot_compile/90537ea14f244a5187d6ecc853fbadcf440d710f29c8e182fe8151f3f7751a82/inductor_cache/qx/cqxrpfohmbxcbxabgov5rbocjkj2dqpdzxiuvfm67ys7s4xokesf.py":63:29)
#loc53 = loc("/home/ericbuehler/.cache/vllm/torch_compile_cache/torch_aot_compile/90537ea14f244a5187d6ecc853fbadcf440d710f29c8e182fe8151f3f7751a82/inductor_cache/qx/cqxrpfohmbxcbxabgov5rbocjkj2dqpdzxiuvfm67ys7s4xokesf.py":63:62)
#loc54 = loc("/home/ericbuehler/.cache/vllm/torch_compile_cache/torch_aot_compile/90537ea14f244a5187d6ecc853fbadcf440d710f29c8e182fe8151f3f7751a82/inductor_cache/qx/cqxrpfohmbxcbxabgov5rbocjkj2dqpdzxiuvfm67ys7s4xokesf.py":63:52)
#loc55 = loc("/home/ericbuehler/.cache/vllm/torch_compile_cache/torch_aot_compile/90537ea14f244a5187d6ecc853fbadcf440d710f29c8e182fe8151f3f7751a82/inductor_cache/qx/cqxrpfohmbxcbxabgov5rbocjkj2dqpdzxiuvfm67ys7s4xokesf.py":48:4)
#loc57 = loc("/home/ericbuehler/vllm/.venv-bench/lib/python3.12/site-packages/triton/language/standard.py":293:36)
#loc59 = loc("/home/ericbuehler/vllm/.venv-bench/lib/python3.12/site-packages/triton/language/standard.py":293:11)
#loc60 = loc("/home/ericbuehler/vllm/.venv-bench/lib/python3.12/site-packages/triton/language/standard.py":293:4)
#loc62 = loc("/home/ericbuehler/vllm/.venv-bench/lib/python3.12/site-packages/triton/language/standard.py":263:15)
#loc63 = loc("/home/ericbuehler/vllm/.venv-bench/lib/python3.12/site-packages/triton/language/standard.py":263:11)
#loc64 = loc("/home/ericbuehler/vllm/.venv-bench/lib/python3.12/site-packages/triton/language/standard.py":263:4)
#loc69 = loc("r0_numel"(#loc1))
#loc70 = loc("xoffset"(#loc2))
#loc71 = loc("xoffset"(#loc3))
#loc72 = loc("xindex"(#loc4))
#loc73 = loc("xindex"(#loc5))
#loc74 = loc("xindex"(#loc6))
#loc75 = loc("xmask"(#loc7))
#loc76 = loc("r0_base"(#loc8))
#loc77 = loc("r0_base"(#loc9))
#loc78 = loc("x0"(#loc10))
#loc79 = loc("x1"(#loc11))
#loc80 = loc("_tmp4"(#loc12))
#loc81 = loc("_tmp4"(#loc13))
#loc82 = loc("r0_index"(#loc14))
#loc83 = loc("r0_mask"(#loc15))
#loc84 = loc("tmp0"(#loc16))
#loc85 = loc("tmp0"(#loc17))
#loc86 = loc("tmp0"(#loc18))
#loc87 = loc("tmp0"(#loc19))
#loc88 = loc("tmp0"(#loc20))
#loc89 = loc("tmp0"(#loc21))
#loc90 = loc("tmp0"(#loc22))
#loc91 = loc("tmp0"(#loc23))
#loc92 = loc("tmp0"(#loc24))
#loc93 = loc("tmp2"(#loc25))
#loc94 = loc("tmp5"(#loc26))
#loc95 = loc("_tmp4"(#loc27))
#loc96 = loc("_tmp4"(#loc28))
#loc97 = loc("tmp4"(#loc30))
#loc98 = loc("tmp4"(#loc31))
#loc99 = loc("r0_index"(#loc33))
#loc100 = loc("r0_mask"(#loc34))
#loc101 = loc("tmp6"(#loc35))
#loc102 = loc("tmp6"(#loc36))
#loc103 = loc("tmp6"(#loc37))
#loc104 = loc("tmp6"(#loc38))
#loc105 = loc("tmp6"(#loc39))
#loc106 = loc("tmp6"(#loc40))
#loc107 = loc("tmp6"(#loc41))
#loc108 = loc("tmp6"(#loc42))
#loc109 = loc("tmp6"(#loc43))
#loc110 = loc("tmp8"(#loc44))
#loc111 = loc("tmp9"(#loc45))
#loc112 = loc("tmp10"(#loc46))
#loc113 = loc("tmp11"(#loc47))
#loc114 = loc("tmp12"(#loc48))
#loc115 = loc("tmp13"(#loc49))
