#loc = loc("/home/ericbuehler/.cache/vllm/torch_compile_cache/torch_aot_compile/90537ea14f244a5187d6ecc853fbadcf440d710f29c8e182fe8151f3f7751a82/inductor_cache/jv/cjvplhjyemmdijrpu5hlmmhopajofdg7at5npxkrdrpmgepeenk5.py":22:0)
#loc2 = loc(unknown)
#loc25 = loc("/home/ericbuehler/.cache/vllm/torch_compile_cache/torch_aot_compile/90537ea14f244a5187d6ecc853fbadcf440d710f29c8e182fe8151f3f7751a82/inductor_cache/jv/cjvplhjyemmdijrpu5hlmmhopajofdg7at5npxkrdrpmgepeenk5.py":47:25)
#loc31 = loc("in_ptr0"(#loc))
#loc32 = loc("out_ptr0"(#loc))
#loc33 = loc("xnumel"(#loc))
#loc34 = loc("r0_numel"(#loc))
#loc57 = loc("tmp4"(#loc25))
#loc60 = loc(callsite(#loc2 at #loc57))
module {
  tt.func public @triton_(%in_ptr0: !tt.ptr<bf16> {tt.divisibility = 16 : i32} loc("in_ptr0"(#loc)), %out_ptr0: !tt.ptr<f32> {tt.divisibility = 16 : i32} loc("out_ptr0"(#loc)), %xnumel: i32 {tt.divisibility = 16 : i32} loc("xnumel"(#loc)), %r0_numel: i32 {tt.divisibility = 16 : i32} loc("r0_numel"(#loc))) attributes {noinline = false} {
    %tmp0 = arith.constant dense<0.000000e+00> : tensor<8x256xbf16> loc(#loc35)
    %cst = arith.constant dense<8192> : tensor<8x1xi32> loc(#loc2)
    %cst_0 = arith.constant dense<256> : tensor<8x1xi32> loc(#loc2)
    %cst_1 = arith.constant dense<256> : tensor<1x256xi32> loc(#loc2)
    %cst_2 = arith.constant dense<0.000000e+00> : tensor<8x256xf32> loc(#loc2)
    %cst_3 = arith.constant dense<16> : tensor<8x1xi32> loc(#loc2)
    %c8_i32 = arith.constant 8 : i32 loc(#loc2)
    %xoffset = tt.get_program_id x : i32 loc(#loc36)
    %xoffset_4 = arith.muli %xoffset, %c8_i32 : i32 loc(#loc37)
    %xindex = tt.make_range {end = 8 : i32, start = 0 : i32} : tensor<8xi32> loc(#loc38)
    %xindex_5 = tt.expand_dims %xindex {axis = 1 : i32} : tensor<8xi32> -> tensor<8x1xi32> loc(#loc39)
    %xindex_6 = tt.splat %xoffset_4 : i32 -> tensor<8x1xi32> loc(#loc40)
    %xindex_7 = arith.addi %xindex_6, %xindex_5 : tensor<8x1xi32> loc(#loc40)
    %xmask = tt.splat %xnumel : i32 -> tensor<8x1xi32> loc(#loc41)
    %xmask_8 = arith.cmpi slt, %xindex_7, %xmask : tensor<8x1xi32> loc(#loc41)
    %r0_base = tt.make_range {end = 256 : i32, start = 0 : i32} : tensor<256xi32> loc(#loc42)
    %r0_base_9 = tt.expand_dims %r0_base {axis = 0 : i32} : tensor<256xi32> -> tensor<1x256xi32> loc(#loc43)
    %x0 = arith.remsi %xindex_7, %cst_3 : tensor<8x1xi32> loc(#loc44)
    %x1 = arith.divsi %xindex_7, %cst_3 : tensor<8x1xi32> loc(#loc45)
    %r0_mask = arith.cmpi slt, %r0_base_9, %cst_1 : tensor<1x256xi32> loc(#loc46)
    %tmp0_10 = arith.muli %x0, %cst_0 : tensor<8x1xi32> loc(#loc47)
    %tmp0_11 = tt.broadcast %r0_base_9 : tensor<1x256xi32> -> tensor<8x256xi32> loc(#loc48)
    %tmp0_12 = tt.broadcast %tmp0_10 : tensor<8x1xi32> -> tensor<8x256xi32> loc(#loc48)
    %tmp0_13 = arith.addi %tmp0_11, %tmp0_12 : tensor<8x256xi32> loc(#loc48)
    %tmp0_14 = arith.muli %x1, %cst : tensor<8x1xi32> loc(#loc49)
    %tmp0_15 = tt.broadcast %tmp0_14 : tensor<8x1xi32> -> tensor<8x256xi32> loc(#loc50)
    %tmp0_16 = arith.addi %tmp0_13, %tmp0_15 : tensor<8x256xi32> loc(#loc50)
    %tmp0_17 = tt.splat %in_ptr0 : !tt.ptr<bf16> -> tensor<8x256x!tt.ptr<bf16>> loc(#loc51)
    %tmp0_18 = tt.addptr %tmp0_17, %tmp0_16 : tensor<8x256x!tt.ptr<bf16>>, tensor<8x256xi32> loc(#loc51)
    %tmp0_19 = tt.broadcast %r0_mask : tensor<1x256xi1> -> tensor<8x256xi1> loc(#loc52)
    %tmp0_20 = tt.broadcast %xmask_8 : tensor<8x1xi1> -> tensor<8x256xi1> loc(#loc52)
    %tmp0_21 = arith.andi %tmp0_19, %tmp0_20 : tensor<8x256xi1> loc(#loc52)
    %tmp0_22 = tt.load %tmp0_18, %tmp0_21, %tmp0 evictionPolicy = evict_first : tensor<8x256x!tt.ptr<bf16>> loc(#loc35)
    %tmp0_23 = arith.extf %tmp0_22 : tensor<8x256xbf16> to tensor<8x256xf32> loc(#loc53)
    %tmp2 = arith.mulf %tmp0_23, %tmp0_23 : tensor<8x256xf32> loc(#loc54)
    %tmp5 = arith.addf %tmp2, %cst_2 : tensor<8x256xf32> loc(#loc55)
    %_tmp4 = arith.select %tmp0_21, %tmp5, %cst_2 : tensor<8x256xi1>, tensor<8x256xf32> loc(#loc56)
    %tmp4 = "tt.reduce"(%_tmp4) <{axis = 1 : i32}> ({
    ^bb0(%tmp4_25: f32 loc(callsite(#loc2 at #loc57)), %tmp4_26: f32 loc(callsite(#loc2 at #loc57))):
      %tmp4_27 = arith.addf %tmp4_25, %tmp4_26 : f32 loc(#loc61)
      tt.reduce.return %tmp4_27 : f32 loc(#loc59)
    }) : (tensor<8x256xf32>) -> tensor<8xf32> loc(#loc59)
    %tmp4_24 = tt.expand_dims %tmp4 {axis = 1 : i32} : tensor<8xf32> -> tensor<8x1xf32> loc(#loc58)
    %0 = tt.splat %out_ptr0 : !tt.ptr<f32> -> tensor<8x1x!tt.ptr<f32>> loc(#loc28)
    %1 = tt.addptr %0, %xindex_7 : tensor<8x1x!tt.ptr<f32>>, tensor<8x1xi32> loc(#loc28)
    tt.store %1, %tmp4_24, %xmask_8 : tensor<8x1x!tt.ptr<f32>> loc(#loc29)
    tt.return loc(#loc30)
  } loc(#loc)
} loc(#loc)
#loc1 = loc("/home/ericbuehler/.cache/vllm/torch_compile_cache/torch_aot_compile/90537ea14f244a5187d6ecc853fbadcf440d710f29c8e182fe8151f3f7751a82/inductor_cache/jv/cjvplhjyemmdijrpu5hlmmhopajofdg7at5npxkrdrpmgepeenk5.py":41:60)
#loc3 = loc("/home/ericbuehler/.cache/vllm/torch_compile_cache/torch_aot_compile/90537ea14f244a5187d6ecc853fbadcf440d710f29c8e182fe8151f3f7751a82/inductor_cache/jv/cjvplhjyemmdijrpu5hlmmhopajofdg7at5npxkrdrpmgepeenk5.py":26:28)
#loc4 = loc("/home/ericbuehler/.cache/vllm/torch_compile_cache/torch_aot_compile/90537ea14f244a5187d6ecc853fbadcf440d710f29c8e182fe8151f3f7751a82/inductor_cache/jv/cjvplhjyemmdijrpu5hlmmhopajofdg7at5npxkrdrpmgepeenk5.py":26:33)
#loc5 = loc("/home/ericbuehler/.cache/vllm/torch_compile_cache/torch_aot_compile/90537ea14f244a5187d6ecc853fbadcf440d710f29c8e182fe8151f3f7751a82/inductor_cache/jv/cjvplhjyemmdijrpu5hlmmhopajofdg7at5npxkrdrpmgepeenk5.py":27:36)
#loc6 = loc("/home/ericbuehler/.cache/vllm/torch_compile_cache/torch_aot_compile/90537ea14f244a5187d6ecc853fbadcf440d710f29c8e182fe8151f3f7751a82/inductor_cache/jv/cjvplhjyemmdijrpu5hlmmhopajofdg7at5npxkrdrpmgepeenk5.py":27:44)
#loc7 = loc("/home/ericbuehler/.cache/vllm/torch_compile_cache/torch_aot_compile/90537ea14f244a5187d6ecc853fbadcf440d710f29c8e182fe8151f3f7751a82/inductor_cache/jv/cjvplhjyemmdijrpu5hlmmhopajofdg7at5npxkrdrpmgepeenk5.py":27:23)
#loc8 = loc("/home/ericbuehler/.cache/vllm/torch_compile_cache/torch_aot_compile/90537ea14f244a5187d6ecc853fbadcf440d710f29c8e182fe8151f3f7751a82/inductor_cache/jv/cjvplhjyemmdijrpu5hlmmhopajofdg7at5npxkrdrpmgepeenk5.py":28:21)
#loc9 = loc("/home/ericbuehler/.cache/vllm/torch_compile_cache/torch_aot_compile/90537ea14f244a5187d6ecc853fbadcf440d710f29c8e182fe8151f3f7751a82/inductor_cache/jv/cjvplhjyemmdijrpu5hlmmhopajofdg7at5npxkrdrpmgepeenk5.py":29:27)
#loc10 = loc("/home/ericbuehler/.cache/vllm/torch_compile_cache/torch_aot_compile/90537ea14f244a5187d6ecc853fbadcf440d710f29c8e182fe8151f3f7751a82/inductor_cache/jv/cjvplhjyemmdijrpu5hlmmhopajofdg7at5npxkrdrpmgepeenk5.py":29:37)
#loc11 = loc("/home/ericbuehler/.cache/vllm/torch_compile_cache/torch_aot_compile/90537ea14f244a5187d6ecc853fbadcf440d710f29c8e182fe8151f3f7751a82/inductor_cache/jv/cjvplhjyemmdijrpu5hlmmhopajofdg7at5npxkrdrpmgepeenk5.py":31:19)
#loc12 = loc("/home/ericbuehler/.cache/vllm/torch_compile_cache/torch_aot_compile/90537ea14f244a5187d6ecc853fbadcf440d710f29c8e182fe8151f3f7751a82/inductor_cache/jv/cjvplhjyemmdijrpu5hlmmhopajofdg7at5npxkrdrpmgepeenk5.py":32:19)
#loc13 = loc("/home/ericbuehler/.cache/vllm/torch_compile_cache/torch_aot_compile/90537ea14f244a5187d6ecc853fbadcf440d710f29c8e182fe8151f3f7751a82/inductor_cache/jv/cjvplhjyemmdijrpu5hlmmhopajofdg7at5npxkrdrpmgepeenk5.py":37:29)
#loc14 = loc("/home/ericbuehler/.cache/vllm/torch_compile_cache/torch_aot_compile/90537ea14f244a5187d6ecc853fbadcf440d710f29c8e182fe8151f3f7751a82/inductor_cache/jv/cjvplhjyemmdijrpu5hlmmhopajofdg7at5npxkrdrpmgepeenk5.py":41:45)
#loc15 = loc("/home/ericbuehler/.cache/vllm/torch_compile_cache/torch_aot_compile/90537ea14f244a5187d6ecc853fbadcf440d710f29c8e182fe8151f3f7751a82/inductor_cache/jv/cjvplhjyemmdijrpu5hlmmhopajofdg7at5npxkrdrpmgepeenk5.py":41:41)
#loc16 = loc("/home/ericbuehler/.cache/vllm/torch_compile_cache/torch_aot_compile/90537ea14f244a5187d6ecc853fbadcf440d710f29c8e182fe8151f3f7751a82/inductor_cache/jv/cjvplhjyemmdijrpu5hlmmhopajofdg7at5npxkrdrpmgepeenk5.py":41:55)
#loc17 = loc("/home/ericbuehler/.cache/vllm/torch_compile_cache/torch_aot_compile/90537ea14f244a5187d6ecc853fbadcf440d710f29c8e182fe8151f3f7751a82/inductor_cache/jv/cjvplhjyemmdijrpu5hlmmhopajofdg7at5npxkrdrpmgepeenk5.py":41:50)
#loc18 = loc("/home/ericbuehler/.cache/vllm/torch_compile_cache/torch_aot_compile/90537ea14f244a5187d6ecc853fbadcf440d710f29c8e182fe8151f3f7751a82/inductor_cache/jv/cjvplhjyemmdijrpu5hlmmhopajofdg7at5npxkrdrpmgepeenk5.py":41:34)
#loc19 = loc("/home/ericbuehler/.cache/vllm/torch_compile_cache/torch_aot_compile/90537ea14f244a5187d6ecc853fbadcf440d710f29c8e182fe8151f3f7751a82/inductor_cache/jv/cjvplhjyemmdijrpu5hlmmhopajofdg7at5npxkrdrpmgepeenk5.py":41:70)
#loc20 = loc("/home/ericbuehler/.cache/vllm/torch_compile_cache/torch_aot_compile/90537ea14f244a5187d6ecc853fbadcf440d710f29c8e182fe8151f3f7751a82/inductor_cache/jv/cjvplhjyemmdijrpu5hlmmhopajofdg7at5npxkrdrpmgepeenk5.py":41:122)
#loc21 = loc("/home/ericbuehler/.cache/vllm/torch_compile_cache/torch_aot_compile/90537ea14f244a5187d6ecc853fbadcf440d710f29c8e182fe8151f3f7751a82/inductor_cache/jv/cjvplhjyemmdijrpu5hlmmhopajofdg7at5npxkrdrpmgepeenk5.py":43:22)
#loc22 = loc("/home/ericbuehler/.cache/vllm/torch_compile_cache/torch_aot_compile/90537ea14f244a5187d6ecc853fbadcf440d710f29c8e182fe8151f3f7751a82/inductor_cache/jv/cjvplhjyemmdijrpu5hlmmhopajofdg7at5npxkrdrpmgepeenk5.py":45:23)
#loc23 = loc("/home/ericbuehler/.cache/vllm/torch_compile_cache/torch_aot_compile/90537ea14f244a5187d6ecc853fbadcf440d710f29c8e182fe8151f3f7751a82/inductor_cache/jv/cjvplhjyemmdijrpu5hlmmhopajofdg7at5npxkrdrpmgepeenk5.py":46:48)
#loc24 = loc("/home/ericbuehler/vllm/.venv-bench/lib/python3.12/site-packages/triton/language/standard.py":293:36)
#loc26 = loc("/home/ericbuehler/vllm/.venv-bench/lib/python3.12/site-packages/triton/language/standard.py":263:15)
#loc27 = loc("/home/ericbuehler/.cache/vllm/torch_compile_cache/torch_aot_compile/90537ea14f244a5187d6ecc853fbadcf440d710f29c8e182fe8151f3f7751a82/inductor_cache/jv/cjvplhjyemmdijrpu5hlmmhopajofdg7at5npxkrdrpmgepeenk5.py":47:28)
#loc28 = loc("/home/ericbuehler/.cache/vllm/torch_compile_cache/torch_aot_compile/90537ea14f244a5187d6ecc853fbadcf440d710f29c8e182fe8151f3f7751a82/inductor_cache/jv/cjvplhjyemmdijrpu5hlmmhopajofdg7at5npxkrdrpmgepeenk5.py":48:25)
#loc29 = loc("/home/ericbuehler/.cache/vllm/torch_compile_cache/torch_aot_compile/90537ea14f244a5187d6ecc853fbadcf440d710f29c8e182fe8151f3f7751a82/inductor_cache/jv/cjvplhjyemmdijrpu5hlmmhopajofdg7at5npxkrdrpmgepeenk5.py":48:36)
#loc30 = loc("/home/ericbuehler/.cache/vllm/torch_compile_cache/torch_aot_compile/90537ea14f244a5187d6ecc853fbadcf440d710f29c8e182fe8151f3f7751a82/inductor_cache/jv/cjvplhjyemmdijrpu5hlmmhopajofdg7at5npxkrdrpmgepeenk5.py":48:4)
#loc35 = loc("tmp0"(#loc1))
#loc36 = loc("xoffset"(#loc3))
#loc37 = loc("xoffset"(#loc4))
#loc38 = loc("xindex"(#loc5))
#loc39 = loc("xindex"(#loc6))
#loc40 = loc("xindex"(#loc7))
#loc41 = loc("xmask"(#loc8))
#loc42 = loc("r0_base"(#loc9))
#loc43 = loc("r0_base"(#loc10))
#loc44 = loc("x0"(#loc11))
#loc45 = loc("x1"(#loc12))
#loc46 = loc("r0_mask"(#loc13))
#loc47 = loc("tmp0"(#loc14))
#loc48 = loc("tmp0"(#loc15))
#loc49 = loc("tmp0"(#loc16))
#loc50 = loc("tmp0"(#loc17))
#loc51 = loc("tmp0"(#loc18))
#loc52 = loc("tmp0"(#loc19))
#loc53 = loc("tmp0"(#loc20))
#loc54 = loc("tmp2"(#loc21))
#loc55 = loc("tmp5"(#loc22))
#loc56 = loc("_tmp4"(#loc23))
#loc58 = loc("tmp4"(#loc27))
#loc59 = loc(callsite(#loc24 at #loc57))
#loc61 = loc(callsite(#loc26 at #loc59))
