#loc = loc("/home/ericbuehler/.cache/vllm/torch_compile_cache/torch_aot_compile/90537ea14f244a5187d6ecc853fbadcf440d710f29c8e182fe8151f3f7751a82/inductor_cache/qj/cqjq2gla2xkyjefgvl2p4a2w6rhoyopuaho6rfw2zuyad34udzn7.py":22:0)
#loc1 = loc(unknown)
#loc28 = loc("/home/ericbuehler/.cache/vllm/torch_compile_cache/torch_aot_compile/90537ea14f244a5187d6ecc853fbadcf440d710f29c8e182fe8151f3f7751a82/inductor_cache/qj/cqjq2gla2xkyjefgvl2p4a2w6rhoyopuaho6rfw2zuyad34udzn7.py":47:25)
#loc52 = loc("in_ptr0"(#loc))
#loc53 = loc("out_ptr1"(#loc))
#loc54 = loc("xnumel"(#loc))
#loc55 = loc("r0_numel"(#loc))
#loc80 = loc("tmp4"(#loc28))
#loc98 = loc(callsite(#loc1 at #loc80))
module {
  tt.func public @triton_(%in_ptr0: !tt.ptr<bf16> {tt.divisibility = 16 : i32} loc("in_ptr0"(#loc)), %out_ptr1: !tt.ptr<bf16> {tt.divisibility = 16 : i32} loc("out_ptr1"(#loc)), %xnumel: i32 loc("xnumel"(#loc)), %r0_numel: i32 {tt.divisibility = 16 : i32} loc("r0_numel"(#loc))) attributes {noinline = false} {
    %cst = arith.constant dense<0.000000e+00> : tensor<64x64xbf16> loc(#loc1)
    %c256_i32 = arith.constant 256 : i32 loc(#loc1)
    %c0_i32 = arith.constant 0 : i32 loc(#loc1)
    %cst_0 = arith.constant dense<9.99999997E-7> : tensor<64x1xf32> loc(#loc1)
    %cst_1 = arith.constant dense<2.560000e+02> : tensor<64x1xf32> loc(#loc1)
    %cst_2 = arith.constant dense<8192> : tensor<64x1xi32> loc(#loc1)
    %cst_3 = arith.constant dense<256> : tensor<64x1xi32> loc(#loc1)
    %cst_4 = arith.constant dense<6144> : tensor<1x64xi32> loc(#loc1)
    %cst_5 = arith.constant dense<256> : tensor<1x64xi32> loc(#loc1)
    %cst_6 = arith.constant dense<0.000000e+00> : tensor<64x64xf32> loc(#loc1)
    %cst_7 = arith.constant dense<8> : tensor<64x1xi32> loc(#loc1)
    %c64_i32 = arith.constant 64 : i32 loc(#loc1)
    %xoffset = tt.get_program_id x : i32 loc(#loc56)
    %xoffset_8 = arith.muli %xoffset, %c64_i32 : i32 loc(#loc57)
    %xindex = tt.make_range {end = 64 : i32, start = 0 : i32} : tensor<64xi32> loc(#loc58)
    %xindex_9 = tt.expand_dims %xindex {axis = 1 : i32} : tensor<64xi32> -> tensor<64x1xi32> loc(#loc59)
    %xindex_10 = tt.splat %xoffset_8 : i32 -> tensor<64x1xi32> loc(#loc60)
    %xindex_11 = arith.addi %xindex_10, %xindex_9 : tensor<64x1xi32> loc(#loc60)
    %xmask = tt.splat %xnumel : i32 -> tensor<64x1xi32> loc(#loc61)
    %xmask_12 = arith.cmpi slt, %xindex_11, %xmask : tensor<64x1xi32> loc(#loc61)
    %r0_base = tt.expand_dims %xindex {axis = 0 : i32} : tensor<64xi32> -> tensor<1x64xi32> loc(#loc62)
    %x0 = arith.remsi %xindex_11, %cst_7 : tensor<64x1xi32> loc(#loc63)
    %x1 = arith.divsi %xindex_11, %cst_7 : tensor<64x1xi32> loc(#loc64)
    %_tmp4 = scf.for %r0_offset = %c0_i32 to %c256_i32 step %c64_i32 iter_args(%_tmp4_14 = %cst_6) -> (tensor<64x64xf32>)  : i32 {
      %r0_index = tt.splat %r0_offset : i32 -> tensor<1x64xi32> loc(#loc66)
      %r0_index_15 = arith.addi %r0_index, %r0_base : tensor<1x64xi32> loc(#loc66)
      %r0_mask = arith.cmpi slt, %r0_index_15, %cst_5 : tensor<1x64xi32> loc(#loc67)
      %tmp0 = arith.addi %r0_index_15, %cst_4 : tensor<1x64xi32> loc(#loc68)
      %tmp0_16 = arith.muli %x0, %cst_3 : tensor<64x1xi32> loc(#loc69)
      %tmp0_17 = tt.broadcast %tmp0 : tensor<1x64xi32> -> tensor<64x64xi32> loc(#loc70)
      %tmp0_18 = tt.broadcast %tmp0_16 : tensor<64x1xi32> -> tensor<64x64xi32> loc(#loc70)
      %tmp0_19 = arith.addi %tmp0_17, %tmp0_18 : tensor<64x64xi32> loc(#loc70)
      %tmp0_20 = arith.muli %x1, %cst_2 : tensor<64x1xi32> loc(#loc71)
      %tmp0_21 = tt.broadcast %tmp0_20 : tensor<64x1xi32> -> tensor<64x64xi32> loc(#loc72)
      %tmp0_22 = arith.addi %tmp0_19, %tmp0_21 : tensor<64x64xi32> loc(#loc72)
      %tmp0_23 = tt.splat %in_ptr0 : !tt.ptr<bf16> -> tensor<64x64x!tt.ptr<bf16>> loc(#loc73)
      %tmp0_24 = tt.addptr %tmp0_23, %tmp0_22 : tensor<64x64x!tt.ptr<bf16>>, tensor<64x64xi32> loc(#loc73)
      %tmp0_25 = tt.broadcast %r0_mask : tensor<1x64xi1> -> tensor<64x64xi1> loc(#loc74)
      %tmp0_26 = tt.broadcast %xmask_12 : tensor<64x1xi1> -> tensor<64x64xi1> loc(#loc74)
      %tmp0_27 = arith.andi %tmp0_25, %tmp0_26 : tensor<64x64xi1> loc(#loc74)
      %tmp0_28 = tt.load %tmp0_24, %tmp0_27, %cst evictionPolicy = evict_last : tensor<64x64x!tt.ptr<bf16>> loc(#loc75)
      %tmp0_29 = arith.extf %tmp0_28 : tensor<64x64xbf16> to tensor<64x64xf32> loc(#loc76)
      %tmp2 = arith.mulf %tmp0_29, %tmp0_29 : tensor<64x64xf32> loc(#loc77)
      %tmp5 = arith.addf %_tmp4_14, %tmp2 : tensor<64x64xf32> loc(#loc78)
      %_tmp4_30 = arith.select %tmp0_27, %tmp5, %_tmp4_14 : tensor<64x64xi1>, tensor<64x64xf32> loc(#loc79)
      scf.yield %_tmp4_30 : tensor<64x64xf32> loc(#loc26)
    } loc(#loc65)
    %tmp4 = "tt.reduce"(%_tmp4) <{axis = 1 : i32}> ({
    ^bb0(%tmp4_14: f32 loc(callsite(#loc1 at #loc80)), %tmp4_15: f32 loc(callsite(#loc1 at #loc80))):
      %tmp4_16 = arith.addf %tmp4_14, %tmp4_15 : f32 loc(#loc99)
      tt.reduce.return %tmp4_16 : f32 loc(#loc97)
    }) : (tensor<64x64xf32>) -> tensor<64xf32> loc(#loc97)
    %tmp4_13 = tt.expand_dims %tmp4 {axis = 1 : i32} : tensor<64xf32> -> tensor<64x1xf32> loc(#loc81)
    scf.for %r0_offset = %c0_i32 to %c256_i32 step %c64_i32  : i32 {
      %r0_index = tt.splat %r0_offset : i32 -> tensor<1x64xi32> loc(#loc82)
      %r0_index_14 = arith.addi %r0_index, %r0_base : tensor<1x64xi32> loc(#loc82)
      %r0_mask = arith.cmpi slt, %r0_index_14, %cst_5 : tensor<1x64xi32> loc(#loc83)
      %tmp6 = arith.addi %r0_index_14, %cst_4 : tensor<1x64xi32> loc(#loc84)
      %tmp6_15 = arith.muli %x0, %cst_3 : tensor<64x1xi32> loc(#loc85)
      %tmp6_16 = tt.broadcast %tmp6 : tensor<1x64xi32> -> tensor<64x64xi32> loc(#loc86)
      %tmp6_17 = tt.broadcast %tmp6_15 : tensor<64x1xi32> -> tensor<64x64xi32> loc(#loc86)
      %tmp6_18 = arith.addi %tmp6_16, %tmp6_17 : tensor<64x64xi32> loc(#loc86)
      %tmp6_19 = arith.muli %x1, %cst_2 : tensor<64x1xi32> loc(#loc87)
      %tmp6_20 = tt.broadcast %tmp6_19 : tensor<64x1xi32> -> tensor<64x64xi32> loc(#loc88)
      %tmp6_21 = arith.addi %tmp6_18, %tmp6_20 : tensor<64x64xi32> loc(#loc88)
      %tmp6_22 = tt.splat %in_ptr0 : !tt.ptr<bf16> -> tensor<64x64x!tt.ptr<bf16>> loc(#loc89)
      %tmp6_23 = tt.addptr %tmp6_22, %tmp6_21 : tensor<64x64x!tt.ptr<bf16>>, tensor<64x64xi32> loc(#loc89)
      %tmp6_24 = tt.broadcast %r0_mask : tensor<1x64xi1> -> tensor<64x64xi1> loc(#loc90)
      %tmp6_25 = tt.broadcast %xmask_12 : tensor<64x1xi1> -> tensor<64x64xi1> loc(#loc90)
      %tmp6_26 = arith.andi %tmp6_24, %tmp6_25 : tensor<64x64xi1> loc(#loc90)
      %tmp6_27 = tt.load %tmp6_23, %tmp6_26, %cst evictionPolicy = evict_first : tensor<64x64x!tt.ptr<bf16>> loc(#loc91)
      %tmp6_28 = arith.extf %tmp6_27 : tensor<64x64xbf16> to tensor<64x64xf32> loc(#loc92)
      %tmp9 = arith.divf %tmp4_13, %cst_1 : tensor<64x1xf32> loc(#loc93)
      %tmp11 = arith.addf %tmp9, %cst_0 : tensor<64x1xf32> loc(#loc94)
      %tmp12 = tt.extern_elementwise %tmp11 {libname = "", libpath = "", pure = true, symbol = "__nv_rsqrtf"} : (tensor<64x1xf32>) -> tensor<64x1xf32> loc(#loc95)
      %tmp13 = tt.broadcast %tmp12 : tensor<64x1xf32> -> tensor<64x64xf32> loc(#loc96)
      %tmp13_29 = arith.mulf %tmp6_28, %tmp13 : tensor<64x64xf32> loc(#loc96)
      %0 = arith.muli %xindex_11, %cst_3 : tensor<64x1xi32> loc(#loc47)
      %1 = tt.broadcast %r0_index_14 : tensor<1x64xi32> -> tensor<64x64xi32> loc(#loc48)
      %2 = tt.broadcast %0 : tensor<64x1xi32> -> tensor<64x64xi32> loc(#loc48)
      %3 = arith.addi %1, %2 : tensor<64x64xi32> loc(#loc48)
      %4 = tt.splat %out_ptr1 : !tt.ptr<bf16> -> tensor<64x64x!tt.ptr<bf16>> loc(#loc49)
      %5 = tt.addptr %4, %3 : tensor<64x64x!tt.ptr<bf16>>, tensor<64x64xi32> loc(#loc49)
      %6 = arith.truncf %tmp13_29 : tensor<64x64xf32> to tensor<64x64xbf16> loc(#loc50)
      tt.store %5, %6, %tmp6_26 : tensor<64x64x!tt.ptr<bf16>> loc(#loc50)
    } loc(#loc31)
    tt.return loc(#loc51)
  } loc(#loc)
} loc(#loc)
#loc2 = loc("/home/ericbuehler/.cache/vllm/torch_compile_cache/torch_aot_compile/90537ea14f244a5187d6ecc853fbadcf440d710f29c8e182fe8151f3f7751a82/inductor_cache/qj/cqjq2gla2xkyjefgvl2p4a2w6rhoyopuaho6rfw2zuyad34udzn7.py":26:28)
#loc3 = loc("/home/ericbuehler/.cache/vllm/torch_compile_cache/torch_aot_compile/90537ea14f244a5187d6ecc853fbadcf440d710f29c8e182fe8151f3f7751a82/inductor_cache/qj/cqjq2gla2xkyjefgvl2p4a2w6rhoyopuaho6rfw2zuyad34udzn7.py":26:33)
#loc4 = loc("/home/ericbuehler/.cache/vllm/torch_compile_cache/torch_aot_compile/90537ea14f244a5187d6ecc853fbadcf440d710f29c8e182fe8151f3f7751a82/inductor_cache/qj/cqjq2gla2xkyjefgvl2p4a2w6rhoyopuaho6rfw2zuyad34udzn7.py":27:36)
#loc5 = loc("/home/ericbuehler/.cache/vllm/torch_compile_cache/torch_aot_compile/90537ea14f244a5187d6ecc853fbadcf440d710f29c8e182fe8151f3f7751a82/inductor_cache/qj/cqjq2gla2xkyjefgvl2p4a2w6rhoyopuaho6rfw2zuyad34udzn7.py":27:44)
#loc6 = loc("/home/ericbuehler/.cache/vllm/torch_compile_cache/torch_aot_compile/90537ea14f244a5187d6ecc853fbadcf440d710f29c8e182fe8151f3f7751a82/inductor_cache/qj/cqjq2gla2xkyjefgvl2p4a2w6rhoyopuaho6rfw2zuyad34udzn7.py":27:23)
#loc7 = loc("/home/ericbuehler/.cache/vllm/torch_compile_cache/torch_aot_compile/90537ea14f244a5187d6ecc853fbadcf440d710f29c8e182fe8151f3f7751a82/inductor_cache/qj/cqjq2gla2xkyjefgvl2p4a2w6rhoyopuaho6rfw2zuyad34udzn7.py":28:21)
#loc8 = loc("/home/ericbuehler/.cache/vllm/torch_compile_cache/torch_aot_compile/90537ea14f244a5187d6ecc853fbadcf440d710f29c8e182fe8151f3f7751a82/inductor_cache/qj/cqjq2gla2xkyjefgvl2p4a2w6rhoyopuaho6rfw2zuyad34udzn7.py":29:37)
#loc9 = loc("/home/ericbuehler/.cache/vllm/torch_compile_cache/torch_aot_compile/90537ea14f244a5187d6ecc853fbadcf440d710f29c8e182fe8151f3f7751a82/inductor_cache/qj/cqjq2gla2xkyjefgvl2p4a2w6rhoyopuaho6rfw2zuyad34udzn7.py":31:19)
#loc10 = loc("/home/ericbuehler/.cache/vllm/torch_compile_cache/torch_aot_compile/90537ea14f244a5187d6ecc853fbadcf440d710f29c8e182fe8151f3f7751a82/inductor_cache/qj/cqjq2gla2xkyjefgvl2p4a2w6rhoyopuaho6rfw2zuyad34udzn7.py":32:19)
#loc11 = loc("/home/ericbuehler/.cache/vllm/torch_compile_cache/torch_aot_compile/90537ea14f244a5187d6ecc853fbadcf440d710f29c8e182fe8151f3f7751a82/inductor_cache/qj/cqjq2gla2xkyjefgvl2p4a2w6rhoyopuaho6rfw2zuyad34udzn7.py":35:43)
#loc12 = loc("/home/ericbuehler/.cache/vllm/torch_compile_cache/torch_aot_compile/90537ea14f244a5187d6ecc853fbadcf440d710f29c8e182fe8151f3f7751a82/inductor_cache/qj/cqjq2gla2xkyjefgvl2p4a2w6rhoyopuaho6rfw2zuyad34udzn7.py":36:31)
#loc13 = loc("/home/ericbuehler/.cache/vllm/torch_compile_cache/torch_aot_compile/90537ea14f244a5187d6ecc853fbadcf440d710f29c8e182fe8151f3f7751a82/inductor_cache/qj/cqjq2gla2xkyjefgvl2p4a2w6rhoyopuaho6rfw2zuyad34udzn7.py":37:29)
#loc14 = loc("/home/ericbuehler/.cache/vllm/torch_compile_cache/torch_aot_compile/90537ea14f244a5187d6ecc853fbadcf440d710f29c8e182fe8151f3f7751a82/inductor_cache/qj/cqjq2gla2xkyjefgvl2p4a2w6rhoyopuaho6rfw2zuyad34udzn7.py":41:41)
#loc15 = loc("/home/ericbuehler/.cache/vllm/torch_compile_cache/torch_aot_compile/90537ea14f244a5187d6ecc853fbadcf440d710f29c8e182fe8151f3f7751a82/inductor_cache/qj/cqjq2gla2xkyjefgvl2p4a2w6rhoyopuaho6rfw2zuyad34udzn7.py":41:52)
#loc16 = loc("/home/ericbuehler/.cache/vllm/torch_compile_cache/torch_aot_compile/90537ea14f244a5187d6ecc853fbadcf440d710f29c8e182fe8151f3f7751a82/inductor_cache/qj/cqjq2gla2xkyjefgvl2p4a2w6rhoyopuaho6rfw2zuyad34udzn7.py":41:48)
#loc17 = loc("/home/ericbuehler/.cache/vllm/torch_compile_cache/torch_aot_compile/90537ea14f244a5187d6ecc853fbadcf440d710f29c8e182fe8151f3f7751a82/inductor_cache/qj/cqjq2gla2xkyjefgvl2p4a2w6rhoyopuaho6rfw2zuyad34udzn7.py":41:62)
#loc18 = loc("/home/ericbuehler/.cache/vllm/torch_compile_cache/torch_aot_compile/90537ea14f244a5187d6ecc853fbadcf440d710f29c8e182fe8151f3f7751a82/inductor_cache/qj/cqjq2gla2xkyjefgvl2p4a2w6rhoyopuaho6rfw2zuyad34udzn7.py":41:57)
#loc19 = loc("/home/ericbuehler/.cache/vllm/torch_compile_cache/torch_aot_compile/90537ea14f244a5187d6ecc853fbadcf440d710f29c8e182fe8151f3f7751a82/inductor_cache/qj/cqjq2gla2xkyjefgvl2p4a2w6rhoyopuaho6rfw2zuyad34udzn7.py":41:34)
#loc20 = loc("/home/ericbuehler/.cache/vllm/torch_compile_cache/torch_aot_compile/90537ea14f244a5187d6ecc853fbadcf440d710f29c8e182fe8151f3f7751a82/inductor_cache/qj/cqjq2gla2xkyjefgvl2p4a2w6rhoyopuaho6rfw2zuyad34udzn7.py":41:77)
#loc21 = loc("/home/ericbuehler/.cache/vllm/torch_compile_cache/torch_aot_compile/90537ea14f244a5187d6ecc853fbadcf440d710f29c8e182fe8151f3f7751a82/inductor_cache/qj/cqjq2gla2xkyjefgvl2p4a2w6rhoyopuaho6rfw2zuyad34udzn7.py":41:67)
#loc22 = loc("/home/ericbuehler/.cache/vllm/torch_compile_cache/torch_aot_compile/90537ea14f244a5187d6ecc853fbadcf440d710f29c8e182fe8151f3f7751a82/inductor_cache/qj/cqjq2gla2xkyjefgvl2p4a2w6rhoyopuaho6rfw2zuyad34udzn7.py":41:128)
#loc23 = loc("/home/ericbuehler/.cache/vllm/torch_compile_cache/torch_aot_compile/90537ea14f244a5187d6ecc853fbadcf440d710f29c8e182fe8151f3f7751a82/inductor_cache/qj/cqjq2gla2xkyjefgvl2p4a2w6rhoyopuaho6rfw2zuyad34udzn7.py":43:22)
#loc24 = loc("/home/ericbuehler/.cache/vllm/torch_compile_cache/torch_aot_compile/90537ea14f244a5187d6ecc853fbadcf440d710f29c8e182fe8151f3f7751a82/inductor_cache/qj/cqjq2gla2xkyjefgvl2p4a2w6rhoyopuaho6rfw2zuyad34udzn7.py":45:23)
#loc25 = loc("/home/ericbuehler/.cache/vllm/torch_compile_cache/torch_aot_compile/90537ea14f244a5187d6ecc853fbadcf440d710f29c8e182fe8151f3f7751a82/inductor_cache/qj/cqjq2gla2xkyjefgvl2p4a2w6rhoyopuaho6rfw2zuyad34udzn7.py":46:48)
#loc26 = loc("/home/ericbuehler/.cache/vllm/torch_compile_cache/torch_aot_compile/90537ea14f244a5187d6ecc853fbadcf440d710f29c8e182fe8151f3f7751a82/inductor_cache/qj/cqjq2gla2xkyjefgvl2p4a2w6rhoyopuaho6rfw2zuyad34udzn7.py":46:8)
#loc27 = loc("/home/ericbuehler/vllm/.venv-bench/lib/python3.12/site-packages/triton/language/standard.py":293:36)
#loc29 = loc("/home/ericbuehler/vllm/.venv-bench/lib/python3.12/site-packages/triton/language/standard.py":263:15)
#loc30 = loc("/home/ericbuehler/.cache/vllm/torch_compile_cache/torch_aot_compile/90537ea14f244a5187d6ecc853fbadcf440d710f29c8e182fe8151f3f7751a82/inductor_cache/qj/cqjq2gla2xkyjefgvl2p4a2w6rhoyopuaho6rfw2zuyad34udzn7.py":47:28)
#loc31 = loc("/home/ericbuehler/.cache/vllm/torch_compile_cache/torch_aot_compile/90537ea14f244a5187d6ecc853fbadcf440d710f29c8e182fe8151f3f7751a82/inductor_cache/qj/cqjq2gla2xkyjefgvl2p4a2w6rhoyopuaho6rfw2zuyad34udzn7.py":48:43)
#loc32 = loc("/home/ericbuehler/.cache/vllm/torch_compile_cache/torch_aot_compile/90537ea14f244a5187d6ecc853fbadcf440d710f29c8e182fe8151f3f7751a82/inductor_cache/qj/cqjq2gla2xkyjefgvl2p4a2w6rhoyopuaho6rfw2zuyad34udzn7.py":49:31)
#loc33 = loc("/home/ericbuehler/.cache/vllm/torch_compile_cache/torch_aot_compile/90537ea14f244a5187d6ecc853fbadcf440d710f29c8e182fe8151f3f7751a82/inductor_cache/qj/cqjq2gla2xkyjefgvl2p4a2w6rhoyopuaho6rfw2zuyad34udzn7.py":50:29)
#loc34 = loc("/home/ericbuehler/.cache/vllm/torch_compile_cache/torch_aot_compile/90537ea14f244a5187d6ecc853fbadcf440d710f29c8e182fe8151f3f7751a82/inductor_cache/qj/cqjq2gla2xkyjefgvl2p4a2w6rhoyopuaho6rfw2zuyad34udzn7.py":54:41)
#loc35 = loc("/home/ericbuehler/.cache/vllm/torch_compile_cache/torch_aot_compile/90537ea14f244a5187d6ecc853fbadcf440d710f29c8e182fe8151f3f7751a82/inductor_cache/qj/cqjq2gla2xkyjefgvl2p4a2w6rhoyopuaho6rfw2zuyad34udzn7.py":54:52)
#loc36 = loc("/home/ericbuehler/.cache/vllm/torch_compile_cache/torch_aot_compile/90537ea14f244a5187d6ecc853fbadcf440d710f29c8e182fe8151f3f7751a82/inductor_cache/qj/cqjq2gla2xkyjefgvl2p4a2w6rhoyopuaho6rfw2zuyad34udzn7.py":54:48)
#loc37 = loc("/home/ericbuehler/.cache/vllm/torch_compile_cache/torch_aot_compile/90537ea14f244a5187d6ecc853fbadcf440d710f29c8e182fe8151f3f7751a82/inductor_cache/qj/cqjq2gla2xkyjefgvl2p4a2w6rhoyopuaho6rfw2zuyad34udzn7.py":54:62)
#loc38 = loc("/home/ericbuehler/.cache/vllm/torch_compile_cache/torch_aot_compile/90537ea14f244a5187d6ecc853fbadcf440d710f29c8e182fe8151f3f7751a82/inductor_cache/qj/cqjq2gla2xkyjefgvl2p4a2w6rhoyopuaho6rfw2zuyad34udzn7.py":54:57)
#loc39 = loc("/home/ericbuehler/.cache/vllm/torch_compile_cache/torch_aot_compile/90537ea14f244a5187d6ecc853fbadcf440d710f29c8e182fe8151f3f7751a82/inductor_cache/qj/cqjq2gla2xkyjefgvl2p4a2w6rhoyopuaho6rfw2zuyad34udzn7.py":54:34)
#loc40 = loc("/home/ericbuehler/.cache/vllm/torch_compile_cache/torch_aot_compile/90537ea14f244a5187d6ecc853fbadcf440d710f29c8e182fe8151f3f7751a82/inductor_cache/qj/cqjq2gla2xkyjefgvl2p4a2w6rhoyopuaho6rfw2zuyad34udzn7.py":54:77)
#loc41 = loc("/home/ericbuehler/.cache/vllm/torch_compile_cache/torch_aot_compile/90537ea14f244a5187d6ecc853fbadcf440d710f29c8e182fe8151f3f7751a82/inductor_cache/qj/cqjq2gla2xkyjefgvl2p4a2w6rhoyopuaho6rfw2zuyad34udzn7.py":54:67)
#loc42 = loc("/home/ericbuehler/.cache/vllm/torch_compile_cache/torch_aot_compile/90537ea14f244a5187d6ecc853fbadcf440d710f29c8e182fe8151f3f7751a82/inductor_cache/qj/cqjq2gla2xkyjefgvl2p4a2w6rhoyopuaho6rfw2zuyad34udzn7.py":54:129)
#loc43 = loc("/home/ericbuehler/.cache/vllm/torch_compile_cache/torch_aot_compile/90537ea14f244a5187d6ecc853fbadcf440d710f29c8e182fe8151f3f7751a82/inductor_cache/qj/cqjq2gla2xkyjefgvl2p4a2w6rhoyopuaho6rfw2zuyad34udzn7.py":57:23)
#loc44 = loc("/home/ericbuehler/.cache/vllm/torch_compile_cache/torch_aot_compile/90537ea14f244a5187d6ecc853fbadcf440d710f29c8e182fe8151f3f7751a82/inductor_cache/qj/cqjq2gla2xkyjefgvl2p4a2w6rhoyopuaho6rfw2zuyad34udzn7.py":59:23)
#loc45 = loc("/home/ericbuehler/.cache/vllm/torch_compile_cache/torch_aot_compile/90537ea14f244a5187d6ecc853fbadcf440d710f29c8e182fe8151f3f7751a82/inductor_cache/qj/cqjq2gla2xkyjefgvl2p4a2w6rhoyopuaho6rfw2zuyad34udzn7.py":60:32)
#loc46 = loc("/home/ericbuehler/.cache/vllm/torch_compile_cache/torch_aot_compile/90537ea14f244a5187d6ecc853fbadcf440d710f29c8e182fe8151f3f7751a82/inductor_cache/qj/cqjq2gla2xkyjefgvl2p4a2w6rhoyopuaho6rfw2zuyad34udzn7.py":61:23)
#loc47 = loc("/home/ericbuehler/.cache/vllm/torch_compile_cache/torch_aot_compile/90537ea14f244a5187d6ecc853fbadcf440d710f29c8e182fe8151f3f7751a82/inductor_cache/qj/cqjq2gla2xkyjefgvl2p4a2w6rhoyopuaho6rfw2zuyad34udzn7.py":63:40)
#loc48 = loc("/home/ericbuehler/.cache/vllm/torch_compile_cache/torch_aot_compile/90537ea14f244a5187d6ecc853fbadcf440d710f29c8e182fe8151f3f7751a82/inductor_cache/qj/cqjq2gla2xkyjefgvl2p4a2w6rhoyopuaho6rfw2zuyad34udzn7.py":63:36)
#loc49 = loc("/home/ericbuehler/.cache/vllm/torch_compile_cache/torch_aot_compile/90537ea14f244a5187d6ecc853fbadcf440d710f29c8e182fe8151f3f7751a82/inductor_cache/qj/cqjq2gla2xkyjefgvl2p4a2w6rhoyopuaho6rfw2zuyad34udzn7.py":63:29)
#loc50 = loc("/home/ericbuehler/.cache/vllm/torch_compile_cache/torch_aot_compile/90537ea14f244a5187d6ecc853fbadcf440d710f29c8e182fe8151f3f7751a82/inductor_cache/qj/cqjq2gla2xkyjefgvl2p4a2w6rhoyopuaho6rfw2zuyad34udzn7.py":63:52)
#loc51 = loc("/home/ericbuehler/.cache/vllm/torch_compile_cache/torch_aot_compile/90537ea14f244a5187d6ecc853fbadcf440d710f29c8e182fe8151f3f7751a82/inductor_cache/qj/cqjq2gla2xkyjefgvl2p4a2w6rhoyopuaho6rfw2zuyad34udzn7.py":48:4)
#loc56 = loc("xoffset"(#loc2))
#loc57 = loc("xoffset"(#loc3))
#loc58 = loc("xindex"(#loc4))
#loc59 = loc("xindex"(#loc5))
#loc60 = loc("xindex"(#loc6))
#loc61 = loc("xmask"(#loc7))
#loc62 = loc("r0_base"(#loc8))
#loc63 = loc("x0"(#loc9))
#loc64 = loc("x1"(#loc10))
#loc65 = loc("_tmp4"(#loc11))
#loc66 = loc("r0_index"(#loc12))
#loc67 = loc("r0_mask"(#loc13))
#loc68 = loc("tmp0"(#loc14))
#loc69 = loc("tmp0"(#loc15))
#loc70 = loc("tmp0"(#loc16))
#loc71 = loc("tmp0"(#loc17))
#loc72 = loc("tmp0"(#loc18))
#loc73 = loc("tmp0"(#loc19))
#loc74 = loc("tmp0"(#loc20))
#loc75 = loc("tmp0"(#loc21))
#loc76 = loc("tmp0"(#loc22))
#loc77 = loc("tmp2"(#loc23))
#loc78 = loc("tmp5"(#loc24))
#loc79 = loc("_tmp4"(#loc25))
#loc81 = loc("tmp4"(#loc30))
#loc82 = loc("r0_index"(#loc32))
#loc83 = loc("r0_mask"(#loc33))
#loc84 = loc("tmp6"(#loc34))
#loc85 = loc("tmp6"(#loc35))
#loc86 = loc("tmp6"(#loc36))
#loc87 = loc("tmp6"(#loc37))
#loc88 = loc("tmp6"(#loc38))
#loc89 = loc("tmp6"(#loc39))
#loc90 = loc("tmp6"(#loc40))
#loc91 = loc("tmp6"(#loc41))
#loc92 = loc("tmp6"(#loc42))
#loc93 = loc("tmp9"(#loc43))
#loc94 = loc("tmp11"(#loc44))
#loc95 = loc("tmp12"(#loc45))
#loc96 = loc("tmp13"(#loc46))
#loc97 = loc(callsite(#loc27 at #loc80))
#loc99 = loc(callsite(#loc29 at #loc97))
