#loc = loc("/home/ericbuehler/vllm/.venv-bench/lib/python3.12/site-packages/vllm/model_executor/layers/fused_moe/fused_moe.py":295:0)
#loc89 = loc("/home/ericbuehler/vllm/.venv-bench/lib/python3.12/site-packages/triton/language/standard.py":34:0)
#loc94 = loc("/home/ericbuehler/vllm/.venv-bench/lib/python3.12/site-packages/vllm/model_executor/layers/fused_moe/fused_moe.py":41:0)
#loc115 = loc("a_ptr"(#loc))
#loc116 = loc("b_ptr"(#loc))
#loc117 = loc("c_ptr"(#loc))
#loc118 = loc("sorted_token_ids_ptr"(#loc))
#loc119 = loc("expert_ids_ptr"(#loc))
#loc120 = loc("num_tokens_post_padded_ptr"(#loc))
#loc121 = loc("N"(#loc))
#loc122 = loc("K"(#loc))
#loc123 = loc("EM"(#loc))
#loc124 = loc("num_valid_tokens"(#loc))
#loc125 = loc("stride_am"(#loc))
#loc126 = loc("stride_be"(#loc))
#loc127 = loc("stride_bn"(#loc))
#loc128 = loc("stride_cm"(#loc))
#loc129 = loc("stride_asm"(#loc))
#loc130 = loc("stride_ask"(#loc))
#loc131 = loc("stride_bse"(#loc))
#loc132 = loc("stride_bsk"(#loc))
#loc133 = loc("stride_bsn"(#loc))
#loc134 = loc("stride_bbe"(#loc))
#loc135 = loc("stride_bbn"(#loc))
#loc214 = loc("x"(#loc89))
#loc215 = loc("c_ptr"(#loc94))
#loc216 = loc("stride_cm"(#loc94))
#loc217 = loc("pid_n"(#loc94))
#loc218 = loc("N"(#loc94))
#loc219 = loc("offs_token"(#loc94))
#loc220 = loc("token_mask"(#loc94))
module {
  tt.func public @fused_moe_kernel(%a_ptr: !tt.ptr<bf16> {tt.divisibility = 16 : i32} loc("a_ptr"(#loc)), %b_ptr: !tt.ptr<bf16> {tt.divisibility = 16 : i32} loc("b_ptr"(#loc)), %c_ptr: !tt.ptr<bf16> {tt.divisibility = 16 : i32} loc("c_ptr"(#loc)), %sorted_token_ids_ptr: !tt.ptr<i32> {tt.divisibility = 16 : i32} loc("sorted_token_ids_ptr"(#loc)), %expert_ids_ptr: !tt.ptr<i32> {tt.divisibility = 16 : i32} loc("expert_ids_ptr"(#loc)), %num_tokens_post_padded_ptr: !tt.ptr<i32> {tt.divisibility = 16 : i32} loc("num_tokens_post_padded_ptr"(#loc)), %N: i32 {tt.divisibility = 16 : i32} loc("N"(#loc)), %K: i32 {tt.divisibility = 16 : i32} loc("K"(#loc)), %EM: i32 {tt.divisibility = 16 : i32} loc("EM"(#loc)), %num_valid_tokens: i32 {tt.divisibility = 16 : i32} loc("num_valid_tokens"(#loc)), %stride_am: i32 {tt.divisibility = 16 : i32} loc("stride_am"(#loc)), %stride_be: i32 {tt.divisibility = 16 : i32} loc("stride_be"(#loc)), %stride_bn: i32 {tt.divisibility = 16 : i32} loc("stride_bn"(#loc)), %stride_cm: i32 {tt.divisibility = 16 : i32} loc("stride_cm"(#loc)), %stride_asm: i32 {tt.divisibility = 16 : i32} loc("stride_asm"(#loc)), %stride_ask: i32 {tt.divisibility = 16 : i32} loc("stride_ask"(#loc)), %stride_bse: i32 {tt.divisibility = 16 : i32} loc("stride_bse"(#loc)), %stride_bsk: i32 {tt.divisibility = 16 : i32} loc("stride_bsk"(#loc)), %stride_bsn: i32 {tt.divisibility = 16 : i32} loc("stride_bsn"(#loc)), %stride_bbe: i32 {tt.divisibility = 16 : i32} loc("stride_bbe"(#loc)), %stride_bbn: i32 {tt.divisibility = 16 : i32} loc("stride_bbn"(#loc))) attributes {noinline = false} {
    %pid = tt.get_program_id x : i32 loc(#loc136)
    %num_pid_m = tt.call @"triton.language.standard.cdiv__i32__(1,)cconstexpr_128_"(%EM) : (i32) -> i32 loc(#loc137)
    %num_pid_n = tt.call @"triton.language.standard.cdiv__i32__(1,)cconstexpr_128_"(%N) : (i32) -> i32 loc(#loc138)
    %num_pid_in_group = arith.constant 1 : i32 loc(#loc139)
    %num_pid_in_group_0 = arith.constant 1 : i32 loc(#loc139)
    %num_pid_in_group_1 = arith.extsi %num_pid_in_group_0 : i32 to i64 loc(#loc139)
    %num_pid_in_group_2 = arith.extsi %num_pid_n : i32 to i64 loc(#loc139)
    %num_pid_in_group_3 = arith.muli %num_pid_in_group_1, %num_pid_in_group_2 : i64 loc(#loc139)
    %num_pid_in_group_4 = arith.constant 2147483647 : i64 loc(#loc139)
    %num_pid_in_group_5 = arith.constant -2147483648 : i64 loc(#loc139)
    %num_pid_in_group_6 = arith.cmpi sle, %num_pid_in_group_3, %num_pid_in_group_4 : i64 loc(#loc139)
    %num_pid_in_group_7 = arith.cmpi sge, %num_pid_in_group_3, %num_pid_in_group_5 : i64 loc(#loc139)
    %num_pid_in_group_8 = arith.andi %num_pid_in_group_6, %num_pid_in_group_7 : i1 loc(#loc139)
    %num_pid_in_group_9 = arith.muli %num_pid_in_group_0, %num_pid_n : i32 loc(#loc139)
    %group_id = arith.divsi %pid, %num_pid_in_group_9 : i32 loc(#loc140)
    %first_pid_m = arith.constant 1 : i32 loc(#loc141)
    %first_pid_m_10 = arith.constant 1 : i32 loc(#loc141)
    %first_pid_m_11 = arith.extsi %group_id : i32 to i64 loc(#loc141)
    %first_pid_m_12 = arith.extsi %first_pid_m_10 : i32 to i64 loc(#loc141)
    %first_pid_m_13 = arith.muli %first_pid_m_11, %first_pid_m_12 : i64 loc(#loc141)
    %first_pid_m_14 = arith.constant 2147483647 : i64 loc(#loc141)
    %first_pid_m_15 = arith.constant -2147483648 : i64 loc(#loc141)
    %first_pid_m_16 = arith.cmpi sle, %first_pid_m_13, %first_pid_m_14 : i64 loc(#loc141)
    %first_pid_m_17 = arith.cmpi sge, %first_pid_m_13, %first_pid_m_15 : i64 loc(#loc141)
    %first_pid_m_18 = arith.andi %first_pid_m_16, %first_pid_m_17 : i1 loc(#loc141)
    %first_pid_m_19 = arith.muli %group_id, %first_pid_m_10 : i32 loc(#loc141)
    %group_size_m = arith.extsi %num_pid_m : i32 to i64 loc(#loc142)
    %group_size_m_20 = arith.extsi %first_pid_m_19 : i32 to i64 loc(#loc142)
    %group_size_m_21 = arith.subi %group_size_m, %group_size_m_20 : i64 loc(#loc142)
    %group_size_m_22 = arith.constant 2147483647 : i64 loc(#loc142)
    %group_size_m_23 = arith.constant -2147483648 : i64 loc(#loc142)
    %group_size_m_24 = arith.cmpi sle, %group_size_m_21, %group_size_m_22 : i64 loc(#loc142)
    %group_size_m_25 = arith.cmpi sge, %group_size_m_21, %group_size_m_23 : i64 loc(#loc142)
    %group_size_m_26 = arith.andi %group_size_m_24, %group_size_m_25 : i1 loc(#loc142)
    %group_size_m_27 = arith.subi %num_pid_m, %first_pid_m_19 : i32 loc(#loc142)
    %group_size_m_28 = arith.constant 1 : i32 loc(#loc143)
    %group_size_m_29 = arith.minsi %group_size_m_27, %group_size_m_28 : i32 loc(#loc143)
    %pid_m = arith.remsi %pid, %num_pid_in_group_9 : i32 loc(#loc144)
    %pid_m_30 = arith.remsi %pid_m, %group_size_m_29 : i32 loc(#loc145)
    %pid_m_31 = arith.extsi %first_pid_m_19 : i32 to i64 loc(#loc146)
    %pid_m_32 = arith.extsi %pid_m_30 : i32 to i64 loc(#loc146)
    %pid_m_33 = arith.addi %pid_m_31, %pid_m_32 : i64 loc(#loc146)
    %pid_m_34 = arith.constant 2147483647 : i64 loc(#loc146)
    %pid_m_35 = arith.constant -2147483648 : i64 loc(#loc146)
    %pid_m_36 = arith.cmpi sle, %pid_m_33, %pid_m_34 : i64 loc(#loc146)
    %pid_m_37 = arith.cmpi sge, %pid_m_33, %pid_m_35 : i64 loc(#loc146)
    %pid_m_38 = arith.andi %pid_m_36, %pid_m_37 : i1 loc(#loc146)
    %pid_m_39 = arith.addi %first_pid_m_19, %pid_m_30 : i32 loc(#loc146)
    %pid_n = arith.remsi %pid, %num_pid_in_group_9 : i32 loc(#loc147)
    %pid_n_40 = arith.divsi %pid_n, %group_size_m_29 : i32 loc(#loc148)
    %offs = tt.make_range {end = 128 : i32, start = 0 : i32} : tensor<128xi32> loc(#loc149)
    %offs_41 = arith.extsi %offs : tensor<128xi32> to tensor<128xi64> loc(#loc150)
    %num_tokens_post_padded = tt.load %num_tokens_post_padded_ptr : !tt.ptr<i32> loc(#loc151)
    %c128_i32 = arith.constant 128 : i32 loc(#loc17)
    %c128_i32_42 = arith.constant 128 : i32 loc(#loc17)
    %0 = arith.extsi %pid_m_39 : i32 to i64 loc(#loc17)
    %1 = arith.extsi %c128_i32_42 : i32 to i64 loc(#loc17)
    %2 = arith.muli %0, %1 : i64 loc(#loc17)
    %c2147483647_i64 = arith.constant 2147483647 : i64 loc(#loc17)
    %c-2147483648_i64 = arith.constant -2147483648 : i64 loc(#loc17)
    %3 = arith.cmpi sle, %2, %c2147483647_i64 : i64 loc(#loc17)
    %4 = arith.cmpi sge, %2, %c-2147483648_i64 : i64 loc(#loc17)
    %5 = arith.andi %3, %4 : i1 loc(#loc17)
    %6 = arith.muli %pid_m_39, %c128_i32_42 : i32 loc(#loc17)
    %7 = arith.cmpi sge, %6, %num_tokens_post_padded : i32 loc(#loc18)
    cf.cond_br %7, ^bb1, ^bb2 loc(#loc18)
  ^bb1:  // pred: ^bb0
    tt.return loc(#loc19)
  ^bb2:  // pred: ^bb0
    cf.br ^bb4 loc(#loc)
  ^bb3:  // no predecessors
    cf.br ^bb4 loc(#loc)
  ^bb4:  // 2 preds: ^bb2, ^bb3
    %offs_token_id = arith.constant 128 : i32 loc(#loc152)
    %offs_token_id_43 = arith.constant 128 : i32 loc(#loc152)
    %offs_token_id_44 = arith.extsi %pid_m_39 : i32 to i64 loc(#loc152)
    %offs_token_id_45 = arith.extsi %offs_token_id_43 : i32 to i64 loc(#loc152)
    %offs_token_id_46 = arith.muli %offs_token_id_44, %offs_token_id_45 : i64 loc(#loc152)
    %offs_token_id_47 = arith.constant 2147483647 : i64 loc(#loc152)
    %offs_token_id_48 = arith.constant -2147483648 : i64 loc(#loc152)
    %offs_token_id_49 = arith.cmpi sle, %offs_token_id_46, %offs_token_id_47 : i64 loc(#loc152)
    %offs_token_id_50 = arith.cmpi sge, %offs_token_id_46, %offs_token_id_48 : i64 loc(#loc152)
    %offs_token_id_51 = arith.andi %offs_token_id_49, %offs_token_id_50 : i1 loc(#loc152)
    %offs_token_id_52 = arith.muli %pid_m_39, %offs_token_id_43 : i32 loc(#loc152)
    %offs_token_id_53 = arith.extsi %offs_token_id_52 : i32 to i64 loc(#loc153)
    %offs_token_id_54 = tt.splat %offs_token_id_53 : i64 -> tensor<128xi64> loc(#loc153)
    %offs_token_id_55 = arith.addi %offs_token_id_54, %offs_41 : tensor<128xi64> loc(#loc153)
    %offs_token = tt.splat %sorted_token_ids_ptr : !tt.ptr<i32> -> tensor<128x!tt.ptr<i32>> loc(#loc154)
    %offs_token_56 = tt.addptr %offs_token, %offs_token_id_55 : tensor<128x!tt.ptr<i32>>, tensor<128xi64> loc(#loc154)
    %offs_token_57 = tt.load %offs_token_56 : tensor<128x!tt.ptr<i32>> loc(#loc155)
    %offs_token_58 = arith.extsi %offs_token_57 : tensor<128xi32> to tensor<128xi64> loc(#loc156)
    %token_mask = arith.extsi %num_valid_tokens : i32 to i64 loc(#loc157)
    %token_mask_59 = tt.splat %token_mask : i64 -> tensor<128xi64> loc(#loc157)
    %token_mask_60 = arith.cmpi slt, %offs_token_58, %token_mask_59 : tensor<128xi64> loc(#loc157)
    %off_experts = tt.addptr %expert_ids_ptr, %pid_m_39 : !tt.ptr<i32>, i32 loc(#loc158)
    %off_experts_61 = tt.load %off_experts : !tt.ptr<i32> loc(#loc159)
    %off_experts_62 = arith.extsi %off_experts_61 : i32 to i64 loc(#loc160)
    %c-1_i32 = arith.constant -1 : i32 loc(#loc29)
    %8 = arith.extsi %c-1_i32 : i32 to i64 loc(#loc29)
    %9 = arith.cmpi eq, %off_experts_62, %8 : i64 loc(#loc29)
    cf.cond_br %9, ^bb5, ^bb6 loc(#loc29)
  ^bb5:  // pred: ^bb4
    tt.call @"vllm.model_executor.layers.fused_moe.fused_moe.write_zeros_to_output__Pbf16_i32_i32_i32_i64S128S_u1S128S__(2,)cconstexpr_1__(7,)cconstexpr_128__(8,)cconstexpr_128__(9,)cconstexpr_bf16_"(%c_ptr, %stride_cm, %pid_n_40, %N, %offs_token_58, %token_mask_60) : (!tt.ptr<bf16>, i32, i32, i32, tensor<128xi64>, tensor<128xi1>) -> () loc(#loc30)
    tt.return loc(#loc31)
  ^bb6:  // pred: ^bb4
    cf.br ^bb8 loc(#loc)
  ^bb7:  // no predecessors
    cf.br ^bb8 loc(#loc)
  ^bb8:  // 2 preds: ^bb6, ^bb7
    %offs_bn = arith.constant 128 : i32 loc(#loc161)
    %offs_bn_63 = arith.constant 128 : i32 loc(#loc161)
    %offs_bn_64 = arith.extsi %pid_n_40 : i32 to i64 loc(#loc161)
    %offs_bn_65 = arith.extsi %offs_bn_63 : i32 to i64 loc(#loc161)
    %offs_bn_66 = arith.muli %offs_bn_64, %offs_bn_65 : i64 loc(#loc161)
    %offs_bn_67 = arith.constant 2147483647 : i64 loc(#loc161)
    %offs_bn_68 = arith.constant -2147483648 : i64 loc(#loc161)
    %offs_bn_69 = arith.cmpi sle, %offs_bn_66, %offs_bn_67 : i64 loc(#loc161)
    %offs_bn_70 = arith.cmpi sge, %offs_bn_66, %offs_bn_68 : i64 loc(#loc161)
    %offs_bn_71 = arith.andi %offs_bn_69, %offs_bn_70 : i1 loc(#loc161)
    %offs_bn_72 = arith.muli %pid_n_40, %offs_bn_63 : i32 loc(#loc161)
    %offs_bn_73 = tt.make_range {end = 128 : i32, start = 0 : i32} : tensor<128xi32> loc(#loc162)
    %offs_bn_74 = arith.extsi %offs_bn_73 : tensor<128xi32> to tensor<128xi64> loc(#loc163)
    %offs_bn_75 = arith.extsi %offs_bn_72 : i32 to i64 loc(#loc164)
    %offs_bn_76 = tt.splat %offs_bn_75 : i64 -> tensor<128xi64> loc(#loc164)
    %offs_bn_77 = arith.addi %offs_bn_76, %offs_bn_74 : tensor<128xi64> loc(#loc164)
    %offs_bn_78 = arith.extsi %N : i32 to i64 loc(#loc165)
    %offs_bn_79 = tt.splat %offs_bn_78 : i64 -> tensor<128xi64> loc(#loc165)
    %offs_bn_80 = arith.remsi %offs_bn_77, %offs_bn_79 : tensor<128xi64> loc(#loc165)
    %offs_k = tt.make_range {end = 64 : i32, start = 0 : i32} : tensor<64xi32> loc(#loc166)
    %a_ptrs = tt.expand_dims %offs_token_58 {axis = 1 : i32} : tensor<128xi64> -> tensor<128x1xi64> loc(#loc167)
    %a_ptrs_81 = arith.constant 8 : i32 loc(#loc168)
    %a_ptrs_82 = arith.constant 8 : i64 loc(#loc168)
    %a_ptrs_83 = arith.constant dense<8> : tensor<128x1xi64> loc(#loc168)
    %a_ptrs_84 = arith.divsi %a_ptrs, %a_ptrs_83 : tensor<128x1xi64> loc(#loc168)
    %a_ptrs_85 = arith.extsi %stride_am : i32 to i64 loc(#loc169)
    %a_ptrs_86 = tt.splat %a_ptrs_85 : i64 -> tensor<128x1xi64> loc(#loc169)
    %a_ptrs_87 = arith.muli %a_ptrs_84, %a_ptrs_86 : tensor<128x1xi64> loc(#loc169)
    %a_ptrs_88 = tt.expand_dims %offs_k {axis = 0 : i32} : tensor<64xi32> -> tensor<1x64xi32> loc(#loc170)
    %a_ptrs_89 = arith.constant 1 : i32 loc(#loc171)
    %a_ptrs_90 = arith.constant 1 : i32 loc(#loc171)
    %a_ptrs_91 = arith.constant dense<1> : tensor<1x64xi32> loc(#loc171)
    %a_ptrs_92 = arith.extsi %a_ptrs_88 : tensor<1x64xi32> to tensor<1x64xi64> loc(#loc171)
    %a_ptrs_93 = arith.extsi %a_ptrs_91 : tensor<1x64xi32> to tensor<1x64xi64> loc(#loc171)
    %a_ptrs_94 = arith.muli %a_ptrs_92, %a_ptrs_93 : tensor<1x64xi64> loc(#loc171)
    %a_ptrs_95 = arith.constant 2147483647 : i64 loc(#loc171)
    %a_ptrs_96 = arith.constant -2147483648 : i64 loc(#loc171)
    %a_ptrs_97 = arith.constant dense<2147483647> : tensor<1x64xi64> loc(#loc171)
    %a_ptrs_98 = arith.cmpi sle, %a_ptrs_94, %a_ptrs_97 : tensor<1x64xi64> loc(#loc171)
    %a_ptrs_99 = arith.constant dense<-2147483648> : tensor<1x64xi64> loc(#loc171)
    %a_ptrs_100 = arith.cmpi sge, %a_ptrs_94, %a_ptrs_99 : tensor<1x64xi64> loc(#loc171)
    %a_ptrs_101 = arith.andi %a_ptrs_98, %a_ptrs_100 : tensor<1x64xi1> loc(#loc171)
    %a_ptrs_102 = arith.muli %a_ptrs_88, %a_ptrs_91 : tensor<1x64xi32> loc(#loc171)
    %a_ptrs_103 = arith.extsi %a_ptrs_102 : tensor<1x64xi32> to tensor<1x64xi64> loc(#loc172)
    %a_ptrs_104 = tt.broadcast %a_ptrs_87 : tensor<128x1xi64> -> tensor<128x64xi64> loc(#loc172)
    %a_ptrs_105 = tt.broadcast %a_ptrs_103 : tensor<1x64xi64> -> tensor<128x64xi64> loc(#loc172)
    %a_ptrs_106 = arith.addi %a_ptrs_104, %a_ptrs_105 : tensor<128x64xi64> loc(#loc172)
    %a_ptrs_107 = tt.splat %a_ptr : !tt.ptr<bf16> -> tensor<128x64x!tt.ptr<bf16>> loc(#loc173)
    %a_ptrs_108 = tt.addptr %a_ptrs_107, %a_ptrs_106 : tensor<128x64x!tt.ptr<bf16>>, tensor<128x64xi64> loc(#loc173)
    %b_ptrs = arith.extsi %stride_be : i32 to i64 loc(#loc174)
    %b_ptrs_109 = arith.muli %off_experts_62, %b_ptrs : i64 loc(#loc174)
    %b_ptrs_110 = tt.addptr %b_ptr, %b_ptrs_109 : !tt.ptr<bf16>, i64 loc(#loc175)
    %b_ptrs_111 = tt.expand_dims %offs_k {axis = 1 : i32} : tensor<64xi32> -> tensor<64x1xi32> loc(#loc176)
    %b_ptrs_112 = arith.constant 1 : i32 loc(#loc177)
    %b_ptrs_113 = arith.constant 1 : i32 loc(#loc177)
    %b_ptrs_114 = arith.constant dense<1> : tensor<64x1xi32> loc(#loc177)
    %b_ptrs_115 = arith.extsi %b_ptrs_111 : tensor<64x1xi32> to tensor<64x1xi64> loc(#loc177)
    %b_ptrs_116 = arith.extsi %b_ptrs_114 : tensor<64x1xi32> to tensor<64x1xi64> loc(#loc177)
    %b_ptrs_117 = arith.muli %b_ptrs_115, %b_ptrs_116 : tensor<64x1xi64> loc(#loc177)
    %b_ptrs_118 = arith.constant 2147483647 : i64 loc(#loc177)
    %b_ptrs_119 = arith.constant -2147483648 : i64 loc(#loc177)
    %b_ptrs_120 = arith.constant dense<2147483647> : tensor<64x1xi64> loc(#loc177)
    %b_ptrs_121 = arith.cmpi sle, %b_ptrs_117, %b_ptrs_120 : tensor<64x1xi64> loc(#loc177)
    %b_ptrs_122 = arith.constant dense<-2147483648> : tensor<64x1xi64> loc(#loc177)
    %b_ptrs_123 = arith.cmpi sge, %b_ptrs_117, %b_ptrs_122 : tensor<64x1xi64> loc(#loc177)
    %b_ptrs_124 = arith.andi %b_ptrs_121, %b_ptrs_123 : tensor<64x1xi1> loc(#loc177)
    %b_ptrs_125 = arith.muli %b_ptrs_111, %b_ptrs_114 : tensor<64x1xi32> loc(#loc177)
    %b_ptrs_126 = tt.expand_dims %offs_bn_80 {axis = 0 : i32} : tensor<128xi64> -> tensor<1x128xi64> loc(#loc178)
    %b_ptrs_127 = arith.extsi %stride_bn : i32 to i64 loc(#loc179)
    %b_ptrs_128 = tt.splat %b_ptrs_127 : i64 -> tensor<1x128xi64> loc(#loc179)
    %b_ptrs_129 = arith.muli %b_ptrs_126, %b_ptrs_128 : tensor<1x128xi64> loc(#loc179)
    %b_ptrs_130 = arith.extsi %b_ptrs_125 : tensor<64x1xi32> to tensor<64x1xi64> loc(#loc180)
    %b_ptrs_131 = tt.broadcast %b_ptrs_130 : tensor<64x1xi64> -> tensor<64x128xi64> loc(#loc180)
    %b_ptrs_132 = tt.broadcast %b_ptrs_129 : tensor<1x128xi64> -> tensor<64x128xi64> loc(#loc180)
    %b_ptrs_133 = arith.addi %b_ptrs_131, %b_ptrs_132 : tensor<64x128xi64> loc(#loc180)
    %b_ptrs_134 = tt.splat %b_ptrs_110 : !tt.ptr<bf16> -> tensor<64x128x!tt.ptr<bf16>> loc(#loc181)
    %b_ptrs_135 = tt.addptr %b_ptrs_134, %b_ptrs_133 : tensor<64x128x!tt.ptr<bf16>>, tensor<64x128xi64> loc(#loc181)
    %accumulator = tt.call @"triton.language.standard.zeros____(0, 0)cconstexpr_128__(0, 1)cconstexpr_128__(1,)cconstexpr_fp32_"() : () -> tensor<128x128xf32> loc(#loc182)
    %10 = tt.call @"triton.language.standard.cdiv__i32__(1,)cconstexpr_64_"(%K) : (i32) -> i32 loc(#loc54)
    %c0_i32 = arith.constant 0 : i32 loc(#loc55)
    %c1_i32 = arith.constant 1 : i32 loc(#loc55)
    %11 = arith.bitcast %c0_i32 : i32 to i32 loc(#loc55)
    %12 = arith.bitcast %10 : i32 to i32 loc(#loc55)
    %13 = arith.bitcast %c1_i32 : i32 to i32 loc(#loc55)
    %14 = ub.poison : i32 loc(#loc55)
    %accumulator_136:3 = scf.for %k = %11 to %12 step %13 iter_args(%a_ptrs_190 = %a_ptrs_108, %b_ptrs_191 = %b_ptrs_135, %accumulator_192 = %accumulator) -> (tensor<128x64x!tt.ptr<bf16>>, tensor<64x128x!tt.ptr<bf16>>, tensor<128x128xf32>)  : i32 {
      %a = tt.expand_dims %token_mask_60 {axis = 1 : i32} : tensor<128xi1> -> tensor<128x1xi1> loc(#loc184)
      %a_193 = tt.expand_dims %offs_k {axis = 0 : i32} : tensor<64xi32> -> tensor<1x64xi32> loc(#loc185)
      %a_194 = arith.constant 64 : i32 loc(#loc186)
      %a_195 = arith.constant 64 : i32 loc(#loc186)
      %a_196 = arith.extsi %k : i32 to i64 loc(#loc186)
      %a_197 = arith.extsi %a_195 : i32 to i64 loc(#loc186)
      %a_198 = arith.muli %a_196, %a_197 : i64 loc(#loc186)
      %a_199 = arith.constant 2147483647 : i64 loc(#loc186)
      %a_200 = arith.constant -2147483648 : i64 loc(#loc186)
      %a_201 = arith.cmpi sle, %a_198, %a_199 : i64 loc(#loc186)
      %a_202 = arith.cmpi sge, %a_198, %a_200 : i64 loc(#loc186)
      %a_203 = arith.andi %a_201, %a_202 : i1 loc(#loc186)
      %a_204 = arith.muli %k, %a_195 : i32 loc(#loc186)
      %a_205 = arith.extsi %K : i32 to i64 loc(#loc187)
      %a_206 = arith.extsi %a_204 : i32 to i64 loc(#loc187)
      %a_207 = arith.subi %a_205, %a_206 : i64 loc(#loc187)
      %a_208 = arith.constant 2147483647 : i64 loc(#loc187)
      %a_209 = arith.constant -2147483648 : i64 loc(#loc187)
      %a_210 = arith.cmpi sle, %a_207, %a_208 : i64 loc(#loc187)
      %a_211 = arith.cmpi sge, %a_207, %a_209 : i64 loc(#loc187)
      %a_212 = arith.andi %a_210, %a_211 : i1 loc(#loc187)
      %a_213 = arith.subi %K, %a_204 : i32 loc(#loc187)
      %a_214 = tt.splat %a_213 : i32 -> tensor<1x64xi32> loc(#loc188)
      %a_215 = arith.cmpi slt, %a_193, %a_214 : tensor<1x64xi32> loc(#loc188)
      %a_216 = tt.broadcast %a : tensor<128x1xi1> -> tensor<128x64xi1> loc(#loc189)
      %a_217 = tt.broadcast %a_215 : tensor<1x64xi1> -> tensor<128x64xi1> loc(#loc189)
      %a_218 = arith.andi %a_216, %a_217 : tensor<128x64xi1> loc(#loc189)
      %a_219 = arith.constant 0.000000e+00 : f32 loc(#loc190)
      %a_220 = arith.constant dense<0.000000e+00> : tensor<128x64xf32> loc(#loc190)
      %a_221 = arith.truncf %a_220 : tensor<128x64xf32> to tensor<128x64xbf16> loc(#loc190)
      %a_222 = tt.load %a_ptrs_190, %a_218, %a_221 : tensor<128x64x!tt.ptr<bf16>> loc(#loc190)
      %b = tt.expand_dims %offs_k {axis = 1 : i32} : tensor<64xi32> -> tensor<64x1xi32> loc(#loc191)
      %b_223 = arith.constant 64 : i32 loc(#loc192)
      %b_224 = arith.constant 64 : i32 loc(#loc192)
      %b_225 = arith.extsi %k : i32 to i64 loc(#loc192)
      %b_226 = arith.extsi %b_224 : i32 to i64 loc(#loc192)
      %b_227 = arith.muli %b_225, %b_226 : i64 loc(#loc192)
      %b_228 = arith.constant 2147483647 : i64 loc(#loc192)
      %b_229 = arith.constant -2147483648 : i64 loc(#loc192)
      %b_230 = arith.cmpi sle, %b_227, %b_228 : i64 loc(#loc192)
      %b_231 = arith.cmpi sge, %b_227, %b_229 : i64 loc(#loc192)
      %b_232 = arith.andi %b_230, %b_231 : i1 loc(#loc192)
      %b_233 = arith.muli %k, %b_224 : i32 loc(#loc192)
      %b_234 = arith.extsi %K : i32 to i64 loc(#loc193)
      %b_235 = arith.extsi %b_233 : i32 to i64 loc(#loc193)
      %b_236 = arith.subi %b_234, %b_235 : i64 loc(#loc193)
      %b_237 = arith.constant 2147483647 : i64 loc(#loc193)
      %b_238 = arith.constant -2147483648 : i64 loc(#loc193)
      %b_239 = arith.cmpi sle, %b_236, %b_237 : i64 loc(#loc193)
      %b_240 = arith.cmpi sge, %b_236, %b_238 : i64 loc(#loc193)
      %b_241 = arith.andi %b_239, %b_240 : i1 loc(#loc193)
      %b_242 = arith.subi %K, %b_233 : i32 loc(#loc193)
      %b_243 = tt.splat %b_242 : i32 -> tensor<64x1xi32> loc(#loc194)
      %b_244 = arith.cmpi slt, %b, %b_243 : tensor<64x1xi32> loc(#loc194)
      %b_245 = arith.constant 0.000000e+00 : f32 loc(#loc195)
      %b_246 = tt.broadcast %b_244 : tensor<64x1xi1> -> tensor<64x128xi1> loc(#loc195)
      %b_247 = arith.constant dense<0.000000e+00> : tensor<64x128xf32> loc(#loc195)
      %b_248 = arith.truncf %b_247 : tensor<64x128xf32> to tensor<64x128xbf16> loc(#loc195)
      %b_249 = tt.load %b_ptrs_191, %b_246, %b_248 : tensor<64x128x!tt.ptr<bf16>> loc(#loc195)
      %accumulator_250 = arith.constant 0.000000e+00 : f32 loc(#loc196)
      %accumulator_251 = arith.constant dense<0.000000e+00> : tensor<128x128xf32> loc(#loc196)
      %accumulator_252 = tt.dot %a_222, %b_249, %accumulator_251, inputPrecision = tf32 : tensor<128x64xbf16> * tensor<64x128xbf16> -> tensor<128x128xf32> loc(#loc196)
      %accumulator_253 = arith.addf %accumulator_192, %accumulator_252 : tensor<128x128xf32> loc(#loc197)
      %a_ptrs_254 = arith.constant 64 : i32 loc(#loc198)
      %a_ptrs_255 = arith.constant dense<64> : tensor<128x64xi32> loc(#loc198)
      %a_ptrs_256 = tt.addptr %a_ptrs_190, %a_ptrs_255 : tensor<128x64x!tt.ptr<bf16>>, tensor<128x64xi32> loc(#loc198)
      %b_ptrs_257 = arith.constant 64 : i32 loc(#loc199)
      %b_ptrs_258 = arith.constant dense<64> : tensor<64x128xi32> loc(#loc199)
      %b_ptrs_259 = tt.addptr %b_ptrs_191, %b_ptrs_258 : tensor<64x128x!tt.ptr<bf16>>, tensor<64x128xi32> loc(#loc199)
      scf.yield %a_ptrs_256, %b_ptrs_259, %accumulator_253 : tensor<128x64x!tt.ptr<bf16>>, tensor<64x128x!tt.ptr<bf16>>, tensor<128x128xf32> loc(#loc72)
    } loc(#loc236)
    %accumulator_137 = arith.truncf %accumulator_136#2 : tensor<128x128xf32> to tensor<128x128xbf16> loc(#loc200)
    %offs_cn = arith.constant 128 : i32 loc(#loc201)
    %offs_cn_138 = arith.constant 128 : i32 loc(#loc201)
    %offs_cn_139 = arith.extsi %pid_n_40 : i32 to i64 loc(#loc201)
    %offs_cn_140 = arith.extsi %offs_cn_138 : i32 to i64 loc(#loc201)
    %offs_cn_141 = arith.muli %offs_cn_139, %offs_cn_140 : i64 loc(#loc201)
    %offs_cn_142 = arith.constant 2147483647 : i64 loc(#loc201)
    %offs_cn_143 = arith.constant -2147483648 : i64 loc(#loc201)
    %offs_cn_144 = arith.cmpi sle, %offs_cn_141, %offs_cn_142 : i64 loc(#loc201)
    %offs_cn_145 = arith.cmpi sge, %offs_cn_141, %offs_cn_143 : i64 loc(#loc201)
    %offs_cn_146 = arith.andi %offs_cn_144, %offs_cn_145 : i1 loc(#loc201)
    %offs_cn_147 = arith.muli %pid_n_40, %offs_cn_138 : i32 loc(#loc201)
    %offs_cn_148 = tt.make_range {end = 128 : i32, start = 0 : i32} : tensor<128xi32> loc(#loc202)
    %offs_cn_149 = tt.splat %offs_cn_147 : i32 -> tensor<128xi32> loc(#loc203)
    %offs_cn_150 = arith.extsi %offs_cn_149 : tensor<128xi32> to tensor<128xi64> loc(#loc203)
    %offs_cn_151 = arith.extsi %offs_cn_148 : tensor<128xi32> to tensor<128xi64> loc(#loc203)
    %offs_cn_152 = arith.addi %offs_cn_150, %offs_cn_151 : tensor<128xi64> loc(#loc203)
    %offs_cn_153 = arith.constant 2147483647 : i64 loc(#loc203)
    %offs_cn_154 = arith.constant -2147483648 : i64 loc(#loc203)
    %offs_cn_155 = arith.constant dense<2147483647> : tensor<128xi64> loc(#loc203)
    %offs_cn_156 = arith.cmpi sle, %offs_cn_152, %offs_cn_155 : tensor<128xi64> loc(#loc203)
    %offs_cn_157 = arith.constant dense<-2147483648> : tensor<128xi64> loc(#loc203)
    %offs_cn_158 = arith.cmpi sge, %offs_cn_152, %offs_cn_157 : tensor<128xi64> loc(#loc203)
    %offs_cn_159 = arith.andi %offs_cn_156, %offs_cn_158 : tensor<128xi1> loc(#loc203)
    %offs_cn_160 = arith.addi %offs_cn_149, %offs_cn_148 : tensor<128xi32> loc(#loc203)
    %c_ptrs = tt.expand_dims %offs_token_58 {axis = 1 : i32} : tensor<128xi64> -> tensor<128x1xi64> loc(#loc204)
    %c_ptrs_161 = arith.extsi %stride_cm : i32 to i64 loc(#loc205)
    %c_ptrs_162 = tt.splat %c_ptrs_161 : i64 -> tensor<128x1xi64> loc(#loc205)
    %c_ptrs_163 = arith.muli %c_ptrs_162, %c_ptrs : tensor<128x1xi64> loc(#loc205)
    %c_ptrs_164 = tt.splat %c_ptr : !tt.ptr<bf16> -> tensor<128x1x!tt.ptr<bf16>> loc(#loc206)
    %c_ptrs_165 = tt.addptr %c_ptrs_164, %c_ptrs_163 : tensor<128x1x!tt.ptr<bf16>>, tensor<128x1xi64> loc(#loc206)
    %c_ptrs_166 = tt.expand_dims %offs_cn_160 {axis = 0 : i32} : tensor<128xi32> -> tensor<1x128xi32> loc(#loc207)
    %c_ptrs_167 = arith.constant 1 : i32 loc(#loc208)
    %c_ptrs_168 = arith.constant 1 : i32 loc(#loc208)
    %c_ptrs_169 = arith.constant dense<1> : tensor<1x128xi32> loc(#loc208)
    %c_ptrs_170 = arith.extsi %c_ptrs_169 : tensor<1x128xi32> to tensor<1x128xi64> loc(#loc208)
    %c_ptrs_171 = arith.extsi %c_ptrs_166 : tensor<1x128xi32> to tensor<1x128xi64> loc(#loc208)
    %c_ptrs_172 = arith.muli %c_ptrs_170, %c_ptrs_171 : tensor<1x128xi64> loc(#loc208)
    %c_ptrs_173 = arith.constant 2147483647 : i64 loc(#loc208)
    %c_ptrs_174 = arith.constant -2147483648 : i64 loc(#loc208)
    %c_ptrs_175 = arith.constant dense<2147483647> : tensor<1x128xi64> loc(#loc208)
    %c_ptrs_176 = arith.cmpi sle, %c_ptrs_172, %c_ptrs_175 : tensor<1x128xi64> loc(#loc208)
    %c_ptrs_177 = arith.constant dense<-2147483648> : tensor<1x128xi64> loc(#loc208)
    %c_ptrs_178 = arith.cmpi sge, %c_ptrs_172, %c_ptrs_177 : tensor<1x128xi64> loc(#loc208)
    %c_ptrs_179 = arith.andi %c_ptrs_176, %c_ptrs_178 : tensor<1x128xi1> loc(#loc208)
    %c_ptrs_180 = arith.muli %c_ptrs_169, %c_ptrs_166 : tensor<1x128xi32> loc(#loc208)
    %c_ptrs_181 = tt.broadcast %c_ptrs_165 : tensor<128x1x!tt.ptr<bf16>> -> tensor<128x128x!tt.ptr<bf16>> loc(#loc209)
    %c_ptrs_182 = tt.broadcast %c_ptrs_180 : tensor<1x128xi32> -> tensor<128x128xi32> loc(#loc209)
    %c_ptrs_183 = tt.addptr %c_ptrs_181, %c_ptrs_182 : tensor<128x128x!tt.ptr<bf16>>, tensor<128x128xi32> loc(#loc209)
    %c_mask = tt.expand_dims %token_mask_60 {axis = 1 : i32} : tensor<128xi1> -> tensor<128x1xi1> loc(#loc210)
    %c_mask_184 = tt.expand_dims %offs_cn_160 {axis = 0 : i32} : tensor<128xi32> -> tensor<1x128xi32> loc(#loc211)
    %c_mask_185 = tt.splat %N : i32 -> tensor<1x128xi32> loc(#loc212)
    %c_mask_186 = arith.cmpi slt, %c_mask_184, %c_mask_185 : tensor<1x128xi32> loc(#loc212)
    %c_mask_187 = tt.broadcast %c_mask : tensor<128x1xi1> -> tensor<128x128xi1> loc(#loc213)
    %c_mask_188 = tt.broadcast %c_mask_186 : tensor<1x128xi1> -> tensor<128x128xi1> loc(#loc213)
    %c_mask_189 = arith.andi %c_mask_187, %c_mask_188 : tensor<128x128xi1> loc(#loc213)
    tt.store %c_ptrs_183, %accumulator_137, %c_mask_189 : tensor<128x128x!tt.ptr<bf16>> loc(#loc87)
    tt.return loc(#loc88)
  } loc(#loc)
  tt.func private @"triton.language.standard.cdiv__i32__(1,)cconstexpr_128_"(%x: i32 loc("x"(#loc89))) -> i32 attributes {noinline = false} {
    %c127_i32 = arith.constant 127 : i32 loc(#loc90)
    %c127_i32_0 = arith.constant 127 : i32 loc(#loc90)
    %0 = arith.extsi %x : i32 to i64 loc(#loc90)
    %1 = arith.extsi %c127_i32_0 : i32 to i64 loc(#loc90)
    %2 = arith.addi %0, %1 : i64 loc(#loc90)
    %c2147483647_i64 = arith.constant 2147483647 : i64 loc(#loc90)
    %c-2147483648_i64 = arith.constant -2147483648 : i64 loc(#loc90)
    %3 = arith.cmpi sle, %2, %c2147483647_i64 : i64 loc(#loc90)
    %4 = arith.cmpi sge, %2, %c-2147483648_i64 : i64 loc(#loc90)
    %5 = arith.andi %3, %4 : i1 loc(#loc90)
    %6 = arith.addi %x, %c127_i32_0 : i32 loc(#loc90)
    %c128_i32 = arith.constant 128 : i32 loc(#loc91)
    %c128_i32_1 = arith.constant 128 : i32 loc(#loc91)
    %7 = arith.divsi %6, %c128_i32_1 : i32 loc(#loc91)
    tt.return %7 : i32 loc(#loc92)
  ^bb1:  // no predecessors
    %8 = ub.poison : i32 loc(#loc93)
    tt.return %8 : i32 loc(#loc93)
  } loc(#loc89)
  tt.func private @"vllm.model_executor.layers.fused_moe.fused_moe.write_zeros_to_output__Pbf16_i32_i32_i32_i64S128S_u1S128S__(2,)cconstexpr_1__(7,)cconstexpr_128__(8,)cconstexpr_128__(9,)cconstexpr_bf16_"(%c_ptr: !tt.ptr<bf16> loc("c_ptr"(#loc94)), %stride_cm: i32 loc("stride_cm"(#loc94)), %pid_n: i32 loc("pid_n"(#loc94)), %N: i32 loc("N"(#loc94)), %offs_token: tensor<128xi64> loc("offs_token"(#loc94)), %token_mask: tensor<128xi1> loc("token_mask"(#loc94))) attributes {noinline = false} {
    %accumulator = tt.call @"triton.language.standard.zeros____(0, 0)cconstexpr_128__(0, 1)cconstexpr_128__(1,)cconstexpr_bf16_"() : () -> tensor<128x128xbf16> loc(#loc221)
    %offs_cn = arith.constant 128 : i32 loc(#loc222)
    %offs_cn_0 = arith.constant 128 : i32 loc(#loc222)
    %offs_cn_1 = arith.extsi %pid_n : i32 to i64 loc(#loc222)
    %offs_cn_2 = arith.extsi %offs_cn_0 : i32 to i64 loc(#loc222)
    %offs_cn_3 = arith.muli %offs_cn_1, %offs_cn_2 : i64 loc(#loc222)
    %offs_cn_4 = arith.constant 2147483647 : i64 loc(#loc222)
    %offs_cn_5 = arith.constant -2147483648 : i64 loc(#loc222)
    %offs_cn_6 = arith.cmpi sle, %offs_cn_3, %offs_cn_4 : i64 loc(#loc222)
    %offs_cn_7 = arith.cmpi sge, %offs_cn_3, %offs_cn_5 : i64 loc(#loc222)
    %offs_cn_8 = arith.andi %offs_cn_6, %offs_cn_7 : i1 loc(#loc222)
    %offs_cn_9 = arith.muli %pid_n, %offs_cn_0 : i32 loc(#loc222)
    %offs_cn_10 = tt.make_range {end = 128 : i32, start = 0 : i32} : tensor<128xi32> loc(#loc223)
    %offs_cn_11 = tt.splat %offs_cn_9 : i32 -> tensor<128xi32> loc(#loc224)
    %offs_cn_12 = arith.extsi %offs_cn_11 : tensor<128xi32> to tensor<128xi64> loc(#loc224)
    %offs_cn_13 = arith.extsi %offs_cn_10 : tensor<128xi32> to tensor<128xi64> loc(#loc224)
    %offs_cn_14 = arith.addi %offs_cn_12, %offs_cn_13 : tensor<128xi64> loc(#loc224)
    %offs_cn_15 = arith.constant 2147483647 : i64 loc(#loc224)
    %offs_cn_16 = arith.constant -2147483648 : i64 loc(#loc224)
    %offs_cn_17 = arith.constant dense<2147483647> : tensor<128xi64> loc(#loc224)
    %offs_cn_18 = arith.cmpi sle, %offs_cn_14, %offs_cn_17 : tensor<128xi64> loc(#loc224)
    %offs_cn_19 = arith.constant dense<-2147483648> : tensor<128xi64> loc(#loc224)
    %offs_cn_20 = arith.cmpi sge, %offs_cn_14, %offs_cn_19 : tensor<128xi64> loc(#loc224)
    %offs_cn_21 = arith.andi %offs_cn_18, %offs_cn_20 : tensor<128xi1> loc(#loc224)
    %offs_cn_22 = arith.addi %offs_cn_11, %offs_cn_10 : tensor<128xi32> loc(#loc224)
    %c_ptrs = tt.expand_dims %offs_token {axis = 1 : i32} : tensor<128xi64> -> tensor<128x1xi64> loc(#loc225)
    %c_ptrs_23 = arith.extsi %stride_cm : i32 to i64 loc(#loc226)
    %c_ptrs_24 = tt.splat %c_ptrs_23 : i64 -> tensor<128x1xi64> loc(#loc226)
    %c_ptrs_25 = arith.muli %c_ptrs_24, %c_ptrs : tensor<128x1xi64> loc(#loc226)
    %c_ptrs_26 = tt.splat %c_ptr : !tt.ptr<bf16> -> tensor<128x1x!tt.ptr<bf16>> loc(#loc227)
    %c_ptrs_27 = tt.addptr %c_ptrs_26, %c_ptrs_25 : tensor<128x1x!tt.ptr<bf16>>, tensor<128x1xi64> loc(#loc227)
    %c_ptrs_28 = tt.expand_dims %offs_cn_22 {axis = 0 : i32} : tensor<128xi32> -> tensor<1x128xi32> loc(#loc228)
    %c_ptrs_29 = arith.constant 1 : i32 loc(#loc229)
    %c_ptrs_30 = arith.constant 1 : i32 loc(#loc229)
    %c_ptrs_31 = arith.constant dense<1> : tensor<1x128xi32> loc(#loc229)
    %c_ptrs_32 = arith.extsi %c_ptrs_31 : tensor<1x128xi32> to tensor<1x128xi64> loc(#loc229)
    %c_ptrs_33 = arith.extsi %c_ptrs_28 : tensor<1x128xi32> to tensor<1x128xi64> loc(#loc229)
    %c_ptrs_34 = arith.muli %c_ptrs_32, %c_ptrs_33 : tensor<1x128xi64> loc(#loc229)
    %c_ptrs_35 = arith.constant 2147483647 : i64 loc(#loc229)
    %c_ptrs_36 = arith.constant -2147483648 : i64 loc(#loc229)
    %c_ptrs_37 = arith.constant dense<2147483647> : tensor<1x128xi64> loc(#loc229)
    %c_ptrs_38 = arith.cmpi sle, %c_ptrs_34, %c_ptrs_37 : tensor<1x128xi64> loc(#loc229)
    %c_ptrs_39 = arith.constant dense<-2147483648> : tensor<1x128xi64> loc(#loc229)
    %c_ptrs_40 = arith.cmpi sge, %c_ptrs_34, %c_ptrs_39 : tensor<1x128xi64> loc(#loc229)
    %c_ptrs_41 = arith.andi %c_ptrs_38, %c_ptrs_40 : tensor<1x128xi1> loc(#loc229)
    %c_ptrs_42 = arith.muli %c_ptrs_31, %c_ptrs_28 : tensor<1x128xi32> loc(#loc229)
    %c_ptrs_43 = tt.broadcast %c_ptrs_27 : tensor<128x1x!tt.ptr<bf16>> -> tensor<128x128x!tt.ptr<bf16>> loc(#loc230)
    %c_ptrs_44 = tt.broadcast %c_ptrs_42 : tensor<1x128xi32> -> tensor<128x128xi32> loc(#loc230)
    %c_ptrs_45 = tt.addptr %c_ptrs_43, %c_ptrs_44 : tensor<128x128x!tt.ptr<bf16>>, tensor<128x128xi32> loc(#loc230)
    %c_mask = tt.expand_dims %token_mask {axis = 1 : i32} : tensor<128xi1> -> tensor<128x1xi1> loc(#loc231)
    %c_mask_46 = tt.expand_dims %offs_cn_22 {axis = 0 : i32} : tensor<128xi32> -> tensor<1x128xi32> loc(#loc232)
    %c_mask_47 = tt.splat %N : i32 -> tensor<1x128xi32> loc(#loc233)
    %c_mask_48 = arith.cmpi slt, %c_mask_46, %c_mask_47 : tensor<1x128xi32> loc(#loc233)
    %c_mask_49 = tt.broadcast %c_mask : tensor<128x1xi1> -> tensor<128x128xi1> loc(#loc234)
    %c_mask_50 = tt.broadcast %c_mask_48 : tensor<1x128xi1> -> tensor<128x128xi1> loc(#loc234)
    %c_mask_51 = arith.andi %c_mask_49, %c_mask_50 : tensor<128x128xi1> loc(#loc234)
    tt.store %c_ptrs_45, %accumulator, %c_mask_51 : tensor<128x128x!tt.ptr<bf16>> loc(#loc109)
    tt.return loc(#loc110)
  } loc(#loc94)
  tt.func private @"triton.language.standard.zeros____(0, 0)cconstexpr_128__(0, 1)cconstexpr_128__(1,)cconstexpr_bf16_"() -> tensor<128x128xbf16> attributes {noinline = false} {
    %cst = arith.constant 0.000000e+00 : bf16 loc(#loc112)
    %cst_0 = arith.constant dense<0.000000e+00> : tensor<128x128xbf16> loc(#loc112)
    tt.return %cst_0 : tensor<128x128xbf16> loc(#loc113)
  ^bb1:  // no predecessors
    %0 = ub.poison : tensor<128x128xbf16> loc(#loc114)
    tt.return %0 : tensor<128x128xbf16> loc(#loc114)
  } loc(#loc111)
  tt.func private @"triton.language.standard.zeros____(0, 0)cconstexpr_128__(0, 1)cconstexpr_128__(1,)cconstexpr_fp32_"() -> tensor<128x128xf32> attributes {noinline = false} {
    %cst = arith.constant 0.000000e+00 : f32 loc(#loc112)
    %cst_0 = arith.constant dense<0.000000e+00> : tensor<128x128xf32> loc(#loc112)
    tt.return %cst_0 : tensor<128x128xf32> loc(#loc113)
  ^bb1:  // no predecessors
    %0 = ub.poison : tensor<128x128xf32> loc(#loc114)
    tt.return %0 : tensor<128x128xf32> loc(#loc114)
  } loc(#loc111)
  tt.func private @"triton.language.standard.cdiv__i32__(1,)cconstexpr_64_"(%x: i32 loc("x"(#loc89))) -> i32 attributes {noinline = false} {
    %c63_i32 = arith.constant 63 : i32 loc(#loc90)
    %c63_i32_0 = arith.constant 63 : i32 loc(#loc90)
    %0 = arith.extsi %x : i32 to i64 loc(#loc90)
    %1 = arith.extsi %c63_i32_0 : i32 to i64 loc(#loc90)
    %2 = arith.addi %0, %1 : i64 loc(#loc90)
    %c2147483647_i64 = arith.constant 2147483647 : i64 loc(#loc90)
    %c-2147483648_i64 = arith.constant -2147483648 : i64 loc(#loc90)
    %3 = arith.cmpi sle, %2, %c2147483647_i64 : i64 loc(#loc90)
    %4 = arith.cmpi sge, %2, %c-2147483648_i64 : i64 loc(#loc90)
    %5 = arith.andi %3, %4 : i1 loc(#loc90)
    %6 = arith.addi %x, %c63_i32_0 : i32 loc(#loc90)
    %c64_i32 = arith.constant 64 : i32 loc(#loc91)
    %c64_i32_1 = arith.constant 64 : i32 loc(#loc91)
    %7 = arith.divsi %6, %c64_i32_1 : i32 loc(#loc91)
    tt.return %7 : i32 loc(#loc92)
  ^bb1:  // no predecessors
    %8 = ub.poison : i32 loc(#loc93)
    tt.return %8 : i32 loc(#loc93)
  } loc(#loc89)
} loc(#loc)
#loc1 = loc("/home/ericbuehler/vllm/.venv-bench/lib/python3.12/site-packages/vllm/model_executor/layers/fused_moe/fused_moe.py":381:24)
#loc2 = loc("/home/ericbuehler/vllm/.venv-bench/lib/python3.12/site-packages/vllm/model_executor/layers/fused_moe/fused_moe.py":382:28)
#loc3 = loc("/home/ericbuehler/vllm/.venv-bench/lib/python3.12/site-packages/vllm/model_executor/layers/fused_moe/fused_moe.py":383:27)
#loc4 = loc("/home/ericbuehler/vllm/.venv-bench/lib/python3.12/site-packages/vllm/model_executor/layers/fused_moe/fused_moe.py":384:38)
#loc5 = loc("/home/ericbuehler/vllm/.venv-bench/lib/python3.12/site-packages/vllm/model_executor/layers/fused_moe/fused_moe.py":385:22)
#loc6 = loc("/home/ericbuehler/vllm/.venv-bench/lib/python3.12/site-packages/vllm/model_executor/layers/fused_moe/fused_moe.py":386:29)
#loc7 = loc("/home/ericbuehler/vllm/.venv-bench/lib/python3.12/site-packages/vllm/model_executor/layers/fused_moe/fused_moe.py":387:35)
#loc8 = loc("/home/ericbuehler/vllm/.venv-bench/lib/python3.12/site-packages/vllm/model_executor/layers/fused_moe/fused_moe.py":387:48)
#loc9 = loc("/home/ericbuehler/vllm/.venv-bench/lib/python3.12/site-packages/vllm/model_executor/layers/fused_moe/fused_moe.py":388:34)
#loc10 = loc("/home/ericbuehler/vllm/.venv-bench/lib/python3.12/site-packages/vllm/model_executor/layers/fused_moe/fused_moe.py":388:54)
#loc11 = loc("/home/ericbuehler/vllm/.venv-bench/lib/python3.12/site-packages/vllm/model_executor/layers/fused_moe/fused_moe.py":388:27)
#loc12 = loc("/home/ericbuehler/vllm/.venv-bench/lib/python3.12/site-packages/vllm/model_executor/layers/fused_moe/fused_moe.py":389:19)
#loc13 = loc("/home/ericbuehler/vllm/.venv-bench/lib/python3.12/site-packages/vllm/model_executor/layers/fused_moe/fused_moe.py":389:40)
#loc14 = loc("/home/ericbuehler/vllm/.venv-bench/lib/python3.12/site-packages/vllm/model_executor/layers/fused_moe/fused_moe.py":397:24)
#loc15 = loc("/home/ericbuehler/vllm/.venv-bench/lib/python3.12/site-packages/vllm/model_executor/layers/fused_moe/fused_moe.py":397:41)
#loc16 = loc("/home/ericbuehler/vllm/.venv-bench/lib/python3.12/site-packages/vllm/model_executor/layers/fused_moe/fused_moe.py":398:37)
#loc17 = loc("/home/ericbuehler/vllm/.venv-bench/lib/python3.12/site-packages/vllm/model_executor/layers/fused_moe/fused_moe.py":399:15)
#loc18 = loc("/home/ericbuehler/vllm/.venv-bench/lib/python3.12/site-packages/vllm/model_executor/layers/fused_moe/fused_moe.py":399:31)
#loc19 = loc("/home/ericbuehler/vllm/.venv-bench/lib/python3.12/site-packages/vllm/model_executor/layers/fused_moe/fused_moe.py":400:8)
#loc20 = loc("/home/ericbuehler/vllm/.venv-bench/lib/python3.12/site-packages/vllm/model_executor/layers/fused_moe/fused_moe.py":402:32)
#loc21 = loc("/home/ericbuehler/vllm/.venv-bench/lib/python3.12/site-packages/vllm/model_executor/layers/fused_moe/fused_moe.py":402:47)
#loc22 = loc("/home/ericbuehler/vllm/.venv-bench/lib/python3.12/site-packages/vllm/model_executor/layers/fused_moe/fused_moe.py":403:52)
#loc23 = loc("/home/ericbuehler/vllm/.venv-bench/lib/python3.12/site-packages/vllm/model_executor/layers/fused_moe/fused_moe.py":403:29)
#loc24 = loc("/home/ericbuehler/vllm/.venv-bench/lib/python3.12/site-packages/vllm/model_executor/layers/fused_moe/fused_moe.py":412:31)
#loc25 = loc("/home/ericbuehler/vllm/.venv-bench/lib/python3.12/site-packages/vllm/model_executor/layers/fused_moe/fused_moe.py":414:30)
#loc26 = loc("/home/ericbuehler/vllm/.venv-bench/lib/python3.12/site-packages/vllm/model_executor/layers/fused_moe/fused_moe.py":416:43)
#loc27 = loc("/home/ericbuehler/vllm/.venv-bench/lib/python3.12/site-packages/vllm/model_executor/layers/fused_moe/fused_moe.py":416:26)
#loc28 = loc("/home/ericbuehler/vllm/.venv-bench/lib/python3.12/site-packages/vllm/model_executor/layers/fused_moe/fused_moe.py":416:53)
#loc29 = loc("/home/ericbuehler/vllm/.venv-bench/lib/python3.12/site-packages/vllm/model_executor/layers/fused_moe/fused_moe.py":417:22)
#loc30 = loc("/home/ericbuehler/vllm/.venv-bench/lib/python3.12/site-packages/vllm/model_executor/layers/fused_moe/fused_moe.py":431:12)
#loc31 = loc("/home/ericbuehler/vllm/.venv-bench/lib/python3.12/site-packages/vllm/model_executor/layers/fused_moe/fused_moe.py":433:8)
#loc32 = loc("/home/ericbuehler/vllm/.venv-bench/lib/python3.12/site-packages/vllm/model_executor/layers/fused_moe/fused_moe.py":435:23)
#loc33 = loc("/home/ericbuehler/vllm/.venv-bench/lib/python3.12/site-packages/vllm/model_executor/layers/fused_moe/fused_moe.py":435:51)
#loc34 = loc("/home/ericbuehler/vllm/.venv-bench/lib/python3.12/site-packages/vllm/model_executor/layers/fused_moe/fused_moe.py":435:68)
#loc35 = loc("/home/ericbuehler/vllm/.venv-bench/lib/python3.12/site-packages/vllm/model_executor/layers/fused_moe/fused_moe.py":435:38)
#loc36 = loc("/home/ericbuehler/vllm/.venv-bench/lib/python3.12/site-packages/vllm/model_executor/layers/fused_moe/fused_moe.py":435:81)
#loc37 = loc("/home/ericbuehler/vllm/.venv-bench/lib/python3.12/site-packages/vllm/model_executor/layers/fused_moe/fused_moe.py":436:26)
#loc38 = loc("/home/ericbuehler/vllm/.venv-bench/lib/python3.12/site-packages/vllm/model_executor/layers/fused_moe/fused_moe.py":438:19)
#loc39 = loc("/home/ericbuehler/vllm/.venv-bench/lib/python3.12/site-packages/vllm/model_executor/layers/fused_moe/fused_moe.py":438:31)
#loc40 = loc("/home/ericbuehler/vllm/.venv-bench/lib/python3.12/site-packages/vllm/model_executor/layers/fused_moe/fused_moe.py":438:39)
#loc41 = loc("/home/ericbuehler/vllm/.venv-bench/lib/python3.12/site-packages/vllm/model_executor/layers/fused_moe/fused_moe.py":438:58)
#loc42 = loc("/home/ericbuehler/vllm/.venv-bench/lib/python3.12/site-packages/vllm/model_executor/layers/fused_moe/fused_moe.py":438:69)
#loc43 = loc("/home/ericbuehler/vllm/.venv-bench/lib/python3.12/site-packages/vllm/model_executor/layers/fused_moe/fused_moe.py":438:51)
#loc44 = loc("/home/ericbuehler/vllm/.venv-bench/lib/python3.12/site-packages/vllm/model_executor/layers/fused_moe/fused_moe.py":438:8)
#loc45 = loc("/home/ericbuehler/vllm/.venv-bench/lib/python3.12/site-packages/vllm/model_executor/layers/fused_moe/fused_moe.py":443:24)
#loc46 = loc("/home/ericbuehler/vllm/.venv-bench/lib/python3.12/site-packages/vllm/model_executor/layers/fused_moe/fused_moe.py":443:10)
#loc47 = loc("/home/ericbuehler/vllm/.venv-bench/lib/python3.12/site-packages/vllm/model_executor/layers/fused_moe/fused_moe.py":444:18)
#loc48 = loc("/home/ericbuehler/vllm/.venv-bench/lib/python3.12/site-packages/vllm/model_executor/layers/fused_moe/fused_moe.py":444:29)
#loc49 = loc("/home/ericbuehler/vllm/.venv-bench/lib/python3.12/site-packages/vllm/model_executor/layers/fused_moe/fused_moe.py":444:49)
#loc50 = loc("/home/ericbuehler/vllm/.venv-bench/lib/python3.12/site-packages/vllm/model_executor/layers/fused_moe/fused_moe.py":444:60)
#loc51 = loc("/home/ericbuehler/vllm/.venv-bench/lib/python3.12/site-packages/vllm/model_executor/layers/fused_moe/fused_moe.py":444:41)
#loc52 = loc("/home/ericbuehler/vllm/.venv-bench/lib/python3.12/site-packages/vllm/model_executor/layers/fused_moe/fused_moe.py":444:11)
#loc53 = loc("/home/ericbuehler/vllm/.venv-bench/lib/python3.12/site-packages/vllm/model_executor/layers/fused_moe/fused_moe.py":482:27)
#loc54 = loc("/home/ericbuehler/vllm/.venv-bench/lib/python3.12/site-packages/vllm/model_executor/layers/fused_moe/fused_moe.py":483:33)
#loc55 = loc("/home/ericbuehler/vllm/.venv-bench/lib/python3.12/site-packages/vllm/model_executor/layers/fused_moe/fused_moe.py":483:22)
#loc56 = loc("/home/ericbuehler/vllm/.venv-bench/lib/python3.12/site-packages/vllm/model_executor/layers/fused_moe/fused_moe.py":488:28)
#loc57 = loc("/home/ericbuehler/vllm/.venv-bench/lib/python3.12/site-packages/vllm/model_executor/layers/fused_moe/fused_moe.py":488:47)
#loc58 = loc("/home/ericbuehler/vllm/.venv-bench/lib/python3.12/site-packages/vllm/model_executor/layers/fused_moe/fused_moe.py":488:66)
#loc59 = loc("/home/ericbuehler/vllm/.venv-bench/lib/python3.12/site-packages/vllm/model_executor/layers/fused_moe/fused_moe.py":488:62)
#loc60 = loc("/home/ericbuehler/vllm/.venv-bench/lib/python3.12/site-packages/vllm/model_executor/layers/fused_moe/fused_moe.py":488:58)
#loc61 = loc("/home/ericbuehler/vllm/.venv-bench/lib/python3.12/site-packages/vllm/model_executor/layers/fused_moe/fused_moe.py":488:40)
#loc62 = loc("/home/ericbuehler/vllm/.venv-bench/lib/python3.12/site-packages/vllm/model_executor/layers/fused_moe/fused_moe.py":487:12)
#loc63 = loc("/home/ericbuehler/vllm/.venv-bench/lib/python3.12/site-packages/vllm/model_executor/layers/fused_moe/fused_moe.py":491:40)
#loc64 = loc("/home/ericbuehler/vllm/.venv-bench/lib/python3.12/site-packages/vllm/model_executor/layers/fused_moe/fused_moe.py":491:59)
#loc65 = loc("/home/ericbuehler/vllm/.venv-bench/lib/python3.12/site-packages/vllm/model_executor/layers/fused_moe/fused_moe.py":491:55)
#loc66 = loc("/home/ericbuehler/vllm/.venv-bench/lib/python3.12/site-packages/vllm/model_executor/layers/fused_moe/fused_moe.py":491:51)
#loc67 = loc("/home/ericbuehler/vllm/.venv-bench/lib/python3.12/site-packages/vllm/model_executor/layers/fused_moe/fused_moe.py":491:20)
#loc68 = loc("/home/ericbuehler/vllm/.venv-bench/lib/python3.12/site-packages/vllm/model_executor/layers/fused_moe/fused_moe.py":512:37)
#loc69 = loc("/home/ericbuehler/vllm/.venv-bench/lib/python3.12/site-packages/vllm/model_executor/layers/fused_moe/fused_moe.py":512:27)
#loc70 = loc("/home/ericbuehler/vllm/.venv-bench/lib/python3.12/site-packages/vllm/model_executor/layers/fused_moe/fused_moe.py":514:18)
#loc71 = loc("/home/ericbuehler/vllm/.venv-bench/lib/python3.12/site-packages/vllm/model_executor/layers/fused_moe/fused_moe.py":515:18)
#loc72 = loc("/home/ericbuehler/vllm/.venv-bench/lib/python3.12/site-packages/vllm/model_executor/layers/fused_moe/fused_moe.py":515:8)
#loc73 = loc("/home/ericbuehler/vllm/.venv-bench/lib/python3.12/site-packages/vllm/model_executor/layers/fused_moe/fused_moe.py":548:33)
#loc74 = loc("/home/ericbuehler/vllm/.venv-bench/lib/python3.12/site-packages/vllm/model_executor/layers/fused_moe/fused_moe.py":552:22)
#loc75 = loc("/home/ericbuehler/vllm/.venv-bench/lib/python3.12/site-packages/vllm/model_executor/layers/fused_moe/fused_moe.py":552:50)
#loc76 = loc("/home/ericbuehler/vllm/.venv-bench/lib/python3.12/site-packages/vllm/model_executor/layers/fused_moe/fused_moe.py":552:37)
#loc77 = loc("/home/ericbuehler/vllm/.venv-bench/lib/python3.12/site-packages/vllm/model_executor/layers/fused_moe/fused_moe.py":553:44)
#loc78 = loc("/home/ericbuehler/vllm/.venv-bench/lib/python3.12/site-packages/vllm/model_executor/layers/fused_moe/fused_moe.py":553:33)
#loc79 = loc("/home/ericbuehler/vllm/.venv-bench/lib/python3.12/site-packages/vllm/model_executor/layers/fused_moe/fused_moe.py":553:21)
#loc80 = loc("/home/ericbuehler/vllm/.venv-bench/lib/python3.12/site-packages/vllm/model_executor/layers/fused_moe/fused_moe.py":553:75)
#loc81 = loc("/home/ericbuehler/vllm/.venv-bench/lib/python3.12/site-packages/vllm/model_executor/layers/fused_moe/fused_moe.py":553:67)
#loc82 = loc("/home/ericbuehler/vllm/.venv-bench/lib/python3.12/site-packages/vllm/model_executor/layers/fused_moe/fused_moe.py":553:55)
#loc83 = loc("/home/ericbuehler/vllm/.venv-bench/lib/python3.12/site-packages/vllm/model_executor/layers/fused_moe/fused_moe.py":554:24)
#loc84 = loc("/home/ericbuehler/vllm/.venv-bench/lib/python3.12/site-packages/vllm/model_executor/layers/fused_moe/fused_moe.py":554:44)
#loc85 = loc("/home/ericbuehler/vllm/.venv-bench/lib/python3.12/site-packages/vllm/model_executor/layers/fused_moe/fused_moe.py":554:55)
#loc86 = loc("/home/ericbuehler/vllm/.venv-bench/lib/python3.12/site-packages/vllm/model_executor/layers/fused_moe/fused_moe.py":554:36)
#loc87 = loc("/home/ericbuehler/vllm/.venv-bench/lib/python3.12/site-packages/vllm/model_executor/layers/fused_moe/fused_moe.py":555:21)
#loc88 = loc("/home/ericbuehler/vllm/.venv-bench/lib/python3.12/site-packages/vllm/model_executor/layers/fused_moe/fused_moe.py":555:4)
#loc90 = loc("/home/ericbuehler/vllm/.venv-bench/lib/python3.12/site-packages/triton/language/standard.py":43:17)
#loc91 = loc("/home/ericbuehler/vllm/.venv-bench/lib/python3.12/site-packages/triton/language/standard.py":43:30)
#loc92 = loc("/home/ericbuehler/vllm/.venv-bench/lib/python3.12/site-packages/triton/language/standard.py":43:11)
#loc93 = loc("/home/ericbuehler/vllm/.venv-bench/lib/python3.12/site-packages/triton/language/standard.py":43:4)
#loc95 = loc("/home/ericbuehler/vllm/.venv-bench/lib/python3.12/site-packages/vllm/model_executor/layers/fused_moe/fused_moe.py":53:27)
#loc96 = loc("/home/ericbuehler/vllm/.venv-bench/lib/python3.12/site-packages/vllm/model_executor/layers/fused_moe/fused_moe.py":54:22)
#loc97 = loc("/home/ericbuehler/vllm/.venv-bench/lib/python3.12/site-packages/vllm/model_executor/layers/fused_moe/fused_moe.py":54:50)
#loc98 = loc("/home/ericbuehler/vllm/.venv-bench/lib/python3.12/site-packages/vllm/model_executor/layers/fused_moe/fused_moe.py":54:37)
#loc99 = loc("/home/ericbuehler/vllm/.venv-bench/lib/python3.12/site-packages/vllm/model_executor/layers/fused_moe/fused_moe.py":55:44)
#loc100 = loc("/home/ericbuehler/vllm/.venv-bench/lib/python3.12/site-packages/vllm/model_executor/layers/fused_moe/fused_moe.py":55:33)
#loc101 = loc("/home/ericbuehler/vllm/.venv-bench/lib/python3.12/site-packages/vllm/model_executor/layers/fused_moe/fused_moe.py":55:21)
#loc102 = loc("/home/ericbuehler/vllm/.venv-bench/lib/python3.12/site-packages/vllm/model_executor/layers/fused_moe/fused_moe.py":55:75)
#loc103 = loc("/home/ericbuehler/vllm/.venv-bench/lib/python3.12/site-packages/vllm/model_executor/layers/fused_moe/fused_moe.py":55:67)
#loc104 = loc("/home/ericbuehler/vllm/.venv-bench/lib/python3.12/site-packages/vllm/model_executor/layers/fused_moe/fused_moe.py":55:55)
#loc105 = loc("/home/ericbuehler/vllm/.venv-bench/lib/python3.12/site-packages/vllm/model_executor/layers/fused_moe/fused_moe.py":56:24)
#loc106 = loc("/home/ericbuehler/vllm/.venv-bench/lib/python3.12/site-packages/vllm/model_executor/layers/fused_moe/fused_moe.py":56:44)
#loc107 = loc("/home/ericbuehler/vllm/.venv-bench/lib/python3.12/site-packages/vllm/model_executor/layers/fused_moe/fused_moe.py":56:55)
#loc108 = loc("/home/ericbuehler/vllm/.venv-bench/lib/python3.12/site-packages/vllm/model_executor/layers/fused_moe/fused_moe.py":56:36)
#loc109 = loc("/home/ericbuehler/vllm/.venv-bench/lib/python3.12/site-packages/vllm/model_executor/layers/fused_moe/fused_moe.py":57:21)
#loc110 = loc("/home/ericbuehler/vllm/.venv-bench/lib/python3.12/site-packages/vllm/model_executor/layers/fused_moe/fused_moe.py":57:4)
#loc111 = loc("/home/ericbuehler/vllm/.venv-bench/lib/python3.12/site-packages/triton/language/standard.py":120:0)
#loc112 = loc("/home/ericbuehler/vllm/.venv-bench/lib/python3.12/site-packages/triton/language/standard.py":129:31)
#loc113 = loc("/home/ericbuehler/vllm/.venv-bench/lib/python3.12/site-packages/triton/language/standard.py":129:11)
#loc114 = loc("/home/ericbuehler/vllm/.venv-bench/lib/python3.12/site-packages/triton/language/standard.py":129:4)
#loc136 = loc("pid"(#loc1))
#loc137 = loc("num_pid_m"(#loc2))
#loc138 = loc("num_pid_n"(#loc3))
#loc139 = loc("num_pid_in_group"(#loc4))
#loc140 = loc("group_id"(#loc5))
#loc141 = loc("first_pid_m"(#loc6))
#loc142 = loc("group_size_m"(#loc7))
#loc143 = loc("group_size_m"(#loc8))
#loc144 = loc("pid_m"(#loc9))
#loc145 = loc("pid_m"(#loc10))
#loc146 = loc("pid_m"(#loc11))
#loc147 = loc("pid_n"(#loc12))
#loc148 = loc("pid_n"(#loc13))
#loc149 = loc("offs"(#loc14))
#loc150 = loc("offs"(#loc15))
#loc151 = loc("num_tokens_post_padded"(#loc16))
#loc152 = loc("offs_token_id"(#loc20))
#loc153 = loc("offs_token_id"(#loc21))
#loc154 = loc("offs_token"(#loc22))
#loc155 = loc("offs_token"(#loc23))
#loc156 = loc("offs_token"(#loc24))
#loc157 = loc("token_mask"(#loc25))
#loc158 = loc("off_experts"(#loc26))
#loc159 = loc("off_experts"(#loc27))
#loc160 = loc("off_experts"(#loc28))
#loc161 = loc("offs_bn"(#loc32))
#loc162 = loc("offs_bn"(#loc33))
#loc163 = loc("offs_bn"(#loc34))
#loc164 = loc("offs_bn"(#loc35))
#loc165 = loc("offs_bn"(#loc36))
#loc166 = loc("offs_k"(#loc37))
#loc167 = loc("a_ptrs"(#loc38))
#loc168 = loc("a_ptrs"(#loc39))
#loc169 = loc("a_ptrs"(#loc40))
#loc170 = loc("a_ptrs"(#loc41))
#loc171 = loc("a_ptrs"(#loc42))
#loc172 = loc("a_ptrs"(#loc43))
#loc173 = loc("a_ptrs"(#loc44))
#loc174 = loc("b_ptrs"(#loc45))
#loc175 = loc("b_ptrs"(#loc46))
#loc176 = loc("b_ptrs"(#loc47))
#loc177 = loc("b_ptrs"(#loc48))
#loc178 = loc("b_ptrs"(#loc49))
#loc179 = loc("b_ptrs"(#loc50))
#loc180 = loc("b_ptrs"(#loc51))
#loc181 = loc("b_ptrs"(#loc52))
#loc182 = loc("accumulator"(#loc53))
#loc183 = loc("a_ptrs"(#loc55))
#loc184 = loc("a"(#loc56))
#loc185 = loc("a"(#loc57))
#loc186 = loc("a"(#loc58))
#loc187 = loc("a"(#loc59))
#loc188 = loc("a"(#loc60))
#loc189 = loc("a"(#loc61))
#loc190 = loc("a"(#loc62))
#loc191 = loc("b"(#loc63))
#loc192 = loc("b"(#loc64))
#loc193 = loc("b"(#loc65))
#loc194 = loc("b"(#loc66))
#loc195 = loc("b"(#loc67))
#loc196 = loc("accumulator"(#loc68))
#loc197 = loc("accumulator"(#loc69))
#loc198 = loc("a_ptrs"(#loc70))
#loc199 = loc("b_ptrs"(#loc71))
#loc200 = loc("accumulator"(#loc73))
#loc201 = loc("offs_cn"(#loc74))
#loc202 = loc("offs_cn"(#loc75))
#loc203 = loc("offs_cn"(#loc76))
#loc204 = loc("c_ptrs"(#loc77))
#loc205 = loc("c_ptrs"(#loc78))
#loc206 = loc("c_ptrs"(#loc79))
#loc207 = loc("c_ptrs"(#loc80))
#loc208 = loc("c_ptrs"(#loc81))
#loc209 = loc("c_ptrs"(#loc82))
#loc210 = loc("c_mask"(#loc83))
#loc211 = loc("c_mask"(#loc84))
#loc212 = loc("c_mask"(#loc85))
#loc213 = loc("c_mask"(#loc86))
#loc221 = loc("accumulator"(#loc95))
#loc222 = loc("offs_cn"(#loc96))
#loc223 = loc("offs_cn"(#loc97))
#loc224 = loc("offs_cn"(#loc98))
#loc225 = loc("c_ptrs"(#loc99))
#loc226 = loc("c_ptrs"(#loc100))
#loc227 = loc("c_ptrs"(#loc101))
#loc228 = loc("c_ptrs"(#loc102))
#loc229 = loc("c_ptrs"(#loc103))
#loc230 = loc("c_ptrs"(#loc104))
#loc231 = loc("c_mask"(#loc105))
#loc232 = loc("c_mask"(#loc106))
#loc233 = loc("c_mask"(#loc107))
#loc234 = loc("c_mask"(#loc108))
#loc235 = loc("b_ptrs"(#loc183))
#loc236 = loc("accumulator"(#loc235))
