#loc = loc("/home/ericbuehler/.cache/vllm/torch_compile_cache/torch_aot_compile/90537ea14f244a5187d6ecc853fbadcf440d710f29c8e182fe8151f3f7751a82/inductor_cache/ja/cjafdt63rw3jx4ifyjplskzvi4iz3iwmshik6i4f3nnlza25v3aj.py":22:0)
#loc80 = loc("in_ptr0"(#loc))
#loc81 = loc("in_ptr1"(#loc))
#loc82 = loc("in_ptr2"(#loc))
#loc83 = loc("in_ptr3"(#loc))
#loc84 = loc("in_ptr4"(#loc))
#loc85 = loc("out_ptr0"(#loc))
#loc86 = loc("out_ptr1"(#loc))
#loc87 = loc("xnumel"(#loc))
module {
  tt.func public @triton_(%in_ptr0: !tt.ptr<bf16> {tt.divisibility = 16 : i32} loc("in_ptr0"(#loc)), %in_ptr1: !tt.ptr<f32> {tt.divisibility = 16 : i32} loc("in_ptr1"(#loc)), %in_ptr2: !tt.ptr<bf16> {tt.divisibility = 16 : i32} loc("in_ptr2"(#loc)), %in_ptr3: !tt.ptr<i64> {tt.divisibility = 16 : i32} loc("in_ptr3"(#loc)), %in_ptr4: !tt.ptr<bf16> {tt.divisibility = 16 : i32} loc("in_ptr4"(#loc)), %out_ptr0: !tt.ptr<bf16> {tt.divisibility = 16 : i32} loc("out_ptr0"(#loc)), %out_ptr1: !tt.ptr<bf16> {tt.divisibility = 16 : i32} loc("out_ptr1"(#loc)), %xnumel: i32 {tt.divisibility = 16 : i32} loc("xnumel"(#loc))) attributes {noinline = false} {
    %xoffset = tt.get_program_id x : i32 loc(#loc88)
    %xoffset_0 = arith.constant 512 : i32 loc(#loc89)
    %xoffset_1 = arith.constant 512 : i32 loc(#loc89)
    %xoffset_2 = arith.muli %xoffset, %xoffset_1 : i32 loc(#loc89)
    %xindex = tt.make_range {end = 512 : i32, start = 0 : i32} : tensor<512xi32> loc(#loc90)
    %xindex_3 = tt.splat %xoffset_2 : i32 -> tensor<512xi32> loc(#loc91)
    %xindex_4 = arith.addi %xindex_3, %xindex : tensor<512xi32> loc(#loc91)
    %xmask = arith.constant true loc(#loc92)
    %xmask_5 = arith.constant dense<true> : tensor<512xi1> loc(#loc92)
    %x0 = arith.constant 256 : i32 loc(#loc93)
    %x0_6 = arith.constant 256 : i32 loc(#loc93)
    %x0_7 = arith.constant dense<256> : tensor<512xi32> loc(#loc93)
    %x0_8 = arith.remsi %xindex_4, %x0_7 : tensor<512xi32> loc(#loc93)
    %x1 = arith.constant 256 : i32 loc(#loc94)
    %x1_9 = arith.constant 256 : i32 loc(#loc94)
    %x1_10 = arith.constant dense<256> : tensor<512xi32> loc(#loc94)
    %x1_11 = arith.divsi %xindex_4, %x1_10 : tensor<512xi32> loc(#loc94)
    %x1_12 = arith.constant 16 : i32 loc(#loc95)
    %x1_13 = arith.constant 16 : i32 loc(#loc95)
    %x1_14 = arith.constant dense<16> : tensor<512xi32> loc(#loc95)
    %x1_15 = arith.remsi %x1_11, %x1_14 : tensor<512xi32> loc(#loc95)
    %x2 = arith.constant 4096 : i32 loc(#loc96)
    %x2_16 = arith.constant 4096 : i32 loc(#loc96)
    %x2_17 = arith.constant dense<4096> : tensor<512xi32> loc(#loc96)
    %x2_18 = arith.divsi %xindex_4, %x2_17 : tensor<512xi32> loc(#loc96)
    %x3 = arith.constant 256 : i32 loc(#loc97)
    %x3_19 = arith.constant 256 : i32 loc(#loc97)
    %x3_20 = arith.constant dense<256> : tensor<512xi32> loc(#loc97)
    %x3_21 = arith.divsi %xindex_4, %x3_20 : tensor<512xi32> loc(#loc97)
    %tmp0 = arith.constant 512 : i32 loc(#loc98)
    %tmp0_22 = arith.constant 512 : i32 loc(#loc98)
    %tmp0_23 = arith.constant dense<512> : tensor<512xi32> loc(#loc98)
    %tmp0_24 = arith.muli %tmp0_23, %x1_15 : tensor<512xi32> loc(#loc98)
    %tmp0_25 = arith.addi %x0_8, %tmp0_24 : tensor<512xi32> loc(#loc99)
    %tmp0_26 = arith.constant 10240 : i32 loc(#loc100)
    %tmp0_27 = arith.constant 10240 : i32 loc(#loc100)
    %tmp0_28 = arith.constant dense<10240> : tensor<512xi32> loc(#loc100)
    %tmp0_29 = arith.muli %tmp0_28, %x2_18 : tensor<512xi32> loc(#loc100)
    %tmp0_30 = arith.addi %tmp0_25, %tmp0_29 : tensor<512xi32> loc(#loc101)
    %tmp0_31 = tt.splat %in_ptr0 : !tt.ptr<bf16> -> tensor<512x!tt.ptr<bf16>> loc(#loc102)
    %tmp0_32 = tt.addptr %tmp0_31, %tmp0_30 : tensor<512x!tt.ptr<bf16>>, tensor<512xi32> loc(#loc102)
    %tmp0_33 = tt.load %tmp0_32 : tensor<512x!tt.ptr<bf16>> loc(#loc103)
    %tmp0_34 = arith.extf %tmp0_33 : tensor<512xbf16> to tensor<512xf32> loc(#loc104)
    %tmp2 = tt.splat %in_ptr1 : !tt.ptr<f32> -> tensor<512x!tt.ptr<f32>> loc(#loc105)
    %tmp2_35 = tt.addptr %tmp2, %x3_21 : tensor<512x!tt.ptr<f32>>, tensor<512xi32> loc(#loc105)
    %tmp2_36 = tt.load %tmp2_35 evictionPolicy = evict_last : tensor<512x!tt.ptr<f32>> loc(#loc106)
    %tmp10 = tt.splat %in_ptr2 : !tt.ptr<bf16> -> tensor<512x!tt.ptr<bf16>> loc(#loc107)
    %tmp10_37 = tt.addptr %tmp10, %x0_8 : tensor<512x!tt.ptr<bf16>>, tensor<512xi32> loc(#loc107)
    %tmp10_38 = tt.load %tmp10_37 evictionPolicy = evict_last : tensor<512x!tt.ptr<bf16>> loc(#loc108)
    %tmp10_39 = arith.extf %tmp10_38 : tensor<512xbf16> to tensor<512xf32> loc(#loc109)
    %tmp12 = tt.splat %in_ptr3 : !tt.ptr<i64> -> tensor<512x!tt.ptr<i64>> loc(#loc110)
    %tmp12_40 = tt.addptr %tmp12, %x2_18 : tensor<512x!tt.ptr<i64>>, tensor<512xi32> loc(#loc110)
    %tmp12_41 = tt.load %tmp12_40 evictionPolicy = evict_last : tensor<512x!tt.ptr<i64>> loc(#loc111)
    %tmp20 = arith.constant 256 : i32 loc(#loc112)
    %tmp20_42 = arith.constant 256 : i32 loc(#loc112)
    %tmp20_43 = arith.constant dense<256> : tensor<512xi32> loc(#loc112)
    %tmp20_44 = arith.addi %tmp20_43, %x0_8 : tensor<512xi32> loc(#loc112)
    %tmp20_45 = arith.constant 512 : i32 loc(#loc113)
    %tmp20_46 = arith.constant 512 : i32 loc(#loc113)
    %tmp20_47 = arith.constant dense<512> : tensor<512xi32> loc(#loc113)
    %tmp20_48 = arith.muli %tmp20_47, %x1_15 : tensor<512xi32> loc(#loc113)
    %tmp20_49 = arith.addi %tmp20_44, %tmp20_48 : tensor<512xi32> loc(#loc114)
    %tmp20_50 = arith.constant 10240 : i32 loc(#loc115)
    %tmp20_51 = arith.constant 10240 : i32 loc(#loc115)
    %tmp20_52 = arith.constant dense<10240> : tensor<512xi32> loc(#loc115)
    %tmp20_53 = arith.muli %tmp20_52, %x2_18 : tensor<512xi32> loc(#loc115)
    %tmp20_54 = arith.addi %tmp20_49, %tmp20_53 : tensor<512xi32> loc(#loc116)
    %tmp20_55 = tt.splat %in_ptr0 : !tt.ptr<bf16> -> tensor<512x!tt.ptr<bf16>> loc(#loc117)
    %tmp20_56 = tt.addptr %tmp20_55, %tmp20_54 : tensor<512x!tt.ptr<bf16>>, tensor<512xi32> loc(#loc117)
    %tmp20_57 = tt.load %tmp20_56 : tensor<512x!tt.ptr<bf16>> loc(#loc118)
    %tmp20_58 = arith.extf %tmp20_57 : tensor<512xbf16> to tensor<512xf32> loc(#loc119)
    %tmp24 = arith.constant 256 : i32 loc(#loc120)
    %tmp24_59 = arith.constant 256 : i32 loc(#loc120)
    %tmp24_60 = arith.constant dense<256> : tensor<512xi32> loc(#loc120)
    %tmp24_61 = arith.addi %tmp24_60, %x0_8 : tensor<512xi32> loc(#loc120)
    %tmp24_62 = tt.splat %in_ptr2 : !tt.ptr<bf16> -> tensor<512x!tt.ptr<bf16>> loc(#loc121)
    %tmp24_63 = tt.addptr %tmp24_62, %tmp24_61 : tensor<512x!tt.ptr<bf16>>, tensor<512xi32> loc(#loc121)
    %tmp24_64 = tt.load %tmp24_63 evictionPolicy = evict_last : tensor<512x!tt.ptr<bf16>> loc(#loc122)
    %tmp24_65 = arith.extf %tmp24_64 : tensor<512xbf16> to tensor<512xf32> loc(#loc123)
    %tmp3 = arith.constant 5.120000e+02 : f32 loc(#loc124)
    %tmp3_66 = arith.constant dense<5.120000e+02> : tensor<1xf32> loc(#loc124)
    %tmp4 = arith.constant dense<5.120000e+02> : tensor<512xf32> loc(#loc125)
    %tmp4_67 = arith.divf %tmp2_36, %tmp4 : tensor<512xf32> loc(#loc125)
    %tmp5 = arith.constant 9.99999997E-7 : f32 loc(#loc126)
    %tmp5_68 = arith.constant dense<9.99999997E-7> : tensor<1xf32> loc(#loc126)
    %tmp6 = arith.constant dense<9.99999997E-7> : tensor<512xf32> loc(#loc127)
    %tmp6_69 = arith.addf %tmp4_67, %tmp6 : tensor<512xf32> loc(#loc127)
    %tmp7 = tt.extern_elementwise %tmp6_69 {libname = "", libpath = "", pure = true, symbol = "__nv_rsqrtf"} : (tensor<512xf32>) -> tensor<512xf32> loc(#loc128)
    %tmp8 = arith.mulf %tmp0_34, %tmp7 : tensor<512xf32> loc(#loc129)
    %tmp11 = arith.mulf %tmp8, %tmp10_39 : tensor<512xf32> loc(#loc130)
    %tmp13 = arith.constant 262144 : i32 loc(#loc131)
    %tmp13_70 = arith.constant dense<262144> : tensor<512xi32> loc(#loc131)
    %tmp14 = arith.extsi %tmp13_70 : tensor<512xi32> to tensor<512xi64> loc(#loc132)
    %tmp14_71 = arith.addi %tmp12_41, %tmp14 : tensor<512xi64> loc(#loc132)
    %tmp15 = arith.constant 0 : i32 loc(#loc133)
    %tmp15_72 = arith.extsi %tmp15 : i32 to i64 loc(#loc133)
    %tmp15_73 = tt.splat %tmp15_72 : i64 -> tensor<512xi64> loc(#loc133)
    %tmp15_74 = arith.cmpi slt, %tmp12_41, %tmp15_73 : tensor<512xi64> loc(#loc133)
    %tmp16 = arith.select %tmp15_74, %tmp14_71, %tmp12_41 : tensor<512xi1>, tensor<512xi64> loc(#loc134)
    %c0_i32 = arith.constant 0 : i32 loc(#loc48)
    %0 = arith.extsi %c0_i32 : i32 to i64 loc(#loc48)
    %1 = tt.splat %0 : i64 -> tensor<512xi64> loc(#loc48)
    %2 = arith.cmpi sle, %1, %tmp16 : tensor<512xi64> loc(#loc48)
    %c262144_i32 = arith.constant 262144 : i32 loc(#loc49)
    %3 = arith.extsi %c262144_i32 : i32 to i64 loc(#loc49)
    %4 = tt.splat %3 : i64 -> tensor<512xi64> loc(#loc49)
    %5 = arith.cmpi slt, %tmp16, %4 : tensor<512xi64> loc(#loc49)
    %6 = arith.andi %2, %5 : tensor<512xi1> loc(#loc50)
    tt.assert %6, "index out of bounds: 0 <= tmp16 < 262144" : tensor<512xi1> loc(#loc51)
    %tmp18 = arith.constant 512 : i32 loc(#loc135)
    %tmp18_75 = arith.constant 512 : i64 loc(#loc135)
    %tmp18_76 = arith.constant dense<512> : tensor<512xi64> loc(#loc135)
    %tmp18_77 = arith.muli %tmp18_76, %tmp16 : tensor<512xi64> loc(#loc135)
    %tmp18_78 = arith.extsi %x0_8 : tensor<512xi32> to tensor<512xi64> loc(#loc136)
    %tmp18_79 = arith.addi %tmp18_78, %tmp18_77 : tensor<512xi64> loc(#loc136)
    %tmp18_80 = tt.splat %in_ptr4 : !tt.ptr<bf16> -> tensor<512x!tt.ptr<bf16>> loc(#loc137)
    %tmp18_81 = tt.addptr %tmp18_80, %tmp18_79 : tensor<512x!tt.ptr<bf16>>, tensor<512xi64> loc(#loc137)
    %tmp18_82 = tt.load %tmp18_81 : tensor<512x!tt.ptr<bf16>> loc(#loc138)
    %tmp18_83 = arith.extf %tmp18_82 : tensor<512xbf16> to tensor<512xf32> loc(#loc139)
    %tmp19 = arith.mulf %tmp11, %tmp18_83 : tensor<512xf32> loc(#loc140)
    %tmp22 = arith.mulf %tmp20_58, %tmp7 : tensor<512xf32> loc(#loc141)
    %tmp25 = arith.mulf %tmp22, %tmp24_65 : tensor<512xf32> loc(#loc142)
    %tmp26 = arith.constant 256 : i32 loc(#loc143)
    %tmp26_84 = arith.constant 256 : i32 loc(#loc143)
    %tmp26_85 = arith.constant dense<256> : tensor<512xi32> loc(#loc143)
    %tmp26_86 = arith.addi %tmp26_85, %x0_8 : tensor<512xi32> loc(#loc143)
    %tmp26_87 = arith.constant 512 : i32 loc(#loc144)
    %tmp26_88 = arith.constant 512 : i64 loc(#loc144)
    %tmp26_89 = arith.constant dense<512> : tensor<512xi64> loc(#loc144)
    %tmp26_90 = arith.muli %tmp26_89, %tmp16 : tensor<512xi64> loc(#loc144)
    %tmp26_91 = arith.extsi %tmp26_86 : tensor<512xi32> to tensor<512xi64> loc(#loc145)
    %tmp26_92 = arith.addi %tmp26_91, %tmp26_90 : tensor<512xi64> loc(#loc145)
    %tmp26_93 = tt.splat %in_ptr4 : !tt.ptr<bf16> -> tensor<512x!tt.ptr<bf16>> loc(#loc146)
    %tmp26_94 = tt.addptr %tmp26_93, %tmp26_92 : tensor<512x!tt.ptr<bf16>>, tensor<512xi64> loc(#loc146)
    %tmp26_95 = tt.load %tmp26_94 : tensor<512x!tt.ptr<bf16>> loc(#loc147)
    %tmp26_96 = arith.extf %tmp26_95 : tensor<512xbf16> to tensor<512xf32> loc(#loc148)
    %tmp27 = arith.mulf %tmp25, %tmp26_96 : tensor<512xf32> loc(#loc149)
    %tmp28 = arith.subf %tmp19, %tmp27 : tensor<512xf32> loc(#loc150)
    %tmp29 = arith.mulf %tmp25, %tmp18_83 : tensor<512xf32> loc(#loc151)
    %tmp30 = arith.mulf %tmp11, %tmp26_96 : tensor<512xf32> loc(#loc152)
    %tmp31 = arith.addf %tmp29, %tmp30 : tensor<512xf32> loc(#loc153)
    %c512_i32 = arith.constant 512 : i32 loc(#loc71)
    %c512_i32_97 = arith.constant 512 : i32 loc(#loc71)
    %cst = arith.constant dense<512> : tensor<512xi32> loc(#loc71)
    %7 = arith.muli %cst, %x3_21 : tensor<512xi32> loc(#loc71)
    %8 = arith.addi %x0_8, %7 : tensor<512xi32> loc(#loc72)
    %9 = tt.splat %out_ptr0 : !tt.ptr<bf16> -> tensor<512x!tt.ptr<bf16>> loc(#loc73)
    %10 = tt.addptr %9, %8 : tensor<512x!tt.ptr<bf16>>, tensor<512xi32> loc(#loc73)
    %11 = arith.truncf %tmp28 : tensor<512xf32> to tensor<512xbf16> loc(#loc74)
    tt.store %10, %11 : tensor<512x!tt.ptr<bf16>> loc(#loc74)
    %c512_i32_98 = arith.constant 512 : i32 loc(#loc75)
    %c512_i32_99 = arith.constant 512 : i32 loc(#loc75)
    %cst_100 = arith.constant dense<512> : tensor<512xi32> loc(#loc75)
    %12 = arith.muli %cst_100, %x3_21 : tensor<512xi32> loc(#loc75)
    %13 = arith.addi %x0_8, %12 : tensor<512xi32> loc(#loc76)
    %14 = tt.splat %out_ptr1 : !tt.ptr<bf16> -> tensor<512x!tt.ptr<bf16>> loc(#loc77)
    %15 = tt.addptr %14, %13 : tensor<512x!tt.ptr<bf16>>, tensor<512xi32> loc(#loc77)
    %16 = arith.truncf %tmp31 : tensor<512xf32> to tensor<512xbf16> loc(#loc78)
    tt.store %15, %16 : tensor<512x!tt.ptr<bf16>> loc(#loc78)
    tt.return loc(#loc79)
  } loc(#loc)
} loc(#loc)
#loc1 = loc("/home/ericbuehler/.cache/vllm/torch_compile_cache/torch_aot_compile/90537ea14f244a5187d6ecc853fbadcf440d710f29c8e182fe8151f3f7751a82/inductor_cache/ja/cjafdt63rw3jx4ifyjplskzvi4iz3iwmshik6i4f3nnlza25v3aj.py":23:28)
#loc2 = loc("/home/ericbuehler/.cache/vllm/torch_compile_cache/torch_aot_compile/90537ea14f244a5187d6ecc853fbadcf440d710f29c8e182fe8151f3f7751a82/inductor_cache/ja/cjafdt63rw3jx4ifyjplskzvi4iz3iwmshik6i4f3nnlza25v3aj.py":23:33)
#loc3 = loc("/home/ericbuehler/.cache/vllm/torch_compile_cache/torch_aot_compile/90537ea14f244a5187d6ecc853fbadcf440d710f29c8e182fe8151f3f7751a82/inductor_cache/ja/cjafdt63rw3jx4ifyjplskzvi4iz3iwmshik6i4f3nnlza25v3aj.py":24:36)
#loc4 = loc("/home/ericbuehler/.cache/vllm/torch_compile_cache/torch_aot_compile/90537ea14f244a5187d6ecc853fbadcf440d710f29c8e182fe8151f3f7751a82/inductor_cache/ja/cjafdt63rw3jx4ifyjplskzvi4iz3iwmshik6i4f3nnlza25v3aj.py":24:23)
#loc5 = loc("/home/ericbuehler/.cache/vllm/torch_compile_cache/torch_aot_compile/90537ea14f244a5187d6ecc853fbadcf440d710f29c8e182fe8151f3f7751a82/inductor_cache/ja/cjafdt63rw3jx4ifyjplskzvi4iz3iwmshik6i4f3nnlza25v3aj.py":25:36)
#loc6 = loc("/home/ericbuehler/.cache/vllm/torch_compile_cache/torch_aot_compile/90537ea14f244a5187d6ecc853fbadcf440d710f29c8e182fe8151f3f7751a82/inductor_cache/ja/cjafdt63rw3jx4ifyjplskzvi4iz3iwmshik6i4f3nnlza25v3aj.py":26:19)
#loc7 = loc("/home/ericbuehler/.cache/vllm/torch_compile_cache/torch_aot_compile/90537ea14f244a5187d6ecc853fbadcf440d710f29c8e182fe8151f3f7751a82/inductor_cache/ja/cjafdt63rw3jx4ifyjplskzvi4iz3iwmshik6i4f3nnlza25v3aj.py":27:21)
#loc8 = loc("/home/ericbuehler/.cache/vllm/torch_compile_cache/torch_aot_compile/90537ea14f244a5187d6ecc853fbadcf440d710f29c8e182fe8151f3f7751a82/inductor_cache/ja/cjafdt63rw3jx4ifyjplskzvi4iz3iwmshik6i4f3nnlza25v3aj.py":27:28)
#loc9 = loc("/home/ericbuehler/.cache/vllm/torch_compile_cache/torch_aot_compile/90537ea14f244a5187d6ecc853fbadcf440d710f29c8e182fe8151f3f7751a82/inductor_cache/ja/cjafdt63rw3jx4ifyjplskzvi4iz3iwmshik6i4f3nnlza25v3aj.py":28:19)
#loc10 = loc("/home/ericbuehler/.cache/vllm/torch_compile_cache/torch_aot_compile/90537ea14f244a5187d6ecc853fbadcf440d710f29c8e182fe8151f3f7751a82/inductor_cache/ja/cjafdt63rw3jx4ifyjplskzvi4iz3iwmshik6i4f3nnlza25v3aj.py":29:19)
#loc11 = loc("/home/ericbuehler/.cache/vllm/torch_compile_cache/torch_aot_compile/90537ea14f244a5187d6ecc853fbadcf440d710f29c8e182fe8151f3f7751a82/inductor_cache/ja/cjafdt63rw3jx4ifyjplskzvi4iz3iwmshik6i4f3nnlza25v3aj.py":30:39)
#loc12 = loc("/home/ericbuehler/.cache/vllm/torch_compile_cache/torch_aot_compile/90537ea14f244a5187d6ecc853fbadcf440d710f29c8e182fe8151f3f7751a82/inductor_cache/ja/cjafdt63rw3jx4ifyjplskzvi4iz3iwmshik6i4f3nnlza25v3aj.py":30:35)
#loc13 = loc("/home/ericbuehler/.cache/vllm/torch_compile_cache/torch_aot_compile/90537ea14f244a5187d6ecc853fbadcf440d710f29c8e182fe8151f3f7751a82/inductor_cache/ja/cjafdt63rw3jx4ifyjplskzvi4iz3iwmshik6i4f3nnlza25v3aj.py":30:50)
#loc14 = loc("/home/ericbuehler/.cache/vllm/torch_compile_cache/torch_aot_compile/90537ea14f244a5187d6ecc853fbadcf440d710f29c8e182fe8151f3f7751a82/inductor_cache/ja/cjafdt63rw3jx4ifyjplskzvi4iz3iwmshik6i4f3nnlza25v3aj.py":30:44)
#loc15 = loc("/home/ericbuehler/.cache/vllm/torch_compile_cache/torch_aot_compile/90537ea14f244a5187d6ecc853fbadcf440d710f29c8e182fe8151f3f7751a82/inductor_cache/ja/cjafdt63rw3jx4ifyjplskzvi4iz3iwmshik6i4f3nnlza25v3aj.py":30:30)
#loc16 = loc("/home/ericbuehler/.cache/vllm/torch_compile_cache/torch_aot_compile/90537ea14f244a5187d6ecc853fbadcf440d710f29c8e182fe8151f3f7751a82/inductor_cache/ja/cjafdt63rw3jx4ifyjplskzvi4iz3iwmshik6i4f3nnlza25v3aj.py":30:55)
#loc17 = loc("/home/ericbuehler/.cache/vllm/torch_compile_cache/torch_aot_compile/90537ea14f244a5187d6ecc853fbadcf440d710f29c8e182fe8151f3f7751a82/inductor_cache/ja/cjafdt63rw3jx4ifyjplskzvi4iz3iwmshik6i4f3nnlza25v3aj.py":30:64)
#loc18 = loc("/home/ericbuehler/.cache/vllm/torch_compile_cache/torch_aot_compile/90537ea14f244a5187d6ecc853fbadcf440d710f29c8e182fe8151f3f7751a82/inductor_cache/ja/cjafdt63rw3jx4ifyjplskzvi4iz3iwmshik6i4f3nnlza25v3aj.py":31:30)
#loc19 = loc("/home/ericbuehler/.cache/vllm/torch_compile_cache/torch_aot_compile/90537ea14f244a5187d6ecc853fbadcf440d710f29c8e182fe8151f3f7751a82/inductor_cache/ja/cjafdt63rw3jx4ifyjplskzvi4iz3iwmshik6i4f3nnlza25v3aj.py":31:35)
#loc20 = loc("/home/ericbuehler/.cache/vllm/torch_compile_cache/torch_aot_compile/90537ea14f244a5187d6ecc853fbadcf440d710f29c8e182fe8151f3f7751a82/inductor_cache/ja/cjafdt63rw3jx4ifyjplskzvi4iz3iwmshik6i4f3nnlza25v3aj.py":32:31)
#loc21 = loc("/home/ericbuehler/.cache/vllm/torch_compile_cache/torch_aot_compile/90537ea14f244a5187d6ecc853fbadcf440d710f29c8e182fe8151f3f7751a82/inductor_cache/ja/cjafdt63rw3jx4ifyjplskzvi4iz3iwmshik6i4f3nnlza25v3aj.py":32:36)
#loc22 = loc("/home/ericbuehler/.cache/vllm/torch_compile_cache/torch_aot_compile/90537ea14f244a5187d6ecc853fbadcf440d710f29c8e182fe8151f3f7751a82/inductor_cache/ja/cjafdt63rw3jx4ifyjplskzvi4iz3iwmshik6i4f3nnlza25v3aj.py":32:75)
#loc23 = loc("/home/ericbuehler/.cache/vllm/torch_compile_cache/torch_aot_compile/90537ea14f244a5187d6ecc853fbadcf440d710f29c8e182fe8151f3f7751a82/inductor_cache/ja/cjafdt63rw3jx4ifyjplskzvi4iz3iwmshik6i4f3nnlza25v3aj.py":33:31)
#loc24 = loc("/home/ericbuehler/.cache/vllm/torch_compile_cache/torch_aot_compile/90537ea14f244a5187d6ecc853fbadcf440d710f29c8e182fe8151f3f7751a82/inductor_cache/ja/cjafdt63rw3jx4ifyjplskzvi4iz3iwmshik6i4f3nnlza25v3aj.py":33:36)
#loc25 = loc("/home/ericbuehler/.cache/vllm/torch_compile_cache/torch_aot_compile/90537ea14f244a5187d6ecc853fbadcf440d710f29c8e182fe8151f3f7751a82/inductor_cache/ja/cjafdt63rw3jx4ifyjplskzvi4iz3iwmshik6i4f3nnlza25v3aj.py":34:37)
#loc26 = loc("/home/ericbuehler/.cache/vllm/torch_compile_cache/torch_aot_compile/90537ea14f244a5187d6ecc853fbadcf440d710f29c8e182fe8151f3f7751a82/inductor_cache/ja/cjafdt63rw3jx4ifyjplskzvi4iz3iwmshik6i4f3nnlza25v3aj.py":34:46)
#loc27 = loc("/home/ericbuehler/.cache/vllm/torch_compile_cache/torch_aot_compile/90537ea14f244a5187d6ecc853fbadcf440d710f29c8e182fe8151f3f7751a82/inductor_cache/ja/cjafdt63rw3jx4ifyjplskzvi4iz3iwmshik6i4f3nnlza25v3aj.py":34:42)
#loc28 = loc("/home/ericbuehler/.cache/vllm/torch_compile_cache/torch_aot_compile/90537ea14f244a5187d6ecc853fbadcf440d710f29c8e182fe8151f3f7751a82/inductor_cache/ja/cjafdt63rw3jx4ifyjplskzvi4iz3iwmshik6i4f3nnlza25v3aj.py":34:57)
#loc29 = loc("/home/ericbuehler/.cache/vllm/torch_compile_cache/torch_aot_compile/90537ea14f244a5187d6ecc853fbadcf440d710f29c8e182fe8151f3f7751a82/inductor_cache/ja/cjafdt63rw3jx4ifyjplskzvi4iz3iwmshik6i4f3nnlza25v3aj.py":34:51)
#loc30 = loc("/home/ericbuehler/.cache/vllm/torch_compile_cache/torch_aot_compile/90537ea14f244a5187d6ecc853fbadcf440d710f29c8e182fe8151f3f7751a82/inductor_cache/ja/cjafdt63rw3jx4ifyjplskzvi4iz3iwmshik6i4f3nnlza25v3aj.py":34:31)
#loc31 = loc("/home/ericbuehler/.cache/vllm/torch_compile_cache/torch_aot_compile/90537ea14f244a5187d6ecc853fbadcf440d710f29c8e182fe8151f3f7751a82/inductor_cache/ja/cjafdt63rw3jx4ifyjplskzvi4iz3iwmshik6i4f3nnlza25v3aj.py":34:62)
#loc32 = loc("/home/ericbuehler/.cache/vllm/torch_compile_cache/torch_aot_compile/90537ea14f244a5187d6ecc853fbadcf440d710f29c8e182fe8151f3f7751a82/inductor_cache/ja/cjafdt63rw3jx4ifyjplskzvi4iz3iwmshik6i4f3nnlza25v3aj.py":34:71)
#loc33 = loc("/home/ericbuehler/.cache/vllm/torch_compile_cache/torch_aot_compile/90537ea14f244a5187d6ecc853fbadcf440d710f29c8e182fe8151f3f7751a82/inductor_cache/ja/cjafdt63rw3jx4ifyjplskzvi4iz3iwmshik6i4f3nnlza25v3aj.py":35:37)
#loc34 = loc("/home/ericbuehler/.cache/vllm/torch_compile_cache/torch_aot_compile/90537ea14f244a5187d6ecc853fbadcf440d710f29c8e182fe8151f3f7751a82/inductor_cache/ja/cjafdt63rw3jx4ifyjplskzvi4iz3iwmshik6i4f3nnlza25v3aj.py":35:31)
#loc35 = loc("/home/ericbuehler/.cache/vllm/torch_compile_cache/torch_aot_compile/90537ea14f244a5187d6ecc853fbadcf440d710f29c8e182fe8151f3f7751a82/inductor_cache/ja/cjafdt63rw3jx4ifyjplskzvi4iz3iwmshik6i4f3nnlza25v3aj.py":35:42)
#loc36 = loc("/home/ericbuehler/.cache/vllm/torch_compile_cache/torch_aot_compile/90537ea14f244a5187d6ecc853fbadcf440d710f29c8e182fe8151f3f7751a82/inductor_cache/ja/cjafdt63rw3jx4ifyjplskzvi4iz3iwmshik6i4f3nnlza25v3aj.py":35:81)
#loc37 = loc("/home/ericbuehler/.cache/vllm/torch_compile_cache/torch_aot_compile/90537ea14f244a5187d6ecc853fbadcf440d710f29c8e182fe8151f3f7751a82/inductor_cache/ja/cjafdt63rw3jx4ifyjplskzvi4iz3iwmshik6i4f3nnlza25v3aj.py":37:31)
#loc38 = loc("/home/ericbuehler/.cache/vllm/torch_compile_cache/torch_aot_compile/90537ea14f244a5187d6ecc853fbadcf440d710f29c8e182fe8151f3f7751a82/inductor_cache/ja/cjafdt63rw3jx4ifyjplskzvi4iz3iwmshik6i4f3nnlza25v3aj.py":38:19)
#loc39 = loc("/home/ericbuehler/.cache/vllm/torch_compile_cache/torch_aot_compile/90537ea14f244a5187d6ecc853fbadcf440d710f29c8e182fe8151f3f7751a82/inductor_cache/ja/cjafdt63rw3jx4ifyjplskzvi4iz3iwmshik6i4f3nnlza25v3aj.py":39:31)
#loc40 = loc("/home/ericbuehler/.cache/vllm/torch_compile_cache/torch_aot_compile/90537ea14f244a5187d6ecc853fbadcf440d710f29c8e182fe8151f3f7751a82/inductor_cache/ja/cjafdt63rw3jx4ifyjplskzvi4iz3iwmshik6i4f3nnlza25v3aj.py":40:18)
#loc41 = loc("/home/ericbuehler/.cache/vllm/torch_compile_cache/torch_aot_compile/90537ea14f244a5187d6ecc853fbadcf440d710f29c8e182fe8151f3f7751a82/inductor_cache/ja/cjafdt63rw3jx4ifyjplskzvi4iz3iwmshik6i4f3nnlza25v3aj.py":41:27)
#loc42 = loc("/home/ericbuehler/.cache/vllm/torch_compile_cache/torch_aot_compile/90537ea14f244a5187d6ecc853fbadcf440d710f29c8e182fe8151f3f7751a82/inductor_cache/ja/cjafdt63rw3jx4ifyjplskzvi4iz3iwmshik6i4f3nnlza25v3aj.py":42:18)
#loc43 = loc("/home/ericbuehler/.cache/vllm/torch_compile_cache/torch_aot_compile/90537ea14f244a5187d6ecc853fbadcf440d710f29c8e182fe8151f3f7751a82/inductor_cache/ja/cjafdt63rw3jx4ifyjplskzvi4iz3iwmshik6i4f3nnlza25v3aj.py":44:19)
#loc44 = loc("/home/ericbuehler/.cache/vllm/torch_compile_cache/torch_aot_compile/90537ea14f244a5187d6ecc853fbadcf440d710f29c8e182fe8151f3f7751a82/inductor_cache/ja/cjafdt63rw3jx4ifyjplskzvi4iz3iwmshik6i4f3nnlza25v3aj.py":45:38)
#loc45 = loc("/home/ericbuehler/.cache/vllm/torch_compile_cache/torch_aot_compile/90537ea14f244a5187d6ecc853fbadcf440d710f29c8e182fe8151f3f7751a82/inductor_cache/ja/cjafdt63rw3jx4ifyjplskzvi4iz3iwmshik6i4f3nnlza25v3aj.py":46:20)
#loc46 = loc("/home/ericbuehler/.cache/vllm/torch_compile_cache/torch_aot_compile/90537ea14f244a5187d6ecc853fbadcf440d710f29c8e182fe8151f3f7751a82/inductor_cache/ja/cjafdt63rw3jx4ifyjplskzvi4iz3iwmshik6i4f3nnlza25v3aj.py":47:20)
#loc47 = loc("/home/ericbuehler/.cache/vllm/torch_compile_cache/torch_aot_compile/90537ea14f244a5187d6ecc853fbadcf440d710f29c8e182fe8151f3f7751a82/inductor_cache/ja/cjafdt63rw3jx4ifyjplskzvi4iz3iwmshik6i4f3nnlza25v3aj.py":48:35)
#loc48 = loc("/home/ericbuehler/.cache/vllm/torch_compile_cache/torch_aot_compile/90537ea14f244a5187d6ecc853fbadcf440d710f29c8e182fe8151f3f7751a82/inductor_cache/ja/cjafdt63rw3jx4ifyjplskzvi4iz3iwmshik6i4f3nnlza25v3aj.py":49:27)
#loc49 = loc("/home/ericbuehler/.cache/vllm/torch_compile_cache/torch_aot_compile/90537ea14f244a5187d6ecc853fbadcf440d710f29c8e182fe8151f3f7751a82/inductor_cache/ja/cjafdt63rw3jx4ifyjplskzvi4iz3iwmshik6i4f3nnlza25v3aj.py":49:45)
#loc50 = loc("/home/ericbuehler/.cache/vllm/torch_compile_cache/torch_aot_compile/90537ea14f244a5187d6ecc853fbadcf440d710f29c8e182fe8151f3f7751a82/inductor_cache/ja/cjafdt63rw3jx4ifyjplskzvi4iz3iwmshik6i4f3nnlza25v3aj.py":49:37)
#loc51 = loc("/home/ericbuehler/.cache/vllm/torch_compile_cache/torch_aot_compile/90537ea14f244a5187d6ecc853fbadcf440d710f29c8e182fe8151f3f7751a82/inductor_cache/ja/cjafdt63rw3jx4ifyjplskzvi4iz3iwmshik6i4f3nnlza25v3aj.py":49:54)
#loc52 = loc("/home/ericbuehler/.cache/vllm/torch_compile_cache/torch_aot_compile/90537ea14f244a5187d6ecc853fbadcf440d710f29c8e182fe8151f3f7751a82/inductor_cache/ja/cjafdt63rw3jx4ifyjplskzvi4iz3iwmshik6i4f3nnlza25v3aj.py":50:40)
#loc53 = loc("/home/ericbuehler/.cache/vllm/torch_compile_cache/torch_aot_compile/90537ea14f244a5187d6ecc853fbadcf440d710f29c8e182fe8151f3f7751a82/inductor_cache/ja/cjafdt63rw3jx4ifyjplskzvi4iz3iwmshik6i4f3nnlza25v3aj.py":50:36)
#loc54 = loc("/home/ericbuehler/.cache/vllm/torch_compile_cache/torch_aot_compile/90537ea14f244a5187d6ecc853fbadcf440d710f29c8e182fe8151f3f7751a82/inductor_cache/ja/cjafdt63rw3jx4ifyjplskzvi4iz3iwmshik6i4f3nnlza25v3aj.py":50:31)
#loc55 = loc("/home/ericbuehler/.cache/vllm/torch_compile_cache/torch_aot_compile/90537ea14f244a5187d6ecc853fbadcf440d710f29c8e182fe8151f3f7751a82/inductor_cache/ja/cjafdt63rw3jx4ifyjplskzvi4iz3iwmshik6i4f3nnlza25v3aj.py":50:48)
#loc56 = loc("/home/ericbuehler/.cache/vllm/torch_compile_cache/torch_aot_compile/90537ea14f244a5187d6ecc853fbadcf440d710f29c8e182fe8151f3f7751a82/inductor_cache/ja/cjafdt63rw3jx4ifyjplskzvi4iz3iwmshik6i4f3nnlza25v3aj.py":50:57)
#loc57 = loc("/home/ericbuehler/.cache/vllm/torch_compile_cache/torch_aot_compile/90537ea14f244a5187d6ecc853fbadcf440d710f29c8e182fe8151f3f7751a82/inductor_cache/ja/cjafdt63rw3jx4ifyjplskzvi4iz3iwmshik6i4f3nnlza25v3aj.py":51:20)
#loc58 = loc("/home/ericbuehler/.cache/vllm/torch_compile_cache/torch_aot_compile/90537ea14f244a5187d6ecc853fbadcf440d710f29c8e182fe8151f3f7751a82/inductor_cache/ja/cjafdt63rw3jx4ifyjplskzvi4iz3iwmshik6i4f3nnlza25v3aj.py":53:20)
#loc59 = loc("/home/ericbuehler/.cache/vllm/torch_compile_cache/torch_aot_compile/90537ea14f244a5187d6ecc853fbadcf440d710f29c8e182fe8151f3f7751a82/inductor_cache/ja/cjafdt63rw3jx4ifyjplskzvi4iz3iwmshik6i4f3nnlza25v3aj.py":55:20)
#loc60 = loc("/home/ericbuehler/.cache/vllm/torch_compile_cache/torch_aot_compile/90537ea14f244a5187d6ecc853fbadcf440d710f29c8e182fe8151f3f7751a82/inductor_cache/ja/cjafdt63rw3jx4ifyjplskzvi4iz3iwmshik6i4f3nnlza25v3aj.py":56:37)
#loc61 = loc("/home/ericbuehler/.cache/vllm/torch_compile_cache/torch_aot_compile/90537ea14f244a5187d6ecc853fbadcf440d710f29c8e182fe8151f3f7751a82/inductor_cache/ja/cjafdt63rw3jx4ifyjplskzvi4iz3iwmshik6i4f3nnlza25v3aj.py":56:46)
#loc62 = loc("/home/ericbuehler/.cache/vllm/torch_compile_cache/torch_aot_compile/90537ea14f244a5187d6ecc853fbadcf440d710f29c8e182fe8151f3f7751a82/inductor_cache/ja/cjafdt63rw3jx4ifyjplskzvi4iz3iwmshik6i4f3nnlza25v3aj.py":56:42)
#loc63 = loc("/home/ericbuehler/.cache/vllm/torch_compile_cache/torch_aot_compile/90537ea14f244a5187d6ecc853fbadcf440d710f29c8e182fe8151f3f7751a82/inductor_cache/ja/cjafdt63rw3jx4ifyjplskzvi4iz3iwmshik6i4f3nnlza25v3aj.py":56:31)
#loc64 = loc("/home/ericbuehler/.cache/vllm/torch_compile_cache/torch_aot_compile/90537ea14f244a5187d6ecc853fbadcf440d710f29c8e182fe8151f3f7751a82/inductor_cache/ja/cjafdt63rw3jx4ifyjplskzvi4iz3iwmshik6i4f3nnlza25v3aj.py":56:54)
#loc65 = loc("/home/ericbuehler/.cache/vllm/torch_compile_cache/torch_aot_compile/90537ea14f244a5187d6ecc853fbadcf440d710f29c8e182fe8151f3f7751a82/inductor_cache/ja/cjafdt63rw3jx4ifyjplskzvi4iz3iwmshik6i4f3nnlza25v3aj.py":56:63)
#loc66 = loc("/home/ericbuehler/.cache/vllm/torch_compile_cache/torch_aot_compile/90537ea14f244a5187d6ecc853fbadcf440d710f29c8e182fe8151f3f7751a82/inductor_cache/ja/cjafdt63rw3jx4ifyjplskzvi4iz3iwmshik6i4f3nnlza25v3aj.py":57:20)
#loc67 = loc("/home/ericbuehler/.cache/vllm/torch_compile_cache/torch_aot_compile/90537ea14f244a5187d6ecc853fbadcf440d710f29c8e182fe8151f3f7751a82/inductor_cache/ja/cjafdt63rw3jx4ifyjplskzvi4iz3iwmshik6i4f3nnlza25v3aj.py":58:20)
#loc68 = loc("/home/ericbuehler/.cache/vllm/torch_compile_cache/torch_aot_compile/90537ea14f244a5187d6ecc853fbadcf440d710f29c8e182fe8151f3f7751a82/inductor_cache/ja/cjafdt63rw3jx4ifyjplskzvi4iz3iwmshik6i4f3nnlza25v3aj.py":59:20)
#loc69 = loc("/home/ericbuehler/.cache/vllm/torch_compile_cache/torch_aot_compile/90537ea14f244a5187d6ecc853fbadcf440d710f29c8e182fe8151f3f7751a82/inductor_cache/ja/cjafdt63rw3jx4ifyjplskzvi4iz3iwmshik6i4f3nnlza25v3aj.py":60:20)
#loc70 = loc("/home/ericbuehler/.cache/vllm/torch_compile_cache/torch_aot_compile/90537ea14f244a5187d6ecc853fbadcf440d710f29c8e182fe8151f3f7751a82/inductor_cache/ja/cjafdt63rw3jx4ifyjplskzvi4iz3iwmshik6i4f3nnlza25v3aj.py":61:20)
#loc71 = loc("/home/ericbuehler/.cache/vllm/torch_compile_cache/torch_aot_compile/90537ea14f244a5187d6ecc853fbadcf440d710f29c8e182fe8151f3f7751a82/inductor_cache/ja/cjafdt63rw3jx4ifyjplskzvi4iz3iwmshik6i4f3nnlza25v3aj.py":62:34)
#loc72 = loc("/home/ericbuehler/.cache/vllm/torch_compile_cache/torch_aot_compile/90537ea14f244a5187d6ecc853fbadcf440d710f29c8e182fe8151f3f7751a82/inductor_cache/ja/cjafdt63rw3jx4ifyjplskzvi4iz3iwmshik6i4f3nnlza25v3aj.py":62:30)
#loc73 = loc("/home/ericbuehler/.cache/vllm/torch_compile_cache/torch_aot_compile/90537ea14f244a5187d6ecc853fbadcf440d710f29c8e182fe8151f3f7751a82/inductor_cache/ja/cjafdt63rw3jx4ifyjplskzvi4iz3iwmshik6i4f3nnlza25v3aj.py":62:25)
#loc74 = loc("/home/ericbuehler/.cache/vllm/torch_compile_cache/torch_aot_compile/90537ea14f244a5187d6ecc853fbadcf440d710f29c8e182fe8151f3f7751a82/inductor_cache/ja/cjafdt63rw3jx4ifyjplskzvi4iz3iwmshik6i4f3nnlza25v3aj.py":62:46)
#loc75 = loc("/home/ericbuehler/.cache/vllm/torch_compile_cache/torch_aot_compile/90537ea14f244a5187d6ecc853fbadcf440d710f29c8e182fe8151f3f7751a82/inductor_cache/ja/cjafdt63rw3jx4ifyjplskzvi4iz3iwmshik6i4f3nnlza25v3aj.py":63:34)
#loc76 = loc("/home/ericbuehler/.cache/vllm/torch_compile_cache/torch_aot_compile/90537ea14f244a5187d6ecc853fbadcf440d710f29c8e182fe8151f3f7751a82/inductor_cache/ja/cjafdt63rw3jx4ifyjplskzvi4iz3iwmshik6i4f3nnlza25v3aj.py":63:30)
#loc77 = loc("/home/ericbuehler/.cache/vllm/torch_compile_cache/torch_aot_compile/90537ea14f244a5187d6ecc853fbadcf440d710f29c8e182fe8151f3f7751a82/inductor_cache/ja/cjafdt63rw3jx4ifyjplskzvi4iz3iwmshik6i4f3nnlza25v3aj.py":63:25)
#loc78 = loc("/home/ericbuehler/.cache/vllm/torch_compile_cache/torch_aot_compile/90537ea14f244a5187d6ecc853fbadcf440d710f29c8e182fe8151f3f7751a82/inductor_cache/ja/cjafdt63rw3jx4ifyjplskzvi4iz3iwmshik6i4f3nnlza25v3aj.py":63:46)
#loc79 = loc("/home/ericbuehler/.cache/vllm/torch_compile_cache/torch_aot_compile/90537ea14f244a5187d6ecc853fbadcf440d710f29c8e182fe8151f3f7751a82/inductor_cache/ja/cjafdt63rw3jx4ifyjplskzvi4iz3iwmshik6i4f3nnlza25v3aj.py":63:4)
#loc88 = loc("xoffset"(#loc1))
#loc89 = loc("xoffset"(#loc2))
#loc90 = loc("xindex"(#loc3))
#loc91 = loc("xindex"(#loc4))
#loc92 = loc("xmask"(#loc5))
#loc93 = loc("x0"(#loc6))
#loc94 = loc("x1"(#loc7))
#loc95 = loc("x1"(#loc8))
#loc96 = loc("x2"(#loc9))
#loc97 = loc("x3"(#loc10))
#loc98 = loc("tmp0"(#loc11))
#loc99 = loc("tmp0"(#loc12))
#loc100 = loc("tmp0"(#loc13))
#loc101 = loc("tmp0"(#loc14))
#loc102 = loc("tmp0"(#loc15))
#loc103 = loc("tmp0"(#loc16))
#loc104 = loc("tmp0"(#loc17))
#loc105 = loc("tmp2"(#loc18))
#loc106 = loc("tmp2"(#loc19))
#loc107 = loc("tmp10"(#loc20))
#loc108 = loc("tmp10"(#loc21))
#loc109 = loc("tmp10"(#loc22))
#loc110 = loc("tmp12"(#loc23))
#loc111 = loc("tmp12"(#loc24))
#loc112 = loc("tmp20"(#loc25))
#loc113 = loc("tmp20"(#loc26))
#loc114 = loc("tmp20"(#loc27))
#loc115 = loc("tmp20"(#loc28))
#loc116 = loc("tmp20"(#loc29))
#loc117 = loc("tmp20"(#loc30))
#loc118 = loc("tmp20"(#loc31))
#loc119 = loc("tmp20"(#loc32))
#loc120 = loc("tmp24"(#loc33))
#loc121 = loc("tmp24"(#loc34))
#loc122 = loc("tmp24"(#loc35))
#loc123 = loc("tmp24"(#loc36))
#loc124 = loc("tmp3"(#loc37))
#loc125 = loc("tmp4"(#loc38))
#loc126 = loc("tmp5"(#loc39))
#loc127 = loc("tmp6"(#loc40))
#loc128 = loc("tmp7"(#loc41))
#loc129 = loc("tmp8"(#loc42))
#loc130 = loc("tmp11"(#loc43))
#loc131 = loc("tmp13"(#loc44))
#loc132 = loc("tmp14"(#loc45))
#loc133 = loc("tmp15"(#loc46))
#loc134 = loc("tmp16"(#loc47))
#loc135 = loc("tmp18"(#loc52))
#loc136 = loc("tmp18"(#loc53))
#loc137 = loc("tmp18"(#loc54))
#loc138 = loc("tmp18"(#loc55))
#loc139 = loc("tmp18"(#loc56))
#loc140 = loc("tmp19"(#loc57))
#loc141 = loc("tmp22"(#loc58))
#loc142 = loc("tmp25"(#loc59))
#loc143 = loc("tmp26"(#loc60))
#loc144 = loc("tmp26"(#loc61))
#loc145 = loc("tmp26"(#loc62))
#loc146 = loc("tmp26"(#loc63))
#loc147 = loc("tmp26"(#loc64))
#loc148 = loc("tmp26"(#loc65))
#loc149 = loc("tmp27"(#loc66))
#loc150 = loc("tmp28"(#loc67))
#loc151 = loc("tmp29"(#loc68))
#loc152 = loc("tmp30"(#loc69))
#loc153 = loc("tmp31"(#loc70))
