#loc = loc("/home/ericbuehler/vllm/.venv-bench/lib/python3.12/site-packages/vllm/v1/attention/ops/triton_unified_attention.py":58:0)
#loc1 = loc(unknown)
#loc6 = loc("/home/ericbuehler/vllm/.venv-bench/lib/python3.12/site-packages/vllm/v1/attention/ops/triton_attention_helpers.py":67:68)
#loc7 = loc("/home/ericbuehler/vllm/.venv-bench/lib/python3.12/site-packages/vllm/v1/attention/ops/triton_unified_attention.py":157:73)
#loc9 = loc("left")
#loc10 = loc("right")
#loc131 = loc("/home/ericbuehler/vllm/.venv-bench/lib/python3.12/site-packages/vllm/v1/attention/ops/triton_attention_helpers.py":371:31)
#loc132 = loc("/home/ericbuehler/vllm/.venv-bench/lib/python3.12/site-packages/vllm/v1/attention/ops/triton_unified_attention.py":325:44)
#loc141 = loc("/home/ericbuehler/vllm/.venv-bench/lib/python3.12/site-packages/vllm/v1/attention/ops/triton_attention_helpers.py":378:17)
#loc172 = loc("output_ptr"(#loc))
#loc173 = loc("segm_output_ptr"(#loc))
#loc174 = loc("segm_max_ptr"(#loc))
#loc175 = loc("segm_expsum_ptr"(#loc))
#loc176 = loc("query_ptr"(#loc))
#loc177 = loc("key_cache_ptr"(#loc))
#loc178 = loc("value_cache_ptr"(#loc))
#loc179 = loc("block_tables_ptr"(#loc))
#loc180 = loc("seq_lens_ptr"(#loc))
#loc181 = loc("k_scale_cache_ptr"(#loc))
#loc182 = loc("v_scale_cache_ptr"(#loc))
#loc183 = loc("scale"(#loc))
#loc184 = loc("k_scale"(#loc))
#loc185 = loc("v_scale"(#loc))
#loc186 = loc("out_scale"(#loc))
#loc187 = loc("softcap"(#loc))
#loc188 = loc("block_table_stride"(#loc))
#loc189 = loc("query_stride_0"(#loc))
#loc190 = loc("query_stride_1"(#loc))
#loc191 = loc("output_stride_0"(#loc))
#loc192 = loc("output_stride_1"(#loc))
#loc193 = loc("qq_bias_stride_0"(#loc))
#loc194 = loc("stride_k_cache_0"(#loc))
#loc195 = loc("stride_k_cache_1"(#loc))
#loc196 = loc("stride_k_cache_2"(#loc))
#loc197 = loc("stride_v_cache_0"(#loc))
#loc198 = loc("stride_v_cache_1"(#loc))
#loc199 = loc("stride_v_cache_2"(#loc))
#loc200 = loc("stride_ks_blk"(#loc))
#loc201 = loc("stride_ks_slot"(#loc))
#loc202 = loc("stride_ks_head"(#loc))
#loc203 = loc("stride_vs_blk"(#loc))
#loc204 = loc("stride_vs_slot"(#loc))
#loc205 = loc("stride_vs_head"(#loc))
#loc206 = loc("query_start_len_ptr"(#loc))
#loc207 = loc("num_seqs"(#loc))
#loc212 = loc("seq_idx"(#loc6))
#loc213 = loc("left"(#loc9))
#loc214 = loc("right"(#loc10))
#loc321 = loc("m_j"(#loc131))
#loc328 = loc("l_j"(#loc141))
#loc354 = loc(callsite(#loc212 at #loc7))
#loc380 = loc(callsite(#loc321 at #loc132))
#loc387 = loc(callsite(#loc328 at #loc132))
#loc399 = loc(callsite(#loc213 at #loc354))
#loc400 = loc(callsite(#loc214 at #loc354))
#loc416 = loc(callsite(#loc1 at #loc380))
#loc418 = loc(callsite(#loc1 at #loc387))
module {
  tt.func public @kernel_unified_attention(%output_ptr: !tt.ptr<bf16> {tt.divisibility = 16 : i32} loc("output_ptr"(#loc)), %segm_output_ptr: !tt.ptr<f32> {tt.divisibility = 16 : i32} loc("segm_output_ptr"(#loc)), %segm_max_ptr: !tt.ptr<f32> {tt.divisibility = 16 : i32} loc("segm_max_ptr"(#loc)), %segm_expsum_ptr: !tt.ptr<f32> {tt.divisibility = 16 : i32} loc("segm_expsum_ptr"(#loc)), %query_ptr: !tt.ptr<bf16> {tt.divisibility = 16 : i32} loc("query_ptr"(#loc)), %key_cache_ptr: !tt.ptr<bf16> {tt.divisibility = 16 : i32} loc("key_cache_ptr"(#loc)), %value_cache_ptr: !tt.ptr<bf16> {tt.divisibility = 16 : i32} loc("value_cache_ptr"(#loc)), %block_tables_ptr: !tt.ptr<i32> {tt.divisibility = 16 : i32} loc("block_tables_ptr"(#loc)), %seq_lens_ptr: !tt.ptr<i32> {tt.divisibility = 16 : i32} loc("seq_lens_ptr"(#loc)), %k_scale_cache_ptr: !tt.ptr<bf16> {tt.divisibility = 16 : i32} loc("k_scale_cache_ptr"(#loc)), %v_scale_cache_ptr: !tt.ptr<bf16> {tt.divisibility = 16 : i32} loc("v_scale_cache_ptr"(#loc)), %scale: f32 loc("scale"(#loc)), %k_scale: !tt.ptr<f32> {tt.divisibility = 16 : i32} loc("k_scale"(#loc)), %v_scale: !tt.ptr<f32> {tt.divisibility = 16 : i32} loc("v_scale"(#loc)), %out_scale: f32 loc("out_scale"(#loc)), %softcap: i32 {tt.divisibility = 16 : i32} loc("softcap"(#loc)), %block_table_stride: i64 loc("block_table_stride"(#loc)), %query_stride_0: i64 {tt.divisibility = 16 : i32} loc("query_stride_0"(#loc)), %query_stride_1: i64 {tt.divisibility = 16 : i32} loc("query_stride_1"(#loc)), %output_stride_0: i64 {tt.divisibility = 16 : i32} loc("output_stride_0"(#loc)), %output_stride_1: i64 {tt.divisibility = 16 : i32} loc("output_stride_1"(#loc)), %qq_bias_stride_0: i64 {tt.divisibility = 16 : i32} loc("qq_bias_stride_0"(#loc)), %stride_k_cache_0: i64 {tt.divisibility = 16 : i32} loc("stride_k_cache_0"(#loc)), %stride_k_cache_1: i64 {tt.divisibility = 16 : i32} loc("stride_k_cache_1"(#loc)), %stride_k_cache_2: i64 {tt.divisibility = 16 : i32} loc("stride_k_cache_2"(#loc)), %stride_v_cache_0: i64 {tt.divisibility = 16 : i32} loc("stride_v_cache_0"(#loc)), %stride_v_cache_1: i64 {tt.divisibility = 16 : i32} loc("stride_v_cache_1"(#loc)), %stride_v_cache_2: i64 {tt.divisibility = 16 : i32} loc("stride_v_cache_2"(#loc)), %stride_ks_blk: i64 {tt.divisibility = 16 : i32} loc("stride_ks_blk"(#loc)), %stride_ks_slot: i64 {tt.divisibility = 16 : i32} loc("stride_ks_slot"(#loc)), %stride_ks_head: i64 {tt.divisibility = 16 : i32} loc("stride_ks_head"(#loc)), %stride_vs_blk: i64 {tt.divisibility = 16 : i32} loc("stride_vs_blk"(#loc)), %stride_vs_slot: i64 {tt.divisibility = 16 : i32} loc("stride_vs_slot"(#loc)), %stride_vs_head: i64 {tt.divisibility = 16 : i32} loc("stride_vs_head"(#loc)), %query_start_len_ptr: !tt.ptr<i32> {tt.divisibility = 16 : i32} loc("query_start_len_ptr"(#loc)), %num_seqs: i32 {tt.divisibility = 16 : i32} loc("num_seqs"(#loc))) attributes {noinline = false} {
    %cst = arith.constant dense<256> : tensor<16xi64> loc(#loc1)
    %cst_0 = arith.constant dense<0.000000e+00> : tensor<16xf32> loc(#loc1)
    %c15_i32 = arith.constant 15 : i32 loc(#loc1)
    %cst_1 = arith.constant dense<0xFF800000> : tensor<16xf32> loc(#loc1)
    %c255_i32 = arith.constant 255 : i32 loc(#loc1)
    %c256_i32 = arith.constant 256 : i32 loc(#loc1)
    %c0_i32 = arith.constant 0 : i32 loc(#loc1)
    %cst_2 = arith.constant dense<0.000000e+00> : tensor<512x16xbf16> loc(#loc1)
    %c1_i32 = arith.constant 1 : i32 loc(#loc1)
    %cst_3 = arith.constant dense<0.000000e+00> : tensor<16x512xbf16> loc(#loc1)
    %cst_4 = arith.constant dense<8192> : tensor<16x1xi32> loc(#loc1)
    %cst_5 = arith.constant dense<131072> : tensor<16x1xi64> loc(#loc1)
    %cst_6 = arith.constant dense<0xFF800000> : tensor<16x16xf32> loc(#loc1)
    %cst_7 = arith.constant dense<0.000000e+00> : tensor<16x16xf32> loc(#loc1)
    %cst_8 = arith.constant dense<32> : tensor<16xi32> loc(#loc1)
    %cst_9 = arith.constant dense<1.000000e+00> : tensor<16xf32> loc(#loc1)
    %cst_10 = arith.constant dense<0.000000e+00> : tensor<16x512xf32> loc(#loc1)
    %cst_11 = arith.constant dense<16> : tensor<16xi32> loc(#loc1)
    %cst_12 = arith.constant dense<0> : tensor<16xi32> loc(#loc1)
    %cst_13 = arith.constant dense<1> : tensor<16xi32> loc(#loc1)
    %cst_14 = arith.constant dense<0> : tensor<512xi32> loc(#loc1)
    %cst_15 = arith.constant dense<1> : tensor<512xi32> loc(#loc1)
    %cst_16 = arith.constant dense<512> : tensor<512xi32> loc(#loc1)
    %c512_i32 = arith.constant 512 : i32 loc(#loc1)
    %cst_17 = arith.constant dense<8> : tensor<16xi32> loc(#loc1)
    %c8_i32 = arith.constant 8 : i32 loc(#loc1)
    %c16_i32 = arith.constant 16 : i32 loc(#loc1)
    %c2_i32 = arith.constant 2 : i32 loc(#loc1)
    %q_block_global_idx = tt.get_program_id x : i32 loc(#loc208)
    %kv_head_idx = tt.get_program_id y : i32 loc(#loc209)
    %segm_idx = tt.get_program_id z : i32 loc(#loc210)
    %right:2 = scf.while (%left = %c0_i32, %right_82 = %num_seqs) : (i32, i32) -> (i32, i32) {
      %seq_idx_83 = arith.cmpi slt, %left, %right_82 : i32 loc(#loc398)
      scf.condition(%seq_idx_83) %left, %right_82 : i32, i32 loc(#loc398)
    } do {
    ^bb0(%left: i32 loc(callsite(#loc213 at #loc354)), %right_82: i32 loc(callsite(#loc214 at #loc354))):
      %mid = arith.addi %left, %right_82 : i32 loc(#loc401)
      %right_83 = arith.divsi %mid, %c2_i32 : i32 loc(#loc402)
      %val = tt.addptr %query_start_len_ptr, %right_83 : !tt.ptr<i32>, i32 loc(#loc403)
      %val_84 = tt.load %val : !tt.ptr<i32> loc(#loc404)
      %mid_val = arith.divsi %val_84, %c2_i32 : i32 loc(#loc405)
      %mid_val_85 = arith.addi %mid_val, %right_83 : i32 loc(#loc406)
      %seq_idx_86 = arith.cmpi sle, %mid_val_85, %q_block_global_idx : i32 loc(#loc407)
      %seq_idx_87 = arith.select %seq_idx_86, %right_82, %right_83 : i32 loc(#loc408)
      %seq_idx_88 = scf.if %seq_idx_86 -> (i32) {
        %left_89 = arith.addi %right_83, %c1_i32 : i32 loc(#loc409)
        scf.yield %left_89 : i32 loc(#loc409)
      } else {
        scf.yield %left : i32 loc(#loc408)
      } loc(#loc408)
      scf.yield %seq_idx_88, %seq_idx_87 : i32, i32 loc(#loc410)
    } loc(#loc397)
    %seq_idx = arith.subi %right#0, %c1_i32 : i32 loc(#loc411)
    %q_block_start_idx = tt.addptr %query_start_len_ptr, %seq_idx : !tt.ptr<i32>, i32 loc(#loc357)
    %q_block_start_idx_18 = tt.load %q_block_start_idx : !tt.ptr<i32> loc(#loc358)
    %q_block_start_idx_19 = arith.divsi %q_block_start_idx_18, %c2_i32 : i32 loc(#loc359)
    %q_block_start_idx_20 = arith.addi %q_block_start_idx_19, %seq_idx : i32 loc(#loc360)
    %q_block_local_idx = arith.subi %q_block_global_idx, %q_block_start_idx_20 : i32 loc(#loc361)
    %cur_stop = tt.addptr %q_block_start_idx, %c1_i32 : !tt.ptr<i32>, i32 loc(#loc362)
    %cur_stop_21 = tt.load %cur_stop : !tt.ptr<i32> loc(#loc363)
    %cur_batch_query_len = arith.subi %cur_stop_21, %q_block_start_idx_18 : i32 loc(#loc364)
    %seq_len = tt.addptr %seq_lens_ptr, %seq_idx : !tt.ptr<i32>, i32 loc(#loc365)
    %seq_len_22 = tt.load %seq_len : !tt.ptr<i32> loc(#loc366)
    %0 = arith.muli %q_block_local_idx, %c2_i32 : i32 loc(#loc32)
    %1 = arith.cmpi sge, %0, %cur_batch_query_len : i32 loc(#loc33)
    cf.cond_br %1, ^bb1, ^bb2 loc(#loc33)
  ^bb1:  // 2 preds: ^bb0, ^bb2
    tt.return loc(#loc34)
  ^bb2:  // pred: ^bb0
    %tiles_per_segment = arith.addi %seq_len_22, %c255_i32 : i32 loc(#loc367)
    %tiles_per_segment_23 = arith.divsi %tiles_per_segment, %c256_i32 : i32 loc(#loc368)
    %2 = arith.muli %segm_idx, %tiles_per_segment_23 : i32 loc(#loc38)
    %3 = arith.muli %2, %c16_i32 : i32 loc(#loc39)
    %4 = arith.cmpi sge, %3, %seq_len_22 : i32 loc(#loc40)
    cf.cond_br %4, ^bb1, ^bb3 loc(#loc40)
  ^bb3:  // pred: ^bb2
    %offs_m = tt.make_range {end = 16 : i32, start = 0 : i32} : tensor<16xi32> loc(#loc233)
    %offs_d = tt.make_range {end = 512 : i32, start = 0 : i32} : tensor<512xi32> loc(#loc234)
    %query_pos = arith.divsi %offs_m, %cst_17 : tensor<16xi32> loc(#loc235)
    %query_pos_24 = tt.splat %0 : i32 -> tensor<16xi32> loc(#loc236)
    %query_pos_25 = arith.addi %query_pos_24, %query_pos : tensor<16xi32> loc(#loc236)
    %query_offset_0 = tt.splat %q_block_start_idx_18 : i32 -> tensor<16xi32> loc(#loc237)
    %query_offset_0_26 = arith.addi %query_offset_0, %query_pos_25 : tensor<16xi32> loc(#loc237)
    %query_offset_1 = arith.muli %kv_head_idx, %c8_i32 : i32 loc(#loc238)
    %query_offset_1_27 = arith.remsi %offs_m, %cst_17 : tensor<16xi32> loc(#loc239)
    %query_offset_1_28 = tt.splat %query_offset_1 : i32 -> tensor<16xi32> loc(#loc240)
    %query_offset_1_29 = arith.addi %query_offset_1_28, %query_offset_1_27 : tensor<16xi32> loc(#loc240)
    %query_offset = tt.expand_dims %query_offset_0_26 {axis = 1 : i32} : tensor<16xi32> -> tensor<16x1xi32> loc(#loc241)
    %query_offset_30 = arith.extsi %query_offset : tensor<16x1xi32> to tensor<16x1xi64> loc(#loc242)
    %query_offset_31 = tt.splat %query_stride_0 : i64 -> tensor<16x1xi64> loc(#loc242)
    %query_offset_32 = arith.muli %query_offset_30, %query_offset_31 : tensor<16x1xi64> loc(#loc242)
    %query_offset_33 = tt.expand_dims %query_offset_1_29 {axis = 1 : i32} : tensor<16xi32> -> tensor<16x1xi32> loc(#loc243)
    %query_offset_34 = arith.extsi %query_offset_33 : tensor<16x1xi32> to tensor<16x1xi64> loc(#loc244)
    %query_offset_35 = tt.splat %query_stride_1 : i64 -> tensor<16x1xi64> loc(#loc244)
    %query_offset_36 = arith.muli %query_offset_34, %query_offset_35 : tensor<16x1xi64> loc(#loc244)
    %query_offset_37 = arith.addi %query_offset_32, %query_offset_36 : tensor<16x1xi64> loc(#loc245)
    %query_offset_38 = tt.expand_dims %offs_d {axis = 0 : i32} : tensor<512xi32> -> tensor<1x512xi32> loc(#loc246)
    %query_offset_39 = arith.extsi %query_offset_38 : tensor<1x512xi32> to tensor<1x512xi64> loc(#loc247)
    %query_offset_40 = tt.broadcast %query_offset_37 : tensor<16x1xi64> -> tensor<16x512xi64> loc(#loc247)
    %query_offset_41 = tt.broadcast %query_offset_39 : tensor<1x512xi64> -> tensor<16x512xi64> loc(#loc247)
    %query_offset_42 = arith.addi %query_offset_40, %query_offset_41 : tensor<16x512xi64> loc(#loc247)
    %dim_mask = arith.cmpi slt, %offs_d, %cst_16 : tensor<512xi32> loc(#loc248)
    %dim_mask_43 = arith.select %dim_mask, %cst_15, %cst_14 : tensor<512xi1>, tensor<512xi32> loc(#loc249)
    %dim_mask_44 = arith.cmpi ne, %dim_mask_43, %cst_14 : tensor<512xi32> loc(#loc250)
    %query_mask_0 = tt.splat %cur_batch_query_len : i32 -> tensor<16xi32> loc(#loc251)
    %query_mask_0_45 = arith.cmpi slt, %query_pos_25, %query_mask_0 : tensor<16xi32> loc(#loc251)
    %query_mask_0_46 = arith.select %query_mask_0_45, %cst_13, %cst_12 : tensor<16xi1>, tensor<16xi32> loc(#loc252)
    %query_mask_0_47 = arith.cmpi ne, %query_mask_0_46, %cst_12 : tensor<16xi32> loc(#loc253)
    %query_mask_1 = arith.cmpi slt, %query_offset_1_29, %cst_11 : tensor<16xi32> loc(#loc254)
    %query_mask_1_48 = arith.select %query_mask_1, %cst_13, %cst_12 : tensor<16xi1>, tensor<16xi32> loc(#loc255)
    %query_mask_1_49 = arith.cmpi ne, %query_mask_1_48, %cst_12 : tensor<16xi32> loc(#loc256)
    %Q = tt.expand_dims %dim_mask_44 {axis = 0 : i32} : tensor<512xi1> -> tensor<1x512xi1> loc(#loc257)
    %Q_50 = tt.expand_dims %query_mask_0_47 {axis = 1 : i32} : tensor<16xi1> -> tensor<16x1xi1> loc(#loc258)
    %Q_51 = tt.broadcast %Q : tensor<1x512xi1> -> tensor<16x512xi1> loc(#loc259)
    %Q_52 = tt.broadcast %Q_50 : tensor<16x1xi1> -> tensor<16x512xi1> loc(#loc259)
    %Q_53 = arith.andi %Q_51, %Q_52 : tensor<16x512xi1> loc(#loc259)
    %Q_54 = tt.expand_dims %query_mask_1_49 {axis = 1 : i32} : tensor<16xi1> -> tensor<16x1xi1> loc(#loc260)
    %Q_55 = tt.broadcast %Q_54 : tensor<16x1xi1> -> tensor<16x512xi1> loc(#loc261)
    %Q_56 = arith.andi %Q_53, %Q_55 : tensor<16x512xi1> loc(#loc261)
    %Q_57 = tt.splat %query_ptr : !tt.ptr<bf16> -> tensor<16x512x!tt.ptr<bf16>> loc(#loc262)
    %Q_58 = tt.addptr %Q_57, %query_offset_42 : tensor<16x512x!tt.ptr<bf16>>, tensor<16x512xi64> loc(#loc262)
    %Q_59 = tt.load %Q_58, %Q_56, %cst_3 : tensor<16x512x!tt.ptr<bf16>> loc(#loc263)
    %block_table_offset = arith.extsi %seq_idx : i32 to i64 loc(#loc264)
    %block_table_offset_60 = arith.muli %block_table_offset, %block_table_stride : i64 loc(#loc264)
    %context_len = arith.subi %seq_len_22, %cur_batch_query_len : i32 loc(#loc265)
    %max_seq_prefix_len = arith.addi %context_len, %0 : i32 loc(#loc369)
    %max_seq_prefix_len_61 = arith.addi %max_seq_prefix_len, %c2_i32 : i32 loc(#loc370)
    %max_seq_prefix_len_62 = arith.minsi %max_seq_prefix_len_61, %seq_len_22 : i32 loc(#loc371)
    %num_tiles = arith.addi %max_seq_prefix_len_62, %c15_i32 : i32 loc(#loc412)
    %num_tiles_63 = arith.divsi %num_tiles, %c16_i32 : i32 loc(#loc413)
    %loop_lo = arith.maxsi %2, %c0_i32 : i32 loc(#loc373)
    %loop_hi = arith.addi %segm_idx, %c1_i32 : i32 loc(#loc374)
    %loop_hi_64 = arith.muli %loop_hi, %tiles_per_segment_23 : i32 loc(#loc375)
    %loop_hi_65 = arith.minsi %loop_hi_64, %num_tiles_63 : i32 loc(#loc376)
    %acc:3 = scf.for %j = %loop_lo to %loop_hi_65 step %c1_i32 iter_args(%M = %cst_1, %L = %cst_9, %acc_82 = %cst_10) -> (tensor<16xf32>, tensor<16xf32>, tensor<16x512xf32>)  : i32 {
      %seq_offset = arith.muli %j, %c16_i32 : i32 loc(#loc275)
      %seq_offset_83 = tt.splat %seq_offset : i32 -> tensor<16xi32> loc(#loc276)
      %seq_offset_84 = arith.addi %seq_offset_83, %offs_m : tensor<16xi32> loc(#loc276)
      %tile_mask = tt.splat %max_seq_prefix_len_62 : i32 -> tensor<16xi32> loc(#loc277)
      %tile_mask_85 = arith.cmpi slt, %seq_offset_84, %tile_mask : tensor<16xi32> loc(#loc277)
      %physical_block_idx = tt.addptr %block_tables_ptr, %block_table_offset_60 : !tt.ptr<i32>, i64 loc(#loc278)
      %physical_block_idx_86 = arith.divsi %seq_offset_84, %cst_8 : tensor<16xi32> loc(#loc279)
      %physical_block_idx_87 = tt.splat %physical_block_idx : !tt.ptr<i32> -> tensor<16x!tt.ptr<i32>> loc(#loc280)
      %physical_block_idx_88 = tt.addptr %physical_block_idx_87, %physical_block_idx_86 : tensor<16x!tt.ptr<i32>>, tensor<16xi32> loc(#loc280)
      %physical_block_idx_89 = tt.load %physical_block_idx_88 : tensor<16x!tt.ptr<i32>> loc(#loc281)
      %physical_block_idx_90 = arith.extsi %physical_block_idx_89 : tensor<16xi32> to tensor<16xi64> loc(#loc282)
      %v_offset = tt.expand_dims %physical_block_idx_90 {axis = 1 : i32} : tensor<16xi64> -> tensor<16x1xi64> loc(#loc283)
      %v_offset_91 = tt.splat %stride_v_cache_0 : i64 -> tensor<16x1xi64> loc(#loc284)
      %v_offset_92 = arith.muli %v_offset, %v_offset_91 : tensor<16x1xi64> loc(#loc284)
      %v_offset_93 = arith.extsi %kv_head_idx : i32 to i64 loc(#loc285)
      %v_offset_94 = arith.muli %v_offset_93, %stride_v_cache_2 : i64 loc(#loc285)
      %v_offset_95 = tt.splat %v_offset_94 : i64 -> tensor<16x1xi64> loc(#loc286)
      %v_offset_96 = arith.addi %v_offset_92, %v_offset_95 : tensor<16x1xi64> loc(#loc286)
      %v_offset_97 = tt.broadcast %v_offset_96 : tensor<16x1xi64> -> tensor<16x512xi64> loc(#loc287)
      %v_offset_98 = arith.addi %v_offset_97, %query_offset_41 : tensor<16x512xi64> loc(#loc287)
      %v_offset_99 = arith.remsi %seq_offset_84, %cst_8 : tensor<16xi32> loc(#loc288)
      %v_offset_100 = tt.expand_dims %v_offset_99 {axis = 1 : i32} : tensor<16xi32> -> tensor<16x1xi32> loc(#loc289)
      %v_offset_101 = arith.extsi %v_offset_100 : tensor<16x1xi32> to tensor<16x1xi64> loc(#loc290)
      %v_offset_102 = tt.splat %stride_v_cache_1 : i64 -> tensor<16x1xi64> loc(#loc290)
      %v_offset_103 = arith.muli %v_offset_101, %v_offset_102 : tensor<16x1xi64> loc(#loc290)
      %v_offset_104 = tt.broadcast %v_offset_103 : tensor<16x1xi64> -> tensor<16x512xi64> loc(#loc291)
      %v_offset_105 = arith.addi %v_offset_98, %v_offset_104 : tensor<16x512xi64> loc(#loc291)
      %k_offset = tt.expand_dims %physical_block_idx_90 {axis = 0 : i32} : tensor<16xi64> -> tensor<1x16xi64> loc(#loc292)
      %k_offset_106 = tt.splat %stride_k_cache_0 : i64 -> tensor<1x16xi64> loc(#loc293)
      %k_offset_107 = arith.muli %k_offset, %k_offset_106 : tensor<1x16xi64> loc(#loc293)
      %k_offset_108 = arith.muli %v_offset_93, %stride_k_cache_2 : i64 loc(#loc294)
      %k_offset_109 = tt.splat %k_offset_108 : i64 -> tensor<1x16xi64> loc(#loc295)
      %k_offset_110 = arith.addi %k_offset_107, %k_offset_109 : tensor<1x16xi64> loc(#loc295)
      %k_offset_111 = tt.expand_dims %offs_d {axis = 1 : i32} : tensor<512xi32> -> tensor<512x1xi32> loc(#loc296)
      %k_offset_112 = arith.extsi %k_offset_111 : tensor<512x1xi32> to tensor<512x1xi64> loc(#loc297)
      %k_offset_113 = tt.broadcast %k_offset_110 : tensor<1x16xi64> -> tensor<512x16xi64> loc(#loc297)
      %k_offset_114 = tt.broadcast %k_offset_112 : tensor<512x1xi64> -> tensor<512x16xi64> loc(#loc297)
      %k_offset_115 = arith.addi %k_offset_113, %k_offset_114 : tensor<512x16xi64> loc(#loc297)
      %k_offset_116 = tt.expand_dims %v_offset_99 {axis = 0 : i32} : tensor<16xi32> -> tensor<1x16xi32> loc(#loc298)
      %k_offset_117 = arith.extsi %k_offset_116 : tensor<1x16xi32> to tensor<1x16xi64> loc(#loc299)
      %k_offset_118 = tt.splat %stride_k_cache_1 : i64 -> tensor<1x16xi64> loc(#loc299)
      %k_offset_119 = arith.muli %k_offset_117, %k_offset_118 : tensor<1x16xi64> loc(#loc299)
      %k_offset_120 = tt.broadcast %k_offset_119 : tensor<1x16xi64> -> tensor<512x16xi64> loc(#loc300)
      %k_offset_121 = arith.addi %k_offset_115, %k_offset_120 : tensor<512x16xi64> loc(#loc300)
      %K_load = tt.expand_dims %dim_mask_44 {axis = 1 : i32} : tensor<512xi1> -> tensor<512x1xi1> loc(#loc301)
      %K_load_122 = tt.expand_dims %tile_mask_85 {axis = 0 : i32} : tensor<16xi1> -> tensor<1x16xi1> loc(#loc302)
      %K_load_123 = tt.broadcast %K_load : tensor<512x1xi1> -> tensor<512x16xi1> loc(#loc303)
      %K_load_124 = tt.broadcast %K_load_122 : tensor<1x16xi1> -> tensor<512x16xi1> loc(#loc303)
      %K_load_125 = arith.andi %K_load_123, %K_load_124 : tensor<512x16xi1> loc(#loc303)
      %K_load_126 = tt.splat %key_cache_ptr : !tt.ptr<bf16> -> tensor<512x16x!tt.ptr<bf16>> loc(#loc304)
      %K_load_127 = tt.addptr %K_load_126, %k_offset_121 : tensor<512x16x!tt.ptr<bf16>>, tensor<512x16xi64> loc(#loc304)
      %K_load_128 = tt.load %K_load_127, %K_load_125, %cst_2 : tensor<512x16x!tt.ptr<bf16>> loc(#loc305)
      %V_load = tt.expand_dims %tile_mask_85 {axis = 1 : i32} : tensor<16xi1> -> tensor<16x1xi1> loc(#loc306)
      %V_load_129 = tt.broadcast %V_load : tensor<16x1xi1> -> tensor<16x512xi1> loc(#loc307)
      %V_load_130 = arith.andi %Q_51, %V_load_129 : tensor<16x512xi1> loc(#loc307)
      %V_load_131 = tt.splat %value_cache_ptr : !tt.ptr<bf16> -> tensor<16x512x!tt.ptr<bf16>> loc(#loc308)
      %V_load_132 = tt.addptr %V_load_131, %v_offset_105 : tensor<16x512x!tt.ptr<bf16>>, tensor<16x512xi64> loc(#loc308)
      %V_load_133 = tt.load %V_load_132, %V_load_130, %cst_3 : tensor<16x512x!tt.ptr<bf16>> loc(#loc309)
      %query_abs_pos = tt.expand_dims %query_pos_25 {axis = 1 : i32} : tensor<16xi32> -> tensor<16x1xi32> loc(#loc310)
      %query_abs_pos_134 = tt.splat %context_len : i32 -> tensor<16x1xi32> loc(#loc311)
      %query_abs_pos_135 = arith.addi %query_abs_pos_134, %query_abs_pos : tensor<16x1xi32> loc(#loc311)
      %seq_mask = tt.expand_dims %seq_offset_84 {axis = 0 : i32} : tensor<16xi32> -> tensor<1x16xi32> loc(#loc378)
      %seq_mask_136 = tt.broadcast %seq_mask : tensor<1x16xi32> -> tensor<16x16xi32> loc(#loc379)
      %seq_mask_137 = tt.broadcast %query_abs_pos_135 : tensor<16x1xi32> -> tensor<16x16xi32> loc(#loc379)
      %seq_mask_138 = arith.cmpi sle, %seq_mask_136, %seq_mask_137 : tensor<16x16xi32> loc(#loc379)
      %S = tt.dot %Q_59, %K_load_128, %cst_7, inputPrecision = tf32 : tensor<16x512xbf16> * tensor<512x16xbf16> -> tensor<16x16xf32> loc(#loc315)
      %S_139 = tt.splat %scale : f32 -> tensor<16x16xf32> loc(#loc316)
      %S_140 = arith.mulf %S_139, %S : tensor<16x16xf32> loc(#loc316)
      %S_141 = arith.addf %S_140, %cst_7 : tensor<16x16xf32> loc(#loc317)
      %S_142 = arith.andi %Q_54, %Q_50 : tensor<16x1xi1> loc(#loc318)
      %S_143 = tt.broadcast %S_142 : tensor<16x1xi1> -> tensor<16x16xi1> loc(#loc319)
      %S_144 = arith.andi %S_143, %seq_mask_138 : tensor<16x16xi1> loc(#loc319)
      %S_145 = arith.select %S_144, %S_141, %cst_6 : tensor<16x16xi1>, tensor<16x16xf32> loc(#loc320)
      %m_j = "tt.reduce"(%S_145) <{axis = 1 : i32}> ({
      ^bb0(%m_j_159: f32 loc(callsite(#loc1 at #loc380)), %m_j_160: f32 loc(callsite(#loc1 at #loc380))):
        %m_j_161 = arith.maxnumf %m_j_159, %m_j_160 : f32 loc(#loc419)
        tt.reduce.return %m_j_161 : f32 loc(#loc415)
      }) : (tensor<16x16xf32>) -> tensor<16xf32> loc(#loc415)
      %m_j_146 = arith.maxnumf %M, %m_j : tensor<16xf32> loc(#loc381)
      %m_j_147 = arith.cmpf ogt, %m_j_146, %cst_1 : tensor<16xf32> loc(#loc382)
      %m_j_148 = arith.select %m_j_147, %m_j_146, %cst_0 : tensor<16xi1>, tensor<16xf32> loc(#loc383)
      %P = tt.expand_dims %m_j_148 {axis = 1 : i32} : tensor<16xf32> -> tensor<16x1xf32> loc(#loc384)
      %P_149 = tt.broadcast %P : tensor<16x1xf32> -> tensor<16x16xf32> loc(#loc385)
      %P_150 = arith.subf %S_145, %P_149 : tensor<16x16xf32> loc(#loc385)
      %P_151 = math.exp %P_150 : tensor<16x16xf32> loc(#loc386)
      %l_j = "tt.reduce"(%P_151) <{axis = 1 : i32}> ({
      ^bb0(%l_j_159: f32 loc(callsite(#loc1 at #loc387)), %l_j_160: f32 loc(callsite(#loc1 at #loc387))):
        %l_j_161 = arith.addf %l_j_159, %l_j_160 : f32 loc(#loc420)
        tt.reduce.return %l_j_161 : f32 loc(#loc417)
      }) : (tensor<16x16xf32>) -> tensor<16xf32> loc(#loc417)
      %alpha = arith.subf %M, %m_j_148 : tensor<16xf32> loc(#loc388)
      %alpha_152 = math.exp %alpha : tensor<16xf32> loc(#loc389)
      %L_new = arith.mulf %L, %alpha_152 : tensor<16xf32> loc(#loc390)
      %L_new_153 = arith.addf %L_new, %l_j : tensor<16xf32> loc(#loc391)
      %acc_154 = tt.expand_dims %alpha_152 {axis = 1 : i32} : tensor<16xf32> -> tensor<16x1xf32> loc(#loc333)
      %acc_155 = tt.broadcast %acc_154 : tensor<16x1xf32> -> tensor<16x512xf32> loc(#loc334)
      %acc_156 = arith.mulf %acc_82, %acc_155 : tensor<16x512xf32> loc(#loc334)
      %acc_157 = arith.truncf %P_151 : tensor<16x16xf32> to tensor<16x16xbf16> loc(#loc335)
      %acc_158 = tt.dot %acc_157, %V_load_133, %acc_156, inputPrecision = tf32 : tensor<16x16xbf16> * tensor<16x512xbf16> -> tensor<16x512xf32> loc(#loc336)
      scf.yield %m_j_148, %L_new_153, %acc_158 : tensor<16xf32>, tensor<16xf32>, tensor<16x512xf32> loc(#loc151)
    } loc(#loc414)
    %segm_output_offset = arith.muli %query_offset_30, %cst_5 : tensor<16x1xi64> loc(#loc337)
    %segm_output_offset_66 = arith.muli %query_offset_33, %cst_4 : tensor<16x1xi32> loc(#loc338)
    %segm_output_offset_67 = arith.extsi %segm_output_offset_66 : tensor<16x1xi32> to tensor<16x1xi64> loc(#loc339)
    %segm_output_offset_68 = arith.addi %segm_output_offset, %segm_output_offset_67 : tensor<16x1xi64> loc(#loc339)
    %segm_output_offset_69 = arith.muli %segm_idx, %c512_i32 : i32 loc(#loc340)
    %segm_output_offset_70 = arith.extsi %segm_output_offset_69 : i32 to i64 loc(#loc341)
    %segm_output_offset_71 = tt.splat %segm_output_offset_70 : i64 -> tensor<16x1xi64> loc(#loc341)
    %segm_output_offset_72 = arith.addi %segm_output_offset_68, %segm_output_offset_71 : tensor<16x1xi64> loc(#loc341)
    %segm_output_offset_73 = tt.broadcast %segm_output_offset_72 : tensor<16x1xi64> -> tensor<16x512xi64> loc(#loc342)
    %segm_output_offset_74 = arith.addi %segm_output_offset_73, %query_offset_41 : tensor<16x512xi64> loc(#loc342)
    %5 = tt.splat %segm_output_ptr : !tt.ptr<f32> -> tensor<16x512x!tt.ptr<f32>> loc(#loc158)
    %6 = tt.addptr %5, %segm_output_offset_74 : tensor<16x512x!tt.ptr<f32>>, tensor<16x512xi64> loc(#loc158)
    tt.store %6, %acc#2, %Q_56 : tensor<16x512x!tt.ptr<f32>> loc(#loc159)
    %segm_offset = arith.extsi %query_offset_0_26 : tensor<16xi32> to tensor<16xi64> loc(#loc392)
    %segm_offset_75 = arith.muli %segm_offset, %cst : tensor<16xi64> loc(#loc393)
    %segm_offset_76 = arith.muli %query_offset_1_29, %cst_11 : tensor<16xi32> loc(#loc394)
    %segm_offset_77 = arith.extsi %segm_offset_76 : tensor<16xi32> to tensor<16xi64> loc(#loc395)
    %segm_offset_78 = arith.addi %segm_offset_75, %segm_offset_77 : tensor<16xi64> loc(#loc395)
    %segm_offset_79 = arith.extsi %segm_idx : i32 to i64 loc(#loc396)
    %segm_offset_80 = tt.splat %segm_offset_79 : i64 -> tensor<16xi64> loc(#loc396)
    %segm_offset_81 = arith.addi %segm_offset_78, %segm_offset_80 : tensor<16xi64> loc(#loc396)
    %7 = arith.andi %query_mask_0_47, %query_mask_1_49 : tensor<16xi1> loc(#loc348)
    %8 = tt.splat %segm_max_ptr : !tt.ptr<f32> -> tensor<16x!tt.ptr<f32>> loc(#loc349)
    %9 = tt.addptr %8, %segm_offset_81 : tensor<16x!tt.ptr<f32>>, tensor<16xi64> loc(#loc349)
    tt.store %9, %acc#0, %7 : tensor<16x!tt.ptr<f32>> loc(#loc350)
    %10 = tt.splat %segm_expsum_ptr : !tt.ptr<f32> -> tensor<16x!tt.ptr<f32>> loc(#loc351)
    %11 = tt.addptr %10, %segm_offset_81 : tensor<16x!tt.ptr<f32>>, tensor<16xi64> loc(#loc351)
    tt.store %11, %acc#1, %7 : tensor<16x!tt.ptr<f32>> loc(#loc352)
    tt.return loc(#loc171)
  } loc(#loc)
} loc(#loc)
#loc2 = loc("/home/ericbuehler/vllm/.venv-bench/lib/python3.12/site-packages/vllm/v1/attention/ops/triton_unified_attention.py":146:39)
#loc3 = loc("/home/ericbuehler/vllm/.venv-bench/lib/python3.12/site-packages/vllm/v1/attention/ops/triton_unified_attention.py":147:32)
#loc4 = loc("/home/ericbuehler/vllm/.venv-bench/lib/python3.12/site-packages/vllm/v1/attention/ops/triton_unified_attention.py":148:29)
#loc5 = loc("/home/ericbuehler/vllm/.venv-bench/lib/python3.12/site-packages/vllm/v1/attention/ops/triton_attention_helpers.py":96:4)
#loc8 = loc("/home/ericbuehler/vllm/.venv-bench/lib/python3.12/site-packages/vllm/v1/attention/ops/triton_attention_helpers.py":96:17)
#loc11 = loc("/home/ericbuehler/vllm/.venv-bench/lib/python3.12/site-packages/vllm/v1/attention/ops/triton_attention_helpers.py":97:22)
#loc12 = loc("/home/ericbuehler/vllm/.venv-bench/lib/python3.12/site-packages/vllm/v1/attention/ops/triton_attention_helpers.py":97:32)
#loc13 = loc("/home/ericbuehler/vllm/.venv-bench/lib/python3.12/site-packages/vllm/v1/attention/ops/triton_attention_helpers.py":98:44)
#loc14 = loc("/home/ericbuehler/vllm/.venv-bench/lib/python3.12/site-packages/vllm/v1/attention/ops/triton_attention_helpers.py":98:22)
#loc15 = loc("/home/ericbuehler/vllm/.venv-bench/lib/python3.12/site-packages/vllm/v1/attention/ops/triton_attention_helpers.py":99:25)
#loc16 = loc("/home/ericbuehler/vllm/.venv-bench/lib/python3.12/site-packages/vllm/v1/attention/ops/triton_attention_helpers.py":99:35)
#loc17 = loc("/home/ericbuehler/vllm/.venv-bench/lib/python3.12/site-packages/vllm/v1/attention/ops/triton_attention_helpers.py":101:22)
#loc18 = loc("/home/ericbuehler/vllm/.venv-bench/lib/python3.12/site-packages/vllm/v1/attention/ops/triton_attention_helpers.py":101:11)
#loc19 = loc("/home/ericbuehler/vllm/.venv-bench/lib/python3.12/site-packages/vllm/v1/attention/ops/triton_attention_helpers.py":102:25)
#loc20 = loc("/home/ericbuehler/vllm/.venv-bench/lib/python3.12/site-packages/vllm/v1/attention/ops/triton_attention_helpers.py":101:8)
#loc21 = loc("/home/ericbuehler/vllm/.venv-bench/lib/python3.12/site-packages/vllm/v1/attention/ops/triton_attention_helpers.py":106:18)
#loc22 = loc("/home/ericbuehler/vllm/.venv-bench/lib/python3.12/site-packages/vllm/v1/attention/ops/triton_attention_helpers.py":69:54)
#loc23 = loc("/home/ericbuehler/vllm/.venv-bench/lib/python3.12/site-packages/vllm/v1/attention/ops/triton_attention_helpers.py":69:32)
#loc24 = loc("/home/ericbuehler/vllm/.venv-bench/lib/python3.12/site-packages/vllm/v1/attention/ops/triton_attention_helpers.py":69:66)
#loc25 = loc("/home/ericbuehler/vllm/.venv-bench/lib/python3.12/site-packages/vllm/v1/attention/ops/triton_attention_helpers.py":69:76)
#loc26 = loc("/home/ericbuehler/vllm/.venv-bench/lib/python3.12/site-packages/vllm/v1/attention/ops/triton_attention_helpers.py":70:45)
#loc27 = loc("/home/ericbuehler/vllm/.venv-bench/lib/python3.12/site-packages/vllm/v1/attention/ops/triton_attention_helpers.py":72:55)
#loc28 = loc("/home/ericbuehler/vllm/.venv-bench/lib/python3.12/site-packages/vllm/v1/attention/ops/triton_attention_helpers.py":72:23)
#loc29 = loc("/home/ericbuehler/vllm/.venv-bench/lib/python3.12/site-packages/vllm/v1/attention/ops/triton_attention_helpers.py":73:37)
#loc30 = loc("/home/ericbuehler/vllm/.venv-bench/lib/python3.12/site-packages/vllm/v1/attention/ops/triton_attention_helpers.py":74:37)
#loc31 = loc("/home/ericbuehler/vllm/.venv-bench/lib/python3.12/site-packages/vllm/v1/attention/ops/triton_attention_helpers.py":74:22)
#loc32 = loc("/home/ericbuehler/vllm/.venv-bench/lib/python3.12/site-packages/vllm/v1/attention/ops/triton_unified_attention.py":160:27)
#loc33 = loc("/home/ericbuehler/vllm/.venv-bench/lib/python3.12/site-packages/vllm/v1/attention/ops/triton_unified_attention.py":160:38)
#loc34 = loc("/home/ericbuehler/vllm/.venv-bench/lib/python3.12/site-packages/vllm/v1/attention/ops/triton_unified_attention.py":161:8)
#loc35 = loc("/home/ericbuehler/vllm/.venv-bench/lib/python3.12/site-packages/vllm/v1/attention/ops/triton_attention_helpers.py":24:20)
#loc36 = loc("/home/ericbuehler/vllm/.venv-bench/lib/python3.12/site-packages/vllm/v1/attention/ops/triton_unified_attention.py":164:45)
#loc37 = loc("/home/ericbuehler/vllm/.venv-bench/lib/python3.12/site-packages/vllm/v1/attention/ops/triton_attention_helpers.py":24:26)
#loc38 = loc("/home/ericbuehler/vllm/.venv-bench/lib/python3.12/site-packages/vllm/v1/attention/ops/triton_unified_attention.py":165:22)
#loc39 = loc("/home/ericbuehler/vllm/.venv-bench/lib/python3.12/site-packages/vllm/v1/attention/ops/triton_unified_attention.py":165:42)
#loc40 = loc("/home/ericbuehler/vllm/.venv-bench/lib/python3.12/site-packages/vllm/v1/attention/ops/triton_unified_attention.py":165:55)
#loc41 = loc("/home/ericbuehler/vllm/.venv-bench/lib/python3.12/site-packages/vllm/v1/attention/ops/triton_unified_attention.py":170:26)
#loc42 = loc("/home/ericbuehler/vllm/.venv-bench/lib/python3.12/site-packages/vllm/v1/attention/ops/triton_unified_attention.py":171:26)
#loc43 = loc("/home/ericbuehler/vllm/.venv-bench/lib/python3.12/site-packages/vllm/v1/attention/ops/triton_unified_attention.py":173:56)
#loc44 = loc("/home/ericbuehler/vllm/.venv-bench/lib/python3.12/site-packages/vllm/v1/attention/ops/triton_unified_attention.py":173:46)
#loc45 = loc("/home/ericbuehler/vllm/.venv-bench/lib/python3.12/site-packages/vllm/v1/attention/ops/triton_unified_attention.py":175:52)
#loc46 = loc("/home/ericbuehler/vllm/.venv-bench/lib/python3.12/site-packages/vllm/v1/attention/ops/triton_unified_attention.py":176:35)
#loc47 = loc("/home/ericbuehler/vllm/.venv-bench/lib/python3.12/site-packages/vllm/v1/attention/ops/triton_unified_attention.py":176:65)
#loc48 = loc("/home/ericbuehler/vllm/.venv-bench/lib/python3.12/site-packages/vllm/v1/attention/ops/triton_unified_attention.py":176:56)
#loc49 = loc("/home/ericbuehler/vllm/.venv-bench/lib/python3.12/site-packages/vllm/v1/attention/ops/triton_unified_attention.py":178:23)
#loc50 = loc("/home/ericbuehler/vllm/.venv-bench/lib/python3.12/site-packages/vllm/v1/attention/ops/triton_unified_attention.py":178:34)
#loc51 = loc("/home/ericbuehler/vllm/.venv-bench/lib/python3.12/site-packages/vllm/v1/attention/ops/triton_unified_attention.py":179:25)
#loc52 = loc("/home/ericbuehler/vllm/.venv-bench/lib/python3.12/site-packages/vllm/v1/attention/ops/triton_unified_attention.py":179:36)
#loc53 = loc("/home/ericbuehler/vllm/.venv-bench/lib/python3.12/site-packages/vllm/v1/attention/ops/triton_unified_attention.py":179:10)
#loc54 = loc("/home/ericbuehler/vllm/.venv-bench/lib/python3.12/site-packages/vllm/v1/attention/ops/triton_unified_attention.py":180:17)
#loc55 = loc("/home/ericbuehler/vllm/.venv-bench/lib/python3.12/site-packages/vllm/v1/attention/ops/triton_unified_attention.py":180:10)
#loc56 = loc("/home/ericbuehler/vllm/.venv-bench/lib/python3.12/site-packages/vllm/v1/attention/ops/triton_unified_attention.py":183:33)
#loc57 = loc("/home/ericbuehler/vllm/.venv-bench/lib/python3.12/site-packages/vllm/v1/attention/ops/triton_unified_attention.py":183:47)
#loc58 = loc("/home/ericbuehler/vllm/.venv-bench/lib/python3.12/site-packages/vllm/v1/attention/ops/triton_unified_attention.py":183:53)
#loc59 = loc("/home/ericbuehler/vllm/.venv-bench/lib/python3.12/site-packages/vllm/v1/attention/ops/triton_unified_attention.py":184:40)
#loc60 = loc("/home/ericbuehler/vllm/.venv-bench/lib/python3.12/site-packages/vllm/v1/attention/ops/triton_unified_attention.py":184:64)
#loc61 = loc("/home/ericbuehler/vllm/.venv-bench/lib/python3.12/site-packages/vllm/v1/attention/ops/triton_unified_attention.py":184:70)
#loc62 = loc("/home/ericbuehler/vllm/.venv-bench/lib/python3.12/site-packages/vllm/v1/attention/ops/triton_unified_attention.py":185:45)
#loc63 = loc("/home/ericbuehler/vllm/.venv-bench/lib/python3.12/site-packages/vllm/v1/attention/ops/triton_unified_attention.py":185:65)
#loc64 = loc("/home/ericbuehler/vllm/.venv-bench/lib/python3.12/site-packages/vllm/v1/attention/ops/triton_unified_attention.py":185:71)
#loc65 = loc("/home/ericbuehler/vllm/.venv-bench/lib/python3.12/site-packages/vllm/v1/attention/ops/triton_unified_attention.py":190:22)
#loc66 = loc("/home/ericbuehler/vllm/.venv-bench/lib/python3.12/site-packages/vllm/v1/attention/ops/triton_unified_attention.py":190:46)
#loc67 = loc("/home/ericbuehler/vllm/.venv-bench/lib/python3.12/site-packages/vllm/v1/attention/ops/triton_unified_attention.py":190:33)
#loc68 = loc("/home/ericbuehler/vllm/.venv-bench/lib/python3.12/site-packages/vllm/v1/attention/ops/triton_unified_attention.py":190:70)
#loc69 = loc("/home/ericbuehler/vllm/.venv-bench/lib/python3.12/site-packages/vllm/v1/attention/ops/triton_unified_attention.py":190:57)
#loc70 = loc("/home/ericbuehler/vllm/.venv-bench/lib/python3.12/site-packages/vllm/v1/attention/ops/triton_unified_attention.py":189:20)
#loc71 = loc("/home/ericbuehler/vllm/.venv-bench/lib/python3.12/site-packages/vllm/v1/attention/ops/triton_unified_attention.py":189:8)
#loc72 = loc("/home/ericbuehler/vllm/.venv-bench/lib/python3.12/site-packages/vllm/v1/attention/ops/triton_unified_attention.py":194:35)
#loc73 = loc("/home/ericbuehler/vllm/.venv-bench/lib/python3.12/site-packages/vllm/v1/attention/ops/triton_unified_attention.py":203:28)
#loc74 = loc("/home/ericbuehler/vllm/.venv-bench/lib/python3.12/site-packages/vllm/v1/attention/ops/triton_attention_helpers.py":178:10)
#loc75 = loc("/home/ericbuehler/vllm/.venv-bench/lib/python3.12/site-packages/vllm/v1/attention/ops/triton_unified_attention.py":228:8)
#loc76 = loc("/home/ericbuehler/vllm/.venv-bench/lib/python3.12/site-packages/vllm/v1/attention/ops/triton_attention_helpers.py":180:10)
#loc77 = loc("/home/ericbuehler/vllm/.venv-bench/lib/python3.12/site-packages/vllm/v1/attention/ops/triton_attention_helpers.py":187:60)
#loc78 = loc("/home/ericbuehler/vllm/.venv-bench/lib/python3.12/site-packages/vllm/v1/attention/ops/triton_attention_helpers.py":189:44)
#loc79 = loc("/home/ericbuehler/vllm/.venv-bench/lib/python3.12/site-packages/vllm/v1/attention/ops/triton_attention_helpers.py":221:62)
#loc80 = loc("/home/ericbuehler/vllm/.venv-bench/lib/python3.12/site-packages/vllm/v1/attention/ops/triton_attention_helpers.py":222:39)
#loc81 = loc("/home/ericbuehler/vllm/.venv-bench/lib/python3.12/site-packages/vllm/v1/attention/ops/triton_attention_helpers.py":222:44)
#loc82 = loc("/home/ericbuehler/vllm/.venv-bench/lib/python3.12/site-packages/vllm/v1/attention/ops/triton_attention_helpers.py":222:68)
#loc83 = loc("/home/ericbuehler/vllm/.venv-bench/lib/python3.12/site-packages/vllm/v1/attention/ops/triton_unified_attention.py":232:28)
#loc84 = loc("/home/ericbuehler/vllm/.venv-bench/lib/python3.12/site-packages/vllm/v1/attention/ops/triton_unified_attention.py":233:25)
#loc85 = loc("/home/ericbuehler/vllm/.venv-bench/lib/python3.12/site-packages/vllm/v1/attention/ops/triton_unified_attention.py":233:37)
#loc86 = loc("/home/ericbuehler/vllm/.venv-bench/lib/python3.12/site-packages/vllm/v1/attention/ops/triton_unified_attention.py":234:33)
#loc87 = loc("/home/ericbuehler/vllm/.venv-bench/lib/python3.12/site-packages/vllm/v1/attention/ops/triton_unified_attention.py":237:31)
#loc88 = loc("/home/ericbuehler/vllm/.venv-bench/lib/python3.12/site-packages/vllm/v1/attention/ops/triton_unified_attention.py":237:66)
#loc89 = loc("/home/ericbuehler/vllm/.venv-bench/lib/python3.12/site-packages/vllm/v1/attention/ops/triton_unified_attention.py":237:52)
#loc90 = loc("/home/ericbuehler/vllm/.venv-bench/lib/python3.12/site-packages/vllm/v1/attention/ops/triton_unified_attention.py":237:12)
#loc91 = loc("/home/ericbuehler/vllm/.venv-bench/lib/python3.12/site-packages/vllm/v1/attention/ops/triton_unified_attention.py":238:13)
#loc92 = loc("/home/ericbuehler/vllm/.venv-bench/lib/python3.12/site-packages/vllm/v1/attention/ops/triton_unified_attention.py":241:31)
#loc93 = loc("/home/ericbuehler/vllm/.venv-bench/lib/python3.12/site-packages/vllm/v1/attention/ops/triton_unified_attention.py":241:42)
#loc94 = loc("/home/ericbuehler/vllm/.venv-bench/lib/python3.12/site-packages/vllm/v1/attention/ops/triton_unified_attention.py":242:28)
#loc95 = loc("/home/ericbuehler/vllm/.venv-bench/lib/python3.12/site-packages/vllm/v1/attention/ops/triton_unified_attention.py":242:14)
#loc96 = loc("/home/ericbuehler/vllm/.venv-bench/lib/python3.12/site-packages/vllm/v1/attention/ops/triton_unified_attention.py":243:14)
#loc97 = loc("/home/ericbuehler/vllm/.venv-bench/lib/python3.12/site-packages/vllm/v1/attention/ops/triton_unified_attention.py":244:28)
#loc98 = loc("/home/ericbuehler/vllm/.venv-bench/lib/python3.12/site-packages/vllm/v1/attention/ops/triton_unified_attention.py":244:40)
#loc99 = loc("/home/ericbuehler/vllm/.venv-bench/lib/python3.12/site-packages/vllm/v1/attention/ops/triton_unified_attention.py":244:51)
#loc100 = loc("/home/ericbuehler/vllm/.venv-bench/lib/python3.12/site-packages/vllm/v1/attention/ops/triton_unified_attention.py":244:14)
#loc101 = loc("/home/ericbuehler/vllm/.venv-bench/lib/python3.12/site-packages/vllm/v1/attention/ops/triton_unified_attention.py":247:31)
#loc102 = loc("/home/ericbuehler/vllm/.venv-bench/lib/python3.12/site-packages/vllm/v1/attention/ops/triton_unified_attention.py":247:42)
#loc103 = loc("/home/ericbuehler/vllm/.venv-bench/lib/python3.12/site-packages/vllm/v1/attention/ops/triton_unified_attention.py":248:28)
#loc104 = loc("/home/ericbuehler/vllm/.venv-bench/lib/python3.12/site-packages/vllm/v1/attention/ops/triton_unified_attention.py":248:14)
#loc105 = loc("/home/ericbuehler/vllm/.venv-bench/lib/python3.12/site-packages/vllm/v1/attention/ops/triton_unified_attention.py":249:21)
#loc106 = loc("/home/ericbuehler/vllm/.venv-bench/lib/python3.12/site-packages/vllm/v1/attention/ops/triton_unified_attention.py":249:14)
#loc107 = loc("/home/ericbuehler/vllm/.venv-bench/lib/python3.12/site-packages/vllm/v1/attention/ops/triton_unified_attention.py":250:40)
#loc108 = loc("/home/ericbuehler/vllm/.venv-bench/lib/python3.12/site-packages/vllm/v1/attention/ops/triton_unified_attention.py":250:51)
#loc109 = loc("/home/ericbuehler/vllm/.venv-bench/lib/python3.12/site-packages/vllm/v1/attention/ops/triton_unified_attention.py":250:14)
#loc110 = loc("/home/ericbuehler/vllm/.venv-bench/lib/python3.12/site-packages/vllm/v1/attention/ops/triton_unified_attention.py":255:26)
#loc111 = loc("/home/ericbuehler/vllm/.venv-bench/lib/python3.12/site-packages/vllm/v1/attention/ops/triton_unified_attention.py":255:47)
#loc112 = loc("/home/ericbuehler/vllm/.venv-bench/lib/python3.12/site-packages/vllm/v1/attention/ops/triton_unified_attention.py":255:37)
#loc113 = loc("/home/ericbuehler/vllm/.venv-bench/lib/python3.12/site-packages/vllm/v1/attention/ops/triton_unified_attention.py":254:28)
#loc114 = loc("/home/ericbuehler/vllm/.venv-bench/lib/python3.12/site-packages/vllm/v1/attention/ops/triton_unified_attention.py":254:12)
#loc115 = loc("/home/ericbuehler/vllm/.venv-bench/lib/python3.12/site-packages/vllm/v1/attention/ops/triton_unified_attention.py":262:47)
#loc116 = loc("/home/ericbuehler/vllm/.venv-bench/lib/python3.12/site-packages/vllm/v1/attention/ops/triton_unified_attention.py":262:37)
#loc117 = loc("/home/ericbuehler/vllm/.venv-bench/lib/python3.12/site-packages/vllm/v1/attention/ops/triton_unified_attention.py":261:30)
#loc118 = loc("/home/ericbuehler/vllm/.venv-bench/lib/python3.12/site-packages/vllm/v1/attention/ops/triton_unified_attention.py":261:12)
#loc119 = loc("/home/ericbuehler/vllm/.venv-bench/lib/python3.12/site-packages/vllm/v1/attention/ops/triton_unified_attention.py":286:48)
#loc120 = loc("/home/ericbuehler/vllm/.venv-bench/lib/python3.12/site-packages/vllm/v1/attention/ops/triton_unified_attention.py":286:38)
#loc121 = loc("/home/ericbuehler/vllm/.venv-bench/lib/python3.12/site-packages/vllm/v1/attention/ops/triton_attention_helpers.py":284:26)
#loc122 = loc("/home/ericbuehler/vllm/.venv-bench/lib/python3.12/site-packages/vllm/v1/attention/ops/triton_unified_attention.py":296:12)
#loc123 = loc("/home/ericbuehler/vllm/.venv-bench/lib/python3.12/site-packages/vllm/v1/attention/ops/triton_attention_helpers.py":284:38)
#loc124 = loc("/home/ericbuehler/vllm/.venv-bench/lib/python3.12/site-packages/vllm/v1/attention/ops/triton_unified_attention.py":306:35)
#loc125 = loc("/home/ericbuehler/vllm/.venv-bench/lib/python3.12/site-packages/vllm/v1/attention/ops/triton_unified_attention.py":306:25)
#loc126 = loc("/home/ericbuehler/vllm/.venv-bench/lib/python3.12/site-packages/vllm/v1/attention/ops/triton_unified_attention.py":306:17)
#loc127 = loc("/home/ericbuehler/vllm/.venv-bench/lib/python3.12/site-packages/vllm/v1/attention/ops/triton_unified_attention.py":312:36)
#loc128 = loc("/home/ericbuehler/vllm/.venv-bench/lib/python3.12/site-packages/vllm/v1/attention/ops/triton_unified_attention.py":312:60)
#loc129 = loc("/home/ericbuehler/vllm/.venv-bench/lib/python3.12/site-packages/vllm/v1/attention/ops/triton_unified_attention.py":312:73)
#loc130 = loc("/home/ericbuehler/vllm/.venv-bench/lib/python3.12/site-packages/triton/language/standard.py":191:40)
#loc133 = loc("/home/ericbuehler/vllm/.venv-bench/lib/python3.12/site-packages/triton/language/standard.py":170:27)
#loc134 = loc("/home/ericbuehler/vllm/.venv-bench/lib/python3.12/site-packages/vllm/v1/attention/ops/triton_attention_helpers.py":371:24)
#loc135 = loc("/home/ericbuehler/vllm/.venv-bench/lib/python3.12/site-packages/vllm/v1/attention/ops/triton_attention_helpers.py":374:25)
#loc136 = loc("/home/ericbuehler/vllm/.venv-bench/lib/python3.12/site-packages/vllm/v1/attention/ops/triton_attention_helpers.py":374:45)
#loc137 = loc("/home/ericbuehler/vllm/.venv-bench/lib/python3.12/site-packages/vllm/v1/attention/ops/triton_attention_helpers.py":376:23)
#loc138 = loc("/home/ericbuehler/vllm/.venv-bench/lib/python3.12/site-packages/vllm/v1/attention/ops/triton_attention_helpers.py":376:19)
#loc139 = loc("/home/ericbuehler/vllm/.venv-bench/lib/python3.12/site-packages/vllm/v1/attention/ops/triton_attention_helpers.py":376:15)
#loc140 = loc("/home/ericbuehler/vllm/.venv-bench/lib/python3.12/site-packages/triton/language/standard.py":293:36)
#loc142 = loc("/home/ericbuehler/vllm/.venv-bench/lib/python3.12/site-packages/triton/language/standard.py":263:15)
#loc143 = loc("/home/ericbuehler/vllm/.venv-bench/lib/python3.12/site-packages/vllm/v1/attention/ops/triton_attention_helpers.py":380:23)
#loc144 = loc("/home/ericbuehler/vllm/.venv-bench/lib/python3.12/site-packages/vllm/v1/attention/ops/triton_attention_helpers.py":380:19)
#loc145 = loc("/home/ericbuehler/vllm/.venv-bench/lib/python3.12/site-packages/vllm/v1/attention/ops/triton_attention_helpers.py":382:16)
#loc146 = loc("/home/ericbuehler/vllm/.venv-bench/lib/python3.12/site-packages/vllm/v1/attention/ops/triton_attention_helpers.py":382:24)
#loc147 = loc("/home/ericbuehler/vllm/.venv-bench/lib/python3.12/site-packages/vllm/v1/attention/ops/triton_unified_attention.py":326:26)
#loc148 = loc("/home/ericbuehler/vllm/.venv-bench/lib/python3.12/site-packages/vllm/v1/attention/ops/triton_unified_attention.py":326:20)
#loc149 = loc("/home/ericbuehler/vllm/.venv-bench/lib/python3.12/site-packages/vllm/v1/attention/ops/triton_unified_attention.py":340:31)
#loc150 = loc("/home/ericbuehler/vllm/.venv-bench/lib/python3.12/site-packages/vllm/v1/attention/ops/triton_unified_attention.py":340:41)
#loc151 = loc("/home/ericbuehler/vllm/.venv-bench/lib/python3.12/site-packages/vllm/v1/attention/ops/triton_unified_attention.py":335:8)
#loc152 = loc("/home/ericbuehler/vllm/.venv-bench/lib/python3.12/site-packages/vllm/v1/attention/ops/triton_unified_attention.py":347:15)
#loc153 = loc("/home/ericbuehler/vllm/.venv-bench/lib/python3.12/site-packages/vllm/v1/attention/ops/triton_unified_attention.py":348:41)
#loc154 = loc("/home/ericbuehler/vllm/.venv-bench/lib/python3.12/site-packages/vllm/v1/attention/ops/triton_unified_attention.py":348:14)
#loc155 = loc("/home/ericbuehler/vllm/.venv-bench/lib/python3.12/site-packages/vllm/v1/attention/ops/triton_unified_attention.py":349:25)
#loc156 = loc("/home/ericbuehler/vllm/.venv-bench/lib/python3.12/site-packages/vllm/v1/attention/ops/triton_unified_attention.py":349:14)
#loc157 = loc("/home/ericbuehler/vllm/.venv-bench/lib/python3.12/site-packages/vllm/v1/attention/ops/triton_unified_attention.py":350:14)
#loc158 = loc("/home/ericbuehler/vllm/.venv-bench/lib/python3.12/site-packages/vllm/v1/attention/ops/triton_unified_attention.py":353:30)
#loc159 = loc("/home/ericbuehler/vllm/.venv-bench/lib/python3.12/site-packages/vllm/v1/attention/ops/triton_unified_attention.py":354:12)
#loc160 = loc("/home/ericbuehler/vllm/.venv-bench/lib/python3.12/site-packages/vllm/v1/attention/ops/triton_attention_helpers.py":252:26)
#loc161 = loc("/home/ericbuehler/vllm/.venv-bench/lib/python3.12/site-packages/vllm/v1/attention/ops/triton_unified_attention.py":368:12)
#loc162 = loc("/home/ericbuehler/vllm/.venv-bench/lib/python3.12/site-packages/vllm/v1/attention/ops/triton_attention_helpers.py":252:39)
#loc163 = loc("/home/ericbuehler/vllm/.venv-bench/lib/python3.12/site-packages/vllm/v1/attention/ops/triton_attention_helpers.py":253:27)
#loc164 = loc("/home/ericbuehler/vllm/.venv-bench/lib/python3.12/site-packages/vllm/v1/attention/ops/triton_attention_helpers.py":253:10)
#loc165 = loc("/home/ericbuehler/vllm/.venv-bench/lib/python3.12/site-packages/vllm/v1/attention/ops/triton_attention_helpers.py":254:10)
#loc166 = loc("/home/ericbuehler/vllm/.venv-bench/lib/python3.12/site-packages/vllm/v1/attention/ops/triton_attention_helpers.py":256:64)
#loc167 = loc("/home/ericbuehler/vllm/.venv-bench/lib/python3.12/site-packages/vllm/v1/attention/ops/triton_attention_helpers.py":256:28)
#loc168 = loc("/home/ericbuehler/vllm/.venv-bench/lib/python3.12/site-packages/vllm/v1/attention/ops/triton_attention_helpers.py":256:41)
#loc169 = loc("/home/ericbuehler/vllm/.venv-bench/lib/python3.12/site-packages/vllm/v1/attention/ops/triton_attention_helpers.py":257:31)
#loc170 = loc("/home/ericbuehler/vllm/.venv-bench/lib/python3.12/site-packages/vllm/v1/attention/ops/triton_attention_helpers.py":257:44)
#loc171 = loc("/home/ericbuehler/vllm/.venv-bench/lib/python3.12/site-packages/vllm/v1/attention/ops/triton_unified_attention.py":343:4)
#loc208 = loc("q_block_global_idx"(#loc2))
#loc209 = loc("kv_head_idx"(#loc3))
#loc210 = loc("segm_idx"(#loc4))
#loc211 = loc("left"(#loc5))
#loc215 = loc("mid"(#loc11))
#loc216 = loc("mid"(#loc12))
#loc217 = loc("val"(#loc13))
#loc218 = loc("val"(#loc14))
#loc219 = loc("mid_val"(#loc15))
#loc220 = loc("mid_val"(#loc16))
#loc221 = loc("left"(#loc19))
#loc222 = loc("q_block_start_idx"(#loc22))
#loc223 = loc("q_block_start_idx"(#loc23))
#loc224 = loc("q_block_start_idx"(#loc24))
#loc225 = loc("q_block_start_idx"(#loc25))
#loc226 = loc("q_block_local_idx"(#loc26))
#loc227 = loc("cur_stop"(#loc27))
#loc228 = loc("cur_stop"(#loc28))
#loc229 = loc("cur_batch_query_len"(#loc29))
#loc230 = loc("seq_len"(#loc30))
#loc231 = loc("seq_len"(#loc31))
#loc232 = loc("tiles_per_segment"(#loc36))
#loc233 = loc("offs_m"(#loc41))
#loc234 = loc("offs_d"(#loc42))
#loc235 = loc("query_pos"(#loc43))
#loc236 = loc("query_pos"(#loc44))
#loc237 = loc("query_offset_0"(#loc45))
#loc238 = loc("query_offset_1"(#loc46))
#loc239 = loc("query_offset_1"(#loc47))
#loc240 = loc("query_offset_1"(#loc48))
#loc241 = loc("query_offset"(#loc49))
#loc242 = loc("query_offset"(#loc50))
#loc243 = loc("query_offset"(#loc51))
#loc244 = loc("query_offset"(#loc52))
#loc245 = loc("query_offset"(#loc53))
#loc246 = loc("query_offset"(#loc54))
#loc247 = loc("query_offset"(#loc55))
#loc248 = loc("dim_mask"(#loc56))
#loc249 = loc("dim_mask"(#loc57))
#loc250 = loc("dim_mask"(#loc58))
#loc251 = loc("query_mask_0"(#loc59))
#loc252 = loc("query_mask_0"(#loc60))
#loc253 = loc("query_mask_0"(#loc61))
#loc254 = loc("query_mask_1"(#loc62))
#loc255 = loc("query_mask_1"(#loc63))
#loc256 = loc("query_mask_1"(#loc64))
#loc257 = loc("Q"(#loc65))
#loc258 = loc("Q"(#loc66))
#loc259 = loc("Q"(#loc67))
#loc260 = loc("Q"(#loc68))
#loc261 = loc("Q"(#loc69))
#loc262 = loc("Q"(#loc70))
#loc263 = loc("Q"(#loc71))
#loc264 = loc("block_table_offset"(#loc72))
#loc265 = loc("context_len"(#loc73))
#loc266 = loc("max_seq_prefix_len"(#loc74))
#loc267 = loc("max_seq_prefix_len"(#loc76))
#loc268 = loc("max_seq_prefix_len"(#loc77))
#loc269 = loc("num_tiles"(#loc78))
#loc270 = loc("loop_lo"(#loc79))
#loc271 = loc("loop_hi"(#loc80))
#loc272 = loc("loop_hi"(#loc81))
#loc273 = loc("loop_hi"(#loc82))
#loc274 = loc("M"(#loc83))
#loc275 = loc("seq_offset"(#loc84))
#loc276 = loc("seq_offset"(#loc85))
#loc277 = loc("tile_mask"(#loc86))
#loc278 = loc("physical_block_idx"(#loc87))
#loc279 = loc("physical_block_idx"(#loc88))
#loc280 = loc("physical_block_idx"(#loc89))
#loc281 = loc("physical_block_idx"(#loc90))
#loc282 = loc("physical_block_idx"(#loc91))
#loc283 = loc("v_offset"(#loc92))
#loc284 = loc("v_offset"(#loc93))
#loc285 = loc("v_offset"(#loc94))
#loc286 = loc("v_offset"(#loc95))
#loc287 = loc("v_offset"(#loc96))
#loc288 = loc("v_offset"(#loc97))
#loc289 = loc("v_offset"(#loc98))
#loc290 = loc("v_offset"(#loc99))
#loc291 = loc("v_offset"(#loc100))
#loc292 = loc("k_offset"(#loc101))
#loc293 = loc("k_offset"(#loc102))
#loc294 = loc("k_offset"(#loc103))
#loc295 = loc("k_offset"(#loc104))
#loc296 = loc("k_offset"(#loc105))
#loc297 = loc("k_offset"(#loc106))
#loc298 = loc("k_offset"(#loc107))
#loc299 = loc("k_offset"(#loc108))
#loc300 = loc("k_offset"(#loc109))
#loc301 = loc("K_load"(#loc110))
#loc302 = loc("K_load"(#loc111))
#loc303 = loc("K_load"(#loc112))
#loc304 = loc("K_load"(#loc113))
#loc305 = loc("K_load"(#loc114))
#loc306 = loc("V_load"(#loc115))
#loc307 = loc("V_load"(#loc116))
#loc308 = loc("V_load"(#loc117))
#loc309 = loc("V_load"(#loc118))
#loc310 = loc("query_abs_pos"(#loc119))
#loc311 = loc("query_abs_pos"(#loc120))
#loc312 = loc("seq_mask"(#loc121))
#loc313 = loc("seq_mask"(#loc122))
#loc314 = loc("seq_mask"(#loc123))
#loc315 = loc("S"(#loc124))
#loc316 = loc("S"(#loc125))
#loc317 = loc("S"(#loc126))
#loc318 = loc("S"(#loc127))
#loc319 = loc("S"(#loc128))
#loc320 = loc("S"(#loc129))
#loc322 = loc("m_j"(#loc134))
#loc323 = loc("m_j"(#loc135))
#loc324 = loc("m_j"(#loc136))
#loc325 = loc("P"(#loc137))
#loc326 = loc("P"(#loc138))
#loc327 = loc("P"(#loc139))
#loc329 = loc("alpha"(#loc143))
#loc330 = loc("alpha"(#loc144))
#loc331 = loc("L_new"(#loc145))
#loc332 = loc("L_new"(#loc146))
#loc333 = loc("acc"(#loc147))
#loc334 = loc("acc"(#loc148))
#loc335 = loc("acc"(#loc149))
#loc336 = loc("acc"(#loc150))
#loc337 = loc("segm_output_offset"(#loc152))
#loc338 = loc("segm_output_offset"(#loc153))
#loc339 = loc("segm_output_offset"(#loc154))
#loc340 = loc("segm_output_offset"(#loc155))
#loc341 = loc("segm_output_offset"(#loc156))
#loc342 = loc("segm_output_offset"(#loc157))
#loc343 = loc("segm_offset"(#loc160))
#loc344 = loc("segm_offset"(#loc162))
#loc345 = loc("segm_offset"(#loc163))
#loc346 = loc("segm_offset"(#loc164))
#loc347 = loc("segm_offset"(#loc165))
#loc348 = loc(callsite(#loc166 at #loc161))
#loc349 = loc(callsite(#loc167 at #loc161))
#loc350 = loc(callsite(#loc168 at #loc161))
#loc351 = loc(callsite(#loc169 at #loc161))
#loc352 = loc(callsite(#loc170 at #loc161))
#loc353 = loc("right"(#loc211))
#loc355 = loc("right"(#loc216))
#loc356 = loc("left"(#loc221))
#loc357 = loc(callsite(#loc222 at #loc7))
#loc358 = loc(callsite(#loc223 at #loc7))
#loc359 = loc(callsite(#loc224 at #loc7))
#loc360 = loc(callsite(#loc225 at #loc7))
#loc361 = loc(callsite(#loc226 at #loc7))
#loc362 = loc(callsite(#loc227 at #loc7))
#loc363 = loc(callsite(#loc228 at #loc7))
#loc364 = loc(callsite(#loc229 at #loc7))
#loc365 = loc(callsite(#loc230 at #loc7))
#loc366 = loc(callsite(#loc231 at #loc7))
#loc367 = loc(callsite(#loc35 at #loc232))
#loc368 = loc(callsite(#loc37 at #loc232))
#loc369 = loc(callsite(#loc266 at #loc75))
#loc370 = loc(callsite(#loc267 at #loc75))
#loc371 = loc(callsite(#loc268 at #loc75))
#loc372 = loc(callsite(#loc269 at #loc75))
#loc373 = loc(callsite(#loc270 at #loc75))
#loc374 = loc(callsite(#loc271 at #loc75))
#loc375 = loc(callsite(#loc272 at #loc75))
#loc376 = loc(callsite(#loc273 at #loc75))
#loc377 = loc("L"(#loc274))
#loc378 = loc(callsite(#loc312 at #loc313))
#loc379 = loc(callsite(#loc314 at #loc313))
#loc381 = loc(callsite(#loc322 at #loc132))
#loc382 = loc(callsite(#loc323 at #loc132))
#loc383 = loc(callsite(#loc324 at #loc132))
#loc384 = loc(callsite(#loc325 at #loc132))
#loc385 = loc(callsite(#loc326 at #loc132))
#loc386 = loc(callsite(#loc327 at #loc132))
#loc388 = loc(callsite(#loc329 at #loc132))
#loc389 = loc(callsite(#loc330 at #loc132))
#loc390 = loc(callsite(#loc331 at #loc132))
#loc391 = loc(callsite(#loc332 at #loc132))
#loc392 = loc(callsite(#loc343 at #loc161))
#loc393 = loc(callsite(#loc344 at #loc161))
#loc394 = loc(callsite(#loc345 at #loc161))
#loc395 = loc(callsite(#loc346 at #loc161))
#loc396 = loc(callsite(#loc347 at #loc161))
#loc397 = loc(callsite(#loc353 at #loc354))
#loc398 = loc(callsite(#loc8 at #loc354))
#loc401 = loc(callsite(#loc215 at #loc354))
#loc402 = loc(callsite(#loc355 at #loc354))
#loc403 = loc(callsite(#loc217 at #loc354))
#loc404 = loc(callsite(#loc218 at #loc354))
#loc405 = loc(callsite(#loc219 at #loc354))
#loc406 = loc(callsite(#loc220 at #loc354))
#loc407 = loc(callsite(#loc17 at #loc354))
#loc408 = loc(callsite(#loc18 at #loc354))
#loc409 = loc(callsite(#loc356 at #loc354))
#loc410 = loc(callsite(#loc20 at #loc354))
#loc411 = loc(callsite(#loc21 at #loc354))
#loc412 = loc(callsite(#loc35 at #loc372))
#loc413 = loc(callsite(#loc37 at #loc372))
#loc414 = loc("acc"(#loc377))
#loc415 = loc(callsite(#loc130 at #loc380))
#loc417 = loc(callsite(#loc140 at #loc387))
#loc419 = loc(callsite(#loc133 at #loc415))
#loc420 = loc(callsite(#loc142 at #loc417))
