#loc = loc("/home/ericbuehler/vllm/.venv-bench/lib/python3.12/site-packages/vllm/v1/sample/ops/topk_topp_triton.py":94:0)
#loc1 = loc(unknown)
#loc20 = loc("/home/ericbuehler/vllm/.venv-bench/lib/python3.12/site-packages/vllm/v1/sample/ops/topk_topp_triton.py":137:36)
#loc25 = loc("/home/ericbuehler/vllm/.venv-bench/lib/python3.12/site-packages/vllm/v1/sample/ops/topk_topp_triton.py":140:43)
#loc29 = loc("/home/ericbuehler/vllm/.venv-bench/lib/python3.12/site-packages/vllm/v1/sample/ops/topk_topp_triton.py":144:27)
#loc54 = loc("/home/ericbuehler/vllm/.venv-bench/lib/python3.12/site-packages/vllm/v1/sample/ops/topk_topp_triton.py":168:61)
#loc60 = loc("/home/ericbuehler/vllm/.venv-bench/lib/python3.12/site-packages/vllm/v1/sample/ops/topk_topp_triton.py":173:61)
#loc64 = loc("/home/ericbuehler/vllm/.venv-bench/lib/python3.12/site-packages/vllm/v1/sample/ops/topk_topp_triton.py":174:47)
#loc69 = loc("/home/ericbuehler/vllm/.venv-bench/lib/python3.12/site-packages/vllm/v1/sample/ops/topk_topp_triton.py":178:34)
#loc73 = loc("/home/ericbuehler/vllm/.venv-bench/lib/python3.12/site-packages/vllm/v1/sample/ops/topk_topp_triton.py":180:43)
#loc86 = loc("num_iters")
#loc87 = loc("k_pivot")
#loc88 = loc("k_pivots_num")
#loc89 = loc("min_larger")
#loc90 = loc("num_min_larger")
#loc91 = loc("max_range")
#loc92 = loc("min_range")
#loc93 = loc("found_pivot")
#loc109 = loc("/home/ericbuehler/vllm/.venv-bench/lib/python3.12/site-packages/vllm/v1/sample/ops/topk_topp_triton.py":229:53)
#loc111 = loc("/home/ericbuehler/vllm/.venv-bench/lib/python3.12/site-packages/vllm/v1/sample/ops/topk_topp_triton.py":230:53)
#loc114 = loc("/home/ericbuehler/vllm/.venv-bench/lib/python3.12/site-packages/vllm/v1/sample/ops/topk_topp_triton.py":237:32)
#loc115 = loc("/home/ericbuehler/vllm/.venv-bench/lib/python3.12/site-packages/vllm/v1/sample/ops/topk_topp_triton.py":83:22)
#loc120 = loc("/home/ericbuehler/vllm/.venv-bench/lib/python3.12/site-packages/vllm/v1/sample/ops/topk_topp_triton.py":85:22)
#loc129 = loc("/home/ericbuehler/vllm/.venv-bench/lib/python3.12/site-packages/vllm/v1/sample/ops/topk_topp_triton.py":244:32)
#loc162 = loc("mask_n")
#loc177 = loc("/home/ericbuehler/vllm/.venv-bench/lib/python3.12/site-packages/vllm/v1/sample/ops/topk_topp_triton.py":309:53)
#loc179 = loc("/home/ericbuehler/vllm/.venv-bench/lib/python3.12/site-packages/vllm/v1/sample/ops/topk_topp_triton.py":310:53)
#loc181 = loc("/home/ericbuehler/vllm/.venv-bench/lib/python3.12/site-packages/vllm/v1/sample/ops/topk_topp_triton.py":317:32)
#loc182 = loc("/home/ericbuehler/vllm/.venv-bench/lib/python3.12/site-packages/vllm/v1/sample/ops/topk_topp_triton.py":324:32)
#loc239 = loc("/home/ericbuehler/vllm/.venv-bench/lib/python3.12/site-packages/vllm/v1/sample/ops/topk_topp_triton.py":407:50)
#loc247 = loc("/home/ericbuehler/vllm/.venv-bench/lib/python3.12/site-packages/vllm/v1/sample/ops/topk_topp_triton.py":418:55)
#loc252 = loc("/home/ericbuehler/vllm/.venv-bench/lib/python3.12/site-packages/vllm/v1/sample/ops/topk_topp_triton.py":425:57)
#loc277 = loc("/home/ericbuehler/vllm/.venv-bench/lib/python3.12/site-packages/vllm/v1/sample/ops/topk_topp_triton.py":463:60)
#loc285 = loc("/home/ericbuehler/vllm/.venv-bench/lib/python3.12/site-packages/vllm/v1/sample/ops/topk_topp_triton.py":471:51)
#loc290 = loc("/home/ericbuehler/vllm/.venv-bench/lib/python3.12/site-packages/vllm/v1/sample/ops/topk_topp_triton.py":478:57)
#loc292 = loc("/home/ericbuehler/vllm/.venv-bench/lib/python3.12/site-packages/vllm/v1/sample/ops/topk_topp_triton.py":481:46)
#loc295 = loc("/home/ericbuehler/vllm/.venv-bench/lib/python3.12/site-packages/vllm/v1/sample/ops/topk_topp_triton.py":484:57)
#loc320 = loc("p_pivot")
#loc321 = loc("min_larger_prob")
#loc322 = loc("p_pivots_sum")
#loc338 = loc("/home/ericbuehler/vllm/.venv-bench/lib/python3.12/site-packages/vllm/v1/sample/ops/topk_topp_triton.py":543:36)
#loc341 = loc("/home/ericbuehler/vllm/.venv-bench/lib/python3.12/site-packages/vllm/v1/sample/ops/topk_topp_triton.py":549:57)
#loc345 = loc("/home/ericbuehler/vllm/.venv-bench/lib/python3.12/site-packages/vllm/v1/sample/ops/topk_topp_triton.py":553:36)
#loc348 = loc("/home/ericbuehler/vllm/.venv-bench/lib/python3.12/site-packages/vllm/v1/sample/ops/topk_topp_triton.py":559:57)
#loc361 = loc("/home/ericbuehler/vllm/.venv-bench/lib/python3.12/site-packages/vllm/v1/sample/ops/topk_topp_triton.py":573:36)
#loc366 = loc("/home/ericbuehler/vllm/.venv-bench/lib/python3.12/site-packages/vllm/v1/sample/ops/topk_topp_triton.py":576:36)
#loc421 = loc("/home/ericbuehler/vllm/.venv-bench/lib/python3.12/site-packages/vllm/v1/sample/ops/topk_topp_triton.py":638:36)
#loc424 = loc("/home/ericbuehler/vllm/.venv-bench/lib/python3.12/site-packages/vllm/v1/sample/ops/topk_topp_triton.py":641:43)
#loc428 = loc("/home/ericbuehler/vllm/.venv-bench/lib/python3.12/site-packages/vllm/v1/sample/ops/topk_topp_triton.py":645:27)
#loc443 = loc("/home/ericbuehler/vllm/.venv-bench/lib/python3.12/site-packages/vllm/v1/sample/ops/topk_topp_triton.py":661:61)
#loc447 = loc("/home/ericbuehler/vllm/.venv-bench/lib/python3.12/site-packages/vllm/v1/sample/ops/topk_topp_triton.py":667:61)
#loc452 = loc("/home/ericbuehler/vllm/.venv-bench/lib/python3.12/site-packages/vllm/v1/sample/ops/topk_topp_triton.py":671:45)
#loc482 = loc("/home/ericbuehler/vllm/.venv-bench/lib/python3.12/site-packages/vllm/v1/sample/ops/topk_topp_triton.py":699:48)
#loc484 = loc("/home/ericbuehler/vllm/.venv-bench/lib/python3.12/site-packages/vllm/v1/sample/ops/topk_topp_triton.py":701:34)
#loc487 = loc("/home/ericbuehler/vllm/.venv-bench/lib/python3.12/site-packages/vllm/v1/sample/ops/topk_topp_triton.py":703:43)
#loc520 = loc("/home/ericbuehler/vllm/.venv-bench/lib/python3.12/site-packages/vllm/v1/sample/ops/topk_topp_triton.py":748:32)
#loc523 = loc("/home/ericbuehler/vllm/.venv-bench/lib/python3.12/site-packages/vllm/v1/sample/ops/topk_topp_triton.py":754:53)
#loc527 = loc("/home/ericbuehler/vllm/.venv-bench/lib/python3.12/site-packages/vllm/v1/sample/ops/topk_topp_triton.py":758:32)
#loc530 = loc("/home/ericbuehler/vllm/.venv-bench/lib/python3.12/site-packages/vllm/v1/sample/ops/topk_topp_triton.py":764:53)
#loc543 = loc("/home/ericbuehler/vllm/.venv-bench/lib/python3.12/site-packages/vllm/v1/sample/ops/topk_topp_triton.py":778:32)
#loc548 = loc("/home/ericbuehler/vllm/.venv-bench/lib/python3.12/site-packages/vllm/v1/sample/ops/topk_topp_triton.py":781:32)
#loc609 = loc("/home/ericbuehler/vllm/.venv-bench/lib/python3.12/site-packages/vllm/v1/sample/ops/topk_topp_triton.py":853:32)
#loc612 = loc("/home/ericbuehler/vllm/.venv-bench/lib/python3.12/site-packages/vllm/v1/sample/ops/topk_topp_triton.py":859:53)
#loc616 = loc("/home/ericbuehler/vllm/.venv-bench/lib/python3.12/site-packages/vllm/v1/sample/ops/topk_topp_triton.py":863:32)
#loc619 = loc("/home/ericbuehler/vllm/.venv-bench/lib/python3.12/site-packages/vllm/v1/sample/ops/topk_topp_triton.py":869:53)
#loc631 = loc("/home/ericbuehler/vllm/.venv-bench/lib/python3.12/site-packages/vllm/v1/sample/ops/topk_topp_triton.py":881:32)
#loc636 = loc("/home/ericbuehler/vllm/.venv-bench/lib/python3.12/site-packages/vllm/v1/sample/ops/topk_topp_triton.py":884:32)
#loc698 = loc("/home/ericbuehler/vllm/.venv-bench/lib/python3.12/site-packages/vllm/v1/sample/ops/topk_topp_triton.py":953:48)
#loc704 = loc("/home/ericbuehler/vllm/.venv-bench/lib/python3.12/site-packages/vllm/v1/sample/ops/topk_topp_triton.py":958:39)
#loc712 = loc("LOGITS"(#loc))
#loc713 = loc("BUFFER"(#loc))
#loc714 = loc("PERCENTILE_TO_STD_TABLE"(#loc))
#loc715 = loc("NORMAL_CDF_TO_SIGMA_TABLE"(#loc))
#loc716 = loc("K"(#loc))
#loc717 = loc("P"(#loc))
#loc718 = loc("BATCH_SIZE"(#loc))
#loc735 = loc("num_finite"(#loc20))
#loc738 = loc("avg_logit"(#loc25))
#loc742 = loc("sq_avg_logit"(#loc29))
#loc766 = loc("max_logit"(#loc54))
#loc770 = loc("min_logit"(#loc60))
#loc773 = loc("num_finite_total"(#loc64))
#loc778 = loc("cumulative_pos"(#loc69))
#loc781 = loc("num_outliers"(#loc73))
#loc789 = loc("k_pivot"(#loc87))
#loc790 = loc("k_pivots_num"(#loc88))
#loc791 = loc("min_larger"(#loc89))
#loc792 = loc("num_min_larger"(#loc90))
#loc793 = loc("max_range"(#loc91))
#loc794 = loc("min_range"(#loc92))
#loc795 = loc("found_pivot"(#loc93))
#loc811 = loc("k_pivots_num_0"(#loc109))
#loc813 = loc("k_pivots_num_1"(#loc111))
#loc816 = loc("tile_min"(#loc115))
#loc821 = loc("tile_cnt"(#loc120))
#loc853 = loc("k_pivots_num_0"(#loc177))
#loc855 = loc("k_pivots_num_1"(#loc179))
#loc888 = loc("duplicate_count"(#loc239))
#loc896 = loc("num_kept"(#loc247))
#loc901 = loc("sum_exp_logits"(#loc252))
#loc923 = loc("duplicate_count"(#loc277))
#loc931 = loc("num_kept"(#loc285))
#loc936 = loc("sum_exp_logits"(#loc290))
#loc938 = loc("cumulative_pos"(#loc292))
#loc941 = loc("num_outliers_2"(#loc295))
#loc960 = loc("p_pivot"(#loc320))
#loc961 = loc("min_larger_prob"(#loc321))
#loc962 = loc("p_pivots_sum"(#loc322))
#loc978 = loc("p_pivots_sum_0"(#loc338))
#loc981 = loc("min_larger_0"(#loc341))
#loc985 = loc("p_pivots_sum_1"(#loc345))
#loc988 = loc("min_larger_1"(#loc348))
#loc1000 = loc("num_min_larger_0"(#loc361))
#loc1005 = loc("num_min_larger_1"(#loc366))
#loc1035 = loc("num_finite"(#loc421))
#loc1038 = loc("avg_logit"(#loc424))
#loc1042 = loc("sq_avg_logit"(#loc428))
#loc1057 = loc("max_logit"(#loc443))
#loc1061 = loc("min_logit"(#loc447))
#loc1066 = loc("sum_exp_logits"(#loc452))
#loc1095 = loc("sum_outlier_probs"(#loc482))
#loc1097 = loc("cumulative_pos"(#loc484))
#loc1100 = loc("num_outliers"(#loc487))
#loc1128 = loc("p_pivots_sum_0"(#loc520))
#loc1131 = loc("min_larger_0"(#loc523))
#loc1135 = loc("p_pivots_sum_1"(#loc527))
#loc1138 = loc("min_larger_1"(#loc530))
#loc1150 = loc("num_min_larger_0"(#loc543))
#loc1155 = loc("num_min_larger_1"(#loc548))
#loc1189 = loc("p_pivots_sum_0"(#loc609))
#loc1192 = loc("min_larger_0"(#loc612))
#loc1196 = loc("p_pivots_sum_1"(#loc616))
#loc1199 = loc("min_larger_1"(#loc619))
#loc1210 = loc("num_min_larger_0"(#loc631))
#loc1215 = loc("num_min_larger_1"(#loc636))
#loc1249 = loc("duplicate_count"(#loc698))
#loc1255 = loc("num_kept"(#loc704))
#loc1263 = loc(callsite(#loc1 at #loc735))
#loc1265 = loc(callsite(#loc1 at #loc738))
#loc1267 = loc(callsite(#loc1 at #loc742))
#loc1271 = loc(callsite(#loc1 at #loc766))
#loc1273 = loc(callsite(#loc1 at #loc770))
#loc1276 = loc(callsite(#loc1 at #loc773))
#loc1279 = loc(callsite(#loc1 at #loc778))
#loc1281 = loc(callsite(#loc1 at #loc781))
#loc1290 = loc(callsite(#loc1 at #loc811))
#loc1293 = loc(callsite(#loc1 at #loc813))
#loc1295 = loc(callsite(#loc816 at #loc114))
#loc1300 = loc(callsite(#loc821 at #loc114))
#loc1310 = loc(callsite(#loc816 at #loc129))
#loc1315 = loc(callsite(#loc821 at #loc129))
#loc1334 = loc(callsite(#loc1 at #loc853))
#loc1337 = loc(callsite(#loc1 at #loc855))
#loc1339 = loc(callsite(#loc816 at #loc181))
#loc1344 = loc(callsite(#loc821 at #loc181))
#loc1354 = loc(callsite(#loc816 at #loc182))
#loc1359 = loc(callsite(#loc821 at #loc182))
#loc1380 = loc(callsite(#loc1 at #loc888))
#loc1384 = loc(callsite(#loc1 at #loc896))
#loc1387 = loc(callsite(#loc1 at #loc901))
#loc1391 = loc(callsite(#loc1 at #loc923))
#loc1394 = loc(callsite(#loc1 at #loc931))
#loc1396 = loc(callsite(#loc1 at #loc936))
#loc1399 = loc(callsite(#loc1 at #loc938))
#loc1401 = loc(callsite(#loc1 at #loc941))
#loc1409 = loc(callsite(#loc1 at #loc978))
#loc1411 = loc(callsite(#loc1 at #loc981))
#loc1413 = loc(callsite(#loc1 at #loc985))
#loc1415 = loc(callsite(#loc1 at #loc988))
#loc1419 = loc(callsite(#loc1 at #loc1000))
#loc1422 = loc(callsite(#loc1 at #loc1005))
#loc1434 = loc(callsite(#loc1 at #loc1035))
#loc1436 = loc(callsite(#loc1 at #loc1038))
#loc1438 = loc(callsite(#loc1 at #loc1042))
#loc1441 = loc(callsite(#loc1 at #loc1057))
#loc1443 = loc(callsite(#loc1 at #loc1061))
#loc1445 = loc(callsite(#loc1 at #loc1066))
#loc1450 = loc(callsite(#loc1 at #loc1095))
#loc1453 = loc(callsite(#loc1 at #loc1097))
#loc1455 = loc(callsite(#loc1 at #loc1100))
#loc1463 = loc(callsite(#loc1 at #loc1128))
#loc1465 = loc(callsite(#loc1 at #loc1131))
#loc1467 = loc(callsite(#loc1 at #loc1135))
#loc1469 = loc(callsite(#loc1 at #loc1138))
#loc1473 = loc(callsite(#loc1 at #loc1150))
#loc1476 = loc(callsite(#loc1 at #loc1155))
#loc1486 = loc(callsite(#loc1 at #loc1189))
#loc1488 = loc(callsite(#loc1 at #loc1192))
#loc1490 = loc(callsite(#loc1 at #loc1196))
#loc1492 = loc(callsite(#loc1 at #loc1199))
#loc1496 = loc(callsite(#loc1 at #loc1210))
#loc1499 = loc(callsite(#loc1 at #loc1215))
#loc1511 = loc(callsite(#loc1 at #loc1249))
#loc1514 = loc(callsite(#loc1 at #loc1255))
#loc1536 = loc(callsite(#loc1 at #loc1295))
#loc1539 = loc(callsite(#loc1 at #loc1300))
#loc1541 = loc(callsite(#loc1 at #loc1310))
#loc1544 = loc(callsite(#loc1 at #loc1315))
#loc1553 = loc(callsite(#loc1 at #loc1339))
#loc1556 = loc(callsite(#loc1 at #loc1344))
#loc1558 = loc(callsite(#loc1 at #loc1354))
#loc1561 = loc(callsite(#loc1 at #loc1359))
module {
  tt.func public @_topk_topp_kernel(%LOGITS: !tt.ptr<f32> {tt.divisibility = 16 : i32} loc("LOGITS"(#loc)), %BUFFER: !tt.ptr<f32> {tt.divisibility = 16 : i32} loc("BUFFER"(#loc)), %PERCENTILE_TO_STD_TABLE: !tt.ptr<f32> {tt.divisibility = 16 : i32} loc("PERCENTILE_TO_STD_TABLE"(#loc)), %NORMAL_CDF_TO_SIGMA_TABLE: !tt.ptr<f32> {tt.divisibility = 16 : i32} loc("NORMAL_CDF_TO_SIGMA_TABLE"(#loc)), %K: !tt.ptr<i32> {tt.divisibility = 16 : i32} loc("K"(#loc)), %P: !tt.ptr<f32> {tt.divisibility = 16 : i32} loc("P"(#loc)), %BATCH_SIZE: i32 {tt.divisibility = 16 : i32} loc("BATCH_SIZE"(#loc))) attributes {noinline = false} {
    %cst = arith.constant dense<0x7F800000> : tensor<4096xf32> loc(#loc1)
    %c4095_i32 = arith.constant 4095 : i32 loc(#loc1)
    %c32_i32 = arith.constant 32 : i32 loc(#loc1)
    %cst_0 = arith.constant 2.621440e+05 : f32 loc(#loc1)
    %cst_1 = arith.constant dense<1.000000e+00> : tensor<8192xf32> loc(#loc1)
    %cst_2 = arith.constant -2.500000e-01 : f32 loc(#loc1)
    %cst_3 = arith.constant 1.000000e+01 : f32 loc(#loc1)
    %cst_4 = arith.constant dense<1.000000e+00> : tensor<4096xf32> loc(#loc1)
    %cst_5 = arith.constant dense<0.000000e+00> : tensor<4096xf32> loc(#loc1)
    %cst_6 = arith.constant dense<true> : tensor<8192xi1> loc(#loc1)
    %cst_7 = arith.constant dense<9.99999971E-10> : tensor<8192xf32> loc(#loc1)
    %cst_8 = arith.constant dense<true> : tensor<4096xi1> loc(#loc1)
    %cst_9 = arith.constant dense<9.99999971E-10> : tensor<4096xf32> loc(#loc1)
    %cst_10 = arith.constant 4.000000e+00 : f32 loc(#loc1)
    %cst_11 = arith.constant 9.99999971E-10 : f32 loc(#loc1)
    %c18_i32 = arith.constant 18 : i32 loc(#loc1)
    %cst_12 = arith.constant dense<0xFF800000> : tensor<4096xf32> loc(#loc1)
    %cst_13 = arith.constant 2.000000e+00 : f32 loc(#loc1)
    %cst_14 = arith.constant 3.000000e+00 : f32 loc(#loc1)
    %cst_15 = arith.constant 1.000000e+00 : f32 loc(#loc1)
    %c4096_i32 = arith.constant 4096 : i32 loc(#loc1)
    %cst_16 = arith.constant dense<-1> : tensor<8192xi32> loc(#loc1)
    %cst_17 = arith.constant dense<1> : tensor<8192xi32> loc(#loc1)
    %cst_18 = arith.constant dense<0x7F800000> : tensor<8192xf32> loc(#loc1)
    %c8192_i32 = arith.constant 8192 : i32 loc(#loc1)
    %c1_i32 = arith.constant 1 : i32 loc(#loc1)
    %cst_19 = arith.constant -1.500000e-01 : f32 loc(#loc1)
    %c199_i32 = arith.constant 199 : i32 loc(#loc1)
    %cst_20 = arith.constant 2.000000e+02 : f32 loc(#loc1)
    %c0_i32 = arith.constant 0 : i32 loc(#loc1)
    %cst_21 = arith.constant dense<0.000000e+00> : tensor<8192xf32> loc(#loc1)
    %cst_22 = arith.constant 0.000000e+00 : f32 loc(#loc1)
    %cst_23 = arith.constant dense<0xFF800000> : tensor<8192xf32> loc(#loc1)
    %cst_24 = arith.constant dense<262144> : tensor<8192xi32> loc(#loc1)
    %cst_25 = arith.constant 0x7F800000 : f32 loc(#loc1)
    %cst_26 = arith.constant 0xFF800000 : f32 loc(#loc1)
    %c262144_i32 = arith.constant 262144 : i32 loc(#loc1)
    %pid = tt.get_program_id x : i32 loc(#loc719)
    %num_programs = tt.get_num_programs x : i32 loc(#loc720)
    scf.for %row_id = %pid to %BATCH_SIZE step %num_programs  : i32 {
      %LOGITS_ROW = arith.muli %row_id, %c262144_i32 : i32 loc(#loc721)
      %LOGITS_ROW_27 = tt.addptr %LOGITS, %LOGITS_ROW : !tt.ptr<f32>, i32 loc(#loc722)
      %BUFFER_ROW = arith.muli %pid, %c262144_i32 : i32 loc(#loc723)
      %BUFFER_ROW_28 = tt.addptr %BUFFER, %BUFFER_ROW : !tt.ptr<f32>, i32 loc(#loc724)
      %k = tt.addptr %K, %row_id : !tt.ptr<i32>, i32 loc(#loc725)
      %k_29 = tt.load %k : !tt.ptr<i32> loc(#loc726)
      %0 = arith.cmpi slt, %k_29, %c262144_i32 : i32 loc(#loc11)
      %min_logit:6 = scf.if %0 -> (f32, f32, i32, i32, f32, f32) {
        %offs = tt.make_range {end = 8192 : i32, start = 0 : i32} : tensor<8192xi32> loc(#loc728)
        %mask_n = arith.cmpi slt, %offs, %cst_24 : tensor<8192xi32> loc(#loc729)
        %logits_blk0 = tt.splat %LOGITS_ROW_27 : !tt.ptr<f32> -> tensor<8192x!tt.ptr<f32>> loc(#loc730)
        %logits_blk0_30 = tt.addptr %logits_blk0, %offs : tensor<8192x!tt.ptr<f32>>, tensor<8192xi32> loc(#loc730)
        %logits_blk0_31 = tt.load %logits_blk0_30, %mask_n, %cst_23 : tensor<8192x!tt.ptr<f32>> loc(#loc731)
        %finite_mask = arith.cmpf ogt, %logits_blk0_31, %cst_23 : tensor<8192xf32> loc(#loc732)
        %finite_mask_32 = arith.andi %finite_mask, %mask_n : tensor<8192xi1> loc(#loc733)
        %input = arith.extui %finite_mask_32 : tensor<8192xi1> to tensor<8192xi32> loc(#loc1261)
        %num_finite = tt.reshape %input allow_reorder : tensor<8192xi32> -> tensor<8192xi32> loc(#loc1262)
        %num_finite_33 = "tt.reduce"(%num_finite) <{axis = 0 : i32}> ({
        ^bb0(%num_finite_61: i32 loc(callsite(#loc1 at #loc735)), %num_finite_62: i32 loc(callsite(#loc1 at #loc735))):
          %num_finite_63 = arith.addi %num_finite_61, %num_finite_62 : i32 loc(#loc1518)
          tt.reduce.return %num_finite_63 : i32 loc(#loc1262)
        }) : (tensor<8192xi32>) -> i32 loc(#loc1262)
        %finite_logits = arith.select %finite_mask_32, %logits_blk0_31, %cst_21 : tensor<8192xi1>, tensor<8192xf32> loc(#loc736)
        %avg_logit = arith.cmpi ugt, %num_finite_33, %c0_i32 : i32 loc(#loc737)
        %avg_logit_34 = tt.reshape %finite_logits allow_reorder : tensor<8192xf32> -> tensor<8192xf32> loc(#loc1264)
        %avg_logit_35 = "tt.reduce"(%avg_logit_34) <{axis = 0 : i32}> ({
        ^bb0(%avg_logit_61: f32 loc(callsite(#loc1 at #loc738)), %avg_logit_62: f32 loc(callsite(#loc1 at #loc738))):
          %avg_logit_63 = arith.addf %avg_logit_61, %avg_logit_62 : f32 loc(#loc1519)
          tt.reduce.return %avg_logit_63 : f32 loc(#loc1264)
        }) : (tensor<8192xf32>) -> f32 loc(#loc1264)
        %avg_logit_36 = arith.uitofp %num_finite_33 : i32 to f32 loc(#loc739)
        %avg_logit_37 = arith.divf %avg_logit_35, %avg_logit_36 : f32 loc(#loc739)
        %avg_logit_38 = arith.select %avg_logit, %avg_logit_37, %cst_22 : f32 loc(#loc740)
        %sq_avg_logit = arith.mulf %finite_logits, %finite_logits : tensor<8192xf32> loc(#loc741)
        %sq_avg_logit_39 = tt.reshape %sq_avg_logit allow_reorder : tensor<8192xf32> -> tensor<8192xf32> loc(#loc1266)
        %sq_avg_logit_40 = "tt.reduce"(%sq_avg_logit_39) <{axis = 0 : i32}> ({
        ^bb0(%sq_avg_logit_61: f32 loc(callsite(#loc1 at #loc742)), %sq_avg_logit_62: f32 loc(callsite(#loc1 at #loc742))):
          %sq_avg_logit_63 = arith.addf %sq_avg_logit_61, %sq_avg_logit_62 : f32 loc(#loc1520)
          tt.reduce.return %sq_avg_logit_63 : f32 loc(#loc1266)
        }) : (tensor<8192xf32>) -> f32 loc(#loc1266)
        %sq_avg_logit_41 = arith.divf %sq_avg_logit_40, %avg_logit_36 : f32 loc(#loc743)
        %sq_avg_logit_42 = arith.select %avg_logit, %sq_avg_logit_41, %cst_22 : f32 loc(#loc744)
        %std_logit = arith.mulf %avg_logit_38, %avg_logit_38 : f32 loc(#loc745)
        %std_logit_43 = arith.subf %sq_avg_logit_42, %std_logit : f32 loc(#loc746)
        %std_logit_44 = arith.maxnumf %std_logit_43, %cst_22 : f32 loc(#loc747)
        %std_logit_45 = math.sqrt %std_logit_44 : f32 loc(#loc748)
        %percentile = arith.sitofp %k_29 : i32 to f32 loc(#loc749)
        %percentile_46 = arith.divf %percentile, %cst_0 : f32 loc(#loc749)
        %percentile_47 = arith.mulf %percentile_46, %cst_20 : f32 loc(#loc750)
        %percentile_48 = arith.fptoui %percentile_47 : f32 to i32 loc(#loc751)
        %percentile_49 = arith.minui %percentile_48, %c199_i32 : i32 loc(#loc752)
        %sigma = arith.extui %percentile_49 : i32 to i64 loc(#loc753)
        %sigma_50 = tt.addptr %PERCENTILE_TO_STD_TABLE, %sigma : !tt.ptr<f32>, i64 loc(#loc753)
        %sigma_51 = tt.load %sigma_50 : !tt.ptr<f32> loc(#loc754)
        %sigma_52 = math.absf %sigma_51 : f32 loc(#loc755)
        %sigma_53 = arith.mulf %sigma_52, %cst_19 : f32 loc(#loc756)
        %sigma_54 = arith.addf %sigma_51, %sigma_53 : f32 loc(#loc757)
        %outlier_pivot = arith.mulf %std_logit_45, %sigma_54 : f32 loc(#loc758)
        %min_range = arith.addf %avg_logit_38, %outlier_pivot : f32 loc(#loc1268)
        %max_logit:5 = scf.for %i = %c0_i32 to %c32_i32 step %c1_i32 iter_args(%max_logit_61 = %cst_26, %min_logit_62 = %cst_25, %mask_n_63 = %mask_n, %num_outliers = %c0_i32, %num_finite_total = %c0_i32) -> (f32, f32, tensor<8192xi1>, i32, i32)  : i32 {
          %offs_n = arith.muli %i, %c8192_i32 : i32 loc(#loc761)
          %offs_n_64 = tt.splat %offs_n : i32 -> tensor<8192xi32> loc(#loc762)
          %offs_n_65 = arith.addi %offs_n_64, %offs : tensor<8192xi32> loc(#loc762)
          %mask_n_66 = arith.cmpi slt, %offs_n_65, %cst_24 : tensor<8192xi32> loc(#loc763)
          %logits_blk = tt.addptr %logits_blk0, %offs_n_65 : tensor<8192x!tt.ptr<f32>>, tensor<8192xi32> loc(#loc764)
          %logits_blk_67 = tt.load %logits_blk, %mask_n_66, %cst_23 : tensor<8192x!tt.ptr<f32>> loc(#loc765)
          %max_logit_68 = tt.reshape %logits_blk_67 allow_reorder : tensor<8192xf32> -> tensor<8192xf32> loc(#loc1270)
          %max_logit_69 = "tt.reduce"(%max_logit_68) <{axis = 0 : i32}> ({
          ^bb0(%max_logit_88: f32 loc(callsite(#loc1 at #loc766)), %max_logit_89: f32 loc(callsite(#loc1 at #loc766))):
            %max_logit_90 = arith.maxnumf %max_logit_88, %max_logit_89 : f32 loc(#loc1522)
            tt.reduce.return %max_logit_90 : f32 loc(#loc1270)
          }) : (tensor<8192xf32>) -> f32 loc(#loc1270)
          %max_logit_70 = arith.maxnumf %max_logit_61, %max_logit_69 : f32 loc(#loc767)
          %finite_blk_mask = arith.cmpf ogt, %logits_blk_67, %cst_23 : tensor<8192xf32> loc(#loc768)
          %finite_blk = arith.select %finite_blk_mask, %logits_blk_67, %cst_18 : tensor<8192xi1>, tensor<8192xf32> loc(#loc769)
          %min_logit_71 = tt.reshape %finite_blk allow_reorder : tensor<8192xf32> -> tensor<8192xf32> loc(#loc1272)
          %min_logit_72 = "tt.reduce"(%min_logit_71) <{axis = 0 : i32}> ({
          ^bb0(%min_logit_88: f32 loc(callsite(#loc1 at #loc770)), %min_logit_89: f32 loc(callsite(#loc1 at #loc770))):
            %min_logit_90 = arith.minnumf %min_logit_88, %min_logit_89 : f32 loc(#loc1523)
            tt.reduce.return %min_logit_90 : f32 loc(#loc1272)
          }) : (tensor<8192xf32>) -> f32 loc(#loc1272)
          %min_logit_73 = arith.minnumf %min_logit_62, %min_logit_72 : f32 loc(#loc771)
          %num_finite_total_74 = arith.andi %finite_blk_mask, %mask_n_66 : tensor<8192xi1> loc(#loc772)
          %input_75 = arith.extui %num_finite_total_74 : tensor<8192xi1> to tensor<8192xi32> loc(#loc1274)
          %num_finite_total_76 = tt.reshape %input_75 allow_reorder : tensor<8192xi32> -> tensor<8192xi32> loc(#loc1275)
          %num_finite_total_77 = "tt.reduce"(%num_finite_total_76) <{axis = 0 : i32}> ({
          ^bb0(%num_finite_total_88: i32 loc(callsite(#loc1 at #loc773)), %num_finite_total_89: i32 loc(callsite(#loc1 at #loc773))):
            %num_finite_total_90 = arith.addi %num_finite_total_88, %num_finite_total_89 : i32 loc(#loc1524)
            tt.reduce.return %num_finite_total_90 : i32 loc(#loc1275)
          }) : (tensor<8192xi32>) -> i32 loc(#loc1275)
          %num_finite_total_78 = arith.addi %num_finite_total, %num_finite_total_77 : i32 loc(#loc774)
          %outlier_mask = tt.splat %min_range : f32 -> tensor<8192xf32> loc(#loc775)
          %outlier_mask_79 = arith.cmpf ogt, %logits_blk_67, %outlier_mask : tensor<8192xf32> loc(#loc775)
          %outlier_mask_80 = arith.andi %outlier_mask_79, %mask_n_66 : tensor<8192xi1> loc(#loc776)
          %input_81 = arith.extui %outlier_mask_80 : tensor<8192xi1> to tensor<8192xi32> loc(#loc1277)
          %cumulative_pos = "tt.scan"(%input_81) <{axis = 0 : i32, reverse = false}> ({
          ^bb0(%cumulative_pos_88: i32 loc(callsite(#loc1 at #loc778)), %cumulative_pos_89: i32 loc(callsite(#loc1 at #loc778))):
            %cumulative_pos_90 = arith.addi %cumulative_pos_88, %cumulative_pos_89 : i32 loc(#loc1525)
            tt.scan.return %cumulative_pos_90 : i32 loc(#loc1278)
          }) : (tensor<8192xi32>) -> tensor<8192xi32> loc(#loc1278)
          %cumulative_pos_82 = arith.subi %cumulative_pos, %cst_17 : tensor<8192xi32> loc(#loc779)
          %cumulative_pos_83 = tt.splat %num_outliers : i32 -> tensor<8192xi32> loc(#loc780)
          %cumulative_pos_84 = arith.addi %cumulative_pos_82, %cumulative_pos_83 : tensor<8192xi32> loc(#loc780)
          %num_outliers_85 = tt.reshape %input_81 allow_reorder : tensor<8192xi32> -> tensor<8192xi32> loc(#loc1280)
          %num_outliers_86 = "tt.reduce"(%num_outliers_85) <{axis = 0 : i32}> ({
          ^bb0(%num_outliers_88: i32 loc(callsite(#loc1 at #loc781)), %num_outliers_89: i32 loc(callsite(#loc1 at #loc781))):
            %num_outliers_90 = arith.addi %num_outliers_88, %num_outliers_89 : i32 loc(#loc1526)
            tt.reduce.return %num_outliers_90 : i32 loc(#loc1280)
          }) : (tensor<8192xi32>) -> i32 loc(#loc1280)
          %num_outliers_87 = arith.addi %num_outliers, %num_outliers_86 : i32 loc(#loc782)
          %write_pos = arith.select %outlier_mask_80, %cumulative_pos_84, %cst_16 : tensor<8192xi1>, tensor<8192xi32> loc(#loc783)
          %4 = tt.splat %BUFFER_ROW_28 : !tt.ptr<f32> -> tensor<8192x!tt.ptr<f32>> loc(#loc76)
          %5 = tt.addptr %4, %write_pos : tensor<8192x!tt.ptr<f32>>, tensor<8192xi32> loc(#loc76)
          tt.store %5, %logits_blk_67, %outlier_mask_80 : tensor<8192x!tt.ptr<f32>> loc(#loc77)
          scf.yield %max_logit_70, %min_logit_73, %mask_n_66, %num_outliers_87, %num_finite_total_78 : f32, f32, tensor<8192xi1>, i32, i32 loc(#loc78)
        } loc(#loc1750)
        %min_logit_55 = arith.minnumf %max_logit#1, %max_logit#0 : f32 loc(#loc1631)
        %3 = arith.cmpi ugt, %max_logit#3, %k_29 : i32 loc(#loc80)
        %min_range_56:4 = scf.if %3 -> (f32, i32, f32, i32) {
          %search_iters = arith.addi %max_logit#3, %c4095_i32 : i32 loc(#loc786)
          %search_iters_61 = arith.divui %search_iters, %c4096_i32 : i32 loc(#loc787)
          %min_range_62:8 = scf.while (%num_iters = %c0_i32, %k_pivot = %cst_25, %k_pivots_num = %c0_i32, %min_larger = %cst_25, %num_min_larger = %c0_i32, %max_range = %max_logit#0, %min_range_63 = %min_range, %found_pivot = %c0_i32) : (i32, f32, i32, f32, i32, f32, f32, i32) -> (i32, f32, i32, f32, i32, f32, f32, i32) {
            %4 = arith.cmpi eq, %found_pivot, %c0_i32 : i32 loc(#loc85)
            scf.condition(%4) %num_iters, %k_pivot, %k_pivots_num, %min_larger, %num_min_larger, %max_range, %min_range_63, %found_pivot : i32, f32, i32, f32, i32, f32, f32, i32 loc(#loc85)
          } do {
          ^bb0(%num_iters: i32 loc("num_iters"), %k_pivot: f32 loc("k_pivot"(#loc87)), %k_pivots_num: i32 loc("k_pivots_num"(#loc88)), %min_larger: f32 loc("min_larger"(#loc89)), %num_min_larger: i32 loc("num_min_larger"(#loc90)), %max_range: f32 loc("max_range"(#loc91)), %min_range_63: f32 loc("min_range"(#loc92)), %found_pivot: i32 loc("found_pivot"(#loc93))):
            %k_pivot_0 = arith.subf %max_range, %min_range_63 : f32 loc(#loc796)
            %k_pivot_0_64 = arith.divf %k_pivot_0, %cst_14 : f32 loc(#loc797)
            %max_range_65 = arith.addf %k_pivot_0_64, %min_range_63 : f32 loc(#loc1634)
            %k_pivot_1 = arith.mulf %k_pivot_0, %cst_13 : f32 loc(#loc799)
            %k_pivot_1_66 = arith.divf %k_pivot_1, %cst_14 : f32 loc(#loc800)
            %max_range_67 = arith.addf %k_pivot_1_66, %min_range_63 : f32 loc(#loc1635)
            %num_min_larger_68:6 = scf.for %i = %c0_i32 to %search_iters_61 step %c1_i32 iter_args(%k_pivots_num_0 = %c0_i32, %min_larger_0 = %cst_25, %num_min_larger_0 = %c0_i32, %k_pivots_num_1 = %c0_i32, %min_larger_1 = %cst_25, %num_min_larger_1 = %c0_i32) -> (i32, f32, i32, i32, f32, i32)  : i32 {
              %offs_n = arith.muli %i, %c4096_i32 : i32 loc(#loc803)
              %offs_n_80 = tt.make_range {end = 4096 : i32, start = 0 : i32} : tensor<4096xi32> loc(#loc804)
              %offs_n_81 = tt.splat %offs_n : i32 -> tensor<4096xi32> loc(#loc805)
              %offs_n_82 = arith.addi %offs_n_81, %offs_n_80 : tensor<4096xi32> loc(#loc805)
              %mask_n_2 = tt.splat %max_logit#3 : i32 -> tensor<4096xi32> loc(#loc806)
              %mask_n_2_83 = arith.cmpi slt, %offs_n_82, %mask_n_2 : tensor<4096xi32> loc(#loc806)
              %logits_blk2 = tt.splat %BUFFER_ROW_28 : !tt.ptr<f32> -> tensor<4096x!tt.ptr<f32>> loc(#loc807)
              %logits_blk2_84 = tt.addptr %logits_blk2, %offs_n_82 : tensor<4096x!tt.ptr<f32>>, tensor<4096xi32> loc(#loc807)
              %logits_blk2_85 = tt.load %logits_blk2_84, %mask_n_2_83, %cst_12 : tensor<4096x!tt.ptr<f32>> loc(#loc808)
              %above_0 = tt.splat %max_range_65 : f32 -> tensor<4096xf32> loc(#loc809)
              %above_0_86 = arith.cmpf ogt, %logits_blk2_85, %above_0 : tensor<4096xf32> loc(#loc809)
              %above_1 = tt.splat %max_range_67 : f32 -> tensor<4096xf32> loc(#loc810)
              %above_1_87 = arith.cmpf ogt, %logits_blk2_85, %above_1 : tensor<4096xf32> loc(#loc810)
              %input_88 = arith.extui %above_0_86 : tensor<4096xi1> to tensor<4096xi32> loc(#loc1288)
              %k_pivots_num_0_89 = tt.reshape %input_88 allow_reorder : tensor<4096xi32> -> tensor<4096xi32> loc(#loc1289)
              %k_pivots_num_0_90 = "tt.reduce"(%k_pivots_num_0_89) <{axis = 0 : i32}> ({
              ^bb0(%k_pivots_num_0_131: i32 loc(callsite(#loc1 at #loc811)), %k_pivots_num_0_132: i32 loc(callsite(#loc1 at #loc811))):
                %k_pivots_num_0_133 = arith.addi %k_pivots_num_0_131, %k_pivots_num_0_132 : i32 loc(#loc1533)
                tt.reduce.return %k_pivots_num_0_133 : i32 loc(#loc1289)
              }) : (tensor<4096xi32>) -> i32 loc(#loc1289)
              %k_pivots_num_0_91 = arith.addi %k_pivots_num_0, %k_pivots_num_0_90 : i32 loc(#loc812)
              %input_92 = arith.extui %above_1_87 : tensor<4096xi1> to tensor<4096xi32> loc(#loc1291)
              %k_pivots_num_1_93 = tt.reshape %input_92 allow_reorder : tensor<4096xi32> -> tensor<4096xi32> loc(#loc1292)
              %k_pivots_num_1_94 = "tt.reduce"(%k_pivots_num_1_93) <{axis = 0 : i32}> ({
              ^bb0(%k_pivots_num_1_131: i32 loc(callsite(#loc1 at #loc813)), %k_pivots_num_1_132: i32 loc(callsite(#loc1 at #loc813))):
                %k_pivots_num_1_133 = arith.addi %k_pivots_num_1_131, %k_pivots_num_1_132 : i32 loc(#loc1534)
                tt.reduce.return %k_pivots_num_1_133 : i32 loc(#loc1292)
              }) : (tensor<4096xi32>) -> i32 loc(#loc1292)
              %k_pivots_num_1_95 = arith.addi %k_pivots_num_1, %k_pivots_num_1_94 : i32 loc(#loc814)
              %tile_min = arith.select %above_0_86, %logits_blk2_85, %cst : tensor<4096xi1>, tensor<4096xf32> loc(#loc1294)
              %tile_min_96 = tt.reshape %tile_min allow_reorder : tensor<4096xf32> -> tensor<4096xf32> loc(#loc1535)
              %tile_min_97 = "tt.reduce"(%tile_min_96) <{axis = 0 : i32}> ({
              ^bb0(%tile_min_131: f32 loc(callsite(#loc1 at #loc1295)), %tile_min_132: f32 loc(callsite(#loc1 at #loc1295))):
                %tile_min_133 = arith.minnumf %tile_min_131, %tile_min_132 : f32 loc(#loc1637)
                tt.reduce.return %tile_min_133 : f32 loc(#loc1535)
              }) : (tensor<4096xf32>) -> f32 loc(#loc1535)
              %tile_eq = tt.splat %tile_min_97 : f32 -> tensor<4096xf32> loc(#loc1296)
              %tile_eq_98 = arith.subf %logits_blk2_85, %tile_eq : tensor<4096xf32> loc(#loc1296)
              %tile_eq_99 = math.absf %tile_eq_98 : tensor<4096xf32> loc(#loc1297)
              %tile_eq_100 = arith.cmpf olt, %tile_eq_99, %cst_9 : tensor<4096xf32> loc(#loc1298)
              %tile_eq_101 = arith.andi %above_0_86, %tile_eq_100 : tensor<4096xi1> loc(#loc1299)
              %input_102 = arith.extui %tile_eq_101 : tensor<4096xi1> to tensor<4096xi32> loc(#loc1537)
              %tile_cnt = tt.reshape %input_102 allow_reorder : tensor<4096xi32> -> tensor<4096xi32> loc(#loc1538)
              %tile_cnt_103 = "tt.reduce"(%tile_cnt) <{axis = 0 : i32}> ({
              ^bb0(%tile_cnt_131: i32 loc(callsite(#loc1 at #loc1300)), %tile_cnt_132: i32 loc(callsite(#loc1 at #loc1300))):
                %tile_cnt_133 = arith.addi %tile_cnt_131, %tile_cnt_132 : i32 loc(#loc1638)
                tt.reduce.return %tile_cnt_133 : i32 loc(#loc1538)
              }) : (tensor<4096xi32>) -> i32 loc(#loc1538)
              %is_new = arith.cmpf olt, %tile_min_97, %min_larger_0 : f32 loc(#loc1301)
              %is_same = arith.subf %tile_min_97, %min_larger_0 : f32 loc(#loc1302)
              %is_same_104 = math.absf %is_same : f32 loc(#loc1303)
              %is_same_105 = arith.cmpf olt, %is_same_104, %cst_11 : f32 loc(#loc1304)
              %num_min_larger_106 = arith.extui %is_same_105 : i1 to i32 loc(#loc1305)
              %num_min_larger_107 = arith.muli %tile_cnt_103, %num_min_larger_106 : i32 loc(#loc1305)
              %num_min_larger_108 = arith.addi %num_min_larger_0, %num_min_larger_107 : i32 loc(#loc1306)
              %num_min_larger_109 = arith.select %is_new, %tile_cnt_103, %num_min_larger_108 : i32 loc(#loc1307)
              %min_larger_110 = arith.minnumf %min_larger_0, %tile_min_97 : f32 loc(#loc1308)
              %tile_min_111 = arith.select %above_1_87, %logits_blk2_85, %cst : tensor<4096xi1>, tensor<4096xf32> loc(#loc1309)
              %tile_min_112 = tt.reshape %tile_min_111 allow_reorder : tensor<4096xf32> -> tensor<4096xf32> loc(#loc1540)
              %tile_min_113 = "tt.reduce"(%tile_min_112) <{axis = 0 : i32}> ({
              ^bb0(%tile_min_131: f32 loc(callsite(#loc1 at #loc1310)), %tile_min_132: f32 loc(callsite(#loc1 at #loc1310))):
                %tile_min_133 = arith.minnumf %tile_min_131, %tile_min_132 : f32 loc(#loc1639)
                tt.reduce.return %tile_min_133 : f32 loc(#loc1540)
              }) : (tensor<4096xf32>) -> f32 loc(#loc1540)
              %tile_eq_114 = tt.splat %tile_min_113 : f32 -> tensor<4096xf32> loc(#loc1311)
              %tile_eq_115 = arith.subf %logits_blk2_85, %tile_eq_114 : tensor<4096xf32> loc(#loc1311)
              %tile_eq_116 = math.absf %tile_eq_115 : tensor<4096xf32> loc(#loc1312)
              %tile_eq_117 = arith.cmpf olt, %tile_eq_116, %cst_9 : tensor<4096xf32> loc(#loc1313)
              %tile_eq_118 = arith.andi %above_1_87, %tile_eq_117 : tensor<4096xi1> loc(#loc1314)
              %input_119 = arith.extui %tile_eq_118 : tensor<4096xi1> to tensor<4096xi32> loc(#loc1542)
              %tile_cnt_120 = tt.reshape %input_119 allow_reorder : tensor<4096xi32> -> tensor<4096xi32> loc(#loc1543)
              %tile_cnt_121 = "tt.reduce"(%tile_cnt_120) <{axis = 0 : i32}> ({
              ^bb0(%tile_cnt_131: i32 loc(callsite(#loc1 at #loc1315)), %tile_cnt_132: i32 loc(callsite(#loc1 at #loc1315))):
                %tile_cnt_133 = arith.addi %tile_cnt_131, %tile_cnt_132 : i32 loc(#loc1640)
                tt.reduce.return %tile_cnt_133 : i32 loc(#loc1543)
              }) : (tensor<4096xi32>) -> i32 loc(#loc1543)
              %is_new_122 = arith.cmpf olt, %tile_min_113, %min_larger_1 : f32 loc(#loc1316)
              %is_same_123 = arith.subf %tile_min_113, %min_larger_1 : f32 loc(#loc1317)
              %is_same_124 = math.absf %is_same_123 : f32 loc(#loc1318)
              %is_same_125 = arith.cmpf olt, %is_same_124, %cst_11 : f32 loc(#loc1319)
              %num_min_larger_126 = arith.extui %is_same_125 : i1 to i32 loc(#loc1320)
              %num_min_larger_127 = arith.muli %tile_cnt_121, %num_min_larger_126 : i32 loc(#loc1320)
              %num_min_larger_128 = arith.addi %num_min_larger_1, %num_min_larger_127 : i32 loc(#loc1321)
              %num_min_larger_129 = arith.select %is_new_122, %tile_cnt_121, %num_min_larger_128 : i32 loc(#loc1322)
              %min_larger_130 = arith.minnumf %min_larger_1, %tile_min_113 : f32 loc(#loc1323)
              scf.yield %k_pivots_num_0_91, %min_larger_110, %num_min_larger_109, %k_pivots_num_1_95, %min_larger_130, %num_min_larger_129 : i32, f32, i32, i32, f32, i32 loc(#loc130)
            } loc(#loc1784)
            %4 = arith.cmpi uge, %num_min_larger_68#0, %k_29 : i32 loc(#loc131)
            %5 = arith.subi %num_min_larger_68#0, %num_min_larger_68#2 : i32 loc(#loc132)
            %6 = arith.cmpi ult, %5, %k_29 : i32 loc(#loc133)
            %7 = arith.andi %4, %6 : i1 loc(#loc134)
            %found_pivot_69 = arith.select %7, %max_range_65, %k_pivot : f32 loc(#loc1682)
            %found_pivot_70 = arith.select %7, %num_min_larger_68#0, %k_pivots_num : i32 loc(#loc1682)
            %found_pivot_71 = arith.select %7, %num_min_larger_68#1, %min_larger : f32 loc(#loc1682)
            %found_pivot_72 = arith.select %7, %num_min_larger_68#2, %num_min_larger : i32 loc(#loc1682)
            %found_pivot_73 = arith.select %7, %c1_i32, %found_pivot : i32 loc(#loc1682)
            %8 = arith.cmpi uge, %num_min_larger_68#3, %k_29 : i32 loc(#loc136)
            %9 = arith.subi %num_min_larger_68#3, %num_min_larger_68#5 : i32 loc(#loc137)
            %10 = arith.cmpi ult, %9, %k_29 : i32 loc(#loc138)
            %11 = arith.andi %8, %10 : i1 loc(#loc139)
            %found_pivot_74 = arith.select %11, %max_range_67, %found_pivot_69 : f32 loc(#loc1325)
            %found_pivot_75 = arith.select %11, %num_min_larger_68#3, %found_pivot_70 : i32 loc(#loc1325)
            %found_pivot_76 = arith.select %11, %num_min_larger_68#4, %found_pivot_71 : f32 loc(#loc1325)
            %found_pivot_77 = arith.select %11, %num_min_larger_68#5, %found_pivot_72 : i32 loc(#loc1325)
            %found_pivot_78 = arith.select %11, %c1_i32, %found_pivot_73 : i32 loc(#loc1325)
            %12 = arith.cmpi ugt, %num_min_larger_68#3, %k_29 : i32 loc(#loc141)
            %13 = scf.if %12 -> (f32) {
              scf.yield %max_range_67 : f32 loc(#loc142)
            } else {
              %23 = arith.cmpi ugt, %num_min_larger_68#0, %k_29 : i32 loc(#loc143)
              %min_range_80 = arith.select %23, %max_range_65, %min_range_63 : f32 loc(#loc832)
              scf.yield %min_range_80 : f32 loc(#loc144)
            } loc(#loc142)
            %14 = arith.cmpi ult, %num_min_larger_68#0, %k_29 : i32 loc(#loc145)
            %15 = scf.if %14 -> (f32) {
              scf.yield %max_range_65 : f32 loc(#loc146)
            } else {
              %23 = arith.cmpi ult, %num_min_larger_68#3, %k_29 : i32 loc(#loc147)
              %max_range_80 = arith.select %23, %max_range_67, %max_range : f32 loc(#loc833)
              scf.yield %max_range_80 : f32 loc(#loc148)
            } loc(#loc146)
            %num_iters_79 = arith.addi %num_iters, %c1_i32 : i32 loc(#loc834)
            %16 = arith.cmpi sge, %num_iters_79, %c18_i32 : i32 loc(#loc150)
            %17 = arith.subf %13, %15 : f32 loc(#loc151)
            %18 = math.absf %17 : f32 loc(#loc152)
            %19 = arith.cmpf olt, %18, %cst_11 : f32 loc(#loc153)
            %20 = arith.ori %16, %19 : i1 loc(#loc154)
            %21 = arith.select %20, %c1_i32, %found_pivot_78 : i32 loc(#loc155)
            %22 = scf.if %20 -> (f32) {
              %k_pivot_80 = arith.addf %15, %13 : f32 loc(#loc835)
              %k_pivot_81 = arith.divf %k_pivot_80, %cst_13 : f32 loc(#loc1326)
              scf.yield %k_pivot_81 : f32 loc(#loc1327)
            } else {
              scf.yield %found_pivot_74 : f32 loc(#loc155)
            } loc(#loc155)
            scf.yield %num_iters_79, %22, %found_pivot_75, %found_pivot_76, %found_pivot_77, %15, %13, %21 : i32, f32, i32, f32, i32, f32, f32, i32 loc(#loc159)
          } loc(#loc1825)
          scf.yield %min_range_62#1, %min_range_62#2, %min_range_62#3, %min_range_62#4 : f32, i32, f32, i32 loc(#loc1825)
        } else {
          %min_range_61:9 = scf.while (%mask_n_62 = %max_logit#2, %num_iters = %c0_i32, %k_pivot = %cst_25, %k_pivots_num = %c0_i32, %min_larger = %cst_25, %num_min_larger = %c0_i32, %max_range = %max_logit#0, %min_range_63 = %min_logit_55, %found_pivot = %c0_i32) : (tensor<8192xi1>, i32, f32, i32, f32, i32, f32, f32, i32) -> (tensor<8192xi1>, i32, f32, i32, f32, i32, f32, f32, i32) {
            %4 = arith.cmpi eq, %found_pivot, %c0_i32 : i32 loc(#loc161)
            scf.condition(%4) %mask_n_62, %num_iters, %k_pivot, %k_pivots_num, %min_larger, %num_min_larger, %max_range, %min_range_63, %found_pivot : tensor<8192xi1>, i32, f32, i32, f32, i32, f32, f32, i32 loc(#loc161)
          } do {
          ^bb0(%mask_n_62: tensor<8192xi1> loc("mask_n"), %num_iters: i32 loc("num_iters"), %k_pivot: f32 loc("k_pivot"(#loc87)), %k_pivots_num: i32 loc("k_pivots_num"(#loc88)), %min_larger: f32 loc("min_larger"(#loc89)), %num_min_larger: i32 loc("num_min_larger"(#loc90)), %max_range: f32 loc("max_range"(#loc91)), %min_range_63: f32 loc("min_range"(#loc92)), %found_pivot: i32 loc("found_pivot"(#loc93))):
            %k_pivot_0 = arith.subf %max_range, %min_range_63 : f32 loc(#loc839)
            %k_pivot_0_64 = arith.divf %k_pivot_0, %cst_10 : f32 loc(#loc840)
            %max_range_65 = arith.addf %k_pivot_0_64, %min_range_63 : f32 loc(#loc1643)
            %k_pivot_1 = arith.mulf %k_pivot_0, %cst_13 : f32 loc(#loc842)
            %k_pivot_1_66 = arith.divf %k_pivot_1, %cst_10 : f32 loc(#loc843)
            %max_range_67 = arith.addf %k_pivot_1_66, %min_range_63 : f32 loc(#loc1644)
            %num_min_larger_68:7 = scf.for %i = %c0_i32 to %c32_i32 step %c1_i32 iter_args(%mask_n_80 = %mask_n_62, %k_pivots_num_0 = %c0_i32, %min_larger_0 = %cst_25, %num_min_larger_0 = %c0_i32, %k_pivots_num_1 = %c0_i32, %min_larger_1 = %cst_25, %num_min_larger_1 = %c0_i32) -> (tensor<8192xi1>, i32, f32, i32, i32, f32, i32)  : i32 {
              %offs_n = arith.muli %i, %c8192_i32 : i32 loc(#loc846)
              %offs_n_81 = tt.splat %offs_n : i32 -> tensor<8192xi32> loc(#loc847)
              %offs_n_82 = arith.addi %offs_n_81, %offs : tensor<8192xi32> loc(#loc847)
              %mask_n_83 = arith.cmpi slt, %offs_n_82, %cst_24 : tensor<8192xi32> loc(#loc848)
              %logits_blk2 = tt.addptr %logits_blk0, %offs_n_82 : tensor<8192x!tt.ptr<f32>>, tensor<8192xi32> loc(#loc849)
              %logits_blk2_84 = tt.load %logits_blk2, %mask_n_83, %cst_23 : tensor<8192x!tt.ptr<f32>> loc(#loc850)
              %above_0 = tt.splat %max_range_65 : f32 -> tensor<8192xf32> loc(#loc851)
              %above_0_85 = arith.cmpf ogt, %logits_blk2_84, %above_0 : tensor<8192xf32> loc(#loc851)
              %above_1 = tt.splat %max_range_67 : f32 -> tensor<8192xf32> loc(#loc852)
              %above_1_86 = arith.cmpf ogt, %logits_blk2_84, %above_1 : tensor<8192xf32> loc(#loc852)
              %input_87 = arith.extui %above_0_85 : tensor<8192xi1> to tensor<8192xi32> loc(#loc1332)
              %k_pivots_num_0_88 = tt.reshape %input_87 allow_reorder : tensor<8192xi32> -> tensor<8192xi32> loc(#loc1333)
              %k_pivots_num_0_89 = "tt.reduce"(%k_pivots_num_0_88) <{axis = 0 : i32}> ({
              ^bb0(%k_pivots_num_0_130: i32 loc(callsite(#loc1 at #loc853)), %k_pivots_num_0_131: i32 loc(callsite(#loc1 at #loc853))):
                %k_pivots_num_0_132 = arith.addi %k_pivots_num_0_130, %k_pivots_num_0_131 : i32 loc(#loc1550)
                tt.reduce.return %k_pivots_num_0_132 : i32 loc(#loc1333)
              }) : (tensor<8192xi32>) -> i32 loc(#loc1333)
              %k_pivots_num_0_90 = arith.addi %k_pivots_num_0, %k_pivots_num_0_89 : i32 loc(#loc854)
              %input_91 = arith.extui %above_1_86 : tensor<8192xi1> to tensor<8192xi32> loc(#loc1335)
              %k_pivots_num_1_92 = tt.reshape %input_91 allow_reorder : tensor<8192xi32> -> tensor<8192xi32> loc(#loc1336)
              %k_pivots_num_1_93 = "tt.reduce"(%k_pivots_num_1_92) <{axis = 0 : i32}> ({
              ^bb0(%k_pivots_num_1_130: i32 loc(callsite(#loc1 at #loc855)), %k_pivots_num_1_131: i32 loc(callsite(#loc1 at #loc855))):
                %k_pivots_num_1_132 = arith.addi %k_pivots_num_1_130, %k_pivots_num_1_131 : i32 loc(#loc1551)
                tt.reduce.return %k_pivots_num_1_132 : i32 loc(#loc1336)
              }) : (tensor<8192xi32>) -> i32 loc(#loc1336)
              %k_pivots_num_1_94 = arith.addi %k_pivots_num_1, %k_pivots_num_1_93 : i32 loc(#loc856)
              %tile_min = arith.select %above_0_85, %logits_blk2_84, %cst_18 : tensor<8192xi1>, tensor<8192xf32> loc(#loc1338)
              %tile_min_95 = tt.reshape %tile_min allow_reorder : tensor<8192xf32> -> tensor<8192xf32> loc(#loc1552)
              %tile_min_96 = "tt.reduce"(%tile_min_95) <{axis = 0 : i32}> ({
              ^bb0(%tile_min_130: f32 loc(callsite(#loc1 at #loc1339)), %tile_min_131: f32 loc(callsite(#loc1 at #loc1339))):
                %tile_min_132 = arith.minnumf %tile_min_130, %tile_min_131 : f32 loc(#loc1646)
                tt.reduce.return %tile_min_132 : f32 loc(#loc1552)
              }) : (tensor<8192xf32>) -> f32 loc(#loc1552)
              %tile_eq = tt.splat %tile_min_96 : f32 -> tensor<8192xf32> loc(#loc1340)
              %tile_eq_97 = arith.subf %logits_blk2_84, %tile_eq : tensor<8192xf32> loc(#loc1340)
              %tile_eq_98 = math.absf %tile_eq_97 : tensor<8192xf32> loc(#loc1341)
              %tile_eq_99 = arith.cmpf olt, %tile_eq_98, %cst_7 : tensor<8192xf32> loc(#loc1342)
              %tile_eq_100 = arith.andi %above_0_85, %tile_eq_99 : tensor<8192xi1> loc(#loc1343)
              %input_101 = arith.extui %tile_eq_100 : tensor<8192xi1> to tensor<8192xi32> loc(#loc1554)
              %tile_cnt = tt.reshape %input_101 allow_reorder : tensor<8192xi32> -> tensor<8192xi32> loc(#loc1555)
              %tile_cnt_102 = "tt.reduce"(%tile_cnt) <{axis = 0 : i32}> ({
              ^bb0(%tile_cnt_130: i32 loc(callsite(#loc1 at #loc1344)), %tile_cnt_131: i32 loc(callsite(#loc1 at #loc1344))):
                %tile_cnt_132 = arith.addi %tile_cnt_130, %tile_cnt_131 : i32 loc(#loc1647)
                tt.reduce.return %tile_cnt_132 : i32 loc(#loc1555)
              }) : (tensor<8192xi32>) -> i32 loc(#loc1555)
              %is_new = arith.cmpf olt, %tile_min_96, %min_larger_0 : f32 loc(#loc1345)
              %is_same = arith.subf %tile_min_96, %min_larger_0 : f32 loc(#loc1346)
              %is_same_103 = math.absf %is_same : f32 loc(#loc1347)
              %is_same_104 = arith.cmpf olt, %is_same_103, %cst_11 : f32 loc(#loc1348)
              %num_min_larger_105 = arith.extui %is_same_104 : i1 to i32 loc(#loc1349)
              %num_min_larger_106 = arith.muli %tile_cnt_102, %num_min_larger_105 : i32 loc(#loc1349)
              %num_min_larger_107 = arith.addi %num_min_larger_0, %num_min_larger_106 : i32 loc(#loc1350)
              %num_min_larger_108 = arith.select %is_new, %tile_cnt_102, %num_min_larger_107 : i32 loc(#loc1351)
              %min_larger_109 = arith.minnumf %min_larger_0, %tile_min_96 : f32 loc(#loc1352)
              %tile_min_110 = arith.select %above_1_86, %logits_blk2_84, %cst_18 : tensor<8192xi1>, tensor<8192xf32> loc(#loc1353)
              %tile_min_111 = tt.reshape %tile_min_110 allow_reorder : tensor<8192xf32> -> tensor<8192xf32> loc(#loc1557)
              %tile_min_112 = "tt.reduce"(%tile_min_111) <{axis = 0 : i32}> ({
              ^bb0(%tile_min_130: f32 loc(callsite(#loc1 at #loc1354)), %tile_min_131: f32 loc(callsite(#loc1 at #loc1354))):
                %tile_min_132 = arith.minnumf %tile_min_130, %tile_min_131 : f32 loc(#loc1648)
                tt.reduce.return %tile_min_132 : f32 loc(#loc1557)
              }) : (tensor<8192xf32>) -> f32 loc(#loc1557)
              %tile_eq_113 = tt.splat %tile_min_112 : f32 -> tensor<8192xf32> loc(#loc1355)
              %tile_eq_114 = arith.subf %logits_blk2_84, %tile_eq_113 : tensor<8192xf32> loc(#loc1355)
              %tile_eq_115 = math.absf %tile_eq_114 : tensor<8192xf32> loc(#loc1356)
              %tile_eq_116 = arith.cmpf olt, %tile_eq_115, %cst_7 : tensor<8192xf32> loc(#loc1357)
              %tile_eq_117 = arith.andi %above_1_86, %tile_eq_116 : tensor<8192xi1> loc(#loc1358)
              %input_118 = arith.extui %tile_eq_117 : tensor<8192xi1> to tensor<8192xi32> loc(#loc1559)
              %tile_cnt_119 = tt.reshape %input_118 allow_reorder : tensor<8192xi32> -> tensor<8192xi32> loc(#loc1560)
              %tile_cnt_120 = "tt.reduce"(%tile_cnt_119) <{axis = 0 : i32}> ({
              ^bb0(%tile_cnt_130: i32 loc(callsite(#loc1 at #loc1359)), %tile_cnt_131: i32 loc(callsite(#loc1 at #loc1359))):
                %tile_cnt_132 = arith.addi %tile_cnt_130, %tile_cnt_131 : i32 loc(#loc1649)
                tt.reduce.return %tile_cnt_132 : i32 loc(#loc1560)
              }) : (tensor<8192xi32>) -> i32 loc(#loc1560)
              %is_new_121 = arith.cmpf olt, %tile_min_112, %min_larger_1 : f32 loc(#loc1360)
              %is_same_122 = arith.subf %tile_min_112, %min_larger_1 : f32 loc(#loc1361)
              %is_same_123 = math.absf %is_same_122 : f32 loc(#loc1362)
              %is_same_124 = arith.cmpf olt, %is_same_123, %cst_11 : f32 loc(#loc1363)
              %num_min_larger_125 = arith.extui %is_same_124 : i1 to i32 loc(#loc1364)
              %num_min_larger_126 = arith.muli %tile_cnt_120, %num_min_larger_125 : i32 loc(#loc1364)
              %num_min_larger_127 = arith.addi %num_min_larger_1, %num_min_larger_126 : i32 loc(#loc1365)
              %num_min_larger_128 = arith.select %is_new_121, %tile_cnt_120, %num_min_larger_127 : i32 loc(#loc1366)
              %min_larger_129 = arith.minnumf %min_larger_1, %tile_min_112 : f32 loc(#loc1367)
              scf.yield %mask_n_83, %k_pivots_num_0_90, %min_larger_109, %num_min_larger_108, %k_pivots_num_1_94, %min_larger_129, %num_min_larger_128 : tensor<8192xi1>, i32, f32, i32, i32, f32, i32 loc(#loc183)
            } loc(#loc1795)
            %4 = arith.cmpi uge, %num_min_larger_68#1, %k_29 : i32 loc(#loc184)
            %5 = arith.subi %num_min_larger_68#1, %num_min_larger_68#3 : i32 loc(#loc185)
            %6 = arith.cmpi ult, %5, %k_29 : i32 loc(#loc186)
            %7 = arith.andi %4, %6 : i1 loc(#loc187)
            %found_pivot_69 = arith.select %7, %max_range_65, %k_pivot : f32 loc(#loc1685)
            %found_pivot_70 = arith.select %7, %num_min_larger_68#1, %k_pivots_num : i32 loc(#loc1685)
            %found_pivot_71 = arith.select %7, %num_min_larger_68#2, %min_larger : f32 loc(#loc1685)
            %found_pivot_72 = arith.select %7, %num_min_larger_68#3, %num_min_larger : i32 loc(#loc1685)
            %found_pivot_73 = arith.select %7, %c1_i32, %found_pivot : i32 loc(#loc1685)
            %8 = arith.cmpi uge, %num_min_larger_68#4, %k_29 : i32 loc(#loc189)
            %9 = arith.subi %num_min_larger_68#4, %num_min_larger_68#6 : i32 loc(#loc190)
            %10 = arith.cmpi ult, %9, %k_29 : i32 loc(#loc191)
            %11 = arith.andi %8, %10 : i1 loc(#loc192)
            %found_pivot_74 = arith.select %11, %max_range_67, %found_pivot_69 : f32 loc(#loc1369)
            %found_pivot_75 = arith.select %11, %num_min_larger_68#4, %found_pivot_70 : i32 loc(#loc1369)
            %found_pivot_76 = arith.select %11, %num_min_larger_68#5, %found_pivot_71 : f32 loc(#loc1369)
            %found_pivot_77 = arith.select %11, %num_min_larger_68#6, %found_pivot_72 : i32 loc(#loc1369)
            %found_pivot_78 = arith.select %11, %c1_i32, %found_pivot_73 : i32 loc(#loc1369)
            %12 = arith.cmpi ugt, %num_min_larger_68#4, %k_29 : i32 loc(#loc194)
            %13 = scf.if %12 -> (f32) {
              scf.yield %max_range_67 : f32 loc(#loc195)
            } else {
              %23 = arith.cmpi ugt, %num_min_larger_68#1, %k_29 : i32 loc(#loc196)
              %min_range_80 = arith.select %23, %max_range_65, %min_range_63 : f32 loc(#loc859)
              scf.yield %min_range_80 : f32 loc(#loc197)
            } loc(#loc195)
            %14 = arith.cmpi ult, %num_min_larger_68#1, %k_29 : i32 loc(#loc198)
            %15 = scf.if %14 -> (f32) {
              scf.yield %max_range_65 : f32 loc(#loc199)
            } else {
              %23 = arith.cmpi ult, %num_min_larger_68#4, %k_29 : i32 loc(#loc200)
              %max_range_80 = arith.select %23, %max_range_67, %max_range : f32 loc(#loc860)
              scf.yield %max_range_80 : f32 loc(#loc201)
            } loc(#loc199)
            %num_iters_79 = arith.addi %num_iters, %c1_i32 : i32 loc(#loc861)
            %16 = arith.cmpi sge, %num_iters_79, %c18_i32 : i32 loc(#loc203)
            %17 = arith.subf %13, %15 : f32 loc(#loc204)
            %18 = math.absf %17 : f32 loc(#loc205)
            %19 = arith.cmpf olt, %18, %cst_11 : f32 loc(#loc206)
            %20 = arith.ori %16, %19 : i1 loc(#loc207)
            %21 = arith.select %20, %c1_i32, %found_pivot_78 : i32 loc(#loc208)
            %22 = scf.if %20 -> (f32) {
              %k_pivot_80 = arith.addf %15, %13 : f32 loc(#loc862)
              %k_pivot_81 = arith.divf %k_pivot_80, %cst_13 : f32 loc(#loc1370)
              scf.yield %k_pivot_81 : f32 loc(#loc1371)
            } else {
              scf.yield %found_pivot_74 : f32 loc(#loc208)
            } loc(#loc208)
            scf.yield %num_min_larger_68#0, %num_iters_79, %22, %found_pivot_75, %found_pivot_76, %found_pivot_77, %15, %13, %21 : tensor<8192xi1>, i32, f32, i32, f32, i32, f32, f32, i32 loc(#loc212)
          } loc(#loc1833)
          scf.yield %min_range_61#2, %min_range_61#3, %min_range_61#4, %min_range_61#5 : f32, i32, f32, i32 loc(#loc1765)
        } loc(#loc1832)
        %num_keep = arith.subi %min_range_56#1, %k_29 : i32 loc(#loc865)
        %num_keep_57 = arith.subi %min_range_56#3, %num_keep : i32 loc(#loc1563)
        %final_pivot_58 = arith.cmpi ugt, %max_logit#4, %k_29 : i32 loc(#loc867)
        %final_pivot_59 = arith.select %final_pivot_58, %min_range_56#0, %cst_26 : f32 loc(#loc1564)
        %min_logit_60:5 = scf.if %final_pivot_58 -> (f32, f32, i32, i32, f32) {
          %p = tt.addptr %P, %row_id : !tt.ptr<f32>, i32 loc(#loc870)
          %p_61 = tt.load %p : !tt.ptr<f32> loc(#loc871)
          %4 = arith.cmpf olt, %p_61, %cst_15 : f32 loc(#loc220)
          %min_range_62 = arith.select %4, %min_range_56#0, %min_logit_55 : f32 loc(#loc1796)
          %min_range_63:4 = scf.if %4 -> (f32, f32, i32, i32) {
            %search_iters = arith.addi %max_logit#3, %c4095_i32 : i32 loc(#loc873)
            %search_iters_64 = arith.divui %search_iters, %c4096_i32 : i32 loc(#loc874)
            %mask_n_65:3 = scf.if %3 -> (f32, i32, i32) {
              %sum_exp_logits:2 = scf.for %i = %c0_i32 to %search_iters_64 step %c1_i32 iter_args(%num_kept = %c0_i32, %sum_exp_logits_81 = %cst_22) -> (i32, f32)  : i32 {
                %offs_n = arith.muli %i, %c4096_i32 : i32 loc(#loc877)
                %offs_n_82 = tt.make_range {end = 4096 : i32, start = 0 : i32} : tensor<4096xi32> loc(#loc878)
                %offs_n_83 = tt.splat %offs_n : i32 -> tensor<4096xi32> loc(#loc879)
                %offs_n_84 = arith.addi %offs_n_83, %offs_n_82 : tensor<4096xi32> loc(#loc879)
                %mask_n_2 = tt.splat %max_logit#3 : i32 -> tensor<4096xi32> loc(#loc880)
                %mask_n_2_85 = arith.cmpi slt, %offs_n_84, %mask_n_2 : tensor<4096xi32> loc(#loc880)
                %probs_blk = tt.splat %BUFFER_ROW_28 : !tt.ptr<f32> -> tensor<4096x!tt.ptr<f32>> loc(#loc881)
                %probs_blk_86 = tt.addptr %probs_blk, %offs_n_84 : tensor<4096x!tt.ptr<f32>>, tensor<4096xi32> loc(#loc881)
                %probs_blk_87 = tt.load %probs_blk_86, %mask_n_2_85, %cst_12 : tensor<4096x!tt.ptr<f32>> loc(#loc882)
                %outlier_mask = tt.splat %min_range_56#0 : f32 -> tensor<4096xf32> loc(#loc883)
                %outlier_mask_88 = arith.cmpf ogt, %probs_blk_87, %outlier_mask : tensor<4096xf32> loc(#loc883)
                %outlier_mask_89 = arith.andi %outlier_mask_88, %mask_n_2_85 : tensor<4096xi1> loc(#loc1377)
                %5 = arith.cmpi ult, %num_keep_57, %min_range_56#3 : i32 loc(#loc234)
                %6:2 = scf.if %5 -> (i32, tensor<4096xi1>) {
                  %duplicate_mask = tt.splat %min_range_56#2 : f32 -> tensor<4096xf32> loc(#loc885)
                  %duplicate_mask_97 = arith.subf %probs_blk_87, %duplicate_mask : tensor<4096xf32> loc(#loc885)
                  %duplicate_mask_98 = math.absf %duplicate_mask_97 : tensor<4096xf32> loc(#loc886)
                  %duplicate_mask_99 = arith.cmpf olt, %duplicate_mask_98, %cst_9 : tensor<4096xf32> loc(#loc887)
                  %input_100 = arith.extui %duplicate_mask_99 : tensor<4096xi1> to tensor<4096xi32> loc(#loc1378)
                  %duplicate_count = "tt.scan"(%input_100) <{axis = 0 : i32, reverse = false}> ({
                  ^bb0(%duplicate_count_112: i32 loc(callsite(#loc1 at #loc888)), %duplicate_count_113: i32 loc(callsite(#loc1 at #loc888))):
                    %duplicate_count_114 = arith.addi %duplicate_count_112, %duplicate_count_113 : i32 loc(#loc1568)
                    tt.scan.return %duplicate_count_114 : i32 loc(#loc1379)
                  }) : (tensor<4096xi32>) -> tensor<4096xi32> loc(#loc1379)
                  %duplicate_count_101 = tt.splat %num_kept : i32 -> tensor<4096xi32> loc(#loc889)
                  %duplicate_count_102 = arith.addi %duplicate_count, %duplicate_count_101 : tensor<4096xi32> loc(#loc889)
                  %duplicate_keep_mask = tt.splat %num_keep_57 : i32 -> tensor<4096xi32> loc(#loc890)
                  %duplicate_keep_mask_103 = arith.cmpi ule, %duplicate_count_102, %duplicate_keep_mask : tensor<4096xi32> loc(#loc890)
                  %duplicate_keep_mask_104 = arith.andi %duplicate_keep_mask_103, %duplicate_mask_99 : tensor<4096xi1> loc(#loc891)
                  %duplicate_remove_mask = arith.xori %duplicate_keep_mask_104, %cst_8 : tensor<4096xi1> loc(#loc892)
                  %duplicate_remove_mask_105 = arith.andi %duplicate_mask_99, %duplicate_remove_mask : tensor<4096xi1> loc(#loc893)
                  %outlier_mask_106 = arith.xori %duplicate_remove_mask_105, %cst_8 : tensor<4096xi1> loc(#loc894)
                  %outlier_mask_107 = arith.andi %outlier_mask_89, %outlier_mask_106 : tensor<4096xi1> loc(#loc1381)
                  %input_108 = arith.extui %duplicate_keep_mask_104 : tensor<4096xi1> to tensor<4096xi32> loc(#loc1382)
                  %num_kept_109 = tt.reshape %input_108 allow_reorder : tensor<4096xi32> -> tensor<4096xi32> loc(#loc1383)
                  %num_kept_110 = "tt.reduce"(%num_kept_109) <{axis = 0 : i32}> ({
                  ^bb0(%num_kept_112: i32 loc(callsite(#loc1 at #loc896)), %num_kept_113: i32 loc(callsite(#loc1 at #loc896))):
                    %num_kept_114 = arith.addi %num_kept_112, %num_kept_113 : i32 loc(#loc1569)
                    tt.reduce.return %num_kept_114 : i32 loc(#loc1383)
                  }) : (tensor<4096xi32>) -> i32 loc(#loc1383)
                  %num_kept_111 = arith.addi %num_kept, %num_kept_110 : i32 loc(#loc1385)
                  scf.yield %num_kept_111, %outlier_mask_107 : i32, tensor<4096xi1> loc(#loc1385)
                } else {
                  scf.yield %num_kept, %outlier_mask_89 : i32, tensor<4096xi1> loc(#loc235)
                } loc(#loc235)
                %probs_blk_90 = arith.select %6#1, %probs_blk_87, %cst_12 : tensor<4096xi1>, tensor<4096xf32> loc(#loc898)
                %probs_blk_91 = tt.splat %max_logit#0 : f32 -> tensor<4096xf32> loc(#loc899)
                %probs_blk_92 = arith.subf %probs_blk_90, %probs_blk_91 : tensor<4096xf32> loc(#loc899)
                %probs_blk_93 = math.exp %probs_blk_92 : tensor<4096xf32> loc(#loc900)
                %sum_exp_logits_94 = tt.reshape %probs_blk_93 allow_reorder : tensor<4096xf32> -> tensor<4096xf32> loc(#loc1386)
                %sum_exp_logits_95 = "tt.reduce"(%sum_exp_logits_94) <{axis = 0 : i32}> ({
                ^bb0(%sum_exp_logits_97: f32 loc(callsite(#loc1 at #loc901)), %sum_exp_logits_98: f32 loc(callsite(#loc1 at #loc901))):
                  %sum_exp_logits_99 = arith.addf %sum_exp_logits_97, %sum_exp_logits_98 : f32 loc(#loc1570)
                  tt.reduce.return %sum_exp_logits_99 : f32 loc(#loc1386)
                }) : (tensor<4096xf32>) -> f32 loc(#loc1386)
                %sum_exp_logits_96 = arith.addf %sum_exp_logits_81, %sum_exp_logits_95 : f32 loc(#loc902)
                scf.yield %6#0, %sum_exp_logits_96 : i32, f32 loc(#loc254)
              } loc(#loc1653)
              scf.for %i = %c0_i32 to %search_iters_64 step %c1_i32  : i32 {
                %offs_n = arith.muli %i, %c4096_i32 : i32 loc(#loc903)
                %offs_n_81 = tt.make_range {end = 4096 : i32, start = 0 : i32} : tensor<4096xi32> loc(#loc904)
                %offs_n_82 = tt.splat %offs_n : i32 -> tensor<4096xi32> loc(#loc905)
                %offs_n_83 = arith.addi %offs_n_82, %offs_n_81 : tensor<4096xi32> loc(#loc905)
                %mask_n_2 = tt.splat %max_logit#3 : i32 -> tensor<4096xi32> loc(#loc906)
                %mask_n_2_84 = arith.cmpi slt, %offs_n_83, %mask_n_2 : tensor<4096xi32> loc(#loc906)
                %probs_blk = tt.splat %BUFFER_ROW_28 : !tt.ptr<f32> -> tensor<4096x!tt.ptr<f32>> loc(#loc907)
                %probs_blk_85 = tt.addptr %probs_blk, %offs_n_83 : tensor<4096x!tt.ptr<f32>>, tensor<4096xi32> loc(#loc907)
                %probs_blk_86 = tt.load %probs_blk_85, %mask_n_2_84, %cst_12 : tensor<4096x!tt.ptr<f32>> loc(#loc908)
                %probs_blk_87 = tt.splat %max_logit#0 : f32 -> tensor<4096xf32> loc(#loc909)
                %probs_blk_88 = arith.subf %probs_blk_86, %probs_blk_87 : tensor<4096xf32> loc(#loc909)
                %probs_blk_89 = math.exp %probs_blk_88 : tensor<4096xf32> loc(#loc910)
                %probs_blk_90 = tt.splat %sum_exp_logits#1 : f32 -> tensor<4096xf32> loc(#loc911)
                %probs_blk_91 = arith.divf %probs_blk_89, %probs_blk_90 : tensor<4096xf32> loc(#loc911)
                tt.store %probs_blk_85, %probs_blk_91, %mask_n_2_84 : tensor<4096x!tt.ptr<f32>> loc(#loc265)
              } loc(#loc255)
              scf.yield %sum_exp_logits#1, %max_logit#3, %search_iters_64 : f32, i32, i32 loc(#loc255)
            } else {
              %num_outliers_2:3 = scf.for %num_outliers_2_83 = %c0_i32 to %c32_i32 step %c1_i32 iter_args(%num_kept = %c0_i32, %arg10 = %cst_22, %num_outliers_2_84 = %c0_i32) -> (i32, f32, i32)  : i32 {
                %offs_n = arith.muli %num_outliers_2_83, %c8192_i32 : i32 loc(#loc913)
                %offs_n_85 = tt.splat %offs_n : i32 -> tensor<8192xi32> loc(#loc914)
                %offs_n_86 = arith.addi %offs_n_85, %offs : tensor<8192xi32> loc(#loc914)
                %mask_n_87 = arith.cmpi slt, %offs_n_86, %cst_24 : tensor<8192xi32> loc(#loc915)
                %probs_blk = tt.addptr %logits_blk0, %offs_n_86 : tensor<8192x!tt.ptr<f32>>, tensor<8192xi32> loc(#loc916)
                %probs_blk_88 = tt.load %probs_blk, %mask_n_87, %cst_23 : tensor<8192x!tt.ptr<f32>> loc(#loc917)
                %outlier_mask = tt.splat %min_range_56#0 : f32 -> tensor<8192xf32> loc(#loc918)
                %outlier_mask_89 = arith.cmpf ogt, %probs_blk_88, %outlier_mask : tensor<8192xf32> loc(#loc918)
                %outlier_mask_90 = arith.andi %outlier_mask_89, %mask_n_87 : tensor<8192xi1> loc(#loc919)
                %duplicate_mask = tt.splat %min_range_56#2 : f32 -> tensor<8192xf32> loc(#loc920)
                %duplicate_mask_91 = arith.subf %probs_blk_88, %duplicate_mask : tensor<8192xf32> loc(#loc920)
                %duplicate_mask_92 = math.absf %duplicate_mask_91 : tensor<8192xf32> loc(#loc921)
                %duplicate_mask_93 = arith.cmpf olt, %duplicate_mask_92, %cst_7 : tensor<8192xf32> loc(#loc922)
                %input_94 = arith.extui %duplicate_mask_93 : tensor<8192xi1> to tensor<8192xi32> loc(#loc1389)
                %duplicate_count = "tt.scan"(%input_94) <{axis = 0 : i32, reverse = false}> ({
                ^bb0(%duplicate_count_119: i32 loc(callsite(#loc1 at #loc923)), %duplicate_count_120: i32 loc(callsite(#loc1 at #loc923))):
                  %duplicate_count_121 = arith.addi %duplicate_count_119, %duplicate_count_120 : i32 loc(#loc1572)
                  tt.scan.return %duplicate_count_121 : i32 loc(#loc1390)
                }) : (tensor<8192xi32>) -> tensor<8192xi32> loc(#loc1390)
                %duplicate_count_95 = tt.splat %num_kept : i32 -> tensor<8192xi32> loc(#loc924)
                %duplicate_count_96 = arith.addi %duplicate_count, %duplicate_count_95 : tensor<8192xi32> loc(#loc924)
                %duplicate_keep_mask = tt.splat %num_keep_57 : i32 -> tensor<8192xi32> loc(#loc925)
                %duplicate_keep_mask_97 = arith.cmpi ule, %duplicate_count_96, %duplicate_keep_mask : tensor<8192xi32> loc(#loc925)
                %duplicate_keep_mask_98 = arith.andi %duplicate_keep_mask_97, %duplicate_mask_93 : tensor<8192xi1> loc(#loc926)
                %duplicate_remove_mask = arith.xori %duplicate_keep_mask_98, %cst_6 : tensor<8192xi1> loc(#loc927)
                %duplicate_remove_mask_99 = arith.andi %duplicate_mask_93, %duplicate_remove_mask : tensor<8192xi1> loc(#loc928)
                %outlier_mask_100 = arith.xori %duplicate_remove_mask_99, %cst_6 : tensor<8192xi1> loc(#loc929)
                %outlier_mask_101 = arith.andi %outlier_mask_90, %outlier_mask_100 : tensor<8192xi1> loc(#loc930)
                %input_102 = arith.extui %duplicate_keep_mask_98 : tensor<8192xi1> to tensor<8192xi32> loc(#loc1392)
                %num_kept_103 = tt.reshape %input_102 allow_reorder : tensor<8192xi32> -> tensor<8192xi32> loc(#loc1393)
                %num_kept_104 = "tt.reduce"(%num_kept_103) <{axis = 0 : i32}> ({
                ^bb0(%num_kept_119: i32 loc(callsite(#loc1 at #loc931)), %num_kept_120: i32 loc(callsite(#loc1 at #loc931))):
                  %num_kept_121 = arith.addi %num_kept_119, %num_kept_120 : i32 loc(#loc1573)
                  tt.reduce.return %num_kept_121 : i32 loc(#loc1393)
                }) : (tensor<8192xi32>) -> i32 loc(#loc1393)
                %num_kept_105 = arith.addi %num_kept, %num_kept_104 : i32 loc(#loc932)
                %probs_blk_106 = arith.select %outlier_mask_101, %probs_blk_88, %cst_23 : tensor<8192xi1>, tensor<8192xf32> loc(#loc933)
                %probs_blk_107 = tt.splat %max_logit#0 : f32 -> tensor<8192xf32> loc(#loc934)
                %probs_blk_108 = arith.subf %probs_blk_106, %probs_blk_107 : tensor<8192xf32> loc(#loc934)
                %probs_blk_109 = math.exp %probs_blk_108 : tensor<8192xf32> loc(#loc935)
                %sum_exp_logits = tt.reshape %probs_blk_109 allow_reorder : tensor<8192xf32> -> tensor<8192xf32> loc(#loc1395)
                %sum_exp_logits_110 = "tt.reduce"(%sum_exp_logits) <{axis = 0 : i32}> ({
                ^bb0(%sum_exp_logits_119: f32 loc(callsite(#loc1 at #loc936)), %sum_exp_logits_120: f32 loc(callsite(#loc1 at #loc936))):
                  %sum_exp_logits_121 = arith.addf %sum_exp_logits_119, %sum_exp_logits_120 : f32 loc(#loc1574)
                  tt.reduce.return %sum_exp_logits_121 : f32 loc(#loc1395)
                }) : (tensor<8192xf32>) -> f32 loc(#loc1395)
                %sum_exp_logits_111 = arith.addf %arg10, %sum_exp_logits_110 : f32 loc(#loc937)
                %input_112 = arith.extui %outlier_mask_101 : tensor<8192xi1> to tensor<8192xi32> loc(#loc1397)
                %cumulative_pos = "tt.scan"(%input_112) <{axis = 0 : i32, reverse = false}> ({
                ^bb0(%cumulative_pos_119: i32 loc(callsite(#loc1 at #loc938)), %cumulative_pos_120: i32 loc(callsite(#loc1 at #loc938))):
                  %cumulative_pos_121 = arith.addi %cumulative_pos_119, %cumulative_pos_120 : i32 loc(#loc1575)
                  tt.scan.return %cumulative_pos_121 : i32 loc(#loc1398)
                }) : (tensor<8192xi32>) -> tensor<8192xi32> loc(#loc1398)
                %cumulative_pos_113 = arith.subi %cumulative_pos, %cst_17 : tensor<8192xi32> loc(#loc939)
                %cumulative_pos_114 = tt.splat %num_outliers_2_84 : i32 -> tensor<8192xi32> loc(#loc940)
                %cumulative_pos_115 = arith.addi %cumulative_pos_113, %cumulative_pos_114 : tensor<8192xi32> loc(#loc940)
                %num_outliers_2_116 = tt.reshape %input_112 allow_reorder : tensor<8192xi32> -> tensor<8192xi32> loc(#loc1400)
                %num_outliers_2_117 = "tt.reduce"(%num_outliers_2_116) <{axis = 0 : i32}> ({
                ^bb0(%num_outliers_2_119: i32 loc(callsite(#loc1 at #loc941)), %num_outliers_2_120: i32 loc(callsite(#loc1 at #loc941))):
                  %num_outliers_2_121 = arith.addi %num_outliers_2_119, %num_outliers_2_120 : i32 loc(#loc1576)
                  tt.reduce.return %num_outliers_2_121 : i32 loc(#loc1400)
                }) : (tensor<8192xi32>) -> i32 loc(#loc1400)
                %num_outliers_2_118 = arith.addi %num_outliers_2_84, %num_outliers_2_117 : i32 loc(#loc942)
                %write_pos = arith.select %outlier_mask_101, %cumulative_pos_115, %cst_16 : tensor<8192xi1>, tensor<8192xi32> loc(#loc943)
                %5 = tt.splat %BUFFER_ROW_28 : !tt.ptr<f32> -> tensor<8192x!tt.ptr<f32>> loc(#loc298)
                %6 = tt.addptr %5, %write_pos : tensor<8192x!tt.ptr<f32>>, tensor<8192xi32> loc(#loc298)
                tt.store %6, %probs_blk_109, %outlier_mask_101 : tensor<8192x!tt.ptr<f32>> loc(#loc299)
                scf.yield %num_kept_105, %sum_exp_logits_111, %num_outliers_2_118 : i32, f32, i32 loc(#loc300)
              } loc(#loc1742)
              %search_iters_81 = arith.addi %num_outliers_2#2, %c4095_i32 : i32 loc(#loc944)
              %search_iters_82 = arith.divui %search_iters_81, %c4096_i32 : i32 loc(#loc945)
              scf.for %i = %c0_i32 to %search_iters_82 step %c1_i32  : i32 {
                %offs_n = arith.muli %i, %c4096_i32 : i32 loc(#loc946)
                %offs_n_83 = tt.make_range {end = 4096 : i32, start = 0 : i32} : tensor<4096xi32> loc(#loc947)
                %offs_n_84 = tt.splat %offs_n : i32 -> tensor<4096xi32> loc(#loc948)
                %offs_n_85 = arith.addi %offs_n_84, %offs_n_83 : tensor<4096xi32> loc(#loc948)
                %mask_n_2 = tt.splat %num_outliers_2#2 : i32 -> tensor<4096xi32> loc(#loc949)
                %mask_n_2_86 = arith.cmpi slt, %offs_n_85, %mask_n_2 : tensor<4096xi32> loc(#loc949)
                %probs_blk = tt.splat %BUFFER_ROW_28 : !tt.ptr<f32> -> tensor<4096x!tt.ptr<f32>> loc(#loc950)
                %probs_blk_87 = tt.addptr %probs_blk, %offs_n_85 : tensor<4096x!tt.ptr<f32>>, tensor<4096xi32> loc(#loc950)
                %probs_blk_88 = tt.load %probs_blk_87, %mask_n_2_86, %cst_5 : tensor<4096x!tt.ptr<f32>> loc(#loc951)
                %probs_blk_89 = tt.splat %num_outliers_2#1 : f32 -> tensor<4096xf32> loc(#loc952)
                %probs_blk_90 = arith.divf %probs_blk_88, %probs_blk_89 : tensor<4096xf32> loc(#loc952)
                tt.store %probs_blk_87, %probs_blk_90, %mask_n_2_86 : tensor<4096x!tt.ptr<f32>> loc(#loc311)
              } loc(#loc303)
              scf.yield %num_outliers_2#1, %num_outliers_2#2, %search_iters_82 : f32, i32, i32 loc(#loc303)
            } loc(#loc875)
            %max_range = arith.subf %max_logit#0, %max_logit#0 : f32 loc(#loc953)
            %max_range_66 = math.exp %max_range : f32 loc(#loc954)
            %max_range_67 = arith.divf %max_range_66, %mask_n_65#0 : f32 loc(#loc1402)
            %min_range_68 = arith.subf %min_range_56#0, %max_logit#0 : f32 loc(#loc956)
            %min_range_69 = math.exp %min_range_68 : f32 loc(#loc957)
            %min_range_70 = arith.divf %min_range_69, %mask_n_65#0 : f32 loc(#loc1403)
            %min_range_71:8 = scf.while (%num_iters = %c0_i32, %num_min_larger = %c0_i32, %found_pivot = %c0_i32, %max_range_81 = %max_range_67, %min_range_82 = %min_range_70, %p_pivot = %cst_15, %min_larger_prob = %cst_15, %p_pivots_sum = %cst_22) : (i32, i32, i32, f32, f32, f32, f32, f32) -> (i32, i32, i32, f32, f32, f32, f32, f32) {
              %5 = arith.cmpi eq, %found_pivot, %c0_i32 : i32 loc(#loc319)
              scf.condition(%5) %num_iters, %num_min_larger, %found_pivot, %max_range_81, %min_range_82, %p_pivot, %min_larger_prob, %p_pivots_sum : i32, i32, i32, f32, f32, f32, f32, f32 loc(#loc319)
            } do {
            ^bb0(%num_iters: i32 loc("num_iters"), %num_min_larger: i32 loc("num_min_larger"(#loc90)), %found_pivot: i32 loc("found_pivot"(#loc93)), %max_range_81: f32 loc("max_range"(#loc91)), %min_range_82: f32 loc("min_range"(#loc92)), %p_pivot: f32 loc("p_pivot"(#loc320)), %min_larger_prob: f32 loc("min_larger_prob"(#loc321)), %p_pivots_sum: f32 loc("p_pivots_sum"(#loc322))):
              %p_pivot_0 = arith.subf %max_range_81, %min_range_82 : f32 loc(#loc963)
              %p_pivot_0_83 = arith.divf %p_pivot_0, %cst_14 : f32 loc(#loc964)
              %max_range_84 = arith.addf %p_pivot_0_83, %min_range_82 : f32 loc(#loc1656)
              %p_pivot_1 = arith.mulf %p_pivot_0, %cst_13 : f32 loc(#loc966)
              %p_pivot_1_85 = arith.divf %p_pivot_1, %cst_14 : f32 loc(#loc967)
              %max_range_86 = arith.addf %p_pivot_1_85, %min_range_82 : f32 loc(#loc1657)
              %p_pivots_sum_87:4 = scf.for %i = %c0_i32 to %mask_n_65#2 step %c1_i32 iter_args(%p_pivots_sum_0 = %cst_22, %min_larger_0 = %cst_15, %p_pivots_sum_1 = %cst_22, %min_larger_1 = %cst_15) -> (f32, f32, f32, f32)  : i32 {
                %offs_n = arith.muli %i, %c4096_i32 : i32 loc(#loc970)
                %offs_n_100 = tt.make_range {end = 4096 : i32, start = 0 : i32} : tensor<4096xi32> loc(#loc971)
                %offs_n_101 = tt.splat %offs_n : i32 -> tensor<4096xi32> loc(#loc972)
                %offs_n_102 = arith.addi %offs_n_101, %offs_n_100 : tensor<4096xi32> loc(#loc972)
                %mask_n_2 = tt.splat %mask_n_65#1 : i32 -> tensor<4096xi32> loc(#loc973)
                %mask_n_2_103 = arith.cmpi slt, %offs_n_102, %mask_n_2 : tensor<4096xi32> loc(#loc973)
                %probs_blk = tt.splat %BUFFER_ROW_28 : !tt.ptr<f32> -> tensor<4096x!tt.ptr<f32>> loc(#loc974)
                %probs_blk_104 = tt.addptr %probs_blk, %offs_n_102 : tensor<4096x!tt.ptr<f32>>, tensor<4096xi32> loc(#loc974)
                %probs_blk_105 = tt.load %probs_blk_104, %mask_n_2_103, %cst_5 : tensor<4096x!tt.ptr<f32>> loc(#loc975)
                %p_pivots_sum_0_106 = tt.splat %max_range_84 : f32 -> tensor<4096xf32> loc(#loc976)
                %p_pivots_sum_0_107 = arith.cmpf ogt, %probs_blk_105, %p_pivots_sum_0_106 : tensor<4096xf32> loc(#loc976)
                %p_pivots_sum_0_108 = arith.uitofp %p_pivots_sum_0_107 : tensor<4096xi1> to tensor<4096xf32> loc(#loc977)
                %p_pivots_sum_0_109 = arith.mulf %probs_blk_105, %p_pivots_sum_0_108 : tensor<4096xf32> loc(#loc977)
                %p_pivots_sum_0_110 = tt.reshape %p_pivots_sum_0_109 allow_reorder : tensor<4096xf32> -> tensor<4096xf32> loc(#loc1408)
                %p_pivots_sum_0_111 = "tt.reduce"(%p_pivots_sum_0_110) <{axis = 0 : i32}> ({
                ^bb0(%p_pivots_sum_0_126: f32 loc(callsite(#loc1 at #loc978)), %p_pivots_sum_0_127: f32 loc(callsite(#loc1 at #loc978))):
                  %p_pivots_sum_0_128 = arith.addf %p_pivots_sum_0_126, %p_pivots_sum_0_127 : f32 loc(#loc1581)
                  tt.reduce.return %p_pivots_sum_0_128 : f32 loc(#loc1408)
                }) : (tensor<4096xf32>) -> f32 loc(#loc1408)
                %p_pivots_sum_0_112 = arith.addf %p_pivots_sum_0, %p_pivots_sum_0_111 : f32 loc(#loc979)
                %masked_larger_0 = arith.select %p_pivots_sum_0_107, %probs_blk_105, %cst_4 : tensor<4096xi1>, tensor<4096xf32> loc(#loc980)
                %min_larger_0_113 = tt.reshape %masked_larger_0 allow_reorder : tensor<4096xf32> -> tensor<4096xf32> loc(#loc1410)
                %min_larger_0_114 = "tt.reduce"(%min_larger_0_113) <{axis = 0 : i32}> ({
                ^bb0(%min_larger_0_126: f32 loc(callsite(#loc1 at #loc981)), %min_larger_0_127: f32 loc(callsite(#loc1 at #loc981))):
                  %min_larger_0_128 = arith.minnumf %min_larger_0_126, %min_larger_0_127 : f32 loc(#loc1582)
                  tt.reduce.return %min_larger_0_128 : f32 loc(#loc1410)
                }) : (tensor<4096xf32>) -> f32 loc(#loc1410)
                %min_larger_0_115 = arith.minnumf %min_larger_0, %min_larger_0_114 : f32 loc(#loc982)
                %p_pivots_sum_1_116 = tt.splat %max_range_86 : f32 -> tensor<4096xf32> loc(#loc983)
                %p_pivots_sum_1_117 = arith.cmpf ogt, %probs_blk_105, %p_pivots_sum_1_116 : tensor<4096xf32> loc(#loc983)
                %p_pivots_sum_1_118 = arith.uitofp %p_pivots_sum_1_117 : tensor<4096xi1> to tensor<4096xf32> loc(#loc984)
                %p_pivots_sum_1_119 = arith.mulf %probs_blk_105, %p_pivots_sum_1_118 : tensor<4096xf32> loc(#loc984)
                %p_pivots_sum_1_120 = tt.reshape %p_pivots_sum_1_119 allow_reorder : tensor<4096xf32> -> tensor<4096xf32> loc(#loc1412)
                %p_pivots_sum_1_121 = "tt.reduce"(%p_pivots_sum_1_120) <{axis = 0 : i32}> ({
                ^bb0(%p_pivots_sum_1_126: f32 loc(callsite(#loc1 at #loc985)), %p_pivots_sum_1_127: f32 loc(callsite(#loc1 at #loc985))):
                  %p_pivots_sum_1_128 = arith.addf %p_pivots_sum_1_126, %p_pivots_sum_1_127 : f32 loc(#loc1583)
                  tt.reduce.return %p_pivots_sum_1_128 : f32 loc(#loc1412)
                }) : (tensor<4096xf32>) -> f32 loc(#loc1412)
                %p_pivots_sum_1_122 = arith.addf %p_pivots_sum_1, %p_pivots_sum_1_121 : f32 loc(#loc986)
                %masked_larger_1 = arith.select %p_pivots_sum_1_117, %probs_blk_105, %cst_4 : tensor<4096xi1>, tensor<4096xf32> loc(#loc987)
                %min_larger_1_123 = tt.reshape %masked_larger_1 allow_reorder : tensor<4096xf32> -> tensor<4096xf32> loc(#loc1414)
                %min_larger_1_124 = "tt.reduce"(%min_larger_1_123) <{axis = 0 : i32}> ({
                ^bb0(%min_larger_1_126: f32 loc(callsite(#loc1 at #loc988)), %min_larger_1_127: f32 loc(callsite(#loc1 at #loc988))):
                  %min_larger_1_128 = arith.minnumf %min_larger_1_126, %min_larger_1_127 : f32 loc(#loc1584)
                  tt.reduce.return %min_larger_1_128 : f32 loc(#loc1414)
                }) : (tensor<4096xf32>) -> f32 loc(#loc1414)
                %min_larger_1_125 = arith.minnumf %min_larger_1, %min_larger_1_124 : f32 loc(#loc989)
                scf.yield %p_pivots_sum_0_112, %min_larger_0_115, %p_pivots_sum_1_122, %min_larger_1_125 : f32, f32, f32, f32 loc(#loc350)
              } loc(#loc1744)
              %num_min_larger_88:2 = scf.for %i = %c0_i32 to %mask_n_65#2 step %c1_i32 iter_args(%num_min_larger_0 = %c0_i32, %num_min_larger_1 = %c0_i32) -> (i32, i32)  : i32 {
                %offs_n = arith.muli %i, %c4096_i32 : i32 loc(#loc991)
                %offs_n_100 = tt.make_range {end = 4096 : i32, start = 0 : i32} : tensor<4096xi32> loc(#loc992)
                %offs_n_101 = tt.splat %offs_n : i32 -> tensor<4096xi32> loc(#loc993)
                %offs_n_102 = arith.addi %offs_n_101, %offs_n_100 : tensor<4096xi32> loc(#loc993)
                %mask_n_2 = tt.splat %mask_n_65#1 : i32 -> tensor<4096xi32> loc(#loc994)
                %mask_n_2_103 = arith.cmpi slt, %offs_n_102, %mask_n_2 : tensor<4096xi32> loc(#loc994)
                %probs_blk = tt.splat %BUFFER_ROW_28 : !tt.ptr<f32> -> tensor<4096x!tt.ptr<f32>> loc(#loc995)
                %probs_blk_104 = tt.addptr %probs_blk, %offs_n_102 : tensor<4096x!tt.ptr<f32>>, tensor<4096xi32> loc(#loc995)
                %probs_blk_105 = tt.load %probs_blk_104, %mask_n_2_103, %cst_5 : tensor<4096x!tt.ptr<f32>> loc(#loc996)
                %num_min_larger_0_106 = tt.splat %p_pivots_sum_87#1 : f32 -> tensor<4096xf32> loc(#loc997)
                %num_min_larger_0_107 = arith.subf %probs_blk_105, %num_min_larger_0_106 : tensor<4096xf32> loc(#loc997)
                %num_min_larger_0_108 = math.absf %num_min_larger_0_107 : tensor<4096xf32> loc(#loc998)
                %num_min_larger_0_109 = arith.cmpf olt, %num_min_larger_0_108, %cst_9 : tensor<4096xf32> loc(#loc999)
                %input_110 = arith.extui %num_min_larger_0_109 : tensor<4096xi1> to tensor<4096xi32> loc(#loc1417)
                %num_min_larger_0_111 = tt.reshape %input_110 allow_reorder : tensor<4096xi32> -> tensor<4096xi32> loc(#loc1418)
                %num_min_larger_0_112 = "tt.reduce"(%num_min_larger_0_111) <{axis = 0 : i32}> ({
                ^bb0(%num_min_larger_0_122: i32 loc(callsite(#loc1 at #loc1000)), %num_min_larger_0_123: i32 loc(callsite(#loc1 at #loc1000))):
                  %num_min_larger_0_124 = arith.addi %num_min_larger_0_122, %num_min_larger_0_123 : i32 loc(#loc1586)
                  tt.reduce.return %num_min_larger_0_124 : i32 loc(#loc1418)
                }) : (tensor<4096xi32>) -> i32 loc(#loc1418)
                %num_min_larger_0_113 = arith.addi %num_min_larger_0, %num_min_larger_0_112 : i32 loc(#loc1001)
                %num_min_larger_1_114 = tt.splat %p_pivots_sum_87#3 : f32 -> tensor<4096xf32> loc(#loc1002)
                %num_min_larger_1_115 = arith.subf %probs_blk_105, %num_min_larger_1_114 : tensor<4096xf32> loc(#loc1002)
                %num_min_larger_1_116 = math.absf %num_min_larger_1_115 : tensor<4096xf32> loc(#loc1003)
                %num_min_larger_1_117 = arith.cmpf olt, %num_min_larger_1_116, %cst_9 : tensor<4096xf32> loc(#loc1004)
                %input_118 = arith.extui %num_min_larger_1_117 : tensor<4096xi1> to tensor<4096xi32> loc(#loc1420)
                %num_min_larger_1_119 = tt.reshape %input_118 allow_reorder : tensor<4096xi32> -> tensor<4096xi32> loc(#loc1421)
                %num_min_larger_1_120 = "tt.reduce"(%num_min_larger_1_119) <{axis = 0 : i32}> ({
                ^bb0(%num_min_larger_1_122: i32 loc(callsite(#loc1 at #loc1005)), %num_min_larger_1_123: i32 loc(callsite(#loc1 at #loc1005))):
                  %num_min_larger_1_124 = arith.addi %num_min_larger_1_122, %num_min_larger_1_123 : i32 loc(#loc1587)
                  tt.reduce.return %num_min_larger_1_124 : i32 loc(#loc1421)
                }) : (tensor<4096xi32>) -> i32 loc(#loc1421)
                %num_min_larger_1_121 = arith.addi %num_min_larger_1, %num_min_larger_1_120 : i32 loc(#loc1006)
                scf.yield %num_min_larger_0_113, %num_min_larger_1_121 : i32, i32 loc(#loc368)
              } loc(#loc1659)
              %5 = arith.cmpf oge, %p_pivots_sum_87#2, %p_61 : f32 loc(#loc369)
              %6 = arith.uitofp %num_min_larger_88#1 : i32 to f32 loc(#loc370)
              %7 = arith.mulf %p_pivots_sum_87#3, %6 : f32 loc(#loc370)
              %8 = arith.subf %p_pivots_sum_87#2, %7 : f32 loc(#loc371)
              %9 = arith.cmpf olt, %8, %p_61 : f32 loc(#loc372)
              %10 = arith.andi %5, %9 : i1 loc(#loc373)
              %p_pivots_sum_89 = arith.select %10, %num_min_larger_88#1, %num_min_larger : i32 loc(#loc1691)
              %p_pivots_sum_90 = arith.select %10, %c1_i32, %found_pivot : i32 loc(#loc1691)
              %p_pivots_sum_91 = arith.select %10, %max_range_86, %p_pivot : f32 loc(#loc1691)
              %p_pivots_sum_92 = arith.select %10, %p_pivots_sum_87#3, %min_larger_prob : f32 loc(#loc1691)
              %p_pivots_sum_93 = arith.select %10, %p_pivots_sum_87#2, %p_pivots_sum : f32 loc(#loc1691)
              %11 = arith.cmpf oge, %p_pivots_sum_87#0, %p_61 : f32 loc(#loc375)
              %12 = arith.uitofp %num_min_larger_88#0 : i32 to f32 loc(#loc376)
              %13 = arith.mulf %p_pivots_sum_87#1, %12 : f32 loc(#loc376)
              %14 = arith.subf %p_pivots_sum_87#0, %13 : f32 loc(#loc377)
              %15 = arith.cmpf olt, %14, %p_61 : f32 loc(#loc378)
              %16 = arith.andi %11, %15 : i1 loc(#loc379)
              %p_pivot_94 = arith.select %16, %num_min_larger_88#0, %p_pivots_sum_89 : i32 loc(#loc1424)
              %p_pivot_95 = arith.select %16, %c1_i32, %p_pivots_sum_90 : i32 loc(#loc1424)
              %p_pivot_96 = arith.select %16, %max_range_84, %p_pivots_sum_91 : f32 loc(#loc1424)
              %p_pivot_97 = arith.select %16, %p_pivots_sum_87#1, %p_pivots_sum_92 : f32 loc(#loc1424)
              %p_pivot_98 = arith.select %16, %p_pivots_sum_87#0, %p_pivots_sum_93 : f32 loc(#loc1424)
              %17 = arith.cmpf ogt, %p_pivots_sum_87#2, %p_61 : f32 loc(#loc381)
              %18 = scf.if %17 -> (f32) {
                scf.yield %max_range_86 : f32 loc(#loc382)
              } else {
                %27 = arith.cmpf ogt, %p_pivots_sum_87#0, %p_61 : f32 loc(#loc383)
                %min_range_100 = arith.select %27, %max_range_84, %min_range_82 : f32 loc(#loc1009)
                scf.yield %min_range_100 : f32 loc(#loc384)
              } loc(#loc382)
              %19 = arith.cmpf olt, %p_pivots_sum_87#0, %p_61 : f32 loc(#loc385)
              %20 = scf.if %19 -> (f32) {
                scf.yield %max_range_84 : f32 loc(#loc386)
              } else {
                %27 = arith.cmpf olt, %p_pivots_sum_87#2, %p_61 : f32 loc(#loc387)
                %max_range_100 = arith.select %27, %max_range_86, %max_range_81 : f32 loc(#loc1010)
                scf.yield %max_range_100 : f32 loc(#loc388)
              } loc(#loc386)
              %num_iters_99 = arith.addi %num_iters, %c1_i32 : i32 loc(#loc1011)
              %21 = arith.subf %20, %18 : f32 loc(#loc390)
              %22 = arith.cmpf olt, %21, %cst_11 : f32 loc(#loc391)
              %23 = arith.cmpi sge, %num_iters_99, %c18_i32 : i32 loc(#loc392)
              %24 = arith.ori %22, %23 : i1 loc(#loc393)
              %25 = arith.select %24, %c1_i32, %p_pivot_95 : i32 loc(#loc394)
              %26 = scf.if %24 -> (f32) {
                %p_pivot_100 = arith.addf %20, %18 : f32 loc(#loc1012)
                %p_pivot_101 = arith.divf %p_pivot_100, %cst_13 : f32 loc(#loc1425)
                scf.yield %p_pivot_101 : f32 loc(#loc1426)
              } else {
                scf.yield %p_pivot_96 : f32 loc(#loc394)
              } loc(#loc394)
              scf.yield %num_iters_99, %p_pivot_94, %25, %20, %18, %26, %p_pivot_97, %p_pivot_98 : i32, i32, i32, f32, f32, f32, f32, f32 loc(#loc398)
            } loc(#loc1816)
            %duplicate_logit = arith.mulf %min_range_71#6, %mask_n_65#0 : f32 loc(#loc1015)
            %duplicate_logit_72 = math.log %duplicate_logit : f32 loc(#loc1016)
            %duplicate_logit_73 = arith.addf %duplicate_logit_72, %max_logit#0 : f32 loc(#loc1427)
            %num_keep_74 = arith.subf %min_range_71#7, %p_61 : f32 loc(#loc1018)
            %num_keep_75 = arith.divf %num_keep_74, %min_range_71#6 : f32 loc(#loc1019)
            %num_keep_76 = arith.fptoui %num_keep_75 : f32 to i32 loc(#loc1020)
            %num_keep_77 = arith.subi %min_range_71#1, %num_keep_76 : i32 loc(#loc1428)
            %final_pivot_78 = arith.mulf %min_range_71#5, %mask_n_65#0 : f32 loc(#loc1022)
            %final_pivot_79 = math.log %final_pivot_78 : f32 loc(#loc1023)
            %final_pivot_80 = arith.addf %final_pivot_79, %max_logit#0 : f32 loc(#loc1429)
            scf.yield %final_pivot_80, %duplicate_logit_73, %min_range_71#1, %num_keep_77 : f32, f32, i32, i32 loc(#loc1429)
          } else {
            scf.yield %final_pivot_59, %min_range_56#2, %min_range_56#3, %num_keep_57 : f32, f32, i32, i32 loc(#loc221)
          } loc(#loc1796)
          scf.yield %min_range_63#0, %min_range_63#1, %min_range_63#2, %min_range_63#3, %min_range_62 : f32, f32, i32, i32, f32 loc(#loc1796)
        } else {
          scf.yield %final_pivot_59, %min_range_56#2, %min_range_56#3, %num_keep_57, %min_logit_55 : f32, f32, i32, i32, f32 loc(#loc217)
        } loc(#loc1708)
        scf.yield %min_logit_60#0, %min_logit_60#1, %min_logit_60#2, %min_logit_60#3, %max_logit#0, %min_logit_60#4 : f32, f32, i32, i32, f32, f32 loc(#loc1708)
      } else {
        scf.yield %cst_26, %cst_25, %c0_i32, %c0_i32, %cst_26, %cst_25 : f32, f32, i32, i32, f32, f32 loc(#loc12)
      } loc(#loc1800)
      %1 = arith.cmpf oeq, %min_logit#0, %cst_26 : f32 loc(#loc409)
      %final_pivot:5 = scf.if %1 -> (f32, f32, i32, i32, f32) {
        %p = tt.addptr %P, %row_id : !tt.ptr<f32>, i32 loc(#loc1026)
        %p_30 = tt.load %p : !tt.ptr<f32> loc(#loc1027)
        %3 = arith.cmpf olt, %p_30, %cst_15 : f32 loc(#loc413)
        %min_logit_31:5 = scf.if %3 -> (f32, f32, i32, i32, f32) {
          %offs = tt.make_range {end = 8192 : i32, start = 0 : i32} : tensor<8192xi32> loc(#loc1029)
          %mask_n = arith.cmpi slt, %offs, %cst_24 : tensor<8192xi32> loc(#loc1030)
          %logits_blk0 = tt.splat %LOGITS_ROW_27 : !tt.ptr<f32> -> tensor<8192x!tt.ptr<f32>> loc(#loc1031)
          %logits_blk0_32 = tt.addptr %logits_blk0, %offs : tensor<8192x!tt.ptr<f32>>, tensor<8192xi32> loc(#loc1031)
          %logits_blk0_33 = tt.load %logits_blk0_32, %mask_n, %cst_23 : tensor<8192x!tt.ptr<f32>> loc(#loc1032)
          %finite_mask = arith.cmpf ogt, %logits_blk0_33, %cst_23 : tensor<8192xf32> loc(#loc1033)
          %finite_mask_34 = arith.andi %finite_mask, %mask_n : tensor<8192xi1> loc(#loc1034)
          %input = arith.extui %finite_mask_34 : tensor<8192xi1> to tensor<8192xi32> loc(#loc1432)
          %num_finite = tt.reshape %input allow_reorder : tensor<8192xi32> -> tensor<8192xi32> loc(#loc1433)
          %num_finite_35 = "tt.reduce"(%num_finite) <{axis = 0 : i32}> ({
          ^bb0(%num_finite_73: i32 loc(callsite(#loc1 at #loc1035)), %num_finite_74: i32 loc(callsite(#loc1 at #loc1035))):
            %num_finite_75 = arith.addi %num_finite_73, %num_finite_74 : i32 loc(#loc1591)
            tt.reduce.return %num_finite_75 : i32 loc(#loc1433)
          }) : (tensor<8192xi32>) -> i32 loc(#loc1433)
          %finite_logits = arith.select %finite_mask_34, %logits_blk0_33, %cst_21 : tensor<8192xi1>, tensor<8192xf32> loc(#loc1036)
          %avg_logit = arith.cmpi ugt, %num_finite_35, %c0_i32 : i32 loc(#loc1037)
          %avg_logit_36 = tt.reshape %finite_logits allow_reorder : tensor<8192xf32> -> tensor<8192xf32> loc(#loc1435)
          %avg_logit_37 = "tt.reduce"(%avg_logit_36) <{axis = 0 : i32}> ({
          ^bb0(%avg_logit_73: f32 loc(callsite(#loc1 at #loc1038)), %avg_logit_74: f32 loc(callsite(#loc1 at #loc1038))):
            %avg_logit_75 = arith.addf %avg_logit_73, %avg_logit_74 : f32 loc(#loc1592)
            tt.reduce.return %avg_logit_75 : f32 loc(#loc1435)
          }) : (tensor<8192xf32>) -> f32 loc(#loc1435)
          %avg_logit_38 = arith.uitofp %num_finite_35 : i32 to f32 loc(#loc1039)
          %avg_logit_39 = arith.divf %avg_logit_37, %avg_logit_38 : f32 loc(#loc1039)
          %avg_logit_40 = arith.select %avg_logit, %avg_logit_39, %cst_22 : f32 loc(#loc1040)
          %sq_avg_logit = arith.mulf %finite_logits, %finite_logits : tensor<8192xf32> loc(#loc1041)
          %sq_avg_logit_41 = tt.reshape %sq_avg_logit allow_reorder : tensor<8192xf32> -> tensor<8192xf32> loc(#loc1437)
          %sq_avg_logit_42 = "tt.reduce"(%sq_avg_logit_41) <{axis = 0 : i32}> ({
          ^bb0(%sq_avg_logit_73: f32 loc(callsite(#loc1 at #loc1042)), %sq_avg_logit_74: f32 loc(callsite(#loc1 at #loc1042))):
            %sq_avg_logit_75 = arith.addf %sq_avg_logit_73, %sq_avg_logit_74 : f32 loc(#loc1593)
            tt.reduce.return %sq_avg_logit_75 : f32 loc(#loc1437)
          }) : (tensor<8192xf32>) -> f32 loc(#loc1437)
          %sq_avg_logit_43 = arith.divf %sq_avg_logit_42, %avg_logit_38 : f32 loc(#loc1043)
          %sq_avg_logit_44 = arith.select %avg_logit, %sq_avg_logit_43, %cst_22 : f32 loc(#loc1044)
          %std_logit = arith.mulf %avg_logit_40, %avg_logit_40 : f32 loc(#loc1045)
          %std_logit_45 = arith.subf %sq_avg_logit_44, %std_logit : f32 loc(#loc1046)
          %std_logit_46 = arith.maxnumf %std_logit_45, %cst_22 : f32 loc(#loc1047)
          %std_logit_47 = math.sqrt %std_logit_46 : f32 loc(#loc1048)
          %max_sample = arith.mulf %std_logit_47, %cst_3 : f32 loc(#loc1049)
          %max_sample_48 = arith.addf %avg_logit_40, %max_sample : f32 loc(#loc1050)
          %max_logit:4 = scf.for %i = %c0_i32 to %c32_i32 step %c1_i32 iter_args(%max_logit_73 = %min_logit#4, %min_logit_74 = %min_logit#5, %mask_n_75 = %mask_n, %sum_exp_logits = %cst_22) -> (f32, f32, tensor<8192xi1>, f32)  : i32 {
            %offs_n = arith.muli %i, %c8192_i32 : i32 loc(#loc1052)
            %offs_n_76 = tt.splat %offs_n : i32 -> tensor<8192xi32> loc(#loc1053)
            %offs_n_77 = arith.addi %offs_n_76, %offs : tensor<8192xi32> loc(#loc1053)
            %mask_n_78 = arith.cmpi slt, %offs_n_77, %cst_24 : tensor<8192xi32> loc(#loc1054)
            %logits_blk = tt.addptr %logits_blk0, %offs_n_77 : tensor<8192x!tt.ptr<f32>>, tensor<8192xi32> loc(#loc1055)
            %logits_blk_79 = tt.load %logits_blk, %mask_n_78, %cst_23 : tensor<8192x!tt.ptr<f32>> loc(#loc1056)
            %max_logit_80 = tt.reshape %logits_blk_79 allow_reorder : tensor<8192xf32> -> tensor<8192xf32> loc(#loc1440)
            %max_logit_81 = "tt.reduce"(%max_logit_80) <{axis = 0 : i32}> ({
            ^bb0(%max_logit_93: f32 loc(callsite(#loc1 at #loc1057)), %max_logit_94: f32 loc(callsite(#loc1 at #loc1057))):
              %max_logit_95 = arith.maxnumf %max_logit_93, %max_logit_94 : f32 loc(#loc1595)
              tt.reduce.return %max_logit_95 : f32 loc(#loc1440)
            }) : (tensor<8192xf32>) -> f32 loc(#loc1440)
            %max_logit_82 = arith.maxnumf %max_logit_73, %max_logit_81 : f32 loc(#loc1058)
            %finite_blk = arith.cmpf ogt, %logits_blk_79, %cst_23 : tensor<8192xf32> loc(#loc1059)
            %finite_blk_83 = arith.select %finite_blk, %logits_blk_79, %cst_18 : tensor<8192xi1>, tensor<8192xf32> loc(#loc1060)
            %min_logit_84 = tt.reshape %finite_blk_83 allow_reorder : tensor<8192xf32> -> tensor<8192xf32> loc(#loc1442)
            %min_logit_85 = "tt.reduce"(%min_logit_84) <{axis = 0 : i32}> ({
            ^bb0(%min_logit_93: f32 loc(callsite(#loc1 at #loc1061)), %min_logit_94: f32 loc(callsite(#loc1 at #loc1061))):
              %min_logit_95 = arith.minnumf %min_logit_93, %min_logit_94 : f32 loc(#loc1596)
              tt.reduce.return %min_logit_95 : f32 loc(#loc1442)
            }) : (tensor<8192xf32>) -> f32 loc(#loc1442)
            %min_logit_86 = arith.minnumf %min_logit_74, %min_logit_85 : f32 loc(#loc1062)
            %probs_blk = tt.splat %max_sample_48 : f32 -> tensor<8192xf32> loc(#loc1063)
            %probs_blk_87 = arith.subf %logits_blk_79, %probs_blk : tensor<8192xf32> loc(#loc1063)
            %probs_blk_88 = math.exp %probs_blk_87 : tensor<8192xf32> loc(#loc1064)
            %probs_blk_89 = arith.select %mask_n_78, %probs_blk_88, %cst_21 : tensor<8192xi1>, tensor<8192xf32> loc(#loc1065)
            %sum_exp_logits_90 = tt.reshape %probs_blk_89 allow_reorder : tensor<8192xf32> -> tensor<8192xf32> loc(#loc1444)
            %sum_exp_logits_91 = "tt.reduce"(%sum_exp_logits_90) <{axis = 0 : i32}> ({
            ^bb0(%sum_exp_logits_93: f32 loc(callsite(#loc1 at #loc1066)), %sum_exp_logits_94: f32 loc(callsite(#loc1 at #loc1066))):
              %sum_exp_logits_95 = arith.addf %sum_exp_logits_93, %sum_exp_logits_94 : f32 loc(#loc1597)
              tt.reduce.return %sum_exp_logits_95 : f32 loc(#loc1444)
            }) : (tensor<8192xf32>) -> f32 loc(#loc1444)
            %sum_exp_logits_92 = arith.addf %sum_exp_logits, %sum_exp_logits_91 : f32 loc(#loc1067)
            scf.yield %max_logit_82, %min_logit_86, %mask_n_78, %sum_exp_logits_92 : f32, f32, tensor<8192xi1>, f32 loc(#loc454)
          } loc(#loc1693)
          %min_logit_49 = arith.minnumf %max_logit#1, %max_logit#0 : f32 loc(#loc1446)
          %idx = arith.mulf %p_30, %cst_20 : f32 loc(#loc1069)
          %idx_50 = arith.fptosi %idx : f32 to i32 loc(#loc1070)
          %idx_51 = arith.minsi %idx_50, %c199_i32 : i32 loc(#loc1071)
          %idx_52 = arith.maxsi %idx_51, %c0_i32 : i32 loc(#loc1072)
          %sigma = tt.addptr %NORMAL_CDF_TO_SIGMA_TABLE, %idx_52 : !tt.ptr<f32>, i32 loc(#loc1073)
          %sigma_53 = tt.load %sigma : !tt.ptr<f32> loc(#loc1074)
          %sigma_54 = math.absf %sigma_53 : f32 loc(#loc1075)
          %sigma_55 = arith.mulf %sigma_54, %cst_2 : f32 loc(#loc1076)
          %sigma_56 = arith.addf %sigma_53, %sigma_55 : f32 loc(#loc1077)
          %outlier_pivot = arith.mulf %std_logit_47, %sigma_56 : f32 loc(#loc1078)
          %outlier_pivot_57 = arith.addf %avg_logit_40, %outlier_pivot : f32 loc(#loc1079)
          %outlier_prob = arith.subf %outlier_pivot_57, %max_sample_48 : f32 loc(#loc1080)
          %outlier_prob_58 = math.exp %outlier_prob : f32 loc(#loc1081)
          %min_range = arith.divf %outlier_prob_58, %max_logit#3 : f32 loc(#loc1447)
          %mask_n_59:3 = scf.for %i = %c0_i32 to %c32_i32 step %c1_i32 iter_args(%mask_n_73 = %max_logit#2, %sum_outlier_probs = %cst_22, %num_outliers = %c0_i32) -> (tensor<8192xi1>, f32, i32)  : i32 {
            %offs_n = arith.muli %i, %c8192_i32 : i32 loc(#loc1084)
            %offs_n_74 = tt.splat %offs_n : i32 -> tensor<8192xi32> loc(#loc1085)
            %offs_n_75 = arith.addi %offs_n_74, %offs : tensor<8192xi32> loc(#loc1085)
            %mask_n_76 = arith.cmpi slt, %offs_n_75, %cst_24 : tensor<8192xi32> loc(#loc1086)
            %probs_blk = tt.addptr %logits_blk0, %offs_n_75 : tensor<8192x!tt.ptr<f32>>, tensor<8192xi32> loc(#loc1087)
            %probs_blk_77 = tt.load %probs_blk, %mask_n_76, %cst_23 : tensor<8192x!tt.ptr<f32>> loc(#loc1088)
            %probs_blk_78 = tt.splat %max_sample_48 : f32 -> tensor<8192xf32> loc(#loc1089)
            %probs_blk_79 = arith.subf %probs_blk_77, %probs_blk_78 : tensor<8192xf32> loc(#loc1089)
            %probs_blk_80 = math.exp %probs_blk_79 : tensor<8192xf32> loc(#loc1090)
            %probs_blk_81 = tt.splat %max_logit#3 : f32 -> tensor<8192xf32> loc(#loc1091)
            %probs_blk_82 = arith.divf %probs_blk_80, %probs_blk_81 : tensor<8192xf32> loc(#loc1091)
            %outlier_mask = tt.splat %min_range : f32 -> tensor<8192xf32> loc(#loc1092)
            %outlier_mask_83 = arith.cmpf ogt, %probs_blk_82, %outlier_mask : tensor<8192xf32> loc(#loc1092)
            %outlier_mask_84 = arith.andi %outlier_mask_83, %mask_n_76 : tensor<8192xi1> loc(#loc1093)
            %sum_outlier_probs_85 = arith.uitofp %outlier_mask_84 : tensor<8192xi1> to tensor<8192xf32> loc(#loc1094)
            %sum_outlier_probs_86 = arith.mulf %sum_outlier_probs_85, %probs_blk_82 : tensor<8192xf32> loc(#loc1094)
            %sum_outlier_probs_87 = tt.reshape %sum_outlier_probs_86 allow_reorder : tensor<8192xf32> -> tensor<8192xf32> loc(#loc1449)
            %sum_outlier_probs_88 = "tt.reduce"(%sum_outlier_probs_87) <{axis = 0 : i32}> ({
            ^bb0(%sum_outlier_probs_97: f32 loc(callsite(#loc1 at #loc1095)), %sum_outlier_probs_98: f32 loc(callsite(#loc1 at #loc1095))):
              %sum_outlier_probs_99 = arith.addf %sum_outlier_probs_97, %sum_outlier_probs_98 : f32 loc(#loc1599)
              tt.reduce.return %sum_outlier_probs_99 : f32 loc(#loc1449)
            }) : (tensor<8192xf32>) -> f32 loc(#loc1449)
            %sum_outlier_probs_89 = arith.addf %sum_outlier_probs, %sum_outlier_probs_88 : f32 loc(#loc1096)
            %input_90 = arith.extui %outlier_mask_84 : tensor<8192xi1> to tensor<8192xi32> loc(#loc1451)
            %cumulative_pos = "tt.scan"(%input_90) <{axis = 0 : i32, reverse = false}> ({
            ^bb0(%cumulative_pos_97: i32 loc(callsite(#loc1 at #loc1097)), %cumulative_pos_98: i32 loc(callsite(#loc1 at #loc1097))):
              %cumulative_pos_99 = arith.addi %cumulative_pos_97, %cumulative_pos_98 : i32 loc(#loc1600)
              tt.scan.return %cumulative_pos_99 : i32 loc(#loc1452)
            }) : (tensor<8192xi32>) -> tensor<8192xi32> loc(#loc1452)
            %cumulative_pos_91 = arith.subi %cumulative_pos, %cst_17 : tensor<8192xi32> loc(#loc1098)
            %cumulative_pos_92 = tt.splat %num_outliers : i32 -> tensor<8192xi32> loc(#loc1099)
            %cumulative_pos_93 = arith.addi %cumulative_pos_91, %cumulative_pos_92 : tensor<8192xi32> loc(#loc1099)
            %num_outliers_94 = tt.reshape %input_90 allow_reorder : tensor<8192xi32> -> tensor<8192xi32> loc(#loc1454)
            %num_outliers_95 = "tt.reduce"(%num_outliers_94) <{axis = 0 : i32}> ({
            ^bb0(%num_outliers_97: i32 loc(callsite(#loc1 at #loc1100)), %num_outliers_98: i32 loc(callsite(#loc1 at #loc1100))):
              %num_outliers_99 = arith.addi %num_outliers_97, %num_outliers_98 : i32 loc(#loc1601)
              tt.reduce.return %num_outliers_99 : i32 loc(#loc1454)
            }) : (tensor<8192xi32>) -> i32 loc(#loc1454)
            %num_outliers_96 = arith.addi %num_outliers, %num_outliers_95 : i32 loc(#loc1101)
            %write_pos = arith.select %outlier_mask_84, %cumulative_pos_93, %cst_16 : tensor<8192xi1>, tensor<8192xi32> loc(#loc1102)
            %5 = tt.splat %BUFFER_ROW_28 : !tt.ptr<f32> -> tensor<8192x!tt.ptr<f32>> loc(#loc490)
            %6 = tt.addptr %5, %write_pos : tensor<8192x!tt.ptr<f32>>, tensor<8192xi32> loc(#loc490)
            tt.store %6, %probs_blk_82, %outlier_mask_84 : tensor<8192x!tt.ptr<f32>> loc(#loc491)
            scf.yield %mask_n_76, %sum_outlier_probs_89, %num_outliers_96 : tensor<8192xi1>, f32, i32 loc(#loc492)
          } loc(#loc1664)
          %max_range = arith.subf %max_logit#0, %max_sample_48 : f32 loc(#loc1103)
          %max_range_60 = math.exp %max_range : f32 loc(#loc1104)
          %max_range_61 = arith.divf %max_range_60, %max_logit#3 : f32 loc(#loc1602)
          %min_range_62 = arith.subf %min_logit_49, %max_sample_48 : f32 loc(#loc1106)
          %min_range_63 = math.exp %min_range_62 : f32 loc(#loc1107)
          %min_range_64 = arith.divf %min_range_63, %max_logit#3 : f32 loc(#loc1457)
          %4 = arith.cmpf ogt, %mask_n_59#1, %p_30 : f32 loc(#loc499)
          %num_duplicate_logit:4 = scf.if %4 -> (f32, f32, i32, f32) {
            %search_iters = arith.addi %mask_n_59#2, %c4095_i32 : i32 loc(#loc1110)
            %search_iters_73 = arith.divui %search_iters, %c4096_i32 : i32 loc(#loc1111)
            %found_pivot:8 = scf.while (%max_range_74 = %max_range_61, %min_range_75 = %min_range, %p_pivot = %cst_15, %num_iters = %c0_i32, %min_larger_prob = %cst_15, %num_min_larger = %c0_i32, %p_pivots_sum = %cst_22, %found_pivot_76 = %c0_i32) : (f32, f32, f32, i32, f32, i32, f32, i32) -> (f32, f32, f32, i32, f32, i32, f32, i32) {
              %5 = arith.cmpi eq, %found_pivot_76, %c0_i32 : i32 loc(#loc504)
              scf.condition(%5) %max_range_74, %min_range_75, %p_pivot, %num_iters, %min_larger_prob, %num_min_larger, %p_pivots_sum, %found_pivot_76 : f32, f32, f32, i32, f32, i32, f32, i32 loc(#loc504)
            } do {
            ^bb0(%max_range_74: f32 loc("max_range"(#loc91)), %min_range_75: f32 loc("min_range"(#loc92)), %p_pivot: f32 loc("p_pivot"(#loc320)), %num_iters: i32 loc("num_iters"), %min_larger_prob: f32 loc("min_larger_prob"(#loc321)), %num_min_larger: i32 loc("num_min_larger"(#loc90)), %p_pivots_sum: f32 loc("p_pivots_sum"(#loc322)), %found_pivot_76: i32 loc("found_pivot"(#loc93))):
              %p_pivot_0 = arith.subf %max_range_74, %min_range_75 : f32 loc(#loc1113)
              %p_pivot_0_77 = arith.divf %p_pivot_0, %cst_14 : f32 loc(#loc1114)
              %max_range_78 = arith.addf %p_pivot_0_77, %min_range_75 : f32 loc(#loc1666)
              %p_pivot_1 = arith.mulf %p_pivot_0, %cst_13 : f32 loc(#loc1116)
              %p_pivot_1_79 = arith.divf %p_pivot_1, %cst_14 : f32 loc(#loc1117)
              %max_range_80 = arith.addf %p_pivot_1_79, %min_range_75 : f32 loc(#loc1667)
              %p_pivots_sum_81:4 = scf.for %i = %c0_i32 to %search_iters_73 step %c1_i32 iter_args(%p_pivots_sum_0 = %cst_22, %min_larger_0 = %cst_15, %p_pivots_sum_1 = %cst_22, %min_larger_1 = %cst_15) -> (f32, f32, f32, f32)  : i32 {
                %offs_n = arith.muli %i, %c4096_i32 : i32 loc(#loc1120)
                %offs_n_94 = tt.make_range {end = 4096 : i32, start = 0 : i32} : tensor<4096xi32> loc(#loc1121)
                %offs_n_95 = tt.splat %offs_n : i32 -> tensor<4096xi32> loc(#loc1122)
                %offs_n_96 = arith.addi %offs_n_95, %offs_n_94 : tensor<4096xi32> loc(#loc1122)
                %mask_n_2 = tt.splat %mask_n_59#2 : i32 -> tensor<4096xi32> loc(#loc1123)
                %mask_n_2_97 = arith.cmpi slt, %offs_n_96, %mask_n_2 : tensor<4096xi32> loc(#loc1123)
                %probs_blk = tt.splat %BUFFER_ROW_28 : !tt.ptr<f32> -> tensor<4096x!tt.ptr<f32>> loc(#loc1124)
                %probs_blk_98 = tt.addptr %probs_blk, %offs_n_96 : tensor<4096x!tt.ptr<f32>>, tensor<4096xi32> loc(#loc1124)
                %probs_blk_99 = tt.load %probs_blk_98, %mask_n_2_97, %cst_5 : tensor<4096x!tt.ptr<f32>> loc(#loc1125)
                %p_pivots_sum_0_100 = tt.splat %max_range_78 : f32 -> tensor<4096xf32> loc(#loc1126)
                %p_pivots_sum_0_101 = arith.cmpf ogt, %probs_blk_99, %p_pivots_sum_0_100 : tensor<4096xf32> loc(#loc1126)
                %p_pivots_sum_0_102 = arith.uitofp %p_pivots_sum_0_101 : tensor<4096xi1> to tensor<4096xf32> loc(#loc1127)
                %p_pivots_sum_0_103 = arith.mulf %probs_blk_99, %p_pivots_sum_0_102 : tensor<4096xf32> loc(#loc1127)
                %p_pivots_sum_0_104 = tt.reshape %p_pivots_sum_0_103 allow_reorder : tensor<4096xf32> -> tensor<4096xf32> loc(#loc1462)
                %p_pivots_sum_0_105 = "tt.reduce"(%p_pivots_sum_0_104) <{axis = 0 : i32}> ({
                ^bb0(%p_pivots_sum_0_120: f32 loc(callsite(#loc1 at #loc1128)), %p_pivots_sum_0_121: f32 loc(callsite(#loc1 at #loc1128))):
                  %p_pivots_sum_0_122 = arith.addf %p_pivots_sum_0_120, %p_pivots_sum_0_121 : f32 loc(#loc1607)
                  tt.reduce.return %p_pivots_sum_0_122 : f32 loc(#loc1462)
                }) : (tensor<4096xf32>) -> f32 loc(#loc1462)
                %p_pivots_sum_0_106 = arith.addf %p_pivots_sum_0, %p_pivots_sum_0_105 : f32 loc(#loc1129)
                %masked_larger_0 = arith.select %p_pivots_sum_0_101, %probs_blk_99, %cst_4 : tensor<4096xi1>, tensor<4096xf32> loc(#loc1130)
                %min_larger_0_107 = tt.reshape %masked_larger_0 allow_reorder : tensor<4096xf32> -> tensor<4096xf32> loc(#loc1464)
                %min_larger_0_108 = "tt.reduce"(%min_larger_0_107) <{axis = 0 : i32}> ({
                ^bb0(%min_larger_0_120: f32 loc(callsite(#loc1 at #loc1131)), %min_larger_0_121: f32 loc(callsite(#loc1 at #loc1131))):
                  %min_larger_0_122 = arith.minnumf %min_larger_0_120, %min_larger_0_121 : f32 loc(#loc1608)
                  tt.reduce.return %min_larger_0_122 : f32 loc(#loc1464)
                }) : (tensor<4096xf32>) -> f32 loc(#loc1464)
                %min_larger_0_109 = arith.minnumf %min_larger_0, %min_larger_0_108 : f32 loc(#loc1132)
                %p_pivots_sum_1_110 = tt.splat %max_range_80 : f32 -> tensor<4096xf32> loc(#loc1133)
                %p_pivots_sum_1_111 = arith.cmpf ogt, %probs_blk_99, %p_pivots_sum_1_110 : tensor<4096xf32> loc(#loc1133)
                %p_pivots_sum_1_112 = arith.uitofp %p_pivots_sum_1_111 : tensor<4096xi1> to tensor<4096xf32> loc(#loc1134)
                %p_pivots_sum_1_113 = arith.mulf %probs_blk_99, %p_pivots_sum_1_112 : tensor<4096xf32> loc(#loc1134)
                %p_pivots_sum_1_114 = tt.reshape %p_pivots_sum_1_113 allow_reorder : tensor<4096xf32> -> tensor<4096xf32> loc(#loc1466)
                %p_pivots_sum_1_115 = "tt.reduce"(%p_pivots_sum_1_114) <{axis = 0 : i32}> ({
                ^bb0(%p_pivots_sum_1_120: f32 loc(callsite(#loc1 at #loc1135)), %p_pivots_sum_1_121: f32 loc(callsite(#loc1 at #loc1135))):
                  %p_pivots_sum_1_122 = arith.addf %p_pivots_sum_1_120, %p_pivots_sum_1_121 : f32 loc(#loc1609)
                  tt.reduce.return %p_pivots_sum_1_122 : f32 loc(#loc1466)
                }) : (tensor<4096xf32>) -> f32 loc(#loc1466)
                %p_pivots_sum_1_116 = arith.addf %p_pivots_sum_1, %p_pivots_sum_1_115 : f32 loc(#loc1136)
                %masked_larger_1 = arith.select %p_pivots_sum_1_111, %probs_blk_99, %cst_4 : tensor<4096xi1>, tensor<4096xf32> loc(#loc1137)
                %min_larger_1_117 = tt.reshape %masked_larger_1 allow_reorder : tensor<4096xf32> -> tensor<4096xf32> loc(#loc1468)
                %min_larger_1_118 = "tt.reduce"(%min_larger_1_117) <{axis = 0 : i32}> ({
                ^bb0(%min_larger_1_120: f32 loc(callsite(#loc1 at #loc1138)), %min_larger_1_121: f32 loc(callsite(#loc1 at #loc1138))):
                  %min_larger_1_122 = arith.minnumf %min_larger_1_120, %min_larger_1_121 : f32 loc(#loc1610)
                  tt.reduce.return %min_larger_1_122 : f32 loc(#loc1468)
                }) : (tensor<4096xf32>) -> f32 loc(#loc1468)
                %min_larger_1_119 = arith.minnumf %min_larger_1, %min_larger_1_118 : f32 loc(#loc1139)
                scf.yield %p_pivots_sum_0_106, %min_larger_0_109, %p_pivots_sum_1_116, %min_larger_1_119 : f32, f32, f32, f32 loc(#loc532)
              } loc(#loc1746)
              %num_min_larger_82:2 = scf.for %i = %c0_i32 to %search_iters_73 step %c1_i32 iter_args(%num_min_larger_0 = %c0_i32, %num_min_larger_1 = %c0_i32) -> (i32, i32)  : i32 {
                %offs_n = arith.muli %i, %c4096_i32 : i32 loc(#loc1141)
                %offs_n_94 = tt.make_range {end = 4096 : i32, start = 0 : i32} : tensor<4096xi32> loc(#loc1142)
                %offs_n_95 = tt.splat %offs_n : i32 -> tensor<4096xi32> loc(#loc1143)
                %offs_n_96 = arith.addi %offs_n_95, %offs_n_94 : tensor<4096xi32> loc(#loc1143)
                %mask_n_2 = tt.splat %mask_n_59#2 : i32 -> tensor<4096xi32> loc(#loc1144)
                %mask_n_2_97 = arith.cmpi slt, %offs_n_96, %mask_n_2 : tensor<4096xi32> loc(#loc1144)
                %probs_blk = tt.splat %BUFFER_ROW_28 : !tt.ptr<f32> -> tensor<4096x!tt.ptr<f32>> loc(#loc1145)
                %probs_blk_98 = tt.addptr %probs_blk, %offs_n_96 : tensor<4096x!tt.ptr<f32>>, tensor<4096xi32> loc(#loc1145)
                %probs_blk_99 = tt.load %probs_blk_98, %mask_n_2_97, %cst_5 : tensor<4096x!tt.ptr<f32>> loc(#loc1146)
                %num_min_larger_0_100 = tt.splat %p_pivots_sum_81#1 : f32 -> tensor<4096xf32> loc(#loc1147)
                %num_min_larger_0_101 = arith.subf %probs_blk_99, %num_min_larger_0_100 : tensor<4096xf32> loc(#loc1147)
                %num_min_larger_0_102 = math.absf %num_min_larger_0_101 : tensor<4096xf32> loc(#loc1148)
                %num_min_larger_0_103 = arith.cmpf olt, %num_min_larger_0_102, %cst_9 : tensor<4096xf32> loc(#loc1149)
                %input_104 = arith.extui %num_min_larger_0_103 : tensor<4096xi1> to tensor<4096xi32> loc(#loc1471)
                %num_min_larger_0_105 = tt.reshape %input_104 allow_reorder : tensor<4096xi32> -> tensor<4096xi32> loc(#loc1472)
                %num_min_larger_0_106 = "tt.reduce"(%num_min_larger_0_105) <{axis = 0 : i32}> ({
                ^bb0(%num_min_larger_0_116: i32 loc(callsite(#loc1 at #loc1150)), %num_min_larger_0_117: i32 loc(callsite(#loc1 at #loc1150))):
                  %num_min_larger_0_118 = arith.addi %num_min_larger_0_116, %num_min_larger_0_117 : i32 loc(#loc1612)
                  tt.reduce.return %num_min_larger_0_118 : i32 loc(#loc1472)
                }) : (tensor<4096xi32>) -> i32 loc(#loc1472)
                %num_min_larger_0_107 = arith.addi %num_min_larger_0, %num_min_larger_0_106 : i32 loc(#loc1151)
                %num_min_larger_1_108 = tt.splat %p_pivots_sum_81#3 : f32 -> tensor<4096xf32> loc(#loc1152)
                %num_min_larger_1_109 = arith.subf %probs_blk_99, %num_min_larger_1_108 : tensor<4096xf32> loc(#loc1152)
                %num_min_larger_1_110 = math.absf %num_min_larger_1_109 : tensor<4096xf32> loc(#loc1153)
                %num_min_larger_1_111 = arith.cmpf olt, %num_min_larger_1_110, %cst_9 : tensor<4096xf32> loc(#loc1154)
                %input_112 = arith.extui %num_min_larger_1_111 : tensor<4096xi1> to tensor<4096xi32> loc(#loc1474)
                %num_min_larger_1_113 = tt.reshape %input_112 allow_reorder : tensor<4096xi32> -> tensor<4096xi32> loc(#loc1475)
                %num_min_larger_1_114 = "tt.reduce"(%num_min_larger_1_113) <{axis = 0 : i32}> ({
                ^bb0(%num_min_larger_1_116: i32 loc(callsite(#loc1 at #loc1155)), %num_min_larger_1_117: i32 loc(callsite(#loc1 at #loc1155))):
                  %num_min_larger_1_118 = arith.addi %num_min_larger_1_116, %num_min_larger_1_117 : i32 loc(#loc1613)
                  tt.reduce.return %num_min_larger_1_118 : i32 loc(#loc1475)
                }) : (tensor<4096xi32>) -> i32 loc(#loc1475)
                %num_min_larger_1_115 = arith.addi %num_min_larger_1, %num_min_larger_1_114 : i32 loc(#loc1156)
                scf.yield %num_min_larger_0_107, %num_min_larger_1_115 : i32, i32 loc(#loc550)
              } loc(#loc1669)
              %5 = arith.cmpf oge, %p_pivots_sum_81#2, %p_30 : f32 loc(#loc551)
              %6 = arith.uitofp %num_min_larger_82#1 : i32 to f32 loc(#loc552)
              %7 = arith.mulf %p_pivots_sum_81#3, %6 : f32 loc(#loc552)
              %8 = arith.subf %p_pivots_sum_81#2, %7 : f32 loc(#loc553)
              %9 = arith.cmpf olt, %8, %p_30 : f32 loc(#loc554)
              %10 = arith.andi %5, %9 : i1 loc(#loc555)
              %found_pivot_83 = arith.select %10, %max_range_80, %p_pivot : f32 loc(#loc1696)
              %found_pivot_84 = arith.select %10, %p_pivots_sum_81#3, %min_larger_prob : f32 loc(#loc1696)
              %found_pivot_85 = arith.select %10, %num_min_larger_82#1, %num_min_larger : i32 loc(#loc1696)
              %found_pivot_86 = arith.select %10, %p_pivots_sum_81#2, %p_pivots_sum : f32 loc(#loc1696)
              %found_pivot_87 = arith.select %10, %c1_i32, %found_pivot_76 : i32 loc(#loc1696)
              %11 = arith.cmpf oge, %p_pivots_sum_81#0, %p_30 : f32 loc(#loc557)
              %12 = arith.uitofp %num_min_larger_82#0 : i32 to f32 loc(#loc558)
              %13 = arith.mulf %p_pivots_sum_81#1, %12 : f32 loc(#loc558)
              %14 = arith.subf %p_pivots_sum_81#0, %13 : f32 loc(#loc559)
              %15 = arith.cmpf olt, %14, %p_30 : f32 loc(#loc560)
              %16 = arith.andi %11, %15 : i1 loc(#loc561)
              %found_pivot_88 = arith.select %16, %max_range_78, %found_pivot_83 : f32 loc(#loc1478)
              %found_pivot_89 = arith.select %16, %p_pivots_sum_81#1, %found_pivot_84 : f32 loc(#loc1478)
              %found_pivot_90 = arith.select %16, %num_min_larger_82#0, %found_pivot_85 : i32 loc(#loc1478)
              %found_pivot_91 = arith.select %16, %p_pivots_sum_81#0, %found_pivot_86 : f32 loc(#loc1478)
              %found_pivot_92 = arith.select %16, %c1_i32, %found_pivot_87 : i32 loc(#loc1478)
              %17 = arith.cmpf ogt, %p_pivots_sum_81#2, %p_30 : f32 loc(#loc563)
              %18 = scf.if %17 -> (f32) {
                scf.yield %max_range_80 : f32 loc(#loc564)
              } else {
                %27 = arith.cmpf ogt, %p_pivots_sum_81#0, %p_30 : f32 loc(#loc565)
                %min_range_94 = arith.select %27, %max_range_78, %min_range_75 : f32 loc(#loc1159)
                scf.yield %min_range_94 : f32 loc(#loc566)
              } loc(#loc564)
              %19 = arith.cmpf olt, %p_pivots_sum_81#0, %p_30 : f32 loc(#loc567)
              %20 = scf.if %19 -> (f32) {
                scf.yield %max_range_78 : f32 loc(#loc568)
              } else {
                %27 = arith.cmpf olt, %p_pivots_sum_81#2, %p_30 : f32 loc(#loc569)
                %max_range_94 = arith.select %27, %max_range_80, %max_range_74 : f32 loc(#loc1160)
                scf.yield %max_range_94 : f32 loc(#loc570)
              } loc(#loc568)
              %num_iters_93 = arith.addi %num_iters, %c1_i32 : i32 loc(#loc1161)
              %21 = arith.subf %20, %18 : f32 loc(#loc572)
              %22 = arith.cmpf olt, %21, %cst_11 : f32 loc(#loc573)
              %23 = arith.cmpi sge, %num_iters_93, %c18_i32 : i32 loc(#loc574)
              %24 = arith.ori %22, %23 : i1 loc(#loc575)
              %25 = arith.select %24, %c1_i32, %found_pivot_92 : i32 loc(#loc576)
              %26 = scf.if %24 -> (f32) {
                %p_pivot_94 = arith.addf %20, %18 : f32 loc(#loc1162)
                %p_pivot_95 = arith.divf %p_pivot_94, %cst_13 : f32 loc(#loc1479)
                scf.yield %p_pivot_95 : f32 loc(#loc1480)
              } else {
                scf.yield %found_pivot_88 : f32 loc(#loc576)
              } loc(#loc576)
              scf.yield %20, %18, %26, %num_iters_93, %found_pivot_89, %found_pivot_90, %found_pivot_91, %25 : f32, f32, f32, i32, f32, i32, f32, i32 loc(#loc580)
            } loc(#loc1827)
            scf.yield %found_pivot#2, %found_pivot#4, %found_pivot#5, %found_pivot#6 : f32, f32, i32, f32 loc(#loc1827)
          } else {
            %mask_n_73 = scf.for %i = %c0_i32 to %c32_i32 step %c1_i32 iter_args(%mask_n_74 = %mask_n_59#0) -> (tensor<8192xi1>)  : i32 {
              %offs_n = arith.muli %i, %c8192_i32 : i32 loc(#loc1166)
              %offs_n_75 = tt.splat %offs_n : i32 -> tensor<8192xi32> loc(#loc1167)
              %offs_n_76 = arith.addi %offs_n_75, %offs : tensor<8192xi32> loc(#loc1167)
              %mask_n_77 = arith.cmpi slt, %offs_n_76, %cst_24 : tensor<8192xi32> loc(#loc1168)
              %probs_blk = tt.addptr %logits_blk0, %offs_n_76 : tensor<8192x!tt.ptr<f32>>, tensor<8192xi32> loc(#loc1169)
              %probs_blk_78 = tt.load %probs_blk, %mask_n_77, %cst_23 : tensor<8192x!tt.ptr<f32>> loc(#loc1170)
              %probs_blk_79 = tt.splat %max_sample_48 : f32 -> tensor<8192xf32> loc(#loc1171)
              %probs_blk_80 = arith.subf %probs_blk_78, %probs_blk_79 : tensor<8192xf32> loc(#loc1171)
              %probs_blk_81 = math.exp %probs_blk_80 : tensor<8192xf32> loc(#loc1172)
              %probs_blk_82 = tt.splat %max_logit#3 : f32 -> tensor<8192xf32> loc(#loc1173)
              %probs_blk_83 = arith.divf %probs_blk_81, %probs_blk_82 : tensor<8192xf32> loc(#loc1173)
              %5 = tt.splat %BUFFER_ROW_28 : !tt.ptr<f32> -> tensor<8192x!tt.ptr<f32>> loc(#loc590)
              %6 = tt.addptr %5, %offs_n_76 : tensor<8192x!tt.ptr<f32>>, tensor<8192xi32> loc(#loc590)
              tt.store %6, %probs_blk_83, %mask_n_77 : tensor<8192x!tt.ptr<f32>> loc(#loc591)
              scf.yield %mask_n_77 : tensor<8192xi1> loc(#loc592)
            } loc(#loc1165)
            %found_pivot:9 = scf.while (%mask_n_74 = %mask_n_73, %max_range_75 = %max_range_61, %min_range_76 = %min_range_64, %p_pivot = %cst_15, %num_iters = %c0_i32, %min_larger_prob = %cst_15, %num_min_larger = %c0_i32, %p_pivots_sum = %cst_22, %found_pivot_77 = %c0_i32) : (tensor<8192xi1>, f32, f32, f32, i32, f32, i32, f32, i32) -> (tensor<8192xi1>, f32, f32, f32, i32, f32, i32, f32, i32) {
              %5 = arith.cmpi eq, %found_pivot_77, %c0_i32 : i32 loc(#loc594)
              scf.condition(%5) %mask_n_74, %max_range_75, %min_range_76, %p_pivot, %num_iters, %min_larger_prob, %num_min_larger, %p_pivots_sum, %found_pivot_77 : tensor<8192xi1>, f32, f32, f32, i32, f32, i32, f32, i32 loc(#loc594)
            } do {
            ^bb0(%mask_n_74: tensor<8192xi1> loc("mask_n"), %max_range_75: f32 loc("max_range"(#loc91)), %min_range_76: f32 loc("min_range"(#loc92)), %p_pivot: f32 loc("p_pivot"(#loc320)), %num_iters: i32 loc("num_iters"), %min_larger_prob: f32 loc("min_larger_prob"(#loc321)), %num_min_larger: i32 loc("num_min_larger"(#loc90)), %p_pivots_sum: f32 loc("p_pivots_sum"(#loc322)), %found_pivot_77: i32 loc("found_pivot"(#loc93))):
              %p_pivot_0 = arith.subf %max_range_75, %min_range_76 : f32 loc(#loc1175)
              %p_pivot_0_78 = arith.divf %p_pivot_0, %cst_14 : f32 loc(#loc1176)
              %max_range_79 = arith.addf %p_pivot_0_78, %min_range_76 : f32 loc(#loc1672)
              %p_pivot_1 = arith.mulf %p_pivot_0, %cst_13 : f32 loc(#loc1178)
              %p_pivot_1_80 = arith.divf %p_pivot_1, %cst_14 : f32 loc(#loc1179)
              %max_range_81 = arith.addf %p_pivot_1_80, %min_range_76 : f32 loc(#loc1673)
              %p_pivots_sum_82:5 = scf.for %i = %c0_i32 to %c32_i32 step %c1_i32 iter_args(%mask_n_95 = %mask_n_74, %p_pivots_sum_0 = %cst_22, %min_larger_0 = %cst_15, %p_pivots_sum_1 = %cst_22, %min_larger_1 = %cst_15) -> (tensor<8192xi1>, f32, f32, f32, f32)  : i32 {
                %offs_n = arith.muli %i, %c8192_i32 : i32 loc(#loc1182)
                %offs_n_96 = tt.splat %offs_n : i32 -> tensor<8192xi32> loc(#loc1183)
                %offs_n_97 = arith.addi %offs_n_96, %offs : tensor<8192xi32> loc(#loc1183)
                %mask_n_98 = arith.cmpi slt, %offs_n_97, %cst_24 : tensor<8192xi32> loc(#loc1184)
                %probs_blk = tt.splat %BUFFER_ROW_28 : !tt.ptr<f32> -> tensor<8192x!tt.ptr<f32>> loc(#loc1185)
                %probs_blk_99 = tt.addptr %probs_blk, %offs_n_97 : tensor<8192x!tt.ptr<f32>>, tensor<8192xi32> loc(#loc1185)
                %probs_blk_100 = tt.load %probs_blk_99, %mask_n_98, %cst_21 : tensor<8192x!tt.ptr<f32>> loc(#loc1186)
                %p_pivots_sum_0_101 = tt.splat %max_range_79 : f32 -> tensor<8192xf32> loc(#loc1187)
                %p_pivots_sum_0_102 = arith.cmpf ogt, %probs_blk_100, %p_pivots_sum_0_101 : tensor<8192xf32> loc(#loc1187)
                %p_pivots_sum_0_103 = arith.uitofp %p_pivots_sum_0_102 : tensor<8192xi1> to tensor<8192xf32> loc(#loc1188)
                %p_pivots_sum_0_104 = arith.mulf %probs_blk_100, %p_pivots_sum_0_103 : tensor<8192xf32> loc(#loc1188)
                %p_pivots_sum_0_105 = tt.reshape %p_pivots_sum_0_104 allow_reorder : tensor<8192xf32> -> tensor<8192xf32> loc(#loc1485)
                %p_pivots_sum_0_106 = "tt.reduce"(%p_pivots_sum_0_105) <{axis = 0 : i32}> ({
                ^bb0(%p_pivots_sum_0_121: f32 loc(callsite(#loc1 at #loc1189)), %p_pivots_sum_0_122: f32 loc(callsite(#loc1 at #loc1189))):
                  %p_pivots_sum_0_123 = arith.addf %p_pivots_sum_0_121, %p_pivots_sum_0_122 : f32 loc(#loc1619)
                  tt.reduce.return %p_pivots_sum_0_123 : f32 loc(#loc1485)
                }) : (tensor<8192xf32>) -> f32 loc(#loc1485)
                %p_pivots_sum_0_107 = arith.addf %p_pivots_sum_0, %p_pivots_sum_0_106 : f32 loc(#loc1190)
                %masked_larger_0 = arith.select %p_pivots_sum_0_102, %probs_blk_100, %cst_1 : tensor<8192xi1>, tensor<8192xf32> loc(#loc1191)
                %min_larger_0_108 = tt.reshape %masked_larger_0 allow_reorder : tensor<8192xf32> -> tensor<8192xf32> loc(#loc1487)
                %min_larger_0_109 = "tt.reduce"(%min_larger_0_108) <{axis = 0 : i32}> ({
                ^bb0(%min_larger_0_121: f32 loc(callsite(#loc1 at #loc1192)), %min_larger_0_122: f32 loc(callsite(#loc1 at #loc1192))):
                  %min_larger_0_123 = arith.minnumf %min_larger_0_121, %min_larger_0_122 : f32 loc(#loc1620)
                  tt.reduce.return %min_larger_0_123 : f32 loc(#loc1487)
                }) : (tensor<8192xf32>) -> f32 loc(#loc1487)
                %min_larger_0_110 = arith.minnumf %min_larger_0, %min_larger_0_109 : f32 loc(#loc1193)
                %p_pivots_sum_1_111 = tt.splat %max_range_81 : f32 -> tensor<8192xf32> loc(#loc1194)
                %p_pivots_sum_1_112 = arith.cmpf ogt, %probs_blk_100, %p_pivots_sum_1_111 : tensor<8192xf32> loc(#loc1194)
                %p_pivots_sum_1_113 = arith.uitofp %p_pivots_sum_1_112 : tensor<8192xi1> to tensor<8192xf32> loc(#loc1195)
                %p_pivots_sum_1_114 = arith.mulf %probs_blk_100, %p_pivots_sum_1_113 : tensor<8192xf32> loc(#loc1195)
                %p_pivots_sum_1_115 = tt.reshape %p_pivots_sum_1_114 allow_reorder : tensor<8192xf32> -> tensor<8192xf32> loc(#loc1489)
                %p_pivots_sum_1_116 = "tt.reduce"(%p_pivots_sum_1_115) <{axis = 0 : i32}> ({
                ^bb0(%p_pivots_sum_1_121: f32 loc(callsite(#loc1 at #loc1196)), %p_pivots_sum_1_122: f32 loc(callsite(#loc1 at #loc1196))):
                  %p_pivots_sum_1_123 = arith.addf %p_pivots_sum_1_121, %p_pivots_sum_1_122 : f32 loc(#loc1621)
                  tt.reduce.return %p_pivots_sum_1_123 : f32 loc(#loc1489)
                }) : (tensor<8192xf32>) -> f32 loc(#loc1489)
                %p_pivots_sum_1_117 = arith.addf %p_pivots_sum_1, %p_pivots_sum_1_116 : f32 loc(#loc1197)
                %masked_larger_1 = arith.select %p_pivots_sum_1_112, %probs_blk_100, %cst_1 : tensor<8192xi1>, tensor<8192xf32> loc(#loc1198)
                %min_larger_1_118 = tt.reshape %masked_larger_1 allow_reorder : tensor<8192xf32> -> tensor<8192xf32> loc(#loc1491)
                %min_larger_1_119 = "tt.reduce"(%min_larger_1_118) <{axis = 0 : i32}> ({
                ^bb0(%min_larger_1_121: f32 loc(callsite(#loc1 at #loc1199)), %min_larger_1_122: f32 loc(callsite(#loc1 at #loc1199))):
                  %min_larger_1_123 = arith.minnumf %min_larger_1_121, %min_larger_1_122 : f32 loc(#loc1622)
                  tt.reduce.return %min_larger_1_123 : f32 loc(#loc1491)
                }) : (tensor<8192xf32>) -> f32 loc(#loc1491)
                %min_larger_1_120 = arith.minnumf %min_larger_1, %min_larger_1_119 : f32 loc(#loc1200)
                scf.yield %mask_n_98, %p_pivots_sum_0_107, %min_larger_0_110, %p_pivots_sum_1_117, %min_larger_1_120 : tensor<8192xi1>, f32, f32, f32, f32 loc(#loc621)
              } loc(#loc1760)
              %num_min_larger_83:3 = scf.for %i = %c0_i32 to %c32_i32 step %c1_i32 iter_args(%mask_n_95 = %p_pivots_sum_82#0, %num_min_larger_0 = %c0_i32, %num_min_larger_1 = %c0_i32) -> (tensor<8192xi1>, i32, i32)  : i32 {
                %offs_n = arith.muli %i, %c8192_i32 : i32 loc(#loc1202)
                %offs_n_96 = tt.splat %offs_n : i32 -> tensor<8192xi32> loc(#loc1203)
                %offs_n_97 = arith.addi %offs_n_96, %offs : tensor<8192xi32> loc(#loc1203)
                %mask_n_98 = arith.cmpi slt, %offs_n_97, %cst_24 : tensor<8192xi32> loc(#loc1204)
                %probs_blk = tt.splat %BUFFER_ROW_28 : !tt.ptr<f32> -> tensor<8192x!tt.ptr<f32>> loc(#loc1205)
                %probs_blk_99 = tt.addptr %probs_blk, %offs_n_97 : tensor<8192x!tt.ptr<f32>>, tensor<8192xi32> loc(#loc1205)
                %probs_blk_100 = tt.load %probs_blk_99, %mask_n_98, %cst_21 : tensor<8192x!tt.ptr<f32>> loc(#loc1206)
                %num_min_larger_0_101 = tt.splat %p_pivots_sum_82#2 : f32 -> tensor<8192xf32> loc(#loc1207)
                %num_min_larger_0_102 = arith.subf %probs_blk_100, %num_min_larger_0_101 : tensor<8192xf32> loc(#loc1207)
                %num_min_larger_0_103 = math.absf %num_min_larger_0_102 : tensor<8192xf32> loc(#loc1208)
                %num_min_larger_0_104 = arith.cmpf olt, %num_min_larger_0_103, %cst_7 : tensor<8192xf32> loc(#loc1209)
                %input_105 = arith.extui %num_min_larger_0_104 : tensor<8192xi1> to tensor<8192xi32> loc(#loc1494)
                %num_min_larger_0_106 = tt.reshape %input_105 allow_reorder : tensor<8192xi32> -> tensor<8192xi32> loc(#loc1495)
                %num_min_larger_0_107 = "tt.reduce"(%num_min_larger_0_106) <{axis = 0 : i32}> ({
                ^bb0(%num_min_larger_0_117: i32 loc(callsite(#loc1 at #loc1210)), %num_min_larger_0_118: i32 loc(callsite(#loc1 at #loc1210))):
                  %num_min_larger_0_119 = arith.addi %num_min_larger_0_117, %num_min_larger_0_118 : i32 loc(#loc1624)
                  tt.reduce.return %num_min_larger_0_119 : i32 loc(#loc1495)
                }) : (tensor<8192xi32>) -> i32 loc(#loc1495)
                %num_min_larger_0_108 = arith.addi %num_min_larger_0, %num_min_larger_0_107 : i32 loc(#loc1211)
                %num_min_larger_1_109 = tt.splat %p_pivots_sum_82#4 : f32 -> tensor<8192xf32> loc(#loc1212)
                %num_min_larger_1_110 = arith.subf %probs_blk_100, %num_min_larger_1_109 : tensor<8192xf32> loc(#loc1212)
                %num_min_larger_1_111 = math.absf %num_min_larger_1_110 : tensor<8192xf32> loc(#loc1213)
                %num_min_larger_1_112 = arith.cmpf olt, %num_min_larger_1_111, %cst_7 : tensor<8192xf32> loc(#loc1214)
                %input_113 = arith.extui %num_min_larger_1_112 : tensor<8192xi1> to tensor<8192xi32> loc(#loc1497)
                %num_min_larger_1_114 = tt.reshape %input_113 allow_reorder : tensor<8192xi32> -> tensor<8192xi32> loc(#loc1498)
                %num_min_larger_1_115 = "tt.reduce"(%num_min_larger_1_114) <{axis = 0 : i32}> ({
                ^bb0(%num_min_larger_1_117: i32 loc(callsite(#loc1 at #loc1215)), %num_min_larger_1_118: i32 loc(callsite(#loc1 at #loc1215))):
                  %num_min_larger_1_119 = arith.addi %num_min_larger_1_117, %num_min_larger_1_118 : i32 loc(#loc1625)
                  tt.reduce.return %num_min_larger_1_119 : i32 loc(#loc1498)
                }) : (tensor<8192xi32>) -> i32 loc(#loc1498)
                %num_min_larger_1_116 = arith.addi %num_min_larger_1, %num_min_larger_1_115 : i32 loc(#loc1216)
                scf.yield %mask_n_98, %num_min_larger_0_108, %num_min_larger_1_116 : tensor<8192xi1>, i32, i32 loc(#loc638)
              } loc(#loc1699)
              %5 = arith.cmpf oge, %p_pivots_sum_82#3, %p_30 : f32 loc(#loc639)
              %6 = arith.uitofp %num_min_larger_83#2 : i32 to f32 loc(#loc640)
              %7 = arith.mulf %p_pivots_sum_82#4, %6 : f32 loc(#loc640)
              %8 = arith.subf %p_pivots_sum_82#3, %7 : f32 loc(#loc641)
              %9 = arith.cmpf olt, %8, %p_30 : f32 loc(#loc642)
              %10 = arith.andi %5, %9 : i1 loc(#loc643)
              %found_pivot_84 = arith.select %10, %max_range_81, %p_pivot : f32 loc(#loc1700)
              %found_pivot_85 = arith.select %10, %p_pivots_sum_82#4, %min_larger_prob : f32 loc(#loc1700)
              %found_pivot_86 = arith.select %10, %num_min_larger_83#2, %num_min_larger : i32 loc(#loc1700)
              %found_pivot_87 = arith.select %10, %p_pivots_sum_82#3, %p_pivots_sum : f32 loc(#loc1700)
              %found_pivot_88 = arith.select %10, %c1_i32, %found_pivot_77 : i32 loc(#loc1700)
              %11 = arith.cmpf oge, %p_pivots_sum_82#1, %p_30 : f32 loc(#loc645)
              %12 = arith.uitofp %num_min_larger_83#1 : i32 to f32 loc(#loc646)
              %13 = arith.mulf %p_pivots_sum_82#2, %12 : f32 loc(#loc646)
              %14 = arith.subf %p_pivots_sum_82#1, %13 : f32 loc(#loc647)
              %15 = arith.cmpf olt, %14, %p_30 : f32 loc(#loc648)
              %16 = arith.andi %11, %15 : i1 loc(#loc649)
              %found_pivot_89 = arith.select %16, %max_range_79, %found_pivot_84 : f32 loc(#loc1501)
              %found_pivot_90 = arith.select %16, %p_pivots_sum_82#2, %found_pivot_85 : f32 loc(#loc1501)
              %found_pivot_91 = arith.select %16, %num_min_larger_83#1, %found_pivot_86 : i32 loc(#loc1501)
              %found_pivot_92 = arith.select %16, %p_pivots_sum_82#1, %found_pivot_87 : f32 loc(#loc1501)
              %found_pivot_93 = arith.select %16, %c1_i32, %found_pivot_88 : i32 loc(#loc1501)
              %17 = arith.cmpf ogt, %p_pivots_sum_82#3, %p_30 : f32 loc(#loc651)
              %18 = scf.if %17 -> (f32) {
                scf.yield %max_range_81 : f32 loc(#loc652)
              } else {
                %27 = arith.cmpf ogt, %p_pivots_sum_82#1, %p_30 : f32 loc(#loc653)
                %min_range_95 = arith.select %27, %max_range_79, %min_range_76 : f32 loc(#loc1219)
                scf.yield %min_range_95 : f32 loc(#loc654)
              } loc(#loc652)
              %19 = arith.cmpf olt, %p_pivots_sum_82#1, %p_30 : f32 loc(#loc655)
              %20 = scf.if %19 -> (f32) {
                scf.yield %max_range_79 : f32 loc(#loc656)
              } else {
                %27 = arith.cmpf olt, %p_pivots_sum_82#3, %p_30 : f32 loc(#loc657)
                %max_range_95 = arith.select %27, %max_range_81, %max_range_75 : f32 loc(#loc1220)
                scf.yield %max_range_95 : f32 loc(#loc658)
              } loc(#loc656)
              %num_iters_94 = arith.addi %num_iters, %c1_i32 : i32 loc(#loc1221)
              %21 = arith.subf %20, %18 : f32 loc(#loc660)
              %22 = arith.cmpf olt, %21, %cst_11 : f32 loc(#loc661)
              %23 = arith.cmpi sge, %num_iters_94, %c18_i32 : i32 loc(#loc662)
              %24 = arith.ori %22, %23 : i1 loc(#loc663)
              %25 = arith.select %24, %c1_i32, %found_pivot_93 : i32 loc(#loc664)
              %26 = scf.if %24 -> (f32) {
                %p_pivot_95 = arith.addf %20, %18 : f32 loc(#loc1222)
                %p_pivot_96 = arith.divf %p_pivot_95, %cst_13 : f32 loc(#loc1502)
                scf.yield %p_pivot_96 : f32 loc(#loc1503)
              } else {
                scf.yield %found_pivot_89 : f32 loc(#loc664)
              } loc(#loc664)
              scf.yield %num_min_larger_83#0, %20, %18, %26, %num_iters_94, %found_pivot_90, %found_pivot_91, %found_pivot_92, %25 : tensor<8192xi1>, f32, f32, f32, i32, f32, i32, f32, i32 loc(#loc668)
            } loc(#loc1834)
            scf.yield %found_pivot#3, %found_pivot#5, %found_pivot#6, %found_pivot#7 : f32, f32, i32, f32 loc(#loc1770)
          } loc(#loc1109)
          %duplicate_logit = arith.mulf %num_duplicate_logit#1, %max_logit#3 : f32 loc(#loc1225)
          %duplicate_logit_65 = math.log %duplicate_logit : f32 loc(#loc1226)
          %duplicate_logit_66 = arith.addf %duplicate_logit_65, %max_logit#0 : f32 loc(#loc1504)
          %num_keep = arith.subf %num_duplicate_logit#3, %p_30 : f32 loc(#loc1228)
          %num_keep_67 = arith.divf %num_keep, %num_duplicate_logit#1 : f32 loc(#loc1229)
          %num_keep_68 = arith.fptoui %num_keep_67 : f32 to i32 loc(#loc1230)
          %num_keep_69 = arith.subi %num_duplicate_logit#2, %num_keep_68 : i32 loc(#loc1505)
          %final_pivot_70 = arith.mulf %num_duplicate_logit#0, %max_logit#3 : f32 loc(#loc1232)
          %final_pivot_71 = math.log %final_pivot_70 : f32 loc(#loc1233)
          %final_pivot_72 = arith.addf %final_pivot_71, %max_sample_48 : f32 loc(#loc1506)
          scf.yield %final_pivot_72, %duplicate_logit_66, %num_duplicate_logit#2, %num_keep_69, %max_logit#0 : f32, f32, i32, i32, f32 loc(#loc1506)
        } else {
          scf.yield %min_logit#0, %min_logit#1, %min_logit#2, %min_logit#3, %min_logit#4 : f32, f32, i32, i32, f32 loc(#loc414)
        } loc(#loc1729)
        scf.yield %min_logit_31#0, %min_logit_31#1, %min_logit_31#2, %min_logit_31#3, %min_logit_31#4 : f32, f32, i32, i32, f32 loc(#loc1729)
      } else {
        scf.yield %min_logit#0, %min_logit#1, %min_logit#2, %min_logit#3, %min_logit#4 : f32, f32, i32, i32, f32 loc(#loc410)
      } loc(#loc1661)
      %2 = arith.cmpf olt, %final_pivot#0, %final_pivot#4 : f32 loc(#loc679)
      scf.if %2 {
        %3 = arith.cmpf une, %final_pivot#0, %cst_26 : f32 loc(#loc681)
        scf.if %3 {
          %num_kept = scf.for %i = %c0_i32 to %c32_i32 step %c1_i32 iter_args(%num_kept_30 = %c0_i32) -> (i32)  : i32 {
            %offs_n = arith.muli %i, %c8192_i32 : i32 loc(#loc1237)
            %offs_n_31 = tt.make_range {end = 8192 : i32, start = 0 : i32} : tensor<8192xi32> loc(#loc1238)
            %offs_n_32 = tt.splat %offs_n : i32 -> tensor<8192xi32> loc(#loc1239)
            %offs_n_33 = arith.addi %offs_n_32, %offs_n_31 : tensor<8192xi32> loc(#loc1239)
            %mask_n = arith.cmpi slt, %offs_n_33, %cst_24 : tensor<8192xi32> loc(#loc1240)
            %logits_blk = tt.splat %LOGITS_ROW_27 : !tt.ptr<f32> -> tensor<8192x!tt.ptr<f32>> loc(#loc1241)
            %logits_blk_34 = tt.addptr %logits_blk, %offs_n_33 : tensor<8192x!tt.ptr<f32>>, tensor<8192xi32> loc(#loc1241)
            %logits_blk_35 = tt.load %logits_blk_34, %mask_n, %cst_23 : tensor<8192x!tt.ptr<f32>> loc(#loc1242)
            %keep_mask = tt.splat %final_pivot#0 : f32 -> tensor<8192xf32> loc(#loc1243)
            %keep_mask_36 = arith.cmpf ogt, %logits_blk_35, %keep_mask : tensor<8192xf32> loc(#loc1243)
            %keep_mask_37 = arith.andi %keep_mask_36, %mask_n : tensor<8192xi1> loc(#loc1508)
            %4 = arith.cmpi ult, %final_pivot#3, %final_pivot#2 : i32 loc(#loc692)
            %5:2 = scf.if %4 -> (i32, tensor<8192xi1>) {
              %duplicate_mask = tt.splat %final_pivot#1 : f32 -> tensor<8192xf32> loc(#loc1245)
              %duplicate_mask_39 = arith.subf %logits_blk_35, %duplicate_mask : tensor<8192xf32> loc(#loc1245)
              %duplicate_mask_40 = math.absf %duplicate_mask_39 : tensor<8192xf32> loc(#loc1246)
              %duplicate_mask_41 = arith.cmpf olt, %duplicate_mask_40, %cst_7 : tensor<8192xf32> loc(#loc1247)
              %duplicate_mask_42 = arith.andi %duplicate_mask_41, %mask_n : tensor<8192xi1> loc(#loc1248)
              %input = arith.extui %duplicate_mask_42 : tensor<8192xi1> to tensor<8192xi32> loc(#loc1509)
              %duplicate_count = "tt.scan"(%input) <{axis = 0 : i32, reverse = false}> ({
              ^bb0(%duplicate_count_54: i32 loc(callsite(#loc1 at #loc1249)), %duplicate_count_55: i32 loc(callsite(#loc1 at #loc1249))):
                %duplicate_count_56 = arith.addi %duplicate_count_54, %duplicate_count_55 : i32 loc(#loc1627)
                tt.scan.return %duplicate_count_56 : i32 loc(#loc1510)
              }) : (tensor<8192xi32>) -> tensor<8192xi32> loc(#loc1510)
              %duplicate_count_43 = tt.splat %num_kept_30 : i32 -> tensor<8192xi32> loc(#loc1250)
              %duplicate_count_44 = arith.addi %duplicate_count, %duplicate_count_43 : tensor<8192xi32> loc(#loc1250)
              %duplicate_keep_mask = tt.splat %final_pivot#2 : i32 -> tensor<8192xi32> loc(#loc1251)
              %duplicate_keep_mask_45 = arith.cmpi ule, %duplicate_count_44, %duplicate_keep_mask : tensor<8192xi32> loc(#loc1251)
              %duplicate_keep_mask_46 = arith.andi %duplicate_keep_mask_45, %duplicate_mask_42 : tensor<8192xi1> loc(#loc1252)
              %duplicate_remove_mask = arith.xori %duplicate_keep_mask_46, %cst_6 : tensor<8192xi1> loc(#loc1253)
              %duplicate_remove_mask_47 = arith.andi %duplicate_mask_42, %duplicate_remove_mask : tensor<8192xi1> loc(#loc1254)
              %input_48 = arith.extui %duplicate_keep_mask_46 : tensor<8192xi1> to tensor<8192xi32> loc(#loc1512)
              %num_kept_49 = tt.reshape %input_48 allow_reorder : tensor<8192xi32> -> tensor<8192xi32> loc(#loc1513)
              %num_kept_50 = "tt.reduce"(%num_kept_49) <{axis = 0 : i32}> ({
              ^bb0(%num_kept_54: i32 loc(callsite(#loc1 at #loc1255)), %num_kept_55: i32 loc(callsite(#loc1 at #loc1255))):
                %num_kept_56 = arith.addi %num_kept_54, %num_kept_55 : i32 loc(#loc1628)
                tt.reduce.return %num_kept_56 : i32 loc(#loc1513)
              }) : (tensor<8192xi32>) -> i32 loc(#loc1513)
              %num_kept_51 = arith.addi %num_kept_30, %num_kept_50 : i32 loc(#loc1515)
              %keep_mask_52 = arith.xori %duplicate_remove_mask_47, %cst_6 : tensor<8192xi1> loc(#loc1257)
              %keep_mask_53 = arith.andi %keep_mask_37, %keep_mask_52 : tensor<8192xi1> loc(#loc1516)
              scf.yield %num_kept_51, %keep_mask_53 : i32, tensor<8192xi1> loc(#loc1516)
            } else {
              scf.yield %num_kept_30, %keep_mask_37 : i32, tensor<8192xi1> loc(#loc693)
            } loc(#loc693)
            %logits_blk_38 = arith.select %5#1, %logits_blk_35, %cst_23 : tensor<8192xi1>, tensor<8192xf32> loc(#loc1259)
            tt.store %logits_blk_34, %logits_blk_38, %mask_n : tensor<8192x!tt.ptr<f32>> loc(#loc709)
            scf.yield %5#0 : i32 loc(#loc710)
          } loc(#loc1507)
        } loc(#loc1235)
      } loc(#loc680)
    } loc(#loc4)
    tt.return loc(#loc711)
  } loc(#loc)
} loc(#loc)
#loc2 = loc("/home/ericbuehler/vllm/.venv-bench/lib/python3.12/site-packages/vllm/v1/sample/ops/topk_topp_triton.py":110:24)
#loc3 = loc("/home/ericbuehler/vllm/.venv-bench/lib/python3.12/site-packages/vllm/v1/sample/ops/topk_topp_triton.py":111:35)
#loc4 = loc("/home/ericbuehler/vllm/.venv-bench/lib/python3.12/site-packages/vllm/v1/sample/ops/topk_topp_triton.py":112:44)
#loc5 = loc("/home/ericbuehler/vllm/.venv-bench/lib/python3.12/site-packages/vllm/v1/sample/ops/topk_topp_triton.py":113:39)
#loc6 = loc("/home/ericbuehler/vllm/.venv-bench/lib/python3.12/site-packages/vllm/v1/sample/ops/topk_topp_triton.py":113:30)
#loc7 = loc("/home/ericbuehler/vllm/.venv-bench/lib/python3.12/site-packages/vllm/v1/sample/ops/topk_topp_triton.py":114:36)
#loc8 = loc("/home/ericbuehler/vllm/.venv-bench/lib/python3.12/site-packages/vllm/v1/sample/ops/topk_topp_triton.py":114:30)
#loc9 = loc("/home/ericbuehler/vllm/.venv-bench/lib/python3.12/site-packages/vllm/v1/sample/ops/topk_topp_triton.py":126:28)
#loc10 = loc("/home/ericbuehler/vllm/.venv-bench/lib/python3.12/site-packages/vllm/v1/sample/ops/topk_topp_triton.py":126:24)
#loc11 = loc("/home/ericbuehler/vllm/.venv-bench/lib/python3.12/site-packages/vllm/v1/sample/ops/topk_topp_triton.py":127:19)
#loc12 = loc("/home/ericbuehler/vllm/.venv-bench/lib/python3.12/site-packages/vllm/v1/sample/ops/topk_topp_triton.py":127:15)
#loc13 = loc("/home/ericbuehler/vllm/.venv-bench/lib/python3.12/site-packages/vllm/v1/sample/ops/topk_topp_triton.py":129:36)
#loc14 = loc("/home/ericbuehler/vllm/.venv-bench/lib/python3.12/site-packages/vllm/v1/sample/ops/topk_topp_triton.py":130:32)
#loc15 = loc("/home/ericbuehler/vllm/.venv-bench/lib/python3.12/site-packages/vllm/v1/sample/ops/topk_topp_triton.py":132:33)
#loc16 = loc("/home/ericbuehler/vllm/.venv-bench/lib/python3.12/site-packages/vllm/v1/sample/ops/topk_topp_triton.py":132:20)
#loc17 = loc("/home/ericbuehler/vllm/.venv-bench/lib/python3.12/site-packages/vllm/v1/sample/ops/topk_topp_triton.py":136:45)
#loc18 = loc("/home/ericbuehler/vllm/.venv-bench/lib/python3.12/site-packages/vllm/v1/sample/ops/topk_topp_triton.py":136:62)
#loc19 = loc("/home/ericbuehler/vllm/.venv-bench/lib/python3.12/site-packages/triton/language/standard.py":292:25)
#loc21 = loc("/home/ericbuehler/vllm/.venv-bench/lib/python3.12/site-packages/triton/language/standard.py":293:36)
#loc22 = loc("/home/ericbuehler/vllm/.venv-bench/lib/python3.12/site-packages/triton/language/standard.py":263:15)
#loc23 = loc("/home/ericbuehler/vllm/.venv-bench/lib/python3.12/site-packages/vllm/v1/sample/ops/topk_topp_triton.py":138:67)
#loc24 = loc("/home/ericbuehler/vllm/.venv-bench/lib/python3.12/site-packages/vllm/v1/sample/ops/topk_topp_triton.py":140:33)
#loc26 = loc("/home/ericbuehler/vllm/.venv-bench/lib/python3.12/site-packages/vllm/v1/sample/ops/topk_topp_triton.py":140:60)
#loc27 = loc("/home/ericbuehler/vllm/.venv-bench/lib/python3.12/site-packages/vllm/v1/sample/ops/topk_topp_triton.py":140:72)
#loc28 = loc("/home/ericbuehler/vllm/.venv-bench/lib/python3.12/site-packages/vllm/v1/sample/ops/topk_topp_triton.py":144:43)
#loc30 = loc("/home/ericbuehler/vllm/.venv-bench/lib/python3.12/site-packages/vllm/v1/sample/ops/topk_topp_triton.py":144:60)
#loc31 = loc("/home/ericbuehler/vllm/.venv-bench/lib/python3.12/site-packages/vllm/v1/sample/ops/topk_topp_triton.py":145:20)
#loc32 = loc("/home/ericbuehler/vllm/.venv-bench/lib/python3.12/site-packages/vllm/v1/sample/ops/topk_topp_triton.py":148:58)
#loc33 = loc("/home/ericbuehler/vllm/.venv-bench/lib/python3.12/site-packages/vllm/v1/sample/ops/topk_topp_triton.py":148:46)
#loc34 = loc("/home/ericbuehler/vllm/.venv-bench/lib/python3.12/site-packages/vllm/v1/sample/ops/topk_topp_triton.py":148:69)
#loc35 = loc("/home/ericbuehler/vllm/.venv-bench/lib/python3.12/site-packages/vllm/v1/sample/ops/topk_topp_triton.py":148:20)
#loc36 = loc("/home/ericbuehler/vllm/.venv-bench/lib/python3.12/site-packages/vllm/v1/sample/ops/topk_topp_triton.py":152:41)
#loc37 = loc("/home/ericbuehler/vllm/.venv-bench/lib/python3.12/site-packages/vllm/v1/sample/ops/topk_topp_triton.py":152:54)
#loc38 = loc("/home/ericbuehler/vllm/.venv-bench/lib/python3.12/site-packages/vllm/v1/sample/ops/topk_topp_triton.py":152:59)
#loc39 = loc("/home/ericbuehler/vllm/.venv-bench/lib/python3.12/site-packages/vllm/v1/sample/ops/topk_topp_triton.py":153:52)
#loc40 = loc("/home/ericbuehler/vllm/.venv-bench/lib/python3.12/site-packages/vllm/v1/sample/ops/topk_topp_triton.py":154:58)
#loc41 = loc("/home/ericbuehler/vllm/.venv-bench/lib/python3.12/site-packages/vllm/v1/sample/ops/topk_topp_triton.py":154:32)
#loc42 = loc("/home/ericbuehler/vllm/.venv-bench/lib/python3.12/site-packages/vllm/v1/sample/ops/topk_topp_triton.py":155:39)
#loc43 = loc("/home/ericbuehler/vllm/.venv-bench/lib/python3.12/site-packages/vllm/v1/sample/ops/topk_topp_triton.py":155:48)
#loc44 = loc("/home/ericbuehler/vllm/.venv-bench/lib/python3.12/site-packages/vllm/v1/sample/ops/topk_topp_triton.py":155:32)
#loc45 = loc("/home/ericbuehler/vllm/.venv-bench/lib/python3.12/site-packages/vllm/v1/sample/ops/topk_topp_triton.py":156:56)
#loc46 = loc("/home/ericbuehler/vllm/.venv-bench/lib/python3.12/site-packages/vllm/v1/sample/ops/topk_topp_triton.py":156:44)
#loc47 = loc("/home/ericbuehler/vllm/.venv-bench/lib/python3.12/site-packages/vllm/v1/sample/ops/topk_topp_triton.py":161:34)
#loc48 = loc("/home/ericbuehler/vllm/.venv-bench/lib/python3.12/site-packages/vllm/v1/sample/ops/topk_topp_triton.py":162:33)
#loc49 = loc("/home/ericbuehler/vllm/.venv-bench/lib/python3.12/site-packages/vllm/v1/sample/ops/topk_topp_triton.py":162:46)
#loc50 = loc("/home/ericbuehler/vllm/.venv-bench/lib/python3.12/site-packages/vllm/v1/sample/ops/topk_topp_triton.py":163:38)
#loc51 = loc("/home/ericbuehler/vllm/.venv-bench/lib/python3.12/site-packages/vllm/v1/sample/ops/topk_topp_triton.py":165:37)
#loc52 = loc("/home/ericbuehler/vllm/.venv-bench/lib/python3.12/site-packages/vllm/v1/sample/ops/topk_topp_triton.py":165:24)
#loc53 = loc("/home/ericbuehler/vllm/.venv-bench/lib/python3.12/site-packages/triton/language/standard.py":191:40)
#loc55 = loc("/home/ericbuehler/vllm/.venv-bench/lib/python3.12/site-packages/triton/language/standard.py":170:27)
#loc56 = loc("/home/ericbuehler/vllm/.venv-bench/lib/python3.12/site-packages/vllm/v1/sample/ops/topk_topp_triton.py":168:54)
#loc57 = loc("/home/ericbuehler/vllm/.venv-bench/lib/python3.12/site-packages/vllm/v1/sample/ops/topk_topp_triton.py":171:51)
#loc58 = loc("/home/ericbuehler/vllm/.venv-bench/lib/python3.12/site-packages/vllm/v1/sample/ops/topk_topp_triton.py":172:71)
#loc59 = loc("/home/ericbuehler/vllm/.venv-bench/lib/python3.12/site-packages/triton/language/standard.py":250:40)
#loc61 = loc("/home/ericbuehler/vllm/.venv-bench/lib/python3.12/site-packages/triton/language/standard.py":229:27)
#loc62 = loc("/home/ericbuehler/vllm/.venv-bench/lib/python3.12/site-packages/vllm/v1/sample/ops/topk_topp_triton.py":173:54)
#loc63 = loc("/home/ericbuehler/vllm/.venv-bench/lib/python3.12/site-packages/vllm/v1/sample/ops/topk_topp_triton.py":174:65)
#loc65 = loc("/home/ericbuehler/vllm/.venv-bench/lib/python3.12/site-packages/vllm/v1/sample/ops/topk_topp_triton.py":174:40)
#loc66 = loc("/home/ericbuehler/vllm/.venv-bench/lib/python3.12/site-packages/vllm/v1/sample/ops/topk_topp_triton.py":176:49)
#loc67 = loc("/home/ericbuehler/vllm/.venv-bench/lib/python3.12/site-packages/vllm/v1/sample/ops/topk_topp_triton.py":176:66)
#loc68 = loc("/home/ericbuehler/vllm/.venv-bench/lib/python3.12/site-packages/triton/language/standard.py":341:25)
#loc70 = loc("/home/ericbuehler/vllm/.venv-bench/lib/python3.12/site-packages/triton/language/standard.py":343:60)
#loc71 = loc("/home/ericbuehler/vllm/.venv-bench/lib/python3.12/site-packages/vllm/v1/sample/ops/topk_topp_triton.py":178:50)
#loc72 = loc("/home/ericbuehler/vllm/.venv-bench/lib/python3.12/site-packages/vllm/v1/sample/ops/topk_topp_triton.py":178:54)
#loc74 = loc("/home/ericbuehler/vllm/.venv-bench/lib/python3.12/site-packages/vllm/v1/sample/ops/topk_topp_triton.py":180:36)
#loc75 = loc("/home/ericbuehler/vllm/.venv-bench/lib/python3.12/site-packages/vllm/v1/sample/ops/topk_topp_triton.py":181:71)
#loc76 = loc("/home/ericbuehler/vllm/.venv-bench/lib/python3.12/site-packages/vllm/v1/sample/ops/topk_topp_triton.py":182:42)
#loc77 = loc("/home/ericbuehler/vllm/.venv-bench/lib/python3.12/site-packages/vllm/v1/sample/ops/topk_topp_triton.py":182:53)
#loc78 = loc("/home/ericbuehler/vllm/.venv-bench/lib/python3.12/site-packages/vllm/v1/sample/ops/topk_topp_triton.py":182:20)
#loc79 = loc("/home/ericbuehler/vllm/.venv-bench/lib/python3.12/site-packages/vllm/v1/sample/ops/topk_topp_triton.py":186:50)
#loc80 = loc("/home/ericbuehler/vllm/.venv-bench/lib/python3.12/site-packages/vllm/v1/sample/ops/topk_topp_triton.py":194:34)
#loc81 = loc("/home/ericbuehler/vllm/.venv-bench/lib/python3.12/site-packages/vllm/v1/sample/ops/topk_topp_triton.py":194:19)
#loc82 = loc("/home/ericbuehler/vllm/.venv-bench/lib/python3.12/site-packages/vllm/v1/sample/ops/topk_topp_triton.py":199:59)
#loc83 = loc("/home/ericbuehler/vllm/.venv-bench/lib/python3.12/site-packages/vllm/v1/sample/ops/topk_topp_triton.py":199:65)
#loc84 = loc("/home/ericbuehler/vllm/.venv-bench/lib/python3.12/site-packages/vllm/v1/sample/ops/topk_topp_triton.py":203:20)
#loc85 = loc("/home/ericbuehler/vllm/.venv-bench/lib/python3.12/site-packages/vllm/v1/sample/ops/topk_topp_triton.py":203:41)
#loc94 = loc("/home/ericbuehler/vllm/.venv-bench/lib/python3.12/site-packages/vllm/v1/sample/ops/topk_topp_triton.py":204:49)
#loc95 = loc("/home/ericbuehler/vllm/.venv-bench/lib/python3.12/site-packages/vllm/v1/sample/ops/topk_topp_triton.py":204:68)
#loc96 = loc("/home/ericbuehler/vllm/.venv-bench/lib/python3.12/site-packages/vllm/v1/sample/ops/topk_topp_triton.py":204:74)
…
#loc622 = loc("/home/ericbuehler/vllm/.venv-bench/lib/python3.12/site-packages/vllm/v1/sample/ops/topk_topp_triton.py":873:42)
#loc623 = loc("/home/ericbuehler/vllm/.venv-bench/lib/python3.12/site-packages/vllm/v1/sample/ops/topk_topp_triton.py":874:41)
#loc624 = loc("/home/ericbuehler/vllm/.venv-bench/lib/python3.12/site-packages/vllm/v1/sample/ops/topk_topp_triton.py":874:54)
#loc625 = loc("/home/ericbuehler/vllm/.venv-bench/lib/python3.12/site-packages/vllm/v1/sample/ops/topk_topp_triton.py":875:46)
#loc626 = loc("/home/ericbuehler/vllm/.venv-bench/lib/python3.12/site-packages/vllm/v1/sample/ops/topk_topp_triton.py":877:45)
#loc627 = loc("/home/ericbuehler/vllm/.venv-bench/lib/python3.12/site-packages/vllm/v1/sample/ops/topk_topp_triton.py":877:32)
#loc628 = loc("/home/ericbuehler/vllm/.venv-bench/lib/python3.12/site-packages/vllm/v1/sample/ops/topk_topp_triton.py":881:51)
#loc629 = loc("/home/ericbuehler/vllm/.venv-bench/lib/python3.12/site-packages/vllm/v1/sample/ops/topk_topp_triton.py":881:39)
#loc630 = loc("/home/ericbuehler/vllm/.venv-bench/lib/python3.12/site-packages/vllm/v1/sample/ops/topk_topp_triton.py":881:67)
#loc632 = loc("/home/ericbuehler/vllm/.venv-bench/lib/python3.12/site-packages/vllm/v1/sample/ops/topk_topp_triton.py":880:48)
#loc633 = loc("/home/ericbuehler/vllm/.venv-bench/lib/python3.12/site-packages/vllm/v1/sample/ops/topk_topp_triton.py":884:51)
#loc634 = loc("/home/ericbuehler/vllm/.venv-bench/lib/python3.12/site-packages/vllm/v1/sample/ops/topk_topp_triton.py":884:39)
#loc635 = loc("/home/ericbuehler/vllm/.venv-bench/lib/python3.12/site-packages/vllm/v1/sample/ops/topk_topp_triton.py":884:67)
#loc637 = loc("/home/ericbuehler/vllm/.venv-bench/lib/python3.12/site-packages/vllm/v1/sample/ops/topk_topp_triton.py":883:48)
#loc638 = loc("/home/ericbuehler/vllm/.venv-bench/lib/python3.12/site-packages/vllm/v1/sample/ops/topk_topp_triton.py":883:28)
#loc639 = loc("/home/ericbuehler/vllm/.venv-bench/lib/python3.12/site-packages/vllm/v1/sample/ops/topk_topp_triton.py":889:46)
#loc640 = loc("/home/ericbuehler/vllm/.venv-bench/lib/python3.12/site-packages/vllm/v1/sample/ops/topk_topp_triton.py":890:65)
#loc641 = loc("/home/ericbuehler/vllm/.venv-bench/lib/python3.12/site-packages/vllm/v1/sample/ops/topk_topp_triton.py":890:50)
#loc642 = loc("/home/ericbuehler/vllm/.venv-bench/lib/python3.12/site-packages/vllm/v1/sample/ops/topk_topp_triton.py":890:85)
#loc643 = loc("/home/ericbuehler/vllm/.venv-bench/lib/python3.12/site-packages/vllm/v1/sample/ops/topk_topp_triton.py":890:32)
#loc644 = loc("/home/ericbuehler/vllm/.venv-bench/lib/python3.12/site-packages/vllm/v1/sample/ops/topk_topp_triton.py":889:28)
#loc645 = loc("/home/ericbuehler/vllm/.venv-bench/lib/python3.12/site-packages/vllm/v1/sample/ops/topk_topp_triton.py":898:46)
#loc646 = loc("/home/ericbuehler/vllm/.venv-bench/lib/python3.12/site-packages/vllm/v1/sample/ops/topk_topp_triton.py":899:65)
#loc647 = loc("/home/ericbuehler/vllm/.venv-bench/lib/python3.12/site-packages/vllm/v1/sample/ops/topk_topp_triton.py":899:50)
#loc648 = loc("/home/ericbuehler/vllm/.venv-bench/lib/python3.12/site-packages/vllm/v1/sample/ops/topk_topp_triton.py":899:85)
#loc649 = loc("/home/ericbuehler/vllm/.venv-bench/lib/python3.12/site-packages/vllm/v1/sample/ops/topk_topp_triton.py":899:32)
#loc650 = loc("/home/ericbuehler/vllm/.venv-bench/lib/python3.12/site-packages/vllm/v1/sample/ops/topk_topp_triton.py":898:28)
#loc651 = loc("/home/ericbuehler/vllm/.venv-bench/lib/python3.12/site-packages/vllm/v1/sample/ops/topk_topp_triton.py":908:44)
#loc652 = loc("/home/ericbuehler/vllm/.venv-bench/lib/python3.12/site-packages/vllm/v1/sample/ops/topk_topp_triton.py":908:27)
#loc653 = loc("/home/ericbuehler/vllm/.venv-bench/lib/python3.12/site-packages/vllm/v1/sample/ops/topk_topp_triton.py":910:46)
#loc654 = loc("/home/ericbuehler/vllm/.venv-bench/lib/python3.12/site-packages/vllm/v1/sample/ops/topk_topp_triton.py":910:29)
#loc655 = loc("/home/ericbuehler/vllm/.venv-bench/lib/python3.12/site-packages/vllm/v1/sample/ops/topk_topp_triton.py":913:44)
#loc656 = loc("/home/ericbuehler/vllm/.venv-bench/lib/python3.12/site-packages/vllm/v1/sample/ops/topk_topp_triton.py":913:27)
#loc657 = loc("/home/ericbuehler/vllm/.venv-bench/lib/python3.12/site-packages/vllm/v1/sample/ops/topk_topp_triton.py":915:46)
#loc658 = loc("/home/ericbuehler/vllm/.venv-bench/lib/python3.12/site-packages/vllm/v1/sample/ops/topk_topp_triton.py":915:29)
#loc659 = loc("/home/ericbuehler/vllm/.venv-bench/lib/python3.12/site-packages/vllm/v1/sample/ops/topk_topp_triton.py":918:37)
#loc660 = loc("/home/ericbuehler/vllm/.venv-bench/lib/python3.12/site-packages/vllm/v1/sample/ops/topk_topp_triton.py":919:40)
#loc661 = loc("/home/ericbuehler/vllm/.venv-bench/lib/python3.12/site-packages/vllm/v1/sample/ops/topk_topp_triton.py":919:53)
#loc662 = loc("/home/ericbuehler/vllm/.venv-bench/lib/python3.12/site-packages/vllm/v1/sample/ops/topk_topp_triton.py":919:74)
#loc663 = loc("/home/ericbuehler/vllm/.venv-bench/lib/python3.12/site-packages/vllm/v1/sample/ops/topk_topp_triton.py":919:61)
#loc664 = loc("/home/ericbuehler/vllm/.venv-bench/lib/python3.12/site-packages/vllm/v1/sample/ops/topk_topp_triton.py":919:27)
#loc665 = loc("/home/ericbuehler/vllm/.venv-bench/lib/python3.12/site-packages/vllm/v1/sample/ops/topk_topp_triton.py":920:51)
#loc666 = loc("/home/ericbuehler/vllm/.venv-bench/lib/python3.12/site-packages/vllm/v1/sample/ops/topk_topp_triton.py":920:64)
#loc667 = loc("/home/ericbuehler/vllm/.venv-bench/lib/python3.12/site-packages/vllm/v1/sample/ops/topk_topp_triton.py":921:42)
#loc668 = loc("/home/ericbuehler/vllm/.venv-bench/lib/python3.12/site-packages/vllm/v1/sample/ops/topk_topp_triton.py":919:24)
#loc669 = loc("/home/ericbuehler/vllm/.venv-bench/lib/python3.12/site-packages/vllm/v1/sample/ops/topk_topp_triton.py":923:59)
#loc670 = loc("/home/ericbuehler/vllm/.venv-bench/lib/python3.12/site-packages/vllm/v1/sample/ops/topk_topp_triton.py":923:41)
#loc671 = loc("/home/ericbuehler/vllm/.venv-bench/lib/python3.12/site-packages/vllm/v1/sample/ops/topk_topp_triton.py":923:77)
#loc672 = loc("/home/ericbuehler/vllm/.venv-bench/lib/python3.12/site-packages/vllm/v1/sample/ops/topk_topp_triton.py":926:36)
#loc673 = loc("/home/ericbuehler/vllm/.venv-bench/lib/python3.12/site-packages/vllm/v1/sample/ops/topk_topp_triton.py":926:41)
#loc674 = loc("/home/ericbuehler/vllm/.venv-bench/lib/python3.12/site-packages/vllm/v1/sample/ops/topk_topp_triton.py":926:58)
#loc675 = loc("/home/ericbuehler/vllm/.venv-bench/lib/python3.12/site-packages/vllm/v1/sample/ops/topk_topp_triton.py":925:49)
#loc676 = loc("/home/ericbuehler/vllm/.venv-bench/lib/python3.12/site-packages/vllm/v1/sample/ops/topk_topp_triton.py":931:47)
#loc677 = loc("/home/ericbuehler/vllm/.venv-bench/lib/python3.12/site-packages/vllm/v1/sample/ops/topk_topp_triton.py":931:37)
#loc678 = loc("/home/ericbuehler/vllm/.venv-bench/lib/python3.12/site-packages/vllm/v1/sample/ops/topk_topp_triton.py":931:65)
#loc679 = loc("/home/ericbuehler/vllm/.venv-bench/lib/python3.12/site-packages/vllm/v1/sample/ops/topk_topp_triton.py":937:30)
#loc680 = loc("/home/ericbuehler/vllm/.venv-bench/lib/python3.12/site-packages/vllm/v1/sample/ops/topk_topp_triton.py":937:11)
#loc681 = loc("/home/ericbuehler/vllm/.venv-bench/lib/python3.12/site-packages/vllm/v1/sample/ops/topk_topp_triton.py":939:28)
#loc682 = loc("/home/ericbuehler/vllm/.venv-bench/lib/python3.12/site-packages/vllm/v1/sample/ops/topk_topp_triton.py":939:13)
#loc683 = loc("/home/ericbuehler/vllm/.venv-bench/lib/python3.12/site-packages/vllm/v1/sample/ops/topk_topp_triton.py":940:30)
#loc684 = loc("/home/ericbuehler/vllm/.venv-bench/lib/python3.12/site-packages/vllm/v1/sample/ops/topk_topp_triton.py":941:29)
#loc685 = loc("/home/ericbuehler/vllm/.venv-bench/lib/python3.12/site-packages/vllm/v1/sample/ops/topk_topp_triton.py":941:55)
#loc686 = loc("/home/ericbuehler/vllm/.venv-bench/lib/python3.12/site-packages/vllm/v1/sample/ops/topk_topp_triton.py":941:42)
#loc687 = loc("/home/ericbuehler/vllm/.venv-bench/lib/python3.12/site-packages/vllm/v1/sample/ops/topk_topp_triton.py":942:34)
#loc688 = loc("/home/ericbuehler/vllm/.venv-bench/lib/python3.12/site-packages/vllm/v1/sample/ops/topk_topp_triton.py":944:33)
#loc689 = loc("/home/ericbuehler/vllm/.venv-bench/lib/python3.12/site-packages/vllm/v1/sample/ops/topk_topp_triton.py":944:20)
#loc690 = loc("/home/ericbuehler/vllm/.venv-bench/lib/python3.12/site-packages/vllm/v1/sample/ops/topk_topp_triton.py":946:42)
#loc691 = loc("/home/ericbuehler/vllm/.venv-bench/lib/python3.12/site-packages/vllm/v1/sample/ops/topk_topp_triton.py":946:57)
#loc692 = loc("/home/ericbuehler/vllm/.venv-bench/lib/python3.12/site-packages/vllm/v1/sample/ops/topk_topp_triton.py":949:30)
#loc693 = loc("/home/ericbuehler/vllm/.venv-bench/lib/python3.12/site-packages/vllm/v1/sample/ops/topk_topp_triton.py":949:19)
#loc694 = loc("/home/ericbuehler/vllm/.venv-bench/lib/python3.12/site-packages/vllm/v1/sample/ops/topk_topp_triton.py":951:44)
#loc695 = loc("/home/ericbuehler/vllm/.venv-bench/lib/python3.12/site-packages/vllm/v1/sample/ops/topk_topp_triton.py":951:31)
#loc696 = loc("/home/ericbuehler/vllm/.venv-bench/lib/python3.12/site-packages/vllm/v1/sample/ops/topk_topp_triton.py":951:63)
#loc697 = loc("/home/ericbuehler/vllm/.venv-bench/lib/python3.12/site-packages/vllm/v1/sample/ops/topk_topp_triton.py":952:24)
#loc699 = loc("/home/ericbuehler/vllm/.venv-bench/lib/python3.12/site-packages/vllm/v1/sample/ops/topk_topp_triton.py":953:66)
#loc700 = loc("/home/ericbuehler/vllm/.venv-bench/lib/python3.12/site-packages/vllm/v1/sample/ops/topk_topp_triton.py":955:43)
#loc701 = loc("/home/ericbuehler/vllm/.venv-bench/lib/python3.12/site-packages/vllm/v1/sample/ops/topk_topp_triton.py":956:24)
#loc702 = loc("/home/ericbuehler/vllm/.venv-bench/lib/python3.12/site-packages/vllm/v1/sample/ops/topk_topp_triton.py":957:62)
#loc703 = loc("/home/ericbuehler/vllm/.venv-bench/lib/python3.12/site-packages/vllm/v1/sample/ops/topk_topp_triton.py":957:61)
#loc705 = loc("/home/ericbuehler/vllm/.venv-bench/lib/python3.12/site-packages/vllm/v1/sample/ops/topk_topp_triton.py":958:32)
#loc706 = loc("/home/ericbuehler/vllm/.venv-bench/lib/python3.12/site-packages/vllm/v1/sample/ops/topk_topp_triton.py":959:46)
#loc707 = loc("/home/ericbuehler/vllm/.venv-bench/lib/python3.12/site-packages/vllm/v1/sample/ops/topk_topp_triton.py":959:45)
#loc708 = loc("/home/ericbuehler/vllm/.venv-bench/lib/python3.12/site-packages/vllm/v1/sample/ops/topk_topp_triton.py":961:61)
#loc709 = loc("/home/ericbuehler/vllm/.venv-bench/lib/python3.12/site-packages/vllm/v1/sample/ops/topk_topp_triton.py":962:46)
#loc710 = loc("/home/ericbuehler/vllm/.venv-bench/lib/python3.12/site-packages/vllm/v1/sample/ops/topk_topp_triton.py":962:16)
#loc711 = loc("/home/ericbuehler/vllm/.venv-bench/lib/python3.12/site-packages/vllm/v1/sample/ops/topk_topp_triton.py":112:4)
#loc719 = loc("pid"(#loc2))
#loc720 = loc("num_programs"(#loc3))
#loc721 = loc("LOGITS_ROW"(#loc5))
#loc722 = loc("LOGITS_ROW"(#loc6))
#loc723 = loc("BUFFER_ROW"(#loc7))
#loc724 = loc("BUFFER_ROW"(#loc8))
#loc725 = loc("k"(#loc9))
#loc726 = loc("k"(#loc10))
#loc727 = loc("final_pivot"(#loc12))
#loc728 = loc("offs"(#loc13))
#loc729 = loc("mask_n"(#loc14))
#loc730 = loc("logits_blk0"(#loc15))
#loc731 = loc("logits_blk0"(#loc16))
#loc732 = loc("finite_mask"(#loc17))
#loc733 = loc("finite_mask"(#loc18))
#loc734 = loc("input"(#loc19))
#loc736 = loc("finite_logits"(#loc23))
#loc737 = loc("avg_logit"(#loc24))
#loc739 = loc("avg_logit"(#loc26))
#loc740 = loc("avg_logit"(#loc27))
#loc741 = loc("sq_avg_logit"(#loc28))
#loc743 = loc("sq_avg_logit"(#loc30))
#loc744 = loc("sq_avg_logit"(#loc31))
#loc745 = loc("std_logit"(#loc32))
#loc746 = loc("std_logit"(#loc33))
#loc747 = loc("std_logit"(#loc34))
#loc748 = loc("std_logit"(#loc35))
#loc749 = loc("percentile"(#loc36))
#loc750 = loc("percentile"(#loc37))
#loc751 = loc("percentile"(#loc38))
#loc752 = loc("percentile"(#loc39))
#loc753 = loc("sigma"(#loc40))
#loc754 = loc("sigma"(#loc41))
#loc755 = loc("sigma"(#loc42))
#loc756 = loc("sigma"(#loc43))
#loc757 = loc("sigma"(#loc44))
#loc758 = loc("outlier_pivot"(#loc45))
#loc759 = loc("outlier_pivot"(#loc46))
#loc760 = loc("max_logit"(#loc47))
#loc761 = loc("offs_n"(#loc48))
#loc762 = loc("offs_n"(#loc49))
#loc763 = loc("mask_n"(#loc50))
#loc764 = loc("logits_blk"(#loc51))
#loc765 = loc("logits_blk"(#loc52))
#loc767 = loc("max_logit"(#loc56))
#loc768 = loc("finite_blk_mask"(#loc57))
#loc769 = loc("finite_blk"(#loc58))
#loc771 = loc("min_logit"(#loc62))
#loc772 = loc("num_finite_total"(#loc63))
#loc774 = loc("num_finite_total"(#loc65))
#loc775 = loc("outlier_mask"(#loc66))
#loc776 = loc("outlier_mask"(#loc67))
#loc777 = loc("input"(#loc68))
#loc779 = loc("cumulative_pos"(#loc71))
#loc780 = loc("cumulative_pos"(#loc72))
#loc782 = loc("num_outliers"(#loc74))
#loc783 = loc("write_pos"(#loc75))
#loc784 = loc("min_logit"(#loc79))
#loc785 = loc("mask_n"(#loc81))
#loc786 = loc("search_iters"(#loc82))
#loc787 = loc("search_iters"(#loc83))
#loc788 = loc("i"(#loc84))
#loc796 = loc("k_pivot_0"(#loc94))
#loc797 = loc("k_pivot_0"(#loc95))
#loc798 = loc("k_pivot_0"(#loc96))
#loc799 = loc("k_pivot_1"(#loc97))
#loc800 = loc("k_pivot_1"(#loc98))
#loc801 = loc("k_pivot_1"(#loc99))
#loc802 = loc("k_pivots_num_0"(#loc100))
#loc803 = loc("offs_n"(#loc101))
#loc804 = loc("offs_n"(#loc102))
#loc805 = loc("offs_n"(#loc103))
#loc806 = loc("mask_n_2"(#loc104))
#loc807 = loc("logits_blk2"(#loc105))
#loc808 = loc("logits_blk2"(#loc106))
#loc809 = loc("above_0"(#loc107))
#loc810 = loc("above_1"(#loc108))
#loc812 = loc("k_pivots_num_0"(#loc110))
#loc814 = loc("k_pivots_num_1"(#loc112))
#loc815 = loc("tile_min"(#loc113))
#loc817 = loc("tile_eq"(#loc116))
#loc818 = loc("tile_eq"(#loc117))
#loc819 = loc("tile_eq"(#loc118))
#loc820 = loc("tile_eq"(#loc119))
#loc822 = loc("is_new"(#loc121))
#loc823 = loc("is_same"(#loc122))
#loc824 = loc("is_same"(#loc123))
#loc825 = loc("is_same"(#loc124))
#loc826 = loc("num_min_larger"(#loc125))
#loc827 = loc("num_min_larger"(#loc126))
#loc828 = loc("num_min_larger"(#loc127))
#loc829 = loc("min_larger"(#loc128))
#loc830 = loc("k_pivot"(#loc135))
#loc831 = loc("k_pivot"(#loc140))
#loc832 = loc("min_range"(#loc144))
#loc833 = loc("max_range"(#loc148))
#loc834 = loc("num_iters"(#loc149))
#loc835 = loc("k_pivot"(#loc156))
#loc836 = loc("k_pivot"(#loc157))
#loc837 = loc("found_pivot"(#loc158))
#loc838 = loc("mask_n"(#loc160))
#loc839 = loc("k_pivot_0"(#loc163))
#loc840 = loc("k_pivot_0"(#loc164))
#loc841 = loc("k_pivot_0"(#loc165))
#loc842 = loc("k_pivot_1"(#loc166))
#loc843 = loc("k_pivot_1"(#loc167))
#loc844 = loc("k_pivot_1"(#loc168))
#loc845 = loc("mask_n"(#loc169))
#loc846 = loc("offs_n"(#loc170))
#loc847 = loc("offs_n"(#loc171))
#loc848 = loc("mask_n"(#loc172))
#loc849 = loc("logits_blk2"(#loc173))
#loc850 = loc("logits_blk2"(#loc174))
#loc851 = loc("above_0"(#loc175))
#loc852 = loc("above_1"(#loc176))
#loc854 = loc("k_pivots_num_0"(#loc178))
#loc856 = loc("k_pivots_num_1"(#loc180))
#loc857 = loc("k_pivot"(#loc188))
#loc858 = loc("k_pivot"(#loc193))
#loc859 = loc("min_range"(#loc197))
#loc860 = loc("max_range"(#loc201))
#loc861 = loc("num_iters"(#loc202))
#loc862 = loc("k_pivot"(#loc209))
#loc863 = loc("k_pivot"(#loc210))
#loc864 = loc("found_pivot"(#loc211))
#loc865 = loc("num_keep"(#loc213))
#loc866 = loc("num_keep"(#loc214))
#loc867 = loc("final_pivot"(#loc215))
#loc868 = loc("final_pivot"(#loc216))
#loc869 = loc("final_pivot"(#loc217))
#loc870 = loc("p"(#loc218))
#loc871 = loc("p"(#loc219))
#loc872 = loc("final_pivot"(#loc221))
#loc873 = loc("search_iters"(#loc222))
#loc874 = loc("search_iters"(#loc223))
#loc875 = loc("mask_n"(#loc224))
#loc876 = loc("num_kept"(#loc225))
#loc877 = loc("offs_n"(#loc226))
#loc878 = loc("offs_n"(#loc227))
#loc879 = loc("offs_n"(#loc228))
#loc880 = loc("mask_n_2"(#loc229))
#loc881 = loc("probs_blk"(#loc230))
#loc882 = loc("probs_blk"(#loc231))
#loc883 = loc("outlier_mask"(#loc232))
#loc884 = loc("outlier_mask"(#loc233))
#loc885 = loc("duplicate_mask"(#loc236))
#loc886 = loc("duplicate_mask"(#loc237))
#loc887 = loc("duplicate_mask"(#loc238))
#loc889 = loc("duplicate_count"(#loc240))
#loc890 = loc("duplicate_keep_mask"(#loc241))
#loc891 = loc("duplicate_keep_mask"(#loc242))
#loc892 = loc("duplicate_remove_mask"(#loc243))
#loc893 = loc("duplicate_remove_mask"(#loc244))
#loc894 = loc("outlier_mask"(#loc245))
#loc895 = loc("outlier_mask"(#loc246))
#loc897 = loc("num_kept"(#loc248))
#loc898 = loc("probs_blk"(#loc249))
#loc899 = loc("probs_blk"(#loc250))
#loc900 = loc("probs_blk"(#loc251))
#loc902 = loc("sum_exp_logits"(#loc253))
#loc903 = loc("offs_n"(#loc256))
#loc904 = loc("offs_n"(#loc257))
#loc905 = loc("offs_n"(#loc258))
#loc906 = loc("mask_n_2"(#loc259))
#loc907 = loc("probs_blk"(#loc260))
#loc908 = loc("probs_blk"(#loc261))
#loc909 = loc("probs_blk"(#loc262))
#loc910 = loc("probs_blk"(#loc263))
#loc911 = loc("probs_blk"(#loc264))
#loc912 = loc("num_kept"(#loc266))
#loc913 = loc("offs_n"(#loc267))
#loc914 = loc("offs_n"(#loc268))
#loc915 = loc("mask_n"(#loc269))
#loc916 = loc("probs_blk"(#loc270))
#loc917 = loc("probs_blk"(#loc271))
#loc918 = loc("outlier_mask"(#loc272))
#loc919 = loc("outlier_mask"(#loc273))
#loc920 = loc("duplicate_mask"(#loc274))
#loc921 = loc("duplicate_mask"(#loc275))
#loc922 = loc("duplicate_mask"(#loc276))
#loc924 = loc("duplicate_count"(#loc278))
#loc925 = loc("duplicate_keep_mask"(#loc279))
#loc926 = loc("duplicate_keep_mask"(#loc280))
#loc927 = loc("duplicate_remove_mask"(#loc281))
#loc928 = loc("duplicate_remove_mask"(#loc282))
#loc929 = loc("outlier_mask"(#loc283))
#loc930 = loc("outlier_mask"(#loc284))
#loc932 = loc("num_kept"(#loc286))
#loc933 = loc("probs_blk"(#loc287))
#loc934 = loc("probs_blk"(#loc288))
#loc935 = loc("probs_blk"(#loc289))
#loc937 = loc("sum_exp_logits"(#loc291))
#loc939 = loc("cumulative_pos"(#loc293))
#loc940 = loc("cumulative_pos"(#loc294))
#loc942 = loc("num_outliers_2"(#loc296))
#loc943 = loc("write_pos"(#loc297))
#loc944 = loc("search_iters"(#loc301))
#loc945 = loc("search_iters"(#loc302))
#loc946 = loc("offs_n"(#loc304))
#loc947 = loc("offs_n"(#loc305))
#loc948 = loc("offs_n"(#loc306))
#loc949 = loc("mask_n_2"(#loc307))
#loc950 = loc("probs_blk"(#loc308))
#loc951 = loc("probs_blk"(#loc309))
#loc952 = loc("probs_blk"(#loc310))
#loc953 = loc("max_range"(#loc312))
#loc954 = loc("max_range"(#loc313))
#loc955 = loc("max_range"(#loc314))
#loc956 = loc("min_range"(#loc315))
#loc957 = loc("min_range"(#loc316))
#loc958 = loc("min_range"(#loc317))
#loc959 = loc("i"(#loc318))
#loc963 = loc("p_pivot_0"(#loc323))
#loc964 = loc("p_pivot_0"(#loc324))
#loc965 = loc("p_pivot_0"(#loc325))
#loc966 = loc("p_pivot_1"(#loc326))
#loc967 = loc("p_pivot_1"(#loc327))
#loc968 = loc("p_pivot_1"(#loc328))
#loc969 = loc("p_pivots_sum_0"(#loc329))
#loc970 = loc("offs_n"(#loc330))
#loc971 = loc("offs_n"(#loc331))
#loc972 = loc("offs_n"(#loc332))
#loc973 = loc("mask_n_2"(#loc333))
#loc974 = loc("probs_blk"(#loc334))
#loc975 = loc("probs_blk"(#loc335))
#loc976 = loc("p_pivots_sum_0"(#loc336))
#loc977 = loc("p_pivots_sum_0"(#loc337))
#loc979 = loc("p_pivots_sum_0"(#loc339))
#loc980 = loc("masked_larger_0"(#loc340))
#loc982 = loc("min_larger_0"(#loc342))
#loc983 = loc("p_pivots_sum_1"(#loc343))
#loc984 = loc("p_pivots_sum_1"(#loc344))
#loc986 = loc("p_pivots_sum_1"(#loc346))
#loc987 = loc("masked_larger_1"(#loc347))
#loc989 = loc("min_larger_1"(#loc349))
#loc990 = loc("num_min_larger_0"(#loc351))
#loc991 = loc("offs_n"(#loc352))
#loc992 = loc("offs_n"(#loc353))
#loc993 = loc("offs_n"(#loc354))
#loc994 = loc("mask_n_2"(#loc355))
#loc995 = loc("probs_blk"(#loc356))
#loc996 = loc("probs_blk"(#loc357))
#loc997 = loc("num_min_larger_0"(#loc358))
#loc998 = loc("num_min_larger_0"(#loc359))
#loc999 = loc("num_min_larger_0"(#loc360))
#loc1001 = loc("num_min_larger_0"(#loc362))
#loc1002 = loc("num_min_larger_1"(#loc363))
#loc1003 = loc("num_min_larger_1"(#loc364))
#loc1004 = loc("num_min_larger_1"(#loc365))
#loc1006 = loc("num_min_larger_1"(#loc367))
#loc1007 = loc("num_min_larger"(#loc374))
#loc1008 = loc("found_pivot"(#loc380))
#loc1009 = loc("min_range"(#loc384))
#loc1010 = loc("max_range"(#loc388))
#loc1011 = loc("num_iters"(#loc389))
#loc1012 = loc("p_pivot"(#loc395))
#loc1013 = loc("p_pivot"(#loc396))
#loc1014 = loc("found_pivot"(#loc397))
#loc1015 = loc("duplicate_logit"(#loc399))
#loc1016 = loc("duplicate_logit"(#loc400))
#loc1017 = loc("duplicate_logit"(#loc401))
#loc1018 = loc("num_keep"(#loc402))
#loc1019 = loc("num_keep"(#loc403))
#loc1020 = loc("num_keep"(#loc404))
#loc1021 = loc("num_keep"(#loc405))
#loc1022 = loc("final_pivot"(#loc406))
#loc1023 = loc("final_pivot"(#loc407))
#loc1024 = loc("final_pivot"(#loc408))
#loc1025 = loc("num_kept"(#loc410))
#loc1026 = loc("p"(#loc411))
#loc1027 = loc("p"(#loc412))
#loc1028 = loc("final_pivot"(#loc414))
#loc1029 = loc("offs"(#loc415))
#loc1030 = loc("mask_n"(#loc416))
#loc1031 = loc("logits_blk0"(#loc417))
#loc1032 = loc("logits_blk0"(#loc418))
#loc1033 = loc("finite_mask"(#loc419))
#loc1034 = loc("finite_mask"(#loc420))
#loc1036 = loc("finite_logits"(#loc422))
#loc1037 = loc("avg_logit"(#loc423))
#loc1039 = loc("avg_logit"(#loc425))
#loc1040 = loc("avg_logit"(#loc426))
#loc1041 = loc("sq_avg_logit"(#loc427))
#loc1043 = loc("sq_avg_logit"(#loc429))
#loc1044 = loc("sq_avg_logit"(#loc430))
#loc1045 = loc("std_logit"(#loc431))
#loc1046 = loc("std_logit"(#loc432))
#loc1047 = loc("std_logit"(#loc433))
#loc1048 = loc("std_logit"(#loc434))
#loc1049 = loc("max_sample"(#loc435))
#loc1050 = loc("max_sample"(#loc436))
#loc1051 = loc("max_logit"(#loc437))
#loc1052 = loc("offs_n"(#loc438))
#loc1053 = loc("offs_n"(#loc439))
#loc1054 = loc("mask_n"(#loc440))
#loc1055 = loc("logits_blk"(#loc441))
#loc1056 = loc("logits_blk"(#loc442))
#loc1058 = loc("max_logit"(#loc444))
#loc1059 = loc("finite_blk"(#loc445))
#loc1060 = loc("finite_blk"(#loc446))
#loc1062 = loc("min_logit"(#loc448))
#loc1063 = loc("probs_blk"(#loc449))
#loc1064 = loc("probs_blk"(#loc450))
#loc1065 = loc("probs_blk"(#loc451))
#loc1067 = loc("sum_exp_logits"(#loc453))
#loc1068 = loc("min_logit"(#loc455))
#loc1069 = loc("idx"(#loc456))
#loc1070 = loc("idx"(#loc457))
#loc1071 = loc("idx"(#loc458))
#loc1072 = loc("idx"(#loc459))
#loc1073 = loc("sigma"(#loc460))
#loc1074 = loc("sigma"(#loc461))
#loc1075 = loc("sigma"(#loc462))
#loc1076 = loc("sigma"(#loc463))
#loc1077 = loc("sigma"(#loc464))
#loc1078 = loc("outlier_pivot"(#loc465))
#loc1079 = loc("outlier_pivot"(#loc466))
#loc1080 = loc("outlier_prob"(#loc467))
#loc1081 = loc("outlier_prob"(#loc468))
#loc1082 = loc("outlier_prob"(#loc469))
#loc1083 = loc("mask_n"(#loc470))
#loc1084 = loc("offs_n"(#loc471))
#loc1085 = loc("offs_n"(#loc472))
#loc1086 = loc("mask_n"(#loc473))
#loc1087 = loc("probs_blk"(#loc474))
#loc1088 = loc("probs_blk"(#loc475))
#loc1089 = loc("probs_blk"(#loc476))
#loc1090 = loc("probs_blk"(#loc477))
#loc1091 = loc("probs_blk"(#loc478))
#loc1092 = loc("outlier_mask"(#loc479))
#loc1093 = loc("outlier_mask"(#loc480))
#loc1094 = loc("sum_outlier_probs"(#loc481))
#loc1096 = loc("sum_outlier_probs"(#loc483))
#loc1098 = loc("cumulative_pos"(#loc485))
#loc1099 = loc("cumulative_pos"(#loc486))
#loc1101 = loc("num_outliers"(#loc488))
#loc1102 = loc("write_pos"(#loc489))
#loc1103 = loc("max_range"(#loc493))
#loc1104 = loc("max_range"(#loc494))
#loc1105 = loc("max_range"(#loc495))
#loc1106 = loc("min_range"(#loc496))
#loc1107 = loc("min_range"(#loc497))
#loc1108 = loc("min_range"(#loc498))
#loc1109 = loc("num_duplicate_logit"(#loc500))
#loc1110 = loc("search_iters"(#loc501))
#loc1111 = loc("search_iters"(#loc502))
#loc1112 = loc("i"(#loc503))
#loc1113 = loc("p_pivot_0"(#loc505))
#loc1114 = loc("p_pivot_0"(#loc506))
#loc1115 = loc("p_pivot_0"(#loc507))
#loc1116 = loc("p_pivot_1"(#loc508))
#loc1117 = loc("p_pivot_1"(#loc509))
#loc1118 = loc("p_pivot_1"(#loc510))
#loc1119 = loc("p_pivots_sum_0"(#loc511))
#loc1120 = loc("offs_n"(#loc512))
#loc1121 = loc("offs_n"(#loc513))
#loc1122 = loc("offs_n"(#loc514))
#loc1123 = loc("mask_n_2"(#loc515))
#loc1124 = loc("probs_blk"(#loc516))
#loc1125 = loc("probs_blk"(#loc517))
#loc1126 = loc("p_pivots_sum_0"(#loc518))
#loc1127 = loc("p_pivots_sum_0"(#loc519))
#loc1129 = loc("p_pivots_sum_0"(#loc521))
#loc1130 = loc("masked_larger_0"(#loc522))
#loc1132 = loc("min_larger_0"(#loc524))
#loc1133 = loc("p_pivots_sum_1"(#loc525))
#loc1134 = loc("p_pivots_sum_1"(#loc526))
#loc1136 = loc("p_pivots_sum_1"(#loc528))
#loc1137 = loc("masked_larger_1"(#loc529))
#loc1139 = loc("min_larger_1"(#loc531))
#loc1140 = loc("num_min_larger_0"(#loc533))
#loc1141 = loc("offs_n"(#loc534))
#loc1142 = loc("offs_n"(#loc535))
#loc1143 = loc("offs_n"(#loc536))
#loc1144 = loc("mask_n_2"(#loc537))
#loc1145 = loc("probs_blk"(#loc538))
#loc1146 = loc("probs_blk"(#loc539))
#loc1147 = loc("num_min_larger_0"(#loc540))
#loc1148 = loc("num_min_larger_0"(#loc541))
#loc1149 = loc("num_min_larger_0"(#loc542))
#loc1151 = loc("num_min_larger_0"(#loc544))
#loc1152 = loc("num_min_larger_1"(#loc545))
#loc1153 = loc("num_min_larger_1"(#loc546))
#loc1154 = loc("num_min_larger_1"(#loc547))
#loc1156 = loc("num_min_larger_1"(#loc549))
#loc1157 = loc("p_pivot"(#loc556))
#loc1158 = loc("p_pivot"(#loc562))
#loc1159 = loc("min_range"(#loc566))
#loc1160 = loc("max_range"(#loc570))
#loc1161 = loc("num_iters"(#loc571))
#loc1162 = loc("p_pivot"(#loc577))
#loc1163 = loc("p_pivot"(#loc578))
#loc1164 = loc("found_pivot"(#loc579))
#loc1165 = loc("mask_n"(#loc581))
#loc1166 = loc("offs_n"(#loc582))
#loc1167 = loc("offs_n"(#loc583))
#loc1168 = loc("mask_n"(#loc584))
#loc1169 = loc("probs_blk"(#loc585))
#loc1170 = loc("probs_blk"(#loc586))
#loc1171 = loc("probs_blk"(#loc587))
#loc1172 = loc("probs_blk"(#loc588))
#loc1173 = loc("probs_blk"(#loc589))
#loc1174 = loc("mask_n"(#loc593))
#loc1175 = loc("p_pivot_0"(#loc595))
#loc1176 = loc("p_pivot_0"(#loc596))
#loc1177 = loc("p_pivot_0"(#loc597))
#loc1178 = loc("p_pivot_1"(#loc598))
#loc1179 = loc("p_pivot_1"(#loc599))
#loc1180 = loc("p_pivot_1"(#loc600))
#loc1181 = loc("mask_n"(#loc601))
#loc1182 = loc("offs_n"(#loc602))
#loc1183 = loc("offs_n"(#loc603))
#loc1184 = loc("mask_n"(#loc604))
#loc1185 = loc("probs_blk"(#loc605))
#loc1186 = loc("probs_blk"(#loc606))
#loc1187 = loc("p_pivots_sum_0"(#loc607))
#loc1188 = loc("p_pivots_sum_0"(#loc608))
#loc1190 = loc("p_pivots_sum_0"(#loc610))
#loc1191 = loc("masked_larger_0"(#loc611))
#loc1193 = loc("min_larger_0"(#loc613))
#loc1194 = loc("p_pivots_sum_1"(#loc614))
#loc1195 = loc("p_pivots_sum_1"(#loc615))
#loc1197 = loc("p_pivots_sum_1"(#loc617))
#loc1198 = loc("masked_larger_1"(#loc618))
#loc1200 = loc("min_larger_1"(#loc620))
#loc1201 = loc("mask_n"(#loc622))
#loc1202 = loc("offs_n"(#loc623))
#loc1203 = loc("offs_n"(#loc624))
#loc1204 = loc("mask_n"(#loc625))
#loc1205 = loc("probs_blk"(#loc626))
#loc1206 = loc("probs_blk"(#loc627))
#loc1207 = loc("num_min_larger_0"(#loc628))
#loc1208 = loc("num_min_larger_0"(#loc629))
#loc1209 = loc("num_min_larger_0"(#loc630))
#loc1211 = loc("num_min_larger_0"(#loc632))
#loc1212 = loc("num_min_larger_1"(#loc633))
#loc1213 = loc("num_min_larger_1"(#loc634))
#loc1214 = loc("num_min_larger_1"(#loc635))
#loc1216 = loc("num_min_larger_1"(#loc637))
#loc1217 = loc("p_pivot"(#loc644))
#loc1218 = loc("p_pivot"(#loc650))
#loc1219 = loc("min_range"(#loc654))
#loc1220 = loc("max_range"(#loc658))
#loc1221 = loc("num_iters"(#loc659))
#loc1222 = loc("p_pivot"(#loc665))
#loc1223 = loc("p_pivot"(#loc666))
#loc1224 = loc("found_pivot"(#loc667))
#loc1225 = loc("duplicate_logit"(#loc669))
#loc1226 = loc("duplicate_logit"(#loc670))
#loc1227 = loc("duplicate_logit"(#loc671))
#loc1228 = loc("num_keep"(#loc672))
#loc1229 = loc("num_keep"(#loc673))
#loc1230 = loc("num_keep"(#loc674))
#loc1231 = loc("num_keep"(#loc675))
#loc1232 = loc("final_pivot"(#loc676))
#loc1233 = loc("final_pivot"(#loc677))
#loc1234 = loc("final_pivot"(#loc678))
#loc1235 = loc("num_kept"(#loc682))
#loc1236 = loc("num_kept"(#loc683))
#loc1237 = loc("offs_n"(#loc684))
#loc1238 = loc("offs_n"(#loc685))
#loc1239 = loc("offs_n"(#loc686))
#loc1240 = loc("mask_n"(#loc687))
#loc1241 = loc("logits_blk"(#loc688))
#loc1242 = loc("logits_blk"(#loc689))
#loc1243 = loc("keep_mask"(#loc690))
#loc1244 = loc("keep_mask"(#loc691))
#loc1245 = loc("duplicate_mask"(#loc694))
#loc1246 = loc("duplicate_mask"(#loc695))
#loc1247 = loc("duplicate_mask"(#loc696))
#loc1248 = loc("duplicate_mask"(#loc697))
#loc1250 = loc("duplicate_count"(#loc699))
#loc1251 = loc("duplicate_keep_mask"(#loc700))
#loc1252 = loc("duplicate_keep_mask"(#loc701))
#loc1253 = loc("duplicate_remove_mask"(#loc702))
#loc1254 = loc("duplicate_remove_mask"(#loc703))
#loc1256 = loc("num_kept"(#loc705))
#loc1257 = loc("keep_mask"(#loc706))
#loc1258 = loc("keep_mask"(#loc707))
#loc1259 = loc("logits_blk"(#loc708))
#loc1260 = loc("duplicate_logit"(#loc727))
#loc1261 = loc(callsite(#loc734 at #loc735))
#loc1262 = loc(callsite(#loc21 at #loc735))
#loc1264 = loc(callsite(#loc21 at #loc738))
#loc1266 = loc(callsite(#loc21 at #loc742))
#loc1268 = loc("min_range"(#loc759))
#loc1269 = loc("min_logit"(#loc760))
#loc1270 = loc(callsite(#loc53 at #loc766))
#loc1272 = loc(callsite(#loc59 at #loc770))
#loc1274 = loc(callsite(#loc734 at #loc773))
#loc1275 = loc(callsite(#loc21 at #loc773))
#loc1277 = loc(callsite(#loc777 at #loc778))
#loc1278 = loc(callsite(#loc70 at #loc778))
#loc1280 = loc(callsite(#loc21 at #loc781))
#loc1282 = loc("min_range"(#loc784))
#loc1283 = loc("min_logit"(#loc785))
#loc1284 = loc("num_iters"(#loc788))
#loc1285 = loc("k_pivot"(#loc798))
#loc1286 = loc("k_pivot"(#loc801))
#loc1287 = loc("min_larger_0"(#loc802))
#loc1288 = loc(callsite(#loc734 at #loc811))
#loc1289 = loc(callsite(#loc21 at #loc811))
#loc1291 = loc(callsite(#loc734 at #loc813))
#loc1292 = loc(callsite(#loc21 at #loc813))
#loc1294 = loc(callsite(#loc815 at #loc114))
#loc1296 = loc(callsite(#loc817 at #loc114))
#loc1297 = loc(callsite(#loc818 at #loc114))
#loc1298 = loc(callsite(#loc819 at #loc114))
#loc1299 = loc(callsite(#loc820 at #loc114))
#loc1301 = loc(callsite(#loc822 at #loc114))
#loc1302 = loc(callsite(#loc823 at #loc114))
#loc1303 = loc(callsite(#loc824 at #loc114))
#loc1304 = loc(callsite(#loc825 at #loc114))
#loc1305 = loc(callsite(#loc826 at #loc114))
#loc1306 = loc(callsite(#loc827 at #loc114))
#loc1307 = loc(callsite(#loc828 at #loc114))
#loc1308 = loc(callsite(#loc829 at #loc114))
#loc1309 = loc(callsite(#loc815 at #loc129))
#loc1311 = loc(callsite(#loc817 at #loc129))
#loc1312 = loc(callsite(#loc818 at #loc129))
#loc1313 = loc(callsite(#loc819 at #loc129))
#loc1314 = loc(callsite(#loc820 at #loc129))
#loc1316 = loc(callsite(#loc822 at #loc129))
#loc1317 = loc(callsite(#loc823 at #loc129))
#loc1318 = loc(callsite(#loc824 at #loc129))
#loc1319 = loc(callsite(#loc825 at #loc129))
#loc1320 = loc(callsite(#loc826 at #loc129))
#loc1321 = loc(callsite(#loc827 at #loc129))
#loc1322 = loc(callsite(#loc828 at #loc129))
#loc1323 = loc(callsite(#loc829 at #loc129))
#loc1324 = loc("k_pivots_num"(#loc830))
#loc1325 = loc("found_pivot"(#loc831))
#loc1326 = loc("k_pivot"(#loc836))
#loc1327 = loc("found_pivot"(#loc837))
#loc1328 = loc("i"(#loc838))
#loc1329 = loc("k_pivot"(#loc841))
#loc1330 = loc("k_pivot"(#loc844))
#loc1331 = loc("k_pivots_num_0"(#loc845))
#loc1332 = loc(callsite(#loc734 at #loc853))
#loc1333 = loc(callsite(#loc21 at #loc853))
#loc1335 = loc(callsite(#loc734 at #loc855))
#loc1336 = loc(callsite(#loc21 at #loc855))
#loc1338 = loc(callsite(#loc815 at #loc181))
#loc1340 = loc(callsite(#loc817 at #loc181))
#loc1341 = loc(callsite(#loc818 at #loc181))
#loc1342 = loc(callsite(#loc819 at #loc181))
#loc1343 = loc(callsite(#loc820 at #loc181))
#loc1345 = loc(callsite(#loc822 at #loc181))
#loc1346 = loc(callsite(#loc823 at #loc181))
#loc1347 = loc(callsite(#loc824 at #loc181))
#loc1348 = loc(callsite(#loc825 at #loc181))
#loc1349 = loc(callsite(#loc826 at #loc181))
#loc1350 = loc(callsite(#loc827 at #loc181))
#loc1351 = loc(callsite(#loc828 at #loc181))
#loc1352 = loc(callsite(#loc829 at #loc181))
#loc1353 = loc(callsite(#loc815 at #loc182))
#loc1355 = loc(callsite(#loc817 at #loc182))
#loc1356 = loc(callsite(#loc818 at #loc182))
#loc1357 = loc(callsite(#loc819 at #loc182))
#loc1358 = loc(callsite(#loc820 at #loc182))
#loc1360 = loc(callsite(#loc822 at #loc182))
#loc1361 = loc(callsite(#loc823 at #loc182))
#loc1362 = loc(callsite(#loc824 at #loc182))
#loc1363 = loc(callsite(#loc825 at #loc182))
#loc1364 = loc(callsite(#loc826 at #loc182))
#loc1365 = loc(callsite(#loc827 at #loc182))
#loc1366 = loc(callsite(#loc828 at #loc182))
#loc1367 = loc(callsite(#loc829 at #loc182))
#loc1368 = loc("k_pivots_num"(#loc857))
#loc1369 = loc("found_pivot"(#loc858))
#loc1370 = loc("k_pivot"(#loc863))
#loc1371 = loc("found_pivot"(#loc864))
#loc1372 = loc("num_keep"(#loc866))
#loc1373 = loc("final_pivot"(#loc868))
#loc1374 = loc("duplicate_logit"(#loc869))
#loc1375 = loc("duplicate_logit"(#loc872))
#loc1376 = loc("sum_exp_logits"(#loc876))
#loc1377 = loc("outlier_mask"(#loc884))
#loc1378 = loc(callsite(#loc777 at #loc888))
#loc1379 = loc(callsite(#loc70 at #loc888))
#loc1381 = loc("outlier_mask"(#loc895))
#loc1382 = loc(callsite(#loc734 at #loc896))
#loc1383 = loc(callsite(#loc21 at #loc896))
#loc1385 = loc("num_kept"(#loc897))
#loc1386 = loc(callsite(#loc21 at #loc901))
#loc1388 = loc("mask_n"(#loc912))
#loc1389 = loc(callsite(#loc777 at #loc923))
#loc1390 = loc(callsite(#loc70 at #loc923))
#loc1392 = loc(callsite(#loc734 at #loc931))
#loc1393 = loc(callsite(#loc21 at #loc931))
#loc1395 = loc(callsite(#loc21 at #loc936))
#loc1397 = loc(callsite(#loc777 at #loc938))
#loc1398 = loc(callsite(#loc70 at #loc938))
#loc1400 = loc(callsite(#loc21 at #loc941))
#loc1402 = loc("max_range"(#loc955))
#loc1403 = loc("min_range"(#loc958))
#loc1404 = loc("num_iters"(#loc959))
#loc1405 = loc("p_pivot"(#loc965))
#loc1406 = loc("p_pivot"(#loc968))
#loc1407 = loc("min_larger_0"(#loc969))
#loc1408 = loc(callsite(#loc21 at #loc978))
#loc1410 = loc(callsite(#loc59 at #loc981))
#loc1412 = loc(callsite(#loc21 at #loc985))
#loc1414 = loc(callsite(#loc59 at #loc988))
#loc1416 = loc("num_min_larger_1"(#loc990))
#loc1417 = loc(callsite(#loc734 at #loc1000))
#loc1418 = loc(callsite(#loc21 at #loc1000))
#loc1420 = loc(callsite(#loc734 at #loc1005))
#loc1421 = loc(callsite(#loc21 at #loc1005))
#loc1423 = loc("found_pivot"(#loc1007))
#loc1424 = loc("p_pivot"(#loc1008))
#loc1425 = loc("p_pivot"(#loc1013))
#loc1426 = loc("found_pivot"(#loc1014))
#loc1427 = loc("duplicate_logit"(#loc1017))
#loc1428 = loc("num_keep"(#loc1021))
#loc1429 = loc("final_pivot"(#loc1024))
#loc1430 = loc("num_kept"(#loc1025))
#loc1431 = loc("duplicate_logit"(#loc1028))
#loc1432 = loc(callsite(#loc734 at #loc1035))
#loc1433 = loc(callsite(#loc21 at #loc1035))
#loc1435 = loc(callsite(#loc21 at #loc1038))
#loc1437 = loc(callsite(#loc21 at #loc1042))
#loc1439 = loc("min_logit"(#loc1051))
#loc1440 = loc(callsite(#loc53 at #loc1057))
#loc1442 = loc(callsite(#loc59 at #loc1061))
#loc1444 = loc(callsite(#loc21 at #loc1066))
#loc1446 = loc("min_logit"(#loc1068))
#loc1447 = loc("min_range"(#loc1082))
#loc1448 = loc("sum_outlier_probs"(#loc1083))
#loc1449 = loc(callsite(#loc21 at #loc1095))
#loc1451 = loc(callsite(#loc777 at #loc1097))
#loc1452 = loc(callsite(#loc70 at #loc1097))
#loc1454 = loc(callsite(#loc21 at #loc1100))
#loc1456 = loc("max_range"(#loc1105))
#loc1457 = loc("min_range"(#loc1108))
#loc1458 = loc("max_range"(#loc1112))
#loc1459 = loc("p_pivot"(#loc1115))
#loc1460 = loc("p_pivot"(#loc1118))
#loc1461 = loc("min_larger_0"(#loc1119))
#loc1462 = loc(callsite(#loc21 at #loc1128))
#loc1464 = loc(callsite(#loc59 at #loc1131))
#loc1466 = loc(callsite(#loc21 at #loc1135))
#loc1468 = loc(callsite(#loc59 at #loc1138))
#loc1470 = loc("num_min_larger_1"(#loc1140))
#loc1471 = loc(callsite(#loc734 at #loc1150))
#loc1472 = loc(callsite(#loc21 at #loc1150))
#loc1474 = loc(callsite(#loc734 at #loc1155))
#loc1475 = loc(callsite(#loc21 at #loc1155))
#loc1477 = loc("min_larger_prob"(#loc1157))
#loc1478 = loc("found_pivot"(#loc1158))
#loc1479 = loc("p_pivot"(#loc1163))
#loc1480 = loc("found_pivot"(#loc1164))
#loc1481 = loc("i"(#loc1174))
#loc1482 = loc("p_pivot"(#loc1177))
#loc1483 = loc("p_pivot"(#loc1180))
#loc1484 = loc("p_pivots_sum_0"(#loc1181))
#loc1485 = loc(callsite(#loc21 at #loc1189))
#loc1487 = loc(callsite(#loc59 at #loc1192))
#loc1489 = loc(callsite(#loc21 at #loc1196))
#loc1491 = loc(callsite(#loc59 at #loc1199))
#loc1493 = loc("num_min_larger_0"(#loc1201))
#loc1494 = loc(callsite(#loc734 at #loc1210))
#loc1495 = loc(callsite(#loc21 at #loc1210))
#loc1497 = loc(callsite(#loc734 at #loc1215))
#loc1498 = loc(callsite(#loc21 at #loc1215))
#loc1500 = loc("min_larger_prob"(#loc1217))
#loc1501 = loc("found_pivot"(#loc1218))
#loc1502 = loc("p_pivot"(#loc1223))
#loc1503 = loc("found_pivot"(#loc1224))
#loc1504 = loc("duplicate_logit"(#loc1227))
#loc1505 = loc("num_keep"(#loc1231))
#loc1506 = loc("final_pivot"(#loc1234))
#loc1507 = loc("num_kept"(#loc1236))
#loc1508 = loc("keep_mask"(#loc1244))
#loc1509 = loc(callsite(#loc777 at #loc1249))
#loc1510 = loc(callsite(#loc70 at #loc1249))
#loc1512 = loc(callsite(#loc734 at #loc1255))
#loc1513 = loc(callsite(#loc21 at #loc1255))
#loc1515 = loc("num_kept"(#loc1256))
#loc1516 = loc("keep_mask"(#loc1258))
#loc1517 = loc("num_duplicate_logit"(#loc1260))
#loc1518 = loc(callsite(#loc22 at #loc1262))
#loc1519 = loc(callsite(#loc22 at #loc1264))
#loc1520 = loc(callsite(#loc22 at #loc1266))
#loc1521 = loc("mask_n"(#loc1269))
#loc1522 = loc(callsite(#loc55 at #loc1270))
#loc1523 = loc(callsite(#loc61 at #loc1272))
#loc1524 = loc(callsite(#loc22 at #loc1275))
#loc1525 = loc(callsite(#loc22 at #loc1278))
#loc1526 = loc(callsite(#loc22 at #loc1280))
#loc1527 = loc("min_logit"(#loc1282))
#loc1528 = loc("duplicate_logit"(#loc1283))
#loc1529 = loc("k_pivot"(#loc1284))
#loc1530 = loc("min_range"(#loc1285))
#loc1531 = loc("min_range"(#loc1286))
#loc1532 = loc("num_min_larger_0"(#loc1287))
#loc1533 = loc(callsite(#loc22 at #loc1289))
#loc1534 = loc(callsite(#loc22 at #loc1292))
#loc1535 = loc(callsite(#loc59 at #loc1295))
#loc1537 = loc(callsite(#loc734 at #loc1300))
#loc1538 = loc(callsite(#loc21 at #loc1300))
#loc1540 = loc(callsite(#loc59 at #loc1310))
#loc1542 = loc(callsite(#loc734 at #loc1315))
#loc1543 = loc(callsite(#loc21 at #loc1315))
#loc1545 = loc("min_larger"(#loc1324))
#loc1546 = loc("num_iters"(#loc1328))
#loc1547 = loc("min_range"(#loc1329))
#loc1548 = loc("min_range"(#loc1330))
#loc1549 = loc("min_larger_0"(#loc1331))
#loc1550 = loc(callsite(#loc22 at #loc1333))
#loc1551 = loc(callsite(#loc22 at #loc1336))
#loc1552 = loc(callsite(#loc59 at #loc1339))
#loc1554 = loc(callsite(#loc734 at #loc1344))
#loc1555 = loc(callsite(#loc21 at #loc1344))
#loc1557 = loc(callsite(#loc59 at #loc1354))
#loc1559 = loc(callsite(#loc734 at #loc1359))
#loc1560 = loc(callsite(#loc21 at #loc1359))
#loc1562 = loc("min_larger"(#loc1368))
#loc1563 = loc("num_keep"(#loc1372))
#loc1564 = loc("final_pivot"(#loc1373))
#loc1565 = loc("num_duplicate_logit"(#loc1374))
#loc1566 = loc("num_duplicate_logit"(#loc1375))
#loc1567 = loc("num_kept"(#loc1376))
#loc1568 = loc(callsite(#loc22 at #loc1379))
#loc1569 = loc(callsite(#loc22 at #loc1383))
#loc1570 = loc(callsite(#loc22 at #loc1386))
#loc1571 = loc("sum_exp_logits"(#loc1388))
#loc1572 = loc(callsite(#loc22 at #loc1390))
#loc1573 = loc(callsite(#loc22 at #loc1393))
#loc1574 = loc(callsite(#loc22 at #loc1395))
#loc1575 = loc(callsite(#loc22 at #loc1398))
#loc1576 = loc(callsite(#loc22 at #loc1400))
#loc1577 = loc("num_min_larger"(#loc1404))
#loc1578 = loc("min_range"(#loc1405))
#loc1579 = loc("min_range"(#loc1406))
#loc1580 = loc("p_pivots_sum_1"(#loc1407))
#loc1581 = loc(callsite(#loc22 at #loc1408))
#loc1582 = loc(callsite(#loc61 at #loc1410))
#loc1583 = loc(callsite(#loc22 at #loc1412))
#loc1584 = loc(callsite(#loc61 at #loc1414))
#loc1585 = loc("num_min_larger"(#loc1416))
#loc1586 = loc(callsite(#loc22 at #loc1418))
#loc1587 = loc(callsite(#loc22 at #loc1421))
#loc1588 = loc("p_pivot"(#loc1423))
#loc1589 = loc("num_kept"(#loc1430))
#loc1590 = loc("num_duplicate_logit"(#loc1431))
#loc1591 = loc(callsite(#loc22 at #loc1433))
#loc1592 = loc(callsite(#loc22 at #loc1435))
#loc1593 = loc(callsite(#loc22 at #loc1437))
#loc1594 = loc("mask_n"(#loc1439))
#loc1595 = loc(callsite(#loc55 at #loc1440))
#loc1596 = loc(callsite(#loc61 at #loc1442))
#loc1597 = loc(callsite(#loc22 at #loc1444))
#loc1598 = loc("num_outliers"(#loc1448))
#loc1599 = loc(callsite(#loc22 at #loc1449))
#loc1600 = loc(callsite(#loc22 at #loc1452))
#loc1601 = loc(callsite(#loc22 at #loc1454))
#loc1602 = loc("max_range"(#loc1456))
#loc1603 = loc("min_range"(#loc1458))
#loc1604 = loc("min_range"(#loc1459))
#loc1605 = loc("min_range"(#loc1460))
#loc1606 = loc("p_pivots_sum_1"(#loc1461))
#loc1607 = loc(callsite(#loc22 at #loc1462))
#loc1608 = loc(callsite(#loc61 at #loc1464))
#loc1609 = loc(callsite(#loc22 at #loc1466))
#loc1610 = loc(callsite(#loc61 at #loc1468))
#loc1611 = loc("num_min_larger"(#loc1470))
#loc1612 = loc(callsite(#loc22 at #loc1472))
#loc1613 = loc(callsite(#loc22 at #loc1475))
#loc1614 = loc("num_min_larger"(#loc1477))
#loc1615 = loc("max_range"(#loc1481))
#loc1616 = loc("min_range"(#loc1482))
#loc1617 = loc("min_range"(#loc1483))
#loc1618 = loc("min_larger_0"(#loc1484))
#loc1619 = loc(callsite(#loc22 at #loc1485))
#loc1620 = loc(callsite(#loc61 at #loc1487))
#loc1621 = loc(callsite(#loc22 at #loc1489))
#loc1622 = loc(callsite(#loc61 at #loc1491))
#loc1623 = loc("num_min_larger_1"(#loc1493))
#loc1624 = loc(callsite(#loc22 at #loc1495))
#loc1625 = loc(callsite(#loc22 at #loc1498))
#loc1626 = loc("num_min_larger"(#loc1500))
#loc1627 = loc(callsite(#loc22 at #loc1510))
#loc1628 = loc(callsite(#loc22 at #loc1513))
#loc1629 = loc("num_keep"(#loc1517))
#loc1630 = loc("num_outliers"(#loc1521))
#loc1631 = loc("min_logit"(#loc1527))
#loc1632 = loc("num_duplicate_logit"(#loc1528))
#loc1633 = loc("k_pivots_num"(#loc1529))
#loc1634 = loc("max_range"(#loc1530))
#loc1635 = loc("max_range"(#loc1531))
#loc1636 = loc("k_pivots_num_1"(#loc1532))
#loc1637 = loc(callsite(#loc61 at #loc1535))
#loc1638 = loc(callsite(#loc22 at #loc1538))
#loc1639 = loc(callsite(#loc61 at #loc1540))
#loc1640 = loc(callsite(#loc22 at #loc1543))
#loc1641 = loc("num_min_larger"(#loc1545))
#loc1642 = loc("k_pivot"(#loc1546))
#loc1643 = loc("max_range"(#loc1547))
#loc1644 = loc("max_range"(#loc1548))
#loc1645 = loc("num_min_larger_0"(#loc1549))
#loc1646 = loc(callsite(#loc61 at #loc1552))
#loc1647 = loc(callsite(#loc22 at #loc1555))
#loc1648 = loc(callsite(#loc61 at #loc1557))
#loc1649 = loc(callsite(#loc22 at #loc1560))
#loc1650 = loc("num_min_larger"(#loc1562))
#loc1651 = loc("num_keep"(#loc1565))
#loc1652 = loc("num_keep"(#loc1566))
#loc1653 = loc("sum_exp_logits"(#loc1567))
#loc1654 = loc("num_outliers_2"(#loc1571))
#loc1655 = loc("found_pivot"(#loc1577))
#loc1656 = loc("max_range"(#loc1578))
#loc1657 = loc("max_range"(#loc1579))
#loc1658 = loc("min_larger_1"(#loc1580))
#loc1659 = loc("num_min_larger"(#loc1585))
#loc1660 = loc("min_larger_prob"(#loc1588))
#loc1661 = loc("final_pivot"(#loc1589))
#loc1662 = loc("num_keep"(#loc1590))
#loc1663 = loc("sum_exp_logits"(#loc1594))
#loc1664 = loc("mask_n"(#loc1598))
#loc1665 = loc("p_pivot"(#loc1603))
#loc1666 = loc("max_range"(#loc1604))
#loc1667 = loc("max_range"(#loc1605))
#loc1668 = loc("min_larger_1"(#loc1606))
#loc1669 = loc("num_min_larger"(#loc1611))
#loc1670 = loc("p_pivots_sum"(#loc1614))
#loc1671 = loc("min_range"(#loc1615))
#loc1672 = loc("max_range"(#loc1616))
#loc1673 = loc("max_range"(#loc1617))
#loc1674 = loc("p_pivots_sum_1"(#loc1618))
#loc1675 = loc("num_min_larger"(#loc1623))
#loc1676 = loc("p_pivots_sum"(#loc1626))
#loc1677 = loc("num_kept"(#loc1629))
#loc1678 = loc("num_finite_total"(#loc1630))
#loc1679 = loc("mask_n"(#loc1632))
#loc1680 = loc("min_larger"(#loc1633))
#loc1681 = loc("min_larger_1"(#loc1636))
#loc1682 = loc("found_pivot"(#loc1641))
#loc1683 = loc("k_pivots_num"(#loc1642))
#loc1684 = loc("k_pivots_num_1"(#loc1645))
#loc1685 = loc("found_pivot"(#loc1650))
#loc1686 = loc("num_kept"(#loc1651))
#loc1687 = loc("num_kept"(#loc1652))
#loc1688 = loc("num_kept"(#loc1654))
#loc1689 = loc("max_range"(#loc1655))
#loc1690 = loc("min_larger_prob"(#loc1658))
#loc1691 = loc("p_pivots_sum"(#loc1660))
#loc1692 = loc("num_kept"(#loc1662))
#loc1693 = loc("max_logit"(#loc1663))
#loc1694 = loc("num_iters"(#loc1665))
#loc1695 = loc("min_larger_prob"(#loc1668))
#loc1696 = loc("found_pivot"(#loc1670))
#loc1697 = loc("p_pivot"(#loc1671))
#loc1698 = loc("min_larger_1"(#loc1674))
#loc1699 = loc("num_min_larger"(#loc1675))
#loc1700 = loc("found_pivot"(#loc1676))
#loc1701 = loc("max_logit"(#loc1677))
#loc1702 = loc("max_range"(#loc1678))
#loc1703 = loc("i"(#loc1679))
#loc1704 = loc("num_min_larger"(#loc1680))
#loc1705 = loc("num_min_larger_1"(#loc1681))
#loc1706 = loc("min_larger"(#loc1683))
#loc1707 = loc("min_larger_1"(#loc1684))
#loc1708 = loc("min_logit"(#loc1686))
#loc1709 = loc("min_logit"(#loc1687))
#loc1710 = loc("mask_n"(#loc1688))
#loc1711 = loc("min_range"(#loc1689))
#loc1712 = loc("p_pivots_sum"(#loc1690))
#loc1713 = loc("max_logit"(#loc1692))
#loc1714 = loc("min_larger_prob"(#loc1694))
#loc1715 = loc("p_pivots_sum"(#loc1695))
#loc1716 = loc("num_iters"(#loc1697))
#loc1717 = loc("min_larger_prob"(#loc1698))
#loc1718 = loc("min_logit"(#loc1701))
#loc1719 = loc("max_range"(#loc1702))
#loc1720 = loc("num_iters"(#loc1703))
#loc1721 = loc("max_range"(#loc1704))
#loc1722 = loc("k_pivots_num"(#loc1705))
#loc1723 = loc("num_min_larger"(#loc1706))
#loc1724 = loc("num_min_larger_1"(#loc1707))
#loc1725 = loc("mask_n"(#loc1709))
#loc1726 = loc("sum_exp_logits"(#loc1710))
#loc1727 = loc("p_pivot"(#loc1711))
#loc1728 = loc("min_larger_prob"(#loc1712))
#loc1729 = loc("min_logit"(#loc1713))
#loc1730 = loc("num_min_larger"(#loc1714))
#loc1731 = loc("min_larger_prob"(#loc1715))
#loc1732 = loc("min_larger_prob"(#loc1716))
#loc1733 = loc("p_pivots_sum"(#loc1717))
#loc1734 = loc("final_pivot"(#loc1718))
#loc1735 = loc("mask_n"(#loc1719))
#loc1736 = loc("num_min_larger"(#loc1720))
#loc1737 = loc("min_range"(#loc1721))
#loc1738 = loc("min_larger"(#loc1722))
#loc1739 = loc("max_range"(#loc1723))
#loc1740 = loc("k_pivots_num"(#loc1724))
#loc1741 = loc("i"(#loc1725))
#loc1742 = loc("num_outliers_2"(#loc1726))
#loc1743 = loc("min_larger_prob"(#loc1727))
#loc1744 = loc("p_pivots_sum"(#loc1728))
#loc1745 = loc("p_pivots_sum"(#loc1730))
#loc1746 = loc("p_pivots_sum"(#loc1731))
#loc1747 = loc("num_min_larger"(#loc1732))
#loc1748 = loc("min_larger_prob"(#loc1733))
#loc1749 = loc("duplicate_logit"(#loc1734))
#loc1750 = loc("max_logit"(#loc1735))
#loc1751 = loc("found_pivot"(#loc1736))
#loc1752 = loc("found_pivot"(#loc1737))
#loc1753 = loc("num_min_larger"(#loc1738))
#loc1754 = loc("min_range"(#loc1739))
#loc1755 = loc("min_larger"(#loc1740))
#loc1756 = loc("num_iters"(#loc1741))
#loc1757 = loc("p_pivots_sum"(#loc1743))
#loc1758 = loc("found_pivot"(#loc1745))
#loc1759 = loc("p_pivots_sum"(#loc1747))
#loc1760 = loc("p_pivots_sum"(#loc1748))
#loc1761 = loc("num_duplicate_logit"(#loc1749))
#loc1762 = loc("max_range"(#loc1751))
#loc1763 = loc("i"(#loc1752))
#loc1764 = loc("k_pivots_num"(#loc1753))
#loc1765 = loc("found_pivot"(#loc1754))
#loc1766 = loc("num_min_larger"(#loc1755))
#loc1767 = loc("num_min_larger"(#loc1756))
#loc1768 = loc("num_duplicate_logit"(#loc1757))
#loc1769 = loc("i"(#loc1758))
#loc1770 = loc("found_pivot"(#loc1759))
#loc1771 = loc("num_keep"(#loc1761))
#loc1772 = loc("min_range"(#loc1762))
#loc1773 = loc("num_iters"(#loc1763))
#loc1774 = loc("min_larger"(#loc1764))
#loc1775 = loc("mask_n"(#loc1765))
#loc1776 = loc("k_pivots_num"(#loc1766))
#loc1777 = loc("found_pivot"(#loc1767))
#loc1778 = loc("i"(#loc1768))
#loc1779 = loc("max_range"(#loc1769))
#loc1780 = loc("mask_n"(#loc1770))
#loc1781 = loc("num_kept"(#loc1771))
#loc1782 = loc("duplicate_logit"(#loc1772))
#loc1783 = loc("k_pivot"(#loc1773))
#loc1784 = loc("num_min_larger"(#loc1774))
#loc1785 = loc("i"(#loc1775))
#loc1786 = loc("min_larger"(#loc1776))
#loc1787 = loc("max_range"(#loc1777))
#loc1788 = loc("num_iters"(#loc1778))
#loc1789 = loc("min_range"(#loc1779))
#loc1790 = loc("i"(#loc1780))
#loc1791 = loc("max_logit"(#loc1781))
#loc1792 = loc("num_duplicate_logit"(#loc1782))
#loc1793 = loc("k_pivots_num"(#loc1783))
#loc1794 = loc("num_iters"(#loc1785))
#loc1795 = loc("num_min_larger"(#loc1786))
#loc1796 = loc("min_range"(#loc1787))
#loc1797 = loc("num_min_larger"(#loc1788))
#loc1798 = loc("p_pivot"(#loc1789))
#loc1799 = loc("max_range"(#loc1790))
#loc1800 = loc("min_logit"(#loc1791))
#loc1801 = loc("mask_n"(#loc1792))
#loc1802 = loc("min_larger"(#loc1793))
#loc1803 = loc("k_pivot"(#loc1794))
#loc1804 = loc("found_pivot"(#loc1797))
#loc1805 = loc("num_iters"(#loc1798))
#loc1806 = loc("min_range"(#loc1799))
#loc1807 = loc("i"(#loc1801))
#loc1808 = loc("num_min_larger"(#loc1802))
#loc1809 = loc("k_pivots_num"(#loc1803))
#loc1810 = loc("max_range"(#loc1804))
#loc1811 = loc("min_larger_prob"(#loc1805))
#loc1812 = loc("p_pivot"(#loc1806))
#loc1813 = loc("num_iters"(#loc1807))
#loc1814 = loc("found_pivot"(#loc1808))
#loc1815 = loc("min_larger"(#loc1809))
#loc1816 = loc("min_range"(#loc1810))
#loc1817 = loc("num_min_larger"(#loc1811))
#loc1818 = loc("num_iters"(#loc1812))
#loc1819 = loc("num_min_larger"(#loc1813))
#loc1820 = loc("max_range"(#loc1814))
#loc1821 = loc("num_min_larger"(#loc1815))
#loc1822 = loc("p_pivots_sum"(#loc1817))
#loc1823 = loc("min_larger_prob"(#loc1818))
#loc1824 = loc("found_pivot"(#loc1819))
#loc1825 = loc("min_range"(#loc1820))
#loc1826 = loc("found_pivot"(#loc1821))
#loc1827 = loc("found_pivot"(#loc1822))
#loc1828 = loc("num_min_larger"(#loc1823))
#loc1829 = loc("max_range"(#loc1824))
#loc1830 = loc("max_range"(#loc1826))
#loc1831 = loc("p_pivots_sum"(#loc1828))
#loc1832 = loc("min_range"(#loc1829))
#loc1833 = loc("min_range"(#loc1830))
#loc1834 = loc("found_pivot"(#loc1831))
