#loc = loc("/home/ericbuehler/vllm/.venv-bench/lib/python3.12/site-packages/vllm/v1/sample/ops/topk_topp_triton.py":94:0)
#loc97 = loc("i")
#loc98 = loc("num_iters")
#loc99 = loc("k_pivot")
#loc100 = loc("k_pivots_num")
#loc101 = loc("min_larger")
#loc102 = loc("num_min_larger")
#loc103 = loc("max_range")
#loc104 = loc("min_range")
#loc105 = loc("found_pivot")
#loc170 = loc("mask_n")
#loc361 = loc("p_pivot")
#loc362 = loc("min_larger_prob")
#loc363 = loc("p_pivots_sum")
#loc818 = loc("/home/ericbuehler/vllm/.venv-bench/lib/python3.12/site-packages/triton/language/standard.py":287:0)
#loc821 = loc(unknown)
#loc824 = loc("/home/ericbuehler/vllm/.venv-bench/lib/python3.12/site-packages/triton/language/standard.py":262:0)
#loc828 = loc("/home/ericbuehler/vllm/.venv-bench/lib/python3.12/site-packages/triton/language/standard.py":177:0)
#loc832 = loc("/home/ericbuehler/vllm/.venv-bench/lib/python3.12/site-packages/triton/language/standard.py":169:0)
#loc836 = loc("/home/ericbuehler/vllm/.venv-bench/lib/python3.12/site-packages/triton/language/standard.py":236:0)
#loc840 = loc("/home/ericbuehler/vllm/.venv-bench/lib/python3.12/site-packages/triton/language/standard.py":228:0)
#loc844 = loc("/home/ericbuehler/vllm/.venv-bench/lib/python3.12/site-packages/triton/language/standard.py":334:0)
#loc849 = loc("/home/ericbuehler/vllm/.venv-bench/lib/python3.12/site-packages/vllm/v1/sample/ops/topk_topp_triton.py":71:0)
#loc867 = loc("LOGITS"(#loc))
#loc868 = loc("BUFFER"(#loc))
#loc869 = loc("PERCENTILE_TO_STD_TABLE"(#loc))
#loc870 = loc("NORMAL_CDF_TO_SIGMA_TABLE"(#loc))
#loc871 = loc("K"(#loc))
#loc872 = loc("P"(#loc))
#loc873 = loc("BATCH_SIZE"(#loc))
#loc963 = loc("k_pivot"(#loc99))
#loc964 = loc("k_pivots_num"(#loc100))
#loc965 = loc("min_larger"(#loc101))
#loc966 = loc("num_min_larger"(#loc102))
#loc967 = loc("max_range"(#loc103))
#loc968 = loc("min_range"(#loc104))
#loc969 = loc("found_pivot"(#loc105))
#loc1161 = loc("p_pivot"(#loc361))
#loc1162 = loc("min_larger_prob"(#loc362))
#loc1163 = loc("p_pivots_sum"(#loc363))
#loc1520 = loc("input"(#loc818))
#loc1522 = loc("a"(#loc824))
#loc1523 = loc("b"(#loc824))
#loc1524 = loc("input"(#loc828))
#loc1525 = loc("a"(#loc832))
#loc1526 = loc("b"(#loc832))
#loc1527 = loc("input"(#loc836))
#loc1528 = loc("a"(#loc840))
#loc1529 = loc("b"(#loc840))
#loc1530 = loc("input"(#loc844))
#loc1532 = loc("data"(#loc849))
#loc1533 = loc("above_mask"(#loc849))
#loc1534 = loc("min_larger"(#loc849))
#loc1535 = loc("num_min_larger"(#loc849))
module {
  tt.func public @_topk_topp_kernel(%LOGITS: !tt.ptr<f32> {tt.divisibility = 16 : i32} loc("LOGITS"(#loc)), %BUFFER: !tt.ptr<f32> {tt.divisibility = 16 : i32} loc("BUFFER"(#loc)), %PERCENTILE_TO_STD_TABLE: !tt.ptr<f32> {tt.divisibility = 16 : i32} loc("PERCENTILE_TO_STD_TABLE"(#loc)), %NORMAL_CDF_TO_SIGMA_TABLE: !tt.ptr<f32> {tt.divisibility = 16 : i32} loc("NORMAL_CDF_TO_SIGMA_TABLE"(#loc)), %K: !tt.ptr<i32> {tt.divisibility = 16 : i32} loc("K"(#loc)), %P: !tt.ptr<f32> {tt.divisibility = 16 : i32} loc("P"(#loc)), %BATCH_SIZE: i32 {tt.divisibility = 16 : i32} loc("BATCH_SIZE"(#loc))) attributes {noinline = false} {
    %pid = tt.get_program_id x : i32 loc(#loc874)
    %num_programs = tt.get_num_programs x : i32 loc(#loc875)
    %0 = arith.bitcast %pid : i32 to i32 loc(#loc3)
    %1 = arith.bitcast %BATCH_SIZE : i32 to i32 loc(#loc3)
    %2 = arith.bitcast %num_programs : i32 to i32 loc(#loc3)
    %3 = ub.poison : i32 loc(#loc3)
    scf.for %row_id = %0 to %1 step %2  : i32 {
      %LOGITS_ROW = arith.constant 262144 : i32 loc(#loc876)
      %LOGITS_ROW_0 = arith.constant 262144 : i32 loc(#loc876)
      %LOGITS_ROW_1 = arith.extsi %row_id : i32 to i64 loc(#loc876)
      %LOGITS_ROW_2 = arith.extsi %LOGITS_ROW_0 : i32 to i64 loc(#loc876)
      %LOGITS_ROW_3 = arith.muli %LOGITS_ROW_1, %LOGITS_ROW_2 : i64 loc(#loc876)
      %LOGITS_ROW_4 = arith.constant 2147483647 : i64 loc(#loc876)
      %LOGITS_ROW_5 = arith.constant -2147483648 : i64 loc(#loc876)
      %LOGITS_ROW_6 = arith.cmpi sle, %LOGITS_ROW_3, %LOGITS_ROW_4 : i64 loc(#loc876)
      %LOGITS_ROW_7 = arith.cmpi sge, %LOGITS_ROW_3, %LOGITS_ROW_5 : i64 loc(#loc876)
      %LOGITS_ROW_8 = arith.andi %LOGITS_ROW_6, %LOGITS_ROW_7 : i1 loc(#loc876)
      %LOGITS_ROW_9 = arith.muli %row_id, %LOGITS_ROW_0 : i32 loc(#loc876)
      %LOGITS_ROW_10 = tt.addptr %LOGITS, %LOGITS_ROW_9 : !tt.ptr<f32>, i32 loc(#loc877)
      %BUFFER_ROW = arith.constant 262144 : i32 loc(#loc878)
      %BUFFER_ROW_11 = arith.constant 262144 : i32 loc(#loc878)
      %BUFFER_ROW_12 = arith.extsi %pid : i32 to i64 loc(#loc878)
      %BUFFER_ROW_13 = arith.extsi %BUFFER_ROW_11 : i32 to i64 loc(#loc878)
      %BUFFER_ROW_14 = arith.muli %BUFFER_ROW_12, %BUFFER_ROW_13 : i64 loc(#loc878)
      %BUFFER_ROW_15 = arith.constant 2147483647 : i64 loc(#loc878)
      %BUFFER_ROW_16 = arith.constant -2147483648 : i64 loc(#loc878)
      %BUFFER_ROW_17 = arith.cmpi sle, %BUFFER_ROW_14, %BUFFER_ROW_15 : i64 loc(#loc878)
      %BUFFER_ROW_18 = arith.cmpi sge, %BUFFER_ROW_14, %BUFFER_ROW_16 : i64 loc(#loc878)
      %BUFFER_ROW_19 = arith.andi %BUFFER_ROW_17, %BUFFER_ROW_18 : i1 loc(#loc878)
      %BUFFER_ROW_20 = arith.muli %pid, %BUFFER_ROW_11 : i32 loc(#loc878)
      %BUFFER_ROW_21 = tt.addptr %BUFFER, %BUFFER_ROW_20 : !tt.ptr<f32>, i32 loc(#loc879)
      %final_pivot = arith.constant 0xFF800000 : f32 loc(#loc1551)
      %duplicate_logit = arith.constant 0x7F800000 : f32 loc(#loc1552)
      %num_duplicate_logit = tt.call @"triton.language.standard.zeros____(1,)cconstexpr_uint32_"() : () -> i32 loc(#loc1553)
      %num_keep = tt.call @"triton.language.standard.zeros____(1,)cconstexpr_uint32_"() : () -> i32 loc(#loc1554)
      %num_kept = tt.call @"triton.language.standard.zeros____(1,)cconstexpr_uint32_"() : () -> i32 loc(#loc1555)
      %max_logit = arith.constant 0xFF800000 : f32 loc(#loc1556)
      %min_logit = arith.constant 0x7F800000 : f32 loc(#loc1557)
      %k = tt.addptr %K, %row_id : !tt.ptr<i32>, i32 loc(#loc887)
      %k_22 = tt.load %k : !tt.ptr<i32> loc(#loc888)
      %c262144_i32 = arith.constant 262144 : i32 loc(#loc17)
      %4 = arith.cmpi slt, %k_22, %c262144_i32 : i32 loc(#loc17)
      %min_logit_23:7 = scf.if %4 -> (f32, f32, i32, i32, i32, f32, f32) {
        %offs = tt.make_range {end = 8192 : i32, start = 0 : i32} : tensor<8192xi32> loc(#loc890)
        %mask_n = arith.constant 262144 : i32 loc(#loc891)
        %mask_n_25 = arith.constant dense<262144> : tensor<8192xi32> loc(#loc891)
        %mask_n_26 = arith.cmpi slt, %offs, %mask_n_25 : tensor<8192xi32> loc(#loc891)
        %logits_blk0 = tt.splat %LOGITS_ROW_10 : !tt.ptr<f32> -> tensor<8192x!tt.ptr<f32>> loc(#loc892)
        %logits_blk0_27 = tt.addptr %logits_blk0, %offs : tensor<8192x!tt.ptr<f32>>, tensor<8192xi32> loc(#loc892)
        %logits_blk0_28 = arith.constant 0xFF800000 : f32 loc(#loc893)
        %logits_blk0_29 = arith.constant dense<0xFF800000> : tensor<8192xf32> loc(#loc893)
        %logits_blk0_30 = tt.load %logits_blk0_27, %mask_n_26, %logits_blk0_29 : tensor<8192x!tt.ptr<f32>> loc(#loc893)
        %finite_mask = arith.constant 0xFF800000 : f32 loc(#loc894)
        %finite_mask_31 = arith.constant dense<0xFF800000> : tensor<8192xf32> loc(#loc894)
        %finite_mask_32 = arith.cmpf ogt, %logits_blk0_30, %finite_mask_31 : tensor<8192xf32> loc(#loc894)
        %finite_mask_33 = arith.andi %finite_mask_32, %mask_n_26 : tensor<8192xi1> loc(#loc895)
        %num_finite = tt.call @"triton.language.standard.sum__u1S8192S__(1,)cNone_(2,)cconstexpr_False__(3,)cNone"(%finite_mask_33) : (tensor<8192xi1>) -> i32 loc(#loc896)
        %finite_logits = arith.constant 0.000000e+00 : f32 loc(#loc897)
        %finite_logits_34 = arith.constant 0.000000e+00 : f32 loc(#loc897)
        %finite_logits_35 = arith.constant dense<0.000000e+00> : tensor<8192xf32> loc(#loc897)
        %finite_logits_36 = arith.select %finite_mask_33, %logits_blk0_30, %finite_logits_35 : tensor<8192xi1>, tensor<8192xf32> loc(#loc897)
        %avg_logit = arith.constant 0 : i32 loc(#loc898)
        %avg_logit_37 = arith.bitcast %avg_logit : i32 to i32 loc(#loc898)
        %avg_logit_38 = arith.cmpi ugt, %num_finite, %avg_logit_37 : i32 loc(#loc898)
        %avg_logit_39 = tt.call @"triton.language.standard.sum__fp32S8192S__(1,)cNone_(2,)cconstexpr_False__(3,)cNone"(%finite_logits_36) : (tensor<8192xf32>) -> f32 loc(#loc899)
        %avg_logit_40 = arith.uitofp %num_finite : i32 to f32 loc(#loc900)
        %avg_logit_41 = arith.divf %avg_logit_39, %avg_logit_40 : f32 loc(#loc900)
        %avg_logit_42 = arith.constant 0.000000e+00 : f32 loc(#loc901)
        %avg_logit_43 = arith.constant 0.000000e+00 : f32 loc(#loc901)
        %avg_logit_44 = arith.select %avg_logit_38, %avg_logit_41, %avg_logit_43 : f32 loc(#loc901)
        %sq_avg_logit = arith.constant 0 : i32 loc(#loc902)
        %sq_avg_logit_45 = arith.bitcast %sq_avg_logit : i32 to i32 loc(#loc902)
        %sq_avg_logit_46 = arith.cmpi ugt, %num_finite, %sq_avg_logit_45 : i32 loc(#loc902)
        %sq_avg_logit_47 = arith.mulf %finite_logits_36, %finite_logits_36 : tensor<8192xf32> loc(#loc903)
        %sq_avg_logit_48 = tt.call @"triton.language.standard.sum__fp32S8192S__(1,)cNone_(2,)cconstexpr_False__(3,)cNone"(%sq_avg_logit_47) : (tensor<8192xf32>) -> f32 loc(#loc904)
        %sq_avg_logit_49 = arith.uitofp %num_finite : i32 to f32 loc(#loc905)
        %sq_avg_logit_50 = arith.divf %sq_avg_logit_48, %sq_avg_logit_49 : f32 loc(#loc905)
        %sq_avg_logit_51 = arith.constant 0.000000e+00 : f32 loc(#loc906)
        %sq_avg_logit_52 = arith.constant 0.000000e+00 : f32 loc(#loc906)
        %sq_avg_logit_53 = arith.select %sq_avg_logit_46, %sq_avg_logit_50, %sq_avg_logit_52 : f32 loc(#loc906)
        %std_logit = arith.mulf %avg_logit_44, %avg_logit_44 : f32 loc(#loc907)
        %std_logit_54 = arith.subf %sq_avg_logit_53, %std_logit : f32 loc(#loc908)
        %std_logit_55 = arith.constant 0.000000e+00 : f32 loc(#loc909)
        %std_logit_56 = arith.maxnumf %std_logit_54, %std_logit_55 : f32 loc(#loc909)
        %std_logit_57 = math.sqrt %std_logit_56 : f32 loc(#loc910)
        %percentile = arith.constant 262144 : i32 loc(#loc911)
        %percentile_58 = arith.constant 262144 : i32 loc(#loc911)
        %percentile_59 = arith.sitofp %k_22 : i32 to f32 loc(#loc911)
        %percentile_60 = arith.sitofp %percentile_58 : i32 to f32 loc(#loc911)
        %percentile_61 = arith.divf %percentile_59, %percentile_60 : f32 loc(#loc911)
        %percentile_62 = arith.constant 200 : i32 loc(#loc912)
        %percentile_63 = arith.constant 2.000000e+02 : f32 loc(#loc912)
        %percentile_64 = arith.mulf %percentile_61, %percentile_63 : f32 loc(#loc912)
        %percentile_65 = arith.fptoui %percentile_64 : f32 to i32 loc(#loc913)
        %percentile_66 = arith.constant 199 : i32 loc(#loc914)
        %percentile_67 = arith.bitcast %percentile_66 : i32 to i32 loc(#loc914)
        %percentile_68 = arith.minui %percentile_65, %percentile_67 : i32 loc(#loc914)
        %sigma = arith.extui %percentile_68 : i32 to i64 loc(#loc915)
        %sigma_69 = tt.addptr %PERCENTILE_TO_STD_TABLE, %sigma : !tt.ptr<f32>, i64 loc(#loc915)
        %sigma_70 = tt.load %sigma_69 : !tt.ptr<f32> loc(#loc916)
        %sigma_71 = math.absf %sigma_70 : f32 loc(#loc917)
        %sigma_72 = arith.constant -1.500000e-01 : f32 loc(#loc918)
        %sigma_73 = arith.constant -1.500000e-01 : f32 loc(#loc918)
        %sigma_74 = arith.mulf %sigma_71, %sigma_73 : f32 loc(#loc918)
        %sigma_75 = arith.addf %sigma_70, %sigma_74 : f32 loc(#loc919)
        %outlier_pivot = arith.mulf %std_logit_57, %sigma_75 : f32 loc(#loc920)
        %min_range = arith.addf %avg_logit_44, %outlier_pivot : f32 loc(#loc1559)
        %num_outliers = tt.call @"triton.language.standard.zeros____(1,)cconstexpr_uint32_"() : () -> i32 loc(#loc922)
        %num_finite_total = tt.call @"triton.language.standard.zeros____(1,)cconstexpr_uint32_"() : () -> i32 loc(#loc923)
        %c0_i32 = arith.constant 0 : i32 loc(#loc53)
        %c32_i32 = arith.constant 32 : i32 loc(#loc53)
        %c1_i32 = arith.constant 1 : i32 loc(#loc53)
        %9 = arith.bitcast %c0_i32 : i32 to i32 loc(#loc53)
        %10 = arith.bitcast %c32_i32 : i32 to i32 loc(#loc53)
        %11 = arith.bitcast %c1_i32 : i32 to i32 loc(#loc53)
        %12 = ub.poison : i32 loc(#loc53)
        %max_logit_76:5 = scf.for %i = %9 to %10 step %11 iter_args(%max_logit_103 = %max_logit, %min_logit_104 = %min_logit, %mask_n_105 = %mask_n_26, %num_outliers_106 = %num_outliers, %num_finite_total_107 = %num_finite_total) -> (f32, f32, tensor<8192xi1>, i32, i32)  : i32 {
          %offs_n = arith.constant 8192 : i32 loc(#loc925)
          %offs_n_108 = arith.constant 8192 : i32 loc(#loc925)
          %offs_n_109 = arith.extsi %i : i32 to i64 loc(#loc925)
          %offs_n_110 = arith.extsi %offs_n_108 : i32 to i64 loc(#loc925)
          %offs_n_111 = arith.muli %offs_n_109, %offs_n_110 : i64 loc(#loc925)
          %offs_n_112 = arith.constant 2147483647 : i64 loc(#loc925)
          %offs_n_113 = arith.constant -2147483648 : i64 loc(#loc925)
          %offs_n_114 = arith.cmpi sle, %offs_n_111, %offs_n_112 : i64 loc(#loc925)
          %offs_n_115 = arith.cmpi sge, %offs_n_111, %offs_n_113 : i64 loc(#loc925)
          %offs_n_116 = arith.andi %offs_n_114, %offs_n_115 : i1 loc(#loc925)
          %offs_n_117 = arith.muli %i, %offs_n_108 : i32 loc(#loc925)
          %offs_n_118 = tt.make_range {end = 8192 : i32, start = 0 : i32} : tensor<8192xi32> loc(#loc926)
          %offs_n_119 = tt.splat %offs_n_117 : i32 -> tensor<8192xi32> loc(#loc927)
          %offs_n_120 = arith.extsi %offs_n_119 : tensor<8192xi32> to tensor<8192xi64> loc(#loc927)
          %offs_n_121 = arith.extsi %offs_n_118 : tensor<8192xi32> to tensor<8192xi64> loc(#loc927)
          %offs_n_122 = arith.addi %offs_n_120, %offs_n_121 : tensor<8192xi64> loc(#loc927)
          %offs_n_123 = arith.constant 2147483647 : i64 loc(#loc927)
          %offs_n_124 = arith.constant -2147483648 : i64 loc(#loc927)
          %offs_n_125 = arith.constant dense<2147483647> : tensor<8192xi64> loc(#loc927)
          %offs_n_126 = arith.cmpi sle, %offs_n_122, %offs_n_125 : tensor<8192xi64> loc(#loc927)
          %offs_n_127 = arith.constant dense<-2147483648> : tensor<8192xi64> loc(#loc927)
          %offs_n_128 = arith.cmpi sge, %offs_n_122, %offs_n_127 : tensor<8192xi64> loc(#loc927)
          %offs_n_129 = arith.andi %offs_n_126, %offs_n_128 : tensor<8192xi1> loc(#loc927)
          %offs_n_130 = arith.addi %offs_n_119, %offs_n_118 : tensor<8192xi32> loc(#loc927)
          %mask_n_131 = arith.constant 262144 : i32 loc(#loc928)
          %mask_n_132 = arith.constant dense<262144> : tensor<8192xi32> loc(#loc928)
          %mask_n_133 = arith.cmpi slt, %offs_n_130, %mask_n_132 : tensor<8192xi32> loc(#loc928)
          %logits_blk = tt.splat %LOGITS_ROW_10 : !tt.ptr<f32> -> tensor<8192x!tt.ptr<f32>> loc(#loc929)
          %logits_blk_134 = tt.addptr %logits_blk, %offs_n_130 : tensor<8192x!tt.ptr<f32>>, tensor<8192xi32> loc(#loc929)
          %logits_blk_135 = arith.constant 0xFF800000 : f32 loc(#loc930)
          %logits_blk_136 = arith.constant dense<0xFF800000> : tensor<8192xf32> loc(#loc930)
          %logits_blk_137 = tt.load %logits_blk_134, %mask_n_133, %logits_blk_136 : tensor<8192x!tt.ptr<f32>> loc(#loc930)
          %max_logit_138 = tt.call @"triton.language.standard.max__fp32S8192S__(1,)cNone_(2,)cconstexpr_False__(3,)cconstexpr_True__(4,)cconstexpr_False_"(%logits_blk_137) : (tensor<8192xf32>) -> f32 loc(#loc931)
          %max_logit_139 = arith.maxnumf %max_logit_103, %max_logit_138 : f32 loc(#loc932)
          %finite_blk_mask = arith.constant 0xFF800000 : f32 loc(#loc933)
          %finite_blk_mask_140 = arith.constant dense<0xFF800000> : tensor<8192xf32> loc(#loc933)
          %finite_blk_mask_141 = arith.cmpf ogt, %logits_blk_137, %finite_blk_mask_140 : tensor<8192xf32> loc(#loc933)
          %finite_blk = arith.constant 0x7F800000 : f32 loc(#loc934)
          %finite_blk_142 = arith.constant 0x7F800000 : f32 loc(#loc934)
          %finite_blk_143 = arith.constant dense<0x7F800000> : tensor<8192xf32> loc(#loc934)
          %finite_blk_144 = arith.select %finite_blk_mask_141, %logits_blk_137, %finite_blk_143 : tensor<8192xi1>, tensor<8192xf32> loc(#loc934)
          %min_logit_145 = tt.call @"triton.language.standard.min__fp32S8192S__(1,)cNone_(2,)cconstexpr_False__(3,)cconstexpr_True__(4,)cconstexpr_False_"(%finite_blk_144) : (tensor<8192xf32>) -> f32 loc(#loc935)
          %min_logit_146 = arith.minnumf %min_logit_104, %min_logit_145 : f32 loc(#loc936)
          %num_finite_total_147 = arith.andi %finite_blk_mask_141, %mask_n_133 : tensor<8192xi1> loc(#loc937)
          %num_finite_total_148 = tt.call @"triton.language.standard.sum__u1S8192S__(1,)cNone_(2,)cconstexpr_False__(3,)cNone"(%num_finite_total_147) : (tensor<8192xi1>) -> i32 loc(#loc938)
          %num_finite_total_149 = arith.extui %num_finite_total_107 : i32 to i64 loc(#loc939)
          %num_finite_total_150 = arith.extui %num_finite_total_148 : i32 to i64 loc(#loc939)
          %num_finite_total_151 = arith.addi %num_finite_total_149, %num_finite_total_150 : i64 loc(#loc939)
          %num_finite_total_152 = arith.constant 4294967295 : i64 loc(#loc939)
          %num_finite_total_153 = arith.constant 0 : i64 loc(#loc939)
          %num_finite_total_154 = arith.cmpi sle, %num_finite_total_151, %num_finite_total_152 : i64 loc(#loc939)
          %num_finite_total_155 = arith.cmpi sge, %num_finite_total_151, %num_finite_total_153 : i64 loc(#loc939)
          %num_finite_total_156 = arith.andi %num_finite_total_154, %num_finite_total_155 : i1 loc(#loc939)
          %num_finite_total_157 = arith.addi %num_finite_total_107, %num_finite_total_148 : i32 loc(#loc939)
          %outlier_mask = tt.splat %min_range : f32 -> tensor<8192xf32> loc(#loc940)
          %outlier_mask_158 = arith.cmpf ogt, %logits_blk_137, %outlier_mask : tensor<8192xf32> loc(#loc940)
          %outlier_mask_159 = arith.andi %outlier_mask_158, %mask_n_133 : tensor<8192xi1> loc(#loc941)
          %cumulative_pos = tt.call @"triton.language.standard.cumsum__u1S8192S__(1,)cconstexpr_0__(2,)cconstexpr_False__(3,)cNone"(%outlier_mask_159) : (tensor<8192xi1>) -> tensor<8192xi32> loc(#loc942)
          %cumulative_pos_160 = arith.constant 1 : i32 loc(#loc943)
          %cumulative_pos_161 = arith.constant 1 : i32 loc(#loc943)
          %cumulative_pos_162 = arith.constant dense<1> : tensor<8192xi32> loc(#loc943)
          %cumulative_pos_163 = arith.extui %cumulative_pos : tensor<8192xi32> to tensor<8192xi64> loc(#loc943)
          %cumulative_pos_164 = arith.extui %cumulative_pos_162 : tensor<8192xi32> to tensor<8192xi64> loc(#loc943)
          %cumulative_pos_165 = arith.subi %cumulative_pos_163, %cumulative_pos_164 : tensor<8192xi64> loc(#loc943)
          %cumulative_pos_166 = arith.constant 4294967295 : i64 loc(#loc943)
          %cumulative_pos_167 = arith.constant 0 : i64 loc(#loc943)
          %cumulative_pos_168 = arith.constant dense<4294967295> : tensor<8192xi64> loc(#loc943)
          %cumulative_pos_169 = arith.cmpi sle, %cumulative_pos_165, %cumulative_pos_168 : tensor<8192xi64> loc(#loc943)
          %cumulative_pos_170 = arith.constant dense<0> : tensor<8192xi64> loc(#loc943)
          %cumulative_pos_171 = arith.cmpi sge, %cumulative_pos_165, %cumulative_pos_170 : tensor<8192xi64> loc(#loc943)
          %cumulative_pos_172 = arith.andi %cumulative_pos_169, %cumulative_pos_171 : tensor<8192xi1> loc(#loc943)
          %cumulative_pos_173 = arith.subi %cumulative_pos, %cumulative_pos_162 : tensor<8192xi32> loc(#loc943)
          %cumulative_pos_174 = tt.splat %num_outliers_106 : i32 -> tensor<8192xi32> loc(#loc944)
          %cumulative_pos_175 = arith.extui %cumulative_pos_173 : tensor<8192xi32> to tensor<8192xi64> loc(#loc944)
          %cumulative_pos_176 = arith.extui %cumulative_pos_174 : tensor<8192xi32> to tensor<8192xi64> loc(#loc944)
          %cumulative_pos_177 = arith.addi %cumulative_pos_175, %cumulative_pos_176 : tensor<8192xi64> loc(#loc944)
          %cumulative_pos_178 = arith.constant 4294967295 : i64 loc(#loc944)
          %cumulative_pos_179 = arith.constant 0 : i64 loc(#loc944)
          %cumulative_pos_180 = arith.constant dense<4294967295> : tensor<8192xi64> loc(#loc944)
          %cumulative_pos_181 = arith.cmpi sle, %cumulative_pos_177, %cumulative_pos_180 : tensor<8192xi64> loc(#loc944)
          %cumulative_pos_182 = arith.constant dense<0> : tensor<8192xi64> loc(#loc944)
          %cumulative_pos_183 = arith.cmpi sge, %cumulative_pos_177, %cumulative_pos_182 : tensor<8192xi64> loc(#loc944)
          %cumulative_pos_184 = arith.andi %cumulative_pos_181, %cumulative_pos_183 : tensor<8192xi1> loc(#loc944)
          %cumulative_pos_185 = arith.addi %cumulative_pos_173, %cumulative_pos_174 : tensor<8192xi32> loc(#loc944)
          %cumulative_pos_186 = arith.bitcast %cumulative_pos_185 : tensor<8192xi32> to tensor<8192xi32> loc(#loc945)
          %num_outliers_187 = tt.call @"triton.language.standard.sum__u1S8192S__(1,)cNone_(2,)cconstexpr_False__(3,)cNone"(%outlier_mask_159) : (tensor<8192xi1>) -> i32 loc(#loc946)
          %num_outliers_188 = arith.extui %num_outliers_106 : i32 to i64 loc(#loc947)
          %num_outliers_189 = arith.extui %num_outliers_187 : i32 to i64 loc(#loc947)
          %num_outliers_190 = arith.addi %num_outliers_188, %num_outliers_189 : i64 loc(#loc947)
          %num_outliers_191 = arith.constant 4294967295 : i64 loc(#loc947)
          %num_outliers_192 = arith.constant 0 : i64 loc(#loc947)
          %num_outliers_193 = arith.cmpi sle, %num_outliers_190, %num_outliers_191 : i64 loc(#loc947)
          %num_outliers_194 = arith.cmpi sge, %num_outliers_190, %num_outliers_192 : i64 loc(#loc947)
          %num_outliers_195 = arith.andi %num_outliers_193, %num_outliers_194 : i1 loc(#loc947)
          %num_outliers_196 = arith.addi %num_outliers_106, %num_outliers_187 : i32 loc(#loc947)
          %write_pos = arith.constant -1 : i32 loc(#loc948)
          %write_pos_197 = arith.constant -1 : i32 loc(#loc948)
          %write_pos_198 = arith.constant dense<-1> : tensor<8192xi32> loc(#loc948)
          %write_pos_199 = arith.select %outlier_mask_159, %cumulative_pos_186, %write_pos_198 : tensor<8192xi1>, tensor<8192xi32> loc(#loc948)
          %17 = tt.splat %BUFFER_ROW_21 : !tt.ptr<f32> -> tensor<8192x!tt.ptr<f32>> loc(#loc78)
          %18 = tt.addptr %17, %write_pos_199 : tensor<8192x!tt.ptr<f32>>, tensor<8192xi32> loc(#loc78)
          tt.store %18, %logits_blk_137, %outlier_mask_159 : tensor<8192x!tt.ptr<f32>> loc(#loc79)
          scf.yield %max_logit_139, %min_logit_146, %mask_n_133, %num_outliers_196, %num_finite_total_157 : f32, f32, tensor<8192xi1>, i32, i32 loc(#loc80)
        } loc(#loc1837)
        %min_logit_77 = arith.minnumf %max_logit_76#1, %max_logit_76#0 : f32 loc(#loc1725)
        %num_iters = arith.constant 0 : i32 loc(#loc950)
        %k_pivot = arith.constant 0x7F800000 : f32 loc(#loc1674)
        %k_pivots_num = tt.call @"triton.language.standard.zeros____(1,)cconstexpr_uint32_"() : () -> i32 loc(#loc1675)
        %min_larger = arith.constant 0x7F800000 : f32 loc(#loc1676)
        %num_min_larger = tt.call @"triton.language.standard.zeros____(1,)cconstexpr_uint32_"() : () -> i32 loc(#loc1677)
        %13 = arith.bitcast %k_22 : i32 to i32 loc(#loc87)
        %14 = arith.cmpi ugt, %max_logit_76#3, %13 : i32 loc(#loc87)
        %min_range_78:10 = scf.if %14 -> (tensor<8192xi1>, i32, i32, f32, i32, f32, i32, i32, f32, f32) {
          %search_range = arith.bitcast %max_logit_76#3 : i32 to i32 loc(#loc956)
          %search_iters = arith.constant 4096 : i32 loc(#loc957)
          %search_iters_103 = arith.constant 4096 : i32 loc(#loc957)
          %search_iters_104 = arith.extui %max_logit_76#3 : i32 to i64 loc(#loc957)
          %search_iters_105 = arith.extui %search_iters_103 : i32 to i64 loc(#loc957)
          %search_iters_106 = arith.addi %search_iters_104, %search_iters_105 : i64 loc(#loc957)
          %search_iters_107 = arith.constant 4294967295 : i64 loc(#loc957)
          %search_iters_108 = arith.constant 0 : i64 loc(#loc957)
          %search_iters_109 = arith.cmpi sle, %search_iters_106, %search_iters_107 : i64 loc(#loc957)
          %search_iters_110 = arith.cmpi sge, %search_iters_106, %search_iters_108 : i64 loc(#loc957)
          %search_iters_111 = arith.andi %search_iters_109, %search_iters_110 : i1 loc(#loc957)
          %search_iters_112 = arith.addi %max_logit_76#3, %search_iters_103 : i32 loc(#loc957)
          %search_iters_113 = arith.constant 1 : i32 loc(#loc958)
          %search_iters_114 = arith.constant 1 : i32 loc(#loc958)
          %search_iters_115 = arith.extui %search_iters_112 : i32 to i64 loc(#loc958)
          %search_iters_116 = arith.extui %search_iters_114 : i32 to i64 loc(#loc958)
          %search_iters_117 = arith.subi %search_iters_115, %search_iters_116 : i64 loc(#loc958)
          %search_iters_118 = arith.constant 4294967295 : i64 loc(#loc958)
          %search_iters_119 = arith.constant 0 : i64 loc(#loc958)
          %search_iters_120 = arith.cmpi sle, %search_iters_117, %search_iters_118 : i64 loc(#loc958)
          %search_iters_121 = arith.cmpi sge, %search_iters_117, %search_iters_119 : i64 loc(#loc958)
          %search_iters_122 = arith.andi %search_iters_120, %search_iters_121 : i1 loc(#loc958)
          %search_iters_123 = arith.subi %search_iters_112, %search_iters_114 : i32 loc(#loc958)
          %search_iters_124 = arith.constant 4096 : i32 loc(#loc959)
          %search_iters_125 = arith.constant 4096 : i32 loc(#loc959)
          %search_iters_126 = arith.divui %search_iters_123, %search_iters_125 : i32 loc(#loc959)
          %search_iters_127 = arith.bitcast %search_iters_126 : i32 to i32 loc(#loc960)
          %found_pivot = arith.constant 0 : i32 loc(#loc1567)
          %min_range_128:9 = scf.while (%i = %12, %num_iters_129 = %num_iters, %k_pivot_130 = %k_pivot, %k_pivots_num_131 = %k_pivots_num, %min_larger_132 = %min_larger, %num_min_larger_133 = %num_min_larger, %max_range = %max_logit_76#0, %min_range_134 = %min_range, %found_pivot_135 = %found_pivot) : (i32, i32, f32, i32, f32, i32, f32, f32, i32) -> (i32, i32, f32, i32, f32, i32, f32, f32, i32) {
            %c0_i32_136 = arith.constant 0 : i32 loc(#loc96)
            %17 = arith.cmpi eq, %found_pivot_135, %c0_i32_136 : i32 loc(#loc96)
            scf.condition(%17) %i, %num_iters_129, %k_pivot_130, %k_pivots_num_131, %min_larger_132, %num_min_larger_133, %max_range, %min_range_134, %found_pivot_135 : i32, i32, f32, i32, f32, i32, f32, f32, i32 loc(#loc96)
          } do {
          ^bb0(%i: i32 loc("i"), %num_iters_129: i32 loc("num_iters"), %k_pivot_130: f32 loc("k_pivot"(#loc99)), %k_pivots_num_131: i32 loc("k_pivots_num"(#loc100)), %min_larger_132: f32 loc("min_larger"(#loc101)), %num_min_larger_133: i32 loc("num_min_larger"(#loc102)), %max_range: f32 loc("max_range"(#loc103)), %min_range_134: f32 loc("min_range"(#loc104)), %found_pivot_135: i32 loc("found_pivot"(#loc105))):
            %k_pivot_0 = arith.subf %max_range, %min_range_134 : f32 loc(#loc970)
            %k_pivot_0_136 = arith.constant 1.000000e+00 : f32 loc(#loc971)
            %k_pivot_0_137 = arith.constant 1.000000e+00 : f32 loc(#loc971)
            %k_pivot_0_138 = arith.mulf %k_pivot_0, %k_pivot_0_137 : f32 loc(#loc971)
            %k_pivot_0_139 = arith.constant 3.000000e+00 : f32 loc(#loc972)
            %k_pivot_0_140 = arith.constant 3.000000e+00 : f32 loc(#loc972)
            %k_pivot_0_141 = arith.divf %k_pivot_0_138, %k_pivot_0_140 : f32 loc(#loc972)
            %max_range_142 = arith.addf %k_pivot_0_141, %min_range_134 : f32 loc(#loc1728)
            %k_pivots_num_0 = tt.call @"triton.language.standard.zeros____(1,)cconstexpr_uint32_"() : () -> i32 loc(#loc974)
            %min_larger_0 = arith.constant 0x7F800000 : f32 loc(#loc975)
            %num_min_larger_0 = tt.call @"triton.language.standard.zeros____(1,)cconstexpr_uint32_"() : () -> i32 loc(#loc976)
            %k_pivot_1 = arith.subf %max_range, %min_range_134 : f32 loc(#loc977)
            %k_pivot_1_143 = arith.constant 2.000000e+00 : f32 loc(#loc978)
            %k_pivot_1_144 = arith.constant 2.000000e+00 : f32 loc(#loc978)
            %k_pivot_1_145 = arith.mulf %k_pivot_1, %k_pivot_1_144 : f32 loc(#loc978)
            %k_pivot_1_146 = arith.constant 3.000000e+00 : f32 loc(#loc979)
            %k_pivot_1_147 = arith.constant 3.000000e+00 : f32 loc(#loc979)
            %k_pivot_1_148 = arith.divf %k_pivot_1_145, %k_pivot_1_147 : f32 loc(#loc979)
            %max_range_149 = arith.addf %k_pivot_1_148, %min_range_134 : f32 loc(#loc1729)
            %k_pivots_num_1 = tt.call @"triton.language.standard.zeros____(1,)cconstexpr_uint32_"() : () -> i32 loc(#loc981)
            %min_larger_1 = arith.constant 0x7F800000 : f32 loc(#loc982)
            %num_min_larger_1 = tt.call @"triton.language.standard.zeros____(1,)cconstexpr_uint32_"() : () -> i32 loc(#loc983)
            %c0_i32_150 = arith.constant 0 : i32 loc(#loc120)
            %c1_i32_151 = arith.constant 1 : i32 loc(#loc120)
            %17 = arith.bitcast %c0_i32_150 : i32 to i32 loc(#loc120)
            %18 = arith.bitcast %search_iters_127 : i32 to i32 loc(#loc120)
            %19 = arith.bitcast %c1_i32_151 : i32 to i32 loc(#loc120)
            %20 = ub.poison : i32 loc(#loc120)
            %num_min_larger_152:6 = scf.for %i_169 = %17 to %18 step %19 iter_args(%k_pivots_num_0_170 = %k_pivots_num_0, %min_larger_0_171 = %min_larger_0, %num_min_larger_0_172 = %num_min_larger_0, %k_pivots_num_1_173 = %k_pivots_num_1, %min_larger_1_174 = %min_larger_1, %num_min_larger_1_175 = %num_min_larger_1) -> (i32, f32, i32, i32, f32, i32)  : i32 {
              %offs_n = arith.constant 4096 : i32 loc(#loc985)
              %offs_n_176 = arith.constant 4096 : i32 loc(#loc985)
              %offs_n_177 = arith.extsi %i_169 : i32 to i64 loc(#loc985)
              %offs_n_178 = arith.extsi %offs_n_176 : i32 to i64 loc(#loc985)
              %offs_n_179 = arith.muli %offs_n_177, %offs_n_178 : i64 loc(#loc985)
              %offs_n_180 = arith.constant 2147483647 : i64 loc(#loc985)
              %offs_n_181 = arith.constant -2147483648 : i64 loc(#loc985)
              %offs_n_182 = arith.cmpi sle, %offs_n_179, %offs_n_180 : i64 loc(#loc985)
              %offs_n_183 = arith.cmpi sge, %offs_n_179, %offs_n_181 : i64 loc(#loc985)
              %offs_n_184 = arith.andi %offs_n_182, %offs_n_183 : i1 loc(#loc985)
              %offs_n_185 = arith.muli %i_169, %offs_n_176 : i32 loc(#loc985)
              %offs_n_186 = tt.make_range {end = 4096 : i32, start = 0 : i32} : tensor<4096xi32> loc(#loc986)
              %offs_n_187 = tt.splat %offs_n_185 : i32 -> tensor<4096xi32> loc(#loc987)
              %offs_n_188 = arith.extsi %offs_n_187 : tensor<4096xi32> to tensor<4096xi64> loc(#loc987)
              %offs_n_189 = arith.extsi %offs_n_186 : tensor<4096xi32> to tensor<4096xi64> loc(#loc987)
              %offs_n_190 = arith.addi %offs_n_188, %offs_n_189 : tensor<4096xi64> loc(#loc987)
              %offs_n_191 = arith.constant 2147483647 : i64 loc(#loc987)
              %offs_n_192 = arith.constant -2147483648 : i64 loc(#loc987)
              %offs_n_193 = arith.constant dense<2147483647> : tensor<4096xi64> loc(#loc987)
              %offs_n_194 = arith.cmpi sle, %offs_n_190, %offs_n_193 : tensor<4096xi64> loc(#loc987)
              %offs_n_195 = arith.constant dense<-2147483648> : tensor<4096xi64> loc(#loc987)
              %offs_n_196 = arith.cmpi sge, %offs_n_190, %offs_n_195 : tensor<4096xi64> loc(#loc987)
              %offs_n_197 = arith.andi %offs_n_194, %offs_n_196 : tensor<4096xi1> loc(#loc987)
              %offs_n_198 = arith.addi %offs_n_187, %offs_n_186 : tensor<4096xi32> loc(#loc987)
              %mask_n_2 = tt.splat %search_range : i32 -> tensor<4096xi32> loc(#loc988)
              %mask_n_2_199 = arith.cmpi slt, %offs_n_198, %mask_n_2 : tensor<4096xi32> loc(#loc988)
              %logits_blk2 = tt.splat %BUFFER_ROW_21 : !tt.ptr<f32> -> tensor<4096x!tt.ptr<f32>> loc(#loc989)
              %logits_blk2_200 = tt.addptr %logits_blk2, %offs_n_198 : tensor<4096x!tt.ptr<f32>>, tensor<4096xi32> loc(#loc989)
              %logits_blk2_201 = arith.constant 0xFF800000 : f32 loc(#loc990)
              %logits_blk2_202 = arith.constant dense<0xFF800000> : tensor<4096xf32> loc(#loc990)
              %logits_blk2_203 = tt.load %logits_blk2_200, %mask_n_2_199, %logits_blk2_202 : tensor<4096x!tt.ptr<f32>> loc(#loc990)
              %above_0 = tt.splat %max_range_142 : f32 -> tensor<4096xf32> loc(#loc991)
              %above_0_204 = arith.cmpf ogt, %logits_blk2_203, %above_0 : tensor<4096xf32> loc(#loc991)
              %above_1 = tt.splat %max_range_149 : f32 -> tensor<4096xf32> loc(#loc992)
              %above_1_205 = arith.cmpf ogt, %logits_blk2_203, %above_1 : tensor<4096xf32> loc(#loc992)
              %k_pivots_num_0_206 = tt.call @"triton.language.standard.sum__u1S4096S__(1,)cNone_(2,)cconstexpr_False__(3,)cNone"(%above_0_204) : (tensor<4096xi1>) -> i32 loc(#loc993)
              %k_pivots_num_0_207 = arith.extui %k_pivots_num_0_170 : i32 to i64 loc(#loc994)
              %k_pivots_num_0_208 = arith.extui %k_pivots_num_0_206 : i32 to i64 loc(#loc994)
              %k_pivots_num_0_209 = arith.addi %k_pivots_num_0_207, %k_pivots_num_0_208 : i64 loc(#loc994)
              %k_pivots_num_0_210 = arith.constant 4294967295 : i64 loc(#loc994)
              %k_pivots_num_0_211 = arith.constant 0 : i64 loc(#loc994)
              %k_pivots_num_0_212 = arith.cmpi sle, %k_pivots_num_0_209, %k_pivots_num_0_210 : i64 loc(#loc994)
              %k_pivots_num_0_213 = arith.cmpi sge, %k_pivots_num_0_209, %k_pivots_num_0_211 : i64 loc(#loc994)
              %k_pivots_num_0_214 = arith.andi %k_pivots_num_0_212, %k_pivots_num_0_213 : i1 loc(#loc994)
              %k_pivots_num_0_215 = arith.addi %k_pivots_num_0_170, %k_pivots_num_0_206 : i32 loc(#loc994)
              %k_pivots_num_1_216 = tt.call @"triton.language.standard.sum__u1S4096S__(1,)cNone_(2,)cconstexpr_False__(3,)cNone"(%above_1_205) : (tensor<4096xi1>) -> i32 loc(#loc995)
              %k_pivots_num_1_217 = arith.extui %k_pivots_num_1_173 : i32 to i64 loc(#loc996)
              %k_pivots_num_1_218 = arith.extui %k_pivots_num_1_216 : i32 to i64 loc(#loc996)
              %k_pivots_num_1_219 = arith.addi %k_pivots_num_1_217, %k_pivots_num_1_218 : i64 loc(#loc996)
              %k_pivots_num_1_220 = arith.constant 4294967295 : i64 loc(#loc996)
              %k_pivots_num_1_221 = arith.constant 0 : i64 loc(#loc996)
              %k_pivots_num_1_222 = arith.cmpi sle, %k_pivots_num_1_219, %k_pivots_num_1_220 : i64 loc(#loc996)
              %k_pivots_num_1_223 = arith.cmpi sge, %k_pivots_num_1_219, %k_pivots_num_1_221 : i64 loc(#loc996)
              %k_pivots_num_1_224 = arith.andi %k_pivots_num_1_222, %k_pivots_num_1_223 : i1 loc(#loc996)
              %k_pivots_num_1_225 = arith.addi %k_pivots_num_1_173, %k_pivots_num_1_216 : i32 loc(#loc996)
              %57:2 = tt.call @"vllm.v1.sample.ops.topk_topp_triton._update_min_larger_stats__fp32S4096S_u1S4096S_fp32_u32__(4,)cconstexpr_inf_"(%logits_blk2_203, %above_0_204, %min_larger_0_171, %num_min_larger_0_172) : (tensor<4096xf32>, tensor<4096xi1>, f32, i32) -> (f32, i32) loc(#loc133)
              %58:2 = tt.call @"vllm.v1.sample.ops.topk_topp_triton._update_min_larger_stats__fp32S4096S_u1S4096S_fp32_u32__(4,)cconstexpr_inf_"(%logits_blk2_203, %above_1_205, %min_larger_1_174, %num_min_larger_1_175) : (tensor<4096xf32>, tensor<4096xi1>, f32, i32) -> (f32, i32) loc(#loc134)
              scf.yield %k_pivots_num_0_215, %57#0, %57#1, %k_pivots_num_1_225, %58#0, %58#1 : i32, f32, i32, i32, f32, i32 loc(#loc135)
            } loc(#loc1871)
            %21 = arith.bitcast %k_22 : i32 to i32 loc(#loc136)
            %22 = arith.cmpi uge, %num_min_larger_152#0, %21 : i32 loc(#loc136)
            %23 = arith.extui %num_min_larger_152#0 : i32 to i64 loc(#loc137)
            %24 = arith.extui %num_min_larger_152#2 : i32 to i64 loc(#loc137)
            %25 = arith.subi %23, %24 : i64 loc(#loc137)
            %c4294967295_i64 = arith.constant 4294967295 : i64 loc(#loc137)
            %c0_i64 = arith.constant 0 : i64 loc(#loc137)
            %26 = arith.cmpi sle, %25, %c4294967295_i64 : i64 loc(#loc137)
            %27 = arith.cmpi sge, %25, %c0_i64 : i64 loc(#loc137)
            %28 = arith.andi %26, %27 : i1 loc(#loc137)
            %29 = arith.subi %num_min_larger_152#0, %num_min_larger_152#2 : i32 loc(#loc137)
            %30 = arith.bitcast %k_22 : i32 to i32 loc(#loc138)
            %31 = arith.cmpi ult, %29, %30 : i32 loc(#loc138)
            %32 = arith.andi %22, %31 : i1 loc(#loc139)
            %found_pivot_153:5 = scf.if %32 -> (f32, i32, f32, i32, i32) {
              %found_pivot_169 = arith.constant 1 : i32 loc(#loc1573)
              scf.yield %max_range_142, %num_min_larger_152#0, %num_min_larger_152#1, %num_min_larger_152#2, %found_pivot_169 : f32, i32, f32, i32, i32 loc(#loc1573)
            } else {
              scf.yield %k_pivot_130, %k_pivots_num_131, %min_larger_132, %num_min_larger_133, %found_pivot_135 : f32, i32, f32, i32, i32 loc(#loc140)
            } loc(#loc1769)
            %33 = arith.bitcast %k_22 : i32 to i32 loc(#loc142)
            %34 = arith.cmpi uge, %num_min_larger_152#3, %33 : i32 loc(#loc142)
            %35 = arith.extui %num_min_larger_152#3 : i32 to i64 loc(#loc143)
            %36 = arith.extui %num_min_larger_152#5 : i32 to i64 loc(#loc143)
            %37 = arith.subi %35, %36 : i64 loc(#loc143)
            %c4294967295_i64_154 = arith.constant 4294967295 : i64 loc(#loc143)
            %c0_i64_155 = arith.constant 0 : i64 loc(#loc143)
            %38 = arith.cmpi sle, %37, %c4294967295_i64_154 : i64 loc(#loc143)
            %39 = arith.cmpi sge, %37, %c0_i64_155 : i64 loc(#loc143)
            %40 = arith.andi %38, %39 : i1 loc(#loc143)
            %41 = arith.subi %num_min_larger_152#3, %num_min_larger_152#5 : i32 loc(#loc143)
            %42 = arith.bitcast %k_22 : i32 to i32 loc(#loc144)
            %43 = arith.cmpi ult, %41, %42 : i32 loc(#loc144)
            %44 = arith.andi %34, %43 : i1 loc(#loc145)
            %found_pivot_156:5 = scf.if %44 -> (f32, i32, f32, i32, i32) {
              %found_pivot_169 = arith.constant 1 : i32 loc(#loc1575)
              scf.yield %max_range_149, %num_min_larger_152#3, %num_min_larger_152#4, %num_min_larger_152#5, %found_pivot_169 : f32, i32, f32, i32, i32 loc(#loc1575)
            } else {
              scf.yield %found_pivot_153#0, %found_pivot_153#1, %found_pivot_153#2, %found_pivot_153#3, %found_pivot_153#4 : f32, i32, f32, i32, i32 loc(#loc146)
            } loc(#loc1574)
            %45 = arith.bitcast %k_22 : i32 to i32 loc(#loc148)
            %46 = arith.cmpi ugt, %num_min_larger_152#3, %45 : i32 loc(#loc148)
            %47 = scf.if %46 -> (f32) {
              scf.yield %max_range_149 : f32 loc(#loc149)
            } else {
              %57 = arith.bitcast %k_22 : i32 to i32 loc(#loc150)
              %58 = arith.cmpi ugt, %num_min_larger_152#0, %57 : i32 loc(#loc150)
              %min_range_169 = scf.if %58 -> (f32) {
                scf.yield %max_range_142 : f32 loc(#loc151)
              } else {
                scf.yield %min_range_134 : f32 loc(#loc151)
              } loc(#loc1001)
              scf.yield %min_range_169 : f32 loc(#loc151)
            } loc(#loc149)
            %48 = arith.bitcast %k_22 : i32 to i32 loc(#loc152)
            %49 = arith.cmpi ult, %num_min_larger_152#0, %48 : i32 loc(#loc152)
            %50 = scf.if %49 -> (f32) {
              scf.yield %max_range_142 : f32 loc(#loc153)
            } else {
              %57 = arith.bitcast %k_22 : i32 to i32 loc(#loc154)
              %58 = arith.cmpi ult, %num_min_larger_152#3, %57 : i32 loc(#loc154)
              %max_range_169 = scf.if %58 -> (f32) {
                scf.yield %max_range_149 : f32 loc(#loc155)
              } else {
                scf.yield %max_range : f32 loc(#loc155)
              } loc(#loc1002)
              scf.yield %max_range_169 : f32 loc(#loc155)
            } loc(#loc153)
            %num_iters_157 = arith.constant 1 : i32 loc(#loc1003)
            %num_iters_158 = arith.constant 1 : i32 loc(#loc1003)
            %num_iters_159 = arith.extsi %num_iters_129 : i32 to i64 loc(#loc1003)
            %num_iters_160 = arith.extsi %num_iters_158 : i32 to i64 loc(#loc1003)
            %num_iters_161 = arith.addi %num_iters_159, %num_iters_160 : i64 loc(#loc1003)
            %num_iters_162 = arith.constant 2147483647 : i64 loc(#loc1003)
            %num_iters_163 = arith.constant -2147483648 : i64 loc(#loc1003)
            %num_iters_164 = arith.cmpi sle, %num_iters_161, %num_iters_162 : i64 loc(#loc1003)
            %num_iters_165 = arith.cmpi sge, %num_iters_161, %num_iters_163 : i64 loc(#loc1003)
            %num_iters_166 = arith.andi %num_iters_164, %num_iters_165 : i1 loc(#loc1003)
            %num_iters_167 = arith.addi %num_iters_129, %num_iters_158 : i32 loc(#loc1003)
            %c18_i32 = arith.constant 18 : i32 loc(#loc157)
            %51 = arith.cmpi sge, %num_iters_167, %c18_i32 : i32 loc(#loc157)
            %52 = arith.subf %47, %50 : f32 loc(#loc158)
            %53 = math.absf %52 : f32 loc(#loc159)
            %cst_168 = arith.constant 9.99999971E-10 : f32 loc(#loc160)
            %54 = arith.cmpf olt, %53, %cst_168 : f32 loc(#loc160)
            %55 = arith.ori %51, %54 : i1 loc(#loc161)
            %56:2 = scf.if %55 -> (f32, i32) {
              %k_pivot_169 = arith.addf %50, %47 : f32 loc(#loc1004)
              %k_pivot_170 = arith.constant 2.000000e+00 : f32 loc(#loc1005)
              %k_pivot_171 = arith.constant 2.000000e+00 : f32 loc(#loc1005)
              %k_pivot_172 = arith.divf %k_pivot_169, %k_pivot_171 : f32 loc(#loc1576)
              %found_pivot_173 = arith.constant 1 : i32 loc(#loc1577)
              scf.yield %k_pivot_172, %found_pivot_173 : f32, i32 loc(#loc1577)
            } else {
              scf.yield %found_pivot_156#0, %found_pivot_156#4 : f32, i32 loc(#loc162)
            } loc(#loc162)
            scf.yield %20, %num_iters_167, %56#0, %found_pivot_156#1, %found_pivot_156#2, %found_pivot_156#3, %50, %47, %56#1 : i32, i32, f32, i32, f32, i32, f32, f32, i32 loc(#loc166)
          } loc(#loc1912)
          scf.yield %max_logit_76#2, %min_range_128#0, %min_range_128#1, %min_range_128#2, %min_range_128#3, %min_range_128#4, %min_range_128#5, %min_range_128#8, %min_range_128#6, %min_range_128#7 : tensor<8192xi1>, i32, i32, f32, i32, f32, i32, i32, f32, f32 loc(#loc1912)
        } else {
          %found_pivot = arith.constant 0 : i32 loc(#loc1578)
          %min_range_103:10 = scf.while (%mask_n_104 = %max_logit_76#2, %i = %12, %num_iters_105 = %num_iters, %k_pivot_106 = %k_pivot, %k_pivots_num_107 = %k_pivots_num, %min_larger_108 = %min_larger, %num_min_larger_109 = %num_min_larger, %max_range = %max_logit_76#0, %min_range_110 = %min_logit_77, %found_pivot_111 = %found_pivot) : (tensor<8192xi1>, i32, i32, f32, i32, f32, i32, f32, f32, i32) -> (tensor<8192xi1>, i32, i32, f32, i32, f32, i32, f32, f32, i32) {
            %c0_i32_112 = arith.constant 0 : i32 loc(#loc169)
            %17 = arith.cmpi eq, %found_pivot_111, %c0_i32_112 : i32 loc(#loc169)
            scf.condition(%17) %mask_n_104, %i, %num_iters_105, %k_pivot_106, %k_pivots_num_107, %min_larger_108, %num_min_larger_109, %max_range, %min_range_110, %found_pivot_111 : tensor<8192xi1>, i32, i32, f32, i32, f32, i32, f32, f32, i32 loc(#loc169)
          } do {
          ^bb0(%mask_n_104: tensor<8192xi1> loc("mask_n"), %i: i32 loc("i"), %num_iters_105: i32 loc("num_iters"), %k_pivot_106: f32 loc("k_pivot"(#loc99)), %k_pivots_num_107: i32 loc("k_pivots_num"(#loc100)), %min_larger_108: f32 loc("min_larger"(#loc101)), %num_min_larger_109: i32 loc("num_min_larger"(#loc102)), %max_range: f32 loc("max_range"(#loc103)), %min_range_110: f32 loc("min_range"(#loc104)), %found_pivot_111: i32 loc("found_pivot"(#loc105))):
            %k_pivot_0 = arith.subf %max_range, %min_range_110 : f32 loc(#loc1009)
            %k_pivot_0_112 = arith.constant 1.000000e+00 : f32 loc(#loc1010)
            %k_pivot_0_113 = arith.constant 1.000000e+00 : f32 loc(#loc1010)
            %k_pivot_0_114 = arith.mulf %k_pivot_0, %k_pivot_0_113 : f32 loc(#loc1010)
            %k_pivot_0_115 = arith.constant 4.000000e+00 : f32 loc(#loc1011)
            %k_pivot_0_116 = arith.constant 4.000000e+00 : f32 loc(#loc1011)
            %k_pivot_0_117 = arith.divf %k_pivot_0_114, %k_pivot_0_116 : f32 loc(#loc1011)
            %max_range_118 = arith.addf %k_pivot_0_117, %min_range_110 : f32 loc(#loc1733)
            %k_pivots_num_0 = tt.call @"triton.language.standard.zeros____(1,)cconstexpr_uint32_"() : () -> i32 loc(#loc1013)
            %min_larger_0 = arith.constant 0x7F800000 : f32 loc(#loc1014)
            %num_min_larger_0 = tt.call @"triton.language.standard.zeros____(1,)cconstexpr_uint32_"() : () -> i32 loc(#loc1015)
            %k_pivot_1 = arith.subf %max_range, %min_range_110 : f32 loc(#loc1016)
            %k_pivot_1_119 = arith.constant 2.000000e+00 : f32 loc(#loc1017)
            %k_pivot_1_120 = arith.constant 2.000000e+00 : f32 loc(#loc1017)
            %k_pivot_1_121 = arith.mulf %k_pivot_1, %k_pivot_1_120 : f32 loc(#loc1017)
            %k_pivot_1_122 = arith.constant 4.000000e+00 : f32 loc(#loc1018)
            %k_pivot_1_123 = arith.constant 4.000000e+00 : f32 loc(#loc1018)
            %k_pivot_1_124 = arith.divf %k_pivot_1_121, %k_pivot_1_123 : f32 loc(#loc1018)
            %max_range_125 = arith.addf %k_pivot_1_124, %min_range_110 : f32 loc(#loc1734)
            %k_pivots_num_1 = tt.call @"triton.language.standard.zeros____(1,)cconstexpr_uint32_"() : () -> i32 loc(#loc1020)
            %min_larger_1 = arith.constant 0x7F800000 : f32 loc(#loc1021)
            %num_min_larger_1 = tt.call @"triton.language.standard.zeros____(1,)cconstexpr_uint32_"() : () -> i32 loc(#loc1022)
            %c0_i32_126 = arith.constant 0 : i32 loc(#loc185)
            %c32_i32_127 = arith.constant 32 : i32 loc(#loc185)
            %c1_i32_128 = arith.constant 1 : i32 loc(#loc185)
            %17 = arith.bitcast %c0_i32_126 : i32 to i32 loc(#loc185)
            %18 = arith.bitcast %c32_i32_127 : i32 to i32 loc(#loc185)
            %19 = arith.bitcast %c1_i32_128 : i32 to i32 loc(#loc185)
            %20 = ub.poison : i32 loc(#loc185)
            %num_min_larger_129:7 = scf.for %i_146 = %17 to %18 step %19 iter_args(%mask_n_147 = %mask_n_104, %k_pivots_num_0_148 = %k_pivots_num_0, %min_larger_0_149 = %min_larger_0, %num_min_larger_0_150 = %num_min_larger_0, %k_pivots_num_1_151 = %k_pivots_num_1, %min_larger_1_152 = %min_larger_1, %num_min_larger_1_153 = %num_min_larger_1) -> (tensor<8192xi1>, i32, f32, i32, i32, f32, i32)  : i32 {
              %offs_n = arith.constant 8192 : i32 loc(#loc1024)
              %offs_n_154 = arith.constant 8192 : i32 loc(#loc1024)
              %offs_n_155 = arith.extsi %i_146 : i32 to i64 loc(#loc1024)
              %offs_n_156 = arith.extsi %offs_n_154 : i32 to i64 loc(#loc1024)
              %offs_n_157 = arith.muli %offs_n_155, %offs_n_156 : i64 loc(#loc1024)
              %offs_n_158 = arith.constant 2147483647 : i64 loc(#loc1024)
              %offs_n_159 = arith.constant -2147483648 : i64 loc(#loc1024)
              %offs_n_160 = arith.cmpi sle, %offs_n_157, %offs_n_158 : i64 loc(#loc1024)
              %offs_n_161 = arith.cmpi sge, %offs_n_157, %offs_n_159 : i64 loc(#loc1024)
              %offs_n_162 = arith.andi %offs_n_160, %offs_n_161 : i1 loc(#loc1024)
              %offs_n_163 = arith.muli %i_146, %offs_n_154 : i32 loc(#loc1024)
              %offs_n_164 = tt.make_range {end = 8192 : i32, start = 0 : i32} : tensor<8192xi32> loc(#loc1025)
              %offs_n_165 = tt.splat %offs_n_163 : i32 -> tensor<8192xi32> loc(#loc1026)
              %offs_n_166 = arith.extsi %offs_n_165 : tensor<8192xi32> to tensor<8192xi64> loc(#loc1026)
              %offs_n_167 = arith.extsi %offs_n_164 : tensor<8192xi32> to tensor<8192xi64> loc(#loc1026)
              %offs_n_168 = arith.addi %offs_n_166, %offs_n_167 : tensor<8192xi64> loc(#loc1026)
              %offs_n_169 = arith.constant 2147483647 : i64 loc(#loc1026)
              %offs_n_170 = arith.constant -2147483648 : i64 loc(#loc1026)
              %offs_n_171 = arith.constant dense<2147483647> : tensor<8192xi64> loc(#loc1026)
              %offs_n_172 = arith.cmpi sle, %offs_n_168, %offs_n_171 : tensor<8192xi64> loc(#loc1026)
              %offs_n_173 = arith.constant dense<-2147483648> : tensor<8192xi64> loc(#loc1026)
              %offs_n_174 = arith.cmpi sge, %offs_n_168, %offs_n_173 : tensor<8192xi64> loc(#loc1026)
              %offs_n_175 = arith.andi %offs_n_172, %offs_n_174 : tensor<8192xi1> loc(#loc1026)
              %offs_n_176 = arith.addi %offs_n_165, %offs_n_164 : tensor<8192xi32> loc(#loc1026)
              %mask_n_177 = arith.constant 262144 : i32 loc(#loc1027)
              %mask_n_178 = arith.constant dense<262144> : tensor<8192xi32> loc(#loc1027)
              %mask_n_179 = arith.cmpi slt, %offs_n_176, %mask_n_178 : tensor<8192xi32> loc(#loc1027)
              %logits_blk2 = tt.splat %LOGITS_ROW_10 : !tt.ptr<f32> -> tensor<8192x!tt.ptr<f32>> loc(#loc1028)
              %logits_blk2_180 = tt.addptr %logits_blk2, %offs_n_176 : tensor<8192x!tt.ptr<f32>>, tensor<8192xi32> loc(#loc1028)
              %logits_blk2_181 = arith.constant 0xFF800000 : f32 loc(#loc1029)
              %logits_blk2_182 = arith.constant dense<0xFF800000> : tensor<8192xf32> loc(#loc1029)
              %logits_blk2_183 = tt.load %logits_blk2_180, %mask_n_179, %logits_blk2_182 : tensor<8192x!tt.ptr<f32>> loc(#loc1029)
              %above_0 = tt.splat %max_range_118 : f32 -> tensor<8192xf32> loc(#loc1030)
              %above_0_184 = arith.cmpf ogt, %logits_blk2_183, %above_0 : tensor<8192xf32> loc(#loc1030)
              %above_1 = tt.splat %max_range_125 : f32 -> tensor<8192xf32> loc(#loc1031)
              %above_1_185 = arith.cmpf ogt, %logits_blk2_183, %above_1 : tensor<8192xf32> loc(#loc1031)
              %k_pivots_num_0_186 = tt.call @"triton.language.standard.sum__u1S8192S__(1,)cNone_(2,)cconstexpr_False__(3,)cNone"(%above_0_184) : (tensor<8192xi1>) -> i32 loc(#loc1032)
              %k_pivots_num_0_187 = arith.extui %k_pivots_num_0_148 : i32 to i64 loc(#loc1033)
              %k_pivots_num_0_188 = arith.extui %k_pivots_num_0_186 : i32 to i64 loc(#loc1033)
              %k_pivots_num_0_189 = arith.addi %k_pivots_num_0_187, %k_pivots_num_0_188 : i64 loc(#loc1033)
              %k_pivots_num_0_190 = arith.constant 4294967295 : i64 loc(#loc1033)
              %k_pivots_num_0_191 = arith.constant 0 : i64 loc(#loc1033)
              %k_pivots_num_0_192 = arith.cmpi sle, %k_pivots_num_0_189, %k_pivots_num_0_190 : i64 loc(#loc1033)
              %k_pivots_num_0_193 = arith.cmpi sge, %k_pivots_num_0_189, %k_pivots_num_0_191 : i64 loc(#loc1033)
              %k_pivots_num_0_194 = arith.andi %k_pivots_num_0_192, %k_pivots_num_0_193 : i1 loc(#loc1033)
              %k_pivots_num_0_195 = arith.addi %k_pivots_num_0_148, %k_pivots_num_0_186 : i32 loc(#loc1033)
              %k_pivots_num_1_196 = tt.call @"triton.language.standard.sum__u1S8192S__(1,)cNone_(2,)cconstexpr_False__(3,)cNone"(%above_1_185) : (tensor<8192xi1>) -> i32 loc(#loc1034)
              %k_pivots_num_1_197 = arith.extui %k_pivots_num_1_151 : i32 to i64 loc(#loc1035)
              %k_pivots_num_1_198 = arith.extui %k_pivots_num_1_196 : i32 to i64 loc(#loc1035)
              %k_pivots_num_1_199 = arith.addi %k_pivots_num_1_197, %k_pivots_num_1_198 : i64 loc(#loc1035)
              %k_pivots_num_1_200 = arith.constant 4294967295 : i64 loc(#loc1035)
              %k_pivots_num_1_201 = arith.constant 0 : i64 loc(#loc1035)
              %k_pivots_num_1_202 = arith.cmpi sle, %k_pivots_num_1_199, %k_pivots_num_1_200 : i64 loc(#loc1035)
              %k_pivots_num_1_203 = arith.cmpi sge, %k_pivots_num_1_199, %k_pivots_num_1_201 : i64 loc(#loc1035)
              %k_pivots_num_1_204 = arith.andi %k_pivots_num_1_202, %k_pivots_num_1_203 : i1 loc(#loc1035)
              %k_pivots_num_1_205 = arith.addi %k_pivots_num_1_151, %k_pivots_num_1_196 : i32 loc(#loc1035)
              %57:2 = tt.call @"vllm.v1.sample.ops.topk_topp_triton._update_min_larger_stats__fp32S8192S_u1S8192S_fp32_u32__(4,)cconstexpr_inf_"(%logits_blk2_183, %above_0_184, %min_larger_0_149, %num_min_larger_0_150) : (tensor<8192xf32>, tensor<8192xi1>, f32, i32) -> (f32, i32) loc(#loc198)
              %58:2 = tt.call @"vllm.v1.sample.ops.topk_topp_triton._update_min_larger_stats__fp32S8192S_u1S8192S_fp32_u32__(4,)cconstexpr_inf_"(%logits_blk2_183, %above_1_185, %min_larger_1_152, %num_min_larger_1_153) : (tensor<8192xf32>, tensor<8192xi1>, f32, i32) -> (f32, i32) loc(#loc199)
              scf.yield %mask_n_179, %k_pivots_num_0_195, %57#0, %57#1, %k_pivots_num_1_205, %58#0, %58#1 : tensor<8192xi1>, i32, f32, i32, i32, f32, i32 loc(#loc200)
            } loc(#loc1882)
            %21 = arith.bitcast %k_22 : i32 to i32 loc(#loc201)
            %22 = arith.cmpi uge, %num_min_larger_129#1, %21 : i32 loc(#loc201)
            %23 = arith.extui %num_min_larger_129#1 : i32 to i64 loc(#loc202)
            %24 = arith.extui %num_min_larger_129#3 : i32 to i64 loc(#loc202)
            %25 = arith.subi %23, %24 : i64 loc(#loc202)
            %c4294967295_i64 = arith.constant 4294967295 : i64 loc(#loc202)
            %c0_i64 = arith.constant 0 : i64 loc(#loc202)
            %26 = arith.cmpi sle, %25, %c4294967295_i64 : i64 loc(#loc202)
            %27 = arith.cmpi sge, %25, %c0_i64 : i64 loc(#loc202)
            %28 = arith.andi %26, %27 : i1 loc(#loc202)
            %29 = arith.subi %num_min_larger_129#1, %num_min_larger_129#3 : i32 loc(#loc202)
            %30 = arith.bitcast %k_22 : i32 to i32 loc(#loc203)
            %31 = arith.cmpi ult, %29, %30 : i32 loc(#loc203)
            %32 = arith.andi %22, %31 : i1 loc(#loc204)
            %found_pivot_130:5 = scf.if %32 -> (f32, i32, f32, i32, i32) {
              %found_pivot_146 = arith.constant 1 : i32 loc(#loc1584)
              scf.yield %max_range_118, %num_min_larger_129#1, %num_min_larger_129#2, %num_min_larger_129#3, %found_pivot_146 : f32, i32, f32, i32, i32 loc(#loc1584)
            } else {
              scf.yield %k_pivot_106, %k_pivots_num_107, %min_larger_108, %num_min_larger_109, %found_pivot_111 : f32, i32, f32, i32, i32 loc(#loc205)
            } loc(#loc1772)
            %33 = arith.bitcast %k_22 : i32 to i32 loc(#loc207)
            %34 = arith.cmpi uge, %num_min_larger_129#4, %33 : i32 loc(#loc207)
            %35 = arith.extui %num_min_larger_129#4 : i32 to i64 loc(#loc208)
            %36 = arith.extui %num_min_larger_129#6 : i32 to i64 loc(#loc208)
            %37 = arith.subi %35, %36 : i64 loc(#loc208)
            %c4294967295_i64_131 = arith.constant 4294967295 : i64 loc(#loc208)
            %c0_i64_132 = arith.constant 0 : i64 loc(#loc208)
            %38 = arith.cmpi sle, %37, %c4294967295_i64_131 : i64 loc(#loc208)
            %39 = arith.cmpi sge, %37, %c0_i64_132 : i64 loc(#loc208)
            %40 = arith.andi %38, %39 : i1 loc(#loc208)
            %41 = arith.subi %num_min_larger_129#4, %num_min_larger_129#6 : i32 loc(#loc208)
            %42 = arith.bitcast %k_22 : i32 to i32 loc(#loc209)
            %43 = arith.cmpi ult, %41, %42 : i32 loc(#loc209)
            %44 = arith.andi %34, %43 : i1 loc(#loc210)
            %found_pivot_133:5 = scf.if %44 -> (f32, i32, f32, i32, i32) {
              %found_pivot_146 = arith.constant 1 : i32 loc(#loc1586)
              scf.yield %max_range_125, %num_min_larger_129#4, %num_min_larger_129#5, %num_min_larger_129#6, %found_pivot_146 : f32, i32, f32, i32, i32 loc(#loc1586)
            } else {
              scf.yield %found_pivot_130#0, %found_pivot_130#1, %found_pivot_130#2, %found_pivot_130#3, %found_pivot_130#4 : f32, i32, f32, i32, i32 loc(#loc211)
            } loc(#loc1585)
            %45 = arith.bitcast %k_22 : i32 to i32 loc(#loc213)
            %46 = arith.cmpi ugt, %num_min_larger_129#4, %45 : i32 loc(#loc213)
            %47 = scf.if %46 -> (f32) {
              scf.yield %max_range_125 : f32 loc(#loc214)
            } else {
              %57 = arith.bitcast %k_22 : i32 to i32 loc(#loc215)
              %58 = arith.cmpi ugt, %num_min_larger_129#1, %57 : i32 loc(#loc215)
              %min_range_146 = scf.if %58 -> (f32) {
                scf.yield %max_range_118 : f32 loc(#loc216)
              } else {
                scf.yield %min_range_110 : f32 loc(#loc216)
              } loc(#loc1040)
              scf.yield %min_range_146 : f32 loc(#loc216)
            } loc(#loc214)
            %48 = arith.bitcast %k_22 : i32 to i32 loc(#loc217)
            %49 = arith.cmpi ult, %num_min_larger_129#1, %48 : i32 loc(#loc217)
            %50 = scf.if %49 -> (f32) {
              scf.yield %max_range_118 : f32 loc(#loc218)
            } else {
              %57 = arith.bitcast %k_22 : i32 to i32 loc(#loc219)
              %58 = arith.cmpi ult, %num_min_larger_129#4, %57 : i32 loc(#loc219)
              %max_range_146 = scf.if %58 -> (f32) {
                scf.yield %max_range_125 : f32 loc(#loc220)
              } else {
                scf.yield %max_range : f32 loc(#loc220)
              } loc(#loc1041)
              scf.yield %max_range_146 : f32 loc(#loc220)
            } loc(#loc218)
            %num_iters_134 = arith.constant 1 : i32 loc(#loc1042)
            %num_iters_135 = arith.constant 1 : i32 loc(#loc1042)
            %num_iters_136 = arith.extsi %num_iters_105 : i32 to i64 loc(#loc1042)
            %num_iters_137 = arith.extsi %num_iters_135 : i32 to i64 loc(#loc1042)
            %num_iters_138 = arith.addi %num_iters_136, %num_iters_137 : i64 loc(#loc1042)
            %num_iters_139 = arith.constant 2147483647 : i64 loc(#loc1042)
            %num_iters_140 = arith.constant -2147483648 : i64 loc(#loc1042)
            %num_iters_141 = arith.cmpi sle, %num_iters_138, %num_iters_139 : i64 loc(#loc1042)
            %num_iters_142 = arith.cmpi sge, %num_iters_138, %num_iters_140 : i64 loc(#loc1042)
            %num_iters_143 = arith.andi %num_iters_141, %num_iters_142 : i1 loc(#loc1042)
            %num_iters_144 = arith.addi %num_iters_105, %num_iters_135 : i32 loc(#loc1042)
            %c18_i32 = arith.constant 18 : i32 loc(#loc222)
            %51 = arith.cmpi sge, %num_iters_144, %c18_i32 : i32 loc(#loc222)
            %52 = arith.subf %47, %50 : f32 loc(#loc223)
            %53 = math.absf %52 : f32 loc(#loc224)
            %cst_145 = arith.constant 9.99999971E-10 : f32 loc(#loc225)
            %54 = arith.cmpf olt, %53, %cst_145 : f32 loc(#loc225)
            %55 = arith.ori %51, %54 : i1 loc(#loc226)
            %56:2 = scf.if %55 -> (f32, i32) {
              %k_pivot_146 = arith.addf %50, %47 : f32 loc(#loc1043)
              %k_pivot_147 = arith.constant 2.000000e+00 : f32 loc(#loc1044)
              %k_pivot_148 = arith.constant 2.000000e+00 : f32 loc(#loc1044)
              %k_pivot_149 = arith.divf %k_pivot_146, %k_pivot_148 : f32 loc(#loc1587)
              %found_pivot_150 = arith.constant 1 : i32 loc(#loc1588)
              scf.yield %k_pivot_149, %found_pivot_150 : f32, i32 loc(#loc1588)
            } else {
              scf.yield %found_pivot_133#0, %found_pivot_133#4 : f32, i32 loc(#loc227)
            } loc(#loc227)
            scf.yield %num_min_larger_129#0, %20, %num_iters_144, %56#0, %found_pivot_133#1, %found_pivot_133#2, %found_pivot_133#3, %50, %47, %56#1 : tensor<8192xi1>, i32, i32, f32, i32, f32, i32, f32, f32, i32 loc(#loc231)
          } loc(#loc1920)
          scf.yield %min_range_103#0, %min_range_103#1, %min_range_103#2, %min_range_103#3, %min_range_103#4, %min_range_103#5, %min_range_103#6, %min_range_103#9, %min_range_103#7, %min_range_103#8 : tensor<8192xi1>, i32, i32, f32, i32, f32, i32, i32, f32, f32 loc(#loc1852)
        } loc(#loc1919)
        %num_keep_79 = arith.bitcast %k_22 : i32 to i32 loc(#loc1046)
        %num_keep_80 = arith.extui %min_range_78#4 : i32 to i64 loc(#loc1046)
        %num_keep_81 = arith.extui %num_keep_79 : i32 to i64 loc(#loc1046)
        %num_keep_82 = arith.subi %num_keep_80, %num_keep_81 : i64 loc(#loc1046)
        %num_keep_83 = arith.constant 4294967295 : i64 loc(#loc1046)
        %num_keep_84 = arith.constant 0 : i64 loc(#loc1046)
        %num_keep_85 = arith.cmpi sle, %num_keep_82, %num_keep_83 : i64 loc(#loc1046)
        %num_keep_86 = arith.cmpi sge, %num_keep_82, %num_keep_84 : i64 loc(#loc1046)
        %num_keep_87 = arith.andi %num_keep_85, %num_keep_86 : i1 loc(#loc1046)
        %num_keep_88 = arith.subi %min_range_78#4, %num_keep_79 : i32 loc(#loc1046)
        %num_keep_89 = arith.extui %min_range_78#6 : i32 to i64 loc(#loc1047)
        %num_keep_90 = arith.extui %num_keep_88 : i32 to i64 loc(#loc1047)
        %num_keep_91 = arith.subi %num_keep_89, %num_keep_90 : i64 loc(#loc1047)
        %num_keep_92 = arith.constant 4294967295 : i64 loc(#loc1047)
        %num_keep_93 = arith.constant 0 : i64 loc(#loc1047)
        %num_keep_94 = arith.cmpi sle, %num_keep_91, %num_keep_92 : i64 loc(#loc1047)
        %num_keep_95 = arith.cmpi sge, %num_keep_91, %num_keep_93 : i64 loc(#loc1047)
        %num_keep_96 = arith.andi %num_keep_94, %num_keep_95 : i1 loc(#loc1047)
        %num_keep_97 = arith.subi %min_range_78#6, %num_keep_88 : i32 loc(#loc1689)
        %num_kept_98 = tt.call @"triton.language.standard.zeros____(1,)cconstexpr_uint32_"() : () -> i32 loc(#loc1737)
        %final_pivot_99 = arith.bitcast %k_22 : i32 to i32 loc(#loc1049)
        %final_pivot_100 = arith.cmpi ugt, %max_logit_76#4, %final_pivot_99 : i32 loc(#loc1049)
        %final_pivot_101 = scf.if %final_pivot_100 -> (f32) {
          scf.yield %min_range_78#3 : f32 loc(#loc1050)
        } else {
          %final_pivot_103 = arith.constant 0xFF800000 : f32 loc(#loc1051)
          scf.yield %final_pivot_103 : f32 loc(#loc1051)
        } loc(#loc1691)
        %15 = arith.bitcast %k_22 : i32 to i32 loc(#loc238)
        %16 = arith.cmpi ugt, %max_logit_76#4, %15 : i32 loc(#loc238)
        %min_logit_102:13 = scf.if %16 -> (f32, f32, i32, i32, i32, f32, tensor<8192xi1>, i32, i32, i32, i32, f32, f32) {
          %p = tt.addptr %P, %row_id : !tt.ptr<f32>, i32 loc(#loc1053)
          %p_103 = tt.load %p : !tt.ptr<f32> loc(#loc1054)
          %cst_104 = arith.constant 1.000000e+00 : f32 loc(#loc242)
          %17 = arith.cmpf olt, %p_103, %cst_104 : f32 loc(#loc242)
          %min_range_105:13 = scf.if %17 -> (f32, f32, i32, i32, i32, f32, tensor<8192xi1>, i32, i32, i32, i32, f32, f32) {
            %sum_exp_logits = arith.constant 0.000000e+00 : f32 loc(#loc1056)
            %num_outliers_2 = tt.call @"triton.language.standard.zeros____(1,)cconstexpr_uint32_"() : () -> i32 loc(#loc1594)
            %search_range = arith.bitcast %max_logit_76#3 : i32 to i32 loc(#loc1595)
            %search_iters = arith.constant 4096 : i32 loc(#loc1059)
            %search_iters_106 = arith.constant 4096 : i32 loc(#loc1059)
            %search_iters_107 = arith.extui %max_logit_76#3 : i32 to i64 loc(#loc1059)
            %search_iters_108 = arith.extui %search_iters_106 : i32 to i64 loc(#loc1059)
            %search_iters_109 = arith.addi %search_iters_107, %search_iters_108 : i64 loc(#loc1059)
            %search_iters_110 = arith.constant 4294967295 : i64 loc(#loc1059)
            %search_iters_111 = arith.constant 0 : i64 loc(#loc1059)
            %search_iters_112 = arith.cmpi sle, %search_iters_109, %search_iters_110 : i64 loc(#loc1059)
            %search_iters_113 = arith.cmpi sge, %search_iters_109, %search_iters_111 : i64 loc(#loc1059)
            %search_iters_114 = arith.andi %search_iters_112, %search_iters_113 : i1 loc(#loc1059)
            %search_iters_115 = arith.addi %max_logit_76#3, %search_iters_106 : i32 loc(#loc1059)
            %search_iters_116 = arith.constant 1 : i32 loc(#loc1060)
            %search_iters_117 = arith.constant 1 : i32 loc(#loc1060)
            %search_iters_118 = arith.extui %search_iters_115 : i32 to i64 loc(#loc1060)
            %search_iters_119 = arith.extui %search_iters_117 : i32 to i64 loc(#loc1060)
            %search_iters_120 = arith.subi %search_iters_118, %search_iters_119 : i64 loc(#loc1060)
            %search_iters_121 = arith.constant 4294967295 : i64 loc(#loc1060)
            %search_iters_122 = arith.constant 0 : i64 loc(#loc1060)
            %search_iters_123 = arith.cmpi sle, %search_iters_120, %search_iters_121 : i64 loc(#loc1060)
            %search_iters_124 = arith.cmpi sge, %search_iters_120, %search_iters_122 : i64 loc(#loc1060)
            %search_iters_125 = arith.andi %search_iters_123, %search_iters_124 : i1 loc(#loc1060)
            %search_iters_126 = arith.subi %search_iters_115, %search_iters_117 : i32 loc(#loc1060)
            %search_iters_127 = arith.constant 4096 : i32 loc(#loc1061)
            %search_iters_128 = arith.constant 4096 : i32 loc(#loc1061)
            %search_iters_129 = arith.divui %search_iters_126, %search_iters_128 : i32 loc(#loc1061)
            %search_iters_130 = arith.bitcast %search_iters_129 : i32 to i32 loc(#loc1596)
            %18 = arith.bitcast %k_22 : i32 to i32 loc(#loc251)
            %19 = arith.cmpi ugt, %max_logit_76#3, %18 : i32 loc(#loc251)
            %mask_n_131:7 = scf.if %19 -> (i32, tensor<8192xi1>, i32, f32, i32, i32, i32) {
              %c0_i32_159 = arith.constant 0 : i32 loc(#loc253)
              %c1_i32_160 = arith.constant 1 : i32 loc(#loc253)
              %20 = arith.bitcast %c0_i32_159 : i32 to i32 loc(#loc253)
              %21 = arith.bitcast %search_iters_130 : i32 to i32 loc(#loc253)
              %22 = arith.bitcast %c1_i32_160 : i32 to i32 loc(#loc253)
              %23 = ub.poison : i32 loc(#loc253)
              %sum_exp_logits_161:2 = scf.for %i_164 = %20 to %21 step %22 iter_args(%num_kept_165 = %num_kept_98, %sum_exp_logits_166 = %sum_exp_logits) -> (i32, f32)  : i32 {
                %offs_n = arith.constant 4096 : i32 loc(#loc1065)
                %offs_n_167 = arith.constant 4096 : i32 loc(#loc1065)
                %offs_n_168 = arith.extsi %i_164 : i32 to i64 loc(#loc1065)
                %offs_n_169 = arith.extsi %offs_n_167 : i32 to i64 loc(#loc1065)
                %offs_n_170 = arith.muli %offs_n_168, %offs_n_169 : i64 loc(#loc1065)
                %offs_n_171 = arith.constant 2147483647 : i64 loc(#loc1065)
                %offs_n_172 = arith.constant -2147483648 : i64 loc(#loc1065)
                %offs_n_173 = arith.cmpi sle, %offs_n_170, %offs_n_171 : i64 loc(#loc1065)
                %offs_n_174 = arith.cmpi sge, %offs_n_170, %offs_n_172 : i64 loc(#loc1065)
                %offs_n_175 = arith.andi %offs_n_173, %offs_n_174 : i1 loc(#loc1065)
                %offs_n_176 = arith.muli %i_164, %offs_n_167 : i32 loc(#loc1065)
                %offs_n_177 = tt.make_range {end = 4096 : i32, start = 0 : i32} : tensor<4096xi32> loc(#loc1066)
                %offs_n_178 = tt.splat %offs_n_176 : i32 -> tensor<4096xi32> loc(#loc1067)
                %offs_n_179 = arith.extsi %offs_n_178 : tensor<4096xi32> to tensor<4096xi64> loc(#loc1067)
                %offs_n_180 = arith.extsi %offs_n_177 : tensor<4096xi32> to tensor<4096xi64> loc(#loc1067)
                %offs_n_181 = arith.addi %offs_n_179, %offs_n_180 : tensor<4096xi64> loc(#loc1067)
                %offs_n_182 = arith.constant 2147483647 : i64 loc(#loc1067)
                %offs_n_183 = arith.constant -2147483648 : i64 loc(#loc1067)
                %offs_n_184 = arith.constant dense<2147483647> : tensor<4096xi64> loc(#loc1067)
                %offs_n_185 = arith.cmpi sle, %offs_n_181, %offs_n_184 : tensor<4096xi64> loc(#loc1067)
                %offs_n_186 = arith.constant dense<-2147483648> : tensor<4096xi64> loc(#loc1067)
                %offs_n_187 = arith.cmpi sge, %offs_n_181, %offs_n_186 : tensor<4096xi64> loc(#loc1067)
                %offs_n_188 = arith.andi %offs_n_185, %offs_n_187 : tensor<4096xi1> loc(#loc1067)
                %offs_n_189 = arith.addi %offs_n_178, %offs_n_177 : tensor<4096xi32> loc(#loc1067)
                %mask_n_2 = tt.splat %search_range : i32 -> tensor<4096xi32> loc(#loc1068)
                %mask_n_2_190 = arith.cmpi slt, %offs_n_189, %mask_n_2 : tensor<4096xi32> loc(#loc1068)
                %probs_blk = tt.splat %BUFFER_ROW_21 : !tt.ptr<f32> -> tensor<4096x!tt.ptr<f32>> loc(#loc1069)
                %probs_blk_191 = tt.addptr %probs_blk, %offs_n_189 : tensor<4096x!tt.ptr<f32>>, tensor<4096xi32> loc(#loc1069)
                %probs_blk_192 = arith.constant 0xFF800000 : f32 loc(#loc1070)
                %probs_blk_193 = arith.constant dense<0xFF800000> : tensor<4096xf32> loc(#loc1070)
                %probs_blk_194 = tt.load %probs_blk_191, %mask_n_2_190, %probs_blk_193 : tensor<4096x!tt.ptr<f32>> loc(#loc1070)
                %outlier_mask = tt.splat %min_range_78#3 : f32 -> tensor<4096xf32> loc(#loc1071)
                %outlier_mask_195 = arith.cmpf ogt, %probs_blk_194, %outlier_mask : tensor<4096xf32> loc(#loc1071)
                %outlier_mask_196 = arith.andi %outlier_mask_195, %mask_n_2_190 : tensor<4096xi1> loc(#loc1598)
                %27 = arith.cmpi ult, %num_keep_97, %min_range_78#6 : i32 loc(#loc262)
                %28:2 = scf.if %27 -> (i32, tensor<4096xi1>) {
                  %duplicate_mask = tt.splat %min_range_78#5 : f32 -> tensor<4096xf32> loc(#loc1073)
                  %duplicate_mask_206 = arith.subf %probs_blk_194, %duplicate_mask : tensor<4096xf32> loc(#loc1073)
                  %duplicate_mask_207 = math.absf %duplicate_mask_206 : tensor<4096xf32> loc(#loc1074)
                  %duplicate_mask_208 = arith.constant 9.99999971E-10 : f32 loc(#loc1075)
                  %duplicate_mask_209 = arith.constant dense<9.99999971E-10> : tensor<4096xf32> loc(#loc1075)
                  %duplicate_mask_210 = arith.cmpf olt, %duplicate_mask_207, %duplicate_mask_209 : tensor<4096xf32> loc(#loc1075)
                  %duplicate_count = tt.call @"triton.language.standard.cumsum__u1S4096S__(1,)cconstexpr_0__(2,)cconstexpr_False__(3,)cNone"(%duplicate_mask_210) : (tensor<4096xi1>) -> tensor<4096xi32> loc(#loc1076)
                  %duplicate_count_211 = tt.splat %num_kept_165 : i32 -> tensor<4096xi32> loc(#loc1077)
                  %duplicate_count_212 = arith.extui %duplicate_count : tensor<4096xi32> to tensor<4096xi64> loc(#loc1077)
                  %duplicate_count_213 = arith.extui %duplicate_count_211 : tensor<4096xi32> to tensor<4096xi64> loc(#loc1077)
                  %duplicate_count_214 = arith.addi %duplicate_count_212, %duplicate_count_213 : tensor<4096xi64> loc(#loc1077)
                  %duplicate_count_215 = arith.constant 4294967295 : i64 loc(#loc1077)
                  %duplicate_count_216 = arith.constant 0 : i64 loc(#loc1077)
                  %duplicate_count_217 = arith.constant dense<4294967295> : tensor<4096xi64> loc(#loc1077)
                  %duplicate_count_218 = arith.cmpi sle, %duplicate_count_214, %duplicate_count_217 : tensor<4096xi64> loc(#loc1077)
                  %duplicate_count_219 = arith.constant dense<0> : tensor<4096xi64> loc(#loc1077)
                  %duplicate_count_220 = arith.cmpi sge, %duplicate_count_214, %duplicate_count_219 : tensor<4096xi64> loc(#loc1077)
                  %duplicate_count_221 = arith.andi %duplicate_count_218, %duplicate_count_220 : tensor<4096xi1> loc(#loc1077)
                  %duplicate_count_222 = arith.addi %duplicate_count, %duplicate_count_211 : tensor<4096xi32> loc(#loc1077)
                  %duplicate_keep_mask = tt.splat %num_keep_97 : i32 -> tensor<4096xi32> loc(#loc1078)
                  %duplicate_keep_mask_223 = arith.cmpi ule, %duplicate_count_222, %duplicate_keep_mask : tensor<4096xi32> loc(#loc1078)
                  %duplicate_keep_mask_224 = arith.andi %duplicate_keep_mask_223, %duplicate_mask_210 : tensor<4096xi1> loc(#loc1079)
                  %duplicate_remove_mask = arith.constant true loc(#loc1080)
                  %duplicate_remove_mask_225 = arith.constant dense<true> : tensor<4096xi1> loc(#loc1080)
                  %duplicate_remove_mask_226 = arith.xori %duplicate_keep_mask_224, %duplicate_remove_mask_225 : tensor<4096xi1> loc(#loc1080)
                  %duplicate_remove_mask_227 = arith.andi %duplicate_mask_210, %duplicate_remove_mask_226 : tensor<4096xi1> loc(#loc1081)
                  %outlier_mask_228 = arith.constant true loc(#loc1082)
                  %outlier_mask_229 = arith.constant dense<true> : tensor<4096xi1> loc(#loc1082)
                  %outlier_mask_230 = arith.xori %duplicate_remove_mask_227, %outlier_mask_229 : tensor<4096xi1> loc(#loc1082)
                  %outlier_mask_231 = arith.andi %outlier_mask_196, %outlier_mask_230 : tensor<4096xi1> loc(#loc1599)
                  %num_kept_232 = tt.call @"triton.language.standard.sum__u1S4096S__(1,)cNone_(2,)cconstexpr_False__(3,)cNone"(%duplicate_keep_mask_224) : (tensor<4096xi1>) -> i32 loc(#loc1084)
                  %num_kept_233 = arith.extui %num_kept_165 : i32 to i64 loc(#loc1085)
                  %num_kept_234 = arith.extui %num_kept_232 : i32 to i64 loc(#loc1085)
                  %num_kept_235 = arith.addi %num_kept_233, %num_kept_234 : i64 loc(#loc1085)
                  %num_kept_236 = arith.constant 4294967295 : i64 loc(#loc1085)
                  %num_kept_237 = arith.constant 0 : i64 loc(#loc1085)
                  %num_kept_238 = arith.cmpi sle, %num_kept_235, %num_kept_236 : i64 loc(#loc1085)
                  %num_kept_239 = arith.cmpi sge, %num_kept_235, %num_kept_237 : i64 loc(#loc1085)
                  %num_kept_240 = arith.andi %num_kept_238, %num_kept_239 : i1 loc(#loc1085)
                  %num_kept_241 = arith.addi %num_kept_165, %num_kept_232 : i32 loc(#loc1600)
                  scf.yield %num_kept_241, %outlier_mask_231 : i32, tensor<4096xi1> loc(#loc1600)
                } else {
                  scf.yield %num_kept_165, %outlier_mask_196 : i32, tensor<4096xi1> loc(#loc263)
                } loc(#loc263)
                %probs_blk_197 = arith.constant 0xFF800000 : f32 loc(#loc1086)
                %probs_blk_198 = arith.constant 0xFF800000 : f32 loc(#loc1086)
                %probs_blk_199 = arith.constant dense<0xFF800000> : tensor<4096xf32> loc(#loc1086)
                %probs_blk_200 = arith.select %28#1, %probs_blk_194, %probs_blk_199 : tensor<4096xi1>, tensor<4096xf32> loc(#loc1086)
                %probs_blk_201 = tt.splat %max_logit_76#0 : f32 -> tensor<4096xf32> loc(#loc1087)
                %probs_blk_202 = arith.subf %probs_blk_200, %probs_blk_201 : tensor<4096xf32> loc(#loc1087)
                %probs_blk_203 = math.exp %probs_blk_202 : tensor<4096xf32> loc(#loc1088)
                %sum_exp_logits_204 = tt.call @"triton.language.standard.sum__fp32S4096S__(1,)cNone_(2,)cconstexpr_False__(3,)cNone"(%probs_blk_203) : (tensor<4096xf32>) -> f32 loc(#loc1089)
                %sum_exp_logits_205 = arith.addf %sum_exp_logits_166, %sum_exp_logits_204 : f32 loc(#loc1090)
                scf.yield %28#0, %sum_exp_logits_205 : i32, f32 loc(#loc282)
              } loc(#loc1740)
              %c0_i32_162 = arith.constant 0 : i32 loc(#loc283)
              %c1_i32_163 = arith.constant 1 : i32 loc(#loc283)
              %24 = arith.bitcast %c0_i32_162 : i32 to i32 loc(#loc283)
              %25 = arith.bitcast %search_iters_130 : i32 to i32 loc(#loc283)
              %26 = arith.bitcast %c1_i32_163 : i32 to i32 loc(#loc283)
              %i = ub.poison : i32 loc(#loc1091)
              scf.for %i_164 = %24 to %25 step %26  : i32 {
                %offs_n = arith.constant 4096 : i32 loc(#loc1092)
                %offs_n_165 = arith.constant 4096 : i32 loc(#loc1092)
                %offs_n_166 = arith.extsi %i_164 : i32 to i64 loc(#loc1092)
                %offs_n_167 = arith.extsi %offs_n_165 : i32 to i64 loc(#loc1092)
                %offs_n_168 = arith.muli %offs_n_166, %offs_n_167 : i64 loc(#loc1092)
                %offs_n_169 = arith.constant 2147483647 : i64 loc(#loc1092)
                %offs_n_170 = arith.constant -2147483648 : i64 loc(#loc1092)
                %offs_n_171 = arith.cmpi sle, %offs_n_168, %offs_n_169 : i64 loc(#loc1092)
                %offs_n_172 = arith.cmpi sge, %offs_n_168, %offs_n_170 : i64 loc(#loc1092)
                %offs_n_173 = arith.andi %offs_n_171, %offs_n_172 : i1 loc(#loc1092)
                %offs_n_174 = arith.muli %i_164, %offs_n_165 : i32 loc(#loc1092)
                %offs_n_175 = tt.make_range {end = 4096 : i32, start = 0 : i32} : tensor<4096xi32> loc(#loc1093)
                %offs_n_176 = tt.splat %offs_n_174 : i32 -> tensor<4096xi32> loc(#loc1094)
                %offs_n_177 = arith.extsi %offs_n_176 : tensor<4096xi32> to tensor<4096xi64> loc(#loc1094)
                %offs_n_178 = arith.extsi %offs_n_175 : tensor<4096xi32> to tensor<4096xi64> loc(#loc1094)
                %offs_n_179 = arith.addi %offs_n_177, %offs_n_178 : tensor<4096xi64> loc(#loc1094)
                %offs_n_180 = arith.constant 2147483647 : i64 loc(#loc1094)
                %offs_n_181 = arith.constant -2147483648 : i64 loc(#loc1094)
                %offs_n_182 = arith.constant dense<2147483647> : tensor<4096xi64> loc(#loc1094)
                %offs_n_183 = arith.cmpi sle, %offs_n_179, %offs_n_182 : tensor<4096xi64> loc(#loc1094)
                %offs_n_184 = arith.constant dense<-2147483648> : tensor<4096xi64> loc(#loc1094)
                %offs_n_185 = arith.cmpi sge, %offs_n_179, %offs_n_184 : tensor<4096xi64> loc(#loc1094)
                %offs_n_186 = arith.andi %offs_n_183, %offs_n_185 : tensor<4096xi1> loc(#loc1094)
                %offs_n_187 = arith.addi %offs_n_176, %offs_n_175 : tensor<4096xi32> loc(#loc1094)
                %mask_n_2 = tt.splat %search_range : i32 -> tensor<4096xi32> loc(#loc1095)
                %mask_n_2_188 = arith.cmpi slt, %offs_n_187, %mask_n_2 : tensor<4096xi32> loc(#loc1095)
                %probs_blk = tt.splat %BUFFER_ROW_21 : !tt.ptr<f32> -> tensor<4096x!tt.ptr<f32>> loc(#loc1096)
                %probs_blk_189 = tt.addptr %probs_blk, %offs_n_187 : tensor<4096x!tt.ptr<f32>>, tensor<4096xi32> loc(#loc1096)
                %probs_blk_190 = arith.constant 0xFF800000 : f32 loc(#loc1097)
                %probs_blk_191 = arith.constant dense<0xFF800000> : tensor<4096xf32> loc(#loc1097)
                %probs_blk_192 = tt.load %probs_blk_189, %mask_n_2_188, %probs_blk_191 : tensor<4096x!tt.ptr<f32>> loc(#loc1097)
                %probs_blk_193 = tt.splat %max_logit_76#0 : f32 -> tensor<4096xf32> loc(#loc1098)
                %probs_blk_194 = arith.subf %probs_blk_192, %probs_blk_193 : tensor<4096xf32> loc(#loc1098)
                %probs_blk_195 = math.exp %probs_blk_194 : tensor<4096xf32> loc(#loc1099)
                %probs_blk_196 = tt.splat %sum_exp_logits_161#1 : f32 -> tensor<4096xf32> loc(#loc1100)
                %probs_blk_197 = arith.divf %probs_blk_195, %probs_blk_196 : tensor<4096xf32> loc(#loc1100)
                %27 = tt.splat %BUFFER_ROW_21 : !tt.ptr<f32> -> tensor<4096x!tt.ptr<f32>> loc(#loc293)
                %28 = tt.addptr %27, %offs_n_187 : tensor<4096x!tt.ptr<f32>>, tensor<4096xi32> loc(#loc293)
                tt.store %28, %probs_blk_197, %mask_n_2_188 : tensor<4096x!tt.ptr<f32>> loc(#loc294)
              } loc(#loc283)
              scf.yield %sum_exp_logits_161#0, %min_range_78#0, %i, %sum_exp_logits_161#1, %num_outliers_2, %search_range, %search_iters_130 : i32, tensor<8192xi1>, i32, f32, i32, i32, i32 loc(#loc283)
            } else {
              %c0_i32_159 = arith.constant 0 : i32 loc(#loc295)
              %c32_i32_160 = arith.constant 32 : i32 loc(#loc295)
              %c1_i32_161 = arith.constant 1 : i32 loc(#loc295)
              %20 = arith.bitcast %c0_i32_159 : i32 to i32 loc(#loc295)
              %21 = arith.bitcast %c32_i32_160 : i32 to i32 loc(#loc295)
              %22 = arith.bitcast %c1_i32_161 : i32 to i32 loc(#loc295)
              %23 = ub.poison : i32 loc(#loc295)
              %num_outliers_2_162:4 = scf.for %i_192 = %20 to %21 step %22 iter_args(%num_kept_193 = %num_kept_98, %mask_n_194 = %min_range_78#0, %sum_exp_logits_195 = %sum_exp_logits, %num_outliers_2_196 = %num_outliers_2) -> (i32, tensor<8192xi1>, f32, i32)  : i32 {
                %offs_n = arith.constant 8192 : i32 loc(#loc1102)
                %offs_n_197 = arith.constant 8192 : i32 loc(#loc1102)
                %offs_n_198 = arith.extsi %i_192 : i32 to i64 loc(#loc1102)
                %offs_n_199 = arith.extsi %offs_n_197 : i32 to i64 loc(#loc1102)
                %offs_n_200 = arith.muli %offs_n_198, %offs_n_199 : i64 loc(#loc1102)
                %offs_n_201 = arith.constant 2147483647 : i64 loc(#loc1102)
                %offs_n_202 = arith.constant -2147483648 : i64 loc(#loc1102)
                %offs_n_203 = arith.cmpi sle, %offs_n_200, %offs_n_201 : i64 loc(#loc1102)
                %offs_n_204 = arith.cmpi sge, %offs_n_200, %offs_n_202 : i64 loc(#loc1102)
                %offs_n_205 = arith.andi %offs_n_203, %offs_n_204 : i1 loc(#loc1102)
                %offs_n_206 = arith.muli %i_192, %offs_n_197 : i32 loc(#loc1102)
                %offs_n_207 = tt.make_range {end = 8192 : i32, start = 0 : i32} : tensor<8192xi32> loc(#loc1103)
                %offs_n_208 = tt.splat %offs_n_206 : i32 -> tensor<8192xi32> loc(#loc1104)
                %offs_n_209 = arith.extsi %offs_n_208 : tensor<8192xi32> to tensor<8192xi64> loc(#loc1104)
                %offs_n_210 = arith.extsi %offs_n_207 : tensor<8192xi32> to tensor<8192xi64> loc(#loc1104)
                %offs_n_211 = arith.addi %offs_n_209, %offs_n_210 : tensor<8192xi64> loc(#loc1104)
                %offs_n_212 = arith.constant 2147483647 : i64 loc(#loc1104)
                %offs_n_213 = arith.constant -2147483648 : i64 loc(#loc1104)
                %offs_n_214 = arith.constant dense<2147483647> : tensor<8192xi64> loc(#loc1104)
                %offs_n_215 = arith.cmpi sle, %offs_n_211, %offs_n_214 : tensor<8192xi64> loc(#loc1104)
                %offs_n_216 = arith.constant dense<-2147483648> : tensor<8192xi64> loc(#loc1104)
                %offs_n_217 = arith.cmpi sge, %offs_n_211, %offs_n_216 : tensor<8192xi64> loc(#loc1104)
                %offs_n_218 = arith.andi %offs_n_215, %offs_n_217 : tensor<8192xi1> loc(#loc1104)
                %offs_n_219 = arith.addi %offs_n_208, %offs_n_207 : tensor<8192xi32> loc(#loc1104)
                %mask_n_220 = arith.constant 262144 : i32 loc(#loc1105)
                %mask_n_221 = arith.constant dense<262144> : tensor<8192xi32> loc(#loc1105)
                %mask_n_222 = arith.cmpi slt, %offs_n_219, %mask_n_221 : tensor<8192xi32> loc(#loc1105)
                %probs_blk = tt.splat %LOGITS_ROW_10 : !tt.ptr<f32> -> tensor<8192x!tt.ptr<f32>> loc(#loc1106)
                %probs_blk_223 = tt.addptr %probs_blk, %offs_n_219 : tensor<8192x!tt.ptr<f32>>, tensor<8192xi32> loc(#loc1106)
                %probs_blk_224 = arith.constant 0xFF800000 : f32 loc(#loc1107)
                %probs_blk_225 = arith.constant dense<0xFF800000> : tensor<8192xf32> loc(#loc1107)
                %probs_blk_226 = tt.load %probs_blk_223, %mask_n_222, %probs_blk_225 : tensor<8192x!tt.ptr<f32>> loc(#loc1107)
                %outlier_mask = tt.splat %min_range_78#3 : f32 -> tensor<8192xf32> loc(#loc1108)
                %outlier_mask_227 = arith.cmpf ogt, %probs_blk_226, %outlier_mask : tensor<8192xf32> loc(#loc1108)
                %outlier_mask_228 = arith.andi %outlier_mask_227, %mask_n_222 : tensor<8192xi1> loc(#loc1109)
                %duplicate_mask = tt.splat %min_range_78#5 : f32 -> tensor<8192xf32> loc(#loc1110)
                %duplicate_mask_229 = arith.subf %probs_blk_226, %duplicate_mask : tensor<8192xf32> loc(#loc1110)
                %duplicate_mask_230 = math.absf %duplicate_mask_229 : tensor<8192xf32> loc(#loc1111)
                %duplicate_mask_231 = arith.constant 9.99999971E-10 : f32 loc(#loc1112)
                %duplicate_mask_232 = arith.constant dense<9.99999971E-10> : tensor<8192xf32> loc(#loc1112)
                %duplicate_mask_233 = arith.cmpf olt, %duplicate_mask_230, %duplicate_mask_232 : tensor<8192xf32> loc(#loc1112)
                %duplicate_count = tt.call @"triton.language.standard.cumsum__u1S8192S__(1,)cconstexpr_0__(2,)cconstexpr_False__(3,)cNone"(%duplicate_mask_233) : (tensor<8192xi1>) -> tensor<8192xi32> loc(#loc1113)
                %duplicate_count_234 = tt.splat %num_kept_193 : i32 -> tensor<8192xi32> loc(#loc1114)
                %duplicate_count_235 = arith.extui %duplicate_count : tensor<8192xi32> to tensor<8192xi64> loc(#loc1114)
                %duplicate_count_236 = arith.extui %duplicate_count_234 : tensor<8192xi32> to tensor<8192xi64> loc(#loc1114)
                %duplicate_count_237 = arith.addi %duplicate_count_235, %duplicate_count_236 : tensor<8192xi64> loc(#loc1114)
                %duplicate_count_238 = arith.constant 4294967295 : i64 loc(#loc1114)
                %duplicate_count_239 = arith.constant 0 : i64 loc(#loc1114)
                %duplicate_count_240 = arith.constant dense<4294967295> : tensor<8192xi64> loc(#loc1114)
                %duplicate_count_241 = arith.cmpi sle, %duplicate_count_237, %duplicate_count_240 : tensor<8192xi64> loc(#loc1114)
                %duplicate_count_242 = arith.constant dense<0> : tensor<8192xi64> loc(#loc1114)
                %duplicate_count_243 = arith.cmpi sge, %duplicate_count_237, %duplicate_count_242 : tensor<8192xi64> loc(#loc1114)
                %duplicate_count_244 = arith.andi %duplicate_count_241, %duplicate_count_243 : tensor<8192xi1> loc(#loc1114)
                %duplicate_count_245 = arith.addi %duplicate_count, %duplicate_count_234 : tensor<8192xi32> loc(#loc1114)
                %duplicate_keep_mask = tt.splat %num_keep_97 : i32 -> tensor<8192xi32> loc(#loc1115)
                %duplicate_keep_mask_246 = arith.cmpi ule, %duplicate_count_245, %duplicate_keep_mask : tensor<8192xi32> loc(#loc1115)
                %duplicate_keep_mask_247 = arith.andi %duplicate_keep_mask_246, %duplicate_mask_233 : tensor<8192xi1> loc(#loc1116)
                %duplicate_remove_mask = arith.constant true loc(#loc1117)
                %duplicate_remove_mask_248 = arith.constant dense<true> : tensor<8192xi1> loc(#loc1117)
                %duplicate_remove_mask_249 = arith.xori %duplicate_keep_mask_247, %duplicate_remove_mask_248 : tensor<8192xi1> loc(#loc1117)
                %duplicate_remove_mask_250 = arith.andi %duplicate_mask_233, %duplicate_remove_mask_249 : tensor<8192xi1> loc(#loc1118)
                %outlier_mask_251 = arith.constant true loc(#loc1119)
                %outlier_mask_252 = arith.constant dense<true> : tensor<8192xi1> loc(#loc1119)
                %outlier_mask_253 = arith.xori %duplicate_remove_mask_250, %outlier_mask_252 : tensor<8192xi1> loc(#loc1119)
                %outlier_mask_254 = arith.andi %outlier_mask_228, %outlier_mask_253 : tensor<8192xi1> loc(#loc1120)
                %num_kept_255 = tt.call @"triton.language.standard.sum__u1S8192S__(1,)cNone_(2,)cconstexpr_False__(3,)cNone"(%duplicate_keep_mask_247) : (tensor<8192xi1>) -> i32 loc(#loc1121)
                %num_kept_256 = arith.extui %num_kept_193 : i32 to i64 loc(#loc1122)
                %num_kept_257 = arith.extui %num_kept_255 : i32 to i64 loc(#loc1122)
                %num_kept_258 = arith.addi %num_kept_256, %num_kept_257 : i64 loc(#loc1122)
                %num_kept_259 = arith.constant 4294967295 : i64 loc(#loc1122)
                %num_kept_260 = arith.constant 0 : i64 loc(#loc1122)
                %num_kept_261 = arith.cmpi sle, %num_kept_258, %num_kept_259 : i64 loc(#loc1122)
                %num_kept_262 = arith.cmpi sge, %num_kept_258, %num_kept_260 : i64 loc(#loc1122)
                %num_kept_263 = arith.andi %num_kept_261, %num_kept_262 : i1 loc(#loc1122)
                %num_kept_264 = arith.addi %num_kept_193, %num_kept_255 : i32 loc(#loc1122)
                %probs_blk_265 = arith.constant 0xFF800000 : f32 loc(#loc1123)
                %probs_blk_266 = arith.constant 0xFF800000 : f32 loc(#loc1123)
                %probs_blk_267 = arith.constant dense<0xFF800000> : tensor<8192xf32> loc(#loc1123)
                %probs_blk_268 = arith.select %outlier_mask_254, %probs_blk_226, %probs_blk_267 : tensor<8192xi1>, tensor<8192xf32> loc(#loc1123)
                %probs_blk_269 = tt.splat %max_logit_76#0 : f32 -> tensor<8192xf32> loc(#loc1124)
                %probs_blk_270 = arith.subf %probs_blk_268, %probs_blk_269 : tensor<8192xf32> loc(#loc1124)
                %probs_blk_271 = math.exp %probs_blk_270 : tensor<8192xf32> loc(#loc1125)
                %sum_exp_logits_272 = tt.call @"triton.language.standard.sum__fp32S8192S__(1,)cNone_(2,)cconstexpr_False__(3,)cNone"(%probs_blk_271) : (tensor<8192xf32>) -> f32 loc(#loc1126)
                %sum_exp_logits_273 = arith.addf %sum_exp_logits_195, %sum_exp_logits_272 : f32 loc(#loc1127)
                %cumulative_pos = tt.call @"triton.language.standard.cumsum__u1S8192S__(1,)cconstexpr_0__(2,)cconstexpr_False__(3,)cNone"(%outlier_mask_254) : (tensor<8192xi1>) -> tensor<8192xi32> loc(#loc1128)
                %cumulative_pos_274 = arith.constant 1 : i32 loc(#loc1129)
                %cumulative_pos_275 = arith.constant 1 : i32 loc(#loc1129)
                %cumulative_pos_276 = arith.constant dense<1> : tensor<8192xi32> loc(#loc1129)
                %cumulative_pos_277 = arith.extui %cumulative_pos : tensor<8192xi32> to tensor<8192xi64> loc(#loc1129)
                %cumulative_pos_278 = arith.extui %cumulative_pos_276 : tensor<8192xi32> to tensor<8192xi64> loc(#loc1129)
                %cumulative_pos_279 = arith.subi %cumulative_pos_277, %cumulative_pos_278 : tensor<8192xi64> loc(#loc1129)
                %cumulative_pos_280 = arith.constant 4294967295 : i64 loc(#loc1129)
                %cumulative_pos_281 = arith.constant 0 : i64 loc(#loc1129)
                %cumulative_pos_282 = arith.constant dense<4294967295> : tensor<8192xi64> loc(#loc1129)
                %cumulative_pos_283 = arith.cmpi sle, %cumulative_pos_279, %cumulative_pos_282 : tensor<8192xi64> loc(#loc1129)
                %cumulative_pos_284 = arith.constant dense<0> : tensor<8192xi64> loc(#loc1129)
                %cumulative_pos_285 = arith.cmpi sge, %cumulative_pos_279, %cumulative_pos_284 : tensor<8192xi64> loc(#loc1129)
                %cumulative_pos_286 = arith.andi %cumulative_pos_283, %cumulative_pos_285 : tensor<8192xi1> loc(#loc1129)
                %cumulative_pos_287 = arith.subi %cumulative_pos, %cumulative_pos_276 : tensor<8192xi32> loc(#loc1129)
                %cumulative_pos_288 = tt.splat %num_outliers_2_196 : i32 -> tensor<8192xi32> loc(#loc1130)
                %cumulative_pos_289 = arith.extui %cumulative_pos_287 : tensor<8192xi32> to tensor<8192xi64> loc(#loc1130)
                %cumulative_pos_290 = arith.extui %cumulative_pos_288 : tensor<8192xi32> to tensor<8192xi64> loc(#loc1130)
                %cumulative_pos_291 = arith.addi %cumulative_pos_289, %cumulative_pos_290 : tensor<8192xi64> loc(#loc1130)
                %cumulative_pos_292 = arith.constant 4294967295 : i64 loc(#loc1130)
                %cumulative_pos_293 = arith.constant 0 : i64 loc(#loc1130)
                %cumulative_pos_294 = arith.constant dense<4294967295> : tensor<8192xi64> loc(#loc1130)
                %cumulative_pos_295 = arith.cmpi sle, %cumulative_pos_291, %cumulative_pos_294 : tensor<8192xi64> loc(#loc1130)
                %cumulative_pos_296 = arith.constant dense<0> : tensor<8192xi64> loc(#loc1130)
                %cumulative_pos_297 = arith.cmpi sge, %cumulative_pos_291, %cumulative_pos_296 : tensor<8192xi64> loc(#loc1130)
                %cumulative_pos_298 = arith.andi %cumulative_pos_295, %cumulative_pos_297 : tensor<8192xi1> loc(#loc1130)
                %cumulative_pos_299 = arith.addi %cumulative_pos_287, %cumulative_pos_288 : tensor<8192xi32> loc(#loc1130)
                %cumulative_pos_300 = arith.bitcast %cumulative_pos_299 : tensor<8192xi32> to tensor<8192xi32> loc(#loc1131)
                %num_outliers_2_301 = tt.call @"triton.language.standard.sum__u1S8192S__(1,)cNone_(2,)cconstexpr_False__(3,)cNone"(%outlier_mask_254) : (tensor<8192xi1>) -> i32 loc(#loc1132)
                %num_outliers_2_302 = arith.extui %num_outliers_2_196 : i32 to i64 loc(#loc1133)
                %num_outliers_2_303 = arith.extui %num_outliers_2_301 : i32 to i64 loc(#loc1133)
                %num_outliers_2_304 = arith.addi %num_outliers_2_302, %num_outliers_2_303 : i64 loc(#loc1133)
                %num_outliers_2_305 = arith.constant 4294967295 : i64 loc(#loc1133)
                %num_outliers_2_306 = arith.constant 0 : i64 loc(#loc1133)
                %num_outliers_2_307 = arith.cmpi sle, %num_outliers_2_304, %num_outliers_2_305 : i64 loc(#loc1133)
                %num_outliers_2_308 = arith.cmpi sge, %num_outliers_2_304, %num_outliers_2_306 : i64 loc(#loc1133)
                %num_outliers_2_309 = arith.andi %num_outliers_2_307, %num_outliers_2_308 : i1 loc(#loc1133)
                %num_outliers_2_310 = arith.addi %num_outliers_2_196, %num_outliers_2_301 : i32 loc(#loc1133)
                %write_pos = arith.constant -1 : i32 loc(#loc1134)
                %write_pos_311 = arith.constant -1 : i32 loc(#loc1134)
                %write_pos_312 = arith.constant dense<-1> : tensor<8192xi32> loc(#loc1134)
                %write_pos_313 = arith.select %outlier_mask_254, %cumulative_pos_300, %write_pos_312 : tensor<8192xi1>, tensor<8192xi32> loc(#loc1134)
                %27 = tt.splat %BUFFER_ROW_21 : !tt.ptr<f32> -> tensor<8192x!tt.ptr<f32>> loc(#loc329)
                %28 = tt.addptr %27, %write_pos_313 : tensor<8192x!tt.ptr<f32>>, tensor<8192xi32> loc(#loc329)
                tt.store %28, %probs_blk_271, %outlier_mask_254 : tensor<8192x!tt.ptr<f32>> loc(#loc330)
                scf.yield %num_kept_264, %mask_n_222, %sum_exp_logits_273, %num_outliers_2_310 : i32, tensor<8192xi1>, f32, i32 loc(#loc331)
              } loc(#loc1829)
              %search_range_163 = arith.bitcast %num_outliers_2_162#3 : i32 to i32 loc(#loc1602)
              %search_iters_164 = arith.constant 4096 : i32 loc(#loc1136)
              %search_iters_165 = arith.constant 4096 : i32 loc(#loc1136)
              %search_iters_166 = arith.extui %num_outliers_2_162#3 : i32 to i64 loc(#loc1136)
              %search_iters_167 = arith.extui %search_iters_165 : i32 to i64 loc(#loc1136)
              %search_iters_168 = arith.addi %search_iters_166, %search_iters_167 : i64 loc(#loc1136)
              %search_iters_169 = arith.constant 4294967295 : i64 loc(#loc1136)
              %search_iters_170 = arith.constant 0 : i64 loc(#loc1136)
              %search_iters_171 = arith.cmpi sle, %search_iters_168, %search_iters_169 : i64 loc(#loc1136)
              %search_iters_172 = arith.cmpi sge, %search_iters_168, %search_iters_170 : i64 loc(#loc1136)
              %search_iters_173 = arith.andi %search_iters_171, %search_iters_172 : i1 loc(#loc1136)
              %search_iters_174 = arith.addi %num_outliers_2_162#3, %search_iters_165 : i32 loc(#loc1136)
              %search_iters_175 = arith.constant 1 : i32 loc(#loc1137)
              %search_iters_176 = arith.constant 1 : i32 loc(#loc1137)
              %search_iters_177 = arith.extui %search_iters_174 : i32 to i64 loc(#loc1137)
              %search_iters_178 = arith.extui %search_iters_176 : i32 to i64 loc(#loc1137)
              %search_iters_179 = arith.subi %search_iters_177, %search_iters_178 : i64 loc(#loc1137)
              %search_iters_180 = arith.constant 4294967295 : i64 loc(#loc1137)
              %search_iters_181 = arith.constant 0 : i64 loc(#loc1137)
              %search_iters_182 = arith.cmpi sle, %search_iters_179, %search_iters_180 : i64 loc(#loc1137)
              %search_iters_183 = arith.cmpi sge, %search_iters_179, %search_iters_181 : i64 loc(#loc1137)
              %search_iters_184 = arith.andi %search_iters_182, %search_iters_183 : i1 loc(#loc1137)
              %search_iters_185 = arith.subi %search_iters_174, %search_iters_176 : i32 loc(#loc1137)
              %search_iters_186 = arith.constant 4096 : i32 loc(#loc1138)
              %search_iters_187 = arith.constant 4096 : i32 loc(#loc1138)
              %search_iters_188 = arith.divui %search_iters_185, %search_iters_187 : i32 loc(#loc1138)
              %search_iters_189 = arith.bitcast %search_iters_188 : i32 to i32 loc(#loc1603)
              %c0_i32_190 = arith.constant 0 : i32 loc(#loc337)
              %c1_i32_191 = arith.constant 1 : i32 loc(#loc337)
              %24 = arith.bitcast %c0_i32_190 : i32 to i32 loc(#loc337)
              %25 = arith.bitcast %search_iters_189 : i32 to i32 loc(#loc337)
              %26 = arith.bitcast %c1_i32_191 : i32 to i32 loc(#loc337)
              %i = ub.poison : i32 loc(#loc1140)
              scf.for %i_192 = %24 to %25 step %26  : i32 {
                %offs_n = arith.constant 4096 : i32 loc(#loc1141)
                %offs_n_193 = arith.constant 4096 : i32 loc(#loc1141)
                %offs_n_194 = arith.extsi %i_192 : i32 to i64 loc(#loc1141)
                %offs_n_195 = arith.extsi %offs_n_193 : i32 to i64 loc(#loc1141)
                %offs_n_196 = arith.muli %offs_n_194, %offs_n_195 : i64 loc(#loc1141)
                %offs_n_197 = arith.constant 2147483647 : i64 loc(#loc1141)
                %offs_n_198 = arith.constant -2147483648 : i64 loc(#loc1141)
                %offs_n_199 = arith.cmpi sle, %offs_n_196, %offs_n_197 : i64 loc(#loc1141)
                %offs_n_200 = arith.cmpi sge, %offs_n_196, %offs_n_198 : i64 loc(#loc1141)
                %offs_n_201 = arith.andi %offs_n_199, %offs_n_200 : i1 loc(#loc1141)
                %offs_n_202 = arith.muli %i_192, %offs_n_193 : i32 loc(#loc1141)
                %offs_n_203 = tt.make_range {end = 4096 : i32, start = 0 : i32} : tensor<4096xi32> loc(#loc1142)
                %offs_n_204 = tt.splat %offs_n_202 : i32 -> tensor<4096xi32> loc(#loc1143)
                %offs_n_205 = arith.extsi %offs_n_204 : tensor<4096xi32> to tensor<4096xi64> loc(#loc1143)
                %offs_n_206 = arith.extsi %offs_n_203 : tensor<4096xi32> to tensor<4096xi64> loc(#loc1143)
                %offs_n_207 = arith.addi %offs_n_205, %offs_n_206 : tensor<4096xi64> loc(#loc1143)
                %offs_n_208 = arith.constant 2147483647 : i64 loc(#loc1143)
                %offs_n_209 = arith.constant -2147483648 : i64 loc(#loc1143)
                %offs_n_210 = arith.constant dense<2147483647> : tensor<4096xi64> loc(#loc1143)
                %offs_n_211 = arith.cmpi sle, %offs_n_207, %offs_n_210 : tensor<4096xi64> loc(#loc1143)
                %offs_n_212 = arith.constant dense<-2147483648> : tensor<4096xi64> loc(#loc1143)
                %offs_n_213 = arith.cmpi sge, %offs_n_207, %offs_n_212 : tensor<4096xi64> loc(#loc1143)
                %offs_n_214 = arith.andi %offs_n_211, %offs_n_213 : tensor<4096xi1> loc(#loc1143)
                %offs_n_215 = arith.addi %offs_n_204, %offs_n_203 : tensor<4096xi32> loc(#loc1143)
                %mask_n_2 = tt.splat %search_range_163 : i32 -> tensor<4096xi32> loc(#loc1144)
                %mask_n_2_216 = arith.cmpi slt, %offs_n_215, %mask_n_2 : tensor<4096xi32> loc(#loc1144)
                %probs_blk = tt.splat %BUFFER_ROW_21 : !tt.ptr<f32> -> tensor<4096x!tt.ptr<f32>> loc(#loc1145)
                %probs_blk_217 = tt.addptr %probs_blk, %offs_n_215 : tensor<4096x!tt.ptr<f32>>, tensor<4096xi32> loc(#loc1145)
                %probs_blk_218 = arith.constant 0.000000e+00 : f32 loc(#loc1146)
                %probs_blk_219 = arith.constant dense<0.000000e+00> : tensor<4096xf32> loc(#loc1146)
                %probs_blk_220 = tt.load %probs_blk_217, %mask_n_2_216, %probs_blk_219 : tensor<4096x!tt.ptr<f32>> loc(#loc1146)
                %probs_blk_221 = tt.splat %num_outliers_2_162#2 : f32 -> tensor<4096xf32> loc(#loc1147)
                %probs_blk_222 = arith.divf %probs_blk_220, %probs_blk_221 : tensor<4096xf32> loc(#loc1147)
                %27 = tt.splat %BUFFER_ROW_21 : !tt.ptr<f32> -> tensor<4096x!tt.ptr<f32>> loc(#loc345)
                %28 = tt.addptr %27, %offs_n_215 : tensor<4096x!tt.ptr<f32>>, tensor<4096xi32> loc(#loc345)
                tt.store %28, %probs_blk_222, %mask_n_2_216 : tensor<4096x!tt.ptr<f32>> loc(#loc346)
              } loc(#loc337)
              scf.yield %num_outliers_2_162#0, %num_outliers_2_162#1, %i, %num_outliers_2_162#2, %num_outliers_2_162#3, %search_range_163, %search_iters_189 : i32, tensor<8192xi1>, i32, f32, i32, i32, i32 loc(#loc337)
            } loc(#loc1063)
            %max_range = arith.subf %max_logit_76#0, %max_logit_76#0 : f32 loc(#loc1148)
            %max_range_132 = math.exp %max_range : f32 loc(#loc1149)
            %max_range_133 = arith.divf %max_range_132, %mask_n_131#3 : f32 loc(#loc1604)
            %min_range_134 = arith.subf %min_range_78#3, %max_logit_76#0 : f32 loc(#loc1151)
            %min_range_135 = math.exp %min_range_134 : f32 loc(#loc1152)
            %min_range_136 = arith.divf %min_range_135, %mask_n_131#3 : f32 loc(#loc1605)
            %p_pivot = arith.constant 1.000000e+00 : f32 loc(#loc1606)
            %num_iters_137 = arith.constant 0 : i32 loc(#loc1155)
            %min_larger_prob = arith.constant 1.000000e+00 : f32 loc(#loc1607)
            %num_min_larger_138 = tt.call @"triton.language.standard.zeros____(1,)cconstexpr_uint32_"() : () -> i32 loc(#loc1608)
            %p_pivots_sum = arith.constant 0.000000e+00 : f32 loc(#loc1609)
            %found_pivot = arith.constant 0 : i32 loc(#loc1610)
            %min_range_139:9 = scf.while (%i = %mask_n_131#2, %num_iters_159 = %num_iters_137, %num_min_larger_160 = %num_min_larger_138, %found_pivot_161 = %found_pivot, %max_range_162 = %max_range_133, %min_range_163 = %min_range_136, %p_pivot_164 = %p_pivot, %min_larger_prob_165 = %min_larger_prob, %p_pivots_sum_166 = %p_pivots_sum) : (i32, i32, i32, i32, f32, f32, f32, f32, f32) -> (i32, i32, i32, i32, f32, f32, f32, f32, f32) {
              %c0_i32_167 = arith.constant 0 : i32 loc(#loc360)
              %20 = arith.cmpi eq, %found_pivot_161, %c0_i32_167 : i32 loc(#loc360)
              scf.condition(%20) %i, %num_iters_159, %num_min_larger_160, %found_pivot_161, %max_range_162, %min_range_163, %p_pivot_164, %min_larger_prob_165, %p_pivots_sum_166 : i32, i32, i32, i32, f32, f32, f32, f32, f32 loc(#loc360)
            } do {
            ^bb0(%i: i32 loc("i"), %num_iters_159: i32 loc("num_iters"), %num_min_larger_160: i32 loc("num_min_larger"(#loc102)), %found_pivot_161: i32 loc("found_pivot"(#loc105)), %max_range_162: f32 loc("max_range"(#loc103)), %min_range_163: f32 loc("min_range"(#loc104)), %p_pivot_164: f32 loc("p_pivot"(#loc361)), %min_larger_prob_165: f32 loc("min_larger_prob"(#loc362)), %p_pivots_sum_166: f32 loc("p_pivots_sum"(#loc363))):
              %p_pivot_0 = arith.subf %max_range_162, %min_range_163 : f32 loc(#loc1164)
              %p_pivot_0_167 = arith.constant 1.000000e+00 : f32 loc(#loc1165)
              %p_pivot_0_168 = arith.constant 1.000000e+00 : f32 loc(#loc1165)
              %p_pivot_0_169 = arith.mulf %p_pivot_0, %p_pivot_0_168 : f32 loc(#loc1165)
              %p_pivot_0_170 = arith.constant 3.000000e+00 : f32 loc(#loc1166)
              %p_pivot_0_171 = arith.constant 3.000000e+00 : f32 loc(#loc1166)
              %p_pivot_0_172 = arith.divf %p_pivot_0_169, %p_pivot_0_171 : f32 loc(#loc1166)
              %max_range_173 = arith.addf %p_pivot_0_172, %min_range_163 : f32 loc(#loc1743)
              %p_pivots_sum_0 = arith.constant 0.000000e+00 : f32 loc(#loc1168)
              %min_larger_0 = arith.constant 1.000000e+00 : f32 loc(#loc1169)
              %num_min_larger_0 = tt.call @"triton.language.standard.zeros____(1,)cconstexpr_uint32_"() : () -> i32 loc(#loc1170)
              %p_pivot_1 = arith.subf %max_range_162, %min_range_163 : f32 loc(#loc1171)
              %p_pivot_1_174 = arith.constant 2.000000e+00 : f32 loc(#loc1172)
              %p_pivot_1_175 = arith.constant 2.000000e+00 : f32 loc(#loc1172)
              %p_pivot_1_176 = arith.mulf %p_pivot_1, %p_pivot_1_175 : f32 loc(#loc1172)
              %p_pivot_1_177 = arith.constant 3.000000e+00 : f32 loc(#loc1173)
              %p_pivot_1_178 = arith.constant 3.000000e+00 : f32 loc(#loc1173)
              %p_pivot_1_179 = arith.divf %p_pivot_1_176, %p_pivot_1_178 : f32 loc(#loc1173)
              %max_range_180 = arith.addf %p_pivot_1_179, %min_range_163 : f32 loc(#loc1744)
              %p_pivots_sum_1 = arith.constant 0.000000e+00 : f32 loc(#loc1175)
              %min_larger_1 = arith.constant 1.000000e+00 : f32 loc(#loc1176)
              %num_min_larger_1 = tt.call @"triton.language.standard.zeros____(1,)cconstexpr_uint32_"() : () -> i32 loc(#loc1177)
              %c0_i32_181 = arith.constant 0 : i32 loc(#loc378)
              %c1_i32_182 = arith.constant 1 : i32 loc(#loc378)
              %20 = arith.bitcast %c0_i32_181 : i32 to i32 loc(#loc378)
              %21 = arith.bitcast %mask_n_131#6 : i32 to i32 loc(#loc378)
              %22 = arith.bitcast %c1_i32_182 : i32 to i32 loc(#loc378)
              %23 = ub.poison : i32 loc(#loc378)
              %p_pivots_sum_183:4 = scf.for %i_201 = %20 to %21 step %22 iter_args(%p_pivots_sum_0_202 = %p_pivots_sum_0, %min_larger_0_203 = %min_larger_0, %p_pivots_sum_1_204 = %p_pivots_sum_1, %min_larger_1_205 = %min_larger_1) -> (f32, f32, f32, f32)  : i32 {
                %offs_n = arith.constant 4096 : i32 loc(#loc1179)
                %offs_n_206 = arith.constant 4096 : i32 loc(#loc1179)
                %offs_n_207 = arith.extsi %i_201 : i32 to i64 loc(#loc1179)
                %offs_n_208 = arith.extsi %offs_n_206 : i32 to i64 loc(#loc1179)
                %offs_n_209 = arith.muli %offs_n_207, %offs_n_208 : i64 loc(#loc1179)
                %offs_n_210 = arith.constant 2147483647 : i64 loc(#loc1179)
                %offs_n_211 = arith.constant -2147483648 : i64 loc(#loc1179)
                %offs_n_212 = arith.cmpi sle, %offs_n_209, %offs_n_210 : i64 loc(#loc1179)
                %offs_n_213 = arith.cmpi sge, %offs_n_209, %offs_n_211 : i64 loc(#loc1179)
                %offs_n_214 = arith.andi %offs_n_212, %offs_n_213 : i1 loc(#loc1179)
                %offs_n_215 = arith.muli %i_201, %offs_n_206 : i32 loc(#loc1179)
                %offs_n_216 = tt.make_range {end = 4096 : i32, start = 0 : i32} : tensor<4096xi32> loc(#loc1180)
                %offs_n_217 = tt.splat %offs_n_215 : i32 -> tensor<4096xi32> loc(#loc1181)
                %offs_n_218 = arith.extsi %offs_n_217 : tensor<4096xi32> to tensor<4096xi64> loc(#loc1181)
                %offs_n_219 = arith.extsi %offs_n_216 : tensor<4096xi32> to tensor<4096xi64> loc(#loc1181)
                %offs_n_220 = arith.addi %offs_n_218, %offs_n_219 : tensor<4096xi64> loc(#loc1181)
                %offs_n_221 = arith.constant 2147483647 : i64 loc(#loc1181)
                %offs_n_222 = arith.constant -2147483648 : i64 loc(#loc1181)
                %offs_n_223 = arith.constant dense<2147483647> : tensor<4096xi64> loc(#loc1181)
                %offs_n_224 = arith.cmpi sle, %offs_n_220, %offs_n_223 : tensor<4096xi64> loc(#loc1181)
                %offs_n_225 = arith.constant dense<-2147483648> : tensor<4096xi64> loc(#loc1181)
                %offs_n_226 = arith.cmpi sge, %offs_n_220, %offs_n_225 : tensor<4096xi64> loc(#loc1181)
                %offs_n_227 = arith.andi %offs_n_224, %offs_n_226 : tensor<4096xi1> loc(#loc1181)
                %offs_n_228 = arith.addi %offs_n_217, %offs_n_216 : tensor<4096xi32> loc(#loc1181)
                %mask_n_2 = tt.splat %mask_n_131#5 : i32 -> tensor<4096xi32> loc(#loc1182)
                %mask_n_2_229 = arith.cmpi slt, %offs_n_228, %mask_n_2 : tensor<4096xi32> loc(#loc1182)
                %probs_blk = tt.splat %BUFFER_ROW_21 : !tt.ptr<f32> -> tensor<4096x!tt.ptr<f32>> loc(#loc1183)
                %probs_blk_230 = tt.addptr %probs_blk, %offs_n_228 : tensor<4096x!tt.ptr<f32>>, tensor<4096xi32> loc(#loc1183)
                %probs_blk_231 = arith.constant 0.000000e+00 : f32 loc(#loc1184)
                %probs_blk_232 = arith.constant dense<0.000000e+00> : tensor<4096xf32> loc(#loc1184)
                %probs_blk_233 = tt.load %probs_blk_230, %mask_n_2_229, %probs_blk_232 : tensor<4096x!tt.ptr<f32>> loc(#loc1184)
                %p_pivots_sum_0_234 = tt.splat %max_range_173 : f32 -> tensor<4096xf32> loc(#loc1185)
                %p_pivots_sum_0_235 = arith.cmpf ogt, %probs_blk_233, %p_pivots_sum_0_234 : tensor<4096xf32> loc(#loc1185)
                %p_pivots_sum_0_236 = arith.uitofp %p_pivots_sum_0_235 : tensor<4096xi1> to tensor<4096xf32> loc(#loc1186)
                %p_pivots_sum_0_237 = arith.mulf %probs_blk_233, %p_pivots_sum_0_236 : tensor<4096xf32> loc(#loc1186)
                %p_pivots_sum_0_238 = tt.call @"triton.language.standard.sum__fp32S4096S__(1,)cNone_(2,)cconstexpr_False__(3,)cNone"(%p_pivots_sum_0_237) : (tensor<4096xf32>) -> f32 loc(#loc1187)
                %p_pivots_sum_0_239 = arith.addf %p_pivots_sum_0_202, %p_pivots_sum_0_238 : f32 loc(#loc1188)
                %masked_larger_0 = tt.splat %max_range_173 : f32 -> tensor<4096xf32> loc(#loc1189)
                %masked_larger_0_240 = arith.cmpf ogt, %probs_blk_233, %masked_larger_0 : tensor<4096xf32> loc(#loc1189)
                %masked_larger_0_241 = arith.constant 1.000000e+00 : f32 loc(#loc1190)
                %masked_larger_0_242 = arith.constant 1.000000e+00 : f32 loc(#loc1190)
                %masked_larger_0_243 = arith.constant dense<1.000000e+00> : tensor<4096xf32> loc(#loc1190)
                %masked_larger_0_244 = arith.select %masked_larger_0_240, %probs_blk_233, %masked_larger_0_243 : tensor<4096xi1>, tensor<4096xf32> loc(#loc1190)
                %min_larger_0_245 = tt.call @"triton.language.standard.min__fp32S4096S__(1,)cNone_(2,)cconstexpr_False__(3,)cconstexpr_True__(4,)cconstexpr_False_"(%masked_larger_0_244) : (tensor<4096xf32>) -> f32 loc(#loc1191)
                %min_larger_0_246 = arith.minnumf %min_larger_0_203, %min_larger_0_245 : f32 loc(#loc1192)
                %p_pivots_sum_1_247 = tt.splat %max_range_180 : f32 -> tensor<4096xf32> loc(#loc1193)
                %p_pivots_sum_1_248 = arith.cmpf ogt, %probs_blk_233, %p_pivots_sum_1_247 : tensor<4096xf32> loc(#loc1193)
                %p_pivots_sum_1_249 = arith.uitofp %p_pivots_sum_1_248 : tensor<4096xi1> to tensor<4096xf32> loc(#loc1194)
                %p_pivots_sum_1_250 = arith.mulf %probs_blk_233, %p_pivots_sum_1_249 : tensor<4096xf32> loc(#loc1194)
                %p_pivots_sum_1_251 = tt.call @"triton.language.standard.sum__fp32S4096S__(1,)cNone_(2,)cconstexpr_False__(3,)cNone"(%p_pivots_sum_1_250) : (tensor<4096xf32>) -> f32 loc(#loc1195)
                %p_pivots_sum_1_252 = arith.addf %p_pivots_sum_1_204, %p_pivots_sum_1_251 : f32 loc(#loc1196)
                %masked_larger_1 = tt.splat %max_range_180 : f32 -> tensor<4096xf32> loc(#loc1197)
                %masked_larger_1_253 = arith.cmpf ogt, %probs_blk_233, %masked_larger_1 : tensor<4096xf32> loc(#loc1197)
                %masked_larger_1_254 = arith.constant 1.000000e+00 : f32 loc(#loc1198)
                %masked_larger_1_255 = arith.constant 1.000000e+00 : f32 loc(#loc1198)
                %masked_larger_1_256 = arith.constant dense<1.000000e+00> : tensor<4096xf32> loc(#loc1198)
                %masked_larger_1_257 = arith.select %masked_larger_1_253, %probs_blk_233, %masked_larger_1_256 : tensor<4096xi1>, tensor<4096xf32> loc(#loc1198)
                %min_larger_1_258 = tt.call @"triton.language.standard.min__fp32S4096S__(1,)cNone_(2,)cconstexpr_False__(3,)cconstexpr_True__(4,)cconstexpr_False_"(%masked_larger_1_257) : (tensor<4096xf32>) -> f32 loc(#loc1199)
                %min_larger_1_259 = arith.minnumf %min_larger_1_205, %min_larger_1_258 : f32 loc(#loc1200)
                scf.yield %p_pivots_sum_0_239, %min_larger_0_246, %p_pivots_sum_1_252, %min_larger_1_259 : f32, f32, f32, f32 loc(#loc401)
              } loc(#loc1831)
              %c0_i32_184 = arith.constant 0 : i32 loc(#loc402)
              %c1_i32_185 = arith.constant 1 : i32 loc(#loc402)
              %24 = arith.bitcast %c0_i32_184 : i32 to i32 loc(#loc402)
              %25 = arith.bitcast %mask_n_131#6 : i32 to i32 loc(#loc402)
              %26 = arith.bitcast %c1_i32_185 : i32 to i32 loc(#loc402)
              %27 = ub.poison : i32 loc(#loc402)
              %num_min_larger_186:2 = scf.for %i_201 = %24 to %25 step %26 iter_args(%num_min_larger_0_202 = %num_min_larger_0, %num_min_larger_1_203 = %num_min_larger_1) -> (i32, i32)  : i32 {
                %offs_n = arith.constant 4096 : i32 loc(#loc1202)
                %offs_n_204 = arith.constant 4096 : i32 loc(#loc1202)
                %offs_n_205 = arith.extsi %i_201 : i32 to i64 loc(#loc1202)
                %offs_n_206 = arith.extsi %offs_n_204 : i32 to i64 loc(#loc1202)
                %offs_n_207 = arith.muli %offs_n_205, %offs_n_206 : i64 loc(#loc1202)
                %offs_n_208 = arith.constant 2147483647 : i64 loc(#loc1202)
                %offs_n_209 = arith.constant -2147483648 : i64 loc(#loc1202)
                %offs_n_210 = arith.cmpi sle, %offs_n_207, %offs_n_208 : i64 loc(#loc1202)
                %offs_n_211 = arith.cmpi sge, %offs_n_207, %offs_n_209 : i64 loc(#loc1202)
                %offs_n_212 = arith.andi %offs_n_210, %offs_n_211 : i1 loc(#loc1202)
                %offs_n_213 = arith.muli %i_201, %offs_n_204 : i32 loc(#loc1202)
                %offs_n_214 = tt.make_range {end = 4096 : i32, start = 0 : i32} : tensor<4096xi32> loc(#loc1203)
                %offs_n_215 = tt.splat %offs_n_213 : i32 -> tensor<4096xi32> loc(#loc1204)
                %offs_n_216 = arith.extsi %offs_n_215 : tensor<4096xi32> to tensor<4096xi64> loc(#loc1204)
                %offs_n_217 = arith.extsi %offs_n_214 : tensor<4096xi32> to tensor<4096xi64> loc(#loc1204)
                %offs_n_218 = arith.addi %offs_n_216, %offs_n_217 : tensor<4096xi64> loc(#loc1204)
                %offs_n_219 = arith.constant 2147483647 : i64 loc(#loc1204)
                %offs_n_220 = arith.constant -2147483648 : i64 loc(#loc1204)
                %offs_n_221 = arith.constant dense<2147483647> : tensor<4096xi64> loc(#loc1204)
                %offs_n_222 = arith.cmpi sle, %offs_n_218, %offs_n_221 : tensor<4096xi64> loc(#loc1204)
                %offs_n_223 = arith.constant dense<-2147483648> : tensor<4096xi64> loc(#loc1204)
                %offs_n_224 = arith.cmpi sge, %offs_n_218, %offs_n_223 : tensor<4096xi64> loc(#loc1204)
                %offs_n_225 = arith.andi %offs_n_222, %offs_n_224 : tensor<4096xi1> loc(#loc1204)
                %offs_n_226 = arith.addi %offs_n_215, %offs_n_214 : tensor<4096xi32> loc(#loc1204)
                %mask_n_2 = tt.splat %mask_n_131#5 : i32 -> tensor<4096xi32> loc(#loc1205)
                %mask_n_2_227 = arith.cmpi slt, %offs_n_226, %mask_n_2 : tensor<4096xi32> loc(#loc1205)
                %probs_blk = tt.splat %BUFFER_ROW_21 : !tt.ptr<f32> -> tensor<4096x!tt.ptr<f32>> loc(#loc1206)
                %probs_blk_228 = tt.addptr %probs_blk, %offs_n_226 : tensor<4096x!tt.ptr<f32>>, tensor<4096xi32> loc(#loc1206)
                %probs_blk_229 = arith.constant 0.000000e+00 : f32 loc(#loc1207)
                %probs_blk_230 = arith.constant dense<0.000000e+00> : tensor<4096xf32> loc(#loc1207)
                %probs_blk_231 = tt.load %probs_blk_228, %mask_n_2_227, %probs_blk_230 : tensor<4096x!tt.ptr<f32>> loc(#loc1207)
                %num_min_larger_0_232 = tt.splat %p_pivots_sum_183#1 : f32 -> tensor<4096xf32> loc(#loc1208)
                %num_min_larger_0_233 = arith.subf %probs_blk_231, %num_min_larger_0_232 : tensor<4096xf32> loc(#loc1208)
                %num_min_larger_0_234 = math.absf %num_min_larger_0_233 : tensor<4096xf32> loc(#loc1209)
                %num_min_larger_0_235 = arith.constant 9.99999971E-10 : f32 loc(#loc1210)
                %num_min_larger_0_236 = arith.constant dense<9.99999971E-10> : tensor<4096xf32> loc(#loc1210)
                %num_min_larger_0_237 = arith.cmpf olt, %num_min_larger_0_234, %num_min_larger_0_236 : tensor<4096xf32> loc(#loc1210)
                %num_min_larger_0_238 = tt.call @"triton.language.standard.sum__u1S4096S__(1,)cNone_(2,)cconstexpr_False__(3,)cNone"(%num_min_larger_0_237) : (tensor<4096xi1>) -> i32 loc(#loc1211)
                %num_min_larger_0_239 = arith.extui %num_min_larger_0_202 : i32 to i64 loc(#loc1212)
                %num_min_larger_0_240 = arith.extui %num_min_larger_0_238 : i32 to i64 loc(#loc1212)
                %num_min_larger_0_241 = arith.addi %num_min_larger_0_239, %num_min_larger_0_240 : i64 loc(#loc1212)
                %num_min_larger_0_242 = arith.constant 4294967295 : i64 loc(#loc1212)
                %num_min_larger_0_243 = arith.constant 0 : i64 loc(#loc1212)
                %num_min_larger_0_244 = arith.cmpi sle, %num_min_larger_0_241, %num_min_larger_0_242 : i64 loc(#loc1212)
                %num_min_larger_0_245 = arith.cmpi sge, %num_min_larger_0_241, %num_min_larger_0_243 : i64 loc(#loc1212)
                %num_min_larger_0_246 = arith.andi %num_min_larger_0_244, %num_min_larger_0_245 : i1 loc(#loc1212)
                %num_min_larger_0_247 = arith.addi %num_min_larger_0_202, %num_min_larger_0_238 : i32 loc(#loc1212)
                %num_min_larger_1_248 = tt.splat %p_pivots_sum_183#3 : f32 -> tensor<4096xf32> loc(#loc1213)
                %num_min_larger_1_249 = arith.subf %probs_blk_231, %num_min_larger_1_248 : tensor<4096xf32> loc(#loc1213)
                %num_min_larger_1_250 = math.absf %num_min_larger_1_249 : tensor<4096xf32> loc(#loc1214)
                %num_min_larger_1_251 = arith.constant 9.99999971E-10 : f32 loc(#loc1215)
                %num_min_larger_1_252 = arith.constant dense<9.99999971E-10> : tensor<4096xf32> loc(#loc1215)
                %num_min_larger_1_253 = arith.cmpf olt, %num_min_larger_1_250, %num_min_larger_1_252 : tensor<4096xf32> loc(#loc1215)
                %num_min_larger_1_254 = tt.call @"triton.language.standard.sum__u1S4096S__(1,)cNone_(2,)cconstexpr_False__(3,)cNone"(%num_min_larger_1_253) : (tensor<4096xi1>) -> i32 loc(#loc1216)
                %num_min_larger_1_255 = arith.extui %num_min_larger_1_203 : i32 to i64 loc(#loc1217)
                %num_min_larger_1_256 = arith.extui %num_min_larger_1_254 : i32 to i64 loc(#loc1217)
                %num_min_larger_1_257 = arith.addi %num_min_larger_1_255, %num_min_larger_1_256 : i64 loc(#loc1217)
                %num_min_larger_1_258 = arith.constant 4294967295 : i64 loc(#loc1217)
                %num_min_larger_1_259 = arith.constant 0 : i64 loc(#loc1217)
                %num_min_larger_1_260 = arith.cmpi sle, %num_min_larger_1_257, %num_min_larger_1_258 : i64 loc(#loc1217)
                %num_min_larger_1_261 = arith.cmpi sge, %num_min_larger_1_257, %num_min_larger_1_259 : i64 loc(#loc1217)
                %num_min_larger_1_262 = arith.andi %num_min_larger_1_260, %num_min_larger_1_261 : i1 loc(#loc1217)
                %num_min_larger_1_263 = arith.addi %num_min_larger_1_203, %num_min_larger_1_254 : i32 loc(#loc1217)
                scf.yield %num_min_larger_0_247, %num_min_larger_1_263 : i32, i32 loc(#loc419)
              } loc(#loc1746)
              %28 = arith.cmpf oge, %p_pivots_sum_183#2, %p_103 : f32 loc(#loc420)
              %29 = arith.uitofp %num_min_larger_186#1 : i32 to f32 loc(#loc421)
              %30 = arith.mulf %p_pivots_sum_183#3, %29 : f32 loc(#loc421)
              %31 = arith.subf %p_pivots_sum_183#2, %30 : f32 loc(#loc422)
              %32 = arith.cmpf olt, %31, %p_103 : f32 loc(#loc423)
              %33 = arith.andi %28, %32 : i1 loc(#loc424)
              %p_pivots_sum_187:5 = scf.if %33 -> (i32, i32, f32, f32, f32) {
                %found_pivot_201 = arith.constant 1 : i32 loc(#loc1617)
                scf.yield %num_min_larger_186#1, %found_pivot_201, %max_range_180, %p_pivots_sum_183#3, %p_pivots_sum_183#2 : i32, i32, f32, f32, f32 loc(#loc1617)
              } else {
                scf.yield %num_min_larger_160, %found_pivot_161, %p_pivot_164, %min_larger_prob_165, %p_pivots_sum_166 : i32, i32, f32, f32, f32 loc(#loc425)
              } loc(#loc1778)
              %34 = arith.cmpf oge, %p_pivots_sum_183#0, %p_103 : f32 loc(#loc427)
              %35 = arith.uitofp %num_min_larger_186#0 : i32 to f32 loc(#loc428)
              %36 = arith.mulf %p_pivots_sum_183#1, %35 : f32 loc(#loc428)
              %37 = arith.subf %p_pivots_sum_183#0, %36 : f32 loc(#loc429)
              %38 = arith.cmpf olt, %37, %p_103 : f32 loc(#loc430)
              %39 = arith.andi %34, %38 : i1 loc(#loc431)
              %p_pivot_188:5 = scf.if %39 -> (i32, i32, f32, f32, f32) {
                %found_pivot_201 = arith.constant 1 : i32 loc(#loc1619)
                scf.yield %num_min_larger_186#0, %found_pivot_201, %max_range_173, %p_pivots_sum_183#1, %p_pivots_sum_183#0 : i32, i32, f32, f32, f32 loc(#loc1619)
              } else {
                scf.yield %p_pivots_sum_187#0, %p_pivots_sum_187#1, %p_pivots_sum_187#2, %p_pivots_sum_187#3, %p_pivots_sum_187#4 : i32, i32, f32, f32, f32 loc(#loc432)
              } loc(#loc1618)
              %40 = arith.cmpf ogt, %p_pivots_sum_183#2, %p_103 : f32 loc(#loc434)
              %41 = scf.if %40 -> (f32) {
                scf.yield %max_range_180 : f32 loc(#loc435)
              } else {
                %49 = arith.cmpf ogt, %p_pivots_sum_183#0, %p_103 : f32 loc(#loc436)
                %min_range_201 = scf.if %49 -> (f32) {
                  scf.yield %max_range_173 : f32 loc(#loc437)
                } else {
                  scf.yield %min_range_163 : f32 loc(#loc437)
                } loc(#loc1222)
                scf.yield %min_range_201 : f32 loc(#loc437)
              } loc(#loc435)
              %42 = arith.cmpf olt, %p_pivots_sum_183#0, %p_103 : f32 loc(#loc438)
              %43 = scf.if %42 -> (f32) {
                scf.yield %max_range_173 : f32 loc(#loc439)
              } else {
                %49 = arith.cmpf olt, %p_pivots_sum_183#2, %p_103 : f32 loc(#loc440)
                %max_range_201 = scf.if %49 -> (f32) {
                  scf.yield %max_range_180 : f32 loc(#loc441)
                } else {
                  scf.yield %max_range_162 : f32 loc(#loc441)
                } loc(#loc1223)
                scf.yield %max_range_201 : f32 loc(#loc441)
              } loc(#loc439)
              %num_iters_189 = arith.constant 1 : i32 loc(#loc1224)
              %num_iters_190 = arith.constant 1 : i32 loc(#loc1224)
              %num_iters_191 = arith.extsi %num_iters_159 : i32 to i64 loc(#loc1224)
              %num_iters_192 = arith.extsi %num_iters_190 : i32 to i64 loc(#loc1224)
              %num_iters_193 = arith.addi %num_iters_191, %num_iters_192 : i64 loc(#loc1224)
              %num_iters_194 = arith.constant 2147483647 : i64 loc(#loc1224)
              %num_iters_195 = arith.constant -2147483648 : i64 loc(#loc1224)
              %num_iters_196 = arith.cmpi sle, %num_iters_193, %num_iters_194 : i64 loc(#loc1224)
              %num_iters_197 = arith.cmpi sge, %num_iters_193, %num_iters_195 : i64 loc(#loc1224)
              %num_iters_198 = arith.andi %num_iters_196, %num_iters_197 : i1 loc(#loc1224)
              %num_iters_199 = arith.addi %num_iters_159, %num_iters_190 : i32 loc(#loc1224)
              %44 = arith.subf %43, %41 : f32 loc(#loc443)
              %cst_200 = arith.constant 9.99999971E-10 : f32 loc(#loc444)
              %45 = arith.cmpf olt, %44, %cst_200 : f32 loc(#loc444)
              %c18_i32 = arith.constant 18 : i32 loc(#loc445)
              %46 = arith.cmpi sge, %num_iters_199, %c18_i32 : i32 loc(#loc445)
              %47 = arith.ori %45, %46 : i1 loc(#loc446)
              %48:2 = scf.if %47 -> (i32, f32) {
                %p_pivot_201 = arith.addf %43, %41 : f32 loc(#loc1225)
                %p_pivot_202 = arith.constant 2.000000e+00 : f32 loc(#loc1226)
                %p_pivot_203 = arith.constant 2.000000e+00 : f32 loc(#loc1226)
                %p_pivot_204 = arith.divf %p_pivot_201, %p_pivot_203 : f32 loc(#loc1620)
                %found_pivot_205 = arith.constant 1 : i32 loc(#loc1621)
                scf.yield %found_pivot_205, %p_pivot_204 : i32, f32 loc(#loc1621)
              } else {
                scf.yield %p_pivot_188#1, %p_pivot_188#2 : i32, f32 loc(#loc447)
              } loc(#loc447)
              scf.yield %27, %num_iters_199, %p_pivot_188#0, %48#0, %43, %41, %48#1, %p_pivot_188#3, %p_pivot_188#4 : i32, i32, i32, i32, f32, f32, f32, f32, f32 loc(#loc451)
            } loc(#loc1903)
            %duplicate_logit_140 = arith.mulf %min_range_139#7, %mask_n_131#3 : f32 loc(#loc1228)
            %duplicate_logit_141 = math.log %duplicate_logit_140 : f32 loc(#loc1229)
            %duplicate_logit_142 = arith.addf %duplicate_logit_141, %max_logit_76#0 : f32 loc(#loc1622)
            %num_keep_143 = arith.subf %min_range_139#8, %p_103 : f32 loc(#loc1231)
            %num_keep_144 = arith.divf %num_keep_143, %min_range_139#7 : f32 loc(#loc1232)
            %num_keep_145 = arith.fptoui %num_keep_144 : f32 to i32 loc(#loc1233)
            %num_keep_146 = arith.extui %min_range_139#2 : i32 to i64 loc(#loc1234)
            %num_keep_147 = arith.extui %num_keep_145 : i32 to i64 loc(#loc1234)
            %num_keep_148 = arith.subi %num_keep_146, %num_keep_147 : i64 loc(#loc1234)
            %num_keep_149 = arith.constant 4294967295 : i64 loc(#loc1234)
            %num_keep_150 = arith.constant 0 : i64 loc(#loc1234)
            %num_keep_151 = arith.cmpi sle, %num_keep_148, %num_keep_149 : i64 loc(#loc1234)
            %num_keep_152 = arith.cmpi sge, %num_keep_148, %num_keep_150 : i64 loc(#loc1234)
            %num_keep_153 = arith.andi %num_keep_151, %num_keep_152 : i1 loc(#loc1234)
            %num_keep_154 = arith.subi %min_range_139#2, %num_keep_145 : i32 loc(#loc1623)
            %num_kept_155 = tt.call @"triton.language.standard.zeros____(1,)cconstexpr_uint32_"() : () -> i32 loc(#loc1624)
            %final_pivot_156 = arith.mulf %min_range_139#6, %mask_n_131#3 : f32 loc(#loc1236)
            %final_pivot_157 = math.log %final_pivot_156 : f32 loc(#loc1237)
            %final_pivot_158 = arith.addf %final_pivot_157, %max_logit_76#0 : f32 loc(#loc1625)
            scf.yield %final_pivot_158, %duplicate_logit_142, %min_range_139#2, %num_keep_154, %num_kept_155, %min_range_78#3, %mask_n_131#1, %min_range_139#0, %min_range_139#1, %min_range_139#2, %min_range_139#3, %min_range_139#4, %min_range_139#5 : f32, f32, i32, i32, i32, f32, tensor<8192xi1>, i32, i32, i32, i32, f32, f32 loc(#loc1625)
          } else {
            scf.yield %final_pivot_101, %min_range_78#5, %min_range_78#6, %num_keep_97, %num_kept_98, %min_logit_77, %min_range_78#0, %min_range_78#1, %min_range_78#2, %min_range_78#6, %min_range_78#7, %min_range_78#8, %min_range_78#9 : f32, f32, i32, i32, i32, f32, tensor<8192xi1>, i32, i32, i32, i32, f32, f32 loc(#loc243)
          } loc(#loc1883)
          scf.yield %min_range_105#0, %min_range_105#1, %min_range_105#2, %min_range_105#3, %min_range_105#4, %min_range_105#5, %min_range_105#6, %min_range_105#7, %min_range_105#8, %min_range_105#9, %min_range_105#10, %min_range_105#11, %min_range_105#12 : f32, f32, i32, i32, i32, f32, tensor<8192xi1>, i32, i32, i32, i32, f32, f32 loc(#loc1883)
        } else {
          scf.yield %final_pivot_101, %min_range_78#5, %min_range_78#6, %num_keep_97, %num_kept_98, %min_logit_77, %min_range_78#0, %min_range_78#1, %min_range_78#2, %min_range_78#6, %min_range_78#7, %min_range_78#8, %min_range_78#9 : f32, f32, i32, i32, i32, f32, tensor<8192xi1>, i32, i32, i32, i32, f32, f32 loc(#loc239)
        } loc(#loc1795)
        scf.yield %min_logit_102#0, %min_logit_102#1, %min_logit_102#2, %min_logit_102#3, %min_logit_102#4, %max_logit_76#0, %min_logit_102#5 : f32, f32, i32, i32, i32, f32, f32 loc(#loc1795)
      } else {
        scf.yield %final_pivot, %duplicate_logit, %num_duplicate_logit, %num_keep, %num_kept, %max_logit, %min_logit : f32, f32, i32, i32, i32, f32, f32 loc(#loc18)
      } loc(#loc1887)
      %cst = arith.constant 0xFF800000 : f32 loc(#loc463)
      %5 = arith.cmpf oeq, %min_logit_23#0, %cst : f32 loc(#loc463)
      %final_pivot_24:7 = scf.if %5 -> (f32, f32, i32, i32, i32, f32, f32) {
        %p = tt.addptr %P, %row_id : !tt.ptr<f32>, i32 loc(#loc1240)
        %p_25 = tt.load %p : !tt.ptr<f32> loc(#loc1241)
        %cst_26 = arith.constant 1.000000e+00 : f32 loc(#loc467)
        %9 = arith.cmpf olt, %p_25, %cst_26 : f32 loc(#loc467)
        %min_logit_27:7 = scf.if %9 -> (f32, f32, i32, i32, i32, f32, f32) {
          %offs = tt.make_range {end = 8192 : i32, start = 0 : i32} : tensor<8192xi32> loc(#loc1243)
          %mask_n = arith.constant 262144 : i32 loc(#loc1244)
          %mask_n_28 = arith.constant dense<262144> : tensor<8192xi32> loc(#loc1244)
          %mask_n_29 = arith.cmpi slt, %offs, %mask_n_28 : tensor<8192xi32> loc(#loc1244)
          %logits_blk0 = tt.splat %LOGITS_ROW_10 : !tt.ptr<f32> -> tensor<8192x!tt.ptr<f32>> loc(#loc1245)
          %logits_blk0_30 = tt.addptr %logits_blk0, %offs : tensor<8192x!tt.ptr<f32>>, tensor<8192xi32> loc(#loc1245)
          %logits_blk0_31 = arith.constant 0xFF800000 : f32 loc(#loc1246)
          %logits_blk0_32 = arith.constant dense<0xFF800000> : tensor<8192xf32> loc(#loc1246)
          %logits_blk0_33 = tt.load %logits_blk0_30, %mask_n_29, %logits_blk0_32 : tensor<8192x!tt.ptr<f32>> loc(#loc1246)
          %finite_mask = arith.constant 0xFF800000 : f32 loc(#loc1247)
          %finite_mask_34 = arith.constant dense<0xFF800000> : tensor<8192xf32> loc(#loc1247)
          %finite_mask_35 = arith.cmpf ogt, %logits_blk0_33, %finite_mask_34 : tensor<8192xf32> loc(#loc1247)
          %finite_mask_36 = arith.andi %finite_mask_35, %mask_n_29 : tensor<8192xi1> loc(#loc1248)
          %num_finite = tt.call @"triton.language.standard.sum__u1S8192S__(1,)cNone_(2,)cconstexpr_False__(3,)cNone"(%finite_mask_36) : (tensor<8192xi1>) -> i32 loc(#loc1249)
          %finite_logits = arith.constant 0.000000e+00 : f32 loc(#loc1250)
          %finite_logits_37 = arith.constant 0.000000e+00 : f32 loc(#loc1250)
          %finite_logits_38 = arith.constant dense<0.000000e+00> : tensor<8192xf32> loc(#loc1250)
          %finite_logits_39 = arith.select %finite_mask_36, %logits_blk0_33, %finite_logits_38 : tensor<8192xi1>, tensor<8192xf32> loc(#loc1250)
          %avg_logit = arith.constant 0 : i32 loc(#loc1251)
          %avg_logit_40 = arith.bitcast %avg_logit : i32 to i32 loc(#loc1251)
          %avg_logit_41 = arith.cmpi ugt, %num_finite, %avg_logit_40 : i32 loc(#loc1251)
          %avg_logit_42 = tt.call @"triton.language.standard.sum__fp32S8192S__(1,)cNone_(2,)cconstexpr_False__(3,)cNone"(%finite_logits_39) : (tensor<8192xf32>) -> f32 loc(#loc1252)
          %avg_logit_43 = arith.uitofp %num_finite : i32 to f32 loc(#loc1253)
          %avg_logit_44 = arith.divf %avg_logit_42, %avg_logit_43 : f32 loc(#loc1253)
          %avg_logit_45 = arith.constant 0.000000e+00 : f32 loc(#loc1254)
          %avg_logit_46 = arith.constant 0.000000e+00 : f32 loc(#loc1254)
          %avg_logit_47 = arith.select %avg_logit_41, %avg_logit_44, %avg_logit_46 : f32 loc(#loc1254)
          %sq_avg_logit = arith.constant 0 : i32 loc(#loc1255)
          %sq_avg_logit_48 = arith.bitcast %sq_avg_logit : i32 to i32 loc(#loc1255)
          %sq_avg_logit_49 = arith.cmpi ugt, %num_finite, %sq_avg_logit_48 : i32 loc(#loc1255)
          %sq_avg_logit_50 = arith.mulf %finite_logits_39, %finite_logits_39 : tensor<8192xf32> loc(#loc1256)
          %sq_avg_logit_51 = tt.call @"triton.language.standard.sum__fp32S8192S__(1,)cNone_(2,)cconstexpr_False__(3,)cNone"(%sq_avg_logit_50) : (tensor<8192xf32>) -> f32 loc(#loc1257)
          %sq_avg_logit_52 = arith.uitofp %num_finite : i32 to f32 loc(#loc1258)
          %sq_avg_logit_53 = arith.divf %sq_avg_logit_51, %sq_avg_logit_52 : f32 loc(#loc1258)
          %sq_avg_logit_54 = arith.constant 0.000000e+00 : f32 loc(#loc1259)
          %sq_avg_logit_55 = arith.constant 0.000000e+00 : f32 loc(#loc1259)
          %sq_avg_logit_56 = arith.select %sq_avg_logit_49, %sq_avg_logit_53, %sq_avg_logit_55 : f32 loc(#loc1259)
          %std_logit = arith.mulf %avg_logit_47, %avg_logit_47 : f32 loc(#loc1260)
          %std_logit_57 = arith.subf %sq_avg_logit_56, %std_logit : f32 loc(#loc1261)
          %std_logit_58 = arith.constant 0.000000e+00 : f32 loc(#loc1262)
          %std_logit_59 = arith.maxnumf %std_logit_57, %std_logit_58 : f32 loc(#loc1262)
          %std_logit_60 = math.sqrt %std_logit_59 : f32 loc(#loc1263)
          %max_sample = arith.constant 1.000000e+01 : f32 loc(#loc1264)
          %max_sample_61 = arith.constant 1.000000e+01 : f32 loc(#loc1264)
          %max_sample_62 = arith.mulf %std_logit_60, %max_sample_61 : f32 loc(#loc1264)
          %max_sample_63 = arith.addf %avg_logit_47, %max_sample_62 : f32 loc(#loc1265)
          %sum_exp_logits = arith.constant 0.000000e+00 : f32 loc(#loc1266)
          %c0_i32 = arith.constant 0 : i32 loc(#loc493)
          %c32_i32 = arith.constant 32 : i32 loc(#loc493)
          %c1_i32 = arith.constant 1 : i32 loc(#loc493)
          %10 = arith.bitcast %c0_i32 : i32 to i32 loc(#loc493)
          %11 = arith.bitcast %c32_i32 : i32 to i32 loc(#loc493)
          %12 = arith.bitcast %c1_i32 : i32 to i32 loc(#loc493)
          %13 = ub.poison : i32 loc(#loc493)
          %max_logit_64:4 = scf.for %i = %10 to %11 step %12 iter_args(%max_logit_110 = %min_logit_23#5, %min_logit_111 = %min_logit_23#6, %mask_n_112 = %mask_n_29, %sum_exp_logits_113 = %sum_exp_logits) -> (f32, f32, tensor<8192xi1>, f32)  : i32 {
            %offs_n = arith.constant 8192 : i32 loc(#loc1268)
            %offs_n_114 = arith.constant 8192 : i32 loc(#loc1268)
            %offs_n_115 = arith.extsi %i : i32 to i64 loc(#loc1268)
            %offs_n_116 = arith.extsi %offs_n_114 : i32 to i64 loc(#loc1268)
            %offs_n_117 = arith.muli %offs_n_115, %offs_n_116 : i64 loc(#loc1268)
            %offs_n_118 = arith.constant 2147483647 : i64 loc(#loc1268)
            %offs_n_119 = arith.constant -2147483648 : i64 loc(#loc1268)
            %offs_n_120 = arith.cmpi sle, %offs_n_117, %offs_n_118 : i64 loc(#loc1268)
            %offs_n_121 = arith.cmpi sge, %offs_n_117, %offs_n_119 : i64 loc(#loc1268)
            %offs_n_122 = arith.andi %offs_n_120, %offs_n_121 : i1 loc(#loc1268)
            %offs_n_123 = arith.muli %i, %offs_n_114 : i32 loc(#loc1268)
            %offs_n_124 = tt.make_range {end = 8192 : i32, start = 0 : i32} : tensor<8192xi32> loc(#loc1269)
            %offs_n_125 = tt.splat %offs_n_123 : i32 -> tensor<8192xi32> loc(#loc1270)
            %offs_n_126 = arith.extsi %offs_n_125 : tensor<8192xi32> to tensor<8192xi64> loc(#loc1270)
            %offs_n_127 = arith.extsi %offs_n_124 : tensor<8192xi32> to tensor<8192xi64> loc(#loc1270)
            %offs_n_128 = arith.addi %offs_n_126, %offs_n_127 : tensor<8192xi64> loc(#loc1270)
            %offs_n_129 = arith.constant 2147483647 : i64 loc(#loc1270)
            %offs_n_130 = arith.constant -2147483648 : i64 loc(#loc1270)
            %offs_n_131 = arith.constant dense<2147483647> : tensor<8192xi64> loc(#loc1270)
            %offs_n_132 = arith.cmpi sle, %offs_n_128, %offs_n_131 : tensor<8192xi64> loc(#loc1270)
            %offs_n_133 = arith.constant dense<-2147483648> : tensor<8192xi64> loc(#loc1270)
            %offs_n_134 = arith.cmpi sge, %offs_n_128, %offs_n_133 : tensor<8192xi64> loc(#loc1270)
            %offs_n_135 = arith.andi %offs_n_132, %offs_n_134 : tensor<8192xi1> loc(#loc1270)
            %offs_n_136 = arith.addi %offs_n_125, %offs_n_124 : tensor<8192xi32> loc(#loc1270)
            %mask_n_137 = arith.constant 262144 : i32 loc(#loc1271)
            %mask_n_138 = arith.constant dense<262144> : tensor<8192xi32> loc(#loc1271)
            %mask_n_139 = arith.cmpi slt, %offs_n_136, %mask_n_138 : tensor<8192xi32> loc(#loc1271)
            %logits_blk = tt.splat %LOGITS_ROW_10 : !tt.ptr<f32> -> tensor<8192x!tt.ptr<f32>> loc(#loc1272)
            %logits_blk_140 = tt.addptr %logits_blk, %offs_n_136 : tensor<8192x!tt.ptr<f32>>, tensor<8192xi32> loc(#loc1272)
            %logits_blk_141 = arith.constant 0xFF800000 : f32 loc(#loc1273)
            %logits_blk_142 = arith.constant dense<0xFF800000> : tensor<8192xf32> loc(#loc1273)
            %logits_blk_143 = tt.load %logits_blk_140, %mask_n_139, %logits_blk_142 : tensor<8192x!tt.ptr<f32>> loc(#loc1273)
            %max_logit_144 = tt.call @"triton.language.standard.max__fp32S8192S__(1,)cNone_(2,)cconstexpr_False__(3,)cconstexpr_True__(4,)cconstexpr_False_"(%logits_blk_143) : (tensor<8192xf32>) -> f32 loc(#loc1274)
            %max_logit_145 = arith.maxnumf %max_logit_110, %max_logit_144 : f32 loc(#loc1275)
            %finite_blk = arith.constant 0xFF800000 : f32 loc(#loc1276)
            %finite_blk_146 = arith.constant dense<0xFF800000> : tensor<8192xf32> loc(#loc1276)
            %finite_blk_147 = arith.cmpf ogt, %logits_blk_143, %finite_blk_146 : tensor<8192xf32> loc(#loc1276)
            %finite_blk_148 = arith.constant 0x7F800000 : f32 loc(#loc1277)
            %finite_blk_149 = arith.constant 0x7F800000 : f32 loc(#loc1277)
            %finite_blk_150 = arith.constant dense<0x7F800000> : tensor<8192xf32> loc(#loc1277)
            %finite_blk_151 = arith.select %finite_blk_147, %logits_blk_143, %finite_blk_150 : tensor<8192xi1>, tensor<8192xf32> loc(#loc1277)
            %min_logit_152 = tt.call @"triton.language.standard.min__fp32S8192S__(1,)cNone_(2,)cconstexpr_False__(3,)cconstexpr_True__(4,)cconstexpr_False_"(%finite_blk_151) : (tensor<8192xf32>) -> f32 loc(#loc1278)
            %min_logit_153 = arith.minnumf %min_logit_111, %min_logit_152 : f32 loc(#loc1279)
            %probs_blk = tt.splat %max_sample_63 : f32 -> tensor<8192xf32> loc(#loc1280)
            %probs_blk_154 = arith.subf %logits_blk_143, %probs_blk : tensor<8192xf32> loc(#loc1280)
            %probs_blk_155 = math.exp %probs_blk_154 : tensor<8192xf32> loc(#loc1281)
            %probs_blk_156 = arith.constant 0.000000e+00 : f32 loc(#loc1282)
            %probs_blk_157 = arith.constant 0.000000e+00 : f32 loc(#loc1282)
            %probs_blk_158 = arith.constant dense<0.000000e+00> : tensor<8192xf32> loc(#loc1282)
            %probs_blk_159 = arith.select %mask_n_139, %probs_blk_155, %probs_blk_158 : tensor<8192xi1>, tensor<8192xf32> loc(#loc1282)
            %sum_exp_logits_160 = tt.call @"triton.language.standard.sum__fp32S8192S__(1,)cNone_(2,)cconstexpr_False__(3,)cNone"(%probs_blk_159) : (tensor<8192xf32>) -> f32 loc(#loc1283)
            %sum_exp_logits_161 = arith.addf %sum_exp_logits_113, %sum_exp_logits_160 : f32 loc(#loc1284)
            scf.yield %max_logit_145, %min_logit_153, %mask_n_139, %sum_exp_logits_161 : f32, f32, tensor<8192xi1>, f32 loc(#loc511)
          } loc(#loc1780)
          %min_logit_65 = arith.minnumf %max_logit_64#1, %max_logit_64#0 : f32 loc(#loc1629)
          %idx = arith.constant 200 : i32 loc(#loc1286)
          %idx_66 = arith.constant 2.000000e+02 : f32 loc(#loc1286)
          %idx_67 = arith.mulf %p_25, %idx_66 : f32 loc(#loc1286)
          %idx_68 = arith.fptosi %idx_67 : f32 to i32 loc(#loc1287)
          %idx_69 = arith.constant 199 : i32 loc(#loc1288)
          %idx_70 = arith.minsi %idx_68, %idx_69 : i32 loc(#loc1288)
          %idx_71 = arith.constant 0 : i32 loc(#loc1289)
          %idx_72 = arith.maxsi %idx_71, %idx_70 : i32 loc(#loc1289)
          %sigma = tt.addptr %NORMAL_CDF_TO_SIGMA_TABLE, %idx_72 : !tt.ptr<f32>, i32 loc(#loc1290)
          %sigma_73 = tt.load %sigma : !tt.ptr<f32> loc(#loc1291)
          %sigma_74 = math.absf %sigma_73 : f32 loc(#loc1292)
          %sigma_75 = arith.constant -2.500000e-01 : f32 loc(#loc1293)
          %sigma_76 = arith.constant -2.500000e-01 : f32 loc(#loc1293)
          %sigma_77 = arith.mulf %sigma_74, %sigma_76 : f32 loc(#loc1293)
          %sigma_78 = arith.addf %sigma_73, %sigma_77 : f32 loc(#loc1294)
          %outlier_pivot = arith.mulf %std_logit_60, %sigma_78 : f32 loc(#loc1295)
          %outlier_pivot_79 = arith.addf %avg_logit_47, %outlier_pivot : f32 loc(#loc1296)
          %outlier_prob = arith.subf %outlier_pivot_79, %max_sample_63 : f32 loc(#loc1297)
          %outlier_prob_80 = math.exp %outlier_prob : f32 loc(#loc1298)
          %min_range = arith.divf %outlier_prob_80, %max_logit_64#3 : f32 loc(#loc1630)
          %sum_outlier_probs = arith.constant 0.000000e+00 : f32 loc(#loc1300)
          %num_outliers = tt.call @"triton.language.standard.zeros____(1,)cconstexpr_uint32_"() : () -> i32 loc(#loc1301)
          %c0_i32_81 = arith.constant 0 : i32 loc(#loc529)
          %c32_i32_82 = arith.constant 32 : i32 loc(#loc529)
          %c1_i32_83 = arith.constant 1 : i32 loc(#loc529)
          %14 = arith.bitcast %c0_i32_81 : i32 to i32 loc(#loc529)
          %15 = arith.bitcast %c32_i32_82 : i32 to i32 loc(#loc529)
          %16 = arith.bitcast %c1_i32_83 : i32 to i32 loc(#loc529)
          %17 = ub.poison : i32 loc(#loc529)
          %mask_n_84:3 = scf.for %i = %14 to %15 step %16 iter_args(%mask_n_110 = %max_logit_64#2, %sum_outlier_probs_111 = %sum_outlier_probs, %num_outliers_112 = %num_outliers) -> (tensor<8192xi1>, f32, i32)  : i32 {
            %offs_n = arith.constant 8192 : i32 loc(#loc1303)
            %offs_n_113 = arith.constant 8192 : i32 loc(#loc1303)
            %offs_n_114 = arith.extsi %i : i32 to i64 loc(#loc1303)
            %offs_n_115 = arith.extsi %offs_n_113 : i32 to i64 loc(#loc1303)
            %offs_n_116 = arith.muli %offs_n_114, %offs_n_115 : i64 loc(#loc1303)
            %offs_n_117 = arith.constant 2147483647 : i64 loc(#loc1303)
            %offs_n_118 = arith.constant -2147483648 : i64 loc(#loc1303)
            %offs_n_119 = arith.cmpi sle, %offs_n_116, %offs_n_117 : i64 loc(#loc1303)
            %offs_n_120 = arith.cmpi sge, %offs_n_116, %offs_n_118 : i64 loc(#loc1303)
            %offs_n_121 = arith.andi %offs_n_119, %offs_n_120 : i1 loc(#loc1303)
            %offs_n_122 = arith.muli %i, %offs_n_113 : i32 loc(#loc1303)
            %offs_n_123 = tt.make_range {end = 8192 : i32, start = 0 : i32} : tensor<8192xi32> loc(#loc1304)
            %offs_n_124 = tt.splat %offs_n_122 : i32 -> tensor<8192xi32> loc(#loc1305)
            %offs_n_125 = arith.extsi %offs_n_124 : tensor<8192xi32> to tensor<8192xi64> loc(#loc1305)
            %offs_n_126 = arith.extsi %offs_n_123 : tensor<8192xi32> to tensor<8192xi64> loc(#loc1305)
            %offs_n_127 = arith.addi %offs_n_125, %offs_n_126 : tensor<8192xi64> loc(#loc1305)
            %offs_n_128 = arith.constant 2147483647 : i64 loc(#loc1305)
            %offs_n_129 = arith.constant -2147483648 : i64 loc(#loc1305)
            %offs_n_130 = arith.constant dense<2147483647> : tensor<8192xi64> loc(#loc1305)
            %offs_n_131 = arith.cmpi sle, %offs_n_127, %offs_n_130 : tensor<8192xi64> loc(#loc1305)
            %offs_n_132 = arith.constant dense<-2147483648> : tensor<8192xi64> loc(#loc1305)
            %offs_n_133 = arith.cmpi sge, %offs_n_127, %offs_n_132 : tensor<8192xi64> loc(#loc1305)
            %offs_n_134 = arith.andi %offs_n_131, %offs_n_133 : tensor<8192xi1> loc(#loc1305)
            %offs_n_135 = arith.addi %offs_n_124, %offs_n_123 : tensor<8192xi32> loc(#loc1305)
            %mask_n_136 = arith.constant 262144 : i32 loc(#loc1306)
            %mask_n_137 = arith.constant dense<262144> : tensor<8192xi32> loc(#loc1306)
            %mask_n_138 = arith.cmpi slt, %offs_n_135, %mask_n_137 : tensor<8192xi32> loc(#loc1306)
            %probs_blk = tt.splat %LOGITS_ROW_10 : !tt.ptr<f32> -> tensor<8192x!tt.ptr<f32>> loc(#loc1307)
            %probs_blk_139 = tt.addptr %probs_blk, %offs_n_135 : tensor<8192x!tt.ptr<f32>>, tensor<8192xi32> loc(#loc1307)
            %probs_blk_140 = arith.constant 0xFF800000 : f32 loc(#loc1308)
            %probs_blk_141 = arith.constant dense<0xFF800000> : tensor<8192xf32> loc(#loc1308)
            %probs_blk_142 = tt.load %probs_blk_139, %mask_n_138, %probs_blk_141 : tensor<8192x!tt.ptr<f32>> loc(#loc1308)
            %probs_blk_143 = tt.splat %max_sample_63 : f32 -> tensor<8192xf32> loc(#loc1309)
            %probs_blk_144 = arith.subf %probs_blk_142, %probs_blk_143 : tensor<8192xf32> loc(#loc1309)
            %probs_blk_145 = math.exp %probs_blk_144 : tensor<8192xf32> loc(#loc1310)
            %probs_blk_146 = tt.splat %max_logit_64#3 : f32 -> tensor<8192xf32> loc(#loc1311)
            %probs_blk_147 = arith.divf %probs_blk_145, %probs_blk_146 : tensor<8192xf32> loc(#loc1311)
            %outlier_mask = tt.splat %min_range : f32 -> tensor<8192xf32> loc(#loc1312)
            %outlier_mask_148 = arith.cmpf ogt, %probs_blk_147, %outlier_mask : tensor<8192xf32> loc(#loc1312)
            %outlier_mask_149 = arith.andi %outlier_mask_148, %mask_n_138 : tensor<8192xi1> loc(#loc1313)
            %sum_outlier_probs_150 = arith.uitofp %outlier_mask_149 : tensor<8192xi1> to tensor<8192xf32> loc(#loc1314)
            %sum_outlier_probs_151 = arith.mulf %sum_outlier_probs_150, %probs_blk_147 : tensor<8192xf32> loc(#loc1314)
            %sum_outlier_probs_152 = tt.call @"triton.language.standard.sum__fp32S8192S__(1,)cNone_(2,)cconstexpr_False__(3,)cNone"(%sum_outlier_probs_151) : (tensor<8192xf32>) -> f32 loc(#loc1315)
            %sum_outlier_probs_153 = arith.addf %sum_outlier_probs_111, %sum_outlier_probs_152 : f32 loc(#loc1316)
            %cumulative_pos = tt.call @"triton.language.standard.cumsum__u1S8192S__(1,)cconstexpr_0__(2,)cconstexpr_False__(3,)cNone"(%outlier_mask_149) : (tensor<8192xi1>) -> tensor<8192xi32> loc(#loc1317)
            %cumulative_pos_154 = arith.constant 1 : i32 loc(#loc1318)
            %cumulative_pos_155 = arith.constant 1 : i32 loc(#loc1318)
            %cumulative_pos_156 = arith.constant dense<1> : tensor<8192xi32> loc(#loc1318)
            %cumulative_pos_157 = arith.extui %cumulative_pos : tensor<8192xi32> to tensor<8192xi64> loc(#loc1318)
            %cumulative_pos_158 = arith.extui %cumulative_pos_156 : tensor<8192xi32> to tensor<8192xi64> loc(#loc1318)
            %cumulative_pos_159 = arith.subi %cumulative_pos_157, %cumulative_pos_158 : tensor<8192xi64> loc(#loc1318)
            %cumulative_pos_160 = arith.constant 4294967295 : i64 loc(#loc1318)
            %cumulative_pos_161 = arith.constant 0 : i64 loc(#loc1318)
            %cumulative_pos_162 = arith.constant dense<4294967295> : tensor<8192xi64> loc(#loc1318)
            %cumulative_pos_163 = arith.cmpi sle, %cumulative_pos_159, %cumulative_pos_162 : tensor<8192xi64> loc(#loc1318)
            %cumulative_pos_164 = arith.constant dense<0> : tensor<8192xi64> loc(#loc1318)
            %cumulative_pos_165 = arith.cmpi sge, %cumulative_pos_159, %cumulative_pos_164 : tensor<8192xi64> loc(#loc1318)
            %cumulative_pos_166 = arith.andi %cumulative_pos_163, %cumulative_pos_165 : tensor<8192xi1> loc(#loc1318)
            %cumulative_pos_167 = arith.subi %cumulative_pos, %cumulative_pos_156 : tensor<8192xi32> loc(#loc1318)
            %cumulative_pos_168 = tt.splat %num_outliers_112 : i32 -> tensor<8192xi32> loc(#loc1319)
            %cumulative_pos_169 = arith.extui %cumulative_pos_167 : tensor<8192xi32> to tensor<8192xi64> loc(#loc1319)
            %cumulative_pos_170 = arith.extui %cumulative_pos_168 : tensor<8192xi32> to tensor<8192xi64> loc(#loc1319)
            %cumulative_pos_171 = arith.addi %cumulative_pos_169, %cumulative_pos_170 : tensor<8192xi64> loc(#loc1319)
            %cumulative_pos_172 = arith.constant 4294967295 : i64 loc(#loc1319)
            %cumulative_pos_173 = arith.constant 0 : i64 loc(#loc1319)
            %cumulative_pos_174 = arith.constant dense<4294967295> : tensor<8192xi64> loc(#loc1319)
            %cumulative_pos_175 = arith.cmpi sle, %cumulative_pos_171, %cumulative_pos_174 : tensor<8192xi64> loc(#loc1319)
            %cumulative_pos_176 = arith.constant dense<0> : tensor<8192xi64> loc(#loc1319)
            %cumulative_pos_177 = arith.cmpi sge, %cumulative_pos_171, %cumulative_pos_176 : tensor<8192xi64> loc(#loc1319)
            %cumulative_pos_178 = arith.andi %cumulative_pos_175, %cumulative_pos_177 : tensor<8192xi1> loc(#loc1319)
            %cumulative_pos_179 = arith.addi %cumulative_pos_167, %cumulative_pos_168 : tensor<8192xi32> loc(#loc1319)
            %cumulative_pos_180 = arith.bitcast %cumulative_pos_179 : tensor<8192xi32> to tensor<8192xi32> loc(#loc1320)
            %num_outliers_181 = tt.call @"triton.language.standard.sum__u1S8192S__(1,)cNone_(2,)cconstexpr_False__(3,)cNone"(%outlier_mask_149) : (tensor<8192xi1>) -> i32 loc(#loc1321)
            %num_outliers_182 = arith.extui %num_outliers_112 : i32 to i64 loc(#loc1322)
            %num_outliers_183 = arith.extui %num_outliers_181 : i32 to i64 loc(#loc1322)
            %num_outliers_184 = arith.addi %num_outliers_182, %num_outliers_183 : i64 loc(#loc1322)
            %num_outliers_185 = arith.constant 4294967295 : i64 loc(#loc1322)
            %num_outliers_186 = arith.constant 0 : i64 loc(#loc1322)
            %num_outliers_187 = arith.cmpi sle, %num_outliers_184, %num_outliers_185 : i64 loc(#loc1322)
            %num_outliers_188 = arith.cmpi sge, %num_outliers_184, %num_outliers_186 : i64 loc(#loc1322)
…
#loc773 = loc("/home/ericbuehler/vllm/.venv-bench/lib/python3.12/site-packages/vllm/v1/sample/ops/topk_topp_triton.py":925:49)
#loc774 = loc("/home/ericbuehler/vllm/.venv-bench/lib/python3.12/site-packages/vllm/v1/sample/ops/topk_topp_triton.py":928:36)
#loc775 = loc("/home/ericbuehler/vllm/.venv-bench/lib/python3.12/site-packages/vllm/v1/sample/ops/topk_topp_triton.py":931:47)
#loc776 = loc("/home/ericbuehler/vllm/.venv-bench/lib/python3.12/site-packages/vllm/v1/sample/ops/topk_topp_triton.py":931:37)
#loc777 = loc("/home/ericbuehler/vllm/.venv-bench/lib/python3.12/site-packages/vllm/v1/sample/ops/topk_topp_triton.py":931:65)
#loc778 = loc("/home/ericbuehler/vllm/.venv-bench/lib/python3.12/site-packages/vllm/v1/sample/ops/topk_topp_triton.py":937:30)
#loc779 = loc("/home/ericbuehler/vllm/.venv-bench/lib/python3.12/site-packages/vllm/v1/sample/ops/topk_topp_triton.py":937:16)
#loc780 = loc("/home/ericbuehler/vllm/.venv-bench/lib/python3.12/site-packages/vllm/v1/sample/ops/topk_topp_triton.py":937:11)
#loc781 = loc("/home/ericbuehler/vllm/.venv-bench/lib/python3.12/site-packages/vllm/v1/sample/ops/topk_topp_triton.py":938:26)
#loc782 = loc("/home/ericbuehler/vllm/.venv-bench/lib/python3.12/site-packages/vllm/v1/sample/ops/topk_topp_triton.py":939:28)
#loc783 = loc("/home/ericbuehler/vllm/.venv-bench/lib/python3.12/site-packages/vllm/v1/sample/ops/topk_topp_triton.py":939:13)
#loc784 = loc("/home/ericbuehler/vllm/.venv-bench/lib/python3.12/site-packages/vllm/v1/sample/ops/topk_topp_triton.py":940:30)
#loc785 = loc("/home/ericbuehler/vllm/.venv-bench/lib/python3.12/site-packages/vllm/v1/sample/ops/topk_topp_triton.py":941:29)
#loc786 = loc("/home/ericbuehler/vllm/.venv-bench/lib/python3.12/site-packages/vllm/v1/sample/ops/topk_topp_triton.py":941:55)
#loc787 = loc("/home/ericbuehler/vllm/.venv-bench/lib/python3.12/site-packages/vllm/v1/sample/ops/topk_topp_triton.py":941:42)
#loc788 = loc("/home/ericbuehler/vllm/.venv-bench/lib/python3.12/site-packages/vllm/v1/sample/ops/topk_topp_triton.py":942:34)
#loc789 = loc("/home/ericbuehler/vllm/.venv-bench/lib/python3.12/site-packages/vllm/v1/sample/ops/topk_topp_triton.py":944:33)
#loc790 = loc("/home/ericbuehler/vllm/.venv-bench/lib/python3.12/site-packages/vllm/v1/sample/ops/topk_topp_triton.py":944:20)
#loc791 = loc("/home/ericbuehler/vllm/.venv-bench/lib/python3.12/site-packages/vllm/v1/sample/ops/topk_topp_triton.py":946:42)
#loc792 = loc("/home/ericbuehler/vllm/.venv-bench/lib/python3.12/site-packages/vllm/v1/sample/ops/topk_topp_triton.py":946:57)
#loc793 = loc("/home/ericbuehler/vllm/.venv-bench/lib/python3.12/site-packages/vllm/v1/sample/ops/topk_topp_triton.py":949:30)
#loc794 = loc("/home/ericbuehler/vllm/.venv-bench/lib/python3.12/site-packages/vllm/v1/sample/ops/topk_topp_triton.py":949:19)
#loc795 = loc("/home/ericbuehler/vllm/.venv-bench/lib/python3.12/site-packages/vllm/v1/sample/ops/topk_topp_triton.py":951:44)
#loc796 = loc("/home/ericbuehler/vllm/.venv-bench/lib/python3.12/site-packages/vllm/v1/sample/ops/topk_topp_triton.py":951:31)
#loc797 = loc("/home/ericbuehler/vllm/.venv-bench/lib/python3.12/site-packages/vllm/v1/sample/ops/topk_topp_triton.py":951:63)
#loc798 = loc("/home/ericbuehler/vllm/.venv-bench/lib/python3.12/site-packages/vllm/v1/sample/ops/topk_topp_triton.py":952:24)
#loc799 = loc("/home/ericbuehler/vllm/.venv-bench/lib/python3.12/site-packages/vllm/v1/sample/ops/topk_topp_triton.py":953:48)
#loc800 = loc("/home/ericbuehler/vllm/.venv-bench/lib/python3.12/site-packages/vllm/v1/sample/ops/topk_topp_triton.py":953:66)
#loc801 = loc("/home/ericbuehler/vllm/.venv-bench/lib/python3.12/site-packages/vllm/v1/sample/ops/topk_topp_triton.py":955:43)
#loc802 = loc("/home/ericbuehler/vllm/.venv-bench/lib/python3.12/site-packages/vllm/v1/sample/ops/topk_topp_triton.py":956:24)
#loc803 = loc("/home/ericbuehler/vllm/.venv-bench/lib/python3.12/site-packages/vllm/v1/sample/ops/topk_topp_triton.py":957:62)
#loc804 = loc("/home/ericbuehler/vllm/.venv-bench/lib/python3.12/site-packages/vllm/v1/sample/ops/topk_topp_triton.py":957:61)
#loc805 = loc("/home/ericbuehler/vllm/.venv-bench/lib/python3.12/site-packages/vllm/v1/sample/ops/topk_topp_triton.py":958:39)
#loc806 = loc("/home/ericbuehler/vllm/.venv-bench/lib/python3.12/site-packages/vllm/v1/sample/ops/topk_topp_triton.py":958:32)
#loc807 = loc("/home/ericbuehler/vllm/.venv-bench/lib/python3.12/site-packages/vllm/v1/sample/ops/topk_topp_triton.py":959:46)
#loc808 = loc("/home/ericbuehler/vllm/.venv-bench/lib/python3.12/site-packages/vllm/v1/sample/ops/topk_topp_triton.py":959:45)
#loc809 = loc("/home/ericbuehler/vllm/.venv-bench/lib/python3.12/site-packages/vllm/v1/sample/ops/topk_topp_triton.py":961:61)
#loc810 = loc("/home/ericbuehler/vllm/.venv-bench/lib/python3.12/site-packages/vllm/v1/sample/ops/topk_topp_triton.py":962:38)
#loc811 = loc("/home/ericbuehler/vllm/.venv-bench/lib/python3.12/site-packages/vllm/v1/sample/ops/topk_topp_triton.py":962:46)
#loc812 = loc("/home/ericbuehler/vllm/.venv-bench/lib/python3.12/site-packages/vllm/v1/sample/ops/topk_topp_triton.py":962:16)
#loc813 = loc("/home/ericbuehler/vllm/.venv-bench/lib/python3.12/site-packages/vllm/v1/sample/ops/topk_topp_triton.py":112:4)
#loc814 = loc("/home/ericbuehler/vllm/.venv-bench/lib/python3.12/site-packages/triton/language/standard.py":120:0)
#loc815 = loc("/home/ericbuehler/vllm/.venv-bench/lib/python3.12/site-packages/triton/language/standard.py":129:31)
#loc816 = loc("/home/ericbuehler/vllm/.venv-bench/lib/python3.12/site-packages/triton/language/standard.py":129:11)
#loc817 = loc("/home/ericbuehler/vllm/.venv-bench/lib/python3.12/site-packages/triton/language/standard.py":129:4)
#loc819 = loc("/home/ericbuehler/vllm/.venv-bench/lib/python3.12/site-packages/triton/language/standard.py":292:25)
#loc820 = loc("/home/ericbuehler/vllm/.venv-bench/lib/python3.12/site-packages/triton/language/standard.py":293:36)
#loc822 = loc("/home/ericbuehler/vllm/.venv-bench/lib/python3.12/site-packages/triton/language/standard.py":293:11)
#loc823 = loc("/home/ericbuehler/vllm/.venv-bench/lib/python3.12/site-packages/triton/language/standard.py":293:4)
#loc825 = loc("/home/ericbuehler/vllm/.venv-bench/lib/python3.12/site-packages/triton/language/standard.py":263:15)
#loc826 = loc("/home/ericbuehler/vllm/.venv-bench/lib/python3.12/site-packages/triton/language/standard.py":263:11)
#loc827 = loc("/home/ericbuehler/vllm/.venv-bench/lib/python3.12/site-packages/triton/language/standard.py":263:4)
#loc829 = loc("/home/ericbuehler/vllm/.venv-bench/lib/python3.12/site-packages/triton/language/standard.py":191:40)
#loc830 = loc("/home/ericbuehler/vllm/.venv-bench/lib/python3.12/site-packages/triton/language/standard.py":191:15)
#loc831 = loc("/home/ericbuehler/vllm/.venv-bench/lib/python3.12/site-packages/triton/language/standard.py":179:4)
#loc833 = loc("/home/ericbuehler/vllm/.venv-bench/lib/python3.12/site-packages/triton/language/standard.py":170:27)
#loc834 = loc("/home/ericbuehler/vllm/.venv-bench/lib/python3.12/site-packages/triton/language/standard.py":170:11)
#loc835 = loc("/home/ericbuehler/vllm/.venv-bench/lib/python3.12/site-packages/triton/language/standard.py":170:4)
#loc837 = loc("/home/ericbuehler/vllm/.venv-bench/lib/python3.12/site-packages/triton/language/standard.py":250:40)
#loc838 = loc("/home/ericbuehler/vllm/.venv-bench/lib/python3.12/site-packages/triton/language/standard.py":250:15)
#loc839 = loc("/home/ericbuehler/vllm/.venv-bench/lib/python3.12/site-packages/triton/language/standard.py":238:4)
#loc841 = loc("/home/ericbuehler/vllm/.venv-bench/lib/python3.12/site-packages/triton/language/standard.py":229:27)
#loc842 = loc("/home/ericbuehler/vllm/.venv-bench/lib/python3.12/site-packages/triton/language/standard.py":229:11)
#loc843 = loc("/home/ericbuehler/vllm/.venv-bench/lib/python3.12/site-packages/triton/language/standard.py":229:4)
#loc845 = loc("/home/ericbuehler/vllm/.venv-bench/lib/python3.12/site-packages/triton/language/standard.py":341:25)
#loc846 = loc("/home/ericbuehler/vllm/.venv-bench/lib/python3.12/site-packages/triton/language/standard.py":343:60)
#loc847 = loc("/home/ericbuehler/vllm/.venv-bench/lib/python3.12/site-packages/triton/language/standard.py":343:11)
#loc848 = loc("/home/ericbuehler/vllm/.venv-bench/lib/python3.12/site-packages/triton/language/standard.py":343:4)
#loc850 = loc("/home/ericbuehler/vllm/.venv-bench/lib/python3.12/site-packages/vllm/v1/sample/ops/topk_topp_triton.py":83:49)
#loc851 = loc("/home/ericbuehler/vllm/.venv-bench/lib/python3.12/site-packages/vllm/v1/sample/ops/topk_topp_triton.py":83:22)
#loc852 = loc("/home/ericbuehler/vllm/.venv-bench/lib/python3.12/site-packages/vllm/v1/sample/ops/topk_topp_triton.py":84:42)
#loc853 = loc("/home/ericbuehler/vllm/.venv-bench/lib/python3.12/site-packages/vllm/v1/sample/ops/topk_topp_triton.py":84:35)
#loc854 = loc("/home/ericbuehler/vllm/.venv-bench/lib/python3.12/site-packages/vllm/v1/sample/ops/topk_topp_triton.py":84:54)
#loc855 = loc("/home/ericbuehler/vllm/.venv-bench/lib/python3.12/site-packages/vllm/v1/sample/ops/topk_topp_triton.py":84:28)
#loc856 = loc("/home/ericbuehler/vllm/.venv-bench/lib/python3.12/site-packages/vllm/v1/sample/ops/topk_topp_triton.py":85:22)
#loc857 = loc("/home/ericbuehler/vllm/.venv-bench/lib/python3.12/site-packages/vllm/v1/sample/ops/topk_topp_triton.py":86:24)
#loc858 = loc("/home/ericbuehler/vllm/.venv-bench/lib/python3.12/site-packages/vllm/v1/sample/ops/topk_topp_triton.py":87:32)
#loc859 = loc("/home/ericbuehler/vllm/.venv-bench/lib/python3.12/site-packages/vllm/v1/sample/ops/topk_topp_triton.py":87:21)
#loc860 = loc("/home/ericbuehler/vllm/.venv-bench/lib/python3.12/site-packages/vllm/v1/sample/ops/topk_topp_triton.py":87:46)
#loc861 = loc("/home/ericbuehler/vllm/.venv-bench/lib/python3.12/site-packages/vllm/v1/sample/ops/topk_topp_triton.py":88:76)
#loc862 = loc("/home/ericbuehler/vllm/.venv-bench/lib/python3.12/site-packages/vllm/v1/sample/ops/topk_topp_triton.py":88:65)
#loc863 = loc("/home/ericbuehler/vllm/.venv-bench/lib/python3.12/site-packages/vllm/v1/sample/ops/topk_topp_triton.py":88:48)
#loc864 = loc("/home/ericbuehler/vllm/.venv-bench/lib/python3.12/site-packages/vllm/v1/sample/ops/topk_topp_triton.py":89:40)
#loc865 = loc("/home/ericbuehler/vllm/.venv-bench/lib/python3.12/site-packages/vllm/v1/sample/ops/topk_topp_triton.py":90:11)
#loc866 = loc("/home/ericbuehler/vllm/.venv-bench/lib/python3.12/site-packages/vllm/v1/sample/ops/topk_topp_triton.py":90:4)
#loc874 = loc("pid"(#loc1))
#loc875 = loc("num_programs"(#loc2))
#loc876 = loc("LOGITS_ROW"(#loc4))
#loc877 = loc("LOGITS_ROW"(#loc5))
#loc878 = loc("BUFFER_ROW"(#loc6))
#loc879 = loc("BUFFER_ROW"(#loc7))
#loc880 = loc("final_pivot"(#loc8))
#loc881 = loc("duplicate_logit"(#loc9))
#loc882 = loc("num_duplicate_logit"(#loc10))
#loc883 = loc("num_keep"(#loc11))
#loc884 = loc("num_kept"(#loc12))
#loc885 = loc("max_logit"(#loc13))
#loc886 = loc("min_logit"(#loc14))
#loc887 = loc("k"(#loc15))
#loc888 = loc("k"(#loc16))
#loc889 = loc("final_pivot"(#loc18))
#loc890 = loc("offs"(#loc19))
#loc891 = loc("mask_n"(#loc20))
#loc892 = loc("logits_blk0"(#loc21))
#loc893 = loc("logits_blk0"(#loc22))
#loc894 = loc("finite_mask"(#loc23))
#loc895 = loc("finite_mask"(#loc24))
#loc896 = loc("num_finite"(#loc25))
#loc897 = loc("finite_logits"(#loc26))
#loc898 = loc("avg_logit"(#loc27))
#loc899 = loc("avg_logit"(#loc28))
#loc900 = loc("avg_logit"(#loc29))
#loc901 = loc("avg_logit"(#loc30))
#loc902 = loc("sq_avg_logit"(#loc31))
#loc903 = loc("sq_avg_logit"(#loc32))
#loc904 = loc("sq_avg_logit"(#loc33))
#loc905 = loc("sq_avg_logit"(#loc34))
#loc906 = loc("sq_avg_logit"(#loc35))
#loc907 = loc("std_logit"(#loc36))
#loc908 = loc("std_logit"(#loc37))
#loc909 = loc("std_logit"(#loc38))
#loc910 = loc("std_logit"(#loc39))
#loc911 = loc("percentile"(#loc40))
#loc912 = loc("percentile"(#loc41))
#loc913 = loc("percentile"(#loc42))
#loc914 = loc("percentile"(#loc43))
#loc915 = loc("sigma"(#loc44))
#loc916 = loc("sigma"(#loc45))
#loc917 = loc("sigma"(#loc46))
#loc918 = loc("sigma"(#loc47))
#loc919 = loc("sigma"(#loc48))
#loc920 = loc("outlier_pivot"(#loc49))
#loc921 = loc("outlier_pivot"(#loc50))
#loc922 = loc("num_outliers"(#loc51))
#loc923 = loc("num_finite_total"(#loc52))
#loc924 = loc("max_logit"(#loc53))
#loc925 = loc("offs_n"(#loc54))
#loc926 = loc("offs_n"(#loc55))
#loc927 = loc("offs_n"(#loc56))
#loc928 = loc("mask_n"(#loc57))
#loc929 = loc("logits_blk"(#loc58))
#loc930 = loc("logits_blk"(#loc59))
#loc931 = loc("max_logit"(#loc60))
#loc932 = loc("max_logit"(#loc61))
#loc933 = loc("finite_blk_mask"(#loc62))
#loc934 = loc("finite_blk"(#loc63))
#loc935 = loc("min_logit"(#loc64))
#loc936 = loc("min_logit"(#loc65))
#loc937 = loc("num_finite_total"(#loc66))
#loc938 = loc("num_finite_total"(#loc67))
#loc939 = loc("num_finite_total"(#loc68))
#loc940 = loc("outlier_mask"(#loc69))
#loc941 = loc("outlier_mask"(#loc70))
#loc942 = loc("cumulative_pos"(#loc71))
#loc943 = loc("cumulative_pos"(#loc72))
#loc944 = loc("cumulative_pos"(#loc73))
#loc945 = loc("cumulative_pos"(#loc74))
#loc946 = loc("num_outliers"(#loc75))
#loc947 = loc("num_outliers"(#loc76))
#loc948 = loc("write_pos"(#loc77))
#loc949 = loc("min_logit"(#loc81))
#loc950 = loc("num_iters"(#loc82))
#loc951 = loc("k_pivot"(#loc83))
#loc952 = loc("k_pivots_num"(#loc84))
#loc953 = loc("min_larger"(#loc85))
#loc954 = loc("num_min_larger"(#loc86))
#loc955 = loc("mask_n"(#loc88))
#loc956 = loc("search_range"(#loc89))
#loc957 = loc("search_iters"(#loc90))
#loc958 = loc("search_iters"(#loc91))
#loc959 = loc("search_iters"(#loc92))
#loc960 = loc("search_iters"(#loc93))
#loc961 = loc("found_pivot"(#loc94))
#loc962 = loc("i"(#loc95))
#loc970 = loc("k_pivot_0"(#loc106))
#loc971 = loc("k_pivot_0"(#loc107))
#loc972 = loc("k_pivot_0"(#loc108))
#loc973 = loc("k_pivot_0"(#loc109))
#loc974 = loc("k_pivots_num_0"(#loc110))
#loc975 = loc("min_larger_0"(#loc111))
#loc976 = loc("num_min_larger_0"(#loc112))
#loc977 = loc("k_pivot_1"(#loc113))
#loc978 = loc("k_pivot_1"(#loc114))
#loc979 = loc("k_pivot_1"(#loc115))
#loc980 = loc("k_pivot_1"(#loc116))
#loc981 = loc("k_pivots_num_1"(#loc117))
#loc982 = loc("min_larger_1"(#loc118))
#loc983 = loc("num_min_larger_1"(#loc119))
#loc984 = loc("k_pivots_num_0"(#loc120))
#loc985 = loc("offs_n"(#loc121))
#loc986 = loc("offs_n"(#loc122))
#loc987 = loc("offs_n"(#loc123))
#loc988 = loc("mask_n_2"(#loc124))
#loc989 = loc("logits_blk2"(#loc125))
#loc990 = loc("logits_blk2"(#loc126))
#loc991 = loc("above_0"(#loc127))
#loc992 = loc("above_1"(#loc128))
#loc993 = loc("k_pivots_num_0"(#loc129))
#loc994 = loc("k_pivots_num_0"(#loc130))
#loc995 = loc("k_pivots_num_1"(#loc131))
#loc996 = loc("k_pivots_num_1"(#loc132))
#loc997 = loc("k_pivot"(#loc140))
#loc998 = loc("found_pivot"(#loc141))
#loc999 = loc("k_pivot"(#loc146))
#loc1000 = loc("found_pivot"(#loc147))
#loc1001 = loc("min_range"(#loc151))
#loc1002 = loc("max_range"(#loc155))
#loc1003 = loc("num_iters"(#loc156))
#loc1004 = loc("k_pivot"(#loc163))
#loc1005 = loc("k_pivot"(#loc164))
#loc1006 = loc("found_pivot"(#loc165))
#loc1007 = loc("found_pivot"(#loc167))
#loc1008 = loc("mask_n"(#loc168))
#loc1009 = loc("k_pivot_0"(#loc171))
#loc1010 = loc("k_pivot_0"(#loc172))
#loc1011 = loc("k_pivot_0"(#loc173))
#loc1012 = loc("k_pivot_0"(#loc174))
#loc1013 = loc("k_pivots_num_0"(#loc175))
#loc1014 = loc("min_larger_0"(#loc176))
#loc1015 = loc("num_min_larger_0"(#loc177))
#loc1016 = loc("k_pivot_1"(#loc178))
#loc1017 = loc("k_pivot_1"(#loc179))
#loc1018 = loc("k_pivot_1"(#loc180))
#loc1019 = loc("k_pivot_1"(#loc181))
#loc1020 = loc("k_pivots_num_1"(#loc182))
#loc1021 = loc("min_larger_1"(#loc183))
#loc1022 = loc("num_min_larger_1"(#loc184))
#loc1023 = loc("mask_n"(#loc185))
#loc1024 = loc("offs_n"(#loc186))
#loc1025 = loc("offs_n"(#loc187))
#loc1026 = loc("offs_n"(#loc188))
#loc1027 = loc("mask_n"(#loc189))
#loc1028 = loc("logits_blk2"(#loc190))
#loc1029 = loc("logits_blk2"(#loc191))
#loc1030 = loc("above_0"(#loc192))
#loc1031 = loc("above_1"(#loc193))
#loc1032 = loc("k_pivots_num_0"(#loc194))
#loc1033 = loc("k_pivots_num_0"(#loc195))
#loc1034 = loc("k_pivots_num_1"(#loc196))
#loc1035 = loc("k_pivots_num_1"(#loc197))
#loc1036 = loc("k_pivot"(#loc205))
#loc1037 = loc("found_pivot"(#loc206))
#loc1038 = loc("k_pivot"(#loc211))
#loc1039 = loc("found_pivot"(#loc212))
#loc1040 = loc("min_range"(#loc216))
#loc1041 = loc("max_range"(#loc220))
#loc1042 = loc("num_iters"(#loc221))
#loc1043 = loc("k_pivot"(#loc228))
#loc1044 = loc("k_pivot"(#loc229))
#loc1045 = loc("found_pivot"(#loc230))
#loc1046 = loc("num_keep"(#loc232))
#loc1047 = loc("num_keep"(#loc233))
#loc1048 = loc("num_kept"(#loc234))
#loc1049 = loc("final_pivot"(#loc235))
#loc1050 = loc("final_pivot"(#loc236))
#loc1051 = loc("final_pivot"(#loc237))
#loc1052 = loc("final_pivot"(#loc239))
#loc1053 = loc("p"(#loc240))
#loc1054 = loc("p"(#loc241))
#loc1055 = loc("final_pivot"(#loc243))
#loc1056 = loc("sum_exp_logits"(#loc244))
#loc1057 = loc("num_outliers_2"(#loc245))
#loc1058 = loc("search_range"(#loc246))
#loc1059 = loc("search_iters"(#loc247))
#loc1060 = loc("search_iters"(#loc248))
#loc1061 = loc("search_iters"(#loc249))
#loc1062 = loc("search_iters"(#loc250))
#loc1063 = loc("mask_n"(#loc252))
#loc1064 = loc("num_kept"(#loc253))
#loc1065 = loc("offs_n"(#loc254))
#loc1066 = loc("offs_n"(#loc255))
#loc1067 = loc("offs_n"(#loc256))
#loc1068 = loc("mask_n_2"(#loc257))
#loc1069 = loc("probs_blk"(#loc258))
#loc1070 = loc("probs_blk"(#loc259))
#loc1071 = loc("outlier_mask"(#loc260))
#loc1072 = loc("outlier_mask"(#loc261))
#loc1073 = loc("duplicate_mask"(#loc264))
#loc1074 = loc("duplicate_mask"(#loc265))
#loc1075 = loc("duplicate_mask"(#loc266))
#loc1076 = loc("duplicate_count"(#loc267))
#loc1077 = loc("duplicate_count"(#loc268))
#loc1078 = loc("duplicate_keep_mask"(#loc269))
#loc1079 = loc("duplicate_keep_mask"(#loc270))
#loc1080 = loc("duplicate_remove_mask"(#loc271))
#loc1081 = loc("duplicate_remove_mask"(#loc272))
#loc1082 = loc("outlier_mask"(#loc273))
#loc1083 = loc("outlier_mask"(#loc274))
#loc1084 = loc("num_kept"(#loc275))
#loc1085 = loc("num_kept"(#loc276))
#loc1086 = loc("probs_blk"(#loc277))
#loc1087 = loc("probs_blk"(#loc278))
#loc1088 = loc("probs_blk"(#loc279))
#loc1089 = loc("sum_exp_logits"(#loc280))
#loc1090 = loc("sum_exp_logits"(#loc281))
#loc1091 = loc("i"(#loc283))
#loc1092 = loc("offs_n"(#loc284))
#loc1093 = loc("offs_n"(#loc285))
#loc1094 = loc("offs_n"(#loc286))
#loc1095 = loc("mask_n_2"(#loc287))
#loc1096 = loc("probs_blk"(#loc288))
#loc1097 = loc("probs_blk"(#loc289))
#loc1098 = loc("probs_blk"(#loc290))
#loc1099 = loc("probs_blk"(#loc291))
#loc1100 = loc("probs_blk"(#loc292))
#loc1101 = loc("num_kept"(#loc295))
#loc1102 = loc("offs_n"(#loc296))
#loc1103 = loc("offs_n"(#loc297))
#loc1104 = loc("offs_n"(#loc298))
#loc1105 = loc("mask_n"(#loc299))
#loc1106 = loc("probs_blk"(#loc300))
#loc1107 = loc("probs_blk"(#loc301))
#loc1108 = loc("outlier_mask"(#loc302))
#loc1109 = loc("outlier_mask"(#loc303))
#loc1110 = loc("duplicate_mask"(#loc304))
#loc1111 = loc("duplicate_mask"(#loc305))
#loc1112 = loc("duplicate_mask"(#loc306))
#loc1113 = loc("duplicate_count"(#loc307))
#loc1114 = loc("duplicate_count"(#loc308))
#loc1115 = loc("duplicate_keep_mask"(#loc309))
#loc1116 = loc("duplicate_keep_mask"(#loc310))
#loc1117 = loc("duplicate_remove_mask"(#loc311))
#loc1118 = loc("duplicate_remove_mask"(#loc312))
#loc1119 = loc("outlier_mask"(#loc313))
#loc1120 = loc("outlier_mask"(#loc314))
#loc1121 = loc("num_kept"(#loc315))
#loc1122 = loc("num_kept"(#loc316))
#loc1123 = loc("probs_blk"(#loc317))
#loc1124 = loc("probs_blk"(#loc318))
#loc1125 = loc("probs_blk"(#loc319))
#loc1126 = loc("sum_exp_logits"(#loc320))
#loc1127 = loc("sum_exp_logits"(#loc321))
#loc1128 = loc("cumulative_pos"(#loc322))
#loc1129 = loc("cumulative_pos"(#loc323))
#loc1130 = loc("cumulative_pos"(#loc324))
#loc1131 = loc("cumulative_pos"(#loc325))
#loc1132 = loc("num_outliers_2"(#loc326))
#loc1133 = loc("num_outliers_2"(#loc327))
#loc1134 = loc("write_pos"(#loc328))
#loc1135 = loc("search_range"(#loc332))
#loc1136 = loc("search_iters"(#loc333))
#loc1137 = loc("search_iters"(#loc334))
#loc1138 = loc("search_iters"(#loc335))
#loc1139 = loc("search_iters"(#loc336))
#loc1140 = loc("i"(#loc337))
#loc1141 = loc("offs_n"(#loc338))
#loc1142 = loc("offs_n"(#loc339))
#loc1143 = loc("offs_n"(#loc340))
#loc1144 = loc("mask_n_2"(#loc341))
#loc1145 = loc("probs_blk"(#loc342))
#loc1146 = loc("probs_blk"(#loc343))
#loc1147 = loc("probs_blk"(#loc344))
#loc1148 = loc("max_range"(#loc347))
#loc1149 = loc("max_range"(#loc348))
#loc1150 = loc("max_range"(#loc349))
#loc1151 = loc("min_range"(#loc350))
#loc1152 = loc("min_range"(#loc351))
#loc1153 = loc("min_range"(#loc352))
#loc1154 = loc("p_pivot"(#loc353))
#loc1155 = loc("num_iters"(#loc354))
#loc1156 = loc("min_larger_prob"(#loc355))
#loc1157 = loc("num_min_larger"(#loc356))
#loc1158 = loc("p_pivots_sum"(#loc357))
#loc1159 = loc("found_pivot"(#loc358))
#loc1160 = loc("i"(#loc359))
#loc1164 = loc("p_pivot_0"(#loc364))
#loc1165 = loc("p_pivot_0"(#loc365))
#loc1166 = loc("p_pivot_0"(#loc366))
#loc1167 = loc("p_pivot_0"(#loc367))
#loc1168 = loc("p_pivots_sum_0"(#loc368))
#loc1169 = loc("min_larger_0"(#loc369))
#loc1170 = loc("num_min_larger_0"(#loc370))
#loc1171 = loc("p_pivot_1"(#loc371))
#loc1172 = loc("p_pivot_1"(#loc372))
#loc1173 = loc("p_pivot_1"(#loc373))
#loc1174 = loc("p_pivot_1"(#loc374))
#loc1175 = loc("p_pivots_sum_1"(#loc375))
#loc1176 = loc("min_larger_1"(#loc376))
#loc1177 = loc("num_min_larger_1"(#loc377))
#loc1178 = loc("p_pivots_sum_0"(#loc378))
#loc1179 = loc("offs_n"(#loc379))
#loc1180 = loc("offs_n"(#loc380))
#loc1181 = loc("offs_n"(#loc381))
#loc1182 = loc("mask_n_2"(#loc382))
#loc1183 = loc("probs_blk"(#loc383))
#loc1184 = loc("probs_blk"(#loc384))
#loc1185 = loc("p_pivots_sum_0"(#loc385))
#loc1186 = loc("p_pivots_sum_0"(#loc386))
#loc1187 = loc("p_pivots_sum_0"(#loc387))
#loc1188 = loc("p_pivots_sum_0"(#loc388))
#loc1189 = loc("masked_larger_0"(#loc389))
#loc1190 = loc("masked_larger_0"(#loc390))
#loc1191 = loc("min_larger_0"(#loc391))
#loc1192 = loc("min_larger_0"(#loc392))
#loc1193 = loc("p_pivots_sum_1"(#loc393))
#loc1194 = loc("p_pivots_sum_1"(#loc394))
#loc1195 = loc("p_pivots_sum_1"(#loc395))
#loc1196 = loc("p_pivots_sum_1"(#loc396))
#loc1197 = loc("masked_larger_1"(#loc397))
#loc1198 = loc("masked_larger_1"(#loc398))
#loc1199 = loc("min_larger_1"(#loc399))
#loc1200 = loc("min_larger_1"(#loc400))
#loc1201 = loc("num_min_larger_0"(#loc402))
#loc1202 = loc("offs_n"(#loc403))
#loc1203 = loc("offs_n"(#loc404))
#loc1204 = loc("offs_n"(#loc405))
#loc1205 = loc("mask_n_2"(#loc406))
#loc1206 = loc("probs_blk"(#loc407))
#loc1207 = loc("probs_blk"(#loc408))
#loc1208 = loc("num_min_larger_0"(#loc409))
#loc1209 = loc("num_min_larger_0"(#loc410))
#loc1210 = loc("num_min_larger_0"(#loc411))
#loc1211 = loc("num_min_larger_0"(#loc412))
#loc1212 = loc("num_min_larger_0"(#loc413))
#loc1213 = loc("num_min_larger_1"(#loc414))
#loc1214 = loc("num_min_larger_1"(#loc415))
#loc1215 = loc("num_min_larger_1"(#loc416))
#loc1216 = loc("num_min_larger_1"(#loc417))
#loc1217 = loc("num_min_larger_1"(#loc418))
#loc1218 = loc("num_min_larger"(#loc425))
#loc1219 = loc("found_pivot"(#loc426))
#loc1220 = loc("found_pivot"(#loc432))
#loc1221 = loc("found_pivot"(#loc433))
#loc1222 = loc("min_range"(#loc437))
#loc1223 = loc("max_range"(#loc441))
#loc1224 = loc("num_iters"(#loc442))
#loc1225 = loc("p_pivot"(#loc448))
#loc1226 = loc("p_pivot"(#loc449))
#loc1227 = loc("found_pivot"(#loc450))
#loc1228 = loc("duplicate_logit"(#loc452))
#loc1229 = loc("duplicate_logit"(#loc453))
#loc1230 = loc("duplicate_logit"(#loc454))
#loc1231 = loc("num_keep"(#loc455))
#loc1232 = loc("num_keep"(#loc456))
#loc1233 = loc("num_keep"(#loc457))
#loc1234 = loc("num_keep"(#loc458))
#loc1235 = loc("num_kept"(#loc459))
#loc1236 = loc("final_pivot"(#loc460))
#loc1237 = loc("final_pivot"(#loc461))
#loc1238 = loc("final_pivot"(#loc462))
#loc1239 = loc("num_kept"(#loc464))
#loc1240 = loc("p"(#loc465))
#loc1241 = loc("p"(#loc466))
#loc1242 = loc("final_pivot"(#loc468))
#loc1243 = loc("offs"(#loc469))
#loc1244 = loc("mask_n"(#loc470))
#loc1245 = loc("logits_blk0"(#loc471))
#loc1246 = loc("logits_blk0"(#loc472))
#loc1247 = loc("finite_mask"(#loc473))
#loc1248 = loc("finite_mask"(#loc474))
#loc1249 = loc("num_finite"(#loc475))
#loc1250 = loc("finite_logits"(#loc476))
#loc1251 = loc("avg_logit"(#loc477))
#loc1252 = loc("avg_logit"(#loc478))
#loc1253 = loc("avg_logit"(#loc479))
#loc1254 = loc("avg_logit"(#loc480))
#loc1255 = loc("sq_avg_logit"(#loc481))
#loc1256 = loc("sq_avg_logit"(#loc482))
#loc1257 = loc("sq_avg_logit"(#loc483))
#loc1258 = loc("sq_avg_logit"(#loc484))
#loc1259 = loc("sq_avg_logit"(#loc485))
#loc1260 = loc("std_logit"(#loc486))
#loc1261 = loc("std_logit"(#loc487))
#loc1262 = loc("std_logit"(#loc488))
#loc1263 = loc("std_logit"(#loc489))
#loc1264 = loc("max_sample"(#loc490))
#loc1265 = loc("max_sample"(#loc491))
#loc1266 = loc("sum_exp_logits"(#loc492))
#loc1267 = loc("max_logit"(#loc493))
#loc1268 = loc("offs_n"(#loc494))
#loc1269 = loc("offs_n"(#loc495))
#loc1270 = loc("offs_n"(#loc496))
#loc1271 = loc("mask_n"(#loc497))
#loc1272 = loc("logits_blk"(#loc498))
#loc1273 = loc("logits_blk"(#loc499))
#loc1274 = loc("max_logit"(#loc500))
#loc1275 = loc("max_logit"(#loc501))
#loc1276 = loc("finite_blk"(#loc502))
#loc1277 = loc("finite_blk"(#loc503))
#loc1278 = loc("min_logit"(#loc504))
#loc1279 = loc("min_logit"(#loc505))
#loc1280 = loc("probs_blk"(#loc506))
#loc1281 = loc("probs_blk"(#loc507))
#loc1282 = loc("probs_blk"(#loc508))
#loc1283 = loc("sum_exp_logits"(#loc509))
#loc1284 = loc("sum_exp_logits"(#loc510))
#loc1285 = loc("min_logit"(#loc512))
#loc1286 = loc("idx"(#loc513))
#loc1287 = loc("idx"(#loc514))
#loc1288 = loc("idx"(#loc515))
#loc1289 = loc("idx"(#loc516))
#loc1290 = loc("sigma"(#loc517))
#loc1291 = loc("sigma"(#loc518))
#loc1292 = loc("sigma"(#loc519))
#loc1293 = loc("sigma"(#loc520))
#loc1294 = loc("sigma"(#loc521))
#loc1295 = loc("outlier_pivot"(#loc522))
#loc1296 = loc("outlier_pivot"(#loc523))
#loc1297 = loc("outlier_prob"(#loc524))
#loc1298 = loc("outlier_prob"(#loc525))
#loc1299 = loc("outlier_prob"(#loc526))
#loc1300 = loc("sum_outlier_probs"(#loc527))
#loc1301 = loc("num_outliers"(#loc528))
#loc1302 = loc("mask_n"(#loc529))
#loc1303 = loc("offs_n"(#loc530))
#loc1304 = loc("offs_n"(#loc531))
#loc1305 = loc("offs_n"(#loc532))
#loc1306 = loc("mask_n"(#loc533))
#loc1307 = loc("probs_blk"(#loc534))
#loc1308 = loc("probs_blk"(#loc535))
#loc1309 = loc("probs_blk"(#loc536))
#loc1310 = loc("probs_blk"(#loc537))
#loc1311 = loc("probs_blk"(#loc538))
#loc1312 = loc("outlier_mask"(#loc539))
#loc1313 = loc("outlier_mask"(#loc540))
#loc1314 = loc("sum_outlier_probs"(#loc541))
#loc1315 = loc("sum_outlier_probs"(#loc542))
#loc1316 = loc("sum_outlier_probs"(#loc543))
#loc1317 = loc("cumulative_pos"(#loc544))
#loc1318 = loc("cumulative_pos"(#loc545))
#loc1319 = loc("cumulative_pos"(#loc546))
#loc1320 = loc("cumulative_pos"(#loc547))
#loc1321 = loc("num_outliers"(#loc548))
#loc1322 = loc("num_outliers"(#loc549))
#loc1323 = loc("write_pos"(#loc550))
#loc1324 = loc("max_range"(#loc554))
#loc1325 = loc("max_range"(#loc555))
#loc1326 = loc("max_range"(#loc556))
#loc1327 = loc("min_range"(#loc557))
#loc1328 = loc("min_range"(#loc558))
#loc1329 = loc("min_range"(#loc559))
#loc1330 = loc("p_pivot"(#loc560))
#loc1331 = loc("num_iters"(#loc561))
#loc1332 = loc("min_larger_prob"(#loc562))
#loc1333 = loc("num_min_larger"(#loc563))
#loc1334 = loc("p_pivots_sum"(#loc564))
#loc1335 = loc("num_duplicate_logit"(#loc566))
#loc1336 = loc("search_range"(#loc567))
#loc1337 = loc("search_iters"(#loc568))
#loc1338 = loc("search_iters"(#loc569))
#loc1339 = loc("search_iters"(#loc570))
#loc1340 = loc("search_iters"(#loc571))
#loc1341 = loc("found_pivot"(#loc572))
#loc1342 = loc("i"(#loc573))
#loc1343 = loc("p_pivot_0"(#loc575))
#loc1344 = loc("p_pivot_0"(#loc576))
#loc1345 = loc("p_pivot_0"(#loc577))
#loc1346 = loc("p_pivot_0"(#loc578))
#loc1347 = loc("p_pivots_sum_0"(#loc579))
#loc1348 = loc("min_larger_0"(#loc580))
#loc1349 = loc("num_min_larger_0"(#loc581))
#loc1350 = loc("p_pivot_1"(#loc582))
#loc1351 = loc("p_pivot_1"(#loc583))
#loc1352 = loc("p_pivot_1"(#loc584))
#loc1353 = loc("p_pivot_1"(#loc585))
#loc1354 = loc("p_pivots_sum_1"(#loc586))
#loc1355 = loc("min_larger_1"(#loc587))
#loc1356 = loc("num_min_larger_1"(#loc588))
#loc1357 = loc("p_pivots_sum_0"(#loc589))
#loc1358 = loc("offs_n"(#loc590))
#loc1359 = loc("offs_n"(#loc591))
#loc1360 = loc("offs_n"(#loc592))
#loc1361 = loc("mask_n_2"(#loc593))
#loc1362 = loc("probs_blk"(#loc594))
#loc1363 = loc("probs_blk"(#loc595))
#loc1364 = loc("p_pivots_sum_0"(#loc596))
#loc1365 = loc("p_pivots_sum_0"(#loc597))
#loc1366 = loc("p_pivots_sum_0"(#loc598))
#loc1367 = loc("p_pivots_sum_0"(#loc599))
#loc1368 = loc("masked_larger_0"(#loc600))
#loc1369 = loc("masked_larger_0"(#loc601))
#loc1370 = loc("min_larger_0"(#loc602))
#loc1371 = loc("min_larger_0"(#loc603))
#loc1372 = loc("p_pivots_sum_1"(#loc604))
#loc1373 = loc("p_pivots_sum_1"(#loc605))
#loc1374 = loc("p_pivots_sum_1"(#loc606))
#loc1375 = loc("p_pivots_sum_1"(#loc607))
#loc1376 = loc("masked_larger_1"(#loc608))
#loc1377 = loc("masked_larger_1"(#loc609))
#loc1378 = loc("min_larger_1"(#loc610))
#loc1379 = loc("min_larger_1"(#loc611))
#loc1380 = loc("num_min_larger_0"(#loc613))
#loc1381 = loc("offs_n"(#loc614))
#loc1382 = loc("offs_n"(#loc615))
#loc1383 = loc("offs_n"(#loc616))
#loc1384 = loc("mask_n_2"(#loc617))
#loc1385 = loc("probs_blk"(#loc618))
#loc1386 = loc("probs_blk"(#loc619))
#loc1387 = loc("num_min_larger_0"(#loc620))
#loc1388 = loc("num_min_larger_0"(#loc621))
#loc1389 = loc("num_min_larger_0"(#loc622))
#loc1390 = loc("num_min_larger_0"(#loc623))
#loc1391 = loc("num_min_larger_0"(#loc624))
#loc1392 = loc("num_min_larger_1"(#loc625))
#loc1393 = loc("num_min_larger_1"(#loc626))
#loc1394 = loc("num_min_larger_1"(#loc627))
#loc1395 = loc("num_min_larger_1"(#loc628))
#loc1396 = loc("num_min_larger_1"(#loc629))
#loc1397 = loc("p_pivot"(#loc636))
#loc1398 = loc("found_pivot"(#loc637))
#loc1399 = loc("p_pivot"(#loc643))
#loc1400 = loc("found_pivot"(#loc644))
#loc1401 = loc("min_range"(#loc648))
#loc1402 = loc("max_range"(#loc652))
#loc1403 = loc("num_iters"(#loc653))
#loc1404 = loc("p_pivot"(#loc659))
#loc1405 = loc("p_pivot"(#loc660))
#loc1406 = loc("found_pivot"(#loc661))
#loc1407 = loc("mask_n"(#loc663))
#loc1408 = loc("offs_n"(#loc664))
#loc1409 = loc("offs_n"(#loc665))
#loc1410 = loc("offs_n"(#loc666))
#loc1411 = loc("mask_n"(#loc667))
#loc1412 = loc("probs_blk"(#loc668))
#loc1413 = loc("probs_blk"(#loc669))
#loc1414 = loc("probs_blk"(#loc670))
#loc1415 = loc("probs_blk"(#loc671))
#loc1416 = loc("probs_blk"(#loc672))
#loc1417 = loc("found_pivot"(#loc676))
#loc1418 = loc("mask_n"(#loc677))
#loc1419 = loc("p_pivot_0"(#loc679))
#loc1420 = loc("p_pivot_0"(#loc680))
#loc1421 = loc("p_pivot_0"(#loc681))
#loc1422 = loc("p_pivot_0"(#loc682))
#loc1423 = loc("p_pivots_sum_0"(#loc683))
#loc1424 = loc("min_larger_0"(#loc684))
#loc1425 = loc("num_min_larger_0"(#loc685))
#loc1426 = loc("p_pivot_1"(#loc686))
#loc1427 = loc("p_pivot_1"(#loc687))
#loc1428 = loc("p_pivot_1"(#loc688))
#loc1429 = loc("p_pivot_1"(#loc689))
#loc1430 = loc("p_pivots_sum_1"(#loc690))
#loc1431 = loc("min_larger_1"(#loc691))
#loc1432 = loc("num_min_larger_1"(#loc692))
#loc1433 = loc("mask_n"(#loc693))
#loc1434 = loc("offs_n"(#loc694))
#loc1435 = loc("offs_n"(#loc695))
#loc1436 = loc("offs_n"(#loc696))
#loc1437 = loc("mask_n"(#loc697))
#loc1438 = loc("probs_blk"(#loc698))
#loc1439 = loc("probs_blk"(#loc699))
#loc1440 = loc("p_pivots_sum_0"(#loc700))
#loc1441 = loc("p_pivots_sum_0"(#loc701))
#loc1442 = loc("p_pivots_sum_0"(#loc702))
#loc1443 = loc("p_pivots_sum_0"(#loc703))
#loc1444 = loc("masked_larger_0"(#loc704))
#loc1445 = loc("masked_larger_0"(#loc705))
#loc1446 = loc("min_larger_0"(#loc706))
#loc1447 = loc("min_larger_0"(#loc707))
#loc1448 = loc("p_pivots_sum_1"(#loc708))
#loc1449 = loc("p_pivots_sum_1"(#loc709))
#loc1450 = loc("p_pivots_sum_1"(#loc710))
#loc1451 = loc("p_pivots_sum_1"(#loc711))
#loc1452 = loc("masked_larger_1"(#loc712))
#loc1453 = loc("masked_larger_1"(#loc713))
#loc1454 = loc("min_larger_1"(#loc714))
#loc1455 = loc("min_larger_1"(#loc715))
#loc1456 = loc("mask_n"(#loc717))
#loc1457 = loc("offs_n"(#loc718))
#loc1458 = loc("offs_n"(#loc719))
#loc1459 = loc("offs_n"(#loc720))
#loc1460 = loc("mask_n"(#loc721))
#loc1461 = loc("probs_blk"(#loc722))
#loc1462 = loc("probs_blk"(#loc723))
#loc1463 = loc("num_min_larger_0"(#loc724))
#loc1464 = loc("num_min_larger_0"(#loc725))
#loc1465 = loc("num_min_larger_0"(#loc726))
#loc1466 = loc("num_min_larger_0"(#loc727))
#loc1467 = loc("num_min_larger_0"(#loc728))
#loc1468 = loc("num_min_larger_1"(#loc729))
#loc1469 = loc("num_min_larger_1"(#loc730))
#loc1470 = loc("num_min_larger_1"(#loc731))
#loc1471 = loc("num_min_larger_1"(#loc732))
#loc1472 = loc("num_min_larger_1"(#loc733))
#loc1473 = loc("p_pivot"(#loc740))
#loc1474 = loc("found_pivot"(#loc741))
#loc1475 = loc("p_pivot"(#loc747))
#loc1476 = loc("found_pivot"(#loc748))
#loc1477 = loc("min_range"(#loc752))
#loc1478 = loc("max_range"(#loc756))
#loc1479 = loc("num_iters"(#loc757))
#loc1480 = loc("p_pivot"(#loc763))
#loc1481 = loc("p_pivot"(#loc764))
#loc1482 = loc("found_pivot"(#loc765))
#loc1483 = loc("duplicate_logit"(#loc767))
#loc1484 = loc("duplicate_logit"(#loc768))
#loc1485 = loc("duplicate_logit"(#loc769))
#loc1486 = loc("num_keep"(#loc770))
#loc1487 = loc("num_keep"(#loc771))
#loc1488 = loc("num_keep"(#loc772))
#loc1489 = loc("num_keep"(#loc773))
#loc1490 = loc("num_kept"(#loc774))
#loc1491 = loc("final_pivot"(#loc775))
#loc1492 = loc("final_pivot"(#loc776))
#loc1493 = loc("final_pivot"(#loc777))
#loc1494 = loc("final_pivot"(#loc781))
#loc1495 = loc("num_kept"(#loc783))
#loc1496 = loc("num_kept"(#loc784))
#loc1497 = loc("offs_n"(#loc785))
#loc1498 = loc("offs_n"(#loc786))
#loc1499 = loc("offs_n"(#loc787))
#loc1500 = loc("mask_n"(#loc788))
#loc1501 = loc("logits_blk"(#loc789))
#loc1502 = loc("logits_blk"(#loc790))
#loc1503 = loc("keep_mask"(#loc791))
#loc1504 = loc("keep_mask"(#loc792))
#loc1505 = loc("duplicate_mask"(#loc795))
#loc1506 = loc("duplicate_mask"(#loc796))
#loc1507 = loc("duplicate_mask"(#loc797))
#loc1508 = loc("duplicate_mask"(#loc798))
#loc1509 = loc("duplicate_count"(#loc799))
#loc1510 = loc("duplicate_count"(#loc800))
#loc1511 = loc("duplicate_keep_mask"(#loc801))
#loc1512 = loc("duplicate_keep_mask"(#loc802))
#loc1513 = loc("duplicate_remove_mask"(#loc803))
#loc1514 = loc("duplicate_remove_mask"(#loc804))
#loc1515 = loc("num_kept"(#loc805))
#loc1516 = loc("num_kept"(#loc806))
#loc1517 = loc("keep_mask"(#loc807))
#loc1518 = loc("keep_mask"(#loc808))
#loc1519 = loc("logits_blk"(#loc809))
#loc1521 = loc("input"(#loc819))
#loc1531 = loc("input"(#loc845))
#loc1536 = loc("tile_min"(#loc850))
#loc1537 = loc("tile_min"(#loc851))
#loc1538 = loc("tile_eq"(#loc852))
#loc1539 = loc("tile_eq"(#loc853))
#loc1540 = loc("tile_eq"(#loc854))
#loc1541 = loc("tile_eq"(#loc855))
#loc1542 = loc("tile_cnt"(#loc856))
#loc1543 = loc("is_new"(#loc857))
#loc1544 = loc("is_same"(#loc858))
#loc1545 = loc("is_same"(#loc859))
#loc1546 = loc("is_same"(#loc860))
#loc1547 = loc("num_min_larger"(#loc861))
#loc1548 = loc("num_min_larger"(#loc862))
#loc1549 = loc("num_min_larger"(#loc863))
#loc1550 = loc("min_larger"(#loc864))
#loc1551 = loc("final_pivot"(#loc880))
#loc1552 = loc("duplicate_logit"(#loc881))
#loc1553 = loc("num_duplicate_logit"(#loc882))
#loc1554 = loc("num_keep"(#loc883))
#loc1555 = loc("num_kept"(#loc884))
#loc1556 = loc("max_logit"(#loc885))
#loc1557 = loc("min_logit"(#loc886))
#loc1558 = loc("duplicate_logit"(#loc889))
#loc1559 = loc("min_range"(#loc921))
#loc1560 = loc("min_logit"(#loc924))
#loc1561 = loc("min_range"(#loc949))
#loc1562 = loc("k_pivot"(#loc951))
#loc1563 = loc("k_pivots_num"(#loc952))
#loc1564 = loc("min_larger"(#loc953))
#loc1565 = loc("num_min_larger"(#loc954))
#loc1566 = loc("min_logit"(#loc955))
#loc1567 = loc("found_pivot"(#loc961))
#loc1568 = loc("num_iters"(#loc962))
#loc1569 = loc("k_pivot"(#loc973))
#loc1570 = loc("k_pivot"(#loc980))
#loc1571 = loc("min_larger_0"(#loc984))
#loc1572 = loc("k_pivots_num"(#loc997))
#loc1573 = loc("found_pivot"(#loc998))
#loc1574 = loc("found_pivot"(#loc999))
#loc1575 = loc("found_pivot"(#loc1000))
#loc1576 = loc("k_pivot"(#loc1005))
#loc1577 = loc("found_pivot"(#loc1006))
#loc1578 = loc("found_pivot"(#loc1007))
#loc1579 = loc("i"(#loc1008))
#loc1580 = loc("k_pivot"(#loc1012))
#loc1581 = loc("k_pivot"(#loc1019))
#loc1582 = loc("k_pivots_num_0"(#loc1023))
#loc1583 = loc("k_pivots_num"(#loc1036))
#loc1584 = loc("found_pivot"(#loc1037))
#loc1585 = loc("found_pivot"(#loc1038))
#loc1586 = loc("found_pivot"(#loc1039))
#loc1587 = loc("k_pivot"(#loc1044))
#loc1588 = loc("found_pivot"(#loc1045))
#loc1589 = loc("num_keep"(#loc1047))
#loc1590 = loc("num_kept"(#loc1048))
#loc1591 = loc("final_pivot"(#loc1050))
#loc1592 = loc("duplicate_logit"(#loc1052))
#loc1593 = loc("duplicate_logit"(#loc1055))
#loc1594 = loc("num_outliers_2"(#loc1057))
#loc1595 = loc("search_range"(#loc1058))
#loc1596 = loc("search_iters"(#loc1062))
#loc1597 = loc("sum_exp_logits"(#loc1064))
#loc1598 = loc("outlier_mask"(#loc1072))
#loc1599 = loc("outlier_mask"(#loc1083))
#loc1600 = loc("num_kept"(#loc1085))
#loc1601 = loc("mask_n"(#loc1101))
#loc1602 = loc("search_range"(#loc1135))
#loc1603 = loc("search_iters"(#loc1139))
#loc1604 = loc("max_range"(#loc1150))
#loc1605 = loc("min_range"(#loc1153))
#loc1606 = loc("p_pivot"(#loc1154))
#loc1607 = loc("min_larger_prob"(#loc1156))
#loc1608 = loc("num_min_larger"(#loc1157))
#loc1609 = loc("p_pivots_sum"(#loc1158))
#loc1610 = loc("found_pivot"(#loc1159))
#loc1611 = loc("num_iters"(#loc1160))
#loc1612 = loc("p_pivot"(#loc1167))
#loc1613 = loc("p_pivot"(#loc1174))
#loc1614 = loc("min_larger_0"(#loc1178))
#loc1615 = loc("num_min_larger_1"(#loc1201))
#loc1616 = loc("found_pivot"(#loc1218))
#loc1617 = loc("found_pivot"(#loc1219))
#loc1618 = loc("p_pivot"(#loc1220))
#loc1619 = loc("found_pivot"(#loc1221))
#loc1620 = loc("p_pivot"(#loc1226))
#loc1621 = loc("found_pivot"(#loc1227))
#loc1622 = loc("duplicate_logit"(#loc1230))
#loc1623 = loc("num_keep"(#loc1234))
#loc1624 = loc("num_kept"(#loc1235))
#loc1625 = loc("final_pivot"(#loc1238))
#loc1626 = loc("num_kept"(#loc1239))
#loc1627 = loc("duplicate_logit"(#loc1242))
#loc1628 = loc("min_logit"(#loc1267))
#loc1629 = loc("min_logit"(#loc1285))
#loc1630 = loc("min_range"(#loc1299))
#loc1631 = loc("sum_outlier_probs"(#loc1302))
#loc1632 = loc("max_range"(#loc1326))
#loc1633 = loc("min_range"(#loc1329))
#loc1634 = loc("p_pivot"(#loc1330))
#loc1635 = loc("min_larger_prob"(#loc1332))
#loc1636 = loc("num_min_larger"(#loc1333))
#loc1637 = loc("p_pivots_sum"(#loc1334))
#loc1638 = loc("found_pivot"(#loc1341))
#loc1639 = loc("max_range"(#loc1342))
#loc1640 = loc("p_pivot"(#loc1346))
#loc1641 = loc("p_pivot"(#loc1353))
#loc1642 = loc("min_larger_0"(#loc1357))
#loc1643 = loc("num_min_larger_1"(#loc1380))
#loc1644 = loc("min_larger_prob"(#loc1397))
#loc1645 = loc("found_pivot"(#loc1398))
#loc1646 = loc("found_pivot"(#loc1399))
#loc1647 = loc("found_pivot"(#loc1400))
#loc1648 = loc("p_pivot"(#loc1405))
#loc1649 = loc("found_pivot"(#loc1406))
#loc1650 = loc("found_pivot"(#loc1417))
#loc1651 = loc("i"(#loc1418))
#loc1652 = loc("p_pivot"(#loc1422))
#loc1653 = loc("p_pivot"(#loc1429))
#loc1654 = loc("p_pivots_sum_0"(#loc1433))
#loc1655 = loc("num_min_larger_0"(#loc1456))
#loc1656 = loc("min_larger_prob"(#loc1473))
#loc1657 = loc("found_pivot"(#loc1474))
#loc1658 = loc("found_pivot"(#loc1475))
#loc1659 = loc("found_pivot"(#loc1476))
#loc1660 = loc("p_pivot"(#loc1481))
#loc1661 = loc("found_pivot"(#loc1482))
#loc1662 = loc("duplicate_logit"(#loc1485))
#loc1663 = loc("num_keep"(#loc1489))
#loc1664 = loc("num_kept"(#loc1490))
#loc1665 = loc("final_pivot"(#loc1493))
#loc1666 = loc("final_pivot"(#loc1494))
#loc1667 = loc("num_kept"(#loc1496))
#loc1668 = loc("keep_mask"(#loc1504))
#loc1669 = loc("num_kept"(#loc1516))
#loc1670 = loc("keep_mask"(#loc1518))
#loc1671 = loc("num_duplicate_logit"(#loc1558))
#loc1672 = loc("mask_n"(#loc1560))
#loc1673 = loc("min_logit"(#loc1561))
#loc1674 = loc("k_pivot"(#loc1562))
#loc1675 = loc("k_pivots_num"(#loc1563))
#loc1676 = loc("min_larger"(#loc1564))
#loc1677 = loc("num_min_larger"(#loc1565))
#loc1678 = loc("duplicate_logit"(#loc1566))
#loc1679 = loc("k_pivot"(#loc1568))
#loc1680 = loc("min_range"(#loc1569))
#loc1681 = loc("min_range"(#loc1570))
#loc1682 = loc("num_min_larger_0"(#loc1571))
#loc1683 = loc("min_larger"(#loc1572))
#loc1684 = loc("num_iters"(#loc1579))
#loc1685 = loc("min_range"(#loc1580))
#loc1686 = loc("min_range"(#loc1581))
#loc1687 = loc("min_larger_0"(#loc1582))
#loc1688 = loc("min_larger"(#loc1583))
#loc1689 = loc("num_keep"(#loc1589))
#loc1690 = loc("num_kept"(#loc1590))
#loc1691 = loc("final_pivot"(#loc1591))
#loc1692 = loc("num_duplicate_logit"(#loc1592))
#loc1693 = loc("num_duplicate_logit"(#loc1593))
#loc1694 = loc("num_kept"(#loc1597))
#loc1695 = loc("sum_exp_logits"(#loc1601))
#loc1696 = loc("num_min_larger"(#loc1611))
#loc1697 = loc("min_range"(#loc1612))
#loc1698 = loc("min_range"(#loc1613))
#loc1699 = loc("p_pivots_sum_1"(#loc1614))
#loc1700 = loc("num_min_larger"(#loc1615))
#loc1701 = loc("p_pivot"(#loc1616))
#loc1702 = loc("num_kept"(#loc1626))
#loc1703 = loc("num_duplicate_logit"(#loc1627))
#loc1704 = loc("mask_n"(#loc1628))
#loc1705 = loc("num_outliers"(#loc1631))
#loc1706 = loc("max_range"(#loc1632))
#loc1707 = loc("p_pivot"(#loc1634))
#loc1708 = loc("min_larger_prob"(#loc1635))
#loc1709 = loc("num_min_larger"(#loc1636))
#loc1710 = loc("p_pivots_sum"(#loc1637))
#loc1711 = loc("min_range"(#loc1639))
#loc1712 = loc("min_range"(#loc1640))
#loc1713 = loc("min_range"(#loc1641))
#loc1714 = loc("p_pivots_sum_1"(#loc1642))
#loc1715 = loc("num_min_larger"(#loc1643))
#loc1716 = loc("num_min_larger"(#loc1644))
#loc1717 = loc("max_range"(#loc1651))
#loc1718 = loc("min_range"(#loc1652))
#loc1719 = loc("min_range"(#loc1653))
#loc1720 = loc("min_larger_0"(#loc1654))
#loc1721 = loc("num_min_larger_1"(#loc1655))
#loc1722 = loc("num_min_larger"(#loc1656))
#loc1723 = loc("num_keep"(#loc1671))
#loc1724 = loc("num_outliers"(#loc1672))
#loc1725 = loc("min_logit"(#loc1673))
#loc1726 = loc("num_duplicate_logit"(#loc1678))
#loc1727 = loc("k_pivots_num"(#loc1679))
#loc1728 = loc("max_range"(#loc1680))
#loc1729 = loc("max_range"(#loc1681))
#loc1730 = loc("k_pivots_num_1"(#loc1682))
#loc1731 = loc("num_min_larger"(#loc1683))
#loc1732 = loc("k_pivot"(#loc1684))
#loc1733 = loc("max_range"(#loc1685))
#loc1734 = loc("max_range"(#loc1686))
#loc1735 = loc("num_min_larger_0"(#loc1687))
#loc1736 = loc("num_min_larger"(#loc1688))
#loc1737 = loc("num_kept"(#loc1690))
#loc1738 = loc("num_keep"(#loc1692))
#loc1739 = loc("num_keep"(#loc1693))
#loc1740 = loc("sum_exp_logits"(#loc1694))
#loc1741 = loc("num_outliers_2"(#loc1695))
#loc1742 = loc("found_pivot"(#loc1696))
#loc1743 = loc("max_range"(#loc1697))
#loc1744 = loc("max_range"(#loc1698))
#loc1745 = loc("min_larger_1"(#loc1699))
#loc1746 = loc("num_min_larger"(#loc1700))
#loc1747 = loc("min_larger_prob"(#loc1701))
#loc1748 = loc("final_pivot"(#loc1702))
#loc1749 = loc("num_keep"(#loc1703))
#loc1750 = loc("sum_exp_logits"(#loc1704))
#loc1751 = loc("mask_n"(#loc1705))
#loc1752 = loc("p_pivot"(#loc1711))
#loc1753 = loc("max_range"(#loc1712))
#loc1754 = loc("max_range"(#loc1713))
#loc1755 = loc("min_larger_1"(#loc1714))
#loc1756 = loc("num_min_larger"(#loc1715))
#loc1757 = loc("p_pivots_sum"(#loc1716))
#loc1758 = loc("min_range"(#loc1717))
#loc1759 = loc("max_range"(#loc1718))
#loc1760 = loc("max_range"(#loc1719))
#loc1761 = loc("p_pivots_sum_1"(#loc1720))
#loc1762 = loc("num_min_larger"(#loc1721))
#loc1763 = loc("p_pivots_sum"(#loc1722))
#loc1764 = loc("num_kept"(#loc1723))
#loc1765 = loc("num_finite_total"(#loc1724))
#loc1766 = loc("mask_n"(#loc1726))
#loc1767 = loc("min_larger"(#loc1727))
#loc1768 = loc("min_larger_1"(#loc1730))
#loc1769 = loc("found_pivot"(#loc1731))
#loc1770 = loc("k_pivots_num"(#loc1732))
#loc1771 = loc("k_pivots_num_1"(#loc1735))
#loc1772 = loc("found_pivot"(#loc1736))
#loc1773 = loc("num_kept"(#loc1738))
#loc1774 = loc("num_kept"(#loc1739))
#loc1775 = loc("num_kept"(#loc1741))
#loc1776 = loc("max_range"(#loc1742))
#loc1777 = loc("min_larger_prob"(#loc1745))
#loc1778 = loc("p_pivots_sum"(#loc1747))
#loc1779 = loc("num_kept"(#loc1749))
#loc1780 = loc("max_logit"(#loc1750))
#loc1781 = loc("num_iters"(#loc1752))
#loc1782 = loc("min_larger_prob"(#loc1755))
#loc1783 = loc("found_pivot"(#loc1757))
#loc1784 = loc("p_pivot"(#loc1758))
#loc1785 = loc("min_larger_1"(#loc1761))
#loc1786 = loc("num_min_larger"(#loc1762))
#loc1787 = loc("found_pivot"(#loc1763))
#loc1788 = loc("max_logit"(#loc1764))
#loc1789 = loc("max_range"(#loc1765))
#loc1790 = loc("i"(#loc1766))
#loc1791 = loc("num_min_larger"(#loc1767))
#loc1792 = loc("num_min_larger_1"(#loc1768))
#loc1793 = loc("min_larger"(#loc1770))
#loc1794 = loc("min_larger_1"(#loc1771))
#loc1795 = loc("min_logit"(#loc1773))
#loc1796 = loc("min_logit"(#loc1774))
#loc1797 = loc("mask_n"(#loc1775))
#loc1798 = loc("min_range"(#loc1776))
#loc1799 = loc("p_pivots_sum"(#loc1777))
#loc1800 = loc("max_logit"(#loc1779))
#loc1801 = loc("min_larger_prob"(#loc1781))
#loc1802 = loc("p_pivots_sum"(#loc1782))
#loc1803 = loc("num_iters"(#loc1784))
#loc1804 = loc("min_larger_prob"(#loc1785))
#loc1805 = loc("min_logit"(#loc1788))
#loc1806 = loc("max_range"(#loc1789))
#loc1807 = loc("num_iters"(#loc1790))
#loc1808 = loc("max_range"(#loc1791))
#loc1809 = loc("k_pivots_num"(#loc1792))
#loc1810 = loc("num_min_larger"(#loc1793))
#loc1811 = loc("num_min_larger_1"(#loc1794))
#loc1812 = loc("mask_n"(#loc1796))
#loc1813 = loc("sum_exp_logits"(#loc1797))
#loc1814 = loc("p_pivot"(#loc1798))
#loc1815 = loc("min_larger_prob"(#loc1799))
#loc1816 = loc("min_logit"(#loc1800))
#loc1817 = loc("num_min_larger"(#loc1801))
#loc1818 = loc("min_larger_prob"(#loc1802))
#loc1819 = loc("min_larger_prob"(#loc1803))
#loc1820 = loc("p_pivots_sum"(#loc1804))
#loc1821 = loc("final_pivot"(#loc1805))
#loc1822 = loc("mask_n"(#loc1806))
#loc1823 = loc("num_min_larger"(#loc1807))
#loc1824 = loc("min_range"(#loc1808))
#loc1825 = loc("min_larger"(#loc1809))
#loc1826 = loc("max_range"(#loc1810))
#loc1827 = loc("k_pivots_num"(#loc1811))
#loc1828 = loc("i"(#loc1812))
#loc1829 = loc("num_outliers_2"(#loc1813))
#loc1830 = loc("min_larger_prob"(#loc1814))
#loc1831 = loc("p_pivots_sum"(#loc1815))
#loc1832 = loc("p_pivots_sum"(#loc1817))
#loc1833 = loc("p_pivots_sum"(#loc1818))
#loc1834 = loc("num_min_larger"(#loc1819))
#loc1835 = loc("min_larger_prob"(#loc1820))
#loc1836 = loc("duplicate_logit"(#loc1821))
#loc1837 = loc("max_logit"(#loc1822))
#loc1838 = loc("found_pivot"(#loc1823))
#loc1839 = loc("found_pivot"(#loc1824))
#loc1840 = loc("num_min_larger"(#loc1825))
#loc1841 = loc("min_range"(#loc1826))
#loc1842 = loc("min_larger"(#loc1827))
#loc1843 = loc("num_iters"(#loc1828))
#loc1844 = loc("p_pivots_sum"(#loc1830))
#loc1845 = loc("found_pivot"(#loc1832))
#loc1846 = loc("p_pivots_sum"(#loc1834))
#loc1847 = loc("p_pivots_sum"(#loc1835))
#loc1848 = loc("num_duplicate_logit"(#loc1836))
#loc1849 = loc("max_range"(#loc1838))
#loc1850 = loc("i"(#loc1839))
#loc1851 = loc("k_pivots_num"(#loc1840))
#loc1852 = loc("found_pivot"(#loc1841))
#loc1853 = loc("num_min_larger"(#loc1842))
#loc1854 = loc("num_min_larger"(#loc1843))
#loc1855 = loc("num_duplicate_logit"(#loc1844))
#loc1856 = loc("i"(#loc1845))
#loc1857 = loc("found_pivot"(#loc1846))
#loc1858 = loc("num_keep"(#loc1848))
#loc1859 = loc("min_range"(#loc1849))
#loc1860 = loc("num_iters"(#loc1850))
#loc1861 = loc("min_larger"(#loc1851))
#loc1862 = loc("mask_n"(#loc1852))
#loc1863 = loc("k_pivots_num"(#loc1853))
#loc1864 = loc("found_pivot"(#loc1854))
#loc1865 = loc("i"(#loc1855))
#loc1866 = loc("max_range"(#loc1856))
#loc1867 = loc("mask_n"(#loc1857))
#loc1868 = loc("num_kept"(#loc1858))
#loc1869 = loc("duplicate_logit"(#loc1859))
#loc1870 = loc("k_pivot"(#loc1860))
#loc1871 = loc("num_min_larger"(#loc1861))
#loc1872 = loc("i"(#loc1862))
#loc1873 = loc("min_larger"(#loc1863))
#loc1874 = loc("max_range"(#loc1864))
#loc1875 = loc("num_iters"(#loc1865))
#loc1876 = loc("min_range"(#loc1866))
#loc1877 = loc("i"(#loc1867))
#loc1878 = loc("max_logit"(#loc1868))
#loc1879 = loc("num_duplicate_logit"(#loc1869))
#loc1880 = loc("k_pivots_num"(#loc1870))
#loc1881 = loc("num_iters"(#loc1872))
#loc1882 = loc("num_min_larger"(#loc1873))
#loc1883 = loc("min_range"(#loc1874))
#loc1884 = loc("num_min_larger"(#loc1875))
#loc1885 = loc("p_pivot"(#loc1876))
#loc1886 = loc("max_range"(#loc1877))
#loc1887 = loc("min_logit"(#loc1878))
#loc1888 = loc("mask_n"(#loc1879))
#loc1889 = loc("min_larger"(#loc1880))
#loc1890 = loc("k_pivot"(#loc1881))
#loc1891 = loc("found_pivot"(#loc1884))
#loc1892 = loc("num_iters"(#loc1885))
#loc1893 = loc("min_range"(#loc1886))
#loc1894 = loc("i"(#loc1888))
#loc1895 = loc("num_min_larger"(#loc1889))
#loc1896 = loc("k_pivots_num"(#loc1890))
#loc1897 = loc("max_range"(#loc1891))
#loc1898 = loc("min_larger_prob"(#loc1892))
#loc1899 = loc("p_pivot"(#loc1893))
#loc1900 = loc("num_iters"(#loc1894))
#loc1901 = loc("found_pivot"(#loc1895))
#loc1902 = loc("min_larger"(#loc1896))
#loc1903 = loc("min_range"(#loc1897))
#loc1904 = loc("num_min_larger"(#loc1898))
#loc1905 = loc("num_iters"(#loc1899))
#loc1906 = loc("num_min_larger"(#loc1900))
#loc1907 = loc("max_range"(#loc1901))
#loc1908 = loc("num_min_larger"(#loc1902))
#loc1909 = loc("p_pivots_sum"(#loc1904))
#loc1910 = loc("min_larger_prob"(#loc1905))
#loc1911 = loc("found_pivot"(#loc1906))
#loc1912 = loc("min_range"(#loc1907))
#loc1913 = loc("found_pivot"(#loc1908))
#loc1914 = loc("found_pivot"(#loc1909))
#loc1915 = loc("num_min_larger"(#loc1910))
#loc1916 = loc("max_range"(#loc1911))
#loc1917 = loc("max_range"(#loc1913))
#loc1918 = loc("p_pivots_sum"(#loc1915))
#loc1919 = loc("min_range"(#loc1916))
#loc1920 = loc("min_range"(#loc1917))
#loc1921 = loc("found_pivot"(#loc1918))
