#loc = loc("/home/ericbuehler/vllm/.venv-bench/lib/python3.12/site-packages/vllm/v1/attention/ops/triton_unified_attention.py":58:0)
#loc1 = loc(unknown)
#loc5 = loc("/home/ericbuehler/vllm/.venv-bench/lib/python3.12/site-packages/vllm/v1/attention/ops/triton_attention_helpers.py":67:68)
#loc6 = loc("/home/ericbuehler/vllm/.venv-bench/lib/python3.12/site-packages/vllm/v1/attention/ops/triton_unified_attention.py":157:73)
#loc8 = loc("left")
#loc9 = loc("right")
#loc123 = loc("/home/ericbuehler/vllm/.venv-bench/lib/python3.12/site-packages/vllm/v1/attention/ops/triton_attention_helpers.py":371:31)
#loc124 = loc("/home/ericbuehler/vllm/.venv-bench/lib/python3.12/site-packages/vllm/v1/attention/ops/triton_unified_attention.py":325:44)
#loc133 = loc("/home/ericbuehler/vllm/.venv-bench/lib/python3.12/site-packages/vllm/v1/attention/ops/triton_attention_helpers.py":378:17)
#loc153 = loc("output_ptr"(#loc))
#loc154 = loc("segm_output_ptr"(#loc))
#loc155 = loc("segm_max_ptr"(#loc))
#loc156 = loc("segm_expsum_ptr"(#loc))
#loc157 = loc("query_ptr"(#loc))
#loc158 = loc("key_cache_ptr"(#loc))
#loc159 = loc("value_cache_ptr"(#loc))
#loc160 = loc("block_tables_ptr"(#loc))
#loc161 = loc("seq_lens_ptr"(#loc))
#loc162 = loc("k_scale_cache_ptr"(#loc))
#loc163 = loc("v_scale_cache_ptr"(#loc))
#loc164 = loc("scale"(#loc))
#loc165 = loc("k_scale"(#loc))
#loc166 = loc("v_scale"(#loc))
#loc167 = loc("out_scale"(#loc))
#loc168 = loc("softcap"(#loc))
#loc169 = loc("block_table_stride"(#loc))
#loc170 = loc("query_stride_0"(#loc))
#loc171 = loc("query_stride_1"(#loc))
#loc172 = loc("output_stride_0"(#loc))
#loc173 = loc("output_stride_1"(#loc))
#loc174 = loc("qq_bias_stride_0"(#loc))
#loc175 = loc("stride_k_cache_0"(#loc))
#loc176 = loc("stride_k_cache_1"(#loc))
#loc177 = loc("stride_k_cache_2"(#loc))
#loc178 = loc("stride_v_cache_0"(#loc))
#loc179 = loc("stride_v_cache_1"(#loc))
#loc180 = loc("stride_v_cache_2"(#loc))
#loc181 = loc("stride_ks_blk"(#loc))
#loc182 = loc("stride_ks_slot"(#loc))
#loc183 = loc("stride_ks_head"(#loc))
#loc184 = loc("stride_vs_blk"(#loc))
#loc185 = loc("stride_vs_slot"(#loc))
#loc186 = loc("stride_vs_head"(#loc))
#loc187 = loc("query_start_len_ptr"(#loc))
#loc188 = loc("num_seqs"(#loc))
#loc192 = loc("seq_idx"(#loc5))
#loc193 = loc("left"(#loc8))
#loc194 = loc("right"(#loc9))
#loc297 = loc("m_j"(#loc123))
#loc304 = loc("l_j"(#loc133))
#loc320 = loc(callsite(#loc192 at #loc6))
#loc340 = loc(callsite(#loc297 at #loc124))
#loc347 = loc(callsite(#loc304 at #loc124))
#loc354 = loc(callsite(#loc193 at #loc320))
#loc355 = loc(callsite(#loc194 at #loc320))
#loc371 = loc(callsite(#loc1 at #loc340))
#loc373 = loc(callsite(#loc1 at #loc347))
module {
  tt.func public @kernel_unified_attention(%output_ptr: !tt.ptr<bf16> {tt.divisibility = 16 : i32} loc("output_ptr"(#loc)), %segm_output_ptr: !tt.ptr<bf16> {tt.divisibility = 16 : i32} loc("segm_output_ptr"(#loc)), %segm_max_ptr: !tt.ptr<bf16> {tt.divisibility = 16 : i32} loc("segm_max_ptr"(#loc)), %segm_expsum_ptr: !tt.ptr<bf16> {tt.divisibility = 16 : i32} loc("segm_expsum_ptr"(#loc)), %query_ptr: !tt.ptr<bf16> {tt.divisibility = 16 : i32} loc("query_ptr"(#loc)), %key_cache_ptr: !tt.ptr<bf16> {tt.divisibility = 16 : i32} loc("key_cache_ptr"(#loc)), %value_cache_ptr: !tt.ptr<bf16> {tt.divisibility = 16 : i32} loc("value_cache_ptr"(#loc)), %block_tables_ptr: !tt.ptr<i32> {tt.divisibility = 16 : i32} loc("block_tables_ptr"(#loc)), %seq_lens_ptr: !tt.ptr<i32> {tt.divisibility = 16 : i32} loc("seq_lens_ptr"(#loc)), %k_scale_cache_ptr: !tt.ptr<bf16> {tt.divisibility = 16 : i32} loc("k_scale_cache_ptr"(#loc)), %v_scale_cache_ptr: !tt.ptr<bf16> {tt.divisibility = 16 : i32} loc("v_scale_cache_ptr"(#loc)), %scale: f32 loc("scale"(#loc)), %k_scale: !tt.ptr<f32> {tt.divisibility = 16 : i32} loc("k_scale"(#loc)), %v_scale: !tt.ptr<f32> {tt.divisibility = 16 : i32} loc("v_scale"(#loc)), %out_scale: f32 loc("out_scale"(#loc)), %softcap: i32 {tt.divisibility = 16 : i32} loc("softcap"(#loc)), %block_table_stride: i64 loc("block_table_stride"(#loc)), %query_stride_0: i64 {tt.divisibility = 16 : i32} loc("query_stride_0"(#loc)), %query_stride_1: i64 {tt.divisibility = 16 : i32} loc("query_stride_1"(#loc)), %output_stride_0: i64 {tt.divisibility = 16 : i32} loc("output_stride_0"(#loc)), %output_stride_1: i64 {tt.divisibility = 16 : i32} loc("output_stride_1"(#loc)), %qq_bias_stride_0: i64 {tt.divisibility = 16 : i32} loc("qq_bias_stride_0"(#loc)), %stride_k_cache_0: i64 {tt.divisibility = 16 : i32} loc("stride_k_cache_0"(#loc)), %stride_k_cache_1: i64 {tt.divisibility = 16 : i32} loc("stride_k_cache_1"(#loc)), %stride_k_cache_2: i64 {tt.divisibility = 16 : i32} loc("stride_k_cache_2"(#loc)), %stride_v_cache_0: i64 {tt.divisibility = 16 : i32} loc("stride_v_cache_0"(#loc)), %stride_v_cache_1: i64 {tt.divisibility = 16 : i32} loc("stride_v_cache_1"(#loc)), %stride_v_cache_2: i64 {tt.divisibility = 16 : i32} loc("stride_v_cache_2"(#loc)), %stride_ks_blk: i64 {tt.divisibility = 16 : i32} loc("stride_ks_blk"(#loc)), %stride_ks_slot: i64 {tt.divisibility = 16 : i32} loc("stride_ks_slot"(#loc)), %stride_ks_head: i64 {tt.divisibility = 16 : i32} loc("stride_ks_head"(#loc)), %stride_vs_blk: i64 {tt.divisibility = 16 : i32} loc("stride_vs_blk"(#loc)), %stride_vs_slot: i64 {tt.divisibility = 16 : i32} loc("stride_vs_slot"(#loc)), %stride_vs_head: i64 {tt.divisibility = 16 : i32} loc("stride_vs_head"(#loc)), %query_start_len_ptr: !tt.ptr<i32> {tt.divisibility = 16 : i32} loc("query_start_len_ptr"(#loc)), %num_seqs: i32 loc("num_seqs"(#loc))) attributes {noinline = false} {
    %cst = arith.constant dense<0.000000e+00> : tensor<16xf32> loc(#loc1)
    %c31_i32 = arith.constant 31 : i32 loc(#loc1)
    %cst_0 = arith.constant dense<0xFF800000> : tensor<16xf32> loc(#loc1)
    %cst_1 = arith.constant dense<0.000000e+00> : tensor<32x512xbf16> loc(#loc1)
    %cst_2 = arith.constant dense<0.000000e+00> : tensor<512x32xbf16> loc(#loc1)
    %c1_i32 = arith.constant 1 : i32 loc(#loc1)
    %cst_3 = arith.constant dense<0.000000e+00> : tensor<16x512xbf16> loc(#loc1)
    %cst_4 = arith.constant dense<0xFF800000> : tensor<16x32xf32> loc(#loc1)
    %cst_5 = arith.constant dense<0.000000e+00> : tensor<16x32xf32> loc(#loc1)
    %cst_6 = arith.constant dense<32> : tensor<32xi32> loc(#loc1)
    %c32_i32 = arith.constant 32 : i32 loc(#loc1)
    %cst_7 = arith.constant dense<1.000000e+00> : tensor<16xf32> loc(#loc1)
    %cst_8 = arith.constant dense<0.000000e+00> : tensor<16x512xf32> loc(#loc1)
    %cst_9 = arith.constant dense<16> : tensor<16xi32> loc(#loc1)
    %cst_10 = arith.constant dense<0> : tensor<16xi32> loc(#loc1)
    %cst_11 = arith.constant dense<1> : tensor<16xi32> loc(#loc1)
    %cst_12 = arith.constant dense<0> : tensor<512xi32> loc(#loc1)
    %cst_13 = arith.constant dense<1> : tensor<512xi32> loc(#loc1)
    %cst_14 = arith.constant dense<512> : tensor<512xi32> loc(#loc1)
    %cst_15 = arith.constant dense<8> : tensor<16xi32> loc(#loc1)
    %c8_i32 = arith.constant 8 : i32 loc(#loc1)
    %c2_i32 = arith.constant 2 : i32 loc(#loc1)
    %c0_i32 = arith.constant 0 : i32 loc(#loc1)
    %q_block_global_idx = tt.get_program_id x : i32 loc(#loc189)
    %kv_head_idx = tt.get_program_id y : i32 loc(#loc190)
    %right:2 = scf.while (%left = %c0_i32, %right_70 = %num_seqs) : (i32, i32) -> (i32, i32) {
      %seq_idx_71 = arith.cmpi slt, %left, %right_70 : i32 loc(#loc353)
      scf.condition(%seq_idx_71) %left, %right_70 : i32, i32 loc(#loc353)
    } do {
    ^bb0(%left: i32 loc(callsite(#loc193 at #loc320)), %right_70: i32 loc(callsite(#loc194 at #loc320))):
      %mid = arith.addi %left, %right_70 : i32 loc(#loc356)
      %right_71 = arith.divsi %mid, %c2_i32 : i32 loc(#loc357)
      %val = tt.addptr %query_start_len_ptr, %right_71 : !tt.ptr<i32>, i32 loc(#loc358)
      %val_72 = tt.load %val : !tt.ptr<i32> loc(#loc359)
      %mid_val = arith.divsi %val_72, %c2_i32 : i32 loc(#loc360)
      %mid_val_73 = arith.addi %mid_val, %right_71 : i32 loc(#loc361)
      %seq_idx_74 = arith.cmpi sle, %mid_val_73, %q_block_global_idx : i32 loc(#loc362)
      %seq_idx_75 = arith.select %seq_idx_74, %right_70, %right_71 : i32 loc(#loc363)
      %seq_idx_76 = scf.if %seq_idx_74 -> (i32) {
        %left_77 = arith.addi %right_71, %c1_i32 : i32 loc(#loc364)
        scf.yield %left_77 : i32 loc(#loc364)
      } else {
        scf.yield %left : i32 loc(#loc363)
      } loc(#loc363)
      scf.yield %seq_idx_76, %seq_idx_75 : i32, i32 loc(#loc365)
    } loc(#loc352)
    %seq_idx = arith.subi %right#0, %c1_i32 : i32 loc(#loc366)
    %q_block_start_idx = tt.addptr %query_start_len_ptr, %seq_idx : !tt.ptr<i32>, i32 loc(#loc323)
    %q_block_start_idx_16 = tt.load %q_block_start_idx : !tt.ptr<i32> loc(#loc324)
    %q_block_start_idx_17 = arith.divsi %q_block_start_idx_16, %c2_i32 : i32 loc(#loc325)
    %q_block_start_idx_18 = arith.addi %q_block_start_idx_17, %seq_idx : i32 loc(#loc326)
    %q_block_local_idx = arith.subi %q_block_global_idx, %q_block_start_idx_18 : i32 loc(#loc327)
    %cur_stop = tt.addptr %q_block_start_idx, %c1_i32 : !tt.ptr<i32>, i32 loc(#loc328)
    %cur_stop_19 = tt.load %cur_stop : !tt.ptr<i32> loc(#loc329)
    %cur_batch_query_len = arith.subi %cur_stop_19, %q_block_start_idx_16 : i32 loc(#loc330)
    %seq_len = tt.addptr %seq_lens_ptr, %seq_idx : !tt.ptr<i32>, i32 loc(#loc331)
    %seq_len_20 = tt.load %seq_len : !tt.ptr<i32> loc(#loc332)
    %0 = arith.muli %q_block_local_idx, %c2_i32 : i32 loc(#loc31)
    %1 = arith.cmpi sge, %0, %cur_batch_query_len : i32 loc(#loc32)
    cf.cond_br %1, ^bb1, ^bb2 loc(#loc32)
  ^bb1:  // pred: ^bb0
    tt.return loc(#loc33)
  ^bb2:  // pred: ^bb0
    %offs_m = tt.make_range {end = 16 : i32, start = 0 : i32} : tensor<16xi32> loc(#loc212)
    %offs_d = tt.make_range {end = 512 : i32, start = 0 : i32} : tensor<512xi32> loc(#loc213)
    %offs_t = tt.make_range {end = 32 : i32, start = 0 : i32} : tensor<32xi32> loc(#loc214)
    %query_pos = arith.divsi %offs_m, %cst_15 : tensor<16xi32> loc(#loc215)
    %query_pos_21 = tt.splat %0 : i32 -> tensor<16xi32> loc(#loc216)
    %query_pos_22 = arith.addi %query_pos_21, %query_pos : tensor<16xi32> loc(#loc216)
    %query_offset_0 = tt.splat %q_block_start_idx_16 : i32 -> tensor<16xi32> loc(#loc217)
    %query_offset_0_23 = arith.addi %query_offset_0, %query_pos_22 : tensor<16xi32> loc(#loc217)
    %query_offset_1 = arith.muli %kv_head_idx, %c8_i32 : i32 loc(#loc218)
    %query_offset_1_24 = arith.remsi %offs_m, %cst_15 : tensor<16xi32> loc(#loc219)
    %query_offset_1_25 = tt.splat %query_offset_1 : i32 -> tensor<16xi32> loc(#loc220)
    %query_offset_1_26 = arith.addi %query_offset_1_25, %query_offset_1_24 : tensor<16xi32> loc(#loc220)
    %query_offset = tt.expand_dims %query_offset_0_23 {axis = 1 : i32} : tensor<16xi32> -> tensor<16x1xi32> loc(#loc221)
    %query_offset_27 = arith.extsi %query_offset : tensor<16x1xi32> to tensor<16x1xi64> loc(#loc222)
    %query_offset_28 = tt.splat %query_stride_0 : i64 -> tensor<16x1xi64> loc(#loc222)
    %query_offset_29 = arith.muli %query_offset_27, %query_offset_28 : tensor<16x1xi64> loc(#loc222)
    %query_offset_30 = tt.expand_dims %query_offset_1_26 {axis = 1 : i32} : tensor<16xi32> -> tensor<16x1xi32> loc(#loc223)
    %query_offset_31 = arith.extsi %query_offset_30 : tensor<16x1xi32> to tensor<16x1xi64> loc(#loc224)
    %query_offset_32 = tt.splat %query_stride_1 : i64 -> tensor<16x1xi64> loc(#loc224)
    %query_offset_33 = arith.muli %query_offset_31, %query_offset_32 : tensor<16x1xi64> loc(#loc224)
    %query_offset_34 = arith.addi %query_offset_29, %query_offset_33 : tensor<16x1xi64> loc(#loc225)
    %query_offset_35 = tt.expand_dims %offs_d {axis = 0 : i32} : tensor<512xi32> -> tensor<1x512xi32> loc(#loc226)
    %query_offset_36 = arith.extsi %query_offset_35 : tensor<1x512xi32> to tensor<1x512xi64> loc(#loc227)
    %query_offset_37 = tt.broadcast %query_offset_34 : tensor<16x1xi64> -> tensor<16x512xi64> loc(#loc227)
    %query_offset_38 = tt.broadcast %query_offset_36 : tensor<1x512xi64> -> tensor<16x512xi64> loc(#loc227)
    %query_offset_39 = arith.addi %query_offset_37, %query_offset_38 : tensor<16x512xi64> loc(#loc227)
    %dim_mask = arith.cmpi slt, %offs_d, %cst_14 : tensor<512xi32> loc(#loc228)
    %dim_mask_40 = arith.select %dim_mask, %cst_13, %cst_12 : tensor<512xi1>, tensor<512xi32> loc(#loc229)
    %dim_mask_41 = arith.cmpi ne, %dim_mask_40, %cst_12 : tensor<512xi32> loc(#loc230)
    %query_mask_0 = tt.splat %cur_batch_query_len : i32 -> tensor<16xi32> loc(#loc231)
    %query_mask_0_42 = arith.cmpi slt, %query_pos_22, %query_mask_0 : tensor<16xi32> loc(#loc231)
    %query_mask_0_43 = arith.select %query_mask_0_42, %cst_11, %cst_10 : tensor<16xi1>, tensor<16xi32> loc(#loc232)
    %query_mask_0_44 = arith.cmpi ne, %query_mask_0_43, %cst_10 : tensor<16xi32> loc(#loc233)
    %query_mask_1 = arith.cmpi slt, %query_offset_1_26, %cst_9 : tensor<16xi32> loc(#loc234)
    %query_mask_1_45 = arith.select %query_mask_1, %cst_11, %cst_10 : tensor<16xi1>, tensor<16xi32> loc(#loc235)
    %query_mask_1_46 = arith.cmpi ne, %query_mask_1_45, %cst_10 : tensor<16xi32> loc(#loc236)
    %Q = tt.expand_dims %dim_mask_41 {axis = 0 : i32} : tensor<512xi1> -> tensor<1x512xi1> loc(#loc237)
    %Q_47 = tt.expand_dims %query_mask_0_44 {axis = 1 : i32} : tensor<16xi1> -> tensor<16x1xi1> loc(#loc238)
    %Q_48 = tt.broadcast %Q : tensor<1x512xi1> -> tensor<16x512xi1> loc(#loc239)
    %Q_49 = tt.broadcast %Q_47 : tensor<16x1xi1> -> tensor<16x512xi1> loc(#loc239)
    %Q_50 = arith.andi %Q_48, %Q_49 : tensor<16x512xi1> loc(#loc239)
    %Q_51 = tt.expand_dims %query_mask_1_46 {axis = 1 : i32} : tensor<16xi1> -> tensor<16x1xi1> loc(#loc240)
    %Q_52 = tt.broadcast %Q_51 : tensor<16x1xi1> -> tensor<16x512xi1> loc(#loc241)
    %Q_53 = arith.andi %Q_50, %Q_52 : tensor<16x512xi1> loc(#loc241)
    %Q_54 = tt.splat %query_ptr : !tt.ptr<bf16> -> tensor<16x512x!tt.ptr<bf16>> loc(#loc242)
    %Q_55 = tt.addptr %Q_54, %query_offset_39 : tensor<16x512x!tt.ptr<bf16>>, tensor<16x512xi64> loc(#loc242)
    %Q_56 = tt.load %Q_55, %Q_53, %cst_3 : tensor<16x512x!tt.ptr<bf16>> loc(#loc243)
    %block_table_offset = arith.extsi %seq_idx : i32 to i64 loc(#loc244)
    %block_table_offset_57 = arith.muli %block_table_offset, %block_table_stride : i64 loc(#loc244)
    %context_len = arith.subi %seq_len_20, %cur_batch_query_len : i32 loc(#loc245)
    %max_seq_prefix_len = arith.addi %context_len, %0 : i32 loc(#loc333)
    %max_seq_prefix_len_58 = arith.addi %max_seq_prefix_len, %c2_i32 : i32 loc(#loc334)
    %max_seq_prefix_len_59 = arith.minsi %max_seq_prefix_len_58, %seq_len_20 : i32 loc(#loc335)
    %num_tiles = arith.addi %max_seq_prefix_len_59, %c31_i32 : i32 loc(#loc367)
    %num_tiles_60 = arith.divsi %num_tiles, %c32_i32 : i32 loc(#loc368)
    %acc:3 = scf.for %j = %c0_i32 to %num_tiles_60 step %c1_i32 iter_args(%M = %cst_0, %L = %cst_7, %acc_70 = %cst_8) -> (tensor<16xf32>, tensor<16xf32>, tensor<16x512xf32>)  : i32 {
      %seq_offset = arith.muli %j, %c32_i32 : i32 loc(#loc251)
      %seq_offset_71 = tt.splat %seq_offset : i32 -> tensor<32xi32> loc(#loc252)
      %seq_offset_72 = arith.addi %seq_offset_71, %offs_t : tensor<32xi32> loc(#loc252)
      %tile_mask = tt.splat %max_seq_prefix_len_59 : i32 -> tensor<32xi32> loc(#loc253)
      %tile_mask_73 = arith.cmpi slt, %seq_offset_72, %tile_mask : tensor<32xi32> loc(#loc253)
      %physical_block_idx = tt.addptr %block_tables_ptr, %block_table_offset_57 : !tt.ptr<i32>, i64 loc(#loc254)
      %physical_block_idx_74 = arith.divsi %seq_offset_72, %cst_6 : tensor<32xi32> loc(#loc255)
      %physical_block_idx_75 = tt.splat %physical_block_idx : !tt.ptr<i32> -> tensor<32x!tt.ptr<i32>> loc(#loc256)
      %physical_block_idx_76 = tt.addptr %physical_block_idx_75, %physical_block_idx_74 : tensor<32x!tt.ptr<i32>>, tensor<32xi32> loc(#loc256)
      %physical_block_idx_77 = tt.load %physical_block_idx_76 : tensor<32x!tt.ptr<i32>> loc(#loc257)
      %physical_block_idx_78 = arith.extsi %physical_block_idx_77 : tensor<32xi32> to tensor<32xi64> loc(#loc258)
      %v_offset = tt.expand_dims %physical_block_idx_78 {axis = 1 : i32} : tensor<32xi64> -> tensor<32x1xi64> loc(#loc259)
      %v_offset_79 = tt.splat %stride_v_cache_0 : i64 -> tensor<32x1xi64> loc(#loc260)
      %v_offset_80 = arith.muli %v_offset, %v_offset_79 : tensor<32x1xi64> loc(#loc260)
      %v_offset_81 = arith.extsi %kv_head_idx : i32 to i64 loc(#loc261)
      %v_offset_82 = arith.muli %v_offset_81, %stride_v_cache_2 : i64 loc(#loc261)
      %v_offset_83 = tt.splat %v_offset_82 : i64 -> tensor<32x1xi64> loc(#loc262)
      %v_offset_84 = arith.addi %v_offset_80, %v_offset_83 : tensor<32x1xi64> loc(#loc262)
      %v_offset_85 = tt.broadcast %v_offset_84 : tensor<32x1xi64> -> tensor<32x512xi64> loc(#loc263)
      %v_offset_86 = tt.broadcast %query_offset_36 : tensor<1x512xi64> -> tensor<32x512xi64> loc(#loc263)
      %v_offset_87 = arith.addi %v_offset_85, %v_offset_86 : tensor<32x512xi64> loc(#loc263)
      %v_offset_88 = arith.remsi %seq_offset_72, %cst_6 : tensor<32xi32> loc(#loc264)
      %v_offset_89 = tt.expand_dims %v_offset_88 {axis = 1 : i32} : tensor<32xi32> -> tensor<32x1xi32> loc(#loc265)
      %v_offset_90 = arith.extsi %v_offset_89 : tensor<32x1xi32> to tensor<32x1xi64> loc(#loc266)
      %v_offset_91 = tt.splat %stride_v_cache_1 : i64 -> tensor<32x1xi64> loc(#loc266)
      %v_offset_92 = arith.muli %v_offset_90, %v_offset_91 : tensor<32x1xi64> loc(#loc266)
      %v_offset_93 = tt.broadcast %v_offset_92 : tensor<32x1xi64> -> tensor<32x512xi64> loc(#loc267)
      %v_offset_94 = arith.addi %v_offset_87, %v_offset_93 : tensor<32x512xi64> loc(#loc267)
      %k_offset = tt.expand_dims %physical_block_idx_78 {axis = 0 : i32} : tensor<32xi64> -> tensor<1x32xi64> loc(#loc268)
      %k_offset_95 = tt.splat %stride_k_cache_0 : i64 -> tensor<1x32xi64> loc(#loc269)
      %k_offset_96 = arith.muli %k_offset, %k_offset_95 : tensor<1x32xi64> loc(#loc269)
      %k_offset_97 = arith.muli %v_offset_81, %stride_k_cache_2 : i64 loc(#loc270)
      %k_offset_98 = tt.splat %k_offset_97 : i64 -> tensor<1x32xi64> loc(#loc271)
      %k_offset_99 = arith.addi %k_offset_96, %k_offset_98 : tensor<1x32xi64> loc(#loc271)
      %k_offset_100 = tt.expand_dims %offs_d {axis = 1 : i32} : tensor<512xi32> -> tensor<512x1xi32> loc(#loc272)
      %k_offset_101 = arith.extsi %k_offset_100 : tensor<512x1xi32> to tensor<512x1xi64> loc(#loc273)
      %k_offset_102 = tt.broadcast %k_offset_99 : tensor<1x32xi64> -> tensor<512x32xi64> loc(#loc273)
      %k_offset_103 = tt.broadcast %k_offset_101 : tensor<512x1xi64> -> tensor<512x32xi64> loc(#loc273)
      %k_offset_104 = arith.addi %k_offset_102, %k_offset_103 : tensor<512x32xi64> loc(#loc273)
      %k_offset_105 = tt.expand_dims %v_offset_88 {axis = 0 : i32} : tensor<32xi32> -> tensor<1x32xi32> loc(#loc274)
      %k_offset_106 = arith.extsi %k_offset_105 : tensor<1x32xi32> to tensor<1x32xi64> loc(#loc275)
      %k_offset_107 = tt.splat %stride_k_cache_1 : i64 -> tensor<1x32xi64> loc(#loc275)
      %k_offset_108 = arith.muli %k_offset_106, %k_offset_107 : tensor<1x32xi64> loc(#loc275)
      %k_offset_109 = tt.broadcast %k_offset_108 : tensor<1x32xi64> -> tensor<512x32xi64> loc(#loc276)
      %k_offset_110 = arith.addi %k_offset_104, %k_offset_109 : tensor<512x32xi64> loc(#loc276)
      %K_load = tt.expand_dims %dim_mask_41 {axis = 1 : i32} : tensor<512xi1> -> tensor<512x1xi1> loc(#loc277)
      %K_load_111 = tt.expand_dims %tile_mask_73 {axis = 0 : i32} : tensor<32xi1> -> tensor<1x32xi1> loc(#loc278)
      %K_load_112 = tt.broadcast %K_load : tensor<512x1xi1> -> tensor<512x32xi1> loc(#loc279)
      %K_load_113 = tt.broadcast %K_load_111 : tensor<1x32xi1> -> tensor<512x32xi1> loc(#loc279)
      %K_load_114 = arith.andi %K_load_112, %K_load_113 : tensor<512x32xi1> loc(#loc279)
      %K_load_115 = tt.splat %key_cache_ptr : !tt.ptr<bf16> -> tensor<512x32x!tt.ptr<bf16>> loc(#loc280)
      %K_load_116 = tt.addptr %K_load_115, %k_offset_110 : tensor<512x32x!tt.ptr<bf16>>, tensor<512x32xi64> loc(#loc280)
      %K_load_117 = tt.load %K_load_116, %K_load_114, %cst_2 : tensor<512x32x!tt.ptr<bf16>> loc(#loc281)
      %V_load = tt.expand_dims %tile_mask_73 {axis = 1 : i32} : tensor<32xi1> -> tensor<32x1xi1> loc(#loc282)
      %V_load_118 = tt.broadcast %Q : tensor<1x512xi1> -> tensor<32x512xi1> loc(#loc283)
      %V_load_119 = tt.broadcast %V_load : tensor<32x1xi1> -> tensor<32x512xi1> loc(#loc283)
      %V_load_120 = arith.andi %V_load_118, %V_load_119 : tensor<32x512xi1> loc(#loc283)
      %V_load_121 = tt.splat %value_cache_ptr : !tt.ptr<bf16> -> tensor<32x512x!tt.ptr<bf16>> loc(#loc284)
      %V_load_122 = tt.addptr %V_load_121, %v_offset_94 : tensor<32x512x!tt.ptr<bf16>>, tensor<32x512xi64> loc(#loc284)
      %V_load_123 = tt.load %V_load_122, %V_load_120, %cst_1 : tensor<32x512x!tt.ptr<bf16>> loc(#loc285)
      %query_abs_pos = tt.expand_dims %query_pos_22 {axis = 1 : i32} : tensor<16xi32> -> tensor<16x1xi32> loc(#loc286)
      %query_abs_pos_124 = tt.splat %context_len : i32 -> tensor<16x1xi32> loc(#loc287)
      %query_abs_pos_125 = arith.addi %query_abs_pos_124, %query_abs_pos : tensor<16x1xi32> loc(#loc287)
      %seq_mask = tt.expand_dims %seq_offset_72 {axis = 0 : i32} : tensor<32xi32> -> tensor<1x32xi32> loc(#loc338)
      %seq_mask_126 = tt.broadcast %seq_mask : tensor<1x32xi32> -> tensor<16x32xi32> loc(#loc339)
      %seq_mask_127 = tt.broadcast %query_abs_pos_125 : tensor<16x1xi32> -> tensor<16x32xi32> loc(#loc339)
      %seq_mask_128 = arith.cmpi sle, %seq_mask_126, %seq_mask_127 : tensor<16x32xi32> loc(#loc339)
      %S = tt.dot %Q_56, %K_load_117, %cst_5, inputPrecision = tf32 : tensor<16x512xbf16> * tensor<512x32xbf16> -> tensor<16x32xf32> loc(#loc291)
      %S_129 = tt.splat %scale : f32 -> tensor<16x32xf32> loc(#loc292)
      %S_130 = arith.mulf %S_129, %S : tensor<16x32xf32> loc(#loc292)
      %S_131 = arith.addf %S_130, %cst_5 : tensor<16x32xf32> loc(#loc293)
      %S_132 = arith.andi %Q_51, %Q_47 : tensor<16x1xi1> loc(#loc294)
      %S_133 = tt.broadcast %S_132 : tensor<16x1xi1> -> tensor<16x32xi1> loc(#loc295)
      %S_134 = arith.andi %S_133, %seq_mask_128 : tensor<16x32xi1> loc(#loc295)
      %S_135 = arith.select %S_134, %S_131, %cst_4 : tensor<16x32xi1>, tensor<16x32xf32> loc(#loc296)
      %m_j = "tt.reduce"(%S_135) <{axis = 1 : i32}> ({
      ^bb0(%m_j_149: f32 loc(callsite(#loc1 at #loc340)), %m_j_150: f32 loc(callsite(#loc1 at #loc340))):
        %m_j_151 = arith.maxnumf %m_j_149, %m_j_150 : f32 loc(#loc374)
        tt.reduce.return %m_j_151 : f32 loc(#loc370)
      }) : (tensor<16x32xf32>) -> tensor<16xf32> loc(#loc370)
      %m_j_136 = arith.maxnumf %M, %m_j : tensor<16xf32> loc(#loc341)
      %m_j_137 = arith.cmpf ogt, %m_j_136, %cst_0 : tensor<16xf32> loc(#loc342)
      %m_j_138 = arith.select %m_j_137, %m_j_136, %cst : tensor<16xi1>, tensor<16xf32> loc(#loc343)
      %P = tt.expand_dims %m_j_138 {axis = 1 : i32} : tensor<16xf32> -> tensor<16x1xf32> loc(#loc344)
      %P_139 = tt.broadcast %P : tensor<16x1xf32> -> tensor<16x32xf32> loc(#loc345)
      %P_140 = arith.subf %S_135, %P_139 : tensor<16x32xf32> loc(#loc345)
      %P_141 = math.exp %P_140 : tensor<16x32xf32> loc(#loc346)
      %l_j = "tt.reduce"(%P_141) <{axis = 1 : i32}> ({
      ^bb0(%l_j_149: f32 loc(callsite(#loc1 at #loc347)), %l_j_150: f32 loc(callsite(#loc1 at #loc347))):
        %l_j_151 = arith.addf %l_j_149, %l_j_150 : f32 loc(#loc375)
        tt.reduce.return %l_j_151 : f32 loc(#loc372)
      }) : (tensor<16x32xf32>) -> tensor<16xf32> loc(#loc372)
      %alpha = arith.subf %M, %m_j_138 : tensor<16xf32> loc(#loc348)
      %alpha_142 = math.exp %alpha : tensor<16xf32> loc(#loc349)
      %L_new = arith.mulf %L, %alpha_142 : tensor<16xf32> loc(#loc350)
      %L_new_143 = arith.addf %L_new, %l_j : tensor<16xf32> loc(#loc351)
      %acc_144 = tt.expand_dims %alpha_142 {axis = 1 : i32} : tensor<16xf32> -> tensor<16x1xf32> loc(#loc309)
      %acc_145 = tt.broadcast %acc_144 : tensor<16x1xf32> -> tensor<16x512xf32> loc(#loc310)
      %acc_146 = arith.mulf %acc_70, %acc_145 : tensor<16x512xf32> loc(#loc310)
      %acc_147 = arith.truncf %P_141 : tensor<16x32xf32> to tensor<16x32xbf16> loc(#loc311)
      %acc_148 = tt.dot %acc_147, %V_load_123, %acc_146, inputPrecision = tf32 : tensor<16x32xbf16> * tensor<32x512xbf16> -> tensor<16x512xf32> loc(#loc312)
      scf.yield %m_j_138, %L_new_143, %acc_148 : tensor<16xf32>, tensor<16xf32>, tensor<16x512xf32> loc(#loc143)
    } loc(#loc369)
    %acc_61 = tt.expand_dims %acc#1 {axis = 1 : i32} : tensor<16xf32> -> tensor<16x1xf32> loc(#loc313)
    %acc_62 = tt.broadcast %acc_61 : tensor<16x1xf32> -> tensor<16x512xf32> loc(#loc314)
    %acc_63 = arith.divf %acc#2, %acc_62 : tensor<16x512xf32> loc(#loc314)
    %output_offset = tt.splat %output_stride_0 : i64 -> tensor<16x1xi64> loc(#loc315)
    %output_offset_64 = arith.muli %query_offset_27, %output_offset : tensor<16x1xi64> loc(#loc315)
    %output_offset_65 = tt.splat %output_stride_1 : i64 -> tensor<16x1xi64> loc(#loc316)
    %output_offset_66 = arith.muli %query_offset_31, %output_offset_65 : tensor<16x1xi64> loc(#loc316)
    %output_offset_67 = arith.addi %output_offset_64, %output_offset_66 : tensor<16x1xi64> loc(#loc317)
    %output_offset_68 = tt.broadcast %output_offset_67 : tensor<16x1xi64> -> tensor<16x512xi64> loc(#loc318)
    %output_offset_69 = arith.addi %output_offset_68, %query_offset_38 : tensor<16x512xi64> loc(#loc318)
    %2 = tt.splat %output_ptr : !tt.ptr<bf16> -> tensor<16x512x!tt.ptr<bf16>> loc(#loc150)
    %3 = tt.addptr %2, %output_offset_69 : tensor<16x512x!tt.ptr<bf16>>, tensor<16x512xi64> loc(#loc150)
    %4 = arith.truncf %acc_63 : tensor<16x512xf32> to tensor<16x512xbf16> loc(#loc151)
    tt.store %3, %4, %Q_53 : tensor<16x512x!tt.ptr<bf16>> loc(#loc151)
    tt.return loc(#loc152)
  } loc(#loc)
} loc(#loc)
#loc2 = loc("/home/ericbuehler/vllm/.venv-bench/lib/python3.12/site-packages/vllm/v1/attention/ops/triton_unified_attention.py":146:39)
#loc3 = loc("/home/ericbuehler/vllm/.venv-bench/lib/python3.12/site-packages/vllm/v1/attention/ops/triton_unified_attention.py":147:32)
#loc4 = loc("/home/ericbuehler/vllm/.venv-bench/lib/python3.12/site-packages/vllm/v1/attention/ops/triton_attention_helpers.py":96:4)
#loc7 = loc("/home/ericbuehler/vllm/.venv-bench/lib/python3.12/site-packages/vllm/v1/attention/ops/triton_attention_helpers.py":96:17)
#loc10 = loc("/home/ericbuehler/vllm/.venv-bench/lib/python3.12/site-packages/vllm/v1/attention/ops/triton_attention_helpers.py":97:22)
#loc11 = loc("/home/ericbuehler/vllm/.venv-bench/lib/python3.12/site-packages/vllm/v1/attention/ops/triton_attention_helpers.py":97:32)
#loc12 = loc("/home/ericbuehler/vllm/.venv-bench/lib/python3.12/site-packages/vllm/v1/attention/ops/triton_attention_helpers.py":98:44)
#loc13 = loc("/home/ericbuehler/vllm/.venv-bench/lib/python3.12/site-packages/vllm/v1/attention/ops/triton_attention_helpers.py":98:22)
#loc14 = loc("/home/ericbuehler/vllm/.venv-bench/lib/python3.12/site-packages/vllm/v1/attention/ops/triton_attention_helpers.py":99:25)
#loc15 = loc("/home/ericbuehler/vllm/.venv-bench/lib/python3.12/site-packages/vllm/v1/attention/ops/triton_attention_helpers.py":99:35)
#loc16 = loc("/home/ericbuehler/vllm/.venv-bench/lib/python3.12/site-packages/vllm/v1/attention/ops/triton_attention_helpers.py":101:22)
#loc17 = loc("/home/ericbuehler/vllm/.venv-bench/lib/python3.12/site-packages/vllm/v1/attention/ops/triton_attention_helpers.py":101:11)
#loc18 = loc("/home/ericbuehler/vllm/.venv-bench/lib/python3.12/site-packages/vllm/v1/attention/ops/triton_attention_helpers.py":102:25)
#loc19 = loc("/home/ericbuehler/vllm/.venv-bench/lib/python3.12/site-packages/vllm/v1/attention/ops/triton_attention_helpers.py":101:8)
#loc20 = loc("/home/ericbuehler/vllm/.venv-bench/lib/python3.12/site-packages/vllm/v1/attention/ops/triton_attention_helpers.py":106:18)
#loc21 = loc("/home/ericbuehler/vllm/.venv-bench/lib/python3.12/site-packages/vllm/v1/attention/ops/triton_attention_helpers.py":69:54)
#loc22 = loc("/home/ericbuehler/vllm/.venv-bench/lib/python3.12/site-packages/vllm/v1/attention/ops/triton_attention_helpers.py":69:32)
#loc23 = loc("/home/ericbuehler/vllm/.venv-bench/lib/python3.12/site-packages/vllm/v1/attention/ops/triton_attention_helpers.py":69:66)
#loc24 = loc("/home/ericbuehler/vllm/.venv-bench/lib/python3.12/site-packages/vllm/v1/attention/ops/triton_attention_helpers.py":69:76)
#loc25 = loc("/home/ericbuehler/vllm/.venv-bench/lib/python3.12/site-packages/vllm/v1/attention/ops/triton_attention_helpers.py":70:45)
#loc26 = loc("/home/ericbuehler/vllm/.venv-bench/lib/python3.12/site-packages/vllm/v1/attention/ops/triton_attention_helpers.py":72:55)
#loc27 = loc("/home/ericbuehler/vllm/.venv-bench/lib/python3.12/site-packages/vllm/v1/attention/ops/triton_attention_helpers.py":72:23)
#loc28 = loc("/home/ericbuehler/vllm/.venv-bench/lib/python3.12/site-packages/vllm/v1/attention/ops/triton_attention_helpers.py":73:37)
#loc29 = loc("/home/ericbuehler/vllm/.venv-bench/lib/python3.12/site-packages/vllm/v1/attention/ops/triton_attention_helpers.py":74:37)
#loc30 = loc("/home/ericbuehler/vllm/.venv-bench/lib/python3.12/site-packages/vllm/v1/attention/ops/triton_attention_helpers.py":74:22)
#loc31 = loc("/home/ericbuehler/vllm/.venv-bench/lib/python3.12/site-packages/vllm/v1/attention/ops/triton_unified_attention.py":160:27)
#loc32 = loc("/home/ericbuehler/vllm/.venv-bench/lib/python3.12/site-packages/vllm/v1/attention/ops/triton_unified_attention.py":160:38)
#loc33 = loc("/home/ericbuehler/vllm/.venv-bench/lib/python3.12/site-packages/vllm/v1/attention/ops/triton_unified_attention.py":161:8)
#loc34 = loc("/home/ericbuehler/vllm/.venv-bench/lib/python3.12/site-packages/vllm/v1/attention/ops/triton_unified_attention.py":170:26)
#loc35 = loc("/home/ericbuehler/vllm/.venv-bench/lib/python3.12/site-packages/vllm/v1/attention/ops/triton_unified_attention.py":171:26)
#loc36 = loc("/home/ericbuehler/vllm/.venv-bench/lib/python3.12/site-packages/vllm/v1/attention/ops/triton_unified_attention.py":172:26)
#loc37 = loc("/home/ericbuehler/vllm/.venv-bench/lib/python3.12/site-packages/vllm/v1/attention/ops/triton_unified_attention.py":173:56)
#loc38 = loc("/home/ericbuehler/vllm/.venv-bench/lib/python3.12/site-packages/vllm/v1/attention/ops/triton_unified_attention.py":173:46)
#loc39 = loc("/home/ericbuehler/vllm/.venv-bench/lib/python3.12/site-packages/vllm/v1/attention/ops/triton_unified_attention.py":175:52)
#loc40 = loc("/home/ericbuehler/vllm/.venv-bench/lib/python3.12/site-packages/vllm/v1/attention/ops/triton_unified_attention.py":176:35)
#loc41 = loc("/home/ericbuehler/vllm/.venv-bench/lib/python3.12/site-packages/vllm/v1/attention/ops/triton_unified_attention.py":176:65)
#loc42 = loc("/home/ericbuehler/vllm/.venv-bench/lib/python3.12/site-packages/vllm/v1/attention/ops/triton_unified_attention.py":176:56)
#loc43 = loc("/home/ericbuehler/vllm/.venv-bench/lib/python3.12/site-packages/vllm/v1/attention/ops/triton_unified_attention.py":178:23)
#loc44 = loc("/home/ericbuehler/vllm/.venv-bench/lib/python3.12/site-packages/vllm/v1/attention/ops/triton_unified_attention.py":178:34)
#loc45 = loc("/home/ericbuehler/vllm/.venv-bench/lib/python3.12/site-packages/vllm/v1/attention/ops/triton_unified_attention.py":179:25)
#loc46 = loc("/home/ericbuehler/vllm/.venv-bench/lib/python3.12/site-packages/vllm/v1/attention/ops/triton_unified_attention.py":179:36)
#loc47 = loc("/home/ericbuehler/vllm/.venv-bench/lib/python3.12/site-packages/vllm/v1/attention/ops/triton_unified_attention.py":179:10)
#loc48 = loc("/home/ericbuehler/vllm/.venv-bench/lib/python3.12/site-packages/vllm/v1/attention/ops/triton_unified_attention.py":180:17)
#loc49 = loc("/home/ericbuehler/vllm/.venv-bench/lib/python3.12/site-packages/vllm/v1/attention/ops/triton_unified_attention.py":180:10)
#loc50 = loc("/home/ericbuehler/vllm/.venv-bench/lib/python3.12/site-packages/vllm/v1/attention/ops/triton_unified_attention.py":183:33)
#loc51 = loc("/home/ericbuehler/vllm/.venv-bench/lib/python3.12/site-packages/vllm/v1/attention/ops/triton_unified_attention.py":183:47)
#loc52 = loc("/home/ericbuehler/vllm/.venv-bench/lib/python3.12/site-packages/vllm/v1/attention/ops/triton_unified_attention.py":183:53)
#loc53 = loc("/home/ericbuehler/vllm/.venv-bench/lib/python3.12/site-packages/vllm/v1/attention/ops/triton_unified_attention.py":184:40)
#loc54 = loc("/home/ericbuehler/vllm/.venv-bench/lib/python3.12/site-packages/vllm/v1/attention/ops/triton_unified_attention.py":184:64)
#loc55 = loc("/home/ericbuehler/vllm/.venv-bench/lib/python3.12/site-packages/vllm/v1/attention/ops/triton_unified_attention.py":184:70)
#loc56 = loc("/home/ericbuehler/vllm/.venv-bench/lib/python3.12/site-packages/vllm/v1/attention/ops/triton_unified_attention.py":185:45)
#loc57 = loc("/home/ericbuehler/vllm/.venv-bench/lib/python3.12/site-packages/vllm/v1/attention/ops/triton_unified_attention.py":185:65)
#loc58 = loc("/home/ericbuehler/vllm/.venv-bench/lib/python3.12/site-packages/vllm/v1/attention/ops/triton_unified_attention.py":185:71)
#loc59 = loc("/home/ericbuehler/vllm/.venv-bench/lib/python3.12/site-packages/vllm/v1/attention/ops/triton_unified_attention.py":190:22)
#loc60 = loc("/home/ericbuehler/vllm/.venv-bench/lib/python3.12/site-packages/vllm/v1/attention/ops/triton_unified_attention.py":190:46)
#loc61 = loc("/home/ericbuehler/vllm/.venv-bench/lib/python3.12/site-packages/vllm/v1/attention/ops/triton_unified_attention.py":190:33)
#loc62 = loc("/home/ericbuehler/vllm/.venv-bench/lib/python3.12/site-packages/vllm/v1/attention/ops/triton_unified_attention.py":190:70)
#loc63 = loc("/home/ericbuehler/vllm/.venv-bench/lib/python3.12/site-packages/vllm/v1/attention/ops/triton_unified_attention.py":190:57)
#loc64 = loc("/home/ericbuehler/vllm/.venv-bench/lib/python3.12/site-packages/vllm/v1/attention/ops/triton_unified_attention.py":189:20)
#loc65 = loc("/home/ericbuehler/vllm/.venv-bench/lib/python3.12/site-packages/vllm/v1/attention/ops/triton_unified_attention.py":189:8)
#loc66 = loc("/home/ericbuehler/vllm/.venv-bench/lib/python3.12/site-packages/vllm/v1/attention/ops/triton_unified_attention.py":194:35)
#loc67 = loc("/home/ericbuehler/vllm/.venv-bench/lib/python3.12/site-packages/vllm/v1/attention/ops/triton_unified_attention.py":203:28)
#loc68 = loc("/home/ericbuehler/vllm/.venv-bench/lib/python3.12/site-packages/vllm/v1/attention/ops/triton_attention_helpers.py":178:10)
#loc69 = loc("/home/ericbuehler/vllm/.venv-bench/lib/python3.12/site-packages/vllm/v1/attention/ops/triton_unified_attention.py":228:8)
#loc70 = loc("/home/ericbuehler/vllm/.venv-bench/lib/python3.12/site-packages/vllm/v1/attention/ops/triton_attention_helpers.py":180:10)
#loc71 = loc("/home/ericbuehler/vllm/.venv-bench/lib/python3.12/site-packages/vllm/v1/attention/ops/triton_attention_helpers.py":187:60)
#loc72 = loc("/home/ericbuehler/vllm/.venv-bench/lib/python3.12/site-packages/vllm/v1/attention/ops/triton_attention_helpers.py":24:20)
#loc73 = loc("/home/ericbuehler/vllm/.venv-bench/lib/python3.12/site-packages/vllm/v1/attention/ops/triton_attention_helpers.py":189:44)
#loc74 = loc("/home/ericbuehler/vllm/.venv-bench/lib/python3.12/site-packages/vllm/v1/attention/ops/triton_attention_helpers.py":24:26)
#loc75 = loc("/home/ericbuehler/vllm/.venv-bench/lib/python3.12/site-packages/vllm/v1/attention/ops/triton_unified_attention.py":232:28)
#loc76 = loc("/home/ericbuehler/vllm/.venv-bench/lib/python3.12/site-packages/vllm/v1/attention/ops/triton_unified_attention.py":233:25)
#loc77 = loc("/home/ericbuehler/vllm/.venv-bench/lib/python3.12/site-packages/vllm/v1/attention/ops/triton_unified_attention.py":233:37)
#loc78 = loc("/home/ericbuehler/vllm/.venv-bench/lib/python3.12/site-packages/vllm/v1/attention/ops/triton_unified_attention.py":234:33)
#loc79 = loc("/home/ericbuehler/vllm/.venv-bench/lib/python3.12/site-packages/vllm/v1/attention/ops/triton_unified_attention.py":237:31)
#loc80 = loc("/home/ericbuehler/vllm/.venv-bench/lib/python3.12/site-packages/vllm/v1/attention/ops/triton_unified_attention.py":237:66)
#loc81 = loc("/home/ericbuehler/vllm/.venv-bench/lib/python3.12/site-packages/vllm/v1/attention/ops/triton_unified_attention.py":237:52)
#loc82 = loc("/home/ericbuehler/vllm/.venv-bench/lib/python3.12/site-packages/vllm/v1/attention/ops/triton_unified_attention.py":237:12)
#loc83 = loc("/home/ericbuehler/vllm/.venv-bench/lib/python3.12/site-packages/vllm/v1/attention/ops/triton_unified_attention.py":238:13)
#loc84 = loc("/home/ericbuehler/vllm/.venv-bench/lib/python3.12/site-packages/vllm/v1/attention/ops/triton_unified_attention.py":241:31)
#loc85 = loc("/home/ericbuehler/vllm/.venv-bench/lib/python3.12/site-packages/vllm/v1/attention/ops/triton_unified_attention.py":241:42)
#loc86 = loc("/home/ericbuehler/vllm/.venv-bench/lib/python3.12/site-packages/vllm/v1/attention/ops/triton_unified_attention.py":242:28)
#loc87 = loc("/home/ericbuehler/vllm/.venv-bench/lib/python3.12/site-packages/vllm/v1/attention/ops/triton_unified_attention.py":242:14)
#loc88 = loc("/home/ericbuehler/vllm/.venv-bench/lib/python3.12/site-packages/vllm/v1/attention/ops/triton_unified_attention.py":243:14)
#loc89 = loc("/home/ericbuehler/vllm/.venv-bench/lib/python3.12/site-packages/vllm/v1/attention/ops/triton_unified_attention.py":244:28)
#loc90 = loc("/home/ericbuehler/vllm/.venv-bench/lib/python3.12/site-packages/vllm/v1/attention/ops/triton_unified_attention.py":244:40)
#loc91 = loc("/home/ericbuehler/vllm/.venv-bench/lib/python3.12/site-packages/vllm/v1/attention/ops/triton_unified_attention.py":244:51)
#loc92 = loc("/home/ericbuehler/vllm/.venv-bench/lib/python3.12/site-packages/vllm/v1/attention/ops/triton_unified_attention.py":244:14)
#loc93 = loc("/home/ericbuehler/vllm/.venv-bench/lib/python3.12/site-packages/vllm/v1/attention/ops/triton_unified_attention.py":247:31)
#loc94 = loc("/home/ericbuehler/vllm/.venv-bench/lib/python3.12/site-packages/vllm/v1/attention/ops/triton_unified_attention.py":247:42)
#loc95 = loc("/home/ericbuehler/vllm/.venv-bench/lib/python3.12/site-packages/vllm/v1/attention/ops/triton_unified_attention.py":248:28)
#loc96 = loc("/home/ericbuehler/vllm/.venv-bench/lib/python3.12/site-packages/vllm/v1/attention/ops/triton_unified_attention.py":248:14)
#loc97 = loc("/home/ericbuehler/vllm/.venv-bench/lib/python3.12/site-packages/vllm/v1/attention/ops/triton_unified_attention.py":249:21)
#loc98 = loc("/home/ericbuehler/vllm/.venv-bench/lib/python3.12/site-packages/vllm/v1/attention/ops/triton_unified_attention.py":249:14)
#loc99 = loc("/home/ericbuehler/vllm/.venv-bench/lib/python3.12/site-packages/vllm/v1/attention/ops/triton_unified_attention.py":250:40)
#loc100 = loc("/home/ericbuehler/vllm/.venv-bench/lib/python3.12/site-packages/vllm/v1/attention/ops/triton_unified_attention.py":250:51)
#loc101 = loc("/home/ericbuehler/vllm/.venv-bench/lib/python3.12/site-packages/vllm/v1/attention/ops/triton_unified_attention.py":250:14)
#loc102 = loc("/home/ericbuehler/vllm/.venv-bench/lib/python3.12/site-packages/vllm/v1/attention/ops/triton_unified_attention.py":255:26)
#loc103 = loc("/home/ericbuehler/vllm/.venv-bench/lib/python3.12/site-packages/vllm/v1/attention/ops/triton_unified_attention.py":255:47)
#loc104 = loc("/home/ericbuehler/vllm/.venv-bench/lib/python3.12/site-packages/vllm/v1/attention/ops/triton_unified_attention.py":255:37)
#loc105 = loc("/home/ericbuehler/vllm/.venv-bench/lib/python3.12/site-packages/vllm/v1/attention/ops/triton_unified_attention.py":254:28)
#loc106 = loc("/home/ericbuehler/vllm/.venv-bench/lib/python3.12/site-packages/vllm/v1/attention/ops/triton_unified_attention.py":254:12)
#loc107 = loc("/home/ericbuehler/vllm/.venv-bench/lib/python3.12/site-packages/vllm/v1/attention/ops/triton_unified_attention.py":262:47)
#loc108 = loc("/home/ericbuehler/vllm/.venv-bench/lib/python3.12/site-packages/vllm/v1/attention/ops/triton_unified_attention.py":262:37)
#loc109 = loc("/home/ericbuehler/vllm/.venv-bench/lib/python3.12/site-packages/vllm/v1/attention/ops/triton_unified_attention.py":261:30)
#loc110 = loc("/home/ericbuehler/vllm/.venv-bench/lib/python3.12/site-packages/vllm/v1/attention/ops/triton_unified_attention.py":261:12)
#loc111 = loc("/home/ericbuehler/vllm/.venv-bench/lib/python3.12/site-packages/vllm/v1/attention/ops/triton_unified_attention.py":286:48)
#loc112 = loc("/home/ericbuehler/vllm/.venv-bench/lib/python3.12/site-packages/vllm/v1/attention/ops/triton_unified_attention.py":286:38)
#loc113 = loc("/home/ericbuehler/vllm/.venv-bench/lib/python3.12/site-packages/vllm/v1/attention/ops/triton_attention_helpers.py":284:26)
#loc114 = loc("/home/ericbuehler/vllm/.venv-bench/lib/python3.12/site-packages/vllm/v1/attention/ops/triton_unified_attention.py":296:12)
#loc115 = loc("/home/ericbuehler/vllm/.venv-bench/lib/python3.12/site-packages/vllm/v1/attention/ops/triton_attention_helpers.py":284:38)
#loc116 = loc("/home/ericbuehler/vllm/.venv-bench/lib/python3.12/site-packages/vllm/v1/attention/ops/triton_unified_attention.py":306:35)
#loc117 = loc("/home/ericbuehler/vllm/.venv-bench/lib/python3.12/site-packages/vllm/v1/attention/ops/triton_unified_attention.py":306:25)
#loc118 = loc("/home/ericbuehler/vllm/.venv-bench/lib/python3.12/site-packages/vllm/v1/attention/ops/triton_unified_attention.py":306:17)
#loc119 = loc("/home/ericbuehler/vllm/.venv-bench/lib/python3.12/site-packages/vllm/v1/attention/ops/triton_unified_attention.py":312:36)
#loc120 = loc("/home/ericbuehler/vllm/.venv-bench/lib/python3.12/site-packages/vllm/v1/attention/ops/triton_unified_attention.py":312:60)
#loc121 = loc("/home/ericbuehler/vllm/.venv-bench/lib/python3.12/site-packages/vllm/v1/attention/ops/triton_unified_attention.py":312:73)
#loc122 = loc("/home/ericbuehler/vllm/.venv-bench/lib/python3.12/site-packages/triton/language/standard.py":191:40)
#loc125 = loc("/home/ericbuehler/vllm/.venv-bench/lib/python3.12/site-packages/triton/language/standard.py":170:27)
#loc126 = loc("/home/ericbuehler/vllm/.venv-bench/lib/python3.12/site-packages/vllm/v1/attention/ops/triton_attention_helpers.py":371:24)
#loc127 = loc("/home/ericbuehler/vllm/.venv-bench/lib/python3.12/site-packages/vllm/v1/attention/ops/triton_attention_helpers.py":374:25)
#loc128 = loc("/home/ericbuehler/vllm/.venv-bench/lib/python3.12/site-packages/vllm/v1/attention/ops/triton_attention_helpers.py":374:45)
#loc129 = loc("/home/ericbuehler/vllm/.venv-bench/lib/python3.12/site-packages/vllm/v1/attention/ops/triton_attention_helpers.py":376:23)
#loc130 = loc("/home/ericbuehler/vllm/.venv-bench/lib/python3.12/site-packages/vllm/v1/attention/ops/triton_attention_helpers.py":376:19)
#loc131 = loc("/home/ericbuehler/vllm/.venv-bench/lib/python3.12/site-packages/vllm/v1/attention/ops/triton_attention_helpers.py":376:15)
#loc132 = loc("/home/ericbuehler/vllm/.venv-bench/lib/python3.12/site-packages/triton/language/standard.py":293:36)
#loc134 = loc("/home/ericbuehler/vllm/.venv-bench/lib/python3.12/site-packages/triton/language/standard.py":263:15)
#loc135 = loc("/home/ericbuehler/vllm/.venv-bench/lib/python3.12/site-packages/vllm/v1/attention/ops/triton_attention_helpers.py":380:23)
#loc136 = loc("/home/ericbuehler/vllm/.venv-bench/lib/python3.12/site-packages/vllm/v1/attention/ops/triton_attention_helpers.py":380:19)
#loc137 = loc("/home/ericbuehler/vllm/.venv-bench/lib/python3.12/site-packages/vllm/v1/attention/ops/triton_attention_helpers.py":382:16)
#loc138 = loc("/home/ericbuehler/vllm/.venv-bench/lib/python3.12/site-packages/vllm/v1/attention/ops/triton_attention_helpers.py":382:24)
#loc139 = loc("/home/ericbuehler/vllm/.venv-bench/lib/python3.12/site-packages/vllm/v1/attention/ops/triton_unified_attention.py":326:26)
#loc140 = loc("/home/ericbuehler/vllm/.venv-bench/lib/python3.12/site-packages/vllm/v1/attention/ops/triton_unified_attention.py":326:20)
#loc141 = loc("/home/ericbuehler/vllm/.venv-bench/lib/python3.12/site-packages/vllm/v1/attention/ops/triton_unified_attention.py":340:31)
#loc142 = loc("/home/ericbuehler/vllm/.venv-bench/lib/python3.12/site-packages/vllm/v1/attention/ops/triton_unified_attention.py":340:41)
#loc143 = loc("/home/ericbuehler/vllm/.venv-bench/lib/python3.12/site-packages/vllm/v1/attention/ops/triton_unified_attention.py":335:8)
#loc144 = loc("/home/ericbuehler/vllm/.venv-bench/lib/python3.12/site-packages/vllm/v1/attention/ops/triton_unified_attention.py":371:22)
#loc145 = loc("/home/ericbuehler/vllm/.venv-bench/lib/python3.12/site-packages/vllm/v1/attention/ops/triton_unified_attention.py":371:20)
#loc146 = loc("/home/ericbuehler/vllm/.venv-bench/lib/python3.12/site-packages/vllm/v1/attention/ops/triton_unified_attention.py":376:38)
#loc147 = loc("/home/ericbuehler/vllm/.venv-bench/lib/python3.12/site-packages/vllm/v1/attention/ops/triton_unified_attention.py":377:40)
#loc148 = loc("/home/ericbuehler/vllm/.venv-bench/lib/python3.12/site-packages/vllm/v1/attention/ops/triton_unified_attention.py":377:14)
#loc149 = loc("/home/ericbuehler/vllm/.venv-bench/lib/python3.12/site-packages/vllm/v1/attention/ops/triton_unified_attention.py":378:14)
#loc150 = loc("/home/ericbuehler/vllm/.venv-bench/lib/python3.12/site-packages/vllm/v1/attention/ops/triton_unified_attention.py":381:25)
#loc151 = loc("/home/ericbuehler/vllm/.venv-bench/lib/python3.12/site-packages/vllm/v1/attention/ops/triton_unified_attention.py":382:12)
#loc152 = loc("/home/ericbuehler/vllm/.venv-bench/lib/python3.12/site-packages/vllm/v1/attention/ops/triton_unified_attention.py":343:4)
#loc189 = loc("q_block_global_idx"(#loc2))
#loc190 = loc("kv_head_idx"(#loc3))
#loc191 = loc("left"(#loc4))
#loc195 = loc("mid"(#loc10))
#loc196 = loc("mid"(#loc11))
#loc197 = loc("val"(#loc12))
#loc198 = loc("val"(#loc13))
#loc199 = loc("mid_val"(#loc14))
#loc200 = loc("mid_val"(#loc15))
#loc201 = loc("left"(#loc18))
#loc202 = loc("q_block_start_idx"(#loc21))
#loc203 = loc("q_block_start_idx"(#loc22))
#loc204 = loc("q_block_start_idx"(#loc23))
#loc205 = loc("q_block_start_idx"(#loc24))
#loc206 = loc("q_block_local_idx"(#loc25))
#loc207 = loc("cur_stop"(#loc26))
#loc208 = loc("cur_stop"(#loc27))
#loc209 = loc("cur_batch_query_len"(#loc28))
#loc210 = loc("seq_len"(#loc29))
#loc211 = loc("seq_len"(#loc30))
#loc212 = loc("offs_m"(#loc34))
#loc213 = loc("offs_d"(#loc35))
#loc214 = loc("offs_t"(#loc36))
#loc215 = loc("query_pos"(#loc37))
#loc216 = loc("query_pos"(#loc38))
#loc217 = loc("query_offset_0"(#loc39))
#loc218 = loc("query_offset_1"(#loc40))
#loc219 = loc("query_offset_1"(#loc41))
#loc220 = loc("query_offset_1"(#loc42))
#loc221 = loc("query_offset"(#loc43))
#loc222 = loc("query_offset"(#loc44))
#loc223 = loc("query_offset"(#loc45))
#loc224 = loc("query_offset"(#loc46))
#loc225 = loc("query_offset"(#loc47))
#loc226 = loc("query_offset"(#loc48))
#loc227 = loc("query_offset"(#loc49))
#loc228 = loc("dim_mask"(#loc50))
#loc229 = loc("dim_mask"(#loc51))
#loc230 = loc("dim_mask"(#loc52))
#loc231 = loc("query_mask_0"(#loc53))
#loc232 = loc("query_mask_0"(#loc54))
#loc233 = loc("query_mask_0"(#loc55))
#loc234 = loc("query_mask_1"(#loc56))
#loc235 = loc("query_mask_1"(#loc57))
#loc236 = loc("query_mask_1"(#loc58))
#loc237 = loc("Q"(#loc59))
#loc238 = loc("Q"(#loc60))
#loc239 = loc("Q"(#loc61))
#loc240 = loc("Q"(#loc62))
#loc241 = loc("Q"(#loc63))
#loc242 = loc("Q"(#loc64))
#loc243 = loc("Q"(#loc65))
#loc244 = loc("block_table_offset"(#loc66))
#loc245 = loc("context_len"(#loc67))
#loc246 = loc("max_seq_prefix_len"(#loc68))
#loc247 = loc("max_seq_prefix_len"(#loc70))
#loc248 = loc("max_seq_prefix_len"(#loc71))
#loc249 = loc("num_tiles"(#loc73))
#loc250 = loc("M"(#loc75))
#loc251 = loc("seq_offset"(#loc76))
#loc252 = loc("seq_offset"(#loc77))
#loc253 = loc("tile_mask"(#loc78))
#loc254 = loc("physical_block_idx"(#loc79))
#loc255 = loc("physical_block_idx"(#loc80))
#loc256 = loc("physical_block_idx"(#loc81))
#loc257 = loc("physical_block_idx"(#loc82))
#loc258 = loc("physical_block_idx"(#loc83))
#loc259 = loc("v_offset"(#loc84))
#loc260 = loc("v_offset"(#loc85))
#loc261 = loc("v_offset"(#loc86))
#loc262 = loc("v_offset"(#loc87))
#loc263 = loc("v_offset"(#loc88))
#loc264 = loc("v_offset"(#loc89))
#loc265 = loc("v_offset"(#loc90))
#loc266 = loc("v_offset"(#loc91))
#loc267 = loc("v_offset"(#loc92))
#loc268 = loc("k_offset"(#loc93))
#loc269 = loc("k_offset"(#loc94))
#loc270 = loc("k_offset"(#loc95))
#loc271 = loc("k_offset"(#loc96))
#loc272 = loc("k_offset"(#loc97))
#loc273 = loc("k_offset"(#loc98))
#loc274 = loc("k_offset"(#loc99))
#loc275 = loc("k_offset"(#loc100))
#loc276 = loc("k_offset"(#loc101))
#loc277 = loc("K_load"(#loc102))
#loc278 = loc("K_load"(#loc103))
#loc279 = loc("K_load"(#loc104))
#loc280 = loc("K_load"(#loc105))
#loc281 = loc("K_load"(#loc106))
#loc282 = loc("V_load"(#loc107))
#loc283 = loc("V_load"(#loc108))
#loc284 = loc("V_load"(#loc109))
#loc285 = loc("V_load"(#loc110))
#loc286 = loc("query_abs_pos"(#loc111))
#loc287 = loc("query_abs_pos"(#loc112))
#loc288 = loc("seq_mask"(#loc113))
#loc289 = loc("seq_mask"(#loc114))
#loc290 = loc("seq_mask"(#loc115))
#loc291 = loc("S"(#loc116))
#loc292 = loc("S"(#loc117))
#loc293 = loc("S"(#loc118))
#loc294 = loc("S"(#loc119))
#loc295 = loc("S"(#loc120))
#loc296 = loc("S"(#loc121))
#loc298 = loc("m_j"(#loc126))
#loc299 = loc("m_j"(#loc127))
#loc300 = loc("m_j"(#loc128))
#loc301 = loc("P"(#loc129))
#loc302 = loc("P"(#loc130))
#loc303 = loc("P"(#loc131))
#loc305 = loc("alpha"(#loc135))
#loc306 = loc("alpha"(#loc136))
#loc307 = loc("L_new"(#loc137))
#loc308 = loc("L_new"(#loc138))
#loc309 = loc("acc"(#loc139))
#loc310 = loc("acc"(#loc140))
#loc311 = loc("acc"(#loc141))
#loc312 = loc("acc"(#loc142))
#loc313 = loc("acc"(#loc144))
#loc314 = loc("acc"(#loc145))
#loc315 = loc("output_offset"(#loc146))
#loc316 = loc("output_offset"(#loc147))
#loc317 = loc("output_offset"(#loc148))
#loc318 = loc("output_offset"(#loc149))
#loc319 = loc("right"(#loc191))
#loc321 = loc("right"(#loc196))
#loc322 = loc("left"(#loc201))
#loc323 = loc(callsite(#loc202 at #loc6))
#loc324 = loc(callsite(#loc203 at #loc6))
#loc325 = loc(callsite(#loc204 at #loc6))
#loc326 = loc(callsite(#loc205 at #loc6))
#loc327 = loc(callsite(#loc206 at #loc6))
#loc328 = loc(callsite(#loc207 at #loc6))
#loc329 = loc(callsite(#loc208 at #loc6))
#loc330 = loc(callsite(#loc209 at #loc6))
#loc331 = loc(callsite(#loc210 at #loc6))
#loc332 = loc(callsite(#loc211 at #loc6))
#loc333 = loc(callsite(#loc246 at #loc69))
#loc334 = loc(callsite(#loc247 at #loc69))
#loc335 = loc(callsite(#loc248 at #loc69))
#loc336 = loc(callsite(#loc249 at #loc69))
#loc337 = loc("L"(#loc250))
#loc338 = loc(callsite(#loc288 at #loc289))
#loc339 = loc(callsite(#loc290 at #loc289))
#loc341 = loc(callsite(#loc298 at #loc124))
#loc342 = loc(callsite(#loc299 at #loc124))
#loc343 = loc(callsite(#loc300 at #loc124))
#loc344 = loc(callsite(#loc301 at #loc124))
#loc345 = loc(callsite(#loc302 at #loc124))
#loc346 = loc(callsite(#loc303 at #loc124))
#loc348 = loc(callsite(#loc305 at #loc124))
#loc349 = loc(callsite(#loc306 at #loc124))
#loc350 = loc(callsite(#loc307 at #loc124))
#loc351 = loc(callsite(#loc308 at #loc124))
#loc352 = loc(callsite(#loc319 at #loc320))
#loc353 = loc(callsite(#loc7 at #loc320))
#loc356 = loc(callsite(#loc195 at #loc320))
#loc357 = loc(callsite(#loc321 at #loc320))
#loc358 = loc(callsite(#loc197 at #loc320))
#loc359 = loc(callsite(#loc198 at #loc320))
#loc360 = loc(callsite(#loc199 at #loc320))
#loc361 = loc(callsite(#loc200 at #loc320))
#loc362 = loc(callsite(#loc16 at #loc320))
#loc363 = loc(callsite(#loc17 at #loc320))
#loc364 = loc(callsite(#loc322 at #loc320))
#loc365 = loc(callsite(#loc19 at #loc320))
#loc366 = loc(callsite(#loc20 at #loc320))
#loc367 = loc(callsite(#loc72 at #loc336))
#loc368 = loc(callsite(#loc74 at #loc336))
#loc369 = loc("acc"(#loc337))
#loc370 = loc(callsite(#loc122 at #loc340))
#loc372 = loc(callsite(#loc132 at #loc347))
#loc374 = loc(callsite(#loc125 at #loc370))
#loc375 = loc(callsite(#loc134 at #loc372))
