#loc = loc("/home/ericbuehler/.cache/vllm/torch_compile_cache/torch_aot_compile/90537ea14f244a5187d6ecc853fbadcf440d710f29c8e182fe8151f3f7751a82/inductor_cache/jv/cjvplhjyemmdijrpu5hlmmhopajofdg7at5npxkrdrpmgepeenk5.py":22:0)
#loc1 = loc(unknown)
#loc28 = loc("/home/ericbuehler/.cache/vllm/torch_compile_cache/torch_aot_compile/90537ea14f244a5187d6ecc853fbadcf440d710f29c8e182fe8151f3f7751a82/inductor_cache/jv/cjvplhjyemmdijrpu5hlmmhopajofdg7at5npxkrdrpmgepeenk5.py":47:25)
#loc34 = loc("in_ptr0"(#loc))
#loc35 = loc("out_ptr0"(#loc))
#loc36 = loc("xnumel"(#loc))
#loc37 = loc("r0_numel"(#loc))
#loc62 = loc("tmp4"(#loc28))
#loc65 = loc(callsite(#loc1 at #loc62))
module {
  tt.func public @triton_(%in_ptr0: !tt.ptr<bf16> {tt.divisibility = 16 : i32} loc("in_ptr0"(#loc)), %out_ptr0: !tt.ptr<f32> {tt.divisibility = 16 : i32} loc("out_ptr0"(#loc)), %xnumel: i32 {tt.divisibility = 16 : i32} loc("xnumel"(#loc)), %r0_numel: i32 {tt.divisibility = 16 : i32} loc("r0_numel"(#loc))) attributes {noinline = false} {
    %cst = arith.constant dense<0.000000e+00> : tensor<64x8xbf16> loc(#loc1)
    %c8_i32 = arith.constant 8 : i32 loc(#loc2)
    %c256_i32 = arith.constant 256 : i32 loc(#loc2)
    %c0_i32 = arith.constant 0 : i32 loc(#loc2)
    %cst_0 = arith.constant dense<8192> : tensor<64x1xi32> loc(#loc1)
    %cst_1 = arith.constant dense<256> : tensor<64x1xi32> loc(#loc1)
    %cst_2 = arith.constant dense<256> : tensor<1x8xi32> loc(#loc1)
    %cst_3 = arith.constant dense<0.000000e+00> : tensor<64x8xf32> loc(#loc1)
    %cst_4 = arith.constant dense<16> : tensor<64x1xi32> loc(#loc1)
    %c64_i32 = arith.constant 64 : i32 loc(#loc1)
    %xoffset = tt.get_program_id x : i32 loc(#loc38)
    %xoffset_5 = arith.muli %xoffset, %c64_i32 : i32 loc(#loc39)
    %xindex = tt.make_range {end = 64 : i32, start = 0 : i32} : tensor<64xi32> loc(#loc40)
    %xindex_6 = tt.expand_dims %xindex {axis = 1 : i32} : tensor<64xi32> -> tensor<64x1xi32> loc(#loc41)
    %xindex_7 = tt.splat %xoffset_5 : i32 -> tensor<64x1xi32> loc(#loc42)
    %xindex_8 = arith.addi %xindex_7, %xindex_6 : tensor<64x1xi32> loc(#loc42)
    %xmask = tt.splat %xnumel : i32 -> tensor<64x1xi32> loc(#loc43)
    %xmask_9 = arith.cmpi slt, %xindex_8, %xmask : tensor<64x1xi32> loc(#loc43)
    %r0_base = tt.make_range {end = 8 : i32, start = 0 : i32} : tensor<8xi32> loc(#loc44)
    %r0_base_10 = tt.expand_dims %r0_base {axis = 0 : i32} : tensor<8xi32> -> tensor<1x8xi32> loc(#loc45)
    %x0 = arith.remsi %xindex_8, %cst_4 : tensor<64x1xi32> loc(#loc46)
    %x1 = arith.divsi %xindex_8, %cst_4 : tensor<64x1xi32> loc(#loc47)
    %_tmp4 = scf.for %r0_offset = %c0_i32 to %c256_i32 step %c8_i32 iter_args(%_tmp4_12 = %cst_3) -> (tensor<64x8xf32>)  : i32 {
      %r0_index = tt.splat %r0_offset : i32 -> tensor<1x8xi32> loc(#loc49)
      %r0_index_13 = arith.addi %r0_index, %r0_base_10 : tensor<1x8xi32> loc(#loc49)
      %r0_mask = arith.cmpi slt, %r0_index_13, %cst_2 : tensor<1x8xi32> loc(#loc50)
      %tmp0 = arith.muli %x0, %cst_1 : tensor<64x1xi32> loc(#loc51)
      %tmp0_14 = tt.broadcast %r0_index_13 : tensor<1x8xi32> -> tensor<64x8xi32> loc(#loc52)
      %tmp0_15 = tt.broadcast %tmp0 : tensor<64x1xi32> -> tensor<64x8xi32> loc(#loc52)
      %tmp0_16 = arith.addi %tmp0_14, %tmp0_15 : tensor<64x8xi32> loc(#loc52)
      %tmp0_17 = arith.muli %x1, %cst_0 : tensor<64x1xi32> loc(#loc53)
      %tmp0_18 = tt.broadcast %tmp0_17 : tensor<64x1xi32> -> tensor<64x8xi32> loc(#loc54)
      %tmp0_19 = arith.addi %tmp0_16, %tmp0_18 : tensor<64x8xi32> loc(#loc54)
      %tmp0_20 = tt.splat %in_ptr0 : !tt.ptr<bf16> -> tensor<64x8x!tt.ptr<bf16>> loc(#loc55)
      %tmp0_21 = tt.addptr %tmp0_20, %tmp0_19 : tensor<64x8x!tt.ptr<bf16>>, tensor<64x8xi32> loc(#loc55)
      %tmp0_22 = tt.broadcast %r0_mask : tensor<1x8xi1> -> tensor<64x8xi1> loc(#loc56)
      %tmp0_23 = tt.broadcast %xmask_9 : tensor<64x1xi1> -> tensor<64x8xi1> loc(#loc56)
      %tmp0_24 = arith.andi %tmp0_22, %tmp0_23 : tensor<64x8xi1> loc(#loc56)
      %tmp0_25 = tt.load %tmp0_21, %tmp0_24, %cst evictionPolicy = evict_first : tensor<64x8x!tt.ptr<bf16>> loc(#loc57)
      %tmp0_26 = arith.extf %tmp0_25 : tensor<64x8xbf16> to tensor<64x8xf32> loc(#loc58)
      %tmp2 = arith.mulf %tmp0_26, %tmp0_26 : tensor<64x8xf32> loc(#loc59)
      %tmp5 = arith.addf %_tmp4_12, %tmp2 : tensor<64x8xf32> loc(#loc60)
      %_tmp4_27 = arith.select %tmp0_24, %tmp5, %_tmp4_12 : tensor<64x8xi1>, tensor<64x8xf32> loc(#loc61)
      scf.yield %_tmp4_27 : tensor<64x8xf32> loc(#loc26)
    } loc(#loc48)
    %tmp4 = "tt.reduce"(%_tmp4) <{axis = 1 : i32}> ({
    ^bb0(%tmp4_12: f32 loc(callsite(#loc1 at #loc62)), %tmp4_13: f32 loc(callsite(#loc1 at #loc62))):
      %tmp4_14 = arith.addf %tmp4_12, %tmp4_13 : f32 loc(#loc66)
      tt.reduce.return %tmp4_14 : f32 loc(#loc64)
    }) : (tensor<64x8xf32>) -> tensor<64xf32> loc(#loc64)
    %tmp4_11 = tt.expand_dims %tmp4 {axis = 1 : i32} : tensor<64xf32> -> tensor<64x1xf32> loc(#loc63)
    %0 = tt.splat %out_ptr0 : !tt.ptr<f32> -> tensor<64x1x!tt.ptr<f32>> loc(#loc31)
    %1 = tt.addptr %0, %xindex_8 : tensor<64x1x!tt.ptr<f32>>, tensor<64x1xi32> loc(#loc31)
    tt.store %1, %tmp4_11, %xmask_9 : tensor<64x1x!tt.ptr<f32>> loc(#loc32)
    tt.return loc(#loc33)
  } loc(#loc)
} loc(#loc)
#loc2 = loc("/home/ericbuehler/.cache/vllm/torch_compile_cache/torch_aot_compile/90537ea14f244a5187d6ecc853fbadcf440d710f29c8e182fe8151f3f7751a82/inductor_cache/jv/cjvplhjyemmdijrpu5hlmmhopajofdg7at5npxkrdrpmgepeenk5.py":35:43)
#loc3 = loc("/home/ericbuehler/.cache/vllm/torch_compile_cache/torch_aot_compile/90537ea14f244a5187d6ecc853fbadcf440d710f29c8e182fe8151f3f7751a82/inductor_cache/jv/cjvplhjyemmdijrpu5hlmmhopajofdg7at5npxkrdrpmgepeenk5.py":26:28)
#loc4 = loc("/home/ericbuehler/.cache/vllm/torch_compile_cache/torch_aot_compile/90537ea14f244a5187d6ecc853fbadcf440d710f29c8e182fe8151f3f7751a82/inductor_cache/jv/cjvplhjyemmdijrpu5hlmmhopajofdg7at5npxkrdrpmgepeenk5.py":26:33)
#loc5 = loc("/home/ericbuehler/.cache/vllm/torch_compile_cache/torch_aot_compile/90537ea14f244a5187d6ecc853fbadcf440d710f29c8e182fe8151f3f7751a82/inductor_cache/jv/cjvplhjyemmdijrpu5hlmmhopajofdg7at5npxkrdrpmgepeenk5.py":27:36)
#loc6 = loc("/home/ericbuehler/.cache/vllm/torch_compile_cache/torch_aot_compile/90537ea14f244a5187d6ecc853fbadcf440d710f29c8e182fe8151f3f7751a82/inductor_cache/jv/cjvplhjyemmdijrpu5hlmmhopajofdg7at5npxkrdrpmgepeenk5.py":27:44)
#loc7 = loc("/home/ericbuehler/.cache/vllm/torch_compile_cache/torch_aot_compile/90537ea14f244a5187d6ecc853fbadcf440d710f29c8e182fe8151f3f7751a82/inductor_cache/jv/cjvplhjyemmdijrpu5hlmmhopajofdg7at5npxkrdrpmgepeenk5.py":27:23)
#loc8 = loc("/home/ericbuehler/.cache/vllm/torch_compile_cache/torch_aot_compile/90537ea14f244a5187d6ecc853fbadcf440d710f29c8e182fe8151f3f7751a82/inductor_cache/jv/cjvplhjyemmdijrpu5hlmmhopajofdg7at5npxkrdrpmgepeenk5.py":28:21)
#loc9 = loc("/home/ericbuehler/.cache/vllm/torch_compile_cache/torch_aot_compile/90537ea14f244a5187d6ecc853fbadcf440d710f29c8e182fe8151f3f7751a82/inductor_cache/jv/cjvplhjyemmdijrpu5hlmmhopajofdg7at5npxkrdrpmgepeenk5.py":29:27)
#loc10 = loc("/home/ericbuehler/.cache/vllm/torch_compile_cache/torch_aot_compile/90537ea14f244a5187d6ecc853fbadcf440d710f29c8e182fe8151f3f7751a82/inductor_cache/jv/cjvplhjyemmdijrpu5hlmmhopajofdg7at5npxkrdrpmgepeenk5.py":29:37)
#loc11 = loc("/home/ericbuehler/.cache/vllm/torch_compile_cache/torch_aot_compile/90537ea14f244a5187d6ecc853fbadcf440d710f29c8e182fe8151f3f7751a82/inductor_cache/jv/cjvplhjyemmdijrpu5hlmmhopajofdg7at5npxkrdrpmgepeenk5.py":31:19)
#loc12 = loc("/home/ericbuehler/.cache/vllm/torch_compile_cache/torch_aot_compile/90537ea14f244a5187d6ecc853fbadcf440d710f29c8e182fe8151f3f7751a82/inductor_cache/jv/cjvplhjyemmdijrpu5hlmmhopajofdg7at5npxkrdrpmgepeenk5.py":32:19)
#loc13 = loc("/home/ericbuehler/.cache/vllm/torch_compile_cache/torch_aot_compile/90537ea14f244a5187d6ecc853fbadcf440d710f29c8e182fe8151f3f7751a82/inductor_cache/jv/cjvplhjyemmdijrpu5hlmmhopajofdg7at5npxkrdrpmgepeenk5.py":36:31)
#loc14 = loc("/home/ericbuehler/.cache/vllm/torch_compile_cache/torch_aot_compile/90537ea14f244a5187d6ecc853fbadcf440d710f29c8e182fe8151f3f7751a82/inductor_cache/jv/cjvplhjyemmdijrpu5hlmmhopajofdg7at5npxkrdrpmgepeenk5.py":37:29)
#loc15 = loc("/home/ericbuehler/.cache/vllm/torch_compile_cache/torch_aot_compile/90537ea14f244a5187d6ecc853fbadcf440d710f29c8e182fe8151f3f7751a82/inductor_cache/jv/cjvplhjyemmdijrpu5hlmmhopajofdg7at5npxkrdrpmgepeenk5.py":41:45)
#loc16 = loc("/home/ericbuehler/.cache/vllm/torch_compile_cache/torch_aot_compile/90537ea14f244a5187d6ecc853fbadcf440d710f29c8e182fe8151f3f7751a82/inductor_cache/jv/cjvplhjyemmdijrpu5hlmmhopajofdg7at5npxkrdrpmgepeenk5.py":41:41)
#loc17 = loc("/home/ericbuehler/.cache/vllm/torch_compile_cache/torch_aot_compile/90537ea14f244a5187d6ecc853fbadcf440d710f29c8e182fe8151f3f7751a82/inductor_cache/jv/cjvplhjyemmdijrpu5hlmmhopajofdg7at5npxkrdrpmgepeenk5.py":41:55)
#loc18 = loc("/home/ericbuehler/.cache/vllm/torch_compile_cache/torch_aot_compile/90537ea14f244a5187d6ecc853fbadcf440d710f29c8e182fe8151f3f7751a82/inductor_cache/jv/cjvplhjyemmdijrpu5hlmmhopajofdg7at5npxkrdrpmgepeenk5.py":41:50)
#loc19 = loc("/home/ericbuehler/.cache/vllm/torch_compile_cache/torch_aot_compile/90537ea14f244a5187d6ecc853fbadcf440d710f29c8e182fe8151f3f7751a82/inductor_cache/jv/cjvplhjyemmdijrpu5hlmmhopajofdg7at5npxkrdrpmgepeenk5.py":41:34)
#loc20 = loc("/home/ericbuehler/.cache/vllm/torch_compile_cache/torch_aot_compile/90537ea14f244a5187d6ecc853fbadcf440d710f29c8e182fe8151f3f7751a82/inductor_cache/jv/cjvplhjyemmdijrpu5hlmmhopajofdg7at5npxkrdrpmgepeenk5.py":41:70)
#loc21 = loc("/home/ericbuehler/.cache/vllm/torch_compile_cache/torch_aot_compile/90537ea14f244a5187d6ecc853fbadcf440d710f29c8e182fe8151f3f7751a82/inductor_cache/jv/cjvplhjyemmdijrpu5hlmmhopajofdg7at5npxkrdrpmgepeenk5.py":41:60)
#loc22 = loc("/home/ericbuehler/.cache/vllm/torch_compile_cache/torch_aot_compile/90537ea14f244a5187d6ecc853fbadcf440d710f29c8e182fe8151f3f7751a82/inductor_cache/jv/cjvplhjyemmdijrpu5hlmmhopajofdg7at5npxkrdrpmgepeenk5.py":41:122)
#loc23 = loc("/home/ericbuehler/.cache/vllm/torch_compile_cache/torch_aot_compile/90537ea14f244a5187d6ecc853fbadcf440d710f29c8e182fe8151f3f7751a82/inductor_cache/jv/cjvplhjyemmdijrpu5hlmmhopajofdg7at5npxkrdrpmgepeenk5.py":43:22)
#loc24 = loc("/home/ericbuehler/.cache/vllm/torch_compile_cache/torch_aot_compile/90537ea14f244a5187d6ecc853fbadcf440d710f29c8e182fe8151f3f7751a82/inductor_cache/jv/cjvplhjyemmdijrpu5hlmmhopajofdg7at5npxkrdrpmgepeenk5.py":45:23)
#loc25 = loc("/home/ericbuehler/.cache/vllm/torch_compile_cache/torch_aot_compile/90537ea14f244a5187d6ecc853fbadcf440d710f29c8e182fe8151f3f7751a82/inductor_cache/jv/cjvplhjyemmdijrpu5hlmmhopajofdg7at5npxkrdrpmgepeenk5.py":46:48)
#loc26 = loc("/home/ericbuehler/.cache/vllm/torch_compile_cache/torch_aot_compile/90537ea14f244a5187d6ecc853fbadcf440d710f29c8e182fe8151f3f7751a82/inductor_cache/jv/cjvplhjyemmdijrpu5hlmmhopajofdg7at5npxkrdrpmgepeenk5.py":46:8)
#loc27 = loc("/home/ericbuehler/vllm/.venv-bench/lib/python3.12/site-packages/triton/language/standard.py":293:36)
#loc29 = loc("/home/ericbuehler/vllm/.venv-bench/lib/python3.12/site-packages/triton/language/standard.py":263:15)
#loc30 = loc("/home/ericbuehler/.cache/vllm/torch_compile_cache/torch_aot_compile/90537ea14f244a5187d6ecc853fbadcf440d710f29c8e182fe8151f3f7751a82/inductor_cache/jv/cjvplhjyemmdijrpu5hlmmhopajofdg7at5npxkrdrpmgepeenk5.py":47:28)
#loc31 = loc("/home/ericbuehler/.cache/vllm/torch_compile_cache/torch_aot_compile/90537ea14f244a5187d6ecc853fbadcf440d710f29c8e182fe8151f3f7751a82/inductor_cache/jv/cjvplhjyemmdijrpu5hlmmhopajofdg7at5npxkrdrpmgepeenk5.py":48:25)
#loc32 = loc("/home/ericbuehler/.cache/vllm/torch_compile_cache/torch_aot_compile/90537ea14f244a5187d6ecc853fbadcf440d710f29c8e182fe8151f3f7751a82/inductor_cache/jv/cjvplhjyemmdijrpu5hlmmhopajofdg7at5npxkrdrpmgepeenk5.py":48:36)
#loc33 = loc("/home/ericbuehler/.cache/vllm/torch_compile_cache/torch_aot_compile/90537ea14f244a5187d6ecc853fbadcf440d710f29c8e182fe8151f3f7751a82/inductor_cache/jv/cjvplhjyemmdijrpu5hlmmhopajofdg7at5npxkrdrpmgepeenk5.py":48:4)
#loc38 = loc("xoffset"(#loc3))
#loc39 = loc("xoffset"(#loc4))
#loc40 = loc("xindex"(#loc5))
#loc41 = loc("xindex"(#loc6))
#loc42 = loc("xindex"(#loc7))
#loc43 = loc("xmask"(#loc8))
#loc44 = loc("r0_base"(#loc9))
#loc45 = loc("r0_base"(#loc10))
#loc46 = loc("x0"(#loc11))
#loc47 = loc("x1"(#loc12))
#loc48 = loc("_tmp4"(#loc2))
#loc49 = loc("r0_index"(#loc13))
#loc50 = loc("r0_mask"(#loc14))
#loc51 = loc("tmp0"(#loc15))
#loc52 = loc("tmp0"(#loc16))
#loc53 = loc("tmp0"(#loc17))
#loc54 = loc("tmp0"(#loc18))
#loc55 = loc("tmp0"(#loc19))
#loc56 = loc("tmp0"(#loc20))
#loc57 = loc("tmp0"(#loc21))
#loc58 = loc("tmp0"(#loc22))
#loc59 = loc("tmp2"(#loc23))
#loc60 = loc("tmp5"(#loc24))
#loc61 = loc("_tmp4"(#loc25))
#loc63 = loc("tmp4"(#loc30))
#loc64 = loc(callsite(#loc27 at #loc62))
#loc66 = loc(callsite(#loc29 at #loc64))
