#loc = loc("/home/ericbuehler/.cache/vllm/torch_compile_cache/torch_aot_compile/90537ea14f244a5187d6ecc853fbadcf440d710f29c8e182fe8151f3f7751a82/inductor_cache/a7/ca7tf2kgzvsvtywcmnmtrpz4l4yshotwsfoc4d4nwdgzokrjq4gr.py":22:0)
#loc1 = loc(unknown)
#loc29 = loc("/home/ericbuehler/.cache/vllm/torch_compile_cache/torch_aot_compile/90537ea14f244a5187d6ecc853fbadcf440d710f29c8e182fe8151f3f7751a82/inductor_cache/a7/ca7tf2kgzvsvtywcmnmtrpz4l4yshotwsfoc4d4nwdgzokrjq4gr.py":47:25)
#loc35 = loc("in_ptr0"(#loc))
#loc36 = loc("out_ptr0"(#loc))
#loc37 = loc("xnumel"(#loc))
#loc38 = loc("r0_numel"(#loc))
#loc64 = loc("tmp4"(#loc29))
#loc67 = loc(callsite(#loc1 at #loc64))
module {
  tt.func public @triton_(%in_ptr0: !tt.ptr<bf16> {tt.divisibility = 16 : i32} loc("in_ptr0"(#loc)), %out_ptr0: !tt.ptr<f32> {tt.divisibility = 16 : i32} loc("out_ptr0"(#loc)), %xnumel: i32 loc("xnumel"(#loc)), %r0_numel: i32 {tt.divisibility = 16 : i32} loc("r0_numel"(#loc))) attributes {noinline = false} {
    %cst = arith.constant dense<0.000000e+00> : tensor<64x4xbf16> loc(#loc1)
    %c4_i32 = arith.constant 4 : i32 loc(#loc2)
    %c512_i32 = arith.constant 512 : i32 loc(#loc2)
    %c0_i32 = arith.constant 0 : i32 loc(#loc2)
    %cst_0 = arith.constant dense<10240> : tensor<64x1xi32> loc(#loc1)
    %cst_1 = arith.constant dense<512> : tensor<64x1xi32> loc(#loc1)
    %cst_2 = arith.constant dense<8192> : tensor<1x4xi32> loc(#loc1)
    %cst_3 = arith.constant dense<512> : tensor<1x4xi32> loc(#loc1)
    %cst_4 = arith.constant dense<0.000000e+00> : tensor<64x4xf32> loc(#loc1)
    %cst_5 = arith.constant dense<2> : tensor<64x1xi32> loc(#loc1)
    %c64_i32 = arith.constant 64 : i32 loc(#loc1)
    %xoffset = tt.get_program_id x : i32 loc(#loc39)
    %xoffset_6 = arith.muli %xoffset, %c64_i32 : i32 loc(#loc40)
    %xindex = tt.make_range {end = 64 : i32, start = 0 : i32} : tensor<64xi32> loc(#loc41)
    %xindex_7 = tt.expand_dims %xindex {axis = 1 : i32} : tensor<64xi32> -> tensor<64x1xi32> loc(#loc42)
    %xindex_8 = tt.splat %xoffset_6 : i32 -> tensor<64x1xi32> loc(#loc43)
    %xindex_9 = arith.addi %xindex_8, %xindex_7 : tensor<64x1xi32> loc(#loc43)
    %xmask = tt.splat %xnumel : i32 -> tensor<64x1xi32> loc(#loc44)
    %xmask_10 = arith.cmpi slt, %xindex_9, %xmask : tensor<64x1xi32> loc(#loc44)
    %r0_base = tt.make_range {end = 4 : i32, start = 0 : i32} : tensor<4xi32> loc(#loc45)
    %r0_base_11 = tt.expand_dims %r0_base {axis = 0 : i32} : tensor<4xi32> -> tensor<1x4xi32> loc(#loc46)
    %x0 = arith.remsi %xindex_9, %cst_5 : tensor<64x1xi32> loc(#loc47)
    %x1 = arith.divsi %xindex_9, %cst_5 : tensor<64x1xi32> loc(#loc48)
    %_tmp4 = scf.for %r0_offset = %c0_i32 to %c512_i32 step %c4_i32 iter_args(%_tmp4_13 = %cst_4) -> (tensor<64x4xf32>)  : i32 {
      %r0_index = tt.splat %r0_offset : i32 -> tensor<1x4xi32> loc(#loc50)
      %r0_index_14 = arith.addi %r0_index, %r0_base_11 : tensor<1x4xi32> loc(#loc50)
      %r0_mask = arith.cmpi slt, %r0_index_14, %cst_3 : tensor<1x4xi32> loc(#loc51)
      %tmp0 = arith.addi %r0_index_14, %cst_2 : tensor<1x4xi32> loc(#loc52)
      %tmp0_15 = arith.muli %x0, %cst_1 : tensor<64x1xi32> loc(#loc53)
      %tmp0_16 = tt.broadcast %tmp0 : tensor<1x4xi32> -> tensor<64x4xi32> loc(#loc54)
      %tmp0_17 = tt.broadcast %tmp0_15 : tensor<64x1xi32> -> tensor<64x4xi32> loc(#loc54)
      %tmp0_18 = arith.addi %tmp0_16, %tmp0_17 : tensor<64x4xi32> loc(#loc54)
      %tmp0_19 = arith.muli %x1, %cst_0 : tensor<64x1xi32> loc(#loc55)
      %tmp0_20 = tt.broadcast %tmp0_19 : tensor<64x1xi32> -> tensor<64x4xi32> loc(#loc56)
      %tmp0_21 = arith.addi %tmp0_18, %tmp0_20 : tensor<64x4xi32> loc(#loc56)
      %tmp0_22 = tt.splat %in_ptr0 : !tt.ptr<bf16> -> tensor<64x4x!tt.ptr<bf16>> loc(#loc57)
      %tmp0_23 = tt.addptr %tmp0_22, %tmp0_21 : tensor<64x4x!tt.ptr<bf16>>, tensor<64x4xi32> loc(#loc57)
      %tmp0_24 = tt.broadcast %r0_mask : tensor<1x4xi1> -> tensor<64x4xi1> loc(#loc58)
      %tmp0_25 = tt.broadcast %xmask_10 : tensor<64x1xi1> -> tensor<64x4xi1> loc(#loc58)
      %tmp0_26 = arith.andi %tmp0_24, %tmp0_25 : tensor<64x4xi1> loc(#loc58)
      %tmp0_27 = tt.load %tmp0_23, %tmp0_26, %cst evictionPolicy = evict_first : tensor<64x4x!tt.ptr<bf16>> loc(#loc59)
      %tmp0_28 = arith.extf %tmp0_27 : tensor<64x4xbf16> to tensor<64x4xf32> loc(#loc60)
      %tmp2 = arith.mulf %tmp0_28, %tmp0_28 : tensor<64x4xf32> loc(#loc61)
      %tmp5 = arith.addf %_tmp4_13, %tmp2 : tensor<64x4xf32> loc(#loc62)
      %_tmp4_29 = arith.select %tmp0_26, %tmp5, %_tmp4_13 : tensor<64x4xi1>, tensor<64x4xf32> loc(#loc63)
      scf.yield %_tmp4_29 : tensor<64x4xf32> loc(#loc27)
    } loc(#loc49)
    %tmp4 = "tt.reduce"(%_tmp4) <{axis = 1 : i32}> ({
    ^bb0(%tmp4_13: f32 loc(callsite(#loc1 at #loc64)), %tmp4_14: f32 loc(callsite(#loc1 at #loc64))):
      %tmp4_15 = arith.addf %tmp4_13, %tmp4_14 : f32 loc(#loc68)
      tt.reduce.return %tmp4_15 : f32 loc(#loc66)
    }) : (tensor<64x4xf32>) -> tensor<64xf32> loc(#loc66)
    %tmp4_12 = tt.expand_dims %tmp4 {axis = 1 : i32} : tensor<64xf32> -> tensor<64x1xf32> loc(#loc65)
    %0 = tt.splat %out_ptr0 : !tt.ptr<f32> -> tensor<64x1x!tt.ptr<f32>> loc(#loc32)
    %1 = tt.addptr %0, %xindex_9 : tensor<64x1x!tt.ptr<f32>>, tensor<64x1xi32> loc(#loc32)
    tt.store %1, %tmp4_12, %xmask_10 : tensor<64x1x!tt.ptr<f32>> loc(#loc33)
    tt.return loc(#loc34)
  } loc(#loc)
} loc(#loc)
#loc2 = loc("/home/ericbuehler/.cache/vllm/torch_compile_cache/torch_aot_compile/90537ea14f244a5187d6ecc853fbadcf440d710f29c8e182fe8151f3f7751a82/inductor_cache/a7/ca7tf2kgzvsvtywcmnmtrpz4l4yshotwsfoc4d4nwdgzokrjq4gr.py":35:43)
#loc3 = loc("/home/ericbuehler/.cache/vllm/torch_compile_cache/torch_aot_compile/90537ea14f244a5187d6ecc853fbadcf440d710f29c8e182fe8151f3f7751a82/inductor_cache/a7/ca7tf2kgzvsvtywcmnmtrpz4l4yshotwsfoc4d4nwdgzokrjq4gr.py":26:28)
#loc4 = loc("/home/ericbuehler/.cache/vllm/torch_compile_cache/torch_aot_compile/90537ea14f244a5187d6ecc853fbadcf440d710f29c8e182fe8151f3f7751a82/inductor_cache/a7/ca7tf2kgzvsvtywcmnmtrpz4l4yshotwsfoc4d4nwdgzokrjq4gr.py":26:33)
#loc5 = loc("/home/ericbuehler/.cache/vllm/torch_compile_cache/torch_aot_compile/90537ea14f244a5187d6ecc853fbadcf440d710f29c8e182fe8151f3f7751a82/inductor_cache/a7/ca7tf2kgzvsvtywcmnmtrpz4l4yshotwsfoc4d4nwdgzokrjq4gr.py":27:36)
#loc6 = loc("/home/ericbuehler/.cache/vllm/torch_compile_cache/torch_aot_compile/90537ea14f244a5187d6ecc853fbadcf440d710f29c8e182fe8151f3f7751a82/inductor_cache/a7/ca7tf2kgzvsvtywcmnmtrpz4l4yshotwsfoc4d4nwdgzokrjq4gr.py":27:44)
#loc7 = loc("/home/ericbuehler/.cache/vllm/torch_compile_cache/torch_aot_compile/90537ea14f244a5187d6ecc853fbadcf440d710f29c8e182fe8151f3f7751a82/inductor_cache/a7/ca7tf2kgzvsvtywcmnmtrpz4l4yshotwsfoc4d4nwdgzokrjq4gr.py":27:23)
#loc8 = loc("/home/ericbuehler/.cache/vllm/torch_compile_cache/torch_aot_compile/90537ea14f244a5187d6ecc853fbadcf440d710f29c8e182fe8151f3f7751a82/inductor_cache/a7/ca7tf2kgzvsvtywcmnmtrpz4l4yshotwsfoc4d4nwdgzokrjq4gr.py":28:21)
#loc9 = loc("/home/ericbuehler/.cache/vllm/torch_compile_cache/torch_aot_compile/90537ea14f244a5187d6ecc853fbadcf440d710f29c8e182fe8151f3f7751a82/inductor_cache/a7/ca7tf2kgzvsvtywcmnmtrpz4l4yshotwsfoc4d4nwdgzokrjq4gr.py":29:27)
#loc10 = loc("/home/ericbuehler/.cache/vllm/torch_compile_cache/torch_aot_compile/90537ea14f244a5187d6ecc853fbadcf440d710f29c8e182fe8151f3f7751a82/inductor_cache/a7/ca7tf2kgzvsvtywcmnmtrpz4l4yshotwsfoc4d4nwdgzokrjq4gr.py":29:37)
#loc11 = loc("/home/ericbuehler/.cache/vllm/torch_compile_cache/torch_aot_compile/90537ea14f244a5187d6ecc853fbadcf440d710f29c8e182fe8151f3f7751a82/inductor_cache/a7/ca7tf2kgzvsvtywcmnmtrpz4l4yshotwsfoc4d4nwdgzokrjq4gr.py":31:19)
#loc12 = loc("/home/ericbuehler/.cache/vllm/torch_compile_cache/torch_aot_compile/90537ea14f244a5187d6ecc853fbadcf440d710f29c8e182fe8151f3f7751a82/inductor_cache/a7/ca7tf2kgzvsvtywcmnmtrpz4l4yshotwsfoc4d4nwdgzokrjq4gr.py":32:19)
#loc13 = loc("/home/ericbuehler/.cache/vllm/torch_compile_cache/torch_aot_compile/90537ea14f244a5187d6ecc853fbadcf440d710f29c8e182fe8151f3f7751a82/inductor_cache/a7/ca7tf2kgzvsvtywcmnmtrpz4l4yshotwsfoc4d4nwdgzokrjq4gr.py":36:31)
#loc14 = loc("/home/ericbuehler/.cache/vllm/torch_compile_cache/torch_aot_compile/90537ea14f244a5187d6ecc853fbadcf440d710f29c8e182fe8151f3f7751a82/inductor_cache/a7/ca7tf2kgzvsvtywcmnmtrpz4l4yshotwsfoc4d4nwdgzokrjq4gr.py":37:29)
#loc15 = loc("/home/ericbuehler/.cache/vllm/torch_compile_cache/torch_aot_compile/90537ea14f244a5187d6ecc853fbadcf440d710f29c8e182fe8151f3f7751a82/inductor_cache/a7/ca7tf2kgzvsvtywcmnmtrpz4l4yshotwsfoc4d4nwdgzokrjq4gr.py":41:41)
#loc16 = loc("/home/ericbuehler/.cache/vllm/torch_compile_cache/torch_aot_compile/90537ea14f244a5187d6ecc853fbadcf440d710f29c8e182fe8151f3f7751a82/inductor_cache/a7/ca7tf2kgzvsvtywcmnmtrpz4l4yshotwsfoc4d4nwdgzokrjq4gr.py":41:52)
#loc17 = loc("/home/ericbuehler/.cache/vllm/torch_compile_cache/torch_aot_compile/90537ea14f244a5187d6ecc853fbadcf440d710f29c8e182fe8151f3f7751a82/inductor_cache/a7/ca7tf2kgzvsvtywcmnmtrpz4l4yshotwsfoc4d4nwdgzokrjq4gr.py":41:48)
#loc18 = loc("/home/ericbuehler/.cache/vllm/torch_compile_cache/torch_aot_compile/90537ea14f244a5187d6ecc853fbadcf440d710f29c8e182fe8151f3f7751a82/inductor_cache/a7/ca7tf2kgzvsvtywcmnmtrpz4l4yshotwsfoc4d4nwdgzokrjq4gr.py":41:63)
#loc19 = loc("/home/ericbuehler/.cache/vllm/torch_compile_cache/torch_aot_compile/90537ea14f244a5187d6ecc853fbadcf440d710f29c8e182fe8151f3f7751a82/inductor_cache/a7/ca7tf2kgzvsvtywcmnmtrpz4l4yshotwsfoc4d4nwdgzokrjq4gr.py":41:57)
#loc20 = loc("/home/ericbuehler/.cache/vllm/torch_compile_cache/torch_aot_compile/90537ea14f244a5187d6ecc853fbadcf440d710f29c8e182fe8151f3f7751a82/inductor_cache/a7/ca7tf2kgzvsvtywcmnmtrpz4l4yshotwsfoc4d4nwdgzokrjq4gr.py":41:34)
#loc21 = loc("/home/ericbuehler/.cache/vllm/torch_compile_cache/torch_aot_compile/90537ea14f244a5187d6ecc853fbadcf440d710f29c8e182fe8151f3f7751a82/inductor_cache/a7/ca7tf2kgzvsvtywcmnmtrpz4l4yshotwsfoc4d4nwdgzokrjq4gr.py":41:78)
#loc22 = loc("/home/ericbuehler/.cache/vllm/torch_compile_cache/torch_aot_compile/90537ea14f244a5187d6ecc853fbadcf440d710f29c8e182fe8151f3f7751a82/inductor_cache/a7/ca7tf2kgzvsvtywcmnmtrpz4l4yshotwsfoc4d4nwdgzokrjq4gr.py":41:68)
#loc23 = loc("/home/ericbuehler/.cache/vllm/torch_compile_cache/torch_aot_compile/90537ea14f244a5187d6ecc853fbadcf440d710f29c8e182fe8151f3f7751a82/inductor_cache/a7/ca7tf2kgzvsvtywcmnmtrpz4l4yshotwsfoc4d4nwdgzokrjq4gr.py":41:130)
#loc24 = loc("/home/ericbuehler/.cache/vllm/torch_compile_cache/torch_aot_compile/90537ea14f244a5187d6ecc853fbadcf440d710f29c8e182fe8151f3f7751a82/inductor_cache/a7/ca7tf2kgzvsvtywcmnmtrpz4l4yshotwsfoc4d4nwdgzokrjq4gr.py":43:22)
#loc25 = loc("/home/ericbuehler/.cache/vllm/torch_compile_cache/torch_aot_compile/90537ea14f244a5187d6ecc853fbadcf440d710f29c8e182fe8151f3f7751a82/inductor_cache/a7/ca7tf2kgzvsvtywcmnmtrpz4l4yshotwsfoc4d4nwdgzokrjq4gr.py":45:23)
#loc26 = loc("/home/ericbuehler/.cache/vllm/torch_compile_cache/torch_aot_compile/90537ea14f244a5187d6ecc853fbadcf440d710f29c8e182fe8151f3f7751a82/inductor_cache/a7/ca7tf2kgzvsvtywcmnmtrpz4l4yshotwsfoc4d4nwdgzokrjq4gr.py":46:48)
#loc27 = loc("/home/ericbuehler/.cache/vllm/torch_compile_cache/torch_aot_compile/90537ea14f244a5187d6ecc853fbadcf440d710f29c8e182fe8151f3f7751a82/inductor_cache/a7/ca7tf2kgzvsvtywcmnmtrpz4l4yshotwsfoc4d4nwdgzokrjq4gr.py":46:8)
#loc28 = loc("/home/ericbuehler/vllm/.venv-bench/lib/python3.12/site-packages/triton/language/standard.py":293:36)
#loc30 = loc("/home/ericbuehler/vllm/.venv-bench/lib/python3.12/site-packages/triton/language/standard.py":263:15)
#loc31 = loc("/home/ericbuehler/.cache/vllm/torch_compile_cache/torch_aot_compile/90537ea14f244a5187d6ecc853fbadcf440d710f29c8e182fe8151f3f7751a82/inductor_cache/a7/ca7tf2kgzvsvtywcmnmtrpz4l4yshotwsfoc4d4nwdgzokrjq4gr.py":47:28)
#loc32 = loc("/home/ericbuehler/.cache/vllm/torch_compile_cache/torch_aot_compile/90537ea14f244a5187d6ecc853fbadcf440d710f29c8e182fe8151f3f7751a82/inductor_cache/a7/ca7tf2kgzvsvtywcmnmtrpz4l4yshotwsfoc4d4nwdgzokrjq4gr.py":48:25)
#loc33 = loc("/home/ericbuehler/.cache/vllm/torch_compile_cache/torch_aot_compile/90537ea14f244a5187d6ecc853fbadcf440d710f29c8e182fe8151f3f7751a82/inductor_cache/a7/ca7tf2kgzvsvtywcmnmtrpz4l4yshotwsfoc4d4nwdgzokrjq4gr.py":48:36)
#loc34 = loc("/home/ericbuehler/.cache/vllm/torch_compile_cache/torch_aot_compile/90537ea14f244a5187d6ecc853fbadcf440d710f29c8e182fe8151f3f7751a82/inductor_cache/a7/ca7tf2kgzvsvtywcmnmtrpz4l4yshotwsfoc4d4nwdgzokrjq4gr.py":48:4)
#loc39 = loc("xoffset"(#loc3))
#loc40 = loc("xoffset"(#loc4))
#loc41 = loc("xindex"(#loc5))
#loc42 = loc("xindex"(#loc6))
#loc43 = loc("xindex"(#loc7))
#loc44 = loc("xmask"(#loc8))
#loc45 = loc("r0_base"(#loc9))
#loc46 = loc("r0_base"(#loc10))
#loc47 = loc("x0"(#loc11))
#loc48 = loc("x1"(#loc12))
#loc49 = loc("_tmp4"(#loc2))
#loc50 = loc("r0_index"(#loc13))
#loc51 = loc("r0_mask"(#loc14))
#loc52 = loc("tmp0"(#loc15))
#loc53 = loc("tmp0"(#loc16))
#loc54 = loc("tmp0"(#loc17))
#loc55 = loc("tmp0"(#loc18))
#loc56 = loc("tmp0"(#loc19))
#loc57 = loc("tmp0"(#loc20))
#loc58 = loc("tmp0"(#loc21))
#loc59 = loc("tmp0"(#loc22))
#loc60 = loc("tmp0"(#loc23))
#loc61 = loc("tmp2"(#loc24))
#loc62 = loc("tmp5"(#loc25))
#loc63 = loc("_tmp4"(#loc26))
#loc65 = loc("tmp4"(#loc31))
#loc66 = loc(callsite(#loc28 at #loc64))
#loc68 = loc(callsite(#loc30 at #loc66))
