#loc = loc("/home/ericbuehler/.cache/vllm/torch_compile_cache/torch_aot_compile/90537ea14f244a5187d6ecc853fbadcf440d710f29c8e182fe8151f3f7751a82/inductor_cache/gn/cgn2raf5osu5wsoad4qc6lzazbb5uwfkh6dfiazborewylq3ebf3.py":22:0)
#loc32 = loc("in_ptr0"(#loc))
#loc33 = loc("out_ptr0"(#loc))
#loc34 = loc("xnumel"(#loc))
module {
  tt.func public @triton_(%in_ptr0: !tt.ptr<bf16> {tt.divisibility = 16 : i32} loc("in_ptr0"(#loc)), %out_ptr0: !tt.ptr<bf16> {tt.divisibility = 16 : i32} loc("out_ptr0"(#loc)), %xnumel: i32 {tt.divisibility = 16 : i32} loc("xnumel"(#loc))) attributes {noinline = false} {
    %tmp13 = arith.constant dense<1.000000e+00> : tensor<512xf32> loc(#loc35)
    %tmp10 = arith.constant dense<0.797884583> : tensor<512xf32> loc(#loc36)
    %tmp7 = arith.constant dense<4.471500e-02> : tensor<512xf32> loc(#loc37)
    %tmp3 = arith.constant dense<5.000000e-01> : tensor<512xf32> loc(#loc38)
    %cst = arith.constant dense<4224> : tensor<512xi32> loc(#loc5)
    %cst_0 = arith.constant dense<2112> : tensor<512xi32> loc(#loc5)
    %c512_i32 = arith.constant 512 : i32 loc(#loc5)
    %xoffset = tt.get_program_id x : i32 loc(#loc39)
    %xoffset_1 = arith.muli %xoffset, %c512_i32 : i32 loc(#loc40)
    %xindex = tt.make_range {end = 512 : i32, start = 0 : i32} : tensor<512xi32> loc(#loc41)
    %xindex_2 = tt.splat %xoffset_1 : i32 -> tensor<512xi32> loc(#loc42)
    %xindex_3 = arith.addi %xindex_2, %xindex : tensor<512xi32> loc(#loc42)
    %xmask = tt.splat %xnumel : i32 -> tensor<512xi32> loc(#loc43)
    %xmask_4 = arith.cmpi slt, %xindex_3, %xmask : tensor<512xi32> loc(#loc43)
    %x0 = arith.remsi %xindex_3, %cst_0 : tensor<512xi32> loc(#loc44)
    %x1 = arith.divsi %xindex_3, %cst_0 : tensor<512xi32> loc(#loc45)
    %tmp0 = arith.muli %x1, %cst : tensor<512xi32> loc(#loc46)
    %tmp0_5 = arith.addi %x0, %tmp0 : tensor<512xi32> loc(#loc47)
    %tmp0_6 = tt.splat %in_ptr0 : !tt.ptr<bf16> -> tensor<512x!tt.ptr<bf16>> loc(#loc48)
    %tmp0_7 = tt.addptr %tmp0_6, %tmp0_5 : tensor<512x!tt.ptr<bf16>>, tensor<512xi32> loc(#loc48)
    %tmp0_8 = tt.load %tmp0_7, %xmask_4 : tensor<512x!tt.ptr<bf16>> loc(#loc49)
    %tmp0_9 = arith.extf %tmp0_8 : tensor<512xbf16> to tensor<512xf32> loc(#loc50)
    %tmp16 = arith.addi %x0, %cst_0 : tensor<512xi32> loc(#loc51)
    %tmp16_10 = arith.addi %tmp16, %tmp0 : tensor<512xi32> loc(#loc52)
    %tmp16_11 = tt.addptr %tmp0_6, %tmp16_10 : tensor<512x!tt.ptr<bf16>>, tensor<512xi32> loc(#loc53)
    %tmp16_12 = tt.load %tmp16_11, %xmask_4 : tensor<512x!tt.ptr<bf16>> loc(#loc54)
    %tmp16_13 = arith.extf %tmp16_12 : tensor<512xbf16> to tensor<512xf32> loc(#loc55)
    %tmp3_14 = arith.mulf %tmp0_9, %tmp3 : tensor<512xf32> loc(#loc38)
    %tmp4 = arith.mulf %tmp0_9, %tmp0_9 : tensor<512xf32> loc(#loc56)
    %tmp5 = arith.mulf %tmp4, %tmp0_9 : tensor<512xf32> loc(#loc57)
    %tmp7_15 = arith.mulf %tmp5, %tmp7 : tensor<512xf32> loc(#loc37)
    %tmp8 = arith.addf %tmp0_9, %tmp7_15 : tensor<512xf32> loc(#loc58)
    %tmp10_16 = arith.mulf %tmp8, %tmp10 : tensor<512xf32> loc(#loc36)
    %tmp11 = tt.extern_elementwise %tmp10_16 {libname = "", libpath = "", pure = true, symbol = "__nv_tanhf"} : (tensor<512xf32>) -> tensor<512xf32> loc(#loc59)
    %tmp13_17 = arith.addf %tmp11, %tmp13 : tensor<512xf32> loc(#loc35)
    %tmp14 = arith.mulf %tmp3_14, %tmp13_17 : tensor<512xf32> loc(#loc60)
    %tmp17 = arith.mulf %tmp14, %tmp16_13 : tensor<512xf32> loc(#loc61)
    %0 = tt.splat %out_ptr0 : !tt.ptr<bf16> -> tensor<512x!tt.ptr<bf16>> loc(#loc29)
    %1 = tt.addptr %0, %xindex_3 : tensor<512x!tt.ptr<bf16>>, tensor<512xi32> loc(#loc29)
    %2 = arith.truncf %tmp17 : tensor<512xf32> to tensor<512xbf16> loc(#loc30)
    tt.store %1, %2, %xmask_4 : tensor<512x!tt.ptr<bf16>> loc(#loc30)
    tt.return loc(#loc31)
  } loc(#loc)
} loc(#loc)
#loc1 = loc("/home/ericbuehler/.cache/vllm/torch_compile_cache/torch_aot_compile/90537ea14f244a5187d6ecc853fbadcf440d710f29c8e182fe8151f3f7751a82/inductor_cache/gn/cgn2raf5osu5wsoad4qc6lzazbb5uwfkh6dfiazborewylq3ebf3.py":43:20)
#loc2 = loc("/home/ericbuehler/.cache/vllm/torch_compile_cache/torch_aot_compile/90537ea14f244a5187d6ecc853fbadcf440d710f29c8e182fe8151f3f7751a82/inductor_cache/gn/cgn2raf5osu5wsoad4qc6lzazbb5uwfkh6dfiazborewylq3ebf3.py":40:19)
#loc3 = loc("/home/ericbuehler/.cache/vllm/torch_compile_cache/torch_aot_compile/90537ea14f244a5187d6ecc853fbadcf440d710f29c8e182fe8151f3f7751a82/inductor_cache/gn/cgn2raf5osu5wsoad4qc6lzazbb5uwfkh6dfiazborewylq3ebf3.py":37:18)
#loc4 = loc("/home/ericbuehler/.cache/vllm/torch_compile_cache/torch_aot_compile/90537ea14f244a5187d6ecc853fbadcf440d710f29c8e182fe8151f3f7751a82/inductor_cache/gn/cgn2raf5osu5wsoad4qc6lzazbb5uwfkh6dfiazborewylq3ebf3.py":33:18)
#loc5 = loc(unknown)
#loc6 = loc("/home/ericbuehler/.cache/vllm/torch_compile_cache/torch_aot_compile/90537ea14f244a5187d6ecc853fbadcf440d710f29c8e182fe8151f3f7751a82/inductor_cache/gn/cgn2raf5osu5wsoad4qc6lzazbb5uwfkh6dfiazborewylq3ebf3.py":23:28)
#loc7 = loc("/home/ericbuehler/.cache/vllm/torch_compile_cache/torch_aot_compile/90537ea14f244a5187d6ecc853fbadcf440d710f29c8e182fe8151f3f7751a82/inductor_cache/gn/cgn2raf5osu5wsoad4qc6lzazbb5uwfkh6dfiazborewylq3ebf3.py":23:33)
#loc8 = loc("/home/ericbuehler/.cache/vllm/torch_compile_cache/torch_aot_compile/90537ea14f244a5187d6ecc853fbadcf440d710f29c8e182fe8151f3f7751a82/inductor_cache/gn/cgn2raf5osu5wsoad4qc6lzazbb5uwfkh6dfiazborewylq3ebf3.py":24:36)
#loc9 = loc("/home/ericbuehler/.cache/vllm/torch_compile_cache/torch_aot_compile/90537ea14f244a5187d6ecc853fbadcf440d710f29c8e182fe8151f3f7751a82/inductor_cache/gn/cgn2raf5osu5wsoad4qc6lzazbb5uwfkh6dfiazborewylq3ebf3.py":24:23)
#loc10 = loc("/home/ericbuehler/.cache/vllm/torch_compile_cache/torch_aot_compile/90537ea14f244a5187d6ecc853fbadcf440d710f29c8e182fe8151f3f7751a82/inductor_cache/gn/cgn2raf5osu5wsoad4qc6lzazbb5uwfkh6dfiazborewylq3ebf3.py":25:21)
#loc11 = loc("/home/ericbuehler/.cache/vllm/torch_compile_cache/torch_aot_compile/90537ea14f244a5187d6ecc853fbadcf440d710f29c8e182fe8151f3f7751a82/inductor_cache/gn/cgn2raf5osu5wsoad4qc6lzazbb5uwfkh6dfiazborewylq3ebf3.py":26:19)
#loc12 = loc("/home/ericbuehler/.cache/vllm/torch_compile_cache/torch_aot_compile/90537ea14f244a5187d6ecc853fbadcf440d710f29c8e182fe8151f3f7751a82/inductor_cache/gn/cgn2raf5osu5wsoad4qc6lzazbb5uwfkh6dfiazborewylq3ebf3.py":27:19)
#loc13 = loc("/home/ericbuehler/.cache/vllm/torch_compile_cache/torch_aot_compile/90537ea14f244a5187d6ecc853fbadcf440d710f29c8e182fe8151f3f7751a82/inductor_cache/gn/cgn2raf5osu5wsoad4qc6lzazbb5uwfkh6dfiazborewylq3ebf3.py":29:40)
#loc14 = loc("/home/ericbuehler/.cache/vllm/torch_compile_cache/torch_aot_compile/90537ea14f244a5187d6ecc853fbadcf440d710f29c8e182fe8151f3f7751a82/inductor_cache/gn/cgn2raf5osu5wsoad4qc6lzazbb5uwfkh6dfiazborewylq3ebf3.py":29:35)
#loc15 = loc("/home/ericbuehler/.cache/vllm/torch_compile_cache/torch_aot_compile/90537ea14f244a5187d6ecc853fbadcf440d710f29c8e182fe8151f3f7751a82/inductor_cache/gn/cgn2raf5osu5wsoad4qc6lzazbb5uwfkh6dfiazborewylq3ebf3.py":29:30)
#loc16 = loc("/home/ericbuehler/.cache/vllm/torch_compile_cache/torch_aot_compile/90537ea14f244a5187d6ecc853fbadcf440d710f29c8e182fe8151f3f7751a82/inductor_cache/gn/cgn2raf5osu5wsoad4qc6lzazbb5uwfkh6dfiazborewylq3ebf3.py":29:45)
#loc17 = loc("/home/ericbuehler/.cache/vllm/torch_compile_cache/torch_aot_compile/90537ea14f244a5187d6ecc853fbadcf440d710f29c8e182fe8151f3f7751a82/inductor_cache/gn/cgn2raf5osu5wsoad4qc6lzazbb5uwfkh6dfiazborewylq3ebf3.py":29:55)
#loc18 = loc("/home/ericbuehler/.cache/vllm/torch_compile_cache/torch_aot_compile/90537ea14f244a5187d6ecc853fbadcf440d710f29c8e182fe8151f3f7751a82/inductor_cache/gn/cgn2raf5osu5wsoad4qc6lzazbb5uwfkh6dfiazborewylq3ebf3.py":30:38)
#loc19 = loc("/home/ericbuehler/.cache/vllm/torch_compile_cache/torch_aot_compile/90537ea14f244a5187d6ecc853fbadcf440d710f29c8e182fe8151f3f7751a82/inductor_cache/gn/cgn2raf5osu5wsoad4qc6lzazbb5uwfkh6dfiazborewylq3ebf3.py":30:43)
#loc20 = loc("/home/ericbuehler/.cache/vllm/torch_compile_cache/torch_aot_compile/90537ea14f244a5187d6ecc853fbadcf440d710f29c8e182fe8151f3f7751a82/inductor_cache/gn/cgn2raf5osu5wsoad4qc6lzazbb5uwfkh6dfiazborewylq3ebf3.py":30:31)
#loc21 = loc("/home/ericbuehler/.cache/vllm/torch_compile_cache/torch_aot_compile/90537ea14f244a5187d6ecc853fbadcf440d710f29c8e182fe8151f3f7751a82/inductor_cache/gn/cgn2raf5osu5wsoad4qc6lzazbb5uwfkh6dfiazborewylq3ebf3.py":30:53)
#loc22 = loc("/home/ericbuehler/.cache/vllm/torch_compile_cache/torch_aot_compile/90537ea14f244a5187d6ecc853fbadcf440d710f29c8e182fe8151f3f7751a82/inductor_cache/gn/cgn2raf5osu5wsoad4qc6lzazbb5uwfkh6dfiazborewylq3ebf3.py":30:63)
#loc23 = loc("/home/ericbuehler/.cache/vllm/torch_compile_cache/torch_aot_compile/90537ea14f244a5187d6ecc853fbadcf440d710f29c8e182fe8151f3f7751a82/inductor_cache/gn/cgn2raf5osu5wsoad4qc6lzazbb5uwfkh6dfiazborewylq3ebf3.py":34:18)
#loc24 = loc("/home/ericbuehler/.cache/vllm/torch_compile_cache/torch_aot_compile/90537ea14f244a5187d6ecc853fbadcf440d710f29c8e182fe8151f3f7751a82/inductor_cache/gn/cgn2raf5osu5wsoad4qc6lzazbb5uwfkh6dfiazborewylq3ebf3.py":35:18)
#loc25 = loc("/home/ericbuehler/.cache/vllm/torch_compile_cache/torch_aot_compile/90537ea14f244a5187d6ecc853fbadcf440d710f29c8e182fe8151f3f7751a82/inductor_cache/gn/cgn2raf5osu5wsoad4qc6lzazbb5uwfkh6dfiazborewylq3ebf3.py":38:18)
#loc26 = loc("/home/ericbuehler/.cache/vllm/torch_compile_cache/torch_aot_compile/90537ea14f244a5187d6ecc853fbadcf440d710f29c8e182fe8151f3f7751a82/inductor_cache/gn/cgn2raf5osu5wsoad4qc6lzazbb5uwfkh6dfiazborewylq3ebf3.py":41:27)
#loc27 = loc("/home/ericbuehler/.cache/vllm/torch_compile_cache/torch_aot_compile/90537ea14f244a5187d6ecc853fbadcf440d710f29c8e182fe8151f3f7751a82/inductor_cache/gn/cgn2raf5osu5wsoad4qc6lzazbb5uwfkh6dfiazborewylq3ebf3.py":44:19)
#loc28 = loc("/home/ericbuehler/.cache/vllm/torch_compile_cache/torch_aot_compile/90537ea14f244a5187d6ecc853fbadcf440d710f29c8e182fe8151f3f7751a82/inductor_cache/gn/cgn2raf5osu5wsoad4qc6lzazbb5uwfkh6dfiazborewylq3ebf3.py":46:20)
#loc29 = loc("/home/ericbuehler/.cache/vllm/torch_compile_cache/torch_aot_compile/90537ea14f244a5187d6ecc853fbadcf440d710f29c8e182fe8151f3f7751a82/inductor_cache/gn/cgn2raf5osu5wsoad4qc6lzazbb5uwfkh6dfiazborewylq3ebf3.py":47:25)
#loc30 = loc("/home/ericbuehler/.cache/vllm/torch_compile_cache/torch_aot_compile/90537ea14f244a5187d6ecc853fbadcf440d710f29c8e182fe8151f3f7751a82/inductor_cache/gn/cgn2raf5osu5wsoad4qc6lzazbb5uwfkh6dfiazborewylq3ebf3.py":47:37)
#loc31 = loc("/home/ericbuehler/.cache/vllm/torch_compile_cache/torch_aot_compile/90537ea14f244a5187d6ecc853fbadcf440d710f29c8e182fe8151f3f7751a82/inductor_cache/gn/cgn2raf5osu5wsoad4qc6lzazbb5uwfkh6dfiazborewylq3ebf3.py":47:4)
#loc35 = loc("tmp13"(#loc1))
#loc36 = loc("tmp10"(#loc2))
#loc37 = loc("tmp7"(#loc3))
#loc38 = loc("tmp3"(#loc4))
#loc39 = loc("xoffset"(#loc6))
#loc40 = loc("xoffset"(#loc7))
#loc41 = loc("xindex"(#loc8))
#loc42 = loc("xindex"(#loc9))
#loc43 = loc("xmask"(#loc10))
#loc44 = loc("x0"(#loc11))
#loc45 = loc("x1"(#loc12))
#loc46 = loc("tmp0"(#loc13))
#loc47 = loc("tmp0"(#loc14))
#loc48 = loc("tmp0"(#loc15))
#loc49 = loc("tmp0"(#loc16))
#loc50 = loc("tmp0"(#loc17))
#loc51 = loc("tmp16"(#loc18))
#loc52 = loc("tmp16"(#loc19))
#loc53 = loc("tmp16"(#loc20))
#loc54 = loc("tmp16"(#loc21))
#loc55 = loc("tmp16"(#loc22))
#loc56 = loc("tmp4"(#loc23))
#loc57 = loc("tmp5"(#loc24))
#loc58 = loc("tmp8"(#loc25))
#loc59 = loc("tmp11"(#loc26))
#loc60 = loc("tmp14"(#loc27))
#loc61 = loc("tmp17"(#loc28))
