#loc = loc("/home/ericbuehler/.cache/vllm/torch_compile_cache/torch_aot_compile/90537ea14f244a5187d6ecc853fbadcf440d710f29c8e182fe8151f3f7751a82/inductor_cache/ly/clyipr55te37spd4heg6e3u5cv5m5hr44m2q4zh52qeijhqkvjek.py":21:0)
#loc1 = loc(unknown)
#loc34 = loc("/home/ericbuehler/.cache/vllm/torch_compile_cache/torch_aot_compile/90537ea14f244a5187d6ecc853fbadcf440d710f29c8e182fe8151f3f7751a82/inductor_cache/ly/clyipr55te37spd4heg6e3u5cv5m5hr44m2q4zh52qeijhqkvjek.py":52:29)
#loc64 = loc("/home/ericbuehler/.cache/vllm/torch_compile_cache/torch_aot_compile/90537ea14f244a5187d6ecc853fbadcf440d710f29c8e182fe8151f3f7751a82/inductor_cache/ly/clyipr55te37spd4heg6e3u5cv5m5hr44m2q4zh52qeijhqkvjek.py":80:31)
#loc93 = loc("/home/ericbuehler/.cache/vllm/torch_compile_cache/torch_aot_compile/90537ea14f244a5187d6ecc853fbadcf440d710f29c8e182fe8151f3f7751a82/inductor_cache/ly/clyipr55te37spd4heg6e3u5cv5m5hr44m2q4zh52qeijhqkvjek.py":108:31)
#loc106 = loc("in_ptr0"(#loc))
#loc107 = loc("out_ptr0"(#loc))
#loc108 = loc("out_ptr1"(#loc))
#loc109 = loc("out_ptr3"(#loc))
#loc110 = loc("xnumel_0"(#loc))
#loc111 = loc("xnumel_1"(#loc))
#loc112 = loc("xnumel_2"(#loc))
#loc140 = loc("tmp4"(#loc34))
#loc165 = loc("tmp10"(#loc64))
#loc190 = loc("tmp16"(#loc93))
#loc205 = loc(callsite(#loc1 at #loc140))
#loc207 = loc(callsite(#loc1 at #loc165))
#loc209 = loc(callsite(#loc1 at #loc190))
module {
  tt.func public @triton_red_fused_3(%in_ptr0: !tt.ptr<bf16> {tt.divisibility = 16 : i32} loc("in_ptr0"(#loc)), %out_ptr0: !tt.ptr<f32> {tt.divisibility = 16 : i32} loc("out_ptr0"(#loc)), %out_ptr1: !tt.ptr<f32> {tt.divisibility = 16 : i32} loc("out_ptr1"(#loc)), %out_ptr3: !tt.ptr<bf16> {tt.divisibility = 16 : i32} loc("out_ptr3"(#loc)), %xnumel_0: i32 {tt.divisibility = 16 : i32} loc("xnumel_0"(#loc)), %xnumel_1: i32 loc("xnumel_1"(#loc)), %xnumel_2: i32 loc("xnumel_2"(#loc))) attributes {noinline = false} {
    %c1_i32 = arith.constant 1 : i32 loc(#loc1)
    %cst = arith.constant dense<0.000000e+00> : tensor<2x256xbf16> loc(#loc1)
    %cst_0 = arith.constant dense<9.99999997E-7> : tensor<2x1xf32> loc(#loc1)
    %cst_1 = arith.constant dense<2.560000e+02> : tensor<2x1xf32> loc(#loc1)
    %cst_2 = arith.constant dense<6144> : tensor<1x256xi32> loc(#loc1)
    %cst_3 = arith.constant dense<4096> : tensor<1x256xi32> loc(#loc1)
    %cst_4 = arith.constant dense<8> : tensor<2x1xi32> loc(#loc1)
    %cst_5 = arith.constant dense<8192> : tensor<2x1xi32> loc(#loc1)
    %cst_6 = arith.constant dense<256> : tensor<2x1xi32> loc(#loc1)
    %cst_7 = arith.constant dense<256> : tensor<1x256xi32> loc(#loc1)
    %cst_8 = arith.constant dense<0.000000e+00> : tensor<2x256xf32> loc(#loc1)
    %cst_9 = arith.constant dense<16> : tensor<2x1xi32> loc(#loc1)
    %c2_i32 = arith.constant 2 : i32 loc(#loc1)
    %pid = tt.get_program_id x : i32 loc(#loc113)
    %num_xblocks_0 = arith.addi %xnumel_0, %c1_i32 : i32 loc(#loc198)
    %num_xblocks_0_10 = arith.divsi %num_xblocks_0, %c2_i32 : i32 loc(#loc199)
    %num_xblocks_1 = arith.addi %xnumel_1, %c1_i32 : i32 loc(#loc200)
    %num_xblocks_1_11 = arith.divsi %num_xblocks_1, %c2_i32 : i32 loc(#loc201)
    %num_xblocks_1_12 = arith.addi %num_xblocks_0_10, %num_xblocks_1_11 : i32 loc(#loc116)
    %num_xblocks_2 = arith.addi %xnumel_2, %c1_i32 : i32 loc(#loc202)
    %num_xblocks_2_13 = arith.divsi %num_xblocks_2, %c2_i32 : i32 loc(#loc203)
    %num_xblocks_2_14 = arith.addi %num_xblocks_1_12, %num_xblocks_2_13 : i32 loc(#loc118)
    %0 = arith.cmpi slt, %pid, %num_xblocks_0_10 : i32 loc(#loc10)
    scf.if %0 {
      %xoffset = arith.muli %pid, %c2_i32 : i32 loc(#loc119)
      %xindex = tt.make_range {end = 2 : i32, start = 0 : i32} : tensor<2xi32> loc(#loc120)
      %xindex_15 = tt.expand_dims %xindex {axis = 1 : i32} : tensor<2xi32> -> tensor<2x1xi32> loc(#loc121)
      %xindex_16 = tt.splat %xoffset : i32 -> tensor<2x1xi32> loc(#loc122)
      %xindex_17 = arith.addi %xindex_16, %xindex_15 : tensor<2x1xi32> loc(#loc122)
      %xmask = tt.splat %xnumel_0 : i32 -> tensor<2x1xi32> loc(#loc123)
      %xmask_18 = arith.cmpi slt, %xindex_17, %xmask : tensor<2x1xi32> loc(#loc123)
      %r0_base = tt.make_range {end = 256 : i32, start = 0 : i32} : tensor<256xi32> loc(#loc124)
      %r0_base_19 = tt.expand_dims %r0_base {axis = 0 : i32} : tensor<256xi32> -> tensor<1x256xi32> loc(#loc125)
      %x0 = arith.remsi %xindex_17, %cst_9 : tensor<2x1xi32> loc(#loc126)
      %x1 = arith.divsi %xindex_17, %cst_9 : tensor<2x1xi32> loc(#loc127)
      %r0_mask = arith.cmpi slt, %r0_base_19, %cst_7 : tensor<1x256xi32> loc(#loc128)
      %tmp0 = arith.muli %x0, %cst_6 : tensor<2x1xi32> loc(#loc129)
      %tmp0_20 = tt.broadcast %r0_base_19 : tensor<1x256xi32> -> tensor<2x256xi32> loc(#loc130)
      %tmp0_21 = tt.broadcast %tmp0 : tensor<2x1xi32> -> tensor<2x256xi32> loc(#loc130)
      %tmp0_22 = arith.addi %tmp0_20, %tmp0_21 : tensor<2x256xi32> loc(#loc130)
      %tmp0_23 = arith.muli %x1, %cst_5 : tensor<2x1xi32> loc(#loc131)
      %tmp0_24 = tt.broadcast %tmp0_23 : tensor<2x1xi32> -> tensor<2x256xi32> loc(#loc132)
      %tmp0_25 = arith.addi %tmp0_22, %tmp0_24 : tensor<2x256xi32> loc(#loc132)
      %tmp0_26 = tt.splat %in_ptr0 : !tt.ptr<bf16> -> tensor<2x256x!tt.ptr<bf16>> loc(#loc133)
      %tmp0_27 = tt.addptr %tmp0_26, %tmp0_25 : tensor<2x256x!tt.ptr<bf16>>, tensor<2x256xi32> loc(#loc133)
      %tmp0_28 = tt.broadcast %r0_mask : tensor<1x256xi1> -> tensor<2x256xi1> loc(#loc134)
      %tmp0_29 = tt.broadcast %xmask_18 : tensor<2x1xi1> -> tensor<2x256xi1> loc(#loc134)
      %tmp0_30 = arith.andi %tmp0_28, %tmp0_29 : tensor<2x256xi1> loc(#loc134)
      %tmp0_31 = tt.load %tmp0_27, %tmp0_30, %cst evictionPolicy = evict_first : tensor<2x256x!tt.ptr<bf16>> loc(#loc135)
      %tmp0_32 = arith.extf %tmp0_31 : tensor<2x256xbf16> to tensor<2x256xf32> loc(#loc136)
      %tmp2 = arith.mulf %tmp0_32, %tmp0_32 : tensor<2x256xf32> loc(#loc137)
      %tmp5 = arith.addf %tmp2, %cst_8 : tensor<2x256xf32> loc(#loc138)
      %_tmp4 = arith.select %tmp0_30, %tmp5, %cst_8 : tensor<2x256xi1>, tensor<2x256xf32> loc(#loc139)
      %tmp4 = "tt.reduce"(%_tmp4) <{axis = 1 : i32}> ({
      ^bb0(%tmp4_34: f32 loc(callsite(#loc1 at #loc140)), %tmp4_35: f32 loc(callsite(#loc1 at #loc140))):
        %tmp4_36 = arith.addf %tmp4_34, %tmp4_35 : f32 loc(#loc210)
        tt.reduce.return %tmp4_36 : f32 loc(#loc204)
      }) : (tensor<2x256xf32>) -> tensor<2xf32> loc(#loc204)
      %tmp4_33 = tt.expand_dims %tmp4 {axis = 1 : i32} : tensor<2xf32> -> tensor<2x1xf32> loc(#loc141)
      %1 = tt.splat %out_ptr0 : !tt.ptr<f32> -> tensor<2x1x!tt.ptr<f32>> loc(#loc37)
      %2 = tt.addptr %1, %xindex_17 : tensor<2x1x!tt.ptr<f32>>, tensor<2x1xi32> loc(#loc37)
      tt.store %2, %tmp4_33, %xmask_18 : tensor<2x1x!tt.ptr<f32>> loc(#loc38)
    } else {
      %1 = arith.cmpi slt, %pid, %num_xblocks_1_12 : i32 loc(#loc39)
      scf.if %1 {
        %pid_offset = arith.subi %pid, %num_xblocks_0_10 : i32 loc(#loc142)
        %xoffset = arith.muli %pid_offset, %c2_i32 : i32 loc(#loc143)
        %xindex = tt.make_range {end = 2 : i32, start = 0 : i32} : tensor<2xi32> loc(#loc144)
        %xindex_15 = tt.expand_dims %xindex {axis = 1 : i32} : tensor<2xi32> -> tensor<2x1xi32> loc(#loc145)
        %xindex_16 = tt.splat %xoffset : i32 -> tensor<2x1xi32> loc(#loc146)
        %xindex_17 = arith.addi %xindex_16, %xindex_15 : tensor<2x1xi32> loc(#loc146)
        %xmask = tt.splat %xnumel_1 : i32 -> tensor<2x1xi32> loc(#loc147)
        %xmask_18 = arith.cmpi slt, %xindex_17, %xmask : tensor<2x1xi32> loc(#loc147)
        %r0_base = tt.make_range {end = 256 : i32, start = 0 : i32} : tensor<256xi32> loc(#loc148)
        %r0_base_19 = tt.expand_dims %r0_base {axis = 0 : i32} : tensor<256xi32> -> tensor<1x256xi32> loc(#loc149)
        %x4 = arith.remsi %xindex_17, %cst_4 : tensor<2x1xi32> loc(#loc150)
        %x5 = arith.divsi %xindex_17, %cst_4 : tensor<2x1xi32> loc(#loc151)
        %r0_mask = arith.cmpi slt, %r0_base_19, %cst_7 : tensor<1x256xi32> loc(#loc152)
        %tmp6 = arith.addi %r0_base_19, %cst_3 : tensor<1x256xi32> loc(#loc153)
        %tmp6_20 = arith.muli %x4, %cst_6 : tensor<2x1xi32> loc(#loc154)
        %tmp6_21 = tt.broadcast %tmp6 : tensor<1x256xi32> -> tensor<2x256xi32> loc(#loc155)
        %tmp6_22 = tt.broadcast %tmp6_20 : tensor<2x1xi32> -> tensor<2x256xi32> loc(#loc155)
        %tmp6_23 = arith.addi %tmp6_21, %tmp6_22 : tensor<2x256xi32> loc(#loc155)
        %tmp6_24 = arith.muli %x5, %cst_5 : tensor<2x1xi32> loc(#loc156)
        %tmp6_25 = tt.broadcast %tmp6_24 : tensor<2x1xi32> -> tensor<2x256xi32> loc(#loc157)
        %tmp6_26 = arith.addi %tmp6_23, %tmp6_25 : tensor<2x256xi32> loc(#loc157)
        %tmp6_27 = tt.splat %in_ptr0 : !tt.ptr<bf16> -> tensor<2x256x!tt.ptr<bf16>> loc(#loc158)
        %tmp6_28 = tt.addptr %tmp6_27, %tmp6_26 : tensor<2x256x!tt.ptr<bf16>>, tensor<2x256xi32> loc(#loc158)
        %tmp6_29 = tt.broadcast %r0_mask : tensor<1x256xi1> -> tensor<2x256xi1> loc(#loc159)
        %tmp6_30 = tt.broadcast %xmask_18 : tensor<2x1xi1> -> tensor<2x256xi1> loc(#loc159)
        %tmp6_31 = arith.andi %tmp6_29, %tmp6_30 : tensor<2x256xi1> loc(#loc159)
        %tmp6_32 = tt.load %tmp6_28, %tmp6_31, %cst evictionPolicy = evict_first : tensor<2x256x!tt.ptr<bf16>> loc(#loc160)
        %tmp6_33 = arith.extf %tmp6_32 : tensor<2x256xbf16> to tensor<2x256xf32> loc(#loc161)
        %tmp8 = arith.mulf %tmp6_33, %tmp6_33 : tensor<2x256xf32> loc(#loc162)
        %tmp11 = arith.addf %tmp8, %cst_8 : tensor<2x256xf32> loc(#loc163)
        %_tmp10 = arith.select %tmp6_31, %tmp11, %cst_8 : tensor<2x256xi1>, tensor<2x256xf32> loc(#loc164)
        %tmp10 = "tt.reduce"(%_tmp10) <{axis = 1 : i32}> ({
        ^bb0(%tmp10_35: f32 loc(callsite(#loc1 at #loc165)), %tmp10_36: f32 loc(callsite(#loc1 at #loc165))):
          %tmp10_37 = arith.addf %tmp10_35, %tmp10_36 : f32 loc(#loc211)
          tt.reduce.return %tmp10_37 : f32 loc(#loc206)
        }) : (tensor<2x256xf32>) -> tensor<2xf32> loc(#loc206)
        %tmp10_34 = tt.expand_dims %tmp10 {axis = 1 : i32} : tensor<2xf32> -> tensor<2x1xf32> loc(#loc166)
        %2 = tt.splat %out_ptr1 : !tt.ptr<f32> -> tensor<2x1x!tt.ptr<f32>> loc(#loc66)
        %3 = tt.addptr %2, %xindex_17 : tensor<2x1x!tt.ptr<f32>>, tensor<2x1xi32> loc(#loc66)
        tt.store %3, %tmp10_34, %xmask_18 : tensor<2x1x!tt.ptr<f32>> loc(#loc67)
      } else {
        %2 = arith.cmpi slt, %pid, %num_xblocks_2_14 : i32 loc(#loc68)
        scf.if %2 {
          %pid_offset = arith.subi %pid, %num_xblocks_1_12 : i32 loc(#loc167)
          %xoffset = arith.muli %pid_offset, %c2_i32 : i32 loc(#loc168)
          %xindex = tt.make_range {end = 2 : i32, start = 0 : i32} : tensor<2xi32> loc(#loc169)
          %xindex_15 = tt.expand_dims %xindex {axis = 1 : i32} : tensor<2xi32> -> tensor<2x1xi32> loc(#loc170)
          %xindex_16 = tt.splat %xoffset : i32 -> tensor<2x1xi32> loc(#loc171)
          %xindex_17 = arith.addi %xindex_16, %xindex_15 : tensor<2x1xi32> loc(#loc171)
          %xmask = tt.splat %xnumel_2 : i32 -> tensor<2x1xi32> loc(#loc172)
          %xmask_18 = arith.cmpi slt, %xindex_17, %xmask : tensor<2x1xi32> loc(#loc172)
          %r0_base = tt.make_range {end = 256 : i32, start = 0 : i32} : tensor<256xi32> loc(#loc173)
          %r0_base_19 = tt.expand_dims %r0_base {axis = 0 : i32} : tensor<256xi32> -> tensor<1x256xi32> loc(#loc174)
          %x8 = arith.remsi %xindex_17, %cst_4 : tensor<2x1xi32> loc(#loc175)
          %x9 = arith.divsi %xindex_17, %cst_4 : tensor<2x1xi32> loc(#loc176)
          %r0_mask = arith.cmpi slt, %r0_base_19, %cst_7 : tensor<1x256xi32> loc(#loc177)
          %tmp12 = arith.addi %r0_base_19, %cst_2 : tensor<1x256xi32> loc(#loc178)
          %tmp12_20 = arith.muli %x8, %cst_6 : tensor<2x1xi32> loc(#loc179)
          %tmp12_21 = tt.broadcast %tmp12 : tensor<1x256xi32> -> tensor<2x256xi32> loc(#loc180)
          %tmp12_22 = tt.broadcast %tmp12_20 : tensor<2x1xi32> -> tensor<2x256xi32> loc(#loc180)
          %tmp12_23 = arith.addi %tmp12_21, %tmp12_22 : tensor<2x256xi32> loc(#loc180)
          %tmp12_24 = arith.muli %x9, %cst_5 : tensor<2x1xi32> loc(#loc181)
          %tmp12_25 = tt.broadcast %tmp12_24 : tensor<2x1xi32> -> tensor<2x256xi32> loc(#loc182)
          %tmp12_26 = arith.addi %tmp12_23, %tmp12_25 : tensor<2x256xi32> loc(#loc182)
          %tmp12_27 = tt.splat %in_ptr0 : !tt.ptr<bf16> -> tensor<2x256x!tt.ptr<bf16>> loc(#loc183)
          %tmp12_28 = tt.addptr %tmp12_27, %tmp12_26 : tensor<2x256x!tt.ptr<bf16>>, tensor<2x256xi32> loc(#loc183)
          %tmp12_29 = tt.broadcast %r0_mask : tensor<1x256xi1> -> tensor<2x256xi1> loc(#loc184)
          %tmp12_30 = tt.broadcast %xmask_18 : tensor<2x1xi1> -> tensor<2x256xi1> loc(#loc184)
          %tmp12_31 = arith.andi %tmp12_29, %tmp12_30 : tensor<2x256xi1> loc(#loc184)
          %tmp12_32 = tt.load %tmp12_28, %tmp12_31, %cst evictionPolicy = evict_last : tensor<2x256x!tt.ptr<bf16>> loc(#loc185)
          %tmp12_33 = arith.extf %tmp12_32 : tensor<2x256xbf16> to tensor<2x256xf32> loc(#loc186)
          %tmp14 = arith.mulf %tmp12_33, %tmp12_33 : tensor<2x256xf32> loc(#loc187)
          %tmp17 = arith.addf %tmp14, %cst_8 : tensor<2x256xf32> loc(#loc188)
          %_tmp16 = arith.select %tmp12_31, %tmp17, %cst_8 : tensor<2x256xi1>, tensor<2x256xf32> loc(#loc189)
          %tmp16 = "tt.reduce"(%_tmp16) <{axis = 1 : i32}> ({
          ^bb0(%tmp16_37: f32 loc(callsite(#loc1 at #loc190)), %tmp16_38: f32 loc(callsite(#loc1 at #loc190))):
            %tmp16_39 = arith.addf %tmp16_37, %tmp16_38 : f32 loc(#loc212)
            tt.reduce.return %tmp16_39 : f32 loc(#loc208)
          }) : (tensor<2x256xf32>) -> tensor<2xf32> loc(#loc208)
          %tmp16_34 = tt.expand_dims %tmp16 {axis = 1 : i32} : tensor<2xf32> -> tensor<2x1xf32> loc(#loc191)
          %tmp18 = tt.load %tmp12_28, %tmp12_31, %cst evictionPolicy = evict_first : tensor<2x256x!tt.ptr<bf16>> loc(#loc192)
          %tmp18_35 = arith.extf %tmp18 : tensor<2x256xbf16> to tensor<2x256xf32> loc(#loc193)
          %tmp21 = arith.divf %tmp16_34, %cst_1 : tensor<2x1xf32> loc(#loc194)
          %tmp23 = arith.addf %tmp21, %cst_0 : tensor<2x1xf32> loc(#loc195)
          %tmp24 = tt.extern_elementwise %tmp23 {libname = "", libpath = "", pure = true, symbol = "__nv_rsqrtf"} : (tensor<2x1xf32>) -> tensor<2x1xf32> loc(#loc196)
          %tmp25 = tt.broadcast %tmp24 : tensor<2x1xf32> -> tensor<2x256xf32> loc(#loc197)
          %tmp25_36 = arith.mulf %tmp18_35, %tmp25 : tensor<2x256xf32> loc(#loc197)
          %3 = arith.muli %xindex_17, %cst_6 : tensor<2x1xi32> loc(#loc101)
          %4 = tt.broadcast %r0_base_19 : tensor<1x256xi32> -> tensor<2x256xi32> loc(#loc102)
          %5 = tt.broadcast %3 : tensor<2x1xi32> -> tensor<2x256xi32> loc(#loc102)
          %6 = arith.addi %4, %5 : tensor<2x256xi32> loc(#loc102)
          %7 = tt.splat %out_ptr3 : !tt.ptr<bf16> -> tensor<2x256x!tt.ptr<bf16>> loc(#loc103)
          %8 = tt.addptr %7, %6 : tensor<2x256x!tt.ptr<bf16>>, tensor<2x256xi32> loc(#loc103)
          %9 = arith.truncf %tmp25_36 : tensor<2x256xf32> to tensor<2x256xbf16> loc(#loc104)
          tt.store %8, %9, %tmp12_31 : tensor<2x256x!tt.ptr<bf16>> loc(#loc104)
        } loc(#loc69)
      } loc(#loc40)
    } loc(#loc11)
    tt.return loc(#loc105)
  } loc(#loc)
} loc(#loc)
#loc2 = loc("/home/ericbuehler/.cache/vllm/torch_compile_cache/torch_aot_compile/90537ea14f244a5187d6ecc853fbadcf440d710f29c8e182fe8151f3f7751a82/inductor_cache/ly/clyipr55te37spd4heg6e3u5cv5m5hr44m2q4zh52qeijhqkvjek.py":22:24)
#loc3 = loc("/home/ericbuehler/vllm/.venv-bench/lib/python3.12/site-packages/triton/language/standard.py":43:17)
#loc4 = loc("/home/ericbuehler/.cache/vllm/torch_compile_cache/torch_aot_compile/90537ea14f244a5187d6ecc853fbadcf440d710f29c8e182fe8151f3f7751a82/inductor_cache/ly/clyipr55te37spd4heg6e3u5cv5m5hr44m2q4zh52qeijhqkvjek.py":23:38)
#loc5 = loc("/home/ericbuehler/vllm/.venv-bench/lib/python3.12/site-packages/triton/language/standard.py":43:30)
#loc6 = loc("/home/ericbuehler/.cache/vllm/torch_compile_cache/torch_aot_compile/90537ea14f244a5187d6ecc853fbadcf440d710f29c8e182fe8151f3f7751a82/inductor_cache/ly/clyipr55te37spd4heg6e3u5cv5m5hr44m2q4zh52qeijhqkvjek.py":24:54)
#loc7 = loc("/home/ericbuehler/.cache/vllm/torch_compile_cache/torch_aot_compile/90537ea14f244a5187d6ecc853fbadcf440d710f29c8e182fe8151f3f7751a82/inductor_cache/ly/clyipr55te37spd4heg6e3u5cv5m5hr44m2q4zh52qeijhqkvjek.py":24:36)
#loc8 = loc("/home/ericbuehler/.cache/vllm/torch_compile_cache/torch_aot_compile/90537ea14f244a5187d6ecc853fbadcf440d710f29c8e182fe8151f3f7751a82/inductor_cache/ly/clyipr55te37spd4heg6e3u5cv5m5hr44m2q4zh52qeijhqkvjek.py":25:54)
#loc9 = loc("/home/ericbuehler/.cache/vllm/torch_compile_cache/torch_aot_compile/90537ea14f244a5187d6ecc853fbadcf440d710f29c8e182fe8151f3f7751a82/inductor_cache/ly/clyipr55te37spd4heg6e3u5cv5m5hr44m2q4zh52qeijhqkvjek.py":25:36)
#loc10 = loc("/home/ericbuehler/.cache/vllm/torch_compile_cache/torch_aot_compile/90537ea14f244a5187d6ecc853fbadcf440d710f29c8e182fe8151f3f7751a82/inductor_cache/ly/clyipr55te37spd4heg6e3u5cv5m5hr44m2q4zh52qeijhqkvjek.py":26:13)
#loc11 = loc("/home/ericbuehler/.cache/vllm/torch_compile_cache/torch_aot_compile/90537ea14f244a5187d6ecc853fbadcf440d710f29c8e182fe8151f3f7751a82/inductor_cache/ly/clyipr55te37spd4heg6e3u5cv5m5hr44m2q4zh52qeijhqkvjek.py":26:7)
#loc12 = loc("/home/ericbuehler/.cache/vllm/torch_compile_cache/torch_aot_compile/90537ea14f244a5187d6ecc853fbadcf440d710f29c8e182fe8151f3f7751a82/inductor_cache/ly/clyipr55te37spd4heg6e3u5cv5m5hr44m2q4zh52qeijhqkvjek.py":31:31)
#loc13 = loc("/home/ericbuehler/.cache/vllm/torch_compile_cache/torch_aot_compile/90537ea14f244a5187d6ecc853fbadcf440d710f29c8e182fe8151f3f7751a82/inductor_cache/ly/clyipr55te37spd4heg6e3u5cv5m5hr44m2q4zh52qeijhqkvjek.py":32:40)
#loc14 = loc("/home/ericbuehler/.cache/vllm/torch_compile_cache/torch_aot_compile/90537ea14f244a5187d6ecc853fbadcf440d710f29c8e182fe8151f3f7751a82/inductor_cache/ly/clyipr55te37spd4heg6e3u5cv5m5hr44m2q4zh52qeijhqkvjek.py":32:48)
#loc15 = loc("/home/ericbuehler/.cache/vllm/torch_compile_cache/torch_aot_compile/90537ea14f244a5187d6ecc853fbadcf440d710f29c8e182fe8151f3f7751a82/inductor_cache/ly/clyipr55te37spd4heg6e3u5cv5m5hr44m2q4zh52qeijhqkvjek.py":32:27)
#loc16 = loc("/home/ericbuehler/.cache/vllm/torch_compile_cache/torch_aot_compile/90537ea14f244a5187d6ecc853fbadcf440d710f29c8e182fe8151f3f7751a82/inductor_cache/ly/clyipr55te37spd4heg6e3u5cv5m5hr44m2q4zh52qeijhqkvjek.py":33:25)
#loc17 = loc("/home/ericbuehler/.cache/vllm/torch_compile_cache/torch_aot_compile/90537ea14f244a5187d6ecc853fbadcf440d710f29c8e182fe8151f3f7751a82/inductor_cache/ly/clyipr55te37spd4heg6e3u5cv5m5hr44m2q4zh52qeijhqkvjek.py":34:31)
#loc18 = loc("/home/ericbuehler/.cache/vllm/torch_compile_cache/torch_aot_compile/90537ea14f244a5187d6ecc853fbadcf440d710f29c8e182fe8151f3f7751a82/inductor_cache/ly/clyipr55te37spd4heg6e3u5cv5m5hr44m2q4zh52qeijhqkvjek.py":34:41)
#loc19 = loc("/home/ericbuehler/.cache/vllm/torch_compile_cache/torch_aot_compile/90537ea14f244a5187d6ecc853fbadcf440d710f29c8e182fe8151f3f7751a82/inductor_cache/ly/clyipr55te37spd4heg6e3u5cv5m5hr44m2q4zh52qeijhqkvjek.py":36:23)
#loc20 = loc("/home/ericbuehler/.cache/vllm/torch_compile_cache/torch_aot_compile/90537ea14f244a5187d6ecc853fbadcf440d710f29c8e182fe8151f3f7751a82/inductor_cache/ly/clyipr55te37spd4heg6e3u5cv5m5hr44m2q4zh52qeijhqkvjek.py":37:23)
#loc21 = loc("/home/ericbuehler/.cache/vllm/torch_compile_cache/torch_aot_compile/90537ea14f244a5187d6ecc853fbadcf440d710f29c8e182fe8151f3f7751a82/inductor_cache/ly/clyipr55te37spd4heg6e3u5cv5m5hr44m2q4zh52qeijhqkvjek.py":42:33)
#loc22 = loc("/home/ericbuehler/.cache/vllm/torch_compile_cache/torch_aot_compile/90537ea14f244a5187d6ecc853fbadcf440d710f29c8e182fe8151f3f7751a82/inductor_cache/ly/clyipr55te37spd4heg6e3u5cv5m5hr44m2q4zh52qeijhqkvjek.py":46:49)
#loc23 = loc("/home/ericbuehler/.cache/vllm/torch_compile_cache/torch_aot_compile/90537ea14f244a5187d6ecc853fbadcf440d710f29c8e182fe8151f3f7751a82/inductor_cache/ly/clyipr55te37spd4heg6e3u5cv5m5hr44m2q4zh52qeijhqkvjek.py":46:45)
#loc24 = loc("/home/ericbuehler/.cache/vllm/torch_compile_cache/torch_aot_compile/90537ea14f244a5187d6ecc853fbadcf440d710f29c8e182fe8151f3f7751a82/inductor_cache/ly/clyipr55te37spd4heg6e3u5cv5m5hr44m2q4zh52qeijhqkvjek.py":46:59)
#loc25 = loc("/home/ericbuehler/.cache/vllm/torch_compile_cache/torch_aot_compile/90537ea14f244a5187d6ecc853fbadcf440d710f29c8e182fe8151f3f7751a82/inductor_cache/ly/clyipr55te37spd4heg6e3u5cv5m5hr44m2q4zh52qeijhqkvjek.py":46:54)
#loc26 = loc("/home/ericbuehler/.cache/vllm/torch_compile_cache/torch_aot_compile/90537ea14f244a5187d6ecc853fbadcf440d710f29c8e182fe8151f3f7751a82/inductor_cache/ly/clyipr55te37spd4heg6e3u5cv5m5hr44m2q4zh52qeijhqkvjek.py":46:38)
#loc27 = loc("/home/ericbuehler/.cache/vllm/torch_compile_cache/torch_aot_compile/90537ea14f244a5187d6ecc853fbadcf440d710f29c8e182fe8151f3f7751a82/inductor_cache/ly/clyipr55te37spd4heg6e3u5cv5m5hr44m2q4zh52qeijhqkvjek.py":46:74)
#loc28 = loc("/home/ericbuehler/.cache/vllm/torch_compile_cache/torch_aot_compile/90537ea14f244a5187d6ecc853fbadcf440d710f29c8e182fe8151f3f7751a82/inductor_cache/ly/clyipr55te37spd4heg6e3u5cv5m5hr44m2q4zh52qeijhqkvjek.py":46:64)
#loc29 = loc("/home/ericbuehler/.cache/vllm/torch_compile_cache/torch_aot_compile/90537ea14f244a5187d6ecc853fbadcf440d710f29c8e182fe8151f3f7751a82/inductor_cache/ly/clyipr55te37spd4heg6e3u5cv5m5hr44m2q4zh52qeijhqkvjek.py":46:126)
#loc30 = loc("/home/ericbuehler/.cache/vllm/torch_compile_cache/torch_aot_compile/90537ea14f244a5187d6ecc853fbadcf440d710f29c8e182fe8151f3f7751a82/inductor_cache/ly/clyipr55te37spd4heg6e3u5cv5m5hr44m2q4zh52qeijhqkvjek.py":48:26)
#loc31 = loc("/home/ericbuehler/.cache/vllm/torch_compile_cache/torch_aot_compile/90537ea14f244a5187d6ecc853fbadcf440d710f29c8e182fe8151f3f7751a82/inductor_cache/ly/clyipr55te37spd4heg6e3u5cv5m5hr44m2q4zh52qeijhqkvjek.py":50:27)
#loc32 = loc("/home/ericbuehler/.cache/vllm/torch_compile_cache/torch_aot_compile/90537ea14f244a5187d6ecc853fbadcf440d710f29c8e182fe8151f3f7751a82/inductor_cache/ly/clyipr55te37spd4heg6e3u5cv5m5hr44m2q4zh52qeijhqkvjek.py":51:52)
#loc33 = loc("/home/ericbuehler/vllm/.venv-bench/lib/python3.12/site-packages/triton/language/standard.py":293:36)
#loc35 = loc("/home/ericbuehler/vllm/.venv-bench/lib/python3.12/site-packages/triton/language/standard.py":263:15)
#loc36 = loc("/home/ericbuehler/.cache/vllm/torch_compile_cache/torch_aot_compile/90537ea14f244a5187d6ecc853fbadcf440d710f29c8e182fe8151f3f7751a82/inductor_cache/ly/clyipr55te37spd4heg6e3u5cv5m5hr44m2q4zh52qeijhqkvjek.py":52:32)
#loc37 = loc("/home/ericbuehler/.cache/vllm/torch_compile_cache/torch_aot_compile/90537ea14f244a5187d6ecc853fbadcf440d710f29c8e182fe8151f3f7751a82/inductor_cache/ly/clyipr55te37spd4heg6e3u5cv5m5hr44m2q4zh52qeijhqkvjek.py":53:29)
#loc38 = loc("/home/ericbuehler/.cache/vllm/torch_compile_cache/torch_aot_compile/90537ea14f244a5187d6ecc853fbadcf440d710f29c8e182fe8151f3f7751a82/inductor_cache/ly/clyipr55te37spd4heg6e3u5cv5m5hr44m2q4zh52qeijhqkvjek.py":53:40)
#loc39 = loc("/home/ericbuehler/.cache/vllm/torch_compile_cache/torch_aot_compile/90537ea14f244a5187d6ecc853fbadcf440d710f29c8e182fe8151f3f7751a82/inductor_cache/ly/clyipr55te37spd4heg6e3u5cv5m5hr44m2q4zh52qeijhqkvjek.py":54:15)
#loc40 = loc("/home/ericbuehler/.cache/vllm/torch_compile_cache/torch_aot_compile/90537ea14f244a5187d6ecc853fbadcf440d710f29c8e182fe8151f3f7751a82/inductor_cache/ly/clyipr55te37spd4heg6e3u5cv5m5hr44m2q4zh52qeijhqkvjek.py":54:9)
#loc41 = loc("/home/ericbuehler/.cache/vllm/torch_compile_cache/torch_aot_compile/90537ea14f244a5187d6ecc853fbadcf440d710f29c8e182fe8151f3f7751a82/inductor_cache/ly/clyipr55te37spd4heg6e3u5cv5m5hr44m2q4zh52qeijhqkvjek.py":55:27)
#loc42 = loc("/home/ericbuehler/.cache/vllm/torch_compile_cache/torch_aot_compile/90537ea14f244a5187d6ecc853fbadcf440d710f29c8e182fe8151f3f7751a82/inductor_cache/ly/clyipr55te37spd4heg6e3u5cv5m5hr44m2q4zh52qeijhqkvjek.py":59:31)
#loc43 = loc("/home/ericbuehler/.cache/vllm/torch_compile_cache/torch_aot_compile/90537ea14f244a5187d6ecc853fbadcf440d710f29c8e182fe8151f3f7751a82/inductor_cache/ly/clyipr55te37spd4heg6e3u5cv5m5hr44m2q4zh52qeijhqkvjek.py":60:40)
#loc44 = loc("/home/ericbuehler/.cache/vllm/torch_compile_cache/torch_aot_compile/90537ea14f244a5187d6ecc853fbadcf440d710f29c8e182fe8151f3f7751a82/inductor_cache/ly/clyipr55te37spd4heg6e3u5cv5m5hr44m2q4zh52qeijhqkvjek.py":60:48)
#loc45 = loc("/home/ericbuehler/.cache/vllm/torch_compile_cache/torch_aot_compile/90537ea14f244a5187d6ecc853fbadcf440d710f29c8e182fe8151f3f7751a82/inductor_cache/ly/clyipr55te37spd4heg6e3u5cv5m5hr44m2q4zh52qeijhqkvjek.py":60:27)
#loc46 = loc("/home/ericbuehler/.cache/vllm/torch_compile_cache/torch_aot_compile/90537ea14f244a5187d6ecc853fbadcf440d710f29c8e182fe8151f3f7751a82/inductor_cache/ly/clyipr55te37spd4heg6e3u5cv5m5hr44m2q4zh52qeijhqkvjek.py":61:25)
#loc47 = loc("/home/ericbuehler/.cache/vllm/torch_compile_cache/torch_aot_compile/90537ea14f244a5187d6ecc853fbadcf440d710f29c8e182fe8151f3f7751a82/inductor_cache/ly/clyipr55te37spd4heg6e3u5cv5m5hr44m2q4zh52qeijhqkvjek.py":62:31)
#loc48 = loc("/home/ericbuehler/.cache/vllm/torch_compile_cache/torch_aot_compile/90537ea14f244a5187d6ecc853fbadcf440d710f29c8e182fe8151f3f7751a82/inductor_cache/ly/clyipr55te37spd4heg6e3u5cv5m5hr44m2q4zh52qeijhqkvjek.py":62:41)
#loc49 = loc("/home/ericbuehler/.cache/vllm/torch_compile_cache/torch_aot_compile/90537ea14f244a5187d6ecc853fbadcf440d710f29c8e182fe8151f3f7751a82/inductor_cache/ly/clyipr55te37spd4heg6e3u5cv5m5hr44m2q4zh52qeijhqkvjek.py":64:23)
#loc50 = loc("/home/ericbuehler/.cache/vllm/torch_compile_cache/torch_aot_compile/90537ea14f244a5187d6ecc853fbadcf440d710f29c8e182fe8151f3f7751a82/inductor_cache/ly/clyipr55te37spd4heg6e3u5cv5m5hr44m2q4zh52qeijhqkvjek.py":65:23)
#loc51 = loc("/home/ericbuehler/.cache/vllm/torch_compile_cache/torch_aot_compile/90537ea14f244a5187d6ecc853fbadcf440d710f29c8e182fe8151f3f7751a82/inductor_cache/ly/clyipr55te37spd4heg6e3u5cv5m5hr44m2q4zh52qeijhqkvjek.py":70:33)
#loc52 = loc("/home/ericbuehler/.cache/vllm/torch_compile_cache/torch_aot_compile/90537ea14f244a5187d6ecc853fbadcf440d710f29c8e182fe8151f3f7751a82/inductor_cache/ly/clyipr55te37spd4heg6e3u5cv5m5hr44m2q4zh52qeijhqkvjek.py":74:45)
#loc53 = loc("/home/ericbuehler/.cache/vllm/torch_compile_cache/torch_aot_compile/90537ea14f244a5187d6ecc853fbadcf440d710f29c8e182fe8151f3f7751a82/inductor_cache/ly/clyipr55te37spd4heg6e3u5cv5m5hr44m2q4zh52qeijhqkvjek.py":74:56)
#loc54 = loc("/home/ericbuehler/.cache/vllm/torch_compile_cache/torch_aot_compile/90537ea14f244a5187d6ecc853fbadcf440d710f29c8e182fe8151f3f7751a82/inductor_cache/ly/clyipr55te37spd4heg6e3u5cv5m5hr44m2q4zh52qeijhqkvjek.py":74:52)
#loc55 = loc("/home/ericbuehler/.cache/vllm/torch_compile_cache/torch_aot_compile/90537ea14f244a5187d6ecc853fbadcf440d710f29c8e182fe8151f3f7751a82/inductor_cache/ly/clyipr55te37spd4heg6e3u5cv5m5hr44m2q4zh52qeijhqkvjek.py":74:66)
#loc56 = loc("/home/ericbuehler/.cache/vllm/torch_compile_cache/torch_aot_compile/90537ea14f244a5187d6ecc853fbadcf440d710f29c8e182fe8151f3f7751a82/inductor_cache/ly/clyipr55te37spd4heg6e3u5cv5m5hr44m2q4zh52qeijhqkvjek.py":74:61)
#loc57 = loc("/home/ericbuehler/.cache/vllm/torch_compile_cache/torch_aot_compile/90537ea14f244a5187d6ecc853fbadcf440d710f29c8e182fe8151f3f7751a82/inductor_cache/ly/clyipr55te37spd4heg6e3u5cv5m5hr44m2q4zh52qeijhqkvjek.py":74:38)
#loc58 = loc("/home/ericbuehler/.cache/vllm/torch_compile_cache/torch_aot_compile/90537ea14f244a5187d6ecc853fbadcf440d710f29c8e182fe8151f3f7751a82/inductor_cache/ly/clyipr55te37spd4heg6e3u5cv5m5hr44m2q4zh52qeijhqkvjek.py":74:81)
#loc59 = loc("/home/ericbuehler/.cache/vllm/torch_compile_cache/torch_aot_compile/90537ea14f244a5187d6ecc853fbadcf440d710f29c8e182fe8151f3f7751a82/inductor_cache/ly/clyipr55te37spd4heg6e3u5cv5m5hr44m2q4zh52qeijhqkvjek.py":74:71)
#loc60 = loc("/home/ericbuehler/.cache/vllm/torch_compile_cache/torch_aot_compile/90537ea14f244a5187d6ecc853fbadcf440d710f29c8e182fe8151f3f7751a82/inductor_cache/ly/clyipr55te37spd4heg6e3u5cv5m5hr44m2q4zh52qeijhqkvjek.py":74:133)
#loc61 = loc("/home/ericbuehler/.cache/vllm/torch_compile_cache/torch_aot_compile/90537ea14f244a5187d6ecc853fbadcf440d710f29c8e182fe8151f3f7751a82/inductor_cache/ly/clyipr55te37spd4heg6e3u5cv5m5hr44m2q4zh52qeijhqkvjek.py":76:26)
#loc62 = loc("/home/ericbuehler/.cache/vllm/torch_compile_cache/torch_aot_compile/90537ea14f244a5187d6ecc853fbadcf440d710f29c8e182fe8151f3f7751a82/inductor_cache/ly/clyipr55te37spd4heg6e3u5cv5m5hr44m2q4zh52qeijhqkvjek.py":78:29)
#loc63 = loc("/home/ericbuehler/.cache/vllm/torch_compile_cache/torch_aot_compile/90537ea14f244a5187d6ecc853fbadcf440d710f29c8e182fe8151f3f7751a82/inductor_cache/ly/clyipr55te37spd4heg6e3u5cv5m5hr44m2q4zh52qeijhqkvjek.py":79:54)
#loc65 = loc("/home/ericbuehler/.cache/vllm/torch_compile_cache/torch_aot_compile/90537ea14f244a5187d6ecc853fbadcf440d710f29c8e182fe8151f3f7751a82/inductor_cache/ly/clyipr55te37spd4heg6e3u5cv5m5hr44m2q4zh52qeijhqkvjek.py":80:34)
#loc66 = loc("/home/ericbuehler/.cache/vllm/torch_compile_cache/torch_aot_compile/90537ea14f244a5187d6ecc853fbadcf440d710f29c8e182fe8151f3f7751a82/inductor_cache/ly/clyipr55te37spd4heg6e3u5cv5m5hr44m2q4zh52qeijhqkvjek.py":81:29)
#loc67 = loc("/home/ericbuehler/.cache/vllm/torch_compile_cache/torch_aot_compile/90537ea14f244a5187d6ecc853fbadcf440d710f29c8e182fe8151f3f7751a82/inductor_cache/ly/clyipr55te37spd4heg6e3u5cv5m5hr44m2q4zh52qeijhqkvjek.py":81:41)
#loc68 = loc("/home/ericbuehler/.cache/vllm/torch_compile_cache/torch_aot_compile/90537ea14f244a5187d6ecc853fbadcf440d710f29c8e182fe8151f3f7751a82/inductor_cache/ly/clyipr55te37spd4heg6e3u5cv5m5hr44m2q4zh52qeijhqkvjek.py":82:15)
#loc69 = loc("/home/ericbuehler/.cache/vllm/torch_compile_cache/torch_aot_compile/90537ea14f244a5187d6ecc853fbadcf440d710f29c8e182fe8151f3f7751a82/inductor_cache/ly/clyipr55te37spd4heg6e3u5cv5m5hr44m2q4zh52qeijhqkvjek.py":82:9)
#loc70 = loc("/home/ericbuehler/.cache/vllm/torch_compile_cache/torch_aot_compile/90537ea14f244a5187d6ecc853fbadcf440d710f29c8e182fe8151f3f7751a82/inductor_cache/ly/clyipr55te37spd4heg6e3u5cv5m5hr44m2q4zh52qeijhqkvjek.py":83:27)
#loc71 = loc("/home/ericbuehler/.cache/vllm/torch_compile_cache/torch_aot_compile/90537ea14f244a5187d6ecc853fbadcf440d710f29c8e182fe8151f3f7751a82/inductor_cache/ly/clyipr55te37spd4heg6e3u5cv5m5hr44m2q4zh52qeijhqkvjek.py":87:31)
#loc72 = loc("/home/ericbuehler/.cache/vllm/torch_compile_cache/torch_aot_compile/90537ea14f244a5187d6ecc853fbadcf440d710f29c8e182fe8151f3f7751a82/inductor_cache/ly/clyipr55te37spd4heg6e3u5cv5m5hr44m2q4zh52qeijhqkvjek.py":88:40)
#loc73 = loc("/home/ericbuehler/.cache/vllm/torch_compile_cache/torch_aot_compile/90537ea14f244a5187d6ecc853fbadcf440d710f29c8e182fe8151f3f7751a82/inductor_cache/ly/clyipr55te37spd4heg6e3u5cv5m5hr44m2q4zh52qeijhqkvjek.py":88:48)
#loc74 = loc("/home/ericbuehler/.cache/vllm/torch_compile_cache/torch_aot_compile/90537ea14f244a5187d6ecc853fbadcf440d710f29c8e182fe8151f3f7751a82/inductor_cache/ly/clyipr55te37spd4heg6e3u5cv5m5hr44m2q4zh52qeijhqkvjek.py":88:27)
#loc75 = loc("/home/ericbuehler/.cache/vllm/torch_compile_cache/torch_aot_compile/90537ea14f244a5187d6ecc853fbadcf440d710f29c8e182fe8151f3f7751a82/inductor_cache/ly/clyipr55te37spd4heg6e3u5cv5m5hr44m2q4zh52qeijhqkvjek.py":89:25)
#loc76 = loc("/home/ericbuehler/.cache/vllm/torch_compile_cache/torch_aot_compile/90537ea14f244a5187d6ecc853fbadcf440d710f29c8e182fe8151f3f7751a82/inductor_cache/ly/clyipr55te37spd4heg6e3u5cv5m5hr44m2q4zh52qeijhqkvjek.py":90:31)
#loc77 = loc("/home/ericbuehler/.cache/vllm/torch_compile_cache/torch_aot_compile/90537ea14f244a5187d6ecc853fbadcf440d710f29c8e182fe8151f3f7751a82/inductor_cache/ly/clyipr55te37spd4heg6e3u5cv5m5hr44m2q4zh52qeijhqkvjek.py":90:41)
#loc78 = loc("/home/ericbuehler/.cache/vllm/torch_compile_cache/torch_aot_compile/90537ea14f244a5187d6ecc853fbadcf440d710f29c8e182fe8151f3f7751a82/inductor_cache/ly/clyipr55te37spd4heg6e3u5cv5m5hr44m2q4zh52qeijhqkvjek.py":92:23)
#loc79 = loc("/home/ericbuehler/.cache/vllm/torch_compile_cache/torch_aot_compile/90537ea14f244a5187d6ecc853fbadcf440d710f29c8e182fe8151f3f7751a82/inductor_cache/ly/clyipr55te37spd4heg6e3u5cv5m5hr44m2q4zh52qeijhqkvjek.py":93:23)
#loc80 = loc("/home/ericbuehler/.cache/vllm/torch_compile_cache/torch_aot_compile/90537ea14f244a5187d6ecc853fbadcf440d710f29c8e182fe8151f3f7751a82/inductor_cache/ly/clyipr55te37spd4heg6e3u5cv5m5hr44m2q4zh52qeijhqkvjek.py":98:33)
#loc81 = loc("/home/ericbuehler/.cache/vllm/torch_compile_cache/torch_aot_compile/90537ea14f244a5187d6ecc853fbadcf440d710f29c8e182fe8151f3f7751a82/inductor_cache/ly/clyipr55te37spd4heg6e3u5cv5m5hr44m2q4zh52qeijhqkvjek.py":102:46)
#loc82 = loc("/home/ericbuehler/.cache/vllm/torch_compile_cache/torch_aot_compile/90537ea14f244a5187d6ecc853fbadcf440d710f29c8e182fe8151f3f7751a82/inductor_cache/ly/clyipr55te37spd4heg6e3u5cv5m5hr44m2q4zh52qeijhqkvjek.py":102:58)
#loc83 = loc("/home/ericbuehler/.cache/vllm/torch_compile_cache/torch_aot_compile/90537ea14f244a5187d6ecc853fbadcf440d710f29c8e182fe8151f3f7751a82/inductor_cache/ly/clyipr55te37spd4heg6e3u5cv5m5hr44m2q4zh52qeijhqkvjek.py":102:54)
#loc84 = loc("/home/ericbuehler/.cache/vllm/torch_compile_cache/torch_aot_compile/90537ea14f244a5187d6ecc853fbadcf440d710f29c8e182fe8151f3f7751a82/inductor_cache/ly/clyipr55te37spd4heg6e3u5cv5m5hr44m2q4zh52qeijhqkvjek.py":102:68)
#loc85 = loc("/home/ericbuehler/.cache/vllm/torch_compile_cache/torch_aot_compile/90537ea14f244a5187d6ecc853fbadcf440d710f29c8e182fe8151f3f7751a82/inductor_cache/ly/clyipr55te37spd4heg6e3u5cv5m5hr44m2q4zh52qeijhqkvjek.py":102:63)
#loc86 = loc("/home/ericbuehler/.cache/vllm/torch_compile_cache/torch_aot_compile/90537ea14f244a5187d6ecc853fbadcf440d710f29c8e182fe8151f3f7751a82/inductor_cache/ly/clyipr55te37spd4heg6e3u5cv5m5hr44m2q4zh52qeijhqkvjek.py":102:39)
#loc87 = loc("/home/ericbuehler/.cache/vllm/torch_compile_cache/torch_aot_compile/90537ea14f244a5187d6ecc853fbadcf440d710f29c8e182fe8151f3f7751a82/inductor_cache/ly/clyipr55te37spd4heg6e3u5cv5m5hr44m2q4zh52qeijhqkvjek.py":102:83)
#loc88 = loc("/home/ericbuehler/.cache/vllm/torch_compile_cache/torch_aot_compile/90537ea14f244a5187d6ecc853fbadcf440d710f29c8e182fe8151f3f7751a82/inductor_cache/ly/clyipr55te37spd4heg6e3u5cv5m5hr44m2q4zh52qeijhqkvjek.py":102:73)
#loc89 = loc("/home/ericbuehler/.cache/vllm/torch_compile_cache/torch_aot_compile/90537ea14f244a5187d6ecc853fbadcf440d710f29c8e182fe8151f3f7751a82/inductor_cache/ly/clyipr55te37spd4heg6e3u5cv5m5hr44m2q4zh52qeijhqkvjek.py":102:134)
#loc90 = loc("/home/ericbuehler/.cache/vllm/torch_compile_cache/torch_aot_compile/90537ea14f244a5187d6ecc853fbadcf440d710f29c8e182fe8151f3f7751a82/inductor_cache/ly/clyipr55te37spd4heg6e3u5cv5m5hr44m2q4zh52qeijhqkvjek.py":104:28)
#loc91 = loc("/home/ericbuehler/.cache/vllm/torch_compile_cache/torch_aot_compile/90537ea14f244a5187d6ecc853fbadcf440d710f29c8e182fe8151f3f7751a82/inductor_cache/ly/clyipr55te37spd4heg6e3u5cv5m5hr44m2q4zh52qeijhqkvjek.py":106:29)
#loc92 = loc("/home/ericbuehler/.cache/vllm/torch_compile_cache/torch_aot_compile/90537ea14f244a5187d6ecc853fbadcf440d710f29c8e182fe8151f3f7751a82/inductor_cache/ly/clyipr55te37spd4heg6e3u5cv5m5hr44m2q4zh52qeijhqkvjek.py":107:54)
#loc94 = loc("/home/ericbuehler/.cache/vllm/torch_compile_cache/torch_aot_compile/90537ea14f244a5187d6ecc853fbadcf440d710f29c8e182fe8151f3f7751a82/inductor_cache/ly/clyipr55te37spd4heg6e3u5cv5m5hr44m2q4zh52qeijhqkvjek.py":108:34)
#loc95 = loc("/home/ericbuehler/.cache/vllm/torch_compile_cache/torch_aot_compile/90537ea14f244a5187d6ecc853fbadcf440d710f29c8e182fe8151f3f7751a82/inductor_cache/ly/clyipr55te37spd4heg6e3u5cv5m5hr44m2q4zh52qeijhqkvjek.py":115:73)
#loc96 = loc("/home/ericbuehler/.cache/vllm/torch_compile_cache/torch_aot_compile/90537ea14f244a5187d6ecc853fbadcf440d710f29c8e182fe8151f3f7751a82/inductor_cache/ly/clyipr55te37spd4heg6e3u5cv5m5hr44m2q4zh52qeijhqkvjek.py":115:135)
#loc97 = loc("/home/ericbuehler/.cache/vllm/torch_compile_cache/torch_aot_compile/90537ea14f244a5187d6ecc853fbadcf440d710f29c8e182fe8151f3f7751a82/inductor_cache/ly/clyipr55te37spd4heg6e3u5cv5m5hr44m2q4zh52qeijhqkvjek.py":118:29)
#loc98 = loc("/home/ericbuehler/.cache/vllm/torch_compile_cache/torch_aot_compile/90537ea14f244a5187d6ecc853fbadcf440d710f29c8e182fe8151f3f7751a82/inductor_cache/ly/clyipr55te37spd4heg6e3u5cv5m5hr44m2q4zh52qeijhqkvjek.py":120:28)
#loc99 = loc("/home/ericbuehler/.cache/vllm/torch_compile_cache/torch_aot_compile/90537ea14f244a5187d6ecc853fbadcf440d710f29c8e182fe8151f3f7751a82/inductor_cache/ly/clyipr55te37spd4heg6e3u5cv5m5hr44m2q4zh52qeijhqkvjek.py":121:36)
#loc100 = loc("/home/ericbuehler/.cache/vllm/torch_compile_cache/torch_aot_compile/90537ea14f244a5187d6ecc853fbadcf440d710f29c8e182fe8151f3f7751a82/inductor_cache/ly/clyipr55te37spd4heg6e3u5cv5m5hr44m2q4zh52qeijhqkvjek.py":122:28)
#loc101 = loc("/home/ericbuehler/.cache/vllm/torch_compile_cache/torch_aot_compile/90537ea14f244a5187d6ecc853fbadcf440d710f29c8e182fe8151f3f7751a82/inductor_cache/ly/clyipr55te37spd4heg6e3u5cv5m5hr44m2q4zh52qeijhqkvjek.py":124:45)
#loc102 = loc("/home/ericbuehler/.cache/vllm/torch_compile_cache/torch_aot_compile/90537ea14f244a5187d6ecc853fbadcf440d710f29c8e182fe8151f3f7751a82/inductor_cache/ly/clyipr55te37spd4heg6e3u5cv5m5hr44m2q4zh52qeijhqkvjek.py":124:41)
#loc103 = loc("/home/ericbuehler/.cache/vllm/torch_compile_cache/torch_aot_compile/90537ea14f244a5187d6ecc853fbadcf440d710f29c8e182fe8151f3f7751a82/inductor_cache/ly/clyipr55te37spd4heg6e3u5cv5m5hr44m2q4zh52qeijhqkvjek.py":124:33)
#loc104 = loc("/home/ericbuehler/.cache/vllm/torch_compile_cache/torch_aot_compile/90537ea14f244a5187d6ecc853fbadcf440d710f29c8e182fe8151f3f7751a82/inductor_cache/ly/clyipr55te37spd4heg6e3u5cv5m5hr44m2q4zh52qeijhqkvjek.py":124:58)
#loc105 = loc("/home/ericbuehler/.cache/vllm/torch_compile_cache/torch_aot_compile/90537ea14f244a5187d6ecc853fbadcf440d710f29c8e182fe8151f3f7751a82/inductor_cache/ly/clyipr55te37spd4heg6e3u5cv5m5hr44m2q4zh52qeijhqkvjek.py":26:4)
#loc113 = loc("pid"(#loc2))
#loc114 = loc("num_xblocks_0"(#loc4))
#loc115 = loc("num_xblocks_1"(#loc6))
#loc116 = loc("num_xblocks_1"(#loc7))
#loc117 = loc("num_xblocks_2"(#loc8))
#loc118 = loc("num_xblocks_2"(#loc9))
#loc119 = loc("xoffset"(#loc12))
#loc120 = loc("xindex"(#loc13))
#loc121 = loc("xindex"(#loc14))
#loc122 = loc("xindex"(#loc15))
#loc123 = loc("xmask"(#loc16))
#loc124 = loc("r0_base"(#loc17))
#loc125 = loc("r0_base"(#loc18))
#loc126 = loc("x0"(#loc19))
#loc127 = loc("x1"(#loc20))
#loc128 = loc("r0_mask"(#loc21))
#loc129 = loc("tmp0"(#loc22))
#loc130 = loc("tmp0"(#loc23))
#loc131 = loc("tmp0"(#loc24))
#loc132 = loc("tmp0"(#loc25))
#loc133 = loc("tmp0"(#loc26))
#loc134 = loc("tmp0"(#loc27))
#loc135 = loc("tmp0"(#loc28))
#loc136 = loc("tmp0"(#loc29))
#loc137 = loc("tmp2"(#loc30))
#loc138 = loc("tmp5"(#loc31))
#loc139 = loc("_tmp4"(#loc32))
#loc141 = loc("tmp4"(#loc36))
#loc142 = loc("pid_offset"(#loc41))
#loc143 = loc("xoffset"(#loc42))
#loc144 = loc("xindex"(#loc43))
#loc145 = loc("xindex"(#loc44))
#loc146 = loc("xindex"(#loc45))
#loc147 = loc("xmask"(#loc46))
#loc148 = loc("r0_base"(#loc47))
#loc149 = loc("r0_base"(#loc48))
#loc150 = loc("x4"(#loc49))
#loc151 = loc("x5"(#loc50))
#loc152 = loc("r0_mask"(#loc51))
#loc153 = loc("tmp6"(#loc52))
#loc154 = loc("tmp6"(#loc53))
#loc155 = loc("tmp6"(#loc54))
#loc156 = loc("tmp6"(#loc55))
#loc157 = loc("tmp6"(#loc56))
#loc158 = loc("tmp6"(#loc57))
#loc159 = loc("tmp6"(#loc58))
#loc160 = loc("tmp6"(#loc59))
#loc161 = loc("tmp6"(#loc60))
#loc162 = loc("tmp8"(#loc61))
#loc163 = loc("tmp11"(#loc62))
#loc164 = loc("_tmp10"(#loc63))
#loc166 = loc("tmp10"(#loc65))
#loc167 = loc("pid_offset"(#loc70))
#loc168 = loc("xoffset"(#loc71))
#loc169 = loc("xindex"(#loc72))
#loc170 = loc("xindex"(#loc73))
#loc171 = loc("xindex"(#loc74))
#loc172 = loc("xmask"(#loc75))
#loc173 = loc("r0_base"(#loc76))
#loc174 = loc("r0_base"(#loc77))
#loc175 = loc("x8"(#loc78))
#loc176 = loc("x9"(#loc79))
#loc177 = loc("r0_mask"(#loc80))
#loc178 = loc("tmp12"(#loc81))
#loc179 = loc("tmp12"(#loc82))
#loc180 = loc("tmp12"(#loc83))
#loc181 = loc("tmp12"(#loc84))
#loc182 = loc("tmp12"(#loc85))
#loc183 = loc("tmp12"(#loc86))
#loc184 = loc("tmp12"(#loc87))
#loc185 = loc("tmp12"(#loc88))
#loc186 = loc("tmp12"(#loc89))
#loc187 = loc("tmp14"(#loc90))
#loc188 = loc("tmp17"(#loc91))
#loc189 = loc("_tmp16"(#loc92))
#loc191 = loc("tmp16"(#loc94))
#loc192 = loc("tmp18"(#loc95))
#loc193 = loc("tmp18"(#loc96))
#loc194 = loc("tmp21"(#loc97))
#loc195 = loc("tmp23"(#loc98))
#loc196 = loc("tmp24"(#loc99))
#loc197 = loc("tmp25"(#loc100))
#loc198 = loc(callsite(#loc3 at #loc114))
#loc199 = loc(callsite(#loc5 at #loc114))
#loc200 = loc(callsite(#loc3 at #loc115))
#loc201 = loc(callsite(#loc5 at #loc115))
#loc202 = loc(callsite(#loc3 at #loc117))
#loc203 = loc(callsite(#loc5 at #loc117))
#loc204 = loc(callsite(#loc33 at #loc140))
#loc206 = loc(callsite(#loc33 at #loc165))
#loc208 = loc(callsite(#loc33 at #loc190))
#loc210 = loc(callsite(#loc35 at #loc204))
#loc211 = loc(callsite(#loc35 at #loc206))
#loc212 = loc(callsite(#loc35 at #loc208))
