#loc = loc("/home/ericbuehler/vllm/.venv-bench/lib/python3.12/site-packages/vllm/v1/attention/ops/triton_unified_attention.py":58:0)
#loc127 = loc("/home/ericbuehler/vllm/.venv-bench/lib/python3.12/site-packages/vllm/v1/attention/ops/triton_attention_helpers.py":45:0)
#loc144 = loc("/home/ericbuehler/vllm/.venv-bench/lib/python3.12/site-packages/vllm/v1/attention/ops/triton_attention_helpers.py":79:0)
#loc148 = loc("left")
#loc149 = loc("right")
#loc163 = loc("/home/ericbuehler/vllm/.venv-bench/lib/python3.12/site-packages/vllm/v1/attention/ops/triton_attention_helpers.py":110:0)
#loc171 = loc("/home/ericbuehler/vllm/.venv-bench/lib/python3.12/site-packages/vllm/v1/attention/ops/triton_attention_helpers.py":142:0)
#loc181 = loc("/home/ericbuehler/vllm/.venv-bench/lib/python3.12/site-packages/vllm/v1/attention/ops/triton_attention_helpers.py":22:0)
#loc187 = loc("/home/ericbuehler/vllm/.venv-bench/lib/python3.12/site-packages/vllm/v1/attention/ops/triton_unified_attention.py":39:0)
#loc190 = loc("/home/ericbuehler/vllm/.venv-bench/lib/python3.12/site-packages/vllm/v1/attention/ops/triton_attention_helpers.py":261:0)
#loc195 = loc("/home/ericbuehler/vllm/.venv-bench/lib/python3.12/site-packages/vllm/v1/attention/ops/triton_attention_helpers.py":361:0)
#loc210 = loc("/home/ericbuehler/vllm/.venv-bench/lib/python3.12/site-packages/triton/language/standard.py":177:0)
#loc212 = loc(unknown)
#loc215 = loc("/home/ericbuehler/vllm/.venv-bench/lib/python3.12/site-packages/triton/language/standard.py":169:0)
#loc219 = loc("/home/ericbuehler/vllm/.venv-bench/lib/python3.12/site-packages/triton/language/standard.py":287:0)
#loc223 = loc("/home/ericbuehler/vllm/.venv-bench/lib/python3.12/site-packages/triton/language/standard.py":262:0)
#loc227 = loc("output_ptr"(#loc))
#loc228 = loc("segm_output_ptr"(#loc))
#loc229 = loc("segm_max_ptr"(#loc))
#loc230 = loc("segm_expsum_ptr"(#loc))
#loc231 = loc("query_ptr"(#loc))
#loc232 = loc("key_cache_ptr"(#loc))
#loc233 = loc("value_cache_ptr"(#loc))
#loc234 = loc("block_tables_ptr"(#loc))
#loc235 = loc("seq_lens_ptr"(#loc))
#loc236 = loc("k_scale_cache_ptr"(#loc))
#loc237 = loc("v_scale_cache_ptr"(#loc))
#loc238 = loc("scale"(#loc))
#loc239 = loc("k_scale"(#loc))
#loc240 = loc("v_scale"(#loc))
#loc241 = loc("out_scale"(#loc))
#loc242 = loc("softcap"(#loc))
#loc243 = loc("block_table_stride"(#loc))
#loc244 = loc("query_stride_0"(#loc))
#loc245 = loc("query_stride_1"(#loc))
#loc246 = loc("output_stride_0"(#loc))
#loc247 = loc("output_stride_1"(#loc))
#loc248 = loc("qq_bias_stride_0"(#loc))
#loc249 = loc("stride_k_cache_0"(#loc))
#loc250 = loc("stride_k_cache_1"(#loc))
#loc251 = loc("stride_k_cache_2"(#loc))
#loc252 = loc("stride_v_cache_0"(#loc))
#loc253 = loc("stride_v_cache_1"(#loc))
#loc254 = loc("stride_v_cache_2"(#loc))
#loc255 = loc("stride_ks_blk"(#loc))
#loc256 = loc("stride_ks_slot"(#loc))
#loc257 = loc("stride_ks_head"(#loc))
#loc258 = loc("stride_vs_blk"(#loc))
#loc259 = loc("stride_vs_slot"(#loc))
#loc260 = loc("stride_vs_head"(#loc))
#loc261 = loc("query_start_len_ptr"(#loc))
#loc262 = loc("num_seqs"(#loc))
#loc374 = loc("query_start_len_ptr"(#loc127))
#loc375 = loc("seq_lens_ptr"(#loc127))
#loc376 = loc("q_block_global_idx"(#loc127))
#loc377 = loc("num_seqs"(#loc127))
#loc392 = loc("query_start_len_ptr"(#loc144))
#loc393 = loc("target_idx"(#loc144))
#loc394 = loc("num_seqs"(#loc144))
#loc397 = loc("left"(#loc148))
#loc398 = loc("right"(#loc149))
#loc406 = loc("query_offset_1"(#loc163))
#loc407 = loc("query_mask_1"(#loc163))
#loc408 = loc("segm_idx_or_0"(#loc163))
#loc410 = loc("context_len"(#loc171))
#loc411 = loc("seq_len"(#loc171))
#loc412 = loc("cur_batch_query_len"(#loc171))
#loc413 = loc("q_block_local_idx"(#loc171))
#loc414 = loc("segm_idx_or_0"(#loc171))
#loc415 = loc("tiles_per_segment_or_0"(#loc171))
#loc423 = loc("x"(#loc181))
#loc424 = loc("data"(#loc187))
#loc425 = loc("Q"(#loc187))
#loc426 = loc("tensor_scale"(#loc187))
#loc427 = loc("query_abs_pos"(#loc190))
#loc428 = loc("seq_offset"(#loc190))
#loc429 = loc("seq_idx"(#loc190))
#loc432 = loc("S"(#loc195))
#loc433 = loc("M"(#loc195))
#loc434 = loc("L"(#loc195))
#loc447 = loc("input"(#loc210))
#loc448 = loc("a"(#loc215))
#loc449 = loc("b"(#loc215))
#loc450 = loc("input"(#loc219))
#loc451 = loc("a"(#loc223))
#loc452 = loc("b"(#loc223))
#loc454 = loc("right"(#loc394))
module {
  tt.func public @kernel_unified_attention(%output_ptr: !tt.ptr<bf16> {tt.divisibility = 16 : i32} loc("output_ptr"(#loc)), %segm_output_ptr: !tt.ptr<bf16> {tt.divisibility = 16 : i32} loc("segm_output_ptr"(#loc)), %segm_max_ptr: !tt.ptr<bf16> {tt.divisibility = 16 : i32} loc("segm_max_ptr"(#loc)), %segm_expsum_ptr: !tt.ptr<bf16> {tt.divisibility = 16 : i32} loc("segm_expsum_ptr"(#loc)), %query_ptr: !tt.ptr<bf16> {tt.divisibility = 16 : i32} loc("query_ptr"(#loc)), %key_cache_ptr: !tt.ptr<bf16> {tt.divisibility = 16 : i32} loc("key_cache_ptr"(#loc)), %value_cache_ptr: !tt.ptr<bf16> {tt.divisibility = 16 : i32} loc("value_cache_ptr"(#loc)), %block_tables_ptr: !tt.ptr<i32> {tt.divisibility = 16 : i32} loc("block_tables_ptr"(#loc)), %seq_lens_ptr: !tt.ptr<i32> {tt.divisibility = 16 : i32} loc("seq_lens_ptr"(#loc)), %k_scale_cache_ptr: !tt.ptr<bf16> {tt.divisibility = 16 : i32} loc("k_scale_cache_ptr"(#loc)), %v_scale_cache_ptr: !tt.ptr<bf16> {tt.divisibility = 16 : i32} loc("v_scale_cache_ptr"(#loc)), %scale: f32 loc("scale"(#loc)), %k_scale: !tt.ptr<f32> {tt.divisibility = 16 : i32} loc("k_scale"(#loc)), %v_scale: !tt.ptr<f32> {tt.divisibility = 16 : i32} loc("v_scale"(#loc)), %out_scale: f32 loc("out_scale"(#loc)), %softcap: i32 {tt.divisibility = 16 : i32} loc("softcap"(#loc)), %block_table_stride: i64 loc("block_table_stride"(#loc)), %query_stride_0: i64 {tt.divisibility = 16 : i32} loc("query_stride_0"(#loc)), %query_stride_1: i64 {tt.divisibility = 16 : i32} loc("query_stride_1"(#loc)), %output_stride_0: i64 {tt.divisibility = 16 : i32} loc("output_stride_0"(#loc)), %output_stride_1: i64 {tt.divisibility = 16 : i32} loc("output_stride_1"(#loc)), %qq_bias_stride_0: i64 {tt.divisibility = 16 : i32} loc("qq_bias_stride_0"(#loc)), %stride_k_cache_0: i64 {tt.divisibility = 16 : i32} loc("stride_k_cache_0"(#loc)), %stride_k_cache_1: i64 {tt.divisibility = 16 : i32} loc("stride_k_cache_1"(#loc)), %stride_k_cache_2: i64 {tt.divisibility = 16 : i32} loc("stride_k_cache_2"(#loc)), %stride_v_cache_0: i64 {tt.divisibility = 16 : i32} loc("stride_v_cache_0"(#loc)), %stride_v_cache_1: i64 {tt.divisibility = 16 : i32} loc("stride_v_cache_1"(#loc)), %stride_v_cache_2: i64 {tt.divisibility = 16 : i32} loc("stride_v_cache_2"(#loc)), %stride_ks_blk: i64 {tt.divisibility = 16 : i32} loc("stride_ks_blk"(#loc)), %stride_ks_slot: i64 {tt.divisibility = 16 : i32} loc("stride_ks_slot"(#loc)), %stride_ks_head: i64 {tt.divisibility = 16 : i32} loc("stride_ks_head"(#loc)), %stride_vs_blk: i64 {tt.divisibility = 16 : i32} loc("stride_vs_blk"(#loc)), %stride_vs_slot: i64 {tt.divisibility = 16 : i32} loc("stride_vs_slot"(#loc)), %stride_vs_head: i64 {tt.divisibility = 16 : i32} loc("stride_vs_head"(#loc)), %query_start_len_ptr: !tt.ptr<i32> {tt.divisibility = 16 : i32} loc("query_start_len_ptr"(#loc)), %num_seqs: i32 loc("num_seqs"(#loc))) attributes {noinline = false} {
    %q_block_global_idx = tt.get_program_id x : i32 loc(#loc263)
    %kv_head_idx = tt.get_program_id y : i32 loc(#loc264)
    %segm_idx = arith.constant 0 : i32 loc(#loc265)
    %0:5 = tt.call @"vllm.v1.attention.ops.triton_attention_helpers.resolve_seq_and_query_len__Pi32_Pi32_i32_i32__(4,)cconstexpr_2_"(%query_start_len_ptr, %seq_lens_ptr, %q_block_global_idx, %num_seqs) : (!tt.ptr<i32>, !tt.ptr<i32>, i32, i32) -> (i32, i32, i32, i32, i32) loc(#loc4)
    %c2_i32 = arith.constant 2 : i32 loc(#loc5)
    %c2_i32_0 = arith.constant 2 : i32 loc(#loc5)
    %1 = arith.extsi %0#1 : i32 to i64 loc(#loc5)
    %2 = arith.extsi %c2_i32_0 : i32 to i64 loc(#loc5)
    %3 = arith.muli %1, %2 : i64 loc(#loc5)
    %c2147483647_i64 = arith.constant 2147483647 : i64 loc(#loc5)
    %c-2147483648_i64 = arith.constant -2147483648 : i64 loc(#loc5)
    %4 = arith.cmpi sle, %3, %c2147483647_i64 : i64 loc(#loc5)
    %5 = arith.cmpi sge, %3, %c-2147483648_i64 : i64 loc(#loc5)
    %6 = arith.andi %4, %5 : i1 loc(#loc5)
    %7 = arith.muli %0#1, %c2_i32_0 : i32 loc(#loc5)
    %8 = arith.cmpi sge, %7, %0#3 : i32 loc(#loc6)
    cf.cond_br %8, ^bb1, ^bb2 loc(#loc6)
  ^bb1:  // pred: ^bb0
    tt.return loc(#loc7)
  ^bb2:  // pred: ^bb0
    cf.br ^bb4 loc(#loc)
  ^bb3:  // no predecessors
    cf.br ^bb4 loc(#loc)
  ^bb4:  // 2 preds: ^bb2, ^bb3
    %tiles_per_segment = arith.constant 0 : i32 loc(#loc266)
    %offs_m = tt.make_range {end = 16 : i32, start = 0 : i32} : tensor<16xi32> loc(#loc267)
    %offs_d = tt.make_range {end = 512 : i32, start = 0 : i32} : tensor<512xi32> loc(#loc268)
    %offs_t = tt.make_range {end = 32 : i32, start = 0 : i32} : tensor<32xi32> loc(#loc269)
    %query_pos = arith.constant 2 : i32 loc(#loc270)
    %query_pos_1 = arith.constant 2 : i32 loc(#loc270)
    %query_pos_2 = arith.extsi %0#1 : i32 to i64 loc(#loc270)
    %query_pos_3 = arith.extsi %query_pos_1 : i32 to i64 loc(#loc270)
    %query_pos_4 = arith.muli %query_pos_2, %query_pos_3 : i64 loc(#loc270)
    %query_pos_5 = arith.constant 2147483647 : i64 loc(#loc270)
    %query_pos_6 = arith.constant -2147483648 : i64 loc(#loc270)
    %query_pos_7 = arith.cmpi sle, %query_pos_4, %query_pos_5 : i64 loc(#loc270)
    %query_pos_8 = arith.cmpi sge, %query_pos_4, %query_pos_6 : i64 loc(#loc270)
    %query_pos_9 = arith.andi %query_pos_7, %query_pos_8 : i1 loc(#loc270)
    %query_pos_10 = arith.muli %0#1, %query_pos_1 : i32 loc(#loc270)
    %query_pos_11 = arith.constant 8 : i32 loc(#loc271)
    %query_pos_12 = arith.constant 8 : i32 loc(#loc271)
    %query_pos_13 = arith.constant dense<8> : tensor<16xi32> loc(#loc271)
    %query_pos_14 = arith.divsi %offs_m, %query_pos_13 : tensor<16xi32> loc(#loc271)
    %query_pos_15 = tt.splat %query_pos_10 : i32 -> tensor<16xi32> loc(#loc272)
    %query_pos_16 = arith.extsi %query_pos_15 : tensor<16xi32> to tensor<16xi64> loc(#loc272)
    %query_pos_17 = arith.extsi %query_pos_14 : tensor<16xi32> to tensor<16xi64> loc(#loc272)
    %query_pos_18 = arith.addi %query_pos_16, %query_pos_17 : tensor<16xi64> loc(#loc272)
    %query_pos_19 = arith.constant 2147483647 : i64 loc(#loc272)
    %query_pos_20 = arith.constant -2147483648 : i64 loc(#loc272)
    %query_pos_21 = arith.constant dense<2147483647> : tensor<16xi64> loc(#loc272)
    %query_pos_22 = arith.cmpi sle, %query_pos_18, %query_pos_21 : tensor<16xi64> loc(#loc272)
    %query_pos_23 = arith.constant dense<-2147483648> : tensor<16xi64> loc(#loc272)
    %query_pos_24 = arith.cmpi sge, %query_pos_18, %query_pos_23 : tensor<16xi64> loc(#loc272)
    %query_pos_25 = arith.andi %query_pos_22, %query_pos_24 : tensor<16xi1> loc(#loc272)
    %query_pos_26 = arith.addi %query_pos_15, %query_pos_14 : tensor<16xi32> loc(#loc272)
    %query_offset_0 = tt.splat %0#2 : i32 -> tensor<16xi32> loc(#loc273)
    %query_offset_0_27 = arith.extsi %query_offset_0 : tensor<16xi32> to tensor<16xi64> loc(#loc273)
    %query_offset_0_28 = arith.extsi %query_pos_26 : tensor<16xi32> to tensor<16xi64> loc(#loc273)
    %query_offset_0_29 = arith.addi %query_offset_0_27, %query_offset_0_28 : tensor<16xi64> loc(#loc273)
    %query_offset_0_30 = arith.constant 2147483647 : i64 loc(#loc273)
    %query_offset_0_31 = arith.constant -2147483648 : i64 loc(#loc273)
    %query_offset_0_32 = arith.constant dense<2147483647> : tensor<16xi64> loc(#loc273)
    %query_offset_0_33 = arith.cmpi sle, %query_offset_0_29, %query_offset_0_32 : tensor<16xi64> loc(#loc273)
    %query_offset_0_34 = arith.constant dense<-2147483648> : tensor<16xi64> loc(#loc273)
    %query_offset_0_35 = arith.cmpi sge, %query_offset_0_29, %query_offset_0_34 : tensor<16xi64> loc(#loc273)
    %query_offset_0_36 = arith.andi %query_offset_0_33, %query_offset_0_35 : tensor<16xi1> loc(#loc273)
    %query_offset_0_37 = arith.addi %query_offset_0, %query_pos_26 : tensor<16xi32> loc(#loc273)
    %query_offset_1 = arith.constant 8 : i32 loc(#loc274)
    %query_offset_1_38 = arith.constant 8 : i32 loc(#loc274)
    %query_offset_1_39 = arith.extsi %kv_head_idx : i32 to i64 loc(#loc274)
    %query_offset_1_40 = arith.extsi %query_offset_1_38 : i32 to i64 loc(#loc274)
    %query_offset_1_41 = arith.muli %query_offset_1_39, %query_offset_1_40 : i64 loc(#loc274)
    %query_offset_1_42 = arith.constant 2147483647 : i64 loc(#loc274)
    %query_offset_1_43 = arith.constant -2147483648 : i64 loc(#loc274)
    %query_offset_1_44 = arith.cmpi sle, %query_offset_1_41, %query_offset_1_42 : i64 loc(#loc274)
    %query_offset_1_45 = arith.cmpi sge, %query_offset_1_41, %query_offset_1_43 : i64 loc(#loc274)
    %query_offset_1_46 = arith.andi %query_offset_1_44, %query_offset_1_45 : i1 loc(#loc274)
    %query_offset_1_47 = arith.muli %kv_head_idx, %query_offset_1_38 : i32 loc(#loc274)
    %query_offset_1_48 = arith.constant 8 : i32 loc(#loc275)
    %query_offset_1_49 = arith.constant 8 : i32 loc(#loc275)
    %query_offset_1_50 = arith.constant dense<8> : tensor<16xi32> loc(#loc275)
    %query_offset_1_51 = arith.remsi %offs_m, %query_offset_1_50 : tensor<16xi32> loc(#loc275)
    %query_offset_1_52 = tt.splat %query_offset_1_47 : i32 -> tensor<16xi32> loc(#loc276)
    %query_offset_1_53 = arith.extsi %query_offset_1_52 : tensor<16xi32> to tensor<16xi64> loc(#loc276)
    %query_offset_1_54 = arith.extsi %query_offset_1_51 : tensor<16xi32> to tensor<16xi64> loc(#loc276)
    %query_offset_1_55 = arith.addi %query_offset_1_53, %query_offset_1_54 : tensor<16xi64> loc(#loc276)
    %query_offset_1_56 = arith.constant 2147483647 : i64 loc(#loc276)
    %query_offset_1_57 = arith.constant -2147483648 : i64 loc(#loc276)
    %query_offset_1_58 = arith.constant dense<2147483647> : tensor<16xi64> loc(#loc276)
    %query_offset_1_59 = arith.cmpi sle, %query_offset_1_55, %query_offset_1_58 : tensor<16xi64> loc(#loc276)
    %query_offset_1_60 = arith.constant dense<-2147483648> : tensor<16xi64> loc(#loc276)
    %query_offset_1_61 = arith.cmpi sge, %query_offset_1_55, %query_offset_1_60 : tensor<16xi64> loc(#loc276)
    %query_offset_1_62 = arith.andi %query_offset_1_59, %query_offset_1_61 : tensor<16xi1> loc(#loc276)
    %query_offset_1_63 = arith.addi %query_offset_1_52, %query_offset_1_51 : tensor<16xi32> loc(#loc276)
    %query_offset = tt.expand_dims %query_offset_0_37 {axis = 1 : i32} : tensor<16xi32> -> tensor<16x1xi32> loc(#loc277)
    %query_offset_64 = arith.extsi %query_offset : tensor<16x1xi32> to tensor<16x1xi64> loc(#loc278)
    %query_offset_65 = tt.splat %query_stride_0 : i64 -> tensor<16x1xi64> loc(#loc278)
    %query_offset_66 = arith.muli %query_offset_64, %query_offset_65 : tensor<16x1xi64> loc(#loc278)
    %query_offset_67 = tt.expand_dims %query_offset_1_63 {axis = 1 : i32} : tensor<16xi32> -> tensor<16x1xi32> loc(#loc279)
    %query_offset_68 = arith.extsi %query_offset_67 : tensor<16x1xi32> to tensor<16x1xi64> loc(#loc280)
    %query_offset_69 = tt.splat %query_stride_1 : i64 -> tensor<16x1xi64> loc(#loc280)
    %query_offset_70 = arith.muli %query_offset_68, %query_offset_69 : tensor<16x1xi64> loc(#loc280)
    %query_offset_71 = arith.addi %query_offset_66, %query_offset_70 : tensor<16x1xi64> loc(#loc281)
    %query_offset_72 = tt.expand_dims %offs_d {axis = 0 : i32} : tensor<512xi32> -> tensor<1x512xi32> loc(#loc282)
    %query_offset_73 = arith.extsi %query_offset_72 : tensor<1x512xi32> to tensor<1x512xi64> loc(#loc283)
    %query_offset_74 = tt.broadcast %query_offset_71 : tensor<16x1xi64> -> tensor<16x512xi64> loc(#loc283)
    %query_offset_75 = tt.broadcast %query_offset_73 : tensor<1x512xi64> -> tensor<16x512xi64> loc(#loc283)
    %query_offset_76 = arith.addi %query_offset_74, %query_offset_75 : tensor<16x512xi64> loc(#loc283)
    %dim_mask = arith.constant 512 : i32 loc(#loc284)
    %dim_mask_77 = arith.constant dense<512> : tensor<512xi32> loc(#loc284)
    %dim_mask_78 = arith.cmpi slt, %offs_d, %dim_mask_77 : tensor<512xi32> loc(#loc284)
    %dim_mask_79 = arith.constant 1 : i32 loc(#loc285)
    %dim_mask_80 = arith.constant 0 : i32 loc(#loc285)
    %dim_mask_81 = arith.constant 1 : i32 loc(#loc285)
    %dim_mask_82 = arith.constant 0 : i32 loc(#loc285)
    %dim_mask_83 = arith.constant dense<1> : tensor<512xi32> loc(#loc285)
    %dim_mask_84 = arith.constant dense<0> : tensor<512xi32> loc(#loc285)
    %dim_mask_85 = arith.select %dim_mask_78, %dim_mask_83, %dim_mask_84 : tensor<512xi1>, tensor<512xi32> loc(#loc285)
    %dim_mask_86 = arith.constant 0 : i32 loc(#loc286)
    %dim_mask_87 = arith.constant dense<0> : tensor<512xi32> loc(#loc286)
    %dim_mask_88 = arith.cmpi ne, %dim_mask_85, %dim_mask_87 : tensor<512xi32> loc(#loc286)
    %query_mask_0 = tt.splat %0#3 : i32 -> tensor<16xi32> loc(#loc287)
    %query_mask_0_89 = arith.cmpi slt, %query_pos_26, %query_mask_0 : tensor<16xi32> loc(#loc287)
    %query_mask_0_90 = arith.constant 1 : i32 loc(#loc288)
    %query_mask_0_91 = arith.constant 0 : i32 loc(#loc288)
    %query_mask_0_92 = arith.constant 1 : i32 loc(#loc288)
    %query_mask_0_93 = arith.constant 0 : i32 loc(#loc288)
    %query_mask_0_94 = arith.constant dense<1> : tensor<16xi32> loc(#loc288)
    %query_mask_0_95 = arith.constant dense<0> : tensor<16xi32> loc(#loc288)
    %query_mask_0_96 = arith.select %query_mask_0_89, %query_mask_0_94, %query_mask_0_95 : tensor<16xi1>, tensor<16xi32> loc(#loc288)
    %query_mask_0_97 = arith.constant 0 : i32 loc(#loc289)
    %query_mask_0_98 = arith.constant dense<0> : tensor<16xi32> loc(#loc289)
    %query_mask_0_99 = arith.cmpi ne, %query_mask_0_96, %query_mask_0_98 : tensor<16xi32> loc(#loc289)
    %query_mask_1 = arith.constant 16 : i32 loc(#loc290)
    %query_mask_1_100 = arith.constant dense<16> : tensor<16xi32> loc(#loc290)
    %query_mask_1_101 = arith.cmpi slt, %query_offset_1_63, %query_mask_1_100 : tensor<16xi32> loc(#loc290)
    %query_mask_1_102 = arith.constant 1 : i32 loc(#loc291)
    %query_mask_1_103 = arith.constant 0 : i32 loc(#loc291)
    %query_mask_1_104 = arith.constant 1 : i32 loc(#loc291)
    %query_mask_1_105 = arith.constant 0 : i32 loc(#loc291)
    %query_mask_1_106 = arith.constant dense<1> : tensor<16xi32> loc(#loc291)
    %query_mask_1_107 = arith.constant dense<0> : tensor<16xi32> loc(#loc291)
    %query_mask_1_108 = arith.select %query_mask_1_101, %query_mask_1_106, %query_mask_1_107 : tensor<16xi1>, tensor<16xi32> loc(#loc291)
    %query_mask_1_109 = arith.constant 0 : i32 loc(#loc292)
    %query_mask_1_110 = arith.constant dense<0> : tensor<16xi32> loc(#loc292)
    %query_mask_1_111 = arith.cmpi ne, %query_mask_1_108, %query_mask_1_110 : tensor<16xi32> loc(#loc292)
    %Q = tt.expand_dims %dim_mask_88 {axis = 0 : i32} : tensor<512xi1> -> tensor<1x512xi1> loc(#loc293)
    %Q_112 = tt.expand_dims %query_mask_0_99 {axis = 1 : i32} : tensor<16xi1> -> tensor<16x1xi1> loc(#loc294)
    %Q_113 = tt.broadcast %Q : tensor<1x512xi1> -> tensor<16x512xi1> loc(#loc295)
    %Q_114 = tt.broadcast %Q_112 : tensor<16x1xi1> -> tensor<16x512xi1> loc(#loc295)
    %Q_115 = arith.andi %Q_113, %Q_114 : tensor<16x512xi1> loc(#loc295)
    %Q_116 = tt.expand_dims %query_mask_1_111 {axis = 1 : i32} : tensor<16xi1> -> tensor<16x1xi1> loc(#loc296)
    %Q_117 = tt.broadcast %Q_116 : tensor<16x1xi1> -> tensor<16x512xi1> loc(#loc297)
    %Q_118 = arith.andi %Q_115, %Q_117 : tensor<16x512xi1> loc(#loc297)
    %Q_119 = tt.splat %query_ptr : !tt.ptr<bf16> -> tensor<16x512x!tt.ptr<bf16>> loc(#loc298)
    %Q_120 = tt.addptr %Q_119, %query_offset_76 : tensor<16x512x!tt.ptr<bf16>>, tensor<16x512xi64> loc(#loc298)
    %Q_121 = arith.constant 0.000000e+00 : f32 loc(#loc299)
    %Q_122 = arith.constant dense<0.000000e+00> : tensor<16x512xf32> loc(#loc299)
    %Q_123 = arith.truncf %Q_122 : tensor<16x512xf32> to tensor<16x512xbf16> loc(#loc299)
    %Q_124 = tt.load %Q_120, %Q_118, %Q_123 : tensor<16x512x!tt.ptr<bf16>> loc(#loc299)
    %block_table_offset = arith.extsi %0#0 : i32 to i64 loc(#loc300)
    %block_table_offset_125 = arith.muli %block_table_offset, %block_table_stride : i64 loc(#loc300)
    %M = tt.call @"vllm.v1.attention.ops.triton_attention_helpers.init_softmax_M__i32S16S_u1S16S_i32__(0,)cconstexpr_None__(4,)cconstexpr_16__(5,)cconstexpr_False__(6,)cconstexpr_False_"(%query_offset_1_63, %query_mask_1_111, %segm_idx) : (tensor<16xi32>, tensor<16xi1>, i32) -> tensor<16xf32> loc(#loc301)
    %L = arith.constant 1.000000e+00 : f32 loc(#loc302)
    %L_126 = arith.constant dense<1.000000e+00> : tensor<16xf32> loc(#loc302)
    %acc = tt.call @"triton.language.standard.zeros____(0, 0)cconstexpr_16__(0, 1)cconstexpr_512__(1,)cconstexpr_fp32_"() : () -> tensor<16x512xf32> loc(#loc303)
    %context_len = arith.extsi %0#4 : i32 to i64 loc(#loc304)
    %context_len_127 = arith.extsi %0#3 : i32 to i64 loc(#loc304)
    %context_len_128 = arith.subi %context_len, %context_len_127 : i64 loc(#loc304)
    %context_len_129 = arith.constant 2147483647 : i64 loc(#loc304)
    %context_len_130 = arith.constant -2147483648 : i64 loc(#loc304)
    %context_len_131 = arith.cmpi sle, %context_len_128, %context_len_129 : i64 loc(#loc304)
    %context_len_132 = arith.cmpi sge, %context_len_128, %context_len_130 : i64 loc(#loc304)
    %context_len_133 = arith.andi %context_len_131, %context_len_132 : i1 loc(#loc304)
    %context_len_134 = arith.subi %0#4, %0#3 : i32 loc(#loc304)
    %9:3 = tt.call @"vllm.v1.attention.ops.triton_attention_helpers.compute_tile_loop_bounds__i32_i32_i32_i32_i32_i32__(6,)cconstexpr_32__(7,)cconstexpr_16__(8,)cconstexpr_2__(9,)cconstexpr_8__(10,)cconstexpr_0__(11,)cconstexpr_False__(12,)cconstexpr_False__(13,)cconstexpr_-1__(14,)cconstexpr_-1_"(%context_len_134, %0#4, %0#3, %0#1, %segm_idx, %tiles_per_segment) : (i32, i32, i32, i32, i32, i32) -> (i32, i32, i32) loc(#loc47)
    %c1_i32 = arith.constant 1 : i32 loc(#loc48)
    %10 = arith.bitcast %9#0 : i32 to i32 loc(#loc48)
    %11 = arith.bitcast %9#1 : i32 to i32 loc(#loc48)
    %12 = arith.bitcast %c1_i32 : i32 to i32 loc(#loc48)
    %13 = ub.poison : i32 loc(#loc48)
    %acc_135:3 = scf.for %j = %10 to %11 step %12 iter_args(%M_152 = %M, %L_153 = %L_126, %acc_154 = %acc) -> (tensor<16xf32>, tensor<16xf32>, tensor<16x512xf32>)  : i32 {
      %seq_offset = arith.constant 32 : i32 loc(#loc306)
      %seq_offset_155 = arith.constant 32 : i32 loc(#loc306)
      %seq_offset_156 = arith.extsi %j : i32 to i64 loc(#loc306)
      %seq_offset_157 = arith.extsi %seq_offset_155 : i32 to i64 loc(#loc306)
      %seq_offset_158 = arith.muli %seq_offset_156, %seq_offset_157 : i64 loc(#loc306)
      %seq_offset_159 = arith.constant 2147483647 : i64 loc(#loc306)
      %seq_offset_160 = arith.constant -2147483648 : i64 loc(#loc306)
      %seq_offset_161 = arith.cmpi sle, %seq_offset_158, %seq_offset_159 : i64 loc(#loc306)
      %seq_offset_162 = arith.cmpi sge, %seq_offset_158, %seq_offset_160 : i64 loc(#loc306)
      %seq_offset_163 = arith.andi %seq_offset_161, %seq_offset_162 : i1 loc(#loc306)
      %seq_offset_164 = arith.muli %j, %seq_offset_155 : i32 loc(#loc306)
      %seq_offset_165 = tt.splat %seq_offset_164 : i32 -> tensor<32xi32> loc(#loc307)
      %seq_offset_166 = arith.extsi %seq_offset_165 : tensor<32xi32> to tensor<32xi64> loc(#loc307)
      %seq_offset_167 = arith.extsi %offs_t : tensor<32xi32> to tensor<32xi64> loc(#loc307)
      %seq_offset_168 = arith.addi %seq_offset_166, %seq_offset_167 : tensor<32xi64> loc(#loc307)
      %seq_offset_169 = arith.constant 2147483647 : i64 loc(#loc307)
      %seq_offset_170 = arith.constant -2147483648 : i64 loc(#loc307)
      %seq_offset_171 = arith.constant dense<2147483647> : tensor<32xi64> loc(#loc307)
      %seq_offset_172 = arith.cmpi sle, %seq_offset_168, %seq_offset_171 : tensor<32xi64> loc(#loc307)
      %seq_offset_173 = arith.constant dense<-2147483648> : tensor<32xi64> loc(#loc307)
      %seq_offset_174 = arith.cmpi sge, %seq_offset_168, %seq_offset_173 : tensor<32xi64> loc(#loc307)
      %seq_offset_175 = arith.andi %seq_offset_172, %seq_offset_174 : tensor<32xi1> loc(#loc307)
      %seq_offset_176 = arith.addi %seq_offset_165, %offs_t : tensor<32xi32> loc(#loc307)
      %tile_mask = tt.splat %9#2 : i32 -> tensor<32xi32> loc(#loc308)
      %tile_mask_177 = arith.cmpi slt, %seq_offset_176, %tile_mask : tensor<32xi32> loc(#loc308)
      %physical_block_idx = tt.addptr %block_tables_ptr, %block_table_offset_125 : !tt.ptr<i32>, i64 loc(#loc309)
      %physical_block_idx_178 = arith.constant 32 : i32 loc(#loc310)
      %physical_block_idx_179 = arith.constant 32 : i32 loc(#loc310)
      %physical_block_idx_180 = arith.constant dense<32> : tensor<32xi32> loc(#loc310)
      %physical_block_idx_181 = arith.divsi %seq_offset_176, %physical_block_idx_180 : tensor<32xi32> loc(#loc310)
      %physical_block_idx_182 = tt.splat %physical_block_idx : !tt.ptr<i32> -> tensor<32x!tt.ptr<i32>> loc(#loc311)
      %physical_block_idx_183 = tt.addptr %physical_block_idx_182, %physical_block_idx_181 : tensor<32x!tt.ptr<i32>>, tensor<32xi32> loc(#loc311)
      %physical_block_idx_184 = tt.load %physical_block_idx_183 : tensor<32x!tt.ptr<i32>> loc(#loc312)
      %physical_block_idx_185 = arith.extsi %physical_block_idx_184 : tensor<32xi32> to tensor<32xi64> loc(#loc313)
      %v_offset = tt.expand_dims %physical_block_idx_185 {axis = 1 : i32} : tensor<32xi64> -> tensor<32x1xi64> loc(#loc314)
      %v_offset_186 = tt.splat %stride_v_cache_0 : i64 -> tensor<32x1xi64> loc(#loc315)
      %v_offset_187 = arith.muli %v_offset, %v_offset_186 : tensor<32x1xi64> loc(#loc315)
      %v_offset_188 = arith.extsi %kv_head_idx : i32 to i64 loc(#loc316)
      %v_offset_189 = arith.muli %v_offset_188, %stride_v_cache_2 : i64 loc(#loc316)
      %v_offset_190 = tt.splat %v_offset_189 : i64 -> tensor<32x1xi64> loc(#loc317)
      %v_offset_191 = arith.addi %v_offset_187, %v_offset_190 : tensor<32x1xi64> loc(#loc317)
      %v_offset_192 = tt.expand_dims %offs_d {axis = 0 : i32} : tensor<512xi32> -> tensor<1x512xi32> loc(#loc318)
      %v_offset_193 = arith.constant 1 : i32 loc(#loc319)
      %v_offset_194 = arith.constant 1 : i32 loc(#loc319)
      %v_offset_195 = arith.constant dense<1> : tensor<1x512xi32> loc(#loc319)
      %v_offset_196 = arith.extsi %v_offset_192 : tensor<1x512xi32> to tensor<1x512xi64> loc(#loc319)
      %v_offset_197 = arith.extsi %v_offset_195 : tensor<1x512xi32> to tensor<1x512xi64> loc(#loc319)
      %v_offset_198 = arith.muli %v_offset_196, %v_offset_197 : tensor<1x512xi64> loc(#loc319)
      %v_offset_199 = arith.constant 2147483647 : i64 loc(#loc319)
      %v_offset_200 = arith.constant -2147483648 : i64 loc(#loc319)
      %v_offset_201 = arith.constant dense<2147483647> : tensor<1x512xi64> loc(#loc319)
      %v_offset_202 = arith.cmpi sle, %v_offset_198, %v_offset_201 : tensor<1x512xi64> loc(#loc319)
      %v_offset_203 = arith.constant dense<-2147483648> : tensor<1x512xi64> loc(#loc319)
      %v_offset_204 = arith.cmpi sge, %v_offset_198, %v_offset_203 : tensor<1x512xi64> loc(#loc319)
      %v_offset_205 = arith.andi %v_offset_202, %v_offset_204 : tensor<1x512xi1> loc(#loc319)
      %v_offset_206 = arith.muli %v_offset_192, %v_offset_195 : tensor<1x512xi32> loc(#loc319)
      %v_offset_207 = arith.extsi %v_offset_206 : tensor<1x512xi32> to tensor<1x512xi64> loc(#loc320)
      %v_offset_208 = tt.broadcast %v_offset_191 : tensor<32x1xi64> -> tensor<32x512xi64> loc(#loc320)
      %v_offset_209 = tt.broadcast %v_offset_207 : tensor<1x512xi64> -> tensor<32x512xi64> loc(#loc320)
      %v_offset_210 = arith.addi %v_offset_208, %v_offset_209 : tensor<32x512xi64> loc(#loc320)
      %v_offset_211 = arith.constant 32 : i32 loc(#loc321)
      %v_offset_212 = arith.constant 32 : i32 loc(#loc321)
      %v_offset_213 = arith.constant dense<32> : tensor<32xi32> loc(#loc321)
      %v_offset_214 = arith.remsi %seq_offset_176, %v_offset_213 : tensor<32xi32> loc(#loc321)
      %v_offset_215 = tt.expand_dims %v_offset_214 {axis = 1 : i32} : tensor<32xi32> -> tensor<32x1xi32> loc(#loc322)
      %v_offset_216 = arith.extsi %v_offset_215 : tensor<32x1xi32> to tensor<32x1xi64> loc(#loc323)
      %v_offset_217 = tt.splat %stride_v_cache_1 : i64 -> tensor<32x1xi64> loc(#loc323)
      %v_offset_218 = arith.muli %v_offset_216, %v_offset_217 : tensor<32x1xi64> loc(#loc323)
      %v_offset_219 = tt.broadcast %v_offset_218 : tensor<32x1xi64> -> tensor<32x512xi64> loc(#loc324)
      %v_offset_220 = arith.addi %v_offset_210, %v_offset_219 : tensor<32x512xi64> loc(#loc324)
      %k_offset = tt.expand_dims %physical_block_idx_185 {axis = 0 : i32} : tensor<32xi64> -> tensor<1x32xi64> loc(#loc325)
      %k_offset_221 = tt.splat %stride_k_cache_0 : i64 -> tensor<1x32xi64> loc(#loc326)
      %k_offset_222 = arith.muli %k_offset, %k_offset_221 : tensor<1x32xi64> loc(#loc326)
      %k_offset_223 = arith.extsi %kv_head_idx : i32 to i64 loc(#loc327)
      %k_offset_224 = arith.muli %k_offset_223, %stride_k_cache_2 : i64 loc(#loc327)
      %k_offset_225 = tt.splat %k_offset_224 : i64 -> tensor<1x32xi64> loc(#loc328)
      %k_offset_226 = arith.addi %k_offset_222, %k_offset_225 : tensor<1x32xi64> loc(#loc328)
      %k_offset_227 = tt.expand_dims %offs_d {axis = 1 : i32} : tensor<512xi32> -> tensor<512x1xi32> loc(#loc329)
      %k_offset_228 = arith.constant 1 : i32 loc(#loc330)
      %k_offset_229 = arith.constant 1 : i32 loc(#loc330)
      %k_offset_230 = arith.constant dense<1> : tensor<512x1xi32> loc(#loc330)
      %k_offset_231 = arith.extsi %k_offset_227 : tensor<512x1xi32> to tensor<512x1xi64> loc(#loc330)
      %k_offset_232 = arith.extsi %k_offset_230 : tensor<512x1xi32> to tensor<512x1xi64> loc(#loc330)
      %k_offset_233 = arith.muli %k_offset_231, %k_offset_232 : tensor<512x1xi64> loc(#loc330)
      %k_offset_234 = arith.constant 2147483647 : i64 loc(#loc330)
      %k_offset_235 = arith.constant -2147483648 : i64 loc(#loc330)
      %k_offset_236 = arith.constant dense<2147483647> : tensor<512x1xi64> loc(#loc330)
      %k_offset_237 = arith.cmpi sle, %k_offset_233, %k_offset_236 : tensor<512x1xi64> loc(#loc330)
      %k_offset_238 = arith.constant dense<-2147483648> : tensor<512x1xi64> loc(#loc330)
      %k_offset_239 = arith.cmpi sge, %k_offset_233, %k_offset_238 : tensor<512x1xi64> loc(#loc330)
      %k_offset_240 = arith.andi %k_offset_237, %k_offset_239 : tensor<512x1xi1> loc(#loc330)
      %k_offset_241 = arith.muli %k_offset_227, %k_offset_230 : tensor<512x1xi32> loc(#loc330)
      %k_offset_242 = arith.extsi %k_offset_241 : tensor<512x1xi32> to tensor<512x1xi64> loc(#loc331)
      %k_offset_243 = tt.broadcast %k_offset_226 : tensor<1x32xi64> -> tensor<512x32xi64> loc(#loc331)
      %k_offset_244 = tt.broadcast %k_offset_242 : tensor<512x1xi64> -> tensor<512x32xi64> loc(#loc331)
      %k_offset_245 = arith.addi %k_offset_243, %k_offset_244 : tensor<512x32xi64> loc(#loc331)
      %k_offset_246 = arith.constant 32 : i32 loc(#loc332)
      %k_offset_247 = arith.constant 32 : i32 loc(#loc332)
      %k_offset_248 = arith.constant dense<32> : tensor<32xi32> loc(#loc332)
      %k_offset_249 = arith.remsi %seq_offset_176, %k_offset_248 : tensor<32xi32> loc(#loc332)
      %k_offset_250 = tt.expand_dims %k_offset_249 {axis = 0 : i32} : tensor<32xi32> -> tensor<1x32xi32> loc(#loc333)
      %k_offset_251 = arith.extsi %k_offset_250 : tensor<1x32xi32> to tensor<1x32xi64> loc(#loc334)
      %k_offset_252 = tt.splat %stride_k_cache_1 : i64 -> tensor<1x32xi64> loc(#loc334)
      %k_offset_253 = arith.muli %k_offset_251, %k_offset_252 : tensor<1x32xi64> loc(#loc334)
      %k_offset_254 = tt.broadcast %k_offset_253 : tensor<1x32xi64> -> tensor<512x32xi64> loc(#loc335)
      %k_offset_255 = arith.addi %k_offset_245, %k_offset_254 : tensor<512x32xi64> loc(#loc335)
      %K_load = tt.expand_dims %dim_mask_88 {axis = 1 : i32} : tensor<512xi1> -> tensor<512x1xi1> loc(#loc336)
      %K_load_256 = tt.expand_dims %tile_mask_177 {axis = 0 : i32} : tensor<32xi1> -> tensor<1x32xi1> loc(#loc337)
      %K_load_257 = tt.broadcast %K_load : tensor<512x1xi1> -> tensor<512x32xi1> loc(#loc338)
      %K_load_258 = tt.broadcast %K_load_256 : tensor<1x32xi1> -> tensor<512x32xi1> loc(#loc338)
      %K_load_259 = arith.andi %K_load_257, %K_load_258 : tensor<512x32xi1> loc(#loc338)
      %K_load_260 = tt.splat %key_cache_ptr : !tt.ptr<bf16> -> tensor<512x32x!tt.ptr<bf16>> loc(#loc339)
      %K_load_261 = tt.addptr %K_load_260, %k_offset_255 : tensor<512x32x!tt.ptr<bf16>>, tensor<512x32xi64> loc(#loc339)
      %K_load_262 = arith.constant 0.000000e+00 : f32 loc(#loc340)
      %K_load_263 = arith.constant dense<0.000000e+00> : tensor<512x32xf32> loc(#loc340)
      %K_load_264 = arith.truncf %K_load_263 : tensor<512x32xf32> to tensor<512x32xbf16> loc(#loc340)
      %K_load_265 = tt.load %K_load_261, %K_load_259, %K_load_264 : tensor<512x32x!tt.ptr<bf16>> loc(#loc340)
      %K = tt.call @"vllm.v1.attention.ops.triton_unified_attention._cast_kv_tile__bf16S512_32S_bf16S16_512S_Pfp32__(3,)cconstexpr_0_"(%K_load_265, %Q_124, %k_scale) : (tensor<512x32xbf16>, tensor<16x512xbf16>, !tt.ptr<f32>) -> tensor<512x32xbf16> loc(#loc341)
      %V_load = tt.expand_dims %dim_mask_88 {axis = 0 : i32} : tensor<512xi1> -> tensor<1x512xi1> loc(#loc342)
      %V_load_266 = tt.expand_dims %tile_mask_177 {axis = 1 : i32} : tensor<32xi1> -> tensor<32x1xi1> loc(#loc343)
      %V_load_267 = tt.broadcast %V_load : tensor<1x512xi1> -> tensor<32x512xi1> loc(#loc344)
      %V_load_268 = tt.broadcast %V_load_266 : tensor<32x1xi1> -> tensor<32x512xi1> loc(#loc344)
      %V_load_269 = arith.andi %V_load_267, %V_load_268 : tensor<32x512xi1> loc(#loc344)
      %V_load_270 = tt.splat %value_cache_ptr : !tt.ptr<bf16> -> tensor<32x512x!tt.ptr<bf16>> loc(#loc345)
      %V_load_271 = tt.addptr %V_load_270, %v_offset_220 : tensor<32x512x!tt.ptr<bf16>>, tensor<32x512xi64> loc(#loc345)
      %V_load_272 = arith.constant 0.000000e+00 : f32 loc(#loc346)
      %V_load_273 = arith.constant dense<0.000000e+00> : tensor<32x512xf32> loc(#loc346)
      %V_load_274 = arith.truncf %V_load_273 : tensor<32x512xf32> to tensor<32x512xbf16> loc(#loc346)
      %V_load_275 = tt.load %V_load_271, %V_load_269, %V_load_274 : tensor<32x512x!tt.ptr<bf16>> loc(#loc346)
      %V = tt.call @"vllm.v1.attention.ops.triton_unified_attention._cast_kv_tile__bf16S32_512S_bf16S16_512S_Pfp32__(3,)cconstexpr_0_"(%V_load_275, %Q_124, %v_scale) : (tensor<32x512xbf16>, tensor<16x512xbf16>, !tt.ptr<f32>) -> tensor<32x512xbf16> loc(#loc347)
      %query_abs_pos = tt.expand_dims %query_pos_26 {axis = 1 : i32} : tensor<16xi32> -> tensor<16x1xi32> loc(#loc348)
      %query_abs_pos_276 = tt.splat %context_len_134 : i32 -> tensor<16x1xi32> loc(#loc349)
      %query_abs_pos_277 = arith.extsi %query_abs_pos_276 : tensor<16x1xi32> to tensor<16x1xi64> loc(#loc349)
      %query_abs_pos_278 = arith.extsi %query_abs_pos : tensor<16x1xi32> to tensor<16x1xi64> loc(#loc349)
      %query_abs_pos_279 = arith.addi %query_abs_pos_277, %query_abs_pos_278 : tensor<16x1xi64> loc(#loc349)
      %query_abs_pos_280 = arith.constant 2147483647 : i64 loc(#loc349)
      %query_abs_pos_281 = arith.constant -2147483648 : i64 loc(#loc349)
      %query_abs_pos_282 = arith.constant dense<2147483647> : tensor<16x1xi64> loc(#loc349)
      %query_abs_pos_283 = arith.cmpi sle, %query_abs_pos_279, %query_abs_pos_282 : tensor<16x1xi64> loc(#loc349)
      %query_abs_pos_284 = arith.constant dense<-2147483648> : tensor<16x1xi64> loc(#loc349)
      %query_abs_pos_285 = arith.cmpi sge, %query_abs_pos_279, %query_abs_pos_284 : tensor<16x1xi64> loc(#loc349)
      %query_abs_pos_286 = arith.andi %query_abs_pos_283, %query_abs_pos_285 : tensor<16x1xi1> loc(#loc349)
      %query_abs_pos_287 = arith.addi %query_abs_pos_276, %query_abs_pos : tensor<16x1xi32> loc(#loc349)
      %seq_mask = tt.call @"vllm.v1.attention.ops.triton_attention_helpers.compute_kv_seq_mask__i32S16_1S_i32S32S_i32__(3,)cconstexpr_None__(4,)cconstexpr_0__(5,)cconstexpr_False__(6,)cconstexpr_0__(7,)cconstexpr_-1__(8,)cconstexpr_-1_"(%query_abs_pos_287, %seq_offset_176, %0#0) : (tensor<16x1xi32>, tensor<32xi32>, i32) -> tensor<16x32xi1> loc(#loc350)
      %S = tt.call @"triton.language.standard.zeros____(0, 0)cconstexpr_16__(0, 1)cconstexpr_32__(1,)cconstexpr_fp32_"() : () -> tensor<16x32xf32> loc(#loc351)
      %S_288 = arith.constant 0.000000e+00 : f32 loc(#loc352)
      %S_289 = arith.constant dense<0.000000e+00> : tensor<16x32xf32> loc(#loc352)
      %S_290 = tt.dot %Q_124, %K, %S_289, inputPrecision = tf32 : tensor<16x512xbf16> * tensor<512x32xbf16> -> tensor<16x32xf32> loc(#loc352)
      %S_291 = tt.splat %scale : f32 -> tensor<16x32xf32> loc(#loc353)
      %S_292 = arith.mulf %S_291, %S_290 : tensor<16x32xf32> loc(#loc353)
      %S_293 = arith.addf %S, %S_292 : tensor<16x32xf32> loc(#loc354)
      %S_294 = tt.expand_dims %query_mask_1_111 {axis = 1 : i32} : tensor<16xi1> -> tensor<16x1xi1> loc(#loc355)
      %S_295 = tt.expand_dims %query_mask_0_99 {axis = 1 : i32} : tensor<16xi1> -> tensor<16x1xi1> loc(#loc356)
      %S_296 = arith.andi %S_294, %S_295 : tensor<16x1xi1> loc(#loc357)
      %S_297 = tt.broadcast %S_296 : tensor<16x1xi1> -> tensor<16x32xi1> loc(#loc358)
      %S_298 = arith.andi %S_297, %seq_mask : tensor<16x32xi1> loc(#loc358)
      %S_299 = arith.constant 0xFF800000 : f32 loc(#loc359)
      %S_300 = arith.constant 0xFF800000 : f32 loc(#loc359)
      %S_301 = arith.constant dense<0xFF800000> : tensor<16x32xf32> loc(#loc359)
      %S_302 = arith.select %S_298, %S_293, %S_301 : tensor<16x32xi1>, tensor<16x32xf32> loc(#loc359)
      %25:4 = tt.call @vllm.v1.attention.ops.triton_attention_helpers.softmax_step__fp32S16_32S_fp32S16S_fp32S16S__(%S_302, %M_152, %L_153) : (tensor<16x32xf32>, tensor<16xf32>, tensor<16xf32>) -> (tensor<16xf32>, tensor<16xf32>, tensor<16x32xf32>, tensor<16xf32>) loc(#loc103)
      %acc_303 = tt.expand_dims %25#3 {axis = 1 : i32} : tensor<16xf32> -> tensor<16x1xf32> loc(#loc360)
      %acc_304 = tt.broadcast %acc_303 : tensor<16x1xf32> -> tensor<16x512xf32> loc(#loc361)
      %acc_305 = arith.mulf %acc_154, %acc_304 : tensor<16x512xf32> loc(#loc361)
      %acc_306 = arith.truncf %25#2 : tensor<16x32xf32> to tensor<16x32xbf16> loc(#loc362)
      %acc_307 = arith.constant 0.000000e+00 : f32 loc(#loc363)
      %acc_308 = arith.constant dense<0.000000e+00> : tensor<16x512xf32> loc(#loc363)
      %acc_309 = tt.dot %acc_306, %V, %acc_308, inputPrecision = tf32 : tensor<16x32xbf16> * tensor<32x512xbf16> -> tensor<16x512xf32> loc(#loc363)
      %acc_310 = arith.addf %acc_305, %acc_309 : tensor<16x512xf32> loc(#loc364)
      scf.yield %25#0, %25#1, %acc_310 : tensor<16xf32>, tensor<16xf32>, tensor<16x512xf32> loc(#loc109)
    } loc(#loc459)
    %acc_136 = tt.expand_dims %acc_135#1 {axis = 1 : i32} : tensor<16xf32> -> tensor<16x1xf32> loc(#loc365)
    %acc_137 = tt.broadcast %acc_136 : tensor<16x1xf32> -> tensor<16x512xf32> loc(#loc366)
    %acc_138 = arith.divf %acc_135#2, %acc_137 : tensor<16x512xf32> loc(#loc366)
    %output_offset = tt.expand_dims %query_offset_0_37 {axis = 1 : i32} : tensor<16xi32> -> tensor<16x1xi32> loc(#loc367)
    %output_offset_139 = arith.extsi %output_offset : tensor<16x1xi32> to tensor<16x1xi64> loc(#loc368)
    %output_offset_140 = tt.splat %output_stride_0 : i64 -> tensor<16x1xi64> loc(#loc368)
    %output_offset_141 = arith.muli %output_offset_139, %output_offset_140 : tensor<16x1xi64> loc(#loc368)
    %output_offset_142 = tt.expand_dims %query_offset_1_63 {axis = 1 : i32} : tensor<16xi32> -> tensor<16x1xi32> loc(#loc369)
    %output_offset_143 = arith.extsi %output_offset_142 : tensor<16x1xi32> to tensor<16x1xi64> loc(#loc370)
    %output_offset_144 = tt.splat %output_stride_1 : i64 -> tensor<16x1xi64> loc(#loc370)
    %output_offset_145 = arith.muli %output_offset_143, %output_offset_144 : tensor<16x1xi64> loc(#loc370)
    %output_offset_146 = arith.addi %output_offset_141, %output_offset_145 : tensor<16x1xi64> loc(#loc371)
    %output_offset_147 = tt.expand_dims %offs_d {axis = 0 : i32} : tensor<512xi32> -> tensor<1x512xi32> loc(#loc372)
    %output_offset_148 = arith.extsi %output_offset_147 : tensor<1x512xi32> to tensor<1x512xi64> loc(#loc373)
    %output_offset_149 = tt.broadcast %output_offset_146 : tensor<16x1xi64> -> tensor<16x512xi64> loc(#loc373)
    %output_offset_150 = tt.broadcast %output_offset_148 : tensor<1x512xi64> -> tensor<16x512xi64> loc(#loc373)
    %output_offset_151 = arith.addi %output_offset_149, %output_offset_150 : tensor<16x512xi64> loc(#loc373)
    %14 = tt.expand_dims %dim_mask_88 {axis = 0 : i32} : tensor<512xi1> -> tensor<1x512xi1> loc(#loc119)
    %15 = tt.expand_dims %query_mask_0_99 {axis = 1 : i32} : tensor<16xi1> -> tensor<16x1xi1> loc(#loc120)
    %16 = tt.broadcast %14 : tensor<1x512xi1> -> tensor<16x512xi1> loc(#loc121)
    %17 = tt.broadcast %15 : tensor<16x1xi1> -> tensor<16x512xi1> loc(#loc121)
    %18 = arith.andi %16, %17 : tensor<16x512xi1> loc(#loc121)
    %19 = tt.expand_dims %query_mask_1_111 {axis = 1 : i32} : tensor<16xi1> -> tensor<16x1xi1> loc(#loc122)
    %20 = tt.broadcast %19 : tensor<16x1xi1> -> tensor<16x512xi1> loc(#loc123)
    %21 = arith.andi %18, %20 : tensor<16x512xi1> loc(#loc123)
    %22 = tt.splat %output_ptr : !tt.ptr<bf16> -> tensor<16x512x!tt.ptr<bf16>> loc(#loc124)
    %23 = tt.addptr %22, %output_offset_151 : tensor<16x512x!tt.ptr<bf16>>, tensor<16x512xi64> loc(#loc124)
    %24 = arith.truncf %acc_138 : tensor<16x512xf32> to tensor<16x512xbf16> loc(#loc125)
    tt.store %23, %24, %21 : tensor<16x512x!tt.ptr<bf16>> loc(#loc125)
    tt.return loc(#loc126)
  } loc(#loc)
  tt.func private @"vllm.v1.attention.ops.triton_attention_helpers.resolve_seq_and_query_len__Pi32_Pi32_i32_i32__(4,)cconstexpr_2_"(%query_start_len_ptr: !tt.ptr<i32> loc("query_start_len_ptr"(#loc127)), %seq_lens_ptr: !tt.ptr<i32> loc("seq_lens_ptr"(#loc127)), %q_block_global_idx: i32 loc("q_block_global_idx"(#loc127)), %num_seqs: i32 loc("num_seqs"(#loc127))) -> (i32, i32, i32, i32, i32) attributes {noinline = false} {
    %seq_idx = tt.call @"vllm.v1.attention.ops.triton_attention_helpers.find_seq_idx__Pi32_i32_i32__(3,)cconstexpr_2__(4,)cconstexpr_True_"(%query_start_len_ptr, %q_block_global_idx, %num_seqs) : (!tt.ptr<i32>, i32, i32) -> i32 loc(#loc378)
    %q_block_start_idx = tt.addptr %query_start_len_ptr, %seq_idx : !tt.ptr<i32>, i32 loc(#loc379)
    %q_block_start_idx_0 = tt.load %q_block_start_idx : !tt.ptr<i32> loc(#loc380)
    %q_block_start_idx_1 = arith.constant 2 : i32 loc(#loc381)
    %q_block_start_idx_2 = arith.constant 2 : i32 loc(#loc381)
    %q_block_start_idx_3 = arith.divsi %q_block_start_idx_0, %q_block_start_idx_2 : i32 loc(#loc381)
    %q_block_start_idx_4 = arith.extsi %q_block_start_idx_3 : i32 to i64 loc(#loc382)
    %q_block_start_idx_5 = arith.extsi %seq_idx : i32 to i64 loc(#loc382)
    %q_block_start_idx_6 = arith.addi %q_block_start_idx_4, %q_block_start_idx_5 : i64 loc(#loc382)
    %q_block_start_idx_7 = arith.constant 2147483647 : i64 loc(#loc382)
    %q_block_start_idx_8 = arith.constant -2147483648 : i64 loc(#loc382)
    %q_block_start_idx_9 = arith.cmpi sle, %q_block_start_idx_6, %q_block_start_idx_7 : i64 loc(#loc382)
    %q_block_start_idx_10 = arith.cmpi sge, %q_block_start_idx_6, %q_block_start_idx_8 : i64 loc(#loc382)
    %q_block_start_idx_11 = arith.andi %q_block_start_idx_9, %q_block_start_idx_10 : i1 loc(#loc382)
    %q_block_start_idx_12 = arith.addi %q_block_start_idx_3, %seq_idx : i32 loc(#loc382)
    %q_block_local_idx = arith.extsi %q_block_global_idx : i32 to i64 loc(#loc383)
    %q_block_local_idx_13 = arith.extsi %q_block_start_idx_12 : i32 to i64 loc(#loc383)
    %q_block_local_idx_14 = arith.subi %q_block_local_idx, %q_block_local_idx_13 : i64 loc(#loc383)
    %q_block_local_idx_15 = arith.constant 2147483647 : i64 loc(#loc383)
    %q_block_local_idx_16 = arith.constant -2147483648 : i64 loc(#loc383)
    %q_block_local_idx_17 = arith.cmpi sle, %q_block_local_idx_14, %q_block_local_idx_15 : i64 loc(#loc383)
    %q_block_local_idx_18 = arith.cmpi sge, %q_block_local_idx_14, %q_block_local_idx_16 : i64 loc(#loc383)
    %q_block_local_idx_19 = arith.andi %q_block_local_idx_17, %q_block_local_idx_18 : i1 loc(#loc383)
    %q_block_local_idx_20 = arith.subi %q_block_global_idx, %q_block_start_idx_12 : i32 loc(#loc383)
    %cur_start = tt.addptr %query_start_len_ptr, %seq_idx : !tt.ptr<i32>, i32 loc(#loc384)
    %cur_start_21 = tt.load %cur_start : !tt.ptr<i32> loc(#loc385)
    %cur_stop = tt.addptr %query_start_len_ptr, %seq_idx : !tt.ptr<i32>, i32 loc(#loc386)
    %cur_stop_22 = arith.constant 1 : i32 loc(#loc387)
    %cur_stop_23 = tt.addptr %cur_stop, %cur_stop_22 : !tt.ptr<i32>, i32 loc(#loc387)
    %cur_stop_24 = tt.load %cur_stop_23 : !tt.ptr<i32> loc(#loc388)
    %cur_batch_query_len = arith.extsi %cur_stop_24 : i32 to i64 loc(#loc389)
    %cur_batch_query_len_25 = arith.extsi %cur_start_21 : i32 to i64 loc(#loc389)
    %cur_batch_query_len_26 = arith.subi %cur_batch_query_len, %cur_batch_query_len_25 : i64 loc(#loc389)
    %cur_batch_query_len_27 = arith.constant 2147483647 : i64 loc(#loc389)
    %cur_batch_query_len_28 = arith.constant -2147483648 : i64 loc(#loc389)
    %cur_batch_query_len_29 = arith.cmpi sle, %cur_batch_query_len_26, %cur_batch_query_len_27 : i64 loc(#loc389)
    %cur_batch_query_len_30 = arith.cmpi sge, %cur_batch_query_len_26, %cur_batch_query_len_28 : i64 loc(#loc389)
    %cur_batch_query_len_31 = arith.andi %cur_batch_query_len_29, %cur_batch_query_len_30 : i1 loc(#loc389)
    %cur_batch_query_len_32 = arith.subi %cur_stop_24, %cur_start_21 : i32 loc(#loc389)
    %seq_len = tt.addptr %seq_lens_ptr, %seq_idx : !tt.ptr<i32>, i32 loc(#loc390)
    %seq_len_33 = tt.load %seq_len : !tt.ptr<i32> loc(#loc391)
    tt.return %seq_idx, %q_block_local_idx_20, %cur_start_21, %cur_batch_query_len_32, %seq_len_33 : i32, i32, i32, i32, i32 loc(#loc142)
  ^bb1:  // no predecessors
    %0 = ub.poison : i32 loc(#loc143)
    %1 = ub.poison : i32 loc(#loc143)
    %2 = ub.poison : i32 loc(#loc143)
    %3 = ub.poison : i32 loc(#loc143)
    %4 = ub.poison : i32 loc(#loc143)
    tt.return %0, %1, %2, %3, %4 : i32, i32, i32, i32, i32 loc(#loc143)
  } loc(#loc127)
  tt.func private @"vllm.v1.attention.ops.triton_attention_helpers.find_seq_idx__Pi32_i32_i32__(3,)cconstexpr_2__(4,)cconstexpr_True_"(%query_start_len_ptr: !tt.ptr<i32> loc("query_start_len_ptr"(#loc144)), %target_idx: i32 loc("target_idx"(#loc144)), %right: i32 loc("right"(#loc394))) -> i32 attributes {noinline = false} {
    %left = arith.constant 0 : i32 loc(#loc455)
    %right_0:2 = scf.while (%left_2 = %left, %right_3 = %right) : (i32, i32) -> (i32, i32) {
      %8 = arith.cmpi slt, %left_2, %right_3 : i32 loc(#loc147)
      scf.condition(%8) %left_2, %right_3 : i32, i32 loc(#loc147)
    } do {
    ^bb0(%left_2: i32 loc("left"(#loc148)), %right_3: i32 loc("right"(#loc149))):
      %mid = arith.extsi %left_2 : i32 to i64 loc(#loc399)
      %mid_4 = arith.extsi %right_3 : i32 to i64 loc(#loc399)
      %mid_5 = arith.addi %mid, %mid_4 : i64 loc(#loc399)
      %mid_6 = arith.constant 2147483647 : i64 loc(#loc399)
      %mid_7 = arith.constant -2147483648 : i64 loc(#loc399)
      %mid_8 = arith.cmpi sle, %mid_5, %mid_6 : i64 loc(#loc399)
      %mid_9 = arith.cmpi sge, %mid_5, %mid_7 : i64 loc(#loc399)
      %mid_10 = arith.andi %mid_8, %mid_9 : i1 loc(#loc399)
      %mid_11 = arith.addi %left_2, %right_3 : i32 loc(#loc399)
      %mid_12 = arith.constant 2 : i32 loc(#loc400)
      %mid_13 = arith.constant 2 : i32 loc(#loc400)
      %right_14 = arith.divsi %mid_11, %mid_13 : i32 loc(#loc457)
      %val = tt.addptr %query_start_len_ptr, %right_14 : !tt.ptr<i32>, i32 loc(#loc401)
      %val_15 = tt.load %val : !tt.ptr<i32> loc(#loc402)
      %mid_val = arith.constant 2 : i32 loc(#loc403)
      %mid_val_16 = arith.constant 2 : i32 loc(#loc403)
      %mid_val_17 = arith.divsi %val_15, %mid_val_16 : i32 loc(#loc403)
      %mid_val_18 = arith.extsi %mid_val_17 : i32 to i64 loc(#loc404)
      %mid_val_19 = arith.extsi %right_14 : i32 to i64 loc(#loc404)
      %mid_val_20 = arith.addi %mid_val_18, %mid_val_19 : i64 loc(#loc404)
      %mid_val_21 = arith.constant 2147483647 : i64 loc(#loc404)
      %mid_val_22 = arith.constant -2147483648 : i64 loc(#loc404)
      %mid_val_23 = arith.cmpi sle, %mid_val_20, %mid_val_21 : i64 loc(#loc404)
      %mid_val_24 = arith.cmpi sge, %mid_val_20, %mid_val_22 : i64 loc(#loc404)
      %mid_val_25 = arith.andi %mid_val_23, %mid_val_24 : i1 loc(#loc404)
      %mid_val_26 = arith.addi %mid_val_17, %right_14 : i32 loc(#loc404)
      %8 = arith.cmpi sle, %mid_val_26, %target_idx : i32 loc(#loc156)
      %9:2 = scf.if %8 -> (i32, i32) {
        %left_27 = arith.constant 1 : i32 loc(#loc405)
        %left_28 = arith.constant 1 : i32 loc(#loc405)
        %left_29 = arith.extsi %right_14 : i32 to i64 loc(#loc405)
        %left_30 = arith.extsi %left_28 : i32 to i64 loc(#loc405)
        %left_31 = arith.addi %left_29, %left_30 : i64 loc(#loc405)
        %left_32 = arith.constant 2147483647 : i64 loc(#loc405)
        %left_33 = arith.constant -2147483648 : i64 loc(#loc405)
        %left_34 = arith.cmpi sle, %left_31, %left_32 : i64 loc(#loc405)
        %left_35 = arith.cmpi sge, %left_31, %left_33 : i64 loc(#loc405)
        %left_36 = arith.andi %left_34, %left_35 : i1 loc(#loc405)
        %left_37 = arith.addi %right_14, %left_28 : i32 loc(#loc458)
        scf.yield %left_37, %right_3 : i32, i32 loc(#loc458)
      } else {
        scf.yield %left_2, %right_14 : i32, i32 loc(#loc157)
      } loc(#loc157)
      scf.yield %9#0, %9#1 : i32, i32 loc(#loc159)
    } loc(#loc456)
    %c1_i32 = arith.constant 1 : i32 loc(#loc160)
    %c1_i32_1 = arith.constant 1 : i32 loc(#loc160)
    %0 = arith.extsi %right_0#0 : i32 to i64 loc(#loc160)
    %1 = arith.extsi %c1_i32_1 : i32 to i64 loc(#loc160)
    %2 = arith.subi %0, %1 : i64 loc(#loc160)
    %c2147483647_i64 = arith.constant 2147483647 : i64 loc(#loc160)
    %c-2147483648_i64 = arith.constant -2147483648 : i64 loc(#loc160)
    %3 = arith.cmpi sle, %2, %c2147483647_i64 : i64 loc(#loc160)
    %4 = arith.cmpi sge, %2, %c-2147483648_i64 : i64 loc(#loc160)
    %5 = arith.andi %3, %4 : i1 loc(#loc160)
    %6 = arith.subi %right_0#0, %c1_i32_1 : i32 loc(#loc160)
    tt.return %6 : i32 loc(#loc161)
  ^bb1:  // no predecessors
    %7 = ub.poison : i32 loc(#loc162)
    tt.return %7 : i32 loc(#loc162)
  } loc(#loc144)
  tt.func private @"vllm.v1.attention.ops.triton_attention_helpers.init_softmax_M__i32S16S_u1S16S_i32__(0,)cconstexpr_None__(4,)cconstexpr_16__(5,)cconstexpr_False__(6,)cconstexpr_False_"(%query_offset_1: tensor<16xi32> loc("query_offset_1"(#loc163)), %query_mask_1: tensor<16xi1> loc("query_mask_1"(#loc163)), %segm_idx_or_0: i32 loc("segm_idx_or_0"(#loc163))) -> tensor<16xf32> attributes {noinline = false} {
    %M = arith.constant 0xFF800000 : f32 loc(#loc409)
    %M_0 = arith.constant dense<0xFF800000> : tensor<16xf32> loc(#loc409)
    tt.return %M_0 : tensor<16xf32> loc(#loc165)
  ^bb1:  // no predecessors
    %0 = ub.poison : tensor<16xf32> loc(#loc166)
    tt.return %0 : tensor<16xf32> loc(#loc166)
  } loc(#loc163)
  tt.func private @"triton.language.standard.zeros____(0, 0)cconstexpr_16__(0, 1)cconstexpr_512__(1,)cconstexpr_fp32_"() -> tensor<16x512xf32> attributes {noinline = false} {
    %cst = arith.constant 0.000000e+00 : f32 loc(#loc168)
    %cst_0 = arith.constant dense<0.000000e+00> : tensor<16x512xf32> loc(#loc168)
    tt.return %cst_0 : tensor<16x512xf32> loc(#loc169)
  ^bb1:  // no predecessors
    %0 = ub.poison : tensor<16x512xf32> loc(#loc170)
    tt.return %0 : tensor<16x512xf32> loc(#loc170)
  } loc(#loc167)
  tt.func private @"vllm.v1.attention.ops.triton_attention_helpers.compute_tile_loop_bounds__i32_i32_i32_i32_i32_i32__(6,)cconstexpr_32__(7,)cconstexpr_16__(8,)cconstexpr_2__(9,)cconstexpr_8__(10,)cconstexpr_0__(11,)cconstexpr_False__(12,)cconstexpr_False__(13,)cconstexpr_-1__(14,)cconstexpr_-1_"(%context_len: i32 loc("context_len"(#loc171)), %seq_len: i32 loc("seq_len"(#loc171)), %cur_batch_query_len: i32 loc("cur_batch_query_len"(#loc171)), %q_block_local_idx: i32 loc("q_block_local_idx"(#loc171)), %segm_idx_or_0: i32 loc("segm_idx_or_0"(#loc171)), %tiles_per_segment_or_0: i32 loc("tiles_per_segment_or_0"(#loc171))) -> (i32, i32, i32) attributes {noinline = false} {
    %max_seq_prefix_len = arith.constant 2 : i32 loc(#loc416)
    %max_seq_prefix_len_0 = arith.constant 2 : i32 loc(#loc416)
    %max_seq_prefix_len_1 = arith.extsi %q_block_local_idx : i32 to i64 loc(#loc416)
    %max_seq_prefix_len_2 = arith.extsi %max_seq_prefix_len_0 : i32 to i64 loc(#loc416)
    %max_seq_prefix_len_3 = arith.muli %max_seq_prefix_len_1, %max_seq_prefix_len_2 : i64 loc(#loc416)
    %max_seq_prefix_len_4 = arith.constant 2147483647 : i64 loc(#loc416)
    %max_seq_prefix_len_5 = arith.constant -2147483648 : i64 loc(#loc416)
    %max_seq_prefix_len_6 = arith.cmpi sle, %max_seq_prefix_len_3, %max_seq_prefix_len_4 : i64 loc(#loc416)
    %max_seq_prefix_len_7 = arith.cmpi sge, %max_seq_prefix_len_3, %max_seq_prefix_len_5 : i64 loc(#loc416)
    %max_seq_prefix_len_8 = arith.andi %max_seq_prefix_len_6, %max_seq_prefix_len_7 : i1 loc(#loc416)
    %max_seq_prefix_len_9 = arith.muli %q_block_local_idx, %max_seq_prefix_len_0 : i32 loc(#loc416)
    %max_seq_prefix_len_10 = arith.extsi %context_len : i32 to i64 loc(#loc417)
    %max_seq_prefix_len_11 = arith.extsi %max_seq_prefix_len_9 : i32 to i64 loc(#loc417)
    %max_seq_prefix_len_12 = arith.addi %max_seq_prefix_len_10, %max_seq_prefix_len_11 : i64 loc(#loc417)
    %max_seq_prefix_len_13 = arith.constant 2147483647 : i64 loc(#loc417)
    %max_seq_prefix_len_14 = arith.constant -2147483648 : i64 loc(#loc417)
    %max_seq_prefix_len_15 = arith.cmpi sle, %max_seq_prefix_len_12, %max_seq_prefix_len_13 : i64 loc(#loc417)
    %max_seq_prefix_len_16 = arith.cmpi sge, %max_seq_prefix_len_12, %max_seq_prefix_len_14 : i64 loc(#loc417)
    %max_seq_prefix_len_17 = arith.andi %max_seq_prefix_len_15, %max_seq_prefix_len_16 : i1 loc(#loc417)
    %max_seq_prefix_len_18 = arith.addi %context_len, %max_seq_prefix_len_9 : i32 loc(#loc417)
    %max_seq_prefix_len_19 = arith.constant 1 : i32 loc(#loc418)
    %max_seq_prefix_len_20 = arith.constant 1 : i32 loc(#loc418)
    %max_seq_prefix_len_21 = arith.extsi %max_seq_prefix_len_18 : i32 to i64 loc(#loc418)
    %max_seq_prefix_len_22 = arith.extsi %max_seq_prefix_len_20 : i32 to i64 loc(#loc418)
    %max_seq_prefix_len_23 = arith.addi %max_seq_prefix_len_21, %max_seq_prefix_len_22 : i64 loc(#loc418)
    %max_seq_prefix_len_24 = arith.constant 2147483647 : i64 loc(#loc418)
    %max_seq_prefix_len_25 = arith.constant -2147483648 : i64 loc(#loc418)
    %max_seq_prefix_len_26 = arith.cmpi sle, %max_seq_prefix_len_23, %max_seq_prefix_len_24 : i64 loc(#loc418)
    %max_seq_prefix_len_27 = arith.cmpi sge, %max_seq_prefix_len_23, %max_seq_prefix_len_25 : i64 loc(#loc418)
    %max_seq_prefix_len_28 = arith.andi %max_seq_prefix_len_26, %max_seq_prefix_len_27 : i1 loc(#loc418)
    %max_seq_prefix_len_29 = arith.addi %max_seq_prefix_len_18, %max_seq_prefix_len_20 : i32 loc(#loc418)
    %max_seq_prefix_len_30 = arith.constant 1 : i32 loc(#loc419)
    %max_seq_prefix_len_31 = arith.constant 1 : i32 loc(#loc419)
    %max_seq_prefix_len_32 = arith.extsi %max_seq_prefix_len_29 : i32 to i64 loc(#loc419)
    %max_seq_prefix_len_33 = arith.extsi %max_seq_prefix_len_31 : i32 to i64 loc(#loc419)
    %max_seq_prefix_len_34 = arith.addi %max_seq_prefix_len_32, %max_seq_prefix_len_33 : i64 loc(#loc419)
    %max_seq_prefix_len_35 = arith.constant 2147483647 : i64 loc(#loc419)
    %max_seq_prefix_len_36 = arith.constant -2147483648 : i64 loc(#loc419)
    %max_seq_prefix_len_37 = arith.cmpi sle, %max_seq_prefix_len_34, %max_seq_prefix_len_35 : i64 loc(#loc419)
    %max_seq_prefix_len_38 = arith.cmpi sge, %max_seq_prefix_len_34, %max_seq_prefix_len_36 : i64 loc(#loc419)
    %max_seq_prefix_len_39 = arith.andi %max_seq_prefix_len_37, %max_seq_prefix_len_38 : i1 loc(#loc419)
    %max_seq_prefix_len_40 = arith.addi %max_seq_prefix_len_29, %max_seq_prefix_len_31 : i32 loc(#loc419)
    %max_seq_prefix_len_41 = arith.minsi %max_seq_prefix_len_40, %seq_len : i32 loc(#loc420)
    %num_tiles = tt.call @"vllm.v1.attention.ops.triton_attention_helpers.cdiv_fn__i32__(1,)cconstexpr_32_"(%max_seq_prefix_len_41) : (i32) -> i32 loc(#loc421)
    %tile_start = arith.constant 0 : i32 loc(#loc422)
    tt.return %tile_start, %num_tiles, %max_seq_prefix_len_41 : i32, i32, i32 loc(#loc179)
  ^bb1:  // no predecessors
    %0 = ub.poison : i32 loc(#loc180)
    %1 = ub.poison : i32 loc(#loc180)
    %2 = ub.poison : i32 loc(#loc180)
    tt.return %0, %1, %2 : i32, i32, i32 loc(#loc180)
  } loc(#loc171)
  tt.func private @"vllm.v1.attention.ops.triton_attention_helpers.cdiv_fn__i32__(1,)cconstexpr_32_"(%x: i32 loc("x"(#loc181))) -> i32 attributes {noinline = false} {
    %c32_i32 = arith.constant 32 : i32 loc(#loc182)
    %c32_i32_0 = arith.constant 32 : i32 loc(#loc182)
    %0 = arith.extsi %x : i32 to i64 loc(#loc182)
    %1 = arith.extsi %c32_i32_0 : i32 to i64 loc(#loc182)
    %2 = arith.addi %0, %1 : i64 loc(#loc182)
    %c2147483647_i64 = arith.constant 2147483647 : i64 loc(#loc182)
    %c-2147483648_i64 = arith.constant -2147483648 : i64 loc(#loc182)
    %3 = arith.cmpi sle, %2, %c2147483647_i64 : i64 loc(#loc182)
    %4 = arith.cmpi sge, %2, %c-2147483648_i64 : i64 loc(#loc182)
    %5 = arith.andi %3, %4 : i1 loc(#loc182)
    %6 = arith.addi %x, %c32_i32_0 : i32 loc(#loc182)
    %c1_i32 = arith.constant 1 : i32 loc(#loc183)
    %c1_i32_1 = arith.constant 1 : i32 loc(#loc183)
    %7 = arith.extsi %6 : i32 to i64 loc(#loc183)
    %8 = arith.extsi %c1_i32_1 : i32 to i64 loc(#loc183)
    %9 = arith.subi %7, %8 : i64 loc(#loc183)
    %c2147483647_i64_2 = arith.constant 2147483647 : i64 loc(#loc183)
    %c-2147483648_i64_3 = arith.constant -2147483648 : i64 loc(#loc183)
    %10 = arith.cmpi sle, %9, %c2147483647_i64_2 : i64 loc(#loc183)
    %11 = arith.cmpi sge, %9, %c-2147483648_i64_3 : i64 loc(#loc183)
    %12 = arith.andi %10, %11 : i1 loc(#loc183)
    %13 = arith.subi %6, %c1_i32_1 : i32 loc(#loc183)
    %c32_i32_4 = arith.constant 32 : i32 loc(#loc184)
    %c32_i32_5 = arith.constant 32 : i32 loc(#loc184)
    %14 = arith.divsi %13, %c32_i32_5 : i32 loc(#loc184)
    tt.return %14 : i32 loc(#loc185)
  ^bb1:  // no predecessors
    %15 = ub.poison : i32 loc(#loc186)
    tt.return %15 : i32 loc(#loc186)
  } loc(#loc181)
  tt.func private @"vllm.v1.attention.ops.triton_unified_attention._cast_kv_tile__bf16S512_32S_bf16S16_512S_Pfp32__(3,)cconstexpr_0_"(%data: tensor<512x32xbf16> loc("data"(#loc187)), %Q: tensor<16x512xbf16> loc("Q"(#loc187)), %tensor_scale: !tt.ptr<f32> loc("tensor_scale"(#loc187))) -> tensor<512x32xbf16> attributes {noinline = false} {
    tt.return %data : tensor<512x32xbf16> loc(#loc188)
  ^bb1:  // no predecessors
    %0 = ub.poison : tensor<512x32xbf16> loc(#loc189)
    tt.return %0 : tensor<512x32xbf16> loc(#loc189)
  } loc(#loc187)
  tt.func private @"vllm.v1.attention.ops.triton_unified_attention._cast_kv_tile__bf16S32_512S_bf16S16_512S_Pfp32__(3,)cconstexpr_0_"(%data: tensor<32x512xbf16> loc("data"(#loc187)), %Q: tensor<16x512xbf16> loc("Q"(#loc187)), %tensor_scale: !tt.ptr<f32> loc("tensor_scale"(#loc187))) -> tensor<32x512xbf16> attributes {noinline = false} {
    tt.return %data : tensor<32x512xbf16> loc(#loc188)
  ^bb1:  // no predecessors
    %0 = ub.poison : tensor<32x512xbf16> loc(#loc189)
    tt.return %0 : tensor<32x512xbf16> loc(#loc189)
  } loc(#loc187)
  tt.func private @"vllm.v1.attention.ops.triton_attention_helpers.compute_kv_seq_mask__i32S16_1S_i32S32S_i32__(3,)cconstexpr_None__(4,)cconstexpr_0__(5,)cconstexpr_False__(6,)cconstexpr_0__(7,)cconstexpr_-1__(8,)cconstexpr_-1_"(%query_abs_pos: tensor<16x1xi32> loc("query_abs_pos"(#loc190)), %seq_offset: tensor<32xi32> loc("seq_offset"(#loc190)), %seq_idx: i32 loc("seq_idx"(#loc190))) -> tensor<16x32xi1> attributes {noinline = false} {
    %seq_mask = tt.expand_dims %seq_offset {axis = 0 : i32} : tensor<32xi32> -> tensor<1x32xi32> loc(#loc430)
    %seq_mask_0 = tt.broadcast %seq_mask : tensor<1x32xi32> -> tensor<16x32xi32> loc(#loc431)
    %seq_mask_1 = tt.broadcast %query_abs_pos : tensor<16x1xi32> -> tensor<16x32xi32> loc(#loc431)
    %seq_mask_2 = arith.cmpi sle, %seq_mask_0, %seq_mask_1 : tensor<16x32xi32> loc(#loc431)
    tt.return %seq_mask_2 : tensor<16x32xi1> loc(#loc193)
  ^bb1:  // no predecessors
    %0 = ub.poison : tensor<16x32xi1> loc(#loc194)
    tt.return %0 : tensor<16x32xi1> loc(#loc194)
  } loc(#loc190)
  tt.func private @"triton.language.standard.zeros____(0, 0)cconstexpr_16__(0, 1)cconstexpr_32__(1,)cconstexpr_fp32_"() -> tensor<16x32xf32> attributes {noinline = false} {
    %cst = arith.constant 0.000000e+00 : f32 loc(#loc168)
    %cst_0 = arith.constant dense<0.000000e+00> : tensor<16x32xf32> loc(#loc168)
    tt.return %cst_0 : tensor<16x32xf32> loc(#loc169)
  ^bb1:  // no predecessors
    %0 = ub.poison : tensor<16x32xf32> loc(#loc170)
    tt.return %0 : tensor<16x32xf32> loc(#loc170)
  } loc(#loc167)
  tt.func private @vllm.v1.attention.ops.triton_attention_helpers.softmax_step__fp32S16_32S_fp32S16S_fp32S16S__(%S: tensor<16x32xf32> loc("S"(#loc195)), %M: tensor<16xf32> loc("M"(#loc195)), %L: tensor<16xf32> loc("L"(#loc195))) -> (tensor<16xf32>, tensor<16xf32>, tensor<16x32xf32>, tensor<16xf32>) attributes {noinline = false} {
    %m_j = tt.call @"triton.language.standard.max__fp32S16_32S__(1,)cconstexpr_1__(2,)cconstexpr_False__(3,)cconstexpr_True__(4,)cconstexpr_False_"(%S) : (tensor<16x32xf32>) -> tensor<16xf32> loc(#loc435)
    %m_j_0 = arith.maxnumf %M, %m_j : tensor<16xf32> loc(#loc436)
    %m_j_1 = arith.constant 0xFF800000 : f32 loc(#loc437)
    %m_j_2 = arith.constant dense<0xFF800000> : tensor<16xf32> loc(#loc437)
    %m_j_3 = arith.cmpf ogt, %m_j_0, %m_j_2 : tensor<16xf32> loc(#loc437)
    %m_j_4 = arith.constant 0.000000e+00 : f32 loc(#loc438)
    %m_j_5 = arith.constant 0.000000e+00 : f32 loc(#loc438)
    %m_j_6 = arith.constant dense<0.000000e+00> : tensor<16xf32> loc(#loc438)
    %m_j_7 = arith.select %m_j_3, %m_j_0, %m_j_6 : tensor<16xi1>, tensor<16xf32> loc(#loc438)
    %P = tt.expand_dims %m_j_7 {axis = 1 : i32} : tensor<16xf32> -> tensor<16x1xf32> loc(#loc439)
    %P_8 = tt.broadcast %P : tensor<16x1xf32> -> tensor<16x32xf32> loc(#loc440)
    %P_9 = arith.subf %S, %P_8 : tensor<16x32xf32> loc(#loc440)
    %P_10 = math.exp %P_9 : tensor<16x32xf32> loc(#loc441)
    %l_j = tt.call @"triton.language.standard.sum__fp32S16_32S__(1,)cconstexpr_1__(2,)cconstexpr_False__(3,)cNone"(%P_10) : (tensor<16x32xf32>) -> tensor<16xf32> loc(#loc442)
    %alpha = arith.subf %M, %m_j_7 : tensor<16xf32> loc(#loc443)
    %alpha_11 = math.exp %alpha : tensor<16xf32> loc(#loc444)
    %L_new = arith.mulf %L, %alpha_11 : tensor<16xf32> loc(#loc445)
    %L_new_12 = arith.addf %L_new, %l_j : tensor<16xf32> loc(#loc446)
    tt.return %m_j_7, %L_new_12, %P_10, %alpha_11 : tensor<16xf32>, tensor<16xf32>, tensor<16x32xf32>, tensor<16xf32> loc(#loc208)
  ^bb1:  // no predecessors
    %0 = ub.poison : tensor<16xf32> loc(#loc209)
    %1 = ub.poison : tensor<16xf32> loc(#loc209)
    %2 = ub.poison : tensor<16x32xf32> loc(#loc209)
    %3 = ub.poison : tensor<16xf32> loc(#loc209)
    tt.return %0, %1, %2, %3 : tensor<16xf32>, tensor<16xf32>, tensor<16x32xf32>, tensor<16xf32> loc(#loc209)
  } loc(#loc195)
  tt.func private @"triton.language.standard.max__fp32S16_32S__(1,)cconstexpr_1__(2,)cconstexpr_False__(3,)cconstexpr_True__(4,)cconstexpr_False_"(%input: tensor<16x32xf32> loc("input"(#loc210))) -> tensor<16xf32> attributes {noinline = false} {
    %0 = "tt.reduce"(%input) <{axis = 1 : i32}> ({
    ^bb0(%arg1: f32 loc(unknown), %arg2: f32 loc(unknown)):
      %2 = tt.call @triton.language.standard._elementwise_max__fp32_fp32__(%arg1, %arg2) : (f32, f32) -> f32 loc(#loc211)
      tt.reduce.return %2 : f32 loc(#loc211)
    }) : (tensor<16x32xf32>) -> tensor<16xf32> loc(#loc211)
    tt.return %0 : tensor<16xf32> loc(#loc213)
  ^bb1:  // no predecessors
    %1 = ub.poison : tensor<16xf32> loc(#loc214)
    tt.return %1 : tensor<16xf32> loc(#loc214)
  } loc(#loc210)
  tt.func private @triton.language.standard._elementwise_max__fp32_fp32__(%a: f32 loc("a"(#loc215)), %b: f32 loc("b"(#loc215))) -> f32 attributes {noinline = false} {
    %0 = arith.maxnumf %a, %b : f32 loc(#loc216)
    tt.return %0 : f32 loc(#loc217)
  ^bb1:  // no predecessors
    %1 = ub.poison : f32 loc(#loc218)
    tt.return %1 : f32 loc(#loc218)
  } loc(#loc215)
  tt.func private @"triton.language.standard.sum__fp32S16_32S__(1,)cconstexpr_1__(2,)cconstexpr_False__(3,)cNone"(%input: tensor<16x32xf32> loc("input"(#loc219))) -> tensor<16xf32> attributes {noinline = false} {
    %0 = "tt.reduce"(%input) <{axis = 1 : i32}> ({
    ^bb0(%arg1: f32 loc(unknown), %arg2: f32 loc(unknown)):
      %2 = tt.call @triton.language.standard._sum_combine__fp32_fp32__(%arg1, %arg2) : (f32, f32) -> f32 loc(#loc220)
      tt.reduce.return %2 : f32 loc(#loc220)
    }) : (tensor<16x32xf32>) -> tensor<16xf32> loc(#loc220)
    tt.return %0 : tensor<16xf32> loc(#loc221)
  ^bb1:  // no predecessors
    %1 = ub.poison : tensor<16xf32> loc(#loc222)
    tt.return %1 : tensor<16xf32> loc(#loc222)
  } loc(#loc219)
  tt.func private @triton.language.standard._sum_combine__fp32_fp32__(%a: f32 loc("a"(#loc223)), %b: f32 loc("b"(#loc223))) -> f32 attributes {noinline = false} {
    %0 = arith.addf %a, %b : f32 loc(#loc224)
    tt.return %0 : f32 loc(#loc225)
  ^bb1:  // no predecessors
    %1 = ub.poison : f32 loc(#loc226)
    tt.return %1 : f32 loc(#loc226)
  } loc(#loc223)
} loc(#loc)
#loc1 = loc("/home/ericbuehler/vllm/.venv-bench/lib/python3.12/site-packages/vllm/v1/attention/ops/triton_unified_attention.py":146:39)
#loc2 = loc("/home/ericbuehler/vllm/.venv-bench/lib/python3.12/site-packages/vllm/v1/attention/ops/triton_unified_attention.py":147:32)
#loc3 = loc("/home/ericbuehler/vllm/.venv-bench/lib/python3.12/site-packages/vllm/v1/attention/ops/triton_unified_attention.py":148:15)
#loc4 = loc("/home/ericbuehler/vllm/.venv-bench/lib/python3.12/site-packages/vllm/v1/attention/ops/triton_unified_attention.py":157:73)
#loc5 = loc("/home/ericbuehler/vllm/.venv-bench/lib/python3.12/site-packages/vllm/v1/attention/ops/triton_unified_attention.py":160:27)
#loc6 = loc("/home/ericbuehler/vllm/.venv-bench/lib/python3.12/site-packages/vllm/v1/attention/ops/triton_unified_attention.py":160:38)
#loc7 = loc("/home/ericbuehler/vllm/.venv-bench/lib/python3.12/site-packages/vllm/v1/attention/ops/triton_unified_attention.py":161:8)
#loc8 = loc("/home/ericbuehler/vllm/.venv-bench/lib/python3.12/site-packages/vllm/v1/attention/ops/triton_unified_attention.py":168:28)
#loc9 = loc("/home/ericbuehler/vllm/.venv-bench/lib/python3.12/site-packages/vllm/v1/attention/ops/triton_unified_attention.py":170:26)
#loc10 = loc("/home/ericbuehler/vllm/.venv-bench/lib/python3.12/site-packages/vllm/v1/attention/ops/triton_unified_attention.py":171:26)
#loc11 = loc("/home/ericbuehler/vllm/.venv-bench/lib/python3.12/site-packages/vllm/v1/attention/ops/triton_unified_attention.py":172:26)
#loc12 = loc("/home/ericbuehler/vllm/.venv-bench/lib/python3.12/site-packages/vllm/v1/attention/ops/triton_unified_attention.py":173:36)
#loc13 = loc("/home/ericbuehler/vllm/.venv-bench/lib/python3.12/site-packages/vllm/v1/attention/ops/triton_unified_attention.py":173:56)
#loc14 = loc("/home/ericbuehler/vllm/.venv-bench/lib/python3.12/site-packages/vllm/v1/attention/ops/triton_unified_attention.py":173:46)
#loc15 = loc("/home/ericbuehler/vllm/.venv-bench/lib/python3.12/site-packages/vllm/v1/attention/ops/triton_unified_attention.py":175:52)
#loc16 = loc("/home/ericbuehler/vllm/.venv-bench/lib/python3.12/site-packages/vllm/v1/attention/ops/triton_unified_attention.py":176:35)
#loc17 = loc("/home/ericbuehler/vllm/.venv-bench/lib/python3.12/site-packages/vllm/v1/attention/ops/triton_unified_attention.py":176:65)
#loc18 = loc("/home/ericbuehler/vllm/.venv-bench/lib/python3.12/site-packages/vllm/v1/attention/ops/triton_unified_attention.py":176:56)
#loc19 = loc("/home/ericbuehler/vllm/.venv-bench/lib/python3.12/site-packages/vllm/v1/attention/ops/triton_unified_attention.py":178:23)
#loc20 = loc("/home/ericbuehler/vllm/.venv-bench/lib/python3.12/site-packages/vllm/v1/attention/ops/triton_unified_attention.py":178:34)
#loc21 = loc("/home/ericbuehler/vllm/.venv-bench/lib/python3.12/site-packages/vllm/v1/attention/ops/triton_unified_attention.py":179:25)
#loc22 = loc("/home/ericbuehler/vllm/.venv-bench/lib/python3.12/site-packages/vllm/v1/attention/ops/triton_unified_attention.py":179:36)
#loc23 = loc("/home/ericbuehler/vllm/.venv-bench/lib/python3.12/site-packages/vllm/v1/attention/ops/triton_unified_attention.py":179:10)
#loc24 = loc("/home/ericbuehler/vllm/.venv-bench/lib/python3.12/site-packages/vllm/v1/attention/ops/triton_unified_attention.py":180:17)
#loc25 = loc("/home/ericbuehler/vllm/.venv-bench/lib/python3.12/site-packages/vllm/v1/attention/ops/triton_unified_attention.py":180:10)
#loc26 = loc("/home/ericbuehler/vllm/.venv-bench/lib/python3.12/site-packages/vllm/v1/attention/ops/triton_unified_attention.py":183:33)
#loc27 = loc("/home/ericbuehler/vllm/.venv-bench/lib/python3.12/site-packages/vllm/v1/attention/ops/triton_unified_attention.py":183:47)
#loc28 = loc("/home/ericbuehler/vllm/.venv-bench/lib/python3.12/site-packages/vllm/v1/attention/ops/triton_unified_attention.py":183:53)
#loc29 = loc("/home/ericbuehler/vllm/.venv-bench/lib/python3.12/site-packages/vllm/v1/attention/ops/triton_unified_attention.py":184:40)
#loc30 = loc("/home/ericbuehler/vllm/.venv-bench/lib/python3.12/site-packages/vllm/v1/attention/ops/triton_unified_attention.py":184:64)
#loc31 = loc("/home/ericbuehler/vllm/.venv-bench/lib/python3.12/site-packages/vllm/v1/attention/ops/triton_unified_attention.py":184:70)
#loc32 = loc("/home/ericbuehler/vllm/.venv-bench/lib/python3.12/site-packages/vllm/v1/attention/ops/triton_unified_attention.py":185:45)
#loc33 = loc("/home/ericbuehler/vllm/.venv-bench/lib/python3.12/site-packages/vllm/v1/attention/ops/triton_unified_attention.py":185:65)
#loc34 = loc("/home/ericbuehler/vllm/.venv-bench/lib/python3.12/site-packages/vllm/v1/attention/ops/triton_unified_attention.py":185:71)
#loc35 = loc("/home/ericbuehler/vllm/.venv-bench/lib/python3.12/site-packages/vllm/v1/attention/ops/triton_unified_attention.py":190:22)
#loc36 = loc("/home/ericbuehler/vllm/.venv-bench/lib/python3.12/site-packages/vllm/v1/attention/ops/triton_unified_attention.py":190:46)
#loc37 = loc("/home/ericbuehler/vllm/.venv-bench/lib/python3.12/site-packages/vllm/v1/attention/ops/triton_unified_attention.py":190:33)
#loc38 = loc("/home/ericbuehler/vllm/.venv-bench/lib/python3.12/site-packages/vllm/v1/attention/ops/triton_unified_attention.py":190:70)
#loc39 = loc("/home/ericbuehler/vllm/.venv-bench/lib/python3.12/site-packages/vllm/v1/attention/ops/triton_unified_attention.py":190:57)
#loc40 = loc("/home/ericbuehler/vllm/.venv-bench/lib/python3.12/site-packages/vllm/v1/attention/ops/triton_unified_attention.py":189:20)
#loc41 = loc("/home/ericbuehler/vllm/.venv-bench/lib/python3.12/site-packages/vllm/v1/attention/ops/triton_unified_attention.py":189:8)
#loc42 = loc("/home/ericbuehler/vllm/.venv-bench/lib/python3.12/site-packages/vllm/v1/attention/ops/triton_unified_attention.py":194:35)
#loc43 = loc("/home/ericbuehler/vllm/.venv-bench/lib/python3.12/site-packages/vllm/v1/attention/ops/triton_unified_attention.py":197:78)
#loc44 = loc("/home/ericbuehler/vllm/.venv-bench/lib/python3.12/site-packages/vllm/v1/attention/ops/triton_unified_attention.py":199:27)
#loc45 = loc("/home/ericbuehler/vllm/.venv-bench/lib/python3.12/site-packages/vllm/v1/attention/ops/triton_unified_attention.py":201:19)
#loc46 = loc("/home/ericbuehler/vllm/.venv-bench/lib/python3.12/site-packages/vllm/v1/attention/ops/triton_unified_attention.py":203:28)
#loc47 = loc("/home/ericbuehler/vllm/.venv-bench/lib/python3.12/site-packages/vllm/v1/attention/ops/triton_unified_attention.py":228:8)
#loc48 = loc("/home/ericbuehler/vllm/.venv-bench/lib/python3.12/site-packages/vllm/v1/attention/ops/triton_unified_attention.py":232:28)
#loc49 = loc("/home/ericbuehler/vllm/.venv-bench/lib/python3.12/site-packages/vllm/v1/attention/ops/triton_unified_attention.py":233:25)
#loc50 = loc("/home/ericbuehler/vllm/.venv-bench/lib/python3.12/site-packages/vllm/v1/attention/ops/triton_unified_attention.py":233:37)
#loc51 = loc("/home/ericbuehler/vllm/.venv-bench/lib/python3.12/site-packages/vllm/v1/attention/ops/triton_unified_attention.py":234:33)
#loc52 = loc("/home/ericbuehler/vllm/.venv-bench/lib/python3.12/site-packages/vllm/v1/attention/ops/triton_unified_attention.py":237:31)
#loc53 = loc("/home/ericbuehler/vllm/.venv-bench/lib/python3.12/site-packages/vllm/v1/attention/ops/triton_unified_attention.py":237:66)
#loc54 = loc("/home/ericbuehler/vllm/.venv-bench/lib/python3.12/site-packages/vllm/v1/attention/ops/triton_unified_attention.py":237:52)
#loc55 = loc("/home/ericbuehler/vllm/.venv-bench/lib/python3.12/site-packages/vllm/v1/attention/ops/triton_unified_attention.py":237:12)
#loc56 = loc("/home/ericbuehler/vllm/.venv-bench/lib/python3.12/site-packages/vllm/v1/attention/ops/triton_unified_attention.py":238:13)
#loc57 = loc("/home/ericbuehler/vllm/.venv-bench/lib/python3.12/site-packages/vllm/v1/attention/ops/triton_unified_attention.py":241:31)
#loc58 = loc("/home/ericbuehler/vllm/.venv-bench/lib/python3.12/site-packages/vllm/v1/attention/ops/triton_unified_attention.py":241:42)
#loc59 = loc("/home/ericbuehler/vllm/.venv-bench/lib/python3.12/site-packages/vllm/v1/attention/ops/triton_unified_attention.py":242:28)
#loc60 = loc("/home/ericbuehler/vllm/.venv-bench/lib/python3.12/site-packages/vllm/v1/attention/ops/triton_unified_attention.py":242:14)
#loc61 = loc("/home/ericbuehler/vllm/.venv-bench/lib/python3.12/site-packages/vllm/v1/attention/ops/triton_unified_attention.py":243:21)
#loc62 = loc("/home/ericbuehler/vllm/.venv-bench/lib/python3.12/site-packages/vllm/v1/attention/ops/triton_unified_attention.py":243:32)
#loc63 = loc("/home/ericbuehler/vllm/.venv-bench/lib/python3.12/site-packages/vllm/v1/attention/ops/triton_unified_attention.py":243:14)
#loc64 = loc("/home/ericbuehler/vllm/.venv-bench/lib/python3.12/site-packages/vllm/v1/attention/ops/triton_unified_attention.py":244:28)
#loc65 = loc("/home/ericbuehler/vllm/.venv-bench/lib/python3.12/site-packages/vllm/v1/attention/ops/triton_unified_attention.py":244:40)
#loc66 = loc("/home/ericbuehler/vllm/.venv-bench/lib/python3.12/site-packages/vllm/v1/attention/ops/triton_unified_attention.py":244:51)
#loc67 = loc("/home/ericbuehler/vllm/.venv-bench/lib/python3.12/site-packages/vllm/v1/attention/ops/triton_unified_attention.py":244:14)
#loc68 = loc("/home/ericbuehler/vllm/.venv-bench/lib/python3.12/site-packages/vllm/v1/attention/ops/triton_unified_attention.py":247:31)
#loc69 = loc("/home/ericbuehler/vllm/.venv-bench/lib/python3.12/site-packages/vllm/v1/attention/ops/triton_unified_attention.py":247:42)
#loc70 = loc("/home/ericbuehler/vllm/.venv-bench/lib/python3.12/site-packages/vllm/v1/attention/ops/triton_unified_attention.py":248:28)
#loc71 = loc("/home/ericbuehler/vllm/.venv-bench/lib/python3.12/site-packages/vllm/v1/attention/ops/triton_unified_attention.py":248:14)
#loc72 = loc("/home/ericbuehler/vllm/.venv-bench/lib/python3.12/site-packages/vllm/v1/attention/ops/triton_unified_attention.py":249:21)
#loc73 = loc("/home/ericbuehler/vllm/.venv-bench/lib/python3.12/site-packages/vllm/v1/attention/ops/triton_unified_attention.py":249:32)
#loc74 = loc("/home/ericbuehler/vllm/.venv-bench/lib/python3.12/site-packages/vllm/v1/attention/ops/triton_unified_attention.py":249:14)
#loc75 = loc("/home/ericbuehler/vllm/.venv-bench/lib/python3.12/site-packages/vllm/v1/attention/ops/triton_unified_attention.py":250:28)
#loc76 = loc("/home/ericbuehler/vllm/.venv-bench/lib/python3.12/site-packages/vllm/v1/attention/ops/triton_unified_attention.py":250:40)
#loc77 = loc("/home/ericbuehler/vllm/.venv-bench/lib/python3.12/site-packages/vllm/v1/attention/ops/triton_unified_attention.py":250:51)
#loc78 = loc("/home/ericbuehler/vllm/.venv-bench/lib/python3.12/site-packages/vllm/v1/attention/ops/triton_unified_attention.py":250:14)
#loc79 = loc("/home/ericbuehler/vllm/.venv-bench/lib/python3.12/site-packages/vllm/v1/attention/ops/triton_unified_attention.py":255:26)
#loc80 = loc("/home/ericbuehler/vllm/.venv-bench/lib/python3.12/site-packages/vllm/v1/attention/ops/triton_unified_attention.py":255:47)
#loc81 = loc("/home/ericbuehler/vllm/.venv-bench/lib/python3.12/site-packages/vllm/v1/attention/ops/triton_unified_attention.py":255:37)
#loc82 = loc("/home/ericbuehler/vllm/.venv-bench/lib/python3.12/site-packages/vllm/v1/attention/ops/triton_unified_attention.py":254:28)
#loc83 = loc("/home/ericbuehler/vllm/.venv-bench/lib/python3.12/site-packages/vllm/v1/attention/ops/triton_unified_attention.py":254:12)
#loc84 = loc("/home/ericbuehler/vllm/.venv-bench/lib/python3.12/site-packages/vllm/v1/attention/ops/triton_unified_attention.py":258:46)
#loc85 = loc("/home/ericbuehler/vllm/.venv-bench/lib/python3.12/site-packages/vllm/v1/attention/ops/triton_unified_attention.py":262:26)
#loc86 = loc("/home/ericbuehler/vllm/.venv-bench/lib/python3.12/site-packages/vllm/v1/attention/ops/triton_unified_attention.py":262:47)
#loc87 = loc("/home/ericbuehler/vllm/.venv-bench/lib/python3.12/site-packages/vllm/v1/attention/ops/triton_unified_attention.py":262:37)
#loc88 = loc("/home/ericbuehler/vllm/.venv-bench/lib/python3.12/site-packages/vllm/v1/attention/ops/triton_unified_attention.py":261:30)
#loc89 = loc("/home/ericbuehler/vllm/.venv-bench/lib/python3.12/site-packages/vllm/v1/attention/ops/triton_unified_attention.py":261:12)
#loc90 = loc("/home/ericbuehler/vllm/.venv-bench/lib/python3.12/site-packages/vllm/v1/attention/ops/triton_unified_attention.py":265:46)
#loc91 = loc("/home/ericbuehler/vllm/.venv-bench/lib/python3.12/site-packages/vllm/v1/attention/ops/triton_unified_attention.py":286:48)
#loc92 = loc("/home/ericbuehler/vllm/.venv-bench/lib/python3.12/site-packages/vllm/v1/attention/ops/triton_unified_attention.py":286:38)
#loc93 = loc("/home/ericbuehler/vllm/.venv-bench/lib/python3.12/site-packages/vllm/v1/attention/ops/triton_unified_attention.py":296:12)
#loc94 = loc("/home/ericbuehler/vllm/.venv-bench/lib/python3.12/site-packages/vllm/v1/attention/ops/triton_unified_attention.py":300:49)
#loc95 = loc("/home/ericbuehler/vllm/.venv-bench/lib/python3.12/site-packages/vllm/v1/attention/ops/triton_unified_attention.py":306:35)
#loc96 = loc("/home/ericbuehler/vllm/.venv-bench/lib/python3.12/site-packages/vllm/v1/attention/ops/triton_unified_attention.py":306:25)
#loc97 = loc("/home/ericbuehler/vllm/.venv-bench/lib/python3.12/site-packages/vllm/v1/attention/ops/triton_unified_attention.py":306:17)
#loc98 = loc("/home/ericbuehler/vllm/.venv-bench/lib/python3.12/site-packages/vllm/v1/attention/ops/triton_unified_attention.py":312:25)
#loc99 = loc("/home/ericbuehler/vllm/.venv-bench/lib/python3.12/site-packages/vllm/v1/attention/ops/triton_unified_attention.py":312:49)
#loc100 = loc("/home/ericbuehler/vllm/.venv-bench/lib/python3.12/site-packages/vllm/v1/attention/ops/triton_unified_attention.py":312:36)
#loc101 = loc("/home/ericbuehler/vllm/.venv-bench/lib/python3.12/site-packages/vllm/v1/attention/ops/triton_unified_attention.py":312:60)
#loc102 = loc("/home/ericbuehler/vllm/.venv-bench/lib/python3.12/site-packages/vllm/v1/attention/ops/triton_unified_attention.py":312:73)
#loc103 = loc("/home/ericbuehler/vllm/.venv-bench/lib/python3.12/site-packages/vllm/v1/attention/ops/triton_unified_attention.py":325:44)
#loc104 = loc("/home/ericbuehler/vllm/.venv-bench/lib/python3.12/site-packages/vllm/v1/attention/ops/triton_unified_attention.py":326:26)
#loc105 = loc("/home/ericbuehler/vllm/.venv-bench/lib/python3.12/site-packages/vllm/v1/attention/ops/triton_unified_attention.py":326:20)
#loc106 = loc("/home/ericbuehler/vllm/.venv-bench/lib/python3.12/site-packages/vllm/v1/attention/ops/triton_unified_attention.py":340:31)
#loc107 = loc("/home/ericbuehler/vllm/.venv-bench/lib/python3.12/site-packages/vllm/v1/attention/ops/triton_unified_attention.py":340:41)
#loc108 = loc("/home/ericbuehler/vllm/.venv-bench/lib/python3.12/site-packages/vllm/v1/attention/ops/triton_unified_attention.py":340:19)
#loc109 = loc("/home/ericbuehler/vllm/.venv-bench/lib/python3.12/site-packages/vllm/v1/attention/ops/triton_unified_attention.py":335:8)
#loc110 = loc("/home/ericbuehler/vllm/.venv-bench/lib/python3.12/site-packages/vllm/v1/attention/ops/triton_unified_attention.py":371:22)
#loc111 = loc("/home/ericbuehler/vllm/.venv-bench/lib/python3.12/site-packages/vllm/v1/attention/ops/triton_unified_attention.py":371:20)
#loc112 = loc("/home/ericbuehler/vllm/.venv-bench/lib/python3.12/site-packages/vllm/v1/attention/ops/triton_unified_attention.py":376:27)
#loc113 = loc("/home/ericbuehler/vllm/.venv-bench/lib/python3.12/site-packages/vllm/v1/attention/ops/triton_unified_attention.py":376:38)
#loc114 = loc("/home/ericbuehler/vllm/.venv-bench/lib/python3.12/site-packages/vllm/v1/attention/ops/triton_unified_attention.py":377:29)
#loc115 = loc("/home/ericbuehler/vllm/.venv-bench/lib/python3.12/site-packages/vllm/v1/attention/ops/triton_unified_attention.py":377:40)
#loc116 = loc("/home/ericbuehler/vllm/.venv-bench/lib/python3.12/site-packages/vllm/v1/attention/ops/triton_unified_attention.py":377:14)
#loc117 = loc("/home/ericbuehler/vllm/.venv-bench/lib/python3.12/site-packages/vllm/v1/attention/ops/triton_unified_attention.py":378:21)
#loc118 = loc("/home/ericbuehler/vllm/.venv-bench/lib/python3.12/site-packages/vllm/v1/attention/ops/triton_unified_attention.py":378:14)
#loc119 = loc("/home/ericbuehler/vllm/.venv-bench/lib/python3.12/site-packages/vllm/v1/attention/ops/triton_unified_attention.py":383:26)
#loc120 = loc("/home/ericbuehler/vllm/.venv-bench/lib/python3.12/site-packages/vllm/v1/attention/ops/triton_unified_attention.py":383:50)
#loc121 = loc("/home/ericbuehler/vllm/.venv-bench/lib/python3.12/site-packages/vllm/v1/attention/ops/triton_unified_attention.py":383:37)
#loc122 = loc("/home/ericbuehler/vllm/.venv-bench/lib/python3.12/site-packages/vllm/v1/attention/ops/triton_unified_attention.py":383:74)
#loc123 = loc("/home/ericbuehler/vllm/.venv-bench/lib/python3.12/site-packages/vllm/v1/attention/ops/triton_unified_attention.py":383:61)
#loc124 = loc("/home/ericbuehler/vllm/.venv-bench/lib/python3.12/site-packages/vllm/v1/attention/ops/triton_unified_attention.py":381:25)
#loc125 = loc("/home/ericbuehler/vllm/.venv-bench/lib/python3.12/site-packages/vllm/v1/attention/ops/triton_unified_attention.py":382:12)
#loc126 = loc("/home/ericbuehler/vllm/.venv-bench/lib/python3.12/site-packages/vllm/v1/attention/ops/triton_unified_attention.py":343:4)
#loc128 = loc("/home/ericbuehler/vllm/.venv-bench/lib/python3.12/site-packages/vllm/v1/attention/ops/triton_attention_helpers.py":67:68)
#loc129 = loc("/home/ericbuehler/vllm/.venv-bench/lib/python3.12/site-packages/vllm/v1/attention/ops/triton_attention_helpers.py":69:54)
#loc130 = loc("/home/ericbuehler/vllm/.venv-bench/lib/python3.12/site-packages/vllm/v1/attention/ops/triton_attention_helpers.py":69:32)
#loc131 = loc("/home/ericbuehler/vllm/.venv-bench/lib/python3.12/site-packages/vllm/v1/attention/ops/triton_attention_helpers.py":69:66)
#loc132 = loc("/home/ericbuehler/vllm/.venv-bench/lib/python3.12/site-packages/vllm/v1/attention/ops/triton_attention_helpers.py":69:76)
#loc133 = loc("/home/ericbuehler/vllm/.venv-bench/lib/python3.12/site-packages/vllm/v1/attention/ops/triton_attention_helpers.py":70:45)
#loc134 = loc("/home/ericbuehler/vllm/.venv-bench/lib/python3.12/site-packages/vllm/v1/attention/ops/triton_attention_helpers.py":71:46)
#loc135 = loc("/home/ericbuehler/vllm/.venv-bench/lib/python3.12/site-packages/vllm/v1/attention/ops/triton_attention_helpers.py":71:24)
#loc136 = loc("/home/ericbuehler/vllm/.venv-bench/lib/python3.12/site-packages/vllm/v1/attention/ops/triton_attention_helpers.py":72:45)
#loc137 = loc("/home/ericbuehler/vllm/.venv-bench/lib/python3.12/site-packages/vllm/v1/attention/ops/triton_attention_helpers.py":72:55)
#loc138 = loc("/home/ericbuehler/vllm/.venv-bench/lib/python3.12/site-packages/vllm/v1/attention/ops/triton_attention_helpers.py":72:23)
#loc139 = loc("/home/ericbuehler/vllm/.venv-bench/lib/python3.12/site-packages/vllm/v1/attention/ops/triton_attention_helpers.py":73:37)
#loc140 = loc("/home/ericbuehler/vllm/.venv-bench/lib/python3.12/site-packages/vllm/v1/attention/ops/triton_attention_helpers.py":74:37)
#loc141 = loc("/home/ericbuehler/vllm/.venv-bench/lib/python3.12/site-packages/vllm/v1/attention/ops/triton_attention_helpers.py":74:22)
#loc142 = loc("/home/ericbuehler/vllm/.venv-bench/lib/python3.12/site-packages/vllm/v1/attention/ops/triton_attention_helpers.py":75:11)
#loc143 = loc("/home/ericbuehler/vllm/.venv-bench/lib/python3.12/site-packages/vllm/v1/attention/ops/triton_attention_helpers.py":75:4)
#loc145 = loc("/home/ericbuehler/vllm/.venv-bench/lib/python3.12/site-packages/vllm/v1/attention/ops/triton_attention_helpers.py":94:21)
#loc146 = loc("/home/ericbuehler/vllm/.venv-bench/lib/python3.12/site-packages/vllm/v1/attention/ops/triton_attention_helpers.py":96:4)
#loc147 = loc("/home/ericbuehler/vllm/.venv-bench/lib/python3.12/site-packages/vllm/v1/attention/ops/triton_attention_helpers.py":96:17)
#loc150 = loc("/home/ericbuehler/vllm/.venv-bench/lib/python3.12/site-packages/vllm/v1/attention/ops/triton_attention_helpers.py":97:22)
#loc151 = loc("/home/ericbuehler/vllm/.venv-bench/lib/python3.12/site-packages/vllm/v1/attention/ops/triton_attention_helpers.py":97:32)
#loc152 = loc("/home/ericbuehler/vllm/.venv-bench/lib/python3.12/site-packages/vllm/v1/attention/ops/triton_attention_helpers.py":98:44)
#loc153 = loc("/home/ericbuehler/vllm/.venv-bench/lib/python3.12/site-packages/vllm/v1/attention/ops/triton_attention_helpers.py":98:22)
#loc154 = loc("/home/ericbuehler/vllm/.venv-bench/lib/python3.12/site-packages/vllm/v1/attention/ops/triton_attention_helpers.py":99:25)
#loc155 = loc("/home/ericbuehler/vllm/.venv-bench/lib/python3.12/site-packages/vllm/v1/attention/ops/triton_attention_helpers.py":99:35)
#loc156 = loc("/home/ericbuehler/vllm/.venv-bench/lib/python3.12/site-packages/vllm/v1/attention/ops/triton_attention_helpers.py":101:22)
#loc157 = loc("/home/ericbuehler/vllm/.venv-bench/lib/python3.12/site-packages/vllm/v1/attention/ops/triton_attention_helpers.py":101:11)
#loc158 = loc("/home/ericbuehler/vllm/.venv-bench/lib/python3.12/site-packages/vllm/v1/attention/ops/triton_attention_helpers.py":102:25)
#loc159 = loc("/home/ericbuehler/vllm/.venv-bench/lib/python3.12/site-packages/vllm/v1/attention/ops/triton_attention_helpers.py":101:8)
#loc160 = loc("/home/ericbuehler/vllm/.venv-bench/lib/python3.12/site-packages/vllm/v1/attention/ops/triton_attention_helpers.py":106:18)
#loc161 = loc("/home/ericbuehler/vllm/.venv-bench/lib/python3.12/site-packages/vllm/v1/attention/ops/triton_attention_helpers.py":106:11)
#loc162 = loc("/home/ericbuehler/vllm/.venv-bench/lib/python3.12/site-packages/vllm/v1/attention/ops/triton_attention_helpers.py":106:4)
#loc164 = loc("/home/ericbuehler/vllm/.venv-bench/lib/python3.12/site-packages/vllm/v1/attention/ops/triton_attention_helpers.py":129:27)
#loc165 = loc("/home/ericbuehler/vllm/.venv-bench/lib/python3.12/site-packages/vllm/v1/attention/ops/triton_attention_helpers.py":138:11)
#loc166 = loc("/home/ericbuehler/vllm/.venv-bench/lib/python3.12/site-packages/vllm/v1/attention/ops/triton_attention_helpers.py":138:4)
#loc167 = loc("/home/ericbuehler/vllm/.venv-bench/lib/python3.12/site-packages/triton/language/standard.py":120:0)
#loc168 = loc("/home/ericbuehler/vllm/.venv-bench/lib/python3.12/site-packages/triton/language/standard.py":129:31)
#loc169 = loc("/home/ericbuehler/vllm/.venv-bench/lib/python3.12/site-packages/triton/language/standard.py":129:11)
#loc170 = loc("/home/ericbuehler/vllm/.venv-bench/lib/python3.12/site-packages/triton/language/standard.py":129:4)
#loc172 = loc("/home/ericbuehler/vllm/.venv-bench/lib/python3.12/site-packages/vllm/v1/attention/ops/triton_attention_helpers.py":178:30)
#loc173 = loc("/home/ericbuehler/vllm/.venv-bench/lib/python3.12/site-packages/vllm/v1/attention/ops/triton_attention_helpers.py":178:10)
#loc174 = loc("/home/ericbuehler/vllm/.venv-bench/lib/python3.12/site-packages/vllm/v1/attention/ops/triton_attention_helpers.py":179:10)
#loc175 = loc("/home/ericbuehler/vllm/.venv-bench/lib/python3.12/site-packages/vllm/v1/attention/ops/triton_attention_helpers.py":180:10)
#loc176 = loc("/home/ericbuehler/vllm/.venv-bench/lib/python3.12/site-packages/vllm/v1/attention/ops/triton_attention_helpers.py":187:60)
#loc177 = loc("/home/ericbuehler/vllm/.venv-bench/lib/python3.12/site-packages/vllm/v1/attention/ops/triton_attention_helpers.py":189:44)
#loc178 = loc("/home/ericbuehler/vllm/.venv-bench/lib/python3.12/site-packages/vllm/v1/attention/ops/triton_attention_helpers.py":193:17)
#loc179 = loc("/home/ericbuehler/vllm/.venv-bench/lib/python3.12/site-packages/vllm/v1/attention/ops/triton_attention_helpers.py":227:11)
#loc180 = loc("/home/ericbuehler/vllm/.venv-bench/lib/python3.12/site-packages/vllm/v1/attention/ops/triton_attention_helpers.py":227:4)
#loc182 = loc("/home/ericbuehler/vllm/.venv-bench/lib/python3.12/site-packages/vllm/v1/attention/ops/triton_attention_helpers.py":24:16)
#loc183 = loc("/home/ericbuehler/vllm/.venv-bench/lib/python3.12/site-packages/vllm/v1/attention/ops/triton_attention_helpers.py":24:20)
#loc184 = loc("/home/ericbuehler/vllm/.venv-bench/lib/python3.12/site-packages/vllm/v1/attention/ops/triton_attention_helpers.py":24:26)
#loc185 = loc("/home/ericbuehler/vllm/.venv-bench/lib/python3.12/site-packages/vllm/v1/attention/ops/triton_attention_helpers.py":24:11)
#loc186 = loc("/home/ericbuehler/vllm/.venv-bench/lib/python3.12/site-packages/vllm/v1/attention/ops/triton_attention_helpers.py":24:4)
#loc188 = loc("/home/ericbuehler/vllm/.venv-bench/lib/python3.12/site-packages/vllm/v1/attention/ops/triton_unified_attention.py":54:11)
#loc189 = loc("/home/ericbuehler/vllm/.venv-bench/lib/python3.12/site-packages/vllm/v1/attention/ops/triton_unified_attention.py":54:4)
#loc191 = loc("/home/ericbuehler/vllm/.venv-bench/lib/python3.12/site-packages/vllm/v1/attention/ops/triton_attention_helpers.py":284:26)
#loc192 = loc("/home/ericbuehler/vllm/.venv-bench/lib/python3.12/site-packages/vllm/v1/attention/ops/triton_attention_helpers.py":284:38)
#loc193 = loc("/home/ericbuehler/vllm/.venv-bench/lib/python3.12/site-packages/vllm/v1/attention/ops/triton_attention_helpers.py":318:11)
#loc194 = loc("/home/ericbuehler/vllm/.venv-bench/lib/python3.12/site-packages/vllm/v1/attention/ops/triton_attention_helpers.py":318:4)
#loc196 = loc("/home/ericbuehler/vllm/.venv-bench/lib/python3.12/site-packages/vllm/v1/attention/ops/triton_attention_helpers.py":371:31)
#loc197 = loc("/home/ericbuehler/vllm/.venv-bench/lib/python3.12/site-packages/vllm/v1/attention/ops/triton_attention_helpers.py":371:24)
#loc198 = loc("/home/ericbuehler/vllm/.venv-bench/lib/python3.12/site-packages/vllm/v1/attention/ops/triton_attention_helpers.py":374:25)
#loc199 = loc("/home/ericbuehler/vllm/.venv-bench/lib/python3.12/site-packages/vllm/v1/attention/ops/triton_attention_helpers.py":374:45)
#loc200 = loc("/home/ericbuehler/vllm/.venv-bench/lib/python3.12/site-packages/vllm/v1/attention/ops/triton_attention_helpers.py":376:23)
#loc201 = loc("/home/ericbuehler/vllm/.venv-bench/lib/python3.12/site-packages/vllm/v1/attention/ops/triton_attention_helpers.py":376:19)
#loc202 = loc("/home/ericbuehler/vllm/.venv-bench/lib/python3.12/site-packages/vllm/v1/attention/ops/triton_attention_helpers.py":376:15)
#loc203 = loc("/home/ericbuehler/vllm/.venv-bench/lib/python3.12/site-packages/vllm/v1/attention/ops/triton_attention_helpers.py":378:17)
#loc204 = loc("/home/ericbuehler/vllm/.venv-bench/lib/python3.12/site-packages/vllm/v1/attention/ops/triton_attention_helpers.py":380:23)
#loc205 = loc("/home/ericbuehler/vllm/.venv-bench/lib/python3.12/site-packages/vllm/v1/attention/ops/triton_attention_helpers.py":380:19)
#loc206 = loc("/home/ericbuehler/vllm/.venv-bench/lib/python3.12/site-packages/vllm/v1/attention/ops/triton_attention_helpers.py":382:16)
#loc207 = loc("/home/ericbuehler/vllm/.venv-bench/lib/python3.12/site-packages/vllm/v1/attention/ops/triton_attention_helpers.py":382:24)
#loc208 = loc("/home/ericbuehler/vllm/.venv-bench/lib/python3.12/site-packages/vllm/v1/attention/ops/triton_attention_helpers.py":383:11)
#loc209 = loc("/home/ericbuehler/vllm/.venv-bench/lib/python3.12/site-packages/vllm/v1/attention/ops/triton_attention_helpers.py":383:4)
#loc211 = loc("/home/ericbuehler/vllm/.venv-bench/lib/python3.12/site-packages/triton/language/standard.py":191:40)
#loc213 = loc("/home/ericbuehler/vllm/.venv-bench/lib/python3.12/site-packages/triton/language/standard.py":191:15)
#loc214 = loc("/home/ericbuehler/vllm/.venv-bench/lib/python3.12/site-packages/triton/language/standard.py":179:4)
#loc216 = loc("/home/ericbuehler/vllm/.venv-bench/lib/python3.12/site-packages/triton/language/standard.py":170:27)
#loc217 = loc("/home/ericbuehler/vllm/.venv-bench/lib/python3.12/site-packages/triton/language/standard.py":170:11)
#loc218 = loc("/home/ericbuehler/vllm/.venv-bench/lib/python3.12/site-packages/triton/language/standard.py":170:4)
#loc220 = loc("/home/ericbuehler/vllm/.venv-bench/lib/python3.12/site-packages/triton/language/standard.py":293:36)
#loc221 = loc("/home/ericbuehler/vllm/.venv-bench/lib/python3.12/site-packages/triton/language/standard.py":293:11)
#loc222 = loc("/home/ericbuehler/vllm/.venv-bench/lib/python3.12/site-packages/triton/language/standard.py":293:4)
#loc224 = loc("/home/ericbuehler/vllm/.venv-bench/lib/python3.12/site-packages/triton/language/standard.py":263:15)
#loc225 = loc("/home/ericbuehler/vllm/.venv-bench/lib/python3.12/site-packages/triton/language/standard.py":263:11)
#loc226 = loc("/home/ericbuehler/vllm/.venv-bench/lib/python3.12/site-packages/triton/language/standard.py":263:4)
#loc263 = loc("q_block_global_idx"(#loc1))
#loc264 = loc("kv_head_idx"(#loc2))
#loc265 = loc("segm_idx"(#loc3))
#loc266 = loc("tiles_per_segment"(#loc8))
#loc267 = loc("offs_m"(#loc9))
#loc268 = loc("offs_d"(#loc10))
#loc269 = loc("offs_t"(#loc11))
#loc270 = loc("query_pos"(#loc12))
#loc271 = loc("query_pos"(#loc13))
#loc272 = loc("query_pos"(#loc14))
#loc273 = loc("query_offset_0"(#loc15))
#loc274 = loc("query_offset_1"(#loc16))
#loc275 = loc("query_offset_1"(#loc17))
#loc276 = loc("query_offset_1"(#loc18))
#loc277 = loc("query_offset"(#loc19))
#loc278 = loc("query_offset"(#loc20))
#loc279 = loc("query_offset"(#loc21))
#loc280 = loc("query_offset"(#loc22))
#loc281 = loc("query_offset"(#loc23))
#loc282 = loc("query_offset"(#loc24))
#loc283 = loc("query_offset"(#loc25))
#loc284 = loc("dim_mask"(#loc26))
#loc285 = loc("dim_mask"(#loc27))
#loc286 = loc("dim_mask"(#loc28))
#loc287 = loc("query_mask_0"(#loc29))
#loc288 = loc("query_mask_0"(#loc30))
#loc289 = loc("query_mask_0"(#loc31))
#loc290 = loc("query_mask_1"(#loc32))
#loc291 = loc("query_mask_1"(#loc33))
#loc292 = loc("query_mask_1"(#loc34))
#loc293 = loc("Q"(#loc35))
#loc294 = loc("Q"(#loc36))
#loc295 = loc("Q"(#loc37))
#loc296 = loc("Q"(#loc38))
#loc297 = loc("Q"(#loc39))
#loc298 = loc("Q"(#loc40))
#loc299 = loc("Q"(#loc41))
#loc300 = loc("block_table_offset"(#loc42))
#loc301 = loc("M"(#loc43))
#loc302 = loc("L"(#loc44))
#loc303 = loc("acc"(#loc45))
#loc304 = loc("context_len"(#loc46))
#loc305 = loc("M"(#loc48))
#loc306 = loc("seq_offset"(#loc49))
#loc307 = loc("seq_offset"(#loc50))
#loc308 = loc("tile_mask"(#loc51))
#loc309 = loc("physical_block_idx"(#loc52))
#loc310 = loc("physical_block_idx"(#loc53))
#loc311 = loc("physical_block_idx"(#loc54))
#loc312 = loc("physical_block_idx"(#loc55))
#loc313 = loc("physical_block_idx"(#loc56))
#loc314 = loc("v_offset"(#loc57))
#loc315 = loc("v_offset"(#loc58))
#loc316 = loc("v_offset"(#loc59))
#loc317 = loc("v_offset"(#loc60))
#loc318 = loc("v_offset"(#loc61))
#loc319 = loc("v_offset"(#loc62))
#loc320 = loc("v_offset"(#loc63))
#loc321 = loc("v_offset"(#loc64))
#loc322 = loc("v_offset"(#loc65))
#loc323 = loc("v_offset"(#loc66))
#loc324 = loc("v_offset"(#loc67))
#loc325 = loc("k_offset"(#loc68))
#loc326 = loc("k_offset"(#loc69))
#loc327 = loc("k_offset"(#loc70))
#loc328 = loc("k_offset"(#loc71))
#loc329 = loc("k_offset"(#loc72))
#loc330 = loc("k_offset"(#loc73))
#loc331 = loc("k_offset"(#loc74))
#loc332 = loc("k_offset"(#loc75))
#loc333 = loc("k_offset"(#loc76))
#loc334 = loc("k_offset"(#loc77))
#loc335 = loc("k_offset"(#loc78))
#loc336 = loc("K_load"(#loc79))
#loc337 = loc("K_load"(#loc80))
#loc338 = loc("K_load"(#loc81))
#loc339 = loc("K_load"(#loc82))
#loc340 = loc("K_load"(#loc83))
#loc341 = loc("K"(#loc84))
#loc342 = loc("V_load"(#loc85))
#loc343 = loc("V_load"(#loc86))
#loc344 = loc("V_load"(#loc87))
#loc345 = loc("V_load"(#loc88))
#loc346 = loc("V_load"(#loc89))
#loc347 = loc("V"(#loc90))
#loc348 = loc("query_abs_pos"(#loc91))
#loc349 = loc("query_abs_pos"(#loc92))
#loc350 = loc("seq_mask"(#loc93))
#loc351 = loc("S"(#loc94))
#loc352 = loc("S"(#loc95))
#loc353 = loc("S"(#loc96))
#loc354 = loc("S"(#loc97))
#loc355 = loc("S"(#loc98))
#loc356 = loc("S"(#loc99))
#loc357 = loc("S"(#loc100))
#loc358 = loc("S"(#loc101))
#loc359 = loc("S"(#loc102))
#loc360 = loc("acc"(#loc104))
#loc361 = loc("acc"(#loc105))
#loc362 = loc("acc"(#loc106))
#loc363 = loc("acc"(#loc107))
#loc364 = loc("acc"(#loc108))
#loc365 = loc("acc"(#loc110))
#loc366 = loc("acc"(#loc111))
#loc367 = loc("output_offset"(#loc112))
#loc368 = loc("output_offset"(#loc113))
#loc369 = loc("output_offset"(#loc114))
#loc370 = loc("output_offset"(#loc115))
#loc371 = loc("output_offset"(#loc116))
#loc372 = loc("output_offset"(#loc117))
#loc373 = loc("output_offset"(#loc118))
#loc378 = loc("seq_idx"(#loc128))
#loc379 = loc("q_block_start_idx"(#loc129))
#loc380 = loc("q_block_start_idx"(#loc130))
#loc381 = loc("q_block_start_idx"(#loc131))
#loc382 = loc("q_block_start_idx"(#loc132))
#loc383 = loc("q_block_local_idx"(#loc133))
#loc384 = loc("cur_start"(#loc134))
#loc385 = loc("cur_start"(#loc135))
#loc386 = loc("cur_stop"(#loc136))
#loc387 = loc("cur_stop"(#loc137))
#loc388 = loc("cur_stop"(#loc138))
#loc389 = loc("cur_batch_query_len"(#loc139))
#loc390 = loc("seq_len"(#loc140))
#loc391 = loc("seq_len"(#loc141))
#loc395 = loc("left"(#loc145))
#loc396 = loc("left"(#loc146))
#loc399 = loc("mid"(#loc150))
#loc400 = loc("mid"(#loc151))
#loc401 = loc("val"(#loc152))
#loc402 = loc("val"(#loc153))
#loc403 = loc("mid_val"(#loc154))
#loc404 = loc("mid_val"(#loc155))
#loc405 = loc("left"(#loc158))
#loc409 = loc("M"(#loc164))
#loc416 = loc("max_seq_prefix_len"(#loc172))
#loc417 = loc("max_seq_prefix_len"(#loc173))
#loc418 = loc("max_seq_prefix_len"(#loc174))
#loc419 = loc("max_seq_prefix_len"(#loc175))
#loc420 = loc("max_seq_prefix_len"(#loc176))
#loc421 = loc("num_tiles"(#loc177))
#loc422 = loc("tile_start"(#loc178))
#loc430 = loc("seq_mask"(#loc191))
#loc431 = loc("seq_mask"(#loc192))
#loc435 = loc("m_j"(#loc196))
#loc436 = loc("m_j"(#loc197))
#loc437 = loc("m_j"(#loc198))
#loc438 = loc("m_j"(#loc199))
#loc439 = loc("P"(#loc200))
#loc440 = loc("P"(#loc201))
#loc441 = loc("P"(#loc202))
#loc442 = loc("l_j"(#loc203))
#loc443 = loc("alpha"(#loc204))
#loc444 = loc("alpha"(#loc205))
#loc445 = loc("L_new"(#loc206))
#loc446 = loc("L_new"(#loc207))
#loc453 = loc("L"(#loc305))
#loc455 = loc("left"(#loc395))
#loc456 = loc("right"(#loc396))
#loc457 = loc("right"(#loc400))
#loc458 = loc("left"(#loc405))
#loc459 = loc("acc"(#loc453))
