#loc = loc("/home/ericbuehler/.cache/vllm/torch_compile_cache/torch_aot_compile/90537ea14f244a5187d6ecc853fbadcf440d710f29c8e182fe8151f3f7751a82/inductor_cache/mc/cmc5jkwxx5kaauq7arwwima7haiaccaevlqjcfx7em4kfxramloq.py":22:0)
#loc3 = loc(unknown)
#loc21 = loc("/home/ericbuehler/.cache/vllm/torch_compile_cache/torch_aot_compile/90537ea14f244a5187d6ecc853fbadcf440d710f29c8e182fe8151f3f7751a82/inductor_cache/mc/cmc5jkwxx5kaauq7arwwima7haiaccaevlqjcfx7em4kfxramloq.py":47:25)
#loc27 = loc("in_ptr0"(#loc))
#loc28 = loc("out_ptr0"(#loc))
#loc29 = loc("xnumel"(#loc))
#loc30 = loc("r0_numel"(#loc))
#loc49 = loc("tmp4"(#loc21))
#loc55 = loc(callsite(#loc3 at #loc49))
module {
  tt.func public @triton_(%in_ptr0: !tt.ptr<bf16> {tt.divisibility = 16 : i32} loc("in_ptr0"(#loc)), %out_ptr0: !tt.ptr<f32> {tt.divisibility = 16 : i32} loc("out_ptr0"(#loc)), %xnumel: i32 {tt.divisibility = 16 : i32} loc("xnumel"(#loc)), %r0_numel: i32 {tt.divisibility = 16 : i32} loc("r0_numel"(#loc))) attributes {noinline = false} {
    %tmp0 = arith.constant 10240 : i32 loc(#loc31)
    %tmp0_0 = arith.constant 512 : i32 loc(#loc32)
    %c16_i32 = arith.constant 16 : i32 loc(#loc3)
    %tmp0_1 = arith.constant dense<0.000000e+00> : tensor<1x512xbf16> loc(#loc33)
    %cst = arith.constant dense<512> : tensor<1x512xi32> loc(#loc3)
    %cst_2 = arith.constant dense<0.000000e+00> : tensor<1x512xf32> loc(#loc3)
    %xoffset = tt.get_program_id x : i32 loc(#loc34)
    %xmask = arith.cmpi slt, %xoffset, %xnumel : i32 loc(#loc35)
    %xmask_3 = tt.splat %xmask : i1 -> tensor<1x1xi1> loc(#loc35)
    %r0_base = tt.make_range {end = 512 : i32, start = 0 : i32} : tensor<512xi32> loc(#loc36)
    %r0_base_4 = tt.expand_dims %r0_base {axis = 0 : i32} : tensor<512xi32> -> tensor<1x512xi32> loc(#loc37)
    %x0 = arith.remsi %xoffset, %c16_i32 : i32 loc(#loc38)
    %x1 = arith.divsi %xoffset, %c16_i32 : i32 loc(#loc39)
    %r0_mask = arith.cmpi slt, %r0_base_4, %cst : tensor<1x512xi32> loc(#loc40)
    %tmp0_5 = arith.muli %x0, %tmp0_0 : i32 loc(#loc32)
    %tmp0_6 = tt.splat %tmp0_5 : i32 -> tensor<1x512xi32> loc(#loc51)
    %tmp0_7 = arith.addi %r0_base_4, %tmp0_6 : tensor<1x512xi32> loc(#loc41)
    %tmp0_8 = arith.muli %x1, %tmp0 : i32 loc(#loc31)
    %tmp0_9 = tt.splat %tmp0_8 : i32 -> tensor<1x512xi32> loc(#loc52)
    %tmp0_10 = arith.addi %tmp0_7, %tmp0_9 : tensor<1x512xi32> loc(#loc42)
    %tmp0_11 = tt.splat %in_ptr0 : !tt.ptr<bf16> -> tensor<1x512x!tt.ptr<bf16>> loc(#loc43)
    %tmp0_12 = tt.addptr %tmp0_11, %tmp0_10 : tensor<1x512x!tt.ptr<bf16>>, tensor<1x512xi32> loc(#loc43)
    %tmp0_13 = tt.splat %xmask : i1 -> tensor<1x512xi1> loc(#loc53)
    %tmp0_14 = arith.andi %r0_mask, %tmp0_13 : tensor<1x512xi1> loc(#loc44)
    %tmp0_15 = tt.load %tmp0_12, %tmp0_14, %tmp0_1 evictionPolicy = evict_first : tensor<1x512x!tt.ptr<bf16>> loc(#loc33)
    %tmp0_16 = arith.extf %tmp0_15 : tensor<1x512xbf16> to tensor<1x512xf32> loc(#loc45)
    %tmp2 = arith.mulf %tmp0_16, %tmp0_16 : tensor<1x512xf32> loc(#loc46)
    %tmp5 = arith.addf %tmp2, %cst_2 : tensor<1x512xf32> loc(#loc47)
    %_tmp4 = arith.select %tmp0_14, %tmp5, %cst_2 : tensor<1x512xi1>, tensor<1x512xf32> loc(#loc48)
    %tmp4 = "tt.reduce"(%_tmp4) <{axis = 1 : i32}> ({
    ^bb0(%tmp4_18: f32 loc(callsite(#loc3 at #loc49)), %tmp4_19: f32 loc(callsite(#loc3 at #loc49))):
      %tmp4_20 = arith.addf %tmp4_18, %tmp4_19 : f32 loc(#loc56)
      tt.reduce.return %tmp4_20 : f32 loc(#loc54)
    }) : (tensor<1x512xf32>) -> tensor<1xf32> loc(#loc54)
    %tmp4_17 = tt.expand_dims %tmp4 {axis = 1 : i32} : tensor<1xf32> -> tensor<1x1xf32> loc(#loc50)
    %0 = tt.addptr %out_ptr0, %xoffset : !tt.ptr<f32>, i32 loc(#loc24)
    %1 = tt.splat %0 : !tt.ptr<f32> -> tensor<1x1x!tt.ptr<f32>> loc(#loc24)
    tt.store %1, %tmp4_17, %xmask_3 : tensor<1x1x!tt.ptr<f32>> loc(#loc25)
    tt.return loc(#loc26)
  } loc(#loc)
} loc(#loc)
#loc1 = loc("/home/ericbuehler/.cache/vllm/torch_compile_cache/torch_aot_compile/90537ea14f244a5187d6ecc853fbadcf440d710f29c8e182fe8151f3f7751a82/inductor_cache/mc/cmc5jkwxx5kaauq7arwwima7haiaccaevlqjcfx7em4kfxramloq.py":41:56)
#loc2 = loc("/home/ericbuehler/.cache/vllm/torch_compile_cache/torch_aot_compile/90537ea14f244a5187d6ecc853fbadcf440d710f29c8e182fe8151f3f7751a82/inductor_cache/mc/cmc5jkwxx5kaauq7arwwima7haiaccaevlqjcfx7em4kfxramloq.py":41:45)
#loc4 = loc("/home/ericbuehler/.cache/vllm/torch_compile_cache/torch_aot_compile/90537ea14f244a5187d6ecc853fbadcf440d710f29c8e182fe8151f3f7751a82/inductor_cache/mc/cmc5jkwxx5kaauq7arwwima7haiaccaevlqjcfx7em4kfxramloq.py":41:61)
#loc5 = loc("/home/ericbuehler/.cache/vllm/torch_compile_cache/torch_aot_compile/90537ea14f244a5187d6ecc853fbadcf440d710f29c8e182fe8151f3f7751a82/inductor_cache/mc/cmc5jkwxx5kaauq7arwwima7haiaccaevlqjcfx7em4kfxramloq.py":26:28)
#loc6 = loc("/home/ericbuehler/.cache/vllm/torch_compile_cache/torch_aot_compile/90537ea14f244a5187d6ecc853fbadcf440d710f29c8e182fe8151f3f7751a82/inductor_cache/mc/cmc5jkwxx5kaauq7arwwima7haiaccaevlqjcfx7em4kfxramloq.py":28:21)
#loc7 = loc("/home/ericbuehler/.cache/vllm/torch_compile_cache/torch_aot_compile/90537ea14f244a5187d6ecc853fbadcf440d710f29c8e182fe8151f3f7751a82/inductor_cache/mc/cmc5jkwxx5kaauq7arwwima7haiaccaevlqjcfx7em4kfxramloq.py":29:27)
#loc8 = loc("/home/ericbuehler/.cache/vllm/torch_compile_cache/torch_aot_compile/90537ea14f244a5187d6ecc853fbadcf440d710f29c8e182fe8151f3f7751a82/inductor_cache/mc/cmc5jkwxx5kaauq7arwwima7haiaccaevlqjcfx7em4kfxramloq.py":29:37)
#loc9 = loc("/home/ericbuehler/.cache/vllm/torch_compile_cache/torch_aot_compile/90537ea14f244a5187d6ecc853fbadcf440d710f29c8e182fe8151f3f7751a82/inductor_cache/mc/cmc5jkwxx5kaauq7arwwima7haiaccaevlqjcfx7em4kfxramloq.py":31:19)
#loc10 = loc("/home/ericbuehler/.cache/vllm/torch_compile_cache/torch_aot_compile/90537ea14f244a5187d6ecc853fbadcf440d710f29c8e182fe8151f3f7751a82/inductor_cache/mc/cmc5jkwxx5kaauq7arwwima7haiaccaevlqjcfx7em4kfxramloq.py":32:19)
#loc11 = loc("/home/ericbuehler/.cache/vllm/torch_compile_cache/torch_aot_compile/90537ea14f244a5187d6ecc853fbadcf440d710f29c8e182fe8151f3f7751a82/inductor_cache/mc/cmc5jkwxx5kaauq7arwwima7haiaccaevlqjcfx7em4kfxramloq.py":37:29)
#loc12 = loc("/home/ericbuehler/.cache/vllm/torch_compile_cache/torch_aot_compile/90537ea14f244a5187d6ecc853fbadcf440d710f29c8e182fe8151f3f7751a82/inductor_cache/mc/cmc5jkwxx5kaauq7arwwima7haiaccaevlqjcfx7em4kfxramloq.py":41:41)
#loc13 = loc("/home/ericbuehler/.cache/vllm/torch_compile_cache/torch_aot_compile/90537ea14f244a5187d6ecc853fbadcf440d710f29c8e182fe8151f3f7751a82/inductor_cache/mc/cmc5jkwxx5kaauq7arwwima7haiaccaevlqjcfx7em4kfxramloq.py":41:50)
#loc14 = loc("/home/ericbuehler/.cache/vllm/torch_compile_cache/torch_aot_compile/90537ea14f244a5187d6ecc853fbadcf440d710f29c8e182fe8151f3f7751a82/inductor_cache/mc/cmc5jkwxx5kaauq7arwwima7haiaccaevlqjcfx7em4kfxramloq.py":41:34)
#loc15 = loc("/home/ericbuehler/.cache/vllm/torch_compile_cache/torch_aot_compile/90537ea14f244a5187d6ecc853fbadcf440d710f29c8e182fe8151f3f7751a82/inductor_cache/mc/cmc5jkwxx5kaauq7arwwima7haiaccaevlqjcfx7em4kfxramloq.py":41:71)
#loc16 = loc("/home/ericbuehler/.cache/vllm/torch_compile_cache/torch_aot_compile/90537ea14f244a5187d6ecc853fbadcf440d710f29c8e182fe8151f3f7751a82/inductor_cache/mc/cmc5jkwxx5kaauq7arwwima7haiaccaevlqjcfx7em4kfxramloq.py":41:123)
#loc17 = loc("/home/ericbuehler/.cache/vllm/torch_compile_cache/torch_aot_compile/90537ea14f244a5187d6ecc853fbadcf440d710f29c8e182fe8151f3f7751a82/inductor_cache/mc/cmc5jkwxx5kaauq7arwwima7haiaccaevlqjcfx7em4kfxramloq.py":43:22)
#loc18 = loc("/home/ericbuehler/.cache/vllm/torch_compile_cache/torch_aot_compile/90537ea14f244a5187d6ecc853fbadcf440d710f29c8e182fe8151f3f7751a82/inductor_cache/mc/cmc5jkwxx5kaauq7arwwima7haiaccaevlqjcfx7em4kfxramloq.py":45:23)
#loc19 = loc("/home/ericbuehler/.cache/vllm/torch_compile_cache/torch_aot_compile/90537ea14f244a5187d6ecc853fbadcf440d710f29c8e182fe8151f3f7751a82/inductor_cache/mc/cmc5jkwxx5kaauq7arwwima7haiaccaevlqjcfx7em4kfxramloq.py":46:48)
#loc20 = loc("/home/ericbuehler/vllm/.venv-bench/lib/python3.12/site-packages/triton/language/standard.py":293:36)
#loc22 = loc("/home/ericbuehler/vllm/.venv-bench/lib/python3.12/site-packages/triton/language/standard.py":263:15)
#loc23 = loc("/home/ericbuehler/.cache/vllm/torch_compile_cache/torch_aot_compile/90537ea14f244a5187d6ecc853fbadcf440d710f29c8e182fe8151f3f7751a82/inductor_cache/mc/cmc5jkwxx5kaauq7arwwima7haiaccaevlqjcfx7em4kfxramloq.py":47:28)
#loc24 = loc("/home/ericbuehler/.cache/vllm/torch_compile_cache/torch_aot_compile/90537ea14f244a5187d6ecc853fbadcf440d710f29c8e182fe8151f3f7751a82/inductor_cache/mc/cmc5jkwxx5kaauq7arwwima7haiaccaevlqjcfx7em4kfxramloq.py":48:25)
#loc25 = loc("/home/ericbuehler/.cache/vllm/torch_compile_cache/torch_aot_compile/90537ea14f244a5187d6ecc853fbadcf440d710f29c8e182fe8151f3f7751a82/inductor_cache/mc/cmc5jkwxx5kaauq7arwwima7haiaccaevlqjcfx7em4kfxramloq.py":48:36)
#loc26 = loc("/home/ericbuehler/.cache/vllm/torch_compile_cache/torch_aot_compile/90537ea14f244a5187d6ecc853fbadcf440d710f29c8e182fe8151f3f7751a82/inductor_cache/mc/cmc5jkwxx5kaauq7arwwima7haiaccaevlqjcfx7em4kfxramloq.py":48:4)
#loc31 = loc("tmp0"(#loc1))
#loc32 = loc("tmp0"(#loc2))
#loc33 = loc("tmp0"(#loc4))
#loc34 = loc("xoffset"(#loc5))
#loc35 = loc("xmask"(#loc6))
#loc36 = loc("r0_base"(#loc7))
#loc37 = loc("r0_base"(#loc8))
#loc38 = loc("x0"(#loc9))
#loc39 = loc("x1"(#loc10))
#loc40 = loc("r0_mask"(#loc11))
#loc41 = loc("tmp0"(#loc12))
#loc42 = loc("tmp0"(#loc13))
#loc43 = loc("tmp0"(#loc14))
#loc44 = loc("tmp0"(#loc15))
#loc45 = loc("tmp0"(#loc16))
#loc46 = loc("tmp2"(#loc17))
#loc47 = loc("tmp5"(#loc18))
#loc48 = loc("_tmp4"(#loc19))
#loc50 = loc("tmp4"(#loc23))
#loc51 = loc(fused[#loc41, #loc32])
#loc52 = loc(fused[#loc42, #loc31])
#loc53 = loc(fused[#loc44, #loc35])
#loc54 = loc(callsite(#loc20 at #loc49))
#loc56 = loc(callsite(#loc22 at #loc54))
