#loc = loc("/home/ericbuehler/vllm/.venv-bench/lib/python3.12/site-packages/vllm/model_executor/layers/fused_moe/fused_moe.py":295:0)
#loc87 = loc("a_ptr"(#loc))
#loc88 = loc("b_ptr"(#loc))
#loc89 = loc("c_ptr"(#loc))
#loc90 = loc("sorted_token_ids_ptr"(#loc))
#loc91 = loc("expert_ids_ptr"(#loc))
#loc92 = loc("num_tokens_post_padded_ptr"(#loc))
#loc93 = loc("N"(#loc))
#loc94 = loc("K"(#loc))
#loc95 = loc("EM"(#loc))
#loc96 = loc("num_valid_tokens"(#loc))
#loc97 = loc("stride_am"(#loc))
#loc98 = loc("stride_be"(#loc))
#loc99 = loc("stride_bn"(#loc))
#loc100 = loc("stride_cm"(#loc))
#loc101 = loc("stride_asm"(#loc))
#loc102 = loc("stride_ask"(#loc))
#loc103 = loc("stride_bse"(#loc))
#loc104 = loc("stride_bsk"(#loc))
#loc105 = loc("stride_bsn"(#loc))
#loc106 = loc("stride_bbe"(#loc))
#loc107 = loc("stride_bbn"(#loc))
module {
  tt.func public @fused_moe_kernel(%a_ptr: !tt.ptr<bf16> {tt.divisibility = 16 : i32} loc("a_ptr"(#loc)), %b_ptr: !tt.ptr<bf16> {tt.divisibility = 16 : i32} loc("b_ptr"(#loc)), %c_ptr: !tt.ptr<bf16> {tt.divisibility = 16 : i32} loc("c_ptr"(#loc)), %sorted_token_ids_ptr: !tt.ptr<i32> {tt.divisibility = 16 : i32} loc("sorted_token_ids_ptr"(#loc)), %expert_ids_ptr: !tt.ptr<i32> {tt.divisibility = 16 : i32} loc("expert_ids_ptr"(#loc)), %num_tokens_post_padded_ptr: !tt.ptr<i32> {tt.divisibility = 16 : i32} loc("num_tokens_post_padded_ptr"(#loc)), %N: i32 {tt.divisibility = 16 : i32} loc("N"(#loc)), %K: i32 {tt.divisibility = 16 : i32} loc("K"(#loc)), %EM: i32 {tt.divisibility = 16 : i32} loc("EM"(#loc)), %num_valid_tokens: i32 {tt.divisibility = 16 : i32} loc("num_valid_tokens"(#loc)), %stride_am: i32 {tt.divisibility = 16 : i32} loc("stride_am"(#loc)), %stride_be: i32 {tt.divisibility = 16 : i32} loc("stride_be"(#loc)), %stride_bn: i32 {tt.divisibility = 16 : i32} loc("stride_bn"(#loc)), %stride_cm: i32 {tt.divisibility = 16 : i32} loc("stride_cm"(#loc)), %stride_asm: i32 {tt.divisibility = 16 : i32} loc("stride_asm"(#loc)), %stride_ask: i32 {tt.divisibility = 16 : i32} loc("stride_ask"(#loc)), %stride_bse: i32 {tt.divisibility = 16 : i32} loc("stride_bse"(#loc)), %stride_bsk: i32 {tt.divisibility = 16 : i32} loc("stride_bsk"(#loc)), %stride_bsn: i32 {tt.divisibility = 16 : i32} loc("stride_bsn"(#loc)), %stride_bbe: i32 {tt.divisibility = 16 : i32} loc("stride_bbe"(#loc)), %stride_bbn: i32 {tt.divisibility = 16 : i32} loc("stride_bbn"(#loc))) attributes {noinline = false} {
    %c63_i32 = arith.constant 63 : i32 loc(#loc1)
    %cst = arith.constant dense<0.000000e+00> : tensor<32x128xbf16> loc(#loc1)
    %num_pid_n = arith.constant 127 : i32 loc(#loc183)
    %num_pid_m = arith.constant 31 : i32 loc(#loc184)
    %cst_0 = arith.constant dense<0.000000e+00> : tensor<64x128xbf16> loc(#loc1)
    %cst_1 = arith.constant dense<0.000000e+00> : tensor<32x64xbf16> loc(#loc1)
    %c0_i32 = arith.constant 0 : i32 loc(#loc1)
    %c-1_i64 = arith.constant -1 : i64 loc(#loc1)
    %cst_2 = arith.constant dense<64> : tensor<64x128xi32> loc(#loc1)
    %cst_3 = arith.constant dense<64> : tensor<32x64xi32> loc(#loc1)
    %cst_4 = arith.constant dense<0.000000e+00> : tensor<32x128xf32> loc(#loc1)
    %c64_i32 = arith.constant 64 : i32 loc(#loc1)
    %cst_5 = arith.constant dense<8> : tensor<32x1xi64> loc(#loc1)
    %c128_i32 = arith.constant 128 : i32 loc(#loc1)
    %c32_i32 = arith.constant 32 : i32 loc(#loc1)
    %c1_i32 = arith.constant 1 : i32 loc(#loc1)
    %pid = tt.get_program_id x : i32 loc(#loc110)
    %num_pid_m_6 = arith.addi %EM, %num_pid_m : i32 loc(#loc185)
    %num_pid_m_7 = arith.divsi %num_pid_m_6, %c32_i32 : i32 loc(#loc186)
    %num_pid_n_8 = arith.addi %N, %num_pid_n : i32 loc(#loc187)
    %num_pid_n_9 = arith.divsi %num_pid_n_8, %c128_i32 : i32 loc(#loc188)
    %group_id = arith.divsi %pid, %num_pid_n_9 : i32 loc(#loc111)
    %group_size_m = arith.subi %num_pid_m_7, %group_id : i32 loc(#loc112)
    %group_size_m_10 = arith.minsi %group_size_m, %c1_i32 : i32 loc(#loc113)
    %pid_m = arith.remsi %pid, %num_pid_n_9 : i32 loc(#loc114)
    %pid_m_11 = arith.remsi %pid_m, %group_size_m_10 : i32 loc(#loc115)
    %pid_m_12 = arith.addi %group_id, %pid_m_11 : i32 loc(#loc116)
    %pid_n = arith.divsi %pid_m, %group_size_m_10 : i32 loc(#loc117)
    %offs = tt.make_range {end = 32 : i32, start = 0 : i32} : tensor<32xi32> loc(#loc118)
    %offs_13 = arith.extsi %offs : tensor<32xi32> to tensor<32xi64> loc(#loc119)
    %num_tokens_post_padded = tt.load %num_tokens_post_padded_ptr : !tt.ptr<i32> loc(#loc120)
    %0 = arith.muli %pid_m_12, %c32_i32 : i32 loc(#loc17)
    %1 = arith.cmpi sge, %0, %num_tokens_post_padded : i32 loc(#loc18)
    cf.cond_br %1, ^bb1, ^bb2 loc(#loc18)
  ^bb1:  // pred: ^bb0
    tt.return loc(#loc19)
  ^bb2:  // pred: ^bb0
    %offs_token_id = arith.extsi %0 : i32 to i64 loc(#loc121)
    %offs_token_id_14 = tt.splat %offs_token_id : i64 -> tensor<32xi64> loc(#loc121)
    %offs_token_id_15 = arith.addi %offs_token_id_14, %offs_13 : tensor<32xi64> loc(#loc121)
    %offs_token = tt.splat %sorted_token_ids_ptr : !tt.ptr<i32> -> tensor<32x!tt.ptr<i32>> loc(#loc122)
    %offs_token_16 = tt.addptr %offs_token, %offs_token_id_15 : tensor<32x!tt.ptr<i32>>, tensor<32xi64> loc(#loc122)
    %offs_token_17 = tt.load %offs_token_16 : tensor<32x!tt.ptr<i32>> loc(#loc123)
    %offs_token_18 = arith.extsi %offs_token_17 : tensor<32xi32> to tensor<32xi64> loc(#loc124)
    %token_mask = arith.extsi %num_valid_tokens : i32 to i64 loc(#loc125)
    %token_mask_19 = tt.splat %token_mask : i64 -> tensor<32xi64> loc(#loc125)
    %token_mask_20 = arith.cmpi slt, %offs_token_18, %token_mask_19 : tensor<32xi64> loc(#loc125)
    %off_experts = tt.addptr %expert_ids_ptr, %pid_m_12 : !tt.ptr<i32>, i32 loc(#loc126)
    %off_experts_21 = tt.load %off_experts : !tt.ptr<i32> loc(#loc127)
    %off_experts_22 = arith.extsi %off_experts_21 : i32 to i64 loc(#loc128)
    %2 = arith.cmpi eq, %off_experts_22, %c-1_i64 : i64 loc(#loc28)
    cf.cond_br %2, ^bb3, ^bb4 loc(#loc28)
  ^bb3:  // pred: ^bb2
    %offs_cn = arith.muli %pid_n, %c128_i32 : i32 loc(#loc189)
    %offs_cn_23 = tt.make_range {end = 128 : i32, start = 0 : i32} : tensor<128xi32> loc(#loc190)
    %offs_cn_24 = tt.splat %offs_cn : i32 -> tensor<128xi32> loc(#loc191)
    %offs_cn_25 = arith.addi %offs_cn_24, %offs_cn_23 : tensor<128xi32> loc(#loc191)
    %c_ptrs = tt.expand_dims %offs_token_18 {axis = 1 : i32} : tensor<32xi64> -> tensor<32x1xi64> loc(#loc192)
    %c_ptrs_26 = arith.extsi %stride_cm : i32 to i64 loc(#loc193)
    %c_ptrs_27 = tt.splat %c_ptrs_26 : i64 -> tensor<32x1xi64> loc(#loc193)
    %c_ptrs_28 = arith.muli %c_ptrs_27, %c_ptrs : tensor<32x1xi64> loc(#loc193)
    %c_ptrs_29 = tt.splat %c_ptr : !tt.ptr<bf16> -> tensor<32x1x!tt.ptr<bf16>> loc(#loc194)
    %c_ptrs_30 = tt.addptr %c_ptrs_29, %c_ptrs_28 : tensor<32x1x!tt.ptr<bf16>>, tensor<32x1xi64> loc(#loc194)
    %c_ptrs_31 = tt.expand_dims %offs_cn_25 {axis = 0 : i32} : tensor<128xi32> -> tensor<1x128xi32> loc(#loc195)
    %c_ptrs_32 = tt.broadcast %c_ptrs_30 : tensor<32x1x!tt.ptr<bf16>> -> tensor<32x128x!tt.ptr<bf16>> loc(#loc196)
    %c_ptrs_33 = tt.broadcast %c_ptrs_31 : tensor<1x128xi32> -> tensor<32x128xi32> loc(#loc196)
    %c_ptrs_34 = tt.addptr %c_ptrs_32, %c_ptrs_33 : tensor<32x128x!tt.ptr<bf16>>, tensor<32x128xi32> loc(#loc196)
    %c_mask = tt.expand_dims %token_mask_20 {axis = 1 : i32} : tensor<32xi1> -> tensor<32x1xi1> loc(#loc197)
    %c_mask_35 = tt.splat %N : i32 -> tensor<1x128xi32> loc(#loc198)
    %c_mask_36 = arith.cmpi slt, %c_ptrs_31, %c_mask_35 : tensor<1x128xi32> loc(#loc198)
    %c_mask_37 = tt.broadcast %c_mask : tensor<32x1xi1> -> tensor<32x128xi1> loc(#loc199)
    %c_mask_38 = tt.broadcast %c_mask_36 : tensor<1x128xi1> -> tensor<32x128xi1> loc(#loc199)
    %c_mask_39 = arith.andi %c_mask_37, %c_mask_38 : tensor<32x128xi1> loc(#loc199)
    tt.store %c_ptrs_34, %cst, %c_mask_39 : tensor<32x128x!tt.ptr<bf16>> loc(#loc140)
    tt.return loc(#loc42)
  ^bb4:  // pred: ^bb2
    %offs_bn = arith.muli %pid_n, %c128_i32 : i32 loc(#loc141)
    %offs_bn_40 = tt.make_range {end = 128 : i32, start = 0 : i32} : tensor<128xi32> loc(#loc142)
    %offs_bn_41 = arith.extsi %offs_bn_40 : tensor<128xi32> to tensor<128xi64> loc(#loc143)
    %offs_bn_42 = arith.extsi %offs_bn : i32 to i64 loc(#loc144)
    %offs_bn_43 = tt.splat %offs_bn_42 : i64 -> tensor<128xi64> loc(#loc144)
    %offs_bn_44 = arith.addi %offs_bn_43, %offs_bn_41 : tensor<128xi64> loc(#loc144)
    %offs_bn_45 = arith.extsi %N : i32 to i64 loc(#loc145)
    %offs_bn_46 = tt.splat %offs_bn_45 : i64 -> tensor<128xi64> loc(#loc145)
    %offs_bn_47 = arith.remsi %offs_bn_44, %offs_bn_46 : tensor<128xi64> loc(#loc145)
    %offs_k = tt.make_range {end = 64 : i32, start = 0 : i32} : tensor<64xi32> loc(#loc146)
    %a_ptrs = tt.expand_dims %offs_token_18 {axis = 1 : i32} : tensor<32xi64> -> tensor<32x1xi64> loc(#loc147)
    %a_ptrs_48 = arith.divsi %a_ptrs, %cst_5 : tensor<32x1xi64> loc(#loc148)
    %a_ptrs_49 = arith.extsi %stride_am : i32 to i64 loc(#loc149)
    %a_ptrs_50 = tt.splat %a_ptrs_49 : i64 -> tensor<32x1xi64> loc(#loc149)
    %a_ptrs_51 = arith.muli %a_ptrs_48, %a_ptrs_50 : tensor<32x1xi64> loc(#loc149)
    %a_ptrs_52 = tt.expand_dims %offs_k {axis = 0 : i32} : tensor<64xi32> -> tensor<1x64xi32> loc(#loc150)
    %a_ptrs_53 = arith.extsi %a_ptrs_52 : tensor<1x64xi32> to tensor<1x64xi64> loc(#loc151)
    %a_ptrs_54 = tt.broadcast %a_ptrs_51 : tensor<32x1xi64> -> tensor<32x64xi64> loc(#loc151)
    %a_ptrs_55 = tt.broadcast %a_ptrs_53 : tensor<1x64xi64> -> tensor<32x64xi64> loc(#loc151)
    %a_ptrs_56 = arith.addi %a_ptrs_54, %a_ptrs_55 : tensor<32x64xi64> loc(#loc151)
    %a_ptrs_57 = tt.splat %a_ptr : !tt.ptr<bf16> -> tensor<32x64x!tt.ptr<bf16>> loc(#loc152)
    %a_ptrs_58 = tt.addptr %a_ptrs_57, %a_ptrs_56 : tensor<32x64x!tt.ptr<bf16>>, tensor<32x64xi64> loc(#loc152)
    %b_ptrs = arith.extsi %stride_be : i32 to i64 loc(#loc153)
    %b_ptrs_59 = arith.muli %off_experts_22, %b_ptrs : i64 loc(#loc153)
    %b_ptrs_60 = tt.addptr %b_ptr, %b_ptrs_59 : !tt.ptr<bf16>, i64 loc(#loc154)
    %b_ptrs_61 = tt.expand_dims %offs_k {axis = 1 : i32} : tensor<64xi32> -> tensor<64x1xi32> loc(#loc155)
    %b_ptrs_62 = tt.expand_dims %offs_bn_47 {axis = 0 : i32} : tensor<128xi64> -> tensor<1x128xi64> loc(#loc156)
    %b_ptrs_63 = arith.extsi %stride_bn : i32 to i64 loc(#loc157)
    %b_ptrs_64 = tt.splat %b_ptrs_63 : i64 -> tensor<1x128xi64> loc(#loc157)
    %b_ptrs_65 = arith.muli %b_ptrs_62, %b_ptrs_64 : tensor<1x128xi64> loc(#loc157)
    %b_ptrs_66 = arith.extsi %b_ptrs_61 : tensor<64x1xi32> to tensor<64x1xi64> loc(#loc158)
    %b_ptrs_67 = tt.broadcast %b_ptrs_66 : tensor<64x1xi64> -> tensor<64x128xi64> loc(#loc158)
    %b_ptrs_68 = tt.broadcast %b_ptrs_65 : tensor<1x128xi64> -> tensor<64x128xi64> loc(#loc158)
    %b_ptrs_69 = arith.addi %b_ptrs_67, %b_ptrs_68 : tensor<64x128xi64> loc(#loc158)
    %b_ptrs_70 = tt.splat %b_ptrs_60 : !tt.ptr<bf16> -> tensor<64x128x!tt.ptr<bf16>> loc(#loc159)
    %b_ptrs_71 = tt.addptr %b_ptrs_70, %b_ptrs_69 : tensor<64x128x!tt.ptr<bf16>>, tensor<64x128xi64> loc(#loc159)
    %3 = arith.addi %K, %c63_i32 : i32 loc(#loc160)
    %4 = arith.divsi %3, %c64_i32 : i32 loc(#loc161)
    %accumulator:3 = scf.for %k = %c0_i32 to %4 step %c1_i32 iter_args(%a_ptrs_90 = %a_ptrs_58, %b_ptrs_91 = %b_ptrs_71, %accumulator_92 = %cst_4) -> (tensor<32x64x!tt.ptr<bf16>>, tensor<64x128x!tt.ptr<bf16>>, tensor<32x128xf32>)  : i32 {
      %a = tt.expand_dims %token_mask_20 {axis = 1 : i32} : tensor<32xi1> -> tensor<32x1xi1> loc(#loc163)
      %a_93 = arith.muli %k, %c64_i32 : i32 loc(#loc164)
      %a_94 = arith.subi %K, %a_93 : i32 loc(#loc165)
      %a_95 = tt.splat %a_94 : i32 -> tensor<1x64xi32> loc(#loc166)
      %a_96 = arith.cmpi slt, %a_ptrs_52, %a_95 : tensor<1x64xi32> loc(#loc166)
      %a_97 = tt.broadcast %a : tensor<32x1xi1> -> tensor<32x64xi1> loc(#loc167)
      %a_98 = tt.broadcast %a_96 : tensor<1x64xi1> -> tensor<32x64xi1> loc(#loc167)
      %a_99 = arith.andi %a_97, %a_98 : tensor<32x64xi1> loc(#loc167)
      %a_100 = tt.load %a_ptrs_90, %a_99, %cst_1 : tensor<32x64x!tt.ptr<bf16>> loc(#loc168)
      %b = tt.splat %a_94 : i32 -> tensor<64x1xi32> loc(#loc169)
      %b_101 = arith.cmpi slt, %b_ptrs_61, %b : tensor<64x1xi32> loc(#loc169)
      %b_102 = tt.broadcast %b_101 : tensor<64x1xi1> -> tensor<64x128xi1> loc(#loc170)
      %b_103 = tt.load %b_ptrs_91, %b_102, %cst_0 : tensor<64x128x!tt.ptr<bf16>> loc(#loc170)
      %accumulator_104 = tt.dot %a_100, %b_103, %accumulator_92, inputPrecision = tf32 : tensor<32x64xbf16> * tensor<64x128xbf16> -> tensor<32x128xf32> loc(#loc171)
      %a_ptrs_105 = tt.addptr %a_ptrs_90, %cst_3 : tensor<32x64x!tt.ptr<bf16>>, tensor<32x64xi32> loc(#loc172)
      %b_ptrs_106 = tt.addptr %b_ptrs_91, %cst_2 : tensor<64x128x!tt.ptr<bf16>>, tensor<64x128xi32> loc(#loc173)
      scf.yield %a_ptrs_105, %b_ptrs_106, %accumulator_104 : tensor<32x64x!tt.ptr<bf16>>, tensor<64x128x!tt.ptr<bf16>>, tensor<32x128xf32> loc(#loc75)
    } loc(#loc201)
    %accumulator_72 = arith.truncf %accumulator#2 : tensor<32x128xf32> to tensor<32x128xbf16> loc(#loc174)
    %offs_cn_73 = tt.splat %offs_bn : i32 -> tensor<128xi32> loc(#loc175)
    %offs_cn_74 = arith.addi %offs_cn_73, %offs_bn_40 : tensor<128xi32> loc(#loc175)
    %c_ptrs_75 = arith.extsi %stride_cm : i32 to i64 loc(#loc176)
    %c_ptrs_76 = tt.splat %c_ptrs_75 : i64 -> tensor<32x1xi64> loc(#loc176)
    %c_ptrs_77 = arith.muli %c_ptrs_76, %a_ptrs : tensor<32x1xi64> loc(#loc176)
    %c_ptrs_78 = tt.splat %c_ptr : !tt.ptr<bf16> -> tensor<32x1x!tt.ptr<bf16>> loc(#loc177)
    %c_ptrs_79 = tt.addptr %c_ptrs_78, %c_ptrs_77 : tensor<32x1x!tt.ptr<bf16>>, tensor<32x1xi64> loc(#loc177)
    %c_ptrs_80 = tt.expand_dims %offs_cn_74 {axis = 0 : i32} : tensor<128xi32> -> tensor<1x128xi32> loc(#loc178)
    %c_ptrs_81 = tt.broadcast %c_ptrs_79 : tensor<32x1x!tt.ptr<bf16>> -> tensor<32x128x!tt.ptr<bf16>> loc(#loc179)
    %c_ptrs_82 = tt.broadcast %c_ptrs_80 : tensor<1x128xi32> -> tensor<32x128xi32> loc(#loc179)
    %c_ptrs_83 = tt.addptr %c_ptrs_81, %c_ptrs_82 : tensor<32x128x!tt.ptr<bf16>>, tensor<32x128xi32> loc(#loc179)
    %c_mask_84 = tt.expand_dims %token_mask_20 {axis = 1 : i32} : tensor<32xi1> -> tensor<32x1xi1> loc(#loc180)
    %c_mask_85 = tt.splat %N : i32 -> tensor<1x128xi32> loc(#loc181)
    %c_mask_86 = arith.cmpi slt, %c_ptrs_80, %c_mask_85 : tensor<1x128xi32> loc(#loc181)
    %c_mask_87 = tt.broadcast %c_mask_84 : tensor<32x1xi1> -> tensor<32x128xi1> loc(#loc182)
    %c_mask_88 = tt.broadcast %c_mask_86 : tensor<1x128xi1> -> tensor<32x128xi1> loc(#loc182)
    %c_mask_89 = arith.andi %c_mask_87, %c_mask_88 : tensor<32x128xi1> loc(#loc182)
    tt.store %c_ptrs_83, %accumulator_72, %c_mask_89 : tensor<32x128x!tt.ptr<bf16>> loc(#loc85)
    tt.return loc(#loc86)
  } loc(#loc)
} loc(#loc)
#loc1 = loc(unknown)
#loc2 = loc("/home/ericbuehler/vllm/.venv-bench/lib/python3.12/site-packages/vllm/model_executor/layers/fused_moe/fused_moe.py":383:27)
#loc3 = loc("/home/ericbuehler/vllm/.venv-bench/lib/python3.12/site-packages/vllm/model_executor/layers/fused_moe/fused_moe.py":382:28)
#loc4 = loc("/home/ericbuehler/vllm/.venv-bench/lib/python3.12/site-packages/vllm/model_executor/layers/fused_moe/fused_moe.py":381:24)
#loc5 = loc("/home/ericbuehler/vllm/.venv-bench/lib/python3.12/site-packages/triton/language/standard.py":43:17)
#loc6 = loc("/home/ericbuehler/vllm/.venv-bench/lib/python3.12/site-packages/triton/language/standard.py":43:30)
#loc7 = loc("/home/ericbuehler/vllm/.venv-bench/lib/python3.12/site-packages/vllm/model_executor/layers/fused_moe/fused_moe.py":385:22)
#loc8 = loc("/home/ericbuehler/vllm/.venv-bench/lib/python3.12/site-packages/vllm/model_executor/layers/fused_moe/fused_moe.py":387:35)
#loc9 = loc("/home/ericbuehler/vllm/.venv-bench/lib/python3.12/site-packages/vllm/model_executor/layers/fused_moe/fused_moe.py":387:48)
#loc10 = loc("/home/ericbuehler/vllm/.venv-bench/lib/python3.12/site-packages/vllm/model_executor/layers/fused_moe/fused_moe.py":388:34)
#loc11 = loc("/home/ericbuehler/vllm/.venv-bench/lib/python3.12/site-packages/vllm/model_executor/layers/fused_moe/fused_moe.py":388:54)
#loc12 = loc("/home/ericbuehler/vllm/.venv-bench/lib/python3.12/site-packages/vllm/model_executor/layers/fused_moe/fused_moe.py":388:27)
#loc13 = loc("/home/ericbuehler/vllm/.venv-bench/lib/python3.12/site-packages/vllm/model_executor/layers/fused_moe/fused_moe.py":389:40)
#loc14 = loc("/home/ericbuehler/vllm/.venv-bench/lib/python3.12/site-packages/vllm/model_executor/layers/fused_moe/fused_moe.py":397:24)
#loc15 = loc("/home/ericbuehler/vllm/.venv-bench/lib/python3.12/site-packages/vllm/model_executor/layers/fused_moe/fused_moe.py":397:41)
#loc16 = loc("/home/ericbuehler/vllm/.venv-bench/lib/python3.12/site-packages/vllm/model_executor/layers/fused_moe/fused_moe.py":398:37)
#loc17 = loc("/home/ericbuehler/vllm/.venv-bench/lib/python3.12/site-packages/vllm/model_executor/layers/fused_moe/fused_moe.py":399:15)
#loc18 = loc("/home/ericbuehler/vllm/.venv-bench/lib/python3.12/site-packages/vllm/model_executor/layers/fused_moe/fused_moe.py":399:31)
#loc19 = loc("/home/ericbuehler/vllm/.venv-bench/lib/python3.12/site-packages/vllm/model_executor/layers/fused_moe/fused_moe.py":400:8)
#loc20 = loc("/home/ericbuehler/vllm/.venv-bench/lib/python3.12/site-packages/vllm/model_executor/layers/fused_moe/fused_moe.py":402:47)
#loc21 = loc("/home/ericbuehler/vllm/.venv-bench/lib/python3.12/site-packages/vllm/model_executor/layers/fused_moe/fused_moe.py":403:52)
#loc22 = loc("/home/ericbuehler/vllm/.venv-bench/lib/python3.12/site-packages/vllm/model_executor/layers/fused_moe/fused_moe.py":403:29)
#loc23 = loc("/home/ericbuehler/vllm/.venv-bench/lib/python3.12/site-packages/vllm/model_executor/layers/fused_moe/fused_moe.py":412:31)
#loc24 = loc("/home/ericbuehler/vllm/.venv-bench/lib/python3.12/site-packages/vllm/model_executor/layers/fused_moe/fused_moe.py":414:30)
#loc25 = loc("/home/ericbuehler/vllm/.venv-bench/lib/python3.12/site-packages/vllm/model_executor/layers/fused_moe/fused_moe.py":416:43)
#loc26 = loc("/home/ericbuehler/vllm/.venv-bench/lib/python3.12/site-packages/vllm/model_executor/layers/fused_moe/fused_moe.py":416:26)
#loc27 = loc("/home/ericbuehler/vllm/.venv-bench/lib/python3.12/site-packages/vllm/model_executor/layers/fused_moe/fused_moe.py":416:53)
#loc28 = loc("/home/ericbuehler/vllm/.venv-bench/lib/python3.12/site-packages/vllm/model_executor/layers/fused_moe/fused_moe.py":417:22)
#loc29 = loc("/home/ericbuehler/vllm/.venv-bench/lib/python3.12/site-packages/vllm/model_executor/layers/fused_moe/fused_moe.py":54:22)
#loc30 = loc("/home/ericbuehler/vllm/.venv-bench/lib/python3.12/site-packages/vllm/model_executor/layers/fused_moe/fused_moe.py":431:12)
#loc31 = loc("/home/ericbuehler/vllm/.venv-bench/lib/python3.12/site-packages/vllm/model_executor/layers/fused_moe/fused_moe.py":54:50)
#loc32 = loc("/home/ericbuehler/vllm/.venv-bench/lib/python3.12/site-packages/vllm/model_executor/layers/fused_moe/fused_moe.py":54:37)
#loc33 = loc("/home/ericbuehler/vllm/.venv-bench/lib/python3.12/site-packages/vllm/model_executor/layers/fused_moe/fused_moe.py":55:44)
#loc34 = loc("/home/ericbuehler/vllm/.venv-bench/lib/python3.12/site-packages/vllm/model_executor/layers/fused_moe/fused_moe.py":55:33)
#loc35 = loc("/home/ericbuehler/vllm/.venv-bench/lib/python3.12/site-packages/vllm/model_executor/layers/fused_moe/fused_moe.py":55:21)
#loc36 = loc("/home/ericbuehler/vllm/.venv-bench/lib/python3.12/site-packages/vllm/model_executor/layers/fused_moe/fused_moe.py":55:75)
#loc37 = loc("/home/ericbuehler/vllm/.venv-bench/lib/python3.12/site-packages/vllm/model_executor/layers/fused_moe/fused_moe.py":55:55)
#loc38 = loc("/home/ericbuehler/vllm/.venv-bench/lib/python3.12/site-packages/vllm/model_executor/layers/fused_moe/fused_moe.py":56:24)
#loc39 = loc("/home/ericbuehler/vllm/.venv-bench/lib/python3.12/site-packages/vllm/model_executor/layers/fused_moe/fused_moe.py":56:55)
#loc40 = loc("/home/ericbuehler/vllm/.venv-bench/lib/python3.12/site-packages/vllm/model_executor/layers/fused_moe/fused_moe.py":56:36)
#loc41 = loc("/home/ericbuehler/vllm/.venv-bench/lib/python3.12/site-packages/vllm/model_executor/layers/fused_moe/fused_moe.py":57:21)
#loc42 = loc("/home/ericbuehler/vllm/.venv-bench/lib/python3.12/site-packages/vllm/model_executor/layers/fused_moe/fused_moe.py":433:8)
#loc43 = loc("/home/ericbuehler/vllm/.venv-bench/lib/python3.12/site-packages/vllm/model_executor/layers/fused_moe/fused_moe.py":435:23)
#loc44 = loc("/home/ericbuehler/vllm/.venv-bench/lib/python3.12/site-packages/vllm/model_executor/layers/fused_moe/fused_moe.py":435:51)
#loc45 = loc("/home/ericbuehler/vllm/.venv-bench/lib/python3.12/site-packages/vllm/model_executor/layers/fused_moe/fused_moe.py":435:68)
#loc46 = loc("/home/ericbuehler/vllm/.venv-bench/lib/python3.12/site-packages/vllm/model_executor/layers/fused_moe/fused_moe.py":435:38)
#loc47 = loc("/home/ericbuehler/vllm/.venv-bench/lib/python3.12/site-packages/vllm/model_executor/layers/fused_moe/fused_moe.py":435:81)
#loc48 = loc("/home/ericbuehler/vllm/.venv-bench/lib/python3.12/site-packages/vllm/model_executor/layers/fused_moe/fused_moe.py":436:26)
#loc49 = loc("/home/ericbuehler/vllm/.venv-bench/lib/python3.12/site-packages/vllm/model_executor/layers/fused_moe/fused_moe.py":438:19)
#loc50 = loc("/home/ericbuehler/vllm/.venv-bench/lib/python3.12/site-packages/vllm/model_executor/layers/fused_moe/fused_moe.py":438:31)
#loc51 = loc("/home/ericbuehler/vllm/.venv-bench/lib/python3.12/site-packages/vllm/model_executor/layers/fused_moe/fused_moe.py":438:39)
#loc52 = loc("/home/ericbuehler/vllm/.venv-bench/lib/python3.12/site-packages/vllm/model_executor/layers/fused_moe/fused_moe.py":438:58)
#loc53 = loc("/home/ericbuehler/vllm/.venv-bench/lib/python3.12/site-packages/vllm/model_executor/layers/fused_moe/fused_moe.py":438:51)
#loc54 = loc("/home/ericbuehler/vllm/.venv-bench/lib/python3.12/site-packages/vllm/model_executor/layers/fused_moe/fused_moe.py":438:8)
#loc55 = loc("/home/ericbuehler/vllm/.venv-bench/lib/python3.12/site-packages/vllm/model_executor/layers/fused_moe/fused_moe.py":443:24)
#loc56 = loc("/home/ericbuehler/vllm/.venv-bench/lib/python3.12/site-packages/vllm/model_executor/layers/fused_moe/fused_moe.py":443:10)
#loc57 = loc("/home/ericbuehler/vllm/.venv-bench/lib/python3.12/site-packages/vllm/model_executor/layers/fused_moe/fused_moe.py":444:18)
#loc58 = loc("/home/ericbuehler/vllm/.venv-bench/lib/python3.12/site-packages/vllm/model_executor/layers/fused_moe/fused_moe.py":444:49)
#loc59 = loc("/home/ericbuehler/vllm/.venv-bench/lib/python3.12/site-packages/vllm/model_executor/layers/fused_moe/fused_moe.py":444:60)
#loc60 = loc("/home/ericbuehler/vllm/.venv-bench/lib/python3.12/site-packages/vllm/model_executor/layers/fused_moe/fused_moe.py":444:41)
#loc61 = loc("/home/ericbuehler/vllm/.venv-bench/lib/python3.12/site-packages/vllm/model_executor/layers/fused_moe/fused_moe.py":444:11)
#loc62 = loc("/home/ericbuehler/vllm/.venv-bench/lib/python3.12/site-packages/vllm/model_executor/layers/fused_moe/fused_moe.py":483:33)
#loc63 = loc("/home/ericbuehler/vllm/.venv-bench/lib/python3.12/site-packages/vllm/model_executor/layers/fused_moe/fused_moe.py":483:22)
#loc64 = loc("/home/ericbuehler/vllm/.venv-bench/lib/python3.12/site-packages/vllm/model_executor/layers/fused_moe/fused_moe.py":488:28)
#loc65 = loc("/home/ericbuehler/vllm/.venv-bench/lib/python3.12/site-packages/vllm/model_executor/layers/fused_moe/fused_moe.py":488:66)
#loc66 = loc("/home/ericbuehler/vllm/.venv-bench/lib/python3.12/site-packages/vllm/model_executor/layers/fused_moe/fused_moe.py":488:62)
#loc67 = loc("/home/ericbuehler/vllm/.venv-bench/lib/python3.12/site-packages/vllm/model_executor/layers/fused_moe/fused_moe.py":488:58)
#loc68 = loc("/home/ericbuehler/vllm/.venv-bench/lib/python3.12/site-packages/vllm/model_executor/layers/fused_moe/fused_moe.py":488:40)
#loc69 = loc("/home/ericbuehler/vllm/.venv-bench/lib/python3.12/site-packages/vllm/model_executor/layers/fused_moe/fused_moe.py":487:12)
#loc70 = loc("/home/ericbuehler/vllm/.venv-bench/lib/python3.12/site-packages/vllm/model_executor/layers/fused_moe/fused_moe.py":491:51)
#loc71 = loc("/home/ericbuehler/vllm/.venv-bench/lib/python3.12/site-packages/vllm/model_executor/layers/fused_moe/fused_moe.py":491:20)
#loc72 = loc("/home/ericbuehler/vllm/.venv-bench/lib/python3.12/site-packages/vllm/model_executor/layers/fused_moe/fused_moe.py":512:37)
#loc73 = loc("/home/ericbuehler/vllm/.venv-bench/lib/python3.12/site-packages/vllm/model_executor/layers/fused_moe/fused_moe.py":514:18)
#loc74 = loc("/home/ericbuehler/vllm/.venv-bench/lib/python3.12/site-packages/vllm/model_executor/layers/fused_moe/fused_moe.py":515:18)
#loc75 = loc("/home/ericbuehler/vllm/.venv-bench/lib/python3.12/site-packages/vllm/model_executor/layers/fused_moe/fused_moe.py":515:8)
#loc76 = loc("/home/ericbuehler/vllm/.venv-bench/lib/python3.12/site-packages/vllm/model_executor/layers/fused_moe/fused_moe.py":548:33)
#loc77 = loc("/home/ericbuehler/vllm/.venv-bench/lib/python3.12/site-packages/vllm/model_executor/layers/fused_moe/fused_moe.py":552:37)
#loc78 = loc("/home/ericbuehler/vllm/.venv-bench/lib/python3.12/site-packages/vllm/model_executor/layers/fused_moe/fused_moe.py":553:33)
#loc79 = loc("/home/ericbuehler/vllm/.venv-bench/lib/python3.12/site-packages/vllm/model_executor/layers/fused_moe/fused_moe.py":553:21)
#loc80 = loc("/home/ericbuehler/vllm/.venv-bench/lib/python3.12/site-packages/vllm/model_executor/layers/fused_moe/fused_moe.py":553:75)
#loc81 = loc("/home/ericbuehler/vllm/.venv-bench/lib/python3.12/site-packages/vllm/model_executor/layers/fused_moe/fused_moe.py":553:55)
#loc82 = loc("/home/ericbuehler/vllm/.venv-bench/lib/python3.12/site-packages/vllm/model_executor/layers/fused_moe/fused_moe.py":554:24)
#loc83 = loc("/home/ericbuehler/vllm/.venv-bench/lib/python3.12/site-packages/vllm/model_executor/layers/fused_moe/fused_moe.py":554:55)
#loc84 = loc("/home/ericbuehler/vllm/.venv-bench/lib/python3.12/site-packages/vllm/model_executor/layers/fused_moe/fused_moe.py":554:36)
#loc85 = loc("/home/ericbuehler/vllm/.venv-bench/lib/python3.12/site-packages/vllm/model_executor/layers/fused_moe/fused_moe.py":555:21)
#loc86 = loc("/home/ericbuehler/vllm/.venv-bench/lib/python3.12/site-packages/vllm/model_executor/layers/fused_moe/fused_moe.py":555:4)
#loc108 = loc("num_pid_n"(#loc2))
#loc109 = loc("num_pid_m"(#loc3))
#loc110 = loc("pid"(#loc4))
#loc111 = loc("group_id"(#loc7))
#loc112 = loc("group_size_m"(#loc8))
#loc113 = loc("group_size_m"(#loc9))
#loc114 = loc("pid_m"(#loc10))
#loc115 = loc("pid_m"(#loc11))
#loc116 = loc("pid_m"(#loc12))
#loc117 = loc("pid_n"(#loc13))
#loc118 = loc("offs"(#loc14))
#loc119 = loc("offs"(#loc15))
#loc120 = loc("num_tokens_post_padded"(#loc16))
#loc121 = loc("offs_token_id"(#loc20))
#loc122 = loc("offs_token"(#loc21))
#loc123 = loc("offs_token"(#loc22))
#loc124 = loc("offs_token"(#loc23))
#loc125 = loc("token_mask"(#loc24))
#loc126 = loc("off_experts"(#loc25))
#loc127 = loc("off_experts"(#loc26))
#loc128 = loc("off_experts"(#loc27))
#loc129 = loc("offs_cn"(#loc29))
#loc130 = loc("offs_cn"(#loc31))
#loc131 = loc("offs_cn"(#loc32))
#loc132 = loc("c_ptrs"(#loc33))
#loc133 = loc("c_ptrs"(#loc34))
#loc134 = loc("c_ptrs"(#loc35))
#loc135 = loc("c_ptrs"(#loc36))
#loc136 = loc("c_ptrs"(#loc37))
#loc137 = loc("c_mask"(#loc38))
#loc138 = loc("c_mask"(#loc39))
#loc139 = loc("c_mask"(#loc40))
#loc140 = loc(callsite(#loc41 at #loc30))
#loc141 = loc("offs_bn"(#loc43))
#loc142 = loc("offs_bn"(#loc44))
#loc143 = loc("offs_bn"(#loc45))
#loc144 = loc("offs_bn"(#loc46))
#loc145 = loc("offs_bn"(#loc47))
#loc146 = loc("offs_k"(#loc48))
#loc147 = loc("a_ptrs"(#loc49))
#loc148 = loc("a_ptrs"(#loc50))
#loc149 = loc("a_ptrs"(#loc51))
#loc150 = loc("a_ptrs"(#loc52))
#loc151 = loc("a_ptrs"(#loc53))
#loc152 = loc("a_ptrs"(#loc54))
#loc153 = loc("b_ptrs"(#loc55))
#loc154 = loc("b_ptrs"(#loc56))
#loc155 = loc("b_ptrs"(#loc57))
#loc156 = loc("b_ptrs"(#loc58))
#loc157 = loc("b_ptrs"(#loc59))
#loc158 = loc("b_ptrs"(#loc60))
#loc159 = loc("b_ptrs"(#loc61))
#loc160 = loc(callsite(#loc5 at #loc62))
#loc161 = loc(callsite(#loc6 at #loc62))
#loc162 = loc("a_ptrs"(#loc63))
#loc163 = loc("a"(#loc64))
#loc164 = loc("a"(#loc65))
#loc165 = loc("a"(#loc66))
#loc166 = loc("a"(#loc67))
#loc167 = loc("a"(#loc68))
#loc168 = loc("a"(#loc69))
#loc169 = loc("b"(#loc70))
#loc170 = loc("b"(#loc71))
#loc171 = loc("accumulator"(#loc72))
#loc172 = loc("a_ptrs"(#loc73))
#loc173 = loc("b_ptrs"(#loc74))
#loc174 = loc("accumulator"(#loc76))
#loc175 = loc("offs_cn"(#loc77))
#loc176 = loc("c_ptrs"(#loc78))
#loc177 = loc("c_ptrs"(#loc79))
#loc178 = loc("c_ptrs"(#loc80))
#loc179 = loc("c_ptrs"(#loc81))
#loc180 = loc("c_mask"(#loc82))
#loc181 = loc("c_mask"(#loc83))
#loc182 = loc("c_mask"(#loc84))
#loc183 = loc(callsite(#loc1 at #loc108))
#loc184 = loc(callsite(#loc1 at #loc109))
#loc185 = loc(callsite(#loc5 at #loc109))
#loc186 = loc(callsite(#loc6 at #loc109))
#loc187 = loc(callsite(#loc5 at #loc108))
#loc188 = loc(callsite(#loc6 at #loc108))
#loc189 = loc(callsite(#loc129 at #loc30))
#loc190 = loc(callsite(#loc130 at #loc30))
#loc191 = loc(callsite(#loc131 at #loc30))
#loc192 = loc(callsite(#loc132 at #loc30))
#loc193 = loc(callsite(#loc133 at #loc30))
#loc194 = loc(callsite(#loc134 at #loc30))
#loc195 = loc(callsite(#loc135 at #loc30))
#loc196 = loc(callsite(#loc136 at #loc30))
#loc197 = loc(callsite(#loc137 at #loc30))
#loc198 = loc(callsite(#loc138 at #loc30))
#loc199 = loc(callsite(#loc139 at #loc30))
#loc200 = loc("b_ptrs"(#loc162))
#loc201 = loc("accumulator"(#loc200))
