#loc = loc("/home/ericbuehler/vllm/.venv-bench/lib/python3.12/site-packages/vllm/model_executor/layers/fused_moe/fused_moe.py":295:0)
#loc89 = loc("a_ptr"(#loc))
#loc90 = loc("b_ptr"(#loc))
#loc91 = loc("c_ptr"(#loc))
#loc92 = loc("topk_weights_ptr"(#loc))
#loc93 = loc("sorted_token_ids_ptr"(#loc))
#loc94 = loc("expert_ids_ptr"(#loc))
#loc95 = loc("num_tokens_post_padded_ptr"(#loc))
#loc96 = loc("N"(#loc))
#loc97 = loc("K"(#loc))
#loc98 = loc("EM"(#loc))
#loc99 = loc("num_valid_tokens"(#loc))
#loc100 = loc("stride_am"(#loc))
#loc101 = loc("stride_be"(#loc))
#loc102 = loc("stride_bn"(#loc))
#loc103 = loc("stride_cm"(#loc))
#loc104 = loc("stride_asm"(#loc))
#loc105 = loc("stride_ask"(#loc))
#loc106 = loc("stride_bse"(#loc))
#loc107 = loc("stride_bsk"(#loc))
#loc108 = loc("stride_bsn"(#loc))
#loc109 = loc("stride_bbe"(#loc))
#loc110 = loc("stride_bbn"(#loc))
module {
  tt.func public @fused_moe_kernel(%a_ptr: !tt.ptr<bf16> {tt.divisibility = 16 : i32} loc("a_ptr"(#loc)), %b_ptr: !tt.ptr<bf16> {tt.divisibility = 16 : i32} loc("b_ptr"(#loc)), %c_ptr: !tt.ptr<bf16> {tt.divisibility = 16 : i32} loc("c_ptr"(#loc)), %topk_weights_ptr: !tt.ptr<f32> {tt.divisibility = 16 : i32} loc("topk_weights_ptr"(#loc)), %sorted_token_ids_ptr: !tt.ptr<i32> {tt.divisibility = 16 : i32} loc("sorted_token_ids_ptr"(#loc)), %expert_ids_ptr: !tt.ptr<i32> {tt.divisibility = 16 : i32} loc("expert_ids_ptr"(#loc)), %num_tokens_post_padded_ptr: !tt.ptr<i32> {tt.divisibility = 16 : i32} loc("num_tokens_post_padded_ptr"(#loc)), %N: i32 {tt.divisibility = 16 : i32} loc("N"(#loc)), %K: i32 {tt.divisibility = 16 : i32} loc("K"(#loc)), %EM: i32 {tt.divisibility = 16 : i32} loc("EM"(#loc)), %num_valid_tokens: i32 {tt.divisibility = 16 : i32} loc("num_valid_tokens"(#loc)), %stride_am: i32 {tt.divisibility = 16 : i32} loc("stride_am"(#loc)), %stride_be: i32 {tt.divisibility = 16 : i32} loc("stride_be"(#loc)), %stride_bn: i32 {tt.divisibility = 16 : i32} loc("stride_bn"(#loc)), %stride_cm: i32 {tt.divisibility = 16 : i32} loc("stride_cm"(#loc)), %stride_asm: i32 {tt.divisibility = 16 : i32} loc("stride_asm"(#loc)), %stride_ask: i32 {tt.divisibility = 16 : i32} loc("stride_ask"(#loc)), %stride_bse: i32 {tt.divisibility = 16 : i32} loc("stride_bse"(#loc)), %stride_bsk: i32 {tt.divisibility = 16 : i32} loc("stride_bsk"(#loc)), %stride_bsn: i32 {tt.divisibility = 16 : i32} loc("stride_bsn"(#loc)), %stride_bbe: i32 {tt.divisibility = 16 : i32} loc("stride_bbe"(#loc)), %stride_bbn: i32 {tt.divisibility = 16 : i32} loc("stride_bbn"(#loc))) attributes {noinline = false} {
    %num_pid_n = arith.constant 127 : i32 loc(#loc188)
    %c63_i32 = arith.constant 63 : i32 loc(#loc1)
    %cst = arith.constant dense<0.000000e+00> : tensor<64xf32> loc(#loc1)
    %cst_0 = arith.constant dense<0.000000e+00> : tensor<64x128xbf16> loc(#loc1)
    %cst_1 = arith.constant dense<0.000000e+00> : tensor<64x64xbf16> loc(#loc1)
    %c0_i32 = arith.constant 0 : i32 loc(#loc1)
    %c-1_i64 = arith.constant -1 : i64 loc(#loc1)
    %cst_2 = arith.constant dense<64> : tensor<64x128xi32> loc(#loc1)
    %cst_3 = arith.constant dense<64> : tensor<64x64xi32> loc(#loc1)
    %cst_4 = arith.constant dense<0.000000e+00> : tensor<64x128xf32> loc(#loc1)
    %c128_i32 = arith.constant 128 : i32 loc(#loc1)
    %c64_i32 = arith.constant 64 : i32 loc(#loc1)
    %c1_i32 = arith.constant 1 : i32 loc(#loc1)
    %pid = tt.get_program_id x : i32 loc(#loc112)
    %num_pid_m = arith.addi %EM, %c63_i32 : i32 loc(#loc189)
    %num_pid_m_5 = arith.divsi %num_pid_m, %c64_i32 : i32 loc(#loc190)
    %num_pid_n_6 = arith.addi %N, %num_pid_n : i32 loc(#loc191)
    %num_pid_n_7 = arith.divsi %num_pid_n_6, %c128_i32 : i32 loc(#loc192)
    %group_id = arith.divsi %pid, %num_pid_n_7 : i32 loc(#loc114)
    %group_size_m = arith.subi %num_pid_m_5, %group_id : i32 loc(#loc115)
    %group_size_m_8 = arith.minsi %group_size_m, %c1_i32 : i32 loc(#loc116)
    %pid_m = arith.remsi %pid, %num_pid_n_7 : i32 loc(#loc117)
    %pid_m_9 = arith.remsi %pid_m, %group_size_m_8 : i32 loc(#loc118)
    %pid_m_10 = arith.addi %group_id, %pid_m_9 : i32 loc(#loc119)
    %pid_n = arith.divsi %pid_m, %group_size_m_8 : i32 loc(#loc120)
    %offs = tt.make_range {end = 64 : i32, start = 0 : i32} : tensor<64xi32> loc(#loc121)
    %offs_11 = arith.extsi %offs : tensor<64xi32> to tensor<64xi64> loc(#loc122)
    %num_tokens_post_padded = tt.load %num_tokens_post_padded_ptr : !tt.ptr<i32> loc(#loc123)
    %0 = arith.muli %pid_m_10, %c64_i32 : i32 loc(#loc17)
    %1 = arith.cmpi sge, %0, %num_tokens_post_padded : i32 loc(#loc18)
    cf.cond_br %1, ^bb1, ^bb2 loc(#loc18)
  ^bb1:  // pred: ^bb0
    tt.return loc(#loc19)
  ^bb2:  // pred: ^bb0
    %offs_token_id = arith.extsi %0 : i32 to i64 loc(#loc124)
    %offs_token_id_12 = tt.splat %offs_token_id : i64 -> tensor<64xi64> loc(#loc124)
    %offs_token_id_13 = arith.addi %offs_token_id_12, %offs_11 : tensor<64xi64> loc(#loc124)
    %offs_token = tt.splat %sorted_token_ids_ptr : !tt.ptr<i32> -> tensor<64x!tt.ptr<i32>> loc(#loc125)
    %offs_token_14 = tt.addptr %offs_token, %offs_token_id_13 : tensor<64x!tt.ptr<i32>>, tensor<64xi64> loc(#loc125)
    %offs_token_15 = tt.load %offs_token_14 : tensor<64x!tt.ptr<i32>> loc(#loc126)
    %offs_token_16 = arith.extsi %offs_token_15 : tensor<64xi32> to tensor<64xi64> loc(#loc127)
    %token_mask = arith.extsi %num_valid_tokens : i32 to i64 loc(#loc128)
    %token_mask_17 = tt.splat %token_mask : i64 -> tensor<64xi64> loc(#loc128)
    %token_mask_18 = arith.cmpi slt, %offs_token_16, %token_mask_17 : tensor<64xi64> loc(#loc128)
    %off_experts = tt.addptr %expert_ids_ptr, %pid_m_10 : !tt.ptr<i32>, i32 loc(#loc129)
    %off_experts_19 = tt.load %off_experts : !tt.ptr<i32> loc(#loc130)
    %off_experts_20 = arith.extsi %off_experts_19 : i32 to i64 loc(#loc131)
    %2 = arith.cmpi eq, %off_experts_20, %c-1_i64 : i64 loc(#loc28)
    cf.cond_br %2, ^bb3, ^bb4 loc(#loc28)
  ^bb3:  // pred: ^bb2
    %offs_cn = arith.muli %pid_n, %c128_i32 : i32 loc(#loc193)
    %offs_cn_21 = tt.make_range {end = 128 : i32, start = 0 : i32} : tensor<128xi32> loc(#loc194)
    %offs_cn_22 = tt.splat %offs_cn : i32 -> tensor<128xi32> loc(#loc195)
    %offs_cn_23 = arith.addi %offs_cn_22, %offs_cn_21 : tensor<128xi32> loc(#loc195)
    %c_ptrs = tt.expand_dims %offs_token_16 {axis = 1 : i32} : tensor<64xi64> -> tensor<64x1xi64> loc(#loc196)
    %c_ptrs_24 = arith.extsi %stride_cm : i32 to i64 loc(#loc197)
    %c_ptrs_25 = tt.splat %c_ptrs_24 : i64 -> tensor<64x1xi64> loc(#loc197)
    %c_ptrs_26 = arith.muli %c_ptrs_25, %c_ptrs : tensor<64x1xi64> loc(#loc197)
    %c_ptrs_27 = tt.splat %c_ptr : !tt.ptr<bf16> -> tensor<64x1x!tt.ptr<bf16>> loc(#loc198)
    %c_ptrs_28 = tt.addptr %c_ptrs_27, %c_ptrs_26 : tensor<64x1x!tt.ptr<bf16>>, tensor<64x1xi64> loc(#loc198)
    %c_ptrs_29 = tt.expand_dims %offs_cn_23 {axis = 0 : i32} : tensor<128xi32> -> tensor<1x128xi32> loc(#loc199)
    %c_ptrs_30 = tt.broadcast %c_ptrs_28 : tensor<64x1x!tt.ptr<bf16>> -> tensor<64x128x!tt.ptr<bf16>> loc(#loc200)
    %c_ptrs_31 = tt.broadcast %c_ptrs_29 : tensor<1x128xi32> -> tensor<64x128xi32> loc(#loc200)
    %c_ptrs_32 = tt.addptr %c_ptrs_30, %c_ptrs_31 : tensor<64x128x!tt.ptr<bf16>>, tensor<64x128xi32> loc(#loc200)
    %c_mask = tt.expand_dims %token_mask_18 {axis = 1 : i32} : tensor<64xi1> -> tensor<64x1xi1> loc(#loc201)
    %c_mask_33 = tt.splat %N : i32 -> tensor<1x128xi32> loc(#loc202)
    %c_mask_34 = arith.cmpi slt, %c_ptrs_29, %c_mask_33 : tensor<1x128xi32> loc(#loc202)
    %c_mask_35 = tt.broadcast %c_mask : tensor<64x1xi1> -> tensor<64x128xi1> loc(#loc203)
    %c_mask_36 = tt.broadcast %c_mask_34 : tensor<1x128xi1> -> tensor<64x128xi1> loc(#loc203)
    %c_mask_37 = arith.andi %c_mask_35, %c_mask_36 : tensor<64x128xi1> loc(#loc203)
    tt.store %c_ptrs_32, %cst_0, %c_mask_37 : tensor<64x128x!tt.ptr<bf16>> loc(#loc143)
    tt.return loc(#loc42)
  ^bb4:  // pred: ^bb2
    %offs_bn = arith.muli %pid_n, %c128_i32 : i32 loc(#loc144)
    %offs_bn_38 = tt.make_range {end = 128 : i32, start = 0 : i32} : tensor<128xi32> loc(#loc145)
    %offs_bn_39 = arith.extsi %offs_bn_38 : tensor<128xi32> to tensor<128xi64> loc(#loc146)
    %offs_bn_40 = arith.extsi %offs_bn : i32 to i64 loc(#loc147)
    %offs_bn_41 = tt.splat %offs_bn_40 : i64 -> tensor<128xi64> loc(#loc147)
    %offs_bn_42 = arith.addi %offs_bn_41, %offs_bn_39 : tensor<128xi64> loc(#loc147)
    %offs_bn_43 = arith.extsi %N : i32 to i64 loc(#loc148)
    %offs_bn_44 = tt.splat %offs_bn_43 : i64 -> tensor<128xi64> loc(#loc148)
    %offs_bn_45 = arith.remsi %offs_bn_42, %offs_bn_44 : tensor<128xi64> loc(#loc148)
    %a_ptrs = tt.expand_dims %offs_token_16 {axis = 1 : i32} : tensor<64xi64> -> tensor<64x1xi64> loc(#loc149)
    %a_ptrs_46 = arith.extsi %stride_am : i32 to i64 loc(#loc150)
    %a_ptrs_47 = tt.splat %a_ptrs_46 : i64 -> tensor<64x1xi64> loc(#loc150)
    %a_ptrs_48 = arith.muli %a_ptrs, %a_ptrs_47 : tensor<64x1xi64> loc(#loc150)
    %a_ptrs_49 = tt.expand_dims %offs {axis = 0 : i32} : tensor<64xi32> -> tensor<1x64xi32> loc(#loc151)
    %a_ptrs_50 = arith.extsi %a_ptrs_49 : tensor<1x64xi32> to tensor<1x64xi64> loc(#loc152)
    %a_ptrs_51 = tt.broadcast %a_ptrs_48 : tensor<64x1xi64> -> tensor<64x64xi64> loc(#loc152)
    %a_ptrs_52 = tt.broadcast %a_ptrs_50 : tensor<1x64xi64> -> tensor<64x64xi64> loc(#loc152)
    %a_ptrs_53 = arith.addi %a_ptrs_51, %a_ptrs_52 : tensor<64x64xi64> loc(#loc152)
    %a_ptrs_54 = tt.splat %a_ptr : !tt.ptr<bf16> -> tensor<64x64x!tt.ptr<bf16>> loc(#loc153)
    %a_ptrs_55 = tt.addptr %a_ptrs_54, %a_ptrs_53 : tensor<64x64x!tt.ptr<bf16>>, tensor<64x64xi64> loc(#loc153)
    %b_ptrs = arith.extsi %stride_be : i32 to i64 loc(#loc154)
    %b_ptrs_56 = arith.muli %off_experts_20, %b_ptrs : i64 loc(#loc154)
    %b_ptrs_57 = tt.addptr %b_ptr, %b_ptrs_56 : !tt.ptr<bf16>, i64 loc(#loc155)
    %b_ptrs_58 = tt.expand_dims %offs {axis = 1 : i32} : tensor<64xi32> -> tensor<64x1xi32> loc(#loc156)
    %b_ptrs_59 = tt.expand_dims %offs_bn_45 {axis = 0 : i32} : tensor<128xi64> -> tensor<1x128xi64> loc(#loc157)
    %b_ptrs_60 = arith.extsi %stride_bn : i32 to i64 loc(#loc158)
    %b_ptrs_61 = tt.splat %b_ptrs_60 : i64 -> tensor<1x128xi64> loc(#loc158)
    %b_ptrs_62 = arith.muli %b_ptrs_59, %b_ptrs_61 : tensor<1x128xi64> loc(#loc158)
    %b_ptrs_63 = arith.extsi %b_ptrs_58 : tensor<64x1xi32> to tensor<64x1xi64> loc(#loc159)
    %b_ptrs_64 = tt.broadcast %b_ptrs_63 : tensor<64x1xi64> -> tensor<64x128xi64> loc(#loc159)
    %b_ptrs_65 = tt.broadcast %b_ptrs_62 : tensor<1x128xi64> -> tensor<64x128xi64> loc(#loc159)
    %b_ptrs_66 = arith.addi %b_ptrs_64, %b_ptrs_65 : tensor<64x128xi64> loc(#loc159)
    %b_ptrs_67 = tt.splat %b_ptrs_57 : !tt.ptr<bf16> -> tensor<64x128x!tt.ptr<bf16>> loc(#loc160)
    %b_ptrs_68 = tt.addptr %b_ptrs_67, %b_ptrs_66 : tensor<64x128x!tt.ptr<bf16>>, tensor<64x128xi64> loc(#loc160)
    %3 = arith.addi %K, %c63_i32 : i32 loc(#loc161)
    %4 = arith.divsi %3, %c64_i32 : i32 loc(#loc162)
    %accumulator:3 = scf.for %k = %c0_i32 to %4 step %c1_i32 iter_args(%a_ptrs_92 = %a_ptrs_55, %b_ptrs_93 = %b_ptrs_68, %accumulator_94 = %cst_4) -> (tensor<64x64x!tt.ptr<bf16>>, tensor<64x128x!tt.ptr<bf16>>, tensor<64x128xf32>)  : i32 {
      %a = tt.expand_dims %token_mask_18 {axis = 1 : i32} : tensor<64xi1> -> tensor<64x1xi1> loc(#loc164)
      %a_95 = arith.muli %k, %c64_i32 : i32 loc(#loc165)
      %a_96 = arith.subi %K, %a_95 : i32 loc(#loc166)
      %a_97 = tt.splat %a_96 : i32 -> tensor<1x64xi32> loc(#loc167)
      %a_98 = arith.cmpi slt, %a_ptrs_49, %a_97 : tensor<1x64xi32> loc(#loc167)
      %a_99 = tt.broadcast %a : tensor<64x1xi1> -> tensor<64x64xi1> loc(#loc168)
      %a_100 = tt.broadcast %a_98 : tensor<1x64xi1> -> tensor<64x64xi1> loc(#loc168)
      %a_101 = arith.andi %a_99, %a_100 : tensor<64x64xi1> loc(#loc168)
      %a_102 = tt.load %a_ptrs_92, %a_101, %cst_1 : tensor<64x64x!tt.ptr<bf16>> loc(#loc169)
      %b = tt.splat %a_96 : i32 -> tensor<64x1xi32> loc(#loc170)
      %b_103 = arith.cmpi slt, %b_ptrs_58, %b : tensor<64x1xi32> loc(#loc170)
      %b_104 = tt.broadcast %b_103 : tensor<64x1xi1> -> tensor<64x128xi1> loc(#loc171)
      %b_105 = tt.load %b_ptrs_93, %b_104, %cst_0 : tensor<64x128x!tt.ptr<bf16>> loc(#loc171)
      %accumulator_106 = tt.dot %a_102, %b_105, %accumulator_94, inputPrecision = tf32 : tensor<64x64xbf16> * tensor<64x128xbf16> -> tensor<64x128xf32> loc(#loc172)
      %a_ptrs_107 = tt.addptr %a_ptrs_92, %cst_3 : tensor<64x64x!tt.ptr<bf16>>, tensor<64x64xi32> loc(#loc173)
      %b_ptrs_108 = tt.addptr %b_ptrs_93, %cst_2 : tensor<64x128x!tt.ptr<bf16>>, tensor<64x128xi32> loc(#loc174)
      scf.yield %a_ptrs_107, %b_ptrs_108, %accumulator_106 : tensor<64x64x!tt.ptr<bf16>>, tensor<64x128x!tt.ptr<bf16>>, tensor<64x128xf32> loc(#loc73)
    } loc(#loc205)
    %moe_weight = tt.splat %topk_weights_ptr : !tt.ptr<f32> -> tensor<64x!tt.ptr<f32>> loc(#loc175)
    %moe_weight_69 = tt.addptr %moe_weight, %offs_token_16 : tensor<64x!tt.ptr<f32>>, tensor<64xi64> loc(#loc175)
    %moe_weight_70 = tt.load %moe_weight_69, %token_mask_18, %cst : tensor<64x!tt.ptr<f32>> loc(#loc176)
    %accumulator_71 = tt.expand_dims %moe_weight_70 {axis = 1 : i32} : tensor<64xf32> -> tensor<64x1xf32> loc(#loc177)
    %accumulator_72 = tt.broadcast %accumulator_71 : tensor<64x1xf32> -> tensor<64x128xf32> loc(#loc178)
    %accumulator_73 = arith.mulf %accumulator#2, %accumulator_72 : tensor<64x128xf32> loc(#loc178)
    %accumulator_74 = arith.truncf %accumulator_73 : tensor<64x128xf32> to tensor<64x128xbf16> loc(#loc179)
    %offs_cn_75 = tt.splat %offs_bn : i32 -> tensor<128xi32> loc(#loc180)
    %offs_cn_76 = arith.addi %offs_cn_75, %offs_bn_38 : tensor<128xi32> loc(#loc180)
    %c_ptrs_77 = arith.extsi %stride_cm : i32 to i64 loc(#loc181)
    %c_ptrs_78 = tt.splat %c_ptrs_77 : i64 -> tensor<64x1xi64> loc(#loc181)
    %c_ptrs_79 = arith.muli %c_ptrs_78, %a_ptrs : tensor<64x1xi64> loc(#loc181)
    %c_ptrs_80 = tt.splat %c_ptr : !tt.ptr<bf16> -> tensor<64x1x!tt.ptr<bf16>> loc(#loc182)
    %c_ptrs_81 = tt.addptr %c_ptrs_80, %c_ptrs_79 : tensor<64x1x!tt.ptr<bf16>>, tensor<64x1xi64> loc(#loc182)
    %c_ptrs_82 = tt.expand_dims %offs_cn_76 {axis = 0 : i32} : tensor<128xi32> -> tensor<1x128xi32> loc(#loc183)
    %c_ptrs_83 = tt.broadcast %c_ptrs_81 : tensor<64x1x!tt.ptr<bf16>> -> tensor<64x128x!tt.ptr<bf16>> loc(#loc184)
    %c_ptrs_84 = tt.broadcast %c_ptrs_82 : tensor<1x128xi32> -> tensor<64x128xi32> loc(#loc184)
    %c_ptrs_85 = tt.addptr %c_ptrs_83, %c_ptrs_84 : tensor<64x128x!tt.ptr<bf16>>, tensor<64x128xi32> loc(#loc184)
    %c_mask_86 = tt.expand_dims %token_mask_18 {axis = 1 : i32} : tensor<64xi1> -> tensor<64x1xi1> loc(#loc185)
    %c_mask_87 = tt.splat %N : i32 -> tensor<1x128xi32> loc(#loc186)
    %c_mask_88 = arith.cmpi slt, %c_ptrs_82, %c_mask_87 : tensor<1x128xi32> loc(#loc186)
    %c_mask_89 = tt.broadcast %c_mask_86 : tensor<64x1xi1> -> tensor<64x128xi1> loc(#loc187)
    %c_mask_90 = tt.broadcast %c_mask_88 : tensor<1x128xi1> -> tensor<64x128xi1> loc(#loc187)
    %c_mask_91 = arith.andi %c_mask_89, %c_mask_90 : tensor<64x128xi1> loc(#loc187)
    tt.store %c_ptrs_85, %accumulator_74, %c_mask_91 : tensor<64x128x!tt.ptr<bf16>> loc(#loc87)
    tt.return loc(#loc88)
  } loc(#loc)
} loc(#loc)
#loc1 = loc(unknown)
#loc2 = loc("/home/ericbuehler/vllm/.venv-bench/lib/python3.12/site-packages/vllm/model_executor/layers/fused_moe/fused_moe.py":383:27)
#loc3 = loc("/home/ericbuehler/vllm/.venv-bench/lib/python3.12/site-packages/vllm/model_executor/layers/fused_moe/fused_moe.py":381:24)
#loc4 = loc("/home/ericbuehler/vllm/.venv-bench/lib/python3.12/site-packages/triton/language/standard.py":43:17)
#loc5 = loc("/home/ericbuehler/vllm/.venv-bench/lib/python3.12/site-packages/vllm/model_executor/layers/fused_moe/fused_moe.py":382:28)
#loc6 = loc("/home/ericbuehler/vllm/.venv-bench/lib/python3.12/site-packages/triton/language/standard.py":43:30)
#loc7 = loc("/home/ericbuehler/vllm/.venv-bench/lib/python3.12/site-packages/vllm/model_executor/layers/fused_moe/fused_moe.py":385:22)
#loc8 = loc("/home/ericbuehler/vllm/.venv-bench/lib/python3.12/site-packages/vllm/model_executor/layers/fused_moe/fused_moe.py":387:35)
#loc9 = loc("/home/ericbuehler/vllm/.venv-bench/lib/python3.12/site-packages/vllm/model_executor/layers/fused_moe/fused_moe.py":387:48)
#loc10 = loc("/home/ericbuehler/vllm/.venv-bench/lib/python3.12/site-packages/vllm/model_executor/layers/fused_moe/fused_moe.py":388:34)
#loc11 = loc("/home/ericbuehler/vllm/.venv-bench/lib/python3.12/site-packages/vllm/model_executor/layers/fused_moe/fused_moe.py":388:54)
#loc12 = loc("/home/ericbuehler/vllm/.venv-bench/lib/python3.12/site-packages/vllm/model_executor/layers/fused_moe/fused_moe.py":388:27)
#loc13 = loc("/home/ericbuehler/vllm/.venv-bench/lib/python3.12/site-packages/vllm/model_executor/layers/fused_moe/fused_moe.py":389:40)
#loc14 = loc("/home/ericbuehler/vllm/.venv-bench/lib/python3.12/site-packages/vllm/model_executor/layers/fused_moe/fused_moe.py":397:24)
#loc15 = loc("/home/ericbuehler/vllm/.venv-bench/lib/python3.12/site-packages/vllm/model_executor/layers/fused_moe/fused_moe.py":397:41)
#loc16 = loc("/home/ericbuehler/vllm/.venv-bench/lib/python3.12/site-packages/vllm/model_executor/layers/fused_moe/fused_moe.py":398:37)
#loc17 = loc("/home/ericbuehler/vllm/.venv-bench/lib/python3.12/site-packages/vllm/model_executor/layers/fused_moe/fused_moe.py":399:15)
#loc18 = loc("/home/ericbuehler/vllm/.venv-bench/lib/python3.12/site-packages/vllm/model_executor/layers/fused_moe/fused_moe.py":399:31)
#loc19 = loc("/home/ericbuehler/vllm/.venv-bench/lib/python3.12/site-packages/vllm/model_executor/layers/fused_moe/fused_moe.py":400:8)
#loc20 = loc("/home/ericbuehler/vllm/.venv-bench/lib/python3.12/site-packages/vllm/model_executor/layers/fused_moe/fused_moe.py":402:47)
#loc21 = loc("/home/ericbuehler/vllm/.venv-bench/lib/python3.12/site-packages/vllm/model_executor/layers/fused_moe/fused_moe.py":403:52)
#loc22 = loc("/home/ericbuehler/vllm/.venv-bench/lib/python3.12/site-packages/vllm/model_executor/layers/fused_moe/fused_moe.py":403:29)
#loc23 = loc("/home/ericbuehler/vllm/.venv-bench/lib/python3.12/site-packages/vllm/model_executor/layers/fused_moe/fused_moe.py":412:31)
#loc24 = loc("/home/ericbuehler/vllm/.venv-bench/lib/python3.12/site-packages/vllm/model_executor/layers/fused_moe/fused_moe.py":414:30)
#loc25 = loc("/home/ericbuehler/vllm/.venv-bench/lib/python3.12/site-packages/vllm/model_executor/layers/fused_moe/fused_moe.py":416:43)
#loc26 = loc("/home/ericbuehler/vllm/.venv-bench/lib/python3.12/site-packages/vllm/model_executor/layers/fused_moe/fused_moe.py":416:26)
#loc27 = loc("/home/ericbuehler/vllm/.venv-bench/lib/python3.12/site-packages/vllm/model_executor/layers/fused_moe/fused_moe.py":416:53)
#loc28 = loc("/home/ericbuehler/vllm/.venv-bench/lib/python3.12/site-packages/vllm/model_executor/layers/fused_moe/fused_moe.py":417:22)
#loc29 = loc("/home/ericbuehler/vllm/.venv-bench/lib/python3.12/site-packages/vllm/model_executor/layers/fused_moe/fused_moe.py":54:22)
#loc30 = loc("/home/ericbuehler/vllm/.venv-bench/lib/python3.12/site-packages/vllm/model_executor/layers/fused_moe/fused_moe.py":431:12)
#loc31 = loc("/home/ericbuehler/vllm/.venv-bench/lib/python3.12/site-packages/vllm/model_executor/layers/fused_moe/fused_moe.py":54:50)
#loc32 = loc("/home/ericbuehler/vllm/.venv-bench/lib/python3.12/site-packages/vllm/model_executor/layers/fused_moe/fused_moe.py":54:37)
#loc33 = loc("/home/ericbuehler/vllm/.venv-bench/lib/python3.12/site-packages/vllm/model_executor/layers/fused_moe/fused_moe.py":55:44)
#loc34 = loc("/home/ericbuehler/vllm/.venv-bench/lib/python3.12/site-packages/vllm/model_executor/layers/fused_moe/fused_moe.py":55:33)
#loc35 = loc("/home/ericbuehler/vllm/.venv-bench/lib/python3.12/site-packages/vllm/model_executor/layers/fused_moe/fused_moe.py":55:21)
#loc36 = loc("/home/ericbuehler/vllm/.venv-bench/lib/python3.12/site-packages/vllm/model_executor/layers/fused_moe/fused_moe.py":55:75)
#loc37 = loc("/home/ericbuehler/vllm/.venv-bench/lib/python3.12/site-packages/vllm/model_executor/layers/fused_moe/fused_moe.py":55:55)
#loc38 = loc("/home/ericbuehler/vllm/.venv-bench/lib/python3.12/site-packages/vllm/model_executor/layers/fused_moe/fused_moe.py":56:24)
#loc39 = loc("/home/ericbuehler/vllm/.venv-bench/lib/python3.12/site-packages/vllm/model_executor/layers/fused_moe/fused_moe.py":56:55)
#loc40 = loc("/home/ericbuehler/vllm/.venv-bench/lib/python3.12/site-packages/vllm/model_executor/layers/fused_moe/fused_moe.py":56:36)
#loc41 = loc("/home/ericbuehler/vllm/.venv-bench/lib/python3.12/site-packages/vllm/model_executor/layers/fused_moe/fused_moe.py":57:21)
#loc42 = loc("/home/ericbuehler/vllm/.venv-bench/lib/python3.12/site-packages/vllm/model_executor/layers/fused_moe/fused_moe.py":433:8)
#loc43 = loc("/home/ericbuehler/vllm/.venv-bench/lib/python3.12/site-packages/vllm/model_executor/layers/fused_moe/fused_moe.py":435:23)
#loc44 = loc("/home/ericbuehler/vllm/.venv-bench/lib/python3.12/site-packages/vllm/model_executor/layers/fused_moe/fused_moe.py":435:51)
#loc45 = loc("/home/ericbuehler/vllm/.venv-bench/lib/python3.12/site-packages/vllm/model_executor/layers/fused_moe/fused_moe.py":435:68)
#loc46 = loc("/home/ericbuehler/vllm/.venv-bench/lib/python3.12/site-packages/vllm/model_executor/layers/fused_moe/fused_moe.py":435:38)
#loc47 = loc("/home/ericbuehler/vllm/.venv-bench/lib/python3.12/site-packages/vllm/model_executor/layers/fused_moe/fused_moe.py":435:81)
#loc48 = loc("/home/ericbuehler/vllm/.venv-bench/lib/python3.12/site-packages/vllm/model_executor/layers/fused_moe/fused_moe.py":438:19)
#loc49 = loc("/home/ericbuehler/vllm/.venv-bench/lib/python3.12/site-packages/vllm/model_executor/layers/fused_moe/fused_moe.py":438:39)
#loc50 = loc("/home/ericbuehler/vllm/.venv-bench/lib/python3.12/site-packages/vllm/model_executor/layers/fused_moe/fused_moe.py":438:58)
#loc51 = loc("/home/ericbuehler/vllm/.venv-bench/lib/python3.12/site-packages/vllm/model_executor/layers/fused_moe/fused_moe.py":438:51)
#loc52 = loc("/home/ericbuehler/vllm/.venv-bench/lib/python3.12/site-packages/vllm/model_executor/layers/fused_moe/fused_moe.py":438:8)
#loc53 = loc("/home/ericbuehler/vllm/.venv-bench/lib/python3.12/site-packages/vllm/model_executor/layers/fused_moe/fused_moe.py":443:24)
#loc54 = loc("/home/ericbuehler/vllm/.venv-bench/lib/python3.12/site-packages/vllm/model_executor/layers/fused_moe/fused_moe.py":443:10)
#loc55 = loc("/home/ericbuehler/vllm/.venv-bench/lib/python3.12/site-packages/vllm/model_executor/layers/fused_moe/fused_moe.py":444:18)
#loc56 = loc("/home/ericbuehler/vllm/.venv-bench/lib/python3.12/site-packages/vllm/model_executor/layers/fused_moe/fused_moe.py":444:49)
#loc57 = loc("/home/ericbuehler/vllm/.venv-bench/lib/python3.12/site-packages/vllm/model_executor/layers/fused_moe/fused_moe.py":444:60)
#loc58 = loc("/home/ericbuehler/vllm/.venv-bench/lib/python3.12/site-packages/vllm/model_executor/layers/fused_moe/fused_moe.py":444:41)
#loc59 = loc("/home/ericbuehler/vllm/.venv-bench/lib/python3.12/site-packages/vllm/model_executor/layers/fused_moe/fused_moe.py":444:11)
#loc60 = loc("/home/ericbuehler/vllm/.venv-bench/lib/python3.12/site-packages/vllm/model_executor/layers/fused_moe/fused_moe.py":483:33)
#loc61 = loc("/home/ericbuehler/vllm/.venv-bench/lib/python3.12/site-packages/vllm/model_executor/layers/fused_moe/fused_moe.py":483:22)
#loc62 = loc("/home/ericbuehler/vllm/.venv-bench/lib/python3.12/site-packages/vllm/model_executor/layers/fused_moe/fused_moe.py":488:28)
#loc63 = loc("/home/ericbuehler/vllm/.venv-bench/lib/python3.12/site-packages/vllm/model_executor/layers/fused_moe/fused_moe.py":488:66)
#loc64 = loc("/home/ericbuehler/vllm/.venv-bench/lib/python3.12/site-packages/vllm/model_executor/layers/fused_moe/fused_moe.py":488:62)
#loc65 = loc("/home/ericbuehler/vllm/.venv-bench/lib/python3.12/site-packages/vllm/model_executor/layers/fused_moe/fused_moe.py":488:58)
#loc66 = loc("/home/ericbuehler/vllm/.venv-bench/lib/python3.12/site-packages/vllm/model_executor/layers/fused_moe/fused_moe.py":488:40)
#loc67 = loc("/home/ericbuehler/vllm/.venv-bench/lib/python3.12/site-packages/vllm/model_executor/layers/fused_moe/fused_moe.py":487:12)
#loc68 = loc("/home/ericbuehler/vllm/.venv-bench/lib/python3.12/site-packages/vllm/model_executor/layers/fused_moe/fused_moe.py":491:51)
#loc69 = loc("/home/ericbuehler/vllm/.venv-bench/lib/python3.12/site-packages/vllm/model_executor/layers/fused_moe/fused_moe.py":491:20)
#loc70 = loc("/home/ericbuehler/vllm/.venv-bench/lib/python3.12/site-packages/vllm/model_executor/layers/fused_moe/fused_moe.py":512:37)
#loc71 = loc("/home/ericbuehler/vllm/.venv-bench/lib/python3.12/site-packages/vllm/model_executor/layers/fused_moe/fused_moe.py":514:18)
#loc72 = loc("/home/ericbuehler/vllm/.venv-bench/lib/python3.12/site-packages/vllm/model_executor/layers/fused_moe/fused_moe.py":515:18)
#loc73 = loc("/home/ericbuehler/vllm/.venv-bench/lib/python3.12/site-packages/vllm/model_executor/layers/fused_moe/fused_moe.py":515:8)
#loc74 = loc("/home/ericbuehler/vllm/.venv-bench/lib/python3.12/site-packages/vllm/model_executor/layers/fused_moe/fused_moe.py":540:31)
#loc75 = loc("/home/ericbuehler/vllm/.venv-bench/lib/python3.12/site-packages/vllm/model_executor/layers/fused_moe/fused_moe.py":540:12)
#loc76 = loc("/home/ericbuehler/vllm/.venv-bench/lib/python3.12/site-packages/vllm/model_executor/layers/fused_moe/fused_moe.py":544:34)
#loc77 = loc("/home/ericbuehler/vllm/.venv-bench/lib/python3.12/site-packages/vllm/model_executor/layers/fused_moe/fused_moe.py":544:23)
#loc78 = loc("/home/ericbuehler/vllm/.venv-bench/lib/python3.12/site-packages/vllm/model_executor/layers/fused_moe/fused_moe.py":548:33)
#loc79 = loc("/home/ericbuehler/vllm/.venv-bench/lib/python3.12/site-packages/vllm/model_executor/layers/fused_moe/fused_moe.py":552:37)
#loc80 = loc("/home/ericbuehler/vllm/.venv-bench/lib/python3.12/site-packages/vllm/model_executor/layers/fused_moe/fused_moe.py":553:33)
#loc81 = loc("/home/ericbuehler/vllm/.venv-bench/lib/python3.12/site-packages/vllm/model_executor/layers/fused_moe/fused_moe.py":553:21)
#loc82 = loc("/home/ericbuehler/vllm/.venv-bench/lib/python3.12/site-packages/vllm/model_executor/layers/fused_moe/fused_moe.py":553:75)
#loc83 = loc("/home/ericbuehler/vllm/.venv-bench/lib/python3.12/site-packages/vllm/model_executor/layers/fused_moe/fused_moe.py":553:55)
#loc84 = loc("/home/ericbuehler/vllm/.venv-bench/lib/python3.12/site-packages/vllm/model_executor/layers/fused_moe/fused_moe.py":554:24)
#loc85 = loc("/home/ericbuehler/vllm/.venv-bench/lib/python3.12/site-packages/vllm/model_executor/layers/fused_moe/fused_moe.py":554:55)
#loc86 = loc("/home/ericbuehler/vllm/.venv-bench/lib/python3.12/site-packages/vllm/model_executor/layers/fused_moe/fused_moe.py":554:36)
#loc87 = loc("/home/ericbuehler/vllm/.venv-bench/lib/python3.12/site-packages/vllm/model_executor/layers/fused_moe/fused_moe.py":555:21)
#loc88 = loc("/home/ericbuehler/vllm/.venv-bench/lib/python3.12/site-packages/vllm/model_executor/layers/fused_moe/fused_moe.py":555:4)
#loc111 = loc("num_pid_n"(#loc2))
#loc112 = loc("pid"(#loc3))
#loc113 = loc("num_pid_m"(#loc5))
#loc114 = loc("group_id"(#loc7))
#loc115 = loc("group_size_m"(#loc8))
#loc116 = loc("group_size_m"(#loc9))
#loc117 = loc("pid_m"(#loc10))
#loc118 = loc("pid_m"(#loc11))
#loc119 = loc("pid_m"(#loc12))
#loc120 = loc("pid_n"(#loc13))
#loc121 = loc("offs"(#loc14))
#loc122 = loc("offs"(#loc15))
#loc123 = loc("num_tokens_post_padded"(#loc16))
#loc124 = loc("offs_token_id"(#loc20))
#loc125 = loc("offs_token"(#loc21))
#loc126 = loc("offs_token"(#loc22))
#loc127 = loc("offs_token"(#loc23))
#loc128 = loc("token_mask"(#loc24))
#loc129 = loc("off_experts"(#loc25))
#loc130 = loc("off_experts"(#loc26))
#loc131 = loc("off_experts"(#loc27))
#loc132 = loc("offs_cn"(#loc29))
#loc133 = loc("offs_cn"(#loc31))
#loc134 = loc("offs_cn"(#loc32))
#loc135 = loc("c_ptrs"(#loc33))
#loc136 = loc("c_ptrs"(#loc34))
#loc137 = loc("c_ptrs"(#loc35))
#loc138 = loc("c_ptrs"(#loc36))
#loc139 = loc("c_ptrs"(#loc37))
#loc140 = loc("c_mask"(#loc38))
#loc141 = loc("c_mask"(#loc39))
#loc142 = loc("c_mask"(#loc40))
#loc143 = loc(callsite(#loc41 at #loc30))
#loc144 = loc("offs_bn"(#loc43))
#loc145 = loc("offs_bn"(#loc44))
#loc146 = loc("offs_bn"(#loc45))
#loc147 = loc("offs_bn"(#loc46))
#loc148 = loc("offs_bn"(#loc47))
#loc149 = loc("a_ptrs"(#loc48))
#loc150 = loc("a_ptrs"(#loc49))
#loc151 = loc("a_ptrs"(#loc50))
#loc152 = loc("a_ptrs"(#loc51))
#loc153 = loc("a_ptrs"(#loc52))
#loc154 = loc("b_ptrs"(#loc53))
#loc155 = loc("b_ptrs"(#loc54))
#loc156 = loc("b_ptrs"(#loc55))
#loc157 = loc("b_ptrs"(#loc56))
#loc158 = loc("b_ptrs"(#loc57))
#loc159 = loc("b_ptrs"(#loc58))
#loc160 = loc("b_ptrs"(#loc59))
#loc161 = loc(callsite(#loc4 at #loc60))
#loc162 = loc(callsite(#loc6 at #loc60))
#loc163 = loc("a_ptrs"(#loc61))
#loc164 = loc("a"(#loc62))
#loc165 = loc("a"(#loc63))
#loc166 = loc("a"(#loc64))
#loc167 = loc("a"(#loc65))
#loc168 = loc("a"(#loc66))
#loc169 = loc("a"(#loc67))
#loc170 = loc("b"(#loc68))
#loc171 = loc("b"(#loc69))
#loc172 = loc("accumulator"(#loc70))
#loc173 = loc("a_ptrs"(#loc71))
#loc174 = loc("b_ptrs"(#loc72))
#loc175 = loc("moe_weight"(#loc74))
#loc176 = loc("moe_weight"(#loc75))
#loc177 = loc("accumulator"(#loc76))
#loc178 = loc("accumulator"(#loc77))
#loc179 = loc("accumulator"(#loc78))
#loc180 = loc("offs_cn"(#loc79))
#loc181 = loc("c_ptrs"(#loc80))
#loc182 = loc("c_ptrs"(#loc81))
#loc183 = loc("c_ptrs"(#loc82))
#loc184 = loc("c_ptrs"(#loc83))
#loc185 = loc("c_mask"(#loc84))
#loc186 = loc("c_mask"(#loc85))
#loc187 = loc("c_mask"(#loc86))
#loc188 = loc(callsite(#loc1 at #loc111))
#loc189 = loc(callsite(#loc4 at #loc113))
#loc190 = loc(callsite(#loc6 at #loc113))
#loc191 = loc(callsite(#loc4 at #loc111))
#loc192 = loc(callsite(#loc6 at #loc111))
#loc193 = loc(callsite(#loc132 at #loc30))
#loc194 = loc(callsite(#loc133 at #loc30))
#loc195 = loc(callsite(#loc134 at #loc30))
#loc196 = loc(callsite(#loc135 at #loc30))
#loc197 = loc(callsite(#loc136 at #loc30))
#loc198 = loc(callsite(#loc137 at #loc30))
#loc199 = loc(callsite(#loc138 at #loc30))
#loc200 = loc(callsite(#loc139 at #loc30))
#loc201 = loc(callsite(#loc140 at #loc30))
#loc202 = loc(callsite(#loc141 at #loc30))
#loc203 = loc(callsite(#loc142 at #loc30))
#loc204 = loc("b_ptrs"(#loc163))
#loc205 = loc("accumulator"(#loc204))
