#loc = loc("/home/ericbuehler/vllm/.venv-bench/lib/python3.12/site-packages/vllm/model_executor/models/gemma4.py":93:0)
#loc2 = loc(unknown)
#loc15 = loc("/home/ericbuehler/vllm/.venv-bench/lib/python3.12/site-packages/vllm/model_executor/models/gemma4.py":112:19)
#loc29 = loc("/home/ericbuehler/vllm/.venv-bench/lib/python3.12/site-packages/triton/language/standard.py":465:21)
#loc30 = loc("/home/ericbuehler/vllm/.venv-bench/lib/python3.12/site-packages/vllm/model_executor/models/gemma4.py":122:23)
#loc33 = loc("/home/ericbuehler/vllm/.venv-bench/lib/python3.12/site-packages/triton/language/standard.py":450:43)
#loc36 = loc("/home/ericbuehler/vllm/.venv-bench/lib/python3.12/site-packages/triton/language/standard.py":381:42)
#loc37 = loc("/home/ericbuehler/vllm/.venv-bench/lib/python3.12/site-packages/triton/language/standard.py":410:39)
#loc61 = loc("/home/ericbuehler/vllm/.venv-bench/lib/python3.12/site-packages/vllm/model_executor/models/gemma4.py":138:24)
#loc78 = loc("gating_ptr"(#loc))
#loc79 = loc("per_expert_scale_ptr"(#loc))
#loc80 = loc("topk_weights_ptr"(#loc))
#loc81 = loc("topk_ids_ptr"(#loc))
#loc94 = loc("max_l"(#loc15))
#loc107 = loc("sorted_p"(#loc30))
#loc110 = loc("h"(#loc33))
#loc112 = loc("iy"(#loc36))
#loc113 = loc("x"(#loc37))
#loc134 = loc("renorm_raw"(#loc61))
#loc146 = loc(callsite(#loc2 at #loc94))
#loc147 = loc(callsite(#loc29 at #loc107))
#loc149 = loc(callsite(#loc2 at #loc134))
#loc152 = loc(callsite(#loc110 at #loc147))
#loc156 = loc(callsite(#loc113 at #loc152))
#loc159 = loc(callsite(#loc112 at #loc156))
#loc167 = loc(callsite(#loc2 at #loc159))
module {
  tt.func public @_gemma4_routing_kernel(%gating_ptr: !tt.ptr<f32> {tt.divisibility = 16 : i32} loc("gating_ptr"(#loc)), %per_expert_scale_ptr: !tt.ptr<bf16> {tt.divisibility = 16 : i32} loc("per_expert_scale_ptr"(#loc)), %topk_weights_ptr: !tt.ptr<f32> {tt.divisibility = 16 : i32} loc("topk_weights_ptr"(#loc)), %topk_ids_ptr: !tt.ptr<i32> {tt.divisibility = 16 : i32} loc("topk_ids_ptr"(#loc))) attributes {noinline = false} {
    %all_scales = arith.constant dense<1.000000e+00> : tensor<128xbf16> loc(#loc82)
    %cst = arith.constant 1.000000e+00 : f32 loc(#loc2)
    %renorm_raw = arith.constant dense<0.000000e+00> : tensor<128xf32> loc(#loc83)
    %cst_0 = arith.constant 0.000000e+00 : f32 loc(#loc2)
    %top_mask = arith.constant dense<8> : tensor<128xi32> loc(#loc84)
    %c8_i32 = arith.constant 8 : i32 loc(#loc2)
    %all_raw_exp = arith.constant dense<1.44269502> : tensor<128xf32> loc(#loc85)
    %cst_1 = arith.constant dense<32> : tensor<128xi64> loc(#loc2)
    %cst_2 = arith.constant dense<4294967295> : tensor<128xi64> loc(#loc2)
    %key = arith.constant dense<2147483647> : tensor<128xi32> loc(#loc86)
    %cst_3 = arith.constant dense<-2147483648> : tensor<128xi32> loc(#loc2)
    %cst_4 = arith.constant dense<-1> : tensor<128xi32> loc(#loc2)
    %cst_5 = arith.constant dense<0> : tensor<128xi32> loc(#loc2)
    %cst_6 = arith.constant dense<31> : tensor<128xi32> loc(#loc2)
    %logits = arith.constant dense<0xFF800000> : tensor<128xf32> loc(#loc87)
    %valid = arith.constant dense<128> : tensor<128xi32> loc(#loc88)
    %c128_i32 = arith.constant 128 : i32 loc(#loc2)
    %pid = tt.get_program_id x : i32 loc(#loc89)
    %offs_e = tt.make_range {end = 128 : i32, start = 0 : i32} : tensor<128xi32> loc(#loc90)
    %valid_7 = arith.cmpi slt, %offs_e, %valid : tensor<128xi32> loc(#loc88)
    %logits_8 = arith.muli %pid, %c128_i32 : i32 loc(#loc91)
    %logits_9 = tt.addptr %gating_ptr, %logits_8 : !tt.ptr<f32>, i32 loc(#loc92)
    %logits_10 = tt.splat %logits_9 : !tt.ptr<f32> -> tensor<128x!tt.ptr<f32>> loc(#loc93)
    %logits_11 = tt.addptr %logits_10, %offs_e : tensor<128x!tt.ptr<f32>>, tensor<128xi32> loc(#loc93)
    %logits_12 = tt.load %logits_11, %valid_7, %logits : tensor<128x!tt.ptr<f32>> loc(#loc87)
    %max_l = "tt.reduce"(%logits_12) <{axis = 0 : i32}> ({
    ^bb0(%max_l_365: f32 loc(callsite(#loc2 at #loc94)), %max_l_366: f32 loc(callsite(#loc2 at #loc94))):
      %max_l_367 = arith.maxnumf %max_l_365, %max_l_366 : f32 loc(#loc150)
      tt.reduce.return %max_l_367 : f32 loc(#loc145)
    }) : (tensor<128xf32>) -> f32 loc(#loc145)
    %logit_bits = tt.bitcast %logits_12 : tensor<128xf32> -> tensor<128xi32> loc(#loc95)
    %sign_b = arith.shrsi %logit_bits, %cst_6 : tensor<128xi32> loc(#loc96)
    %key_13 = arith.cmpi eq, %sign_b, %cst_5 : tensor<128xi32> loc(#loc97)
    %key_14 = arith.xori %logit_bits, %cst_4 : tensor<128xi32> loc(#loc98)
    %key_15 = arith.xori %logit_bits, %cst_3 : tensor<128xi32> loc(#loc99)
    %key_16 = arith.select %key_13, %key_14, %key_15 : tensor<128xi1>, tensor<128xi32> loc(#loc100)
    %key_17 = arith.select %valid_7, %key_16, %key : tensor<128xi1>, tensor<128xi32> loc(#loc86)
    %sk64 = arith.extsi %key_17 : tensor<128xi32> to tensor<128xi64> loc(#loc101)
    %sk64_18 = arith.andi %sk64, %cst_2 : tensor<128xi64> loc(#loc102)
    %packed = arith.shli %sk64_18, %cst_1 : tensor<128xi64> loc(#loc103)
    %packed_19 = arith.extsi %offs_e : tensor<128xi32> to tensor<128xi64> loc(#loc104)
    %packed_20 = arith.ori %packed, %packed_19 : tensor<128xi64> loc(#loc105)
    %h = tt.reshape %packed_20 : tensor<128xi64> -> tensor<2x2x2x2x2x2x2xi64> loc(#loc151)
    %ar = tt.make_range {end = 2 : i32, start = 0 : i32} : tensor<2xi32> loc(#loc157)
    %ar_21 = tt.reshape %ar : tensor<2xi32> -> tensor<1x1x1x1x1x2x1xi32> loc(#loc158)
    %iy = "tt.reduce"(%h) <{axis = 6 : i32}> ({
    ^bb0(%iy_365: i64 loc(callsite(#loc2 at #loc159)), %iy_366: i64 loc(callsite(#loc2 at #loc159))):
      %iy_367 = arith.xori %iy_365, %iy_366 : i64 loc(#loc170)
      tt.reduce.return %iy_367 : i64 loc(#loc166)
    }) : (tensor<2x2x2x2x2x2x2xi64>) -> tensor<2x2x2x2x2x2xi64> loc(#loc166)
    %iy_22 = tt.expand_dims %iy {axis = 6 : i32} : tensor<2x2x2x2x2x2xi64> -> tensor<2x2x2x2x2x2x1xi64> loc(#loc168)
    %iy_23 = tt.broadcast %iy_22 : tensor<2x2x2x2x2x2x1xi64> -> tensor<2x2x2x2x2x2x2xi64> loc(#loc160)
    %iy_24 = arith.xori %h, %iy_23 : tensor<2x2x2x2x2x2x2xi64> loc(#loc160)
    %ar_25 = tt.reshape %ar : tensor<2xi32> -> tensor<1x1x1x1x1x1x2xi32> loc(#loc169)
    %ret = arith.cmpi sgt, %h, %iy_24 : tensor<2x2x2x2x2x2x2xi64> loc(#loc162)
    %ret_26 = tt.broadcast %ar_21 : tensor<1x1x1x1x1x2x1xi32> -> tensor<1x1x1x1x1x2x2xi32> loc(#loc163)
    %ret_27 = tt.broadcast %ar_25 : tensor<1x1x1x1x1x1x2xi32> -> tensor<1x1x1x1x1x2x2xi32> loc(#loc163)
    %ret_28 = arith.xori %ret_26, %ret_27 : tensor<1x1x1x1x1x2x2xi32> loc(#loc163)
    %ret_29 = arith.extui %ret : tensor<2x2x2x2x2x2x2xi1> to tensor<2x2x2x2x2x2x2xi32> loc(#loc164)
    %ret_30 = tt.broadcast %ret_28 : tensor<1x1x1x1x1x2x2xi32> -> tensor<2x2x2x2x2x2x2xi32> loc(#loc164)
    %ret_31 = arith.cmpi ne, %ret_29, %ret_30 : tensor<2x2x2x2x2x2x2xi32> loc(#loc164)
    %ret_32 = arith.select %ret_31, %iy_24, %h : tensor<2x2x2x2x2x2x2xi1>, tensor<2x2x2x2x2x2x2xi64> loc(#loc165)
    %ar_33 = tt.reshape %ar : tensor<2xi32> -> tensor<1x1x1x1x2x1x1xi32> loc(#loc158)
    %iy_34 = "tt.reduce"(%ret_32) <{axis = 5 : i32}> ({
    ^bb0(%iy_365: i64 loc(callsite(#loc2 at #loc159)), %iy_366: i64 loc(callsite(#loc2 at #loc159))):
      %iy_367 = arith.xori %iy_365, %iy_366 : i64 loc(#loc170)
      tt.reduce.return %iy_367 : i64 loc(#loc166)
    }) : (tensor<2x2x2x2x2x2x2xi64>) -> tensor<2x2x2x2x2x2xi64> loc(#loc166)
    %iy_35 = tt.expand_dims %iy_34 {axis = 5 : i32} : tensor<2x2x2x2x2x2xi64> -> tensor<2x2x2x2x2x1x2xi64> loc(#loc168)
    %iy_36 = tt.broadcast %iy_35 : tensor<2x2x2x2x2x1x2xi64> -> tensor<2x2x2x2x2x2x2xi64> loc(#loc160)
    %iy_37 = arith.xori %ret_32, %iy_36 : tensor<2x2x2x2x2x2x2xi64> loc(#loc160)
    %ret_38 = arith.cmpi sgt, %ret_32, %iy_37 : tensor<2x2x2x2x2x2x2xi64> loc(#loc162)
    %ret_39 = tt.broadcast %ar_33 : tensor<1x1x1x1x2x1x1xi32> -> tensor<1x1x1x1x2x2x1xi32> loc(#loc163)
    %ret_40 = tt.broadcast %ar_21 : tensor<1x1x1x1x1x2x1xi32> -> tensor<1x1x1x1x2x2x1xi32> loc(#loc163)
    %ret_41 = arith.xori %ret_39, %ret_40 : tensor<1x1x1x1x2x2x1xi32> loc(#loc163)
    %ret_42 = arith.extui %ret_38 : tensor<2x2x2x2x2x2x2xi1> to tensor<2x2x2x2x2x2x2xi32> loc(#loc164)
    %ret_43 = tt.broadcast %ret_41 : tensor<1x1x1x1x2x2x1xi32> -> tensor<2x2x2x2x2x2x2xi32> loc(#loc164)
    %ret_44 = arith.cmpi ne, %ret_42, %ret_43 : tensor<2x2x2x2x2x2x2xi32> loc(#loc164)
    %ret_45 = arith.select %ret_44, %iy_37, %ret_32 : tensor<2x2x2x2x2x2x2xi1>, tensor<2x2x2x2x2x2x2xi64> loc(#loc165)
    %iy_46 = "tt.reduce"(%ret_45) <{axis = 6 : i32}> ({
    ^bb0(%iy_365: i64 loc(callsite(#loc2 at #loc159)), %iy_366: i64 loc(callsite(#loc2 at #loc159))):
      %iy_367 = arith.xori %iy_365, %iy_366 : i64 loc(#loc170)
      tt.reduce.return %iy_367 : i64 loc(#loc166)
    }) : (tensor<2x2x2x2x2x2x2xi64>) -> tensor<2x2x2x2x2x2xi64> loc(#loc166)
    %iy_47 = tt.expand_dims %iy_46 {axis = 6 : i32} : tensor<2x2x2x2x2x2xi64> -> tensor<2x2x2x2x2x2x1xi64> loc(#loc168)
    %iy_48 = tt.broadcast %iy_47 : tensor<2x2x2x2x2x2x1xi64> -> tensor<2x2x2x2x2x2x2xi64> loc(#loc160)
    %iy_49 = arith.xori %ret_45, %iy_48 : tensor<2x2x2x2x2x2x2xi64> loc(#loc160)
    %ret_50 = arith.cmpi sgt, %ret_45, %iy_49 : tensor<2x2x2x2x2x2x2xi64> loc(#loc162)
    %ret_51 = tt.broadcast %ar_33 : tensor<1x1x1x1x2x1x1xi32> -> tensor<1x1x1x1x2x1x2xi32> loc(#loc163)
    %ret_52 = tt.broadcast %ar_25 : tensor<1x1x1x1x1x1x2xi32> -> tensor<1x1x1x1x2x1x2xi32> loc(#loc163)
    %ret_53 = arith.xori %ret_51, %ret_52 : tensor<1x1x1x1x2x1x2xi32> loc(#loc163)
    %ret_54 = arith.extui %ret_50 : tensor<2x2x2x2x2x2x2xi1> to tensor<2x2x2x2x2x2x2xi32> loc(#loc164)
    %ret_55 = tt.broadcast %ret_53 : tensor<1x1x1x1x2x1x2xi32> -> tensor<2x2x2x2x2x2x2xi32> loc(#loc164)
    %ret_56 = arith.cmpi ne, %ret_54, %ret_55 : tensor<2x2x2x2x2x2x2xi32> loc(#loc164)
    %ret_57 = arith.select %ret_56, %iy_49, %ret_45 : tensor<2x2x2x2x2x2x2xi1>, tensor<2x2x2x2x2x2x2xi64> loc(#loc165)
    %ar_58 = tt.reshape %ar : tensor<2xi32> -> tensor<1x1x1x2x1x1x1xi32> loc(#loc158)
    %iy_59 = "tt.reduce"(%ret_57) <{axis = 4 : i32}> ({
    ^bb0(%iy_365: i64 loc(callsite(#loc2 at #loc159)), %iy_366: i64 loc(callsite(#loc2 at #loc159))):
      %iy_367 = arith.xori %iy_365, %iy_366 : i64 loc(#loc170)
      tt.reduce.return %iy_367 : i64 loc(#loc166)
    }) : (tensor<2x2x2x2x2x2x2xi64>) -> tensor<2x2x2x2x2x2xi64> loc(#loc166)
    %iy_60 = tt.expand_dims %iy_59 {axis = 4 : i32} : tensor<2x2x2x2x2x2xi64> -> tensor<2x2x2x2x1x2x2xi64> loc(#loc168)
    %iy_61 = tt.broadcast %iy_60 : tensor<2x2x2x2x1x2x2xi64> -> tensor<2x2x2x2x2x2x2xi64> loc(#loc160)
    %iy_62 = arith.xori %ret_57, %iy_61 : tensor<2x2x2x2x2x2x2xi64> loc(#loc160)
    %ret_63 = arith.cmpi sgt, %ret_57, %iy_62 : tensor<2x2x2x2x2x2x2xi64> loc(#loc162)
    %ret_64 = tt.broadcast %ar_58 : tensor<1x1x1x2x1x1x1xi32> -> tensor<1x1x1x2x2x1x1xi32> loc(#loc163)
    %ret_65 = tt.broadcast %ar_33 : tensor<1x1x1x1x2x1x1xi32> -> tensor<1x1x1x2x2x1x1xi32> loc(#loc163)
    %ret_66 = arith.xori %ret_64, %ret_65 : tensor<1x1x1x2x2x1x1xi32> loc(#loc163)
    %ret_67 = arith.extui %ret_63 : tensor<2x2x2x2x2x2x2xi1> to tensor<2x2x2x2x2x2x2xi32> loc(#loc164)
    %ret_68 = tt.broadcast %ret_66 : tensor<1x1x1x2x2x1x1xi32> -> tensor<2x2x2x2x2x2x2xi32> loc(#loc164)
    %ret_69 = arith.cmpi ne, %ret_67, %ret_68 : tensor<2x2x2x2x2x2x2xi32> loc(#loc164)
    %ret_70 = arith.select %ret_69, %iy_62, %ret_57 : tensor<2x2x2x2x2x2x2xi1>, tensor<2x2x2x2x2x2x2xi64> loc(#loc165)
    %iy_71 = "tt.reduce"(%ret_70) <{axis = 5 : i32}> ({
    ^bb0(%iy_365: i64 loc(callsite(#loc2 at #loc159)), %iy_366: i64 loc(callsite(#loc2 at #loc159))):
      %iy_367 = arith.xori %iy_365, %iy_366 : i64 loc(#loc170)
      tt.reduce.return %iy_367 : i64 loc(#loc166)
    }) : (tensor<2x2x2x2x2x2x2xi64>) -> tensor<2x2x2x2x2x2xi64> loc(#loc166)
    %iy_72 = tt.expand_dims %iy_71 {axis = 5 : i32} : tensor<2x2x2x2x2x2xi64> -> tensor<2x2x2x2x2x1x2xi64> loc(#loc168)
    %iy_73 = tt.broadcast %iy_72 : tensor<2x2x2x2x2x1x2xi64> -> tensor<2x2x2x2x2x2x2xi64> loc(#loc160)
    %iy_74 = arith.xori %ret_70, %iy_73 : tensor<2x2x2x2x2x2x2xi64> loc(#loc160)
    %ret_75 = arith.cmpi sgt, %ret_70, %iy_74 : tensor<2x2x2x2x2x2x2xi64> loc(#loc162)
    %ret_76 = tt.broadcast %ar_58 : tensor<1x1x1x2x1x1x1xi32> -> tensor<1x1x1x2x1x2x1xi32> loc(#loc163)
    %ret_77 = tt.broadcast %ar_21 : tensor<1x1x1x1x1x2x1xi32> -> tensor<1x1x1x2x1x2x1xi32> loc(#loc163)
    %ret_78 = arith.xori %ret_76, %ret_77 : tensor<1x1x1x2x1x2x1xi32> loc(#loc163)
    %ret_79 = arith.extui %ret_75 : tensor<2x2x2x2x2x2x2xi1> to tensor<2x2x2x2x2x2x2xi32> loc(#loc164)
    %ret_80 = tt.broadcast %ret_78 : tensor<1x1x1x2x1x2x1xi32> -> tensor<2x2x2x2x2x2x2xi32> loc(#loc164)
    %ret_81 = arith.cmpi ne, %ret_79, %ret_80 : tensor<2x2x2x2x2x2x2xi32> loc(#loc164)
    %ret_82 = arith.select %ret_81, %iy_74, %ret_70 : tensor<2x2x2x2x2x2x2xi1>, tensor<2x2x2x2x2x2x2xi64> loc(#loc165)
    %iy_83 = "tt.reduce"(%ret_82) <{axis = 6 : i32}> ({
    ^bb0(%iy_365: i64 loc(callsite(#loc2 at #loc159)), %iy_366: i64 loc(callsite(#loc2 at #loc159))):
      %iy_367 = arith.xori %iy_365, %iy_366 : i64 loc(#loc170)
      tt.reduce.return %iy_367 : i64 loc(#loc166)
    }) : (tensor<2x2x2x2x2x2x2xi64>) -> tensor<2x2x2x2x2x2xi64> loc(#loc166)
    %iy_84 = tt.expand_dims %iy_83 {axis = 6 : i32} : tensor<2x2x2x2x2x2xi64> -> tensor<2x2x2x2x2x2x1xi64> loc(#loc168)
    %iy_85 = tt.broadcast %iy_84 : tensor<2x2x2x2x2x2x1xi64> -> tensor<2x2x2x2x2x2x2xi64> loc(#loc160)
    %iy_86 = arith.xori %ret_82, %iy_85 : tensor<2x2x2x2x2x2x2xi64> loc(#loc160)
    %ret_87 = arith.cmpi sgt, %ret_82, %iy_86 : tensor<2x2x2x2x2x2x2xi64> loc(#loc162)
    %ret_88 = tt.broadcast %ar_58 : tensor<1x1x1x2x1x1x1xi32> -> tensor<1x1x1x2x1x1x2xi32> loc(#loc163)
    %ret_89 = tt.broadcast %ar_25 : tensor<1x1x1x1x1x1x2xi32> -> tensor<1x1x1x2x1x1x2xi32> loc(#loc163)
    %ret_90 = arith.xori %ret_88, %ret_89 : tensor<1x1x1x2x1x1x2xi32> loc(#loc163)
    %ret_91 = arith.extui %ret_87 : tensor<2x2x2x2x2x2x2xi1> to tensor<2x2x2x2x2x2x2xi32> loc(#loc164)
    %ret_92 = tt.broadcast %ret_90 : tensor<1x1x1x2x1x1x2xi32> -> tensor<2x2x2x2x2x2x2xi32> loc(#loc164)
    %ret_93 = arith.cmpi ne, %ret_91, %ret_92 : tensor<2x2x2x2x2x2x2xi32> loc(#loc164)
    %ret_94 = arith.select %ret_93, %iy_86, %ret_82 : tensor<2x2x2x2x2x2x2xi1>, tensor<2x2x2x2x2x2x2xi64> loc(#loc165)
    %ar_95 = tt.reshape %ar : tensor<2xi32> -> tensor<1x1x2x1x1x1x1xi32> loc(#loc158)
    %iy_96 = "tt.reduce"(%ret_94) <{axis = 3 : i32}> ({
    ^bb0(%iy_365: i64 loc(callsite(#loc2 at #loc159)), %iy_366: i64 loc(callsite(#loc2 at #loc159))):
      %iy_367 = arith.xori %iy_365, %iy_366 : i64 loc(#loc170)
      tt.reduce.return %iy_367 : i64 loc(#loc166)
    }) : (tensor<2x2x2x2x2x2x2xi64>) -> tensor<2x2x2x2x2x2xi64> loc(#loc166)
    %iy_97 = tt.expand_dims %iy_96 {axis = 3 : i32} : tensor<2x2x2x2x2x2xi64> -> tensor<2x2x2x1x2x2x2xi64> loc(#loc168)
    %iy_98 = tt.broadcast %iy_97 : tensor<2x2x2x1x2x2x2xi64> -> tensor<2x2x2x2x2x2x2xi64> loc(#loc160)
    %iy_99 = arith.xori %ret_94, %iy_98 : tensor<2x2x2x2x2x2x2xi64> loc(#loc160)
    %ret_100 = arith.cmpi sgt, %ret_94, %iy_99 : tensor<2x2x2x2x2x2x2xi64> loc(#loc162)
    %ret_101 = tt.broadcast %ar_95 : tensor<1x1x2x1x1x1x1xi32> -> tensor<1x1x2x2x1x1x1xi32> loc(#loc163)
    %ret_102 = tt.broadcast %ar_58 : tensor<1x1x1x2x1x1x1xi32> -> tensor<1x1x2x2x1x1x1xi32> loc(#loc163)
    %ret_103 = arith.xori %ret_101, %ret_102 : tensor<1x1x2x2x1x1x1xi32> loc(#loc163)
    %ret_104 = arith.extui %ret_100 : tensor<2x2x2x2x2x2x2xi1> to tensor<2x2x2x2x2x2x2xi32> loc(#loc164)
    %ret_105 = tt.broadcast %ret_103 : tensor<1x1x2x2x1x1x1xi32> -> tensor<2x2x2x2x2x2x2xi32> loc(#loc164)
    %ret_106 = arith.cmpi ne, %ret_104, %ret_105 : tensor<2x2x2x2x2x2x2xi32> loc(#loc164)
    %ret_107 = arith.select %ret_106, %iy_99, %ret_94 : tensor<2x2x2x2x2x2x2xi1>, tensor<2x2x2x2x2x2x2xi64> loc(#loc165)
    %iy_108 = "tt.reduce"(%ret_107) <{axis = 4 : i32}> ({
    ^bb0(%iy_365: i64 loc(callsite(#loc2 at #loc159)), %iy_366: i64 loc(callsite(#loc2 at #loc159))):
      %iy_367 = arith.xori %iy_365, %iy_366 : i64 loc(#loc170)
      tt.reduce.return %iy_367 : i64 loc(#loc166)
    }) : (tensor<2x2x2x2x2x2x2xi64>) -> tensor<2x2x2x2x2x2xi64> loc(#loc166)
    %iy_109 = tt.expand_dims %iy_108 {axis = 4 : i32} : tensor<2x2x2x2x2x2xi64> -> tensor<2x2x2x2x1x2x2xi64> loc(#loc168)
    %iy_110 = tt.broadcast %iy_109 : tensor<2x2x2x2x1x2x2xi64> -> tensor<2x2x2x2x2x2x2xi64> loc(#loc160)
    %iy_111 = arith.xori %ret_107, %iy_110 : tensor<2x2x2x2x2x2x2xi64> loc(#loc160)
    %ret_112 = arith.cmpi sgt, %ret_107, %iy_111 : tensor<2x2x2x2x2x2x2xi64> loc(#loc162)
    %ret_113 = tt.broadcast %ar_95 : tensor<1x1x2x1x1x1x1xi32> -> tensor<1x1x2x1x2x1x1xi32> loc(#loc163)
    %ret_114 = tt.broadcast %ar_33 : tensor<1x1x1x1x2x1x1xi32> -> tensor<1x1x2x1x2x1x1xi32> loc(#loc163)
    %ret_115 = arith.xori %ret_113, %ret_114 : tensor<1x1x2x1x2x1x1xi32> loc(#loc163)
    %ret_116 = arith.extui %ret_112 : tensor<2x2x2x2x2x2x2xi1> to tensor<2x2x2x2x2x2x2xi32> loc(#loc164)
    %ret_117 = tt.broadcast %ret_115 : tensor<1x1x2x1x2x1x1xi32> -> tensor<2x2x2x2x2x2x2xi32> loc(#loc164)
    %ret_118 = arith.cmpi ne, %ret_116, %ret_117 : tensor<2x2x2x2x2x2x2xi32> loc(#loc164)
    %ret_119 = arith.select %ret_118, %iy_111, %ret_107 : tensor<2x2x2x2x2x2x2xi1>, tensor<2x2x2x2x2x2x2xi64> loc(#loc165)
    %iy_120 = "tt.reduce"(%ret_119) <{axis = 5 : i32}> ({
    ^bb0(%iy_365: i64 loc(callsite(#loc2 at #loc159)), %iy_366: i64 loc(callsite(#loc2 at #loc159))):
      %iy_367 = arith.xori %iy_365, %iy_366 : i64 loc(#loc170)
      tt.reduce.return %iy_367 : i64 loc(#loc166)
    }) : (tensor<2x2x2x2x2x2x2xi64>) -> tensor<2x2x2x2x2x2xi64> loc(#loc166)
    %iy_121 = tt.expand_dims %iy_120 {axis = 5 : i32} : tensor<2x2x2x2x2x2xi64> -> tensor<2x2x2x2x2x1x2xi64> loc(#loc168)
    %iy_122 = tt.broadcast %iy_121 : tensor<2x2x2x2x2x1x2xi64> -> tensor<2x2x2x2x2x2x2xi64> loc(#loc160)
    %iy_123 = arith.xori %ret_119, %iy_122 : tensor<2x2x2x2x2x2x2xi64> loc(#loc160)
    %ret_124 = arith.cmpi sgt, %ret_119, %iy_123 : tensor<2x2x2x2x2x2x2xi64> loc(#loc162)
    %ret_125 = tt.broadcast %ar_95 : tensor<1x1x2x1x1x1x1xi32> -> tensor<1x1x2x1x1x2x1xi32> loc(#loc163)
    %ret_126 = tt.broadcast %ar_21 : tensor<1x1x1x1x1x2x1xi32> -> tensor<1x1x2x1x1x2x1xi32> loc(#loc163)
    %ret_127 = arith.xori %ret_125, %ret_126 : tensor<1x1x2x1x1x2x1xi32> loc(#loc163)
    %ret_128 = arith.extui %ret_124 : tensor<2x2x2x2x2x2x2xi1> to tensor<2x2x2x2x2x2x2xi32> loc(#loc164)
    %ret_129 = tt.broadcast %ret_127 : tensor<1x1x2x1x1x2x1xi32> -> tensor<2x2x2x2x2x2x2xi32> loc(#loc164)
    %ret_130 = arith.cmpi ne, %ret_128, %ret_129 : tensor<2x2x2x2x2x2x2xi32> loc(#loc164)
    %ret_131 = arith.select %ret_130, %iy_123, %ret_119 : tensor<2x2x2x2x2x2x2xi1>, tensor<2x2x2x2x2x2x2xi64> loc(#loc165)
    %iy_132 = "tt.reduce"(%ret_131) <{axis = 6 : i32}> ({
    ^bb0(%iy_365: i64 loc(callsite(#loc2 at #loc159)), %iy_366: i64 loc(callsite(#loc2 at #loc159))):
      %iy_367 = arith.xori %iy_365, %iy_366 : i64 loc(#loc170)
      tt.reduce.return %iy_367 : i64 loc(#loc166)
    }) : (tensor<2x2x2x2x2x2x2xi64>) -> tensor<2x2x2x2x2x2xi64> loc(#loc166)
    %iy_133 = tt.expand_dims %iy_132 {axis = 6 : i32} : tensor<2x2x2x2x2x2xi64> -> tensor<2x2x2x2x2x2x1xi64> loc(#loc168)
    %iy_134 = tt.broadcast %iy_133 : tensor<2x2x2x2x2x2x1xi64> -> tensor<2x2x2x2x2x2x2xi64> loc(#loc160)
    %iy_135 = arith.xori %ret_131, %iy_134 : tensor<2x2x2x2x2x2x2xi64> loc(#loc160)
    %ret_136 = arith.cmpi sgt, %ret_131, %iy_135 : tensor<2x2x2x2x2x2x2xi64> loc(#loc162)
    %ret_137 = tt.broadcast %ar_95 : tensor<1x1x2x1x1x1x1xi32> -> tensor<1x1x2x1x1x1x2xi32> loc(#loc163)
    %ret_138 = tt.broadcast %ar_25 : tensor<1x1x1x1x1x1x2xi32> -> tensor<1x1x2x1x1x1x2xi32> loc(#loc163)
    %ret_139 = arith.xori %ret_137, %ret_138 : tensor<1x1x2x1x1x1x2xi32> loc(#loc163)
    %ret_140 = arith.extui %ret_136 : tensor<2x2x2x2x2x2x2xi1> to tensor<2x2x2x2x2x2x2xi32> loc(#loc164)
    %ret_141 = tt.broadcast %ret_139 : tensor<1x1x2x1x1x1x2xi32> -> tensor<2x2x2x2x2x2x2xi32> loc(#loc164)
    %ret_142 = arith.cmpi ne, %ret_140, %ret_141 : tensor<2x2x2x2x2x2x2xi32> loc(#loc164)
    %ret_143 = arith.select %ret_142, %iy_135, %ret_131 : tensor<2x2x2x2x2x2x2xi1>, tensor<2x2x2x2x2x2x2xi64> loc(#loc165)
    %ar_144 = tt.reshape %ar : tensor<2xi32> -> tensor<1x2x1x1x1x1x1xi32> loc(#loc158)
    %iy_145 = "tt.reduce"(%ret_143) <{axis = 2 : i32}> ({
    ^bb0(%iy_365: i64 loc(callsite(#loc2 at #loc159)), %iy_366: i64 loc(callsite(#loc2 at #loc159))):
      %iy_367 = arith.xori %iy_365, %iy_366 : i64 loc(#loc170)
      tt.reduce.return %iy_367 : i64 loc(#loc166)
    }) : (tensor<2x2x2x2x2x2x2xi64>) -> tensor<2x2x2x2x2x2xi64> loc(#loc166)
    %iy_146 = tt.expand_dims %iy_145 {axis = 2 : i32} : tensor<2x2x2x2x2x2xi64> -> tensor<2x2x1x2x2x2x2xi64> loc(#loc168)
    %iy_147 = tt.broadcast %iy_146 : tensor<2x2x1x2x2x2x2xi64> -> tensor<2x2x2x2x2x2x2xi64> loc(#loc160)
    %iy_148 = arith.xori %ret_143, %iy_147 : tensor<2x2x2x2x2x2x2xi64> loc(#loc160)
    %ret_149 = arith.cmpi sgt, %ret_143, %iy_148 : tensor<2x2x2x2x2x2x2xi64> loc(#loc162)
    %ret_150 = tt.broadcast %ar_144 : tensor<1x2x1x1x1x1x1xi32> -> tensor<1x2x2x1x1x1x1xi32> loc(#loc163)
    %ret_151 = tt.broadcast %ar_95 : tensor<1x1x2x1x1x1x1xi32> -> tensor<1x2x2x1x1x1x1xi32> loc(#loc163)
    %ret_152 = arith.xori %ret_150, %ret_151 : tensor<1x2x2x1x1x1x1xi32> loc(#loc163)
    %ret_153 = arith.extui %ret_149 : tensor<2x2x2x2x2x2x2xi1> to tensor<2x2x2x2x2x2x2xi32> loc(#loc164)
    %ret_154 = tt.broadcast %ret_152 : tensor<1x2x2x1x1x1x1xi32> -> tensor<2x2x2x2x2x2x2xi32> loc(#loc164)
    %ret_155 = arith.cmpi ne, %ret_153, %ret_154 : tensor<2x2x2x2x2x2x2xi32> loc(#loc164)
    %ret_156 = arith.select %ret_155, %iy_148, %ret_143 : tensor<2x2x2x2x2x2x2xi1>, tensor<2x2x2x2x2x2x2xi64> loc(#loc165)
    %iy_157 = "tt.reduce"(%ret_156) <{axis = 3 : i32}> ({
    ^bb0(%iy_365: i64 loc(callsite(#loc2 at #loc159)), %iy_366: i64 loc(callsite(#loc2 at #loc159))):
      %iy_367 = arith.xori %iy_365, %iy_366 : i64 loc(#loc170)
      tt.reduce.return %iy_367 : i64 loc(#loc166)
    }) : (tensor<2x2x2x2x2x2x2xi64>) -> tensor<2x2x2x2x2x2xi64> loc(#loc166)
    %iy_158 = tt.expand_dims %iy_157 {axis = 3 : i32} : tensor<2x2x2x2x2x2xi64> -> tensor<2x2x2x1x2x2x2xi64> loc(#loc168)
    %iy_159 = tt.broadcast %iy_158 : tensor<2x2x2x1x2x2x2xi64> -> tensor<2x2x2x2x2x2x2xi64> loc(#loc160)
    %iy_160 = arith.xori %ret_156, %iy_159 : tensor<2x2x2x2x2x2x2xi64> loc(#loc160)
    %ret_161 = arith.cmpi sgt, %ret_156, %iy_160 : tensor<2x2x2x2x2x2x2xi64> loc(#loc162)
    %ret_162 = tt.broadcast %ar_144 : tensor<1x2x1x1x1x1x1xi32> -> tensor<1x2x1x2x1x1x1xi32> loc(#loc163)
    %ret_163 = tt.broadcast %ar_58 : tensor<1x1x1x2x1x1x1xi32> -> tensor<1x2x1x2x1x1x1xi32> loc(#loc163)
    %ret_164 = arith.xori %ret_162, %ret_163 : tensor<1x2x1x2x1x1x1xi32> loc(#loc163)
    %ret_165 = arith.extui %ret_161 : tensor<2x2x2x2x2x2x2xi1> to tensor<2x2x2x2x2x2x2xi32> loc(#loc164)
    %ret_166 = tt.broadcast %ret_164 : tensor<1x2x1x2x1x1x1xi32> -> tensor<2x2x2x2x2x2x2xi32> loc(#loc164)
    %ret_167 = arith.cmpi ne, %ret_165, %ret_166 : tensor<2x2x2x2x2x2x2xi32> loc(#loc164)
    %ret_168 = arith.select %ret_167, %iy_160, %ret_156 : tensor<2x2x2x2x2x2x2xi1>, tensor<2x2x2x2x2x2x2xi64> loc(#loc165)
    %iy_169 = "tt.reduce"(%ret_168) <{axis = 4 : i32}> ({
    ^bb0(%iy_365: i64 loc(callsite(#loc2 at #loc159)), %iy_366: i64 loc(callsite(#loc2 at #loc159))):
      %iy_367 = arith.xori %iy_365, %iy_366 : i64 loc(#loc170)
      tt.reduce.return %iy_367 : i64 loc(#loc166)
    }) : (tensor<2x2x2x2x2x2x2xi64>) -> tensor<2x2x2x2x2x2xi64> loc(#loc166)
    %iy_170 = tt.expand_dims %iy_169 {axis = 4 : i32} : tensor<2x2x2x2x2x2xi64> -> tensor<2x2x2x2x1x2x2xi64> loc(#loc168)
    %iy_171 = tt.broadcast %iy_170 : tensor<2x2x2x2x1x2x2xi64> -> tensor<2x2x2x2x2x2x2xi64> loc(#loc160)
    %iy_172 = arith.xori %ret_168, %iy_171 : tensor<2x2x2x2x2x2x2xi64> loc(#loc160)
    %ret_173 = arith.cmpi sgt, %ret_168, %iy_172 : tensor<2x2x2x2x2x2x2xi64> loc(#loc162)
    %ret_174 = tt.broadcast %ar_144 : tensor<1x2x1x1x1x1x1xi32> -> tensor<1x2x1x1x2x1x1xi32> loc(#loc163)
    %ret_175 = tt.broadcast %ar_33 : tensor<1x1x1x1x2x1x1xi32> -> tensor<1x2x1x1x2x1x1xi32> loc(#loc163)
    %ret_176 = arith.xori %ret_174, %ret_175 : tensor<1x2x1x1x2x1x1xi32> loc(#loc163)
    %ret_177 = arith.extui %ret_173 : tensor<2x2x2x2x2x2x2xi1> to tensor<2x2x2x2x2x2x2xi32> loc(#loc164)
    %ret_178 = tt.broadcast %ret_176 : tensor<1x2x1x1x2x1x1xi32> -> tensor<2x2x2x2x2x2x2xi32> loc(#loc164)
    %ret_179 = arith.cmpi ne, %ret_177, %ret_178 : tensor<2x2x2x2x2x2x2xi32> loc(#loc164)
    %ret_180 = arith.select %ret_179, %iy_172, %ret_168 : tensor<2x2x2x2x2x2x2xi1>, tensor<2x2x2x2x2x2x2xi64> loc(#loc165)
    %iy_181 = "tt.reduce"(%ret_180) <{axis = 5 : i32}> ({
    ^bb0(%iy_365: i64 loc(callsite(#loc2 at #loc159)), %iy_366: i64 loc(callsite(#loc2 at #loc159))):
      %iy_367 = arith.xori %iy_365, %iy_366 : i64 loc(#loc170)
      tt.reduce.return %iy_367 : i64 loc(#loc166)
    }) : (tensor<2x2x2x2x2x2x2xi64>) -> tensor<2x2x2x2x2x2xi64> loc(#loc166)
    %iy_182 = tt.expand_dims %iy_181 {axis = 5 : i32} : tensor<2x2x2x2x2x2xi64> -> tensor<2x2x2x2x2x1x2xi64> loc(#loc168)
    %iy_183 = tt.broadcast %iy_182 : tensor<2x2x2x2x2x1x2xi64> -> tensor<2x2x2x2x2x2x2xi64> loc(#loc160)
    %iy_184 = arith.xori %ret_180, %iy_183 : tensor<2x2x2x2x2x2x2xi64> loc(#loc160)
    %ret_185 = arith.cmpi sgt, %ret_180, %iy_184 : tensor<2x2x2x2x2x2x2xi64> loc(#loc162)
    %ret_186 = tt.broadcast %ar_144 : tensor<1x2x1x1x1x1x1xi32> -> tensor<1x2x1x1x1x2x1xi32> loc(#loc163)
    %ret_187 = tt.broadcast %ar_21 : tensor<1x1x1x1x1x2x1xi32> -> tensor<1x2x1x1x1x2x1xi32> loc(#loc163)
    %ret_188 = arith.xori %ret_186, %ret_187 : tensor<1x2x1x1x1x2x1xi32> loc(#loc163)
    %ret_189 = arith.extui %ret_185 : tensor<2x2x2x2x2x2x2xi1> to tensor<2x2x2x2x2x2x2xi32> loc(#loc164)
    %ret_190 = tt.broadcast %ret_188 : tensor<1x2x1x1x1x2x1xi32> -> tensor<2x2x2x2x2x2x2xi32> loc(#loc164)
    %ret_191 = arith.cmpi ne, %ret_189, %ret_190 : tensor<2x2x2x2x2x2x2xi32> loc(#loc164)
    %ret_192 = arith.select %ret_191, %iy_184, %ret_180 : tensor<2x2x2x2x2x2x2xi1>, tensor<2x2x2x2x2x2x2xi64> loc(#loc165)
    %iy_193 = "tt.reduce"(%ret_192) <{axis = 6 : i32}> ({
    ^bb0(%iy_365: i64 loc(callsite(#loc2 at #loc159)), %iy_366: i64 loc(callsite(#loc2 at #loc159))):
      %iy_367 = arith.xori %iy_365, %iy_366 : i64 loc(#loc170)
      tt.reduce.return %iy_367 : i64 loc(#loc166)
    }) : (tensor<2x2x2x2x2x2x2xi64>) -> tensor<2x2x2x2x2x2xi64> loc(#loc166)
    %iy_194 = tt.expand_dims %iy_193 {axis = 6 : i32} : tensor<2x2x2x2x2x2xi64> -> tensor<2x2x2x2x2x2x1xi64> loc(#loc168)
    %iy_195 = tt.broadcast %iy_194 : tensor<2x2x2x2x2x2x1xi64> -> tensor<2x2x2x2x2x2x2xi64> loc(#loc160)
    %iy_196 = arith.xori %ret_192, %iy_195 : tensor<2x2x2x2x2x2x2xi64> loc(#loc160)
    %ret_197 = arith.cmpi sgt, %ret_192, %iy_196 : tensor<2x2x2x2x2x2x2xi64> loc(#loc162)
    %ret_198 = tt.broadcast %ar_144 : tensor<1x2x1x1x1x1x1xi32> -> tensor<1x2x1x1x1x1x2xi32> loc(#loc163)
    %ret_199 = tt.broadcast %ar_25 : tensor<1x1x1x1x1x1x2xi32> -> tensor<1x2x1x1x1x1x2xi32> loc(#loc163)
    %ret_200 = arith.xori %ret_198, %ret_199 : tensor<1x2x1x1x1x1x2xi32> loc(#loc163)
    %ret_201 = arith.extui %ret_197 : tensor<2x2x2x2x2x2x2xi1> to tensor<2x2x2x2x2x2x2xi32> loc(#loc164)
    %ret_202 = tt.broadcast %ret_200 : tensor<1x2x1x1x1x1x2xi32> -> tensor<2x2x2x2x2x2x2xi32> loc(#loc164)
    %ret_203 = arith.cmpi ne, %ret_201, %ret_202 : tensor<2x2x2x2x2x2x2xi32> loc(#loc164)
    %ret_204 = arith.select %ret_203, %iy_196, %ret_192 : tensor<2x2x2x2x2x2x2xi1>, tensor<2x2x2x2x2x2x2xi64> loc(#loc165)
    %ar_205 = tt.reshape %ar : tensor<2xi32> -> tensor<2x1x1x1x1x1x1xi32> loc(#loc158)
    %iy_206 = "tt.reduce"(%ret_204) <{axis = 1 : i32}> ({
    ^bb0(%iy_365: i64 loc(callsite(#loc2 at #loc159)), %iy_366: i64 loc(callsite(#loc2 at #loc159))):
      %iy_367 = arith.xori %iy_365, %iy_366 : i64 loc(#loc170)
      tt.reduce.return %iy_367 : i64 loc(#loc166)
    }) : (tensor<2x2x2x2x2x2x2xi64>) -> tensor<2x2x2x2x2x2xi64> loc(#loc166)
    %iy_207 = tt.expand_dims %iy_206 {axis = 1 : i32} : tensor<2x2x2x2x2x2xi64> -> tensor<2x1x2x2x2x2x2xi64> loc(#loc168)
    %iy_208 = tt.broadcast %iy_207 : tensor<2x1x2x2x2x2x2xi64> -> tensor<2x2x2x2x2x2x2xi64> loc(#loc160)
    %iy_209 = arith.xori %ret_204, %iy_208 : tensor<2x2x2x2x2x2x2xi64> loc(#loc160)
    %ret_210 = arith.cmpi sgt, %ret_204, %iy_209 : tensor<2x2x2x2x2x2x2xi64> loc(#loc162)
    %ret_211 = tt.broadcast %ar_205 : tensor<2x1x1x1x1x1x1xi32> -> tensor<2x2x1x1x1x1x1xi32> loc(#loc163)
    %ret_212 = tt.broadcast %ar_144 : tensor<1x2x1x1x1x1x1xi32> -> tensor<2x2x1x1x1x1x1xi32> loc(#loc163)
    %ret_213 = arith.xori %ret_211, %ret_212 : tensor<2x2x1x1x1x1x1xi32> loc(#loc163)
    %ret_214 = arith.extui %ret_210 : tensor<2x2x2x2x2x2x2xi1> to tensor<2x2x2x2x2x2x2xi32> loc(#loc164)
    %ret_215 = tt.broadcast %ret_213 : tensor<2x2x1x1x1x1x1xi32> -> tensor<2x2x2x2x2x2x2xi32> loc(#loc164)
    %ret_216 = arith.cmpi ne, %ret_214, %ret_215 : tensor<2x2x2x2x2x2x2xi32> loc(#loc164)
    %ret_217 = arith.select %ret_216, %iy_209, %ret_204 : tensor<2x2x2x2x2x2x2xi1>, tensor<2x2x2x2x2x2x2xi64> loc(#loc165)
    %iy_218 = "tt.reduce"(%ret_217) <{axis = 2 : i32}> ({
    ^bb0(%iy_365: i64 loc(callsite(#loc2 at #loc159)), %iy_366: i64 loc(callsite(#loc2 at #loc159))):
      %iy_367 = arith.xori %iy_365, %iy_366 : i64 loc(#loc170)
      tt.reduce.return %iy_367 : i64 loc(#loc166)
    }) : (tensor<2x2x2x2x2x2x2xi64>) -> tensor<2x2x2x2x2x2xi64> loc(#loc166)
    %iy_219 = tt.expand_dims %iy_218 {axis = 2 : i32} : tensor<2x2x2x2x2x2xi64> -> tensor<2x2x1x2x2x2x2xi64> loc(#loc168)
    %iy_220 = tt.broadcast %iy_219 : tensor<2x2x1x2x2x2x2xi64> -> tensor<2x2x2x2x2x2x2xi64> loc(#loc160)
    %iy_221 = arith.xori %ret_217, %iy_220 : tensor<2x2x2x2x2x2x2xi64> loc(#loc160)
    %ret_222 = arith.cmpi sgt, %ret_217, %iy_221 : tensor<2x2x2x2x2x2x2xi64> loc(#loc162)
    %ret_223 = tt.broadcast %ar_205 : tensor<2x1x1x1x1x1x1xi32> -> tensor<2x1x2x1x1x1x1xi32> loc(#loc163)
    %ret_224 = tt.broadcast %ar_95 : tensor<1x1x2x1x1x1x1xi32> -> tensor<2x1x2x1x1x1x1xi32> loc(#loc163)
    %ret_225 = arith.xori %ret_223, %ret_224 : tensor<2x1x2x1x1x1x1xi32> loc(#loc163)
    %ret_226 = arith.extui %ret_222 : tensor<2x2x2x2x2x2x2xi1> to tensor<2x2x2x2x2x2x2xi32> loc(#loc164)
    %ret_227 = tt.broadcast %ret_225 : tensor<2x1x2x1x1x1x1xi32> -> tensor<2x2x2x2x2x2x2xi32> loc(#loc164)
    %ret_228 = arith.cmpi ne, %ret_226, %ret_227 : tensor<2x2x2x2x2x2x2xi32> loc(#loc164)
    %ret_229 = arith.select %ret_228, %iy_221, %ret_217 : tensor<2x2x2x2x2x2x2xi1>, tensor<2x2x2x2x2x2x2xi64> loc(#loc165)
    %iy_230 = "tt.reduce"(%ret_229) <{axis = 3 : i32}> ({
    ^bb0(%iy_365: i64 loc(callsite(#loc2 at #loc159)), %iy_366: i64 loc(callsite(#loc2 at #loc159))):
      %iy_367 = arith.xori %iy_365, %iy_366 : i64 loc(#loc170)
      tt.reduce.return %iy_367 : i64 loc(#loc166)
    }) : (tensor<2x2x2x2x2x2x2xi64>) -> tensor<2x2x2x2x2x2xi64> loc(#loc166)
    %iy_231 = tt.expand_dims %iy_230 {axis = 3 : i32} : tensor<2x2x2x2x2x2xi64> -> tensor<2x2x2x1x2x2x2xi64> loc(#loc168)
    %iy_232 = tt.broadcast %iy_231 : tensor<2x2x2x1x2x2x2xi64> -> tensor<2x2x2x2x2x2x2xi64> loc(#loc160)
    %iy_233 = arith.xori %ret_229, %iy_232 : tensor<2x2x2x2x2x2x2xi64> loc(#loc160)
    %ret_234 = arith.cmpi sgt, %ret_229, %iy_233 : tensor<2x2x2x2x2x2x2xi64> loc(#loc162)
    %ret_235 = tt.broadcast %ar_205 : tensor<2x1x1x1x1x1x1xi32> -> tensor<2x1x1x2x1x1x1xi32> loc(#loc163)
    %ret_236 = tt.broadcast %ar_58 : tensor<1x1x1x2x1x1x1xi32> -> tensor<2x1x1x2x1x1x1xi32> loc(#loc163)
    %ret_237 = arith.xori %ret_235, %ret_236 : tensor<2x1x1x2x1x1x1xi32> loc(#loc163)
    %ret_238 = arith.extui %ret_234 : tensor<2x2x2x2x2x2x2xi1> to tensor<2x2x2x2x2x2x2xi32> loc(#loc164)
    %ret_239 = tt.broadcast %ret_237 : tensor<2x1x1x2x1x1x1xi32> -> tensor<2x2x2x2x2x2x2xi32> loc(#loc164)
    %ret_240 = arith.cmpi ne, %ret_238, %ret_239 : tensor<2x2x2x2x2x2x2xi32> loc(#loc164)
    %ret_241 = arith.select %ret_240, %iy_233, %ret_229 : tensor<2x2x2x2x2x2x2xi1>, tensor<2x2x2x2x2x2x2xi64> loc(#loc165)
    %iy_242 = "tt.reduce"(%ret_241) <{axis = 4 : i32}> ({
    ^bb0(%iy_365: i64 loc(callsite(#loc2 at #loc159)), %iy_366: i64 loc(callsite(#loc2 at #loc159))):
      %iy_367 = arith.xori %iy_365, %iy_366 : i64 loc(#loc170)
      tt.reduce.return %iy_367 : i64 loc(#loc166)
    }) : (tensor<2x2x2x2x2x2x2xi64>) -> tensor<2x2x2x2x2x2xi64> loc(#loc166)
    %iy_243 = tt.expand_dims %iy_242 {axis = 4 : i32} : tensor<2x2x2x2x2x2xi64> -> tensor<2x2x2x2x1x2x2xi64> loc(#loc168)
    %iy_244 = tt.broadcast %iy_243 : tensor<2x2x2x2x1x2x2xi64> -> tensor<2x2x2x2x2x2x2xi64> loc(#loc160)
    %iy_245 = arith.xori %ret_241, %iy_244 : tensor<2x2x2x2x2x2x2xi64> loc(#loc160)
    %ret_246 = arith.cmpi sgt, %ret_241, %iy_245 : tensor<2x2x2x2x2x2x2xi64> loc(#loc162)
    %ret_247 = tt.broadcast %ar_205 : tensor<2x1x1x1x1x1x1xi32> -> tensor<2x1x1x1x2x1x1xi32> loc(#loc163)
    %ret_248 = tt.broadcast %ar_33 : tensor<1x1x1x1x2x1x1xi32> -> tensor<2x1x1x1x2x1x1xi32> loc(#loc163)
    %ret_249 = arith.xori %ret_247, %ret_248 : tensor<2x1x1x1x2x1x1xi32> loc(#loc163)
    %ret_250 = arith.extui %ret_246 : tensor<2x2x2x2x2x2x2xi1> to tensor<2x2x2x2x2x2x2xi32> loc(#loc164)
    %ret_251 = tt.broadcast %ret_249 : tensor<2x1x1x1x2x1x1xi32> -> tensor<2x2x2x2x2x2x2xi32> loc(#loc164)
    %ret_252 = arith.cmpi ne, %ret_250, %ret_251 : tensor<2x2x2x2x2x2x2xi32> loc(#loc164)
    %ret_253 = arith.select %ret_252, %iy_245, %ret_241 : tensor<2x2x2x2x2x2x2xi1>, tensor<2x2x2x2x2x2x2xi64> loc(#loc165)
    %iy_254 = "tt.reduce"(%ret_253) <{axis = 5 : i32}> ({
    ^bb0(%iy_365: i64 loc(callsite(#loc2 at #loc159)), %iy_366: i64 loc(callsite(#loc2 at #loc159))):
      %iy_367 = arith.xori %iy_365, %iy_366 : i64 loc(#loc170)
      tt.reduce.return %iy_367 : i64 loc(#loc166)
    }) : (tensor<2x2x2x2x2x2x2xi64>) -> tensor<2x2x2x2x2x2xi64> loc(#loc166)
    %iy_255 = tt.expand_dims %iy_254 {axis = 5 : i32} : tensor<2x2x2x2x2x2xi64> -> tensor<2x2x2x2x2x1x2xi64> loc(#loc168)
    %iy_256 = tt.broadcast %iy_255 : tensor<2x2x2x2x2x1x2xi64> -> tensor<2x2x2x2x2x2x2xi64> loc(#loc160)
    %iy_257 = arith.xori %ret_253, %iy_256 : tensor<2x2x2x2x2x2x2xi64> loc(#loc160)
    %ret_258 = arith.cmpi sgt, %ret_253, %iy_257 : tensor<2x2x2x2x2x2x2xi64> loc(#loc162)
    %ret_259 = tt.broadcast %ar_205 : tensor<2x1x1x1x1x1x1xi32> -> tensor<2x1x1x1x1x2x1xi32> loc(#loc163)
    %ret_260 = tt.broadcast %ar_21 : tensor<1x1x1x1x1x2x1xi32> -> tensor<2x1x1x1x1x2x1xi32> loc(#loc163)
    %ret_261 = arith.xori %ret_259, %ret_260 : tensor<2x1x1x1x1x2x1xi32> loc(#loc163)
    %ret_262 = arith.extui %ret_258 : tensor<2x2x2x2x2x2x2xi1> to tensor<2x2x2x2x2x2x2xi32> loc(#loc164)
    %ret_263 = tt.broadcast %ret_261 : tensor<2x1x1x1x1x2x1xi32> -> tensor<2x2x2x2x2x2x2xi32> loc(#loc164)
    %ret_264 = arith.cmpi ne, %ret_262, %ret_263 : tensor<2x2x2x2x2x2x2xi32> loc(#loc164)
    %ret_265 = arith.select %ret_264, %iy_257, %ret_253 : tensor<2x2x2x2x2x2x2xi1>, tensor<2x2x2x2x2x2x2xi64> loc(#loc165)
    %iy_266 = "tt.reduce"(%ret_265) <{axis = 6 : i32}> ({
    ^bb0(%iy_365: i64 loc(callsite(#loc2 at #loc159)), %iy_366: i64 loc(callsite(#loc2 at #loc159))):
      %iy_367 = arith.xori %iy_365, %iy_366 : i64 loc(#loc170)
      tt.reduce.return %iy_367 : i64 loc(#loc166)
    }) : (tensor<2x2x2x2x2x2x2xi64>) -> tensor<2x2x2x2x2x2xi64> loc(#loc166)
    %iy_267 = tt.expand_dims %iy_266 {axis = 6 : i32} : tensor<2x2x2x2x2x2xi64> -> tensor<2x2x2x2x2x2x1xi64> loc(#loc168)
    %iy_268 = tt.broadcast %iy_267 : tensor<2x2x2x2x2x2x1xi64> -> tensor<2x2x2x2x2x2x2xi64> loc(#loc160)
    %iy_269 = arith.xori %ret_265, %iy_268 : tensor<2x2x2x2x2x2x2xi64> loc(#loc160)
    %ret_270 = arith.cmpi sgt, %ret_265, %iy_269 : tensor<2x2x2x2x2x2x2xi64> loc(#loc162)
    %ret_271 = tt.broadcast %ar_205 : tensor<2x1x1x1x1x1x1xi32> -> tensor<2x1x1x1x1x1x2xi32> loc(#loc163)
    %ret_272 = tt.broadcast %ar_25 : tensor<1x1x1x1x1x1x2xi32> -> tensor<2x1x1x1x1x1x2xi32> loc(#loc163)
    %ret_273 = arith.xori %ret_271, %ret_272 : tensor<2x1x1x1x1x1x2xi32> loc(#loc163)
    %ret_274 = arith.extui %ret_270 : tensor<2x2x2x2x2x2x2xi1> to tensor<2x2x2x2x2x2x2xi32> loc(#loc164)
    %ret_275 = tt.broadcast %ret_273 : tensor<2x1x1x1x1x1x2xi32> -> tensor<2x2x2x2x2x2x2xi32> loc(#loc164)
    %ret_276 = arith.cmpi ne, %ret_274, %ret_275 : tensor<2x2x2x2x2x2x2xi32> loc(#loc164)
    %ret_277 = arith.select %ret_276, %iy_269, %ret_265 : tensor<2x2x2x2x2x2x2xi1>, tensor<2x2x2x2x2x2x2xi64> loc(#loc165)
    %iy_278 = "tt.reduce"(%ret_277) <{axis = 0 : i32}> ({
    ^bb0(%iy_365: i64 loc(callsite(#loc2 at #loc159)), %iy_366: i64 loc(callsite(#loc2 at #loc159))):
      %iy_367 = arith.xori %iy_365, %iy_366 : i64 loc(#loc170)
      tt.reduce.return %iy_367 : i64 loc(#loc166)
    }) : (tensor<2x2x2x2x2x2x2xi64>) -> tensor<2x2x2x2x2x2xi64> loc(#loc166)
    %iy_279 = tt.expand_dims %iy_278 {axis = 0 : i32} : tensor<2x2x2x2x2x2xi64> -> tensor<1x2x2x2x2x2x2xi64> loc(#loc168)
    %iy_280 = tt.broadcast %iy_279 : tensor<1x2x2x2x2x2x2xi64> -> tensor<2x2x2x2x2x2x2xi64> loc(#loc160)
    %iy_281 = arith.xori %ret_277, %iy_280 : tensor<2x2x2x2x2x2x2xi64> loc(#loc160)
    %ret_282 = arith.cmpi sgt, %ret_277, %iy_281 : tensor<2x2x2x2x2x2x2xi64> loc(#loc162)
    %ret_283 = arith.extui %ret_282 : tensor<2x2x2x2x2x2x2xi1> to tensor<2x2x2x2x2x2x2xi32> loc(#loc164)
    %ret_284 = tt.broadcast %ar_205 : tensor<2x1x1x1x1x1x1xi32> -> tensor<2x2x2x2x2x2x2xi32> loc(#loc164)
    %ret_285 = arith.cmpi ne, %ret_283, %ret_284 : tensor<2x2x2x2x2x2x2xi32> loc(#loc164)
    %ret_286 = arith.select %ret_285, %iy_281, %ret_277 : tensor<2x2x2x2x2x2x2xi1>, tensor<2x2x2x2x2x2x2xi64> loc(#loc165)
    %iy_287 = "tt.reduce"(%ret_286) <{axis = 1 : i32}> ({
    ^bb0(%iy_365: i64 loc(callsite(#loc2 at #loc159)), %iy_366: i64 loc(callsite(#loc2 at #loc159))):
      %iy_367 = arith.xori %iy_365, %iy_366 : i64 loc(#loc170)
      tt.reduce.return %iy_367 : i64 loc(#loc166)
    }) : (tensor<2x2x2x2x2x2x2xi64>) -> tensor<2x2x2x2x2x2xi64> loc(#loc166)
    %iy_288 = tt.expand_dims %iy_287 {axis = 1 : i32} : tensor<2x2x2x2x2x2xi64> -> tensor<2x1x2x2x2x2x2xi64> loc(#loc168)
    %iy_289 = tt.broadcast %iy_288 : tensor<2x1x2x2x2x2x2xi64> -> tensor<2x2x2x2x2x2x2xi64> loc(#loc160)
    %iy_290 = arith.xori %ret_286, %iy_289 : tensor<2x2x2x2x2x2x2xi64> loc(#loc160)
    %ret_291 = arith.cmpi sgt, %ret_286, %iy_290 : tensor<2x2x2x2x2x2x2xi64> loc(#loc162)
    %ret_292 = arith.extui %ret_291 : tensor<2x2x2x2x2x2x2xi1> to tensor<2x2x2x2x2x2x2xi32> loc(#loc164)
    %ret_293 = tt.broadcast %ar_144 : tensor<1x2x1x1x1x1x1xi32> -> tensor<2x2x2x2x2x2x2xi32> loc(#loc164)
    %ret_294 = arith.cmpi ne, %ret_292, %ret_293 : tensor<2x2x2x2x2x2x2xi32> loc(#loc164)
    %ret_295 = arith.select %ret_294, %iy_290, %ret_286 : tensor<2x2x2x2x2x2x2xi1>, tensor<2x2x2x2x2x2x2xi64> loc(#loc165)
    %iy_296 = "tt.reduce"(%ret_295) <{axis = 2 : i32}> ({
    ^bb0(%iy_365: i64 loc(callsite(#loc2 at #loc159)), %iy_366: i64 loc(callsite(#loc2 at #loc159))):
      %iy_367 = arith.xori %iy_365, %iy_366 : i64 loc(#loc170)
      tt.reduce.return %iy_367 : i64 loc(#loc166)
    }) : (tensor<2x2x2x2x2x2x2xi64>) -> tensor<2x2x2x2x2x2xi64> loc(#loc166)
    %iy_297 = tt.expand_dims %iy_296 {axis = 2 : i32} : tensor<2x2x2x2x2x2xi64> -> tensor<2x2x1x2x2x2x2xi64> loc(#loc168)
    %iy_298 = tt.broadcast %iy_297 : tensor<2x2x1x2x2x2x2xi64> -> tensor<2x2x2x2x2x2x2xi64> loc(#loc160)
    %iy_299 = arith.xori %ret_295, %iy_298 : tensor<2x2x2x2x2x2x2xi64> loc(#loc160)
    %ret_300 = arith.cmpi sgt, %ret_295, %iy_299 : tensor<2x2x2x2x2x2x2xi64> loc(#loc162)
    %ret_301 = arith.extui %ret_300 : tensor<2x2x2x2x2x2x2xi1> to tensor<2x2x2x2x2x2x2xi32> loc(#loc164)
    %ret_302 = tt.broadcast %ar_95 : tensor<1x1x2x1x1x1x1xi32> -> tensor<2x2x2x2x2x2x2xi32> loc(#loc164)
    %ret_303 = arith.cmpi ne, %ret_301, %ret_302 : tensor<2x2x2x2x2x2x2xi32> loc(#loc164)
    %ret_304 = arith.select %ret_303, %iy_299, %ret_295 : tensor<2x2x2x2x2x2x2xi1>, tensor<2x2x2x2x2x2x2xi64> loc(#loc165)
    %iy_305 = "tt.reduce"(%ret_304) <{axis = 3 : i32}> ({
    ^bb0(%iy_365: i64 loc(callsite(#loc2 at #loc159)), %iy_366: i64 loc(callsite(#loc2 at #loc159))):
      %iy_367 = arith.xori %iy_365, %iy_366 : i64 loc(#loc170)
      tt.reduce.return %iy_367 : i64 loc(#loc166)
    }) : (tensor<2x2x2x2x2x2x2xi64>) -> tensor<2x2x2x2x2x2xi64> loc(#loc166)
    %iy_306 = tt.expand_dims %iy_305 {axis = 3 : i32} : tensor<2x2x2x2x2x2xi64> -> tensor<2x2x2x1x2x2x2xi64> loc(#loc168)
    %iy_307 = tt.broadcast %iy_306 : tensor<2x2x2x1x2x2x2xi64> -> tensor<2x2x2x2x2x2x2xi64> loc(#loc160)
    %iy_308 = arith.xori %ret_304, %iy_307 : tensor<2x2x2x2x2x2x2xi64> loc(#loc160)
    %ret_309 = arith.cmpi sgt, %ret_304, %iy_308 : tensor<2x2x2x2x2x2x2xi64> loc(#loc162)
    %ret_310 = arith.extui %ret_309 : tensor<2x2x2x2x2x2x2xi1> to tensor<2x2x2x2x2x2x2xi32> loc(#loc164)
    %ret_311 = tt.broadcast %ar_58 : tensor<1x1x1x2x1x1x1xi32> -> tensor<2x2x2x2x2x2x2xi32> loc(#loc164)
    %ret_312 = arith.cmpi ne, %ret_310, %ret_311 : tensor<2x2x2x2x2x2x2xi32> loc(#loc164)
    %ret_313 = arith.select %ret_312, %iy_308, %ret_304 : tensor<2x2x2x2x2x2x2xi1>, tensor<2x2x2x2x2x2x2xi64> loc(#loc165)
    %iy_314 = "tt.reduce"(%ret_313) <{axis = 4 : i32}> ({
    ^bb0(%iy_365: i64 loc(callsite(#loc2 at #loc159)), %iy_366: i64 loc(callsite(#loc2 at #loc159))):
      %iy_367 = arith.xori %iy_365, %iy_366 : i64 loc(#loc170)
      tt.reduce.return %iy_367 : i64 loc(#loc166)
    }) : (tensor<2x2x2x2x2x2x2xi64>) -> tensor<2x2x2x2x2x2xi64> loc(#loc166)
    %iy_315 = tt.expand_dims %iy_314 {axis = 4 : i32} : tensor<2x2x2x2x2x2xi64> -> tensor<2x2x2x2x1x2x2xi64> loc(#loc168)
    %iy_316 = tt.broadcast %iy_315 : tensor<2x2x2x2x1x2x2xi64> -> tensor<2x2x2x2x2x2x2xi64> loc(#loc160)
    %iy_317 = arith.xori %ret_313, %iy_316 : tensor<2x2x2x2x2x2x2xi64> loc(#loc160)
    %ret_318 = arith.cmpi sgt, %ret_313, %iy_317 : tensor<2x2x2x2x2x2x2xi64> loc(#loc162)
    %ret_319 = arith.extui %ret_318 : tensor<2x2x2x2x2x2x2xi1> to tensor<2x2x2x2x2x2x2xi32> loc(#loc164)
    %ret_320 = tt.broadcast %ar_33 : tensor<1x1x1x1x2x1x1xi32> -> tensor<2x2x2x2x2x2x2xi32> loc(#loc164)
    %ret_321 = arith.cmpi ne, %ret_319, %ret_320 : tensor<2x2x2x2x2x2x2xi32> loc(#loc164)
    %ret_322 = arith.select %ret_321, %iy_317, %ret_313 : tensor<2x2x2x2x2x2x2xi1>, tensor<2x2x2x2x2x2x2xi64> loc(#loc165)
    %iy_323 = "tt.reduce"(%ret_322) <{axis = 5 : i32}> ({
    ^bb0(%iy_365: i64 loc(callsite(#loc2 at #loc159)), %iy_366: i64 loc(callsite(#loc2 at #loc159))):
      %iy_367 = arith.xori %iy_365, %iy_366 : i64 loc(#loc170)
      tt.reduce.return %iy_367 : i64 loc(#loc166)
    }) : (tensor<2x2x2x2x2x2x2xi64>) -> tensor<2x2x2x2x2x2xi64> loc(#loc166)
    %iy_324 = tt.expand_dims %iy_323 {axis = 5 : i32} : tensor<2x2x2x2x2x2xi64> -> tensor<2x2x2x2x2x1x2xi64> loc(#loc168)
    %iy_325 = tt.broadcast %iy_324 : tensor<2x2x2x2x2x1x2xi64> -> tensor<2x2x2x2x2x2x2xi64> loc(#loc160)
    %iy_326 = arith.xori %ret_322, %iy_325 : tensor<2x2x2x2x2x2x2xi64> loc(#loc160)
    %ret_327 = arith.cmpi sgt, %ret_322, %iy_326 : tensor<2x2x2x2x2x2x2xi64> loc(#loc162)
    %ret_328 = arith.extui %ret_327 : tensor<2x2x2x2x2x2x2xi1> to tensor<2x2x2x2x2x2x2xi32> loc(#loc164)
    %ret_329 = tt.broadcast %ar_21 : tensor<1x1x1x1x1x2x1xi32> -> tensor<2x2x2x2x2x2x2xi32> loc(#loc164)
    %ret_330 = arith.cmpi ne, %ret_328, %ret_329 : tensor<2x2x2x2x2x2x2xi32> loc(#loc164)
    %ret_331 = arith.select %ret_330, %iy_326, %ret_322 : tensor<2x2x2x2x2x2x2xi1>, tensor<2x2x2x2x2x2x2xi64> loc(#loc165)
    %iy_332 = "tt.reduce"(%ret_331) <{axis = 6 : i32}> ({
    ^bb0(%iy_365: i64 loc(callsite(#loc2 at #loc159)), %iy_366: i64 loc(callsite(#loc2 at #loc159))):
      %iy_367 = arith.xori %iy_365, %iy_366 : i64 loc(#loc170)
      tt.reduce.return %iy_367 : i64 loc(#loc166)
    }) : (tensor<2x2x2x2x2x2x2xi64>) -> tensor<2x2x2x2x2x2xi64> loc(#loc166)
    %iy_333 = tt.expand_dims %iy_332 {axis = 6 : i32} : tensor<2x2x2x2x2x2xi64> -> tensor<2x2x2x2x2x2x1xi64> loc(#loc168)
    %iy_334 = tt.broadcast %iy_333 : tensor<2x2x2x2x2x2x1xi64> -> tensor<2x2x2x2x2x2x2xi64> loc(#loc160)
    %iy_335 = arith.xori %ret_331, %iy_334 : tensor<2x2x2x2x2x2x2xi64> loc(#loc160)
    %ret_336 = arith.cmpi sgt, %ret_331, %iy_335 : tensor<2x2x2x2x2x2x2xi64> loc(#loc162)
    %ret_337 = arith.extui %ret_336 : tensor<2x2x2x2x2x2x2xi1> to tensor<2x2x2x2x2x2x2xi32> loc(#loc164)
    %ret_338 = tt.broadcast %ar_25 : tensor<1x1x1x1x1x1x2xi32> -> tensor<2x2x2x2x2x2x2xi32> loc(#loc164)
    %ret_339 = arith.cmpi ne, %ret_337, %ret_338 : tensor<2x2x2x2x2x2x2xi32> loc(#loc164)
    %ret_340 = arith.select %ret_339, %iy_335, %ret_331 : tensor<2x2x2x2x2x2x2xi1>, tensor<2x2x2x2x2x2x2xi64> loc(#loc165)
    %x = tt.reshape %ret_340 : tensor<2x2x2x2x2x2x2xi64> -> tensor<128xi64> loc(#loc153)
    %all_keys = arith.shrsi %x, %cst_1 : tensor<128xi64> loc(#loc121)
    %all_keys_341 = arith.andi %all_keys, %cst_2 : tensor<128xi64> loc(#loc122)
    %all_keys_342 = arith.trunci %all_keys_341 : tensor<128xi64> to tensor<128xi32> loc(#loc123)
    %all_ids = arith.andi %x, %cst_2 : tensor<128xi64> loc(#loc124)
    %all_ids_343 = arith.trunci %all_ids : tensor<128xi64> to tensor<128xi32> loc(#loc125)
    %sign_k = arith.shrsi %all_keys_342, %cst_6 : tensor<128xi32> loc(#loc126)
    %all_bits = arith.cmpi slt, %sign_k, %cst_5 : tensor<128xi32> loc(#loc127)
    %all_bits_344 = arith.xori %all_keys_342, %cst_4 : tensor<128xi32> loc(#loc128)
    %all_bits_345 = arith.xori %all_keys_342, %cst_3 : tensor<128xi32> loc(#loc129)
    %all_bits_346 = arith.select %all_bits, %all_bits_344, %all_bits_345 : tensor<128xi1>, tensor<128xi32> loc(#loc130)
    %all_logits = tt.bitcast %all_bits_346 : tensor<128xi32> -> tensor<128xf32> loc(#loc131)
    %all_raw_exp_347 = tt.splat %max_l : f32 -> tensor<128xf32> loc(#loc132)
    %all_raw_exp_348 = arith.subf %all_logits, %all_raw_exp_347 : tensor<128xf32> loc(#loc132)
    %all_raw_exp_349 = arith.mulf %all_raw_exp_348, %all_raw_exp : tensor<128xf32> loc(#loc85)
    %all_raw_exp_350 = math.exp2 %all_raw_exp_349 : tensor<128xf32> loc(#loc133)
    %top_mask_351 = arith.cmpi slt, %offs_e, %top_mask : tensor<128xi32> loc(#loc84)
    %renorm_raw_352 = arith.select %top_mask_351, %all_raw_exp_350, %renorm_raw : tensor<128xi1>, tensor<128xf32> loc(#loc83)
    %renorm_raw_353 = "tt.reduce"(%renorm_raw_352) <{axis = 0 : i32}> ({
    ^bb0(%renorm_raw_365: f32 loc(callsite(#loc2 at #loc134)), %renorm_raw_366: f32 loc(callsite(#loc2 at #loc134))):
      %renorm_raw_367 = arith.addf %renorm_raw_365, %renorm_raw_366 : f32 loc(#loc154)
      tt.reduce.return %renorm_raw_367 : f32 loc(#loc148)
    }) : (tensor<128xf32>) -> f32 loc(#loc148)
    %renorm_raw_354 = arith.cmpf ogt, %renorm_raw_353, %cst_0 : f32 loc(#loc135)
    %renorm_raw_355 = arith.select %renorm_raw_354, %renorm_raw_353, %cst : f32 loc(#loc136)
    %inv_renorm = arith.divf %cst, %renorm_raw_355 : f32 loc(#loc137)
    %all_scales_356 = arith.extsi %all_ids_343 : tensor<128xi32> to tensor<128xi64> loc(#loc138)
    %all_scales_357 = tt.splat %per_expert_scale_ptr : !tt.ptr<bf16> -> tensor<128x!tt.ptr<bf16>> loc(#loc139)
    %all_scales_358 = tt.addptr %all_scales_357, %all_scales_356 : tensor<128x!tt.ptr<bf16>>, tensor<128xi64> loc(#loc139)
    %all_scales_359 = tt.load %all_scales_358, %top_mask_351, %all_scales : tensor<128x!tt.ptr<bf16>> loc(#loc82)
    %all_scales_360 = arith.extf %all_scales_359 : tensor<128xbf16> to tensor<128xf32> loc(#loc140)
    %all_weights = tt.splat %inv_renorm : f32 -> tensor<128xf32> loc(#loc141)
    %all_weights_361 = arith.mulf %all_raw_exp_350, %all_weights : tensor<128xf32> loc(#loc141)
    %all_weights_362 = arith.mulf %all_weights_361, %all_scales_360 : tensor<128xf32> loc(#loc142)
    %base_off = arith.muli %pid, %c8_i32 : i32 loc(#loc143)
    %base_off_363 = tt.splat %base_off : i32 -> tensor<128xi32> loc(#loc144)
    %base_off_364 = arith.addi %base_off_363, %offs_e : tensor<128xi32> loc(#loc144)
    %0 = tt.splat %topk_ids_ptr : !tt.ptr<i32> -> tensor<128x!tt.ptr<i32>> loc(#loc73)
    %1 = tt.addptr %0, %base_off_364 : tensor<128x!tt.ptr<i32>>, tensor<128xi32> loc(#loc73)
    tt.store %1, %all_ids_343, %top_mask_351 : tensor<128x!tt.ptr<i32>> loc(#loc74)
    %2 = tt.splat %topk_weights_ptr : !tt.ptr<f32> -> tensor<128x!tt.ptr<f32>> loc(#loc75)
    %3 = tt.addptr %2, %base_off_364 : tensor<128x!tt.ptr<f32>>, tensor<128xi32> loc(#loc75)
    tt.store %3, %all_weights_362, %top_mask_351 : tensor<128x!tt.ptr<f32>> loc(#loc76)
    tt.return loc(#loc77)
  } loc(#loc)
} loc(#loc)
#loc1 = loc("/home/ericbuehler/vllm/.venv-bench/lib/python3.12/site-packages/vllm/model_executor/models/gemma4.py":144:8)
#loc3 = loc("/home/ericbuehler/vllm/.venv-bench/lib/python3.12/site-packages/vllm/model_executor/models/gemma4.py":138:56)
#loc4 = loc("/home/ericbuehler/vllm/.venv-bench/lib/python3.12/site-packages/vllm/model_executor/models/gemma4.py":137:24)
#loc5 = loc("/home/ericbuehler/vllm/.venv-bench/lib/python3.12/site-packages/vllm/model_executor/models/gemma4.py":134:54)
#loc6 = loc("/home/ericbuehler/vllm/.venv-bench/lib/python3.12/site-packages/vllm/model_executor/models/gemma4.py":119:31)
#loc7 = loc("/home/ericbuehler/vllm/.venv-bench/lib/python3.12/site-packages/vllm/model_executor/models/gemma4.py":107:8)
#loc8 = loc("/home/ericbuehler/vllm/.venv-bench/lib/python3.12/site-packages/vllm/model_executor/models/gemma4.py":104:21)
#loc9 = loc("/home/ericbuehler/vllm/.venv-bench/lib/python3.12/site-packages/vllm/model_executor/models/gemma4.py":102:24)
#loc10 = loc("/home/ericbuehler/vllm/.venv-bench/lib/python3.12/site-packages/vllm/model_executor/models/gemma4.py":103:26)
#loc11 = loc("/home/ericbuehler/vllm/.venv-bench/lib/python3.12/site-packages/vllm/model_executor/models/gemma4.py":107:27)
#loc12 = loc("/home/ericbuehler/vllm/.venv-bench/lib/python3.12/site-packages/vllm/model_executor/models/gemma4.py":107:21)
#loc13 = loc("/home/ericbuehler/vllm/.venv-bench/lib/python3.12/site-packages/vllm/model_executor/models/gemma4.py":107:31)
#loc14 = loc("/home/ericbuehler/vllm/.venv-bench/lib/python3.12/site-packages/triton/language/standard.py":191:40)
#loc16 = loc("/home/ericbuehler/vllm/.venv-bench/lib/python3.12/site-packages/triton/language/standard.py":170:27)
#loc17 = loc("/home/ericbuehler/vllm/.venv-bench/lib/python3.12/site-packages/vllm/model_executor/models/gemma4.py":116:27)
#loc18 = loc("/home/ericbuehler/vllm/.venv-bench/lib/python3.12/site-packages/vllm/model_executor/models/gemma4.py":117:27)
#loc19 = loc("/home/ericbuehler/vllm/.venv-bench/lib/python3.12/site-packages/vllm/model_executor/models/gemma4.py":118:29)
#loc20 = loc("/home/ericbuehler/vllm/.venv-bench/lib/python3.12/site-packages/vllm/model_executor/models/gemma4.py":118:45)
#loc21 = loc("/home/ericbuehler/vllm/.venv-bench/lib/python3.12/site-packages/vllm/model_executor/models/gemma4.py":118:62)
#loc22 = loc("/home/ericbuehler/vllm/.venv-bench/lib/python3.12/site-packages/vllm/model_executor/models/gemma4.py":118:49)
#loc23 = loc("/home/ericbuehler/vllm/.venv-bench/lib/python3.12/site-packages/vllm/model_executor/models/gemma4.py":120:18)
#loc24 = loc("/home/ericbuehler/vllm/.venv-bench/lib/python3.12/site-packages/vllm/model_executor/models/gemma4.py":120:30)
#loc25 = loc("/home/ericbuehler/vllm/.venv-bench/lib/python3.12/site-packages/vllm/model_executor/models/gemma4.py":121:22)
#loc26 = loc("/home/ericbuehler/vllm/.venv-bench/lib/python3.12/site-packages/vllm/model_executor/models/gemma4.py":121:38)
#loc27 = loc("/home/ericbuehler/vllm/.venv-bench/lib/python3.12/site-packages/vllm/model_executor/models/gemma4.py":121:28)
#loc28 = loc("/home/ericbuehler/vllm/.venv-bench/lib/python3.12/site-packages/triton/language/standard.py":446:24)
#loc31 = loc("/home/ericbuehler/vllm/.venv-bench/lib/python3.12/site-packages/triton/language/standard.py":368:24)
#loc32 = loc("/home/ericbuehler/vllm/.venv-bench/lib/python3.12/site-packages/triton/language/standard.py":405:42)
#loc34 = loc("/home/ericbuehler/vllm/.venv-bench/lib/python3.12/site-packages/triton/language/standard.py":369:26)
#loc35 = loc("/home/ericbuehler/vllm/.venv-bench/lib/python3.12/site-packages/triton/language/standard.py":309:36)
#loc38 = loc("/home/ericbuehler/vllm/.venv-bench/lib/python3.12/site-packages/triton/language/standard.py":298:15)
#loc39 = loc("/home/ericbuehler/vllm/.venv-bench/lib/python3.12/site-packages/triton/language/standard.py":307:0)
#loc40 = loc("/home/ericbuehler/vllm/.venv-bench/lib/python3.12/site-packages/triton/language/standard.py":381:14)
#loc41 = loc("/home/ericbuehler/vllm/.venv-bench/lib/python3.12/site-packages/triton/language/standard.py":385:34)
#loc42 = loc("/home/ericbuehler/vllm/.venv-bench/lib/python3.12/site-packages/triton/language/standard.py":388:26)
#loc43 = loc("/home/ericbuehler/vllm/.venv-bench/lib/python3.12/site-packages/triton/language/standard.py":388:40)
#loc44 = loc("/home/ericbuehler/vllm/.venv-bench/lib/python3.12/site-packages/triton/language/standard.py":388:33)
#loc45 = loc("/home/ericbuehler/vllm/.venv-bench/lib/python3.12/site-packages/triton/language/standard.py":388:54)
#loc46 = loc("/home/ericbuehler/vllm/.venv-bench/lib/python3.12/site-packages/triton/language/standard.py":459:24)
#loc47 = loc("/home/ericbuehler/vllm/.venv-bench/lib/python3.12/site-packages/vllm/model_executor/models/gemma4.py":125:29)
#loc48 = loc("/home/ericbuehler/vllm/.venv-bench/lib/python3.12/site-packages/vllm/model_executor/models/gemma4.py":125:35)
#loc49 = loc("/home/ericbuehler/vllm/.venv-bench/lib/python3.12/site-packages/vllm/model_executor/models/gemma4.py":125:58)
#loc50 = loc("/home/ericbuehler/vllm/.venv-bench/lib/python3.12/site-packages/vllm/model_executor/models/gemma4.py":126:26)
#loc51 = loc("/home/ericbuehler/vllm/.venv-bench/lib/python3.12/site-packages/vllm/model_executor/models/gemma4.py":126:49)
#loc52 = loc("/home/ericbuehler/vllm/.venv-bench/lib/python3.12/site-packages/vllm/model_executor/models/gemma4.py":129:25)
#loc53 = loc("/home/ericbuehler/vllm/.venv-bench/lib/python3.12/site-packages/vllm/model_executor/models/gemma4.py":130:33)
#loc54 = loc("/home/ericbuehler/vllm/.venv-bench/lib/python3.12/site-packages/vllm/model_executor/models/gemma4.py":130:47)
#loc55 = loc("/home/ericbuehler/vllm/.venv-bench/lib/python3.12/site-packages/vllm/model_executor/models/gemma4.py":130:62)
#loc56 = loc("/home/ericbuehler/vllm/.venv-bench/lib/python3.12/site-packages/vllm/model_executor/models/gemma4.py":130:51)
#loc57 = loc("/home/ericbuehler/vllm/.venv-bench/lib/python3.12/site-packages/vllm/model_executor/models/gemma4.py":131:29)
#loc58 = loc("/home/ericbuehler/vllm/.venv-bench/lib/python3.12/site-packages/vllm/model_executor/models/gemma4.py":134:45)
#loc59 = loc("/home/ericbuehler/vllm/.venv-bench/lib/python3.12/site-packages/vllm/model_executor/models/gemma4.py":134:31)
#loc60 = loc("/home/ericbuehler/vllm/.venv-bench/lib/python3.12/site-packages/triton/language/standard.py":293:36)
#loc62 = loc("/home/ericbuehler/vllm/.venv-bench/lib/python3.12/site-packages/triton/language/standard.py":263:15)
#loc63 = loc("/home/ericbuehler/vllm/.venv-bench/lib/python3.12/site-packages/vllm/model_executor/models/gemma4.py":139:39)
#loc64 = loc("/home/ericbuehler/vllm/.venv-bench/lib/python3.12/site-packages/vllm/model_executor/models/gemma4.py":139:56)
#loc65 = loc("/home/ericbuehler/vllm/.venv-bench/lib/python3.12/site-packages/vllm/model_executor/models/gemma4.py":140:23)
#loc66 = loc("/home/ericbuehler/vllm/.venv-bench/lib/python3.12/site-packages/vllm/model_executor/models/gemma4.py":144:42)
#loc67 = loc("/home/ericbuehler/vllm/.venv-bench/lib/python3.12/site-packages/vllm/model_executor/models/gemma4.py":144:31)
#loc68 = loc("/home/ericbuehler/vllm/.venv-bench/lib/python3.12/site-packages/vllm/model_executor/models/gemma4.py":147:9)
#loc69 = loc("/home/ericbuehler/vllm/.venv-bench/lib/python3.12/site-packages/vllm/model_executor/models/gemma4.py":150:33)
#loc70 = loc("/home/ericbuehler/vllm/.venv-bench/lib/python3.12/site-packages/vllm/model_executor/models/gemma4.py":150:46)
#loc71 = loc("/home/ericbuehler/vllm/.venv-bench/lib/python3.12/site-packages/vllm/model_executor/models/gemma4.py":153:21)
#loc72 = loc("/home/ericbuehler/vllm/.venv-bench/lib/python3.12/site-packages/vllm/model_executor/models/gemma4.py":153:25)
#loc73 = loc("/home/ericbuehler/vllm/.venv-bench/lib/python3.12/site-packages/vllm/model_executor/models/gemma4.py":154:28)
#loc74 = loc("/home/ericbuehler/vllm/.venv-bench/lib/python3.12/site-packages/vllm/model_executor/models/gemma4.py":154:38)
#loc75 = loc("/home/ericbuehler/vllm/.venv-bench/lib/python3.12/site-packages/vllm/model_executor/models/gemma4.py":155:32)
#loc76 = loc("/home/ericbuehler/vllm/.venv-bench/lib/python3.12/site-packages/vllm/model_executor/models/gemma4.py":155:42)
#loc77 = loc("/home/ericbuehler/vllm/.venv-bench/lib/python3.12/site-packages/vllm/model_executor/models/gemma4.py":155:4)
#loc82 = loc("all_scales"(#loc1))
#loc83 = loc("renorm_raw"(#loc3))
#loc84 = loc("top_mask"(#loc4))
#loc85 = loc("all_raw_exp"(#loc5))
#loc86 = loc("key"(#loc6))
#loc87 = loc("logits"(#loc7))
#loc88 = loc("valid"(#loc8))
#loc89 = loc("pid"(#loc9))
#loc90 = loc("offs_e"(#loc10))
#loc91 = loc("logits"(#loc11))
#loc92 = loc("logits"(#loc12))
#loc93 = loc("logits"(#loc13))
#loc95 = loc("logit_bits"(#loc17))
#loc96 = loc("sign_b"(#loc18))
#loc97 = loc("key"(#loc19))
#loc98 = loc("key"(#loc20))
#loc99 = loc("key"(#loc21))
#loc100 = loc("key"(#loc22))
#loc101 = loc("sk64"(#loc23))
#loc102 = loc("sk64"(#loc24))
#loc103 = loc("packed"(#loc25))
#loc104 = loc("packed"(#loc26))
#loc105 = loc("packed"(#loc27))
#loc106 = loc("h"(#loc28))
#loc108 = loc("ar"(#loc31))
#loc109 = loc("flip"(#loc32))
#loc111 = loc("ar"(#loc34))
#loc114 = loc("iy"(#loc40))
#loc115 = loc("is_right"(#loc41))
#loc116 = loc("ret"(#loc42))
#loc117 = loc("ret"(#loc43))
#loc118 = loc("ret"(#loc44))
#loc119 = loc("ret"(#loc45))
#loc120 = loc("x"(#loc46))
#loc121 = loc("all_keys"(#loc47))
#loc122 = loc("all_keys"(#loc48))
#loc123 = loc("all_keys"(#loc49))
#loc124 = loc("all_ids"(#loc50))
#loc125 = loc("all_ids"(#loc51))
#loc126 = loc("sign_k"(#loc52))
#loc127 = loc("all_bits"(#loc53))
#loc128 = loc("all_bits"(#loc54))
#loc129 = loc("all_bits"(#loc55))
#loc130 = loc("all_bits"(#loc56))
#loc131 = loc("all_logits"(#loc57))
#loc132 = loc("all_raw_exp"(#loc58))
#loc133 = loc("all_raw_exp"(#loc59))
#loc135 = loc("renorm_raw"(#loc63))
#loc136 = loc("renorm_raw"(#loc64))
#loc137 = loc("inv_renorm"(#loc65))
#loc138 = loc("all_scales"(#loc66))
#loc139 = loc("all_scales"(#loc67))
#loc140 = loc("all_scales"(#loc68))
#loc141 = loc("all_weights"(#loc69))
#loc142 = loc("all_weights"(#loc70))
#loc143 = loc("base_off"(#loc71))
#loc144 = loc("base_off"(#loc72))
#loc145 = loc(callsite(#loc14 at #loc94))
#loc148 = loc(callsite(#loc60 at #loc134))
#loc150 = loc(callsite(#loc16 at #loc145))
#loc151 = loc(callsite(#loc106 at #loc147))
#loc153 = loc(callsite(#loc120 at #loc147))
#loc154 = loc(callsite(#loc62 at #loc148))
#loc155 = loc(callsite(#loc109 at #loc152))
#loc157 = loc(callsite(#loc108 at #loc155))
#loc158 = loc(callsite(#loc111 at #loc155))
#loc160 = loc(callsite(#loc114 at #loc156))
#loc161 = loc(callsite(#loc115 at #loc156))
#loc162 = loc(callsite(#loc116 at #loc156))
#loc163 = loc(callsite(#loc117 at #loc156))
#loc164 = loc(callsite(#loc118 at #loc156))
#loc165 = loc(callsite(#loc119 at #loc156))
#loc166 = loc(callsite(#loc35 at #loc159))
#loc168 = loc(callsite(#loc39 at #loc159))
#loc169 = loc(callsite(#loc111 at #loc161))
#loc170 = loc(callsite(#loc38 at #loc166))
