#loc = loc("/home/ericbuehler/vllm/.venv-bench/lib/python3.12/site-packages/vllm/model_executor/models/gemma4.py":93:0)
#loc56 = loc("/home/ericbuehler/vllm/.venv-bench/lib/python3.12/site-packages/triton/language/standard.py":177:0)
#loc58 = loc(unknown)
#loc61 = loc("/home/ericbuehler/vllm/.venv-bench/lib/python3.12/site-packages/triton/language/standard.py":169:0)
#loc65 = loc("/home/ericbuehler/vllm/.venv-bench/lib/python3.12/site-packages/triton/language/standard.py":464:0)
#loc69 = loc("/home/ericbuehler/vllm/.venv-bench/lib/python3.12/site-packages/triton/language/standard.py":423:0)
#loc75 = loc("/home/ericbuehler/vllm/.venv-bench/lib/python3.12/site-packages/triton/language/standard.py":393:0)
#loc85 = loc("/home/ericbuehler/vllm/.venv-bench/lib/python3.12/site-packages/triton/language/standard.py":374:0)
#loc95 = loc("/home/ericbuehler/vllm/.venv-bench/lib/python3.12/site-packages/triton/language/standard.py":307:0)
#loc99 = loc("/home/ericbuehler/vllm/.venv-bench/lib/python3.12/site-packages/triton/language/standard.py":297:0)
#loc104 = loc("/home/ericbuehler/vllm/.venv-bench/lib/python3.12/site-packages/triton/language/standard.py":287:0)
#loc108 = loc("/home/ericbuehler/vllm/.venv-bench/lib/python3.12/site-packages/triton/language/standard.py":262:0)
#loc112 = loc("gating_ptr"(#loc))
#loc113 = loc("per_expert_scale_ptr"(#loc))
#loc114 = loc("topk_weights_ptr"(#loc))
#loc115 = loc("topk_ids_ptr"(#loc))
#loc166 = loc("input"(#loc56))
#loc167 = loc("a"(#loc61))
#loc168 = loc("b"(#loc61))
#loc169 = loc("x"(#loc65))
#loc170 = loc("x"(#loc69))
#loc174 = loc("x"(#loc75))
#loc179 = loc("x"(#loc85))
#loc180 = loc("flip"(#loc85))
#loc188 = loc("input"(#loc95))
#loc189 = loc("a"(#loc99))
#loc190 = loc("b"(#loc99))
#loc192 = loc("input"(#loc104))
#loc193 = loc("a"(#loc108))
#loc194 = loc("b"(#loc108))
module {
  tt.func public @_gemma4_routing_kernel(%gating_ptr: !tt.ptr<f32> {tt.divisibility = 16 : i32} loc("gating_ptr"(#loc)), %per_expert_scale_ptr: !tt.ptr<bf16> {tt.divisibility = 16 : i32} loc("per_expert_scale_ptr"(#loc)), %topk_weights_ptr: !tt.ptr<f32> {tt.divisibility = 16 : i32} loc("topk_weights_ptr"(#loc)), %topk_ids_ptr: !tt.ptr<i32> {tt.divisibility = 16 : i32} loc("topk_ids_ptr"(#loc))) attributes {noinline = false} {
    %pid = tt.get_program_id x : i32 loc(#loc116)
    %offs_e = tt.make_range {end = 128 : i32, start = 0 : i32} : tensor<128xi32> loc(#loc117)
    %valid = arith.constant 128 : i32 loc(#loc118)
    %valid_0 = arith.constant dense<128> : tensor<128xi32> loc(#loc118)
    %valid_1 = arith.cmpi slt, %offs_e, %valid_0 : tensor<128xi32> loc(#loc118)
    %logits = arith.constant 128 : i32 loc(#loc119)
    %logits_2 = arith.constant 128 : i32 loc(#loc119)
    %logits_3 = arith.extsi %pid : i32 to i64 loc(#loc119)
    %logits_4 = arith.extsi %logits_2 : i32 to i64 loc(#loc119)
    %logits_5 = arith.muli %logits_3, %logits_4 : i64 loc(#loc119)
    %logits_6 = arith.constant 2147483647 : i64 loc(#loc119)
    %logits_7 = arith.constant -2147483648 : i64 loc(#loc119)
    %logits_8 = arith.cmpi sle, %logits_5, %logits_6 : i64 loc(#loc119)
    %logits_9 = arith.cmpi sge, %logits_5, %logits_7 : i64 loc(#loc119)
    %logits_10 = arith.andi %logits_8, %logits_9 : i1 loc(#loc119)
    %logits_11 = arith.muli %pid, %logits_2 : i32 loc(#loc119)
    %logits_12 = tt.addptr %gating_ptr, %logits_11 : !tt.ptr<f32>, i32 loc(#loc120)
    %logits_13 = tt.splat %logits_12 : !tt.ptr<f32> -> tensor<128x!tt.ptr<f32>> loc(#loc121)
    %logits_14 = tt.addptr %logits_13, %offs_e : tensor<128x!tt.ptr<f32>>, tensor<128xi32> loc(#loc121)
    %logits_15 = arith.constant 0xFF800000 : f32 loc(#loc122)
    %logits_16 = arith.constant dense<0xFF800000> : tensor<128xf32> loc(#loc122)
    %logits_17 = tt.load %logits_14, %valid_1, %logits_16 : tensor<128x!tt.ptr<f32>> loc(#loc122)
    %max_l = tt.call @"triton.language.standard.max__fp32S128S__(1,)cconstexpr_0__(2,)cconstexpr_False__(3,)cconstexpr_True__(4,)cconstexpr_False_"(%logits_17) : (tensor<128xf32>) -> f32 loc(#loc123)
    %MIN32 = arith.constant -2147483648 : i32 loc(#loc124)
    %logit_bits = tt.bitcast %logits_17 : tensor<128xf32> -> tensor<128xi32> loc(#loc125)
    %sign_b = arith.constant 31 : i32 loc(#loc126)
    %sign_b_18 = arith.constant 31 : i32 loc(#loc126)
    %sign_b_19 = arith.constant dense<31> : tensor<128xi32> loc(#loc126)
    %sign_b_20 = arith.shrsi %logit_bits, %sign_b_19 : tensor<128xi32> loc(#loc126)
    %key = arith.constant 0 : i32 loc(#loc127)
    %key_21 = arith.constant dense<0> : tensor<128xi32> loc(#loc127)
    %key_22 = arith.cmpi eq, %sign_b_20, %key_21 : tensor<128xi32> loc(#loc127)
    %key_23 = arith.constant -1 : i32 loc(#loc128)
    %key_24 = arith.constant -1 : i32 loc(#loc128)
    %key_25 = arith.constant dense<-1> : tensor<128xi32> loc(#loc128)
    %key_26 = arith.xori %logit_bits, %key_25 : tensor<128xi32> loc(#loc128)
    %key_27 = arith.constant dense<-2147483648> : tensor<128xi32> loc(#loc129)
    %key_28 = arith.xori %logit_bits, %key_27 : tensor<128xi32> loc(#loc129)
    %key_29 = arith.select %key_22, %key_26, %key_28 : tensor<128xi1>, tensor<128xi32> loc(#loc130)
    %key_30 = arith.constant 2147483647 : i32 loc(#loc131)
    %key_31 = arith.constant 2147483647 : i32 loc(#loc131)
    %key_32 = arith.constant dense<2147483647> : tensor<128xi32> loc(#loc131)
    %key_33 = arith.select %valid_1, %key_29, %key_32 : tensor<128xi1>, tensor<128xi32> loc(#loc131)
    %sk64 = arith.extsi %key_33 : tensor<128xi32> to tensor<128xi64> loc(#loc132)
    %sk64_34 = arith.constant -1 : i32 loc(#loc133)
    %sk64_35 = arith.constant 4294967295 : i64 loc(#loc133)
    %sk64_36 = arith.constant dense<4294967295> : tensor<128xi64> loc(#loc133)
    %sk64_37 = arith.andi %sk64, %sk64_36 : tensor<128xi64> loc(#loc133)
    %packed = arith.constant 32 : i32 loc(#loc134)
    %packed_38 = arith.constant 32 : i64 loc(#loc134)
    %packed_39 = arith.constant dense<32> : tensor<128xi64> loc(#loc134)
    %packed_40 = arith.shli %sk64_37, %packed_39 : tensor<128xi64> loc(#loc134)
    %packed_41 = arith.extsi %offs_e : tensor<128xi32> to tensor<128xi64> loc(#loc135)
    %packed_42 = arith.ori %packed_40, %packed_41 : tensor<128xi64> loc(#loc136)
    %sorted_p = tt.call @"triton.language.standard.sort__i64S128S__(1,)cNone_(2,)cconstexpr_False_"(%packed_42) : (tensor<128xi64>) -> tensor<128xi64> loc(#loc137)
    %all_keys = arith.constant 32 : i32 loc(#loc138)
    %all_keys_43 = arith.constant 32 : i64 loc(#loc138)
    %all_keys_44 = arith.constant dense<32> : tensor<128xi64> loc(#loc138)
    %all_keys_45 = arith.shrsi %sorted_p, %all_keys_44 : tensor<128xi64> loc(#loc138)
    %all_keys_46 = arith.constant -1 : i32 loc(#loc139)
    %all_keys_47 = arith.constant 4294967295 : i64 loc(#loc139)
    %all_keys_48 = arith.constant dense<4294967295> : tensor<128xi64> loc(#loc139)
    %all_keys_49 = arith.andi %all_keys_45, %all_keys_48 : tensor<128xi64> loc(#loc139)
    %all_keys_50 = arith.trunci %all_keys_49 : tensor<128xi64> to tensor<128xi32> loc(#loc140)
    %all_ids = arith.constant -1 : i32 loc(#loc141)
    %all_ids_51 = arith.constant 4294967295 : i64 loc(#loc141)
    %all_ids_52 = arith.constant dense<4294967295> : tensor<128xi64> loc(#loc141)
    %all_ids_53 = arith.andi %sorted_p, %all_ids_52 : tensor<128xi64> loc(#loc141)
    %all_ids_54 = arith.trunci %all_ids_53 : tensor<128xi64> to tensor<128xi32> loc(#loc142)
    %sign_k = arith.constant 31 : i32 loc(#loc143)
    %sign_k_55 = arith.constant 31 : i32 loc(#loc143)
    %sign_k_56 = arith.constant dense<31> : tensor<128xi32> loc(#loc143)
    %sign_k_57 = arith.shrsi %all_keys_50, %sign_k_56 : tensor<128xi32> loc(#loc143)
    %all_bits = arith.constant 0 : i32 loc(#loc144)
    %all_bits_58 = arith.constant dense<0> : tensor<128xi32> loc(#loc144)
    %all_bits_59 = arith.cmpi slt, %sign_k_57, %all_bits_58 : tensor<128xi32> loc(#loc144)
    %all_bits_60 = arith.constant -1 : i32 loc(#loc145)
    %all_bits_61 = arith.constant -1 : i32 loc(#loc145)
    %all_bits_62 = arith.constant dense<-1> : tensor<128xi32> loc(#loc145)
    %all_bits_63 = arith.xori %all_keys_50, %all_bits_62 : tensor<128xi32> loc(#loc145)
    %all_bits_64 = arith.constant dense<-2147483648> : tensor<128xi32> loc(#loc146)
    %all_bits_65 = arith.xori %all_keys_50, %all_bits_64 : tensor<128xi32> loc(#loc146)
    %all_bits_66 = arith.select %all_bits_59, %all_bits_63, %all_bits_65 : tensor<128xi1>, tensor<128xi32> loc(#loc147)
    %all_logits = tt.bitcast %all_bits_66 : tensor<128xi32> -> tensor<128xf32> loc(#loc148)
    %all_raw_exp = tt.splat %max_l : f32 -> tensor<128xf32> loc(#loc149)
    %all_raw_exp_67 = arith.subf %all_logits, %all_raw_exp : tensor<128xf32> loc(#loc149)
    %all_raw_exp_68 = arith.constant 1.44269502 : f32 loc(#loc150)
    %all_raw_exp_69 = arith.constant 1.44269502 : f32 loc(#loc150)
    %all_raw_exp_70 = arith.constant dense<1.44269502> : tensor<128xf32> loc(#loc150)
    %all_raw_exp_71 = arith.mulf %all_raw_exp_67, %all_raw_exp_70 : tensor<128xf32> loc(#loc150)
    %all_raw_exp_72 = math.exp2 %all_raw_exp_71 : tensor<128xf32> loc(#loc151)
    %top_mask = arith.constant 8 : i32 loc(#loc152)
    %top_mask_73 = arith.constant dense<8> : tensor<128xi32> loc(#loc152)
    %top_mask_74 = arith.cmpi slt, %offs_e, %top_mask_73 : tensor<128xi32> loc(#loc152)
    %renorm_raw = arith.constant 0.000000e+00 : f32 loc(#loc153)
    %renorm_raw_75 = arith.constant 0.000000e+00 : f32 loc(#loc153)
    %renorm_raw_76 = arith.constant dense<0.000000e+00> : tensor<128xf32> loc(#loc153)
    %renorm_raw_77 = arith.select %top_mask_74, %all_raw_exp_72, %renorm_raw_76 : tensor<128xi1>, tensor<128xf32> loc(#loc153)
    %renorm_raw_78 = tt.call @"triton.language.standard.sum__fp32S128S__(1,)cconstexpr_0__(2,)cconstexpr_False__(3,)cNone"(%renorm_raw_77) : (tensor<128xf32>) -> f32 loc(#loc154)
    %renorm_raw_79 = arith.constant 0.000000e+00 : f32 loc(#loc155)
    %renorm_raw_80 = arith.cmpf ogt, %renorm_raw_78, %renorm_raw_79 : f32 loc(#loc155)
    %renorm_raw_81 = arith.constant 1.000000e+00 : f32 loc(#loc156)
    %renorm_raw_82 = arith.constant 1.000000e+00 : f32 loc(#loc156)
    %renorm_raw_83 = arith.select %renorm_raw_80, %renorm_raw_78, %renorm_raw_82 : f32 loc(#loc156)
    %inv_renorm = arith.constant 1.000000e+00 : f32 loc(#loc157)
    %inv_renorm_84 = arith.constant 1.000000e+00 : f32 loc(#loc157)
    %inv_renorm_85 = arith.divf %inv_renorm_84, %renorm_raw_83 : f32 loc(#loc157)
    %all_scales = arith.extsi %all_ids_54 : tensor<128xi32> to tensor<128xi64> loc(#loc158)
    %all_scales_86 = tt.splat %per_expert_scale_ptr : !tt.ptr<bf16> -> tensor<128x!tt.ptr<bf16>> loc(#loc159)
    %all_scales_87 = tt.addptr %all_scales_86, %all_scales : tensor<128x!tt.ptr<bf16>>, tensor<128xi64> loc(#loc159)
    %all_scales_88 = arith.constant 1.000000e+00 : f32 loc(#loc160)
    %all_scales_89 = arith.constant dense<1.000000e+00> : tensor<128xf32> loc(#loc160)
    %all_scales_90 = arith.truncf %all_scales_89 : tensor<128xf32> to tensor<128xbf16> loc(#loc160)
    %all_scales_91 = tt.load %all_scales_87, %top_mask_74, %all_scales_90 : tensor<128x!tt.ptr<bf16>> loc(#loc160)
    %all_scales_92 = arith.extf %all_scales_91 : tensor<128xbf16> to tensor<128xf32> loc(#loc161)
    %all_weights = tt.splat %inv_renorm_85 : f32 -> tensor<128xf32> loc(#loc162)
    %all_weights_93 = arith.mulf %all_raw_exp_72, %all_weights : tensor<128xf32> loc(#loc162)
    %all_weights_94 = arith.mulf %all_weights_93, %all_scales_92 : tensor<128xf32> loc(#loc163)
    %base_off = arith.constant 8 : i32 loc(#loc164)
    %base_off_95 = arith.constant 8 : i32 loc(#loc164)
    %base_off_96 = arith.extsi %pid : i32 to i64 loc(#loc164)
    %base_off_97 = arith.extsi %base_off_95 : i32 to i64 loc(#loc164)
    %base_off_98 = arith.muli %base_off_96, %base_off_97 : i64 loc(#loc164)
    %base_off_99 = arith.constant 2147483647 : i64 loc(#loc164)
    %base_off_100 = arith.constant -2147483648 : i64 loc(#loc164)
    %base_off_101 = arith.cmpi sle, %base_off_98, %base_off_99 : i64 loc(#loc164)
    %base_off_102 = arith.cmpi sge, %base_off_98, %base_off_100 : i64 loc(#loc164)
    %base_off_103 = arith.andi %base_off_101, %base_off_102 : i1 loc(#loc164)
    %base_off_104 = arith.muli %pid, %base_off_95 : i32 loc(#loc164)
    %base_off_105 = tt.splat %base_off_104 : i32 -> tensor<128xi32> loc(#loc165)
    %base_off_106 = arith.extsi %base_off_105 : tensor<128xi32> to tensor<128xi64> loc(#loc165)
    %base_off_107 = arith.extsi %offs_e : tensor<128xi32> to tensor<128xi64> loc(#loc165)
    %base_off_108 = arith.addi %base_off_106, %base_off_107 : tensor<128xi64> loc(#loc165)
    %base_off_109 = arith.constant 2147483647 : i64 loc(#loc165)
    %base_off_110 = arith.constant -2147483648 : i64 loc(#loc165)
    %base_off_111 = arith.constant dense<2147483647> : tensor<128xi64> loc(#loc165)
    %base_off_112 = arith.cmpi sle, %base_off_108, %base_off_111 : tensor<128xi64> loc(#loc165)
    %base_off_113 = arith.constant dense<-2147483648> : tensor<128xi64> loc(#loc165)
    %base_off_114 = arith.cmpi sge, %base_off_108, %base_off_113 : tensor<128xi64> loc(#loc165)
    %base_off_115 = arith.andi %base_off_112, %base_off_114 : tensor<128xi1> loc(#loc165)
    %base_off_116 = arith.addi %base_off_105, %offs_e : tensor<128xi32> loc(#loc165)
    %0 = tt.splat %topk_ids_ptr : !tt.ptr<i32> -> tensor<128x!tt.ptr<i32>> loc(#loc51)
    %1 = tt.addptr %0, %base_off_116 : tensor<128x!tt.ptr<i32>>, tensor<128xi32> loc(#loc51)
    tt.store %1, %all_ids_54, %top_mask_74 : tensor<128x!tt.ptr<i32>> loc(#loc52)
    %2 = tt.splat %topk_weights_ptr : !tt.ptr<f32> -> tensor<128x!tt.ptr<f32>> loc(#loc53)
    %3 = tt.addptr %2, %base_off_116 : tensor<128x!tt.ptr<f32>>, tensor<128xi32> loc(#loc53)
    tt.store %3, %all_weights_94, %top_mask_74 : tensor<128x!tt.ptr<f32>> loc(#loc54)
    tt.return loc(#loc55)
  } loc(#loc)
  tt.func private @"triton.language.standard.max__fp32S128S__(1,)cconstexpr_0__(2,)cconstexpr_False__(3,)cconstexpr_True__(4,)cconstexpr_False_"(%input: tensor<128xf32> loc("input"(#loc56))) -> f32 attributes {noinline = false} {
    %0 = "tt.reduce"(%input) <{axis = 0 : i32}> ({
    ^bb0(%arg1: f32 loc(unknown), %arg2: f32 loc(unknown)):
      %2 = tt.call @triton.language.standard._elementwise_max__fp32_fp32__(%arg1, %arg2) : (f32, f32) -> f32 loc(#loc57)
      tt.reduce.return %2 : f32 loc(#loc57)
    }) : (tensor<128xf32>) -> f32 loc(#loc57)
    tt.return %0 : f32 loc(#loc59)
  ^bb1:  // no predecessors
    %1 = ub.poison : f32 loc(#loc60)
    tt.return %1 : f32 loc(#loc60)
  } loc(#loc56)
  tt.func private @triton.language.standard._elementwise_max__fp32_fp32__(%a: f32 loc("a"(#loc61)), %b: f32 loc("b"(#loc61))) -> f32 attributes {noinline = false} {
    %0 = arith.maxnumf %a, %b : f32 loc(#loc62)
    tt.return %0 : f32 loc(#loc63)
  ^bb1:  // no predecessors
    %1 = ub.poison : f32 loc(#loc64)
    tt.return %1 : f32 loc(#loc64)
  } loc(#loc61)
  tt.func private @"triton.language.standard.sort__i64S128S__(1,)cNone_(2,)cconstexpr_False_"(%x: tensor<128xi64> loc("x"(#loc65))) -> tensor<128xi64> attributes {noinline = false} {
    %0 = tt.call @"triton.language.standard.sort_impl__i64S128S__(1,)cNone_(2,)cconstexpr_None__(3,)cconstexpr_False_"(%x) : (tensor<128xi64>) -> tensor<128xi64> loc(#loc66)
    tt.return %0 : tensor<128xi64> loc(#loc67)
  ^bb1:  // no predecessors
    %1 = ub.poison : tensor<128xi64> loc(#loc68)
    tt.return %1 : tensor<128xi64> loc(#loc68)
  } loc(#loc65)
  tt.func private @"triton.language.standard.sort_impl__i64S128S__(1,)cNone_(2,)cconstexpr_None__(3,)cconstexpr_False_"(%x: tensor<128xi64> loc("x"(#loc69))) -> tensor<128xi64> attributes {noinline = false} {
    %h = tt.reshape %x : tensor<128xi64> -> tensor<2x2x2x2x2x2x2xi64> loc(#loc171)
    %h_0 = tt.call @"triton.language.standard._bitonic_merge_hypercube__i64S2_2_2_2_2_2_2S__(1,)cconstexpr_1__(2,)cconstexpr_2_"(%h) : (tensor<2x2x2x2x2x2x2xi64>) -> tensor<2x2x2x2x2x2x2xi64> loc(#loc172)
    %h_1 = tt.call @"triton.language.standard._bitonic_merge_hypercube__i64S2_2_2_2_2_2_2S__(1,)cconstexpr_2__(2,)cconstexpr_2_"(%h_0) : (tensor<2x2x2x2x2x2x2xi64>) -> tensor<2x2x2x2x2x2x2xi64> loc(#loc172)
    %h_2 = tt.call @"triton.language.standard._bitonic_merge_hypercube__i64S2_2_2_2_2_2_2S__(1,)cconstexpr_3__(2,)cconstexpr_2_"(%h_1) : (tensor<2x2x2x2x2x2x2xi64>) -> tensor<2x2x2x2x2x2x2xi64> loc(#loc172)
    %h_3 = tt.call @"triton.language.standard._bitonic_merge_hypercube__i64S2_2_2_2_2_2_2S__(1,)cconstexpr_4__(2,)cconstexpr_2_"(%h_2) : (tensor<2x2x2x2x2x2x2xi64>) -> tensor<2x2x2x2x2x2x2xi64> loc(#loc172)
    %h_4 = tt.call @"triton.language.standard._bitonic_merge_hypercube__i64S2_2_2_2_2_2_2S__(1,)cconstexpr_5__(2,)cconstexpr_2_"(%h_3) : (tensor<2x2x2x2x2x2x2xi64>) -> tensor<2x2x2x2x2x2x2xi64> loc(#loc172)
    %h_5 = tt.call @"triton.language.standard._bitonic_merge_hypercube__i64S2_2_2_2_2_2_2S__(1,)cconstexpr_6__(2,)cconstexpr_2_"(%h_4) : (tensor<2x2x2x2x2x2x2xi64>) -> tensor<2x2x2x2x2x2x2xi64> loc(#loc172)
    %h_6 = tt.call @"triton.language.standard._bitonic_merge_hypercube__i64S2_2_2_2_2_2_2S__(1,)cconstexpr_7__(2,)cconstexpr_False_"(%h_5) : (tensor<2x2x2x2x2x2x2xi64>) -> tensor<2x2x2x2x2x2x2xi64> loc(#loc172)
    %x_7 = tt.reshape %h_6 : tensor<2x2x2x2x2x2x2xi64> -> tensor<128xi64> loc(#loc173)
    tt.return %x_7 : tensor<128xi64> loc(#loc73)
  ^bb1:  // no predecessors
    %0 = ub.poison : tensor<128xi64> loc(#loc74)
    tt.return %0 : tensor<128xi64> loc(#loc74)
  } loc(#loc69)
  tt.func private @"triton.language.standard._bitonic_merge_hypercube__i64S2_2_2_2_2_2_2S__(1,)cconstexpr_1__(2,)cconstexpr_2_"(%x: tensor<2x2x2x2x2x2x2xi64> loc("x"(#loc75))) -> tensor<2x2x2x2x2x2x2xi64> attributes {noinline = false} {
    %flip = tt.call @"triton.language.standard._indicator____(0,)cconstexpr_7__(1,)cconstexpr_1_"() : () -> tensor<1x1x1x1x1x2x1xi32> loc(#loc175)
    %x_0 = tt.call @"triton.language.standard._compare_and_swap__i64S2_2_2_2_2_2_2S_i32S1_1_1_1_1_2_1S__(2,)cconstexpr_0_"(%x, %flip) : (tensor<2x2x2x2x2x2x2xi64>, tensor<1x1x1x1x1x2x1xi32>) -> tensor<2x2x2x2x2x2x2xi64> loc(#loc176)
    tt.return %x_0 : tensor<2x2x2x2x2x2x2xi64> loc(#loc78)
  ^bb1:  // no predecessors
    %0 = ub.poison : tensor<2x2x2x2x2x2x2xi64> loc(#loc79)
    tt.return %0 : tensor<2x2x2x2x2x2x2xi64> loc(#loc79)
  } loc(#loc75)
  tt.func private @"triton.language.standard._indicator____(0,)cconstexpr_7__(1,)cconstexpr_1_"() -> tensor<1x1x1x1x1x2x1xi32> attributes {noinline = false} {
    %ar = tt.make_range {end = 2 : i32, start = 0 : i32} : tensor<2xi32> loc(#loc177)
    %ar_0 = tt.reshape %ar : tensor<2xi32> -> tensor<1x1x1x1x1x2x1xi32> loc(#loc178)
    tt.return %ar_0 : tensor<1x1x1x1x1x2x1xi32> loc(#loc83)
  ^bb1:  // no predecessors
    %0 = ub.poison : tensor<1x1x1x1x1x2x1xi32> loc(#loc84)
    tt.return %0 : tensor<1x1x1x1x1x2x1xi32> loc(#loc84)
  } loc(#loc80)
  tt.func private @"triton.language.standard._compare_and_swap__i64S2_2_2_2_2_2_2S_i32S1_1_1_1_1_2_1S__(2,)cconstexpr_0_"(%x: tensor<2x2x2x2x2x2x2xi64> loc("x"(#loc85)), %flip: tensor<1x1x1x1x1x2x1xi32> loc("flip"(#loc85))) -> tensor<2x2x2x2x2x2x2xi64> attributes {noinline = false} {
    %iy = tt.call @"triton.language.standard.xor_sum__i64S2_2_2_2_2_2_2S__(1,)cconstexpr_6__(2,)cconstexpr_True_"(%x) : (tensor<2x2x2x2x2x2x2xi64>) -> tensor<2x2x2x2x2x2x1xi64> loc(#loc181)
    %iy_0 = tt.broadcast %iy : tensor<2x2x2x2x2x2x1xi64> -> tensor<2x2x2x2x2x2x2xi64> loc(#loc182)
    %iy_1 = arith.xori %x, %iy_0 : tensor<2x2x2x2x2x2x2xi64> loc(#loc182)
    %is_right = tt.call @"triton.language.standard._indicator____(0,)cconstexpr_7__(1,)cconstexpr_0_"() : () -> tensor<1x1x1x1x1x1x2xi32> loc(#loc183)
    %ret = arith.cmpi sgt, %x, %iy_1 : tensor<2x2x2x2x2x2x2xi64> loc(#loc184)
    %ret_2 = tt.broadcast %flip : tensor<1x1x1x1x1x2x1xi32> -> tensor<1x1x1x1x1x2x2xi32> loc(#loc185)
    %ret_3 = tt.broadcast %is_right : tensor<1x1x1x1x1x1x2xi32> -> tensor<1x1x1x1x1x2x2xi32> loc(#loc185)
    %ret_4 = arith.xori %ret_2, %ret_3 : tensor<1x1x1x1x1x2x2xi32> loc(#loc185)
    %ret_5 = arith.extui %ret : tensor<2x2x2x2x2x2x2xi1> to tensor<2x2x2x2x2x2x2xi32> loc(#loc186)
    %ret_6 = tt.broadcast %ret_4 : tensor<1x1x1x1x1x2x2xi32> -> tensor<2x2x2x2x2x2x2xi32> loc(#loc186)
    %ret_7 = arith.cmpi ne, %ret_5, %ret_6 : tensor<2x2x2x2x2x2x2xi32> loc(#loc186)
    %ret_8 = arith.select %ret_7, %iy_1, %x : tensor<2x2x2x2x2x2x2xi1>, tensor<2x2x2x2x2x2x2xi64> loc(#loc187)
    tt.return %ret_8 : tensor<2x2x2x2x2x2x2xi64> loc(#loc93)
  ^bb1:  // no predecessors
    %0 = ub.poison : tensor<2x2x2x2x2x2x2xi64> loc(#loc94)
    tt.return %0 : tensor<2x2x2x2x2x2x2xi64> loc(#loc94)
  } loc(#loc85)
  tt.func private @"triton.language.standard.xor_sum__i64S2_2_2_2_2_2_2S__(1,)cconstexpr_6__(2,)cconstexpr_True_"(%input: tensor<2x2x2x2x2x2x2xi64> loc("input"(#loc95))) -> tensor<2x2x2x2x2x2x1xi64> attributes {noinline = false} {
    %0 = "tt.reduce"(%input) <{axis = 6 : i32}> ({
    ^bb0(%arg1: i64 loc(unknown), %arg2: i64 loc(unknown)):
      %3 = tt.call @triton.language.standard._xor_combine__i64_i64__(%arg1, %arg2) : (i64, i64) -> i64 loc(#loc96)
      tt.reduce.return %3 : i64 loc(#loc96)
    }) : (tensor<2x2x2x2x2x2x2xi64>) -> tensor<2x2x2x2x2x2xi64> loc(#loc96)
    %1 = tt.expand_dims %0 {axis = 6 : i32} : tensor<2x2x2x2x2x2xi64> -> tensor<2x2x2x2x2x2x1xi64> loc(#loc95)
    tt.return %1 : tensor<2x2x2x2x2x2x1xi64> loc(#loc97)
  ^bb1:  // no predecessors
    %2 = ub.poison : tensor<2x2x2x2x2x2x1xi64> loc(#loc98)
    tt.return %2 : tensor<2x2x2x2x2x2x1xi64> loc(#loc98)
  } loc(#loc95)
  tt.func private @triton.language.standard._xor_combine__i64_i64__(%a: i64 loc("a"(#loc99)), %b: i64 loc("b"(#loc99))) -> i64 attributes {noinline = false} {
    %0 = arith.xori %a, %b : i64 loc(#loc100)
    tt.return %0 : i64 loc(#loc101)
  ^bb1:  // no predecessors
    %1 = ub.poison : i64 loc(#loc102)
    tt.return %1 : i64 loc(#loc102)
  } loc(#loc99)
  tt.func private @"triton.language.standard._indicator____(0,)cconstexpr_7__(1,)cconstexpr_0_"() -> tensor<1x1x1x1x1x1x2xi32> attributes {noinline = false} {
    %ar = tt.make_range {end = 2 : i32, start = 0 : i32} : tensor<2xi32> loc(#loc177)
    %ar_0 = tt.reshape %ar : tensor<2xi32> -> tensor<1x1x1x1x1x1x2xi32> loc(#loc178)
    tt.return %ar_0 : tensor<1x1x1x1x1x1x2xi32> loc(#loc83)
  ^bb1:  // no predecessors
    %0 = ub.poison : tensor<1x1x1x1x1x1x2xi32> loc(#loc84)
    tt.return %0 : tensor<1x1x1x1x1x1x2xi32> loc(#loc84)
  } loc(#loc80)
  tt.func private @"triton.language.standard._bitonic_merge_hypercube__i64S2_2_2_2_2_2_2S__(1,)cconstexpr_2__(2,)cconstexpr_2_"(%x: tensor<2x2x2x2x2x2x2xi64> loc("x"(#loc75))) -> tensor<2x2x2x2x2x2x2xi64> attributes {noinline = false} {
    %flip = tt.call @"triton.language.standard._indicator____(0,)cconstexpr_7__(1,)cconstexpr_2_"() : () -> tensor<1x1x1x1x2x1x1xi32> loc(#loc175)
    %x_0 = tt.call @"triton.language.standard._compare_and_swap__i64S2_2_2_2_2_2_2S_i32S1_1_1_1_2_1_1S__(2,)cconstexpr_1_"(%x, %flip) : (tensor<2x2x2x2x2x2x2xi64>, tensor<1x1x1x1x2x1x1xi32>) -> tensor<2x2x2x2x2x2x2xi64> loc(#loc176)
    %x_1 = tt.call @"triton.language.standard._compare_and_swap__i64S2_2_2_2_2_2_2S_i32S1_1_1_1_2_1_1S__(2,)cconstexpr_0_"(%x_0, %flip) : (tensor<2x2x2x2x2x2x2xi64>, tensor<1x1x1x1x2x1x1xi32>) -> tensor<2x2x2x2x2x2x2xi64> loc(#loc176)
    tt.return %x_1 : tensor<2x2x2x2x2x2x2xi64> loc(#loc78)
  ^bb1:  // no predecessors
    %0 = ub.poison : tensor<2x2x2x2x2x2x2xi64> loc(#loc79)
    tt.return %0 : tensor<2x2x2x2x2x2x2xi64> loc(#loc79)
  } loc(#loc75)
  tt.func private @"triton.language.standard._indicator____(0,)cconstexpr_7__(1,)cconstexpr_2_"() -> tensor<1x1x1x1x2x1x1xi32> attributes {noinline = false} {
    %ar = tt.make_range {end = 2 : i32, start = 0 : i32} : tensor<2xi32> loc(#loc177)
    %ar_0 = tt.reshape %ar : tensor<2xi32> -> tensor<1x1x1x1x2x1x1xi32> loc(#loc178)
    tt.return %ar_0 : tensor<1x1x1x1x2x1x1xi32> loc(#loc83)
  ^bb1:  // no predecessors
    %0 = ub.poison : tensor<1x1x1x1x2x1x1xi32> loc(#loc84)
    tt.return %0 : tensor<1x1x1x1x2x1x1xi32> loc(#loc84)
  } loc(#loc80)
  tt.func private @"triton.language.standard._compare_and_swap__i64S2_2_2_2_2_2_2S_i32S1_1_1_1_2_1_1S__(2,)cconstexpr_1_"(%x: tensor<2x2x2x2x2x2x2xi64> loc("x"(#loc85)), %flip: tensor<1x1x1x1x2x1x1xi32> loc("flip"(#loc85))) -> tensor<2x2x2x2x2x2x2xi64> attributes {noinline = false} {
    %iy = tt.call @"triton.language.standard.xor_sum__i64S2_2_2_2_2_2_2S__(1,)cconstexpr_5__(2,)cconstexpr_True_"(%x) : (tensor<2x2x2x2x2x2x2xi64>) -> tensor<2x2x2x2x2x1x2xi64> loc(#loc181)
    %iy_0 = tt.broadcast %iy : tensor<2x2x2x2x2x1x2xi64> -> tensor<2x2x2x2x2x2x2xi64> loc(#loc182)
    %iy_1 = arith.xori %x, %iy_0 : tensor<2x2x2x2x2x2x2xi64> loc(#loc182)
    %is_right = tt.call @"triton.language.standard._indicator____(0,)cconstexpr_7__(1,)cconstexpr_1_"() : () -> tensor<1x1x1x1x1x2x1xi32> loc(#loc183)
    %ret = arith.cmpi sgt, %x, %iy_1 : tensor<2x2x2x2x2x2x2xi64> loc(#loc184)
    %ret_2 = tt.broadcast %flip : tensor<1x1x1x1x2x1x1xi32> -> tensor<1x1x1x1x2x2x1xi32> loc(#loc185)
    %ret_3 = tt.broadcast %is_right : tensor<1x1x1x1x1x2x1xi32> -> tensor<1x1x1x1x2x2x1xi32> loc(#loc185)
    %ret_4 = arith.xori %ret_2, %ret_3 : tensor<1x1x1x1x2x2x1xi32> loc(#loc185)
    %ret_5 = arith.extui %ret : tensor<2x2x2x2x2x2x2xi1> to tensor<2x2x2x2x2x2x2xi32> loc(#loc186)
    %ret_6 = tt.broadcast %ret_4 : tensor<1x1x1x1x2x2x1xi32> -> tensor<2x2x2x2x2x2x2xi32> loc(#loc186)
    %ret_7 = arith.cmpi ne, %ret_5, %ret_6 : tensor<2x2x2x2x2x2x2xi32> loc(#loc186)
    %ret_8 = arith.select %ret_7, %iy_1, %x : tensor<2x2x2x2x2x2x2xi1>, tensor<2x2x2x2x2x2x2xi64> loc(#loc187)
    tt.return %ret_8 : tensor<2x2x2x2x2x2x2xi64> loc(#loc93)
  ^bb1:  // no predecessors
    %0 = ub.poison : tensor<2x2x2x2x2x2x2xi64> loc(#loc94)
    tt.return %0 : tensor<2x2x2x2x2x2x2xi64> loc(#loc94)
  } loc(#loc85)
  tt.func private @"triton.language.standard.xor_sum__i64S2_2_2_2_2_2_2S__(1,)cconstexpr_5__(2,)cconstexpr_True_"(%input: tensor<2x2x2x2x2x2x2xi64> loc("input"(#loc95))) -> tensor<2x2x2x2x2x1x2xi64> attributes {noinline = false} {
    %0 = "tt.reduce"(%input) <{axis = 5 : i32}> ({
    ^bb0(%arg1: i64 loc(unknown), %arg2: i64 loc(unknown)):
      %3 = tt.call @triton.language.standard._xor_combine__i64_i64__(%arg1, %arg2) : (i64, i64) -> i64 loc(#loc96)
      tt.reduce.return %3 : i64 loc(#loc96)
    }) : (tensor<2x2x2x2x2x2x2xi64>) -> tensor<2x2x2x2x2x2xi64> loc(#loc96)
    %1 = tt.expand_dims %0 {axis = 5 : i32} : tensor<2x2x2x2x2x2xi64> -> tensor<2x2x2x2x2x1x2xi64> loc(#loc95)
    tt.return %1 : tensor<2x2x2x2x2x1x2xi64> loc(#loc97)
  ^bb1:  // no predecessors
    %2 = ub.poison : tensor<2x2x2x2x2x1x2xi64> loc(#loc98)
    tt.return %2 : tensor<2x2x2x2x2x1x2xi64> loc(#loc98)
  } loc(#loc95)
  tt.func private @"triton.language.standard._compare_and_swap__i64S2_2_2_2_2_2_2S_i32S1_1_1_1_2_1_1S__(2,)cconstexpr_0_"(%x: tensor<2x2x2x2x2x2x2xi64> loc("x"(#loc85)), %flip: tensor<1x1x1x1x2x1x1xi32> loc("flip"(#loc85))) -> tensor<2x2x2x2x2x2x2xi64> attributes {noinline = false} {
    %iy = tt.call @"triton.language.standard.xor_sum__i64S2_2_2_2_2_2_2S__(1,)cconstexpr_6__(2,)cconstexpr_True_"(%x) : (tensor<2x2x2x2x2x2x2xi64>) -> tensor<2x2x2x2x2x2x1xi64> loc(#loc181)
    %iy_0 = tt.broadcast %iy : tensor<2x2x2x2x2x2x1xi64> -> tensor<2x2x2x2x2x2x2xi64> loc(#loc182)
    %iy_1 = arith.xori %x, %iy_0 : tensor<2x2x2x2x2x2x2xi64> loc(#loc182)
    %is_right = tt.call @"triton.language.standard._indicator____(0,)cconstexpr_7__(1,)cconstexpr_0_"() : () -> tensor<1x1x1x1x1x1x2xi32> loc(#loc183)
    %ret = arith.cmpi sgt, %x, %iy_1 : tensor<2x2x2x2x2x2x2xi64> loc(#loc184)
    %ret_2 = tt.broadcast %flip : tensor<1x1x1x1x2x1x1xi32> -> tensor<1x1x1x1x2x1x2xi32> loc(#loc185)
    %ret_3 = tt.broadcast %is_right : tensor<1x1x1x1x1x1x2xi32> -> tensor<1x1x1x1x2x1x2xi32> loc(#loc185)
    %ret_4 = arith.xori %ret_2, %ret_3 : tensor<1x1x1x1x2x1x2xi32> loc(#loc185)
    %ret_5 = arith.extui %ret : tensor<2x2x2x2x2x2x2xi1> to tensor<2x2x2x2x2x2x2xi32> loc(#loc186)
    %ret_6 = tt.broadcast %ret_4 : tensor<1x1x1x1x2x1x2xi32> -> tensor<2x2x2x2x2x2x2xi32> loc(#loc186)
    %ret_7 = arith.cmpi ne, %ret_5, %ret_6 : tensor<2x2x2x2x2x2x2xi32> loc(#loc186)
    %ret_8 = arith.select %ret_7, %iy_1, %x : tensor<2x2x2x2x2x2x2xi1>, tensor<2x2x2x2x2x2x2xi64> loc(#loc187)
    tt.return %ret_8 : tensor<2x2x2x2x2x2x2xi64> loc(#loc93)
  ^bb1:  // no predecessors
    %0 = ub.poison : tensor<2x2x2x2x2x2x2xi64> loc(#loc94)
    tt.return %0 : tensor<2x2x2x2x2x2x2xi64> loc(#loc94)
  } loc(#loc85)
  tt.func private @"triton.language.standard._bitonic_merge_hypercube__i64S2_2_2_2_2_2_2S__(1,)cconstexpr_3__(2,)cconstexpr_2_"(%x: tensor<2x2x2x2x2x2x2xi64> loc("x"(#loc75))) -> tensor<2x2x2x2x2x2x2xi64> attributes {noinline = false} {
    %flip = tt.call @"triton.language.standard._indicator____(0,)cconstexpr_7__(1,)cconstexpr_3_"() : () -> tensor<1x1x1x2x1x1x1xi32> loc(#loc175)
    %x_0 = tt.call @"triton.language.standard._compare_and_swap__i64S2_2_2_2_2_2_2S_i32S1_1_1_2_1_1_1S__(2,)cconstexpr_2_"(%x, %flip) : (tensor<2x2x2x2x2x2x2xi64>, tensor<1x1x1x2x1x1x1xi32>) -> tensor<2x2x2x2x2x2x2xi64> loc(#loc176)
    %x_1 = tt.call @"triton.language.standard._compare_and_swap__i64S2_2_2_2_2_2_2S_i32S1_1_1_2_1_1_1S__(2,)cconstexpr_1_"(%x_0, %flip) : (tensor<2x2x2x2x2x2x2xi64>, tensor<1x1x1x2x1x1x1xi32>) -> tensor<2x2x2x2x2x2x2xi64> loc(#loc176)
    %x_2 = tt.call @"triton.language.standard._compare_and_swap__i64S2_2_2_2_2_2_2S_i32S1_1_1_2_1_1_1S__(2,)cconstexpr_0_"(%x_1, %flip) : (tensor<2x2x2x2x2x2x2xi64>, tensor<1x1x1x2x1x1x1xi32>) -> tensor<2x2x2x2x2x2x2xi64> loc(#loc176)
    tt.return %x_2 : tensor<2x2x2x2x2x2x2xi64> loc(#loc78)
  ^bb1:  // no predecessors
    %0 = ub.poison : tensor<2x2x2x2x2x2x2xi64> loc(#loc79)
    tt.return %0 : tensor<2x2x2x2x2x2x2xi64> loc(#loc79)
  } loc(#loc75)
  tt.func private @"triton.language.standard._indicator____(0,)cconstexpr_7__(1,)cconstexpr_3_"() -> tensor<1x1x1x2x1x1x1xi32> attributes {noinline = false} {
    %ar = tt.make_range {end = 2 : i32, start = 0 : i32} : tensor<2xi32> loc(#loc177)
    %ar_0 = tt.reshape %ar : tensor<2xi32> -> tensor<1x1x1x2x1x1x1xi32> loc(#loc178)
    tt.return %ar_0 : tensor<1x1x1x2x1x1x1xi32> loc(#loc83)
  ^bb1:  // no predecessors
    %0 = ub.poison : tensor<1x1x1x2x1x1x1xi32> loc(#loc84)
    tt.return %0 : tensor<1x1x1x2x1x1x1xi32> loc(#loc84)
  } loc(#loc80)
  tt.func private @"triton.language.standard._compare_and_swap__i64S2_2_2_2_2_2_2S_i32S1_1_1_2_1_1_1S__(2,)cconstexpr_2_"(%x: tensor<2x2x2x2x2x2x2xi64> loc("x"(#loc85)), %flip: tensor<1x1x1x2x1x1x1xi32> loc("flip"(#loc85))) -> tensor<2x2x2x2x2x2x2xi64> attributes {noinline = false} {
    %iy = tt.call @"triton.language.standard.xor_sum__i64S2_2_2_2_2_2_2S__(1,)cconstexpr_4__(2,)cconstexpr_True_"(%x) : (tensor<2x2x2x2x2x2x2xi64>) -> tensor<2x2x2x2x1x2x2xi64> loc(#loc181)
    %iy_0 = tt.broadcast %iy : tensor<2x2x2x2x1x2x2xi64> -> tensor<2x2x2x2x2x2x2xi64> loc(#loc182)
    %iy_1 = arith.xori %x, %iy_0 : tensor<2x2x2x2x2x2x2xi64> loc(#loc182)
    %is_right = tt.call @"triton.language.standard._indicator____(0,)cconstexpr_7__(1,)cconstexpr_2_"() : () -> tensor<1x1x1x1x2x1x1xi32> loc(#loc183)
    %ret = arith.cmpi sgt, %x, %iy_1 : tensor<2x2x2x2x2x2x2xi64> loc(#loc184)
    %ret_2 = tt.broadcast %flip : tensor<1x1x1x2x1x1x1xi32> -> tensor<1x1x1x2x2x1x1xi32> loc(#loc185)
    %ret_3 = tt.broadcast %is_right : tensor<1x1x1x1x2x1x1xi32> -> tensor<1x1x1x2x2x1x1xi32> loc(#loc185)
    %ret_4 = arith.xori %ret_2, %ret_3 : tensor<1x1x1x2x2x1x1xi32> loc(#loc185)
    %ret_5 = arith.extui %ret : tensor<2x2x2x2x2x2x2xi1> to tensor<2x2x2x2x2x2x2xi32> loc(#loc186)
    %ret_6 = tt.broadcast %ret_4 : tensor<1x1x1x2x2x1x1xi32> -> tensor<2x2x2x2x2x2x2xi32> loc(#loc186)
    %ret_7 = arith.cmpi ne, %ret_5, %ret_6 : tensor<2x2x2x2x2x2x2xi32> loc(#loc186)
    %ret_8 = arith.select %ret_7, %iy_1, %x : tensor<2x2x2x2x2x2x2xi1>, tensor<2x2x2x2x2x2x2xi64> loc(#loc187)
    tt.return %ret_8 : tensor<2x2x2x2x2x2x2xi64> loc(#loc93)
  ^bb1:  // no predecessors
    %0 = ub.poison : tensor<2x2x2x2x2x2x2xi64> loc(#loc94)
    tt.return %0 : tensor<2x2x2x2x2x2x2xi64> loc(#loc94)
  } loc(#loc85)
  tt.func private @"triton.language.standard.xor_sum__i64S2_2_2_2_2_2_2S__(1,)cconstexpr_4__(2,)cconstexpr_True_"(%input: tensor<2x2x2x2x2x2x2xi64> loc("input"(#loc95))) -> tensor<2x2x2x2x1x2x2xi64> attributes {noinline = false} {
    %0 = "tt.reduce"(%input) <{axis = 4 : i32}> ({
    ^bb0(%arg1: i64 loc(unknown), %arg2: i64 loc(unknown)):
      %3 = tt.call @triton.language.standard._xor_combine__i64_i64__(%arg1, %arg2) : (i64, i64) -> i64 loc(#loc96)
      tt.reduce.return %3 : i64 loc(#loc96)
    }) : (tensor<2x2x2x2x2x2x2xi64>) -> tensor<2x2x2x2x2x2xi64> loc(#loc96)
    %1 = tt.expand_dims %0 {axis = 4 : i32} : tensor<2x2x2x2x2x2xi64> -> tensor<2x2x2x2x1x2x2xi64> loc(#loc95)
    tt.return %1 : tensor<2x2x2x2x1x2x2xi64> loc(#loc97)
  ^bb1:  // no predecessors
    %2 = ub.poison : tensor<2x2x2x2x1x2x2xi64> loc(#loc98)
    tt.return %2 : tensor<2x2x2x2x1x2x2xi64> loc(#loc98)
  } loc(#loc95)
  tt.func private @"triton.language.standard._compare_and_swap__i64S2_2_2_2_2_2_2S_i32S1_1_1_2_1_1_1S__(2,)cconstexpr_1_"(%x: tensor<2x2x2x2x2x2x2xi64> loc("x"(#loc85)), %flip: tensor<1x1x1x2x1x1x1xi32> loc("flip"(#loc85))) -> tensor<2x2x2x2x2x2x2xi64> attributes {noinline = false} {
    %iy = tt.call @"triton.language.standard.xor_sum__i64S2_2_2_2_2_2_2S__(1,)cconstexpr_5__(2,)cconstexpr_True_"(%x) : (tensor<2x2x2x2x2x2x2xi64>) -> tensor<2x2x2x2x2x1x2xi64> loc(#loc181)
    %iy_0 = tt.broadcast %iy : tensor<2x2x2x2x2x1x2xi64> -> tensor<2x2x2x2x2x2x2xi64> loc(#loc182)
    %iy_1 = arith.xori %x, %iy_0 : tensor<2x2x2x2x2x2x2xi64> loc(#loc182)
    %is_right = tt.call @"triton.language.standard._indicator____(0,)cconstexpr_7__(1,)cconstexpr_1_"() : () -> tensor<1x1x1x1x1x2x1xi32> loc(#loc183)
    %ret = arith.cmpi sgt, %x, %iy_1 : tensor<2x2x2x2x2x2x2xi64> loc(#loc184)
    %ret_2 = tt.broadcast %flip : tensor<1x1x1x2x1x1x1xi32> -> tensor<1x1x1x2x1x2x1xi32> loc(#loc185)
    %ret_3 = tt.broadcast %is_right : tensor<1x1x1x1x1x2x1xi32> -> tensor<1x1x1x2x1x2x1xi32> loc(#loc185)
    %ret_4 = arith.xori %ret_2, %ret_3 : tensor<1x1x1x2x1x2x1xi32> loc(#loc185)
    %ret_5 = arith.extui %ret : tensor<2x2x2x2x2x2x2xi1> to tensor<2x2x2x2x2x2x2xi32> loc(#loc186)
    %ret_6 = tt.broadcast %ret_4 : tensor<1x1x1x2x1x2x1xi32> -> tensor<2x2x2x2x2x2x2xi32> loc(#loc186)
    %ret_7 = arith.cmpi ne, %ret_5, %ret_6 : tensor<2x2x2x2x2x2x2xi32> loc(#loc186)
    %ret_8 = arith.select %ret_7, %iy_1, %x : tensor<2x2x2x2x2x2x2xi1>, tensor<2x2x2x2x2x2x2xi64> loc(#loc187)
    tt.return %ret_8 : tensor<2x2x2x2x2x2x2xi64> loc(#loc93)
  ^bb1:  // no predecessors
    %0 = ub.poison : tensor<2x2x2x2x2x2x2xi64> loc(#loc94)
    tt.return %0 : tensor<2x2x2x2x2x2x2xi64> loc(#loc94)
  } loc(#loc85)
  tt.func private @"triton.language.standard._compare_and_swap__i64S2_2_2_2_2_2_2S_i32S1_1_1_2_1_1_1S__(2,)cconstexpr_0_"(%x: tensor<2x2x2x2x2x2x2xi64> loc("x"(#loc85)), %flip: tensor<1x1x1x2x1x1x1xi32> loc("flip"(#loc85))) -> tensor<2x2x2x2x2x2x2xi64> attributes {noinline = false} {
    %iy = tt.call @"triton.language.standard.xor_sum__i64S2_2_2_2_2_2_2S__(1,)cconstexpr_6__(2,)cconstexpr_True_"(%x) : (tensor<2x2x2x2x2x2x2xi64>) -> tensor<2x2x2x2x2x2x1xi64> loc(#loc181)
    %iy_0 = tt.broadcast %iy : tensor<2x2x2x2x2x2x1xi64> -> tensor<2x2x2x2x2x2x2xi64> loc(#loc182)
    %iy_1 = arith.xori %x, %iy_0 : tensor<2x2x2x2x2x2x2xi64> loc(#loc182)
    %is_right = tt.call @"triton.language.standard._indicator____(0,)cconstexpr_7__(1,)cconstexpr_0_"() : () -> tensor<1x1x1x1x1x1x2xi32> loc(#loc183)
    %ret = arith.cmpi sgt, %x, %iy_1 : tensor<2x2x2x2x2x2x2xi64> loc(#loc184)
    %ret_2 = tt.broadcast %flip : tensor<1x1x1x2x1x1x1xi32> -> tensor<1x1x1x2x1x1x2xi32> loc(#loc185)
    %ret_3 = tt.broadcast %is_right : tensor<1x1x1x1x1x1x2xi32> -> tensor<1x1x1x2x1x1x2xi32> loc(#loc185)
    %ret_4 = arith.xori %ret_2, %ret_3 : tensor<1x1x1x2x1x1x2xi32> loc(#loc185)
    %ret_5 = arith.extui %ret : tensor<2x2x2x2x2x2x2xi1> to tensor<2x2x2x2x2x2x2xi32> loc(#loc186)
    %ret_6 = tt.broadcast %ret_4 : tensor<1x1x1x2x1x1x2xi32> -> tensor<2x2x2x2x2x2x2xi32> loc(#loc186)
    %ret_7 = arith.cmpi ne, %ret_5, %ret_6 : tensor<2x2x2x2x2x2x2xi32> loc(#loc186)
    %ret_8 = arith.select %ret_7, %iy_1, %x : tensor<2x2x2x2x2x2x2xi1>, tensor<2x2x2x2x2x2x2xi64> loc(#loc187)
    tt.return %ret_8 : tensor<2x2x2x2x2x2x2xi64> loc(#loc93)
  ^bb1:  // no predecessors
    %0 = ub.poison : tensor<2x2x2x2x2x2x2xi64> loc(#loc94)
    tt.return %0 : tensor<2x2x2x2x2x2x2xi64> loc(#loc94)
  } loc(#loc85)
  tt.func private @"triton.language.standard._bitonic_merge_hypercube__i64S2_2_2_2_2_2_2S__(1,)cconstexpr_4__(2,)cconstexpr_2_"(%x: tensor<2x2x2x2x2x2x2xi64> loc("x"(#loc75))) -> tensor<2x2x2x2x2x2x2xi64> attributes {noinline = false} {
    %flip = tt.call @"triton.language.standard._indicator____(0,)cconstexpr_7__(1,)cconstexpr_4_"() : () -> tensor<1x1x2x1x1x1x1xi32> loc(#loc175)
    %x_0 = tt.call @"triton.language.standard._compare_and_swap__i64S2_2_2_2_2_2_2S_i32S1_1_2_1_1_1_1S__(2,)cconstexpr_3_"(%x, %flip) : (tensor<2x2x2x2x2x2x2xi64>, tensor<1x1x2x1x1x1x1xi32>) -> tensor<2x2x2x2x2x2x2xi64> loc(#loc176)
    %x_1 = tt.call @"triton.language.standard._compare_and_swap__i64S2_2_2_2_2_2_2S_i32S1_1_2_1_1_1_1S__(2,)cconstexpr_2_"(%x_0, %flip) : (tensor<2x2x2x2x2x2x2xi64>, tensor<1x1x2x1x1x1x1xi32>) -> tensor<2x2x2x2x2x2x2xi64> loc(#loc176)
    %x_2 = tt.call @"triton.language.standard._compare_and_swap__i64S2_2_2_2_2_2_2S_i32S1_1_2_1_1_1_1S__(2,)cconstexpr_1_"(%x_1, %flip) : (tensor<2x2x2x2x2x2x2xi64>, tensor<1x1x2x1x1x1x1xi32>) -> tensor<2x2x2x2x2x2x2xi64> loc(#loc176)
    %x_3 = tt.call @"triton.language.standard._compare_and_swap__i64S2_2_2_2_2_2_2S_i32S1_1_2_1_1_1_1S__(2,)cconstexpr_0_"(%x_2, %flip) : (tensor<2x2x2x2x2x2x2xi64>, tensor<1x1x2x1x1x1x1xi32>) -> tensor<2x2x2x2x2x2x2xi64> loc(#loc176)
    tt.return %x_3 : tensor<2x2x2x2x2x2x2xi64> loc(#loc78)
  ^bb1:  // no predecessors
    %0 = ub.poison : tensor<2x2x2x2x2x2x2xi64> loc(#loc79)
    tt.return %0 : tensor<2x2x2x2x2x2x2xi64> loc(#loc79)
  } loc(#loc75)
  tt.func private @"triton.language.standard._indicator____(0,)cconstexpr_7__(1,)cconstexpr_4_"() -> tensor<1x1x2x1x1x1x1xi32> attributes {noinline = false} {
    %ar = tt.make_range {end = 2 : i32, start = 0 : i32} : tensor<2xi32> loc(#loc177)
    %ar_0 = tt.reshape %ar : tensor<2xi32> -> tensor<1x1x2x1x1x1x1xi32> loc(#loc178)
    tt.return %ar_0 : tensor<1x1x2x1x1x1x1xi32> loc(#loc83)
  ^bb1:  // no predecessors
    %0 = ub.poison : tensor<1x1x2x1x1x1x1xi32> loc(#loc84)
    tt.return %0 : tensor<1x1x2x1x1x1x1xi32> loc(#loc84)
  } loc(#loc80)
  tt.func private @"triton.language.standard._compare_and_swap__i64S2_2_2_2_2_2_2S_i32S1_1_2_1_1_1_1S__(2,)cconstexpr_3_"(%x: tensor<2x2x2x2x2x2x2xi64> loc("x"(#loc85)), %flip: tensor<1x1x2x1x1x1x1xi32> loc("flip"(#loc85))) -> tensor<2x2x2x2x2x2x2xi64> attributes {noinline = false} {
    %iy = tt.call @"triton.language.standard.xor_sum__i64S2_2_2_2_2_2_2S__(1,)cconstexpr_3__(2,)cconstexpr_True_"(%x) : (tensor<2x2x2x2x2x2x2xi64>) -> tensor<2x2x2x1x2x2x2xi64> loc(#loc181)
    %iy_0 = tt.broadcast %iy : tensor<2x2x2x1x2x2x2xi64> -> tensor<2x2x2x2x2x2x2xi64> loc(#loc182)
    %iy_1 = arith.xori %x, %iy_0 : tensor<2x2x2x2x2x2x2xi64> loc(#loc182)
    %is_right = tt.call @"triton.language.standard._indicator____(0,)cconstexpr_7__(1,)cconstexpr_3_"() : () -> tensor<1x1x1x2x1x1x1xi32> loc(#loc183)
    %ret = arith.cmpi sgt, %x, %iy_1 : tensor<2x2x2x2x2x2x2xi64> loc(#loc184)
    %ret_2 = tt.broadcast %flip : tensor<1x1x2x1x1x1x1xi32> -> tensor<1x1x2x2x1x1x1xi32> loc(#loc185)
    %ret_3 = tt.broadcast %is_right : tensor<1x1x1x2x1x1x1xi32> -> tensor<1x1x2x2x1x1x1xi32> loc(#loc185)
    %ret_4 = arith.xori %ret_2, %ret_3 : tensor<1x1x2x2x1x1x1xi32> loc(#loc185)
    %ret_5 = arith.extui %ret : tensor<2x2x2x2x2x2x2xi1> to tensor<2x2x2x2x2x2x2xi32> loc(#loc186)
    %ret_6 = tt.broadcast %ret_4 : tensor<1x1x2x2x1x1x1xi32> -> tensor<2x2x2x2x2x2x2xi32> loc(#loc186)
    %ret_7 = arith.cmpi ne, %ret_5, %ret_6 : tensor<2x2x2x2x2x2x2xi32> loc(#loc186)
    %ret_8 = arith.select %ret_7, %iy_1, %x : tensor<2x2x2x2x2x2x2xi1>, tensor<2x2x2x2x2x2x2xi64> loc(#loc187)
    tt.return %ret_8 : tensor<2x2x2x2x2x2x2xi64> loc(#loc93)
  ^bb1:  // no predecessors
    %0 = ub.poison : tensor<2x2x2x2x2x2x2xi64> loc(#loc94)
    tt.return %0 : tensor<2x2x2x2x2x2x2xi64> loc(#loc94)
  } loc(#loc85)
  tt.func private @"triton.language.standard.xor_sum__i64S2_2_2_2_2_2_2S__(1,)cconstexpr_3__(2,)cconstexpr_True_"(%input: tensor<2x2x2x2x2x2x2xi64> loc("input"(#loc95))) -> tensor<2x2x2x1x2x2x2xi64> attributes {noinline = false} {
    %0 = "tt.reduce"(%input) <{axis = 3 : i32}> ({
    ^bb0(%arg1: i64 loc(unknown), %arg2: i64 loc(unknown)):
      %3 = tt.call @triton.language.standard._xor_combine__i64_i64__(%arg1, %arg2) : (i64, i64) -> i64 loc(#loc96)
      tt.reduce.return %3 : i64 loc(#loc96)
    }) : (tensor<2x2x2x2x2x2x2xi64>) -> tensor<2x2x2x2x2x2xi64> loc(#loc96)
    %1 = tt.expand_dims %0 {axis = 3 : i32} : tensor<2x2x2x2x2x2xi64> -> tensor<2x2x2x1x2x2x2xi64> loc(#loc95)
    tt.return %1 : tensor<2x2x2x1x2x2x2xi64> loc(#loc97)
  ^bb1:  // no predecessors
    %2 = ub.poison : tensor<2x2x2x1x2x2x2xi64> loc(#loc98)
    tt.return %2 : tensor<2x2x2x1x2x2x2xi64> loc(#loc98)
  } loc(#loc95)
  tt.func private @"triton.language.standard._compare_and_swap__i64S2_2_2_2_2_2_2S_i32S1_1_2_1_1_1_1S__(2,)cconstexpr_2_"(%x: tensor<2x2x2x2x2x2x2xi64> loc("x"(#loc85)), %flip: tensor<1x1x2x1x1x1x1xi32> loc("flip"(#loc85))) -> tensor<2x2x2x2x2x2x2xi64> attributes {noinline = false} {
    %iy = tt.call @"triton.language.standard.xor_sum__i64S2_2_2_2_2_2_2S__(1,)cconstexpr_4__(2,)cconstexpr_True_"(%x) : (tensor<2x2x2x2x2x2x2xi64>) -> tensor<2x2x2x2x1x2x2xi64> loc(#loc181)
    %iy_0 = tt.broadcast %iy : tensor<2x2x2x2x1x2x2xi64> -> tensor<2x2x2x2x2x2x2xi64> loc(#loc182)
    %iy_1 = arith.xori %x, %iy_0 : tensor<2x2x2x2x2x2x2xi64> loc(#loc182)
    %is_right = tt.call @"triton.language.standard._indicator____(0,)cconstexpr_7__(1,)cconstexpr_2_"() : () -> tensor<1x1x1x1x2x1x1xi32> loc(#loc183)
    %ret = arith.cmpi sgt, %x, %iy_1 : tensor<2x2x2x2x2x2x2xi64> loc(#loc184)
    %ret_2 = tt.broadcast %flip : tensor<1x1x2x1x1x1x1xi32> -> tensor<1x1x2x1x2x1x1xi32> loc(#loc185)
    %ret_3 = tt.broadcast %is_right : tensor<1x1x1x1x2x1x1xi32> -> tensor<1x1x2x1x2x1x1xi32> loc(#loc185)
    %ret_4 = arith.xori %ret_2, %ret_3 : tensor<1x1x2x1x2x1x1xi32> loc(#loc185)
    %ret_5 = arith.extui %ret : tensor<2x2x2x2x2x2x2xi1> to tensor<2x2x2x2x2x2x2xi32> loc(#loc186)
    %ret_6 = tt.broadcast %ret_4 : tensor<1x1x2x1x2x1x1xi32> -> tensor<2x2x2x2x2x2x2xi32> loc(#loc186)
    %ret_7 = arith.cmpi ne, %ret_5, %ret_6 : tensor<2x2x2x2x2x2x2xi32> loc(#loc186)
    %ret_8 = arith.select %ret_7, %iy_1, %x : tensor<2x2x2x2x2x2x2xi1>, tensor<2x2x2x2x2x2x2xi64> loc(#loc187)
    tt.return %ret_8 : tensor<2x2x2x2x2x2x2xi64> loc(#loc93)
  ^bb1:  // no predecessors
    %0 = ub.poison : tensor<2x2x2x2x2x2x2xi64> loc(#loc94)
    tt.return %0 : tensor<2x2x2x2x2x2x2xi64> loc(#loc94)
  } loc(#loc85)
  tt.func private @"triton.language.standard._compare_and_swap__i64S2_2_2_2_2_2_2S_i32S1_1_2_1_1_1_1S__(2,)cconstexpr_1_"(%x: tensor<2x2x2x2x2x2x2xi64> loc("x"(#loc85)), %flip: tensor<1x1x2x1x1x1x1xi32> loc("flip"(#loc85))) -> tensor<2x2x2x2x2x2x2xi64> attributes {noinline = false} {
    %iy = tt.call @"triton.language.standard.xor_sum__i64S2_2_2_2_2_2_2S__(1,)cconstexpr_5__(2,)cconstexpr_True_"(%x) : (tensor<2x2x2x2x2x2x2xi64>) -> tensor<2x2x2x2x2x1x2xi64> loc(#loc181)
    %iy_0 = tt.broadcast %iy : tensor<2x2x2x2x2x1x2xi64> -> tensor<2x2x2x2x2x2x2xi64> loc(#loc182)
    %iy_1 = arith.xori %x, %iy_0 : tensor<2x2x2x2x2x2x2xi64> loc(#loc182)
    %is_right = tt.call @"triton.language.standard._indicator____(0,)cconstexpr_7__(1,)cconstexpr_1_"() : () -> tensor<1x1x1x1x1x2x1xi32> loc(#loc183)
    %ret = arith.cmpi sgt, %x, %iy_1 : tensor<2x2x2x2x2x2x2xi64> loc(#loc184)
    %ret_2 = tt.broadcast %flip : tensor<1x1x2x1x1x1x1xi32> -> tensor<1x1x2x1x1x2x1xi32> loc(#loc185)
    %ret_3 = tt.broadcast %is_right : tensor<1x1x1x1x1x2x1xi32> -> tensor<1x1x2x1x1x2x1xi32> loc(#loc185)
    %ret_4 = arith.xori %ret_2, %ret_3 : tensor<1x1x2x1x1x2x1xi32> loc(#loc185)
    %ret_5 = arith.extui %ret : tensor<2x2x2x2x2x2x2xi1> to tensor<2x2x2x2x2x2x2xi32> loc(#loc186)
    %ret_6 = tt.broadcast %ret_4 : tensor<1x1x2x1x1x2x1xi32> -> tensor<2x2x2x2x2x2x2xi32> loc(#loc186)
    %ret_7 = arith.cmpi ne, %ret_5, %ret_6 : tensor<2x2x2x2x2x2x2xi32> loc(#loc186)
    %ret_8 = arith.select %ret_7, %iy_1, %x : tensor<2x2x2x2x2x2x2xi1>, tensor<2x2x2x2x2x2x2xi64> loc(#loc187)
    tt.return %ret_8 : tensor<2x2x2x2x2x2x2xi64> loc(#loc93)
  ^bb1:  // no predecessors
    %0 = ub.poison : tensor<2x2x2x2x2x2x2xi64> loc(#loc94)
    tt.return %0 : tensor<2x2x2x2x2x2x2xi64> loc(#loc94)
  } loc(#loc85)
  tt.func private @"triton.language.standard._compare_and_swap__i64S2_2_2_2_2_2_2S_i32S1_1_2_1_1_1_1S__(2,)cconstexpr_0_"(%x: tensor<2x2x2x2x2x2x2xi64> loc("x"(#loc85)), %flip: tensor<1x1x2x1x1x1x1xi32> loc("flip"(#loc85))) -> tensor<2x2x2x2x2x2x2xi64> attributes {noinline = false} {
    %iy = tt.call @"triton.language.standard.xor_sum__i64S2_2_2_2_2_2_2S__(1,)cconstexpr_6__(2,)cconstexpr_True_"(%x) : (tensor<2x2x2x2x2x2x2xi64>) -> tensor<2x2x2x2x2x2x1xi64> loc(#loc181)
    %iy_0 = tt.broadcast %iy : tensor<2x2x2x2x2x2x1xi64> -> tensor<2x2x2x2x2x2x2xi64> loc(#loc182)
    %iy_1 = arith.xori %x, %iy_0 : tensor<2x2x2x2x2x2x2xi64> loc(#loc182)
    %is_right = tt.call @"triton.language.standard._indicator____(0,)cconstexpr_7__(1,)cconstexpr_0_"() : () -> tensor<1x1x1x1x1x1x2xi32> loc(#loc183)
    %ret = arith.cmpi sgt, %x, %iy_1 : tensor<2x2x2x2x2x2x2xi64> loc(#loc184)
    %ret_2 = tt.broadcast %flip : tensor<1x1x2x1x1x1x1xi32> -> tensor<1x1x2x1x1x1x2xi32> loc(#loc185)
    %ret_3 = tt.broadcast %is_right : tensor<1x1x1x1x1x1x2xi32> -> tensor<1x1x2x1x1x1x2xi32> loc(#loc185)
    %ret_4 = arith.xori %ret_2, %ret_3 : tensor<1x1x2x1x1x1x2xi32> loc(#loc185)
    %ret_5 = arith.extui %ret : tensor<2x2x2x2x2x2x2xi1> to tensor<2x2x2x2x2x2x2xi32> loc(#loc186)
    %ret_6 = tt.broadcast %ret_4 : tensor<1x1x2x1x1x1x2xi32> -> tensor<2x2x2x2x2x2x2xi32> loc(#loc186)
    %ret_7 = arith.cmpi ne, %ret_5, %ret_6 : tensor<2x2x2x2x2x2x2xi32> loc(#loc186)
    %ret_8 = arith.select %ret_7, %iy_1, %x : tensor<2x2x2x2x2x2x2xi1>, tensor<2x2x2x2x2x2x2xi64> loc(#loc187)
    tt.return %ret_8 : tensor<2x2x2x2x2x2x2xi64> loc(#loc93)
  ^bb1:  // no predecessors
    %0 = ub.poison : tensor<2x2x2x2x2x2x2xi64> loc(#loc94)
    tt.return %0 : tensor<2x2x2x2x2x2x2xi64> loc(#loc94)
  } loc(#loc85)
  tt.func private @"triton.language.standard._bitonic_merge_hypercube__i64S2_2_2_2_2_2_2S__(1,)cconstexpr_5__(2,)cconstexpr_2_"(%x: tensor<2x2x2x2x2x2x2xi64> loc("x"(#loc75))) -> tensor<2x2x2x2x2x2x2xi64> attributes {noinline = false} {
    %flip = tt.call @"triton.language.standard._indicator____(0,)cconstexpr_7__(1,)cconstexpr_5_"() : () -> tensor<1x2x1x1x1x1x1xi32> loc(#loc175)
    %x_0 = tt.call @"triton.language.standard._compare_and_swap__i64S2_2_2_2_2_2_2S_i32S1_2_1_1_1_1_1S__(2,)cconstexpr_4_"(%x, %flip) : (tensor<2x2x2x2x2x2x2xi64>, tensor<1x2x1x1x1x1x1xi32>) -> tensor<2x2x2x2x2x2x2xi64> loc(#loc176)
    %x_1 = tt.call @"triton.language.standard._compare_and_swap__i64S2_2_2_2_2_2_2S_i32S1_2_1_1_1_1_1S__(2,)cconstexpr_3_"(%x_0, %flip) : (tensor<2x2x2x2x2x2x2xi64>, tensor<1x2x1x1x1x1x1xi32>) -> tensor<2x2x2x2x2x2x2xi64> loc(#loc176)
    %x_2 = tt.call @"triton.language.standard._compare_and_swap__i64S2_2_2_2_2_2_2S_i32S1_2_1_1_1_1_1S__(2,)cconstexpr_2_"(%x_1, %flip) : (tensor<2x2x2x2x2x2x2xi64>, tensor<1x2x1x1x1x1x1xi32>) -> tensor<2x2x2x2x2x2x2xi64> loc(#loc176)
    %x_3 = tt.call @"triton.language.standard._compare_and_swap__i64S2_2_2_2_2_2_2S_i32S1_2_1_1_1_1_1S__(2,)cconstexpr_1_"(%x_2, %flip) : (tensor<2x2x2x2x2x2x2xi64>, tensor<1x2x1x1x1x1x1xi32>) -> tensor<2x2x2x2x2x2x2xi64> loc(#loc176)
    %x_4 = tt.call @"triton.language.standard._compare_and_swap__i64S2_2_2_2_2_2_2S_i32S1_2_1_1_1_1_1S__(2,)cconstexpr_0_"(%x_3, %flip) : (tensor<2x2x2x2x2x2x2xi64>, tensor<1x2x1x1x1x1x1xi32>) -> tensor<2x2x2x2x2x2x2xi64> loc(#loc176)
    tt.return %x_4 : tensor<2x2x2x2x2x2x2xi64> loc(#loc78)
  ^bb1:  // no predecessors
    %0 = ub.poison : tensor<2x2x2x2x2x2x2xi64> loc(#loc79)
    tt.return %0 : tensor<2x2x2x2x2x2x2xi64> loc(#loc79)
  } loc(#loc75)
  tt.func private @"triton.language.standard._indicator____(0,)cconstexpr_7__(1,)cconstexpr_5_"() -> tensor<1x2x1x1x1x1x1xi32> attributes {noinline = false} {
    %ar = tt.make_range {end = 2 : i32, start = 0 : i32} : tensor<2xi32> loc(#loc177)
    %ar_0 = tt.reshape %ar : tensor<2xi32> -> tensor<1x2x1x1x1x1x1xi32> loc(#loc178)
    tt.return %ar_0 : tensor<1x2x1x1x1x1x1xi32> loc(#loc83)
  ^bb1:  // no predecessors
    %0 = ub.poison : tensor<1x2x1x1x1x1x1xi32> loc(#loc84)
    tt.return %0 : tensor<1x2x1x1x1x1x1xi32> loc(#loc84)
  } loc(#loc80)
  tt.func private @"triton.language.standard._compare_and_swap__i64S2_2_2_2_2_2_2S_i32S1_2_1_1_1_1_1S__(2,)cconstexpr_4_"(%x: tensor<2x2x2x2x2x2x2xi64> loc("x"(#loc85)), %flip: tensor<1x2x1x1x1x1x1xi32> loc("flip"(#loc85))) -> tensor<2x2x2x2x2x2x2xi64> attributes {noinline = false} {
    %iy = tt.call @"triton.language.standard.xor_sum__i64S2_2_2_2_2_2_2S__(1,)cconstexpr_2__(2,)cconstexpr_True_"(%x) : (tensor<2x2x2x2x2x2x2xi64>) -> tensor<2x2x1x2x2x2x2xi64> loc(#loc181)
    %iy_0 = tt.broadcast %iy : tensor<2x2x1x2x2x2x2xi64> -> tensor<2x2x2x2x2x2x2xi64> loc(#loc182)
    %iy_1 = arith.xori %x, %iy_0 : tensor<2x2x2x2x2x2x2xi64> loc(#loc182)
    %is_right = tt.call @"triton.language.standard._indicator____(0,)cconstexpr_7__(1,)cconstexpr_4_"() : () -> tensor<1x1x2x1x1x1x1xi32> loc(#loc183)
    %ret = arith.cmpi sgt, %x, %iy_1 : tensor<2x2x2x2x2x2x2xi64> loc(#loc184)
    %ret_2 = tt.broadcast %flip : tensor<1x2x1x1x1x1x1xi32> -> tensor<1x2x2x1x1x1x1xi32> loc(#loc185)
    %ret_3 = tt.broadcast %is_right : tensor<1x1x2x1x1x1x1xi32> -> tensor<1x2x2x1x1x1x1xi32> loc(#loc185)
    %ret_4 = arith.xori %ret_2, %ret_3 : tensor<1x2x2x1x1x1x1xi32> loc(#loc185)
    %ret_5 = arith.extui %ret : tensor<2x2x2x2x2x2x2xi1> to tensor<2x2x2x2x2x2x2xi32> loc(#loc186)
    %ret_6 = tt.broadcast %ret_4 : tensor<1x2x2x1x1x1x1xi32> -> tensor<2x2x2x2x2x2x2xi32> loc(#loc186)
    %ret_7 = arith.cmpi ne, %ret_5, %ret_6 : tensor<2x2x2x2x2x2x2xi32> loc(#loc186)
    %ret_8 = arith.select %ret_7, %iy_1, %x : tensor<2x2x2x2x2x2x2xi1>, tensor<2x2x2x2x2x2x2xi64> loc(#loc187)
    tt.return %ret_8 : tensor<2x2x2x2x2x2x2xi64> loc(#loc93)
  ^bb1:  // no predecessors
    %0 = ub.poison : tensor<2x2x2x2x2x2x2xi64> loc(#loc94)
    tt.return %0 : tensor<2x2x2x2x2x2x2xi64> loc(#loc94)
  } loc(#loc85)
  tt.func private @"triton.language.standard.xor_sum__i64S2_2_2_2_2_2_2S__(1,)cconstexpr_2__(2,)cconstexpr_True_"(%input: tensor<2x2x2x2x2x2x2xi64> loc("input"(#loc95))) -> tensor<2x2x1x2x2x2x2xi64> attributes {noinline = false} {
    %0 = "tt.reduce"(%input) <{axis = 2 : i32}> ({
    ^bb0(%arg1: i64 loc(unknown), %arg2: i64 loc(unknown)):
      %3 = tt.call @triton.language.standard._xor_combine__i64_i64__(%arg1, %arg2) : (i64, i64) -> i64 loc(#loc96)
      tt.reduce.return %3 : i64 loc(#loc96)
    }) : (tensor<2x2x2x2x2x2x2xi64>) -> tensor<2x2x2x2x2x2xi64> loc(#loc96)
    %1 = tt.expand_dims %0 {axis = 2 : i32} : tensor<2x2x2x2x2x2xi64> -> tensor<2x2x1x2x2x2x2xi64> loc(#loc95)
    tt.return %1 : tensor<2x2x1x2x2x2x2xi64> loc(#loc97)
  ^bb1:  // no predecessors
    %2 = ub.poison : tensor<2x2x1x2x2x2x2xi64> loc(#loc98)
    tt.return %2 : tensor<2x2x1x2x2x2x2xi64> loc(#loc98)
  } loc(#loc95)
  tt.func private @"triton.language.standard._compare_and_swap__i64S2_2_2_2_2_2_2S_i32S1_2_1_1_1_1_1S__(2,)cconstexpr_3_"(%x: tensor<2x2x2x2x2x2x2xi64> loc("x"(#loc85)), %flip: tensor<1x2x1x1x1x1x1xi32> loc("flip"(#loc85))) -> tensor<2x2x2x2x2x2x2xi64> attributes {noinline = false} {
    %iy = tt.call @"triton.language.standard.xor_sum__i64S2_2_2_2_2_2_2S__(1,)cconstexpr_3__(2,)cconstexpr_True_"(%x) : (tensor<2x2x2x2x2x2x2xi64>) -> tensor<2x2x2x1x2x2x2xi64> loc(#loc181)
    %iy_0 = tt.broadcast %iy : tensor<2x2x2x1x2x2x2xi64> -> tensor<2x2x2x2x2x2x2xi64> loc(#loc182)
    %iy_1 = arith.xori %x, %iy_0 : tensor<2x2x2x2x2x2x2xi64> loc(#loc182)
    %is_right = tt.call @"triton.language.standard._indicator____(0,)cconstexpr_7__(1,)cconstexpr_3_"() : () -> tensor<1x1x1x2x1x1x1xi32> loc(#loc183)
    %ret = arith.cmpi sgt, %x, %iy_1 : tensor<2x2x2x2x2x2x2xi64> loc(#loc184)
    %ret_2 = tt.broadcast %flip : tensor<1x2x1x1x1x1x1xi32> -> tensor<1x2x1x2x1x1x1xi32> loc(#loc185)
    %ret_3 = tt.broadcast %is_right : tensor<1x1x1x2x1x1x1xi32> -> tensor<1x2x1x2x1x1x1xi32> loc(#loc185)
    %ret_4 = arith.xori %ret_2, %ret_3 : tensor<1x2x1x2x1x1x1xi32> loc(#loc185)
    %ret_5 = arith.extui %ret : tensor<2x2x2x2x2x2x2xi1> to tensor<2x2x2x2x2x2x2xi32> loc(#loc186)
    %ret_6 = tt.broadcast %ret_4 : tensor<1x2x1x2x1x1x1xi32> -> tensor<2x2x2x2x2x2x2xi32> loc(#loc186)
    %ret_7 = arith.cmpi ne, %ret_5, %ret_6 : tensor<2x2x2x2x2x2x2xi32> loc(#loc186)
    %ret_8 = arith.select %ret_7, %iy_1, %x : tensor<2x2x2x2x2x2x2xi1>, tensor<2x2x2x2x2x2x2xi64> loc(#loc187)
    tt.return %ret_8 : tensor<2x2x2x2x2x2x2xi64> loc(#loc93)
  ^bb1:  // no predecessors
    %0 = ub.poison : tensor<2x2x2x2x2x2x2xi64> loc(#loc94)
    tt.return %0 : tensor<2x2x2x2x2x2x2xi64> loc(#loc94)
  } loc(#loc85)
  tt.func private @"triton.language.standard._compare_and_swap__i64S2_2_2_2_2_2_2S_i32S1_2_1_1_1_1_1S__(2,)cconstexpr_2_"(%x: tensor<2x2x2x2x2x2x2xi64> loc("x"(#loc85)), %flip: tensor<1x2x1x1x1x1x1xi32> loc("flip"(#loc85))) -> tensor<2x2x2x2x2x2x2xi64> attributes {noinline = false} {
    %iy = tt.call @"triton.language.standard.xor_sum__i64S2_2_2_2_2_2_2S__(1,)cconstexpr_4__(2,)cconstexpr_True_"(%x) : (tensor<2x2x2x2x2x2x2xi64>) -> tensor<2x2x2x2x1x2x2xi64> loc(#loc181)
    %iy_0 = tt.broadcast %iy : tensor<2x2x2x2x1x2x2xi64> -> tensor<2x2x2x2x2x2x2xi64> loc(#loc182)
    %iy_1 = arith.xori %x, %iy_0 : tensor<2x2x2x2x2x2x2xi64> loc(#loc182)
    %is_right = tt.call @"triton.language.standard._indicator____(0,)cconstexpr_7__(1,)cconstexpr_2_"() : () -> tensor<1x1x1x1x2x1x1xi32> loc(#loc183)
    %ret = arith.cmpi sgt, %x, %iy_1 : tensor<2x2x2x2x2x2x2xi64> loc(#loc184)
    %ret_2 = tt.broadcast %flip : tensor<1x2x1x1x1x1x1xi32> -> tensor<1x2x1x1x2x1x1xi32> loc(#loc185)
    %ret_3 = tt.broadcast %is_right : tensor<1x1x1x1x2x1x1xi32> -> tensor<1x2x1x1x2x1x1xi32> loc(#loc185)
    %ret_4 = arith.xori %ret_2, %ret_3 : tensor<1x2x1x1x2x1x1xi32> loc(#loc185)
    %ret_5 = arith.extui %ret : tensor<2x2x2x2x2x2x2xi1> to tensor<2x2x2x2x2x2x2xi32> loc(#loc186)
    %ret_6 = tt.broadcast %ret_4 : tensor<1x2x1x1x2x1x1xi32> -> tensor<2x2x2x2x2x2x2xi32> loc(#loc186)
    %ret_7 = arith.cmpi ne, %ret_5, %ret_6 : tensor<2x2x2x2x2x2x2xi32> loc(#loc186)
    %ret_8 = arith.select %ret_7, %iy_1, %x : tensor<2x2x2x2x2x2x2xi1>, tensor<2x2x2x2x2x2x2xi64> loc(#loc187)
    tt.return %ret_8 : tensor<2x2x2x2x2x2x2xi64> loc(#loc93)
  ^bb1:  // no predecessors
    %0 = ub.poison : tensor<2x2x2x2x2x2x2xi64> loc(#loc94)
    tt.return %0 : tensor<2x2x2x2x2x2x2xi64> loc(#loc94)
  } loc(#loc85)
  tt.func private @"triton.language.standard._compare_and_swap__i64S2_2_2_2_2_2_2S_i32S1_2_1_1_1_1_1S__(2,)cconstexpr_1_"(%x: tensor<2x2x2x2x2x2x2xi64> loc("x"(#loc85)), %flip: tensor<1x2x1x1x1x1x1xi32> loc("flip"(#loc85))) -> tensor<2x2x2x2x2x2x2xi64> attributes {noinline = false} {
    %iy = tt.call @"triton.language.standard.xor_sum__i64S2_2_2_2_2_2_2S__(1,)cconstexpr_5__(2,)cconstexpr_True_"(%x) : (tensor<2x2x2x2x2x2x2xi64>) -> tensor<2x2x2x2x2x1x2xi64> loc(#loc181)
    %iy_0 = tt.broadcast %iy : tensor<2x2x2x2x2x1x2xi64> -> tensor<2x2x2x2x2x2x2xi64> loc(#loc182)
    %iy_1 = arith.xori %x, %iy_0 : tensor<2x2x2x2x2x2x2xi64> loc(#loc182)
    %is_right = tt.call @"triton.language.standard._indicator____(0,)cconstexpr_7__(1,)cconstexpr_1_"() : () -> tensor<1x1x1x1x1x2x1xi32> loc(#loc183)
    %ret = arith.cmpi sgt, %x, %iy_1 : tensor<2x2x2x2x2x2x2xi64> loc(#loc184)
    %ret_2 = tt.broadcast %flip : tensor<1x2x1x1x1x1x1xi32> -> tensor<1x2x1x1x1x2x1xi32> loc(#loc185)
    %ret_3 = tt.broadcast %is_right : tensor<1x1x1x1x1x2x1xi32> -> tensor<1x2x1x1x1x2x1xi32> loc(#loc185)
    %ret_4 = arith.xori %ret_2, %ret_3 : tensor<1x2x1x1x1x2x1xi32> loc(#loc185)
    %ret_5 = arith.extui %ret : tensor<2x2x2x2x2x2x2xi1> to tensor<2x2x2x2x2x2x2xi32> loc(#loc186)
    %ret_6 = tt.broadcast %ret_4 : tensor<1x2x1x1x1x2x1xi32> -> tensor<2x2x2x2x2x2x2xi32> loc(#loc186)
    %ret_7 = arith.cmpi ne, %ret_5, %ret_6 : tensor<2x2x2x2x2x2x2xi32> loc(#loc186)
    %ret_8 = arith.select %ret_7, %iy_1, %x : tensor<2x2x2x2x2x2x2xi1>, tensor<2x2x2x2x2x2x2xi64> loc(#loc187)
    tt.return %ret_8 : tensor<2x2x2x2x2x2x2xi64> loc(#loc93)
  ^bb1:  // no predecessors
    %0 = ub.poison : tensor<2x2x2x2x2x2x2xi64> loc(#loc94)
    tt.return %0 : tensor<2x2x2x2x2x2x2xi64> loc(#loc94)
  } loc(#loc85)
  tt.func private @"triton.language.standard._compare_and_swap__i64S2_2_2_2_2_2_2S_i32S1_2_1_1_1_1_1S__(2,)cconstexpr_0_"(%x: tensor<2x2x2x2x2x2x2xi64> loc("x"(#loc85)), %flip: tensor<1x2x1x1x1x1x1xi32> loc("flip"(#loc85))) -> tensor<2x2x2x2x2x2x2xi64> attributes {noinline = false} {
    %iy = tt.call @"triton.language.standard.xor_sum__i64S2_2_2_2_2_2_2S__(1,)cconstexpr_6__(2,)cconstexpr_True_"(%x) : (tensor<2x2x2x2x2x2x2xi64>) -> tensor<2x2x2x2x2x2x1xi64> loc(#loc181)
    %iy_0 = tt.broadcast %iy : tensor<2x2x2x2x2x2x1xi64> -> tensor<2x2x2x2x2x2x2xi64> loc(#loc182)
    %iy_1 = arith.xori %x, %iy_0 : tensor<2x2x2x2x2x2x2xi64> loc(#loc182)
    %is_right = tt.call @"triton.language.standard._indicator____(0,)cconstexpr_7__(1,)cconstexpr_0_"() : () -> tensor<1x1x1x1x1x1x2xi32> loc(#loc183)
    %ret = arith.cmpi sgt, %x, %iy_1 : tensor<2x2x2x2x2x2x2xi64> loc(#loc184)
    %ret_2 = tt.broadcast %flip : tensor<1x2x1x1x1x1x1xi32> -> tensor<1x2x1x1x1x1x2xi32> loc(#loc185)
    %ret_3 = tt.broadcast %is_right : tensor<1x1x1x1x1x1x2xi32> -> tensor<1x2x1x1x1x1x2xi32> loc(#loc185)
    %ret_4 = arith.xori %ret_2, %ret_3 : tensor<1x2x1x1x1x1x2xi32> loc(#loc185)
    %ret_5 = arith.extui %ret : tensor<2x2x2x2x2x2x2xi1> to tensor<2x2x2x2x2x2x2xi32> loc(#loc186)
    %ret_6 = tt.broadcast %ret_4 : tensor<1x2x1x1x1x1x2xi32> -> tensor<2x2x2x2x2x2x2xi32> loc(#loc186)
    %ret_7 = arith.cmpi ne, %ret_5, %ret_6 : tensor<2x2x2x2x2x2x2xi32> loc(#loc186)
    %ret_8 = arith.select %ret_7, %iy_1, %x : tensor<2x2x2x2x2x2x2xi1>, tensor<2x2x2x2x2x2x2xi64> loc(#loc187)
    tt.return %ret_8 : tensor<2x2x2x2x2x2x2xi64> loc(#loc93)
  ^bb1:  // no predecessors
    %0 = ub.poison : tensor<2x2x2x2x2x2x2xi64> loc(#loc94)
    tt.return %0 : tensor<2x2x2x2x2x2x2xi64> loc(#loc94)
  } loc(#loc85)
  tt.func private @"triton.language.standard._bitonic_merge_hypercube__i64S2_2_2_2_2_2_2S__(1,)cconstexpr_6__(2,)cconstexpr_2_"(%x: tensor<2x2x2x2x2x2x2xi64> loc("x"(#loc75))) -> tensor<2x2x2x2x2x2x2xi64> attributes {noinline = false} {
    %flip = tt.call @"triton.language.standard._indicator____(0,)cconstexpr_7__(1,)cconstexpr_6_"() : () -> tensor<2x1x1x1x1x1x1xi32> loc(#loc175)
    %x_0 = tt.call @"triton.language.standard._compare_and_swap__i64S2_2_2_2_2_2_2S_i32S2_1_1_1_1_1_1S__(2,)cconstexpr_5_"(%x, %flip) : (tensor<2x2x2x2x2x2x2xi64>, tensor<2x1x1x1x1x1x1xi32>) -> tensor<2x2x2x2x2x2x2xi64> loc(#loc176)
    %x_1 = tt.call @"triton.language.standard._compare_and_swap__i64S2_2_2_2_2_2_2S_i32S2_1_1_1_1_1_1S__(2,)cconstexpr_4_"(%x_0, %flip) : (tensor<2x2x2x2x2x2x2xi64>, tensor<2x1x1x1x1x1x1xi32>) -> tensor<2x2x2x2x2x2x2xi64> loc(#loc176)
    %x_2 = tt.call @"triton.language.standard._compare_and_swap__i64S2_2_2_2_2_2_2S_i32S2_1_1_1_1_1_1S__(2,)cconstexpr_3_"(%x_1, %flip) : (tensor<2x2x2x2x2x2x2xi64>, tensor<2x1x1x1x1x1x1xi32>) -> tensor<2x2x2x2x2x2x2xi64> loc(#loc176)
    %x_3 = tt.call @"triton.language.standard._compare_and_swap__i64S2_2_2_2_2_2_2S_i32S2_1_1_1_1_1_1S__(2,)cconstexpr_2_"(%x_2, %flip) : (tensor<2x2x2x2x2x2x2xi64>, tensor<2x1x1x1x1x1x1xi32>) -> tensor<2x2x2x2x2x2x2xi64> loc(#loc176)
    %x_4 = tt.call @"triton.language.standard._compare_and_swap__i64S2_2_2_2_2_2_2S_i32S2_1_1_1_1_1_1S__(2,)cconstexpr_1_"(%x_3, %flip) : (tensor<2x2x2x2x2x2x2xi64>, tensor<2x1x1x1x1x1x1xi32>) -> tensor<2x2x2x2x2x2x2xi64> loc(#loc176)
    %x_5 = tt.call @"triton.language.standard._compare_and_swap__i64S2_2_2_2_2_2_2S_i32S2_1_1_1_1_1_1S__(2,)cconstexpr_0_"(%x_4, %flip) : (tensor<2x2x2x2x2x2x2xi64>, tensor<2x1x1x1x1x1x1xi32>) -> tensor<2x2x2x2x2x2x2xi64> loc(#loc176)
    tt.return %x_5 : tensor<2x2x2x2x2x2x2xi64> loc(#loc78)
  ^bb1:  // no predecessors
    %0 = ub.poison : tensor<2x2x2x2x2x2x2xi64> loc(#loc79)
    tt.return %0 : tensor<2x2x2x2x2x2x2xi64> loc(#loc79)
  } loc(#loc75)
  tt.func private @"triton.language.standard._indicator____(0,)cconstexpr_7__(1,)cconstexpr_6_"() -> tensor<2x1x1x1x1x1x1xi32> attributes {noinline = false} {
    %ar = tt.make_range {end = 2 : i32, start = 0 : i32} : tensor<2xi32> loc(#loc177)
    %ar_0 = tt.reshape %ar : tensor<2xi32> -> tensor<2x1x1x1x1x1x1xi32> loc(#loc178)
    tt.return %ar_0 : tensor<2x1x1x1x1x1x1xi32> loc(#loc83)
  ^bb1:  // no predecessors
    %0 = ub.poison : tensor<2x1x1x1x1x1x1xi32> loc(#loc84)
    tt.return %0 : tensor<2x1x1x1x1x1x1xi32> loc(#loc84)
  } loc(#loc80)
  tt.func private @"triton.language.standard._compare_and_swap__i64S2_2_2_2_2_2_2S_i32S2_1_1_1_1_1_1S__(2,)cconstexpr_5_"(%x: tensor<2x2x2x2x2x2x2xi64> loc("x"(#loc85)), %flip: tensor<2x1x1x1x1x1x1xi32> loc("flip"(#loc85))) -> tensor<2x2x2x2x2x2x2xi64> attributes {noinline = false} {
    %iy = tt.call @"triton.language.standard.xor_sum__i64S2_2_2_2_2_2_2S__(1,)cconstexpr_1__(2,)cconstexpr_True_"(%x) : (tensor<2x2x2x2x2x2x2xi64>) -> tensor<2x1x2x2x2x2x2xi64> loc(#loc181)
    %iy_0 = tt.broadcast %iy : tensor<2x1x2x2x2x2x2xi64> -> tensor<2x2x2x2x2x2x2xi64> loc(#loc182)
    %iy_1 = arith.xori %x, %iy_0 : tensor<2x2x2x2x2x2x2xi64> loc(#loc182)
    %is_right = tt.call @"triton.language.standard._indicator____(0,)cconstexpr_7__(1,)cconstexpr_5_"() : () -> tensor<1x2x1x1x1x1x1xi32> loc(#loc183)
    %ret = arith.cmpi sgt, %x, %iy_1 : tensor<2x2x2x2x2x2x2xi64> loc(#loc184)
    %ret_2 = tt.broadcast %flip : tensor<2x1x1x1x1x1x1xi32> -> tensor<2x2x1x1x1x1x1xi32> loc(#loc185)
    %ret_3 = tt.broadcast %is_right : tensor<1x2x1x1x1x1x1xi32> -> tensor<2x2x1x1x1x1x1xi32> loc(#loc185)
    %ret_4 = arith.xori %ret_2, %ret_3 : tensor<2x2x1x1x1x1x1xi32> loc(#loc185)
    %ret_5 = arith.extui %ret : tensor<2x2x2x2x2x2x2xi1> to tensor<2x2x2x2x2x2x2xi32> loc(#loc186)
    %ret_6 = tt.broadcast %ret_4 : tensor<2x2x1x1x1x1x1xi32> -> tensor<2x2x2x2x2x2x2xi32> loc(#loc186)
    %ret_7 = arith.cmpi ne, %ret_5, %ret_6 : tensor<2x2x2x2x2x2x2xi32> loc(#loc186)
    %ret_8 = arith.select %ret_7, %iy_1, %x : tensor<2x2x2x2x2x2x2xi1>, tensor<2x2x2x2x2x2x2xi64> loc(#loc187)
    tt.return %ret_8 : tensor<2x2x2x2x2x2x2xi64> loc(#loc93)
  ^bb1:  // no predecessors
    %0 = ub.poison : tensor<2x2x2x2x2x2x2xi64> loc(#loc94)
    tt.return %0 : tensor<2x2x2x2x2x2x2xi64> loc(#loc94)
  } loc(#loc85)
  tt.func private @"triton.language.standard.xor_sum__i64S2_2_2_2_2_2_2S__(1,)cconstexpr_1__(2,)cconstexpr_True_"(%input: tensor<2x2x2x2x2x2x2xi64> loc("input"(#loc95))) -> tensor<2x1x2x2x2x2x2xi64> attributes {noinline = false} {
    %0 = "tt.reduce"(%input) <{axis = 1 : i32}> ({
    ^bb0(%arg1: i64 loc(unknown), %arg2: i64 loc(unknown)):
      %3 = tt.call @triton.language.standard._xor_combine__i64_i64__(%arg1, %arg2) : (i64, i64) -> i64 loc(#loc96)
      tt.reduce.return %3 : i64 loc(#loc96)
    }) : (tensor<2x2x2x2x2x2x2xi64>) -> tensor<2x2x2x2x2x2xi64> loc(#loc96)
    %1 = tt.expand_dims %0 {axis = 1 : i32} : tensor<2x2x2x2x2x2xi64> -> tensor<2x1x2x2x2x2x2xi64> loc(#loc95)
    tt.return %1 : tensor<2x1x2x2x2x2x2xi64> loc(#loc97)
  ^bb1:  // no predecessors
    %2 = ub.poison : tensor<2x1x2x2x2x2x2xi64> loc(#loc98)
    tt.return %2 : tensor<2x1x2x2x2x2x2xi64> loc(#loc98)
  } loc(#loc95)
  tt.func private @"triton.language.standard._compare_and_swap__i64S2_2_2_2_2_2_2S_i32S2_1_1_1_1_1_1S__(2,)cconstexpr_4_"(%x: tensor<2x2x2x2x2x2x2xi64> loc("x"(#loc85)), %flip: tensor<2x1x1x1x1x1x1xi32> loc("flip"(#loc85))) -> tensor<2x2x2x2x2x2x2xi64> attributes {noinline = false} {
    %iy = tt.call @"triton.language.standard.xor_sum__i64S2_2_2_2_2_2_2S__(1,)cconstexpr_2__(2,)cconstexpr_True_"(%x) : (tensor<2x2x2x2x2x2x2xi64>) -> tensor<2x2x1x2x2x2x2xi64> loc(#loc181)
    %iy_0 = tt.broadcast %iy : tensor<2x2x1x2x2x2x2xi64> -> tensor<2x2x2x2x2x2x2xi64> loc(#loc182)
    %iy_1 = arith.xori %x, %iy_0 : tensor<2x2x2x2x2x2x2xi64> loc(#loc182)
    %is_right = tt.call @"triton.language.standard._indicator____(0,)cconstexpr_7__(1,)cconstexpr_4_"() : () -> tensor<1x1x2x1x1x1x1xi32> loc(#loc183)
    %ret = arith.cmpi sgt, %x, %iy_1 : tensor<2x2x2x2x2x2x2xi64> loc(#loc184)
    %ret_2 = tt.broadcast %flip : tensor<2x1x1x1x1x1x1xi32> -> tensor<2x1x2x1x1x1x1xi32> loc(#loc185)
    %ret_3 = tt.broadcast %is_right : tensor<1x1x2x1x1x1x1xi32> -> tensor<2x1x2x1x1x1x1xi32> loc(#loc185)
    %ret_4 = arith.xori %ret_2, %ret_3 : tensor<2x1x2x1x1x1x1xi32> loc(#loc185)
    %ret_5 = arith.extui %ret : tensor<2x2x2x2x2x2x2xi1> to tensor<2x2x2x2x2x2x2xi32> loc(#loc186)
    %ret_6 = tt.broadcast %ret_4 : tensor<2x1x2x1x1x1x1xi32> -> tensor<2x2x2x2x2x2x2xi32> loc(#loc186)
    %ret_7 = arith.cmpi ne, %ret_5, %ret_6 : tensor<2x2x2x2x2x2x2xi32> loc(#loc186)
    %ret_8 = arith.select %ret_7, %iy_1, %x : tensor<2x2x2x2x2x2x2xi1>, tensor<2x2x2x2x2x2x2xi64> loc(#loc187)
    tt.return %ret_8 : tensor<2x2x2x2x2x2x2xi64> loc(#loc93)
  ^bb1:  // no predecessors
    %0 = ub.poison : tensor<2x2x2x2x2x2x2xi64> loc(#loc94)
    tt.return %0 : tensor<2x2x2x2x2x2x2xi64> loc(#loc94)
  } loc(#loc85)
  tt.func private @"triton.language.standard._compare_and_swap__i64S2_2_2_2_2_2_2S_i32S2_1_1_1_1_1_1S__(2,)cconstexpr_3_"(%x: tensor<2x2x2x2x2x2x2xi64> loc("x"(#loc85)), %flip: tensor<2x1x1x1x1x1x1xi32> loc("flip"(#loc85))) -> tensor<2x2x2x2x2x2x2xi64> attributes {noinline = false} {
    %iy = tt.call @"triton.language.standard.xor_sum__i64S2_2_2_2_2_2_2S__(1,)cconstexpr_3__(2,)cconstexpr_True_"(%x) : (tensor<2x2x2x2x2x2x2xi64>) -> tensor<2x2x2x1x2x2x2xi64> loc(#loc181)
    %iy_0 = tt.broadcast %iy : tensor<2x2x2x1x2x2x2xi64> -> tensor<2x2x2x2x2x2x2xi64> loc(#loc182)
    %iy_1 = arith.xori %x, %iy_0 : tensor<2x2x2x2x2x2x2xi64> loc(#loc182)
    %is_right = tt.call @"triton.language.standard._indicator____(0,)cconstexpr_7__(1,)cconstexpr_3_"() : () -> tensor<1x1x1x2x1x1x1xi32> loc(#loc183)
    %ret = arith.cmpi sgt, %x, %iy_1 : tensor<2x2x2x2x2x2x2xi64> loc(#loc184)
    %ret_2 = tt.broadcast %flip : tensor<2x1x1x1x1x1x1xi32> -> tensor<2x1x1x2x1x1x1xi32> loc(#loc185)
    %ret_3 = tt.broadcast %is_right : tensor<1x1x1x2x1x1x1xi32> -> tensor<2x1x1x2x1x1x1xi32> loc(#loc185)
    %ret_4 = arith.xori %ret_2, %ret_3 : tensor<2x1x1x2x1x1x1xi32> loc(#loc185)
    %ret_5 = arith.extui %ret : tensor<2x2x2x2x2x2x2xi1> to tensor<2x2x2x2x2x2x2xi32> loc(#loc186)
    %ret_6 = tt.broadcast %ret_4 : tensor<2x1x1x2x1x1x1xi32> -> tensor<2x2x2x2x2x2x2xi32> loc(#loc186)
    %ret_7 = arith.cmpi ne, %ret_5, %ret_6 : tensor<2x2x2x2x2x2x2xi32> loc(#loc186)
    %ret_8 = arith.select %ret_7, %iy_1, %x : tensor<2x2x2x2x2x2x2xi1>, tensor<2x2x2x2x2x2x2xi64> loc(#loc187)
    tt.return %ret_8 : tensor<2x2x2x2x2x2x2xi64> loc(#loc93)
  ^bb1:  // no predecessors
    %0 = ub.poison : tensor<2x2x2x2x2x2x2xi64> loc(#loc94)
    tt.return %0 : tensor<2x2x2x2x2x2x2xi64> loc(#loc94)
  } loc(#loc85)
  tt.func private @"triton.language.standard._compare_and_swap__i64S2_2_2_2_2_2_2S_i32S2_1_1_1_1_1_1S__(2,)cconstexpr_2_"(%x: tensor<2x2x2x2x2x2x2xi64> loc("x"(#loc85)), %flip: tensor<2x1x1x1x1x1x1xi32> loc("flip"(#loc85))) -> tensor<2x2x2x2x2x2x2xi64> attributes {noinline = false} {
    %iy = tt.call @"triton.language.standard.xor_sum__i64S2_2_2_2_2_2_2S__(1,)cconstexpr_4__(2,)cconstexpr_True_"(%x) : (tensor<2x2x2x2x2x2x2xi64>) -> tensor<2x2x2x2x1x2x2xi64> loc(#loc181)
    %iy_0 = tt.broadcast %iy : tensor<2x2x2x2x1x2x2xi64> -> tensor<2x2x2x2x2x2x2xi64> loc(#loc182)
    %iy_1 = arith.xori %x, %iy_0 : tensor<2x2x2x2x2x2x2xi64> loc(#loc182)
    %is_right = tt.call @"triton.language.standard._indicator____(0,)cconstexpr_7__(1,)cconstexpr_2_"() : () -> tensor<1x1x1x1x2x1x1xi32> loc(#loc183)
    %ret = arith.cmpi sgt, %x, %iy_1 : tensor<2x2x2x2x2x2x2xi64> loc(#loc184)
    %ret_2 = tt.broadcast %flip : tensor<2x1x1x1x1x1x1xi32> -> tensor<2x1x1x1x2x1x1xi32> loc(#loc185)
    %ret_3 = tt.broadcast %is_right : tensor<1x1x1x1x2x1x1xi32> -> tensor<2x1x1x1x2x1x1xi32> loc(#loc185)
    %ret_4 = arith.xori %ret_2, %ret_3 : tensor<2x1x1x1x2x1x1xi32> loc(#loc185)
    %ret_5 = arith.extui %ret : tensor<2x2x2x2x2x2x2xi1> to tensor<2x2x2x2x2x2x2xi32> loc(#loc186)
    %ret_6 = tt.broadcast %ret_4 : tensor<2x1x1x1x2x1x1xi32> -> tensor<2x2x2x2x2x2x2xi32> loc(#loc186)
    %ret_7 = arith.cmpi ne, %ret_5, %ret_6 : tensor<2x2x2x2x2x2x2xi32> loc(#loc186)
    %ret_8 = arith.select %ret_7, %iy_1, %x : tensor<2x2x2x2x2x2x2xi1>, tensor<2x2x2x2x2x2x2xi64> loc(#loc187)
    tt.return %ret_8 : tensor<2x2x2x2x2x2x2xi64> loc(#loc93)
  ^bb1:  // no predecessors
    %0 = ub.poison : tensor<2x2x2x2x2x2x2xi64> loc(#loc94)
    tt.return %0 : tensor<2x2x2x2x2x2x2xi64> loc(#loc94)
  } loc(#loc85)
  tt.func private @"triton.language.standard._compare_and_swap__i64S2_2_2_2_2_2_2S_i32S2_1_1_1_1_1_1S__(2,)cconstexpr_1_"(%x: tensor<2x2x2x2x2x2x2xi64> loc("x"(#loc85)), %flip: tensor<2x1x1x1x1x1x1xi32> loc("flip"(#loc85))) -> tensor<2x2x2x2x2x2x2xi64> attributes {noinline = false} {
    %iy = tt.call @"triton.language.standard.xor_sum__i64S2_2_2_2_2_2_2S__(1,)cconstexpr_5__(2,)cconstexpr_True_"(%x) : (tensor<2x2x2x2x2x2x2xi64>) -> tensor<2x2x2x2x2x1x2xi64> loc(#loc181)
    %iy_0 = tt.broadcast %iy : tensor<2x2x2x2x2x1x2xi64> -> tensor<2x2x2x2x2x2x2xi64> loc(#loc182)
    %iy_1 = arith.xori %x, %iy_0 : tensor<2x2x2x2x2x2x2xi64> loc(#loc182)
    %is_right = tt.call @"triton.language.standard._indicator____(0,)cconstexpr_7__(1,)cconstexpr_1_"() : () -> tensor<1x1x1x1x1x2x1xi32> loc(#loc183)
    %ret = arith.cmpi sgt, %x, %iy_1 : tensor<2x2x2x2x2x2x2xi64> loc(#loc184)
    %ret_2 = tt.broadcast %flip : tensor<2x1x1x1x1x1x1xi32> -> tensor<2x1x1x1x1x2x1xi32> loc(#loc185)
    %ret_3 = tt.broadcast %is_right : tensor<1x1x1x1x1x2x1xi32> -> tensor<2x1x1x1x1x2x1xi32> loc(#loc185)
    %ret_4 = arith.xori %ret_2, %ret_3 : tensor<2x1x1x1x1x2x1xi32> loc(#loc185)
    %ret_5 = arith.extui %ret : tensor<2x2x2x2x2x2x2xi1> to tensor<2x2x2x2x2x2x2xi32> loc(#loc186)
    %ret_6 = tt.broadcast %ret_4 : tensor<2x1x1x1x1x2x1xi32> -> tensor<2x2x2x2x2x2x2xi32> loc(#loc186)
    %ret_7 = arith.cmpi ne, %ret_5, %ret_6 : tensor<2x2x2x2x2x2x2xi32> loc(#loc186)
    %ret_8 = arith.select %ret_7, %iy_1, %x : tensor<2x2x2x2x2x2x2xi1>, tensor<2x2x2x2x2x2x2xi64> loc(#loc187)
    tt.return %ret_8 : tensor<2x2x2x2x2x2x2xi64> loc(#loc93)
  ^bb1:  // no predecessors
    %0 = ub.poison : tensor<2x2x2x2x2x2x2xi64> loc(#loc94)
    tt.return %0 : tensor<2x2x2x2x2x2x2xi64> loc(#loc94)
  } loc(#loc85)
  tt.func private @"triton.language.standard._compare_and_swap__i64S2_2_2_2_2_2_2S_i32S2_1_1_1_1_1_1S__(2,)cconstexpr_0_"(%x: tensor<2x2x2x2x2x2x2xi64> loc("x"(#loc85)), %flip: tensor<2x1x1x1x1x1x1xi32> loc("flip"(#loc85))) -> tensor<2x2x2x2x2x2x2xi64> attributes {noinline = false} {
    %iy = tt.call @"triton.language.standard.xor_sum__i64S2_2_2_2_2_2_2S__(1,)cconstexpr_6__(2,)cconstexpr_True_"(%x) : (tensor<2x2x2x2x2x2x2xi64>) -> tensor<2x2x2x2x2x2x1xi64> loc(#loc181)
    %iy_0 = tt.broadcast %iy : tensor<2x2x2x2x2x2x1xi64> -> tensor<2x2x2x2x2x2x2xi64> loc(#loc182)
    %iy_1 = arith.xori %x, %iy_0 : tensor<2x2x2x2x2x2x2xi64> loc(#loc182)
    %is_right = tt.call @"triton.language.standard._indicator____(0,)cconstexpr_7__(1,)cconstexpr_0_"() : () -> tensor<1x1x1x1x1x1x2xi32> loc(#loc183)
    %ret = arith.cmpi sgt, %x, %iy_1 : tensor<2x2x2x2x2x2x2xi64> loc(#loc184)
    %ret_2 = tt.broadcast %flip : tensor<2x1x1x1x1x1x1xi32> -> tensor<2x1x1x1x1x1x2xi32> loc(#loc185)
    %ret_3 = tt.broadcast %is_right : tensor<1x1x1x1x1x1x2xi32> -> tensor<2x1x1x1x1x1x2xi32> loc(#loc185)
    %ret_4 = arith.xori %ret_2, %ret_3 : tensor<2x1x1x1x1x1x2xi32> loc(#loc185)
    %ret_5 = arith.extui %ret : tensor<2x2x2x2x2x2x2xi1> to tensor<2x2x2x2x2x2x2xi32> loc(#loc186)
    %ret_6 = tt.broadcast %ret_4 : tensor<2x1x1x1x1x1x2xi32> -> tensor<2x2x2x2x2x2x2xi32> loc(#loc186)
    %ret_7 = arith.cmpi ne, %ret_5, %ret_6 : tensor<2x2x2x2x2x2x2xi32> loc(#loc186)
    %ret_8 = arith.select %ret_7, %iy_1, %x : tensor<2x2x2x2x2x2x2xi1>, tensor<2x2x2x2x2x2x2xi64> loc(#loc187)
    tt.return %ret_8 : tensor<2x2x2x2x2x2x2xi64> loc(#loc93)
  ^bb1:  // no predecessors
    %0 = ub.poison : tensor<2x2x2x2x2x2x2xi64> loc(#loc94)
    tt.return %0 : tensor<2x2x2x2x2x2x2xi64> loc(#loc94)
  } loc(#loc85)
  tt.func private @"triton.language.standard._bitonic_merge_hypercube__i64S2_2_2_2_2_2_2S__(1,)cconstexpr_7__(2,)cconstexpr_False_"(%x: tensor<2x2x2x2x2x2x2xi64> loc("x"(#loc75))) -> tensor<2x2x2x2x2x2x2xi64> attributes {noinline = false} {
    %flip = arith.constant false loc(#loc191)
    %x_0 = tt.call @"triton.language.standard._compare_and_swap__i64S2_2_2_2_2_2_2S_u1__(2,)cconstexpr_6_"(%x, %flip) : (tensor<2x2x2x2x2x2x2xi64>, i1) -> tensor<2x2x2x2x2x2x2xi64> loc(#loc176)
    %x_1 = tt.call @"triton.language.standard._compare_and_swap__i64S2_2_2_2_2_2_2S_u1__(2,)cconstexpr_5_"(%x_0, %flip) : (tensor<2x2x2x2x2x2x2xi64>, i1) -> tensor<2x2x2x2x2x2x2xi64> loc(#loc176)
    %x_2 = tt.call @"triton.language.standard._compare_and_swap__i64S2_2_2_2_2_2_2S_u1__(2,)cconstexpr_4_"(%x_1, %flip) : (tensor<2x2x2x2x2x2x2xi64>, i1) -> tensor<2x2x2x2x2x2x2xi64> loc(#loc176)
    %x_3 = tt.call @"triton.language.standard._compare_and_swap__i64S2_2_2_2_2_2_2S_u1__(2,)cconstexpr_3_"(%x_2, %flip) : (tensor<2x2x2x2x2x2x2xi64>, i1) -> tensor<2x2x2x2x2x2x2xi64> loc(#loc176)
    %x_4 = tt.call @"triton.language.standard._compare_and_swap__i64S2_2_2_2_2_2_2S_u1__(2,)cconstexpr_2_"(%x_3, %flip) : (tensor<2x2x2x2x2x2x2xi64>, i1) -> tensor<2x2x2x2x2x2x2xi64> loc(#loc176)
    %x_5 = tt.call @"triton.language.standard._compare_and_swap__i64S2_2_2_2_2_2_2S_u1__(2,)cconstexpr_1_"(%x_4, %flip) : (tensor<2x2x2x2x2x2x2xi64>, i1) -> tensor<2x2x2x2x2x2x2xi64> loc(#loc176)
    %x_6 = tt.call @"triton.language.standard._compare_and_swap__i64S2_2_2_2_2_2_2S_u1__(2,)cconstexpr_0_"(%x_5, %flip) : (tensor<2x2x2x2x2x2x2xi64>, i1) -> tensor<2x2x2x2x2x2x2xi64> loc(#loc176)
    tt.return %x_6 : tensor<2x2x2x2x2x2x2xi64> loc(#loc78)
  ^bb1:  // no predecessors
    %0 = ub.poison : tensor<2x2x2x2x2x2x2xi64> loc(#loc79)
    tt.return %0 : tensor<2x2x2x2x2x2x2xi64> loc(#loc79)
  } loc(#loc75)
  tt.func private @"triton.language.standard._compare_and_swap__i64S2_2_2_2_2_2_2S_u1__(2,)cconstexpr_6_"(%x: tensor<2x2x2x2x2x2x2xi64> loc("x"(#loc85)), %flip: i1 loc("flip"(#loc85))) -> tensor<2x2x2x2x2x2x2xi64> attributes {noinline = false} {
    %iy = tt.call @"triton.language.standard.xor_sum__i64S2_2_2_2_2_2_2S__(1,)cconstexpr_0__(2,)cconstexpr_True_"(%x) : (tensor<2x2x2x2x2x2x2xi64>) -> tensor<1x2x2x2x2x2x2xi64> loc(#loc181)
    %iy_0 = tt.broadcast %iy : tensor<1x2x2x2x2x2x2xi64> -> tensor<2x2x2x2x2x2x2xi64> loc(#loc182)
    %iy_1 = arith.xori %x, %iy_0 : tensor<2x2x2x2x2x2x2xi64> loc(#loc182)
    %is_right = tt.call @"triton.language.standard._indicator____(0,)cconstexpr_7__(1,)cconstexpr_6_"() : () -> tensor<2x1x1x1x1x1x1xi32> loc(#loc183)
    %ret = arith.cmpi sgt, %x, %iy_1 : tensor<2x2x2x2x2x2x2xi64> loc(#loc184)
    %ret_2 = arith.extui %flip : i1 to i32 loc(#loc185)
    %ret_3 = tt.splat %ret_2 : i32 -> tensor<2x1x1x1x1x1x1xi32> loc(#loc185)
    %ret_4 = arith.xori %ret_3, %is_right : tensor<2x1x1x1x1x1x1xi32> loc(#loc185)
    %ret_5 = arith.extui %ret : tensor<2x2x2x2x2x2x2xi1> to tensor<2x2x2x2x2x2x2xi32> loc(#loc186)
    %ret_6 = tt.broadcast %ret_4 : tensor<2x1x1x1x1x1x1xi32> -> tensor<2x2x2x2x2x2x2xi32> loc(#loc186)
    %ret_7 = arith.cmpi ne, %ret_5, %ret_6 : tensor<2x2x2x2x2x2x2xi32> loc(#loc186)
    %ret_8 = arith.select %ret_7, %iy_1, %x : tensor<2x2x2x2x2x2x2xi1>, tensor<2x2x2x2x2x2x2xi64> loc(#loc187)
    tt.return %ret_8 : tensor<2x2x2x2x2x2x2xi64> loc(#loc93)
  ^bb1:  // no predecessors
    %0 = ub.poison : tensor<2x2x2x2x2x2x2xi64> loc(#loc94)
    tt.return %0 : tensor<2x2x2x2x2x2x2xi64> loc(#loc94)
  } loc(#loc85)
  tt.func private @"triton.language.standard.xor_sum__i64S2_2_2_2_2_2_2S__(1,)cconstexpr_0__(2,)cconstexpr_True_"(%input: tensor<2x2x2x2x2x2x2xi64> loc("input"(#loc95))) -> tensor<1x2x2x2x2x2x2xi64> attributes {noinline = false} {
    %0 = "tt.reduce"(%input) <{axis = 0 : i32}> ({
    ^bb0(%arg1: i64 loc(unknown), %arg2: i64 loc(unknown)):
      %3 = tt.call @triton.language.standard._xor_combine__i64_i64__(%arg1, %arg2) : (i64, i64) -> i64 loc(#loc96)
      tt.reduce.return %3 : i64 loc(#loc96)
    }) : (tensor<2x2x2x2x2x2x2xi64>) -> tensor<2x2x2x2x2x2xi64> loc(#loc96)
    %1 = tt.expand_dims %0 {axis = 0 : i32} : tensor<2x2x2x2x2x2xi64> -> tensor<1x2x2x2x2x2x2xi64> loc(#loc95)
    tt.return %1 : tensor<1x2x2x2x2x2x2xi64> loc(#loc97)
  ^bb1:  // no predecessors
    %2 = ub.poison : tensor<1x2x2x2x2x2x2xi64> loc(#loc98)
    tt.return %2 : tensor<1x2x2x2x2x2x2xi64> loc(#loc98)
  } loc(#loc95)
  tt.func private @"triton.language.standard._compare_and_swap__i64S2_2_2_2_2_2_2S_u1__(2,)cconstexpr_5_"(%x: tensor<2x2x2x2x2x2x2xi64> loc("x"(#loc85)), %flip: i1 loc("flip"(#loc85))) -> tensor<2x2x2x2x2x2x2xi64> attributes {noinline = false} {
    %iy = tt.call @"triton.language.standard.xor_sum__i64S2_2_2_2_2_2_2S__(1,)cconstexpr_1__(2,)cconstexpr_True_"(%x) : (tensor<2x2x2x2x2x2x2xi64>) -> tensor<2x1x2x2x2x2x2xi64> loc(#loc181)
    %iy_0 = tt.broadcast %iy : tensor<2x1x2x2x2x2x2xi64> -> tensor<2x2x2x2x2x2x2xi64> loc(#loc182)
    %iy_1 = arith.xori %x, %iy_0 : tensor<2x2x2x2x2x2x2xi64> loc(#loc182)
    %is_right = tt.call @"triton.language.standard._indicator____(0,)cconstexpr_7__(1,)cconstexpr_5_"() : () -> tensor<1x2x1x1x1x1x1xi32> loc(#loc183)
    %ret = arith.cmpi sgt, %x, %iy_1 : tensor<2x2x2x2x2x2x2xi64> loc(#loc184)
    %ret_2 = arith.extui %flip : i1 to i32 loc(#loc185)
    %ret_3 = tt.splat %ret_2 : i32 -> tensor<1x2x1x1x1x1x1xi32> loc(#loc185)
    %ret_4 = arith.xori %ret_3, %is_right : tensor<1x2x1x1x1x1x1xi32> loc(#loc185)
    %ret_5 = arith.extui %ret : tensor<2x2x2x2x2x2x2xi1> to tensor<2x2x2x2x2x2x2xi32> loc(#loc186)
    %ret_6 = tt.broadcast %ret_4 : tensor<1x2x1x1x1x1x1xi32> -> tensor<2x2x2x2x2x2x2xi32> loc(#loc186)
    %ret_7 = arith.cmpi ne, %ret_5, %ret_6 : tensor<2x2x2x2x2x2x2xi32> loc(#loc186)
    %ret_8 = arith.select %ret_7, %iy_1, %x : tensor<2x2x2x2x2x2x2xi1>, tensor<2x2x2x2x2x2x2xi64> loc(#loc187)
    tt.return %ret_8 : tensor<2x2x2x2x2x2x2xi64> loc(#loc93)
  ^bb1:  // no predecessors
    %0 = ub.poison : tensor<2x2x2x2x2x2x2xi64> loc(#loc94)
    tt.return %0 : tensor<2x2x2x2x2x2x2xi64> loc(#loc94)
  } loc(#loc85)
  tt.func private @"triton.language.standard._compare_and_swap__i64S2_2_2_2_2_2_2S_u1__(2,)cconstexpr_4_"(%x: tensor<2x2x2x2x2x2x2xi64> loc("x"(#loc85)), %flip: i1 loc("flip"(#loc85))) -> tensor<2x2x2x2x2x2x2xi64> attributes {noinline = false} {
    %iy = tt.call @"triton.language.standard.xor_sum__i64S2_2_2_2_2_2_2S__(1,)cconstexpr_2__(2,)cconstexpr_True_"(%x) : (tensor<2x2x2x2x2x2x2xi64>) -> tensor<2x2x1x2x2x2x2xi64> loc(#loc181)
    %iy_0 = tt.broadcast %iy : tensor<2x2x1x2x2x2x2xi64> -> tensor<2x2x2x2x2x2x2xi64> loc(#loc182)
    %iy_1 = arith.xori %x, %iy_0 : tensor<2x2x2x2x2x2x2xi64> loc(#loc182)
    %is_right = tt.call @"triton.language.standard._indicator____(0,)cconstexpr_7__(1,)cconstexpr_4_"() : () -> tensor<1x1x2x1x1x1x1xi32> loc(#loc183)
    %ret = arith.cmpi sgt, %x, %iy_1 : tensor<2x2x2x2x2x2x2xi64> loc(#loc184)
    %ret_2 = arith.extui %flip : i1 to i32 loc(#loc185)
    %ret_3 = tt.splat %ret_2 : i32 -> tensor<1x1x2x1x1x1x1xi32> loc(#loc185)
    %ret_4 = arith.xori %ret_3, %is_right : tensor<1x1x2x1x1x1x1xi32> loc(#loc185)
    %ret_5 = arith.extui %ret : tensor<2x2x2x2x2x2x2xi1> to tensor<2x2x2x2x2x2x2xi32> loc(#loc186)
    %ret_6 = tt.broadcast %ret_4 : tensor<1x1x2x1x1x1x1xi32> -> tensor<2x2x2x2x2x2x2xi32> loc(#loc186)
    %ret_7 = arith.cmpi ne, %ret_5, %ret_6 : tensor<2x2x2x2x2x2x2xi32> loc(#loc186)
    %ret_8 = arith.select %ret_7, %iy_1, %x : tensor<2x2x2x2x2x2x2xi1>, tensor<2x2x2x2x2x2x2xi64> loc(#loc187)
    tt.return %ret_8 : tensor<2x2x2x2x2x2x2xi64> loc(#loc93)
  ^bb1:  // no predecessors
    %0 = ub.poison : tensor<2x2x2x2x2x2x2xi64> loc(#loc94)
    tt.return %0 : tensor<2x2x2x2x2x2x2xi64> loc(#loc94)
  } loc(#loc85)
  tt.func private @"triton.language.standard._compare_and_swap__i64S2_2_2_2_2_2_2S_u1__(2,)cconstexpr_3_"(%x: tensor<2x2x2x2x2x2x2xi64> loc("x"(#loc85)), %flip: i1 loc("flip"(#loc85))) -> tensor<2x2x2x2x2x2x2xi64> attributes {noinline = false} {
    %iy = tt.call @"triton.language.standard.xor_sum__i64S2_2_2_2_2_2_2S__(1,)cconstexpr_3__(2,)cconstexpr_True_"(%x) : (tensor<2x2x2x2x2x2x2xi64>) -> tensor<2x2x2x1x2x2x2xi64> loc(#loc181)
    %iy_0 = tt.broadcast %iy : tensor<2x2x2x1x2x2x2xi64> -> tensor<2x2x2x2x2x2x2xi64> loc(#loc182)
    %iy_1 = arith.xori %x, %iy_0 : tensor<2x2x2x2x2x2x2xi64> loc(#loc182)
    %is_right = tt.call @"triton.language.standard._indicator____(0,)cconstexpr_7__(1,)cconstexpr_3_"() : () -> tensor<1x1x1x2x1x1x1xi32> loc(#loc183)
    %ret = arith.cmpi sgt, %x, %iy_1 : tensor<2x2x2x2x2x2x2xi64> loc(#loc184)
    %ret_2 = arith.extui %flip : i1 to i32 loc(#loc185)
    %ret_3 = tt.splat %ret_2 : i32 -> tensor<1x1x1x2x1x1x1xi32> loc(#loc185)
    %ret_4 = arith.xori %ret_3, %is_right : tensor<1x1x1x2x1x1x1xi32> loc(#loc185)
    %ret_5 = arith.extui %ret : tensor<2x2x2x2x2x2x2xi1> to tensor<2x2x2x2x2x2x2xi32> loc(#loc186)
    %ret_6 = tt.broadcast %ret_4 : tensor<1x1x1x2x1x1x1xi32> -> tensor<2x2x2x2x2x2x2xi32> loc(#loc186)
    %ret_7 = arith.cmpi ne, %ret_5, %ret_6 : tensor<2x2x2x2x2x2x2xi32> loc(#loc186)
    %ret_8 = arith.select %ret_7, %iy_1, %x : tensor<2x2x2x2x2x2x2xi1>, tensor<2x2x2x2x2x2x2xi64> loc(#loc187)
    tt.return %ret_8 : tensor<2x2x2x2x2x2x2xi64> loc(#loc93)
  ^bb1:  // no predecessors
    %0 = ub.poison : tensor<2x2x2x2x2x2x2xi64> loc(#loc94)
    tt.return %0 : tensor<2x2x2x2x2x2x2xi64> loc(#loc94)
  } loc(#loc85)
  tt.func private @"triton.language.standard._compare_and_swap__i64S2_2_2_2_2_2_2S_u1__(2,)cconstexpr_2_"(%x: tensor<2x2x2x2x2x2x2xi64> loc("x"(#loc85)), %flip: i1 loc("flip"(#loc85))) -> tensor<2x2x2x2x2x2x2xi64> attributes {noinline = false} {
    %iy = tt.call @"triton.language.standard.xor_sum__i64S2_2_2_2_2_2_2S__(1,)cconstexpr_4__(2,)cconstexpr_True_"(%x) : (tensor<2x2x2x2x2x2x2xi64>) -> tensor<2x2x2x2x1x2x2xi64> loc(#loc181)
    %iy_0 = tt.broadcast %iy : tensor<2x2x2x2x1x2x2xi64> -> tensor<2x2x2x2x2x2x2xi64> loc(#loc182)
    %iy_1 = arith.xori %x, %iy_0 : tensor<2x2x2x2x2x2x2xi64> loc(#loc182)
    %is_right = tt.call @"triton.language.standard._indicator____(0,)cconstexpr_7__(1,)cconstexpr_2_"() : () -> tensor<1x1x1x1x2x1x1xi32> loc(#loc183)
    %ret = arith.cmpi sgt, %x, %iy_1 : tensor<2x2x2x2x2x2x2xi64> loc(#loc184)
    %ret_2 = arith.extui %flip : i1 to i32 loc(#loc185)
    %ret_3 = tt.splat %ret_2 : i32 -> tensor<1x1x1x1x2x1x1xi32> loc(#loc185)
    %ret_4 = arith.xori %ret_3, %is_right : tensor<1x1x1x1x2x1x1xi32> loc(#loc185)
    %ret_5 = arith.extui %ret : tensor<2x2x2x2x2x2x2xi1> to tensor<2x2x2x2x2x2x2xi32> loc(#loc186)
    %ret_6 = tt.broadcast %ret_4 : tensor<1x1x1x1x2x1x1xi32> -> tensor<2x2x2x2x2x2x2xi32> loc(#loc186)
    %ret_7 = arith.cmpi ne, %ret_5, %ret_6 : tensor<2x2x2x2x2x2x2xi32> loc(#loc186)
    %ret_8 = arith.select %ret_7, %iy_1, %x : tensor<2x2x2x2x2x2x2xi1>, tensor<2x2x2x2x2x2x2xi64> loc(#loc187)
    tt.return %ret_8 : tensor<2x2x2x2x2x2x2xi64> loc(#loc93)
  ^bb1:  // no predecessors
    %0 = ub.poison : tensor<2x2x2x2x2x2x2xi64> loc(#loc94)
    tt.return %0 : tensor<2x2x2x2x2x2x2xi64> loc(#loc94)
  } loc(#loc85)
  tt.func private @"triton.language.standard._compare_and_swap__i64S2_2_2_2_2_2_2S_u1__(2,)cconstexpr_1_"(%x: tensor<2x2x2x2x2x2x2xi64> loc("x"(#loc85)), %flip: i1 loc("flip"(#loc85))) -> tensor<2x2x2x2x2x2x2xi64> attributes {noinline = false} {
    %iy = tt.call @"triton.language.standard.xor_sum__i64S2_2_2_2_2_2_2S__(1,)cconstexpr_5__(2,)cconstexpr_True_"(%x) : (tensor<2x2x2x2x2x2x2xi64>) -> tensor<2x2x2x2x2x1x2xi64> loc(#loc181)
    %iy_0 = tt.broadcast %iy : tensor<2x2x2x2x2x1x2xi64> -> tensor<2x2x2x2x2x2x2xi64> loc(#loc182)
    %iy_1 = arith.xori %x, %iy_0 : tensor<2x2x2x2x2x2x2xi64> loc(#loc182)
    %is_right = tt.call @"triton.language.standard._indicator____(0,)cconstexpr_7__(1,)cconstexpr_1_"() : () -> tensor<1x1x1x1x1x2x1xi32> loc(#loc183)
    %ret = arith.cmpi sgt, %x, %iy_1 : tensor<2x2x2x2x2x2x2xi64> loc(#loc184)
    %ret_2 = arith.extui %flip : i1 to i32 loc(#loc185)
    %ret_3 = tt.splat %ret_2 : i32 -> tensor<1x1x1x1x1x2x1xi32> loc(#loc185)
    %ret_4 = arith.xori %ret_3, %is_right : tensor<1x1x1x1x1x2x1xi32> loc(#loc185)
    %ret_5 = arith.extui %ret : tensor<2x2x2x2x2x2x2xi1> to tensor<2x2x2x2x2x2x2xi32> loc(#loc186)
    %ret_6 = tt.broadcast %ret_4 : tensor<1x1x1x1x1x2x1xi32> -> tensor<2x2x2x2x2x2x2xi32> loc(#loc186)
    %ret_7 = arith.cmpi ne, %ret_5, %ret_6 : tensor<2x2x2x2x2x2x2xi32> loc(#loc186)
    %ret_8 = arith.select %ret_7, %iy_1, %x : tensor<2x2x2x2x2x2x2xi1>, tensor<2x2x2x2x2x2x2xi64> loc(#loc187)
    tt.return %ret_8 : tensor<2x2x2x2x2x2x2xi64> loc(#loc93)
  ^bb1:  // no predecessors
    %0 = ub.poison : tensor<2x2x2x2x2x2x2xi64> loc(#loc94)
    tt.return %0 : tensor<2x2x2x2x2x2x2xi64> loc(#loc94)
  } loc(#loc85)
  tt.func private @"triton.language.standard._compare_and_swap__i64S2_2_2_2_2_2_2S_u1__(2,)cconstexpr_0_"(%x: tensor<2x2x2x2x2x2x2xi64> loc("x"(#loc85)), %flip: i1 loc("flip"(#loc85))) -> tensor<2x2x2x2x2x2x2xi64> attributes {noinline = false} {
    %iy = tt.call @"triton.language.standard.xor_sum__i64S2_2_2_2_2_2_2S__(1,)cconstexpr_6__(2,)cconstexpr_True_"(%x) : (tensor<2x2x2x2x2x2x2xi64>) -> tensor<2x2x2x2x2x2x1xi64> loc(#loc181)
    %iy_0 = tt.broadcast %iy : tensor<2x2x2x2x2x2x1xi64> -> tensor<2x2x2x2x2x2x2xi64> loc(#loc182)
    %iy_1 = arith.xori %x, %iy_0 : tensor<2x2x2x2x2x2x2xi64> loc(#loc182)
    %is_right = tt.call @"triton.language.standard._indicator____(0,)cconstexpr_7__(1,)cconstexpr_0_"() : () -> tensor<1x1x1x1x1x1x2xi32> loc(#loc183)
    %ret = arith.cmpi sgt, %x, %iy_1 : tensor<2x2x2x2x2x2x2xi64> loc(#loc184)
    %ret_2 = arith.extui %flip : i1 to i32 loc(#loc185)
    %ret_3 = tt.splat %ret_2 : i32 -> tensor<1x1x1x1x1x1x2xi32> loc(#loc185)
    %ret_4 = arith.xori %ret_3, %is_right : tensor<1x1x1x1x1x1x2xi32> loc(#loc185)
    %ret_5 = arith.extui %ret : tensor<2x2x2x2x2x2x2xi1> to tensor<2x2x2x2x2x2x2xi32> loc(#loc186)
    %ret_6 = tt.broadcast %ret_4 : tensor<1x1x1x1x1x1x2xi32> -> tensor<2x2x2x2x2x2x2xi32> loc(#loc186)
    %ret_7 = arith.cmpi ne, %ret_5, %ret_6 : tensor<2x2x2x2x2x2x2xi32> loc(#loc186)
    %ret_8 = arith.select %ret_7, %iy_1, %x : tensor<2x2x2x2x2x2x2xi1>, tensor<2x2x2x2x2x2x2xi64> loc(#loc187)
    tt.return %ret_8 : tensor<2x2x2x2x2x2x2xi64> loc(#loc93)
  ^bb1:  // no predecessors
    %0 = ub.poison : tensor<2x2x2x2x2x2x2xi64> loc(#loc94)
    tt.return %0 : tensor<2x2x2x2x2x2x2xi64> loc(#loc94)
  } loc(#loc85)
  tt.func private @"triton.language.standard.sum__fp32S128S__(1,)cconstexpr_0__(2,)cconstexpr_False__(3,)cNone"(%input: tensor<128xf32> loc("input"(#loc104))) -> f32 attributes {noinline = false} {
    %0 = "tt.reduce"(%input) <{axis = 0 : i32}> ({
    ^bb0(%arg1: f32 loc(unknown), %arg2: f32 loc(unknown)):
      %2 = tt.call @triton.language.standard._sum_combine__fp32_fp32__(%arg1, %arg2) : (f32, f32) -> f32 loc(#loc105)
      tt.reduce.return %2 : f32 loc(#loc105)
    }) : (tensor<128xf32>) -> f32 loc(#loc105)
    tt.return %0 : f32 loc(#loc106)
  ^bb1:  // no predecessors
    %1 = ub.poison : f32 loc(#loc107)
    tt.return %1 : f32 loc(#loc107)
  } loc(#loc104)
  tt.func private @triton.language.standard._sum_combine__fp32_fp32__(%a: f32 loc("a"(#loc108)), %b: f32 loc("b"(#loc108))) -> f32 attributes {noinline = false} {
    %0 = arith.addf %a, %b : f32 loc(#loc109)
    tt.return %0 : f32 loc(#loc110)
  ^bb1:  // no predecessors
    %1 = ub.poison : f32 loc(#loc111)
    tt.return %1 : f32 loc(#loc111)
  } loc(#loc108)
} loc(#loc)
#loc1 = loc("/home/ericbuehler/vllm/.venv-bench/lib/python3.12/site-packages/vllm/model_executor/models/gemma4.py":102:24)
#loc2 = loc("/home/ericbuehler/vllm/.venv-bench/lib/python3.12/site-packages/vllm/model_executor/models/gemma4.py":103:26)
#loc3 = loc("/home/ericbuehler/vllm/.venv-bench/lib/python3.12/site-packages/vllm/model_executor/models/gemma4.py":104:21)
#loc4 = loc("/home/ericbuehler/vllm/.venv-bench/lib/python3.12/site-packages/vllm/model_executor/models/gemma4.py":107:27)
#loc5 = loc("/home/ericbuehler/vllm/.venv-bench/lib/python3.12/site-packages/vllm/model_executor/models/gemma4.py":107:21)
#loc6 = loc("/home/ericbuehler/vllm/.venv-bench/lib/python3.12/site-packages/vllm/model_executor/models/gemma4.py":107:31)
#loc7 = loc("/home/ericbuehler/vllm/.venv-bench/lib/python3.12/site-packages/vllm/model_executor/models/gemma4.py":107:8)
#loc8 = loc("/home/ericbuehler/vllm/.venv-bench/lib/python3.12/site-packages/vllm/model_executor/models/gemma4.py":112:19)
#loc9 = loc("/home/ericbuehler/vllm/.venv-bench/lib/python3.12/site-packages/vllm/model_executor/models/gemma4.py":115:12)
#loc10 = loc("/home/ericbuehler/vllm/.venv-bench/lib/python3.12/site-packages/vllm/model_executor/models/gemma4.py":116:27)
#loc11 = loc("/home/ericbuehler/vllm/.venv-bench/lib/python3.12/site-packages/vllm/model_executor/models/gemma4.py":117:27)
#loc12 = loc("/home/ericbuehler/vllm/.venv-bench/lib/python3.12/site-packages/vllm/model_executor/models/gemma4.py":118:29)
#loc13 = loc("/home/ericbuehler/vllm/.venv-bench/lib/python3.12/site-packages/vllm/model_executor/models/gemma4.py":118:45)
#loc14 = loc("/home/ericbuehler/vllm/.venv-bench/lib/python3.12/site-packages/vllm/model_executor/models/gemma4.py":118:62)
#loc15 = loc("/home/ericbuehler/vllm/.venv-bench/lib/python3.12/site-packages/vllm/model_executor/models/gemma4.py":118:49)
#loc16 = loc("/home/ericbuehler/vllm/.venv-bench/lib/python3.12/site-packages/vllm/model_executor/models/gemma4.py":119:31)
#loc17 = loc("/home/ericbuehler/vllm/.venv-bench/lib/python3.12/site-packages/vllm/model_executor/models/gemma4.py":120:18)
#loc18 = loc("/home/ericbuehler/vllm/.venv-bench/lib/python3.12/site-packages/vllm/model_executor/models/gemma4.py":120:30)
#loc19 = loc("/home/ericbuehler/vllm/.venv-bench/lib/python3.12/site-packages/vllm/model_executor/models/gemma4.py":121:22)
#loc20 = loc("/home/ericbuehler/vllm/.venv-bench/lib/python3.12/site-packages/vllm/model_executor/models/gemma4.py":121:38)
#loc21 = loc("/home/ericbuehler/vllm/.venv-bench/lib/python3.12/site-packages/vllm/model_executor/models/gemma4.py":121:28)
#loc22 = loc("/home/ericbuehler/vllm/.venv-bench/lib/python3.12/site-packages/vllm/model_executor/models/gemma4.py":122:23)
#loc23 = loc("/home/ericbuehler/vllm/.venv-bench/lib/python3.12/site-packages/vllm/model_executor/models/gemma4.py":125:29)
#loc24 = loc("/home/ericbuehler/vllm/.venv-bench/lib/python3.12/site-packages/vllm/model_executor/models/gemma4.py":125:35)
#loc25 = loc("/home/ericbuehler/vllm/.venv-bench/lib/python3.12/site-packages/vllm/model_executor/models/gemma4.py":125:58)
#loc26 = loc("/home/ericbuehler/vllm/.venv-bench/lib/python3.12/site-packages/vllm/model_executor/models/gemma4.py":126:26)
#loc27 = loc("/home/ericbuehler/vllm/.venv-bench/lib/python3.12/site-packages/vllm/model_executor/models/gemma4.py":126:49)
#loc28 = loc("/home/ericbuehler/vllm/.venv-bench/lib/python3.12/site-packages/vllm/model_executor/models/gemma4.py":129:25)
#loc29 = loc("/home/ericbuehler/vllm/.venv-bench/lib/python3.12/site-packages/vllm/model_executor/models/gemma4.py":130:33)
#loc30 = loc("/home/ericbuehler/vllm/.venv-bench/lib/python3.12/site-packages/vllm/model_executor/models/gemma4.py":130:47)
#loc31 = loc("/home/ericbuehler/vllm/.venv-bench/lib/python3.12/site-packages/vllm/model_executor/models/gemma4.py":130:62)
#loc32 = loc("/home/ericbuehler/vllm/.venv-bench/lib/python3.12/site-packages/vllm/model_executor/models/gemma4.py":130:51)
#loc33 = loc("/home/ericbuehler/vllm/.venv-bench/lib/python3.12/site-packages/vllm/model_executor/models/gemma4.py":131:29)
#loc34 = loc("/home/ericbuehler/vllm/.venv-bench/lib/python3.12/site-packages/vllm/model_executor/models/gemma4.py":134:45)
#loc35 = loc("/home/ericbuehler/vllm/.venv-bench/lib/python3.12/site-packages/vllm/model_executor/models/gemma4.py":134:54)
#loc36 = loc("/home/ericbuehler/vllm/.venv-bench/lib/python3.12/site-packages/vllm/model_executor/models/gemma4.py":134:31)
#loc37 = loc("/home/ericbuehler/vllm/.venv-bench/lib/python3.12/site-packages/vllm/model_executor/models/gemma4.py":137:24)
#loc38 = loc("/home/ericbuehler/vllm/.venv-bench/lib/python3.12/site-packages/vllm/model_executor/models/gemma4.py":138:56)
#loc39 = loc("/home/ericbuehler/vllm/.venv-bench/lib/python3.12/site-packages/vllm/model_executor/models/gemma4.py":138:24)
#loc40 = loc("/home/ericbuehler/vllm/.venv-bench/lib/python3.12/site-packages/vllm/model_executor/models/gemma4.py":139:39)
#loc41 = loc("/home/ericbuehler/vllm/.venv-bench/lib/python3.12/site-packages/vllm/model_executor/models/gemma4.py":139:56)
#loc42 = loc("/home/ericbuehler/vllm/.venv-bench/lib/python3.12/site-packages/vllm/model_executor/models/gemma4.py":140:23)
#loc43 = loc("/home/ericbuehler/vllm/.venv-bench/lib/python3.12/site-packages/vllm/model_executor/models/gemma4.py":144:42)
#loc44 = loc("/home/ericbuehler/vllm/.venv-bench/lib/python3.12/site-packages/vllm/model_executor/models/gemma4.py":144:31)
#loc45 = loc("/home/ericbuehler/vllm/.venv-bench/lib/python3.12/site-packages/vllm/model_executor/models/gemma4.py":144:8)
#loc46 = loc("/home/ericbuehler/vllm/.venv-bench/lib/python3.12/site-packages/vllm/model_executor/models/gemma4.py":147:9)
#loc47 = loc("/home/ericbuehler/vllm/.venv-bench/lib/python3.12/site-packages/vllm/model_executor/models/gemma4.py":150:33)
#loc48 = loc("/home/ericbuehler/vllm/.venv-bench/lib/python3.12/site-packages/vllm/model_executor/models/gemma4.py":150:46)
#loc49 = loc("/home/ericbuehler/vllm/.venv-bench/lib/python3.12/site-packages/vllm/model_executor/models/gemma4.py":153:21)
#loc50 = loc("/home/ericbuehler/vllm/.venv-bench/lib/python3.12/site-packages/vllm/model_executor/models/gemma4.py":153:25)
#loc51 = loc("/home/ericbuehler/vllm/.venv-bench/lib/python3.12/site-packages/vllm/model_executor/models/gemma4.py":154:28)
#loc52 = loc("/home/ericbuehler/vllm/.venv-bench/lib/python3.12/site-packages/vllm/model_executor/models/gemma4.py":154:38)
#loc53 = loc("/home/ericbuehler/vllm/.venv-bench/lib/python3.12/site-packages/vllm/model_executor/models/gemma4.py":155:32)
#loc54 = loc("/home/ericbuehler/vllm/.venv-bench/lib/python3.12/site-packages/vllm/model_executor/models/gemma4.py":155:42)
#loc55 = loc("/home/ericbuehler/vllm/.venv-bench/lib/python3.12/site-packages/vllm/model_executor/models/gemma4.py":155:4)
#loc57 = loc("/home/ericbuehler/vllm/.venv-bench/lib/python3.12/site-packages/triton/language/standard.py":191:40)
#loc59 = loc("/home/ericbuehler/vllm/.venv-bench/lib/python3.12/site-packages/triton/language/standard.py":191:15)
#loc60 = loc("/home/ericbuehler/vllm/.venv-bench/lib/python3.12/site-packages/triton/language/standard.py":179:4)
#loc62 = loc("/home/ericbuehler/vllm/.venv-bench/lib/python3.12/site-packages/triton/language/standard.py":170:27)
#loc63 = loc("/home/ericbuehler/vllm/.venv-bench/lib/python3.12/site-packages/triton/language/standard.py":170:11)
#loc64 = loc("/home/ericbuehler/vllm/.venv-bench/lib/python3.12/site-packages/triton/language/standard.py":170:4)
#loc66 = loc("/home/ericbuehler/vllm/.venv-bench/lib/python3.12/site-packages/triton/language/standard.py":465:21)
#loc67 = loc("/home/ericbuehler/vllm/.venv-bench/lib/python3.12/site-packages/triton/language/standard.py":465:11)
#loc68 = loc("/home/ericbuehler/vllm/.venv-bench/lib/python3.12/site-packages/triton/language/standard.py":465:4)
#loc70 = loc("/home/ericbuehler/vllm/.venv-bench/lib/python3.12/site-packages/triton/language/standard.py":446:24)
#loc71 = loc("/home/ericbuehler/vllm/.venv-bench/lib/python3.12/site-packages/triton/language/standard.py":450:43)
#loc72 = loc("/home/ericbuehler/vllm/.venv-bench/lib/python3.12/site-packages/triton/language/standard.py":459:24)
#loc73 = loc("/home/ericbuehler/vllm/.venv-bench/lib/python3.12/site-packages/triton/language/standard.py":460:11)
#loc74 = loc("/home/ericbuehler/vllm/.venv-bench/lib/python3.12/site-packages/triton/language/standard.py":460:4)
#loc76 = loc("/home/ericbuehler/vllm/.venv-bench/lib/python3.12/site-packages/triton/language/standard.py":405:42)
#loc77 = loc("/home/ericbuehler/vllm/.venv-bench/lib/python3.12/site-packages/triton/language/standard.py":410:39)
#loc78 = loc("/home/ericbuehler/vllm/.venv-bench/lib/python3.12/site-packages/triton/language/standard.py":411:11)
#loc79 = loc("/home/ericbuehler/vllm/.venv-bench/lib/python3.12/site-packages/triton/language/standard.py":411:4)
#loc80 = loc("/home/ericbuehler/vllm/.venv-bench/lib/python3.12/site-packages/triton/language/standard.py":367:0)
#loc81 = loc("/home/ericbuehler/vllm/.venv-bench/lib/python3.12/site-packages/triton/language/standard.py":368:24)
#loc82 = loc("/home/ericbuehler/vllm/.venv-bench/lib/python3.12/site-packages/triton/language/standard.py":369:26)
#loc83 = loc("/home/ericbuehler/vllm/.venv-bench/lib/python3.12/site-packages/triton/language/standard.py":370:11)
#loc84 = loc("/home/ericbuehler/vllm/.venv-bench/lib/python3.12/site-packages/triton/language/standard.py":370:4)
#loc86 = loc("/home/ericbuehler/vllm/.venv-bench/lib/python3.12/site-packages/triton/language/standard.py":381:42)
#loc87 = loc("/home/ericbuehler/vllm/.venv-bench/lib/python3.12/site-packages/triton/language/standard.py":381:14)
#loc88 = loc("/home/ericbuehler/vllm/.venv-bench/lib/python3.12/site-packages/triton/language/standard.py":385:34)
#loc89 = loc("/home/ericbuehler/vllm/.venv-bench/lib/python3.12/site-packages/triton/language/standard.py":388:26)
#loc90 = loc("/home/ericbuehler/vllm/.venv-bench/lib/python3.12/site-packages/triton/language/standard.py":388:40)
#loc91 = loc("/home/ericbuehler/vllm/.venv-bench/lib/python3.12/site-packages/triton/language/standard.py":388:33)
#loc92 = loc("/home/ericbuehler/vllm/.venv-bench/lib/python3.12/site-packages/triton/language/standard.py":388:54)
#loc93 = loc("/home/ericbuehler/vllm/.venv-bench/lib/python3.12/site-packages/triton/language/standard.py":389:11)
#loc94 = loc("/home/ericbuehler/vllm/.venv-bench/lib/python3.12/site-packages/triton/language/standard.py":389:4)
#loc96 = loc("/home/ericbuehler/vllm/.venv-bench/lib/python3.12/site-packages/triton/language/standard.py":309:36)
#loc97 = loc("/home/ericbuehler/vllm/.venv-bench/lib/python3.12/site-packages/triton/language/standard.py":309:11)
#loc98 = loc("/home/ericbuehler/vllm/.venv-bench/lib/python3.12/site-packages/triton/language/standard.py":309:4)
#loc100 = loc("/home/ericbuehler/vllm/.venv-bench/lib/python3.12/site-packages/triton/language/standard.py":298:15)
#loc101 = loc("/home/ericbuehler/vllm/.venv-bench/lib/python3.12/site-packages/triton/language/standard.py":298:11)
#loc102 = loc("/home/ericbuehler/vllm/.venv-bench/lib/python3.12/site-packages/triton/language/standard.py":298:4)
#loc103 = loc("/home/ericbuehler/vllm/.venv-bench/lib/python3.12/site-packages/triton/language/standard.py":407:15)
#loc105 = loc("/home/ericbuehler/vllm/.venv-bench/lib/python3.12/site-packages/triton/language/standard.py":293:36)
#loc106 = loc("/home/ericbuehler/vllm/.venv-bench/lib/python3.12/site-packages/triton/language/standard.py":293:11)
#loc107 = loc("/home/ericbuehler/vllm/.venv-bench/lib/python3.12/site-packages/triton/language/standard.py":293:4)
#loc109 = loc("/home/ericbuehler/vllm/.venv-bench/lib/python3.12/site-packages/triton/language/standard.py":263:15)
#loc110 = loc("/home/ericbuehler/vllm/.venv-bench/lib/python3.12/site-packages/triton/language/standard.py":263:11)
#loc111 = loc("/home/ericbuehler/vllm/.venv-bench/lib/python3.12/site-packages/triton/language/standard.py":263:4)
#loc116 = loc("pid"(#loc1))
#loc117 = loc("offs_e"(#loc2))
#loc118 = loc("valid"(#loc3))
#loc119 = loc("logits"(#loc4))
#loc120 = loc("logits"(#loc5))
#loc121 = loc("logits"(#loc6))
#loc122 = loc("logits"(#loc7))
#loc123 = loc("max_l"(#loc8))
#loc124 = loc("MIN32"(#loc9))
#loc125 = loc("logit_bits"(#loc10))
#loc126 = loc("sign_b"(#loc11))
#loc127 = loc("key"(#loc12))
#loc128 = loc("key"(#loc13))
#loc129 = loc("key"(#loc14))
#loc130 = loc("key"(#loc15))
#loc131 = loc("key"(#loc16))
#loc132 = loc("sk64"(#loc17))
#loc133 = loc("sk64"(#loc18))
#loc134 = loc("packed"(#loc19))
#loc135 = loc("packed"(#loc20))
#loc136 = loc("packed"(#loc21))
#loc137 = loc("sorted_p"(#loc22))
#loc138 = loc("all_keys"(#loc23))
#loc139 = loc("all_keys"(#loc24))
#loc140 = loc("all_keys"(#loc25))
#loc141 = loc("all_ids"(#loc26))
#loc142 = loc("all_ids"(#loc27))
#loc143 = loc("sign_k"(#loc28))
#loc144 = loc("all_bits"(#loc29))
#loc145 = loc("all_bits"(#loc30))
#loc146 = loc("all_bits"(#loc31))
#loc147 = loc("all_bits"(#loc32))
#loc148 = loc("all_logits"(#loc33))
#loc149 = loc("all_raw_exp"(#loc34))
#loc150 = loc("all_raw_exp"(#loc35))
#loc151 = loc("all_raw_exp"(#loc36))
#loc152 = loc("top_mask"(#loc37))
#loc153 = loc("renorm_raw"(#loc38))
#loc154 = loc("renorm_raw"(#loc39))
#loc155 = loc("renorm_raw"(#loc40))
#loc156 = loc("renorm_raw"(#loc41))
#loc157 = loc("inv_renorm"(#loc42))
#loc158 = loc("all_scales"(#loc43))
#loc159 = loc("all_scales"(#loc44))
#loc160 = loc("all_scales"(#loc45))
#loc161 = loc("all_scales"(#loc46))
#loc162 = loc("all_weights"(#loc47))
#loc163 = loc("all_weights"(#loc48))
#loc164 = loc("base_off"(#loc49))
#loc165 = loc("base_off"(#loc50))
#loc171 = loc("h"(#loc70))
#loc172 = loc("h"(#loc71))
#loc173 = loc("x"(#loc72))
#loc175 = loc("flip"(#loc76))
#loc176 = loc("x"(#loc77))
#loc177 = loc("ar"(#loc81))
#loc178 = loc("ar"(#loc82))
#loc181 = loc("iy"(#loc86))
#loc182 = loc("iy"(#loc87))
#loc183 = loc("is_right"(#loc88))
#loc184 = loc("ret"(#loc89))
#loc185 = loc("ret"(#loc90))
#loc186 = loc("ret"(#loc91))
#loc187 = loc("ret"(#loc92))
#loc191 = loc("flip"(#loc103))
