#loc = loc("/home/ericbuehler/.cache/vllm/torch_compile_cache/torch_aot_compile/90537ea14f244a5187d6ecc853fbadcf440d710f29c8e182fe8151f3f7751a82/inductor_cache/qj/cqjys2nmfq5ipwxymb33axfl4q25zfh63m3h6cc2rqhnk2zzvsmp.py":18:0)
#loc1 = loc(unknown)
#loc40 = loc("/home/ericbuehler/.cache/vllm/torch_compile_cache/torch_aot_compile/90537ea14f244a5187d6ecc853fbadcf440d710f29c8e182fe8151f3f7751a82/inductor_cache/qj/cqjys2nmfq5ipwxymb33axfl4q25zfh63m3h6cc2rqhnk2zzvsmp.py":52:27)
#loc63 = loc("in_ptr0"(#loc))
#loc64 = loc("in_ptr1"(#loc))
#loc65 = loc("in_ptr2"(#loc))
#loc66 = loc("in_ptr3"(#loc))
#loc67 = loc("out_ptr0"(#loc))
#loc68 = loc("out_ptr2"(#loc))
#loc69 = loc("xnumel"(#loc))
#loc70 = loc("r0_numel"(#loc))
#loc98 = loc("tmp14"(#loc40))
#loc119 = loc(callsite(#loc1 at #loc98))
module {
  tt.func public @triton_red_fused__to_copy_embedding_mul_rms_norm_0(%in_ptr0: !tt.ptr<i32> {tt.divisibility = 16 : i32} loc("in_ptr0"(#loc)), %in_ptr1: !tt.ptr<bf16> {tt.divisibility = 16 : i32} loc("in_ptr1"(#loc)), %in_ptr2: !tt.ptr<bf16> {tt.divisibility = 16 : i32} loc("in_ptr2"(#loc)), %in_ptr3: !tt.ptr<bf16> {tt.divisibility = 16 : i32} loc("in_ptr3"(#loc)), %out_ptr0: !tt.ptr<bf16> {tt.divisibility = 16 : i32} loc("out_ptr0"(#loc)), %out_ptr2: !tt.ptr<bf16> {tt.divisibility = 16 : i32} loc("out_ptr2"(#loc)), %xnumel: i32 loc("xnumel"(#loc)), %r0_numel: i32 {tt.divisibility = 16 : i32} loc("r0_numel"(#loc))) attributes {noinline = false} {
    %true = arith.constant true loc(#loc1)
    %cst = arith.constant dense<0.000000e+00> : tensor<1x2048xbf16> loc(#loc1)
    %cst_0 = arith.constant dense<0> : tensor<1x1xi64> loc(#loc1)
    %cst_1 = arith.constant dense<262144> : tensor<1x1xi64> loc(#loc1)
    %c2048_i32 = arith.constant 2048 : i32 loc(#loc1)
    %c2816_i32 = arith.constant 2816 : i32 loc(#loc1)
    %c0_i32 = arith.constant 0 : i32 loc(#loc1)
    %cst_2 = arith.constant dense<9.99999997E-7> : tensor<1x1xf32> loc(#loc1)
    %cst_3 = arith.constant dense<2.816000e+03> : tensor<1x1xf32> loc(#loc1)
    %cst_4 = arith.constant dense<2816> : tensor<1x1xi64> loc(#loc1)
    %cst_5 = arith.constant dense<2816> : tensor<1x2048xi32> loc(#loc1)
    %cst_6 = arith.constant dense<0.000000e+00> : tensor<1x2048xf32> loc(#loc1)
    %xoffset = tt.get_program_id x : i32 loc(#loc71)
    %xmask = arith.cmpi slt, %xoffset, %xnumel : i32 loc(#loc72)
    %xmask_7 = tt.splat %xmask : i1 -> tensor<1x1xi1> loc(#loc72)
    %r0_base = tt.make_range {end = 2048 : i32, start = 0 : i32} : tensor<2048xi32> loc(#loc73)
    %r0_base_8 = tt.expand_dims %r0_base {axis = 0 : i32} : tensor<2048xi32> -> tensor<1x2048xi32> loc(#loc74)
    %tmp0 = tt.addptr %in_ptr0, %xoffset : !tt.ptr<i32>, i32 loc(#loc75)
    %tmp0_9 = tt.splat %tmp0 : !tt.ptr<i32> -> tensor<1x1x!tt.ptr<i32>> loc(#loc75)
    %tmp0_10 = tt.load %tmp0_9, %xmask_7 evictionPolicy = evict_last : tensor<1x1x!tt.ptr<i32>> loc(#loc76)
    %tmp8 = tt.load %in_ptr2 : !tt.ptr<bf16> loc(#loc77)
    %tmp8_11 = arith.extf %tmp8 : bf16 to f32 loc(#loc78)
    %_tmp14 = scf.for %r0_offset = %c0_i32 to %c2816_i32 step %c2048_i32 iter_args(%_tmp14_13 = %cst_6) -> (tensor<1x2048xf32>)  : i32 {
      %r0_index = tt.splat %r0_offset : i32 -> tensor<1x2048xi32> loc(#loc80)
      %r0_index_14 = arith.addi %r0_index, %r0_base_8 : tensor<1x2048xi32> loc(#loc80)
      %r0_mask = arith.cmpi slt, %r0_index_14, %cst_5 : tensor<1x2048xi32> loc(#loc81)
      %tmp1 = arith.extsi %tmp0_10 : tensor<1x1xi32> to tensor<1x1xi64> loc(#loc82)
      %tmp3 = arith.addi %tmp1, %cst_1 : tensor<1x1xi64> loc(#loc83)
      %tmp4 = arith.cmpi slt, %tmp1, %cst_0 : tensor<1x1xi64> loc(#loc84)
      %tmp5 = arith.select %tmp4, %tmp3, %tmp1 : tensor<1x1xi1>, tensor<1x1xi64> loc(#loc85)
      %0 = arith.cmpi sge, %tmp5, %cst_0 : tensor<1x1xi64> loc(#loc17)
      %1 = arith.cmpi slt, %tmp5, %cst_1 : tensor<1x1xi64> loc(#loc18)
      %2 = arith.andi %0, %1 : tensor<1x1xi1> loc(#loc19)
      %3 = arith.xori %xmask, %true : i1 loc(#loc20)
      %4 = tt.splat %3 : i1 -> tensor<1x1xi1> loc(#loc20)
      %5 = arith.ori %2, %4 : tensor<1x1xi1> loc(#loc21)
      tt.assert %5, "index out of bounds: 0 <= tmp5 < 262144" : tensor<1x1xi1> loc(#loc22)
      %tmp7 = arith.muli %tmp5, %cst_4 : tensor<1x1xi64> loc(#loc86)
      %tmp7_15 = arith.extsi %r0_index_14 : tensor<1x2048xi32> to tensor<1x2048xi64> loc(#loc87)
      %tmp7_16 = tt.broadcast %tmp7 : tensor<1x1xi64> -> tensor<1x2048xi64> loc(#loc87)
      %tmp7_17 = arith.addi %tmp7_15, %tmp7_16 : tensor<1x2048xi64> loc(#loc87)
      %tmp7_18 = tt.splat %in_ptr1 : !tt.ptr<bf16> -> tensor<1x2048x!tt.ptr<bf16>> loc(#loc88)
      %tmp7_19 = tt.addptr %tmp7_18, %tmp7_17 : tensor<1x2048x!tt.ptr<bf16>>, tensor<1x2048xi64> loc(#loc88)
      %tmp7_20 = tt.splat %xmask : i1 -> tensor<1x2048xi1> loc(#loc116)
      %tmp7_21 = arith.andi %r0_mask, %tmp7_20 : tensor<1x2048xi1> loc(#loc89)
      %tmp7_22 = tt.load %tmp7_19, %tmp7_21, %cst evictionPolicy = evict_first : tensor<1x2048x!tt.ptr<bf16>> loc(#loc90)
      %tmp7_23 = arith.extf %tmp7_22 : tensor<1x2048xbf16> to tensor<1x2048xf32> loc(#loc91)
      %tmp10 = tt.splat %tmp8_11 : f32 -> tensor<1x2048xf32> loc(#loc117)
      %tmp10_24 = arith.mulf %tmp7_23, %tmp10 : tensor<1x2048xf32> loc(#loc92)
      %tmp12 = arith.mulf %tmp10_24, %tmp10_24 : tensor<1x2048xf32> loc(#loc94)
      %tmp15 = arith.addf %_tmp14_13, %tmp12 : tensor<1x2048xf32> loc(#loc95)
      %_tmp14_25 = arith.select %tmp7_21, %tmp15, %_tmp14_13 : tensor<1x2048xi1>, tensor<1x2048xf32> loc(#loc96)
      %6 = arith.muli %xoffset, %c2816_i32 : i32 loc(#loc34)
      %7 = tt.splat %6 : i32 -> tensor<1x2048xi32> loc(#loc97)
      %8 = arith.addi %r0_index_14, %7 : tensor<1x2048xi32> loc(#loc35)
      %9 = tt.splat %out_ptr0 : !tt.ptr<bf16> -> tensor<1x2048x!tt.ptr<bf16>> loc(#loc36)
      %10 = tt.addptr %9, %8 : tensor<1x2048x!tt.ptr<bf16>>, tensor<1x2048xi32> loc(#loc36)
      %11 = arith.truncf %tmp10_24 : tensor<1x2048xf32> to tensor<1x2048xbf16> loc(#loc37)
      tt.store %10, %11, %tmp7_21 : tensor<1x2048x!tt.ptr<bf16>> loc(#loc37)
      scf.yield %_tmp14_25 : tensor<1x2048xf32> loc(#loc38)
    } loc(#loc79)
    %tmp14 = "tt.reduce"(%_tmp14) <{axis = 1 : i32}> ({
    ^bb0(%tmp14_13: f32 loc(callsite(#loc1 at #loc98)), %tmp14_14: f32 loc(callsite(#loc1 at #loc98))):
      %tmp14_15 = arith.addf %tmp14_13, %tmp14_14 : f32 loc(#loc122)
      tt.reduce.return %tmp14_15 : f32 loc(#loc118)
    }) : (tensor<1x2048xf32>) -> tensor<1xf32> loc(#loc118)
    %tmp14_12 = tt.expand_dims %tmp14 {axis = 1 : i32} : tensor<1xf32> -> tensor<1x1xf32> loc(#loc99)
    scf.for %r0_offset = %c0_i32 to %c2816_i32 step %c2048_i32  : i32 {
      %r0_index = tt.splat %r0_offset : i32 -> tensor<1x2048xi32> loc(#loc100)
      %r0_index_13 = arith.addi %r0_index, %r0_base_8 : tensor<1x2048xi32> loc(#loc100)
      %r0_mask = arith.cmpi slt, %r0_index_13, %cst_5 : tensor<1x2048xi32> loc(#loc101)
      %tmp16 = arith.muli %xoffset, %c2816_i32 : i32 loc(#loc102)
      %tmp16_14 = tt.splat %tmp16 : i32 -> tensor<1x2048xi32> loc(#loc120)
      %tmp16_15 = arith.addi %r0_index_13, %tmp16_14 : tensor<1x2048xi32> loc(#loc103)
      %tmp16_16 = tt.splat %out_ptr0 : !tt.ptr<bf16> -> tensor<1x2048x!tt.ptr<bf16>> loc(#loc104)
      %tmp16_17 = tt.addptr %tmp16_16, %tmp16_15 : tensor<1x2048x!tt.ptr<bf16>>, tensor<1x2048xi32> loc(#loc104)
      %tmp16_18 = tt.splat %xmask : i1 -> tensor<1x2048xi1> loc(#loc121)
      %tmp16_19 = arith.andi %r0_mask, %tmp16_18 : tensor<1x2048xi1> loc(#loc105)
      %tmp16_20 = tt.load %tmp16_17, %tmp16_19, %cst evictionPolicy = evict_first : tensor<1x2048x!tt.ptr<bf16>> loc(#loc106)
      %tmp16_21 = arith.extf %tmp16_20 : tensor<1x2048xbf16> to tensor<1x2048xf32> loc(#loc107)
      %tmp25 = tt.splat %in_ptr3 : !tt.ptr<bf16> -> tensor<1x2048x!tt.ptr<bf16>> loc(#loc108)
      %tmp25_22 = tt.addptr %tmp25, %r0_index_13 : tensor<1x2048x!tt.ptr<bf16>>, tensor<1x2048xi32> loc(#loc108)
      %tmp25_23 = tt.load %tmp25_22, %r0_mask, %cst evictionPolicy = evict_last : tensor<1x2048x!tt.ptr<bf16>> loc(#loc109)
      %tmp25_24 = arith.extf %tmp25_23 : tensor<1x2048xbf16> to tensor<1x2048xf32> loc(#loc110)
      %tmp19 = arith.divf %tmp14_12, %cst_3 : tensor<1x1xf32> loc(#loc111)
      %tmp21 = arith.addf %tmp19, %cst_2 : tensor<1x1xf32> loc(#loc112)
      %tmp22 = tt.extern_elementwise %tmp21 {libname = "", libpath = "", pure = true, symbol = "__nv_rsqrtf"} : (tensor<1x1xf32>) -> tensor<1x1xf32> loc(#loc113)
      %tmp23 = tt.broadcast %tmp22 : tensor<1x1xf32> -> tensor<1x2048xf32> loc(#loc114)
      %tmp23_25 = arith.mulf %tmp16_21, %tmp23 : tensor<1x2048xf32> loc(#loc114)
      %tmp26 = arith.mulf %tmp23_25, %tmp25_24 : tensor<1x2048xf32> loc(#loc115)
      %0 = tt.splat %out_ptr2 : !tt.ptr<bf16> -> tensor<1x2048x!tt.ptr<bf16>> loc(#loc60)
      %1 = tt.addptr %0, %tmp16_15 : tensor<1x2048x!tt.ptr<bf16>>, tensor<1x2048xi32> loc(#loc60)
      %2 = arith.truncf %tmp26 : tensor<1x2048xf32> to tensor<1x2048xbf16> loc(#loc61)
      tt.store %1, %2, %tmp16_19 : tensor<1x2048x!tt.ptr<bf16>> loc(#loc61)
    } loc(#loc43)
    tt.return loc(#loc62)
  } loc(#loc)
} loc(#loc)
#loc2 = loc("/home/ericbuehler/.cache/vllm/torch_compile_cache/torch_aot_compile/90537ea14f244a5187d6ecc853fbadcf440d710f29c8e182fe8151f3f7751a82/inductor_cache/qj/cqjys2nmfq5ipwxymb33axfl4q25zfh63m3h6cc2rqhnk2zzvsmp.py":22:28)
#loc3 = loc("/home/ericbuehler/.cache/vllm/torch_compile_cache/torch_aot_compile/90537ea14f244a5187d6ecc853fbadcf440d710f29c8e182fe8151f3f7751a82/inductor_cache/qj/cqjys2nmfq5ipwxymb33axfl4q25zfh63m3h6cc2rqhnk2zzvsmp.py":24:21)
#loc4 = loc("/home/ericbuehler/.cache/vllm/torch_compile_cache/torch_aot_compile/90537ea14f244a5187d6ecc853fbadcf440d710f29c8e182fe8151f3f7751a82/inductor_cache/qj/cqjys2nmfq5ipwxymb33axfl4q25zfh63m3h6cc2rqhnk2zzvsmp.py":25:27)
#loc5 = loc("/home/ericbuehler/.cache/vllm/torch_compile_cache/torch_aot_compile/90537ea14f244a5187d6ecc853fbadcf440d710f29c8e182fe8151f3f7751a82/inductor_cache/qj/cqjys2nmfq5ipwxymb33axfl4q25zfh63m3h6cc2rqhnk2zzvsmp.py":25:37)
#loc6 = loc("/home/ericbuehler/.cache/vllm/torch_compile_cache/torch_aot_compile/90537ea14f244a5187d6ecc853fbadcf440d710f29c8e182fe8151f3f7751a82/inductor_cache/qj/cqjys2nmfq5ipwxymb33axfl4q25zfh63m3h6cc2rqhnk2zzvsmp.py":28:30)
#loc7 = loc("/home/ericbuehler/.cache/vllm/torch_compile_cache/torch_aot_compile/90537ea14f244a5187d6ecc853fbadcf440d710f29c8e182fe8151f3f7751a82/inductor_cache/qj/cqjys2nmfq5ipwxymb33axfl4q25zfh63m3h6cc2rqhnk2zzvsmp.py":28:35)
#loc8 = loc("/home/ericbuehler/.cache/vllm/torch_compile_cache/torch_aot_compile/90537ea14f244a5187d6ecc853fbadcf440d710f29c8e182fe8151f3f7751a82/inductor_cache/qj/cqjys2nmfq5ipwxymb33axfl4q25zfh63m3h6cc2rqhnk2zzvsmp.py":29:19)
#loc9 = loc("/home/ericbuehler/.cache/vllm/torch_compile_cache/torch_aot_compile/90537ea14f244a5187d6ecc853fbadcf440d710f29c8e182fe8151f3f7751a82/inductor_cache/qj/cqjys2nmfq5ipwxymb33axfl4q25zfh63m3h6cc2rqhnk2zzvsmp.py":29:37)
#loc10 = loc("/home/ericbuehler/.cache/vllm/torch_compile_cache/torch_aot_compile/90537ea14f244a5187d6ecc853fbadcf440d710f29c8e182fe8151f3f7751a82/inductor_cache/qj/cqjys2nmfq5ipwxymb33axfl4q25zfh63m3h6cc2rqhnk2zzvsmp.py":32:43)
#loc11 = loc("/home/ericbuehler/.cache/vllm/torch_compile_cache/torch_aot_compile/90537ea14f244a5187d6ecc853fbadcf440d710f29c8e182fe8151f3f7751a82/inductor_cache/qj/cqjys2nmfq5ipwxymb33axfl4q25zfh63m3h6cc2rqhnk2zzvsmp.py":33:31)
#loc12 = loc("/home/ericbuehler/.cache/vllm/torch_compile_cache/torch_aot_compile/90537ea14f244a5187d6ecc853fbadcf440d710f29c8e182fe8151f3f7751a82/inductor_cache/qj/cqjys2nmfq5ipwxymb33axfl4q25zfh63m3h6cc2rqhnk2zzvsmp.py":34:29)
#loc13 = loc("/home/ericbuehler/.cache/vllm/torch_compile_cache/torch_aot_compile/90537ea14f244a5187d6ecc853fbadcf440d710f29c8e182fe8151f3f7751a82/inductor_cache/qj/cqjys2nmfq5ipwxymb33axfl4q25zfh63m3h6cc2rqhnk2zzvsmp.py":38:23)
#loc14 = loc("/home/ericbuehler/.cache/vllm/torch_compile_cache/torch_aot_compile/90537ea14f244a5187d6ecc853fbadcf440d710f29c8e182fe8151f3f7751a82/inductor_cache/qj/cqjys2nmfq5ipwxymb33axfl4q25zfh63m3h6cc2rqhnk2zzvsmp.py":40:22)
#loc15 = loc("/home/ericbuehler/.cache/vllm/torch_compile_cache/torch_aot_compile/90537ea14f244a5187d6ecc853fbadcf440d710f29c8e182fe8151f3f7751a82/inductor_cache/qj/cqjys2nmfq5ipwxymb33axfl4q25zfh63m3h6cc2rqhnk2zzvsmp.py":41:22)
#loc16 = loc("/home/ericbuehler/.cache/vllm/torch_compile_cache/torch_aot_compile/90537ea14f244a5187d6ecc853fbadcf440d710f29c8e182fe8151f3f7751a82/inductor_cache/qj/cqjys2nmfq5ipwxymb33axfl4q25zfh63m3h6cc2rqhnk2zzvsmp.py":42:36)
#loc17 = loc("/home/ericbuehler/.cache/vllm/torch_compile_cache/torch_aot_compile/90537ea14f244a5187d6ecc853fbadcf440d710f29c8e182fe8151f3f7751a82/inductor_cache/qj/cqjys2nmfq5ipwxymb33axfl4q25zfh63m3h6cc2rqhnk2zzvsmp.py":43:32)
#loc18 = loc("/home/ericbuehler/.cache/vllm/torch_compile_cache/torch_aot_compile/90537ea14f244a5187d6ecc853fbadcf440d710f29c8e182fe8151f3f7751a82/inductor_cache/qj/cqjys2nmfq5ipwxymb33axfl4q25zfh63m3h6cc2rqhnk2zzvsmp.py":43:48)
#loc19 = loc("/home/ericbuehler/.cache/vllm/torch_compile_cache/torch_aot_compile/90537ea14f244a5187d6ecc853fbadcf440d710f29c8e182fe8151f3f7751a82/inductor_cache/qj/cqjys2nmfq5ipwxymb33axfl4q25zfh63m3h6cc2rqhnk2zzvsmp.py":43:41)
#loc20 = loc("/home/ericbuehler/.cache/vllm/torch_compile_cache/torch_aot_compile/90537ea14f244a5187d6ecc853fbadcf440d710f29c8e182fe8151f3f7751a82/inductor_cache/qj/cqjys2nmfq5ipwxymb33axfl4q25zfh63m3h6cc2rqhnk2zzvsmp.py":43:61)
#loc21 = loc("/home/ericbuehler/.cache/vllm/torch_compile_cache/torch_aot_compile/90537ea14f244a5187d6ecc853fbadcf440d710f29c8e182fe8151f3f7751a82/inductor_cache/qj/cqjys2nmfq5ipwxymb33axfl4q25zfh63m3h6cc2rqhnk2zzvsmp.py":43:59)
#loc22 = loc("/home/ericbuehler/.cache/vllm/torch_compile_cache/torch_aot_compile/90537ea14f244a5187d6ecc853fbadcf440d710f29c8e182fe8151f3f7751a82/inductor_cache/qj/cqjys2nmfq5ipwxymb33axfl4q25zfh63m3h6cc2rqhnk2zzvsmp.py":43:69)
#loc23 = loc("/home/ericbuehler/.cache/vllm/torch_compile_cache/torch_aot_compile/90537ea14f244a5187d6ecc853fbadcf440d710f29c8e182fe8151f3f7751a82/inductor_cache/qj/cqjys2nmfq5ipwxymb33axfl4q25zfh63m3h6cc2rqhnk2zzvsmp.py":44:46)
#loc24 = loc("/home/ericbuehler/.cache/vllm/torch_compile_cache/torch_aot_compile/90537ea14f244a5187d6ecc853fbadcf440d710f29c8e182fe8151f3f7751a82/inductor_cache/qj/cqjys2nmfq5ipwxymb33axfl4q25zfh63m3h6cc2rqhnk2zzvsmp.py":44:41)
#loc25 = loc("/home/ericbuehler/.cache/vllm/torch_compile_cache/torch_aot_compile/90537ea14f244a5187d6ecc853fbadcf440d710f29c8e182fe8151f3f7751a82/inductor_cache/qj/cqjys2nmfq5ipwxymb33axfl4q25zfh63m3h6cc2rqhnk2zzvsmp.py":44:34)
#loc26 = loc("/home/ericbuehler/.cache/vllm/torch_compile_cache/torch_aot_compile/90537ea14f244a5187d6ecc853fbadcf440d710f29c8e182fe8151f3f7751a82/inductor_cache/qj/cqjys2nmfq5ipwxymb33axfl4q25zfh63m3h6cc2rqhnk2zzvsmp.py":44:63)
#loc27 = loc("/home/ericbuehler/.cache/vllm/torch_compile_cache/torch_aot_compile/90537ea14f244a5187d6ecc853fbadcf440d710f29c8e182fe8151f3f7751a82/inductor_cache/qj/cqjys2nmfq5ipwxymb33axfl4q25zfh63m3h6cc2rqhnk2zzvsmp.py":44:53)
#loc28 = loc("/home/ericbuehler/.cache/vllm/torch_compile_cache/torch_aot_compile/90537ea14f244a5187d6ecc853fbadcf440d710f29c8e182fe8151f3f7751a82/inductor_cache/qj/cqjys2nmfq5ipwxymb33axfl4q25zfh63m3h6cc2rqhnk2zzvsmp.py":44:115)
#loc29 = loc("/home/ericbuehler/.cache/vllm/torch_compile_cache/torch_aot_compile/90537ea14f244a5187d6ecc853fbadcf440d710f29c8e182fe8151f3f7751a82/inductor_cache/qj/cqjys2nmfq5ipwxymb33axfl4q25zfh63m3h6cc2rqhnk2zzvsmp.py":45:23)
#loc30 = loc("/home/ericbuehler/.cache/vllm/torch_compile_cache/torch_aot_compile/90537ea14f244a5187d6ecc853fbadcf440d710f29c8e182fe8151f3f7751a82/inductor_cache/qj/cqjys2nmfq5ipwxymb33axfl4q25zfh63m3h6cc2rqhnk2zzvsmp.py":30:33)
#loc31 = loc("/home/ericbuehler/.cache/vllm/torch_compile_cache/torch_aot_compile/90537ea14f244a5187d6ecc853fbadcf440d710f29c8e182fe8151f3f7751a82/inductor_cache/qj/cqjys2nmfq5ipwxymb33axfl4q25zfh63m3h6cc2rqhnk2zzvsmp.py":47:24)
#loc32 = loc("/home/ericbuehler/.cache/vllm/torch_compile_cache/torch_aot_compile/90537ea14f244a5187d6ecc853fbadcf440d710f29c8e182fe8151f3f7751a82/inductor_cache/qj/cqjys2nmfq5ipwxymb33axfl4q25zfh63m3h6cc2rqhnk2zzvsmp.py":49:25)
#loc33 = loc("/home/ericbuehler/.cache/vllm/torch_compile_cache/torch_aot_compile/90537ea14f244a5187d6ecc853fbadcf440d710f29c8e182fe8151f3f7751a82/inductor_cache/qj/cqjys2nmfq5ipwxymb33axfl4q25zfh63m3h6cc2rqhnk2zzvsmp.py":50:50)
#loc34 = loc("/home/ericbuehler/.cache/vllm/torch_compile_cache/torch_aot_compile/90537ea14f244a5187d6ecc853fbadcf440d710f29c8e182fe8151f3f7751a82/inductor_cache/qj/cqjys2nmfq5ipwxymb33axfl4q25zfh63m3h6cc2rqhnk2zzvsmp.py":51:41)
#loc35 = loc("/home/ericbuehler/.cache/vllm/torch_compile_cache/torch_aot_compile/90537ea14f244a5187d6ecc853fbadcf440d710f29c8e182fe8151f3f7751a82/inductor_cache/qj/cqjys2nmfq5ipwxymb33axfl4q25zfh63m3h6cc2rqhnk2zzvsmp.py":51:36)
#loc36 = loc("/home/ericbuehler/.cache/vllm/torch_compile_cache/torch_aot_compile/90537ea14f244a5187d6ecc853fbadcf440d710f29c8e182fe8151f3f7751a82/inductor_cache/qj/cqjys2nmfq5ipwxymb33axfl4q25zfh63m3h6cc2rqhnk2zzvsmp.py":51:29)
#loc37 = loc("/home/ericbuehler/.cache/vllm/torch_compile_cache/torch_aot_compile/90537ea14f244a5187d6ecc853fbadcf440d710f29c8e182fe8151f3f7751a82/inductor_cache/qj/cqjys2nmfq5ipwxymb33axfl4q25zfh63m3h6cc2rqhnk2zzvsmp.py":51:53)
#loc38 = loc("/home/ericbuehler/.cache/vllm/torch_compile_cache/torch_aot_compile/90537ea14f244a5187d6ecc853fbadcf440d710f29c8e182fe8151f3f7751a82/inductor_cache/qj/cqjys2nmfq5ipwxymb33axfl4q25zfh63m3h6cc2rqhnk2zzvsmp.py":51:8)
#loc39 = loc("/home/ericbuehler/vllm/.venv-bench/lib/python3.12/site-packages/triton/language/standard.py":293:36)
#loc41 = loc("/home/ericbuehler/vllm/.venv-bench/lib/python3.12/site-packages/triton/language/standard.py":263:15)
#loc42 = loc("/home/ericbuehler/.cache/vllm/torch_compile_cache/torch_aot_compile/90537ea14f244a5187d6ecc853fbadcf440d710f29c8e182fe8151f3f7751a82/inductor_cache/qj/cqjys2nmfq5ipwxymb33axfl4q25zfh63m3h6cc2rqhnk2zzvsmp.py":52:30)
#loc43 = loc("/home/ericbuehler/.cache/vllm/torch_compile_cache/torch_aot_compile/90537ea14f244a5187d6ecc853fbadcf440d710f29c8e182fe8151f3f7751a82/inductor_cache/qj/cqjys2nmfq5ipwxymb33axfl4q25zfh63m3h6cc2rqhnk2zzvsmp.py":53:43)
#loc44 = loc("/home/ericbuehler/.cache/vllm/torch_compile_cache/torch_aot_compile/90537ea14f244a5187d6ecc853fbadcf440d710f29c8e182fe8151f3f7751a82/inductor_cache/qj/cqjys2nmfq5ipwxymb33axfl4q25zfh63m3h6cc2rqhnk2zzvsmp.py":54:31)
#loc45 = loc("/home/ericbuehler/.cache/vllm/torch_compile_cache/torch_aot_compile/90537ea14f244a5187d6ecc853fbadcf440d710f29c8e182fe8151f3f7751a82/inductor_cache/qj/cqjys2nmfq5ipwxymb33axfl4q25zfh63m3h6cc2rqhnk2zzvsmp.py":55:29)
#loc46 = loc("/home/ericbuehler/.cache/vllm/torch_compile_cache/torch_aot_compile/90537ea14f244a5187d6ecc853fbadcf440d710f29c8e182fe8151f3f7751a82/inductor_cache/qj/cqjys2nmfq5ipwxymb33axfl4q25zfh63m3h6cc2rqhnk2zzvsmp.py":59:48)
#loc47 = loc("/home/ericbuehler/.cache/vllm/torch_compile_cache/torch_aot_compile/90537ea14f244a5187d6ecc853fbadcf440d710f29c8e182fe8151f3f7751a82/inductor_cache/qj/cqjys2nmfq5ipwxymb33axfl4q25zfh63m3h6cc2rqhnk2zzvsmp.py":59:43)
#loc48 = loc("/home/ericbuehler/.cache/vllm/torch_compile_cache/torch_aot_compile/90537ea14f244a5187d6ecc853fbadcf440d710f29c8e182fe8151f3f7751a82/inductor_cache/qj/cqjys2nmfq5ipwxymb33axfl4q25zfh63m3h6cc2rqhnk2zzvsmp.py":59:36)
#loc49 = loc("/home/ericbuehler/.cache/vllm/torch_compile_cache/torch_aot_compile/90537ea14f244a5187d6ecc853fbadcf440d710f29c8e182fe8151f3f7751a82/inductor_cache/qj/cqjys2nmfq5ipwxymb33axfl4q25zfh63m3h6cc2rqhnk2zzvsmp.py":59:63)
#loc50 = loc("/home/ericbuehler/.cache/vllm/torch_compile_cache/torch_aot_compile/90537ea14f244a5187d6ecc853fbadcf440d710f29c8e182fe8151f3f7751a82/inductor_cache/qj/cqjys2nmfq5ipwxymb33axfl4q25zfh63m3h6cc2rqhnk2zzvsmp.py":59:53)
#loc51 = loc("/home/ericbuehler/.cache/vllm/torch_compile_cache/torch_aot_compile/90537ea14f244a5187d6ecc853fbadcf440d710f29c8e182fe8151f3f7751a82/inductor_cache/qj/cqjys2nmfq5ipwxymb33axfl4q25zfh63m3h6cc2rqhnk2zzvsmp.py":59:115)
#loc52 = loc("/home/ericbuehler/.cache/vllm/torch_compile_cache/torch_aot_compile/90537ea14f244a5187d6ecc853fbadcf440d710f29c8e182fe8151f3f7751a82/inductor_cache/qj/cqjys2nmfq5ipwxymb33axfl4q25zfh63m3h6cc2rqhnk2zzvsmp.py":60:35)
#loc53 = loc("/home/ericbuehler/.cache/vllm/torch_compile_cache/torch_aot_compile/90537ea14f244a5187d6ecc853fbadcf440d710f29c8e182fe8151f3f7751a82/inductor_cache/qj/cqjys2nmfq5ipwxymb33axfl4q25zfh63m3h6cc2rqhnk2zzvsmp.py":60:42)
#loc54 = loc("/home/ericbuehler/.cache/vllm/torch_compile_cache/torch_aot_compile/90537ea14f244a5187d6ecc853fbadcf440d710f29c8e182fe8151f3f7751a82/inductor_cache/qj/cqjys2nmfq5ipwxymb33axfl4q25zfh63m3h6cc2rqhnk2zzvsmp.py":60:95)
#loc55 = loc("/home/ericbuehler/.cache/vllm/torch_compile_cache/torch_aot_compile/90537ea14f244a5187d6ecc853fbadcf440d710f29c8e182fe8151f3f7751a82/inductor_cache/qj/cqjys2nmfq5ipwxymb33axfl4q25zfh63m3h6cc2rqhnk2zzvsmp.py":63:25)
#loc56 = loc("/home/ericbuehler/.cache/vllm/torch_compile_cache/torch_aot_compile/90537ea14f244a5187d6ecc853fbadcf440d710f29c8e182fe8151f3f7751a82/inductor_cache/qj/cqjys2nmfq5ipwxymb33axfl4q25zfh63m3h6cc2rqhnk2zzvsmp.py":65:24)
#loc57 = loc("/home/ericbuehler/.cache/vllm/torch_compile_cache/torch_aot_compile/90537ea14f244a5187d6ecc853fbadcf440d710f29c8e182fe8151f3f7751a82/inductor_cache/qj/cqjys2nmfq5ipwxymb33axfl4q25zfh63m3h6cc2rqhnk2zzvsmp.py":66:32)
#loc58 = loc("/home/ericbuehler/.cache/vllm/torch_compile_cache/torch_aot_compile/90537ea14f244a5187d6ecc853fbadcf440d710f29c8e182fe8151f3f7751a82/inductor_cache/qj/cqjys2nmfq5ipwxymb33axfl4q25zfh63m3h6cc2rqhnk2zzvsmp.py":67:24)
#loc59 = loc("/home/ericbuehler/.cache/vllm/torch_compile_cache/torch_aot_compile/90537ea14f244a5187d6ecc853fbadcf440d710f29c8e182fe8151f3f7751a82/inductor_cache/qj/cqjys2nmfq5ipwxymb33axfl4q25zfh63m3h6cc2rqhnk2zzvsmp.py":69:24)
#loc60 = loc("/home/ericbuehler/.cache/vllm/torch_compile_cache/torch_aot_compile/90537ea14f244a5187d6ecc853fbadcf440d710f29c8e182fe8151f3f7751a82/inductor_cache/qj/cqjys2nmfq5ipwxymb33axfl4q25zfh63m3h6cc2rqhnk2zzvsmp.py":70:29)
#loc61 = loc("/home/ericbuehler/.cache/vllm/torch_compile_cache/torch_aot_compile/90537ea14f244a5187d6ecc853fbadcf440d710f29c8e182fe8151f3f7751a82/inductor_cache/qj/cqjys2nmfq5ipwxymb33axfl4q25zfh63m3h6cc2rqhnk2zzvsmp.py":70:53)
#loc62 = loc("/home/ericbuehler/.cache/vllm/torch_compile_cache/torch_aot_compile/90537ea14f244a5187d6ecc853fbadcf440d710f29c8e182fe8151f3f7751a82/inductor_cache/qj/cqjys2nmfq5ipwxymb33axfl4q25zfh63m3h6cc2rqhnk2zzvsmp.py":53:4)
#loc71 = loc("xoffset"(#loc2))
#loc72 = loc("xmask"(#loc3))
#loc73 = loc("r0_base"(#loc4))
#loc74 = loc("r0_base"(#loc5))
#loc75 = loc("tmp0"(#loc6))
#loc76 = loc("tmp0"(#loc7))
#loc77 = loc("tmp8"(#loc8))
#loc78 = loc("tmp8"(#loc9))
#loc79 = loc("_tmp14"(#loc10))
#loc80 = loc("r0_index"(#loc11))
#loc81 = loc("r0_mask"(#loc12))
#loc82 = loc("tmp1"(#loc13))
#loc83 = loc("tmp3"(#loc14))
#loc84 = loc("tmp4"(#loc15))
#loc85 = loc("tmp5"(#loc16))
#loc86 = loc("tmp7"(#loc23))
#loc87 = loc("tmp7"(#loc24))
#loc88 = loc("tmp7"(#loc25))
#loc89 = loc("tmp7"(#loc26))
#loc90 = loc("tmp7"(#loc27))
#loc91 = loc("tmp7"(#loc28))
#loc92 = loc("tmp10"(#loc29))
#loc93 = loc("tmp9"(#loc30))
#loc94 = loc("tmp12"(#loc31))
#loc95 = loc("tmp15"(#loc32))
#loc96 = loc("_tmp14"(#loc33))
#loc97 = loc(fused[#loc35, #loc34])
#loc99 = loc("tmp14"(#loc42))
#loc100 = loc("r0_index"(#loc44))
#loc101 = loc("r0_mask"(#loc45))
#loc102 = loc("tmp16"(#loc46))
#loc103 = loc("tmp16"(#loc47))
#loc104 = loc("tmp16"(#loc48))
#loc105 = loc("tmp16"(#loc49))
#loc106 = loc("tmp16"(#loc50))
#loc107 = loc("tmp16"(#loc51))
#loc108 = loc("tmp25"(#loc52))
#loc109 = loc("tmp25"(#loc53))
#loc110 = loc("tmp25"(#loc54))
#loc111 = loc("tmp19"(#loc55))
#loc112 = loc("tmp21"(#loc56))
#loc113 = loc("tmp22"(#loc57))
#loc114 = loc("tmp23"(#loc58))
#loc115 = loc("tmp26"(#loc59))
#loc116 = loc(fused[#loc89, #loc72])
#loc117 = loc(fused[#loc92, #loc93])
#loc118 = loc(callsite(#loc39 at #loc98))
#loc120 = loc(fused[#loc103, #loc102])
#loc121 = loc(fused[#loc105, #loc72])
#loc122 = loc(callsite(#loc41 at #loc118))
