#loc = loc("/home/ericbuehler/.cache/vllm/torch_compile_cache/torch_aot_compile/90537ea14f244a5187d6ecc853fbadcf440d710f29c8e182fe8151f3f7751a82/inductor_cache/qj/cqjys2nmfq5ipwxymb33axfl4q25zfh63m3h6cc2rqhnk2zzvsmp.py":18:0)
#loc75 = loc("/home/ericbuehler/vllm/.venv-bench/lib/python3.12/site-packages/triton/language/standard.py":287:0)
#loc77 = loc(unknown)
#loc80 = loc("/home/ericbuehler/vllm/.venv-bench/lib/python3.12/site-packages/triton/language/standard.py":262:0)
#loc84 = loc("in_ptr0"(#loc))
#loc85 = loc("in_ptr1"(#loc))
#loc86 = loc("in_ptr2"(#loc))
#loc87 = loc("in_ptr3"(#loc))
#loc88 = loc("out_ptr0"(#loc))
#loc89 = loc("out_ptr2"(#loc))
#loc90 = loc("xnumel"(#loc))
#loc91 = loc("r0_numel"(#loc))
#loc147 = loc("input"(#loc75))
#loc148 = loc("a"(#loc80))
#loc149 = loc("b"(#loc80))
module {
  tt.func public @triton_red_fused__to_copy_embedding_mul_rms_norm_0(%in_ptr0: !tt.ptr<i32> {tt.divisibility = 16 : i32} loc("in_ptr0"(#loc)), %in_ptr1: !tt.ptr<bf16> {tt.divisibility = 16 : i32} loc("in_ptr1"(#loc)), %in_ptr2: !tt.ptr<bf16> {tt.divisibility = 16 : i32} loc("in_ptr2"(#loc)), %in_ptr3: !tt.ptr<bf16> {tt.divisibility = 16 : i32} loc("in_ptr3"(#loc)), %out_ptr0: !tt.ptr<bf16> {tt.divisibility = 16 : i32} loc("out_ptr0"(#loc)), %out_ptr2: !tt.ptr<bf16> {tt.divisibility = 16 : i32} loc("out_ptr2"(#loc)), %xnumel: i32 loc("xnumel"(#loc)), %r0_numel: i32 {tt.divisibility = 16 : i32} loc("r0_numel"(#loc))) attributes {noinline = false} {
    %r0_numel_0 = arith.constant 2816 : i32 loc(#loc92)
    %xoffset = tt.get_program_id x : i32 loc(#loc93)
    %xoffset_1 = arith.constant 1 : i32 loc(#loc94)
    %xoffset_2 = arith.constant 1 : i32 loc(#loc94)
    %xoffset_3 = arith.muli %xoffset, %xoffset_2 : i32 loc(#loc94)
    %xindex = tt.make_range {end = 1 : i32, start = 0 : i32} : tensor<1xi32> loc(#loc95)
    %xindex_4 = tt.expand_dims %xindex {axis = 1 : i32} : tensor<1xi32> -> tensor<1x1xi32> loc(#loc96)
    %xindex_5 = tt.splat %xoffset_3 : i32 -> tensor<1x1xi32> loc(#loc97)
    %xindex_6 = arith.addi %xindex_5, %xindex_4 : tensor<1x1xi32> loc(#loc97)
    %xmask = tt.splat %xnumel : i32 -> tensor<1x1xi32> loc(#loc98)
    %xmask_7 = arith.cmpi slt, %xindex_6, %xmask : tensor<1x1xi32> loc(#loc98)
    %r0_base = tt.make_range {end = 2048 : i32, start = 0 : i32} : tensor<2048xi32> loc(#loc99)
    %r0_base_8 = tt.expand_dims %r0_base {axis = 0 : i32} : tensor<2048xi32> -> tensor<1x2048xi32> loc(#loc100)
    %tmp0 = tt.splat %in_ptr0 : !tt.ptr<i32> -> tensor<1x1x!tt.ptr<i32>> loc(#loc101)
    %tmp0_9 = tt.addptr %tmp0, %xindex_6 : tensor<1x1x!tt.ptr<i32>>, tensor<1x1xi32> loc(#loc101)
    %tmp0_10 = tt.load %tmp0_9, %xmask_7 evictionPolicy = evict_last : tensor<1x1x!tt.ptr<i32>> loc(#loc102)
    %tmp8 = arith.constant 0 : i32 loc(#loc103)
    %tmp8_11 = tt.addptr %in_ptr2, %tmp8 : !tt.ptr<bf16>, i32 loc(#loc103)
    %tmp8_12 = tt.load %tmp8_11 : !tt.ptr<bf16> loc(#loc104)
    %tmp8_13 = arith.extf %tmp8_12 : bf16 to f32 loc(#loc105)
    %tmp9 = tt.splat %tmp8_13 : f32 -> tensor<1x1xf32> loc(#loc106)
    %_tmp14 = arith.constant 0.000000e+00 : f32 loc(#loc107)
    %_tmp14_14 = arith.constant dense<0.000000e+00> : tensor<1x2048xf32> loc(#loc107)
    %c0_i32 = arith.constant 0 : i32 loc(#loc17)
    %c2048_i32 = arith.constant 2048 : i32 loc(#loc17)
    %0 = arith.bitcast %c0_i32 : i32 to i32 loc(#loc17)
    %1 = arith.bitcast %r0_numel_0 : i32 to i32 loc(#loc17)
    %2 = arith.bitcast %c2048_i32 : i32 to i32 loc(#loc17)
    %3 = ub.poison : i32 loc(#loc17)
    %_tmp14_15 = scf.for %r0_offset = %0 to %1 step %2 iter_args(%_tmp14_19 = %_tmp14_14) -> (tensor<1x2048xf32>)  : i32 {
      %r0_index = tt.splat %r0_offset : i32 -> tensor<1x2048xi32> loc(#loc109)
      %r0_index_20 = arith.addi %r0_index, %r0_base_8 : tensor<1x2048xi32> loc(#loc109)
      %r0_mask = arith.constant dense<2816> : tensor<1x2048xi32> loc(#loc110)
      %r0_mask_21 = arith.cmpi slt, %r0_index_20, %r0_mask : tensor<1x2048xi32> loc(#loc110)
      %tmp1 = arith.extsi %tmp0_10 : tensor<1x1xi32> to tensor<1x1xi64> loc(#loc111)
      %tmp2 = arith.constant 262144 : i32 loc(#loc112)
      %tmp2_22 = arith.constant dense<262144> : tensor<1x1xi32> loc(#loc112)
      %tmp3 = arith.extsi %tmp2_22 : tensor<1x1xi32> to tensor<1x1xi64> loc(#loc113)
      %tmp3_23 = arith.addi %tmp1, %tmp3 : tensor<1x1xi64> loc(#loc113)
      %tmp4 = arith.constant 0 : i32 loc(#loc114)
      %tmp4_24 = arith.extsi %tmp4 : i32 to i64 loc(#loc114)
      %tmp4_25 = tt.splat %tmp4_24 : i64 -> tensor<1x1xi64> loc(#loc114)
      %tmp4_26 = arith.cmpi slt, %tmp1, %tmp4_25 : tensor<1x1xi64> loc(#loc114)
      %tmp5 = arith.select %tmp4_26, %tmp3_23, %tmp1 : tensor<1x1xi1>, tensor<1x1xi64> loc(#loc115)
      %c0_i32_27 = arith.constant 0 : i32 loc(#loc25)
      %8 = arith.extsi %c0_i32_27 : i32 to i64 loc(#loc25)
      %9 = tt.splat %8 : i64 -> tensor<1x1xi64> loc(#loc25)
      %10 = arith.cmpi sle, %9, %tmp5 : tensor<1x1xi64> loc(#loc25)
      %c262144_i32 = arith.constant 262144 : i32 loc(#loc26)
      %11 = arith.extsi %c262144_i32 : i32 to i64 loc(#loc26)
      %12 = tt.splat %11 : i64 -> tensor<1x1xi64> loc(#loc26)
      %13 = arith.cmpi slt, %tmp5, %12 : tensor<1x1xi64> loc(#loc26)
      %14 = arith.andi %10, %13 : tensor<1x1xi1> loc(#loc27)
      %true = arith.constant true loc(#loc28)
      %cst = arith.constant dense<true> : tensor<1x1xi1> loc(#loc28)
      %15 = arith.xori %xmask_7, %cst : tensor<1x1xi1> loc(#loc28)
      %16 = arith.ori %14, %15 : tensor<1x1xi1> loc(#loc29)
      tt.assert %16, "index out of bounds: 0 <= tmp5 < 262144" : tensor<1x1xi1> loc(#loc30)
      %tmp7 = arith.constant 2816 : i32 loc(#loc116)
      %tmp7_28 = arith.constant 2816 : i64 loc(#loc116)
      %tmp7_29 = arith.constant dense<2816> : tensor<1x1xi64> loc(#loc116)
      %tmp7_30 = arith.muli %tmp7_29, %tmp5 : tensor<1x1xi64> loc(#loc116)
      %tmp7_31 = arith.extsi %r0_index_20 : tensor<1x2048xi32> to tensor<1x2048xi64> loc(#loc117)
      %tmp7_32 = tt.broadcast %tmp7_30 : tensor<1x1xi64> -> tensor<1x2048xi64> loc(#loc117)
      %tmp7_33 = arith.addi %tmp7_31, %tmp7_32 : tensor<1x2048xi64> loc(#loc117)
      %tmp7_34 = tt.splat %in_ptr1 : !tt.ptr<bf16> -> tensor<1x2048x!tt.ptr<bf16>> loc(#loc118)
      %tmp7_35 = tt.addptr %tmp7_34, %tmp7_33 : tensor<1x2048x!tt.ptr<bf16>>, tensor<1x2048xi64> loc(#loc118)
      %tmp7_36 = tt.broadcast %xmask_7 : tensor<1x1xi1> -> tensor<1x2048xi1> loc(#loc119)
      %tmp7_37 = arith.andi %r0_mask_21, %tmp7_36 : tensor<1x2048xi1> loc(#loc119)
      %tmp7_38 = arith.constant 0.000000e+00 : f32 loc(#loc120)
      %tmp7_39 = arith.constant dense<0.000000e+00> : tensor<1x2048xf32> loc(#loc120)
      %tmp7_40 = arith.truncf %tmp7_39 : tensor<1x2048xf32> to tensor<1x2048xbf16> loc(#loc120)
      %tmp7_41 = tt.load %tmp7_35, %tmp7_37, %tmp7_40 evictionPolicy = evict_first : tensor<1x2048x!tt.ptr<bf16>> loc(#loc120)
      %tmp7_42 = arith.extf %tmp7_41 : tensor<1x2048xbf16> to tensor<1x2048xf32> loc(#loc121)
      %tmp10 = tt.broadcast %tmp9 : tensor<1x1xf32> -> tensor<1x2048xf32> loc(#loc122)
      %tmp10_43 = arith.mulf %tmp7_42, %tmp10 : tensor<1x2048xf32> loc(#loc122)
      %tmp12 = arith.mulf %tmp10_43, %tmp10_43 : tensor<1x2048xf32> loc(#loc123)
      %tmp15 = arith.addf %_tmp14_19, %tmp12 : tensor<1x2048xf32> loc(#loc124)
      %_tmp14_44 = tt.broadcast %xmask_7 : tensor<1x1xi1> -> tensor<1x2048xi1> loc(#loc125)
      %_tmp14_45 = arith.andi %r0_mask_21, %_tmp14_44 : tensor<1x2048xi1> loc(#loc125)
      %_tmp14_46 = arith.select %_tmp14_45, %tmp15, %_tmp14_19 : tensor<1x2048xi1>, tensor<1x2048xf32> loc(#loc126)
      %c2816_i32 = arith.constant 2816 : i32 loc(#loc42)
      %c2816_i32_47 = arith.constant 2816 : i32 loc(#loc42)
      %cst_48 = arith.constant dense<2816> : tensor<1x1xi32> loc(#loc42)
      %17 = arith.muli %cst_48, %xindex_6 : tensor<1x1xi32> loc(#loc42)
      %18 = tt.broadcast %17 : tensor<1x1xi32> -> tensor<1x2048xi32> loc(#loc43)
      %19 = arith.addi %r0_index_20, %18 : tensor<1x2048xi32> loc(#loc43)
      %20 = tt.splat %out_ptr0 : !tt.ptr<bf16> -> tensor<1x2048x!tt.ptr<bf16>> loc(#loc44)
      %21 = tt.addptr %20, %19 : tensor<1x2048x!tt.ptr<bf16>>, tensor<1x2048xi32> loc(#loc44)
      %22 = tt.broadcast %xmask_7 : tensor<1x1xi1> -> tensor<1x2048xi1> loc(#loc45)
      %23 = arith.andi %r0_mask_21, %22 : tensor<1x2048xi1> loc(#loc45)
      %24 = arith.truncf %tmp10_43 : tensor<1x2048xf32> to tensor<1x2048xbf16> loc(#loc46)
      tt.store %21, %24, %23 : tensor<1x2048x!tt.ptr<bf16>> loc(#loc46)
      scf.yield %_tmp14_46 : tensor<1x2048xf32> loc(#loc47)
    } loc(#loc108)
    %tmp14 = tt.call @"triton.language.standard.sum__fp32S1_2048S__(1,)cconstexpr_1__(2,)cconstexpr_False__(3,)cNone"(%_tmp14_15) : (tensor<1x2048xf32>) -> tensor<1xf32> loc(#loc127)
    %tmp14_16 = tt.expand_dims %tmp14 {axis = 1 : i32} : tensor<1xf32> -> tensor<1x1xf32> loc(#loc128)
    %c0_i32_17 = arith.constant 0 : i32 loc(#loc50)
    %c2048_i32_18 = arith.constant 2048 : i32 loc(#loc50)
    %4 = arith.bitcast %c0_i32_17 : i32 to i32 loc(#loc50)
    %5 = arith.bitcast %r0_numel_0 : i32 to i32 loc(#loc50)
    %6 = arith.bitcast %c2048_i32_18 : i32 to i32 loc(#loc50)
    %7 = ub.poison : i32 loc(#loc50)
    scf.for %r0_offset = %4 to %5 step %6  : i32 {
      %r0_index = tt.splat %r0_offset : i32 -> tensor<1x2048xi32> loc(#loc129)
      %r0_index_19 = arith.addi %r0_index, %r0_base_8 : tensor<1x2048xi32> loc(#loc129)
      %r0_mask = arith.constant dense<2816> : tensor<1x2048xi32> loc(#loc130)
      %r0_mask_20 = arith.cmpi slt, %r0_index_19, %r0_mask : tensor<1x2048xi32> loc(#loc130)
      %tmp16 = arith.constant 2816 : i32 loc(#loc131)
      %tmp16_21 = arith.constant 2816 : i32 loc(#loc131)
      %tmp16_22 = arith.constant dense<2816> : tensor<1x1xi32> loc(#loc131)
      %tmp16_23 = arith.muli %tmp16_22, %xindex_6 : tensor<1x1xi32> loc(#loc131)
      %tmp16_24 = tt.broadcast %tmp16_23 : tensor<1x1xi32> -> tensor<1x2048xi32> loc(#loc132)
      %tmp16_25 = arith.addi %r0_index_19, %tmp16_24 : tensor<1x2048xi32> loc(#loc132)
      %tmp16_26 = tt.splat %out_ptr0 : !tt.ptr<bf16> -> tensor<1x2048x!tt.ptr<bf16>> loc(#loc133)
      %tmp16_27 = tt.addptr %tmp16_26, %tmp16_25 : tensor<1x2048x!tt.ptr<bf16>>, tensor<1x2048xi32> loc(#loc133)
      %tmp16_28 = tt.broadcast %xmask_7 : tensor<1x1xi1> -> tensor<1x2048xi1> loc(#loc134)
      %tmp16_29 = arith.andi %r0_mask_20, %tmp16_28 : tensor<1x2048xi1> loc(#loc134)
      %tmp16_30 = arith.constant 0.000000e+00 : f32 loc(#loc135)
      %tmp16_31 = arith.constant dense<0.000000e+00> : tensor<1x2048xf32> loc(#loc135)
      %tmp16_32 = arith.truncf %tmp16_31 : tensor<1x2048xf32> to tensor<1x2048xbf16> loc(#loc135)
      %tmp16_33 = tt.load %tmp16_27, %tmp16_29, %tmp16_32 evictionPolicy = evict_first : tensor<1x2048x!tt.ptr<bf16>> loc(#loc135)
      %tmp16_34 = arith.extf %tmp16_33 : tensor<1x2048xbf16> to tensor<1x2048xf32> loc(#loc136)
      %tmp25 = tt.splat %in_ptr3 : !tt.ptr<bf16> -> tensor<1x2048x!tt.ptr<bf16>> loc(#loc137)
      %tmp25_35 = tt.addptr %tmp25, %r0_index_19 : tensor<1x2048x!tt.ptr<bf16>>, tensor<1x2048xi32> loc(#loc137)
      %tmp25_36 = arith.constant 0.000000e+00 : f32 loc(#loc138)
      %tmp25_37 = arith.constant dense<0.000000e+00> : tensor<1x2048xf32> loc(#loc138)
      %tmp25_38 = arith.truncf %tmp25_37 : tensor<1x2048xf32> to tensor<1x2048xbf16> loc(#loc138)
      %tmp25_39 = tt.load %tmp25_35, %r0_mask_20, %tmp25_38 evictionPolicy = evict_last : tensor<1x2048x!tt.ptr<bf16>> loc(#loc138)
      %tmp25_40 = arith.extf %tmp25_39 : tensor<1x2048xbf16> to tensor<1x2048xf32> loc(#loc139)
      %tmp18 = arith.constant 2.816000e+03 : f32 loc(#loc140)
      %tmp18_41 = arith.constant dense<2.816000e+03> : tensor<1x1xf32> loc(#loc140)
      %tmp19 = arith.divf %tmp14_16, %tmp18_41 : tensor<1x1xf32> loc(#loc141)
      %tmp20 = arith.constant 9.99999997E-7 : f32 loc(#loc142)
      %tmp20_42 = arith.constant dense<9.99999997E-7> : tensor<1x1xf32> loc(#loc142)
      %tmp21 = arith.addf %tmp19, %tmp20_42 : tensor<1x1xf32> loc(#loc143)
      %tmp22 = tt.extern_elementwise %tmp21 {libname = "", libpath = "", pure = true, symbol = "__nv_rsqrtf"} : (tensor<1x1xf32>) -> tensor<1x1xf32> loc(#loc144)
      %tmp23 = tt.broadcast %tmp22 : tensor<1x1xf32> -> tensor<1x2048xf32> loc(#loc145)
      %tmp23_43 = arith.mulf %tmp16_34, %tmp23 : tensor<1x2048xf32> loc(#loc145)
      %tmp26 = arith.mulf %tmp23_43, %tmp25_40 : tensor<1x2048xf32> loc(#loc146)
      %c2816_i32 = arith.constant 2816 : i32 loc(#loc69)
      %c2816_i32_44 = arith.constant 2816 : i32 loc(#loc69)
      %cst = arith.constant dense<2816> : tensor<1x1xi32> loc(#loc69)
      %8 = arith.muli %cst, %xindex_6 : tensor<1x1xi32> loc(#loc69)
      %9 = tt.broadcast %8 : tensor<1x1xi32> -> tensor<1x2048xi32> loc(#loc70)
      %10 = arith.addi %r0_index_19, %9 : tensor<1x2048xi32> loc(#loc70)
      %11 = tt.splat %out_ptr2 : !tt.ptr<bf16> -> tensor<1x2048x!tt.ptr<bf16>> loc(#loc71)
      %12 = tt.addptr %11, %10 : tensor<1x2048x!tt.ptr<bf16>>, tensor<1x2048xi32> loc(#loc71)
      %13 = tt.broadcast %xmask_7 : tensor<1x1xi1> -> tensor<1x2048xi1> loc(#loc72)
      %14 = arith.andi %r0_mask_20, %13 : tensor<1x2048xi1> loc(#loc72)
      %15 = arith.truncf %tmp26 : tensor<1x2048xf32> to tensor<1x2048xbf16> loc(#loc73)
      tt.store %12, %15, %14 : tensor<1x2048x!tt.ptr<bf16>> loc(#loc73)
    } loc(#loc50)
    tt.return loc(#loc74)
  } loc(#loc)
  tt.func private @"triton.language.standard.sum__fp32S1_2048S__(1,)cconstexpr_1__(2,)cconstexpr_False__(3,)cNone"(%input: tensor<1x2048xf32> loc("input"(#loc75))) -> tensor<1xf32> attributes {noinline = false} {
    %0 = "tt.reduce"(%input) <{axis = 1 : i32}> ({
    ^bb0(%arg1: f32 loc(unknown), %arg2: f32 loc(unknown)):
      %2 = tt.call @triton.language.standard._sum_combine__fp32_fp32__(%arg1, %arg2) : (f32, f32) -> f32 loc(#loc76)
      tt.reduce.return %2 : f32 loc(#loc76)
    }) : (tensor<1x2048xf32>) -> tensor<1xf32> loc(#loc76)
    tt.return %0 : tensor<1xf32> loc(#loc78)
  ^bb1:  // no predecessors
    %1 = ub.poison : tensor<1xf32> loc(#loc79)
    tt.return %1 : tensor<1xf32> loc(#loc79)
  } loc(#loc75)
  tt.func private @triton.language.standard._sum_combine__fp32_fp32__(%a: f32 loc("a"(#loc80)), %b: f32 loc("b"(#loc80))) -> f32 attributes {noinline = false} {
    %0 = arith.addf %a, %b : f32 loc(#loc81)
    tt.return %0 : f32 loc(#loc82)
  ^bb1:  // no predecessors
    %1 = ub.poison : f32 loc(#loc83)
    tt.return %1 : f32 loc(#loc83)
  } loc(#loc80)
} loc(#loc)
#loc1 = loc("/home/ericbuehler/.cache/vllm/torch_compile_cache/torch_aot_compile/90537ea14f244a5187d6ecc853fbadcf440d710f29c8e182fe8151f3f7751a82/inductor_cache/qj/cqjys2nmfq5ipwxymb33axfl4q25zfh63m3h6cc2rqhnk2zzvsmp.py":19:15)
#loc2 = loc("/home/ericbuehler/.cache/vllm/torch_compile_cache/torch_aot_compile/90537ea14f244a5187d6ecc853fbadcf440d710f29c8e182fe8151f3f7751a82/inductor_cache/qj/cqjys2nmfq5ipwxymb33axfl4q25zfh63m3h6cc2rqhnk2zzvsmp.py":22:28)
#loc3 = loc("/home/ericbuehler/.cache/vllm/torch_compile_cache/torch_aot_compile/90537ea14f244a5187d6ecc853fbadcf440d710f29c8e182fe8151f3f7751a82/inductor_cache/qj/cqjys2nmfq5ipwxymb33axfl4q25zfh63m3h6cc2rqhnk2zzvsmp.py":22:33)
#loc4 = loc("/home/ericbuehler/.cache/vllm/torch_compile_cache/torch_aot_compile/90537ea14f244a5187d6ecc853fbadcf440d710f29c8e182fe8151f3f7751a82/inductor_cache/qj/cqjys2nmfq5ipwxymb33axfl4q25zfh63m3h6cc2rqhnk2zzvsmp.py":23:36)
#loc5 = loc("/home/ericbuehler/.cache/vllm/torch_compile_cache/torch_aot_compile/90537ea14f244a5187d6ecc853fbadcf440d710f29c8e182fe8151f3f7751a82/inductor_cache/qj/cqjys2nmfq5ipwxymb33axfl4q25zfh63m3h6cc2rqhnk2zzvsmp.py":23:44)
#loc6 = loc("/home/ericbuehler/.cache/vllm/torch_compile_cache/torch_aot_compile/90537ea14f244a5187d6ecc853fbadcf440d710f29c8e182fe8151f3f7751a82/inductor_cache/qj/cqjys2nmfq5ipwxymb33axfl4q25zfh63m3h6cc2rqhnk2zzvsmp.py":23:23)
#loc7 = loc("/home/ericbuehler/.cache/vllm/torch_compile_cache/torch_aot_compile/90537ea14f244a5187d6ecc853fbadcf440d710f29c8e182fe8151f3f7751a82/inductor_cache/qj/cqjys2nmfq5ipwxymb33axfl4q25zfh63m3h6cc2rqhnk2zzvsmp.py":24:21)
#loc8 = loc("/home/ericbuehler/.cache/vllm/torch_compile_cache/torch_aot_compile/90537ea14f244a5187d6ecc853fbadcf440d710f29c8e182fe8151f3f7751a82/inductor_cache/qj/cqjys2nmfq5ipwxymb33axfl4q25zfh63m3h6cc2rqhnk2zzvsmp.py":25:27)
#loc9 = loc("/home/ericbuehler/.cache/vllm/torch_compile_cache/torch_aot_compile/90537ea14f244a5187d6ecc853fbadcf440d710f29c8e182fe8151f3f7751a82/inductor_cache/qj/cqjys2nmfq5ipwxymb33axfl4q25zfh63m3h6cc2rqhnk2zzvsmp.py":25:37)
#loc10 = loc("/home/ericbuehler/.cache/vllm/torch_compile_cache/torch_aot_compile/90537ea14f244a5187d6ecc853fbadcf440d710f29c8e182fe8151f3f7751a82/inductor_cache/qj/cqjys2nmfq5ipwxymb33axfl4q25zfh63m3h6cc2rqhnk2zzvsmp.py":28:30)
#loc11 = loc("/home/ericbuehler/.cache/vllm/torch_compile_cache/torch_aot_compile/90537ea14f244a5187d6ecc853fbadcf440d710f29c8e182fe8151f3f7751a82/inductor_cache/qj/cqjys2nmfq5ipwxymb33axfl4q25zfh63m3h6cc2rqhnk2zzvsmp.py":28:35)
#loc12 = loc("/home/ericbuehler/.cache/vllm/torch_compile_cache/torch_aot_compile/90537ea14f244a5187d6ecc853fbadcf440d710f29c8e182fe8151f3f7751a82/inductor_cache/qj/cqjys2nmfq5ipwxymb33axfl4q25zfh63m3h6cc2rqhnk2zzvsmp.py":29:30)
#loc13 = loc("/home/ericbuehler/.cache/vllm/torch_compile_cache/torch_aot_compile/90537ea14f244a5187d6ecc853fbadcf440d710f29c8e182fe8151f3f7751a82/inductor_cache/qj/cqjys2nmfq5ipwxymb33axfl4q25zfh63m3h6cc2rqhnk2zzvsmp.py":29:19)
#loc14 = loc("/home/ericbuehler/.cache/vllm/torch_compile_cache/torch_aot_compile/90537ea14f244a5187d6ecc853fbadcf440d710f29c8e182fe8151f3f7751a82/inductor_cache/qj/cqjys2nmfq5ipwxymb33axfl4q25zfh63m3h6cc2rqhnk2zzvsmp.py":29:37)
#loc15 = loc("/home/ericbuehler/.cache/vllm/torch_compile_cache/torch_aot_compile/90537ea14f244a5187d6ecc853fbadcf440d710f29c8e182fe8151f3f7751a82/inductor_cache/qj/cqjys2nmfq5ipwxymb33axfl4q25zfh63m3h6cc2rqhnk2zzvsmp.py":30:33)
#loc16 = loc("/home/ericbuehler/.cache/vllm/torch_compile_cache/torch_aot_compile/90537ea14f244a5187d6ecc853fbadcf440d710f29c8e182fe8151f3f7751a82/inductor_cache/qj/cqjys2nmfq5ipwxymb33axfl4q25zfh63m3h6cc2rqhnk2zzvsmp.py":31:44)
#loc17 = loc("/home/ericbuehler/.cache/vllm/torch_compile_cache/torch_aot_compile/90537ea14f244a5187d6ecc853fbadcf440d710f29c8e182fe8151f3f7751a82/inductor_cache/qj/cqjys2nmfq5ipwxymb33axfl4q25zfh63m3h6cc2rqhnk2zzvsmp.py":32:43)
#loc18 = loc("/home/ericbuehler/.cache/vllm/torch_compile_cache/torch_aot_compile/90537ea14f244a5187d6ecc853fbadcf440d710f29c8e182fe8151f3f7751a82/inductor_cache/qj/cqjys2nmfq5ipwxymb33axfl4q25zfh63m3h6cc2rqhnk2zzvsmp.py":33:31)
#loc19 = loc("/home/ericbuehler/.cache/vllm/torch_compile_cache/torch_aot_compile/90537ea14f244a5187d6ecc853fbadcf440d710f29c8e182fe8151f3f7751a82/inductor_cache/qj/cqjys2nmfq5ipwxymb33axfl4q25zfh63m3h6cc2rqhnk2zzvsmp.py":34:29)
#loc20 = loc("/home/ericbuehler/.cache/vllm/torch_compile_cache/torch_aot_compile/90537ea14f244a5187d6ecc853fbadcf440d710f29c8e182fe8151f3f7751a82/inductor_cache/qj/cqjys2nmfq5ipwxymb33axfl4q25zfh63m3h6cc2rqhnk2zzvsmp.py":38:23)
#loc21 = loc("/home/ericbuehler/.cache/vllm/torch_compile_cache/torch_aot_compile/90537ea14f244a5187d6ecc853fbadcf440d710f29c8e182fe8151f3f7751a82/inductor_cache/qj/cqjys2nmfq5ipwxymb33axfl4q25zfh63m3h6cc2rqhnk2zzvsmp.py":39:39)
#loc22 = loc("/home/ericbuehler/.cache/vllm/torch_compile_cache/torch_aot_compile/90537ea14f244a5187d6ecc853fbadcf440d710f29c8e182fe8151f3f7751a82/inductor_cache/qj/cqjys2nmfq5ipwxymb33axfl4q25zfh63m3h6cc2rqhnk2zzvsmp.py":40:22)
#loc23 = loc("/home/ericbuehler/.cache/vllm/torch_compile_cache/torch_aot_compile/90537ea14f244a5187d6ecc853fbadcf440d710f29c8e182fe8151f3f7751a82/inductor_cache/qj/cqjys2nmfq5ipwxymb33axfl4q25zfh63m3h6cc2rqhnk2zzvsmp.py":41:22)
#loc24 = loc("/home/ericbuehler/.cache/vllm/torch_compile_cache/torch_aot_compile/90537ea14f244a5187d6ecc853fbadcf440d710f29c8e182fe8151f3f7751a82/inductor_cache/qj/cqjys2nmfq5ipwxymb33axfl4q25zfh63m3h6cc2rqhnk2zzvsmp.py":42:36)
#loc25 = loc("/home/ericbuehler/.cache/vllm/torch_compile_cache/torch_aot_compile/90537ea14f244a5187d6ecc853fbadcf440d710f29c8e182fe8151f3f7751a82/inductor_cache/qj/cqjys2nmfq5ipwxymb33axfl4q25zfh63m3h6cc2rqhnk2zzvsmp.py":43:32)
#loc26 = loc("/home/ericbuehler/.cache/vllm/torch_compile_cache/torch_aot_compile/90537ea14f244a5187d6ecc853fbadcf440d710f29c8e182fe8151f3f7751a82/inductor_cache/qj/cqjys2nmfq5ipwxymb33axfl4q25zfh63m3h6cc2rqhnk2zzvsmp.py":43:48)
#loc27 = loc("/home/ericbuehler/.cache/vllm/torch_compile_cache/torch_aot_compile/90537ea14f244a5187d6ecc853fbadcf440d710f29c8e182fe8151f3f7751a82/inductor_cache/qj/cqjys2nmfq5ipwxymb33axfl4q25zfh63m3h6cc2rqhnk2zzvsmp.py":43:41)
#loc28 = loc("/home/ericbuehler/.cache/vllm/torch_compile_cache/torch_aot_compile/90537ea14f244a5187d6ecc853fbadcf440d710f29c8e182fe8151f3f7751a82/inductor_cache/qj/cqjys2nmfq5ipwxymb33axfl4q25zfh63m3h6cc2rqhnk2zzvsmp.py":43:61)
#loc29 = loc("/home/ericbuehler/.cache/vllm/torch_compile_cache/torch_aot_compile/90537ea14f244a5187d6ecc853fbadcf440d710f29c8e182fe8151f3f7751a82/inductor_cache/qj/cqjys2nmfq5ipwxymb33axfl4q25zfh63m3h6cc2rqhnk2zzvsmp.py":43:59)
#loc30 = loc("/home/ericbuehler/.cache/vllm/torch_compile_cache/torch_aot_compile/90537ea14f244a5187d6ecc853fbadcf440d710f29c8e182fe8151f3f7751a82/inductor_cache/qj/cqjys2nmfq5ipwxymb33axfl4q25zfh63m3h6cc2rqhnk2zzvsmp.py":43:69)
#loc31 = loc("/home/ericbuehler/.cache/vllm/torch_compile_cache/torch_aot_compile/90537ea14f244a5187d6ecc853fbadcf440d710f29c8e182fe8151f3f7751a82/inductor_cache/qj/cqjys2nmfq5ipwxymb33axfl4q25zfh63m3h6cc2rqhnk2zzvsmp.py":44:46)
#loc32 = loc("/home/ericbuehler/.cache/vllm/torch_compile_cache/torch_aot_compile/90537ea14f244a5187d6ecc853fbadcf440d710f29c8e182fe8151f3f7751a82/inductor_cache/qj/cqjys2nmfq5ipwxymb33axfl4q25zfh63m3h6cc2rqhnk2zzvsmp.py":44:41)
#loc33 = loc("/home/ericbuehler/.cache/vllm/torch_compile_cache/torch_aot_compile/90537ea14f244a5187d6ecc853fbadcf440d710f29c8e182fe8151f3f7751a82/inductor_cache/qj/cqjys2nmfq5ipwxymb33axfl4q25zfh63m3h6cc2rqhnk2zzvsmp.py":44:34)
#loc34 = loc("/home/ericbuehler/.cache/vllm/torch_compile_cache/torch_aot_compile/90537ea14f244a5187d6ecc853fbadcf440d710f29c8e182fe8151f3f7751a82/inductor_cache/qj/cqjys2nmfq5ipwxymb33axfl4q25zfh63m3h6cc2rqhnk2zzvsmp.py":44:63)
#loc35 = loc("/home/ericbuehler/.cache/vllm/torch_compile_cache/torch_aot_compile/90537ea14f244a5187d6ecc853fbadcf440d710f29c8e182fe8151f3f7751a82/inductor_cache/qj/cqjys2nmfq5ipwxymb33axfl4q25zfh63m3h6cc2rqhnk2zzvsmp.py":44:53)
#loc36 = loc("/home/ericbuehler/.cache/vllm/torch_compile_cache/torch_aot_compile/90537ea14f244a5187d6ecc853fbadcf440d710f29c8e182fe8151f3f7751a82/inductor_cache/qj/cqjys2nmfq5ipwxymb33axfl4q25zfh63m3h6cc2rqhnk2zzvsmp.py":44:115)
#loc37 = loc("/home/ericbuehler/.cache/vllm/torch_compile_cache/torch_aot_compile/90537ea14f244a5187d6ecc853fbadcf440d710f29c8e182fe8151f3f7751a82/inductor_cache/qj/cqjys2nmfq5ipwxymb33axfl4q25zfh63m3h6cc2rqhnk2zzvsmp.py":45:23)
#loc38 = loc("/home/ericbuehler/.cache/vllm/torch_compile_cache/torch_aot_compile/90537ea14f244a5187d6ecc853fbadcf440d710f29c8e182fe8151f3f7751a82/inductor_cache/qj/cqjys2nmfq5ipwxymb33axfl4q25zfh63m3h6cc2rqhnk2zzvsmp.py":47:24)
#loc39 = loc("/home/ericbuehler/.cache/vllm/torch_compile_cache/torch_aot_compile/90537ea14f244a5187d6ecc853fbadcf440d710f29c8e182fe8151f3f7751a82/inductor_cache/qj/cqjys2nmfq5ipwxymb33axfl4q25zfh63m3h6cc2rqhnk2zzvsmp.py":49:25)
#loc40 = loc("/home/ericbuehler/.cache/vllm/torch_compile_cache/torch_aot_compile/90537ea14f244a5187d6ecc853fbadcf440d710f29c8e182fe8151f3f7751a82/inductor_cache/qj/cqjys2nmfq5ipwxymb33axfl4q25zfh63m3h6cc2rqhnk2zzvsmp.py":50:36)
#loc41 = loc("/home/ericbuehler/.cache/vllm/torch_compile_cache/torch_aot_compile/90537ea14f244a5187d6ecc853fbadcf440d710f29c8e182fe8151f3f7751a82/inductor_cache/qj/cqjys2nmfq5ipwxymb33axfl4q25zfh63m3h6cc2rqhnk2zzvsmp.py":50:50)
#loc42 = loc("/home/ericbuehler/.cache/vllm/torch_compile_cache/torch_aot_compile/90537ea14f244a5187d6ecc853fbadcf440d710f29c8e182fe8151f3f7751a82/inductor_cache/qj/cqjys2nmfq5ipwxymb33axfl4q25zfh63m3h6cc2rqhnk2zzvsmp.py":51:41)
#loc43 = loc("/home/ericbuehler/.cache/vllm/torch_compile_cache/torch_aot_compile/90537ea14f244a5187d6ecc853fbadcf440d710f29c8e182fe8151f3f7751a82/inductor_cache/qj/cqjys2nmfq5ipwxymb33axfl4q25zfh63m3h6cc2rqhnk2zzvsmp.py":51:36)
#loc44 = loc("/home/ericbuehler/.cache/vllm/torch_compile_cache/torch_aot_compile/90537ea14f244a5187d6ecc853fbadcf440d710f29c8e182fe8151f3f7751a82/inductor_cache/qj/cqjys2nmfq5ipwxymb33axfl4q25zfh63m3h6cc2rqhnk2zzvsmp.py":51:29)
#loc45 = loc("/home/ericbuehler/.cache/vllm/torch_compile_cache/torch_aot_compile/90537ea14f244a5187d6ecc853fbadcf440d710f29c8e182fe8151f3f7751a82/inductor_cache/qj/cqjys2nmfq5ipwxymb33axfl4q25zfh63m3h6cc2rqhnk2zzvsmp.py":51:63)
#loc46 = loc("/home/ericbuehler/.cache/vllm/torch_compile_cache/torch_aot_compile/90537ea14f244a5187d6ecc853fbadcf440d710f29c8e182fe8151f3f7751a82/inductor_cache/qj/cqjys2nmfq5ipwxymb33axfl4q25zfh63m3h6cc2rqhnk2zzvsmp.py":51:53)
#loc47 = loc("/home/ericbuehler/.cache/vllm/torch_compile_cache/torch_aot_compile/90537ea14f244a5187d6ecc853fbadcf440d710f29c8e182fe8151f3f7751a82/inductor_cache/qj/cqjys2nmfq5ipwxymb33axfl4q25zfh63m3h6cc2rqhnk2zzvsmp.py":51:8)
#loc48 = loc("/home/ericbuehler/.cache/vllm/torch_compile_cache/torch_aot_compile/90537ea14f244a5187d6ecc853fbadcf440d710f29c8e182fe8151f3f7751a82/inductor_cache/qj/cqjys2nmfq5ipwxymb33axfl4q25zfh63m3h6cc2rqhnk2zzvsmp.py":52:27)
#loc49 = loc("/home/ericbuehler/.cache/vllm/torch_compile_cache/torch_aot_compile/90537ea14f244a5187d6ecc853fbadcf440d710f29c8e182fe8151f3f7751a82/inductor_cache/qj/cqjys2nmfq5ipwxymb33axfl4q25zfh63m3h6cc2rqhnk2zzvsmp.py":52:30)
#loc50 = loc("/home/ericbuehler/.cache/vllm/torch_compile_cache/torch_aot_compile/90537ea14f244a5187d6ecc853fbadcf440d710f29c8e182fe8151f3f7751a82/inductor_cache/qj/cqjys2nmfq5ipwxymb33axfl4q25zfh63m3h6cc2rqhnk2zzvsmp.py":53:43)
#loc51 = loc("/home/ericbuehler/.cache/vllm/torch_compile_cache/torch_aot_compile/90537ea14f244a5187d6ecc853fbadcf440d710f29c8e182fe8151f3f7751a82/inductor_cache/qj/cqjys2nmfq5ipwxymb33axfl4q25zfh63m3h6cc2rqhnk2zzvsmp.py":54:31)
#loc52 = loc("/home/ericbuehler/.cache/vllm/torch_compile_cache/torch_aot_compile/90537ea14f244a5187d6ecc853fbadcf440d710f29c8e182fe8151f3f7751a82/inductor_cache/qj/cqjys2nmfq5ipwxymb33axfl4q25zfh63m3h6cc2rqhnk2zzvsmp.py":55:29)
#loc53 = loc("/home/ericbuehler/.cache/vllm/torch_compile_cache/torch_aot_compile/90537ea14f244a5187d6ecc853fbadcf440d710f29c8e182fe8151f3f7751a82/inductor_cache/qj/cqjys2nmfq5ipwxymb33axfl4q25zfh63m3h6cc2rqhnk2zzvsmp.py":59:48)
#loc54 = loc("/home/ericbuehler/.cache/vllm/torch_compile_cache/torch_aot_compile/90537ea14f244a5187d6ecc853fbadcf440d710f29c8e182fe8151f3f7751a82/inductor_cache/qj/cqjys2nmfq5ipwxymb33axfl4q25zfh63m3h6cc2rqhnk2zzvsmp.py":59:43)
#loc55 = loc("/home/ericbuehler/.cache/vllm/torch_compile_cache/torch_aot_compile/90537ea14f244a5187d6ecc853fbadcf440d710f29c8e182fe8151f3f7751a82/inductor_cache/qj/cqjys2nmfq5ipwxymb33axfl4q25zfh63m3h6cc2rqhnk2zzvsmp.py":59:36)
#loc56 = loc("/home/ericbuehler/.cache/vllm/torch_compile_cache/torch_aot_compile/90537ea14f244a5187d6ecc853fbadcf440d710f29c8e182fe8151f3f7751a82/inductor_cache/qj/cqjys2nmfq5ipwxymb33axfl4q25zfh63m3h6cc2rqhnk2zzvsmp.py":59:63)
#loc57 = loc("/home/ericbuehler/.cache/vllm/torch_compile_cache/torch_aot_compile/90537ea14f244a5187d6ecc853fbadcf440d710f29c8e182fe8151f3f7751a82/inductor_cache/qj/cqjys2nmfq5ipwxymb33axfl4q25zfh63m3h6cc2rqhnk2zzvsmp.py":59:53)
#loc58 = loc("/home/ericbuehler/.cache/vllm/torch_compile_cache/torch_aot_compile/90537ea14f244a5187d6ecc853fbadcf440d710f29c8e182fe8151f3f7751a82/inductor_cache/qj/cqjys2nmfq5ipwxymb33axfl4q25zfh63m3h6cc2rqhnk2zzvsmp.py":59:115)
#loc59 = loc("/home/ericbuehler/.cache/vllm/torch_compile_cache/torch_aot_compile/90537ea14f244a5187d6ecc853fbadcf440d710f29c8e182fe8151f3f7751a82/inductor_cache/qj/cqjys2nmfq5ipwxymb33axfl4q25zfh63m3h6cc2rqhnk2zzvsmp.py":60:35)
#loc60 = loc("/home/ericbuehler/.cache/vllm/torch_compile_cache/torch_aot_compile/90537ea14f244a5187d6ecc853fbadcf440d710f29c8e182fe8151f3f7751a82/inductor_cache/qj/cqjys2nmfq5ipwxymb33axfl4q25zfh63m3h6cc2rqhnk2zzvsmp.py":60:42)
#loc61 = loc("/home/ericbuehler/.cache/vllm/torch_compile_cache/torch_aot_compile/90537ea14f244a5187d6ecc853fbadcf440d710f29c8e182fe8151f3f7751a82/inductor_cache/qj/cqjys2nmfq5ipwxymb33axfl4q25zfh63m3h6cc2rqhnk2zzvsmp.py":60:95)
#loc62 = loc("/home/ericbuehler/.cache/vllm/torch_compile_cache/torch_aot_compile/90537ea14f244a5187d6ecc853fbadcf440d710f29c8e182fe8151f3f7751a82/inductor_cache/qj/cqjys2nmfq5ipwxymb33axfl4q25zfh63m3h6cc2rqhnk2zzvsmp.py":62:40)
#loc63 = loc("/home/ericbuehler/.cache/vllm/torch_compile_cache/torch_aot_compile/90537ea14f244a5187d6ecc853fbadcf440d710f29c8e182fe8151f3f7751a82/inductor_cache/qj/cqjys2nmfq5ipwxymb33axfl4q25zfh63m3h6cc2rqhnk2zzvsmp.py":63:25)
#loc64 = loc("/home/ericbuehler/.cache/vllm/torch_compile_cache/torch_aot_compile/90537ea14f244a5187d6ecc853fbadcf440d710f29c8e182fe8151f3f7751a82/inductor_cache/qj/cqjys2nmfq5ipwxymb33axfl4q25zfh63m3h6cc2rqhnk2zzvsmp.py":64:39)
#loc65 = loc("/home/ericbuehler/.cache/vllm/torch_compile_cache/torch_aot_compile/90537ea14f244a5187d6ecc853fbadcf440d710f29c8e182fe8151f3f7751a82/inductor_cache/qj/cqjys2nmfq5ipwxymb33axfl4q25zfh63m3h6cc2rqhnk2zzvsmp.py":65:24)
#loc66 = loc("/home/ericbuehler/.cache/vllm/torch_compile_cache/torch_aot_compile/90537ea14f244a5187d6ecc853fbadcf440d710f29c8e182fe8151f3f7751a82/inductor_cache/qj/cqjys2nmfq5ipwxymb33axfl4q25zfh63m3h6cc2rqhnk2zzvsmp.py":66:32)
#loc67 = loc("/home/ericbuehler/.cache/vllm/torch_compile_cache/torch_aot_compile/90537ea14f244a5187d6ecc853fbadcf440d710f29c8e182fe8151f3f7751a82/inductor_cache/qj/cqjys2nmfq5ipwxymb33axfl4q25zfh63m3h6cc2rqhnk2zzvsmp.py":67:24)
#loc68 = loc("/home/ericbuehler/.cache/vllm/torch_compile_cache/torch_aot_compile/90537ea14f244a5187d6ecc853fbadcf440d710f29c8e182fe8151f3f7751a82/inductor_cache/qj/cqjys2nmfq5ipwxymb33axfl4q25zfh63m3h6cc2rqhnk2zzvsmp.py":69:24)
#loc69 = loc("/home/ericbuehler/.cache/vllm/torch_compile_cache/torch_aot_compile/90537ea14f244a5187d6ecc853fbadcf440d710f29c8e182fe8151f3f7751a82/inductor_cache/qj/cqjys2nmfq5ipwxymb33axfl4q25zfh63m3h6cc2rqhnk2zzvsmp.py":70:41)
#loc70 = loc("/home/ericbuehler/.cache/vllm/torch_compile_cache/torch_aot_compile/90537ea14f244a5187d6ecc853fbadcf440d710f29c8e182fe8151f3f7751a82/inductor_cache/qj/cqjys2nmfq5ipwxymb33axfl4q25zfh63m3h6cc2rqhnk2zzvsmp.py":70:36)
#loc71 = loc("/home/ericbuehler/.cache/vllm/torch_compile_cache/torch_aot_compile/90537ea14f244a5187d6ecc853fbadcf440d710f29c8e182fe8151f3f7751a82/inductor_cache/qj/cqjys2nmfq5ipwxymb33axfl4q25zfh63m3h6cc2rqhnk2zzvsmp.py":70:29)
#loc72 = loc("/home/ericbuehler/.cache/vllm/torch_compile_cache/torch_aot_compile/90537ea14f244a5187d6ecc853fbadcf440d710f29c8e182fe8151f3f7751a82/inductor_cache/qj/cqjys2nmfq5ipwxymb33axfl4q25zfh63m3h6cc2rqhnk2zzvsmp.py":70:63)
#loc73 = loc("/home/ericbuehler/.cache/vllm/torch_compile_cache/torch_aot_compile/90537ea14f244a5187d6ecc853fbadcf440d710f29c8e182fe8151f3f7751a82/inductor_cache/qj/cqjys2nmfq5ipwxymb33axfl4q25zfh63m3h6cc2rqhnk2zzvsmp.py":70:53)
#loc74 = loc("/home/ericbuehler/.cache/vllm/torch_compile_cache/torch_aot_compile/90537ea14f244a5187d6ecc853fbadcf440d710f29c8e182fe8151f3f7751a82/inductor_cache/qj/cqjys2nmfq5ipwxymb33axfl4q25zfh63m3h6cc2rqhnk2zzvsmp.py":53:4)
#loc76 = loc("/home/ericbuehler/vllm/.venv-bench/lib/python3.12/site-packages/triton/language/standard.py":293:36)
#loc78 = loc("/home/ericbuehler/vllm/.venv-bench/lib/python3.12/site-packages/triton/language/standard.py":293:11)
#loc79 = loc("/home/ericbuehler/vllm/.venv-bench/lib/python3.12/site-packages/triton/language/standard.py":293:4)
#loc81 = loc("/home/ericbuehler/vllm/.venv-bench/lib/python3.12/site-packages/triton/language/standard.py":263:15)
#loc82 = loc("/home/ericbuehler/vllm/.venv-bench/lib/python3.12/site-packages/triton/language/standard.py":263:11)
#loc83 = loc("/home/ericbuehler/vllm/.venv-bench/lib/python3.12/site-packages/triton/language/standard.py":263:4)
#loc92 = loc("r0_numel"(#loc1))
#loc93 = loc("xoffset"(#loc2))
#loc94 = loc("xoffset"(#loc3))
#loc95 = loc("xindex"(#loc4))
#loc96 = loc("xindex"(#loc5))
#loc97 = loc("xindex"(#loc6))
#loc98 = loc("xmask"(#loc7))
#loc99 = loc("r0_base"(#loc8))
#loc100 = loc("r0_base"(#loc9))
#loc101 = loc("tmp0"(#loc10))
#loc102 = loc("tmp0"(#loc11))
#loc103 = loc("tmp8"(#loc12))
#loc104 = loc("tmp8"(#loc13))
#loc105 = loc("tmp8"(#loc14))
#loc106 = loc("tmp9"(#loc15))
#loc107 = loc("_tmp14"(#loc16))
#loc108 = loc("_tmp14"(#loc17))
#loc109 = loc("r0_index"(#loc18))
#loc110 = loc("r0_mask"(#loc19))
#loc111 = loc("tmp1"(#loc20))
#loc112 = loc("tmp2"(#loc21))
#loc113 = loc("tmp3"(#loc22))
#loc114 = loc("tmp4"(#loc23))
#loc115 = loc("tmp5"(#loc24))
#loc116 = loc("tmp7"(#loc31))
#loc117 = loc("tmp7"(#loc32))
#loc118 = loc("tmp7"(#loc33))
#loc119 = loc("tmp7"(#loc34))
#loc120 = loc("tmp7"(#loc35))
#loc121 = loc("tmp7"(#loc36))
#loc122 = loc("tmp10"(#loc37))
#loc123 = loc("tmp12"(#loc38))
#loc124 = loc("tmp15"(#loc39))
#loc125 = loc("_tmp14"(#loc40))
#loc126 = loc("_tmp14"(#loc41))
#loc127 = loc("tmp14"(#loc48))
#loc128 = loc("tmp14"(#loc49))
#loc129 = loc("r0_index"(#loc51))
#loc130 = loc("r0_mask"(#loc52))
#loc131 = loc("tmp16"(#loc53))
#loc132 = loc("tmp16"(#loc54))
#loc133 = loc("tmp16"(#loc55))
#loc134 = loc("tmp16"(#loc56))
#loc135 = loc("tmp16"(#loc57))
#loc136 = loc("tmp16"(#loc58))
#loc137 = loc("tmp25"(#loc59))
#loc138 = loc("tmp25"(#loc60))
#loc139 = loc("tmp25"(#loc61))
#loc140 = loc("tmp18"(#loc62))
#loc141 = loc("tmp19"(#loc63))
#loc142 = loc("tmp20"(#loc64))
#loc143 = loc("tmp21"(#loc65))
#loc144 = loc("tmp22"(#loc66))
#loc145 = loc("tmp23"(#loc67))
#loc146 = loc("tmp26"(#loc68))
