#loc = loc("/home/ericbuehler/vllm/.venv-bench/lib/python3.12/site-packages/vllm/model_executor/layers/fused_moe/fused_moe.py":295:0)
#loc91 = loc("/home/ericbuehler/vllm/.venv-bench/lib/python3.12/site-packages/triton/language/standard.py":34:0)
#loc96 = loc("/home/ericbuehler/vllm/.venv-bench/lib/python3.12/site-packages/vllm/model_executor/layers/fused_moe/fused_moe.py":41:0)
#loc117 = loc("a_ptr"(#loc))
#loc118 = loc("b_ptr"(#loc))
#loc119 = loc("c_ptr"(#loc))
#loc120 = loc("topk_weights_ptr"(#loc))
#loc121 = loc("expert_ids_ptr"(#loc))
#loc122 = loc("num_tokens_post_padded_ptr"(#loc))
#loc123 = loc("N"(#loc))
#loc124 = loc("K"(#loc))
#loc125 = loc("EM"(#loc))
#loc126 = loc("num_valid_tokens"(#loc))
#loc127 = loc("stride_am"(#loc))
#loc128 = loc("stride_be"(#loc))
#loc129 = loc("stride_bn"(#loc))
#loc130 = loc("stride_cm"(#loc))
#loc131 = loc("stride_asm"(#loc))
#loc132 = loc("stride_ask"(#loc))
#loc133 = loc("stride_bse"(#loc))
#loc134 = loc("stride_bsk"(#loc))
#loc135 = loc("stride_bsn"(#loc))
#loc136 = loc("stride_bbe"(#loc))
#loc137 = loc("stride_bbn"(#loc))
#loc218 = loc("x"(#loc91))
#loc219 = loc("c_ptr"(#loc96))
#loc220 = loc("stride_cm"(#loc96))
#loc221 = loc("pid_n"(#loc96))
#loc222 = loc("N"(#loc96))
#loc223 = loc("offs_token"(#loc96))
#loc224 = loc("token_mask"(#loc96))
module {
  tt.func public @fused_moe_kernel(%a_ptr: !tt.ptr<bf16> {tt.divisibility = 16 : i32} loc("a_ptr"(#loc)), %b_ptr: !tt.ptr<bf16> {tt.divisibility = 16 : i32} loc("b_ptr"(#loc)), %c_ptr: !tt.ptr<bf16> {tt.divisibility = 16 : i32} loc("c_ptr"(#loc)), %topk_weights_ptr: !tt.ptr<f32> {tt.divisibility = 16 : i32} loc("topk_weights_ptr"(#loc)), %expert_ids_ptr: !tt.ptr<i32> {tt.divisibility = 16 : i32} loc("expert_ids_ptr"(#loc)), %num_tokens_post_padded_ptr: !tt.ptr<i32> {tt.divisibility = 16 : i32} loc("num_tokens_post_padded_ptr"(#loc)), %N: i32 {tt.divisibility = 16 : i32} loc("N"(#loc)), %K: i32 {tt.divisibility = 16 : i32} loc("K"(#loc)), %EM: i32 {tt.divisibility = 16 : i32} loc("EM"(#loc)), %num_valid_tokens: i32 loc("num_valid_tokens"(#loc)), %stride_am: i32 {tt.divisibility = 16 : i32} loc("stride_am"(#loc)), %stride_be: i32 {tt.divisibility = 16 : i32} loc("stride_be"(#loc)), %stride_bn: i32 {tt.divisibility = 16 : i32} loc("stride_bn"(#loc)), %stride_cm: i32 {tt.divisibility = 16 : i32} loc("stride_cm"(#loc)), %stride_asm: i32 {tt.divisibility = 16 : i32} loc("stride_asm"(#loc)), %stride_ask: i32 {tt.divisibility = 16 : i32} loc("stride_ask"(#loc)), %stride_bse: i32 {tt.divisibility = 16 : i32} loc("stride_bse"(#loc)), %stride_bsk: i32 {tt.divisibility = 16 : i32} loc("stride_bsk"(#loc)), %stride_bsn: i32 {tt.divisibility = 16 : i32} loc("stride_bsn"(#loc)), %stride_bbe: i32 {tt.divisibility = 16 : i32} loc("stride_bbe"(#loc)), %stride_bbn: i32 {tt.divisibility = 16 : i32} loc("stride_bbn"(#loc))) attributes {noinline = false} {
    %pid = tt.get_program_id x : i32 loc(#loc138)
    %num_pid_m = tt.call @"triton.language.standard.cdiv__i32__(1,)cconstexpr_16_"(%EM) : (i32) -> i32 loc(#loc139)
    %num_pid_n = tt.call @"triton.language.standard.cdiv__i32__(1,)cconstexpr_64_"(%N) : (i32) -> i32 loc(#loc140)
    %num_pid_in_group = arith.constant 1 : i32 loc(#loc141)
    %num_pid_in_group_0 = arith.constant 1 : i32 loc(#loc141)
    %num_pid_in_group_1 = arith.extsi %num_pid_in_group_0 : i32 to i64 loc(#loc141)
    %num_pid_in_group_2 = arith.extsi %num_pid_n : i32 to i64 loc(#loc141)
    %num_pid_in_group_3 = arith.muli %num_pid_in_group_1, %num_pid_in_group_2 : i64 loc(#loc141)
    %num_pid_in_group_4 = arith.constant 2147483647 : i64 loc(#loc141)
    %num_pid_in_group_5 = arith.constant -2147483648 : i64 loc(#loc141)
    %num_pid_in_group_6 = arith.cmpi sle, %num_pid_in_group_3, %num_pid_in_group_4 : i64 loc(#loc141)
    %num_pid_in_group_7 = arith.cmpi sge, %num_pid_in_group_3, %num_pid_in_group_5 : i64 loc(#loc141)
    %num_pid_in_group_8 = arith.andi %num_pid_in_group_6, %num_pid_in_group_7 : i1 loc(#loc141)
    %num_pid_in_group_9 = arith.muli %num_pid_in_group_0, %num_pid_n : i32 loc(#loc141)
    %group_id = arith.divsi %pid, %num_pid_in_group_9 : i32 loc(#loc142)
    %first_pid_m = arith.constant 1 : i32 loc(#loc143)
    %first_pid_m_10 = arith.constant 1 : i32 loc(#loc143)
    %first_pid_m_11 = arith.extsi %group_id : i32 to i64 loc(#loc143)
    %first_pid_m_12 = arith.extsi %first_pid_m_10 : i32 to i64 loc(#loc143)
    %first_pid_m_13 = arith.muli %first_pid_m_11, %first_pid_m_12 : i64 loc(#loc143)
    %first_pid_m_14 = arith.constant 2147483647 : i64 loc(#loc143)
    %first_pid_m_15 = arith.constant -2147483648 : i64 loc(#loc143)
    %first_pid_m_16 = arith.cmpi sle, %first_pid_m_13, %first_pid_m_14 : i64 loc(#loc143)
    %first_pid_m_17 = arith.cmpi sge, %first_pid_m_13, %first_pid_m_15 : i64 loc(#loc143)
    %first_pid_m_18 = arith.andi %first_pid_m_16, %first_pid_m_17 : i1 loc(#loc143)
    %first_pid_m_19 = arith.muli %group_id, %first_pid_m_10 : i32 loc(#loc143)
    %group_size_m = arith.extsi %num_pid_m : i32 to i64 loc(#loc144)
    %group_size_m_20 = arith.extsi %first_pid_m_19 : i32 to i64 loc(#loc144)
    %group_size_m_21 = arith.subi %group_size_m, %group_size_m_20 : i64 loc(#loc144)
    %group_size_m_22 = arith.constant 2147483647 : i64 loc(#loc144)
    %group_size_m_23 = arith.constant -2147483648 : i64 loc(#loc144)
    %group_size_m_24 = arith.cmpi sle, %group_size_m_21, %group_size_m_22 : i64 loc(#loc144)
    %group_size_m_25 = arith.cmpi sge, %group_size_m_21, %group_size_m_23 : i64 loc(#loc144)
    %group_size_m_26 = arith.andi %group_size_m_24, %group_size_m_25 : i1 loc(#loc144)
    %group_size_m_27 = arith.subi %num_pid_m, %first_pid_m_19 : i32 loc(#loc144)
    %group_size_m_28 = arith.constant 1 : i32 loc(#loc145)
    %group_size_m_29 = arith.minsi %group_size_m_27, %group_size_m_28 : i32 loc(#loc145)
    %pid_m = arith.remsi %pid, %num_pid_in_group_9 : i32 loc(#loc146)
    %pid_m_30 = arith.remsi %pid_m, %group_size_m_29 : i32 loc(#loc147)
    %pid_m_31 = arith.extsi %first_pid_m_19 : i32 to i64 loc(#loc148)
    %pid_m_32 = arith.extsi %pid_m_30 : i32 to i64 loc(#loc148)
    %pid_m_33 = arith.addi %pid_m_31, %pid_m_32 : i64 loc(#loc148)
    %pid_m_34 = arith.constant 2147483647 : i64 loc(#loc148)
    %pid_m_35 = arith.constant -2147483648 : i64 loc(#loc148)
    %pid_m_36 = arith.cmpi sle, %pid_m_33, %pid_m_34 : i64 loc(#loc148)
    %pid_m_37 = arith.cmpi sge, %pid_m_33, %pid_m_35 : i64 loc(#loc148)
    %pid_m_38 = arith.andi %pid_m_36, %pid_m_37 : i1 loc(#loc148)
    %pid_m_39 = arith.addi %first_pid_m_19, %pid_m_30 : i32 loc(#loc148)
    %pid_n = arith.remsi %pid, %num_pid_in_group_9 : i32 loc(#loc149)
    %pid_n_40 = arith.divsi %pid_n, %group_size_m_29 : i32 loc(#loc150)
    %offs = tt.make_range {end = 16 : i32, start = 0 : i32} : tensor<16xi32> loc(#loc151)
    %offs_41 = arith.extsi %offs : tensor<16xi32> to tensor<16xi64> loc(#loc152)
    %num_tokens_post_padded = tt.load %num_tokens_post_padded_ptr : !tt.ptr<i32> loc(#loc153)
    %c16_i32 = arith.constant 16 : i32 loc(#loc17)
    %c16_i32_42 = arith.constant 16 : i32 loc(#loc17)
    %0 = arith.extsi %pid_m_39 : i32 to i64 loc(#loc17)
    %1 = arith.extsi %c16_i32_42 : i32 to i64 loc(#loc17)
    %2 = arith.muli %0, %1 : i64 loc(#loc17)
    %c2147483647_i64 = arith.constant 2147483647 : i64 loc(#loc17)
    %c-2147483648_i64 = arith.constant -2147483648 : i64 loc(#loc17)
    %3 = arith.cmpi sle, %2, %c2147483647_i64 : i64 loc(#loc17)
    %4 = arith.cmpi sge, %2, %c-2147483648_i64 : i64 loc(#loc17)
    %5 = arith.andi %3, %4 : i1 loc(#loc17)
    %6 = arith.muli %pid_m_39, %c16_i32_42 : i32 loc(#loc17)
    %7 = arith.cmpi sge, %6, %num_tokens_post_padded : i32 loc(#loc18)
    cf.cond_br %7, ^bb1, ^bb2 loc(#loc18)
  ^bb1:  // pred: ^bb0
    tt.return loc(#loc19)
  ^bb2:  // pred: ^bb0
    cf.br ^bb4 loc(#loc)
  ^bb3:  // no predecessors
    cf.br ^bb4 loc(#loc)
  ^bb4:  // 2 preds: ^bb2, ^bb3
    %offs_token = arith.constant 0 : i32 loc(#loc154)
    %offs_token_43 = arith.extsi %offs_token : i32 to i64 loc(#loc154)
    %offs_token_44 = tt.splat %offs_token_43 : i64 -> tensor<16xi64> loc(#loc154)
    %offs_token_45 = arith.cmpi eq, %offs_41, %offs_token_44 : tensor<16xi64> loc(#loc154)
    %offs_token_46 = tt.splat %pid_m_39 : i32 -> tensor<16xi32> loc(#loc155)
    %offs_token_47 = tt.splat %num_valid_tokens : i32 -> tensor<16xi32> loc(#loc155)
    %offs_token_48 = arith.select %offs_token_45, %offs_token_46, %offs_token_47 : tensor<16xi1>, tensor<16xi32> loc(#loc155)
    %offs_token_49 = arith.extsi %offs_token_48 : tensor<16xi32> to tensor<16xi64> loc(#loc156)
    %token_mask = arith.extsi %num_valid_tokens : i32 to i64 loc(#loc157)
    %token_mask_50 = tt.splat %token_mask : i64 -> tensor<16xi64> loc(#loc157)
    %token_mask_51 = arith.cmpi slt, %offs_token_49, %token_mask_50 : tensor<16xi64> loc(#loc157)
    %off_experts = tt.addptr %expert_ids_ptr, %pid_m_39 : !tt.ptr<i32>, i32 loc(#loc158)
    %off_experts_52 = tt.load %off_experts : !tt.ptr<i32> loc(#loc159)
    %off_experts_53 = arith.extsi %off_experts_52 : i32 to i64 loc(#loc160)
    %c-1_i32 = arith.constant -1 : i32 loc(#loc27)
    %8 = arith.extsi %c-1_i32 : i32 to i64 loc(#loc27)
    %9 = arith.cmpi eq, %off_experts_53, %8 : i64 loc(#loc27)
    cf.cond_br %9, ^bb5, ^bb6 loc(#loc27)
  ^bb5:  // pred: ^bb4
    tt.call @"vllm.model_executor.layers.fused_moe.fused_moe.write_zeros_to_output__Pbf16_i32_i32_i32_i64S16S_u1S16S__(2,)cconstexpr_1__(7,)cconstexpr_16__(8,)cconstexpr_64__(9,)cconstexpr_bf16_"(%c_ptr, %stride_cm, %pid_n_40, %N, %offs_token_49, %token_mask_51) : (!tt.ptr<bf16>, i32, i32, i32, tensor<16xi64>, tensor<16xi1>) -> () loc(#loc28)
    tt.return loc(#loc29)
  ^bb6:  // pred: ^bb4
    cf.br ^bb8 loc(#loc)
  ^bb7:  // no predecessors
    cf.br ^bb8 loc(#loc)
  ^bb8:  // 2 preds: ^bb6, ^bb7
    %offs_bn = arith.constant 64 : i32 loc(#loc161)
    %offs_bn_54 = arith.constant 64 : i32 loc(#loc161)
    %offs_bn_55 = arith.extsi %pid_n_40 : i32 to i64 loc(#loc161)
    %offs_bn_56 = arith.extsi %offs_bn_54 : i32 to i64 loc(#loc161)
    %offs_bn_57 = arith.muli %offs_bn_55, %offs_bn_56 : i64 loc(#loc161)
    %offs_bn_58 = arith.constant 2147483647 : i64 loc(#loc161)
    %offs_bn_59 = arith.constant -2147483648 : i64 loc(#loc161)
    %offs_bn_60 = arith.cmpi sle, %offs_bn_57, %offs_bn_58 : i64 loc(#loc161)
    %offs_bn_61 = arith.cmpi sge, %offs_bn_57, %offs_bn_59 : i64 loc(#loc161)
    %offs_bn_62 = arith.andi %offs_bn_60, %offs_bn_61 : i1 loc(#loc161)
    %offs_bn_63 = arith.muli %pid_n_40, %offs_bn_54 : i32 loc(#loc161)
    %offs_bn_64 = tt.make_range {end = 64 : i32, start = 0 : i32} : tensor<64xi32> loc(#loc162)
    %offs_bn_65 = arith.extsi %offs_bn_64 : tensor<64xi32> to tensor<64xi64> loc(#loc163)
    %offs_bn_66 = arith.extsi %offs_bn_63 : i32 to i64 loc(#loc164)
    %offs_bn_67 = tt.splat %offs_bn_66 : i64 -> tensor<64xi64> loc(#loc164)
    %offs_bn_68 = arith.addi %offs_bn_67, %offs_bn_65 : tensor<64xi64> loc(#loc164)
    %offs_bn_69 = arith.extsi %N : i32 to i64 loc(#loc165)
    %offs_bn_70 = tt.splat %offs_bn_69 : i64 -> tensor<64xi64> loc(#loc165)
    %offs_bn_71 = arith.remsi %offs_bn_68, %offs_bn_70 : tensor<64xi64> loc(#loc165)
    %offs_k = tt.make_range {end = 128 : i32, start = 0 : i32} : tensor<128xi32> loc(#loc166)
    %a_ptrs = tt.expand_dims %offs_token_49 {axis = 1 : i32} : tensor<16xi64> -> tensor<16x1xi64> loc(#loc167)
    %a_ptrs_72 = arith.constant 1 : i32 loc(#loc168)
    %a_ptrs_73 = arith.constant 1 : i64 loc(#loc168)
    %a_ptrs_74 = arith.constant dense<1> : tensor<16x1xi64> loc(#loc168)
    %a_ptrs_75 = arith.divsi %a_ptrs, %a_ptrs_74 : tensor<16x1xi64> loc(#loc168)
    %a_ptrs_76 = arith.extsi %stride_am : i32 to i64 loc(#loc169)
    %a_ptrs_77 = tt.splat %a_ptrs_76 : i64 -> tensor<16x1xi64> loc(#loc169)
    %a_ptrs_78 = arith.muli %a_ptrs_75, %a_ptrs_77 : tensor<16x1xi64> loc(#loc169)
    %a_ptrs_79 = tt.expand_dims %offs_k {axis = 0 : i32} : tensor<128xi32> -> tensor<1x128xi32> loc(#loc170)
    %a_ptrs_80 = arith.constant 1 : i32 loc(#loc171)
    %a_ptrs_81 = arith.constant 1 : i32 loc(#loc171)
    %a_ptrs_82 = arith.constant dense<1> : tensor<1x128xi32> loc(#loc171)
    %a_ptrs_83 = arith.extsi %a_ptrs_79 : tensor<1x128xi32> to tensor<1x128xi64> loc(#loc171)
    %a_ptrs_84 = arith.extsi %a_ptrs_82 : tensor<1x128xi32> to tensor<1x128xi64> loc(#loc171)
    %a_ptrs_85 = arith.muli %a_ptrs_83, %a_ptrs_84 : tensor<1x128xi64> loc(#loc171)
    %a_ptrs_86 = arith.constant 2147483647 : i64 loc(#loc171)
    %a_ptrs_87 = arith.constant -2147483648 : i64 loc(#loc171)
    %a_ptrs_88 = arith.constant dense<2147483647> : tensor<1x128xi64> loc(#loc171)
    %a_ptrs_89 = arith.cmpi sle, %a_ptrs_85, %a_ptrs_88 : tensor<1x128xi64> loc(#loc171)
    %a_ptrs_90 = arith.constant dense<-2147483648> : tensor<1x128xi64> loc(#loc171)
    %a_ptrs_91 = arith.cmpi sge, %a_ptrs_85, %a_ptrs_90 : tensor<1x128xi64> loc(#loc171)
    %a_ptrs_92 = arith.andi %a_ptrs_89, %a_ptrs_91 : tensor<1x128xi1> loc(#loc171)
    %a_ptrs_93 = arith.muli %a_ptrs_79, %a_ptrs_82 : tensor<1x128xi32> loc(#loc171)
    %a_ptrs_94 = arith.extsi %a_ptrs_93 : tensor<1x128xi32> to tensor<1x128xi64> loc(#loc172)
    %a_ptrs_95 = tt.broadcast %a_ptrs_78 : tensor<16x1xi64> -> tensor<16x128xi64> loc(#loc172)
    %a_ptrs_96 = tt.broadcast %a_ptrs_94 : tensor<1x128xi64> -> tensor<16x128xi64> loc(#loc172)
    %a_ptrs_97 = arith.addi %a_ptrs_95, %a_ptrs_96 : tensor<16x128xi64> loc(#loc172)
    %a_ptrs_98 = tt.splat %a_ptr : !tt.ptr<bf16> -> tensor<16x128x!tt.ptr<bf16>> loc(#loc173)
    %a_ptrs_99 = tt.addptr %a_ptrs_98, %a_ptrs_97 : tensor<16x128x!tt.ptr<bf16>>, tensor<16x128xi64> loc(#loc173)
    %b_ptrs = arith.extsi %stride_be : i32 to i64 loc(#loc174)
    %b_ptrs_100 = arith.muli %off_experts_53, %b_ptrs : i64 loc(#loc174)
    %b_ptrs_101 = tt.addptr %b_ptr, %b_ptrs_100 : !tt.ptr<bf16>, i64 loc(#loc175)
    %b_ptrs_102 = tt.expand_dims %offs_k {axis = 1 : i32} : tensor<128xi32> -> tensor<128x1xi32> loc(#loc176)
    %b_ptrs_103 = arith.constant 1 : i32 loc(#loc177)
    %b_ptrs_104 = arith.constant 1 : i32 loc(#loc177)
    %b_ptrs_105 = arith.constant dense<1> : tensor<128x1xi32> loc(#loc177)
    %b_ptrs_106 = arith.extsi %b_ptrs_102 : tensor<128x1xi32> to tensor<128x1xi64> loc(#loc177)
    %b_ptrs_107 = arith.extsi %b_ptrs_105 : tensor<128x1xi32> to tensor<128x1xi64> loc(#loc177)
    %b_ptrs_108 = arith.muli %b_ptrs_106, %b_ptrs_107 : tensor<128x1xi64> loc(#loc177)
    %b_ptrs_109 = arith.constant 2147483647 : i64 loc(#loc177)
    %b_ptrs_110 = arith.constant -2147483648 : i64 loc(#loc177)
    %b_ptrs_111 = arith.constant dense<2147483647> : tensor<128x1xi64> loc(#loc177)
    %b_ptrs_112 = arith.cmpi sle, %b_ptrs_108, %b_ptrs_111 : tensor<128x1xi64> loc(#loc177)
    %b_ptrs_113 = arith.constant dense<-2147483648> : tensor<128x1xi64> loc(#loc177)
    %b_ptrs_114 = arith.cmpi sge, %b_ptrs_108, %b_ptrs_113 : tensor<128x1xi64> loc(#loc177)
    %b_ptrs_115 = arith.andi %b_ptrs_112, %b_ptrs_114 : tensor<128x1xi1> loc(#loc177)
    %b_ptrs_116 = arith.muli %b_ptrs_102, %b_ptrs_105 : tensor<128x1xi32> loc(#loc177)
    %b_ptrs_117 = tt.expand_dims %offs_bn_71 {axis = 0 : i32} : tensor<64xi64> -> tensor<1x64xi64> loc(#loc178)
    %b_ptrs_118 = arith.extsi %stride_bn : i32 to i64 loc(#loc179)
    %b_ptrs_119 = tt.splat %b_ptrs_118 : i64 -> tensor<1x64xi64> loc(#loc179)
    %b_ptrs_120 = arith.muli %b_ptrs_117, %b_ptrs_119 : tensor<1x64xi64> loc(#loc179)
    %b_ptrs_121 = arith.extsi %b_ptrs_116 : tensor<128x1xi32> to tensor<128x1xi64> loc(#loc180)
    %b_ptrs_122 = tt.broadcast %b_ptrs_121 : tensor<128x1xi64> -> tensor<128x64xi64> loc(#loc180)
    %b_ptrs_123 = tt.broadcast %b_ptrs_120 : tensor<1x64xi64> -> tensor<128x64xi64> loc(#loc180)
    %b_ptrs_124 = arith.addi %b_ptrs_122, %b_ptrs_123 : tensor<128x64xi64> loc(#loc180)
    %b_ptrs_125 = tt.splat %b_ptrs_101 : !tt.ptr<bf16> -> tensor<128x64x!tt.ptr<bf16>> loc(#loc181)
    %b_ptrs_126 = tt.addptr %b_ptrs_125, %b_ptrs_124 : tensor<128x64x!tt.ptr<bf16>>, tensor<128x64xi64> loc(#loc181)
    %accumulator = tt.call @"triton.language.standard.zeros____(0, 0)cconstexpr_16__(0, 1)cconstexpr_64__(1,)cconstexpr_fp32_"() : () -> tensor<16x64xf32> loc(#loc182)
    %10 = tt.call @"triton.language.standard.cdiv__i32__(1,)cconstexpr_128_"(%K) : (i32) -> i32 loc(#loc52)
    %c0_i32 = arith.constant 0 : i32 loc(#loc53)
    %c1_i32 = arith.constant 1 : i32 loc(#loc53)
    %11 = arith.bitcast %c0_i32 : i32 to i32 loc(#loc53)
    %12 = arith.bitcast %10 : i32 to i32 loc(#loc53)
    %13 = arith.bitcast %c1_i32 : i32 to i32 loc(#loc53)
    %14 = ub.poison : i32 loc(#loc53)
    %accumulator_127:3 = scf.for %k = %11 to %12 step %13 iter_args(%a_ptrs_189 = %a_ptrs_99, %b_ptrs_190 = %b_ptrs_126, %accumulator_191 = %accumulator) -> (tensor<16x128x!tt.ptr<bf16>>, tensor<128x64x!tt.ptr<bf16>>, tensor<16x64xf32>)  : i32 {
      %a = tt.expand_dims %token_mask_51 {axis = 1 : i32} : tensor<16xi1> -> tensor<16x1xi1> loc(#loc184)
      %a_192 = tt.expand_dims %offs_k {axis = 0 : i32} : tensor<128xi32> -> tensor<1x128xi32> loc(#loc185)
      %a_193 = arith.constant 128 : i32 loc(#loc186)
      %a_194 = arith.constant 128 : i32 loc(#loc186)
      %a_195 = arith.extsi %k : i32 to i64 loc(#loc186)
      %a_196 = arith.extsi %a_194 : i32 to i64 loc(#loc186)
      %a_197 = arith.muli %a_195, %a_196 : i64 loc(#loc186)
      %a_198 = arith.constant 2147483647 : i64 loc(#loc186)
      %a_199 = arith.constant -2147483648 : i64 loc(#loc186)
      %a_200 = arith.cmpi sle, %a_197, %a_198 : i64 loc(#loc186)
      %a_201 = arith.cmpi sge, %a_197, %a_199 : i64 loc(#loc186)
      %a_202 = arith.andi %a_200, %a_201 : i1 loc(#loc186)
      %a_203 = arith.muli %k, %a_194 : i32 loc(#loc186)
      %a_204 = arith.extsi %K : i32 to i64 loc(#loc187)
      %a_205 = arith.extsi %a_203 : i32 to i64 loc(#loc187)
      %a_206 = arith.subi %a_204, %a_205 : i64 loc(#loc187)
      %a_207 = arith.constant 2147483647 : i64 loc(#loc187)
      %a_208 = arith.constant -2147483648 : i64 loc(#loc187)
      %a_209 = arith.cmpi sle, %a_206, %a_207 : i64 loc(#loc187)
      %a_210 = arith.cmpi sge, %a_206, %a_208 : i64 loc(#loc187)
      %a_211 = arith.andi %a_209, %a_210 : i1 loc(#loc187)
      %a_212 = arith.subi %K, %a_203 : i32 loc(#loc187)
      %a_213 = tt.splat %a_212 : i32 -> tensor<1x128xi32> loc(#loc188)
      %a_214 = arith.cmpi slt, %a_192, %a_213 : tensor<1x128xi32> loc(#loc188)
      %a_215 = tt.broadcast %a : tensor<16x1xi1> -> tensor<16x128xi1> loc(#loc189)
      %a_216 = tt.broadcast %a_214 : tensor<1x128xi1> -> tensor<16x128xi1> loc(#loc189)
      %a_217 = arith.andi %a_215, %a_216 : tensor<16x128xi1> loc(#loc189)
      %a_218 = arith.constant 0.000000e+00 : f32 loc(#loc190)
      %a_219 = arith.constant dense<0.000000e+00> : tensor<16x128xf32> loc(#loc190)
      %a_220 = arith.truncf %a_219 : tensor<16x128xf32> to tensor<16x128xbf16> loc(#loc190)
      %a_221 = tt.load %a_ptrs_189, %a_217, %a_220 : tensor<16x128x!tt.ptr<bf16>> loc(#loc190)
      %b = tt.expand_dims %offs_k {axis = 1 : i32} : tensor<128xi32> -> tensor<128x1xi32> loc(#loc191)
      %b_222 = arith.constant 128 : i32 loc(#loc192)
      %b_223 = arith.constant 128 : i32 loc(#loc192)
      %b_224 = arith.extsi %k : i32 to i64 loc(#loc192)
      %b_225 = arith.extsi %b_223 : i32 to i64 loc(#loc192)
      %b_226 = arith.muli %b_224, %b_225 : i64 loc(#loc192)
      %b_227 = arith.constant 2147483647 : i64 loc(#loc192)
      %b_228 = arith.constant -2147483648 : i64 loc(#loc192)
      %b_229 = arith.cmpi sle, %b_226, %b_227 : i64 loc(#loc192)
      %b_230 = arith.cmpi sge, %b_226, %b_228 : i64 loc(#loc192)
      %b_231 = arith.andi %b_229, %b_230 : i1 loc(#loc192)
      %b_232 = arith.muli %k, %b_223 : i32 loc(#loc192)
      %b_233 = arith.extsi %K : i32 to i64 loc(#loc193)
      %b_234 = arith.extsi %b_232 : i32 to i64 loc(#loc193)
      %b_235 = arith.subi %b_233, %b_234 : i64 loc(#loc193)
      %b_236 = arith.constant 2147483647 : i64 loc(#loc193)
      %b_237 = arith.constant -2147483648 : i64 loc(#loc193)
      %b_238 = arith.cmpi sle, %b_235, %b_236 : i64 loc(#loc193)
      %b_239 = arith.cmpi sge, %b_235, %b_237 : i64 loc(#loc193)
      %b_240 = arith.andi %b_238, %b_239 : i1 loc(#loc193)
      %b_241 = arith.subi %K, %b_232 : i32 loc(#loc193)
      %b_242 = tt.splat %b_241 : i32 -> tensor<128x1xi32> loc(#loc194)
      %b_243 = arith.cmpi slt, %b, %b_242 : tensor<128x1xi32> loc(#loc194)
      %b_244 = arith.constant 0.000000e+00 : f32 loc(#loc195)
      %b_245 = tt.broadcast %b_243 : tensor<128x1xi1> -> tensor<128x64xi1> loc(#loc195)
      %b_246 = arith.constant dense<0.000000e+00> : tensor<128x64xf32> loc(#loc195)
      %b_247 = arith.truncf %b_246 : tensor<128x64xf32> to tensor<128x64xbf16> loc(#loc195)
      %b_248 = tt.load %b_ptrs_190, %b_245, %b_247 : tensor<128x64x!tt.ptr<bf16>> loc(#loc195)
      %accumulator_249 = arith.constant 0.000000e+00 : f32 loc(#loc196)
      %accumulator_250 = arith.constant dense<0.000000e+00> : tensor<16x64xf32> loc(#loc196)
      %accumulator_251 = tt.dot %a_221, %b_248, %accumulator_250, inputPrecision = tf32 : tensor<16x128xbf16> * tensor<128x64xbf16> -> tensor<16x64xf32> loc(#loc196)
      %accumulator_252 = arith.addf %accumulator_191, %accumulator_251 : tensor<16x64xf32> loc(#loc197)
      %a_ptrs_253 = arith.constant 128 : i32 loc(#loc198)
      %a_ptrs_254 = arith.constant dense<128> : tensor<16x128xi32> loc(#loc198)
      %a_ptrs_255 = tt.addptr %a_ptrs_189, %a_ptrs_254 : tensor<16x128x!tt.ptr<bf16>>, tensor<16x128xi32> loc(#loc198)
      %b_ptrs_256 = arith.constant 128 : i32 loc(#loc199)
      %b_ptrs_257 = arith.constant dense<128> : tensor<128x64xi32> loc(#loc199)
      %b_ptrs_258 = tt.addptr %b_ptrs_190, %b_ptrs_257 : tensor<128x64x!tt.ptr<bf16>>, tensor<128x64xi32> loc(#loc199)
      scf.yield %a_ptrs_255, %b_ptrs_258, %accumulator_252 : tensor<16x128x!tt.ptr<bf16>>, tensor<128x64x!tt.ptr<bf16>>, tensor<16x64xf32> loc(#loc70)
    } loc(#loc240)
    %moe_weight = tt.splat %topk_weights_ptr : !tt.ptr<f32> -> tensor<16x!tt.ptr<f32>> loc(#loc200)
    %moe_weight_128 = tt.addptr %moe_weight, %offs_token_49 : tensor<16x!tt.ptr<f32>>, tensor<16xi64> loc(#loc200)
    %moe_weight_129 = arith.constant 0 : i32 loc(#loc201)
    %moe_weight_130 = arith.constant dense<0> : tensor<16xi32> loc(#loc201)
    %moe_weight_131 = arith.sitofp %moe_weight_130 : tensor<16xi32> to tensor<16xf32> loc(#loc201)
    %moe_weight_132 = tt.load %moe_weight_128, %token_mask_51, %moe_weight_131 : tensor<16x!tt.ptr<f32>> loc(#loc201)
    %accumulator_133 = tt.expand_dims %moe_weight_132 {axis = 1 : i32} : tensor<16xf32> -> tensor<16x1xf32> loc(#loc202)
    %accumulator_134 = tt.broadcast %accumulator_133 : tensor<16x1xf32> -> tensor<16x64xf32> loc(#loc203)
    %accumulator_135 = arith.mulf %accumulator_127#2, %accumulator_134 : tensor<16x64xf32> loc(#loc203)
    %accumulator_136 = arith.truncf %accumulator_135 : tensor<16x64xf32> to tensor<16x64xbf16> loc(#loc204)
    %offs_cn = arith.constant 64 : i32 loc(#loc205)
    %offs_cn_137 = arith.constant 64 : i32 loc(#loc205)
    %offs_cn_138 = arith.extsi %pid_n_40 : i32 to i64 loc(#loc205)
    %offs_cn_139 = arith.extsi %offs_cn_137 : i32 to i64 loc(#loc205)
    %offs_cn_140 = arith.muli %offs_cn_138, %offs_cn_139 : i64 loc(#loc205)
    %offs_cn_141 = arith.constant 2147483647 : i64 loc(#loc205)
    %offs_cn_142 = arith.constant -2147483648 : i64 loc(#loc205)
    %offs_cn_143 = arith.cmpi sle, %offs_cn_140, %offs_cn_141 : i64 loc(#loc205)
    %offs_cn_144 = arith.cmpi sge, %offs_cn_140, %offs_cn_142 : i64 loc(#loc205)
    %offs_cn_145 = arith.andi %offs_cn_143, %offs_cn_144 : i1 loc(#loc205)
    %offs_cn_146 = arith.muli %pid_n_40, %offs_cn_137 : i32 loc(#loc205)
    %offs_cn_147 = tt.make_range {end = 64 : i32, start = 0 : i32} : tensor<64xi32> loc(#loc206)
    %offs_cn_148 = tt.splat %offs_cn_146 : i32 -> tensor<64xi32> loc(#loc207)
    %offs_cn_149 = arith.extsi %offs_cn_148 : tensor<64xi32> to tensor<64xi64> loc(#loc207)
    %offs_cn_150 = arith.extsi %offs_cn_147 : tensor<64xi32> to tensor<64xi64> loc(#loc207)
    %offs_cn_151 = arith.addi %offs_cn_149, %offs_cn_150 : tensor<64xi64> loc(#loc207)
    %offs_cn_152 = arith.constant 2147483647 : i64 loc(#loc207)
    %offs_cn_153 = arith.constant -2147483648 : i64 loc(#loc207)
    %offs_cn_154 = arith.constant dense<2147483647> : tensor<64xi64> loc(#loc207)
    %offs_cn_155 = arith.cmpi sle, %offs_cn_151, %offs_cn_154 : tensor<64xi64> loc(#loc207)
    %offs_cn_156 = arith.constant dense<-2147483648> : tensor<64xi64> loc(#loc207)
    %offs_cn_157 = arith.cmpi sge, %offs_cn_151, %offs_cn_156 : tensor<64xi64> loc(#loc207)
    %offs_cn_158 = arith.andi %offs_cn_155, %offs_cn_157 : tensor<64xi1> loc(#loc207)
    %offs_cn_159 = arith.addi %offs_cn_148, %offs_cn_147 : tensor<64xi32> loc(#loc207)
    %c_ptrs = tt.expand_dims %offs_token_49 {axis = 1 : i32} : tensor<16xi64> -> tensor<16x1xi64> loc(#loc208)
    %c_ptrs_160 = arith.extsi %stride_cm : i32 to i64 loc(#loc209)
    %c_ptrs_161 = tt.splat %c_ptrs_160 : i64 -> tensor<16x1xi64> loc(#loc209)
    %c_ptrs_162 = arith.muli %c_ptrs_161, %c_ptrs : tensor<16x1xi64> loc(#loc209)
    %c_ptrs_163 = tt.splat %c_ptr : !tt.ptr<bf16> -> tensor<16x1x!tt.ptr<bf16>> loc(#loc210)
    %c_ptrs_164 = tt.addptr %c_ptrs_163, %c_ptrs_162 : tensor<16x1x!tt.ptr<bf16>>, tensor<16x1xi64> loc(#loc210)
    %c_ptrs_165 = tt.expand_dims %offs_cn_159 {axis = 0 : i32} : tensor<64xi32> -> tensor<1x64xi32> loc(#loc211)
    %c_ptrs_166 = arith.constant 1 : i32 loc(#loc212)
    %c_ptrs_167 = arith.constant 1 : i32 loc(#loc212)
    %c_ptrs_168 = arith.constant dense<1> : tensor<1x64xi32> loc(#loc212)
    %c_ptrs_169 = arith.extsi %c_ptrs_168 : tensor<1x64xi32> to tensor<1x64xi64> loc(#loc212)
    %c_ptrs_170 = arith.extsi %c_ptrs_165 : tensor<1x64xi32> to tensor<1x64xi64> loc(#loc212)
    %c_ptrs_171 = arith.muli %c_ptrs_169, %c_ptrs_170 : tensor<1x64xi64> loc(#loc212)
    %c_ptrs_172 = arith.constant 2147483647 : i64 loc(#loc212)
    %c_ptrs_173 = arith.constant -2147483648 : i64 loc(#loc212)
    %c_ptrs_174 = arith.constant dense<2147483647> : tensor<1x64xi64> loc(#loc212)
    %c_ptrs_175 = arith.cmpi sle, %c_ptrs_171, %c_ptrs_174 : tensor<1x64xi64> loc(#loc212)
    %c_ptrs_176 = arith.constant dense<-2147483648> : tensor<1x64xi64> loc(#loc212)
    %c_ptrs_177 = arith.cmpi sge, %c_ptrs_171, %c_ptrs_176 : tensor<1x64xi64> loc(#loc212)
    %c_ptrs_178 = arith.andi %c_ptrs_175, %c_ptrs_177 : tensor<1x64xi1> loc(#loc212)
    %c_ptrs_179 = arith.muli %c_ptrs_168, %c_ptrs_165 : tensor<1x64xi32> loc(#loc212)
    %c_ptrs_180 = tt.broadcast %c_ptrs_164 : tensor<16x1x!tt.ptr<bf16>> -> tensor<16x64x!tt.ptr<bf16>> loc(#loc213)
    %c_ptrs_181 = tt.broadcast %c_ptrs_179 : tensor<1x64xi32> -> tensor<16x64xi32> loc(#loc213)
    %c_ptrs_182 = tt.addptr %c_ptrs_180, %c_ptrs_181 : tensor<16x64x!tt.ptr<bf16>>, tensor<16x64xi32> loc(#loc213)
    %c_mask = tt.expand_dims %token_mask_51 {axis = 1 : i32} : tensor<16xi1> -> tensor<16x1xi1> loc(#loc214)
    %c_mask_183 = tt.expand_dims %offs_cn_159 {axis = 0 : i32} : tensor<64xi32> -> tensor<1x64xi32> loc(#loc215)
    %c_mask_184 = tt.splat %N : i32 -> tensor<1x64xi32> loc(#loc216)
    %c_mask_185 = arith.cmpi slt, %c_mask_183, %c_mask_184 : tensor<1x64xi32> loc(#loc216)
    %c_mask_186 = tt.broadcast %c_mask : tensor<16x1xi1> -> tensor<16x64xi1> loc(#loc217)
    %c_mask_187 = tt.broadcast %c_mask_185 : tensor<1x64xi1> -> tensor<16x64xi1> loc(#loc217)
    %c_mask_188 = arith.andi %c_mask_186, %c_mask_187 : tensor<16x64xi1> loc(#loc217)
    tt.store %c_ptrs_182, %accumulator_136, %c_mask_188 : tensor<16x64x!tt.ptr<bf16>> loc(#loc89)
    tt.return loc(#loc90)
  } loc(#loc)
  tt.func private @"triton.language.standard.cdiv__i32__(1,)cconstexpr_16_"(%x: i32 loc("x"(#loc91))) -> i32 attributes {noinline = false} {
    %c15_i32 = arith.constant 15 : i32 loc(#loc92)
    %c15_i32_0 = arith.constant 15 : i32 loc(#loc92)
    %0 = arith.extsi %x : i32 to i64 loc(#loc92)
    %1 = arith.extsi %c15_i32_0 : i32 to i64 loc(#loc92)
    %2 = arith.addi %0, %1 : i64 loc(#loc92)
    %c2147483647_i64 = arith.constant 2147483647 : i64 loc(#loc92)
    %c-2147483648_i64 = arith.constant -2147483648 : i64 loc(#loc92)
    %3 = arith.cmpi sle, %2, %c2147483647_i64 : i64 loc(#loc92)
    %4 = arith.cmpi sge, %2, %c-2147483648_i64 : i64 loc(#loc92)
    %5 = arith.andi %3, %4 : i1 loc(#loc92)
    %6 = arith.addi %x, %c15_i32_0 : i32 loc(#loc92)
    %c16_i32 = arith.constant 16 : i32 loc(#loc93)
    %c16_i32_1 = arith.constant 16 : i32 loc(#loc93)
    %7 = arith.divsi %6, %c16_i32_1 : i32 loc(#loc93)
    tt.return %7 : i32 loc(#loc94)
  ^bb1:  // no predecessors
    %8 = ub.poison : i32 loc(#loc95)
    tt.return %8 : i32 loc(#loc95)
  } loc(#loc91)
  tt.func private @"triton.language.standard.cdiv__i32__(1,)cconstexpr_64_"(%x: i32 loc("x"(#loc91))) -> i32 attributes {noinline = false} {
    %c63_i32 = arith.constant 63 : i32 loc(#loc92)
    %c63_i32_0 = arith.constant 63 : i32 loc(#loc92)
    %0 = arith.extsi %x : i32 to i64 loc(#loc92)
    %1 = arith.extsi %c63_i32_0 : i32 to i64 loc(#loc92)
    %2 = arith.addi %0, %1 : i64 loc(#loc92)
    %c2147483647_i64 = arith.constant 2147483647 : i64 loc(#loc92)
    %c-2147483648_i64 = arith.constant -2147483648 : i64 loc(#loc92)
    %3 = arith.cmpi sle, %2, %c2147483647_i64 : i64 loc(#loc92)
    %4 = arith.cmpi sge, %2, %c-2147483648_i64 : i64 loc(#loc92)
    %5 = arith.andi %3, %4 : i1 loc(#loc92)
    %6 = arith.addi %x, %c63_i32_0 : i32 loc(#loc92)
    %c64_i32 = arith.constant 64 : i32 loc(#loc93)
    %c64_i32_1 = arith.constant 64 : i32 loc(#loc93)
    %7 = arith.divsi %6, %c64_i32_1 : i32 loc(#loc93)
    tt.return %7 : i32 loc(#loc94)
  ^bb1:  // no predecessors
    %8 = ub.poison : i32 loc(#loc95)
    tt.return %8 : i32 loc(#loc95)
  } loc(#loc91)
  tt.func private @"vllm.model_executor.layers.fused_moe.fused_moe.write_zeros_to_output__Pbf16_i32_i32_i32_i64S16S_u1S16S__(2,)cconstexpr_1__(7,)cconstexpr_16__(8,)cconstexpr_64__(9,)cconstexpr_bf16_"(%c_ptr: !tt.ptr<bf16> loc("c_ptr"(#loc96)), %stride_cm: i32 loc("stride_cm"(#loc96)), %pid_n: i32 loc("pid_n"(#loc96)), %N: i32 loc("N"(#loc96)), %offs_token: tensor<16xi64> loc("offs_token"(#loc96)), %token_mask: tensor<16xi1> loc("token_mask"(#loc96))) attributes {noinline = false} {
    %accumulator = tt.call @"triton.language.standard.zeros____(0, 0)cconstexpr_16__(0, 1)cconstexpr_64__(1,)cconstexpr_bf16_"() : () -> tensor<16x64xbf16> loc(#loc225)
    %offs_cn = arith.constant 64 : i32 loc(#loc226)
    %offs_cn_0 = arith.constant 64 : i32 loc(#loc226)
    %offs_cn_1 = arith.extsi %pid_n : i32 to i64 loc(#loc226)
    %offs_cn_2 = arith.extsi %offs_cn_0 : i32 to i64 loc(#loc226)
    %offs_cn_3 = arith.muli %offs_cn_1, %offs_cn_2 : i64 loc(#loc226)
    %offs_cn_4 = arith.constant 2147483647 : i64 loc(#loc226)
    %offs_cn_5 = arith.constant -2147483648 : i64 loc(#loc226)
    %offs_cn_6 = arith.cmpi sle, %offs_cn_3, %offs_cn_4 : i64 loc(#loc226)
    %offs_cn_7 = arith.cmpi sge, %offs_cn_3, %offs_cn_5 : i64 loc(#loc226)
    %offs_cn_8 = arith.andi %offs_cn_6, %offs_cn_7 : i1 loc(#loc226)
    %offs_cn_9 = arith.muli %pid_n, %offs_cn_0 : i32 loc(#loc226)
    %offs_cn_10 = tt.make_range {end = 64 : i32, start = 0 : i32} : tensor<64xi32> loc(#loc227)
    %offs_cn_11 = tt.splat %offs_cn_9 : i32 -> tensor<64xi32> loc(#loc228)
    %offs_cn_12 = arith.extsi %offs_cn_11 : tensor<64xi32> to tensor<64xi64> loc(#loc228)
    %offs_cn_13 = arith.extsi %offs_cn_10 : tensor<64xi32> to tensor<64xi64> loc(#loc228)
    %offs_cn_14 = arith.addi %offs_cn_12, %offs_cn_13 : tensor<64xi64> loc(#loc228)
    %offs_cn_15 = arith.constant 2147483647 : i64 loc(#loc228)
    %offs_cn_16 = arith.constant -2147483648 : i64 loc(#loc228)
    %offs_cn_17 = arith.constant dense<2147483647> : tensor<64xi64> loc(#loc228)
    %offs_cn_18 = arith.cmpi sle, %offs_cn_14, %offs_cn_17 : tensor<64xi64> loc(#loc228)
    %offs_cn_19 = arith.constant dense<-2147483648> : tensor<64xi64> loc(#loc228)
    %offs_cn_20 = arith.cmpi sge, %offs_cn_14, %offs_cn_19 : tensor<64xi64> loc(#loc228)
    %offs_cn_21 = arith.andi %offs_cn_18, %offs_cn_20 : tensor<64xi1> loc(#loc228)
    %offs_cn_22 = arith.addi %offs_cn_11, %offs_cn_10 : tensor<64xi32> loc(#loc228)
    %c_ptrs = tt.expand_dims %offs_token {axis = 1 : i32} : tensor<16xi64> -> tensor<16x1xi64> loc(#loc229)
    %c_ptrs_23 = arith.extsi %stride_cm : i32 to i64 loc(#loc230)
    %c_ptrs_24 = tt.splat %c_ptrs_23 : i64 -> tensor<16x1xi64> loc(#loc230)
    %c_ptrs_25 = arith.muli %c_ptrs_24, %c_ptrs : tensor<16x1xi64> loc(#loc230)
    %c_ptrs_26 = tt.splat %c_ptr : !tt.ptr<bf16> -> tensor<16x1x!tt.ptr<bf16>> loc(#loc231)
    %c_ptrs_27 = tt.addptr %c_ptrs_26, %c_ptrs_25 : tensor<16x1x!tt.ptr<bf16>>, tensor<16x1xi64> loc(#loc231)
    %c_ptrs_28 = tt.expand_dims %offs_cn_22 {axis = 0 : i32} : tensor<64xi32> -> tensor<1x64xi32> loc(#loc232)
    %c_ptrs_29 = arith.constant 1 : i32 loc(#loc233)
    %c_ptrs_30 = arith.constant 1 : i32 loc(#loc233)
    %c_ptrs_31 = arith.constant dense<1> : tensor<1x64xi32> loc(#loc233)
    %c_ptrs_32 = arith.extsi %c_ptrs_31 : tensor<1x64xi32> to tensor<1x64xi64> loc(#loc233)
    %c_ptrs_33 = arith.extsi %c_ptrs_28 : tensor<1x64xi32> to tensor<1x64xi64> loc(#loc233)
    %c_ptrs_34 = arith.muli %c_ptrs_32, %c_ptrs_33 : tensor<1x64xi64> loc(#loc233)
    %c_ptrs_35 = arith.constant 2147483647 : i64 loc(#loc233)
    %c_ptrs_36 = arith.constant -2147483648 : i64 loc(#loc233)
    %c_ptrs_37 = arith.constant dense<2147483647> : tensor<1x64xi64> loc(#loc233)
    %c_ptrs_38 = arith.cmpi sle, %c_ptrs_34, %c_ptrs_37 : tensor<1x64xi64> loc(#loc233)
    %c_ptrs_39 = arith.constant dense<-2147483648> : tensor<1x64xi64> loc(#loc233)
    %c_ptrs_40 = arith.cmpi sge, %c_ptrs_34, %c_ptrs_39 : tensor<1x64xi64> loc(#loc233)
    %c_ptrs_41 = arith.andi %c_ptrs_38, %c_ptrs_40 : tensor<1x64xi1> loc(#loc233)
    %c_ptrs_42 = arith.muli %c_ptrs_31, %c_ptrs_28 : tensor<1x64xi32> loc(#loc233)
    %c_ptrs_43 = tt.broadcast %c_ptrs_27 : tensor<16x1x!tt.ptr<bf16>> -> tensor<16x64x!tt.ptr<bf16>> loc(#loc234)
    %c_ptrs_44 = tt.broadcast %c_ptrs_42 : tensor<1x64xi32> -> tensor<16x64xi32> loc(#loc234)
    %c_ptrs_45 = tt.addptr %c_ptrs_43, %c_ptrs_44 : tensor<16x64x!tt.ptr<bf16>>, tensor<16x64xi32> loc(#loc234)
    %c_mask = tt.expand_dims %token_mask {axis = 1 : i32} : tensor<16xi1> -> tensor<16x1xi1> loc(#loc235)
    %c_mask_46 = tt.expand_dims %offs_cn_22 {axis = 0 : i32} : tensor<64xi32> -> tensor<1x64xi32> loc(#loc236)
    %c_mask_47 = tt.splat %N : i32 -> tensor<1x64xi32> loc(#loc237)
    %c_mask_48 = arith.cmpi slt, %c_mask_46, %c_mask_47 : tensor<1x64xi32> loc(#loc237)
    %c_mask_49 = tt.broadcast %c_mask : tensor<16x1xi1> -> tensor<16x64xi1> loc(#loc238)
    %c_mask_50 = tt.broadcast %c_mask_48 : tensor<1x64xi1> -> tensor<16x64xi1> loc(#loc238)
    %c_mask_51 = arith.andi %c_mask_49, %c_mask_50 : tensor<16x64xi1> loc(#loc238)
    tt.store %c_ptrs_45, %accumulator, %c_mask_51 : tensor<16x64x!tt.ptr<bf16>> loc(#loc111)
    tt.return loc(#loc112)
  } loc(#loc96)
  tt.func private @"triton.language.standard.zeros____(0, 0)cconstexpr_16__(0, 1)cconstexpr_64__(1,)cconstexpr_bf16_"() -> tensor<16x64xbf16> attributes {noinline = false} {
    %cst = arith.constant 0.000000e+00 : bf16 loc(#loc114)
    %cst_0 = arith.constant dense<0.000000e+00> : tensor<16x64xbf16> loc(#loc114)
    tt.return %cst_0 : tensor<16x64xbf16> loc(#loc115)
  ^bb1:  // no predecessors
    %0 = ub.poison : tensor<16x64xbf16> loc(#loc116)
    tt.return %0 : tensor<16x64xbf16> loc(#loc116)
  } loc(#loc113)
  tt.func private @"triton.language.standard.zeros____(0, 0)cconstexpr_16__(0, 1)cconstexpr_64__(1,)cconstexpr_fp32_"() -> tensor<16x64xf32> attributes {noinline = false} {
    %cst = arith.constant 0.000000e+00 : f32 loc(#loc114)
    %cst_0 = arith.constant dense<0.000000e+00> : tensor<16x64xf32> loc(#loc114)
    tt.return %cst_0 : tensor<16x64xf32> loc(#loc115)
  ^bb1:  // no predecessors
    %0 = ub.poison : tensor<16x64xf32> loc(#loc116)
    tt.return %0 : tensor<16x64xf32> loc(#loc116)
  } loc(#loc113)
  tt.func private @"triton.language.standard.cdiv__i32__(1,)cconstexpr_128_"(%x: i32 loc("x"(#loc91))) -> i32 attributes {noinline = false} {
    %c127_i32 = arith.constant 127 : i32 loc(#loc92)
    %c127_i32_0 = arith.constant 127 : i32 loc(#loc92)
    %0 = arith.extsi %x : i32 to i64 loc(#loc92)
    %1 = arith.extsi %c127_i32_0 : i32 to i64 loc(#loc92)
    %2 = arith.addi %0, %1 : i64 loc(#loc92)
    %c2147483647_i64 = arith.constant 2147483647 : i64 loc(#loc92)
    %c-2147483648_i64 = arith.constant -2147483648 : i64 loc(#loc92)
    %3 = arith.cmpi sle, %2, %c2147483647_i64 : i64 loc(#loc92)
    %4 = arith.cmpi sge, %2, %c-2147483648_i64 : i64 loc(#loc92)
    %5 = arith.andi %3, %4 : i1 loc(#loc92)
    %6 = arith.addi %x, %c127_i32_0 : i32 loc(#loc92)
    %c128_i32 = arith.constant 128 : i32 loc(#loc93)
    %c128_i32_1 = arith.constant 128 : i32 loc(#loc93)
    %7 = arith.divsi %6, %c128_i32_1 : i32 loc(#loc93)
    tt.return %7 : i32 loc(#loc94)
  ^bb1:  // no predecessors
    %8 = ub.poison : i32 loc(#loc95)
    tt.return %8 : i32 loc(#loc95)
  } loc(#loc91)
} loc(#loc)
#loc1 = loc("/home/ericbuehler/vllm/.venv-bench/lib/python3.12/site-packages/vllm/model_executor/layers/fused_moe/fused_moe.py":381:24)
#loc2 = loc("/home/ericbuehler/vllm/.venv-bench/lib/python3.12/site-packages/vllm/model_executor/layers/fused_moe/fused_moe.py":382:28)
#loc3 = loc("/home/ericbuehler/vllm/.venv-bench/lib/python3.12/site-packages/vllm/model_executor/layers/fused_moe/fused_moe.py":383:27)
#loc4 = loc("/home/ericbuehler/vllm/.venv-bench/lib/python3.12/site-packages/vllm/model_executor/layers/fused_moe/fused_moe.py":384:38)
#loc5 = loc("/home/ericbuehler/vllm/.venv-bench/lib/python3.12/site-packages/vllm/model_executor/layers/fused_moe/fused_moe.py":385:22)
#loc6 = loc("/home/ericbuehler/vllm/.venv-bench/lib/python3.12/site-packages/vllm/model_executor/layers/fused_moe/fused_moe.py":386:29)
#loc7 = loc("/home/ericbuehler/vllm/.venv-bench/lib/python3.12/site-packages/vllm/model_executor/layers/fused_moe/fused_moe.py":387:35)
#loc8 = loc("/home/ericbuehler/vllm/.venv-bench/lib/python3.12/site-packages/vllm/model_executor/layers/fused_moe/fused_moe.py":387:48)
#loc9 = loc("/home/ericbuehler/vllm/.venv-bench/lib/python3.12/site-packages/vllm/model_executor/layers/fused_moe/fused_moe.py":388:34)
#loc10 = loc("/home/ericbuehler/vllm/.venv-bench/lib/python3.12/site-packages/vllm/model_executor/layers/fused_moe/fused_moe.py":388:54)
#loc11 = loc("/home/ericbuehler/vllm/.venv-bench/lib/python3.12/site-packages/vllm/model_executor/layers/fused_moe/fused_moe.py":388:27)
#loc12 = loc("/home/ericbuehler/vllm/.venv-bench/lib/python3.12/site-packages/vllm/model_executor/layers/fused_moe/fused_moe.py":389:19)
#loc13 = loc("/home/ericbuehler/vllm/.venv-bench/lib/python3.12/site-packages/vllm/model_executor/layers/fused_moe/fused_moe.py":389:40)
#loc14 = loc("/home/ericbuehler/vllm/.venv-bench/lib/python3.12/site-packages/vllm/model_executor/layers/fused_moe/fused_moe.py":397:24)
#loc15 = loc("/home/ericbuehler/vllm/.venv-bench/lib/python3.12/site-packages/vllm/model_executor/layers/fused_moe/fused_moe.py":397:41)
#loc16 = loc("/home/ericbuehler/vllm/.venv-bench/lib/python3.12/site-packages/vllm/model_executor/layers/fused_moe/fused_moe.py":398:37)
#loc17 = loc("/home/ericbuehler/vllm/.venv-bench/lib/python3.12/site-packages/vllm/model_executor/layers/fused_moe/fused_moe.py":399:15)
#loc18 = loc("/home/ericbuehler/vllm/.venv-bench/lib/python3.12/site-packages/vllm/model_executor/layers/fused_moe/fused_moe.py":399:31)
#loc19 = loc("/home/ericbuehler/vllm/.venv-bench/lib/python3.12/site-packages/vllm/model_executor/layers/fused_moe/fused_moe.py":400:8)
#loc20 = loc("/home/ericbuehler/vllm/.venv-bench/lib/python3.12/site-packages/vllm/model_executor/layers/fused_moe/fused_moe.py":406:20)
#loc21 = loc("/home/ericbuehler/vllm/.venv-bench/lib/python3.12/site-packages/vllm/model_executor/layers/fused_moe/fused_moe.py":408:12)
#loc22 = loc("/home/ericbuehler/vllm/.venv-bench/lib/python3.12/site-packages/vllm/model_executor/layers/fused_moe/fused_moe.py":412:31)
#loc23 = loc("/home/ericbuehler/vllm/.venv-bench/lib/python3.12/site-packages/vllm/model_executor/layers/fused_moe/fused_moe.py":414:30)
#loc24 = loc("/home/ericbuehler/vllm/.venv-bench/lib/python3.12/site-packages/vllm/model_executor/layers/fused_moe/fused_moe.py":416:43)
#loc25 = loc("/home/ericbuehler/vllm/.venv-bench/lib/python3.12/site-packages/vllm/model_executor/layers/fused_moe/fused_moe.py":416:26)
#loc26 = loc("/home/ericbuehler/vllm/.venv-bench/lib/python3.12/site-packages/vllm/model_executor/layers/fused_moe/fused_moe.py":416:53)
#loc27 = loc("/home/ericbuehler/vllm/.venv-bench/lib/python3.12/site-packages/vllm/model_executor/layers/fused_moe/fused_moe.py":417:22)
#loc28 = loc("/home/ericbuehler/vllm/.venv-bench/lib/python3.12/site-packages/vllm/model_executor/layers/fused_moe/fused_moe.py":431:12)
#loc29 = loc("/home/ericbuehler/vllm/.venv-bench/lib/python3.12/site-packages/vllm/model_executor/layers/fused_moe/fused_moe.py":433:8)
#loc30 = loc("/home/ericbuehler/vllm/.venv-bench/lib/python3.12/site-packages/vllm/model_executor/layers/fused_moe/fused_moe.py":435:23)
#loc31 = loc("/home/ericbuehler/vllm/.venv-bench/lib/python3.12/site-packages/vllm/model_executor/layers/fused_moe/fused_moe.py":435:51)
#loc32 = loc("/home/ericbuehler/vllm/.venv-bench/lib/python3.12/site-packages/vllm/model_executor/layers/fused_moe/fused_moe.py":435:68)
#loc33 = loc("/home/ericbuehler/vllm/.venv-bench/lib/python3.12/site-packages/vllm/model_executor/layers/fused_moe/fused_moe.py":435:38)
#loc34 = loc("/home/ericbuehler/vllm/.venv-bench/lib/python3.12/site-packages/vllm/model_executor/layers/fused_moe/fused_moe.py":435:81)
#loc35 = loc("/home/ericbuehler/vllm/.venv-bench/lib/python3.12/site-packages/vllm/model_executor/layers/fused_moe/fused_moe.py":436:26)
#loc36 = loc("/home/ericbuehler/vllm/.venv-bench/lib/python3.12/site-packages/vllm/model_executor/layers/fused_moe/fused_moe.py":438:19)
#loc37 = loc("/home/ericbuehler/vllm/.venv-bench/lib/python3.12/site-packages/vllm/model_executor/layers/fused_moe/fused_moe.py":438:31)
#loc38 = loc("/home/ericbuehler/vllm/.venv-bench/lib/python3.12/site-packages/vllm/model_executor/layers/fused_moe/fused_moe.py":438:39)
#loc39 = loc("/home/ericbuehler/vllm/.venv-bench/lib/python3.12/site-packages/vllm/model_executor/layers/fused_moe/fused_moe.py":438:58)
#loc40 = loc("/home/ericbuehler/vllm/.venv-bench/lib/python3.12/site-packages/vllm/model_executor/layers/fused_moe/fused_moe.py":438:69)
#loc41 = loc("/home/ericbuehler/vllm/.venv-bench/lib/python3.12/site-packages/vllm/model_executor/layers/fused_moe/fused_moe.py":438:51)
#loc42 = loc("/home/ericbuehler/vllm/.venv-bench/lib/python3.12/site-packages/vllm/model_executor/layers/fused_moe/fused_moe.py":438:8)
#loc43 = loc("/home/ericbuehler/vllm/.venv-bench/lib/python3.12/site-packages/vllm/model_executor/layers/fused_moe/fused_moe.py":443:24)
#loc44 = loc("/home/ericbuehler/vllm/.venv-bench/lib/python3.12/site-packages/vllm/model_executor/layers/fused_moe/fused_moe.py":443:10)
#loc45 = loc("/home/ericbuehler/vllm/.venv-bench/lib/python3.12/site-packages/vllm/model_executor/layers/fused_moe/fused_moe.py":444:18)
#loc46 = loc("/home/ericbuehler/vllm/.venv-bench/lib/python3.12/site-packages/vllm/model_executor/layers/fused_moe/fused_moe.py":444:29)
#loc47 = loc("/home/ericbuehler/vllm/.venv-bench/lib/python3.12/site-packages/vllm/model_executor/layers/fused_moe/fused_moe.py":444:49)
#loc48 = loc("/home/ericbuehler/vllm/.venv-bench/lib/python3.12/site-packages/vllm/model_executor/layers/fused_moe/fused_moe.py":444:60)
#loc49 = loc("/home/ericbuehler/vllm/.venv-bench/lib/python3.12/site-packages/vllm/model_executor/layers/fused_moe/fused_moe.py":444:41)
#loc50 = loc("/home/ericbuehler/vllm/.venv-bench/lib/python3.12/site-packages/vllm/model_executor/layers/fused_moe/fused_moe.py":444:11)
#loc51 = loc("/home/ericbuehler/vllm/.venv-bench/lib/python3.12/site-packages/vllm/model_executor/layers/fused_moe/fused_moe.py":482:27)
#loc52 = loc("/home/ericbuehler/vllm/.venv-bench/lib/python3.12/site-packages/vllm/model_executor/layers/fused_moe/fused_moe.py":483:33)
#loc53 = loc("/home/ericbuehler/vllm/.venv-bench/lib/python3.12/site-packages/vllm/model_executor/layers/fused_moe/fused_moe.py":483:22)
#loc54 = loc("/home/ericbuehler/vllm/.venv-bench/lib/python3.12/site-packages/vllm/model_executor/layers/fused_moe/fused_moe.py":488:28)
#loc55 = loc("/home/ericbuehler/vllm/.venv-bench/lib/python3.12/site-packages/vllm/model_executor/layers/fused_moe/fused_moe.py":488:47)
#loc56 = loc("/home/ericbuehler/vllm/.venv-bench/lib/python3.12/site-packages/vllm/model_executor/layers/fused_moe/fused_moe.py":488:66)
#loc57 = loc("/home/ericbuehler/vllm/.venv-bench/lib/python3.12/site-packages/vllm/model_executor/layers/fused_moe/fused_moe.py":488:62)
#loc58 = loc("/home/ericbuehler/vllm/.venv-bench/lib/python3.12/site-packages/vllm/model_executor/layers/fused_moe/fused_moe.py":488:58)
#loc59 = loc("/home/ericbuehler/vllm/.venv-bench/lib/python3.12/site-packages/vllm/model_executor/layers/fused_moe/fused_moe.py":488:40)
#loc60 = loc("/home/ericbuehler/vllm/.venv-bench/lib/python3.12/site-packages/vllm/model_executor/layers/fused_moe/fused_moe.py":487:12)
#loc61 = loc("/home/ericbuehler/vllm/.venv-bench/lib/python3.12/site-packages/vllm/model_executor/layers/fused_moe/fused_moe.py":491:40)
#loc62 = loc("/home/ericbuehler/vllm/.venv-bench/lib/python3.12/site-packages/vllm/model_executor/layers/fused_moe/fused_moe.py":491:59)
#loc63 = loc("/home/ericbuehler/vllm/.venv-bench/lib/python3.12/site-packages/vllm/model_executor/layers/fused_moe/fused_moe.py":491:55)
#loc64 = loc("/home/ericbuehler/vllm/.venv-bench/lib/python3.12/site-packages/vllm/model_executor/layers/fused_moe/fused_moe.py":491:51)
#loc65 = loc("/home/ericbuehler/vllm/.venv-bench/lib/python3.12/site-packages/vllm/model_executor/layers/fused_moe/fused_moe.py":491:20)
#loc66 = loc("/home/ericbuehler/vllm/.venv-bench/lib/python3.12/site-packages/vllm/model_executor/layers/fused_moe/fused_moe.py":512:37)
#loc67 = loc("/home/ericbuehler/vllm/.venv-bench/lib/python3.12/site-packages/vllm/model_executor/layers/fused_moe/fused_moe.py":512:27)
#loc68 = loc("/home/ericbuehler/vllm/.venv-bench/lib/python3.12/site-packages/vllm/model_executor/layers/fused_moe/fused_moe.py":514:18)
#loc69 = loc("/home/ericbuehler/vllm/.venv-bench/lib/python3.12/site-packages/vllm/model_executor/layers/fused_moe/fused_moe.py":515:18)
#loc70 = loc("/home/ericbuehler/vllm/.venv-bench/lib/python3.12/site-packages/vllm/model_executor/layers/fused_moe/fused_moe.py":515:8)
#loc71 = loc("/home/ericbuehler/vllm/.venv-bench/lib/python3.12/site-packages/vllm/model_executor/layers/fused_moe/fused_moe.py":540:31)
#loc72 = loc("/home/ericbuehler/vllm/.venv-bench/lib/python3.12/site-packages/vllm/model_executor/layers/fused_moe/fused_moe.py":540:12)
#loc73 = loc("/home/ericbuehler/vllm/.venv-bench/lib/python3.12/site-packages/vllm/model_executor/layers/fused_moe/fused_moe.py":544:34)
#loc74 = loc("/home/ericbuehler/vllm/.venv-bench/lib/python3.12/site-packages/vllm/model_executor/layers/fused_moe/fused_moe.py":544:23)
#loc75 = loc("/home/ericbuehler/vllm/.venv-bench/lib/python3.12/site-packages/vllm/model_executor/layers/fused_moe/fused_moe.py":548:33)
#loc76 = loc("/home/ericbuehler/vllm/.venv-bench/lib/python3.12/site-packages/vllm/model_executor/layers/fused_moe/fused_moe.py":552:22)
#loc77 = loc("/home/ericbuehler/vllm/.venv-bench/lib/python3.12/site-packages/vllm/model_executor/layers/fused_moe/fused_moe.py":552:50)
#loc78 = loc("/home/ericbuehler/vllm/.venv-bench/lib/python3.12/site-packages/vllm/model_executor/layers/fused_moe/fused_moe.py":552:37)
#loc79 = loc("/home/ericbuehler/vllm/.venv-bench/lib/python3.12/site-packages/vllm/model_executor/layers/fused_moe/fused_moe.py":553:44)
#loc80 = loc("/home/ericbuehler/vllm/.venv-bench/lib/python3.12/site-packages/vllm/model_executor/layers/fused_moe/fused_moe.py":553:33)
#loc81 = loc("/home/ericbuehler/vllm/.venv-bench/lib/python3.12/site-packages/vllm/model_executor/layers/fused_moe/fused_moe.py":553:21)
#loc82 = loc("/home/ericbuehler/vllm/.venv-bench/lib/python3.12/site-packages/vllm/model_executor/layers/fused_moe/fused_moe.py":553:75)
#loc83 = loc("/home/ericbuehler/vllm/.venv-bench/lib/python3.12/site-packages/vllm/model_executor/layers/fused_moe/fused_moe.py":553:67)
#loc84 = loc("/home/ericbuehler/vllm/.venv-bench/lib/python3.12/site-packages/vllm/model_executor/layers/fused_moe/fused_moe.py":553:55)
#loc85 = loc("/home/ericbuehler/vllm/.venv-bench/lib/python3.12/site-packages/vllm/model_executor/layers/fused_moe/fused_moe.py":554:24)
#loc86 = loc("/home/ericbuehler/vllm/.venv-bench/lib/python3.12/site-packages/vllm/model_executor/layers/fused_moe/fused_moe.py":554:44)
#loc87 = loc("/home/ericbuehler/vllm/.venv-bench/lib/python3.12/site-packages/vllm/model_executor/layers/fused_moe/fused_moe.py":554:55)
#loc88 = loc("/home/ericbuehler/vllm/.venv-bench/lib/python3.12/site-packages/vllm/model_executor/layers/fused_moe/fused_moe.py":554:36)
#loc89 = loc("/home/ericbuehler/vllm/.venv-bench/lib/python3.12/site-packages/vllm/model_executor/layers/fused_moe/fused_moe.py":555:21)
#loc90 = loc("/home/ericbuehler/vllm/.venv-bench/lib/python3.12/site-packages/vllm/model_executor/layers/fused_moe/fused_moe.py":555:4)
#loc92 = loc("/home/ericbuehler/vllm/.venv-bench/lib/python3.12/site-packages/triton/language/standard.py":43:17)
#loc93 = loc("/home/ericbuehler/vllm/.venv-bench/lib/python3.12/site-packages/triton/language/standard.py":43:30)
#loc94 = loc("/home/ericbuehler/vllm/.venv-bench/lib/python3.12/site-packages/triton/language/standard.py":43:11)
#loc95 = loc("/home/ericbuehler/vllm/.venv-bench/lib/python3.12/site-packages/triton/language/standard.py":43:4)
#loc97 = loc("/home/ericbuehler/vllm/.venv-bench/lib/python3.12/site-packages/vllm/model_executor/layers/fused_moe/fused_moe.py":53:27)
#loc98 = loc("/home/ericbuehler/vllm/.venv-bench/lib/python3.12/site-packages/vllm/model_executor/layers/fused_moe/fused_moe.py":54:22)
#loc99 = loc("/home/ericbuehler/vllm/.venv-bench/lib/python3.12/site-packages/vllm/model_executor/layers/fused_moe/fused_moe.py":54:50)
#loc100 = loc("/home/ericbuehler/vllm/.venv-bench/lib/python3.12/site-packages/vllm/model_executor/layers/fused_moe/fused_moe.py":54:37)
#loc101 = loc("/home/ericbuehler/vllm/.venv-bench/lib/python3.12/site-packages/vllm/model_executor/layers/fused_moe/fused_moe.py":55:44)
#loc102 = loc("/home/ericbuehler/vllm/.venv-bench/lib/python3.12/site-packages/vllm/model_executor/layers/fused_moe/fused_moe.py":55:33)
#loc103 = loc("/home/ericbuehler/vllm/.venv-bench/lib/python3.12/site-packages/vllm/model_executor/layers/fused_moe/fused_moe.py":55:21)
#loc104 = loc("/home/ericbuehler/vllm/.venv-bench/lib/python3.12/site-packages/vllm/model_executor/layers/fused_moe/fused_moe.py":55:75)
#loc105 = loc("/home/ericbuehler/vllm/.venv-bench/lib/python3.12/site-packages/vllm/model_executor/layers/fused_moe/fused_moe.py":55:67)
#loc106 = loc("/home/ericbuehler/vllm/.venv-bench/lib/python3.12/site-packages/vllm/model_executor/layers/fused_moe/fused_moe.py":55:55)
#loc107 = loc("/home/ericbuehler/vllm/.venv-bench/lib/python3.12/site-packages/vllm/model_executor/layers/fused_moe/fused_moe.py":56:24)
#loc108 = loc("/home/ericbuehler/vllm/.venv-bench/lib/python3.12/site-packages/vllm/model_executor/layers/fused_moe/fused_moe.py":56:44)
#loc109 = loc("/home/ericbuehler/vllm/.venv-bench/lib/python3.12/site-packages/vllm/model_executor/layers/fused_moe/fused_moe.py":56:55)
#loc110 = loc("/home/ericbuehler/vllm/.venv-bench/lib/python3.12/site-packages/vllm/model_executor/layers/fused_moe/fused_moe.py":56:36)
#loc111 = loc("/home/ericbuehler/vllm/.venv-bench/lib/python3.12/site-packages/vllm/model_executor/layers/fused_moe/fused_moe.py":57:21)
#loc112 = loc("/home/ericbuehler/vllm/.venv-bench/lib/python3.12/site-packages/vllm/model_executor/layers/fused_moe/fused_moe.py":57:4)
#loc113 = loc("/home/ericbuehler/vllm/.venv-bench/lib/python3.12/site-packages/triton/language/standard.py":120:0)
#loc114 = loc("/home/ericbuehler/vllm/.venv-bench/lib/python3.12/site-packages/triton/language/standard.py":129:31)
#loc115 = loc("/home/ericbuehler/vllm/.venv-bench/lib/python3.12/site-packages/triton/language/standard.py":129:11)
#loc116 = loc("/home/ericbuehler/vllm/.venv-bench/lib/python3.12/site-packages/triton/language/standard.py":129:4)
#loc138 = loc("pid"(#loc1))
#loc139 = loc("num_pid_m"(#loc2))
#loc140 = loc("num_pid_n"(#loc3))
#loc141 = loc("num_pid_in_group"(#loc4))
#loc142 = loc("group_id"(#loc5))
#loc143 = loc("first_pid_m"(#loc6))
#loc144 = loc("group_size_m"(#loc7))
#loc145 = loc("group_size_m"(#loc8))
#loc146 = loc("pid_m"(#loc9))
#loc147 = loc("pid_m"(#loc10))
#loc148 = loc("pid_m"(#loc11))
#loc149 = loc("pid_n"(#loc12))
#loc150 = loc("pid_n"(#loc13))
#loc151 = loc("offs"(#loc14))
#loc152 = loc("offs"(#loc15))
#loc153 = loc("num_tokens_post_padded"(#loc16))
#loc154 = loc("offs_token"(#loc20))
#loc155 = loc("offs_token"(#loc21))
#loc156 = loc("offs_token"(#loc22))
#loc157 = loc("token_mask"(#loc23))
#loc158 = loc("off_experts"(#loc24))
#loc159 = loc("off_experts"(#loc25))
#loc160 = loc("off_experts"(#loc26))
#loc161 = loc("offs_bn"(#loc30))
#loc162 = loc("offs_bn"(#loc31))
#loc163 = loc("offs_bn"(#loc32))
#loc164 = loc("offs_bn"(#loc33))
#loc165 = loc("offs_bn"(#loc34))
#loc166 = loc("offs_k"(#loc35))
#loc167 = loc("a_ptrs"(#loc36))
#loc168 = loc("a_ptrs"(#loc37))
#loc169 = loc("a_ptrs"(#loc38))
#loc170 = loc("a_ptrs"(#loc39))
#loc171 = loc("a_ptrs"(#loc40))
#loc172 = loc("a_ptrs"(#loc41))
#loc173 = loc("a_ptrs"(#loc42))
#loc174 = loc("b_ptrs"(#loc43))
#loc175 = loc("b_ptrs"(#loc44))
#loc176 = loc("b_ptrs"(#loc45))
#loc177 = loc("b_ptrs"(#loc46))
#loc178 = loc("b_ptrs"(#loc47))
#loc179 = loc("b_ptrs"(#loc48))
#loc180 = loc("b_ptrs"(#loc49))
#loc181 = loc("b_ptrs"(#loc50))
#loc182 = loc("accumulator"(#loc51))
#loc183 = loc("a_ptrs"(#loc53))
#loc184 = loc("a"(#loc54))
#loc185 = loc("a"(#loc55))
#loc186 = loc("a"(#loc56))
#loc187 = loc("a"(#loc57))
#loc188 = loc("a"(#loc58))
#loc189 = loc("a"(#loc59))
#loc190 = loc("a"(#loc60))
#loc191 = loc("b"(#loc61))
#loc192 = loc("b"(#loc62))
#loc193 = loc("b"(#loc63))
#loc194 = loc("b"(#loc64))
#loc195 = loc("b"(#loc65))
#loc196 = loc("accumulator"(#loc66))
#loc197 = loc("accumulator"(#loc67))
#loc198 = loc("a_ptrs"(#loc68))
#loc199 = loc("b_ptrs"(#loc69))
#loc200 = loc("moe_weight"(#loc71))
#loc201 = loc("moe_weight"(#loc72))
#loc202 = loc("accumulator"(#loc73))
#loc203 = loc("accumulator"(#loc74))
#loc204 = loc("accumulator"(#loc75))
#loc205 = loc("offs_cn"(#loc76))
#loc206 = loc("offs_cn"(#loc77))
#loc207 = loc("offs_cn"(#loc78))
#loc208 = loc("c_ptrs"(#loc79))
#loc209 = loc("c_ptrs"(#loc80))
#loc210 = loc("c_ptrs"(#loc81))
#loc211 = loc("c_ptrs"(#loc82))
#loc212 = loc("c_ptrs"(#loc83))
#loc213 = loc("c_ptrs"(#loc84))
#loc214 = loc("c_mask"(#loc85))
#loc215 = loc("c_mask"(#loc86))
#loc216 = loc("c_mask"(#loc87))
#loc217 = loc("c_mask"(#loc88))
#loc225 = loc("accumulator"(#loc97))
#loc226 = loc("offs_cn"(#loc98))
#loc227 = loc("offs_cn"(#loc99))
#loc228 = loc("offs_cn"(#loc100))
#loc229 = loc("c_ptrs"(#loc101))
#loc230 = loc("c_ptrs"(#loc102))
#loc231 = loc("c_ptrs"(#loc103))
#loc232 = loc("c_ptrs"(#loc104))
#loc233 = loc("c_ptrs"(#loc105))
#loc234 = loc("c_ptrs"(#loc106))
#loc235 = loc("c_mask"(#loc107))
#loc236 = loc("c_mask"(#loc108))
#loc237 = loc("c_mask"(#loc109))
#loc238 = loc("c_mask"(#loc110))
#loc239 = loc("b_ptrs"(#loc183))
#loc240 = loc("accumulator"(#loc239))
