#loc = loc("/home/ericbuehler/.cache/vllm/torch_compile_cache/torch_aot_compile/90537ea14f244a5187d6ecc853fbadcf440d710f29c8e182fe8151f3f7751a82/inductor_cache/ja/cjafdt63rw3jx4ifyjplskzvi4iz3iwmshik6i4f3nnlza25v3aj.py":22:0)
#loc69 = loc("in_ptr0"(#loc))
#loc70 = loc("in_ptr1"(#loc))
#loc71 = loc("in_ptr2"(#loc))
#loc72 = loc("in_ptr3"(#loc))
#loc73 = loc("in_ptr4"(#loc))
#loc74 = loc("out_ptr0"(#loc))
#loc75 = loc("out_ptr1"(#loc))
#loc76 = loc("xnumel"(#loc))
module {
  tt.func public @triton_(%in_ptr0: !tt.ptr<bf16> {tt.divisibility = 16 : i32} loc("in_ptr0"(#loc)), %in_ptr1: !tt.ptr<f32> {tt.divisibility = 16 : i32} loc("in_ptr1"(#loc)), %in_ptr2: !tt.ptr<bf16> {tt.divisibility = 16 : i32} loc("in_ptr2"(#loc)), %in_ptr3: !tt.ptr<i64> {tt.divisibility = 16 : i32} loc("in_ptr3"(#loc)), %in_ptr4: !tt.ptr<bf16> {tt.divisibility = 16 : i32} loc("in_ptr4"(#loc)), %out_ptr0: !tt.ptr<bf16> {tt.divisibility = 16 : i32} loc("out_ptr0"(#loc)), %out_ptr1: !tt.ptr<bf16> {tt.divisibility = 16 : i32} loc("out_ptr1"(#loc)), %xnumel: i32 {tt.divisibility = 16 : i32} loc("xnumel"(#loc))) attributes {noinline = false} {
    %cst = arith.constant dense<0> : tensor<1024xi64> loc(#loc1)
    %cst_0 = arith.constant dense<262144> : tensor<1024xi64> loc(#loc1)
    %cst_1 = arith.constant dense<512> : tensor<1024xi64> loc(#loc1)
    %tmp6 = arith.constant dense<9.99999997E-7> : tensor<1024xf32> loc(#loc77)
    %tmp4 = arith.constant dense<5.120000e+02> : tensor<1024xf32> loc(#loc78)
    %cst_2 = arith.constant dense<10240> : tensor<1024xi32> loc(#loc1)
    %cst_3 = arith.constant dense<512> : tensor<1024xi32> loc(#loc1)
    %x2 = arith.constant dense<4096> : tensor<1024xi32> loc(#loc79)
    %x1 = arith.constant dense<16> : tensor<1024xi32> loc(#loc80)
    %cst_4 = arith.constant dense<256> : tensor<1024xi32> loc(#loc1)
    %c1024_i32 = arith.constant 1024 : i32 loc(#loc1)
    %xoffset = tt.get_program_id x : i32 loc(#loc81)
    %xoffset_5 = arith.muli %xoffset, %c1024_i32 : i32 loc(#loc82)
    %xindex = tt.make_range {end = 1024 : i32, start = 0 : i32} : tensor<1024xi32> loc(#loc83)
    %xindex_6 = tt.splat %xoffset_5 : i32 -> tensor<1024xi32> loc(#loc84)
    %xindex_7 = arith.addi %xindex_6, %xindex : tensor<1024xi32> loc(#loc84)
    %x0 = arith.remsi %xindex_7, %cst_4 : tensor<1024xi32> loc(#loc85)
    %x1_8 = arith.divsi %xindex_7, %cst_4 : tensor<1024xi32> loc(#loc86)
    %x1_9 = arith.remsi %x1_8, %x1 : tensor<1024xi32> loc(#loc80)
    %x2_10 = arith.divsi %xindex_7, %x2 : tensor<1024xi32> loc(#loc79)
    %tmp0 = arith.muli %x1_9, %cst_3 : tensor<1024xi32> loc(#loc87)
    %tmp0_11 = arith.addi %x0, %tmp0 : tensor<1024xi32> loc(#loc88)
    %tmp0_12 = arith.muli %x2_10, %cst_2 : tensor<1024xi32> loc(#loc89)
    %tmp0_13 = arith.addi %tmp0_11, %tmp0_12 : tensor<1024xi32> loc(#loc90)
    %tmp0_14 = tt.splat %in_ptr0 : !tt.ptr<bf16> -> tensor<1024x!tt.ptr<bf16>> loc(#loc91)
    %tmp0_15 = tt.addptr %tmp0_14, %tmp0_13 : tensor<1024x!tt.ptr<bf16>>, tensor<1024xi32> loc(#loc91)
    %tmp0_16 = tt.load %tmp0_15 : tensor<1024x!tt.ptr<bf16>> loc(#loc92)
    %tmp0_17 = arith.extf %tmp0_16 : tensor<1024xbf16> to tensor<1024xf32> loc(#loc93)
    %tmp2 = tt.splat %in_ptr1 : !tt.ptr<f32> -> tensor<1024x!tt.ptr<f32>> loc(#loc94)
    %tmp2_18 = tt.addptr %tmp2, %x1_8 : tensor<1024x!tt.ptr<f32>>, tensor<1024xi32> loc(#loc94)
    %tmp2_19 = tt.load %tmp2_18 evictionPolicy = evict_last : tensor<1024x!tt.ptr<f32>> loc(#loc95)
    %tmp10 = tt.splat %in_ptr2 : !tt.ptr<bf16> -> tensor<1024x!tt.ptr<bf16>> loc(#loc96)
    %tmp10_20 = tt.addptr %tmp10, %x0 : tensor<1024x!tt.ptr<bf16>>, tensor<1024xi32> loc(#loc96)
    %tmp10_21 = tt.load %tmp10_20 evictionPolicy = evict_last : tensor<1024x!tt.ptr<bf16>> loc(#loc97)
    %tmp10_22 = arith.extf %tmp10_21 : tensor<1024xbf16> to tensor<1024xf32> loc(#loc98)
    %tmp12 = tt.splat %in_ptr3 : !tt.ptr<i64> -> tensor<1024x!tt.ptr<i64>> loc(#loc99)
    %tmp12_23 = tt.addptr %tmp12, %x2_10 : tensor<1024x!tt.ptr<i64>>, tensor<1024xi32> loc(#loc99)
    %tmp12_24 = tt.load %tmp12_23 evictionPolicy = evict_last : tensor<1024x!tt.ptr<i64>> loc(#loc100)
    %tmp20 = arith.addi %x0, %cst_4 : tensor<1024xi32> loc(#loc101)
    %tmp20_25 = arith.addi %tmp20, %tmp0 : tensor<1024xi32> loc(#loc102)
    %tmp20_26 = arith.addi %tmp20_25, %tmp0_12 : tensor<1024xi32> loc(#loc103)
    %tmp20_27 = tt.addptr %tmp0_14, %tmp20_26 : tensor<1024x!tt.ptr<bf16>>, tensor<1024xi32> loc(#loc104)
    %tmp20_28 = tt.load %tmp20_27 : tensor<1024x!tt.ptr<bf16>> loc(#loc105)
    %tmp20_29 = arith.extf %tmp20_28 : tensor<1024xbf16> to tensor<1024xf32> loc(#loc106)
    %tmp24 = tt.addptr %tmp10, %tmp20 : tensor<1024x!tt.ptr<bf16>>, tensor<1024xi32> loc(#loc107)
    %tmp24_30 = tt.load %tmp24 evictionPolicy = evict_last : tensor<1024x!tt.ptr<bf16>> loc(#loc108)
    %tmp24_31 = arith.extf %tmp24_30 : tensor<1024xbf16> to tensor<1024xf32> loc(#loc109)
    %tmp4_32 = arith.divf %tmp2_19, %tmp4 : tensor<1024xf32> loc(#loc78)
    %tmp6_33 = arith.addf %tmp4_32, %tmp6 : tensor<1024xf32> loc(#loc77)
    %tmp7 = tt.extern_elementwise %tmp6_33 {libname = "", libpath = "", pure = true, symbol = "__nv_rsqrtf"} : (tensor<1024xf32>) -> tensor<1024xf32> loc(#loc110)
    %tmp8 = arith.mulf %tmp0_17, %tmp7 : tensor<1024xf32> loc(#loc111)
    %tmp11 = arith.mulf %tmp8, %tmp10_22 : tensor<1024xf32> loc(#loc112)
    %tmp14 = arith.addi %tmp12_24, %cst_0 : tensor<1024xi64> loc(#loc113)
    %tmp15 = arith.cmpi slt, %tmp12_24, %cst : tensor<1024xi64> loc(#loc114)
    %tmp16 = arith.select %tmp15, %tmp14, %tmp12_24 : tensor<1024xi1>, tensor<1024xi64> loc(#loc115)
    %0 = arith.cmpi sge, %tmp16, %cst : tensor<1024xi64> loc(#loc41)
    %1 = arith.cmpi slt, %tmp16, %cst_0 : tensor<1024xi64> loc(#loc42)
    %2 = arith.andi %0, %1 : tensor<1024xi1> loc(#loc43)
    tt.assert %2, "index out of bounds: 0 <= tmp16 < 262144" : tensor<1024xi1> loc(#loc44)
    %tmp18 = arith.muli %tmp16, %cst_1 : tensor<1024xi64> loc(#loc116)
    %tmp18_34 = arith.extsi %x0 : tensor<1024xi32> to tensor<1024xi64> loc(#loc117)
    %tmp18_35 = arith.addi %tmp18_34, %tmp18 : tensor<1024xi64> loc(#loc117)
    %tmp18_36 = tt.splat %in_ptr4 : !tt.ptr<bf16> -> tensor<1024x!tt.ptr<bf16>> loc(#loc118)
    %tmp18_37 = tt.addptr %tmp18_36, %tmp18_35 : tensor<1024x!tt.ptr<bf16>>, tensor<1024xi64> loc(#loc118)
    %tmp18_38 = tt.load %tmp18_37 : tensor<1024x!tt.ptr<bf16>> loc(#loc119)
    %tmp18_39 = arith.extf %tmp18_38 : tensor<1024xbf16> to tensor<1024xf32> loc(#loc120)
    %tmp19 = arith.mulf %tmp11, %tmp18_39 : tensor<1024xf32> loc(#loc121)
    %tmp22 = arith.mulf %tmp20_29, %tmp7 : tensor<1024xf32> loc(#loc122)
    %tmp25 = arith.mulf %tmp22, %tmp24_31 : tensor<1024xf32> loc(#loc123)
    %tmp26 = arith.extsi %tmp20 : tensor<1024xi32> to tensor<1024xi64> loc(#loc124)
    %tmp26_40 = arith.addi %tmp26, %tmp18 : tensor<1024xi64> loc(#loc124)
    %tmp26_41 = tt.addptr %tmp18_36, %tmp26_40 : tensor<1024x!tt.ptr<bf16>>, tensor<1024xi64> loc(#loc125)
    %tmp26_42 = tt.load %tmp26_41 : tensor<1024x!tt.ptr<bf16>> loc(#loc126)
    %tmp26_43 = arith.extf %tmp26_42 : tensor<1024xbf16> to tensor<1024xf32> loc(#loc127)
    %tmp27 = arith.mulf %tmp25, %tmp26_43 : tensor<1024xf32> loc(#loc128)
    %tmp28 = arith.subf %tmp19, %tmp27 : tensor<1024xf32> loc(#loc129)
    %tmp29 = arith.mulf %tmp25, %tmp18_39 : tensor<1024xf32> loc(#loc130)
    %tmp30 = arith.mulf %tmp11, %tmp26_43 : tensor<1024xf32> loc(#loc131)
    %tmp31 = arith.addf %tmp29, %tmp30 : tensor<1024xf32> loc(#loc132)
    %3 = arith.muli %x1_8, %cst_3 : tensor<1024xi32> loc(#loc62)
    %4 = arith.addi %x0, %3 : tensor<1024xi32> loc(#loc63)
    %5 = tt.splat %out_ptr0 : !tt.ptr<bf16> -> tensor<1024x!tt.ptr<bf16>> loc(#loc64)
    %6 = tt.addptr %5, %4 : tensor<1024x!tt.ptr<bf16>>, tensor<1024xi32> loc(#loc64)
    %7 = arith.truncf %tmp28 : tensor<1024xf32> to tensor<1024xbf16> loc(#loc65)
    tt.store %6, %7 : tensor<1024x!tt.ptr<bf16>> loc(#loc65)
    %8 = tt.splat %out_ptr1 : !tt.ptr<bf16> -> tensor<1024x!tt.ptr<bf16>> loc(#loc66)
    %9 = tt.addptr %8, %4 : tensor<1024x!tt.ptr<bf16>>, tensor<1024xi32> loc(#loc66)
    %10 = arith.truncf %tmp31 : tensor<1024xf32> to tensor<1024xbf16> loc(#loc67)
    tt.store %9, %10 : tensor<1024x!tt.ptr<bf16>> loc(#loc67)
    tt.return loc(#loc68)
  } loc(#loc)
} loc(#loc)
#loc1 = loc(unknown)
#loc2 = loc("/home/ericbuehler/.cache/vllm/torch_compile_cache/torch_aot_compile/90537ea14f244a5187d6ecc853fbadcf440d710f29c8e182fe8151f3f7751a82/inductor_cache/ja/cjafdt63rw3jx4ifyjplskzvi4iz3iwmshik6i4f3nnlza25v3aj.py":40:18)
#loc3 = loc("/home/ericbuehler/.cache/vllm/torch_compile_cache/torch_aot_compile/90537ea14f244a5187d6ecc853fbadcf440d710f29c8e182fe8151f3f7751a82/inductor_cache/ja/cjafdt63rw3jx4ifyjplskzvi4iz3iwmshik6i4f3nnlza25v3aj.py":38:19)
#loc4 = loc("/home/ericbuehler/.cache/vllm/torch_compile_cache/torch_aot_compile/90537ea14f244a5187d6ecc853fbadcf440d710f29c8e182fe8151f3f7751a82/inductor_cache/ja/cjafdt63rw3jx4ifyjplskzvi4iz3iwmshik6i4f3nnlza25v3aj.py":28:19)
#loc5 = loc("/home/ericbuehler/.cache/vllm/torch_compile_cache/torch_aot_compile/90537ea14f244a5187d6ecc853fbadcf440d710f29c8e182fe8151f3f7751a82/inductor_cache/ja/cjafdt63rw3jx4ifyjplskzvi4iz3iwmshik6i4f3nnlza25v3aj.py":27:28)
#loc6 = loc("/home/ericbuehler/.cache/vllm/torch_compile_cache/torch_aot_compile/90537ea14f244a5187d6ecc853fbadcf440d710f29c8e182fe8151f3f7751a82/inductor_cache/ja/cjafdt63rw3jx4ifyjplskzvi4iz3iwmshik6i4f3nnlza25v3aj.py":23:28)
#loc7 = loc("/home/ericbuehler/.cache/vllm/torch_compile_cache/torch_aot_compile/90537ea14f244a5187d6ecc853fbadcf440d710f29c8e182fe8151f3f7751a82/inductor_cache/ja/cjafdt63rw3jx4ifyjplskzvi4iz3iwmshik6i4f3nnlza25v3aj.py":23:33)
#loc8 = loc("/home/ericbuehler/.cache/vllm/torch_compile_cache/torch_aot_compile/90537ea14f244a5187d6ecc853fbadcf440d710f29c8e182fe8151f3f7751a82/inductor_cache/ja/cjafdt63rw3jx4ifyjplskzvi4iz3iwmshik6i4f3nnlza25v3aj.py":24:36)
#loc9 = loc("/home/ericbuehler/.cache/vllm/torch_compile_cache/torch_aot_compile/90537ea14f244a5187d6ecc853fbadcf440d710f29c8e182fe8151f3f7751a82/inductor_cache/ja/cjafdt63rw3jx4ifyjplskzvi4iz3iwmshik6i4f3nnlza25v3aj.py":24:23)
#loc10 = loc("/home/ericbuehler/.cache/vllm/torch_compile_cache/torch_aot_compile/90537ea14f244a5187d6ecc853fbadcf440d710f29c8e182fe8151f3f7751a82/inductor_cache/ja/cjafdt63rw3jx4ifyjplskzvi4iz3iwmshik6i4f3nnlza25v3aj.py":26:19)
#loc11 = loc("/home/ericbuehler/.cache/vllm/torch_compile_cache/torch_aot_compile/90537ea14f244a5187d6ecc853fbadcf440d710f29c8e182fe8151f3f7751a82/inductor_cache/ja/cjafdt63rw3jx4ifyjplskzvi4iz3iwmshik6i4f3nnlza25v3aj.py":27:21)
#loc12 = loc("/home/ericbuehler/.cache/vllm/torch_compile_cache/torch_aot_compile/90537ea14f244a5187d6ecc853fbadcf440d710f29c8e182fe8151f3f7751a82/inductor_cache/ja/cjafdt63rw3jx4ifyjplskzvi4iz3iwmshik6i4f3nnlza25v3aj.py":30:39)
#loc13 = loc("/home/ericbuehler/.cache/vllm/torch_compile_cache/torch_aot_compile/90537ea14f244a5187d6ecc853fbadcf440d710f29c8e182fe8151f3f7751a82/inductor_cache/ja/cjafdt63rw3jx4ifyjplskzvi4iz3iwmshik6i4f3nnlza25v3aj.py":30:35)
#loc14 = loc("/home/ericbuehler/.cache/vllm/torch_compile_cache/torch_aot_compile/90537ea14f244a5187d6ecc853fbadcf440d710f29c8e182fe8151f3f7751a82/inductor_cache/ja/cjafdt63rw3jx4ifyjplskzvi4iz3iwmshik6i4f3nnlza25v3aj.py":30:50)
#loc15 = loc("/home/ericbuehler/.cache/vllm/torch_compile_cache/torch_aot_compile/90537ea14f244a5187d6ecc853fbadcf440d710f29c8e182fe8151f3f7751a82/inductor_cache/ja/cjafdt63rw3jx4ifyjplskzvi4iz3iwmshik6i4f3nnlza25v3aj.py":30:44)
#loc16 = loc("/home/ericbuehler/.cache/vllm/torch_compile_cache/torch_aot_compile/90537ea14f244a5187d6ecc853fbadcf440d710f29c8e182fe8151f3f7751a82/inductor_cache/ja/cjafdt63rw3jx4ifyjplskzvi4iz3iwmshik6i4f3nnlza25v3aj.py":30:30)
#loc17 = loc("/home/ericbuehler/.cache/vllm/torch_compile_cache/torch_aot_compile/90537ea14f244a5187d6ecc853fbadcf440d710f29c8e182fe8151f3f7751a82/inductor_cache/ja/cjafdt63rw3jx4ifyjplskzvi4iz3iwmshik6i4f3nnlza25v3aj.py":30:55)
#loc18 = loc("/home/ericbuehler/.cache/vllm/torch_compile_cache/torch_aot_compile/90537ea14f244a5187d6ecc853fbadcf440d710f29c8e182fe8151f3f7751a82/inductor_cache/ja/cjafdt63rw3jx4ifyjplskzvi4iz3iwmshik6i4f3nnlza25v3aj.py":30:64)
#loc19 = loc("/home/ericbuehler/.cache/vllm/torch_compile_cache/torch_aot_compile/90537ea14f244a5187d6ecc853fbadcf440d710f29c8e182fe8151f3f7751a82/inductor_cache/ja/cjafdt63rw3jx4ifyjplskzvi4iz3iwmshik6i4f3nnlza25v3aj.py":31:30)
#loc20 = loc("/home/ericbuehler/.cache/vllm/torch_compile_cache/torch_aot_compile/90537ea14f244a5187d6ecc853fbadcf440d710f29c8e182fe8151f3f7751a82/inductor_cache/ja/cjafdt63rw3jx4ifyjplskzvi4iz3iwmshik6i4f3nnlza25v3aj.py":31:35)
#loc21 = loc("/home/ericbuehler/.cache/vllm/torch_compile_cache/torch_aot_compile/90537ea14f244a5187d6ecc853fbadcf440d710f29c8e182fe8151f3f7751a82/inductor_cache/ja/cjafdt63rw3jx4ifyjplskzvi4iz3iwmshik6i4f3nnlza25v3aj.py":32:31)
#loc22 = loc("/home/ericbuehler/.cache/vllm/torch_compile_cache/torch_aot_compile/90537ea14f244a5187d6ecc853fbadcf440d710f29c8e182fe8151f3f7751a82/inductor_cache/ja/cjafdt63rw3jx4ifyjplskzvi4iz3iwmshik6i4f3nnlza25v3aj.py":32:36)
#loc23 = loc("/home/ericbuehler/.cache/vllm/torch_compile_cache/torch_aot_compile/90537ea14f244a5187d6ecc853fbadcf440d710f29c8e182fe8151f3f7751a82/inductor_cache/ja/cjafdt63rw3jx4ifyjplskzvi4iz3iwmshik6i4f3nnlza25v3aj.py":32:75)
#loc24 = loc("/home/ericbuehler/.cache/vllm/torch_compile_cache/torch_aot_compile/90537ea14f244a5187d6ecc853fbadcf440d710f29c8e182fe8151f3f7751a82/inductor_cache/ja/cjafdt63rw3jx4ifyjplskzvi4iz3iwmshik6i4f3nnlza25v3aj.py":33:31)
#loc25 = loc("/home/ericbuehler/.cache/vllm/torch_compile_cache/torch_aot_compile/90537ea14f244a5187d6ecc853fbadcf440d710f29c8e182fe8151f3f7751a82/inductor_cache/ja/cjafdt63rw3jx4ifyjplskzvi4iz3iwmshik6i4f3nnlza25v3aj.py":33:36)
#loc26 = loc("/home/ericbuehler/.cache/vllm/torch_compile_cache/torch_aot_compile/90537ea14f244a5187d6ecc853fbadcf440d710f29c8e182fe8151f3f7751a82/inductor_cache/ja/cjafdt63rw3jx4ifyjplskzvi4iz3iwmshik6i4f3nnlza25v3aj.py":34:37)
#loc27 = loc("/home/ericbuehler/.cache/vllm/torch_compile_cache/torch_aot_compile/90537ea14f244a5187d6ecc853fbadcf440d710f29c8e182fe8151f3f7751a82/inductor_cache/ja/cjafdt63rw3jx4ifyjplskzvi4iz3iwmshik6i4f3nnlza25v3aj.py":34:42)
#loc28 = loc("/home/ericbuehler/.cache/vllm/torch_compile_cache/torch_aot_compile/90537ea14f244a5187d6ecc853fbadcf440d710f29c8e182fe8151f3f7751a82/inductor_cache/ja/cjafdt63rw3jx4ifyjplskzvi4iz3iwmshik6i4f3nnlza25v3aj.py":34:51)
#loc29 = loc("/home/ericbuehler/.cache/vllm/torch_compile_cache/torch_aot_compile/90537ea14f244a5187d6ecc853fbadcf440d710f29c8e182fe8151f3f7751a82/inductor_cache/ja/cjafdt63rw3jx4ifyjplskzvi4iz3iwmshik6i4f3nnlza25v3aj.py":34:31)
#loc30 = loc("/home/ericbuehler/.cache/vllm/torch_compile_cache/torch_aot_compile/90537ea14f244a5187d6ecc853fbadcf440d710f29c8e182fe8151f3f7751a82/inductor_cache/ja/cjafdt63rw3jx4ifyjplskzvi4iz3iwmshik6i4f3nnlza25v3aj.py":34:62)
#loc31 = loc("/home/ericbuehler/.cache/vllm/torch_compile_cache/torch_aot_compile/90537ea14f244a5187d6ecc853fbadcf440d710f29c8e182fe8151f3f7751a82/inductor_cache/ja/cjafdt63rw3jx4ifyjplskzvi4iz3iwmshik6i4f3nnlza25v3aj.py":34:71)
#loc32 = loc("/home/ericbuehler/.cache/vllm/torch_compile_cache/torch_aot_compile/90537ea14f244a5187d6ecc853fbadcf440d710f29c8e182fe8151f3f7751a82/inductor_cache/ja/cjafdt63rw3jx4ifyjplskzvi4iz3iwmshik6i4f3nnlza25v3aj.py":35:31)
#loc33 = loc("/home/ericbuehler/.cache/vllm/torch_compile_cache/torch_aot_compile/90537ea14f244a5187d6ecc853fbadcf440d710f29c8e182fe8151f3f7751a82/inductor_cache/ja/cjafdt63rw3jx4ifyjplskzvi4iz3iwmshik6i4f3nnlza25v3aj.py":35:42)
#loc34 = loc("/home/ericbuehler/.cache/vllm/torch_compile_cache/torch_aot_compile/90537ea14f244a5187d6ecc853fbadcf440d710f29c8e182fe8151f3f7751a82/inductor_cache/ja/cjafdt63rw3jx4ifyjplskzvi4iz3iwmshik6i4f3nnlza25v3aj.py":35:81)
#loc35 = loc("/home/ericbuehler/.cache/vllm/torch_compile_cache/torch_aot_compile/90537ea14f244a5187d6ecc853fbadcf440d710f29c8e182fe8151f3f7751a82/inductor_cache/ja/cjafdt63rw3jx4ifyjplskzvi4iz3iwmshik6i4f3nnlza25v3aj.py":41:27)
#loc36 = loc("/home/ericbuehler/.cache/vllm/torch_compile_cache/torch_aot_compile/90537ea14f244a5187d6ecc853fbadcf440d710f29c8e182fe8151f3f7751a82/inductor_cache/ja/cjafdt63rw3jx4ifyjplskzvi4iz3iwmshik6i4f3nnlza25v3aj.py":42:18)
#loc37 = loc("/home/ericbuehler/.cache/vllm/torch_compile_cache/torch_aot_compile/90537ea14f244a5187d6ecc853fbadcf440d710f29c8e182fe8151f3f7751a82/inductor_cache/ja/cjafdt63rw3jx4ifyjplskzvi4iz3iwmshik6i4f3nnlza25v3aj.py":44:19)
#loc38 = loc("/home/ericbuehler/.cache/vllm/torch_compile_cache/torch_aot_compile/90537ea14f244a5187d6ecc853fbadcf440d710f29c8e182fe8151f3f7751a82/inductor_cache/ja/cjafdt63rw3jx4ifyjplskzvi4iz3iwmshik6i4f3nnlza25v3aj.py":46:20)
#loc39 = loc("/home/ericbuehler/.cache/vllm/torch_compile_cache/torch_aot_compile/90537ea14f244a5187d6ecc853fbadcf440d710f29c8e182fe8151f3f7751a82/inductor_cache/ja/cjafdt63rw3jx4ifyjplskzvi4iz3iwmshik6i4f3nnlza25v3aj.py":47:20)
#loc40 = loc("/home/ericbuehler/.cache/vllm/torch_compile_cache/torch_aot_compile/90537ea14f244a5187d6ecc853fbadcf440d710f29c8e182fe8151f3f7751a82/inductor_cache/ja/cjafdt63rw3jx4ifyjplskzvi4iz3iwmshik6i4f3nnlza25v3aj.py":48:35)
#loc41 = loc("/home/ericbuehler/.cache/vllm/torch_compile_cache/torch_aot_compile/90537ea14f244a5187d6ecc853fbadcf440d710f29c8e182fe8151f3f7751a82/inductor_cache/ja/cjafdt63rw3jx4ifyjplskzvi4iz3iwmshik6i4f3nnlza25v3aj.py":49:27)
#loc42 = loc("/home/ericbuehler/.cache/vllm/torch_compile_cache/torch_aot_compile/90537ea14f244a5187d6ecc853fbadcf440d710f29c8e182fe8151f3f7751a82/inductor_cache/ja/cjafdt63rw3jx4ifyjplskzvi4iz3iwmshik6i4f3nnlza25v3aj.py":49:45)
#loc43 = loc("/home/ericbuehler/.cache/vllm/torch_compile_cache/torch_aot_compile/90537ea14f244a5187d6ecc853fbadcf440d710f29c8e182fe8151f3f7751a82/inductor_cache/ja/cjafdt63rw3jx4ifyjplskzvi4iz3iwmshik6i4f3nnlza25v3aj.py":49:37)
#loc44 = loc("/home/ericbuehler/.cache/vllm/torch_compile_cache/torch_aot_compile/90537ea14f244a5187d6ecc853fbadcf440d710f29c8e182fe8151f3f7751a82/inductor_cache/ja/cjafdt63rw3jx4ifyjplskzvi4iz3iwmshik6i4f3nnlza25v3aj.py":49:54)
#loc45 = loc("/home/ericbuehler/.cache/vllm/torch_compile_cache/torch_aot_compile/90537ea14f244a5187d6ecc853fbadcf440d710f29c8e182fe8151f3f7751a82/inductor_cache/ja/cjafdt63rw3jx4ifyjplskzvi4iz3iwmshik6i4f3nnlza25v3aj.py":50:40)
#loc46 = loc("/home/ericbuehler/.cache/vllm/torch_compile_cache/torch_aot_compile/90537ea14f244a5187d6ecc853fbadcf440d710f29c8e182fe8151f3f7751a82/inductor_cache/ja/cjafdt63rw3jx4ifyjplskzvi4iz3iwmshik6i4f3nnlza25v3aj.py":50:36)
#loc47 = loc("/home/ericbuehler/.cache/vllm/torch_compile_cache/torch_aot_compile/90537ea14f244a5187d6ecc853fbadcf440d710f29c8e182fe8151f3f7751a82/inductor_cache/ja/cjafdt63rw3jx4ifyjplskzvi4iz3iwmshik6i4f3nnlza25v3aj.py":50:31)
#loc48 = loc("/home/ericbuehler/.cache/vllm/torch_compile_cache/torch_aot_compile/90537ea14f244a5187d6ecc853fbadcf440d710f29c8e182fe8151f3f7751a82/inductor_cache/ja/cjafdt63rw3jx4ifyjplskzvi4iz3iwmshik6i4f3nnlza25v3aj.py":50:48)
#loc49 = loc("/home/ericbuehler/.cache/vllm/torch_compile_cache/torch_aot_compile/90537ea14f244a5187d6ecc853fbadcf440d710f29c8e182fe8151f3f7751a82/inductor_cache/ja/cjafdt63rw3jx4ifyjplskzvi4iz3iwmshik6i4f3nnlza25v3aj.py":50:57)
#loc50 = loc("/home/ericbuehler/.cache/vllm/torch_compile_cache/torch_aot_compile/90537ea14f244a5187d6ecc853fbadcf440d710f29c8e182fe8151f3f7751a82/inductor_cache/ja/cjafdt63rw3jx4ifyjplskzvi4iz3iwmshik6i4f3nnlza25v3aj.py":51:20)
#loc51 = loc("/home/ericbuehler/.cache/vllm/torch_compile_cache/torch_aot_compile/90537ea14f244a5187d6ecc853fbadcf440d710f29c8e182fe8151f3f7751a82/inductor_cache/ja/cjafdt63rw3jx4ifyjplskzvi4iz3iwmshik6i4f3nnlza25v3aj.py":53:20)
#loc52 = loc("/home/ericbuehler/.cache/vllm/torch_compile_cache/torch_aot_compile/90537ea14f244a5187d6ecc853fbadcf440d710f29c8e182fe8151f3f7751a82/inductor_cache/ja/cjafdt63rw3jx4ifyjplskzvi4iz3iwmshik6i4f3nnlza25v3aj.py":55:20)
#loc53 = loc("/home/ericbuehler/.cache/vllm/torch_compile_cache/torch_aot_compile/90537ea14f244a5187d6ecc853fbadcf440d710f29c8e182fe8151f3f7751a82/inductor_cache/ja/cjafdt63rw3jx4ifyjplskzvi4iz3iwmshik6i4f3nnlza25v3aj.py":56:42)
#loc54 = loc("/home/ericbuehler/.cache/vllm/torch_compile_cache/torch_aot_compile/90537ea14f244a5187d6ecc853fbadcf440d710f29c8e182fe8151f3f7751a82/inductor_cache/ja/cjafdt63rw3jx4ifyjplskzvi4iz3iwmshik6i4f3nnlza25v3aj.py":56:31)
#loc55 = loc("/home/ericbuehler/.cache/vllm/torch_compile_cache/torch_aot_compile/90537ea14f244a5187d6ecc853fbadcf440d710f29c8e182fe8151f3f7751a82/inductor_cache/ja/cjafdt63rw3jx4ifyjplskzvi4iz3iwmshik6i4f3nnlza25v3aj.py":56:54)
#loc56 = loc("/home/ericbuehler/.cache/vllm/torch_compile_cache/torch_aot_compile/90537ea14f244a5187d6ecc853fbadcf440d710f29c8e182fe8151f3f7751a82/inductor_cache/ja/cjafdt63rw3jx4ifyjplskzvi4iz3iwmshik6i4f3nnlza25v3aj.py":56:63)
#loc57 = loc("/home/ericbuehler/.cache/vllm/torch_compile_cache/torch_aot_compile/90537ea14f244a5187d6ecc853fbadcf440d710f29c8e182fe8151f3f7751a82/inductor_cache/ja/cjafdt63rw3jx4ifyjplskzvi4iz3iwmshik6i4f3nnlza25v3aj.py":57:20)
#loc58 = loc("/home/ericbuehler/.cache/vllm/torch_compile_cache/torch_aot_compile/90537ea14f244a5187d6ecc853fbadcf440d710f29c8e182fe8151f3f7751a82/inductor_cache/ja/cjafdt63rw3jx4ifyjplskzvi4iz3iwmshik6i4f3nnlza25v3aj.py":58:20)
#loc59 = loc("/home/ericbuehler/.cache/vllm/torch_compile_cache/torch_aot_compile/90537ea14f244a5187d6ecc853fbadcf440d710f29c8e182fe8151f3f7751a82/inductor_cache/ja/cjafdt63rw3jx4ifyjplskzvi4iz3iwmshik6i4f3nnlza25v3aj.py":59:20)
#loc60 = loc("/home/ericbuehler/.cache/vllm/torch_compile_cache/torch_aot_compile/90537ea14f244a5187d6ecc853fbadcf440d710f29c8e182fe8151f3f7751a82/inductor_cache/ja/cjafdt63rw3jx4ifyjplskzvi4iz3iwmshik6i4f3nnlza25v3aj.py":60:20)
#loc61 = loc("/home/ericbuehler/.cache/vllm/torch_compile_cache/torch_aot_compile/90537ea14f244a5187d6ecc853fbadcf440d710f29c8e182fe8151f3f7751a82/inductor_cache/ja/cjafdt63rw3jx4ifyjplskzvi4iz3iwmshik6i4f3nnlza25v3aj.py":61:20)
#loc62 = loc("/home/ericbuehler/.cache/vllm/torch_compile_cache/torch_aot_compile/90537ea14f244a5187d6ecc853fbadcf440d710f29c8e182fe8151f3f7751a82/inductor_cache/ja/cjafdt63rw3jx4ifyjplskzvi4iz3iwmshik6i4f3nnlza25v3aj.py":62:34)
#loc63 = loc("/home/ericbuehler/.cache/vllm/torch_compile_cache/torch_aot_compile/90537ea14f244a5187d6ecc853fbadcf440d710f29c8e182fe8151f3f7751a82/inductor_cache/ja/cjafdt63rw3jx4ifyjplskzvi4iz3iwmshik6i4f3nnlza25v3aj.py":62:30)
#loc64 = loc("/home/ericbuehler/.cache/vllm/torch_compile_cache/torch_aot_compile/90537ea14f244a5187d6ecc853fbadcf440d710f29c8e182fe8151f3f7751a82/inductor_cache/ja/cjafdt63rw3jx4ifyjplskzvi4iz3iwmshik6i4f3nnlza25v3aj.py":62:25)
#loc65 = loc("/home/ericbuehler/.cache/vllm/torch_compile_cache/torch_aot_compile/90537ea14f244a5187d6ecc853fbadcf440d710f29c8e182fe8151f3f7751a82/inductor_cache/ja/cjafdt63rw3jx4ifyjplskzvi4iz3iwmshik6i4f3nnlza25v3aj.py":62:46)
#loc66 = loc("/home/ericbuehler/.cache/vllm/torch_compile_cache/torch_aot_compile/90537ea14f244a5187d6ecc853fbadcf440d710f29c8e182fe8151f3f7751a82/inductor_cache/ja/cjafdt63rw3jx4ifyjplskzvi4iz3iwmshik6i4f3nnlza25v3aj.py":63:25)
#loc67 = loc("/home/ericbuehler/.cache/vllm/torch_compile_cache/torch_aot_compile/90537ea14f244a5187d6ecc853fbadcf440d710f29c8e182fe8151f3f7751a82/inductor_cache/ja/cjafdt63rw3jx4ifyjplskzvi4iz3iwmshik6i4f3nnlza25v3aj.py":63:46)
#loc68 = loc("/home/ericbuehler/.cache/vllm/torch_compile_cache/torch_aot_compile/90537ea14f244a5187d6ecc853fbadcf440d710f29c8e182fe8151f3f7751a82/inductor_cache/ja/cjafdt63rw3jx4ifyjplskzvi4iz3iwmshik6i4f3nnlza25v3aj.py":63:4)
#loc77 = loc("tmp6"(#loc2))
#loc78 = loc("tmp4"(#loc3))
#loc79 = loc("x2"(#loc4))
#loc80 = loc("x1"(#loc5))
#loc81 = loc("xoffset"(#loc6))
#loc82 = loc("xoffset"(#loc7))
#loc83 = loc("xindex"(#loc8))
#loc84 = loc("xindex"(#loc9))
#loc85 = loc("x0"(#loc10))
#loc86 = loc("x1"(#loc11))
#loc87 = loc("tmp0"(#loc12))
#loc88 = loc("tmp0"(#loc13))
#loc89 = loc("tmp0"(#loc14))
#loc90 = loc("tmp0"(#loc15))
#loc91 = loc("tmp0"(#loc16))
#loc92 = loc("tmp0"(#loc17))
#loc93 = loc("tmp0"(#loc18))
#loc94 = loc("tmp2"(#loc19))
#loc95 = loc("tmp2"(#loc20))
#loc96 = loc("tmp10"(#loc21))
#loc97 = loc("tmp10"(#loc22))
#loc98 = loc("tmp10"(#loc23))
#loc99 = loc("tmp12"(#loc24))
#loc100 = loc("tmp12"(#loc25))
#loc101 = loc("tmp20"(#loc26))
#loc102 = loc("tmp20"(#loc27))
#loc103 = loc("tmp20"(#loc28))
#loc104 = loc("tmp20"(#loc29))
#loc105 = loc("tmp20"(#loc30))
#loc106 = loc("tmp20"(#loc31))
#loc107 = loc("tmp24"(#loc32))
#loc108 = loc("tmp24"(#loc33))
#loc109 = loc("tmp24"(#loc34))
#loc110 = loc("tmp7"(#loc35))
#loc111 = loc("tmp8"(#loc36))
#loc112 = loc("tmp11"(#loc37))
#loc113 = loc("tmp14"(#loc38))
#loc114 = loc("tmp15"(#loc39))
#loc115 = loc("tmp16"(#loc40))
#loc116 = loc("tmp18"(#loc45))
#loc117 = loc("tmp18"(#loc46))
#loc118 = loc("tmp18"(#loc47))
#loc119 = loc("tmp18"(#loc48))
#loc120 = loc("tmp18"(#loc49))
#loc121 = loc("tmp19"(#loc50))
#loc122 = loc("tmp22"(#loc51))
#loc123 = loc("tmp25"(#loc52))
#loc124 = loc("tmp26"(#loc53))
#loc125 = loc("tmp26"(#loc54))
#loc126 = loc("tmp26"(#loc55))
#loc127 = loc("tmp26"(#loc56))
#loc128 = loc("tmp27"(#loc57))
#loc129 = loc("tmp28"(#loc58))
#loc130 = loc("tmp29"(#loc59))
#loc131 = loc("tmp30"(#loc60))
#loc132 = loc("tmp31"(#loc61))
