#loc = loc("/home/ericbuehler/.cache/vllm/torch_compile_cache/torch_aot_compile/90537ea14f244a5187d6ecc853fbadcf440d710f29c8e182fe8151f3f7751a82/inductor_cache/vj/cvjloyoczf7el6xiysv3gfrc7tipv7hruu3tqfr2vzk2uiwm3rff.py":22:0)
#loc35 = loc("/home/ericbuehler/vllm/.venv-bench/lib/python3.12/site-packages/triton/language/standard.py":287:0)
#loc37 = loc(unknown)
#loc40 = loc("/home/ericbuehler/vllm/.venv-bench/lib/python3.12/site-packages/triton/language/standard.py":262:0)
#loc44 = loc("in_ptr0"(#loc))
#loc45 = loc("out_ptr0"(#loc))
#loc46 = loc("xnumel"(#loc))
#loc47 = loc("r0_numel"(#loc))
#loc78 = loc("input"(#loc35))
#loc79 = loc("a"(#loc40))
#loc80 = loc("b"(#loc40))
module {
  tt.func public @triton_(%in_ptr0: !tt.ptr<bf16> {tt.divisibility = 16 : i32} loc("in_ptr0"(#loc)), %out_ptr0: !tt.ptr<f32> {tt.divisibility = 16 : i32} loc("out_ptr0"(#loc)), %xnumel: i32 loc("xnumel"(#loc)), %r0_numel: i32 {tt.divisibility = 16 : i32} loc("r0_numel"(#loc))) attributes {noinline = false} {
    %r0_numel_0 = arith.constant 256 : i32 loc(#loc48)
    %xoffset = tt.get_program_id x : i32 loc(#loc49)
    %xoffset_1 = arith.constant 64 : i32 loc(#loc50)
    %xoffset_2 = arith.constant 64 : i32 loc(#loc50)
    %xoffset_3 = arith.muli %xoffset, %xoffset_2 : i32 loc(#loc50)
    %xindex = tt.make_range {end = 64 : i32, start = 0 : i32} : tensor<64xi32> loc(#loc51)
    %xindex_4 = tt.expand_dims %xindex {axis = 1 : i32} : tensor<64xi32> -> tensor<64x1xi32> loc(#loc52)
    %xindex_5 = tt.splat %xoffset_3 : i32 -> tensor<64x1xi32> loc(#loc53)
    %xindex_6 = arith.addi %xindex_5, %xindex_4 : tensor<64x1xi32> loc(#loc53)
    %xmask = tt.splat %xnumel : i32 -> tensor<64x1xi32> loc(#loc54)
    %xmask_7 = arith.cmpi slt, %xindex_6, %xmask : tensor<64x1xi32> loc(#loc54)
    %r0_base = tt.make_range {end = 64 : i32, start = 0 : i32} : tensor<64xi32> loc(#loc55)
    %r0_base_8 = tt.expand_dims %r0_base {axis = 0 : i32} : tensor<64xi32> -> tensor<1x64xi32> loc(#loc56)
    %x0 = arith.constant 8 : i32 loc(#loc57)
    %x0_9 = arith.constant 8 : i32 loc(#loc57)
    %x0_10 = arith.constant dense<8> : tensor<64x1xi32> loc(#loc57)
    %x0_11 = arith.remsi %xindex_6, %x0_10 : tensor<64x1xi32> loc(#loc57)
    %x1 = arith.constant 8 : i32 loc(#loc58)
    %x1_12 = arith.constant 8 : i32 loc(#loc58)
    %x1_13 = arith.constant dense<8> : tensor<64x1xi32> loc(#loc58)
    %x1_14 = arith.divsi %xindex_6, %x1_13 : tensor<64x1xi32> loc(#loc58)
    %_tmp4 = arith.constant 0.000000e+00 : f32 loc(#loc59)
    %_tmp4_15 = arith.constant dense<0.000000e+00> : tensor<64x64xf32> loc(#loc59)
    %c0_i32 = arith.constant 0 : i32 loc(#loc13)
    %c64_i32 = arith.constant 64 : i32 loc(#loc13)
    %0 = arith.bitcast %c0_i32 : i32 to i32 loc(#loc13)
    %1 = arith.bitcast %r0_numel_0 : i32 to i32 loc(#loc13)
    %2 = arith.bitcast %c64_i32 : i32 to i32 loc(#loc13)
    %3 = ub.poison : i32 loc(#loc13)
    %_tmp4_16 = scf.for %r0_offset = %0 to %1 step %2 iter_args(%_tmp4_18 = %_tmp4_15) -> (tensor<64x64xf32>)  : i32 {
      %r0_index = tt.splat %r0_offset : i32 -> tensor<1x64xi32> loc(#loc61)
      %r0_index_19 = arith.addi %r0_index, %r0_base_8 : tensor<1x64xi32> loc(#loc61)
      %r0_mask = arith.constant dense<256> : tensor<1x64xi32> loc(#loc62)
      %r0_mask_20 = arith.cmpi slt, %r0_index_19, %r0_mask : tensor<1x64xi32> loc(#loc62)
      %tmp0 = arith.constant 4096 : i32 loc(#loc63)
      %tmp0_21 = arith.constant 4096 : i32 loc(#loc63)
      %tmp0_22 = arith.constant dense<4096> : tensor<1x64xi32> loc(#loc63)
      %tmp0_23 = arith.addi %tmp0_22, %r0_index_19 : tensor<1x64xi32> loc(#loc63)
      %tmp0_24 = arith.constant 256 : i32 loc(#loc64)
      %tmp0_25 = arith.constant 256 : i32 loc(#loc64)
      %tmp0_26 = arith.constant dense<256> : tensor<64x1xi32> loc(#loc64)
      %tmp0_27 = arith.muli %tmp0_26, %x0_11 : tensor<64x1xi32> loc(#loc64)
      %tmp0_28 = tt.broadcast %tmp0_23 : tensor<1x64xi32> -> tensor<64x64xi32> loc(#loc65)
      %tmp0_29 = tt.broadcast %tmp0_27 : tensor<64x1xi32> -> tensor<64x64xi32> loc(#loc65)
      %tmp0_30 = arith.addi %tmp0_28, %tmp0_29 : tensor<64x64xi32> loc(#loc65)
      %tmp0_31 = arith.constant 8192 : i32 loc(#loc66)
      %tmp0_32 = arith.constant 8192 : i32 loc(#loc66)
      %tmp0_33 = arith.constant dense<8192> : tensor<64x1xi32> loc(#loc66)
      %tmp0_34 = arith.muli %tmp0_33, %x1_14 : tensor<64x1xi32> loc(#loc66)
      %tmp0_35 = tt.broadcast %tmp0_34 : tensor<64x1xi32> -> tensor<64x64xi32> loc(#loc67)
      %tmp0_36 = arith.addi %tmp0_30, %tmp0_35 : tensor<64x64xi32> loc(#loc67)
      %tmp0_37 = tt.splat %in_ptr0 : !tt.ptr<bf16> -> tensor<64x64x!tt.ptr<bf16>> loc(#loc68)
      %tmp0_38 = tt.addptr %tmp0_37, %tmp0_36 : tensor<64x64x!tt.ptr<bf16>>, tensor<64x64xi32> loc(#loc68)
      %tmp0_39 = tt.broadcast %r0_mask_20 : tensor<1x64xi1> -> tensor<64x64xi1> loc(#loc69)
      %tmp0_40 = tt.broadcast %xmask_7 : tensor<64x1xi1> -> tensor<64x64xi1> loc(#loc69)
      %tmp0_41 = arith.andi %tmp0_39, %tmp0_40 : tensor<64x64xi1> loc(#loc69)
      %tmp0_42 = arith.constant 0.000000e+00 : f32 loc(#loc70)
      %tmp0_43 = arith.constant dense<0.000000e+00> : tensor<64x64xf32> loc(#loc70)
      %tmp0_44 = arith.truncf %tmp0_43 : tensor<64x64xf32> to tensor<64x64xbf16> loc(#loc70)
      %tmp0_45 = tt.load %tmp0_38, %tmp0_41, %tmp0_44 evictionPolicy = evict_first : tensor<64x64x!tt.ptr<bf16>> loc(#loc70)
      %tmp0_46 = arith.extf %tmp0_45 : tensor<64x64xbf16> to tensor<64x64xf32> loc(#loc71)
      %tmp2 = arith.mulf %tmp0_46, %tmp0_46 : tensor<64x64xf32> loc(#loc72)
      %tmp5 = arith.addf %_tmp4_18, %tmp2 : tensor<64x64xf32> loc(#loc73)
      %_tmp4_47 = tt.broadcast %r0_mask_20 : tensor<1x64xi1> -> tensor<64x64xi1> loc(#loc74)
      %_tmp4_48 = tt.broadcast %xmask_7 : tensor<64x1xi1> -> tensor<64x64xi1> loc(#loc74)
      %_tmp4_49 = arith.andi %_tmp4_47, %_tmp4_48 : tensor<64x64xi1> loc(#loc74)
      %_tmp4_50 = arith.select %_tmp4_49, %tmp5, %_tmp4_18 : tensor<64x64xi1>, tensor<64x64xf32> loc(#loc75)
      scf.yield %_tmp4_50 : tensor<64x64xf32> loc(#loc29)
    } loc(#loc60)
    %tmp4 = tt.call @"triton.language.standard.sum__fp32S64_64S__(1,)cconstexpr_1__(2,)cconstexpr_False__(3,)cNone"(%_tmp4_16) : (tensor<64x64xf32>) -> tensor<64xf32> loc(#loc76)
    %tmp4_17 = tt.expand_dims %tmp4 {axis = 1 : i32} : tensor<64xf32> -> tensor<64x1xf32> loc(#loc77)
    %4 = tt.splat %out_ptr0 : !tt.ptr<f32> -> tensor<64x1x!tt.ptr<f32>> loc(#loc32)
    %5 = tt.addptr %4, %xindex_6 : tensor<64x1x!tt.ptr<f32>>, tensor<64x1xi32> loc(#loc32)
    tt.store %5, %tmp4_17, %xmask_7 : tensor<64x1x!tt.ptr<f32>> loc(#loc33)
    tt.return loc(#loc34)
  } loc(#loc)
  tt.func private @"triton.language.standard.sum__fp32S64_64S__(1,)cconstexpr_1__(2,)cconstexpr_False__(3,)cNone"(%input: tensor<64x64xf32> loc("input"(#loc35))) -> tensor<64xf32> attributes {noinline = false} {
    %0 = "tt.reduce"(%input) <{axis = 1 : i32}> ({
    ^bb0(%arg1: f32 loc(unknown), %arg2: f32 loc(unknown)):
      %2 = tt.call @triton.language.standard._sum_combine__fp32_fp32__(%arg1, %arg2) : (f32, f32) -> f32 loc(#loc36)
      tt.reduce.return %2 : f32 loc(#loc36)
    }) : (tensor<64x64xf32>) -> tensor<64xf32> loc(#loc36)
    tt.return %0 : tensor<64xf32> loc(#loc38)
  ^bb1:  // no predecessors
    %1 = ub.poison : tensor<64xf32> loc(#loc39)
    tt.return %1 : tensor<64xf32> loc(#loc39)
  } loc(#loc35)
  tt.func private @triton.language.standard._sum_combine__fp32_fp32__(%a: f32 loc("a"(#loc40)), %b: f32 loc("b"(#loc40))) -> f32 attributes {noinline = false} {
    %0 = arith.addf %a, %b : f32 loc(#loc41)
    tt.return %0 : f32 loc(#loc42)
  ^bb1:  // no predecessors
    %1 = ub.poison : f32 loc(#loc43)
    tt.return %1 : f32 loc(#loc43)
  } loc(#loc40)
} loc(#loc)
#loc1 = loc("/home/ericbuehler/.cache/vllm/torch_compile_cache/torch_aot_compile/90537ea14f244a5187d6ecc853fbadcf440d710f29c8e182fe8151f3f7751a82/inductor_cache/vj/cvjloyoczf7el6xiysv3gfrc7tipv7hruu3tqfr2vzk2uiwm3rff.py":23:15)
#loc2 = loc("/home/ericbuehler/.cache/vllm/torch_compile_cache/torch_aot_compile/90537ea14f244a5187d6ecc853fbadcf440d710f29c8e182fe8151f3f7751a82/inductor_cache/vj/cvjloyoczf7el6xiysv3gfrc7tipv7hruu3tqfr2vzk2uiwm3rff.py":26:28)
#loc3 = loc("/home/ericbuehler/.cache/vllm/torch_compile_cache/torch_aot_compile/90537ea14f244a5187d6ecc853fbadcf440d710f29c8e182fe8151f3f7751a82/inductor_cache/vj/cvjloyoczf7el6xiysv3gfrc7tipv7hruu3tqfr2vzk2uiwm3rff.py":26:33)
#loc4 = loc("/home/ericbuehler/.cache/vllm/torch_compile_cache/torch_aot_compile/90537ea14f244a5187d6ecc853fbadcf440d710f29c8e182fe8151f3f7751a82/inductor_cache/vj/cvjloyoczf7el6xiysv3gfrc7tipv7hruu3tqfr2vzk2uiwm3rff.py":27:36)
#loc5 = loc("/home/ericbuehler/.cache/vllm/torch_compile_cache/torch_aot_compile/90537ea14f244a5187d6ecc853fbadcf440d710f29c8e182fe8151f3f7751a82/inductor_cache/vj/cvjloyoczf7el6xiysv3gfrc7tipv7hruu3tqfr2vzk2uiwm3rff.py":27:44)
#loc6 = loc("/home/ericbuehler/.cache/vllm/torch_compile_cache/torch_aot_compile/90537ea14f244a5187d6ecc853fbadcf440d710f29c8e182fe8151f3f7751a82/inductor_cache/vj/cvjloyoczf7el6xiysv3gfrc7tipv7hruu3tqfr2vzk2uiwm3rff.py":27:23)
#loc7 = loc("/home/ericbuehler/.cache/vllm/torch_compile_cache/torch_aot_compile/90537ea14f244a5187d6ecc853fbadcf440d710f29c8e182fe8151f3f7751a82/inductor_cache/vj/cvjloyoczf7el6xiysv3gfrc7tipv7hruu3tqfr2vzk2uiwm3rff.py":28:21)
#loc8 = loc("/home/ericbuehler/.cache/vllm/torch_compile_cache/torch_aot_compile/90537ea14f244a5187d6ecc853fbadcf440d710f29c8e182fe8151f3f7751a82/inductor_cache/vj/cvjloyoczf7el6xiysv3gfrc7tipv7hruu3tqfr2vzk2uiwm3rff.py":29:27)
#loc9 = loc("/home/ericbuehler/.cache/vllm/torch_compile_cache/torch_aot_compile/90537ea14f244a5187d6ecc853fbadcf440d710f29c8e182fe8151f3f7751a82/inductor_cache/vj/cvjloyoczf7el6xiysv3gfrc7tipv7hruu3tqfr2vzk2uiwm3rff.py":29:37)
#loc10 = loc("/home/ericbuehler/.cache/vllm/torch_compile_cache/torch_aot_compile/90537ea14f244a5187d6ecc853fbadcf440d710f29c8e182fe8151f3f7751a82/inductor_cache/vj/cvjloyoczf7el6xiysv3gfrc7tipv7hruu3tqfr2vzk2uiwm3rff.py":31:19)
#loc11 = loc("/home/ericbuehler/.cache/vllm/torch_compile_cache/torch_aot_compile/90537ea14f244a5187d6ecc853fbadcf440d710f29c8e182fe8151f3f7751a82/inductor_cache/vj/cvjloyoczf7el6xiysv3gfrc7tipv7hruu3tqfr2vzk2uiwm3rff.py":32:19)
#loc12 = loc("/home/ericbuehler/.cache/vllm/torch_compile_cache/torch_aot_compile/90537ea14f244a5187d6ecc853fbadcf440d710f29c8e182fe8151f3f7751a82/inductor_cache/vj/cvjloyoczf7el6xiysv3gfrc7tipv7hruu3tqfr2vzk2uiwm3rff.py":33:43)
#loc13 = loc("/home/ericbuehler/.cache/vllm/torch_compile_cache/torch_aot_compile/90537ea14f244a5187d6ecc853fbadcf440d710f29c8e182fe8151f3f7751a82/inductor_cache/vj/cvjloyoczf7el6xiysv3gfrc7tipv7hruu3tqfr2vzk2uiwm3rff.py":35:43)
#loc14 = loc("/home/ericbuehler/.cache/vllm/torch_compile_cache/torch_aot_compile/90537ea14f244a5187d6ecc853fbadcf440d710f29c8e182fe8151f3f7751a82/inductor_cache/vj/cvjloyoczf7el6xiysv3gfrc7tipv7hruu3tqfr2vzk2uiwm3rff.py":36:31)
#loc15 = loc("/home/ericbuehler/.cache/vllm/torch_compile_cache/torch_aot_compile/90537ea14f244a5187d6ecc853fbadcf440d710f29c8e182fe8151f3f7751a82/inductor_cache/vj/cvjloyoczf7el6xiysv3gfrc7tipv7hruu3tqfr2vzk2uiwm3rff.py":37:29)
#loc16 = loc("/home/ericbuehler/.cache/vllm/torch_compile_cache/torch_aot_compile/90537ea14f244a5187d6ecc853fbadcf440d710f29c8e182fe8151f3f7751a82/inductor_cache/vj/cvjloyoczf7el6xiysv3gfrc7tipv7hruu3tqfr2vzk2uiwm3rff.py":41:41)
#loc17 = loc("/home/ericbuehler/.cache/vllm/torch_compile_cache/torch_aot_compile/90537ea14f244a5187d6ecc853fbadcf440d710f29c8e182fe8151f3f7751a82/inductor_cache/vj/cvjloyoczf7el6xiysv3gfrc7tipv7hruu3tqfr2vzk2uiwm3rff.py":41:52)
#loc18 = loc("/home/ericbuehler/.cache/vllm/torch_compile_cache/torch_aot_compile/90537ea14f244a5187d6ecc853fbadcf440d710f29c8e182fe8151f3f7751a82/inductor_cache/vj/cvjloyoczf7el6xiysv3gfrc7tipv7hruu3tqfr2vzk2uiwm3rff.py":41:48)
#loc19 = loc("/home/ericbuehler/.cache/vllm/torch_compile_cache/torch_aot_compile/90537ea14f244a5187d6ecc853fbadcf440d710f29c8e182fe8151f3f7751a82/inductor_cache/vj/cvjloyoczf7el6xiysv3gfrc7tipv7hruu3tqfr2vzk2uiwm3rff.py":41:62)
#loc20 = loc("/home/ericbuehler/.cache/vllm/torch_compile_cache/torch_aot_compile/90537ea14f244a5187d6ecc853fbadcf440d710f29c8e182fe8151f3f7751a82/inductor_cache/vj/cvjloyoczf7el6xiysv3gfrc7tipv7hruu3tqfr2vzk2uiwm3rff.py":41:57)
#loc21 = loc("/home/ericbuehler/.cache/vllm/torch_compile_cache/torch_aot_compile/90537ea14f244a5187d6ecc853fbadcf440d710f29c8e182fe8151f3f7751a82/inductor_cache/vj/cvjloyoczf7el6xiysv3gfrc7tipv7hruu3tqfr2vzk2uiwm3rff.py":41:34)
#loc22 = loc("/home/ericbuehler/.cache/vllm/torch_compile_cache/torch_aot_compile/90537ea14f244a5187d6ecc853fbadcf440d710f29c8e182fe8151f3f7751a82/inductor_cache/vj/cvjloyoczf7el6xiysv3gfrc7tipv7hruu3tqfr2vzk2uiwm3rff.py":41:77)
#loc23 = loc("/home/ericbuehler/.cache/vllm/torch_compile_cache/torch_aot_compile/90537ea14f244a5187d6ecc853fbadcf440d710f29c8e182fe8151f3f7751a82/inductor_cache/vj/cvjloyoczf7el6xiysv3gfrc7tipv7hruu3tqfr2vzk2uiwm3rff.py":41:67)
#loc24 = loc("/home/ericbuehler/.cache/vllm/torch_compile_cache/torch_aot_compile/90537ea14f244a5187d6ecc853fbadcf440d710f29c8e182fe8151f3f7751a82/inductor_cache/vj/cvjloyoczf7el6xiysv3gfrc7tipv7hruu3tqfr2vzk2uiwm3rff.py":41:129)
#loc25 = loc("/home/ericbuehler/.cache/vllm/torch_compile_cache/torch_aot_compile/90537ea14f244a5187d6ecc853fbadcf440d710f29c8e182fe8151f3f7751a82/inductor_cache/vj/cvjloyoczf7el6xiysv3gfrc7tipv7hruu3tqfr2vzk2uiwm3rff.py":43:22)
#loc26 = loc("/home/ericbuehler/.cache/vllm/torch_compile_cache/torch_aot_compile/90537ea14f244a5187d6ecc853fbadcf440d710f29c8e182fe8151f3f7751a82/inductor_cache/vj/cvjloyoczf7el6xiysv3gfrc7tipv7hruu3tqfr2vzk2uiwm3rff.py":45:23)
#loc27 = loc("/home/ericbuehler/.cache/vllm/torch_compile_cache/torch_aot_compile/90537ea14f244a5187d6ecc853fbadcf440d710f29c8e182fe8151f3f7751a82/inductor_cache/vj/cvjloyoczf7el6xiysv3gfrc7tipv7hruu3tqfr2vzk2uiwm3rff.py":46:35)
#loc28 = loc("/home/ericbuehler/.cache/vllm/torch_compile_cache/torch_aot_compile/90537ea14f244a5187d6ecc853fbadcf440d710f29c8e182fe8151f3f7751a82/inductor_cache/vj/cvjloyoczf7el6xiysv3gfrc7tipv7hruu3tqfr2vzk2uiwm3rff.py":46:48)
#loc29 = loc("/home/ericbuehler/.cache/vllm/torch_compile_cache/torch_aot_compile/90537ea14f244a5187d6ecc853fbadcf440d710f29c8e182fe8151f3f7751a82/inductor_cache/vj/cvjloyoczf7el6xiysv3gfrc7tipv7hruu3tqfr2vzk2uiwm3rff.py":46:8)
#loc30 = loc("/home/ericbuehler/.cache/vllm/torch_compile_cache/torch_aot_compile/90537ea14f244a5187d6ecc853fbadcf440d710f29c8e182fe8151f3f7751a82/inductor_cache/vj/cvjloyoczf7el6xiysv3gfrc7tipv7hruu3tqfr2vzk2uiwm3rff.py":47:25)
#loc31 = loc("/home/ericbuehler/.cache/vllm/torch_compile_cache/torch_aot_compile/90537ea14f244a5187d6ecc853fbadcf440d710f29c8e182fe8151f3f7751a82/inductor_cache/vj/cvjloyoczf7el6xiysv3gfrc7tipv7hruu3tqfr2vzk2uiwm3rff.py":47:28)
#loc32 = loc("/home/ericbuehler/.cache/vllm/torch_compile_cache/torch_aot_compile/90537ea14f244a5187d6ecc853fbadcf440d710f29c8e182fe8151f3f7751a82/inductor_cache/vj/cvjloyoczf7el6xiysv3gfrc7tipv7hruu3tqfr2vzk2uiwm3rff.py":48:25)
#loc33 = loc("/home/ericbuehler/.cache/vllm/torch_compile_cache/torch_aot_compile/90537ea14f244a5187d6ecc853fbadcf440d710f29c8e182fe8151f3f7751a82/inductor_cache/vj/cvjloyoczf7el6xiysv3gfrc7tipv7hruu3tqfr2vzk2uiwm3rff.py":48:36)
#loc34 = loc("/home/ericbuehler/.cache/vllm/torch_compile_cache/torch_aot_compile/90537ea14f244a5187d6ecc853fbadcf440d710f29c8e182fe8151f3f7751a82/inductor_cache/vj/cvjloyoczf7el6xiysv3gfrc7tipv7hruu3tqfr2vzk2uiwm3rff.py":48:4)
#loc36 = loc("/home/ericbuehler/vllm/.venv-bench/lib/python3.12/site-packages/triton/language/standard.py":293:36)
#loc38 = loc("/home/ericbuehler/vllm/.venv-bench/lib/python3.12/site-packages/triton/language/standard.py":293:11)
#loc39 = loc("/home/ericbuehler/vllm/.venv-bench/lib/python3.12/site-packages/triton/language/standard.py":293:4)
#loc41 = loc("/home/ericbuehler/vllm/.venv-bench/lib/python3.12/site-packages/triton/language/standard.py":263:15)
#loc42 = loc("/home/ericbuehler/vllm/.venv-bench/lib/python3.12/site-packages/triton/language/standard.py":263:11)
#loc43 = loc("/home/ericbuehler/vllm/.venv-bench/lib/python3.12/site-packages/triton/language/standard.py":263:4)
#loc48 = loc("r0_numel"(#loc1))
#loc49 = loc("xoffset"(#loc2))
#loc50 = loc("xoffset"(#loc3))
#loc51 = loc("xindex"(#loc4))
#loc52 = loc("xindex"(#loc5))
#loc53 = loc("xindex"(#loc6))
#loc54 = loc("xmask"(#loc7))
#loc55 = loc("r0_base"(#loc8))
#loc56 = loc("r0_base"(#loc9))
#loc57 = loc("x0"(#loc10))
#loc58 = loc("x1"(#loc11))
#loc59 = loc("_tmp4"(#loc12))
#loc60 = loc("_tmp4"(#loc13))
#loc61 = loc("r0_index"(#loc14))
#loc62 = loc("r0_mask"(#loc15))
#loc63 = loc("tmp0"(#loc16))
#loc64 = loc("tmp0"(#loc17))
#loc65 = loc("tmp0"(#loc18))
#loc66 = loc("tmp0"(#loc19))
#loc67 = loc("tmp0"(#loc20))
#loc68 = loc("tmp0"(#loc21))
#loc69 = loc("tmp0"(#loc22))
#loc70 = loc("tmp0"(#loc23))
#loc71 = loc("tmp0"(#loc24))
#loc72 = loc("tmp2"(#loc25))
#loc73 = loc("tmp5"(#loc26))
#loc74 = loc("_tmp4"(#loc27))
#loc75 = loc("_tmp4"(#loc28))
#loc76 = loc("tmp4"(#loc30))
#loc77 = loc("tmp4"(#loc31))
