#loc = loc("/home/ericbuehler/vllm/.venv-bench/lib/python3.12/site-packages/vllm/model_executor/layers/fused_moe/fused_moe.py":295:0)
#loc93 = loc("/home/ericbuehler/vllm/.venv-bench/lib/python3.12/site-packages/triton/language/standard.py":34:0)
#loc98 = loc("/home/ericbuehler/vllm/.venv-bench/lib/python3.12/site-packages/vllm/model_executor/layers/fused_moe/fused_moe.py":41:0)
#loc119 = loc("a_ptr"(#loc))
#loc120 = loc("b_ptr"(#loc))
#loc121 = loc("c_ptr"(#loc))
#loc122 = loc("topk_weights_ptr"(#loc))
#loc123 = loc("sorted_token_ids_ptr"(#loc))
#loc124 = loc("expert_ids_ptr"(#loc))
#loc125 = loc("num_tokens_post_padded_ptr"(#loc))
#loc126 = loc("N"(#loc))
#loc127 = loc("K"(#loc))
#loc128 = loc("EM"(#loc))
#loc129 = loc("num_valid_tokens"(#loc))
#loc130 = loc("stride_am"(#loc))
#loc131 = loc("stride_be"(#loc))
#loc132 = loc("stride_bn"(#loc))
#loc133 = loc("stride_cm"(#loc))
#loc134 = loc("stride_asm"(#loc))
#loc135 = loc("stride_ask"(#loc))
#loc136 = loc("stride_bse"(#loc))
#loc137 = loc("stride_bsk"(#loc))
#loc138 = loc("stride_bsn"(#loc))
#loc139 = loc("stride_bbe"(#loc))
#loc140 = loc("stride_bbn"(#loc))
#loc223 = loc("x"(#loc93))
#loc224 = loc("c_ptr"(#loc98))
#loc225 = loc("stride_cm"(#loc98))
#loc226 = loc("pid_n"(#loc98))
#loc227 = loc("N"(#loc98))
#loc228 = loc("offs_token"(#loc98))
#loc229 = loc("token_mask"(#loc98))
module {
  tt.func public @fused_moe_kernel(%a_ptr: !tt.ptr<bf16> {tt.divisibility = 16 : i32} loc("a_ptr"(#loc)), %b_ptr: !tt.ptr<bf16> {tt.divisibility = 16 : i32} loc("b_ptr"(#loc)), %c_ptr: !tt.ptr<bf16> {tt.divisibility = 16 : i32} loc("c_ptr"(#loc)), %topk_weights_ptr: !tt.ptr<f32> {tt.divisibility = 16 : i32} loc("topk_weights_ptr"(#loc)), %sorted_token_ids_ptr: !tt.ptr<i32> {tt.divisibility = 16 : i32} loc("sorted_token_ids_ptr"(#loc)), %expert_ids_ptr: !tt.ptr<i32> {tt.divisibility = 16 : i32} loc("expert_ids_ptr"(#loc)), %num_tokens_post_padded_ptr: !tt.ptr<i32> {tt.divisibility = 16 : i32} loc("num_tokens_post_padded_ptr"(#loc)), %N: i32 {tt.divisibility = 16 : i32} loc("N"(#loc)), %K: i32 {tt.divisibility = 16 : i32} loc("K"(#loc)), %EM: i32 {tt.divisibility = 16 : i32} loc("EM"(#loc)), %num_valid_tokens: i32 {tt.divisibility = 16 : i32} loc("num_valid_tokens"(#loc)), %stride_am: i32 {tt.divisibility = 16 : i32} loc("stride_am"(#loc)), %stride_be: i32 {tt.divisibility = 16 : i32} loc("stride_be"(#loc)), %stride_bn: i32 {tt.divisibility = 16 : i32} loc("stride_bn"(#loc)), %stride_cm: i32 {tt.divisibility = 16 : i32} loc("stride_cm"(#loc)), %stride_asm: i32 {tt.divisibility = 16 : i32} loc("stride_asm"(#loc)), %stride_ask: i32 {tt.divisibility = 16 : i32} loc("stride_ask"(#loc)), %stride_bse: i32 {tt.divisibility = 16 : i32} loc("stride_bse"(#loc)), %stride_bsk: i32 {tt.divisibility = 16 : i32} loc("stride_bsk"(#loc)), %stride_bsn: i32 {tt.divisibility = 16 : i32} loc("stride_bsn"(#loc)), %stride_bbe: i32 {tt.divisibility = 16 : i32} loc("stride_bbe"(#loc)), %stride_bbn: i32 {tt.divisibility = 16 : i32} loc("stride_bbn"(#loc))) attributes {noinline = false} {
    %pid = tt.get_program_id x : i32 loc(#loc141)
    %num_pid_m = tt.call @"triton.language.standard.cdiv__i32__(1,)cconstexpr_128_"(%EM) : (i32) -> i32 loc(#loc142)
    %num_pid_n = tt.call @"triton.language.standard.cdiv__i32__(1,)cconstexpr_128_"(%N) : (i32) -> i32 loc(#loc143)
    %num_pid_in_group = arith.constant 1 : i32 loc(#loc144)
    %num_pid_in_group_0 = arith.constant 1 : i32 loc(#loc144)
    %num_pid_in_group_1 = arith.extsi %num_pid_in_group_0 : i32 to i64 loc(#loc144)
    %num_pid_in_group_2 = arith.extsi %num_pid_n : i32 to i64 loc(#loc144)
    %num_pid_in_group_3 = arith.muli %num_pid_in_group_1, %num_pid_in_group_2 : i64 loc(#loc144)
    %num_pid_in_group_4 = arith.constant 2147483647 : i64 loc(#loc144)
    %num_pid_in_group_5 = arith.constant -2147483648 : i64 loc(#loc144)
    %num_pid_in_group_6 = arith.cmpi sle, %num_pid_in_group_3, %num_pid_in_group_4 : i64 loc(#loc144)
    %num_pid_in_group_7 = arith.cmpi sge, %num_pid_in_group_3, %num_pid_in_group_5 : i64 loc(#loc144)
    %num_pid_in_group_8 = arith.andi %num_pid_in_group_6, %num_pid_in_group_7 : i1 loc(#loc144)
    %num_pid_in_group_9 = arith.muli %num_pid_in_group_0, %num_pid_n : i32 loc(#loc144)
    %group_id = arith.divsi %pid, %num_pid_in_group_9 : i32 loc(#loc145)
    %first_pid_m = arith.constant 1 : i32 loc(#loc146)
    %first_pid_m_10 = arith.constant 1 : i32 loc(#loc146)
    %first_pid_m_11 = arith.extsi %group_id : i32 to i64 loc(#loc146)
    %first_pid_m_12 = arith.extsi %first_pid_m_10 : i32 to i64 loc(#loc146)
    %first_pid_m_13 = arith.muli %first_pid_m_11, %first_pid_m_12 : i64 loc(#loc146)
    %first_pid_m_14 = arith.constant 2147483647 : i64 loc(#loc146)
    %first_pid_m_15 = arith.constant -2147483648 : i64 loc(#loc146)
    %first_pid_m_16 = arith.cmpi sle, %first_pid_m_13, %first_pid_m_14 : i64 loc(#loc146)
    %first_pid_m_17 = arith.cmpi sge, %first_pid_m_13, %first_pid_m_15 : i64 loc(#loc146)
    %first_pid_m_18 = arith.andi %first_pid_m_16, %first_pid_m_17 : i1 loc(#loc146)
    %first_pid_m_19 = arith.muli %group_id, %first_pid_m_10 : i32 loc(#loc146)
    %group_size_m = arith.extsi %num_pid_m : i32 to i64 loc(#loc147)
    %group_size_m_20 = arith.extsi %first_pid_m_19 : i32 to i64 loc(#loc147)
    %group_size_m_21 = arith.subi %group_size_m, %group_size_m_20 : i64 loc(#loc147)
    %group_size_m_22 = arith.constant 2147483647 : i64 loc(#loc147)
    %group_size_m_23 = arith.constant -2147483648 : i64 loc(#loc147)
    %group_size_m_24 = arith.cmpi sle, %group_size_m_21, %group_size_m_22 : i64 loc(#loc147)
    %group_size_m_25 = arith.cmpi sge, %group_size_m_21, %group_size_m_23 : i64 loc(#loc147)
    %group_size_m_26 = arith.andi %group_size_m_24, %group_size_m_25 : i1 loc(#loc147)
    %group_size_m_27 = arith.subi %num_pid_m, %first_pid_m_19 : i32 loc(#loc147)
    %group_size_m_28 = arith.constant 1 : i32 loc(#loc148)
    %group_size_m_29 = arith.minsi %group_size_m_27, %group_size_m_28 : i32 loc(#loc148)
    %pid_m = arith.remsi %pid, %num_pid_in_group_9 : i32 loc(#loc149)
    %pid_m_30 = arith.remsi %pid_m, %group_size_m_29 : i32 loc(#loc150)
    %pid_m_31 = arith.extsi %first_pid_m_19 : i32 to i64 loc(#loc151)
    %pid_m_32 = arith.extsi %pid_m_30 : i32 to i64 loc(#loc151)
    %pid_m_33 = arith.addi %pid_m_31, %pid_m_32 : i64 loc(#loc151)
    %pid_m_34 = arith.constant 2147483647 : i64 loc(#loc151)
    %pid_m_35 = arith.constant -2147483648 : i64 loc(#loc151)
    %pid_m_36 = arith.cmpi sle, %pid_m_33, %pid_m_34 : i64 loc(#loc151)
    %pid_m_37 = arith.cmpi sge, %pid_m_33, %pid_m_35 : i64 loc(#loc151)
    %pid_m_38 = arith.andi %pid_m_36, %pid_m_37 : i1 loc(#loc151)
    %pid_m_39 = arith.addi %first_pid_m_19, %pid_m_30 : i32 loc(#loc151)
    %pid_n = arith.remsi %pid, %num_pid_in_group_9 : i32 loc(#loc152)
    %pid_n_40 = arith.divsi %pid_n, %group_size_m_29 : i32 loc(#loc153)
    %offs = tt.make_range {end = 128 : i32, start = 0 : i32} : tensor<128xi32> loc(#loc154)
    %offs_41 = arith.extsi %offs : tensor<128xi32> to tensor<128xi64> loc(#loc155)
    %num_tokens_post_padded = tt.load %num_tokens_post_padded_ptr : !tt.ptr<i32> loc(#loc156)
    %c128_i32 = arith.constant 128 : i32 loc(#loc17)
    %c128_i32_42 = arith.constant 128 : i32 loc(#loc17)
    %0 = arith.extsi %pid_m_39 : i32 to i64 loc(#loc17)
    %1 = arith.extsi %c128_i32_42 : i32 to i64 loc(#loc17)
    %2 = arith.muli %0, %1 : i64 loc(#loc17)
    %c2147483647_i64 = arith.constant 2147483647 : i64 loc(#loc17)
    %c-2147483648_i64 = arith.constant -2147483648 : i64 loc(#loc17)
    %3 = arith.cmpi sle, %2, %c2147483647_i64 : i64 loc(#loc17)
    %4 = arith.cmpi sge, %2, %c-2147483648_i64 : i64 loc(#loc17)
    %5 = arith.andi %3, %4 : i1 loc(#loc17)
    %6 = arith.muli %pid_m_39, %c128_i32_42 : i32 loc(#loc17)
    %7 = arith.cmpi sge, %6, %num_tokens_post_padded : i32 loc(#loc18)
    cf.cond_br %7, ^bb1, ^bb2 loc(#loc18)
  ^bb1:  // pred: ^bb0
    tt.return loc(#loc19)
  ^bb2:  // pred: ^bb0
    cf.br ^bb4 loc(#loc)
  ^bb3:  // no predecessors
    cf.br ^bb4 loc(#loc)
  ^bb4:  // 2 preds: ^bb2, ^bb3
    %offs_token_id = arith.constant 128 : i32 loc(#loc157)
    %offs_token_id_43 = arith.constant 128 : i32 loc(#loc157)
    %offs_token_id_44 = arith.extsi %pid_m_39 : i32 to i64 loc(#loc157)
    %offs_token_id_45 = arith.extsi %offs_token_id_43 : i32 to i64 loc(#loc157)
    %offs_token_id_46 = arith.muli %offs_token_id_44, %offs_token_id_45 : i64 loc(#loc157)
    %offs_token_id_47 = arith.constant 2147483647 : i64 loc(#loc157)
    %offs_token_id_48 = arith.constant -2147483648 : i64 loc(#loc157)
    %offs_token_id_49 = arith.cmpi sle, %offs_token_id_46, %offs_token_id_47 : i64 loc(#loc157)
    %offs_token_id_50 = arith.cmpi sge, %offs_token_id_46, %offs_token_id_48 : i64 loc(#loc157)
    %offs_token_id_51 = arith.andi %offs_token_id_49, %offs_token_id_50 : i1 loc(#loc157)
    %offs_token_id_52 = arith.muli %pid_m_39, %offs_token_id_43 : i32 loc(#loc157)
    %offs_token_id_53 = arith.extsi %offs_token_id_52 : i32 to i64 loc(#loc158)
    %offs_token_id_54 = tt.splat %offs_token_id_53 : i64 -> tensor<128xi64> loc(#loc158)
    %offs_token_id_55 = arith.addi %offs_token_id_54, %offs_41 : tensor<128xi64> loc(#loc158)
    %offs_token = tt.splat %sorted_token_ids_ptr : !tt.ptr<i32> -> tensor<128x!tt.ptr<i32>> loc(#loc159)
    %offs_token_56 = tt.addptr %offs_token, %offs_token_id_55 : tensor<128x!tt.ptr<i32>>, tensor<128xi64> loc(#loc159)
    %offs_token_57 = tt.load %offs_token_56 : tensor<128x!tt.ptr<i32>> loc(#loc160)
    %offs_token_58 = arith.extsi %offs_token_57 : tensor<128xi32> to tensor<128xi64> loc(#loc161)
    %token_mask = arith.extsi %num_valid_tokens : i32 to i64 loc(#loc162)
    %token_mask_59 = tt.splat %token_mask : i64 -> tensor<128xi64> loc(#loc162)
    %token_mask_60 = arith.cmpi slt, %offs_token_58, %token_mask_59 : tensor<128xi64> loc(#loc162)
    %off_experts = tt.addptr %expert_ids_ptr, %pid_m_39 : !tt.ptr<i32>, i32 loc(#loc163)
    %off_experts_61 = tt.load %off_experts : !tt.ptr<i32> loc(#loc164)
    %off_experts_62 = arith.extsi %off_experts_61 : i32 to i64 loc(#loc165)
    %c-1_i32 = arith.constant -1 : i32 loc(#loc29)
    %8 = arith.extsi %c-1_i32 : i32 to i64 loc(#loc29)
    %9 = arith.cmpi eq, %off_experts_62, %8 : i64 loc(#loc29)
    cf.cond_br %9, ^bb5, ^bb6 loc(#loc29)
  ^bb5:  // pred: ^bb4
    tt.call @"vllm.model_executor.layers.fused_moe.fused_moe.write_zeros_to_output__Pbf16_i32_i32_i32_i64S128S_u1S128S__(2,)cconstexpr_1__(7,)cconstexpr_128__(8,)cconstexpr_128__(9,)cconstexpr_bf16_"(%c_ptr, %stride_cm, %pid_n_40, %N, %offs_token_58, %token_mask_60) : (!tt.ptr<bf16>, i32, i32, i32, tensor<128xi64>, tensor<128xi1>) -> () loc(#loc30)
    tt.return loc(#loc31)
  ^bb6:  // pred: ^bb4
    cf.br ^bb8 loc(#loc)
  ^bb7:  // no predecessors
    cf.br ^bb8 loc(#loc)
  ^bb8:  // 2 preds: ^bb6, ^bb7
    %offs_bn = arith.constant 128 : i32 loc(#loc166)
    %offs_bn_63 = arith.constant 128 : i32 loc(#loc166)
    %offs_bn_64 = arith.extsi %pid_n_40 : i32 to i64 loc(#loc166)
    %offs_bn_65 = arith.extsi %offs_bn_63 : i32 to i64 loc(#loc166)
    %offs_bn_66 = arith.muli %offs_bn_64, %offs_bn_65 : i64 loc(#loc166)
    %offs_bn_67 = arith.constant 2147483647 : i64 loc(#loc166)
    %offs_bn_68 = arith.constant -2147483648 : i64 loc(#loc166)
    %offs_bn_69 = arith.cmpi sle, %offs_bn_66, %offs_bn_67 : i64 loc(#loc166)
    %offs_bn_70 = arith.cmpi sge, %offs_bn_66, %offs_bn_68 : i64 loc(#loc166)
    %offs_bn_71 = arith.andi %offs_bn_69, %offs_bn_70 : i1 loc(#loc166)
    %offs_bn_72 = arith.muli %pid_n_40, %offs_bn_63 : i32 loc(#loc166)
    %offs_bn_73 = tt.make_range {end = 128 : i32, start = 0 : i32} : tensor<128xi32> loc(#loc167)
    %offs_bn_74 = arith.extsi %offs_bn_73 : tensor<128xi32> to tensor<128xi64> loc(#loc168)
    %offs_bn_75 = arith.extsi %offs_bn_72 : i32 to i64 loc(#loc169)
    %offs_bn_76 = tt.splat %offs_bn_75 : i64 -> tensor<128xi64> loc(#loc169)
    %offs_bn_77 = arith.addi %offs_bn_76, %offs_bn_74 : tensor<128xi64> loc(#loc169)
    %offs_bn_78 = arith.extsi %N : i32 to i64 loc(#loc170)
    %offs_bn_79 = tt.splat %offs_bn_78 : i64 -> tensor<128xi64> loc(#loc170)
    %offs_bn_80 = arith.remsi %offs_bn_77, %offs_bn_79 : tensor<128xi64> loc(#loc170)
    %offs_k = tt.make_range {end = 64 : i32, start = 0 : i32} : tensor<64xi32> loc(#loc171)
    %a_ptrs = tt.expand_dims %offs_token_58 {axis = 1 : i32} : tensor<128xi64> -> tensor<128x1xi64> loc(#loc172)
    %a_ptrs_81 = arith.constant 1 : i32 loc(#loc173)
    %a_ptrs_82 = arith.constant 1 : i64 loc(#loc173)
    %a_ptrs_83 = arith.constant dense<1> : tensor<128x1xi64> loc(#loc173)
    %a_ptrs_84 = arith.divsi %a_ptrs, %a_ptrs_83 : tensor<128x1xi64> loc(#loc173)
    %a_ptrs_85 = arith.extsi %stride_am : i32 to i64 loc(#loc174)
    %a_ptrs_86 = tt.splat %a_ptrs_85 : i64 -> tensor<128x1xi64> loc(#loc174)
    %a_ptrs_87 = arith.muli %a_ptrs_84, %a_ptrs_86 : tensor<128x1xi64> loc(#loc174)
    %a_ptrs_88 = tt.expand_dims %offs_k {axis = 0 : i32} : tensor<64xi32> -> tensor<1x64xi32> loc(#loc175)
    %a_ptrs_89 = arith.constant 1 : i32 loc(#loc176)
    %a_ptrs_90 = arith.constant 1 : i32 loc(#loc176)
    %a_ptrs_91 = arith.constant dense<1> : tensor<1x64xi32> loc(#loc176)
    %a_ptrs_92 = arith.extsi %a_ptrs_88 : tensor<1x64xi32> to tensor<1x64xi64> loc(#loc176)
    %a_ptrs_93 = arith.extsi %a_ptrs_91 : tensor<1x64xi32> to tensor<1x64xi64> loc(#loc176)
    %a_ptrs_94 = arith.muli %a_ptrs_92, %a_ptrs_93 : tensor<1x64xi64> loc(#loc176)
    %a_ptrs_95 = arith.constant 2147483647 : i64 loc(#loc176)
    %a_ptrs_96 = arith.constant -2147483648 : i64 loc(#loc176)
    %a_ptrs_97 = arith.constant dense<2147483647> : tensor<1x64xi64> loc(#loc176)
    %a_ptrs_98 = arith.cmpi sle, %a_ptrs_94, %a_ptrs_97 : tensor<1x64xi64> loc(#loc176)
    %a_ptrs_99 = arith.constant dense<-2147483648> : tensor<1x64xi64> loc(#loc176)
    %a_ptrs_100 = arith.cmpi sge, %a_ptrs_94, %a_ptrs_99 : tensor<1x64xi64> loc(#loc176)
    %a_ptrs_101 = arith.andi %a_ptrs_98, %a_ptrs_100 : tensor<1x64xi1> loc(#loc176)
    %a_ptrs_102 = arith.muli %a_ptrs_88, %a_ptrs_91 : tensor<1x64xi32> loc(#loc176)
    %a_ptrs_103 = arith.extsi %a_ptrs_102 : tensor<1x64xi32> to tensor<1x64xi64> loc(#loc177)
    %a_ptrs_104 = tt.broadcast %a_ptrs_87 : tensor<128x1xi64> -> tensor<128x64xi64> loc(#loc177)
    %a_ptrs_105 = tt.broadcast %a_ptrs_103 : tensor<1x64xi64> -> tensor<128x64xi64> loc(#loc177)
    %a_ptrs_106 = arith.addi %a_ptrs_104, %a_ptrs_105 : tensor<128x64xi64> loc(#loc177)
    %a_ptrs_107 = tt.splat %a_ptr : !tt.ptr<bf16> -> tensor<128x64x!tt.ptr<bf16>> loc(#loc178)
    %a_ptrs_108 = tt.addptr %a_ptrs_107, %a_ptrs_106 : tensor<128x64x!tt.ptr<bf16>>, tensor<128x64xi64> loc(#loc178)
    %b_ptrs = arith.extsi %stride_be : i32 to i64 loc(#loc179)
    %b_ptrs_109 = arith.muli %off_experts_62, %b_ptrs : i64 loc(#loc179)
    %b_ptrs_110 = tt.addptr %b_ptr, %b_ptrs_109 : !tt.ptr<bf16>, i64 loc(#loc180)
    %b_ptrs_111 = tt.expand_dims %offs_k {axis = 1 : i32} : tensor<64xi32> -> tensor<64x1xi32> loc(#loc181)
    %b_ptrs_112 = arith.constant 1 : i32 loc(#loc182)
    %b_ptrs_113 = arith.constant 1 : i32 loc(#loc182)
    %b_ptrs_114 = arith.constant dense<1> : tensor<64x1xi32> loc(#loc182)
    %b_ptrs_115 = arith.extsi %b_ptrs_111 : tensor<64x1xi32> to tensor<64x1xi64> loc(#loc182)
    %b_ptrs_116 = arith.extsi %b_ptrs_114 : tensor<64x1xi32> to tensor<64x1xi64> loc(#loc182)
    %b_ptrs_117 = arith.muli %b_ptrs_115, %b_ptrs_116 : tensor<64x1xi64> loc(#loc182)
    %b_ptrs_118 = arith.constant 2147483647 : i64 loc(#loc182)
    %b_ptrs_119 = arith.constant -2147483648 : i64 loc(#loc182)
    %b_ptrs_120 = arith.constant dense<2147483647> : tensor<64x1xi64> loc(#loc182)
    %b_ptrs_121 = arith.cmpi sle, %b_ptrs_117, %b_ptrs_120 : tensor<64x1xi64> loc(#loc182)
    %b_ptrs_122 = arith.constant dense<-2147483648> : tensor<64x1xi64> loc(#loc182)
    %b_ptrs_123 = arith.cmpi sge, %b_ptrs_117, %b_ptrs_122 : tensor<64x1xi64> loc(#loc182)
    %b_ptrs_124 = arith.andi %b_ptrs_121, %b_ptrs_123 : tensor<64x1xi1> loc(#loc182)
    %b_ptrs_125 = arith.muli %b_ptrs_111, %b_ptrs_114 : tensor<64x1xi32> loc(#loc182)
    %b_ptrs_126 = tt.expand_dims %offs_bn_80 {axis = 0 : i32} : tensor<128xi64> -> tensor<1x128xi64> loc(#loc183)
    %b_ptrs_127 = arith.extsi %stride_bn : i32 to i64 loc(#loc184)
    %b_ptrs_128 = tt.splat %b_ptrs_127 : i64 -> tensor<1x128xi64> loc(#loc184)
    %b_ptrs_129 = arith.muli %b_ptrs_126, %b_ptrs_128 : tensor<1x128xi64> loc(#loc184)
    %b_ptrs_130 = arith.extsi %b_ptrs_125 : tensor<64x1xi32> to tensor<64x1xi64> loc(#loc185)
    %b_ptrs_131 = tt.broadcast %b_ptrs_130 : tensor<64x1xi64> -> tensor<64x128xi64> loc(#loc185)
    %b_ptrs_132 = tt.broadcast %b_ptrs_129 : tensor<1x128xi64> -> tensor<64x128xi64> loc(#loc185)
    %b_ptrs_133 = arith.addi %b_ptrs_131, %b_ptrs_132 : tensor<64x128xi64> loc(#loc185)
    %b_ptrs_134 = tt.splat %b_ptrs_110 : !tt.ptr<bf16> -> tensor<64x128x!tt.ptr<bf16>> loc(#loc186)
    %b_ptrs_135 = tt.addptr %b_ptrs_134, %b_ptrs_133 : tensor<64x128x!tt.ptr<bf16>>, tensor<64x128xi64> loc(#loc186)
    %accumulator = tt.call @"triton.language.standard.zeros____(0, 0)cconstexpr_128__(0, 1)cconstexpr_128__(1,)cconstexpr_fp32_"() : () -> tensor<128x128xf32> loc(#loc187)
    %10 = tt.call @"triton.language.standard.cdiv__i32__(1,)cconstexpr_64_"(%K) : (i32) -> i32 loc(#loc54)
    %c0_i32 = arith.constant 0 : i32 loc(#loc55)
    %c1_i32 = arith.constant 1 : i32 loc(#loc55)
    %11 = arith.bitcast %c0_i32 : i32 to i32 loc(#loc55)
    %12 = arith.bitcast %10 : i32 to i32 loc(#loc55)
    %13 = arith.bitcast %c1_i32 : i32 to i32 loc(#loc55)
    %14 = ub.poison : i32 loc(#loc55)
    %accumulator_136:3 = scf.for %k = %11 to %12 step %13 iter_args(%a_ptrs_198 = %a_ptrs_108, %b_ptrs_199 = %b_ptrs_135, %accumulator_200 = %accumulator) -> (tensor<128x64x!tt.ptr<bf16>>, tensor<64x128x!tt.ptr<bf16>>, tensor<128x128xf32>)  : i32 {
      %a = tt.expand_dims %token_mask_60 {axis = 1 : i32} : tensor<128xi1> -> tensor<128x1xi1> loc(#loc189)
      %a_201 = tt.expand_dims %offs_k {axis = 0 : i32} : tensor<64xi32> -> tensor<1x64xi32> loc(#loc190)
      %a_202 = arith.constant 64 : i32 loc(#loc191)
      %a_203 = arith.constant 64 : i32 loc(#loc191)
      %a_204 = arith.extsi %k : i32 to i64 loc(#loc191)
      %a_205 = arith.extsi %a_203 : i32 to i64 loc(#loc191)
      %a_206 = arith.muli %a_204, %a_205 : i64 loc(#loc191)
      %a_207 = arith.constant 2147483647 : i64 loc(#loc191)
      %a_208 = arith.constant -2147483648 : i64 loc(#loc191)
      %a_209 = arith.cmpi sle, %a_206, %a_207 : i64 loc(#loc191)
      %a_210 = arith.cmpi sge, %a_206, %a_208 : i64 loc(#loc191)
      %a_211 = arith.andi %a_209, %a_210 : i1 loc(#loc191)
      %a_212 = arith.muli %k, %a_203 : i32 loc(#loc191)
      %a_213 = arith.extsi %K : i32 to i64 loc(#loc192)
      %a_214 = arith.extsi %a_212 : i32 to i64 loc(#loc192)
      %a_215 = arith.subi %a_213, %a_214 : i64 loc(#loc192)
      %a_216 = arith.constant 2147483647 : i64 loc(#loc192)
      %a_217 = arith.constant -2147483648 : i64 loc(#loc192)
      %a_218 = arith.cmpi sle, %a_215, %a_216 : i64 loc(#loc192)
      %a_219 = arith.cmpi sge, %a_215, %a_217 : i64 loc(#loc192)
      %a_220 = arith.andi %a_218, %a_219 : i1 loc(#loc192)
      %a_221 = arith.subi %K, %a_212 : i32 loc(#loc192)
      %a_222 = tt.splat %a_221 : i32 -> tensor<1x64xi32> loc(#loc193)
      %a_223 = arith.cmpi slt, %a_201, %a_222 : tensor<1x64xi32> loc(#loc193)
      %a_224 = tt.broadcast %a : tensor<128x1xi1> -> tensor<128x64xi1> loc(#loc194)
      %a_225 = tt.broadcast %a_223 : tensor<1x64xi1> -> tensor<128x64xi1> loc(#loc194)
      %a_226 = arith.andi %a_224, %a_225 : tensor<128x64xi1> loc(#loc194)
      %a_227 = arith.constant 0.000000e+00 : f32 loc(#loc195)
      %a_228 = arith.constant dense<0.000000e+00> : tensor<128x64xf32> loc(#loc195)
      %a_229 = arith.truncf %a_228 : tensor<128x64xf32> to tensor<128x64xbf16> loc(#loc195)
      %a_230 = tt.load %a_ptrs_198, %a_226, %a_229 : tensor<128x64x!tt.ptr<bf16>> loc(#loc195)
      %b = tt.expand_dims %offs_k {axis = 1 : i32} : tensor<64xi32> -> tensor<64x1xi32> loc(#loc196)
      %b_231 = arith.constant 64 : i32 loc(#loc197)
      %b_232 = arith.constant 64 : i32 loc(#loc197)
      %b_233 = arith.extsi %k : i32 to i64 loc(#loc197)
      %b_234 = arith.extsi %b_232 : i32 to i64 loc(#loc197)
      %b_235 = arith.muli %b_233, %b_234 : i64 loc(#loc197)
      %b_236 = arith.constant 2147483647 : i64 loc(#loc197)
      %b_237 = arith.constant -2147483648 : i64 loc(#loc197)
      %b_238 = arith.cmpi sle, %b_235, %b_236 : i64 loc(#loc197)
      %b_239 = arith.cmpi sge, %b_235, %b_237 : i64 loc(#loc197)
      %b_240 = arith.andi %b_238, %b_239 : i1 loc(#loc197)
      %b_241 = arith.muli %k, %b_232 : i32 loc(#loc197)
      %b_242 = arith.extsi %K : i32 to i64 loc(#loc198)
      %b_243 = arith.extsi %b_241 : i32 to i64 loc(#loc198)
      %b_244 = arith.subi %b_242, %b_243 : i64 loc(#loc198)
      %b_245 = arith.constant 2147483647 : i64 loc(#loc198)
      %b_246 = arith.constant -2147483648 : i64 loc(#loc198)
      %b_247 = arith.cmpi sle, %b_244, %b_245 : i64 loc(#loc198)
      %b_248 = arith.cmpi sge, %b_244, %b_246 : i64 loc(#loc198)
      %b_249 = arith.andi %b_247, %b_248 : i1 loc(#loc198)
      %b_250 = arith.subi %K, %b_241 : i32 loc(#loc198)
      %b_251 = tt.splat %b_250 : i32 -> tensor<64x1xi32> loc(#loc199)
      %b_252 = arith.cmpi slt, %b, %b_251 : tensor<64x1xi32> loc(#loc199)
      %b_253 = arith.constant 0.000000e+00 : f32 loc(#loc200)
      %b_254 = tt.broadcast %b_252 : tensor<64x1xi1> -> tensor<64x128xi1> loc(#loc200)
      %b_255 = arith.constant dense<0.000000e+00> : tensor<64x128xf32> loc(#loc200)
      %b_256 = arith.truncf %b_255 : tensor<64x128xf32> to tensor<64x128xbf16> loc(#loc200)
      %b_257 = tt.load %b_ptrs_199, %b_254, %b_256 : tensor<64x128x!tt.ptr<bf16>> loc(#loc200)
      %accumulator_258 = arith.constant 0.000000e+00 : f32 loc(#loc201)
      %accumulator_259 = arith.constant dense<0.000000e+00> : tensor<128x128xf32> loc(#loc201)
      %accumulator_260 = tt.dot %a_230, %b_257, %accumulator_259, inputPrecision = tf32 : tensor<128x64xbf16> * tensor<64x128xbf16> -> tensor<128x128xf32> loc(#loc201)
      %accumulator_261 = arith.addf %accumulator_200, %accumulator_260 : tensor<128x128xf32> loc(#loc202)
      %a_ptrs_262 = arith.constant 64 : i32 loc(#loc203)
      %a_ptrs_263 = arith.constant dense<64> : tensor<128x64xi32> loc(#loc203)
      %a_ptrs_264 = tt.addptr %a_ptrs_198, %a_ptrs_263 : tensor<128x64x!tt.ptr<bf16>>, tensor<128x64xi32> loc(#loc203)
      %b_ptrs_265 = arith.constant 64 : i32 loc(#loc204)
      %b_ptrs_266 = arith.constant dense<64> : tensor<64x128xi32> loc(#loc204)
      %b_ptrs_267 = tt.addptr %b_ptrs_199, %b_ptrs_266 : tensor<64x128x!tt.ptr<bf16>>, tensor<64x128xi32> loc(#loc204)
      scf.yield %a_ptrs_264, %b_ptrs_267, %accumulator_261 : tensor<128x64x!tt.ptr<bf16>>, tensor<64x128x!tt.ptr<bf16>>, tensor<128x128xf32> loc(#loc72)
    } loc(#loc245)
    %moe_weight = tt.splat %topk_weights_ptr : !tt.ptr<f32> -> tensor<128x!tt.ptr<f32>> loc(#loc205)
    %moe_weight_137 = tt.addptr %moe_weight, %offs_token_58 : tensor<128x!tt.ptr<f32>>, tensor<128xi64> loc(#loc205)
    %moe_weight_138 = arith.constant 0 : i32 loc(#loc206)
    %moe_weight_139 = arith.constant dense<0> : tensor<128xi32> loc(#loc206)
    %moe_weight_140 = arith.sitofp %moe_weight_139 : tensor<128xi32> to tensor<128xf32> loc(#loc206)
    %moe_weight_141 = tt.load %moe_weight_137, %token_mask_60, %moe_weight_140 : tensor<128x!tt.ptr<f32>> loc(#loc206)
    %accumulator_142 = tt.expand_dims %moe_weight_141 {axis = 1 : i32} : tensor<128xf32> -> tensor<128x1xf32> loc(#loc207)
    %accumulator_143 = tt.broadcast %accumulator_142 : tensor<128x1xf32> -> tensor<128x128xf32> loc(#loc208)
    %accumulator_144 = arith.mulf %accumulator_136#2, %accumulator_143 : tensor<128x128xf32> loc(#loc208)
    %accumulator_145 = arith.truncf %accumulator_144 : tensor<128x128xf32> to tensor<128x128xbf16> loc(#loc209)
    %offs_cn = arith.constant 128 : i32 loc(#loc210)
    %offs_cn_146 = arith.constant 128 : i32 loc(#loc210)
    %offs_cn_147 = arith.extsi %pid_n_40 : i32 to i64 loc(#loc210)
    %offs_cn_148 = arith.extsi %offs_cn_146 : i32 to i64 loc(#loc210)
    %offs_cn_149 = arith.muli %offs_cn_147, %offs_cn_148 : i64 loc(#loc210)
    %offs_cn_150 = arith.constant 2147483647 : i64 loc(#loc210)
    %offs_cn_151 = arith.constant -2147483648 : i64 loc(#loc210)
    %offs_cn_152 = arith.cmpi sle, %offs_cn_149, %offs_cn_150 : i64 loc(#loc210)
    %offs_cn_153 = arith.cmpi sge, %offs_cn_149, %offs_cn_151 : i64 loc(#loc210)
    %offs_cn_154 = arith.andi %offs_cn_152, %offs_cn_153 : i1 loc(#loc210)
    %offs_cn_155 = arith.muli %pid_n_40, %offs_cn_146 : i32 loc(#loc210)
    %offs_cn_156 = tt.make_range {end = 128 : i32, start = 0 : i32} : tensor<128xi32> loc(#loc211)
    %offs_cn_157 = tt.splat %offs_cn_155 : i32 -> tensor<128xi32> loc(#loc212)
    %offs_cn_158 = arith.extsi %offs_cn_157 : tensor<128xi32> to tensor<128xi64> loc(#loc212)
    %offs_cn_159 = arith.extsi %offs_cn_156 : tensor<128xi32> to tensor<128xi64> loc(#loc212)
    %offs_cn_160 = arith.addi %offs_cn_158, %offs_cn_159 : tensor<128xi64> loc(#loc212)
    %offs_cn_161 = arith.constant 2147483647 : i64 loc(#loc212)
    %offs_cn_162 = arith.constant -2147483648 : i64 loc(#loc212)
    %offs_cn_163 = arith.constant dense<2147483647> : tensor<128xi64> loc(#loc212)
    %offs_cn_164 = arith.cmpi sle, %offs_cn_160, %offs_cn_163 : tensor<128xi64> loc(#loc212)
    %offs_cn_165 = arith.constant dense<-2147483648> : tensor<128xi64> loc(#loc212)
    %offs_cn_166 = arith.cmpi sge, %offs_cn_160, %offs_cn_165 : tensor<128xi64> loc(#loc212)
    %offs_cn_167 = arith.andi %offs_cn_164, %offs_cn_166 : tensor<128xi1> loc(#loc212)
    %offs_cn_168 = arith.addi %offs_cn_157, %offs_cn_156 : tensor<128xi32> loc(#loc212)
    %c_ptrs = tt.expand_dims %offs_token_58 {axis = 1 : i32} : tensor<128xi64> -> tensor<128x1xi64> loc(#loc213)
    %c_ptrs_169 = arith.extsi %stride_cm : i32 to i64 loc(#loc214)
    %c_ptrs_170 = tt.splat %c_ptrs_169 : i64 -> tensor<128x1xi64> loc(#loc214)
    %c_ptrs_171 = arith.muli %c_ptrs_170, %c_ptrs : tensor<128x1xi64> loc(#loc214)
    %c_ptrs_172 = tt.splat %c_ptr : !tt.ptr<bf16> -> tensor<128x1x!tt.ptr<bf16>> loc(#loc215)
    %c_ptrs_173 = tt.addptr %c_ptrs_172, %c_ptrs_171 : tensor<128x1x!tt.ptr<bf16>>, tensor<128x1xi64> loc(#loc215)
    %c_ptrs_174 = tt.expand_dims %offs_cn_168 {axis = 0 : i32} : tensor<128xi32> -> tensor<1x128xi32> loc(#loc216)
    %c_ptrs_175 = arith.constant 1 : i32 loc(#loc217)
    %c_ptrs_176 = arith.constant 1 : i32 loc(#loc217)
    %c_ptrs_177 = arith.constant dense<1> : tensor<1x128xi32> loc(#loc217)
    %c_ptrs_178 = arith.extsi %c_ptrs_177 : tensor<1x128xi32> to tensor<1x128xi64> loc(#loc217)
    %c_ptrs_179 = arith.extsi %c_ptrs_174 : tensor<1x128xi32> to tensor<1x128xi64> loc(#loc217)
    %c_ptrs_180 = arith.muli %c_ptrs_178, %c_ptrs_179 : tensor<1x128xi64> loc(#loc217)
    %c_ptrs_181 = arith.constant 2147483647 : i64 loc(#loc217)
    %c_ptrs_182 = arith.constant -2147483648 : i64 loc(#loc217)
    %c_ptrs_183 = arith.constant dense<2147483647> : tensor<1x128xi64> loc(#loc217)
    %c_ptrs_184 = arith.cmpi sle, %c_ptrs_180, %c_ptrs_183 : tensor<1x128xi64> loc(#loc217)
    %c_ptrs_185 = arith.constant dense<-2147483648> : tensor<1x128xi64> loc(#loc217)
    %c_ptrs_186 = arith.cmpi sge, %c_ptrs_180, %c_ptrs_185 : tensor<1x128xi64> loc(#loc217)
    %c_ptrs_187 = arith.andi %c_ptrs_184, %c_ptrs_186 : tensor<1x128xi1> loc(#loc217)
    %c_ptrs_188 = arith.muli %c_ptrs_177, %c_ptrs_174 : tensor<1x128xi32> loc(#loc217)
    %c_ptrs_189 = tt.broadcast %c_ptrs_173 : tensor<128x1x!tt.ptr<bf16>> -> tensor<128x128x!tt.ptr<bf16>> loc(#loc218)
    %c_ptrs_190 = tt.broadcast %c_ptrs_188 : tensor<1x128xi32> -> tensor<128x128xi32> loc(#loc218)
    %c_ptrs_191 = tt.addptr %c_ptrs_189, %c_ptrs_190 : tensor<128x128x!tt.ptr<bf16>>, tensor<128x128xi32> loc(#loc218)
    %c_mask = tt.expand_dims %token_mask_60 {axis = 1 : i32} : tensor<128xi1> -> tensor<128x1xi1> loc(#loc219)
    %c_mask_192 = tt.expand_dims %offs_cn_168 {axis = 0 : i32} : tensor<128xi32> -> tensor<1x128xi32> loc(#loc220)
    %c_mask_193 = tt.splat %N : i32 -> tensor<1x128xi32> loc(#loc221)
    %c_mask_194 = arith.cmpi slt, %c_mask_192, %c_mask_193 : tensor<1x128xi32> loc(#loc221)
    %c_mask_195 = tt.broadcast %c_mask : tensor<128x1xi1> -> tensor<128x128xi1> loc(#loc222)
    %c_mask_196 = tt.broadcast %c_mask_194 : tensor<1x128xi1> -> tensor<128x128xi1> loc(#loc222)
    %c_mask_197 = arith.andi %c_mask_195, %c_mask_196 : tensor<128x128xi1> loc(#loc222)
    tt.store %c_ptrs_191, %accumulator_145, %c_mask_197 : tensor<128x128x!tt.ptr<bf16>> loc(#loc91)
    tt.return loc(#loc92)
  } loc(#loc)
  tt.func private @"triton.language.standard.cdiv__i32__(1,)cconstexpr_128_"(%x: i32 loc("x"(#loc93))) -> i32 attributes {noinline = false} {
    %c127_i32 = arith.constant 127 : i32 loc(#loc94)
    %c127_i32_0 = arith.constant 127 : i32 loc(#loc94)
    %0 = arith.extsi %x : i32 to i64 loc(#loc94)
    %1 = arith.extsi %c127_i32_0 : i32 to i64 loc(#loc94)
    %2 = arith.addi %0, %1 : i64 loc(#loc94)
    %c2147483647_i64 = arith.constant 2147483647 : i64 loc(#loc94)
    %c-2147483648_i64 = arith.constant -2147483648 : i64 loc(#loc94)
    %3 = arith.cmpi sle, %2, %c2147483647_i64 : i64 loc(#loc94)
    %4 = arith.cmpi sge, %2, %c-2147483648_i64 : i64 loc(#loc94)
    %5 = arith.andi %3, %4 : i1 loc(#loc94)
    %6 = arith.addi %x, %c127_i32_0 : i32 loc(#loc94)
    %c128_i32 = arith.constant 128 : i32 loc(#loc95)
    %c128_i32_1 = arith.constant 128 : i32 loc(#loc95)
    %7 = arith.divsi %6, %c128_i32_1 : i32 loc(#loc95)
    tt.return %7 : i32 loc(#loc96)
  ^bb1:  // no predecessors
    %8 = ub.poison : i32 loc(#loc97)
    tt.return %8 : i32 loc(#loc97)
  } loc(#loc93)
  tt.func private @"vllm.model_executor.layers.fused_moe.fused_moe.write_zeros_to_output__Pbf16_i32_i32_i32_i64S128S_u1S128S__(2,)cconstexpr_1__(7,)cconstexpr_128__(8,)cconstexpr_128__(9,)cconstexpr_bf16_"(%c_ptr: !tt.ptr<bf16> loc("c_ptr"(#loc98)), %stride_cm: i32 loc("stride_cm"(#loc98)), %pid_n: i32 loc("pid_n"(#loc98)), %N: i32 loc("N"(#loc98)), %offs_token: tensor<128xi64> loc("offs_token"(#loc98)), %token_mask: tensor<128xi1> loc("token_mask"(#loc98))) attributes {noinline = false} {
    %accumulator = tt.call @"triton.language.standard.zeros____(0, 0)cconstexpr_128__(0, 1)cconstexpr_128__(1,)cconstexpr_bf16_"() : () -> tensor<128x128xbf16> loc(#loc230)
    %offs_cn = arith.constant 128 : i32 loc(#loc231)
    %offs_cn_0 = arith.constant 128 : i32 loc(#loc231)
    %offs_cn_1 = arith.extsi %pid_n : i32 to i64 loc(#loc231)
    %offs_cn_2 = arith.extsi %offs_cn_0 : i32 to i64 loc(#loc231)
    %offs_cn_3 = arith.muli %offs_cn_1, %offs_cn_2 : i64 loc(#loc231)
    %offs_cn_4 = arith.constant 2147483647 : i64 loc(#loc231)
    %offs_cn_5 = arith.constant -2147483648 : i64 loc(#loc231)
    %offs_cn_6 = arith.cmpi sle, %offs_cn_3, %offs_cn_4 : i64 loc(#loc231)
    %offs_cn_7 = arith.cmpi sge, %offs_cn_3, %offs_cn_5 : i64 loc(#loc231)
    %offs_cn_8 = arith.andi %offs_cn_6, %offs_cn_7 : i1 loc(#loc231)
    %offs_cn_9 = arith.muli %pid_n, %offs_cn_0 : i32 loc(#loc231)
    %offs_cn_10 = tt.make_range {end = 128 : i32, start = 0 : i32} : tensor<128xi32> loc(#loc232)
    %offs_cn_11 = tt.splat %offs_cn_9 : i32 -> tensor<128xi32> loc(#loc233)
    %offs_cn_12 = arith.extsi %offs_cn_11 : tensor<128xi32> to tensor<128xi64> loc(#loc233)
    %offs_cn_13 = arith.extsi %offs_cn_10 : tensor<128xi32> to tensor<128xi64> loc(#loc233)
    %offs_cn_14 = arith.addi %offs_cn_12, %offs_cn_13 : tensor<128xi64> loc(#loc233)
    %offs_cn_15 = arith.constant 2147483647 : i64 loc(#loc233)
    %offs_cn_16 = arith.constant -2147483648 : i64 loc(#loc233)
    %offs_cn_17 = arith.constant dense<2147483647> : tensor<128xi64> loc(#loc233)
    %offs_cn_18 = arith.cmpi sle, %offs_cn_14, %offs_cn_17 : tensor<128xi64> loc(#loc233)
    %offs_cn_19 = arith.constant dense<-2147483648> : tensor<128xi64> loc(#loc233)
    %offs_cn_20 = arith.cmpi sge, %offs_cn_14, %offs_cn_19 : tensor<128xi64> loc(#loc233)
    %offs_cn_21 = arith.andi %offs_cn_18, %offs_cn_20 : tensor<128xi1> loc(#loc233)
    %offs_cn_22 = arith.addi %offs_cn_11, %offs_cn_10 : tensor<128xi32> loc(#loc233)
    %c_ptrs = tt.expand_dims %offs_token {axis = 1 : i32} : tensor<128xi64> -> tensor<128x1xi64> loc(#loc234)
    %c_ptrs_23 = arith.extsi %stride_cm : i32 to i64 loc(#loc235)
    %c_ptrs_24 = tt.splat %c_ptrs_23 : i64 -> tensor<128x1xi64> loc(#loc235)
    %c_ptrs_25 = arith.muli %c_ptrs_24, %c_ptrs : tensor<128x1xi64> loc(#loc235)
    %c_ptrs_26 = tt.splat %c_ptr : !tt.ptr<bf16> -> tensor<128x1x!tt.ptr<bf16>> loc(#loc236)
    %c_ptrs_27 = tt.addptr %c_ptrs_26, %c_ptrs_25 : tensor<128x1x!tt.ptr<bf16>>, tensor<128x1xi64> loc(#loc236)
    %c_ptrs_28 = tt.expand_dims %offs_cn_22 {axis = 0 : i32} : tensor<128xi32> -> tensor<1x128xi32> loc(#loc237)
    %c_ptrs_29 = arith.constant 1 : i32 loc(#loc238)
    %c_ptrs_30 = arith.constant 1 : i32 loc(#loc238)
    %c_ptrs_31 = arith.constant dense<1> : tensor<1x128xi32> loc(#loc238)
    %c_ptrs_32 = arith.extsi %c_ptrs_31 : tensor<1x128xi32> to tensor<1x128xi64> loc(#loc238)
    %c_ptrs_33 = arith.extsi %c_ptrs_28 : tensor<1x128xi32> to tensor<1x128xi64> loc(#loc238)
    %c_ptrs_34 = arith.muli %c_ptrs_32, %c_ptrs_33 : tensor<1x128xi64> loc(#loc238)
    %c_ptrs_35 = arith.constant 2147483647 : i64 loc(#loc238)
    %c_ptrs_36 = arith.constant -2147483648 : i64 loc(#loc238)
    %c_ptrs_37 = arith.constant dense<2147483647> : tensor<1x128xi64> loc(#loc238)
    %c_ptrs_38 = arith.cmpi sle, %c_ptrs_34, %c_ptrs_37 : tensor<1x128xi64> loc(#loc238)
    %c_ptrs_39 = arith.constant dense<-2147483648> : tensor<1x128xi64> loc(#loc238)
    %c_ptrs_40 = arith.cmpi sge, %c_ptrs_34, %c_ptrs_39 : tensor<1x128xi64> loc(#loc238)
    %c_ptrs_41 = arith.andi %c_ptrs_38, %c_ptrs_40 : tensor<1x128xi1> loc(#loc238)
    %c_ptrs_42 = arith.muli %c_ptrs_31, %c_ptrs_28 : tensor<1x128xi32> loc(#loc238)
    %c_ptrs_43 = tt.broadcast %c_ptrs_27 : tensor<128x1x!tt.ptr<bf16>> -> tensor<128x128x!tt.ptr<bf16>> loc(#loc239)
    %c_ptrs_44 = tt.broadcast %c_ptrs_42 : tensor<1x128xi32> -> tensor<128x128xi32> loc(#loc239)
    %c_ptrs_45 = tt.addptr %c_ptrs_43, %c_ptrs_44 : tensor<128x128x!tt.ptr<bf16>>, tensor<128x128xi32> loc(#loc239)
    %c_mask = tt.expand_dims %token_mask {axis = 1 : i32} : tensor<128xi1> -> tensor<128x1xi1> loc(#loc240)
    %c_mask_46 = tt.expand_dims %offs_cn_22 {axis = 0 : i32} : tensor<128xi32> -> tensor<1x128xi32> loc(#loc241)
    %c_mask_47 = tt.splat %N : i32 -> tensor<1x128xi32> loc(#loc242)
    %c_mask_48 = arith.cmpi slt, %c_mask_46, %c_mask_47 : tensor<1x128xi32> loc(#loc242)
    %c_mask_49 = tt.broadcast %c_mask : tensor<128x1xi1> -> tensor<128x128xi1> loc(#loc243)
    %c_mask_50 = tt.broadcast %c_mask_48 : tensor<1x128xi1> -> tensor<128x128xi1> loc(#loc243)
    %c_mask_51 = arith.andi %c_mask_49, %c_mask_50 : tensor<128x128xi1> loc(#loc243)
    tt.store %c_ptrs_45, %accumulator, %c_mask_51 : tensor<128x128x!tt.ptr<bf16>> loc(#loc113)
    tt.return loc(#loc114)
  } loc(#loc98)
  tt.func private @"triton.language.standard.zeros____(0, 0)cconstexpr_128__(0, 1)cconstexpr_128__(1,)cconstexpr_bf16_"() -> tensor<128x128xbf16> attributes {noinline = false} {
    %cst = arith.constant 0.000000e+00 : bf16 loc(#loc116)
    %cst_0 = arith.constant dense<0.000000e+00> : tensor<128x128xbf16> loc(#loc116)
    tt.return %cst_0 : tensor<128x128xbf16> loc(#loc117)
  ^bb1:  // no predecessors
    %0 = ub.poison : tensor<128x128xbf16> loc(#loc118)
    tt.return %0 : tensor<128x128xbf16> loc(#loc118)
  } loc(#loc115)
  tt.func private @"triton.language.standard.zeros____(0, 0)cconstexpr_128__(0, 1)cconstexpr_128__(1,)cconstexpr_fp32_"() -> tensor<128x128xf32> attributes {noinline = false} {
    %cst = arith.constant 0.000000e+00 : f32 loc(#loc116)
    %cst_0 = arith.constant dense<0.000000e+00> : tensor<128x128xf32> loc(#loc116)
    tt.return %cst_0 : tensor<128x128xf32> loc(#loc117)
  ^bb1:  // no predecessors
    %0 = ub.poison : tensor<128x128xf32> loc(#loc118)
    tt.return %0 : tensor<128x128xf32> loc(#loc118)
  } loc(#loc115)
  tt.func private @"triton.language.standard.cdiv__i32__(1,)cconstexpr_64_"(%x: i32 loc("x"(#loc93))) -> i32 attributes {noinline = false} {
    %c63_i32 = arith.constant 63 : i32 loc(#loc94)
    %c63_i32_0 = arith.constant 63 : i32 loc(#loc94)
    %0 = arith.extsi %x : i32 to i64 loc(#loc94)
    %1 = arith.extsi %c63_i32_0 : i32 to i64 loc(#loc94)
    %2 = arith.addi %0, %1 : i64 loc(#loc94)
    %c2147483647_i64 = arith.constant 2147483647 : i64 loc(#loc94)
    %c-2147483648_i64 = arith.constant -2147483648 : i64 loc(#loc94)
    %3 = arith.cmpi sle, %2, %c2147483647_i64 : i64 loc(#loc94)
    %4 = arith.cmpi sge, %2, %c-2147483648_i64 : i64 loc(#loc94)
    %5 = arith.andi %3, %4 : i1 loc(#loc94)
    %6 = arith.addi %x, %c63_i32_0 : i32 loc(#loc94)
    %c64_i32 = arith.constant 64 : i32 loc(#loc95)
    %c64_i32_1 = arith.constant 64 : i32 loc(#loc95)
    %7 = arith.divsi %6, %c64_i32_1 : i32 loc(#loc95)
    tt.return %7 : i32 loc(#loc96)
  ^bb1:  // no predecessors
    %8 = ub.poison : i32 loc(#loc97)
    tt.return %8 : i32 loc(#loc97)
  } loc(#loc93)
} loc(#loc)
#loc1 = loc("/home/ericbuehler/vllm/.venv-bench/lib/python3.12/site-packages/vllm/model_executor/layers/fused_moe/fused_moe.py":381:24)
#loc2 = loc("/home/ericbuehler/vllm/.venv-bench/lib/python3.12/site-packages/vllm/model_executor/layers/fused_moe/fused_moe.py":382:28)
#loc3 = loc("/home/ericbuehler/vllm/.venv-bench/lib/python3.12/site-packages/vllm/model_executor/layers/fused_moe/fused_moe.py":383:27)
#loc4 = loc("/home/ericbuehler/vllm/.venv-bench/lib/python3.12/site-packages/vllm/model_executor/layers/fused_moe/fused_moe.py":384:38)
#loc5 = loc("/home/ericbuehler/vllm/.venv-bench/lib/python3.12/site-packages/vllm/model_executor/layers/fused_moe/fused_moe.py":385:22)
#loc6 = loc("/home/ericbuehler/vllm/.venv-bench/lib/python3.12/site-packages/vllm/model_executor/layers/fused_moe/fused_moe.py":386:29)
#loc7 = loc("/home/ericbuehler/vllm/.venv-bench/lib/python3.12/site-packages/vllm/model_executor/layers/fused_moe/fused_moe.py":387:35)
#loc8 = loc("/home/ericbuehler/vllm/.venv-bench/lib/python3.12/site-packages/vllm/model_executor/layers/fused_moe/fused_moe.py":387:48)
#loc9 = loc("/home/ericbuehler/vllm/.venv-bench/lib/python3.12/site-packages/vllm/model_executor/layers/fused_moe/fused_moe.py":388:34)
#loc10 = loc("/home/ericbuehler/vllm/.venv-bench/lib/python3.12/site-packages/vllm/model_executor/layers/fused_moe/fused_moe.py":388:54)
#loc11 = loc("/home/ericbuehler/vllm/.venv-bench/lib/python3.12/site-packages/vllm/model_executor/layers/fused_moe/fused_moe.py":388:27)
#loc12 = loc("/home/ericbuehler/vllm/.venv-bench/lib/python3.12/site-packages/vllm/model_executor/layers/fused_moe/fused_moe.py":389:19)
#loc13 = loc("/home/ericbuehler/vllm/.venv-bench/lib/python3.12/site-packages/vllm/model_executor/layers/fused_moe/fused_moe.py":389:40)
#loc14 = loc("/home/ericbuehler/vllm/.venv-bench/lib/python3.12/site-packages/vllm/model_executor/layers/fused_moe/fused_moe.py":397:24)
#loc15 = loc("/home/ericbuehler/vllm/.venv-bench/lib/python3.12/site-packages/vllm/model_executor/layers/fused_moe/fused_moe.py":397:41)
#loc16 = loc("/home/ericbuehler/vllm/.venv-bench/lib/python3.12/site-packages/vllm/model_executor/layers/fused_moe/fused_moe.py":398:37)
#loc17 = loc("/home/ericbuehler/vllm/.venv-bench/lib/python3.12/site-packages/vllm/model_executor/layers/fused_moe/fused_moe.py":399:15)
#loc18 = loc("/home/ericbuehler/vllm/.venv-bench/lib/python3.12/site-packages/vllm/model_executor/layers/fused_moe/fused_moe.py":399:31)
#loc19 = loc("/home/ericbuehler/vllm/.venv-bench/lib/python3.12/site-packages/vllm/model_executor/layers/fused_moe/fused_moe.py":400:8)
#loc20 = loc("/home/ericbuehler/vllm/.venv-bench/lib/python3.12/site-packages/vllm/model_executor/layers/fused_moe/fused_moe.py":402:32)
#loc21 = loc("/home/ericbuehler/vllm/.venv-bench/lib/python3.12/site-packages/vllm/model_executor/layers/fused_moe/fused_moe.py":402:47)
#loc22 = loc("/home/ericbuehler/vllm/.venv-bench/lib/python3.12/site-packages/vllm/model_executor/layers/fused_moe/fused_moe.py":403:52)
#loc23 = loc("/home/ericbuehler/vllm/.venv-bench/lib/python3.12/site-packages/vllm/model_executor/layers/fused_moe/fused_moe.py":403:29)
#loc24 = loc("/home/ericbuehler/vllm/.venv-bench/lib/python3.12/site-packages/vllm/model_executor/layers/fused_moe/fused_moe.py":412:31)
#loc25 = loc("/home/ericbuehler/vllm/.venv-bench/lib/python3.12/site-packages/vllm/model_executor/layers/fused_moe/fused_moe.py":414:30)
#loc26 = loc("/home/ericbuehler/vllm/.venv-bench/lib/python3.12/site-packages/vllm/model_executor/layers/fused_moe/fused_moe.py":416:43)
#loc27 = loc("/home/ericbuehler/vllm/.venv-bench/lib/python3.12/site-packages/vllm/model_executor/layers/fused_moe/fused_moe.py":416:26)
#loc28 = loc("/home/ericbuehler/vllm/.venv-bench/lib/python3.12/site-packages/vllm/model_executor/layers/fused_moe/fused_moe.py":416:53)
#loc29 = loc("/home/ericbuehler/vllm/.venv-bench/lib/python3.12/site-packages/vllm/model_executor/layers/fused_moe/fused_moe.py":417:22)
#loc30 = loc("/home/ericbuehler/vllm/.venv-bench/lib/python3.12/site-packages/vllm/model_executor/layers/fused_moe/fused_moe.py":431:12)
#loc31 = loc("/home/ericbuehler/vllm/.venv-bench/lib/python3.12/site-packages/vllm/model_executor/layers/fused_moe/fused_moe.py":433:8)
#loc32 = loc("/home/ericbuehler/vllm/.venv-bench/lib/python3.12/site-packages/vllm/model_executor/layers/fused_moe/fused_moe.py":435:23)
#loc33 = loc("/home/ericbuehler/vllm/.venv-bench/lib/python3.12/site-packages/vllm/model_executor/layers/fused_moe/fused_moe.py":435:51)
#loc34 = loc("/home/ericbuehler/vllm/.venv-bench/lib/python3.12/site-packages/vllm/model_executor/layers/fused_moe/fused_moe.py":435:68)
#loc35 = loc("/home/ericbuehler/vllm/.venv-bench/lib/python3.12/site-packages/vllm/model_executor/layers/fused_moe/fused_moe.py":435:38)
#loc36 = loc("/home/ericbuehler/vllm/.venv-bench/lib/python3.12/site-packages/vllm/model_executor/layers/fused_moe/fused_moe.py":435:81)
#loc37 = loc("/home/ericbuehler/vllm/.venv-bench/lib/python3.12/site-packages/vllm/model_executor/layers/fused_moe/fused_moe.py":436:26)
#loc38 = loc("/home/ericbuehler/vllm/.venv-bench/lib/python3.12/site-packages/vllm/model_executor/layers/fused_moe/fused_moe.py":438:19)
#loc39 = loc("/home/ericbuehler/vllm/.venv-bench/lib/python3.12/site-packages/vllm/model_executor/layers/fused_moe/fused_moe.py":438:31)
#loc40 = loc("/home/ericbuehler/vllm/.venv-bench/lib/python3.12/site-packages/vllm/model_executor/layers/fused_moe/fused_moe.py":438:39)
#loc41 = loc("/home/ericbuehler/vllm/.venv-bench/lib/python3.12/site-packages/vllm/model_executor/layers/fused_moe/fused_moe.py":438:58)
#loc42 = loc("/home/ericbuehler/vllm/.venv-bench/lib/python3.12/site-packages/vllm/model_executor/layers/fused_moe/fused_moe.py":438:69)
#loc43 = loc("/home/ericbuehler/vllm/.venv-bench/lib/python3.12/site-packages/vllm/model_executor/layers/fused_moe/fused_moe.py":438:51)
#loc44 = loc("/home/ericbuehler/vllm/.venv-bench/lib/python3.12/site-packages/vllm/model_executor/layers/fused_moe/fused_moe.py":438:8)
#loc45 = loc("/home/ericbuehler/vllm/.venv-bench/lib/python3.12/site-packages/vllm/model_executor/layers/fused_moe/fused_moe.py":443:24)
#loc46 = loc("/home/ericbuehler/vllm/.venv-bench/lib/python3.12/site-packages/vllm/model_executor/layers/fused_moe/fused_moe.py":443:10)
#loc47 = loc("/home/ericbuehler/vllm/.venv-bench/lib/python3.12/site-packages/vllm/model_executor/layers/fused_moe/fused_moe.py":444:18)
#loc48 = loc("/home/ericbuehler/vllm/.venv-bench/lib/python3.12/site-packages/vllm/model_executor/layers/fused_moe/fused_moe.py":444:29)
#loc49 = loc("/home/ericbuehler/vllm/.venv-bench/lib/python3.12/site-packages/vllm/model_executor/layers/fused_moe/fused_moe.py":444:49)
#loc50 = loc("/home/ericbuehler/vllm/.venv-bench/lib/python3.12/site-packages/vllm/model_executor/layers/fused_moe/fused_moe.py":444:60)
#loc51 = loc("/home/ericbuehler/vllm/.venv-bench/lib/python3.12/site-packages/vllm/model_executor/layers/fused_moe/fused_moe.py":444:41)
#loc52 = loc("/home/ericbuehler/vllm/.venv-bench/lib/python3.12/site-packages/vllm/model_executor/layers/fused_moe/fused_moe.py":444:11)
#loc53 = loc("/home/ericbuehler/vllm/.venv-bench/lib/python3.12/site-packages/vllm/model_executor/layers/fused_moe/fused_moe.py":482:27)
#loc54 = loc("/home/ericbuehler/vllm/.venv-bench/lib/python3.12/site-packages/vllm/model_executor/layers/fused_moe/fused_moe.py":483:33)
#loc55 = loc("/home/ericbuehler/vllm/.venv-bench/lib/python3.12/site-packages/vllm/model_executor/layers/fused_moe/fused_moe.py":483:22)
#loc56 = loc("/home/ericbuehler/vllm/.venv-bench/lib/python3.12/site-packages/vllm/model_executor/layers/fused_moe/fused_moe.py":488:28)
#loc57 = loc("/home/ericbuehler/vllm/.venv-bench/lib/python3.12/site-packages/vllm/model_executor/layers/fused_moe/fused_moe.py":488:47)
#loc58 = loc("/home/ericbuehler/vllm/.venv-bench/lib/python3.12/site-packages/vllm/model_executor/layers/fused_moe/fused_moe.py":488:66)
#loc59 = loc("/home/ericbuehler/vllm/.venv-bench/lib/python3.12/site-packages/vllm/model_executor/layers/fused_moe/fused_moe.py":488:62)
#loc60 = loc("/home/ericbuehler/vllm/.venv-bench/lib/python3.12/site-packages/vllm/model_executor/layers/fused_moe/fused_moe.py":488:58)
#loc61 = loc("/home/ericbuehler/vllm/.venv-bench/lib/python3.12/site-packages/vllm/model_executor/layers/fused_moe/fused_moe.py":488:40)
#loc62 = loc("/home/ericbuehler/vllm/.venv-bench/lib/python3.12/site-packages/vllm/model_executor/layers/fused_moe/fused_moe.py":487:12)
#loc63 = loc("/home/ericbuehler/vllm/.venv-bench/lib/python3.12/site-packages/vllm/model_executor/layers/fused_moe/fused_moe.py":491:40)
#loc64 = loc("/home/ericbuehler/vllm/.venv-bench/lib/python3.12/site-packages/vllm/model_executor/layers/fused_moe/fused_moe.py":491:59)
#loc65 = loc("/home/ericbuehler/vllm/.venv-bench/lib/python3.12/site-packages/vllm/model_executor/layers/fused_moe/fused_moe.py":491:55)
#loc66 = loc("/home/ericbuehler/vllm/.venv-bench/lib/python3.12/site-packages/vllm/model_executor/layers/fused_moe/fused_moe.py":491:51)
#loc67 = loc("/home/ericbuehler/vllm/.venv-bench/lib/python3.12/site-packages/vllm/model_executor/layers/fused_moe/fused_moe.py":491:20)
#loc68 = loc("/home/ericbuehler/vllm/.venv-bench/lib/python3.12/site-packages/vllm/model_executor/layers/fused_moe/fused_moe.py":512:37)
#loc69 = loc("/home/ericbuehler/vllm/.venv-bench/lib/python3.12/site-packages/vllm/model_executor/layers/fused_moe/fused_moe.py":512:27)
#loc70 = loc("/home/ericbuehler/vllm/.venv-bench/lib/python3.12/site-packages/vllm/model_executor/layers/fused_moe/fused_moe.py":514:18)
#loc71 = loc("/home/ericbuehler/vllm/.venv-bench/lib/python3.12/site-packages/vllm/model_executor/layers/fused_moe/fused_moe.py":515:18)
#loc72 = loc("/home/ericbuehler/vllm/.venv-bench/lib/python3.12/site-packages/vllm/model_executor/layers/fused_moe/fused_moe.py":515:8)
#loc73 = loc("/home/ericbuehler/vllm/.venv-bench/lib/python3.12/site-packages/vllm/model_executor/layers/fused_moe/fused_moe.py":540:31)
#loc74 = loc("/home/ericbuehler/vllm/.venv-bench/lib/python3.12/site-packages/vllm/model_executor/layers/fused_moe/fused_moe.py":540:12)
#loc75 = loc("/home/ericbuehler/vllm/.venv-bench/lib/python3.12/site-packages/vllm/model_executor/layers/fused_moe/fused_moe.py":544:34)
#loc76 = loc("/home/ericbuehler/vllm/.venv-bench/lib/python3.12/site-packages/vllm/model_executor/layers/fused_moe/fused_moe.py":544:23)
#loc77 = loc("/home/ericbuehler/vllm/.venv-bench/lib/python3.12/site-packages/vllm/model_executor/layers/fused_moe/fused_moe.py":548:33)
#loc78 = loc("/home/ericbuehler/vllm/.venv-bench/lib/python3.12/site-packages/vllm/model_executor/layers/fused_moe/fused_moe.py":552:22)
#loc79 = loc("/home/ericbuehler/vllm/.venv-bench/lib/python3.12/site-packages/vllm/model_executor/layers/fused_moe/fused_moe.py":552:50)
#loc80 = loc("/home/ericbuehler/vllm/.venv-bench/lib/python3.12/site-packages/vllm/model_executor/layers/fused_moe/fused_moe.py":552:37)
#loc81 = loc("/home/ericbuehler/vllm/.venv-bench/lib/python3.12/site-packages/vllm/model_executor/layers/fused_moe/fused_moe.py":553:44)
#loc82 = loc("/home/ericbuehler/vllm/.venv-bench/lib/python3.12/site-packages/vllm/model_executor/layers/fused_moe/fused_moe.py":553:33)
#loc83 = loc("/home/ericbuehler/vllm/.venv-bench/lib/python3.12/site-packages/vllm/model_executor/layers/fused_moe/fused_moe.py":553:21)
#loc84 = loc("/home/ericbuehler/vllm/.venv-bench/lib/python3.12/site-packages/vllm/model_executor/layers/fused_moe/fused_moe.py":553:75)
#loc85 = loc("/home/ericbuehler/vllm/.venv-bench/lib/python3.12/site-packages/vllm/model_executor/layers/fused_moe/fused_moe.py":553:67)
#loc86 = loc("/home/ericbuehler/vllm/.venv-bench/lib/python3.12/site-packages/vllm/model_executor/layers/fused_moe/fused_moe.py":553:55)
#loc87 = loc("/home/ericbuehler/vllm/.venv-bench/lib/python3.12/site-packages/vllm/model_executor/layers/fused_moe/fused_moe.py":554:24)
#loc88 = loc("/home/ericbuehler/vllm/.venv-bench/lib/python3.12/site-packages/vllm/model_executor/layers/fused_moe/fused_moe.py":554:44)
#loc89 = loc("/home/ericbuehler/vllm/.venv-bench/lib/python3.12/site-packages/vllm/model_executor/layers/fused_moe/fused_moe.py":554:55)
#loc90 = loc("/home/ericbuehler/vllm/.venv-bench/lib/python3.12/site-packages/vllm/model_executor/layers/fused_moe/fused_moe.py":554:36)
#loc91 = loc("/home/ericbuehler/vllm/.venv-bench/lib/python3.12/site-packages/vllm/model_executor/layers/fused_moe/fused_moe.py":555:21)
#loc92 = loc("/home/ericbuehler/vllm/.venv-bench/lib/python3.12/site-packages/vllm/model_executor/layers/fused_moe/fused_moe.py":555:4)
#loc94 = loc("/home/ericbuehler/vllm/.venv-bench/lib/python3.12/site-packages/triton/language/standard.py":43:17)
#loc95 = loc("/home/ericbuehler/vllm/.venv-bench/lib/python3.12/site-packages/triton/language/standard.py":43:30)
#loc96 = loc("/home/ericbuehler/vllm/.venv-bench/lib/python3.12/site-packages/triton/language/standard.py":43:11)
#loc97 = loc("/home/ericbuehler/vllm/.venv-bench/lib/python3.12/site-packages/triton/language/standard.py":43:4)
#loc99 = loc("/home/ericbuehler/vllm/.venv-bench/lib/python3.12/site-packages/vllm/model_executor/layers/fused_moe/fused_moe.py":53:27)
#loc100 = loc("/home/ericbuehler/vllm/.venv-bench/lib/python3.12/site-packages/vllm/model_executor/layers/fused_moe/fused_moe.py":54:22)
#loc101 = loc("/home/ericbuehler/vllm/.venv-bench/lib/python3.12/site-packages/vllm/model_executor/layers/fused_moe/fused_moe.py":54:50)
#loc102 = loc("/home/ericbuehler/vllm/.venv-bench/lib/python3.12/site-packages/vllm/model_executor/layers/fused_moe/fused_moe.py":54:37)
#loc103 = loc("/home/ericbuehler/vllm/.venv-bench/lib/python3.12/site-packages/vllm/model_executor/layers/fused_moe/fused_moe.py":55:44)
#loc104 = loc("/home/ericbuehler/vllm/.venv-bench/lib/python3.12/site-packages/vllm/model_executor/layers/fused_moe/fused_moe.py":55:33)
#loc105 = loc("/home/ericbuehler/vllm/.venv-bench/lib/python3.12/site-packages/vllm/model_executor/layers/fused_moe/fused_moe.py":55:21)
#loc106 = loc("/home/ericbuehler/vllm/.venv-bench/lib/python3.12/site-packages/vllm/model_executor/layers/fused_moe/fused_moe.py":55:75)
#loc107 = loc("/home/ericbuehler/vllm/.venv-bench/lib/python3.12/site-packages/vllm/model_executor/layers/fused_moe/fused_moe.py":55:67)
#loc108 = loc("/home/ericbuehler/vllm/.venv-bench/lib/python3.12/site-packages/vllm/model_executor/layers/fused_moe/fused_moe.py":55:55)
#loc109 = loc("/home/ericbuehler/vllm/.venv-bench/lib/python3.12/site-packages/vllm/model_executor/layers/fused_moe/fused_moe.py":56:24)
#loc110 = loc("/home/ericbuehler/vllm/.venv-bench/lib/python3.12/site-packages/vllm/model_executor/layers/fused_moe/fused_moe.py":56:44)
#loc111 = loc("/home/ericbuehler/vllm/.venv-bench/lib/python3.12/site-packages/vllm/model_executor/layers/fused_moe/fused_moe.py":56:55)
#loc112 = loc("/home/ericbuehler/vllm/.venv-bench/lib/python3.12/site-packages/vllm/model_executor/layers/fused_moe/fused_moe.py":56:36)
#loc113 = loc("/home/ericbuehler/vllm/.venv-bench/lib/python3.12/site-packages/vllm/model_executor/layers/fused_moe/fused_moe.py":57:21)
#loc114 = loc("/home/ericbuehler/vllm/.venv-bench/lib/python3.12/site-packages/vllm/model_executor/layers/fused_moe/fused_moe.py":57:4)
#loc115 = loc("/home/ericbuehler/vllm/.venv-bench/lib/python3.12/site-packages/triton/language/standard.py":120:0)
#loc116 = loc("/home/ericbuehler/vllm/.venv-bench/lib/python3.12/site-packages/triton/language/standard.py":129:31)
#loc117 = loc("/home/ericbuehler/vllm/.venv-bench/lib/python3.12/site-packages/triton/language/standard.py":129:11)
#loc118 = loc("/home/ericbuehler/vllm/.venv-bench/lib/python3.12/site-packages/triton/language/standard.py":129:4)
#loc141 = loc("pid"(#loc1))
#loc142 = loc("num_pid_m"(#loc2))
#loc143 = loc("num_pid_n"(#loc3))
#loc144 = loc("num_pid_in_group"(#loc4))
#loc145 = loc("group_id"(#loc5))
#loc146 = loc("first_pid_m"(#loc6))
#loc147 = loc("group_size_m"(#loc7))
#loc148 = loc("group_size_m"(#loc8))
#loc149 = loc("pid_m"(#loc9))
#loc150 = loc("pid_m"(#loc10))
#loc151 = loc("pid_m"(#loc11))
#loc152 = loc("pid_n"(#loc12))
#loc153 = loc("pid_n"(#loc13))
#loc154 = loc("offs"(#loc14))
#loc155 = loc("offs"(#loc15))
#loc156 = loc("num_tokens_post_padded"(#loc16))
#loc157 = loc("offs_token_id"(#loc20))
#loc158 = loc("offs_token_id"(#loc21))
#loc159 = loc("offs_token"(#loc22))
#loc160 = loc("offs_token"(#loc23))
#loc161 = loc("offs_token"(#loc24))
#loc162 = loc("token_mask"(#loc25))
#loc163 = loc("off_experts"(#loc26))
#loc164 = loc("off_experts"(#loc27))
#loc165 = loc("off_experts"(#loc28))
#loc166 = loc("offs_bn"(#loc32))
#loc167 = loc("offs_bn"(#loc33))
#loc168 = loc("offs_bn"(#loc34))
#loc169 = loc("offs_bn"(#loc35))
#loc170 = loc("offs_bn"(#loc36))
#loc171 = loc("offs_k"(#loc37))
#loc172 = loc("a_ptrs"(#loc38))
#loc173 = loc("a_ptrs"(#loc39))
#loc174 = loc("a_ptrs"(#loc40))
#loc175 = loc("a_ptrs"(#loc41))
#loc176 = loc("a_ptrs"(#loc42))
#loc177 = loc("a_ptrs"(#loc43))
#loc178 = loc("a_ptrs"(#loc44))
#loc179 = loc("b_ptrs"(#loc45))
#loc180 = loc("b_ptrs"(#loc46))
#loc181 = loc("b_ptrs"(#loc47))
#loc182 = loc("b_ptrs"(#loc48))
#loc183 = loc("b_ptrs"(#loc49))
#loc184 = loc("b_ptrs"(#loc50))
#loc185 = loc("b_ptrs"(#loc51))
#loc186 = loc("b_ptrs"(#loc52))
#loc187 = loc("accumulator"(#loc53))
#loc188 = loc("a_ptrs"(#loc55))
#loc189 = loc("a"(#loc56))
#loc190 = loc("a"(#loc57))
#loc191 = loc("a"(#loc58))
#loc192 = loc("a"(#loc59))
#loc193 = loc("a"(#loc60))
#loc194 = loc("a"(#loc61))
#loc195 = loc("a"(#loc62))
#loc196 = loc("b"(#loc63))
#loc197 = loc("b"(#loc64))
#loc198 = loc("b"(#loc65))
#loc199 = loc("b"(#loc66))
#loc200 = loc("b"(#loc67))
#loc201 = loc("accumulator"(#loc68))
#loc202 = loc("accumulator"(#loc69))
#loc203 = loc("a_ptrs"(#loc70))
#loc204 = loc("b_ptrs"(#loc71))
#loc205 = loc("moe_weight"(#loc73))
#loc206 = loc("moe_weight"(#loc74))
#loc207 = loc("accumulator"(#loc75))
#loc208 = loc("accumulator"(#loc76))
#loc209 = loc("accumulator"(#loc77))
#loc210 = loc("offs_cn"(#loc78))
#loc211 = loc("offs_cn"(#loc79))
#loc212 = loc("offs_cn"(#loc80))
#loc213 = loc("c_ptrs"(#loc81))
#loc214 = loc("c_ptrs"(#loc82))
#loc215 = loc("c_ptrs"(#loc83))
#loc216 = loc("c_ptrs"(#loc84))
#loc217 = loc("c_ptrs"(#loc85))
#loc218 = loc("c_ptrs"(#loc86))
#loc219 = loc("c_mask"(#loc87))
#loc220 = loc("c_mask"(#loc88))
#loc221 = loc("c_mask"(#loc89))
#loc222 = loc("c_mask"(#loc90))
#loc230 = loc("accumulator"(#loc99))
#loc231 = loc("offs_cn"(#loc100))
#loc232 = loc("offs_cn"(#loc101))
#loc233 = loc("offs_cn"(#loc102))
#loc234 = loc("c_ptrs"(#loc103))
#loc235 = loc("c_ptrs"(#loc104))
#loc236 = loc("c_ptrs"(#loc105))
#loc237 = loc("c_ptrs"(#loc106))
#loc238 = loc("c_ptrs"(#loc107))
#loc239 = loc("c_ptrs"(#loc108))
#loc240 = loc("c_mask"(#loc109))
#loc241 = loc("c_mask"(#loc110))
#loc242 = loc("c_mask"(#loc111))
#loc243 = loc("c_mask"(#loc112))
#loc244 = loc("b_ptrs"(#loc188))
#loc245 = loc("accumulator"(#loc244))
