#loc = loc("/home/ericbuehler/.cache/vllm/torch_compile_cache/torch_aot_compile/90537ea14f244a5187d6ecc853fbadcf440d710f29c8e182fe8151f3f7751a82/inductor_cache/ga/cganipkq2rxv3tlqteyg4ial3mtoo6i2t26lcfcspbgd6t52youk.py":20:0)
#loc172 = loc("/home/ericbuehler/vllm/.venv-bench/lib/python3.12/site-packages/triton/language/standard.py":34:0)
#loc177 = loc("in_ptr0"(#loc))
#loc178 = loc("in_ptr1"(#loc))
#loc179 = loc("in_ptr2"(#loc))
#loc180 = loc("in_ptr3"(#loc))
#loc181 = loc("in_ptr4"(#loc))
#loc182 = loc("in_ptr5"(#loc))
#loc183 = loc("in_ptr6"(#loc))
#loc184 = loc("out_ptr0"(#loc))
#loc185 = loc("out_ptr1"(#loc))
#loc186 = loc("out_ptr2"(#loc))
#loc187 = loc("out_ptr3"(#loc))
#loc188 = loc("xnumel_0"(#loc))
#loc189 = loc("xnumel_1"(#loc))
#loc328 = loc("x"(#loc172))
module {
  tt.func public @triton_(%in_ptr0: !tt.ptr<bf16> {tt.divisibility = 16 : i32} loc("in_ptr0"(#loc)), %in_ptr1: !tt.ptr<f32> {tt.divisibility = 16 : i32} loc("in_ptr1"(#loc)), %in_ptr2: !tt.ptr<bf16> {tt.divisibility = 16 : i32} loc("in_ptr2"(#loc)), %in_ptr3: !tt.ptr<i64> {tt.divisibility = 16 : i32} loc("in_ptr3"(#loc)), %in_ptr4: !tt.ptr<bf16> {tt.divisibility = 16 : i32} loc("in_ptr4"(#loc)), %in_ptr5: !tt.ptr<f32> {tt.divisibility = 16 : i32} loc("in_ptr5"(#loc)), %in_ptr6: !tt.ptr<bf16> {tt.divisibility = 16 : i32} loc("in_ptr6"(#loc)), %out_ptr0: !tt.ptr<bf16> {tt.divisibility = 16 : i32} loc("out_ptr0"(#loc)), %out_ptr1: !tt.ptr<bf16> {tt.divisibility = 16 : i32} loc("out_ptr1"(#loc)), %out_ptr2: !tt.ptr<bf16> {tt.divisibility = 16 : i32} loc("out_ptr2"(#loc)), %out_ptr3: !tt.ptr<bf16> {tt.divisibility = 16 : i32} loc("out_ptr3"(#loc)), %xnumel_0: i32 {tt.divisibility = 16 : i32} loc("xnumel_0"(#loc)), %xnumel_1: i32 {tt.divisibility = 16 : i32} loc("xnumel_1"(#loc))) attributes {noinline = false} {
    %pid = tt.get_program_id x : i32 loc(#loc190)
    %num_xblocks_0 = tt.call @"triton.language.standard.cdiv__i32__(1,)cconstexpr_1024_"(%xnumel_0) : (i32) -> i32 loc(#loc191)
    %num_xblocks_1 = tt.call @"triton.language.standard.cdiv__i32__(1,)cconstexpr_1024_"(%xnumel_1) : (i32) -> i32 loc(#loc192)
    %num_xblocks_1_0 = arith.addi %num_xblocks_0, %num_xblocks_1 : i32 loc(#loc193)
    %0 = arith.cmpi slt, %pid, %num_xblocks_0 : i32 loc(#loc5)
    scf.if %0 {
      %r0_numel = arith.constant 1 : i32 loc(#loc194)
      %xoffset = arith.constant 1024 : i32 loc(#loc195)
      %xoffset_1 = arith.constant 1024 : i32 loc(#loc195)
      %xoffset_2 = arith.muli %pid, %xoffset_1 : i32 loc(#loc195)
      %xindex = tt.make_range {end = 1024 : i32, start = 0 : i32} : tensor<1024xi32> loc(#loc196)
      %xindex_3 = tt.splat %xoffset_2 : i32 -> tensor<1024xi32> loc(#loc197)
      %xindex_4 = arith.addi %xindex_3, %xindex : tensor<1024xi32> loc(#loc197)
      %xmask = tt.splat %xnumel_0 : i32 -> tensor<1024xi32> loc(#loc198)
      %xmask_5 = arith.cmpi slt, %xindex_4, %xmask : tensor<1024xi32> loc(#loc198)
      %x0 = arith.constant 128 : i32 loc(#loc199)
      %x0_6 = arith.constant 128 : i32 loc(#loc199)
      %x0_7 = arith.constant dense<128> : tensor<1024xi32> loc(#loc199)
      %x0_8 = arith.remsi %xindex_4, %x0_7 : tensor<1024xi32> loc(#loc199)
      %x1 = arith.constant 128 : i32 loc(#loc200)
      %x1_9 = arith.constant 128 : i32 loc(#loc200)
      %x1_10 = arith.constant dense<128> : tensor<1024xi32> loc(#loc200)
      %x1_11 = arith.divsi %xindex_4, %x1_10 : tensor<1024xi32> loc(#loc200)
      %x1_12 = arith.constant 8 : i32 loc(#loc201)
      %x1_13 = arith.constant 8 : i32 loc(#loc201)
      %x1_14 = arith.constant dense<8> : tensor<1024xi32> loc(#loc201)
      %x1_15 = arith.remsi %x1_11, %x1_14 : tensor<1024xi32> loc(#loc201)
      %x2 = arith.constant 1024 : i32 loc(#loc202)
      %x2_16 = arith.constant 1024 : i32 loc(#loc202)
      %x2_17 = arith.constant dense<1024> : tensor<1024xi32> loc(#loc202)
      %x2_18 = arith.divsi %xindex_4, %x2_17 : tensor<1024xi32> loc(#loc202)
      %x3 = arith.constant 128 : i32 loc(#loc203)
      %x3_19 = arith.constant 128 : i32 loc(#loc203)
      %x3_20 = arith.constant dense<128> : tensor<1024xi32> loc(#loc203)
      %x3_21 = arith.divsi %xindex_4, %x3_20 : tensor<1024xi32> loc(#loc203)
      %tmp0 = arith.constant 4096 : i32 loc(#loc204)
      %tmp0_22 = arith.constant 4096 : i32 loc(#loc204)
      %tmp0_23 = arith.constant dense<4096> : tensor<1024xi32> loc(#loc204)
      %tmp0_24 = arith.addi %tmp0_23, %x0_8 : tensor<1024xi32> loc(#loc204)
      %tmp0_25 = arith.constant 256 : i32 loc(#loc205)
      %tmp0_26 = arith.constant 256 : i32 loc(#loc205)
      %tmp0_27 = arith.constant dense<256> : tensor<1024xi32> loc(#loc205)
      %tmp0_28 = arith.muli %tmp0_27, %x1_15 : tensor<1024xi32> loc(#loc205)
      %tmp0_29 = arith.addi %tmp0_24, %tmp0_28 : tensor<1024xi32> loc(#loc206)
      %tmp0_30 = arith.constant 8192 : i32 loc(#loc207)
      %tmp0_31 = arith.constant 8192 : i32 loc(#loc207)
      %tmp0_32 = arith.constant dense<8192> : tensor<1024xi32> loc(#loc207)
      %tmp0_33 = arith.muli %tmp0_32, %x2_18 : tensor<1024xi32> loc(#loc207)
      %tmp0_34 = arith.addi %tmp0_29, %tmp0_33 : tensor<1024xi32> loc(#loc208)
      %tmp0_35 = tt.splat %in_ptr0 : !tt.ptr<bf16> -> tensor<1024x!tt.ptr<bf16>> loc(#loc209)
      %tmp0_36 = tt.addptr %tmp0_35, %tmp0_34 : tensor<1024x!tt.ptr<bf16>>, tensor<1024xi32> loc(#loc209)
      %tmp0_37 = tt.load %tmp0_36, %xmask_5 : tensor<1024x!tt.ptr<bf16>> loc(#loc210)
      %tmp0_38 = arith.extf %tmp0_37 : tensor<1024xbf16> to tensor<1024xf32> loc(#loc211)
      %tmp2 = tt.splat %in_ptr1 : !tt.ptr<f32> -> tensor<1024x!tt.ptr<f32>> loc(#loc212)
      %tmp2_39 = tt.addptr %tmp2, %x3_21 : tensor<1024x!tt.ptr<f32>>, tensor<1024xi32> loc(#loc212)
      %tmp2_40 = tt.load %tmp2_39, %xmask_5 evictionPolicy = evict_last : tensor<1024x!tt.ptr<f32>> loc(#loc213)
      %tmp10 = tt.splat %in_ptr2 : !tt.ptr<bf16> -> tensor<1024x!tt.ptr<bf16>> loc(#loc214)
      %tmp10_41 = tt.addptr %tmp10, %x0_8 : tensor<1024x!tt.ptr<bf16>>, tensor<1024xi32> loc(#loc214)
      %tmp10_42 = tt.load %tmp10_41, %xmask_5 evictionPolicy = evict_last : tensor<1024x!tt.ptr<bf16>> loc(#loc215)
      %tmp10_43 = arith.extf %tmp10_42 : tensor<1024xbf16> to tensor<1024xf32> loc(#loc216)
      %tmp12 = tt.splat %in_ptr3 : !tt.ptr<i64> -> tensor<1024x!tt.ptr<i64>> loc(#loc217)
      %tmp12_44 = tt.addptr %tmp12, %x2_18 : tensor<1024x!tt.ptr<i64>>, tensor<1024xi32> loc(#loc217)
      %tmp12_45 = tt.load %tmp12_44, %xmask_5 evictionPolicy = evict_last : tensor<1024x!tt.ptr<i64>> loc(#loc218)
      %tmp20 = arith.constant 4224 : i32 loc(#loc219)
      %tmp20_46 = arith.constant 4224 : i32 loc(#loc219)
      %tmp20_47 = arith.constant dense<4224> : tensor<1024xi32> loc(#loc219)
      %tmp20_48 = arith.addi %tmp20_47, %x0_8 : tensor<1024xi32> loc(#loc219)
      %tmp20_49 = arith.constant 256 : i32 loc(#loc220)
      %tmp20_50 = arith.constant 256 : i32 loc(#loc220)
      %tmp20_51 = arith.constant dense<256> : tensor<1024xi32> loc(#loc220)
      %tmp20_52 = arith.muli %tmp20_51, %x1_15 : tensor<1024xi32> loc(#loc220)
      %tmp20_53 = arith.addi %tmp20_48, %tmp20_52 : tensor<1024xi32> loc(#loc221)
      %tmp20_54 = arith.constant 8192 : i32 loc(#loc222)
      %tmp20_55 = arith.constant 8192 : i32 loc(#loc222)
      %tmp20_56 = arith.constant dense<8192> : tensor<1024xi32> loc(#loc222)
      %tmp20_57 = arith.muli %tmp20_56, %x2_18 : tensor<1024xi32> loc(#loc222)
      %tmp20_58 = arith.addi %tmp20_53, %tmp20_57 : tensor<1024xi32> loc(#loc223)
      %tmp20_59 = tt.splat %in_ptr0 : !tt.ptr<bf16> -> tensor<1024x!tt.ptr<bf16>> loc(#loc224)
      %tmp20_60 = tt.addptr %tmp20_59, %tmp20_58 : tensor<1024x!tt.ptr<bf16>>, tensor<1024xi32> loc(#loc224)
      %tmp20_61 = tt.load %tmp20_60, %xmask_5 : tensor<1024x!tt.ptr<bf16>> loc(#loc225)
      %tmp20_62 = arith.extf %tmp20_61 : tensor<1024xbf16> to tensor<1024xf32> loc(#loc226)
      %tmp24 = arith.constant 128 : i32 loc(#loc227)
      %tmp24_63 = arith.constant 128 : i32 loc(#loc227)
      %tmp24_64 = arith.constant dense<128> : tensor<1024xi32> loc(#loc227)
      %tmp24_65 = arith.addi %tmp24_64, %x0_8 : tensor<1024xi32> loc(#loc227)
      %tmp24_66 = tt.splat %in_ptr2 : !tt.ptr<bf16> -> tensor<1024x!tt.ptr<bf16>> loc(#loc228)
      %tmp24_67 = tt.addptr %tmp24_66, %tmp24_65 : tensor<1024x!tt.ptr<bf16>>, tensor<1024xi32> loc(#loc228)
      %tmp24_68 = tt.load %tmp24_67, %xmask_5 evictionPolicy = evict_last : tensor<1024x!tt.ptr<bf16>> loc(#loc229)
      %tmp24_69 = arith.extf %tmp24_68 : tensor<1024xbf16> to tensor<1024xf32> loc(#loc230)
      %tmp3 = arith.constant 2.560000e+02 : f32 loc(#loc231)
      %tmp3_70 = arith.constant dense<2.560000e+02> : tensor<1xf32> loc(#loc231)
      %tmp4 = arith.constant dense<2.560000e+02> : tensor<1024xf32> loc(#loc232)
      %tmp4_71 = arith.divf %tmp2_40, %tmp4 : tensor<1024xf32> loc(#loc232)
      %tmp5 = arith.constant 9.99999997E-7 : f32 loc(#loc233)
      %tmp5_72 = arith.constant dense<9.99999997E-7> : tensor<1xf32> loc(#loc233)
      %tmp6 = arith.constant dense<9.99999997E-7> : tensor<1024xf32> loc(#loc234)
      %tmp6_73 = arith.addf %tmp4_71, %tmp6 : tensor<1024xf32> loc(#loc234)
      %tmp7 = tt.extern_elementwise %tmp6_73 {libname = "", libpath = "", pure = true, symbol = "__nv_rsqrtf"} : (tensor<1024xf32>) -> tensor<1024xf32> loc(#loc235)
      %tmp8 = arith.mulf %tmp0_38, %tmp7 : tensor<1024xf32> loc(#loc236)
      %tmp11 = arith.mulf %tmp8, %tmp10_43 : tensor<1024xf32> loc(#loc237)
      %tmp13 = arith.constant 262144 : i32 loc(#loc238)
      %tmp13_74 = arith.constant dense<262144> : tensor<1024xi32> loc(#loc238)
      %tmp14 = arith.extsi %tmp13_74 : tensor<1024xi32> to tensor<1024xi64> loc(#loc239)
      %tmp14_75 = arith.addi %tmp12_45, %tmp14 : tensor<1024xi64> loc(#loc239)
      %tmp15 = arith.constant 0 : i32 loc(#loc240)
      %tmp15_76 = arith.extsi %tmp15 : i32 to i64 loc(#loc240)
      %tmp15_77 = tt.splat %tmp15_76 : i64 -> tensor<1024xi64> loc(#loc240)
      %tmp15_78 = arith.cmpi slt, %tmp12_45, %tmp15_77 : tensor<1024xi64> loc(#loc240)
      %tmp16 = arith.select %tmp15_78, %tmp14_75, %tmp12_45 : tensor<1024xi1>, tensor<1024xi64> loc(#loc241)
      %c0_i32 = arith.constant 0 : i32 loc(#loc55)
      %1 = arith.extsi %c0_i32 : i32 to i64 loc(#loc55)
      %2 = tt.splat %1 : i64 -> tensor<1024xi64> loc(#loc55)
      %3 = arith.cmpi sle, %2, %tmp16 : tensor<1024xi64> loc(#loc55)
      %c262144_i32 = arith.constant 262144 : i32 loc(#loc56)
      %4 = arith.extsi %c262144_i32 : i32 to i64 loc(#loc56)
      %5 = tt.splat %4 : i64 -> tensor<1024xi64> loc(#loc56)
      %6 = arith.cmpi slt, %tmp16, %5 : tensor<1024xi64> loc(#loc56)
      %7 = arith.andi %3, %6 : tensor<1024xi1> loc(#loc57)
      %true = arith.constant true loc(#loc58)
      %cst = arith.constant dense<true> : tensor<1024xi1> loc(#loc58)
      %8 = arith.xori %xmask_5, %cst : tensor<1024xi1> loc(#loc58)
      %9 = arith.ori %7, %8 : tensor<1024xi1> loc(#loc59)
      tt.assert %9, "index out of bounds: 0 <= tmp16 < 262144" : tensor<1024xi1> loc(#loc60)
      %tmp18 = arith.constant 256 : i32 loc(#loc242)
      %tmp18_79 = arith.constant 256 : i64 loc(#loc242)
      %tmp18_80 = arith.constant dense<256> : tensor<1024xi64> loc(#loc242)
      %tmp18_81 = arith.muli %tmp18_80, %tmp16 : tensor<1024xi64> loc(#loc242)
      %tmp18_82 = arith.extsi %x0_8 : tensor<1024xi32> to tensor<1024xi64> loc(#loc243)
      %tmp18_83 = arith.addi %tmp18_82, %tmp18_81 : tensor<1024xi64> loc(#loc243)
      %tmp18_84 = tt.splat %in_ptr4 : !tt.ptr<bf16> -> tensor<1024x!tt.ptr<bf16>> loc(#loc244)
      %tmp18_85 = tt.addptr %tmp18_84, %tmp18_83 : tensor<1024x!tt.ptr<bf16>>, tensor<1024xi64> loc(#loc244)
      %tmp18_86 = tt.load %tmp18_85, %xmask_5 : tensor<1024x!tt.ptr<bf16>> loc(#loc245)
      %tmp18_87 = arith.extf %tmp18_86 : tensor<1024xbf16> to tensor<1024xf32> loc(#loc246)
      %tmp19 = arith.mulf %tmp11, %tmp18_87 : tensor<1024xf32> loc(#loc247)
      %tmp22 = arith.mulf %tmp20_62, %tmp7 : tensor<1024xf32> loc(#loc248)
      %tmp25 = arith.mulf %tmp22, %tmp24_69 : tensor<1024xf32> loc(#loc249)
      %tmp26 = arith.constant 128 : i32 loc(#loc250)
      %tmp26_88 = arith.constant 128 : i32 loc(#loc250)
      %tmp26_89 = arith.constant dense<128> : tensor<1024xi32> loc(#loc250)
      %tmp26_90 = arith.addi %tmp26_89, %x0_8 : tensor<1024xi32> loc(#loc250)
      %tmp26_91 = arith.constant 256 : i32 loc(#loc251)
      %tmp26_92 = arith.constant 256 : i64 loc(#loc251)
      %tmp26_93 = arith.constant dense<256> : tensor<1024xi64> loc(#loc251)
      %tmp26_94 = arith.muli %tmp26_93, %tmp16 : tensor<1024xi64> loc(#loc251)
      %tmp26_95 = arith.extsi %tmp26_90 : tensor<1024xi32> to tensor<1024xi64> loc(#loc252)
      %tmp26_96 = arith.addi %tmp26_95, %tmp26_94 : tensor<1024xi64> loc(#loc252)
      %tmp26_97 = tt.splat %in_ptr4 : !tt.ptr<bf16> -> tensor<1024x!tt.ptr<bf16>> loc(#loc253)
      %tmp26_98 = tt.addptr %tmp26_97, %tmp26_96 : tensor<1024x!tt.ptr<bf16>>, tensor<1024xi64> loc(#loc253)
      %tmp26_99 = tt.load %tmp26_98, %xmask_5 : tensor<1024x!tt.ptr<bf16>> loc(#loc254)
      %tmp26_100 = arith.extf %tmp26_99 : tensor<1024xbf16> to tensor<1024xf32> loc(#loc255)
      %tmp27 = arith.mulf %tmp25, %tmp26_100 : tensor<1024xf32> loc(#loc256)
      %tmp28 = arith.subf %tmp19, %tmp27 : tensor<1024xf32> loc(#loc257)
      %tmp29 = arith.mulf %tmp25, %tmp18_87 : tensor<1024xf32> loc(#loc258)
      %tmp30 = arith.mulf %tmp11, %tmp26_100 : tensor<1024xf32> loc(#loc259)
      %tmp31 = arith.addf %tmp29, %tmp30 : tensor<1024xf32> loc(#loc260)
      %c256_i32 = arith.constant 256 : i32 loc(#loc80)
      %c256_i32_101 = arith.constant 256 : i32 loc(#loc80)
      %cst_102 = arith.constant dense<256> : tensor<1024xi32> loc(#loc80)
      %10 = arith.muli %cst_102, %x3_21 : tensor<1024xi32> loc(#loc80)
      %11 = arith.addi %x0_8, %10 : tensor<1024xi32> loc(#loc81)
      %12 = tt.splat %out_ptr0 : !tt.ptr<bf16> -> tensor<1024x!tt.ptr<bf16>> loc(#loc82)
      %13 = tt.addptr %12, %11 : tensor<1024x!tt.ptr<bf16>>, tensor<1024xi32> loc(#loc82)
      %14 = arith.truncf %tmp28 : tensor<1024xf32> to tensor<1024xbf16> loc(#loc83)
      tt.store %13, %14, %xmask_5 : tensor<1024x!tt.ptr<bf16>> loc(#loc83)
      %c256_i32_103 = arith.constant 256 : i32 loc(#loc84)
      %c256_i32_104 = arith.constant 256 : i32 loc(#loc84)
      %cst_105 = arith.constant dense<256> : tensor<1024xi32> loc(#loc84)
      %15 = arith.muli %cst_105, %x3_21 : tensor<1024xi32> loc(#loc84)
      %16 = arith.addi %x0_8, %15 : tensor<1024xi32> loc(#loc85)
      %17 = tt.splat %out_ptr1 : !tt.ptr<bf16> -> tensor<1024x!tt.ptr<bf16>> loc(#loc86)
      %18 = tt.addptr %17, %16 : tensor<1024x!tt.ptr<bf16>>, tensor<1024xi32> loc(#loc86)
      %19 = arith.truncf %tmp31 : tensor<1024xf32> to tensor<1024xbf16> loc(#loc87)
      tt.store %18, %19, %xmask_5 : tensor<1024x!tt.ptr<bf16>> loc(#loc87)
    } else {
      %1 = arith.cmpi slt, %pid, %num_xblocks_1_0 : i32 loc(#loc88)
      scf.if %1 {
        %pid_offset = arith.subi %pid, %num_xblocks_0 : i32 loc(#loc261)
        %r0_numel = arith.constant 1 : i32 loc(#loc262)
        %xoffset = arith.constant 1024 : i32 loc(#loc263)
        %xoffset_1 = arith.constant 1024 : i32 loc(#loc263)
        %xoffset_2 = arith.muli %pid_offset, %xoffset_1 : i32 loc(#loc263)
        %xindex = tt.make_range {end = 1024 : i32, start = 0 : i32} : tensor<1024xi32> loc(#loc264)
        %xindex_3 = tt.splat %xoffset_2 : i32 -> tensor<1024xi32> loc(#loc265)
        %xindex_4 = arith.addi %xindex_3, %xindex : tensor<1024xi32> loc(#loc265)
        %xmask = tt.splat %xnumel_1 : i32 -> tensor<1024xi32> loc(#loc266)
        %xmask_5 = arith.cmpi slt, %xindex_4, %xmask : tensor<1024xi32> loc(#loc266)
        %x4 = arith.constant 128 : i32 loc(#loc267)
        %x4_6 = arith.constant 128 : i32 loc(#loc267)
        %x4_7 = arith.constant dense<128> : tensor<1024xi32> loc(#loc267)
        %x4_8 = arith.remsi %xindex_4, %x4_7 : tensor<1024xi32> loc(#loc267)
        %x5 = arith.constant 128 : i32 loc(#loc268)
        %x5_9 = arith.constant 128 : i32 loc(#loc268)
        %x5_10 = arith.constant dense<128> : tensor<1024xi32> loc(#loc268)
        %x5_11 = arith.divsi %xindex_4, %x5_10 : tensor<1024xi32> loc(#loc268)
        %x5_12 = arith.constant 16 : i32 loc(#loc269)
        %x5_13 = arith.constant 16 : i32 loc(#loc269)
        %x5_14 = arith.constant dense<16> : tensor<1024xi32> loc(#loc269)
        %x5_15 = arith.remsi %x5_11, %x5_14 : tensor<1024xi32> loc(#loc269)
        %x6 = arith.constant 2048 : i32 loc(#loc270)
        %x6_16 = arith.constant 2048 : i32 loc(#loc270)
        %x6_17 = arith.constant dense<2048> : tensor<1024xi32> loc(#loc270)
        %x6_18 = arith.divsi %xindex_4, %x6_17 : tensor<1024xi32> loc(#loc270)
        %x7 = arith.constant 128 : i32 loc(#loc271)
        %x7_19 = arith.constant 128 : i32 loc(#loc271)
        %x7_20 = arith.constant dense<128> : tensor<1024xi32> loc(#loc271)
        %x7_21 = arith.divsi %xindex_4, %x7_20 : tensor<1024xi32> loc(#loc271)
        %tmp32 = arith.constant 256 : i32 loc(#loc272)
        %tmp32_22 = arith.constant 256 : i32 loc(#loc272)
        %tmp32_23 = arith.constant dense<256> : tensor<1024xi32> loc(#loc272)
        %tmp32_24 = arith.muli %tmp32_23, %x5_15 : tensor<1024xi32> loc(#loc272)
        %tmp32_25 = arith.addi %x4_8, %tmp32_24 : tensor<1024xi32> loc(#loc273)
        %tmp32_26 = arith.constant 8192 : i32 loc(#loc274)
        %tmp32_27 = arith.constant 8192 : i32 loc(#loc274)
        %tmp32_28 = arith.constant dense<8192> : tensor<1024xi32> loc(#loc274)
        %tmp32_29 = arith.muli %tmp32_28, %x6_18 : tensor<1024xi32> loc(#loc274)
        %tmp32_30 = arith.addi %tmp32_25, %tmp32_29 : tensor<1024xi32> loc(#loc275)
        %tmp32_31 = tt.splat %in_ptr0 : !tt.ptr<bf16> -> tensor<1024x!tt.ptr<bf16>> loc(#loc276)
        %tmp32_32 = tt.addptr %tmp32_31, %tmp32_30 : tensor<1024x!tt.ptr<bf16>>, tensor<1024xi32> loc(#loc276)
        %tmp32_33 = tt.load %tmp32_32, %xmask_5 : tensor<1024x!tt.ptr<bf16>> loc(#loc277)
        %tmp32_34 = arith.extf %tmp32_33 : tensor<1024xbf16> to tensor<1024xf32> loc(#loc278)
        %tmp34 = tt.splat %in_ptr5 : !tt.ptr<f32> -> tensor<1024x!tt.ptr<f32>> loc(#loc279)
        %tmp34_35 = tt.addptr %tmp34, %x7_21 : tensor<1024x!tt.ptr<f32>>, tensor<1024xi32> loc(#loc279)
        %tmp34_36 = tt.load %tmp34_35, %xmask_5 evictionPolicy = evict_last : tensor<1024x!tt.ptr<f32>> loc(#loc280)
        %tmp42 = tt.splat %in_ptr6 : !tt.ptr<bf16> -> tensor<1024x!tt.ptr<bf16>> loc(#loc281)
        %tmp42_37 = tt.addptr %tmp42, %x4_8 : tensor<1024x!tt.ptr<bf16>>, tensor<1024xi32> loc(#loc281)
        %tmp42_38 = tt.load %tmp42_37, %xmask_5 evictionPolicy = evict_last : tensor<1024x!tt.ptr<bf16>> loc(#loc282)
        %tmp42_39 = arith.extf %tmp42_38 : tensor<1024xbf16> to tensor<1024xf32> loc(#loc283)
        %tmp44 = tt.splat %in_ptr3 : !tt.ptr<i64> -> tensor<1024x!tt.ptr<i64>> loc(#loc284)
        %tmp44_40 = tt.addptr %tmp44, %x6_18 : tensor<1024x!tt.ptr<i64>>, tensor<1024xi32> loc(#loc284)
        %tmp44_41 = tt.load %tmp44_40, %xmask_5 evictionPolicy = evict_last : tensor<1024x!tt.ptr<i64>> loc(#loc285)
        %tmp52 = arith.constant 128 : i32 loc(#loc286)
        %tmp52_42 = arith.constant 128 : i32 loc(#loc286)
        %tmp52_43 = arith.constant dense<128> : tensor<1024xi32> loc(#loc286)
        %tmp52_44 = arith.addi %tmp52_43, %x4_8 : tensor<1024xi32> loc(#loc286)
        %tmp52_45 = arith.constant 256 : i32 loc(#loc287)
        %tmp52_46 = arith.constant 256 : i32 loc(#loc287)
        %tmp52_47 = arith.constant dense<256> : tensor<1024xi32> loc(#loc287)
        %tmp52_48 = arith.muli %tmp52_47, %x5_15 : tensor<1024xi32> loc(#loc287)
        %tmp52_49 = arith.addi %tmp52_44, %tmp52_48 : tensor<1024xi32> loc(#loc288)
        %tmp52_50 = arith.constant 8192 : i32 loc(#loc289)
        %tmp52_51 = arith.constant 8192 : i32 loc(#loc289)
        %tmp52_52 = arith.constant dense<8192> : tensor<1024xi32> loc(#loc289)
        %tmp52_53 = arith.muli %tmp52_52, %x6_18 : tensor<1024xi32> loc(#loc289)
        %tmp52_54 = arith.addi %tmp52_49, %tmp52_53 : tensor<1024xi32> loc(#loc290)
        %tmp52_55 = tt.splat %in_ptr0 : !tt.ptr<bf16> -> tensor<1024x!tt.ptr<bf16>> loc(#loc291)
        %tmp52_56 = tt.addptr %tmp52_55, %tmp52_54 : tensor<1024x!tt.ptr<bf16>>, tensor<1024xi32> loc(#loc291)
        %tmp52_57 = tt.load %tmp52_56, %xmask_5 : tensor<1024x!tt.ptr<bf16>> loc(#loc292)
        %tmp52_58 = arith.extf %tmp52_57 : tensor<1024xbf16> to tensor<1024xf32> loc(#loc293)
        %tmp56 = arith.constant 128 : i32 loc(#loc294)
        %tmp56_59 = arith.constant 128 : i32 loc(#loc294)
        %tmp56_60 = arith.constant dense<128> : tensor<1024xi32> loc(#loc294)
        %tmp56_61 = arith.addi %tmp56_60, %x4_8 : tensor<1024xi32> loc(#loc294)
        %tmp56_62 = tt.splat %in_ptr6 : !tt.ptr<bf16> -> tensor<1024x!tt.ptr<bf16>> loc(#loc295)
        %tmp56_63 = tt.addptr %tmp56_62, %tmp56_61 : tensor<1024x!tt.ptr<bf16>>, tensor<1024xi32> loc(#loc295)
        %tmp56_64 = tt.load %tmp56_63, %xmask_5 evictionPolicy = evict_last : tensor<1024x!tt.ptr<bf16>> loc(#loc296)
        %tmp56_65 = arith.extf %tmp56_64 : tensor<1024xbf16> to tensor<1024xf32> loc(#loc297)
        %tmp35 = arith.constant 2.560000e+02 : f32 loc(#loc298)
        %tmp35_66 = arith.constant dense<2.560000e+02> : tensor<1xf32> loc(#loc298)
        %tmp36 = arith.constant dense<2.560000e+02> : tensor<1024xf32> loc(#loc299)
        %tmp36_67 = arith.divf %tmp34_36, %tmp36 : tensor<1024xf32> loc(#loc299)
        %tmp37 = arith.constant 9.99999997E-7 : f32 loc(#loc300)
        %tmp37_68 = arith.constant dense<9.99999997E-7> : tensor<1xf32> loc(#loc300)
        %tmp38 = arith.constant dense<9.99999997E-7> : tensor<1024xf32> loc(#loc301)
        %tmp38_69 = arith.addf %tmp36_67, %tmp38 : tensor<1024xf32> loc(#loc301)
        %tmp39 = tt.extern_elementwise %tmp38_69 {libname = "", libpath = "", pure = true, symbol = "__nv_rsqrtf"} : (tensor<1024xf32>) -> tensor<1024xf32> loc(#loc302)
        %tmp40 = arith.mulf %tmp32_34, %tmp39 : tensor<1024xf32> loc(#loc303)
        %tmp43 = arith.mulf %tmp40, %tmp42_39 : tensor<1024xf32> loc(#loc304)
        %tmp45 = arith.constant 262144 : i32 loc(#loc305)
        %tmp45_70 = arith.constant dense<262144> : tensor<1024xi32> loc(#loc305)
        %tmp46 = arith.extsi %tmp45_70 : tensor<1024xi32> to tensor<1024xi64> loc(#loc306)
        %tmp46_71 = arith.addi %tmp44_41, %tmp46 : tensor<1024xi64> loc(#loc306)
        %tmp47 = arith.constant 0 : i32 loc(#loc307)
        %tmp47_72 = arith.extsi %tmp47 : i32 to i64 loc(#loc307)
        %tmp47_73 = tt.splat %tmp47_72 : i64 -> tensor<1024xi64> loc(#loc307)
        %tmp47_74 = arith.cmpi slt, %tmp44_41, %tmp47_73 : tensor<1024xi64> loc(#loc307)
        %tmp48 = arith.select %tmp47_74, %tmp46_71, %tmp44_41 : tensor<1024xi1>, tensor<1024xi64> loc(#loc308)
        %c0_i32 = arith.constant 0 : i32 loc(#loc138)
        %2 = arith.extsi %c0_i32 : i32 to i64 loc(#loc138)
        %3 = tt.splat %2 : i64 -> tensor<1024xi64> loc(#loc138)
        %4 = arith.cmpi sle, %3, %tmp48 : tensor<1024xi64> loc(#loc138)
        %c262144_i32 = arith.constant 262144 : i32 loc(#loc139)
        %5 = arith.extsi %c262144_i32 : i32 to i64 loc(#loc139)
        %6 = tt.splat %5 : i64 -> tensor<1024xi64> loc(#loc139)
        %7 = arith.cmpi slt, %tmp48, %6 : tensor<1024xi64> loc(#loc139)
        %8 = arith.andi %4, %7 : tensor<1024xi1> loc(#loc140)
        %true = arith.constant true loc(#loc141)
        %cst = arith.constant dense<true> : tensor<1024xi1> loc(#loc141)
        %9 = arith.xori %xmask_5, %cst : tensor<1024xi1> loc(#loc141)
        %10 = arith.ori %8, %9 : tensor<1024xi1> loc(#loc142)
        tt.assert %10, "index out of bounds: 0 <= tmp48 < 262144" : tensor<1024xi1> loc(#loc143)
        %tmp50 = arith.constant 256 : i32 loc(#loc309)
        %tmp50_75 = arith.constant 256 : i64 loc(#loc309)
        %tmp50_76 = arith.constant dense<256> : tensor<1024xi64> loc(#loc309)
        %tmp50_77 = arith.muli %tmp50_76, %tmp48 : tensor<1024xi64> loc(#loc309)
        %tmp50_78 = arith.extsi %x4_8 : tensor<1024xi32> to tensor<1024xi64> loc(#loc310)
        %tmp50_79 = arith.addi %tmp50_78, %tmp50_77 : tensor<1024xi64> loc(#loc310)
        %tmp50_80 = tt.splat %in_ptr4 : !tt.ptr<bf16> -> tensor<1024x!tt.ptr<bf16>> loc(#loc311)
        %tmp50_81 = tt.addptr %tmp50_80, %tmp50_79 : tensor<1024x!tt.ptr<bf16>>, tensor<1024xi64> loc(#loc311)
        %tmp50_82 = tt.load %tmp50_81, %xmask_5 : tensor<1024x!tt.ptr<bf16>> loc(#loc312)
        %tmp50_83 = arith.extf %tmp50_82 : tensor<1024xbf16> to tensor<1024xf32> loc(#loc313)
        %tmp51 = arith.mulf %tmp43, %tmp50_83 : tensor<1024xf32> loc(#loc314)
        %tmp54 = arith.mulf %tmp52_58, %tmp39 : tensor<1024xf32> loc(#loc315)
        %tmp57 = arith.mulf %tmp54, %tmp56_65 : tensor<1024xf32> loc(#loc316)
        %tmp58 = arith.constant 128 : i32 loc(#loc317)
        %tmp58_84 = arith.constant 128 : i32 loc(#loc317)
        %tmp58_85 = arith.constant dense<128> : tensor<1024xi32> loc(#loc317)
        %tmp58_86 = arith.addi %tmp58_85, %x4_8 : tensor<1024xi32> loc(#loc317)
        %tmp58_87 = arith.constant 256 : i32 loc(#loc318)
        %tmp58_88 = arith.constant 256 : i64 loc(#loc318)
        %tmp58_89 = arith.constant dense<256> : tensor<1024xi64> loc(#loc318)
        %tmp58_90 = arith.muli %tmp58_89, %tmp48 : tensor<1024xi64> loc(#loc318)
        %tmp58_91 = arith.extsi %tmp58_86 : tensor<1024xi32> to tensor<1024xi64> loc(#loc319)
        %tmp58_92 = arith.addi %tmp58_91, %tmp58_90 : tensor<1024xi64> loc(#loc319)
        %tmp58_93 = tt.splat %in_ptr4 : !tt.ptr<bf16> -> tensor<1024x!tt.ptr<bf16>> loc(#loc320)
        %tmp58_94 = tt.addptr %tmp58_93, %tmp58_92 : tensor<1024x!tt.ptr<bf16>>, tensor<1024xi64> loc(#loc320)
        %tmp58_95 = tt.load %tmp58_94, %xmask_5 : tensor<1024x!tt.ptr<bf16>> loc(#loc321)
        %tmp58_96 = arith.extf %tmp58_95 : tensor<1024xbf16> to tensor<1024xf32> loc(#loc322)
        %tmp59 = arith.mulf %tmp57, %tmp58_96 : tensor<1024xf32> loc(#loc323)
        %tmp60 = arith.subf %tmp51, %tmp59 : tensor<1024xf32> loc(#loc324)
        %tmp61 = arith.mulf %tmp57, %tmp50_83 : tensor<1024xf32> loc(#loc325)
        %tmp62 = arith.mulf %tmp43, %tmp58_96 : tensor<1024xf32> loc(#loc326)
        %tmp63 = arith.addf %tmp61, %tmp62 : tensor<1024xf32> loc(#loc327)
        %c256_i32 = arith.constant 256 : i32 loc(#loc163)
        %c256_i32_97 = arith.constant 256 : i32 loc(#loc163)
        %cst_98 = arith.constant dense<256> : tensor<1024xi32> loc(#loc163)
        %11 = arith.muli %cst_98, %x7_21 : tensor<1024xi32> loc(#loc163)
        %12 = arith.addi %x4_8, %11 : tensor<1024xi32> loc(#loc164)
        %13 = tt.splat %out_ptr2 : !tt.ptr<bf16> -> tensor<1024x!tt.ptr<bf16>> loc(#loc165)
        %14 = tt.addptr %13, %12 : tensor<1024x!tt.ptr<bf16>>, tensor<1024xi32> loc(#loc165)
        %15 = arith.truncf %tmp60 : tensor<1024xf32> to tensor<1024xbf16> loc(#loc166)
        tt.store %14, %15, %xmask_5 : tensor<1024x!tt.ptr<bf16>> loc(#loc166)
        %c256_i32_99 = arith.constant 256 : i32 loc(#loc167)
        %c256_i32_100 = arith.constant 256 : i32 loc(#loc167)
        %cst_101 = arith.constant dense<256> : tensor<1024xi32> loc(#loc167)
        %16 = arith.muli %cst_101, %x7_21 : tensor<1024xi32> loc(#loc167)
        %17 = arith.addi %x4_8, %16 : tensor<1024xi32> loc(#loc168)
        %18 = tt.splat %out_ptr3 : !tt.ptr<bf16> -> tensor<1024x!tt.ptr<bf16>> loc(#loc169)
        %19 = tt.addptr %18, %17 : tensor<1024x!tt.ptr<bf16>>, tensor<1024xi32> loc(#loc169)
        %20 = arith.truncf %tmp63 : tensor<1024xf32> to tensor<1024xbf16> loc(#loc170)
        tt.store %19, %20, %xmask_5 : tensor<1024x!tt.ptr<bf16>> loc(#loc170)
      } else {
      } loc(#loc89)
    } loc(#loc6)
    tt.return loc(#loc171)
  } loc(#loc)
  tt.func private @"triton.language.standard.cdiv__i32__(1,)cconstexpr_1024_"(%x: i32 loc("x"(#loc172))) -> i32 attributes {noinline = false} {
    %c1023_i32 = arith.constant 1023 : i32 loc(#loc173)
    %c1023_i32_0 = arith.constant 1023 : i32 loc(#loc173)
    %0 = arith.addi %x, %c1023_i32_0 : i32 loc(#loc173)
    %c1024_i32 = arith.constant 1024 : i32 loc(#loc174)
    %c1024_i32_1 = arith.constant 1024 : i32 loc(#loc174)
    %1 = arith.divsi %0, %c1024_i32_1 : i32 loc(#loc174)
    tt.return %1 : i32 loc(#loc175)
  ^bb1:  // no predecessors
    %2 = ub.poison : i32 loc(#loc176)
    tt.return %2 : i32 loc(#loc176)
  } loc(#loc172)
} loc(#loc)
#loc1 = loc("/home/ericbuehler/.cache/vllm/torch_compile_cache/torch_aot_compile/90537ea14f244a5187d6ecc853fbadcf440d710f29c8e182fe8151f3f7751a82/inductor_cache/ga/cganipkq2rxv3tlqteyg4ial3mtoo6i2t26lcfcspbgd6t52youk.py":21:24)
#loc2 = loc("/home/ericbuehler/.cache/vllm/torch_compile_cache/torch_aot_compile/90537ea14f244a5187d6ecc853fbadcf440d710f29c8e182fe8151f3f7751a82/inductor_cache/ga/cganipkq2rxv3tlqteyg4ial3mtoo6i2t26lcfcspbgd6t52youk.py":22:38)
#loc3 = loc("/home/ericbuehler/.cache/vllm/torch_compile_cache/torch_aot_compile/90537ea14f244a5187d6ecc853fbadcf440d710f29c8e182fe8151f3f7751a82/inductor_cache/ga/cganipkq2rxv3tlqteyg4ial3mtoo6i2t26lcfcspbgd6t52youk.py":23:54)
#loc4 = loc("/home/ericbuehler/.cache/vllm/torch_compile_cache/torch_aot_compile/90537ea14f244a5187d6ecc853fbadcf440d710f29c8e182fe8151f3f7751a82/inductor_cache/ga/cganipkq2rxv3tlqteyg4ial3mtoo6i2t26lcfcspbgd6t52youk.py":23:36)
#loc5 = loc("/home/ericbuehler/.cache/vllm/torch_compile_cache/torch_aot_compile/90537ea14f244a5187d6ecc853fbadcf440d710f29c8e182fe8151f3f7751a82/inductor_cache/ga/cganipkq2rxv3tlqteyg4ial3mtoo6i2t26lcfcspbgd6t52youk.py":24:13)
#loc6 = loc("/home/ericbuehler/.cache/vllm/torch_compile_cache/torch_aot_compile/90537ea14f244a5187d6ecc853fbadcf440d710f29c8e182fe8151f3f7751a82/inductor_cache/ga/cganipkq2rxv3tlqteyg4ial3mtoo6i2t26lcfcspbgd6t52youk.py":24:7)
#loc7 = loc("/home/ericbuehler/.cache/vllm/torch_compile_cache/torch_aot_compile/90537ea14f244a5187d6ecc853fbadcf440d710f29c8e182fe8151f3f7751a82/inductor_cache/ga/cganipkq2rxv3tlqteyg4ial3mtoo6i2t26lcfcspbgd6t52youk.py":26:19)
#loc8 = loc("/home/ericbuehler/.cache/vllm/torch_compile_cache/torch_aot_compile/90537ea14f244a5187d6ecc853fbadcf440d710f29c8e182fe8151f3f7751a82/inductor_cache/ga/cganipkq2rxv3tlqteyg4ial3mtoo6i2t26lcfcspbgd6t52youk.py":27:31)
#loc9 = loc("/home/ericbuehler/.cache/vllm/torch_compile_cache/torch_aot_compile/90537ea14f244a5187d6ecc853fbadcf440d710f29c8e182fe8151f3f7751a82/inductor_cache/ga/cganipkq2rxv3tlqteyg4ial3mtoo6i2t26lcfcspbgd6t52youk.py":28:40)
#loc10 = loc("/home/ericbuehler/.cache/vllm/torch_compile_cache/torch_aot_compile/90537ea14f244a5187d6ecc853fbadcf440d710f29c8e182fe8151f3f7751a82/inductor_cache/ga/cganipkq2rxv3tlqteyg4ial3mtoo6i2t26lcfcspbgd6t52youk.py":28:27)
#loc11 = loc("/home/ericbuehler/.cache/vllm/torch_compile_cache/torch_aot_compile/90537ea14f244a5187d6ecc853fbadcf440d710f29c8e182fe8151f3f7751a82/inductor_cache/ga/cganipkq2rxv3tlqteyg4ial3mtoo6i2t26lcfcspbgd6t52youk.py":29:25)
#loc12 = loc("/home/ericbuehler/.cache/vllm/torch_compile_cache/torch_aot_compile/90537ea14f244a5187d6ecc853fbadcf440d710f29c8e182fe8151f3f7751a82/inductor_cache/ga/cganipkq2rxv3tlqteyg4ial3mtoo6i2t26lcfcspbgd6t52youk.py":30:23)
#loc13 = loc("/home/ericbuehler/.cache/vllm/torch_compile_cache/torch_aot_compile/90537ea14f244a5187d6ecc853fbadcf440d710f29c8e182fe8151f3f7751a82/inductor_cache/ga/cganipkq2rxv3tlqteyg4ial3mtoo6i2t26lcfcspbgd6t52youk.py":31:25)
#loc14 = loc("/home/ericbuehler/.cache/vllm/torch_compile_cache/torch_aot_compile/90537ea14f244a5187d6ecc853fbadcf440d710f29c8e182fe8151f3f7751a82/inductor_cache/ga/cganipkq2rxv3tlqteyg4ial3mtoo6i2t26lcfcspbgd6t52youk.py":31:32)
#loc15 = loc("/home/ericbuehler/.cache/vllm/torch_compile_cache/torch_aot_compile/90537ea14f244a5187d6ecc853fbadcf440d710f29c8e182fe8151f3f7751a82/inductor_cache/ga/cganipkq2rxv3tlqteyg4ial3mtoo6i2t26lcfcspbgd6t52youk.py":32:23)
#loc16 = loc("/home/ericbuehler/.cache/vllm/torch_compile_cache/torch_aot_compile/90537ea14f244a5187d6ecc853fbadcf440d710f29c8e182fe8151f3f7751a82/inductor_cache/ga/cganipkq2rxv3tlqteyg4ial3mtoo6i2t26lcfcspbgd6t52youk.py":33:23)
#loc17 = loc("/home/ericbuehler/.cache/vllm/torch_compile_cache/torch_aot_compile/90537ea14f244a5187d6ecc853fbadcf440d710f29c8e182fe8151f3f7751a82/inductor_cache/ga/cganipkq2rxv3tlqteyg4ial3mtoo6i2t26lcfcspbgd6t52youk.py":34:41)
#loc18 = loc("/home/ericbuehler/.cache/vllm/torch_compile_cache/torch_aot_compile/90537ea14f244a5187d6ecc853fbadcf440d710f29c8e182fe8151f3f7751a82/inductor_cache/ga/cganipkq2rxv3tlqteyg4ial3mtoo6i2t26lcfcspbgd6t52youk.py":34:50)
#loc19 = loc("/home/ericbuehler/.cache/vllm/torch_compile_cache/torch_aot_compile/90537ea14f244a5187d6ecc853fbadcf440d710f29c8e182fe8151f3f7751a82/inductor_cache/ga/cganipkq2rxv3tlqteyg4ial3mtoo6i2t26lcfcspbgd6t52youk.py":34:46)
#loc20 = loc("/home/ericbuehler/.cache/vllm/torch_compile_cache/torch_aot_compile/90537ea14f244a5187d6ecc853fbadcf440d710f29c8e182fe8151f3f7751a82/inductor_cache/ga/cganipkq2rxv3tlqteyg4ial3mtoo6i2t26lcfcspbgd6t52youk.py":34:60)
#loc21 = loc("/home/ericbuehler/.cache/vllm/torch_compile_cache/torch_aot_compile/90537ea14f244a5187d6ecc853fbadcf440d710f29c8e182fe8151f3f7751a82/inductor_cache/ga/cganipkq2rxv3tlqteyg4ial3mtoo6i2t26lcfcspbgd6t52youk.py":34:55)
#loc22 = loc("/home/ericbuehler/.cache/vllm/torch_compile_cache/torch_aot_compile/90537ea14f244a5187d6ecc853fbadcf440d710f29c8e182fe8151f3f7751a82/inductor_cache/ga/cganipkq2rxv3tlqteyg4ial3mtoo6i2t26lcfcspbgd6t52youk.py":34:34)
#loc23 = loc("/home/ericbuehler/.cache/vllm/torch_compile_cache/torch_aot_compile/90537ea14f244a5187d6ecc853fbadcf440d710f29c8e182fe8151f3f7751a82/inductor_cache/ga/cganipkq2rxv3tlqteyg4ial3mtoo6i2t26lcfcspbgd6t52youk.py":34:65)
#loc24 = loc("/home/ericbuehler/.cache/vllm/torch_compile_cache/torch_aot_compile/90537ea14f244a5187d6ecc853fbadcf440d710f29c8e182fe8151f3f7751a82/inductor_cache/ga/cganipkq2rxv3tlqteyg4ial3mtoo6i2t26lcfcspbgd6t52youk.py":34:75)
#loc25 = loc("/home/ericbuehler/.cache/vllm/torch_compile_cache/torch_aot_compile/90537ea14f244a5187d6ecc853fbadcf440d710f29c8e182fe8151f3f7751a82/inductor_cache/ga/cganipkq2rxv3tlqteyg4ial3mtoo6i2t26lcfcspbgd6t52youk.py":35:34)
#loc26 = loc("/home/ericbuehler/.cache/vllm/torch_compile_cache/torch_aot_compile/90537ea14f244a5187d6ecc853fbadcf440d710f29c8e182fe8151f3f7751a82/inductor_cache/ga/cganipkq2rxv3tlqteyg4ial3mtoo6i2t26lcfcspbgd6t52youk.py":35:39)
#loc27 = loc("/home/ericbuehler/.cache/vllm/torch_compile_cache/torch_aot_compile/90537ea14f244a5187d6ecc853fbadcf440d710f29c8e182fe8151f3f7751a82/inductor_cache/ga/cganipkq2rxv3tlqteyg4ial3mtoo6i2t26lcfcspbgd6t52youk.py":36:35)
#loc28 = loc("/home/ericbuehler/.cache/vllm/torch_compile_cache/torch_aot_compile/90537ea14f244a5187d6ecc853fbadcf440d710f29c8e182fe8151f3f7751a82/inductor_cache/ga/cganipkq2rxv3tlqteyg4ial3mtoo6i2t26lcfcspbgd6t52youk.py":36:40)
#loc29 = loc("/home/ericbuehler/.cache/vllm/torch_compile_cache/torch_aot_compile/90537ea14f244a5187d6ecc853fbadcf440d710f29c8e182fe8151f3f7751a82/inductor_cache/ga/cganipkq2rxv3tlqteyg4ial3mtoo6i2t26lcfcspbgd6t52youk.py":36:80)
#loc30 = loc("/home/ericbuehler/.cache/vllm/torch_compile_cache/torch_aot_compile/90537ea14f244a5187d6ecc853fbadcf440d710f29c8e182fe8151f3f7751a82/inductor_cache/ga/cganipkq2rxv3tlqteyg4ial3mtoo6i2t26lcfcspbgd6t52youk.py":37:35)
#loc31 = loc("/home/ericbuehler/.cache/vllm/torch_compile_cache/torch_aot_compile/90537ea14f244a5187d6ecc853fbadcf440d710f29c8e182fe8151f3f7751a82/inductor_cache/ga/cganipkq2rxv3tlqteyg4ial3mtoo6i2t26lcfcspbgd6t52youk.py":37:40)
#loc32 = loc("/home/ericbuehler/.cache/vllm/torch_compile_cache/torch_aot_compile/90537ea14f244a5187d6ecc853fbadcf440d710f29c8e182fe8151f3f7751a82/inductor_cache/ga/cganipkq2rxv3tlqteyg4ial3mtoo6i2t26lcfcspbgd6t52youk.py":38:42)
#loc33 = loc("/home/ericbuehler/.cache/vllm/torch_compile_cache/torch_aot_compile/90537ea14f244a5187d6ecc853fbadcf440d710f29c8e182fe8151f3f7751a82/inductor_cache/ga/cganipkq2rxv3tlqteyg4ial3mtoo6i2t26lcfcspbgd6t52youk.py":38:51)
#loc34 = loc("/home/ericbuehler/.cache/vllm/torch_compile_cache/torch_aot_compile/90537ea14f244a5187d6ecc853fbadcf440d710f29c8e182fe8151f3f7751a82/inductor_cache/ga/cganipkq2rxv3tlqteyg4ial3mtoo6i2t26lcfcspbgd6t52youk.py":38:47)
#loc35 = loc("/home/ericbuehler/.cache/vllm/torch_compile_cache/torch_aot_compile/90537ea14f244a5187d6ecc853fbadcf440d710f29c8e182fe8151f3f7751a82/inductor_cache/ga/cganipkq2rxv3tlqteyg4ial3mtoo6i2t26lcfcspbgd6t52youk.py":38:61)
#loc36 = loc("/home/ericbuehler/.cache/vllm/torch_compile_cache/torch_aot_compile/90537ea14f244a5187d6ecc853fbadcf440d710f29c8e182fe8151f3f7751a82/inductor_cache/ga/cganipkq2rxv3tlqteyg4ial3mtoo6i2t26lcfcspbgd6t52youk.py":38:56)
#loc37 = loc("/home/ericbuehler/.cache/vllm/torch_compile_cache/torch_aot_compile/90537ea14f244a5187d6ecc853fbadcf440d710f29c8e182fe8151f3f7751a82/inductor_cache/ga/cganipkq2rxv3tlqteyg4ial3mtoo6i2t26lcfcspbgd6t52youk.py":38:35)
#loc38 = loc("/home/ericbuehler/.cache/vllm/torch_compile_cache/torch_aot_compile/90537ea14f244a5187d6ecc853fbadcf440d710f29c8e182fe8151f3f7751a82/inductor_cache/ga/cganipkq2rxv3tlqteyg4ial3mtoo6i2t26lcfcspbgd6t52youk.py":38:66)
#loc39 = loc("/home/ericbuehler/.cache/vllm/torch_compile_cache/torch_aot_compile/90537ea14f244a5187d6ecc853fbadcf440d710f29c8e182fe8151f3f7751a82/inductor_cache/ga/cganipkq2rxv3tlqteyg4ial3mtoo6i2t26lcfcspbgd6t52youk.py":38:76)
#loc40 = loc("/home/ericbuehler/.cache/vllm/torch_compile_cache/torch_aot_compile/90537ea14f244a5187d6ecc853fbadcf440d710f29c8e182fe8151f3f7751a82/inductor_cache/ga/cganipkq2rxv3tlqteyg4ial3mtoo6i2t26lcfcspbgd6t52youk.py":39:41)
#loc41 = loc("/home/ericbuehler/.cache/vllm/torch_compile_cache/torch_aot_compile/90537ea14f244a5187d6ecc853fbadcf440d710f29c8e182fe8151f3f7751a82/inductor_cache/ga/cganipkq2rxv3tlqteyg4ial3mtoo6i2t26lcfcspbgd6t52youk.py":39:35)
#loc42 = loc("/home/ericbuehler/.cache/vllm/torch_compile_cache/torch_aot_compile/90537ea14f244a5187d6ecc853fbadcf440d710f29c8e182fe8151f3f7751a82/inductor_cache/ga/cganipkq2rxv3tlqteyg4ial3mtoo6i2t26lcfcspbgd6t52youk.py":39:46)
#loc43 = loc("/home/ericbuehler/.cache/vllm/torch_compile_cache/torch_aot_compile/90537ea14f244a5187d6ecc853fbadcf440d710f29c8e182fe8151f3f7751a82/inductor_cache/ga/cganipkq2rxv3tlqteyg4ial3mtoo6i2t26lcfcspbgd6t52youk.py":39:86)
#loc44 = loc("/home/ericbuehler/.cache/vllm/torch_compile_cache/torch_aot_compile/90537ea14f244a5187d6ecc853fbadcf440d710f29c8e182fe8151f3f7751a82/inductor_cache/ga/cganipkq2rxv3tlqteyg4ial3mtoo6i2t26lcfcspbgd6t52youk.py":41:35)
#loc45 = loc("/home/ericbuehler/.cache/vllm/torch_compile_cache/torch_aot_compile/90537ea14f244a5187d6ecc853fbadcf440d710f29c8e182fe8151f3f7751a82/inductor_cache/ga/cganipkq2rxv3tlqteyg4ial3mtoo6i2t26lcfcspbgd6t52youk.py":42:23)
#loc46 = loc("/home/ericbuehler/.cache/vllm/torch_compile_cache/torch_aot_compile/90537ea14f244a5187d6ecc853fbadcf440d710f29c8e182fe8151f3f7751a82/inductor_cache/ga/cganipkq2rxv3tlqteyg4ial3mtoo6i2t26lcfcspbgd6t52youk.py":43:35)
#loc47 = loc("/home/ericbuehler/.cache/vllm/torch_compile_cache/torch_aot_compile/90537ea14f244a5187d6ecc853fbadcf440d710f29c8e182fe8151f3f7751a82/inductor_cache/ga/cganipkq2rxv3tlqteyg4ial3mtoo6i2t26lcfcspbgd6t52youk.py":44:22)
#loc48 = loc("/home/ericbuehler/.cache/vllm/torch_compile_cache/torch_aot_compile/90537ea14f244a5187d6ecc853fbadcf440d710f29c8e182fe8151f3f7751a82/inductor_cache/ga/cganipkq2rxv3tlqteyg4ial3mtoo6i2t26lcfcspbgd6t52youk.py":45:31)
#loc49 = loc("/home/ericbuehler/.cache/vllm/torch_compile_cache/torch_aot_compile/90537ea14f244a5187d6ecc853fbadcf440d710f29c8e182fe8151f3f7751a82/inductor_cache/ga/cganipkq2rxv3tlqteyg4ial3mtoo6i2t26lcfcspbgd6t52youk.py":46:22)
#loc50 = loc("/home/ericbuehler/.cache/vllm/torch_compile_cache/torch_aot_compile/90537ea14f244a5187d6ecc853fbadcf440d710f29c8e182fe8151f3f7751a82/inductor_cache/ga/cganipkq2rxv3tlqteyg4ial3mtoo6i2t26lcfcspbgd6t52youk.py":48:23)
#loc51 = loc("/home/ericbuehler/.cache/vllm/torch_compile_cache/torch_aot_compile/90537ea14f244a5187d6ecc853fbadcf440d710f29c8e182fe8151f3f7751a82/inductor_cache/ga/cganipkq2rxv3tlqteyg4ial3mtoo6i2t26lcfcspbgd6t52youk.py":49:42)
#loc52 = loc("/home/ericbuehler/.cache/vllm/torch_compile_cache/torch_aot_compile/90537ea14f244a5187d6ecc853fbadcf440d710f29c8e182fe8151f3f7751a82/inductor_cache/ga/cganipkq2rxv3tlqteyg4ial3mtoo6i2t26lcfcspbgd6t52youk.py":50:24)
#loc53 = loc("/home/ericbuehler/.cache/vllm/torch_compile_cache/torch_aot_compile/90537ea14f244a5187d6ecc853fbadcf440d710f29c8e182fe8151f3f7751a82/inductor_cache/ga/cganipkq2rxv3tlqteyg4ial3mtoo6i2t26lcfcspbgd6t52youk.py":51:24)
#loc54 = loc("/home/ericbuehler/.cache/vllm/torch_compile_cache/torch_aot_compile/90537ea14f244a5187d6ecc853fbadcf440d710f29c8e182fe8151f3f7751a82/inductor_cache/ga/cganipkq2rxv3tlqteyg4ial3mtoo6i2t26lcfcspbgd6t52youk.py":52:39)
#loc55 = loc("/home/ericbuehler/.cache/vllm/torch_compile_cache/torch_aot_compile/90537ea14f244a5187d6ecc853fbadcf440d710f29c8e182fe8151f3f7751a82/inductor_cache/ga/cganipkq2rxv3tlqteyg4ial3mtoo6i2t26lcfcspbgd6t52youk.py":53:32)
#loc56 = loc("/home/ericbuehler/.cache/vllm/torch_compile_cache/torch_aot_compile/90537ea14f244a5187d6ecc853fbadcf440d710f29c8e182fe8151f3f7751a82/inductor_cache/ga/cganipkq2rxv3tlqteyg4ial3mtoo6i2t26lcfcspbgd6t52youk.py":53:50)
#loc57 = loc("/home/ericbuehler/.cache/vllm/torch_compile_cache/torch_aot_compile/90537ea14f244a5187d6ecc853fbadcf440d710f29c8e182fe8151f3f7751a82/inductor_cache/ga/cganipkq2rxv3tlqteyg4ial3mtoo6i2t26lcfcspbgd6t52youk.py":53:42)
#loc58 = loc("/home/ericbuehler/.cache/vllm/torch_compile_cache/torch_aot_compile/90537ea14f244a5187d6ecc853fbadcf440d710f29c8e182fe8151f3f7751a82/inductor_cache/ga/cganipkq2rxv3tlqteyg4ial3mtoo6i2t26lcfcspbgd6t52youk.py":53:63)
#loc59 = loc("/home/ericbuehler/.cache/vllm/torch_compile_cache/torch_aot_compile/90537ea14f244a5187d6ecc853fbadcf440d710f29c8e182fe8151f3f7751a82/inductor_cache/ga/cganipkq2rxv3tlqteyg4ial3mtoo6i2t26lcfcspbgd6t52youk.py":53:61)
#loc60 = loc("/home/ericbuehler/.cache/vllm/torch_compile_cache/torch_aot_compile/90537ea14f244a5187d6ecc853fbadcf440d710f29c8e182fe8151f3f7751a82/inductor_cache/ga/cganipkq2rxv3tlqteyg4ial3mtoo6i2t26lcfcspbgd6t52youk.py":53:71)
#loc61 = loc("/home/ericbuehler/.cache/vllm/torch_compile_cache/torch_aot_compile/90537ea14f244a5187d6ecc853fbadcf440d710f29c8e182fe8151f3f7751a82/inductor_cache/ga/cganipkq2rxv3tlqteyg4ial3mtoo6i2t26lcfcspbgd6t52youk.py":54:44)
#loc62 = loc("/home/ericbuehler/.cache/vllm/torch_compile_cache/torch_aot_compile/90537ea14f244a5187d6ecc853fbadcf440d710f29c8e182fe8151f3f7751a82/inductor_cache/ga/cganipkq2rxv3tlqteyg4ial3mtoo6i2t26lcfcspbgd6t52youk.py":54:40)
#loc63 = loc("/home/ericbuehler/.cache/vllm/torch_compile_cache/torch_aot_compile/90537ea14f244a5187d6ecc853fbadcf440d710f29c8e182fe8151f3f7751a82/inductor_cache/ga/cganipkq2rxv3tlqteyg4ial3mtoo6i2t26lcfcspbgd6t52youk.py":54:35)
#loc64 = loc("/home/ericbuehler/.cache/vllm/torch_compile_cache/torch_aot_compile/90537ea14f244a5187d6ecc853fbadcf440d710f29c8e182fe8151f3f7751a82/inductor_cache/ga/cganipkq2rxv3tlqteyg4ial3mtoo6i2t26lcfcspbgd6t52youk.py":54:52)
#loc65 = loc("/home/ericbuehler/.cache/vllm/torch_compile_cache/torch_aot_compile/90537ea14f244a5187d6ecc853fbadcf440d710f29c8e182fe8151f3f7751a82/inductor_cache/ga/cganipkq2rxv3tlqteyg4ial3mtoo6i2t26lcfcspbgd6t52youk.py":54:62)
#loc66 = loc("/home/ericbuehler/.cache/vllm/torch_compile_cache/torch_aot_compile/90537ea14f244a5187d6ecc853fbadcf440d710f29c8e182fe8151f3f7751a82/inductor_cache/ga/cganipkq2rxv3tlqteyg4ial3mtoo6i2t26lcfcspbgd6t52youk.py":55:24)
#loc67 = loc("/home/ericbuehler/.cache/vllm/torch_compile_cache/torch_aot_compile/90537ea14f244a5187d6ecc853fbadcf440d710f29c8e182fe8151f3f7751a82/inductor_cache/ga/cganipkq2rxv3tlqteyg4ial3mtoo6i2t26lcfcspbgd6t52youk.py":57:24)
#loc68 = loc("/home/ericbuehler/.cache/vllm/torch_compile_cache/torch_aot_compile/90537ea14f244a5187d6ecc853fbadcf440d710f29c8e182fe8151f3f7751a82/inductor_cache/ga/cganipkq2rxv3tlqteyg4ial3mtoo6i2t26lcfcspbgd6t52youk.py":59:24)
#loc69 = loc("/home/ericbuehler/.cache/vllm/torch_compile_cache/torch_aot_compile/90537ea14f244a5187d6ecc853fbadcf440d710f29c8e182fe8151f3f7751a82/inductor_cache/ga/cganipkq2rxv3tlqteyg4ial3mtoo6i2t26lcfcspbgd6t52youk.py":60:41)
#loc70 = loc("/home/ericbuehler/.cache/vllm/torch_compile_cache/torch_aot_compile/90537ea14f244a5187d6ecc853fbadcf440d710f29c8e182fe8151f3f7751a82/inductor_cache/ga/cganipkq2rxv3tlqteyg4ial3mtoo6i2t26lcfcspbgd6t52youk.py":60:50)
#loc71 = loc("/home/ericbuehler/.cache/vllm/torch_compile_cache/torch_aot_compile/90537ea14f244a5187d6ecc853fbadcf440d710f29c8e182fe8151f3f7751a82/inductor_cache/ga/cganipkq2rxv3tlqteyg4ial3mtoo6i2t26lcfcspbgd6t52youk.py":60:46)
#loc72 = loc("/home/ericbuehler/.cache/vllm/torch_compile_cache/torch_aot_compile/90537ea14f244a5187d6ecc853fbadcf440d710f29c8e182fe8151f3f7751a82/inductor_cache/ga/cganipkq2rxv3tlqteyg4ial3mtoo6i2t26lcfcspbgd6t52youk.py":60:35)
#loc73 = loc("/home/ericbuehler/.cache/vllm/torch_compile_cache/torch_aot_compile/90537ea14f244a5187d6ecc853fbadcf440d710f29c8e182fe8151f3f7751a82/inductor_cache/ga/cganipkq2rxv3tlqteyg4ial3mtoo6i2t26lcfcspbgd6t52youk.py":60:58)
#loc74 = loc("/home/ericbuehler/.cache/vllm/torch_compile_cache/torch_aot_compile/90537ea14f244a5187d6ecc853fbadcf440d710f29c8e182fe8151f3f7751a82/inductor_cache/ga/cganipkq2rxv3tlqteyg4ial3mtoo6i2t26lcfcspbgd6t52youk.py":60:68)
#loc75 = loc("/home/ericbuehler/.cache/vllm/torch_compile_cache/torch_aot_compile/90537ea14f244a5187d6ecc853fbadcf440d710f29c8e182fe8151f3f7751a82/inductor_cache/ga/cganipkq2rxv3tlqteyg4ial3mtoo6i2t26lcfcspbgd6t52youk.py":61:24)
#loc76 = loc("/home/ericbuehler/.cache/vllm/torch_compile_cache/torch_aot_compile/90537ea14f244a5187d6ecc853fbadcf440d710f29c8e182fe8151f3f7751a82/inductor_cache/ga/cganipkq2rxv3tlqteyg4ial3mtoo6i2t26lcfcspbgd6t52youk.py":62:24)
#loc77 = loc("/home/ericbuehler/.cache/vllm/torch_compile_cache/torch_aot_compile/90537ea14f244a5187d6ecc853fbadcf440d710f29c8e182fe8151f3f7751a82/inductor_cache/ga/cganipkq2rxv3tlqteyg4ial3mtoo6i2t26lcfcspbgd6t52youk.py":63:24)
#loc78 = loc("/home/ericbuehler/.cache/vllm/torch_compile_cache/torch_aot_compile/90537ea14f244a5187d6ecc853fbadcf440d710f29c8e182fe8151f3f7751a82/inductor_cache/ga/cganipkq2rxv3tlqteyg4ial3mtoo6i2t26lcfcspbgd6t52youk.py":64:24)
#loc79 = loc("/home/ericbuehler/.cache/vllm/torch_compile_cache/torch_aot_compile/90537ea14f244a5187d6ecc853fbadcf440d710f29c8e182fe8151f3f7751a82/inductor_cache/ga/cganipkq2rxv3tlqteyg4ial3mtoo6i2t26lcfcspbgd6t52youk.py":65:24)
#loc80 = loc("/home/ericbuehler/.cache/vllm/torch_compile_cache/torch_aot_compile/90537ea14f244a5187d6ecc853fbadcf440d710f29c8e182fe8151f3f7751a82/inductor_cache/ga/cganipkq2rxv3tlqteyg4ial3mtoo6i2t26lcfcspbgd6t52youk.py":66:38)
#loc81 = loc("/home/ericbuehler/.cache/vllm/torch_compile_cache/torch_aot_compile/90537ea14f244a5187d6ecc853fbadcf440d710f29c8e182fe8151f3f7751a82/inductor_cache/ga/cganipkq2rxv3tlqteyg4ial3mtoo6i2t26lcfcspbgd6t52youk.py":66:34)
#loc82 = loc("/home/ericbuehler/.cache/vllm/torch_compile_cache/torch_aot_compile/90537ea14f244a5187d6ecc853fbadcf440d710f29c8e182fe8151f3f7751a82/inductor_cache/ga/cganipkq2rxv3tlqteyg4ial3mtoo6i2t26lcfcspbgd6t52youk.py":66:29)
#loc83 = loc("/home/ericbuehler/.cache/vllm/torch_compile_cache/torch_aot_compile/90537ea14f244a5187d6ecc853fbadcf440d710f29c8e182fe8151f3f7751a82/inductor_cache/ga/cganipkq2rxv3tlqteyg4ial3mtoo6i2t26lcfcspbgd6t52youk.py":66:50)
#loc84 = loc("/home/ericbuehler/.cache/vllm/torch_compile_cache/torch_aot_compile/90537ea14f244a5187d6ecc853fbadcf440d710f29c8e182fe8151f3f7751a82/inductor_cache/ga/cganipkq2rxv3tlqteyg4ial3mtoo6i2t26lcfcspbgd6t52youk.py":67:38)
#loc85 = loc("/home/ericbuehler/.cache/vllm/torch_compile_cache/torch_aot_compile/90537ea14f244a5187d6ecc853fbadcf440d710f29c8e182fe8151f3f7751a82/inductor_cache/ga/cganipkq2rxv3tlqteyg4ial3mtoo6i2t26lcfcspbgd6t52youk.py":67:34)
#loc86 = loc("/home/ericbuehler/.cache/vllm/torch_compile_cache/torch_aot_compile/90537ea14f244a5187d6ecc853fbadcf440d710f29c8e182fe8151f3f7751a82/inductor_cache/ga/cganipkq2rxv3tlqteyg4ial3mtoo6i2t26lcfcspbgd6t52youk.py":67:29)
#loc87 = loc("/home/ericbuehler/.cache/vllm/torch_compile_cache/torch_aot_compile/90537ea14f244a5187d6ecc853fbadcf440d710f29c8e182fe8151f3f7751a82/inductor_cache/ga/cganipkq2rxv3tlqteyg4ial3mtoo6i2t26lcfcspbgd6t52youk.py":67:50)
#loc88 = loc("/home/ericbuehler/.cache/vllm/torch_compile_cache/torch_aot_compile/90537ea14f244a5187d6ecc853fbadcf440d710f29c8e182fe8151f3f7751a82/inductor_cache/ga/cganipkq2rxv3tlqteyg4ial3mtoo6i2t26lcfcspbgd6t52youk.py":68:15)
#loc89 = loc("/home/ericbuehler/.cache/vllm/torch_compile_cache/torch_aot_compile/90537ea14f244a5187d6ecc853fbadcf440d710f29c8e182fe8151f3f7751a82/inductor_cache/ga/cganipkq2rxv3tlqteyg4ial3mtoo6i2t26lcfcspbgd6t52youk.py":68:9)
#loc90 = loc("/home/ericbuehler/.cache/vllm/torch_compile_cache/torch_aot_compile/90537ea14f244a5187d6ecc853fbadcf440d710f29c8e182fe8151f3f7751a82/inductor_cache/ga/cganipkq2rxv3tlqteyg4ial3mtoo6i2t26lcfcspbgd6t52youk.py":69:27)
#loc91 = loc("/home/ericbuehler/.cache/vllm/torch_compile_cache/torch_aot_compile/90537ea14f244a5187d6ecc853fbadcf440d710f29c8e182fe8151f3f7751a82/inductor_cache/ga/cganipkq2rxv3tlqteyg4ial3mtoo6i2t26lcfcspbgd6t52youk.py":70:19)
#loc92 = loc("/home/ericbuehler/.cache/vllm/torch_compile_cache/torch_aot_compile/90537ea14f244a5187d6ecc853fbadcf440d710f29c8e182fe8151f3f7751a82/inductor_cache/ga/cganipkq2rxv3tlqteyg4ial3mtoo6i2t26lcfcspbgd6t52youk.py":71:31)
#loc93 = loc("/home/ericbuehler/.cache/vllm/torch_compile_cache/torch_aot_compile/90537ea14f244a5187d6ecc853fbadcf440d710f29c8e182fe8151f3f7751a82/inductor_cache/ga/cganipkq2rxv3tlqteyg4ial3mtoo6i2t26lcfcspbgd6t52youk.py":72:40)
#loc94 = loc("/home/ericbuehler/.cache/vllm/torch_compile_cache/torch_aot_compile/90537ea14f244a5187d6ecc853fbadcf440d710f29c8e182fe8151f3f7751a82/inductor_cache/ga/cganipkq2rxv3tlqteyg4ial3mtoo6i2t26lcfcspbgd6t52youk.py":72:27)
#loc95 = loc("/home/ericbuehler/.cache/vllm/torch_compile_cache/torch_aot_compile/90537ea14f244a5187d6ecc853fbadcf440d710f29c8e182fe8151f3f7751a82/inductor_cache/ga/cganipkq2rxv3tlqteyg4ial3mtoo6i2t26lcfcspbgd6t52youk.py":73:25)
#loc96 = loc("/home/ericbuehler/.cache/vllm/torch_compile_cache/torch_aot_compile/90537ea14f244a5187d6ecc853fbadcf440d710f29c8e182fe8151f3f7751a82/inductor_cache/ga/cganipkq2rxv3tlqteyg4ial3mtoo6i2t26lcfcspbgd6t52youk.py":74:23)
#loc97 = loc("/home/ericbuehler/.cache/vllm/torch_compile_cache/torch_aot_compile/90537ea14f244a5187d6ecc853fbadcf440d710f29c8e182fe8151f3f7751a82/inductor_cache/ga/cganipkq2rxv3tlqteyg4ial3mtoo6i2t26lcfcspbgd6t52youk.py":75:25)
#loc98 = loc("/home/ericbuehler/.cache/vllm/torch_compile_cache/torch_aot_compile/90537ea14f244a5187d6ecc853fbadcf440d710f29c8e182fe8151f3f7751a82/inductor_cache/ga/cganipkq2rxv3tlqteyg4ial3mtoo6i2t26lcfcspbgd6t52youk.py":75:32)
#loc99 = loc("/home/ericbuehler/.cache/vllm/torch_compile_cache/torch_aot_compile/90537ea14f244a5187d6ecc853fbadcf440d710f29c8e182fe8151f3f7751a82/inductor_cache/ga/cganipkq2rxv3tlqteyg4ial3mtoo6i2t26lcfcspbgd6t52youk.py":76:23)
#loc100 = loc("/home/ericbuehler/.cache/vllm/torch_compile_cache/torch_aot_compile/90537ea14f244a5187d6ecc853fbadcf440d710f29c8e182fe8151f3f7751a82/inductor_cache/ga/cganipkq2rxv3tlqteyg4ial3mtoo6i2t26lcfcspbgd6t52youk.py":77:23)
#loc101 = loc("/home/ericbuehler/.cache/vllm/torch_compile_cache/torch_aot_compile/90537ea14f244a5187d6ecc853fbadcf440d710f29c8e182fe8151f3f7751a82/inductor_cache/ga/cganipkq2rxv3tlqteyg4ial3mtoo6i2t26lcfcspbgd6t52youk.py":78:44)
#loc102 = loc("/home/ericbuehler/.cache/vllm/torch_compile_cache/torch_aot_compile/90537ea14f244a5187d6ecc853fbadcf440d710f29c8e182fe8151f3f7751a82/inductor_cache/ga/cganipkq2rxv3tlqteyg4ial3mtoo6i2t26lcfcspbgd6t52youk.py":78:40)
#loc103 = loc("/home/ericbuehler/.cache/vllm/torch_compile_cache/torch_aot_compile/90537ea14f244a5187d6ecc853fbadcf440d710f29c8e182fe8151f3f7751a82/inductor_cache/ga/cganipkq2rxv3tlqteyg4ial3mtoo6i2t26lcfcspbgd6t52youk.py":78:54)
#loc104 = loc("/home/ericbuehler/.cache/vllm/torch_compile_cache/torch_aot_compile/90537ea14f244a5187d6ecc853fbadcf440d710f29c8e182fe8151f3f7751a82/inductor_cache/ga/cganipkq2rxv3tlqteyg4ial3mtoo6i2t26lcfcspbgd6t52youk.py":78:49)
#loc105 = loc("/home/ericbuehler/.cache/vllm/torch_compile_cache/torch_aot_compile/90537ea14f244a5187d6ecc853fbadcf440d710f29c8e182fe8151f3f7751a82/inductor_cache/ga/cganipkq2rxv3tlqteyg4ial3mtoo6i2t26lcfcspbgd6t52youk.py":78:35)
#loc106 = loc("/home/ericbuehler/.cache/vllm/torch_compile_cache/torch_aot_compile/90537ea14f244a5187d6ecc853fbadcf440d710f29c8e182fe8151f3f7751a82/inductor_cache/ga/cganipkq2rxv3tlqteyg4ial3mtoo6i2t26lcfcspbgd6t52youk.py":78:59)
#loc107 = loc("/home/ericbuehler/.cache/vllm/torch_compile_cache/torch_aot_compile/90537ea14f244a5187d6ecc853fbadcf440d710f29c8e182fe8151f3f7751a82/inductor_cache/ga/cganipkq2rxv3tlqteyg4ial3mtoo6i2t26lcfcspbgd6t52youk.py":78:69)
#loc108 = loc("/home/ericbuehler/.cache/vllm/torch_compile_cache/torch_aot_compile/90537ea14f244a5187d6ecc853fbadcf440d710f29c8e182fe8151f3f7751a82/inductor_cache/ga/cganipkq2rxv3tlqteyg4ial3mtoo6i2t26lcfcspbgd6t52youk.py":79:35)
#loc109 = loc("/home/ericbuehler/.cache/vllm/torch_compile_cache/torch_aot_compile/90537ea14f244a5187d6ecc853fbadcf440d710f29c8e182fe8151f3f7751a82/inductor_cache/ga/cganipkq2rxv3tlqteyg4ial3mtoo6i2t26lcfcspbgd6t52youk.py":79:40)
#loc110 = loc("/home/ericbuehler/.cache/vllm/torch_compile_cache/torch_aot_compile/90537ea14f244a5187d6ecc853fbadcf440d710f29c8e182fe8151f3f7751a82/inductor_cache/ga/cganipkq2rxv3tlqteyg4ial3mtoo6i2t26lcfcspbgd6t52youk.py":80:35)
#loc111 = loc("/home/ericbuehler/.cache/vllm/torch_compile_cache/torch_aot_compile/90537ea14f244a5187d6ecc853fbadcf440d710f29c8e182fe8151f3f7751a82/inductor_cache/ga/cganipkq2rxv3tlqteyg4ial3mtoo6i2t26lcfcspbgd6t52youk.py":80:40)
#loc112 = loc("/home/ericbuehler/.cache/vllm/torch_compile_cache/torch_aot_compile/90537ea14f244a5187d6ecc853fbadcf440d710f29c8e182fe8151f3f7751a82/inductor_cache/ga/cganipkq2rxv3tlqteyg4ial3mtoo6i2t26lcfcspbgd6t52youk.py":80:80)
#loc113 = loc("/home/ericbuehler/.cache/vllm/torch_compile_cache/torch_aot_compile/90537ea14f244a5187d6ecc853fbadcf440d710f29c8e182fe8151f3f7751a82/inductor_cache/ga/cganipkq2rxv3tlqteyg4ial3mtoo6i2t26lcfcspbgd6t52youk.py":81:35)
#loc114 = loc("/home/ericbuehler/.cache/vllm/torch_compile_cache/torch_aot_compile/90537ea14f244a5187d6ecc853fbadcf440d710f29c8e182fe8151f3f7751a82/inductor_cache/ga/cganipkq2rxv3tlqteyg4ial3mtoo6i2t26lcfcspbgd6t52youk.py":81:40)
#loc115 = loc("/home/ericbuehler/.cache/vllm/torch_compile_cache/torch_aot_compile/90537ea14f244a5187d6ecc853fbadcf440d710f29c8e182fe8151f3f7751a82/inductor_cache/ga/cganipkq2rxv3tlqteyg4ial3mtoo6i2t26lcfcspbgd6t52youk.py":82:41)
#loc116 = loc("/home/ericbuehler/.cache/vllm/torch_compile_cache/torch_aot_compile/90537ea14f244a5187d6ecc853fbadcf440d710f29c8e182fe8151f3f7751a82/inductor_cache/ga/cganipkq2rxv3tlqteyg4ial3mtoo6i2t26lcfcspbgd6t52youk.py":82:50)
#loc117 = loc("/home/ericbuehler/.cache/vllm/torch_compile_cache/torch_aot_compile/90537ea14f244a5187d6ecc853fbadcf440d710f29c8e182fe8151f3f7751a82/inductor_cache/ga/cganipkq2rxv3tlqteyg4ial3mtoo6i2t26lcfcspbgd6t52youk.py":82:46)
#loc118 = loc("/home/ericbuehler/.cache/vllm/torch_compile_cache/torch_aot_compile/90537ea14f244a5187d6ecc853fbadcf440d710f29c8e182fe8151f3f7751a82/inductor_cache/ga/cganipkq2rxv3tlqteyg4ial3mtoo6i2t26lcfcspbgd6t52youk.py":82:60)
#loc119 = loc("/home/ericbuehler/.cache/vllm/torch_compile_cache/torch_aot_compile/90537ea14f244a5187d6ecc853fbadcf440d710f29c8e182fe8151f3f7751a82/inductor_cache/ga/cganipkq2rxv3tlqteyg4ial3mtoo6i2t26lcfcspbgd6t52youk.py":82:55)
#loc120 = loc("/home/ericbuehler/.cache/vllm/torch_compile_cache/torch_aot_compile/90537ea14f244a5187d6ecc853fbadcf440d710f29c8e182fe8151f3f7751a82/inductor_cache/ga/cganipkq2rxv3tlqteyg4ial3mtoo6i2t26lcfcspbgd6t52youk.py":82:35)
#loc121 = loc("/home/ericbuehler/.cache/vllm/torch_compile_cache/torch_aot_compile/90537ea14f244a5187d6ecc853fbadcf440d710f29c8e182fe8151f3f7751a82/inductor_cache/ga/cganipkq2rxv3tlqteyg4ial3mtoo6i2t26lcfcspbgd6t52youk.py":82:65)
#loc122 = loc("/home/ericbuehler/.cache/vllm/torch_compile_cache/torch_aot_compile/90537ea14f244a5187d6ecc853fbadcf440d710f29c8e182fe8151f3f7751a82/inductor_cache/ga/cganipkq2rxv3tlqteyg4ial3mtoo6i2t26lcfcspbgd6t52youk.py":82:75)
#loc123 = loc("/home/ericbuehler/.cache/vllm/torch_compile_cache/torch_aot_compile/90537ea14f244a5187d6ecc853fbadcf440d710f29c8e182fe8151f3f7751a82/inductor_cache/ga/cganipkq2rxv3tlqteyg4ial3mtoo6i2t26lcfcspbgd6t52youk.py":83:41)
#loc124 = loc("/home/ericbuehler/.cache/vllm/torch_compile_cache/torch_aot_compile/90537ea14f244a5187d6ecc853fbadcf440d710f29c8e182fe8151f3f7751a82/inductor_cache/ga/cganipkq2rxv3tlqteyg4ial3mtoo6i2t26lcfcspbgd6t52youk.py":83:35)
#loc125 = loc("/home/ericbuehler/.cache/vllm/torch_compile_cache/torch_aot_compile/90537ea14f244a5187d6ecc853fbadcf440d710f29c8e182fe8151f3f7751a82/inductor_cache/ga/cganipkq2rxv3tlqteyg4ial3mtoo6i2t26lcfcspbgd6t52youk.py":83:46)
#loc126 = loc("/home/ericbuehler/.cache/vllm/torch_compile_cache/torch_aot_compile/90537ea14f244a5187d6ecc853fbadcf440d710f29c8e182fe8151f3f7751a82/inductor_cache/ga/cganipkq2rxv3tlqteyg4ial3mtoo6i2t26lcfcspbgd6t52youk.py":83:86)
#loc127 = loc("/home/ericbuehler/.cache/vllm/torch_compile_cache/torch_aot_compile/90537ea14f244a5187d6ecc853fbadcf440d710f29c8e182fe8151f3f7751a82/inductor_cache/ga/cganipkq2rxv3tlqteyg4ial3mtoo6i2t26lcfcspbgd6t52youk.py":85:36)
#loc128 = loc("/home/ericbuehler/.cache/vllm/torch_compile_cache/torch_aot_compile/90537ea14f244a5187d6ecc853fbadcf440d710f29c8e182fe8151f3f7751a82/inductor_cache/ga/cganipkq2rxv3tlqteyg4ial3mtoo6i2t26lcfcspbgd6t52youk.py":86:25)
#loc129 = loc("/home/ericbuehler/.cache/vllm/torch_compile_cache/torch_aot_compile/90537ea14f244a5187d6ecc853fbadcf440d710f29c8e182fe8151f3f7751a82/inductor_cache/ga/cganipkq2rxv3tlqteyg4ial3mtoo6i2t26lcfcspbgd6t52youk.py":87:36)
#loc130 = loc("/home/ericbuehler/.cache/vllm/torch_compile_cache/torch_aot_compile/90537ea14f244a5187d6ecc853fbadcf440d710f29c8e182fe8151f3f7751a82/inductor_cache/ga/cganipkq2rxv3tlqteyg4ial3mtoo6i2t26lcfcspbgd6t52youk.py":88:24)
#loc131 = loc("/home/ericbuehler/.cache/vllm/torch_compile_cache/torch_aot_compile/90537ea14f244a5187d6ecc853fbadcf440d710f29c8e182fe8151f3f7751a82/inductor_cache/ga/cganipkq2rxv3tlqteyg4ial3mtoo6i2t26lcfcspbgd6t52youk.py":89:32)
#loc132 = loc("/home/ericbuehler/.cache/vllm/torch_compile_cache/torch_aot_compile/90537ea14f244a5187d6ecc853fbadcf440d710f29c8e182fe8151f3f7751a82/inductor_cache/ga/cganipkq2rxv3tlqteyg4ial3mtoo6i2t26lcfcspbgd6t52youk.py":90:24)
#loc133 = loc("/home/ericbuehler/.cache/vllm/torch_compile_cache/torch_aot_compile/90537ea14f244a5187d6ecc853fbadcf440d710f29c8e182fe8151f3f7751a82/inductor_cache/ga/cganipkq2rxv3tlqteyg4ial3mtoo6i2t26lcfcspbgd6t52youk.py":92:24)
#loc134 = loc("/home/ericbuehler/.cache/vllm/torch_compile_cache/torch_aot_compile/90537ea14f244a5187d6ecc853fbadcf440d710f29c8e182fe8151f3f7751a82/inductor_cache/ga/cganipkq2rxv3tlqteyg4ial3mtoo6i2t26lcfcspbgd6t52youk.py":93:42)
#loc135 = loc("/home/ericbuehler/.cache/vllm/torch_compile_cache/torch_aot_compile/90537ea14f244a5187d6ecc853fbadcf440d710f29c8e182fe8151f3f7751a82/inductor_cache/ga/cganipkq2rxv3tlqteyg4ial3mtoo6i2t26lcfcspbgd6t52youk.py":94:24)
#loc136 = loc("/home/ericbuehler/.cache/vllm/torch_compile_cache/torch_aot_compile/90537ea14f244a5187d6ecc853fbadcf440d710f29c8e182fe8151f3f7751a82/inductor_cache/ga/cganipkq2rxv3tlqteyg4ial3mtoo6i2t26lcfcspbgd6t52youk.py":95:24)
#loc137 = loc("/home/ericbuehler/.cache/vllm/torch_compile_cache/torch_aot_compile/90537ea14f244a5187d6ecc853fbadcf440d710f29c8e182fe8151f3f7751a82/inductor_cache/ga/cganipkq2rxv3tlqteyg4ial3mtoo6i2t26lcfcspbgd6t52youk.py":96:39)
#loc138 = loc("/home/ericbuehler/.cache/vllm/torch_compile_cache/torch_aot_compile/90537ea14f244a5187d6ecc853fbadcf440d710f29c8e182fe8151f3f7751a82/inductor_cache/ga/cganipkq2rxv3tlqteyg4ial3mtoo6i2t26lcfcspbgd6t52youk.py":97:32)
#loc139 = loc("/home/ericbuehler/.cache/vllm/torch_compile_cache/torch_aot_compile/90537ea14f244a5187d6ecc853fbadcf440d710f29c8e182fe8151f3f7751a82/inductor_cache/ga/cganipkq2rxv3tlqteyg4ial3mtoo6i2t26lcfcspbgd6t52youk.py":97:50)
#loc140 = loc("/home/ericbuehler/.cache/vllm/torch_compile_cache/torch_aot_compile/90537ea14f244a5187d6ecc853fbadcf440d710f29c8e182fe8151f3f7751a82/inductor_cache/ga/cganipkq2rxv3tlqteyg4ial3mtoo6i2t26lcfcspbgd6t52youk.py":97:42)
#loc141 = loc("/home/ericbuehler/.cache/vllm/torch_compile_cache/torch_aot_compile/90537ea14f244a5187d6ecc853fbadcf440d710f29c8e182fe8151f3f7751a82/inductor_cache/ga/cganipkq2rxv3tlqteyg4ial3mtoo6i2t26lcfcspbgd6t52youk.py":97:63)
#loc142 = loc("/home/ericbuehler/.cache/vllm/torch_compile_cache/torch_aot_compile/90537ea14f244a5187d6ecc853fbadcf440d710f29c8e182fe8151f3f7751a82/inductor_cache/ga/cganipkq2rxv3tlqteyg4ial3mtoo6i2t26lcfcspbgd6t52youk.py":97:61)
#loc143 = loc("/home/ericbuehler/.cache/vllm/torch_compile_cache/torch_aot_compile/90537ea14f244a5187d6ecc853fbadcf440d710f29c8e182fe8151f3f7751a82/inductor_cache/ga/cganipkq2rxv3tlqteyg4ial3mtoo6i2t26lcfcspbgd6t52youk.py":97:71)
#loc144 = loc("/home/ericbuehler/.cache/vllm/torch_compile_cache/torch_aot_compile/90537ea14f244a5187d6ecc853fbadcf440d710f29c8e182fe8151f3f7751a82/inductor_cache/ga/cganipkq2rxv3tlqteyg4ial3mtoo6i2t26lcfcspbgd6t52youk.py":98:44)
#loc145 = loc("/home/ericbuehler/.cache/vllm/torch_compile_cache/torch_aot_compile/90537ea14f244a5187d6ecc853fbadcf440d710f29c8e182fe8151f3f7751a82/inductor_cache/ga/cganipkq2rxv3tlqteyg4ial3mtoo6i2t26lcfcspbgd6t52youk.py":98:40)
#loc146 = loc("/home/ericbuehler/.cache/vllm/torch_compile_cache/torch_aot_compile/90537ea14f244a5187d6ecc853fbadcf440d710f29c8e182fe8151f3f7751a82/inductor_cache/ga/cganipkq2rxv3tlqteyg4ial3mtoo6i2t26lcfcspbgd6t52youk.py":98:35)
#loc147 = loc("/home/ericbuehler/.cache/vllm/torch_compile_cache/torch_aot_compile/90537ea14f244a5187d6ecc853fbadcf440d710f29c8e182fe8151f3f7751a82/inductor_cache/ga/cganipkq2rxv3tlqteyg4ial3mtoo6i2t26lcfcspbgd6t52youk.py":98:52)
#loc148 = loc("/home/ericbuehler/.cache/vllm/torch_compile_cache/torch_aot_compile/90537ea14f244a5187d6ecc853fbadcf440d710f29c8e182fe8151f3f7751a82/inductor_cache/ga/cganipkq2rxv3tlqteyg4ial3mtoo6i2t26lcfcspbgd6t52youk.py":98:62)
#loc149 = loc("/home/ericbuehler/.cache/vllm/torch_compile_cache/torch_aot_compile/90537ea14f244a5187d6ecc853fbadcf440d710f29c8e182fe8151f3f7751a82/inductor_cache/ga/cganipkq2rxv3tlqteyg4ial3mtoo6i2t26lcfcspbgd6t52youk.py":99:24)
#loc150 = loc("/home/ericbuehler/.cache/vllm/torch_compile_cache/torch_aot_compile/90537ea14f244a5187d6ecc853fbadcf440d710f29c8e182fe8151f3f7751a82/inductor_cache/ga/cganipkq2rxv3tlqteyg4ial3mtoo6i2t26lcfcspbgd6t52youk.py":101:24)
#loc151 = loc("/home/ericbuehler/.cache/vllm/torch_compile_cache/torch_aot_compile/90537ea14f244a5187d6ecc853fbadcf440d710f29c8e182fe8151f3f7751a82/inductor_cache/ga/cganipkq2rxv3tlqteyg4ial3mtoo6i2t26lcfcspbgd6t52youk.py":103:24)
#loc152 = loc("/home/ericbuehler/.cache/vllm/torch_compile_cache/torch_aot_compile/90537ea14f244a5187d6ecc853fbadcf440d710f29c8e182fe8151f3f7751a82/inductor_cache/ga/cganipkq2rxv3tlqteyg4ial3mtoo6i2t26lcfcspbgd6t52youk.py":104:41)
#loc153 = loc("/home/ericbuehler/.cache/vllm/torch_compile_cache/torch_aot_compile/90537ea14f244a5187d6ecc853fbadcf440d710f29c8e182fe8151f3f7751a82/inductor_cache/ga/cganipkq2rxv3tlqteyg4ial3mtoo6i2t26lcfcspbgd6t52youk.py":104:50)
#loc154 = loc("/home/ericbuehler/.cache/vllm/torch_compile_cache/torch_aot_compile/90537ea14f244a5187d6ecc853fbadcf440d710f29c8e182fe8151f3f7751a82/inductor_cache/ga/cganipkq2rxv3tlqteyg4ial3mtoo6i2t26lcfcspbgd6t52youk.py":104:46)
#loc155 = loc("/home/ericbuehler/.cache/vllm/torch_compile_cache/torch_aot_compile/90537ea14f244a5187d6ecc853fbadcf440d710f29c8e182fe8151f3f7751a82/inductor_cache/ga/cganipkq2rxv3tlqteyg4ial3mtoo6i2t26lcfcspbgd6t52youk.py":104:35)
#loc156 = loc("/home/ericbuehler/.cache/vllm/torch_compile_cache/torch_aot_compile/90537ea14f244a5187d6ecc853fbadcf440d710f29c8e182fe8151f3f7751a82/inductor_cache/ga/cganipkq2rxv3tlqteyg4ial3mtoo6i2t26lcfcspbgd6t52youk.py":104:58)
#loc157 = loc("/home/ericbuehler/.cache/vllm/torch_compile_cache/torch_aot_compile/90537ea14f244a5187d6ecc853fbadcf440d710f29c8e182fe8151f3f7751a82/inductor_cache/ga/cganipkq2rxv3tlqteyg4ial3mtoo6i2t26lcfcspbgd6t52youk.py":104:68)
#loc158 = loc("/home/ericbuehler/.cache/vllm/torch_compile_cache/torch_aot_compile/90537ea14f244a5187d6ecc853fbadcf440d710f29c8e182fe8151f3f7751a82/inductor_cache/ga/cganipkq2rxv3tlqteyg4ial3mtoo6i2t26lcfcspbgd6t52youk.py":105:24)
#loc159 = loc("/home/ericbuehler/.cache/vllm/torch_compile_cache/torch_aot_compile/90537ea14f244a5187d6ecc853fbadcf440d710f29c8e182fe8151f3f7751a82/inductor_cache/ga/cganipkq2rxv3tlqteyg4ial3mtoo6i2t26lcfcspbgd6t52youk.py":106:24)
#loc160 = loc("/home/ericbuehler/.cache/vllm/torch_compile_cache/torch_aot_compile/90537ea14f244a5187d6ecc853fbadcf440d710f29c8e182fe8151f3f7751a82/inductor_cache/ga/cganipkq2rxv3tlqteyg4ial3mtoo6i2t26lcfcspbgd6t52youk.py":107:24)
#loc161 = loc("/home/ericbuehler/.cache/vllm/torch_compile_cache/torch_aot_compile/90537ea14f244a5187d6ecc853fbadcf440d710f29c8e182fe8151f3f7751a82/inductor_cache/ga/cganipkq2rxv3tlqteyg4ial3mtoo6i2t26lcfcspbgd6t52youk.py":108:24)
#loc162 = loc("/home/ericbuehler/.cache/vllm/torch_compile_cache/torch_aot_compile/90537ea14f244a5187d6ecc853fbadcf440d710f29c8e182fe8151f3f7751a82/inductor_cache/ga/cganipkq2rxv3tlqteyg4ial3mtoo6i2t26lcfcspbgd6t52youk.py":109:24)
#loc163 = loc("/home/ericbuehler/.cache/vllm/torch_compile_cache/torch_aot_compile/90537ea14f244a5187d6ecc853fbadcf440d710f29c8e182fe8151f3f7751a82/inductor_cache/ga/cganipkq2rxv3tlqteyg4ial3mtoo6i2t26lcfcspbgd6t52youk.py":110:38)
#loc164 = loc("/home/ericbuehler/.cache/vllm/torch_compile_cache/torch_aot_compile/90537ea14f244a5187d6ecc853fbadcf440d710f29c8e182fe8151f3f7751a82/inductor_cache/ga/cganipkq2rxv3tlqteyg4ial3mtoo6i2t26lcfcspbgd6t52youk.py":110:34)
#loc165 = loc("/home/ericbuehler/.cache/vllm/torch_compile_cache/torch_aot_compile/90537ea14f244a5187d6ecc853fbadcf440d710f29c8e182fe8151f3f7751a82/inductor_cache/ga/cganipkq2rxv3tlqteyg4ial3mtoo6i2t26lcfcspbgd6t52youk.py":110:29)
#loc166 = loc("/home/ericbuehler/.cache/vllm/torch_compile_cache/torch_aot_compile/90537ea14f244a5187d6ecc853fbadcf440d710f29c8e182fe8151f3f7751a82/inductor_cache/ga/cganipkq2rxv3tlqteyg4ial3mtoo6i2t26lcfcspbgd6t52youk.py":110:50)
#loc167 = loc("/home/ericbuehler/.cache/vllm/torch_compile_cache/torch_aot_compile/90537ea14f244a5187d6ecc853fbadcf440d710f29c8e182fe8151f3f7751a82/inductor_cache/ga/cganipkq2rxv3tlqteyg4ial3mtoo6i2t26lcfcspbgd6t52youk.py":111:38)
#loc168 = loc("/home/ericbuehler/.cache/vllm/torch_compile_cache/torch_aot_compile/90537ea14f244a5187d6ecc853fbadcf440d710f29c8e182fe8151f3f7751a82/inductor_cache/ga/cganipkq2rxv3tlqteyg4ial3mtoo6i2t26lcfcspbgd6t52youk.py":111:34)
#loc169 = loc("/home/ericbuehler/.cache/vllm/torch_compile_cache/torch_aot_compile/90537ea14f244a5187d6ecc853fbadcf440d710f29c8e182fe8151f3f7751a82/inductor_cache/ga/cganipkq2rxv3tlqteyg4ial3mtoo6i2t26lcfcspbgd6t52youk.py":111:29)
#loc170 = loc("/home/ericbuehler/.cache/vllm/torch_compile_cache/torch_aot_compile/90537ea14f244a5187d6ecc853fbadcf440d710f29c8e182fe8151f3f7751a82/inductor_cache/ga/cganipkq2rxv3tlqteyg4ial3mtoo6i2t26lcfcspbgd6t52youk.py":111:50)
#loc171 = loc("/home/ericbuehler/.cache/vllm/torch_compile_cache/torch_aot_compile/90537ea14f244a5187d6ecc853fbadcf440d710f29c8e182fe8151f3f7751a82/inductor_cache/ga/cganipkq2rxv3tlqteyg4ial3mtoo6i2t26lcfcspbgd6t52youk.py":24:4)
#loc173 = loc("/home/ericbuehler/vllm/.venv-bench/lib/python3.12/site-packages/triton/language/standard.py":43:17)
#loc174 = loc("/home/ericbuehler/vllm/.venv-bench/lib/python3.12/site-packages/triton/language/standard.py":43:30)
#loc175 = loc("/home/ericbuehler/vllm/.venv-bench/lib/python3.12/site-packages/triton/language/standard.py":43:11)
#loc176 = loc("/home/ericbuehler/vllm/.venv-bench/lib/python3.12/site-packages/triton/language/standard.py":43:4)
#loc190 = loc("pid"(#loc1))
#loc191 = loc("num_xblocks_0"(#loc2))
#loc192 = loc("num_xblocks_1"(#loc3))
#loc193 = loc("num_xblocks_1"(#loc4))
#loc194 = loc("r0_numel"(#loc7))
#loc195 = loc("xoffset"(#loc8))
#loc196 = loc("xindex"(#loc9))
#loc197 = loc("xindex"(#loc10))
#loc198 = loc("xmask"(#loc11))
#loc199 = loc("x0"(#loc12))
#loc200 = loc("x1"(#loc13))
#loc201 = loc("x1"(#loc14))
#loc202 = loc("x2"(#loc15))
#loc203 = loc("x3"(#loc16))
#loc204 = loc("tmp0"(#loc17))
#loc205 = loc("tmp0"(#loc18))
#loc206 = loc("tmp0"(#loc19))
#loc207 = loc("tmp0"(#loc20))
#loc208 = loc("tmp0"(#loc21))
#loc209 = loc("tmp0"(#loc22))
#loc210 = loc("tmp0"(#loc23))
#loc211 = loc("tmp0"(#loc24))
#loc212 = loc("tmp2"(#loc25))
#loc213 = loc("tmp2"(#loc26))
#loc214 = loc("tmp10"(#loc27))
#loc215 = loc("tmp10"(#loc28))
#loc216 = loc("tmp10"(#loc29))
#loc217 = loc("tmp12"(#loc30))
#loc218 = loc("tmp12"(#loc31))
#loc219 = loc("tmp20"(#loc32))
#loc220 = loc("tmp20"(#loc33))
#loc221 = loc("tmp20"(#loc34))
#loc222 = loc("tmp20"(#loc35))
#loc223 = loc("tmp20"(#loc36))
#loc224 = loc("tmp20"(#loc37))
#loc225 = loc("tmp20"(#loc38))
#loc226 = loc("tmp20"(#loc39))
#loc227 = loc("tmp24"(#loc40))
#loc228 = loc("tmp24"(#loc41))
#loc229 = loc("tmp24"(#loc42))
#loc230 = loc("tmp24"(#loc43))
#loc231 = loc("tmp3"(#loc44))
#loc232 = loc("tmp4"(#loc45))
#loc233 = loc("tmp5"(#loc46))
#loc234 = loc("tmp6"(#loc47))
#loc235 = loc("tmp7"(#loc48))
#loc236 = loc("tmp8"(#loc49))
#loc237 = loc("tmp11"(#loc50))
#loc238 = loc("tmp13"(#loc51))
#loc239 = loc("tmp14"(#loc52))
#loc240 = loc("tmp15"(#loc53))
#loc241 = loc("tmp16"(#loc54))
#loc242 = loc("tmp18"(#loc61))
#loc243 = loc("tmp18"(#loc62))
#loc244 = loc("tmp18"(#loc63))
#loc245 = loc("tmp18"(#loc64))
#loc246 = loc("tmp18"(#loc65))
#loc247 = loc("tmp19"(#loc66))
#loc248 = loc("tmp22"(#loc67))
#loc249 = loc("tmp25"(#loc68))
#loc250 = loc("tmp26"(#loc69))
#loc251 = loc("tmp26"(#loc70))
#loc252 = loc("tmp26"(#loc71))
#loc253 = loc("tmp26"(#loc72))
#loc254 = loc("tmp26"(#loc73))
#loc255 = loc("tmp26"(#loc74))
#loc256 = loc("tmp27"(#loc75))
#loc257 = loc("tmp28"(#loc76))
#loc258 = loc("tmp29"(#loc77))
#loc259 = loc("tmp30"(#loc78))
#loc260 = loc("tmp31"(#loc79))
#loc261 = loc("pid_offset"(#loc90))
#loc262 = loc("r0_numel"(#loc91))
#loc263 = loc("xoffset"(#loc92))
#loc264 = loc("xindex"(#loc93))
#loc265 = loc("xindex"(#loc94))
#loc266 = loc("xmask"(#loc95))
#loc267 = loc("x4"(#loc96))
#loc268 = loc("x5"(#loc97))
#loc269 = loc("x5"(#loc98))
#loc270 = loc("x6"(#loc99))
#loc271 = loc("x7"(#loc100))
#loc272 = loc("tmp32"(#loc101))
#loc273 = loc("tmp32"(#loc102))
#loc274 = loc("tmp32"(#loc103))
#loc275 = loc("tmp32"(#loc104))
#loc276 = loc("tmp32"(#loc105))
#loc277 = loc("tmp32"(#loc106))
#loc278 = loc("tmp32"(#loc107))
#loc279 = loc("tmp34"(#loc108))
#loc280 = loc("tmp34"(#loc109))
#loc281 = loc("tmp42"(#loc110))
#loc282 = loc("tmp42"(#loc111))
#loc283 = loc("tmp42"(#loc112))
#loc284 = loc("tmp44"(#loc113))
#loc285 = loc("tmp44"(#loc114))
#loc286 = loc("tmp52"(#loc115))
#loc287 = loc("tmp52"(#loc116))
#loc288 = loc("tmp52"(#loc117))
#loc289 = loc("tmp52"(#loc118))
#loc290 = loc("tmp52"(#loc119))
#loc291 = loc("tmp52"(#loc120))
#loc292 = loc("tmp52"(#loc121))
#loc293 = loc("tmp52"(#loc122))
#loc294 = loc("tmp56"(#loc123))
#loc295 = loc("tmp56"(#loc124))
#loc296 = loc("tmp56"(#loc125))
#loc297 = loc("tmp56"(#loc126))
#loc298 = loc("tmp35"(#loc127))
#loc299 = loc("tmp36"(#loc128))
#loc300 = loc("tmp37"(#loc129))
#loc301 = loc("tmp38"(#loc130))
#loc302 = loc("tmp39"(#loc131))
#loc303 = loc("tmp40"(#loc132))
#loc304 = loc("tmp43"(#loc133))
#loc305 = loc("tmp45"(#loc134))
#loc306 = loc("tmp46"(#loc135))
#loc307 = loc("tmp47"(#loc136))
#loc308 = loc("tmp48"(#loc137))
#loc309 = loc("tmp50"(#loc144))
#loc310 = loc("tmp50"(#loc145))
#loc311 = loc("tmp50"(#loc146))
#loc312 = loc("tmp50"(#loc147))
#loc313 = loc("tmp50"(#loc148))
#loc314 = loc("tmp51"(#loc149))
#loc315 = loc("tmp54"(#loc150))
#loc316 = loc("tmp57"(#loc151))
#loc317 = loc("tmp58"(#loc152))
#loc318 = loc("tmp58"(#loc153))
#loc319 = loc("tmp58"(#loc154))
#loc320 = loc("tmp58"(#loc155))
#loc321 = loc("tmp58"(#loc156))
#loc322 = loc("tmp58"(#loc157))
#loc323 = loc("tmp59"(#loc158))
#loc324 = loc("tmp60"(#loc159))
#loc325 = loc("tmp61"(#loc160))
#loc326 = loc("tmp62"(#loc161))
#loc327 = loc("tmp63"(#loc162))
