#loc = loc("/home/ericbuehler/.cache/vllm/torch_compile_cache/torch_aot_compile/90537ea14f244a5187d6ecc853fbadcf440d710f29c8e182fe8151f3f7751a82/inductor_cache/qj/cqjq2gla2xkyjefgvl2p4a2w6rhoyopuaho6rfw2zuyad34udzn7.py":22:0)
#loc1 = loc(unknown)
#loc26 = loc("/home/ericbuehler/.cache/vllm/torch_compile_cache/torch_aot_compile/90537ea14f244a5187d6ecc853fbadcf440d710f29c8e182fe8151f3f7751a82/inductor_cache/qj/cqjq2gla2xkyjefgvl2p4a2w6rhoyopuaho6rfw2zuyad34udzn7.py":47:25)
#loc40 = loc("in_ptr0"(#loc))
#loc41 = loc("out_ptr1"(#loc))
#loc42 = loc("xnumel"(#loc))
#loc43 = loc("r0_numel"(#loc))
#loc67 = loc("tmp4"(#loc26))
#loc76 = loc(callsite(#loc1 at #loc67))
module {
  tt.func public @triton_(%in_ptr0: !tt.ptr<bf16> {tt.divisibility = 16 : i32} loc("in_ptr0"(#loc)), %out_ptr1: !tt.ptr<bf16> {tt.divisibility = 16 : i32} loc("out_ptr1"(#loc)), %xnumel: i32 loc("xnumel"(#loc)), %r0_numel: i32 {tt.divisibility = 16 : i32} loc("r0_numel"(#loc))) attributes {noinline = false} {
    %cst = arith.constant dense<0.000000e+00> : tensor<2x256xbf16> loc(#loc1)
    %cst_0 = arith.constant dense<9.99999997E-7> : tensor<2x1xf32> loc(#loc1)
    %cst_1 = arith.constant dense<2.560000e+02> : tensor<2x1xf32> loc(#loc1)
    %cst_2 = arith.constant dense<8192> : tensor<2x1xi32> loc(#loc1)
    %cst_3 = arith.constant dense<256> : tensor<2x1xi32> loc(#loc1)
    %cst_4 = arith.constant dense<6144> : tensor<1x256xi32> loc(#loc1)
    %cst_5 = arith.constant dense<256> : tensor<1x256xi32> loc(#loc1)
    %cst_6 = arith.constant dense<0.000000e+00> : tensor<2x256xf32> loc(#loc1)
    %cst_7 = arith.constant dense<8> : tensor<2x1xi32> loc(#loc1)
    %c2_i32 = arith.constant 2 : i32 loc(#loc1)
    %xoffset = tt.get_program_id x : i32 loc(#loc44)
    %xoffset_8 = arith.muli %xoffset, %c2_i32 : i32 loc(#loc45)
    %xindex = tt.make_range {end = 2 : i32, start = 0 : i32} : tensor<2xi32> loc(#loc46)
    %xindex_9 = tt.expand_dims %xindex {axis = 1 : i32} : tensor<2xi32> -> tensor<2x1xi32> loc(#loc47)
    %xindex_10 = tt.splat %xoffset_8 : i32 -> tensor<2x1xi32> loc(#loc48)
    %xindex_11 = arith.addi %xindex_10, %xindex_9 : tensor<2x1xi32> loc(#loc48)
    %xmask = tt.splat %xnumel : i32 -> tensor<2x1xi32> loc(#loc49)
    %xmask_12 = arith.cmpi slt, %xindex_11, %xmask : tensor<2x1xi32> loc(#loc49)
    %r0_base = tt.make_range {end = 256 : i32, start = 0 : i32} : tensor<256xi32> loc(#loc50)
    %r0_base_13 = tt.expand_dims %r0_base {axis = 0 : i32} : tensor<256xi32> -> tensor<1x256xi32> loc(#loc51)
    %x0 = arith.remsi %xindex_11, %cst_7 : tensor<2x1xi32> loc(#loc52)
    %x1 = arith.divsi %xindex_11, %cst_7 : tensor<2x1xi32> loc(#loc53)
    %r0_mask = arith.cmpi slt, %r0_base_13, %cst_5 : tensor<1x256xi32> loc(#loc54)
    %tmp0 = arith.addi %r0_base_13, %cst_4 : tensor<1x256xi32> loc(#loc55)
    %tmp0_14 = arith.muli %x0, %cst_3 : tensor<2x1xi32> loc(#loc56)
    %tmp0_15 = tt.broadcast %tmp0 : tensor<1x256xi32> -> tensor<2x256xi32> loc(#loc57)
    %tmp0_16 = tt.broadcast %tmp0_14 : tensor<2x1xi32> -> tensor<2x256xi32> loc(#loc57)
    %tmp0_17 = arith.addi %tmp0_15, %tmp0_16 : tensor<2x256xi32> loc(#loc57)
    %tmp0_18 = arith.muli %x1, %cst_2 : tensor<2x1xi32> loc(#loc58)
    %tmp0_19 = tt.broadcast %tmp0_18 : tensor<2x1xi32> -> tensor<2x256xi32> loc(#loc59)
    %tmp0_20 = arith.addi %tmp0_17, %tmp0_19 : tensor<2x256xi32> loc(#loc59)
    %tmp0_21 = tt.splat %in_ptr0 : !tt.ptr<bf16> -> tensor<2x256x!tt.ptr<bf16>> loc(#loc60)
    %tmp0_22 = tt.addptr %tmp0_21, %tmp0_20 : tensor<2x256x!tt.ptr<bf16>>, tensor<2x256xi32> loc(#loc60)
    %tmp0_23 = tt.broadcast %r0_mask : tensor<1x256xi1> -> tensor<2x256xi1> loc(#loc61)
    %tmp0_24 = tt.broadcast %xmask_12 : tensor<2x1xi1> -> tensor<2x256xi1> loc(#loc61)
    %tmp0_25 = arith.andi %tmp0_23, %tmp0_24 : tensor<2x256xi1> loc(#loc61)
    %tmp0_26 = tt.load %tmp0_22, %tmp0_25, %cst evictionPolicy = evict_last : tensor<2x256x!tt.ptr<bf16>> loc(#loc62)
    %tmp0_27 = arith.extf %tmp0_26 : tensor<2x256xbf16> to tensor<2x256xf32> loc(#loc63)
    %tmp2 = arith.mulf %tmp0_27, %tmp0_27 : tensor<2x256xf32> loc(#loc64)
    %tmp5 = arith.addf %tmp2, %cst_6 : tensor<2x256xf32> loc(#loc65)
    %_tmp4 = arith.select %tmp0_25, %tmp5, %cst_6 : tensor<2x256xi1>, tensor<2x256xf32> loc(#loc66)
    %tmp4 = "tt.reduce"(%_tmp4) <{axis = 1 : i32}> ({
    ^bb0(%tmp4_31: f32 loc(callsite(#loc1 at #loc67)), %tmp4_32: f32 loc(callsite(#loc1 at #loc67))):
      %tmp4_33 = arith.addf %tmp4_31, %tmp4_32 : f32 loc(#loc77)
      tt.reduce.return %tmp4_33 : f32 loc(#loc75)
    }) : (tensor<2x256xf32>) -> tensor<2xf32> loc(#loc75)
    %tmp4_28 = tt.expand_dims %tmp4 {axis = 1 : i32} : tensor<2xf32> -> tensor<2x1xf32> loc(#loc68)
    %tmp6 = tt.load %tmp0_22, %tmp0_25, %cst evictionPolicy = evict_first : tensor<2x256x!tt.ptr<bf16>> loc(#loc69)
    %tmp6_29 = arith.extf %tmp6 : tensor<2x256xbf16> to tensor<2x256xf32> loc(#loc70)
    %tmp9 = arith.divf %tmp4_28, %cst_1 : tensor<2x1xf32> loc(#loc71)
    %tmp11 = arith.addf %tmp9, %cst_0 : tensor<2x1xf32> loc(#loc72)
    %tmp12 = tt.extern_elementwise %tmp11 {libname = "", libpath = "", pure = true, symbol = "__nv_rsqrtf"} : (tensor<2x1xf32>) -> tensor<2x1xf32> loc(#loc73)
    %tmp13 = tt.broadcast %tmp12 : tensor<2x1xf32> -> tensor<2x256xf32> loc(#loc74)
    %tmp13_30 = arith.mulf %tmp6_29, %tmp13 : tensor<2x256xf32> loc(#loc74)
    %0 = arith.muli %xindex_11, %cst_3 : tensor<2x1xi32> loc(#loc35)
    %1 = tt.broadcast %r0_base_13 : tensor<1x256xi32> -> tensor<2x256xi32> loc(#loc36)
    %2 = tt.broadcast %0 : tensor<2x1xi32> -> tensor<2x256xi32> loc(#loc36)
    %3 = arith.addi %1, %2 : tensor<2x256xi32> loc(#loc36)
    %4 = tt.splat %out_ptr1 : !tt.ptr<bf16> -> tensor<2x256x!tt.ptr<bf16>> loc(#loc37)
    %5 = tt.addptr %4, %3 : tensor<2x256x!tt.ptr<bf16>>, tensor<2x256xi32> loc(#loc37)
    %6 = arith.truncf %tmp13_30 : tensor<2x256xf32> to tensor<2x256xbf16> loc(#loc38)
    tt.store %5, %6, %tmp0_25 : tensor<2x256x!tt.ptr<bf16>> loc(#loc38)
    tt.return loc(#loc39)
  } loc(#loc)
} loc(#loc)
#loc2 = loc("/home/ericbuehler/.cache/vllm/torch_compile_cache/torch_aot_compile/90537ea14f244a5187d6ecc853fbadcf440d710f29c8e182fe8151f3f7751a82/inductor_cache/qj/cqjq2gla2xkyjefgvl2p4a2w6rhoyopuaho6rfw2zuyad34udzn7.py":26:28)
#loc3 = loc("/home/ericbuehler/.cache/vllm/torch_compile_cache/torch_aot_compile/90537ea14f244a5187d6ecc853fbadcf440d710f29c8e182fe8151f3f7751a82/inductor_cache/qj/cqjq2gla2xkyjefgvl2p4a2w6rhoyopuaho6rfw2zuyad34udzn7.py":26:33)
#loc4 = loc("/home/ericbuehler/.cache/vllm/torch_compile_cache/torch_aot_compile/90537ea14f244a5187d6ecc853fbadcf440d710f29c8e182fe8151f3f7751a82/inductor_cache/qj/cqjq2gla2xkyjefgvl2p4a2w6rhoyopuaho6rfw2zuyad34udzn7.py":27:36)
#loc5 = loc("/home/ericbuehler/.cache/vllm/torch_compile_cache/torch_aot_compile/90537ea14f244a5187d6ecc853fbadcf440d710f29c8e182fe8151f3f7751a82/inductor_cache/qj/cqjq2gla2xkyjefgvl2p4a2w6rhoyopuaho6rfw2zuyad34udzn7.py":27:44)
#loc6 = loc("/home/ericbuehler/.cache/vllm/torch_compile_cache/torch_aot_compile/90537ea14f244a5187d6ecc853fbadcf440d710f29c8e182fe8151f3f7751a82/inductor_cache/qj/cqjq2gla2xkyjefgvl2p4a2w6rhoyopuaho6rfw2zuyad34udzn7.py":27:23)
#loc7 = loc("/home/ericbuehler/.cache/vllm/torch_compile_cache/torch_aot_compile/90537ea14f244a5187d6ecc853fbadcf440d710f29c8e182fe8151f3f7751a82/inductor_cache/qj/cqjq2gla2xkyjefgvl2p4a2w6rhoyopuaho6rfw2zuyad34udzn7.py":28:21)
#loc8 = loc("/home/ericbuehler/.cache/vllm/torch_compile_cache/torch_aot_compile/90537ea14f244a5187d6ecc853fbadcf440d710f29c8e182fe8151f3f7751a82/inductor_cache/qj/cqjq2gla2xkyjefgvl2p4a2w6rhoyopuaho6rfw2zuyad34udzn7.py":29:27)
#loc9 = loc("/home/ericbuehler/.cache/vllm/torch_compile_cache/torch_aot_compile/90537ea14f244a5187d6ecc853fbadcf440d710f29c8e182fe8151f3f7751a82/inductor_cache/qj/cqjq2gla2xkyjefgvl2p4a2w6rhoyopuaho6rfw2zuyad34udzn7.py":29:37)
#loc10 = loc("/home/ericbuehler/.cache/vllm/torch_compile_cache/torch_aot_compile/90537ea14f244a5187d6ecc853fbadcf440d710f29c8e182fe8151f3f7751a82/inductor_cache/qj/cqjq2gla2xkyjefgvl2p4a2w6rhoyopuaho6rfw2zuyad34udzn7.py":31:19)
#loc11 = loc("/home/ericbuehler/.cache/vllm/torch_compile_cache/torch_aot_compile/90537ea14f244a5187d6ecc853fbadcf440d710f29c8e182fe8151f3f7751a82/inductor_cache/qj/cqjq2gla2xkyjefgvl2p4a2w6rhoyopuaho6rfw2zuyad34udzn7.py":32:19)
#loc12 = loc("/home/ericbuehler/.cache/vllm/torch_compile_cache/torch_aot_compile/90537ea14f244a5187d6ecc853fbadcf440d710f29c8e182fe8151f3f7751a82/inductor_cache/qj/cqjq2gla2xkyjefgvl2p4a2w6rhoyopuaho6rfw2zuyad34udzn7.py":37:29)
#loc13 = loc("/home/ericbuehler/.cache/vllm/torch_compile_cache/torch_aot_compile/90537ea14f244a5187d6ecc853fbadcf440d710f29c8e182fe8151f3f7751a82/inductor_cache/qj/cqjq2gla2xkyjefgvl2p4a2w6rhoyopuaho6rfw2zuyad34udzn7.py":41:41)
#loc14 = loc("/home/ericbuehler/.cache/vllm/torch_compile_cache/torch_aot_compile/90537ea14f244a5187d6ecc853fbadcf440d710f29c8e182fe8151f3f7751a82/inductor_cache/qj/cqjq2gla2xkyjefgvl2p4a2w6rhoyopuaho6rfw2zuyad34udzn7.py":41:52)
#loc15 = loc("/home/ericbuehler/.cache/vllm/torch_compile_cache/torch_aot_compile/90537ea14f244a5187d6ecc853fbadcf440d710f29c8e182fe8151f3f7751a82/inductor_cache/qj/cqjq2gla2xkyjefgvl2p4a2w6rhoyopuaho6rfw2zuyad34udzn7.py":41:48)
#loc16 = loc("/home/ericbuehler/.cache/vllm/torch_compile_cache/torch_aot_compile/90537ea14f244a5187d6ecc853fbadcf440d710f29c8e182fe8151f3f7751a82/inductor_cache/qj/cqjq2gla2xkyjefgvl2p4a2w6rhoyopuaho6rfw2zuyad34udzn7.py":41:62)
#loc17 = loc("/home/ericbuehler/.cache/vllm/torch_compile_cache/torch_aot_compile/90537ea14f244a5187d6ecc853fbadcf440d710f29c8e182fe8151f3f7751a82/inductor_cache/qj/cqjq2gla2xkyjefgvl2p4a2w6rhoyopuaho6rfw2zuyad34udzn7.py":41:57)
#loc18 = loc("/home/ericbuehler/.cache/vllm/torch_compile_cache/torch_aot_compile/90537ea14f244a5187d6ecc853fbadcf440d710f29c8e182fe8151f3f7751a82/inductor_cache/qj/cqjq2gla2xkyjefgvl2p4a2w6rhoyopuaho6rfw2zuyad34udzn7.py":41:34)
#loc19 = loc("/home/ericbuehler/.cache/vllm/torch_compile_cache/torch_aot_compile/90537ea14f244a5187d6ecc853fbadcf440d710f29c8e182fe8151f3f7751a82/inductor_cache/qj/cqjq2gla2xkyjefgvl2p4a2w6rhoyopuaho6rfw2zuyad34udzn7.py":41:77)
#loc20 = loc("/home/ericbuehler/.cache/vllm/torch_compile_cache/torch_aot_compile/90537ea14f244a5187d6ecc853fbadcf440d710f29c8e182fe8151f3f7751a82/inductor_cache/qj/cqjq2gla2xkyjefgvl2p4a2w6rhoyopuaho6rfw2zuyad34udzn7.py":41:67)
#loc21 = loc("/home/ericbuehler/.cache/vllm/torch_compile_cache/torch_aot_compile/90537ea14f244a5187d6ecc853fbadcf440d710f29c8e182fe8151f3f7751a82/inductor_cache/qj/cqjq2gla2xkyjefgvl2p4a2w6rhoyopuaho6rfw2zuyad34udzn7.py":41:128)
#loc22 = loc("/home/ericbuehler/.cache/vllm/torch_compile_cache/torch_aot_compile/90537ea14f244a5187d6ecc853fbadcf440d710f29c8e182fe8151f3f7751a82/inductor_cache/qj/cqjq2gla2xkyjefgvl2p4a2w6rhoyopuaho6rfw2zuyad34udzn7.py":43:22)
#loc23 = loc("/home/ericbuehler/.cache/vllm/torch_compile_cache/torch_aot_compile/90537ea14f244a5187d6ecc853fbadcf440d710f29c8e182fe8151f3f7751a82/inductor_cache/qj/cqjq2gla2xkyjefgvl2p4a2w6rhoyopuaho6rfw2zuyad34udzn7.py":45:23)
#loc24 = loc("/home/ericbuehler/.cache/vllm/torch_compile_cache/torch_aot_compile/90537ea14f244a5187d6ecc853fbadcf440d710f29c8e182fe8151f3f7751a82/inductor_cache/qj/cqjq2gla2xkyjefgvl2p4a2w6rhoyopuaho6rfw2zuyad34udzn7.py":46:48)
#loc25 = loc("/home/ericbuehler/vllm/.venv-bench/lib/python3.12/site-packages/triton/language/standard.py":293:36)
#loc27 = loc("/home/ericbuehler/vllm/.venv-bench/lib/python3.12/site-packages/triton/language/standard.py":263:15)
#loc28 = loc("/home/ericbuehler/.cache/vllm/torch_compile_cache/torch_aot_compile/90537ea14f244a5187d6ecc853fbadcf440d710f29c8e182fe8151f3f7751a82/inductor_cache/qj/cqjq2gla2xkyjefgvl2p4a2w6rhoyopuaho6rfw2zuyad34udzn7.py":47:28)
#loc29 = loc("/home/ericbuehler/.cache/vllm/torch_compile_cache/torch_aot_compile/90537ea14f244a5187d6ecc853fbadcf440d710f29c8e182fe8151f3f7751a82/inductor_cache/qj/cqjq2gla2xkyjefgvl2p4a2w6rhoyopuaho6rfw2zuyad34udzn7.py":54:67)
#loc30 = loc("/home/ericbuehler/.cache/vllm/torch_compile_cache/torch_aot_compile/90537ea14f244a5187d6ecc853fbadcf440d710f29c8e182fe8151f3f7751a82/inductor_cache/qj/cqjq2gla2xkyjefgvl2p4a2w6rhoyopuaho6rfw2zuyad34udzn7.py":54:129)
#loc31 = loc("/home/ericbuehler/.cache/vllm/torch_compile_cache/torch_aot_compile/90537ea14f244a5187d6ecc853fbadcf440d710f29c8e182fe8151f3f7751a82/inductor_cache/qj/cqjq2gla2xkyjefgvl2p4a2w6rhoyopuaho6rfw2zuyad34udzn7.py":57:23)
#loc32 = loc("/home/ericbuehler/.cache/vllm/torch_compile_cache/torch_aot_compile/90537ea14f244a5187d6ecc853fbadcf440d710f29c8e182fe8151f3f7751a82/inductor_cache/qj/cqjq2gla2xkyjefgvl2p4a2w6rhoyopuaho6rfw2zuyad34udzn7.py":59:23)
#loc33 = loc("/home/ericbuehler/.cache/vllm/torch_compile_cache/torch_aot_compile/90537ea14f244a5187d6ecc853fbadcf440d710f29c8e182fe8151f3f7751a82/inductor_cache/qj/cqjq2gla2xkyjefgvl2p4a2w6rhoyopuaho6rfw2zuyad34udzn7.py":60:32)
#loc34 = loc("/home/ericbuehler/.cache/vllm/torch_compile_cache/torch_aot_compile/90537ea14f244a5187d6ecc853fbadcf440d710f29c8e182fe8151f3f7751a82/inductor_cache/qj/cqjq2gla2xkyjefgvl2p4a2w6rhoyopuaho6rfw2zuyad34udzn7.py":61:23)
#loc35 = loc("/home/ericbuehler/.cache/vllm/torch_compile_cache/torch_aot_compile/90537ea14f244a5187d6ecc853fbadcf440d710f29c8e182fe8151f3f7751a82/inductor_cache/qj/cqjq2gla2xkyjefgvl2p4a2w6rhoyopuaho6rfw2zuyad34udzn7.py":63:40)
#loc36 = loc("/home/ericbuehler/.cache/vllm/torch_compile_cache/torch_aot_compile/90537ea14f244a5187d6ecc853fbadcf440d710f29c8e182fe8151f3f7751a82/inductor_cache/qj/cqjq2gla2xkyjefgvl2p4a2w6rhoyopuaho6rfw2zuyad34udzn7.py":63:36)
#loc37 = loc("/home/ericbuehler/.cache/vllm/torch_compile_cache/torch_aot_compile/90537ea14f244a5187d6ecc853fbadcf440d710f29c8e182fe8151f3f7751a82/inductor_cache/qj/cqjq2gla2xkyjefgvl2p4a2w6rhoyopuaho6rfw2zuyad34udzn7.py":63:29)
#loc38 = loc("/home/ericbuehler/.cache/vllm/torch_compile_cache/torch_aot_compile/90537ea14f244a5187d6ecc853fbadcf440d710f29c8e182fe8151f3f7751a82/inductor_cache/qj/cqjq2gla2xkyjefgvl2p4a2w6rhoyopuaho6rfw2zuyad34udzn7.py":63:52)
#loc39 = loc("/home/ericbuehler/.cache/vllm/torch_compile_cache/torch_aot_compile/90537ea14f244a5187d6ecc853fbadcf440d710f29c8e182fe8151f3f7751a82/inductor_cache/qj/cqjq2gla2xkyjefgvl2p4a2w6rhoyopuaho6rfw2zuyad34udzn7.py":48:4)
#loc44 = loc("xoffset"(#loc2))
#loc45 = loc("xoffset"(#loc3))
#loc46 = loc("xindex"(#loc4))
#loc47 = loc("xindex"(#loc5))
#loc48 = loc("xindex"(#loc6))
#loc49 = loc("xmask"(#loc7))
#loc50 = loc("r0_base"(#loc8))
#loc51 = loc("r0_base"(#loc9))
#loc52 = loc("x0"(#loc10))
#loc53 = loc("x1"(#loc11))
#loc54 = loc("r0_mask"(#loc12))
#loc55 = loc("tmp0"(#loc13))
#loc56 = loc("tmp0"(#loc14))
#loc57 = loc("tmp0"(#loc15))
#loc58 = loc("tmp0"(#loc16))
#loc59 = loc("tmp0"(#loc17))
#loc60 = loc("tmp0"(#loc18))
#loc61 = loc("tmp0"(#loc19))
#loc62 = loc("tmp0"(#loc20))
#loc63 = loc("tmp0"(#loc21))
#loc64 = loc("tmp2"(#loc22))
#loc65 = loc("tmp5"(#loc23))
#loc66 = loc("_tmp4"(#loc24))
#loc68 = loc("tmp4"(#loc28))
#loc69 = loc("tmp6"(#loc29))
#loc70 = loc("tmp6"(#loc30))
#loc71 = loc("tmp9"(#loc31))
#loc72 = loc("tmp11"(#loc32))
#loc73 = loc("tmp12"(#loc33))
#loc74 = loc("tmp13"(#loc34))
#loc75 = loc(callsite(#loc25 at #loc67))
#loc77 = loc(callsite(#loc27 at #loc75))
