#loc = loc("/home/ericbuehler/vllm/.venv-bench/lib/python3.12/site-packages/vllm/v1/attention/ops/triton_unified_attention.py":58:0)
#loc1 = loc(unknown)
#loc6 = loc("/home/ericbuehler/vllm/.venv-bench/lib/python3.12/site-packages/vllm/v1/attention/ops/triton_attention_helpers.py":67:68)
#loc7 = loc("/home/ericbuehler/vllm/.venv-bench/lib/python3.12/site-packages/vllm/v1/attention/ops/triton_unified_attention.py":157:73)
#loc9 = loc("left")
#loc10 = loc("right")
#loc145 = loc("/home/ericbuehler/vllm/.venv-bench/lib/python3.12/site-packages/vllm/v1/attention/ops/triton_attention_helpers.py":371:31)
#loc146 = loc("/home/ericbuehler/vllm/.venv-bench/lib/python3.12/site-packages/vllm/v1/attention/ops/triton_unified_attention.py":325:44)
#loc155 = loc("/home/ericbuehler/vllm/.venv-bench/lib/python3.12/site-packages/vllm/v1/attention/ops/triton_attention_helpers.py":378:17)
#loc190 = loc("output_ptr"(#loc))
#loc191 = loc("segm_output_ptr"(#loc))
#loc192 = loc("segm_max_ptr"(#loc))
#loc193 = loc("segm_expsum_ptr"(#loc))
#loc194 = loc("query_ptr"(#loc))
#loc195 = loc("key_cache_ptr"(#loc))
#loc196 = loc("value_cache_ptr"(#loc))
#loc197 = loc("block_tables_ptr"(#loc))
#loc198 = loc("seq_lens_ptr"(#loc))
#loc199 = loc("k_scale_cache_ptr"(#loc))
#loc200 = loc("v_scale_cache_ptr"(#loc))
#loc201 = loc("scale"(#loc))
#loc202 = loc("k_scale"(#loc))
#loc203 = loc("v_scale"(#loc))
#loc204 = loc("out_scale"(#loc))
#loc205 = loc("softcap"(#loc))
#loc206 = loc("block_table_stride"(#loc))
#loc207 = loc("query_stride_0"(#loc))
#loc208 = loc("query_stride_1"(#loc))
#loc209 = loc("output_stride_0"(#loc))
#loc210 = loc("output_stride_1"(#loc))
#loc211 = loc("qq_bias_stride_0"(#loc))
#loc212 = loc("stride_k_cache_0"(#loc))
#loc213 = loc("stride_k_cache_1"(#loc))
#loc214 = loc("stride_k_cache_2"(#loc))
#loc215 = loc("stride_v_cache_0"(#loc))
#loc216 = loc("stride_v_cache_1"(#loc))
#loc217 = loc("stride_v_cache_2"(#loc))
#loc218 = loc("stride_ks_blk"(#loc))
#loc219 = loc("stride_ks_slot"(#loc))
#loc220 = loc("stride_ks_head"(#loc))
#loc221 = loc("stride_vs_blk"(#loc))
#loc222 = loc("stride_vs_slot"(#loc))
#loc223 = loc("stride_vs_head"(#loc))
#loc224 = loc("query_start_len_ptr"(#loc))
#loc225 = loc("num_seqs"(#loc))
#loc230 = loc("seq_idx"(#loc6))
#loc231 = loc("left"(#loc9))
#loc232 = loc("right"(#loc10))
#loc353 = loc("m_j"(#loc145))
#loc360 = loc("l_j"(#loc155))
#loc390 = loc(callsite(#loc230 at #loc7))
#loc429 = loc(callsite(#loc353 at #loc146))
#loc436 = loc(callsite(#loc360 at #loc146))
#loc448 = loc(callsite(#loc231 at #loc390))
#loc449 = loc(callsite(#loc232 at #loc390))
#loc465 = loc(callsite(#loc1 at #loc429))
#loc467 = loc(callsite(#loc1 at #loc436))
module {
  tt.func public @kernel_unified_attention(%output_ptr: !tt.ptr<bf16> {tt.divisibility = 16 : i32} loc("output_ptr"(#loc)), %segm_output_ptr: !tt.ptr<f32> {tt.divisibility = 16 : i32} loc("segm_output_ptr"(#loc)), %segm_max_ptr: !tt.ptr<f32> {tt.divisibility = 16 : i32} loc("segm_max_ptr"(#loc)), %segm_expsum_ptr: !tt.ptr<f32> {tt.divisibility = 16 : i32} loc("segm_expsum_ptr"(#loc)), %query_ptr: !tt.ptr<bf16> {tt.divisibility = 16 : i32} loc("query_ptr"(#loc)), %key_cache_ptr: !tt.ptr<bf16> {tt.divisibility = 16 : i32} loc("key_cache_ptr"(#loc)), %value_cache_ptr: !tt.ptr<bf16> {tt.divisibility = 16 : i32} loc("value_cache_ptr"(#loc)), %block_tables_ptr: !tt.ptr<i32> {tt.divisibility = 16 : i32} loc("block_tables_ptr"(#loc)), %seq_lens_ptr: !tt.ptr<i32> {tt.divisibility = 16 : i32} loc("seq_lens_ptr"(#loc)), %k_scale_cache_ptr: !tt.ptr<bf16> {tt.divisibility = 16 : i32} loc("k_scale_cache_ptr"(#loc)), %v_scale_cache_ptr: !tt.ptr<bf16> {tt.divisibility = 16 : i32} loc("v_scale_cache_ptr"(#loc)), %scale: f32 loc("scale"(#loc)), %k_scale: !tt.ptr<f32> {tt.divisibility = 16 : i32} loc("k_scale"(#loc)), %v_scale: !tt.ptr<f32> {tt.divisibility = 16 : i32} loc("v_scale"(#loc)), %out_scale: f32 loc("out_scale"(#loc)), %softcap: i32 {tt.divisibility = 16 : i32} loc("softcap"(#loc)), %block_table_stride: i64 loc("block_table_stride"(#loc)), %query_stride_0: i64 {tt.divisibility = 16 : i32} loc("query_stride_0"(#loc)), %query_stride_1: i64 {tt.divisibility = 16 : i32} loc("query_stride_1"(#loc)), %output_stride_0: i64 {tt.divisibility = 16 : i32} loc("output_stride_0"(#loc)), %output_stride_1: i64 {tt.divisibility = 16 : i32} loc("output_stride_1"(#loc)), %qq_bias_stride_0: i64 {tt.divisibility = 16 : i32} loc("qq_bias_stride_0"(#loc)), %stride_k_cache_0: i64 {tt.divisibility = 16 : i32} loc("stride_k_cache_0"(#loc)), %stride_k_cache_1: i64 {tt.divisibility = 16 : i32} loc("stride_k_cache_1"(#loc)), %stride_k_cache_2: i64 {tt.divisibility = 16 : i32} loc("stride_k_cache_2"(#loc)), %stride_v_cache_0: i64 {tt.divisibility = 16 : i32} loc("stride_v_cache_0"(#loc)), %stride_v_cache_1: i64 {tt.divisibility = 16 : i32} loc("stride_v_cache_1"(#loc)), %stride_v_cache_2: i64 {tt.divisibility = 16 : i32} loc("stride_v_cache_2"(#loc)), %stride_ks_blk: i64 {tt.divisibility = 16 : i32} loc("stride_ks_blk"(#loc)), %stride_ks_slot: i64 {tt.divisibility = 16 : i32} loc("stride_ks_slot"(#loc)), %stride_ks_head: i64 {tt.divisibility = 16 : i32} loc("stride_ks_head"(#loc)), %stride_vs_blk: i64 {tt.divisibility = 16 : i32} loc("stride_vs_blk"(#loc)), %stride_vs_slot: i64 {tt.divisibility = 16 : i32} loc("stride_vs_slot"(#loc)), %stride_vs_head: i64 {tt.divisibility = 16 : i32} loc("stride_vs_head"(#loc)), %query_start_len_ptr: !tt.ptr<i32> {tt.divisibility = 16 : i32} loc("query_start_len_ptr"(#loc)), %num_seqs: i32 loc("num_seqs"(#loc))) attributes {noinline = false} {
    %cst = arith.constant dense<256> : tensor<16xi64> loc(#loc1)
    %cst_0 = arith.constant dense<0.000000e+00> : tensor<16xf32> loc(#loc1)
    %cst_1 = arith.constant dense<1024> : tensor<16x32xi32> loc(#loc1)
    %c7_i32 = arith.constant 7 : i32 loc(#loc1)
    %c-1023_i32 = arith.constant -1023 : i32 loc(#loc1)
    %c31_i32 = arith.constant 31 : i32 loc(#loc1)
    %cst_2 = arith.constant dense<0xFF800000> : tensor<16xf32> loc(#loc1)
    %c511_i32 = arith.constant 511 : i32 loc(#loc1)
    %c512_i32 = arith.constant 512 : i32 loc(#loc1)
    %c0_i32 = arith.constant 0 : i32 loc(#loc1)
    %cst_3 = arith.constant dense<0.000000e+00> : tensor<256x32xbf16> loc(#loc1)
    %c1_i32 = arith.constant 1 : i32 loc(#loc1)
    %cst_4 = arith.constant dense<0.000000e+00> : tensor<16x256xbf16> loc(#loc1)
    %cst_5 = arith.constant dense<4096> : tensor<16x1xi32> loc(#loc1)
    %cst_6 = arith.constant dense<65536> : tensor<16x1xi64> loc(#loc1)
    %cst_7 = arith.constant dense<0.000000e+00> : tensor<32x256xbf16> loc(#loc1)
    %cst_8 = arith.constant dense<1024> : tensor<32x1xi32> loc(#loc1)
    %cst_9 = arith.constant dense<0xFF800000> : tensor<16x32xf32> loc(#loc1)
    %cst_10 = arith.constant dense<0.000000e+00> : tensor<16x32xf32> loc(#loc1)
    %cst_11 = arith.constant dense<16> : tensor<32xi32> loc(#loc1)
    %cst_12 = arith.constant dense<1.000000e+00> : tensor<16xf32> loc(#loc1)
    %cst_13 = arith.constant dense<0.000000e+00> : tensor<16x256xf32> loc(#loc1)
    %cst_14 = arith.constant dense<16> : tensor<16xi32> loc(#loc1)
    %cst_15 = arith.constant dense<0> : tensor<16xi32> loc(#loc1)
    %cst_16 = arith.constant dense<1> : tensor<16xi32> loc(#loc1)
    %cst_17 = arith.constant dense<0> : tensor<256xi32> loc(#loc1)
    %cst_18 = arith.constant dense<1> : tensor<256xi32> loc(#loc1)
    %cst_19 = arith.constant dense<256> : tensor<256xi32> loc(#loc1)
    %c256_i32 = arith.constant 256 : i32 loc(#loc1)
    %cst_20 = arith.constant dense<2> : tensor<16xi32> loc(#loc1)
    %c2_i32 = arith.constant 2 : i32 loc(#loc1)
    %c32_i32 = arith.constant 32 : i32 loc(#loc1)
    %c8_i32 = arith.constant 8 : i32 loc(#loc1)
    %q_block_global_idx = tt.get_program_id x : i32 loc(#loc226)
    %kv_head_idx = tt.get_program_id y : i32 loc(#loc227)
    %segm_idx = tt.get_program_id z : i32 loc(#loc228)
    %right:2 = scf.while (%left = %c0_i32, %right_90 = %num_seqs) : (i32, i32) -> (i32, i32) {
      %seq_idx_91 = arith.cmpi slt, %left, %right_90 : i32 loc(#loc447)
      scf.condition(%seq_idx_91) %left, %right_90 : i32, i32 loc(#loc447)
    } do {
    ^bb0(%left: i32 loc(callsite(#loc231 at #loc390)), %right_90: i32 loc(callsite(#loc232 at #loc390))):
      %mid = arith.addi %left, %right_90 : i32 loc(#loc450)
      %right_91 = arith.divsi %mid, %c2_i32 : i32 loc(#loc451)
      %val = tt.addptr %query_start_len_ptr, %right_91 : !tt.ptr<i32>, i32 loc(#loc452)
      %val_92 = tt.load %val : !tt.ptr<i32> loc(#loc453)
      %mid_val = arith.divsi %val_92, %c8_i32 : i32 loc(#loc454)
      %mid_val_93 = arith.addi %mid_val, %right_91 : i32 loc(#loc455)
      %seq_idx_94 = arith.cmpi sle, %mid_val_93, %q_block_global_idx : i32 loc(#loc456)
      %seq_idx_95 = arith.select %seq_idx_94, %right_90, %right_91 : i32 loc(#loc457)
      %seq_idx_96 = scf.if %seq_idx_94 -> (i32) {
        %left_97 = arith.addi %right_91, %c1_i32 : i32 loc(#loc458)
        scf.yield %left_97 : i32 loc(#loc458)
      } else {
        scf.yield %left : i32 loc(#loc457)
      } loc(#loc457)
      scf.yield %seq_idx_96, %seq_idx_95 : i32, i32 loc(#loc459)
    } loc(#loc446)
    %seq_idx = arith.subi %right#0, %c1_i32 : i32 loc(#loc460)
    %q_block_start_idx = tt.addptr %query_start_len_ptr, %seq_idx : !tt.ptr<i32>, i32 loc(#loc393)
    %q_block_start_idx_21 = tt.load %q_block_start_idx : !tt.ptr<i32> loc(#loc394)
    %q_block_start_idx_22 = arith.divsi %q_block_start_idx_21, %c8_i32 : i32 loc(#loc395)
    %q_block_start_idx_23 = arith.addi %q_block_start_idx_22, %seq_idx : i32 loc(#loc396)
    %q_block_local_idx = arith.subi %q_block_global_idx, %q_block_start_idx_23 : i32 loc(#loc397)
    %cur_stop = tt.addptr %q_block_start_idx, %c1_i32 : !tt.ptr<i32>, i32 loc(#loc398)
    %cur_stop_24 = tt.load %cur_stop : !tt.ptr<i32> loc(#loc399)
    %cur_batch_query_len = arith.subi %cur_stop_24, %q_block_start_idx_21 : i32 loc(#loc400)
    %seq_len = tt.addptr %seq_lens_ptr, %seq_idx : !tt.ptr<i32>, i32 loc(#loc401)
    %seq_len_25 = tt.load %seq_len : !tt.ptr<i32> loc(#loc402)
    %0 = arith.muli %q_block_local_idx, %c8_i32 : i32 loc(#loc32)
    %1 = arith.cmpi sge, %0, %cur_batch_query_len : i32 loc(#loc33)
    cf.cond_br %1, ^bb1, ^bb2 loc(#loc33)
  ^bb1:  // 2 preds: ^bb0, ^bb2
    tt.return loc(#loc34)
  ^bb2:  // pred: ^bb0
    %tiles_per_segment = arith.addi %seq_len_25, %c511_i32 : i32 loc(#loc403)
    %tiles_per_segment_26 = arith.divsi %tiles_per_segment, %c512_i32 : i32 loc(#loc404)
    %2 = arith.muli %segm_idx, %tiles_per_segment_26 : i32 loc(#loc38)
    %3 = arith.muli %2, %c32_i32 : i32 loc(#loc39)
    %4 = arith.cmpi sge, %3, %seq_len_25 : i32 loc(#loc40)
    cf.cond_br %4, ^bb1, ^bb3 loc(#loc40)
  ^bb3:  // pred: ^bb2
    %offs_m = tt.make_range {end = 16 : i32, start = 0 : i32} : tensor<16xi32> loc(#loc251)
    %offs_d = tt.make_range {end = 256 : i32, start = 0 : i32} : tensor<256xi32> loc(#loc252)
    %offs_t = tt.make_range {end = 32 : i32, start = 0 : i32} : tensor<32xi32> loc(#loc253)
    %query_pos = arith.divsi %offs_m, %cst_20 : tensor<16xi32> loc(#loc254)
    %query_pos_27 = tt.splat %0 : i32 -> tensor<16xi32> loc(#loc255)
    %query_pos_28 = arith.addi %query_pos_27, %query_pos : tensor<16xi32> loc(#loc255)
    %query_offset_0 = tt.splat %q_block_start_idx_21 : i32 -> tensor<16xi32> loc(#loc256)
    %query_offset_0_29 = arith.addi %query_offset_0, %query_pos_28 : tensor<16xi32> loc(#loc256)
    %query_offset_1 = arith.muli %kv_head_idx, %c2_i32 : i32 loc(#loc257)
    %query_offset_1_30 = arith.remsi %offs_m, %cst_20 : tensor<16xi32> loc(#loc258)
    %query_offset_1_31 = tt.splat %query_offset_1 : i32 -> tensor<16xi32> loc(#loc259)
    %query_offset_1_32 = arith.addi %query_offset_1_31, %query_offset_1_30 : tensor<16xi32> loc(#loc259)
    %query_offset = tt.expand_dims %query_offset_0_29 {axis = 1 : i32} : tensor<16xi32> -> tensor<16x1xi32> loc(#loc260)
    %query_offset_33 = arith.extsi %query_offset : tensor<16x1xi32> to tensor<16x1xi64> loc(#loc261)
    %query_offset_34 = tt.splat %query_stride_0 : i64 -> tensor<16x1xi64> loc(#loc261)
    %query_offset_35 = arith.muli %query_offset_33, %query_offset_34 : tensor<16x1xi64> loc(#loc261)
    %query_offset_36 = tt.expand_dims %query_offset_1_32 {axis = 1 : i32} : tensor<16xi32> -> tensor<16x1xi32> loc(#loc262)
    %query_offset_37 = arith.extsi %query_offset_36 : tensor<16x1xi32> to tensor<16x1xi64> loc(#loc263)
    %query_offset_38 = tt.splat %query_stride_1 : i64 -> tensor<16x1xi64> loc(#loc263)
    %query_offset_39 = arith.muli %query_offset_37, %query_offset_38 : tensor<16x1xi64> loc(#loc263)
    %query_offset_40 = arith.addi %query_offset_35, %query_offset_39 : tensor<16x1xi64> loc(#loc264)
    %query_offset_41 = tt.expand_dims %offs_d {axis = 0 : i32} : tensor<256xi32> -> tensor<1x256xi32> loc(#loc265)
    %query_offset_42 = arith.extsi %query_offset_41 : tensor<1x256xi32> to tensor<1x256xi64> loc(#loc266)
    %query_offset_43 = tt.broadcast %query_offset_40 : tensor<16x1xi64> -> tensor<16x256xi64> loc(#loc266)
    %query_offset_44 = tt.broadcast %query_offset_42 : tensor<1x256xi64> -> tensor<16x256xi64> loc(#loc266)
    %query_offset_45 = arith.addi %query_offset_43, %query_offset_44 : tensor<16x256xi64> loc(#loc266)
    %dim_mask = arith.cmpi slt, %offs_d, %cst_19 : tensor<256xi32> loc(#loc267)
    %dim_mask_46 = arith.select %dim_mask, %cst_18, %cst_17 : tensor<256xi1>, tensor<256xi32> loc(#loc268)
    %dim_mask_47 = arith.cmpi ne, %dim_mask_46, %cst_17 : tensor<256xi32> loc(#loc269)
    %query_mask_0 = tt.splat %cur_batch_query_len : i32 -> tensor<16xi32> loc(#loc270)
    %query_mask_0_48 = arith.cmpi slt, %query_pos_28, %query_mask_0 : tensor<16xi32> loc(#loc270)
    %query_mask_0_49 = arith.select %query_mask_0_48, %cst_16, %cst_15 : tensor<16xi1>, tensor<16xi32> loc(#loc271)
    %query_mask_0_50 = arith.cmpi ne, %query_mask_0_49, %cst_15 : tensor<16xi32> loc(#loc272)
    %query_mask_1 = arith.cmpi slt, %query_offset_1_32, %cst_14 : tensor<16xi32> loc(#loc273)
    %query_mask_1_51 = arith.select %query_mask_1, %cst_16, %cst_15 : tensor<16xi1>, tensor<16xi32> loc(#loc274)
    %query_mask_1_52 = arith.cmpi ne, %query_mask_1_51, %cst_15 : tensor<16xi32> loc(#loc275)
    %Q = tt.expand_dims %dim_mask_47 {axis = 0 : i32} : tensor<256xi1> -> tensor<1x256xi1> loc(#loc276)
    %Q_53 = tt.expand_dims %query_mask_0_50 {axis = 1 : i32} : tensor<16xi1> -> tensor<16x1xi1> loc(#loc277)
    %Q_54 = tt.broadcast %Q : tensor<1x256xi1> -> tensor<16x256xi1> loc(#loc278)
    %Q_55 = tt.broadcast %Q_53 : tensor<16x1xi1> -> tensor<16x256xi1> loc(#loc278)
    %Q_56 = arith.andi %Q_54, %Q_55 : tensor<16x256xi1> loc(#loc278)
    %Q_57 = tt.expand_dims %query_mask_1_52 {axis = 1 : i32} : tensor<16xi1> -> tensor<16x1xi1> loc(#loc279)
    %Q_58 = tt.broadcast %Q_57 : tensor<16x1xi1> -> tensor<16x256xi1> loc(#loc280)
    %Q_59 = arith.andi %Q_56, %Q_58 : tensor<16x256xi1> loc(#loc280)
    %Q_60 = tt.splat %query_ptr : !tt.ptr<bf16> -> tensor<16x256x!tt.ptr<bf16>> loc(#loc281)
    %Q_61 = tt.addptr %Q_60, %query_offset_45 : tensor<16x256x!tt.ptr<bf16>>, tensor<16x256xi64> loc(#loc281)
    %Q_62 = tt.load %Q_61, %Q_59, %cst_4 : tensor<16x256x!tt.ptr<bf16>> loc(#loc282)
    %block_table_offset = arith.extsi %seq_idx : i32 to i64 loc(#loc283)
    %block_table_offset_63 = arith.muli %block_table_offset, %block_table_stride : i64 loc(#loc283)
    %context_len = arith.subi %seq_len_25, %cur_batch_query_len : i32 loc(#loc284)
    %max_seq_prefix_len = arith.addi %context_len, %0 : i32 loc(#loc405)
    %max_seq_prefix_len_64 = arith.addi %max_seq_prefix_len, %c8_i32 : i32 loc(#loc406)
    %max_seq_prefix_len_65 = arith.minsi %max_seq_prefix_len_64, %seq_len_25 : i32 loc(#loc407)
    %num_tiles = arith.addi %max_seq_prefix_len_65, %c31_i32 : i32 loc(#loc461)
    %num_tiles_66 = arith.divsi %num_tiles, %c32_i32 : i32 loc(#loc462)
    %qpos_hi = arith.addi %0, %c7_i32 : i32 loc(#loc409)
    %qpos_hi_67 = arith.subi %cur_batch_query_len, %c1_i32 : i32 loc(#loc410)
    %qpos_hi_68 = arith.minsi %qpos_hi, %qpos_hi_67 : i32 loc(#loc411)
    %first_allowed_key = arith.addi %max_seq_prefix_len, %c-1023_i32 : i32 loc(#loc412)
    %last_allowed_key = arith.addi %context_len, %qpos_hi_68 : i32 loc(#loc413)
    %tile_start = arith.divsi %first_allowed_key, %c32_i32 : i32 loc(#loc414)
    %tile_start_69 = arith.maxsi %tile_start, %c0_i32 : i32 loc(#loc415)
    %tile_end = arith.divsi %last_allowed_key, %c32_i32 : i32 loc(#loc416)
    %tile_end_70 = arith.addi %tile_end, %c1_i32 : i32 loc(#loc417)
    %tile_end_71 = arith.minsi %tile_end_70, %num_tiles_66 : i32 loc(#loc418)
    %loop_lo = arith.maxsi %2, %tile_start_69 : i32 loc(#loc419)
    %loop_hi = arith.addi %segm_idx, %c1_i32 : i32 loc(#loc420)
    %loop_hi_72 = arith.muli %loop_hi, %tiles_per_segment_26 : i32 loc(#loc421)
    %loop_hi_73 = arith.minsi %loop_hi_72, %tile_end_71 : i32 loc(#loc422)
    %acc:3 = scf.for %j = %loop_lo to %loop_hi_73 step %c1_i32 iter_args(%M = %cst_2, %L = %cst_12, %acc_90 = %cst_13) -> (tensor<16xf32>, tensor<16xf32>, tensor<16x256xf32>)  : i32 {
      %seq_offset = arith.muli %j, %c32_i32 : i32 loc(#loc304)
      %seq_offset_91 = tt.splat %seq_offset : i32 -> tensor<32xi32> loc(#loc305)
      %seq_offset_92 = arith.addi %seq_offset_91, %offs_t : tensor<32xi32> loc(#loc305)
      %tile_mask = tt.splat %max_seq_prefix_len_65 : i32 -> tensor<32xi32> loc(#loc306)
      %tile_mask_93 = arith.cmpi slt, %seq_offset_92, %tile_mask : tensor<32xi32> loc(#loc306)
      %physical_block_idx = tt.addptr %block_tables_ptr, %block_table_offset_63 : !tt.ptr<i32>, i64 loc(#loc307)
      %physical_block_idx_94 = arith.divsi %seq_offset_92, %cst_11 : tensor<32xi32> loc(#loc308)
      %physical_block_idx_95 = tt.splat %physical_block_idx : !tt.ptr<i32> -> tensor<32x!tt.ptr<i32>> loc(#loc309)
      %physical_block_idx_96 = tt.addptr %physical_block_idx_95, %physical_block_idx_94 : tensor<32x!tt.ptr<i32>>, tensor<32xi32> loc(#loc309)
      %physical_block_idx_97 = tt.load %physical_block_idx_96 : tensor<32x!tt.ptr<i32>> loc(#loc310)
      %physical_block_idx_98 = arith.extsi %physical_block_idx_97 : tensor<32xi32> to tensor<32xi64> loc(#loc311)
      %v_offset = tt.expand_dims %physical_block_idx_98 {axis = 1 : i32} : tensor<32xi64> -> tensor<32x1xi64> loc(#loc312)
      %v_offset_99 = tt.splat %stride_v_cache_0 : i64 -> tensor<32x1xi64> loc(#loc313)
      %v_offset_100 = arith.muli %v_offset, %v_offset_99 : tensor<32x1xi64> loc(#loc313)
      %v_offset_101 = arith.extsi %kv_head_idx : i32 to i64 loc(#loc314)
      %v_offset_102 = arith.muli %v_offset_101, %stride_v_cache_2 : i64 loc(#loc314)
      %v_offset_103 = tt.splat %v_offset_102 : i64 -> tensor<32x1xi64> loc(#loc315)
      %v_offset_104 = arith.addi %v_offset_100, %v_offset_103 : tensor<32x1xi64> loc(#loc315)
      %v_offset_105 = tt.broadcast %v_offset_104 : tensor<32x1xi64> -> tensor<32x256xi64> loc(#loc316)
      %v_offset_106 = tt.broadcast %query_offset_42 : tensor<1x256xi64> -> tensor<32x256xi64> loc(#loc316)
      %v_offset_107 = arith.addi %v_offset_105, %v_offset_106 : tensor<32x256xi64> loc(#loc316)
      %v_offset_108 = arith.remsi %seq_offset_92, %cst_11 : tensor<32xi32> loc(#loc317)
      %v_offset_109 = tt.expand_dims %v_offset_108 {axis = 1 : i32} : tensor<32xi32> -> tensor<32x1xi32> loc(#loc318)
      %v_offset_110 = arith.extsi %v_offset_109 : tensor<32x1xi32> to tensor<32x1xi64> loc(#loc319)
      %v_offset_111 = tt.splat %stride_v_cache_1 : i64 -> tensor<32x1xi64> loc(#loc319)
      %v_offset_112 = arith.muli %v_offset_110, %v_offset_111 : tensor<32x1xi64> loc(#loc319)
      %v_offset_113 = tt.broadcast %v_offset_112 : tensor<32x1xi64> -> tensor<32x256xi64> loc(#loc320)
      %v_offset_114 = arith.addi %v_offset_107, %v_offset_113 : tensor<32x256xi64> loc(#loc320)
      %k_offset = tt.expand_dims %physical_block_idx_98 {axis = 0 : i32} : tensor<32xi64> -> tensor<1x32xi64> loc(#loc321)
      %k_offset_115 = tt.splat %stride_k_cache_0 : i64 -> tensor<1x32xi64> loc(#loc322)
      %k_offset_116 = arith.muli %k_offset, %k_offset_115 : tensor<1x32xi64> loc(#loc322)
      %k_offset_117 = arith.muli %v_offset_101, %stride_k_cache_2 : i64 loc(#loc323)
      %k_offset_118 = tt.splat %k_offset_117 : i64 -> tensor<1x32xi64> loc(#loc324)
      %k_offset_119 = arith.addi %k_offset_116, %k_offset_118 : tensor<1x32xi64> loc(#loc324)
      %k_offset_120 = tt.expand_dims %offs_d {axis = 1 : i32} : tensor<256xi32> -> tensor<256x1xi32> loc(#loc325)
      %k_offset_121 = arith.extsi %k_offset_120 : tensor<256x1xi32> to tensor<256x1xi64> loc(#loc326)
      %k_offset_122 = tt.broadcast %k_offset_119 : tensor<1x32xi64> -> tensor<256x32xi64> loc(#loc326)
      %k_offset_123 = tt.broadcast %k_offset_121 : tensor<256x1xi64> -> tensor<256x32xi64> loc(#loc326)
      %k_offset_124 = arith.addi %k_offset_122, %k_offset_123 : tensor<256x32xi64> loc(#loc326)
      %k_offset_125 = tt.expand_dims %v_offset_108 {axis = 0 : i32} : tensor<32xi32> -> tensor<1x32xi32> loc(#loc327)
      %k_offset_126 = arith.extsi %k_offset_125 : tensor<1x32xi32> to tensor<1x32xi64> loc(#loc328)
      %k_offset_127 = tt.splat %stride_k_cache_1 : i64 -> tensor<1x32xi64> loc(#loc328)
      %k_offset_128 = arith.muli %k_offset_126, %k_offset_127 : tensor<1x32xi64> loc(#loc328)
      %k_offset_129 = tt.broadcast %k_offset_128 : tensor<1x32xi64> -> tensor<256x32xi64> loc(#loc329)
      %k_offset_130 = arith.addi %k_offset_124, %k_offset_129 : tensor<256x32xi64> loc(#loc329)
      %K_load = tt.expand_dims %dim_mask_47 {axis = 1 : i32} : tensor<256xi1> -> tensor<256x1xi1> loc(#loc330)
      %K_load_131 = tt.expand_dims %tile_mask_93 {axis = 0 : i32} : tensor<32xi1> -> tensor<1x32xi1> loc(#loc331)
      %K_load_132 = tt.broadcast %K_load : tensor<256x1xi1> -> tensor<256x32xi1> loc(#loc332)
      %K_load_133 = tt.broadcast %K_load_131 : tensor<1x32xi1> -> tensor<256x32xi1> loc(#loc332)
      %K_load_134 = arith.andi %K_load_132, %K_load_133 : tensor<256x32xi1> loc(#loc332)
      %K_load_135 = tt.splat %key_cache_ptr : !tt.ptr<bf16> -> tensor<256x32x!tt.ptr<bf16>> loc(#loc333)
      %K_load_136 = tt.addptr %K_load_135, %k_offset_130 : tensor<256x32x!tt.ptr<bf16>>, tensor<256x32xi64> loc(#loc333)
      %K_load_137 = tt.load %K_load_136, %K_load_134, %cst_3 : tensor<256x32x!tt.ptr<bf16>> loc(#loc334)
      %V_load = tt.expand_dims %tile_mask_93 {axis = 1 : i32} : tensor<32xi1> -> tensor<32x1xi1> loc(#loc335)
      %V_load_138 = tt.broadcast %Q : tensor<1x256xi1> -> tensor<32x256xi1> loc(#loc336)
      %V_load_139 = tt.broadcast %V_load : tensor<32x1xi1> -> tensor<32x256xi1> loc(#loc336)
      %V_load_140 = arith.andi %V_load_138, %V_load_139 : tensor<32x256xi1> loc(#loc336)
      %V_load_141 = tt.splat %value_cache_ptr : !tt.ptr<bf16> -> tensor<32x256x!tt.ptr<bf16>> loc(#loc337)
      %V_load_142 = tt.addptr %V_load_141, %v_offset_114 : tensor<32x256x!tt.ptr<bf16>>, tensor<32x256xi64> loc(#loc337)
      %V_load_143 = tt.load %V_load_142, %V_load_140, %cst_7 : tensor<32x256x!tt.ptr<bf16>> loc(#loc338)
      %query_abs_pos = tt.expand_dims %query_pos_28 {axis = 1 : i32} : tensor<16xi32> -> tensor<16x1xi32> loc(#loc339)
      %query_abs_pos_144 = tt.splat %context_len : i32 -> tensor<16x1xi32> loc(#loc340)
      %query_abs_pos_145 = arith.addi %query_abs_pos_144, %query_abs_pos : tensor<16x1xi32> loc(#loc340)
      %seq_mask = tt.expand_dims %seq_offset_92 {axis = 0 : i32} : tensor<32xi32> -> tensor<1x32xi32> loc(#loc424)
      %seq_mask_146 = tt.broadcast %seq_mask : tensor<1x32xi32> -> tensor<16x32xi32> loc(#loc425)
      %seq_mask_147 = tt.broadcast %query_abs_pos_145 : tensor<16x1xi32> -> tensor<16x32xi32> loc(#loc425)
      %seq_mask_148 = arith.cmpi sle, %seq_mask_146, %seq_mask_147 : tensor<16x32xi32> loc(#loc425)
      %seq_mask_149 = arith.subi %seq_mask_147, %seq_mask_146 : tensor<16x32xi32> loc(#loc426)
      %seq_mask_150 = arith.cmpi slt, %seq_mask_149, %cst_1 : tensor<16x32xi32> loc(#loc427)
      %seq_mask_151 = arith.andi %seq_mask_148, %seq_mask_150 : tensor<16x32xi1> loc(#loc428)
      %S = tt.dot %Q_62, %K_load_137, %cst_10, inputPrecision = tf32 : tensor<16x256xbf16> * tensor<256x32xbf16> -> tensor<16x32xf32> loc(#loc347)
      %S_152 = tt.splat %scale : f32 -> tensor<16x32xf32> loc(#loc348)
      %S_153 = arith.mulf %S_152, %S : tensor<16x32xf32> loc(#loc348)
      %S_154 = arith.addf %S_153, %cst_10 : tensor<16x32xf32> loc(#loc349)
      %S_155 = arith.andi %Q_57, %Q_53 : tensor<16x1xi1> loc(#loc350)
      %S_156 = tt.broadcast %S_155 : tensor<16x1xi1> -> tensor<16x32xi1> loc(#loc351)
      %S_157 = arith.andi %S_156, %seq_mask_151 : tensor<16x32xi1> loc(#loc351)
      %S_158 = arith.select %S_157, %S_154, %cst_9 : tensor<16x32xi1>, tensor<16x32xf32> loc(#loc352)
      %m_j = "tt.reduce"(%S_158) <{axis = 1 : i32}> ({
      ^bb0(%m_j_177: f32 loc(callsite(#loc1 at #loc429)), %m_j_178: f32 loc(callsite(#loc1 at #loc429))):
        %m_j_179 = arith.maxnumf %m_j_177, %m_j_178 : f32 loc(#loc468)
        tt.reduce.return %m_j_179 : f32 loc(#loc464)
      }) : (tensor<16x32xf32>) -> tensor<16xf32> loc(#loc464)
      %m_j_159 = arith.maxnumf %M, %m_j : tensor<16xf32> loc(#loc430)
      %m_j_160 = arith.cmpf ogt, %m_j_159, %cst_2 : tensor<16xf32> loc(#loc431)
      %m_j_161 = arith.select %m_j_160, %m_j_159, %cst_0 : tensor<16xi1>, tensor<16xf32> loc(#loc432)
      %P = tt.expand_dims %m_j_161 {axis = 1 : i32} : tensor<16xf32> -> tensor<16x1xf32> loc(#loc433)
      %P_162 = tt.broadcast %P : tensor<16x1xf32> -> tensor<16x32xf32> loc(#loc434)
      %P_163 = arith.subf %S_158, %P_162 : tensor<16x32xf32> loc(#loc434)
      %P_164 = math.exp %P_163 : tensor<16x32xf32> loc(#loc435)
      %l_j = "tt.reduce"(%P_164) <{axis = 1 : i32}> ({
      ^bb0(%l_j_177: f32 loc(callsite(#loc1 at #loc436)), %l_j_178: f32 loc(callsite(#loc1 at #loc436))):
        %l_j_179 = arith.addf %l_j_177, %l_j_178 : f32 loc(#loc469)
        tt.reduce.return %l_j_179 : f32 loc(#loc466)
      }) : (tensor<16x32xf32>) -> tensor<16xf32> loc(#loc466)
      %alpha = arith.subf %M, %m_j_161 : tensor<16xf32> loc(#loc437)
      %alpha_165 = math.exp %alpha : tensor<16xf32> loc(#loc438)
      %L_new = arith.mulf %L, %alpha_165 : tensor<16xf32> loc(#loc439)
      %L_new_166 = arith.addf %L_new, %l_j : tensor<16xf32> loc(#loc440)
      %acc_167 = tt.expand_dims %alpha_165 {axis = 1 : i32} : tensor<16xf32> -> tensor<16x1xf32> loc(#loc365)
      %acc_168 = tt.broadcast %acc_167 : tensor<16x1xf32> -> tensor<16x256xf32> loc(#loc366)
      %acc_169 = arith.mulf %acc_90, %acc_168 : tensor<16x256xf32> loc(#loc366)
      %V = tt.expand_dims %seq_offset_92 {axis = 1 : i32} : tensor<32xi32> -> tensor<32x1xi32> loc(#loc367)
      %V_170 = tt.splat %max_seq_prefix_len : i32 -> tensor<32x1xi32> loc(#loc368)
      %V_171 = arith.subi %V_170, %V : tensor<32x1xi32> loc(#loc368)
      %V_172 = arith.cmpi slt, %V_171, %cst_8 : tensor<32x1xi32> loc(#loc369)
      %V_173 = tt.broadcast %V_172 : tensor<32x1xi1> -> tensor<32x256xi1> loc(#loc370)
      %V_174 = arith.select %V_173, %V_load_143, %cst_7 : tensor<32x256xi1>, tensor<32x256xbf16> loc(#loc370)
      %acc_175 = arith.truncf %P_164 : tensor<16x32xf32> to tensor<16x32xbf16> loc(#loc371)
      %acc_176 = tt.dot %acc_175, %V_174, %acc_169, inputPrecision = tf32 : tensor<16x32xbf16> * tensor<32x256xbf16> -> tensor<16x256xf32> loc(#loc372)
      scf.yield %m_j_161, %L_new_166, %acc_176 : tensor<16xf32>, tensor<16xf32>, tensor<16x256xf32> loc(#loc169)
    } loc(#loc463)
    %segm_output_offset = arith.muli %query_offset_33, %cst_6 : tensor<16x1xi64> loc(#loc373)
    %segm_output_offset_74 = arith.muli %query_offset_36, %cst_5 : tensor<16x1xi32> loc(#loc374)
    %segm_output_offset_75 = arith.extsi %segm_output_offset_74 : tensor<16x1xi32> to tensor<16x1xi64> loc(#loc375)
    %segm_output_offset_76 = arith.addi %segm_output_offset, %segm_output_offset_75 : tensor<16x1xi64> loc(#loc375)
    %segm_output_offset_77 = arith.muli %segm_idx, %c256_i32 : i32 loc(#loc376)
    %segm_output_offset_78 = arith.extsi %segm_output_offset_77 : i32 to i64 loc(#loc377)
    %segm_output_offset_79 = tt.splat %segm_output_offset_78 : i64 -> tensor<16x1xi64> loc(#loc377)
    %segm_output_offset_80 = arith.addi %segm_output_offset_76, %segm_output_offset_79 : tensor<16x1xi64> loc(#loc377)
    %segm_output_offset_81 = tt.broadcast %segm_output_offset_80 : tensor<16x1xi64> -> tensor<16x256xi64> loc(#loc378)
    %segm_output_offset_82 = arith.addi %segm_output_offset_81, %query_offset_44 : tensor<16x256xi64> loc(#loc378)
    %5 = tt.splat %segm_output_ptr : !tt.ptr<f32> -> tensor<16x256x!tt.ptr<f32>> loc(#loc176)
    %6 = tt.addptr %5, %segm_output_offset_82 : tensor<16x256x!tt.ptr<f32>>, tensor<16x256xi64> loc(#loc176)
    tt.store %6, %acc#2, %Q_59 : tensor<16x256x!tt.ptr<f32>> loc(#loc177)
    %segm_offset = arith.extsi %query_offset_0_29 : tensor<16xi32> to tensor<16xi64> loc(#loc441)
    %segm_offset_83 = arith.muli %segm_offset, %cst : tensor<16xi64> loc(#loc442)
    %segm_offset_84 = arith.muli %query_offset_1_32, %cst_14 : tensor<16xi32> loc(#loc443)
    %segm_offset_85 = arith.extsi %segm_offset_84 : tensor<16xi32> to tensor<16xi64> loc(#loc444)
    %segm_offset_86 = arith.addi %segm_offset_83, %segm_offset_85 : tensor<16xi64> loc(#loc444)
    %segm_offset_87 = arith.extsi %segm_idx : i32 to i64 loc(#loc445)
    %segm_offset_88 = tt.splat %segm_offset_87 : i64 -> tensor<16xi64> loc(#loc445)
    %segm_offset_89 = arith.addi %segm_offset_86, %segm_offset_88 : tensor<16xi64> loc(#loc445)
    %7 = arith.andi %query_mask_0_50, %query_mask_1_52 : tensor<16xi1> loc(#loc384)
    %8 = tt.splat %segm_max_ptr : !tt.ptr<f32> -> tensor<16x!tt.ptr<f32>> loc(#loc385)
    %9 = tt.addptr %8, %segm_offset_89 : tensor<16x!tt.ptr<f32>>, tensor<16xi64> loc(#loc385)
    tt.store %9, %acc#0, %7 : tensor<16x!tt.ptr<f32>> loc(#loc386)
    %10 = tt.splat %segm_expsum_ptr : !tt.ptr<f32> -> tensor<16x!tt.ptr<f32>> loc(#loc387)
    %11 = tt.addptr %10, %segm_offset_89 : tensor<16x!tt.ptr<f32>>, tensor<16xi64> loc(#loc387)
    tt.store %11, %acc#1, %7 : tensor<16x!tt.ptr<f32>> loc(#loc388)
    tt.return loc(#loc189)
  } loc(#loc)
} loc(#loc)
#loc2 = loc("/home/ericbuehler/vllm/.venv-bench/lib/python3.12/site-packages/vllm/v1/attention/ops/triton_unified_attention.py":146:39)
#loc3 = loc("/home/ericbuehler/vllm/.venv-bench/lib/python3.12/site-packages/vllm/v1/attention/ops/triton_unified_attention.py":147:32)
#loc4 = loc("/home/ericbuehler/vllm/.venv-bench/lib/python3.12/site-packages/vllm/v1/attention/ops/triton_unified_attention.py":148:29)
#loc5 = loc("/home/ericbuehler/vllm/.venv-bench/lib/python3.12/site-packages/vllm/v1/attention/ops/triton_attention_helpers.py":96:4)
#loc8 = loc("/home/ericbuehler/vllm/.venv-bench/lib/python3.12/site-packages/vllm/v1/attention/ops/triton_attention_helpers.py":96:17)
#loc11 = loc("/home/ericbuehler/vllm/.venv-bench/lib/python3.12/site-packages/vllm/v1/attention/ops/triton_attention_helpers.py":97:22)
#loc12 = loc("/home/ericbuehler/vllm/.venv-bench/lib/python3.12/site-packages/vllm/v1/attention/ops/triton_attention_helpers.py":97:32)
#loc13 = loc("/home/ericbuehler/vllm/.venv-bench/lib/python3.12/site-packages/vllm/v1/attention/ops/triton_attention_helpers.py":98:44)
#loc14 = loc("/home/ericbuehler/vllm/.venv-bench/lib/python3.12/site-packages/vllm/v1/attention/ops/triton_attention_helpers.py":98:22)
#loc15 = loc("/home/ericbuehler/vllm/.venv-bench/lib/python3.12/site-packages/vllm/v1/attention/ops/triton_attention_helpers.py":99:25)
#loc16 = loc("/home/ericbuehler/vllm/.venv-bench/lib/python3.12/site-packages/vllm/v1/attention/ops/triton_attention_helpers.py":99:35)
#loc17 = loc("/home/ericbuehler/vllm/.venv-bench/lib/python3.12/site-packages/vllm/v1/attention/ops/triton_attention_helpers.py":101:22)
#loc18 = loc("/home/ericbuehler/vllm/.venv-bench/lib/python3.12/site-packages/vllm/v1/attention/ops/triton_attention_helpers.py":101:11)
#loc19 = loc("/home/ericbuehler/vllm/.venv-bench/lib/python3.12/site-packages/vllm/v1/attention/ops/triton_attention_helpers.py":102:25)
#loc20 = loc("/home/ericbuehler/vllm/.venv-bench/lib/python3.12/site-packages/vllm/v1/attention/ops/triton_attention_helpers.py":101:8)
#loc21 = loc("/home/ericbuehler/vllm/.venv-bench/lib/python3.12/site-packages/vllm/v1/attention/ops/triton_attention_helpers.py":106:18)
#loc22 = loc("/home/ericbuehler/vllm/.venv-bench/lib/python3.12/site-packages/vllm/v1/attention/ops/triton_attention_helpers.py":69:54)
#loc23 = loc("/home/ericbuehler/vllm/.venv-bench/lib/python3.12/site-packages/vllm/v1/attention/ops/triton_attention_helpers.py":69:32)
#loc24 = loc("/home/ericbuehler/vllm/.venv-bench/lib/python3.12/site-packages/vllm/v1/attention/ops/triton_attention_helpers.py":69:66)
#loc25 = loc("/home/ericbuehler/vllm/.venv-bench/lib/python3.12/site-packages/vllm/v1/attention/ops/triton_attention_helpers.py":69:76)
#loc26 = loc("/home/ericbuehler/vllm/.venv-bench/lib/python3.12/site-packages/vllm/v1/attention/ops/triton_attention_helpers.py":70:45)
#loc27 = loc("/home/ericbuehler/vllm/.venv-bench/lib/python3.12/site-packages/vllm/v1/attention/ops/triton_attention_helpers.py":72:55)
#loc28 = loc("/home/ericbuehler/vllm/.venv-bench/lib/python3.12/site-packages/vllm/v1/attention/ops/triton_attention_helpers.py":72:23)
#loc29 = loc("/home/ericbuehler/vllm/.venv-bench/lib/python3.12/site-packages/vllm/v1/attention/ops/triton_attention_helpers.py":73:37)
#loc30 = loc("/home/ericbuehler/vllm/.venv-bench/lib/python3.12/site-packages/vllm/v1/attention/ops/triton_attention_helpers.py":74:37)
#loc31 = loc("/home/ericbuehler/vllm/.venv-bench/lib/python3.12/site-packages/vllm/v1/attention/ops/triton_attention_helpers.py":74:22)
#loc32 = loc("/home/ericbuehler/vllm/.venv-bench/lib/python3.12/site-packages/vllm/v1/attention/ops/triton_unified_attention.py":160:27)
#loc33 = loc("/home/ericbuehler/vllm/.venv-bench/lib/python3.12/site-packages/vllm/v1/attention/ops/triton_unified_attention.py":160:38)
#loc34 = loc("/home/ericbuehler/vllm/.venv-bench/lib/python3.12/site-packages/vllm/v1/attention/ops/triton_unified_attention.py":161:8)
#loc35 = loc("/home/ericbuehler/vllm/.venv-bench/lib/python3.12/site-packages/vllm/v1/attention/ops/triton_attention_helpers.py":24:20)
#loc36 = loc("/home/ericbuehler/vllm/.venv-bench/lib/python3.12/site-packages/vllm/v1/attention/ops/triton_unified_attention.py":164:45)
#loc37 = loc("/home/ericbuehler/vllm/.venv-bench/lib/python3.12/site-packages/vllm/v1/attention/ops/triton_attention_helpers.py":24:26)
#loc38 = loc("/home/ericbuehler/vllm/.venv-bench/lib/python3.12/site-packages/vllm/v1/attention/ops/triton_unified_attention.py":165:22)
#loc39 = loc("/home/ericbuehler/vllm/.venv-bench/lib/python3.12/site-packages/vllm/v1/attention/ops/triton_unified_attention.py":165:42)
#loc40 = loc("/home/ericbuehler/vllm/.venv-bench/lib/python3.12/site-packages/vllm/v1/attention/ops/triton_unified_attention.py":165:55)
#loc41 = loc("/home/ericbuehler/vllm/.venv-bench/lib/python3.12/site-packages/vllm/v1/attention/ops/triton_unified_attention.py":170:26)
#loc42 = loc("/home/ericbuehler/vllm/.venv-bench/lib/python3.12/site-packages/vllm/v1/attention/ops/triton_unified_attention.py":171:26)
#loc43 = loc("/home/ericbuehler/vllm/.venv-bench/lib/python3.12/site-packages/vllm/v1/attention/ops/triton_unified_attention.py":172:26)
#loc44 = loc("/home/ericbuehler/vllm/.venv-bench/lib/python3.12/site-packages/vllm/v1/attention/ops/triton_unified_attention.py":173:56)
#loc45 = loc("/home/ericbuehler/vllm/.venv-bench/lib/python3.12/site-packages/vllm/v1/attention/ops/triton_unified_attention.py":173:46)
#loc46 = loc("/home/ericbuehler/vllm/.venv-bench/lib/python3.12/site-packages/vllm/v1/attention/ops/triton_unified_attention.py":175:52)
#loc47 = loc("/home/ericbuehler/vllm/.venv-bench/lib/python3.12/site-packages/vllm/v1/attention/ops/triton_unified_attention.py":176:35)
#loc48 = loc("/home/ericbuehler/vllm/.venv-bench/lib/python3.12/site-packages/vllm/v1/attention/ops/triton_unified_attention.py":176:65)
#loc49 = loc("/home/ericbuehler/vllm/.venv-bench/lib/python3.12/site-packages/vllm/v1/attention/ops/triton_unified_attention.py":176:56)
#loc50 = loc("/home/ericbuehler/vllm/.venv-bench/lib/python3.12/site-packages/vllm/v1/attention/ops/triton_unified_attention.py":178:23)
#loc51 = loc("/home/ericbuehler/vllm/.venv-bench/lib/python3.12/site-packages/vllm/v1/attention/ops/triton_unified_attention.py":178:34)
#loc52 = loc("/home/ericbuehler/vllm/.venv-bench/lib/python3.12/site-packages/vllm/v1/attention/ops/triton_unified_attention.py":179:25)
#loc53 = loc("/home/ericbuehler/vllm/.venv-bench/lib/python3.12/site-packages/vllm/v1/attention/ops/triton_unified_attention.py":179:36)
#loc54 = loc("/home/ericbuehler/vllm/.venv-bench/lib/python3.12/site-packages/vllm/v1/attention/ops/triton_unified_attention.py":179:10)
#loc55 = loc("/home/ericbuehler/vllm/.venv-bench/lib/python3.12/site-packages/vllm/v1/attention/ops/triton_unified_attention.py":180:17)
#loc56 = loc("/home/ericbuehler/vllm/.venv-bench/lib/python3.12/site-packages/vllm/v1/attention/ops/triton_unified_attention.py":180:10)
#loc57 = loc("/home/ericbuehler/vllm/.venv-bench/lib/python3.12/site-packages/vllm/v1/attention/ops/triton_unified_attention.py":183:33)
#loc58 = loc("/home/ericbuehler/vllm/.venv-bench/lib/python3.12/site-packages/vllm/v1/attention/ops/triton_unified_attention.py":183:47)
#loc59 = loc("/home/ericbuehler/vllm/.venv-bench/lib/python3.12/site-packages/vllm/v1/attention/ops/triton_unified_attention.py":183:53)
#loc60 = loc("/home/ericbuehler/vllm/.venv-bench/lib/python3.12/site-packages/vllm/v1/attention/ops/triton_unified_attention.py":184:40)
#loc61 = loc("/home/ericbuehler/vllm/.venv-bench/lib/python3.12/site-packages/vllm/v1/attention/ops/triton_unified_attention.py":184:64)
#loc62 = loc("/home/ericbuehler/vllm/.venv-bench/lib/python3.12/site-packages/vllm/v1/attention/ops/triton_unified_attention.py":184:70)
#loc63 = loc("/home/ericbuehler/vllm/.venv-bench/lib/python3.12/site-packages/vllm/v1/attention/ops/triton_unified_attention.py":185:45)
#loc64 = loc("/home/ericbuehler/vllm/.venv-bench/lib/python3.12/site-packages/vllm/v1/attention/ops/triton_unified_attention.py":185:65)
#loc65 = loc("/home/ericbuehler/vllm/.venv-bench/lib/python3.12/site-packages/vllm/v1/attention/ops/triton_unified_attention.py":185:71)
#loc66 = loc("/home/ericbuehler/vllm/.venv-bench/lib/python3.12/site-packages/vllm/v1/attention/ops/triton_unified_attention.py":190:22)
#loc67 = loc("/home/ericbuehler/vllm/.venv-bench/lib/python3.12/site-packages/vllm/v1/attention/ops/triton_unified_attention.py":190:46)
#loc68 = loc("/home/ericbuehler/vllm/.venv-bench/lib/python3.12/site-packages/vllm/v1/attention/ops/triton_unified_attention.py":190:33)
#loc69 = loc("/home/ericbuehler/vllm/.venv-bench/lib/python3.12/site-packages/vllm/v1/attention/ops/triton_unified_attention.py":190:70)
#loc70 = loc("/home/ericbuehler/vllm/.venv-bench/lib/python3.12/site-packages/vllm/v1/attention/ops/triton_unified_attention.py":190:57)
#loc71 = loc("/home/ericbuehler/vllm/.venv-bench/lib/python3.12/site-packages/vllm/v1/attention/ops/triton_unified_attention.py":189:20)
#loc72 = loc("/home/ericbuehler/vllm/.venv-bench/lib/python3.12/site-packages/vllm/v1/attention/ops/triton_unified_attention.py":189:8)
#loc73 = loc("/home/ericbuehler/vllm/.venv-bench/lib/python3.12/site-packages/vllm/v1/attention/ops/triton_unified_attention.py":194:35)
#loc74 = loc("/home/ericbuehler/vllm/.venv-bench/lib/python3.12/site-packages/vllm/v1/attention/ops/triton_unified_attention.py":203:28)
#loc75 = loc("/home/ericbuehler/vllm/.venv-bench/lib/python3.12/site-packages/vllm/v1/attention/ops/triton_attention_helpers.py":178:10)
#loc76 = loc("/home/ericbuehler/vllm/.venv-bench/lib/python3.12/site-packages/vllm/v1/attention/ops/triton_unified_attention.py":228:8)
#loc77 = loc("/home/ericbuehler/vllm/.venv-bench/lib/python3.12/site-packages/vllm/v1/attention/ops/triton_attention_helpers.py":180:10)
#loc78 = loc("/home/ericbuehler/vllm/.venv-bench/lib/python3.12/site-packages/vllm/v1/attention/ops/triton_attention_helpers.py":187:60)
#loc79 = loc("/home/ericbuehler/vllm/.venv-bench/lib/python3.12/site-packages/vllm/v1/attention/ops/triton_attention_helpers.py":189:44)
#loc80 = loc("/home/ericbuehler/vllm/.venv-bench/lib/python3.12/site-packages/vllm/v1/attention/ops/triton_attention_helpers.py":200:22)
#loc81 = loc("/home/ericbuehler/vllm/.venv-bench/lib/python3.12/site-packages/vllm/v1/attention/ops/triton_attention_helpers.py":201:34)
#loc82 = loc("/home/ericbuehler/vllm/.venv-bench/lib/python3.12/site-packages/vllm/v1/attention/ops/triton_attention_helpers.py":201:12)
#loc83 = loc("/home/ericbuehler/vllm/.venv-bench/lib/python3.12/site-packages/vllm/v1/attention/ops/triton_attention_helpers.py":214:57)
#loc84 = loc("/home/ericbuehler/vllm/.venv-bench/lib/python3.12/site-packages/vllm/v1/attention/ops/triton_attention_helpers.py":215:41)
#loc85 = loc("/home/ericbuehler/vllm/.venv-bench/lib/python3.12/site-packages/vllm/v1/attention/ops/triton_attention_helpers.py":217:56)
#loc86 = loc("/home/ericbuehler/vllm/.venv-bench/lib/python3.12/site-packages/vllm/v1/attention/ops/triton_attention_helpers.py":217:35)
#loc87 = loc("/home/ericbuehler/vllm/.venv-bench/lib/python3.12/site-packages/vllm/v1/attention/ops/triton_attention_helpers.py":218:51)
#loc88 = loc("/home/ericbuehler/vllm/.venv-bench/lib/python3.12/site-packages/vllm/v1/attention/ops/triton_attention_helpers.py":218:64)
#loc89 = loc("/home/ericbuehler/vllm/.venv-bench/lib/python3.12/site-packages/vllm/v1/attention/ops/triton_attention_helpers.py":218:67)
#loc90 = loc("/home/ericbuehler/vllm/.venv-bench/lib/python3.12/site-packages/vllm/v1/attention/ops/triton_attention_helpers.py":221:62)
#loc91 = loc("/home/ericbuehler/vllm/.venv-bench/lib/python3.12/site-packages/vllm/v1/attention/ops/triton_attention_helpers.py":222:39)
#loc92 = loc("/home/ericbuehler/vllm/.venv-bench/lib/python3.12/site-packages/vllm/v1/attention/ops/triton_attention_helpers.py":222:44)
#loc93 = loc("/home/ericbuehler/vllm/.venv-bench/lib/python3.12/site-packages/vllm/v1/attention/ops/triton_attention_helpers.py":222:68)
#loc94 = loc("/home/ericbuehler/vllm/.venv-bench/lib/python3.12/site-packages/vllm/v1/attention/ops/triton_unified_attention.py":232:28)
#loc95 = loc("/home/ericbuehler/vllm/.venv-bench/lib/python3.12/site-packages/vllm/v1/attention/ops/triton_unified_attention.py":233:25)
#loc96 = loc("/home/ericbuehler/vllm/.venv-bench/lib/python3.12/site-packages/vllm/v1/attention/ops/triton_unified_attention.py":233:37)
#loc97 = loc("/home/ericbuehler/vllm/.venv-bench/lib/python3.12/site-packages/vllm/v1/attention/ops/triton_unified_attention.py":234:33)
#loc98 = loc("/home/ericbuehler/vllm/.venv-bench/lib/python3.12/site-packages/vllm/v1/attention/ops/triton_unified_attention.py":237:31)
#loc99 = loc("/home/ericbuehler/vllm/.venv-bench/lib/python3.12/site-packages/vllm/v1/attention/ops/triton_unified_attention.py":237:66)
#loc100 = loc("/home/ericbuehler/vllm/.venv-bench/lib/python3.12/site-packages/vllm/v1/attention/ops/triton_unified_attention.py":237:52)
#loc101 = loc("/home/ericbuehler/vllm/.venv-bench/lib/python3.12/site-packages/vllm/v1/attention/ops/triton_unified_attention.py":237:12)
#loc102 = loc("/home/ericbuehler/vllm/.venv-bench/lib/python3.12/site-packages/vllm/v1/attention/ops/triton_unified_attention.py":238:13)
#loc103 = loc("/home/ericbuehler/vllm/.venv-bench/lib/python3.12/site-packages/vllm/v1/attention/ops/triton_unified_attention.py":241:31)
#loc104 = loc("/home/ericbuehler/vllm/.venv-bench/lib/python3.12/site-packages/vllm/v1/attention/ops/triton_unified_attention.py":241:42)
#loc105 = loc("/home/ericbuehler/vllm/.venv-bench/lib/python3.12/site-packages/vllm/v1/attention/ops/triton_unified_attention.py":242:28)
#loc106 = loc("/home/ericbuehler/vllm/.venv-bench/lib/python3.12/site-packages/vllm/v1/attention/ops/triton_unified_attention.py":242:14)
#loc107 = loc("/home/ericbuehler/vllm/.venv-bench/lib/python3.12/site-packages/vllm/v1/attention/ops/triton_unified_attention.py":243:14)
#loc108 = loc("/home/ericbuehler/vllm/.venv-bench/lib/python3.12/site-packages/vllm/v1/attention/ops/triton_unified_attention.py":244:28)
#loc109 = loc("/home/ericbuehler/vllm/.venv-bench/lib/python3.12/site-packages/vllm/v1/attention/ops/triton_unified_attention.py":244:40)
#loc110 = loc("/home/ericbuehler/vllm/.venv-bench/lib/python3.12/site-packages/vllm/v1/attention/ops/triton_unified_attention.py":244:51)
#loc111 = loc("/home/ericbuehler/vllm/.venv-bench/lib/python3.12/site-packages/vllm/v1/attention/ops/triton_unified_attention.py":244:14)
#loc112 = loc("/home/ericbuehler/vllm/.venv-bench/lib/python3.12/site-packages/vllm/v1/attention/ops/triton_unified_attention.py":247:31)
#loc113 = loc("/home/ericbuehler/vllm/.venv-bench/lib/python3.12/site-packages/vllm/v1/attention/ops/triton_unified_attention.py":247:42)
#loc114 = loc("/home/ericbuehler/vllm/.venv-bench/lib/python3.12/site-packages/vllm/v1/attention/ops/triton_unified_attention.py":248:28)
#loc115 = loc("/home/ericbuehler/vllm/.venv-bench/lib/python3.12/site-packages/vllm/v1/attention/ops/triton_unified_attention.py":248:14)
#loc116 = loc("/home/ericbuehler/vllm/.venv-bench/lib/python3.12/site-packages/vllm/v1/attention/ops/triton_unified_attention.py":249:21)
#loc117 = loc("/home/ericbuehler/vllm/.venv-bench/lib/python3.12/site-packages/vllm/v1/attention/ops/triton_unified_attention.py":249:14)
#loc118 = loc("/home/ericbuehler/vllm/.venv-bench/lib/python3.12/site-packages/vllm/v1/attention/ops/triton_unified_attention.py":250:40)
#loc119 = loc("/home/ericbuehler/vllm/.venv-bench/lib/python3.12/site-packages/vllm/v1/attention/ops/triton_unified_attention.py":250:51)
#loc120 = loc("/home/ericbuehler/vllm/.venv-bench/lib/python3.12/site-packages/vllm/v1/attention/ops/triton_unified_attention.py":250:14)
#loc121 = loc("/home/ericbuehler/vllm/.venv-bench/lib/python3.12/site-packages/vllm/v1/attention/ops/triton_unified_attention.py":255:26)
#loc122 = loc("/home/ericbuehler/vllm/.venv-bench/lib/python3.12/site-packages/vllm/v1/attention/ops/triton_unified_attention.py":255:47)
#loc123 = loc("/home/ericbuehler/vllm/.venv-bench/lib/python3.12/site-packages/vllm/v1/attention/ops/triton_unified_attention.py":255:37)
#loc124 = loc("/home/ericbuehler/vllm/.venv-bench/lib/python3.12/site-packages/vllm/v1/attention/ops/triton_unified_attention.py":254:28)
#loc125 = loc("/home/ericbuehler/vllm/.venv-bench/lib/python3.12/site-packages/vllm/v1/attention/ops/triton_unified_attention.py":254:12)
#loc126 = loc("/home/ericbuehler/vllm/.venv-bench/lib/python3.12/site-packages/vllm/v1/attention/ops/triton_unified_attention.py":262:47)
#loc127 = loc("/home/ericbuehler/vllm/.venv-bench/lib/python3.12/site-packages/vllm/v1/attention/ops/triton_unified_attention.py":262:37)
#loc128 = loc("/home/ericbuehler/vllm/.venv-bench/lib/python3.12/site-packages/vllm/v1/attention/ops/triton_unified_attention.py":261:30)
#loc129 = loc("/home/ericbuehler/vllm/.venv-bench/lib/python3.12/site-packages/vllm/v1/attention/ops/triton_unified_attention.py":261:12)
#loc130 = loc("/home/ericbuehler/vllm/.venv-bench/lib/python3.12/site-packages/vllm/v1/attention/ops/triton_unified_attention.py":286:48)
#loc131 = loc("/home/ericbuehler/vllm/.venv-bench/lib/python3.12/site-packages/vllm/v1/attention/ops/triton_unified_attention.py":286:38)
#loc132 = loc("/home/ericbuehler/vllm/.venv-bench/lib/python3.12/site-packages/vllm/v1/attention/ops/triton_attention_helpers.py":284:26)
#loc133 = loc("/home/ericbuehler/vllm/.venv-bench/lib/python3.12/site-packages/vllm/v1/attention/ops/triton_unified_attention.py":296:12)
#loc134 = loc("/home/ericbuehler/vllm/.venv-bench/lib/python3.12/site-packages/vllm/v1/attention/ops/triton_attention_helpers.py":284:38)
#loc135 = loc("/home/ericbuehler/vllm/.venv-bench/lib/python3.12/site-packages/vllm/v1/attention/ops/triton_attention_helpers.py":296:48)
#loc136 = loc("/home/ericbuehler/vllm/.venv-bench/lib/python3.12/site-packages/vllm/v1/attention/ops/triton_attention_helpers.py":296:62)
#loc137 = loc("/home/ericbuehler/vllm/.venv-bench/lib/python3.12/site-packages/vllm/v1/attention/ops/triton_attention_helpers.py":296:31)
#loc138 = loc("/home/ericbuehler/vllm/.venv-bench/lib/python3.12/site-packages/vllm/v1/attention/ops/triton_unified_attention.py":306:35)
#loc139 = loc("/home/ericbuehler/vllm/.venv-bench/lib/python3.12/site-packages/vllm/v1/attention/ops/triton_unified_attention.py":306:25)
#loc140 = loc("/home/ericbuehler/vllm/.venv-bench/lib/python3.12/site-packages/vllm/v1/attention/ops/triton_unified_attention.py":306:17)
#loc141 = loc("/home/ericbuehler/vllm/.venv-bench/lib/python3.12/site-packages/vllm/v1/attention/ops/triton_unified_attention.py":312:36)
#loc142 = loc("/home/ericbuehler/vllm/.venv-bench/lib/python3.12/site-packages/vllm/v1/attention/ops/triton_unified_attention.py":312:60)
#loc143 = loc("/home/ericbuehler/vllm/.venv-bench/lib/python3.12/site-packages/vllm/v1/attention/ops/triton_unified_attention.py":312:73)
#loc144 = loc("/home/ericbuehler/vllm/.venv-bench/lib/python3.12/site-packages/triton/language/standard.py":191:40)
#loc147 = loc("/home/ericbuehler/vllm/.venv-bench/lib/python3.12/site-packages/triton/language/standard.py":170:27)
#loc148 = loc("/home/ericbuehler/vllm/.venv-bench/lib/python3.12/site-packages/vllm/v1/attention/ops/triton_attention_helpers.py":371:24)
#loc149 = loc("/home/ericbuehler/vllm/.venv-bench/lib/python3.12/site-packages/vllm/v1/attention/ops/triton_attention_helpers.py":374:25)
#loc150 = loc("/home/ericbuehler/vllm/.venv-bench/lib/python3.12/site-packages/vllm/v1/attention/ops/triton_attention_helpers.py":374:45)
#loc151 = loc("/home/ericbuehler/vllm/.venv-bench/lib/python3.12/site-packages/vllm/v1/attention/ops/triton_attention_helpers.py":376:23)
#loc152 = loc("/home/ericbuehler/vllm/.venv-bench/lib/python3.12/site-packages/vllm/v1/attention/ops/triton_attention_helpers.py":376:19)
#loc153 = loc("/home/ericbuehler/vllm/.venv-bench/lib/python3.12/site-packages/vllm/v1/attention/ops/triton_attention_helpers.py":376:15)
#loc154 = loc("/home/ericbuehler/vllm/.venv-bench/lib/python3.12/site-packages/triton/language/standard.py":293:36)
#loc156 = loc("/home/ericbuehler/vllm/.venv-bench/lib/python3.12/site-packages/triton/language/standard.py":263:15)
#loc157 = loc("/home/ericbuehler/vllm/.venv-bench/lib/python3.12/site-packages/vllm/v1/attention/ops/triton_attention_helpers.py":380:23)
#loc158 = loc("/home/ericbuehler/vllm/.venv-bench/lib/python3.12/site-packages/vllm/v1/attention/ops/triton_attention_helpers.py":380:19)
#loc159 = loc("/home/ericbuehler/vllm/.venv-bench/lib/python3.12/site-packages/vllm/v1/attention/ops/triton_attention_helpers.py":382:16)
#loc160 = loc("/home/ericbuehler/vllm/.venv-bench/lib/python3.12/site-packages/vllm/v1/attention/ops/triton_attention_helpers.py":382:24)
#loc161 = loc("/home/ericbuehler/vllm/.venv-bench/lib/python3.12/site-packages/vllm/v1/attention/ops/triton_unified_attention.py":326:26)
#loc162 = loc("/home/ericbuehler/vllm/.venv-bench/lib/python3.12/site-packages/vllm/v1/attention/ops/triton_unified_attention.py":326:20)
#loc163 = loc("/home/ericbuehler/vllm/.venv-bench/lib/python3.12/site-packages/vllm/v1/attention/ops/triton_unified_attention.py":331:52)
#loc164 = loc("/home/ericbuehler/vllm/.venv-bench/lib/python3.12/site-packages/vllm/v1/attention/ops/triton_unified_attention.py":331:41)
#loc165 = loc("/home/ericbuehler/vllm/.venv-bench/lib/python3.12/site-packages/vllm/v1/attention/ops/triton_unified_attention.py":331:64)
#loc166 = loc("/home/ericbuehler/vllm/.venv-bench/lib/python3.12/site-packages/vllm/v1/attention/ops/triton_unified_attention.py":333:16)
#loc167 = loc("/home/ericbuehler/vllm/.venv-bench/lib/python3.12/site-packages/vllm/v1/attention/ops/triton_unified_attention.py":340:31)
#loc168 = loc("/home/ericbuehler/vllm/.venv-bench/lib/python3.12/site-packages/vllm/v1/attention/ops/triton_unified_attention.py":340:41)
#loc169 = loc("/home/ericbuehler/vllm/.venv-bench/lib/python3.12/site-packages/vllm/v1/attention/ops/triton_unified_attention.py":335:8)
#loc170 = loc("/home/ericbuehler/vllm/.venv-bench/lib/python3.12/site-packages/vllm/v1/attention/ops/triton_unified_attention.py":347:15)
#loc171 = loc("/home/ericbuehler/vllm/.venv-bench/lib/python3.12/site-packages/vllm/v1/attention/ops/triton_unified_attention.py":348:41)
#loc172 = loc("/home/ericbuehler/vllm/.venv-bench/lib/python3.12/site-packages/vllm/v1/attention/ops/triton_unified_attention.py":348:14)
#loc173 = loc("/home/ericbuehler/vllm/.venv-bench/lib/python3.12/site-packages/vllm/v1/attention/ops/triton_unified_attention.py":349:25)
#loc174 = loc("/home/ericbuehler/vllm/.venv-bench/lib/python3.12/site-packages/vllm/v1/attention/ops/triton_unified_attention.py":349:14)
#loc175 = loc("/home/ericbuehler/vllm/.venv-bench/lib/python3.12/site-packages/vllm/v1/attention/ops/triton_unified_attention.py":350:14)
#loc176 = loc("/home/ericbuehler/vllm/.venv-bench/lib/python3.12/site-packages/vllm/v1/attention/ops/triton_unified_attention.py":353:30)
#loc177 = loc("/home/ericbuehler/vllm/.venv-bench/lib/python3.12/site-packages/vllm/v1/attention/ops/triton_unified_attention.py":354:12)
#loc178 = loc("/home/ericbuehler/vllm/.venv-bench/lib/python3.12/site-packages/vllm/v1/attention/ops/triton_attention_helpers.py":252:26)
#loc179 = loc("/home/ericbuehler/vllm/.venv-bench/lib/python3.12/site-packages/vllm/v1/attention/ops/triton_unified_attention.py":368:12)
#loc180 = loc("/home/ericbuehler/vllm/.venv-bench/lib/python3.12/site-packages/vllm/v1/attention/ops/triton_attention_helpers.py":252:39)
#loc181 = loc("/home/ericbuehler/vllm/.venv-bench/lib/python3.12/site-packages/vllm/v1/attention/ops/triton_attention_helpers.py":253:27)
#loc182 = loc("/home/ericbuehler/vllm/.venv-bench/lib/python3.12/site-packages/vllm/v1/attention/ops/triton_attention_helpers.py":253:10)
#loc183 = loc("/home/ericbuehler/vllm/.venv-bench/lib/python3.12/site-packages/vllm/v1/attention/ops/triton_attention_helpers.py":254:10)
#loc184 = loc("/home/ericbuehler/vllm/.venv-bench/lib/python3.12/site-packages/vllm/v1/attention/ops/triton_attention_helpers.py":256:64)
#loc185 = loc("/home/ericbuehler/vllm/.venv-bench/lib/python3.12/site-packages/vllm/v1/attention/ops/triton_attention_helpers.py":256:28)
#loc186 = loc("/home/ericbuehler/vllm/.venv-bench/lib/python3.12/site-packages/vllm/v1/attention/ops/triton_attention_helpers.py":256:41)
#loc187 = loc("/home/ericbuehler/vllm/.venv-bench/lib/python3.12/site-packages/vllm/v1/attention/ops/triton_attention_helpers.py":257:31)
#loc188 = loc("/home/ericbuehler/vllm/.venv-bench/lib/python3.12/site-packages/vllm/v1/attention/ops/triton_attention_helpers.py":257:44)
#loc189 = loc("/home/ericbuehler/vllm/.venv-bench/lib/python3.12/site-packages/vllm/v1/attention/ops/triton_unified_attention.py":343:4)
#loc226 = loc("q_block_global_idx"(#loc2))
#loc227 = loc("kv_head_idx"(#loc3))
#loc228 = loc("segm_idx"(#loc4))
#loc229 = loc("left"(#loc5))
#loc233 = loc("mid"(#loc11))
#loc234 = loc("mid"(#loc12))
#loc235 = loc("val"(#loc13))
#loc236 = loc("val"(#loc14))
#loc237 = loc("mid_val"(#loc15))
#loc238 = loc("mid_val"(#loc16))
#loc239 = loc("left"(#loc19))
#loc240 = loc("q_block_start_idx"(#loc22))
#loc241 = loc("q_block_start_idx"(#loc23))
#loc242 = loc("q_block_start_idx"(#loc24))
#loc243 = loc("q_block_start_idx"(#loc25))
#loc244 = loc("q_block_local_idx"(#loc26))
#loc245 = loc("cur_stop"(#loc27))
#loc246 = loc("cur_stop"(#loc28))
#loc247 = loc("cur_batch_query_len"(#loc29))
#loc248 = loc("seq_len"(#loc30))
#loc249 = loc("seq_len"(#loc31))
#loc250 = loc("tiles_per_segment"(#loc36))
#loc251 = loc("offs_m"(#loc41))
#loc252 = loc("offs_d"(#loc42))
#loc253 = loc("offs_t"(#loc43))
#loc254 = loc("query_pos"(#loc44))
#loc255 = loc("query_pos"(#loc45))
#loc256 = loc("query_offset_0"(#loc46))
#loc257 = loc("query_offset_1"(#loc47))
#loc258 = loc("query_offset_1"(#loc48))
#loc259 = loc("query_offset_1"(#loc49))
#loc260 = loc("query_offset"(#loc50))
#loc261 = loc("query_offset"(#loc51))
#loc262 = loc("query_offset"(#loc52))
#loc263 = loc("query_offset"(#loc53))
#loc264 = loc("query_offset"(#loc54))
#loc265 = loc("query_offset"(#loc55))
#loc266 = loc("query_offset"(#loc56))
#loc267 = loc("dim_mask"(#loc57))
#loc268 = loc("dim_mask"(#loc58))
#loc269 = loc("dim_mask"(#loc59))
#loc270 = loc("query_mask_0"(#loc60))
#loc271 = loc("query_mask_0"(#loc61))
#loc272 = loc("query_mask_0"(#loc62))
#loc273 = loc("query_mask_1"(#loc63))
#loc274 = loc("query_mask_1"(#loc64))
#loc275 = loc("query_mask_1"(#loc65))
#loc276 = loc("Q"(#loc66))
#loc277 = loc("Q"(#loc67))
#loc278 = loc("Q"(#loc68))
#loc279 = loc("Q"(#loc69))
#loc280 = loc("Q"(#loc70))
#loc281 = loc("Q"(#loc71))
#loc282 = loc("Q"(#loc72))
#loc283 = loc("block_table_offset"(#loc73))
#loc284 = loc("context_len"(#loc74))
#loc285 = loc("max_seq_prefix_len"(#loc75))
#loc286 = loc("max_seq_prefix_len"(#loc77))
#loc287 = loc("max_seq_prefix_len"(#loc78))
#loc288 = loc("num_tiles"(#loc79))
#loc289 = loc("qpos_hi"(#loc80))
#loc290 = loc("qpos_hi"(#loc81))
#loc291 = loc("qpos_hi"(#loc82))
#loc292 = loc("first_allowed_key"(#loc83))
#loc293 = loc("last_allowed_key"(#loc84))
#loc294 = loc("tile_start"(#loc85))
#loc295 = loc("tile_start"(#loc86))
#loc296 = loc("tile_end"(#loc87))
#loc297 = loc("tile_end"(#loc88))
#loc298 = loc("tile_end"(#loc89))
#loc299 = loc("loop_lo"(#loc90))
#loc300 = loc("loop_hi"(#loc91))
#loc301 = loc("loop_hi"(#loc92))
#loc302 = loc("loop_hi"(#loc93))
#loc303 = loc("M"(#loc94))
#loc304 = loc("seq_offset"(#loc95))
#loc305 = loc("seq_offset"(#loc96))
#loc306 = loc("tile_mask"(#loc97))
#loc307 = loc("physical_block_idx"(#loc98))
#loc308 = loc("physical_block_idx"(#loc99))
#loc309 = loc("physical_block_idx"(#loc100))
#loc310 = loc("physical_block_idx"(#loc101))
#loc311 = loc("physical_block_idx"(#loc102))
#loc312 = loc("v_offset"(#loc103))
#loc313 = loc("v_offset"(#loc104))
#loc314 = loc("v_offset"(#loc105))
#loc315 = loc("v_offset"(#loc106))
#loc316 = loc("v_offset"(#loc107))
#loc317 = loc("v_offset"(#loc108))
#loc318 = loc("v_offset"(#loc109))
#loc319 = loc("v_offset"(#loc110))
#loc320 = loc("v_offset"(#loc111))
#loc321 = loc("k_offset"(#loc112))
#loc322 = loc("k_offset"(#loc113))
#loc323 = loc("k_offset"(#loc114))
#loc324 = loc("k_offset"(#loc115))
#loc325 = loc("k_offset"(#loc116))
#loc326 = loc("k_offset"(#loc117))
#loc327 = loc("k_offset"(#loc118))
#loc328 = loc("k_offset"(#loc119))
#loc329 = loc("k_offset"(#loc120))
#loc330 = loc("K_load"(#loc121))
#loc331 = loc("K_load"(#loc122))
#loc332 = loc("K_load"(#loc123))
#loc333 = loc("K_load"(#loc124))
#loc334 = loc("K_load"(#loc125))
#loc335 = loc("V_load"(#loc126))
#loc336 = loc("V_load"(#loc127))
#loc337 = loc("V_load"(#loc128))
#loc338 = loc("V_load"(#loc129))
#loc339 = loc("query_abs_pos"(#loc130))
#loc340 = loc("query_abs_pos"(#loc131))
#loc341 = loc("seq_mask"(#loc132))
#loc342 = loc("seq_mask"(#loc133))
#loc343 = loc("seq_mask"(#loc134))
#loc344 = loc("seq_mask"(#loc135))
#loc345 = loc("seq_mask"(#loc136))
#loc346 = loc("seq_mask"(#loc137))
#loc347 = loc("S"(#loc138))
#loc348 = loc("S"(#loc139))
#loc349 = loc("S"(#loc140))
#loc350 = loc("S"(#loc141))
#loc351 = loc("S"(#loc142))
#loc352 = loc("S"(#loc143))
#loc354 = loc("m_j"(#loc148))
#loc355 = loc("m_j"(#loc149))
#loc356 = loc("m_j"(#loc150))
#loc357 = loc("P"(#loc151))
#loc358 = loc("P"(#loc152))
#loc359 = loc("P"(#loc153))
#loc361 = loc("alpha"(#loc157))
#loc362 = loc("alpha"(#loc158))
#loc363 = loc("L_new"(#loc159))
#loc364 = loc("L_new"(#loc160))
#loc365 = loc("acc"(#loc161))
#loc366 = loc("acc"(#loc162))
#loc367 = loc("V"(#loc163))
#loc368 = loc("V"(#loc164))
#loc369 = loc("V"(#loc165))
#loc370 = loc("V"(#loc166))
#loc371 = loc("acc"(#loc167))
#loc372 = loc("acc"(#loc168))
#loc373 = loc("segm_output_offset"(#loc170))
#loc374 = loc("segm_output_offset"(#loc171))
#loc375 = loc("segm_output_offset"(#loc172))
#loc376 = loc("segm_output_offset"(#loc173))
#loc377 = loc("segm_output_offset"(#loc174))
#loc378 = loc("segm_output_offset"(#loc175))
#loc379 = loc("segm_offset"(#loc178))
#loc380 = loc("segm_offset"(#loc180))
#loc381 = loc("segm_offset"(#loc181))
#loc382 = loc("segm_offset"(#loc182))
#loc383 = loc("segm_offset"(#loc183))
#loc384 = loc(callsite(#loc184 at #loc179))
#loc385 = loc(callsite(#loc185 at #loc179))
#loc386 = loc(callsite(#loc186 at #loc179))
#loc387 = loc(callsite(#loc187 at #loc179))
#loc388 = loc(callsite(#loc188 at #loc179))
#loc389 = loc("right"(#loc229))
#loc391 = loc("right"(#loc234))
#loc392 = loc("left"(#loc239))
#loc393 = loc(callsite(#loc240 at #loc7))
#loc394 = loc(callsite(#loc241 at #loc7))
#loc395 = loc(callsite(#loc242 at #loc7))
#loc396 = loc(callsite(#loc243 at #loc7))
#loc397 = loc(callsite(#loc244 at #loc7))
#loc398 = loc(callsite(#loc245 at #loc7))
#loc399 = loc(callsite(#loc246 at #loc7))
#loc400 = loc(callsite(#loc247 at #loc7))
#loc401 = loc(callsite(#loc248 at #loc7))
#loc402 = loc(callsite(#loc249 at #loc7))
#loc403 = loc(callsite(#loc35 at #loc250))
#loc404 = loc(callsite(#loc37 at #loc250))
#loc405 = loc(callsite(#loc285 at #loc76))
#loc406 = loc(callsite(#loc286 at #loc76))
#loc407 = loc(callsite(#loc287 at #loc76))
#loc408 = loc(callsite(#loc288 at #loc76))
#loc409 = loc(callsite(#loc289 at #loc76))
#loc410 = loc(callsite(#loc290 at #loc76))
#loc411 = loc(callsite(#loc291 at #loc76))
#loc412 = loc(callsite(#loc292 at #loc76))
#loc413 = loc(callsite(#loc293 at #loc76))
#loc414 = loc(callsite(#loc294 at #loc76))
#loc415 = loc(callsite(#loc295 at #loc76))
#loc416 = loc(callsite(#loc296 at #loc76))
#loc417 = loc(callsite(#loc297 at #loc76))
#loc418 = loc(callsite(#loc298 at #loc76))
#loc419 = loc(callsite(#loc299 at #loc76))
#loc420 = loc(callsite(#loc300 at #loc76))
#loc421 = loc(callsite(#loc301 at #loc76))
#loc422 = loc(callsite(#loc302 at #loc76))
#loc423 = loc("L"(#loc303))
#loc424 = loc(callsite(#loc341 at #loc342))
#loc425 = loc(callsite(#loc343 at #loc342))
#loc426 = loc(callsite(#loc344 at #loc342))
#loc427 = loc(callsite(#loc345 at #loc342))
#loc428 = loc(callsite(#loc346 at #loc342))
#loc430 = loc(callsite(#loc354 at #loc146))
#loc431 = loc(callsite(#loc355 at #loc146))
#loc432 = loc(callsite(#loc356 at #loc146))
#loc433 = loc(callsite(#loc357 at #loc146))
#loc434 = loc(callsite(#loc358 at #loc146))
#loc435 = loc(callsite(#loc359 at #loc146))
#loc437 = loc(callsite(#loc361 at #loc146))
#loc438 = loc(callsite(#loc362 at #loc146))
#loc439 = loc(callsite(#loc363 at #loc146))
#loc440 = loc(callsite(#loc364 at #loc146))
#loc441 = loc(callsite(#loc379 at #loc179))
#loc442 = loc(callsite(#loc380 at #loc179))
#loc443 = loc(callsite(#loc381 at #loc179))
#loc444 = loc(callsite(#loc382 at #loc179))
#loc445 = loc(callsite(#loc383 at #loc179))
#loc446 = loc(callsite(#loc389 at #loc390))
#loc447 = loc(callsite(#loc8 at #loc390))
#loc450 = loc(callsite(#loc233 at #loc390))
#loc451 = loc(callsite(#loc391 at #loc390))
#loc452 = loc(callsite(#loc235 at #loc390))
#loc453 = loc(callsite(#loc236 at #loc390))
#loc454 = loc(callsite(#loc237 at #loc390))
#loc455 = loc(callsite(#loc238 at #loc390))
#loc456 = loc(callsite(#loc17 at #loc390))
#loc457 = loc(callsite(#loc18 at #loc390))
#loc458 = loc(callsite(#loc392 at #loc390))
#loc459 = loc(callsite(#loc20 at #loc390))
#loc460 = loc(callsite(#loc21 at #loc390))
#loc461 = loc(callsite(#loc35 at #loc408))
#loc462 = loc(callsite(#loc37 at #loc408))
#loc463 = loc("acc"(#loc423))
#loc464 = loc(callsite(#loc144 at #loc429))
#loc466 = loc(callsite(#loc154 at #loc436))
#loc468 = loc(callsite(#loc147 at #loc464))
#loc469 = loc(callsite(#loc156 at #loc466))
