#loc = loc("/home/ericbuehler/.cache/vllm/torch_compile_cache/torch_aot_compile/90537ea14f244a5187d6ecc853fbadcf440d710f29c8e182fe8151f3f7751a82/inductor_cache/uq/cuqnsmpnb253d5gk6lsswbh65wueglelzt47bnxpwicuk3cr4xmt.py":18:0)
#loc1 = loc(unknown)
#loc20 = loc("/home/ericbuehler/.cache/vllm/torch_compile_cache/torch_aot_compile/90537ea14f244a5187d6ecc853fbadcf440d710f29c8e182fe8151f3f7751a82/inductor_cache/uq/cuqnsmpnb253d5gk6lsswbh65wueglelzt47bnxpwicuk3cr4xmt.py":41:25)
#loc50 = loc("/home/ericbuehler/.cache/vllm/torch_compile_cache/torch_aot_compile/90537ea14f244a5187d6ecc853fbadcf440d710f29c8e182fe8151f3f7751a82/inductor_cache/uq/cuqnsmpnb253d5gk6lsswbh65wueglelzt47bnxpwicuk3cr4xmt.py":68:27)
#loc100 = loc("in_ptr0"(#loc))
#loc101 = loc("in_ptr1"(#loc))
#loc102 = loc("in_ptr2"(#loc))
#loc103 = loc("in_ptr3"(#loc))
#loc104 = loc("in_ptr4"(#loc))
#loc105 = loc("in_ptr5"(#loc))
#loc106 = loc("in_ptr6"(#loc))
#loc107 = loc("out_ptr0"(#loc))
#loc108 = loc("out_ptr4"(#loc))
#loc109 = loc("out_ptr5"(#loc))
#loc110 = loc("out_ptr6"(#loc))
#loc111 = loc("xnumel"(#loc))
#loc112 = loc("r0_numel"(#loc))
#loc129 = loc("tmp4"(#loc20))
#loc155 = loc("tmp22"(#loc50))
#loc200 = loc(callsite(#loc1 at #loc129))
#loc204 = loc(callsite(#loc1 at #loc155))
module {
  tt.func public @triton_red_fused__to_copy_add_moe_forward_mul_rms_norm_0(%in_ptr0: !tt.ptr<bf16> {tt.divisibility = 16 : i32} loc("in_ptr0"(#loc)), %in_ptr1: !tt.ptr<bf16> {tt.divisibility = 16 : i32} loc("in_ptr1"(#loc)), %in_ptr2: !tt.ptr<bf16> {tt.divisibility = 16 : i32} loc("in_ptr2"(#loc)), %in_ptr3: !tt.ptr<bf16> {tt.divisibility = 16 : i32} loc("in_ptr3"(#loc)), %in_ptr4: !tt.ptr<bf16> {tt.divisibility = 16 : i32} loc("in_ptr4"(#loc)), %in_ptr5: !tt.ptr<bf16> {tt.divisibility = 16 : i32} loc("in_ptr5"(#loc)), %in_ptr6: !tt.ptr<bf16> {tt.divisibility = 16 : i32} loc("in_ptr6"(#loc)), %out_ptr0: !tt.ptr<f32> {tt.divisibility = 16 : i32} loc("out_ptr0"(#loc)), %out_ptr4: !tt.ptr<bf16> {tt.divisibility = 16 : i32} loc("out_ptr4"(#loc)), %out_ptr5: !tt.ptr<bf16> {tt.divisibility = 16 : i32} loc("out_ptr5"(#loc)), %out_ptr6: !tt.ptr<bf16> {tt.divisibility = 16 : i32} loc("out_ptr6"(#loc)), %xnumel: i32 loc("xnumel"(#loc)), %r0_numel: i32 {tt.divisibility = 16 : i32} loc("r0_numel"(#loc))) attributes {noinline = false} {
    %cst = arith.constant dense<0.000000e+00> : tensor<1x1024xbf16> loc(#loc1)
    %c1024_i32 = arith.constant 1024 : i32 loc(#loc1)
    %c2816_i32 = arith.constant 2816 : i32 loc(#loc1)
    %c0_i32 = arith.constant 0 : i32 loc(#loc1)
    %cst_0 = arith.constant dense<9.99999997E-7> : tensor<1x1xf32> loc(#loc1)
    %cst_1 = arith.constant dense<2.816000e+03> : tensor<1x1xf32> loc(#loc1)
    %cst_2 = arith.constant dense<2816> : tensor<1x1024xi32> loc(#loc1)
    %cst_3 = arith.constant dense<0.000000e+00> : tensor<1x1024xf32> loc(#loc1)
    %xoffset = tt.get_program_id x : i32 loc(#loc113)
    %xmask = arith.cmpi slt, %xoffset, %xnumel : i32 loc(#loc114)
    %xmask_4 = tt.splat %xmask : i1 -> tensor<1x1xi1> loc(#loc114)
    %r0_base = tt.make_range {end = 1024 : i32, start = 0 : i32} : tensor<1024xi32> loc(#loc115)
    %r0_base_5 = tt.expand_dims %r0_base {axis = 0 : i32} : tensor<1024xi32> -> tensor<1x1024xi32> loc(#loc116)
    %_tmp4 = scf.for %r0_offset = %c0_i32 to %c2816_i32 step %c1024_i32 iter_args(%_tmp4_9 = %cst_3) -> (tensor<1x1024xf32>)  : i32 {
      %r0_index = tt.splat %r0_offset : i32 -> tensor<1x1024xi32> loc(#loc118)
      %r0_index_10 = arith.addi %r0_index, %r0_base_5 : tensor<1x1024xi32> loc(#loc118)
      %r0_mask = arith.cmpi slt, %r0_index_10, %cst_2 : tensor<1x1024xi32> loc(#loc119)
      %tmp0 = arith.muli %xoffset, %c2816_i32 : i32 loc(#loc120)
      %tmp0_11 = tt.splat %tmp0 : i32 -> tensor<1x1024xi32> loc(#loc197)
      %tmp0_12 = arith.addi %r0_index_10, %tmp0_11 : tensor<1x1024xi32> loc(#loc121)
      %tmp0_13 = tt.splat %in_ptr0 : !tt.ptr<bf16> -> tensor<1x1024x!tt.ptr<bf16>> loc(#loc122)
      %tmp0_14 = tt.addptr %tmp0_13, %tmp0_12 : tensor<1x1024x!tt.ptr<bf16>>, tensor<1x1024xi32> loc(#loc122)
      %tmp0_15 = tt.splat %xmask : i1 -> tensor<1x1024xi1> loc(#loc198)
      %tmp0_16 = arith.andi %r0_mask, %tmp0_15 : tensor<1x1024xi1> loc(#loc123)
      %tmp0_17 = tt.load %tmp0_14, %tmp0_16, %cst evictionPolicy = evict_last : tensor<1x1024x!tt.ptr<bf16>> loc(#loc124)
      %tmp0_18 = arith.extf %tmp0_17 : tensor<1x1024xbf16> to tensor<1x1024xf32> loc(#loc125)
      %tmp2 = arith.mulf %tmp0_18, %tmp0_18 : tensor<1x1024xf32> loc(#loc126)
      %tmp5 = arith.addf %_tmp4_9, %tmp2 : tensor<1x1024xf32> loc(#loc127)
      %_tmp4_19 = arith.select %tmp0_16, %tmp5, %_tmp4_9 : tensor<1x1024xi1>, tensor<1x1024xf32> loc(#loc128)
      scf.yield %_tmp4_19 : tensor<1x1024xf32> loc(#loc18)
    } loc(#loc117)
    %tmp4 = "tt.reduce"(%_tmp4) <{axis = 1 : i32}> ({
    ^bb0(%tmp4_9: f32 loc(callsite(#loc1 at #loc129)), %tmp4_10: f32 loc(callsite(#loc1 at #loc129))):
      %tmp4_11 = arith.addf %tmp4_9, %tmp4_10 : f32 loc(#loc208)
      tt.reduce.return %tmp4_11 : f32 loc(#loc199)
    }) : (tensor<1x1024xf32>) -> tensor<1xf32> loc(#loc199)
    %tmp4_6 = tt.expand_dims %tmp4 {axis = 1 : i32} : tensor<1xf32> -> tensor<1x1xf32> loc(#loc130)
    %0 = tt.addptr %out_ptr0, %xoffset : !tt.ptr<f32>, i32 loc(#loc23)
    %1 = tt.splat %0 : !tt.ptr<f32> -> tensor<1x1x!tt.ptr<f32>> loc(#loc23)
    tt.store %1, %tmp4_6, %xmask_4 : tensor<1x1x!tt.ptr<f32>> loc(#loc24)
    %_tmp22 = scf.for %r0_offset = %c0_i32 to %c2816_i32 step %c1024_i32 iter_args(%_tmp22_9 = %cst_3) -> (tensor<1x1024xf32>)  : i32 {
      %r0_index = tt.splat %r0_offset : i32 -> tensor<1x1024xi32> loc(#loc132)
      %r0_index_10 = arith.addi %r0_index, %r0_base_5 : tensor<1x1024xi32> loc(#loc132)
      %r0_mask = arith.cmpi slt, %r0_index_10, %cst_2 : tensor<1x1024xi32> loc(#loc133)
      %tmp6 = arith.muli %xoffset, %c2816_i32 : i32 loc(#loc134)
      %tmp6_11 = tt.splat %tmp6 : i32 -> tensor<1x1024xi32> loc(#loc201)
      %tmp6_12 = arith.addi %r0_index_10, %tmp6_11 : tensor<1x1024xi32> loc(#loc135)
      %tmp6_13 = tt.splat %in_ptr0 : !tt.ptr<bf16> -> tensor<1x1024x!tt.ptr<bf16>> loc(#loc136)
      %tmp6_14 = tt.addptr %tmp6_13, %tmp6_12 : tensor<1x1024x!tt.ptr<bf16>>, tensor<1x1024xi32> loc(#loc136)
      %tmp6_15 = tt.splat %xmask : i1 -> tensor<1x1024xi1> loc(#loc202)
      %tmp6_16 = arith.andi %r0_mask, %tmp6_15 : tensor<1x1024xi1> loc(#loc137)
      %tmp6_17 = tt.load %tmp6_14, %tmp6_16, %cst evictionPolicy = evict_last : tensor<1x1024x!tt.ptr<bf16>> loc(#loc138)
      %tmp6_18 = arith.extf %tmp6_17 : tensor<1x1024xbf16> to tensor<1x1024xf32> loc(#loc139)
      %tmp15 = tt.splat %in_ptr1 : !tt.ptr<bf16> -> tensor<1x1024x!tt.ptr<bf16>> loc(#loc140)
      %tmp15_19 = tt.addptr %tmp15, %r0_index_10 : tensor<1x1024x!tt.ptr<bf16>>, tensor<1x1024xi32> loc(#loc140)
      %tmp15_20 = tt.load %tmp15_19, %r0_mask, %cst evictionPolicy = evict_last : tensor<1x1024x!tt.ptr<bf16>> loc(#loc141)
      %tmp15_21 = arith.extf %tmp15_20 : tensor<1x1024xbf16> to tensor<1x1024xf32> loc(#loc142)
      %tmp17 = tt.splat %in_ptr2 : !tt.ptr<bf16> -> tensor<1x1024x!tt.ptr<bf16>> loc(#loc143)
      %tmp17_22 = tt.addptr %tmp17, %tmp6_12 : tensor<1x1024x!tt.ptr<bf16>>, tensor<1x1024xi32> loc(#loc143)
      %tmp17_23 = tt.load %tmp17_22, %tmp6_16, %cst evictionPolicy = evict_last : tensor<1x1024x!tt.ptr<bf16>> loc(#loc144)
      %tmp17_24 = arith.extf %tmp17_23 : tensor<1x1024xbf16> to tensor<1x1024xf32> loc(#loc145)
      %tmp9 = arith.divf %tmp4_6, %cst_1 : tensor<1x1xf32> loc(#loc146)
      %tmp11 = arith.addf %tmp9, %cst_0 : tensor<1x1xf32> loc(#loc147)
      %tmp12 = tt.extern_elementwise %tmp11 {libname = "", libpath = "", pure = true, symbol = "__nv_rsqrtf"} : (tensor<1x1xf32>) -> tensor<1x1xf32> loc(#loc148)
      %tmp13 = tt.broadcast %tmp12 : tensor<1x1xf32> -> tensor<1x1024xf32> loc(#loc149)
      %tmp13_25 = arith.mulf %tmp6_18, %tmp13 : tensor<1x1024xf32> loc(#loc149)
      %tmp16 = arith.mulf %tmp13_25, %tmp15_21 : tensor<1x1024xf32> loc(#loc150)
      %tmp18 = arith.addf %tmp16, %tmp17_24 : tensor<1x1024xf32> loc(#loc151)
      %tmp20 = arith.mulf %tmp18, %tmp18 : tensor<1x1024xf32> loc(#loc152)
      %tmp23 = arith.addf %_tmp22_9, %tmp20 : tensor<1x1024xf32> loc(#loc153)
      %_tmp22_26 = arith.select %tmp6_16, %tmp23, %_tmp22_9 : tensor<1x1024xi1>, tensor<1x1024xf32> loc(#loc154)
      scf.yield %_tmp22_26 : tensor<1x1024xf32> loc(#loc49)
    } loc(#loc131)
    %tmp22 = "tt.reduce"(%_tmp22) <{axis = 1 : i32}> ({
    ^bb0(%tmp22_9: f32 loc(callsite(#loc1 at #loc155)), %tmp22_10: f32 loc(callsite(#loc1 at #loc155))):
      %tmp22_11 = arith.addf %tmp22_9, %tmp22_10 : f32 loc(#loc209)
      tt.reduce.return %tmp22_11 : f32 loc(#loc203)
    }) : (tensor<1x1024xf32>) -> tensor<1xf32> loc(#loc203)
    %tmp22_7 = tt.expand_dims %tmp22 {axis = 1 : i32} : tensor<1xf32> -> tensor<1x1xf32> loc(#loc156)
    %tmp43 = tt.load %in_ptr3 : !tt.ptr<bf16> loc(#loc157)
    %tmp43_8 = arith.extf %tmp43 : bf16 to f32 loc(#loc158)
    scf.for %r0_offset = %c0_i32 to %c2816_i32 step %c1024_i32  : i32 {
      %r0_index = tt.splat %r0_offset : i32 -> tensor<1x1024xi32> loc(#loc159)
      %r0_index_9 = arith.addi %r0_index, %r0_base_5 : tensor<1x1024xi32> loc(#loc159)
      %r0_mask = arith.cmpi slt, %r0_index_9, %cst_2 : tensor<1x1024xi32> loc(#loc160)
      %tmp24 = arith.muli %xoffset, %c2816_i32 : i32 loc(#loc161)
      %tmp24_10 = tt.splat %tmp24 : i32 -> tensor<1x1024xi32> loc(#loc205)
      %tmp24_11 = arith.addi %r0_index_9, %tmp24_10 : tensor<1x1024xi32> loc(#loc162)
      %tmp24_12 = tt.splat %in_ptr0 : !tt.ptr<bf16> -> tensor<1x1024x!tt.ptr<bf16>> loc(#loc163)
      %tmp24_13 = tt.addptr %tmp24_12, %tmp24_11 : tensor<1x1024x!tt.ptr<bf16>>, tensor<1x1024xi32> loc(#loc163)
      %tmp24_14 = tt.splat %xmask : i1 -> tensor<1x1024xi1> loc(#loc206)
      %tmp24_15 = arith.andi %r0_mask, %tmp24_14 : tensor<1x1024xi1> loc(#loc164)
      %tmp24_16 = tt.load %tmp24_13, %tmp24_15, %cst evictionPolicy = evict_first : tensor<1x1024x!tt.ptr<bf16>> loc(#loc165)
      %tmp24_17 = arith.extf %tmp24_16 : tensor<1x1024xbf16> to tensor<1x1024xf32> loc(#loc166)
      %tmp33 = tt.splat %in_ptr1 : !tt.ptr<bf16> -> tensor<1x1024x!tt.ptr<bf16>> loc(#loc167)
      %tmp33_18 = tt.addptr %tmp33, %r0_index_9 : tensor<1x1024x!tt.ptr<bf16>>, tensor<1x1024xi32> loc(#loc167)
      %tmp33_19 = tt.load %tmp33_18, %r0_mask, %cst evictionPolicy = evict_last : tensor<1x1024x!tt.ptr<bf16>> loc(#loc168)
      %tmp33_20 = arith.extf %tmp33_19 : tensor<1x1024xbf16> to tensor<1x1024xf32> loc(#loc169)
      %tmp35 = tt.splat %in_ptr2 : !tt.ptr<bf16> -> tensor<1x1024x!tt.ptr<bf16>> loc(#loc170)
      %tmp35_21 = tt.addptr %tmp35, %tmp24_11 : tensor<1x1024x!tt.ptr<bf16>>, tensor<1x1024xi32> loc(#loc170)
      %tmp35_22 = tt.load %tmp35_21, %tmp24_15, %cst evictionPolicy = evict_first : tensor<1x1024x!tt.ptr<bf16>> loc(#loc171)
      %tmp35_23 = arith.extf %tmp35_22 : tensor<1x1024xbf16> to tensor<1x1024xf32> loc(#loc172)
      %tmp46 = tt.splat %in_ptr4 : !tt.ptr<bf16> -> tensor<1x1024x!tt.ptr<bf16>> loc(#loc173)
      %tmp46_24 = tt.addptr %tmp46, %r0_index_9 : tensor<1x1024x!tt.ptr<bf16>>, tensor<1x1024xi32> loc(#loc173)
      %tmp46_25 = tt.load %tmp46_24, %r0_mask, %cst evictionPolicy = evict_last : tensor<1x1024x!tt.ptr<bf16>> loc(#loc174)
      %tmp46_26 = arith.extf %tmp46_25 : tensor<1x1024xbf16> to tensor<1x1024xf32> loc(#loc175)
      %tmp48 = tt.splat %in_ptr5 : !tt.ptr<bf16> -> tensor<1x1024x!tt.ptr<bf16>> loc(#loc176)
      %tmp48_27 = tt.addptr %tmp48, %r0_index_9 : tensor<1x1024x!tt.ptr<bf16>>, tensor<1x1024xi32> loc(#loc176)
      %tmp48_28 = tt.load %tmp48_27, %r0_mask, %cst evictionPolicy = evict_last : tensor<1x1024x!tt.ptr<bf16>> loc(#loc177)
      %tmp48_29 = arith.extf %tmp48_28 : tensor<1x1024xbf16> to tensor<1x1024xf32> loc(#loc178)
      %tmp50 = tt.splat %in_ptr6 : !tt.ptr<bf16> -> tensor<1x1024x!tt.ptr<bf16>> loc(#loc179)
      %tmp50_30 = tt.addptr %tmp50, %r0_index_9 : tensor<1x1024x!tt.ptr<bf16>>, tensor<1x1024xi32> loc(#loc179)
      %tmp50_31 = tt.load %tmp50_30, %r0_mask, %cst evictionPolicy = evict_last : tensor<1x1024x!tt.ptr<bf16>> loc(#loc180)
      %tmp50_32 = arith.extf %tmp50_31 : tensor<1x1024xbf16> to tensor<1x1024xf32> loc(#loc181)
      %tmp27 = arith.divf %tmp4_6, %cst_1 : tensor<1x1xf32> loc(#loc182)
      %tmp29 = arith.addf %tmp27, %cst_0 : tensor<1x1xf32> loc(#loc183)
      %tmp30 = tt.extern_elementwise %tmp29 {libname = "", libpath = "", pure = true, symbol = "__nv_rsqrtf"} : (tensor<1x1xf32>) -> tensor<1x1xf32> loc(#loc184)
      %tmp31 = tt.broadcast %tmp30 : tensor<1x1xf32> -> tensor<1x1024xf32> loc(#loc185)
      %tmp31_33 = arith.mulf %tmp24_17, %tmp31 : tensor<1x1024xf32> loc(#loc185)
      %tmp34 = arith.mulf %tmp31_33, %tmp33_20 : tensor<1x1024xf32> loc(#loc186)
      %tmp36 = arith.addf %tmp34, %tmp35_23 : tensor<1x1024xf32> loc(#loc187)
      %tmp38 = arith.divf %tmp22_7, %cst_1 : tensor<1x1xf32> loc(#loc188)
      %tmp39 = arith.addf %tmp38, %cst_0 : tensor<1x1xf32> loc(#loc189)
      %tmp40 = tt.extern_elementwise %tmp39 {libname = "", libpath = "", pure = true, symbol = "__nv_rsqrtf"} : (tensor<1x1xf32>) -> tensor<1x1xf32> loc(#loc190)
      %tmp41 = tt.broadcast %tmp40 : tensor<1x1xf32> -> tensor<1x1024xf32> loc(#loc191)
      %tmp41_34 = arith.mulf %tmp36, %tmp41 : tensor<1x1024xf32> loc(#loc191)
      %tmp45 = tt.splat %tmp43_8 : f32 -> tensor<1x1024xf32> loc(#loc207)
      %tmp45_35 = arith.mulf %tmp41_34, %tmp45 : tensor<1x1024xf32> loc(#loc192)
      %tmp47 = arith.mulf %tmp45_35, %tmp46_26 : tensor<1x1024xf32> loc(#loc194)
      %tmp49 = arith.mulf %tmp41_34, %tmp48_29 : tensor<1x1024xf32> loc(#loc195)
      %tmp51 = arith.mulf %tmp41_34, %tmp50_32 : tensor<1x1024xf32> loc(#loc196)
      %2 = tt.splat %out_ptr4 : !tt.ptr<bf16> -> tensor<1x1024x!tt.ptr<bf16>> loc(#loc93)
      %3 = tt.addptr %2, %tmp24_11 : tensor<1x1024x!tt.ptr<bf16>>, tensor<1x1024xi32> loc(#loc93)
      %4 = arith.truncf %tmp47 : tensor<1x1024xf32> to tensor<1x1024xbf16> loc(#loc94)
      tt.store %3, %4, %tmp24_15 : tensor<1x1024x!tt.ptr<bf16>> loc(#loc94)
      %5 = tt.splat %out_ptr5 : !tt.ptr<bf16> -> tensor<1x1024x!tt.ptr<bf16>> loc(#loc95)
      %6 = tt.addptr %5, %tmp24_11 : tensor<1x1024x!tt.ptr<bf16>>, tensor<1x1024xi32> loc(#loc95)
      %7 = arith.truncf %tmp49 : tensor<1x1024xf32> to tensor<1x1024xbf16> loc(#loc96)
      tt.store %6, %7, %tmp24_15 : tensor<1x1024x!tt.ptr<bf16>> loc(#loc96)
      %8 = tt.splat %out_ptr6 : !tt.ptr<bf16> -> tensor<1x1024x!tt.ptr<bf16>> loc(#loc97)
      %9 = tt.addptr %8, %tmp24_11 : tensor<1x1024x!tt.ptr<bf16>>, tensor<1x1024xi32> loc(#loc97)
      %10 = arith.truncf %tmp51 : tensor<1x1024xf32> to tensor<1x1024xbf16> loc(#loc98)
      tt.store %9, %10, %tmp24_15 : tensor<1x1024x!tt.ptr<bf16>> loc(#loc98)
    } loc(#loc54)
    tt.return loc(#loc99)
  } loc(#loc)
} loc(#loc)
#loc2 = loc("/home/ericbuehler/.cache/vllm/torch_compile_cache/torch_aot_compile/90537ea14f244a5187d6ecc853fbadcf440d710f29c8e182fe8151f3f7751a82/inductor_cache/uq/cuqnsmpnb253d5gk6lsswbh65wueglelzt47bnxpwicuk3cr4xmt.py":22:28)
#loc3 = loc("/home/ericbuehler/.cache/vllm/torch_compile_cache/torch_aot_compile/90537ea14f244a5187d6ecc853fbadcf440d710f29c8e182fe8151f3f7751a82/inductor_cache/uq/cuqnsmpnb253d5gk6lsswbh65wueglelzt47bnxpwicuk3cr4xmt.py":24:21)
#loc4 = loc("/home/ericbuehler/.cache/vllm/torch_compile_cache/torch_aot_compile/90537ea14f244a5187d6ecc853fbadcf440d710f29c8e182fe8151f3f7751a82/inductor_cache/uq/cuqnsmpnb253d5gk6lsswbh65wueglelzt47bnxpwicuk3cr4xmt.py":25:27)
#loc5 = loc("/home/ericbuehler/.cache/vllm/torch_compile_cache/torch_aot_compile/90537ea14f244a5187d6ecc853fbadcf440d710f29c8e182fe8151f3f7751a82/inductor_cache/uq/cuqnsmpnb253d5gk6lsswbh65wueglelzt47bnxpwicuk3cr4xmt.py":25:37)
#loc6 = loc("/home/ericbuehler/.cache/vllm/torch_compile_cache/torch_aot_compile/90537ea14f244a5187d6ecc853fbadcf440d710f29c8e182fe8151f3f7751a82/inductor_cache/uq/cuqnsmpnb253d5gk6lsswbh65wueglelzt47bnxpwicuk3cr4xmt.py":29:43)
#loc7 = loc("/home/ericbuehler/.cache/vllm/torch_compile_cache/torch_aot_compile/90537ea14f244a5187d6ecc853fbadcf440d710f29c8e182fe8151f3f7751a82/inductor_cache/uq/cuqnsmpnb253d5gk6lsswbh65wueglelzt47bnxpwicuk3cr4xmt.py":30:31)
#loc8 = loc("/home/ericbuehler/.cache/vllm/torch_compile_cache/torch_aot_compile/90537ea14f244a5187d6ecc853fbadcf440d710f29c8e182fe8151f3f7751a82/inductor_cache/uq/cuqnsmpnb253d5gk6lsswbh65wueglelzt47bnxpwicuk3cr4xmt.py":31:29)
#loc9 = loc("/home/ericbuehler/.cache/vllm/torch_compile_cache/torch_aot_compile/90537ea14f244a5187d6ecc853fbadcf440d710f29c8e182fe8151f3f7751a82/inductor_cache/uq/cuqnsmpnb253d5gk6lsswbh65wueglelzt47bnxpwicuk3cr4xmt.py":35:46)
#loc10 = loc("/home/ericbuehler/.cache/vllm/torch_compile_cache/torch_aot_compile/90537ea14f244a5187d6ecc853fbadcf440d710f29c8e182fe8151f3f7751a82/inductor_cache/uq/cuqnsmpnb253d5gk6lsswbh65wueglelzt47bnxpwicuk3cr4xmt.py":35:41)
#loc11 = loc("/home/ericbuehler/.cache/vllm/torch_compile_cache/torch_aot_compile/90537ea14f244a5187d6ecc853fbadcf440d710f29c8e182fe8151f3f7751a82/inductor_cache/uq/cuqnsmpnb253d5gk6lsswbh65wueglelzt47bnxpwicuk3cr4xmt.py":35:34)
#loc12 = loc("/home/ericbuehler/.cache/vllm/torch_compile_cache/torch_aot_compile/90537ea14f244a5187d6ecc853fbadcf440d710f29c8e182fe8151f3f7751a82/inductor_cache/uq/cuqnsmpnb253d5gk6lsswbh65wueglelzt47bnxpwicuk3cr4xmt.py":35:61)
#loc13 = loc("/home/ericbuehler/.cache/vllm/torch_compile_cache/torch_aot_compile/90537ea14f244a5187d6ecc853fbadcf440d710f29c8e182fe8151f3f7751a82/inductor_cache/uq/cuqnsmpnb253d5gk6lsswbh65wueglelzt47bnxpwicuk3cr4xmt.py":35:51)
#loc14 = loc("/home/ericbuehler/.cache/vllm/torch_compile_cache/torch_aot_compile/90537ea14f244a5187d6ecc853fbadcf440d710f29c8e182fe8151f3f7751a82/inductor_cache/uq/cuqnsmpnb253d5gk6lsswbh65wueglelzt47bnxpwicuk3cr4xmt.py":35:112)
#loc15 = loc("/home/ericbuehler/.cache/vllm/torch_compile_cache/torch_aot_compile/90537ea14f244a5187d6ecc853fbadcf440d710f29c8e182fe8151f3f7751a82/inductor_cache/uq/cuqnsmpnb253d5gk6lsswbh65wueglelzt47bnxpwicuk3cr4xmt.py":37:22)
#loc16 = loc("/home/ericbuehler/.cache/vllm/torch_compile_cache/torch_aot_compile/90537ea14f244a5187d6ecc853fbadcf440d710f29c8e182fe8151f3f7751a82/inductor_cache/uq/cuqnsmpnb253d5gk6lsswbh65wueglelzt47bnxpwicuk3cr4xmt.py":39:23)
#loc17 = loc("/home/ericbuehler/.cache/vllm/torch_compile_cache/torch_aot_compile/90537ea14f244a5187d6ecc853fbadcf440d710f29c8e182fe8151f3f7751a82/inductor_cache/uq/cuqnsmpnb253d5gk6lsswbh65wueglelzt47bnxpwicuk3cr4xmt.py":40:48)
#loc18 = loc("/home/ericbuehler/.cache/vllm/torch_compile_cache/torch_aot_compile/90537ea14f244a5187d6ecc853fbadcf440d710f29c8e182fe8151f3f7751a82/inductor_cache/uq/cuqnsmpnb253d5gk6lsswbh65wueglelzt47bnxpwicuk3cr4xmt.py":40:8)
#loc19 = loc("/home/ericbuehler/vllm/.venv-bench/lib/python3.12/site-packages/triton/language/standard.py":293:36)
#loc21 = loc("/home/ericbuehler/vllm/.venv-bench/lib/python3.12/site-packages/triton/language/standard.py":263:15)
#loc22 = loc("/home/ericbuehler/.cache/vllm/torch_compile_cache/torch_aot_compile/90537ea14f244a5187d6ecc853fbadcf440d710f29c8e182fe8151f3f7751a82/inductor_cache/uq/cuqnsmpnb253d5gk6lsswbh65wueglelzt47bnxpwicuk3cr4xmt.py":41:28)
#loc23 = loc("/home/ericbuehler/.cache/vllm/torch_compile_cache/torch_aot_compile/90537ea14f244a5187d6ecc853fbadcf440d710f29c8e182fe8151f3f7751a82/inductor_cache/uq/cuqnsmpnb253d5gk6lsswbh65wueglelzt47bnxpwicuk3cr4xmt.py":42:25)
#loc24 = loc("/home/ericbuehler/.cache/vllm/torch_compile_cache/torch_aot_compile/90537ea14f244a5187d6ecc853fbadcf440d710f29c8e182fe8151f3f7751a82/inductor_cache/uq/cuqnsmpnb253d5gk6lsswbh65wueglelzt47bnxpwicuk3cr4xmt.py":42:36)
#loc25 = loc("/home/ericbuehler/.cache/vllm/torch_compile_cache/torch_aot_compile/90537ea14f244a5187d6ecc853fbadcf440d710f29c8e182fe8151f3f7751a82/inductor_cache/uq/cuqnsmpnb253d5gk6lsswbh65wueglelzt47bnxpwicuk3cr4xmt.py":44:43)
#loc26 = loc("/home/ericbuehler/.cache/vllm/torch_compile_cache/torch_aot_compile/90537ea14f244a5187d6ecc853fbadcf440d710f29c8e182fe8151f3f7751a82/inductor_cache/uq/cuqnsmpnb253d5gk6lsswbh65wueglelzt47bnxpwicuk3cr4xmt.py":45:31)
#loc27 = loc("/home/ericbuehler/.cache/vllm/torch_compile_cache/torch_aot_compile/90537ea14f244a5187d6ecc853fbadcf440d710f29c8e182fe8151f3f7751a82/inductor_cache/uq/cuqnsmpnb253d5gk6lsswbh65wueglelzt47bnxpwicuk3cr4xmt.py":46:29)
#loc28 = loc("/home/ericbuehler/.cache/vllm/torch_compile_cache/torch_aot_compile/90537ea14f244a5187d6ecc853fbadcf440d710f29c8e182fe8151f3f7751a82/inductor_cache/uq/cuqnsmpnb253d5gk6lsswbh65wueglelzt47bnxpwicuk3cr4xmt.py":50:46)
#loc29 = loc("/home/ericbuehler/.cache/vllm/torch_compile_cache/torch_aot_compile/90537ea14f244a5187d6ecc853fbadcf440d710f29c8e182fe8151f3f7751a82/inductor_cache/uq/cuqnsmpnb253d5gk6lsswbh65wueglelzt47bnxpwicuk3cr4xmt.py":50:41)
#loc30 = loc("/home/ericbuehler/.cache/vllm/torch_compile_cache/torch_aot_compile/90537ea14f244a5187d6ecc853fbadcf440d710f29c8e182fe8151f3f7751a82/inductor_cache/uq/cuqnsmpnb253d5gk6lsswbh65wueglelzt47bnxpwicuk3cr4xmt.py":50:34)
#loc31 = loc("/home/ericbuehler/.cache/vllm/torch_compile_cache/torch_aot_compile/90537ea14f244a5187d6ecc853fbadcf440d710f29c8e182fe8151f3f7751a82/inductor_cache/uq/cuqnsmpnb253d5gk6lsswbh65wueglelzt47bnxpwicuk3cr4xmt.py":50:61)
#loc32 = loc("/home/ericbuehler/.cache/vllm/torch_compile_cache/torch_aot_compile/90537ea14f244a5187d6ecc853fbadcf440d710f29c8e182fe8151f3f7751a82/inductor_cache/uq/cuqnsmpnb253d5gk6lsswbh65wueglelzt47bnxpwicuk3cr4xmt.py":50:51)
#loc33 = loc("/home/ericbuehler/.cache/vllm/torch_compile_cache/torch_aot_compile/90537ea14f244a5187d6ecc853fbadcf440d710f29c8e182fe8151f3f7751a82/inductor_cache/uq/cuqnsmpnb253d5gk6lsswbh65wueglelzt47bnxpwicuk3cr4xmt.py":50:112)
#loc34 = loc("/home/ericbuehler/.cache/vllm/torch_compile_cache/torch_aot_compile/90537ea14f244a5187d6ecc853fbadcf440d710f29c8e182fe8151f3f7751a82/inductor_cache/uq/cuqnsmpnb253d5gk6lsswbh65wueglelzt47bnxpwicuk3cr4xmt.py":51:35)
#loc35 = loc("/home/ericbuehler/.cache/vllm/torch_compile_cache/torch_aot_compile/90537ea14f244a5187d6ecc853fbadcf440d710f29c8e182fe8151f3f7751a82/inductor_cache/uq/cuqnsmpnb253d5gk6lsswbh65wueglelzt47bnxpwicuk3cr4xmt.py":51:42)
#loc36 = loc("/home/ericbuehler/.cache/vllm/torch_compile_cache/torch_aot_compile/90537ea14f244a5187d6ecc853fbadcf440d710f29c8e182fe8151f3f7751a82/inductor_cache/uq/cuqnsmpnb253d5gk6lsswbh65wueglelzt47bnxpwicuk3cr4xmt.py":51:95)
#loc37 = loc("/home/ericbuehler/.cache/vllm/torch_compile_cache/torch_aot_compile/90537ea14f244a5187d6ecc853fbadcf440d710f29c8e182fe8151f3f7751a82/inductor_cache/uq/cuqnsmpnb253d5gk6lsswbh65wueglelzt47bnxpwicuk3cr4xmt.py":52:35)
#loc38 = loc("/home/ericbuehler/.cache/vllm/torch_compile_cache/torch_aot_compile/90537ea14f244a5187d6ecc853fbadcf440d710f29c8e182fe8151f3f7751a82/inductor_cache/uq/cuqnsmpnb253d5gk6lsswbh65wueglelzt47bnxpwicuk3cr4xmt.py":52:52)
#loc39 = loc("/home/ericbuehler/.cache/vllm/torch_compile_cache/torch_aot_compile/90537ea14f244a5187d6ecc853fbadcf440d710f29c8e182fe8151f3f7751a82/inductor_cache/uq/cuqnsmpnb253d5gk6lsswbh65wueglelzt47bnxpwicuk3cr4xmt.py":52:113)
#loc40 = loc("/home/ericbuehler/.cache/vllm/torch_compile_cache/torch_aot_compile/90537ea14f244a5187d6ecc853fbadcf440d710f29c8e182fe8151f3f7751a82/inductor_cache/uq/cuqnsmpnb253d5gk6lsswbh65wueglelzt47bnxpwicuk3cr4xmt.py":55:23)
#loc41 = loc("/home/ericbuehler/.cache/vllm/torch_compile_cache/torch_aot_compile/90537ea14f244a5187d6ecc853fbadcf440d710f29c8e182fe8151f3f7751a82/inductor_cache/uq/cuqnsmpnb253d5gk6lsswbh65wueglelzt47bnxpwicuk3cr4xmt.py":57:23)
#loc42 = loc("/home/ericbuehler/.cache/vllm/torch_compile_cache/torch_aot_compile/90537ea14f244a5187d6ecc853fbadcf440d710f29c8e182fe8151f3f7751a82/inductor_cache/uq/cuqnsmpnb253d5gk6lsswbh65wueglelzt47bnxpwicuk3cr4xmt.py":58:32)
#loc43 = loc("/home/ericbuehler/.cache/vllm/torch_compile_cache/torch_aot_compile/90537ea14f244a5187d6ecc853fbadcf440d710f29c8e182fe8151f3f7751a82/inductor_cache/uq/cuqnsmpnb253d5gk6lsswbh65wueglelzt47bnxpwicuk3cr4xmt.py":59:23)
#loc44 = loc("/home/ericbuehler/.cache/vllm/torch_compile_cache/torch_aot_compile/90537ea14f244a5187d6ecc853fbadcf440d710f29c8e182fe8151f3f7751a82/inductor_cache/uq/cuqnsmpnb253d5gk6lsswbh65wueglelzt47bnxpwicuk3cr4xmt.py":61:24)
#loc45 = loc("/home/ericbuehler/.cache/vllm/torch_compile_cache/torch_aot_compile/90537ea14f244a5187d6ecc853fbadcf440d710f29c8e182fe8151f3f7751a82/inductor_cache/uq/cuqnsmpnb253d5gk6lsswbh65wueglelzt47bnxpwicuk3cr4xmt.py":62:24)
#loc46 = loc("/home/ericbuehler/.cache/vllm/torch_compile_cache/torch_aot_compile/90537ea14f244a5187d6ecc853fbadcf440d710f29c8e182fe8151f3f7751a82/inductor_cache/uq/cuqnsmpnb253d5gk6lsswbh65wueglelzt47bnxpwicuk3cr4xmt.py":64:24)
#loc47 = loc("/home/ericbuehler/.cache/vllm/torch_compile_cache/torch_aot_compile/90537ea14f244a5187d6ecc853fbadcf440d710f29c8e182fe8151f3f7751a82/inductor_cache/uq/cuqnsmpnb253d5gk6lsswbh65wueglelzt47bnxpwicuk3cr4xmt.py":66:25)
#loc48 = loc("/home/ericbuehler/.cache/vllm/torch_compile_cache/torch_aot_compile/90537ea14f244a5187d6ecc853fbadcf440d710f29c8e182fe8151f3f7751a82/inductor_cache/uq/cuqnsmpnb253d5gk6lsswbh65wueglelzt47bnxpwicuk3cr4xmt.py":67:50)
#loc49 = loc("/home/ericbuehler/.cache/vllm/torch_compile_cache/torch_aot_compile/90537ea14f244a5187d6ecc853fbadcf440d710f29c8e182fe8151f3f7751a82/inductor_cache/uq/cuqnsmpnb253d5gk6lsswbh65wueglelzt47bnxpwicuk3cr4xmt.py":67:8)
#loc51 = loc("/home/ericbuehler/.cache/vllm/torch_compile_cache/torch_aot_compile/90537ea14f244a5187d6ecc853fbadcf440d710f29c8e182fe8151f3f7751a82/inductor_cache/uq/cuqnsmpnb253d5gk6lsswbh65wueglelzt47bnxpwicuk3cr4xmt.py":68:30)
#loc52 = loc("/home/ericbuehler/.cache/vllm/torch_compile_cache/torch_aot_compile/90537ea14f244a5187d6ecc853fbadcf440d710f29c8e182fe8151f3f7751a82/inductor_cache/uq/cuqnsmpnb253d5gk6lsswbh65wueglelzt47bnxpwicuk3cr4xmt.py":69:20)
#loc53 = loc("/home/ericbuehler/.cache/vllm/torch_compile_cache/torch_aot_compile/90537ea14f244a5187d6ecc853fbadcf440d710f29c8e182fe8151f3f7751a82/inductor_cache/uq/cuqnsmpnb253d5gk6lsswbh65wueglelzt47bnxpwicuk3cr4xmt.py":69:38)
#loc54 = loc("/home/ericbuehler/.cache/vllm/torch_compile_cache/torch_aot_compile/90537ea14f244a5187d6ecc853fbadcf440d710f29c8e182fe8151f3f7751a82/inductor_cache/uq/cuqnsmpnb253d5gk6lsswbh65wueglelzt47bnxpwicuk3cr4xmt.py":71:43)
#loc55 = loc("/home/ericbuehler/.cache/vllm/torch_compile_cache/torch_aot_compile/90537ea14f244a5187d6ecc853fbadcf440d710f29c8e182fe8151f3f7751a82/inductor_cache/uq/cuqnsmpnb253d5gk6lsswbh65wueglelzt47bnxpwicuk3cr4xmt.py":72:31)
#loc56 = loc("/home/ericbuehler/.cache/vllm/torch_compile_cache/torch_aot_compile/90537ea14f244a5187d6ecc853fbadcf440d710f29c8e182fe8151f3f7751a82/inductor_cache/uq/cuqnsmpnb253d5gk6lsswbh65wueglelzt47bnxpwicuk3cr4xmt.py":73:29)
#loc57 = loc("/home/ericbuehler/.cache/vllm/torch_compile_cache/torch_aot_compile/90537ea14f244a5187d6ecc853fbadcf440d710f29c8e182fe8151f3f7751a82/inductor_cache/uq/cuqnsmpnb253d5gk6lsswbh65wueglelzt47bnxpwicuk3cr4xmt.py":77:47)
#loc58 = loc("/home/ericbuehler/.cache/vllm/torch_compile_cache/torch_aot_compile/90537ea14f244a5187d6ecc853fbadcf440d710f29c8e182fe8151f3f7751a82/inductor_cache/uq/cuqnsmpnb253d5gk6lsswbh65wueglelzt47bnxpwicuk3cr4xmt.py":77:42)
#loc59 = loc("/home/ericbuehler/.cache/vllm/torch_compile_cache/torch_aot_compile/90537ea14f244a5187d6ecc853fbadcf440d710f29c8e182fe8151f3f7751a82/inductor_cache/uq/cuqnsmpnb253d5gk6lsswbh65wueglelzt47bnxpwicuk3cr4xmt.py":77:35)
#loc60 = loc("/home/ericbuehler/.cache/vllm/torch_compile_cache/torch_aot_compile/90537ea14f244a5187d6ecc853fbadcf440d710f29c8e182fe8151f3f7751a82/inductor_cache/uq/cuqnsmpnb253d5gk6lsswbh65wueglelzt47bnxpwicuk3cr4xmt.py":77:62)
#loc61 = loc("/home/ericbuehler/.cache/vllm/torch_compile_cache/torch_aot_compile/90537ea14f244a5187d6ecc853fbadcf440d710f29c8e182fe8151f3f7751a82/inductor_cache/uq/cuqnsmpnb253d5gk6lsswbh65wueglelzt47bnxpwicuk3cr4xmt.py":77:52)
#loc62 = loc("/home/ericbuehler/.cache/vllm/torch_compile_cache/torch_aot_compile/90537ea14f244a5187d6ecc853fbadcf440d710f29c8e182fe8151f3f7751a82/inductor_cache/uq/cuqnsmpnb253d5gk6lsswbh65wueglelzt47bnxpwicuk3cr4xmt.py":77:114)
#loc63 = loc("/home/ericbuehler/.cache/vllm/torch_compile_cache/torch_aot_compile/90537ea14f244a5187d6ecc853fbadcf440d710f29c8e182fe8151f3f7751a82/inductor_cache/uq/cuqnsmpnb253d5gk6lsswbh65wueglelzt47bnxpwicuk3cr4xmt.py":78:35)
#loc64 = loc("/home/ericbuehler/.cache/vllm/torch_compile_cache/torch_aot_compile/90537ea14f244a5187d6ecc853fbadcf440d710f29c8e182fe8151f3f7751a82/inductor_cache/uq/cuqnsmpnb253d5gk6lsswbh65wueglelzt47bnxpwicuk3cr4xmt.py":78:42)
#loc65 = loc("/home/ericbuehler/.cache/vllm/torch_compile_cache/torch_aot_compile/90537ea14f244a5187d6ecc853fbadcf440d710f29c8e182fe8151f3f7751a82/inductor_cache/uq/cuqnsmpnb253d5gk6lsswbh65wueglelzt47bnxpwicuk3cr4xmt.py":78:95)
#loc66 = loc("/home/ericbuehler/.cache/vllm/torch_compile_cache/torch_aot_compile/90537ea14f244a5187d6ecc853fbadcf440d710f29c8e182fe8151f3f7751a82/inductor_cache/uq/cuqnsmpnb253d5gk6lsswbh65wueglelzt47bnxpwicuk3cr4xmt.py":79:35)
#loc67 = loc("/home/ericbuehler/.cache/vllm/torch_compile_cache/torch_aot_compile/90537ea14f244a5187d6ecc853fbadcf440d710f29c8e182fe8151f3f7751a82/inductor_cache/uq/cuqnsmpnb253d5gk6lsswbh65wueglelzt47bnxpwicuk3cr4xmt.py":79:52)
#loc68 = loc("/home/ericbuehler/.cache/vllm/torch_compile_cache/torch_aot_compile/90537ea14f244a5187d6ecc853fbadcf440d710f29c8e182fe8151f3f7751a82/inductor_cache/uq/cuqnsmpnb253d5gk6lsswbh65wueglelzt47bnxpwicuk3cr4xmt.py":79:114)
#loc69 = loc("/home/ericbuehler/.cache/vllm/torch_compile_cache/torch_aot_compile/90537ea14f244a5187d6ecc853fbadcf440d710f29c8e182fe8151f3f7751a82/inductor_cache/uq/cuqnsmpnb253d5gk6lsswbh65wueglelzt47bnxpwicuk3cr4xmt.py":80:35)
#loc70 = loc("/home/ericbuehler/.cache/vllm/torch_compile_cache/torch_aot_compile/90537ea14f244a5187d6ecc853fbadcf440d710f29c8e182fe8151f3f7751a82/inductor_cache/uq/cuqnsmpnb253d5gk6lsswbh65wueglelzt47bnxpwicuk3cr4xmt.py":80:42)
#loc71 = loc("/home/ericbuehler/.cache/vllm/torch_compile_cache/torch_aot_compile/90537ea14f244a5187d6ecc853fbadcf440d710f29c8e182fe8151f3f7751a82/inductor_cache/uq/cuqnsmpnb253d5gk6lsswbh65wueglelzt47bnxpwicuk3cr4xmt.py":80:95)
#loc72 = loc("/home/ericbuehler/.cache/vllm/torch_compile_cache/torch_aot_compile/90537ea14f244a5187d6ecc853fbadcf440d710f29c8e182fe8151f3f7751a82/inductor_cache/uq/cuqnsmpnb253d5gk6lsswbh65wueglelzt47bnxpwicuk3cr4xmt.py":81:35)
#loc73 = loc("/home/ericbuehler/.cache/vllm/torch_compile_cache/torch_aot_compile/90537ea14f244a5187d6ecc853fbadcf440d710f29c8e182fe8151f3f7751a82/inductor_cache/uq/cuqnsmpnb253d5gk6lsswbh65wueglelzt47bnxpwicuk3cr4xmt.py":81:42)
#loc74 = loc("/home/ericbuehler/.cache/vllm/torch_compile_cache/torch_aot_compile/90537ea14f244a5187d6ecc853fbadcf440d710f29c8e182fe8151f3f7751a82/inductor_cache/uq/cuqnsmpnb253d5gk6lsswbh65wueglelzt47bnxpwicuk3cr4xmt.py":81:95)
#loc75 = loc("/home/ericbuehler/.cache/vllm/torch_compile_cache/torch_aot_compile/90537ea14f244a5187d6ecc853fbadcf440d710f29c8e182fe8151f3f7751a82/inductor_cache/uq/cuqnsmpnb253d5gk6lsswbh65wueglelzt47bnxpwicuk3cr4xmt.py":82:35)
#loc76 = loc("/home/ericbuehler/.cache/vllm/torch_compile_cache/torch_aot_compile/90537ea14f244a5187d6ecc853fbadcf440d710f29c8e182fe8151f3f7751a82/inductor_cache/uq/cuqnsmpnb253d5gk6lsswbh65wueglelzt47bnxpwicuk3cr4xmt.py":82:42)
#loc77 = loc("/home/ericbuehler/.cache/vllm/torch_compile_cache/torch_aot_compile/90537ea14f244a5187d6ecc853fbadcf440d710f29c8e182fe8151f3f7751a82/inductor_cache/uq/cuqnsmpnb253d5gk6lsswbh65wueglelzt47bnxpwicuk3cr4xmt.py":82:95)
#loc78 = loc("/home/ericbuehler/.cache/vllm/torch_compile_cache/torch_aot_compile/90537ea14f244a5187d6ecc853fbadcf440d710f29c8e182fe8151f3f7751a82/inductor_cache/uq/cuqnsmpnb253d5gk6lsswbh65wueglelzt47bnxpwicuk3cr4xmt.py":85:24)
#loc79 = loc("/home/ericbuehler/.cache/vllm/torch_compile_cache/torch_aot_compile/90537ea14f244a5187d6ecc853fbadcf440d710f29c8e182fe8151f3f7751a82/inductor_cache/uq/cuqnsmpnb253d5gk6lsswbh65wueglelzt47bnxpwicuk3cr4xmt.py":87:24)
#loc80 = loc("/home/ericbuehler/.cache/vllm/torch_compile_cache/torch_aot_compile/90537ea14f244a5187d6ecc853fbadcf440d710f29c8e182fe8151f3f7751a82/inductor_cache/uq/cuqnsmpnb253d5gk6lsswbh65wueglelzt47bnxpwicuk3cr4xmt.py":88:32)
#loc81 = loc("/home/ericbuehler/.cache/vllm/torch_compile_cache/torch_aot_compile/90537ea14f244a5187d6ecc853fbadcf440d710f29c8e182fe8151f3f7751a82/inductor_cache/uq/cuqnsmpnb253d5gk6lsswbh65wueglelzt47bnxpwicuk3cr4xmt.py":89:24)
#loc82 = loc("/home/ericbuehler/.cache/vllm/torch_compile_cache/torch_aot_compile/90537ea14f244a5187d6ecc853fbadcf440d710f29c8e182fe8151f3f7751a82/inductor_cache/uq/cuqnsmpnb253d5gk6lsswbh65wueglelzt47bnxpwicuk3cr4xmt.py":91:24)
#loc83 = loc("/home/ericbuehler/.cache/vllm/torch_compile_cache/torch_aot_compile/90537ea14f244a5187d6ecc853fbadcf440d710f29c8e182fe8151f3f7751a82/inductor_cache/uq/cuqnsmpnb253d5gk6lsswbh65wueglelzt47bnxpwicuk3cr4xmt.py":92:24)
#loc84 = loc("/home/ericbuehler/.cache/vllm/torch_compile_cache/torch_aot_compile/90537ea14f244a5187d6ecc853fbadcf440d710f29c8e182fe8151f3f7751a82/inductor_cache/uq/cuqnsmpnb253d5gk6lsswbh65wueglelzt47bnxpwicuk3cr4xmt.py":94:25)
#loc85 = loc("/home/ericbuehler/.cache/vllm/torch_compile_cache/torch_aot_compile/90537ea14f244a5187d6ecc853fbadcf440d710f29c8e182fe8151f3f7751a82/inductor_cache/uq/cuqnsmpnb253d5gk6lsswbh65wueglelzt47bnxpwicuk3cr4xmt.py":95:24)
#loc86 = loc("/home/ericbuehler/.cache/vllm/torch_compile_cache/torch_aot_compile/90537ea14f244a5187d6ecc853fbadcf440d710f29c8e182fe8151f3f7751a82/inductor_cache/uq/cuqnsmpnb253d5gk6lsswbh65wueglelzt47bnxpwicuk3cr4xmt.py":96:32)
#loc87 = loc("/home/ericbuehler/.cache/vllm/torch_compile_cache/torch_aot_compile/90537ea14f244a5187d6ecc853fbadcf440d710f29c8e182fe8151f3f7751a82/inductor_cache/uq/cuqnsmpnb253d5gk6lsswbh65wueglelzt47bnxpwicuk3cr4xmt.py":97:24)
#loc88 = loc("/home/ericbuehler/.cache/vllm/torch_compile_cache/torch_aot_compile/90537ea14f244a5187d6ecc853fbadcf440d710f29c8e182fe8151f3f7751a82/inductor_cache/uq/cuqnsmpnb253d5gk6lsswbh65wueglelzt47bnxpwicuk3cr4xmt.py":99:24)
#loc89 = loc("/home/ericbuehler/.cache/vllm/torch_compile_cache/torch_aot_compile/90537ea14f244a5187d6ecc853fbadcf440d710f29c8e182fe8151f3f7751a82/inductor_cache/uq/cuqnsmpnb253d5gk6lsswbh65wueglelzt47bnxpwicuk3cr4xmt.py":70:35)
#loc90 = loc("/home/ericbuehler/.cache/vllm/torch_compile_cache/torch_aot_compile/90537ea14f244a5187d6ecc853fbadcf440d710f29c8e182fe8151f3f7751a82/inductor_cache/uq/cuqnsmpnb253d5gk6lsswbh65wueglelzt47bnxpwicuk3cr4xmt.py":100:24)
#loc91 = loc("/home/ericbuehler/.cache/vllm/torch_compile_cache/torch_aot_compile/90537ea14f244a5187d6ecc853fbadcf440d710f29c8e182fe8151f3f7751a82/inductor_cache/uq/cuqnsmpnb253d5gk6lsswbh65wueglelzt47bnxpwicuk3cr4xmt.py":101:24)
#loc92 = loc("/home/ericbuehler/.cache/vllm/torch_compile_cache/torch_aot_compile/90537ea14f244a5187d6ecc853fbadcf440d710f29c8e182fe8151f3f7751a82/inductor_cache/uq/cuqnsmpnb253d5gk6lsswbh65wueglelzt47bnxpwicuk3cr4xmt.py":102:24)
#loc93 = loc("/home/ericbuehler/.cache/vllm/torch_compile_cache/torch_aot_compile/90537ea14f244a5187d6ecc853fbadcf440d710f29c8e182fe8151f3f7751a82/inductor_cache/uq/cuqnsmpnb253d5gk6lsswbh65wueglelzt47bnxpwicuk3cr4xmt.py":103:29)
#loc94 = loc("/home/ericbuehler/.cache/vllm/torch_compile_cache/torch_aot_compile/90537ea14f244a5187d6ecc853fbadcf440d710f29c8e182fe8151f3f7751a82/inductor_cache/uq/cuqnsmpnb253d5gk6lsswbh65wueglelzt47bnxpwicuk3cr4xmt.py":103:53)
#loc95 = loc("/home/ericbuehler/.cache/vllm/torch_compile_cache/torch_aot_compile/90537ea14f244a5187d6ecc853fbadcf440d710f29c8e182fe8151f3f7751a82/inductor_cache/uq/cuqnsmpnb253d5gk6lsswbh65wueglelzt47bnxpwicuk3cr4xmt.py":104:29)
#loc96 = loc("/home/ericbuehler/.cache/vllm/torch_compile_cache/torch_aot_compile/90537ea14f244a5187d6ecc853fbadcf440d710f29c8e182fe8151f3f7751a82/inductor_cache/uq/cuqnsmpnb253d5gk6lsswbh65wueglelzt47bnxpwicuk3cr4xmt.py":104:53)
#loc97 = loc("/home/ericbuehler/.cache/vllm/torch_compile_cache/torch_aot_compile/90537ea14f244a5187d6ecc853fbadcf440d710f29c8e182fe8151f3f7751a82/inductor_cache/uq/cuqnsmpnb253d5gk6lsswbh65wueglelzt47bnxpwicuk3cr4xmt.py":105:29)
#loc98 = loc("/home/ericbuehler/.cache/vllm/torch_compile_cache/torch_aot_compile/90537ea14f244a5187d6ecc853fbadcf440d710f29c8e182fe8151f3f7751a82/inductor_cache/uq/cuqnsmpnb253d5gk6lsswbh65wueglelzt47bnxpwicuk3cr4xmt.py":105:53)
#loc99 = loc("/home/ericbuehler/.cache/vllm/torch_compile_cache/torch_aot_compile/90537ea14f244a5187d6ecc853fbadcf440d710f29c8e182fe8151f3f7751a82/inductor_cache/uq/cuqnsmpnb253d5gk6lsswbh65wueglelzt47bnxpwicuk3cr4xmt.py":71:4)
#loc113 = loc("xoffset"(#loc2))
#loc114 = loc("xmask"(#loc3))
#loc115 = loc("r0_base"(#loc4))
#loc116 = loc("r0_base"(#loc5))
#loc117 = loc("_tmp4"(#loc6))
#loc118 = loc("r0_index"(#loc7))
#loc119 = loc("r0_mask"(#loc8))
#loc120 = loc("tmp0"(#loc9))
#loc121 = loc("tmp0"(#loc10))
#loc122 = loc("tmp0"(#loc11))
#loc123 = loc("tmp0"(#loc12))
#loc124 = loc("tmp0"(#loc13))
#loc125 = loc("tmp0"(#loc14))
#loc126 = loc("tmp2"(#loc15))
#loc127 = loc("tmp5"(#loc16))
#loc128 = loc("_tmp4"(#loc17))
#loc130 = loc("tmp4"(#loc22))
#loc131 = loc("_tmp22"(#loc25))
#loc132 = loc("r0_index"(#loc26))
#loc133 = loc("r0_mask"(#loc27))
#loc134 = loc("tmp6"(#loc28))
#loc135 = loc("tmp6"(#loc29))
#loc136 = loc("tmp6"(#loc30))
#loc137 = loc("tmp6"(#loc31))
#loc138 = loc("tmp6"(#loc32))
#loc139 = loc("tmp6"(#loc33))
#loc140 = loc("tmp15"(#loc34))
#loc141 = loc("tmp15"(#loc35))
#loc142 = loc("tmp15"(#loc36))
#loc143 = loc("tmp17"(#loc37))
#loc144 = loc("tmp17"(#loc38))
#loc145 = loc("tmp17"(#loc39))
#loc146 = loc("tmp9"(#loc40))
#loc147 = loc("tmp11"(#loc41))
#loc148 = loc("tmp12"(#loc42))
#loc149 = loc("tmp13"(#loc43))
#loc150 = loc("tmp16"(#loc44))
#loc151 = loc("tmp18"(#loc45))
#loc152 = loc("tmp20"(#loc46))
#loc153 = loc("tmp23"(#loc47))
#loc154 = loc("_tmp22"(#loc48))
#loc156 = loc("tmp22"(#loc51))
#loc157 = loc("tmp43"(#loc52))
#loc158 = loc("tmp43"(#loc53))
#loc159 = loc("r0_index"(#loc55))
#loc160 = loc("r0_mask"(#loc56))
#loc161 = loc("tmp24"(#loc57))
#loc162 = loc("tmp24"(#loc58))
#loc163 = loc("tmp24"(#loc59))
#loc164 = loc("tmp24"(#loc60))
#loc165 = loc("tmp24"(#loc61))
#loc166 = loc("tmp24"(#loc62))
#loc167 = loc("tmp33"(#loc63))
#loc168 = loc("tmp33"(#loc64))
#loc169 = loc("tmp33"(#loc65))
#loc170 = loc("tmp35"(#loc66))
#loc171 = loc("tmp35"(#loc67))
#loc172 = loc("tmp35"(#loc68))
#loc173 = loc("tmp46"(#loc69))
#loc174 = loc("tmp46"(#loc70))
#loc175 = loc("tmp46"(#loc71))
#loc176 = loc("tmp48"(#loc72))
#loc177 = loc("tmp48"(#loc73))
#loc178 = loc("tmp48"(#loc74))
#loc179 = loc("tmp50"(#loc75))
#loc180 = loc("tmp50"(#loc76))
#loc181 = loc("tmp50"(#loc77))
#loc182 = loc("tmp27"(#loc78))
#loc183 = loc("tmp29"(#loc79))
#loc184 = loc("tmp30"(#loc80))
#loc185 = loc("tmp31"(#loc81))
#loc186 = loc("tmp34"(#loc82))
#loc187 = loc("tmp36"(#loc83))
#loc188 = loc("tmp38"(#loc84))
#loc189 = loc("tmp39"(#loc85))
#loc190 = loc("tmp40"(#loc86))
#loc191 = loc("tmp41"(#loc87))
#loc192 = loc("tmp45"(#loc88))
#loc193 = loc("tmp44"(#loc89))
#loc194 = loc("tmp47"(#loc90))
#loc195 = loc("tmp49"(#loc91))
#loc196 = loc("tmp51"(#loc92))
#loc197 = loc(fused[#loc121, #loc120])
#loc198 = loc(fused[#loc123, #loc114])
#loc199 = loc(callsite(#loc19 at #loc129))
#loc201 = loc(fused[#loc135, #loc134])
#loc202 = loc(fused[#loc137, #loc114])
#loc203 = loc(callsite(#loc19 at #loc155))
#loc205 = loc(fused[#loc162, #loc161])
#loc206 = loc(fused[#loc164, #loc114])
#loc207 = loc(fused[#loc192, #loc193])
#loc208 = loc(callsite(#loc21 at #loc199))
#loc209 = loc(callsite(#loc21 at #loc203))
