#loc = loc("/home/ericbuehler/.cache/vllm/torch_compile_cache/torch_aot_compile/90537ea14f244a5187d6ecc853fbadcf440d710f29c8e182fe8151f3f7751a82/inductor_cache/uq/cuqnsmpnb253d5gk6lsswbh65wueglelzt47bnxpwicuk3cr4xmt.py":18:0)
#loc126 = loc("/home/ericbuehler/vllm/.venv-bench/lib/python3.12/site-packages/triton/language/standard.py":287:0)
#loc128 = loc(unknown)
#loc131 = loc("/home/ericbuehler/vllm/.venv-bench/lib/python3.12/site-packages/triton/language/standard.py":262:0)
#loc135 = loc("in_ptr0"(#loc))
#loc136 = loc("in_ptr1"(#loc))
#loc137 = loc("in_ptr2"(#loc))
#loc138 = loc("in_ptr3"(#loc))
#loc139 = loc("in_ptr4"(#loc))
#loc140 = loc("in_ptr5"(#loc))
#loc141 = loc("in_ptr6"(#loc))
#loc142 = loc("out_ptr0"(#loc))
#loc143 = loc("out_ptr4"(#loc))
#loc144 = loc("out_ptr5"(#loc))
#loc145 = loc("out_ptr6"(#loc))
#loc146 = loc("xnumel"(#loc))
#loc147 = loc("r0_numel"(#loc))
#loc252 = loc("input"(#loc126))
#loc253 = loc("a"(#loc131))
#loc254 = loc("b"(#loc131))
module {
  tt.func public @triton_red_fused__to_copy_add_moe_forward_mul_rms_norm_0(%in_ptr0: !tt.ptr<bf16> {tt.divisibility = 16 : i32} loc("in_ptr0"(#loc)), %in_ptr1: !tt.ptr<bf16> {tt.divisibility = 16 : i32} loc("in_ptr1"(#loc)), %in_ptr2: !tt.ptr<bf16> {tt.divisibility = 16 : i32} loc("in_ptr2"(#loc)), %in_ptr3: !tt.ptr<bf16> {tt.divisibility = 16 : i32} loc("in_ptr3"(#loc)), %in_ptr4: !tt.ptr<bf16> {tt.divisibility = 16 : i32} loc("in_ptr4"(#loc)), %in_ptr5: !tt.ptr<bf16> {tt.divisibility = 16 : i32} loc("in_ptr5"(#loc)), %in_ptr6: !tt.ptr<bf16> {tt.divisibility = 16 : i32} loc("in_ptr6"(#loc)), %out_ptr0: !tt.ptr<f32> {tt.divisibility = 16 : i32} loc("out_ptr0"(#loc)), %out_ptr4: !tt.ptr<bf16> {tt.divisibility = 16 : i32} loc("out_ptr4"(#loc)), %out_ptr5: !tt.ptr<bf16> {tt.divisibility = 16 : i32} loc("out_ptr5"(#loc)), %out_ptr6: !tt.ptr<bf16> {tt.divisibility = 16 : i32} loc("out_ptr6"(#loc)), %xnumel: i32 loc("xnumel"(#loc)), %r0_numel: i32 {tt.divisibility = 16 : i32} loc("r0_numel"(#loc))) attributes {noinline = false} {
    %r0_numel_0 = arith.constant 2816 : i32 loc(#loc148)
    %xoffset = tt.get_program_id x : i32 loc(#loc149)
    %xoffset_1 = arith.constant 1 : i32 loc(#loc150)
    %xoffset_2 = arith.constant 1 : i32 loc(#loc150)
    %xoffset_3 = arith.muli %xoffset, %xoffset_2 : i32 loc(#loc150)
    %xindex = tt.make_range {end = 1 : i32, start = 0 : i32} : tensor<1xi32> loc(#loc151)
    %xindex_4 = tt.expand_dims %xindex {axis = 1 : i32} : tensor<1xi32> -> tensor<1x1xi32> loc(#loc152)
    %xindex_5 = tt.splat %xoffset_3 : i32 -> tensor<1x1xi32> loc(#loc153)
    %xindex_6 = arith.addi %xindex_5, %xindex_4 : tensor<1x1xi32> loc(#loc153)
    %xmask = tt.splat %xnumel : i32 -> tensor<1x1xi32> loc(#loc154)
    %xmask_7 = arith.cmpi slt, %xindex_6, %xmask : tensor<1x1xi32> loc(#loc154)
    %r0_base = tt.make_range {end = 1024 : i32, start = 0 : i32} : tensor<1024xi32> loc(#loc155)
    %r0_base_8 = tt.expand_dims %r0_base {axis = 0 : i32} : tensor<1024xi32> -> tensor<1x1024xi32> loc(#loc156)
    %_tmp4 = arith.constant 0.000000e+00 : f32 loc(#loc157)
    %_tmp4_9 = arith.constant dense<0.000000e+00> : tensor<1x1024xf32> loc(#loc157)
    %c0_i32 = arith.constant 0 : i32 loc(#loc11)
    %c1024_i32 = arith.constant 1024 : i32 loc(#loc11)
    %0 = arith.bitcast %c0_i32 : i32 to i32 loc(#loc11)
    %1 = arith.bitcast %r0_numel_0 : i32 to i32 loc(#loc11)
    %2 = arith.bitcast %c1024_i32 : i32 to i32 loc(#loc11)
    %3 = ub.poison : i32 loc(#loc11)
    %_tmp4_10 = scf.for %r0_offset = %0 to %1 step %2 iter_args(%_tmp4_22 = %_tmp4_9) -> (tensor<1x1024xf32>)  : i32 {
      %r0_index = tt.splat %r0_offset : i32 -> tensor<1x1024xi32> loc(#loc159)
      %r0_index_23 = arith.addi %r0_index, %r0_base_8 : tensor<1x1024xi32> loc(#loc159)
      %r0_mask = arith.constant dense<2816> : tensor<1x1024xi32> loc(#loc160)
      %r0_mask_24 = arith.cmpi slt, %r0_index_23, %r0_mask : tensor<1x1024xi32> loc(#loc160)
      %tmp0 = arith.constant 2816 : i32 loc(#loc161)
      %tmp0_25 = arith.constant 2816 : i32 loc(#loc161)
      %tmp0_26 = arith.constant dense<2816> : tensor<1x1xi32> loc(#loc161)
      %tmp0_27 = arith.muli %tmp0_26, %xindex_6 : tensor<1x1xi32> loc(#loc161)
      %tmp0_28 = tt.broadcast %tmp0_27 : tensor<1x1xi32> -> tensor<1x1024xi32> loc(#loc162)
      %tmp0_29 = arith.addi %r0_index_23, %tmp0_28 : tensor<1x1024xi32> loc(#loc162)
      %tmp0_30 = tt.splat %in_ptr0 : !tt.ptr<bf16> -> tensor<1x1024x!tt.ptr<bf16>> loc(#loc163)
      %tmp0_31 = tt.addptr %tmp0_30, %tmp0_29 : tensor<1x1024x!tt.ptr<bf16>>, tensor<1x1024xi32> loc(#loc163)
      %tmp0_32 = tt.broadcast %xmask_7 : tensor<1x1xi1> -> tensor<1x1024xi1> loc(#loc164)
      %tmp0_33 = arith.andi %r0_mask_24, %tmp0_32 : tensor<1x1024xi1> loc(#loc164)
      %tmp0_34 = arith.constant 0.000000e+00 : f32 loc(#loc165)
      %tmp0_35 = arith.constant dense<0.000000e+00> : tensor<1x1024xf32> loc(#loc165)
      %tmp0_36 = arith.truncf %tmp0_35 : tensor<1x1024xf32> to tensor<1x1024xbf16> loc(#loc165)
      %tmp0_37 = tt.load %tmp0_31, %tmp0_33, %tmp0_36 evictionPolicy = evict_last : tensor<1x1024x!tt.ptr<bf16>> loc(#loc165)
      %tmp0_38 = arith.extf %tmp0_37 : tensor<1x1024xbf16> to tensor<1x1024xf32> loc(#loc166)
      %tmp2 = arith.mulf %tmp0_38, %tmp0_38 : tensor<1x1024xf32> loc(#loc167)
      %tmp5 = arith.addf %_tmp4_22, %tmp2 : tensor<1x1024xf32> loc(#loc168)
      %_tmp4_39 = tt.broadcast %xmask_7 : tensor<1x1xi1> -> tensor<1x1024xi1> loc(#loc169)
      %_tmp4_40 = arith.andi %r0_mask_24, %_tmp4_39 : tensor<1x1024xi1> loc(#loc169)
      %_tmp4_41 = arith.select %_tmp4_40, %tmp5, %_tmp4_22 : tensor<1x1024xi1>, tensor<1x1024xf32> loc(#loc170)
      scf.yield %_tmp4_41 : tensor<1x1024xf32> loc(#loc24)
    } loc(#loc158)
    %tmp4 = tt.call @"triton.language.standard.sum__fp32S1_1024S__(1,)cconstexpr_1__(2,)cconstexpr_False__(3,)cNone"(%_tmp4_10) : (tensor<1x1024xf32>) -> tensor<1xf32> loc(#loc171)
    %tmp4_11 = tt.expand_dims %tmp4 {axis = 1 : i32} : tensor<1xf32> -> tensor<1x1xf32> loc(#loc172)
    %4 = tt.splat %out_ptr0 : !tt.ptr<f32> -> tensor<1x1x!tt.ptr<f32>> loc(#loc27)
    %5 = tt.addptr %4, %xindex_6 : tensor<1x1x!tt.ptr<f32>>, tensor<1x1xi32> loc(#loc27)
    tt.store %5, %tmp4_11, %xmask_7 : tensor<1x1x!tt.ptr<f32>> loc(#loc28)
    %_tmp22 = arith.constant 0.000000e+00 : f32 loc(#loc173)
    %_tmp22_12 = arith.constant dense<0.000000e+00> : tensor<1x1024xf32> loc(#loc173)
    %c0_i32_13 = arith.constant 0 : i32 loc(#loc30)
    %c1024_i32_14 = arith.constant 1024 : i32 loc(#loc30)
    %6 = arith.bitcast %c0_i32_13 : i32 to i32 loc(#loc30)
    %7 = arith.bitcast %r0_numel_0 : i32 to i32 loc(#loc30)
    %8 = arith.bitcast %c1024_i32_14 : i32 to i32 loc(#loc30)
    %9 = ub.poison : i32 loc(#loc30)
    %_tmp22_15 = scf.for %r0_offset = %6 to %7 step %8 iter_args(%_tmp22_22 = %_tmp22_12) -> (tensor<1x1024xf32>)  : i32 {
      %r0_index = tt.splat %r0_offset : i32 -> tensor<1x1024xi32> loc(#loc175)
      %r0_index_23 = arith.addi %r0_index, %r0_base_8 : tensor<1x1024xi32> loc(#loc175)
      %r0_mask = arith.constant dense<2816> : tensor<1x1024xi32> loc(#loc176)
      %r0_mask_24 = arith.cmpi slt, %r0_index_23, %r0_mask : tensor<1x1024xi32> loc(#loc176)
      %tmp6 = arith.constant 2816 : i32 loc(#loc177)
      %tmp6_25 = arith.constant 2816 : i32 loc(#loc177)
      %tmp6_26 = arith.constant dense<2816> : tensor<1x1xi32> loc(#loc177)
      %tmp6_27 = arith.muli %tmp6_26, %xindex_6 : tensor<1x1xi32> loc(#loc177)
      %tmp6_28 = tt.broadcast %tmp6_27 : tensor<1x1xi32> -> tensor<1x1024xi32> loc(#loc178)
      %tmp6_29 = arith.addi %r0_index_23, %tmp6_28 : tensor<1x1024xi32> loc(#loc178)
      %tmp6_30 = tt.splat %in_ptr0 : !tt.ptr<bf16> -> tensor<1x1024x!tt.ptr<bf16>> loc(#loc179)
      %tmp6_31 = tt.addptr %tmp6_30, %tmp6_29 : tensor<1x1024x!tt.ptr<bf16>>, tensor<1x1024xi32> loc(#loc179)
      %tmp6_32 = tt.broadcast %xmask_7 : tensor<1x1xi1> -> tensor<1x1024xi1> loc(#loc180)
      %tmp6_33 = arith.andi %r0_mask_24, %tmp6_32 : tensor<1x1024xi1> loc(#loc180)
      %tmp6_34 = arith.constant 0.000000e+00 : f32 loc(#loc181)
      %tmp6_35 = arith.constant dense<0.000000e+00> : tensor<1x1024xf32> loc(#loc181)
      %tmp6_36 = arith.truncf %tmp6_35 : tensor<1x1024xf32> to tensor<1x1024xbf16> loc(#loc181)
      %tmp6_37 = tt.load %tmp6_31, %tmp6_33, %tmp6_36 evictionPolicy = evict_last : tensor<1x1024x!tt.ptr<bf16>> loc(#loc181)
      %tmp6_38 = arith.extf %tmp6_37 : tensor<1x1024xbf16> to tensor<1x1024xf32> loc(#loc182)
      %tmp15 = tt.splat %in_ptr1 : !tt.ptr<bf16> -> tensor<1x1024x!tt.ptr<bf16>> loc(#loc183)
      %tmp15_39 = tt.addptr %tmp15, %r0_index_23 : tensor<1x1024x!tt.ptr<bf16>>, tensor<1x1024xi32> loc(#loc183)
      %tmp15_40 = arith.constant 0.000000e+00 : f32 loc(#loc184)
      %tmp15_41 = arith.constant dense<0.000000e+00> : tensor<1x1024xf32> loc(#loc184)
      %tmp15_42 = arith.truncf %tmp15_41 : tensor<1x1024xf32> to tensor<1x1024xbf16> loc(#loc184)
      %tmp15_43 = tt.load %tmp15_39, %r0_mask_24, %tmp15_42 evictionPolicy = evict_last : tensor<1x1024x!tt.ptr<bf16>> loc(#loc184)
      %tmp15_44 = arith.extf %tmp15_43 : tensor<1x1024xbf16> to tensor<1x1024xf32> loc(#loc185)
      %tmp17 = arith.constant 2816 : i32 loc(#loc186)
      %tmp17_45 = arith.constant 2816 : i32 loc(#loc186)
      %tmp17_46 = arith.constant dense<2816> : tensor<1x1xi32> loc(#loc186)
      %tmp17_47 = arith.muli %tmp17_46, %xindex_6 : tensor<1x1xi32> loc(#loc186)
      %tmp17_48 = tt.broadcast %tmp17_47 : tensor<1x1xi32> -> tensor<1x1024xi32> loc(#loc187)
      %tmp17_49 = arith.addi %r0_index_23, %tmp17_48 : tensor<1x1024xi32> loc(#loc187)
      %tmp17_50 = tt.splat %in_ptr2 : !tt.ptr<bf16> -> tensor<1x1024x!tt.ptr<bf16>> loc(#loc188)
      %tmp17_51 = tt.addptr %tmp17_50, %tmp17_49 : tensor<1x1024x!tt.ptr<bf16>>, tensor<1x1024xi32> loc(#loc188)
      %tmp17_52 = tt.broadcast %xmask_7 : tensor<1x1xi1> -> tensor<1x1024xi1> loc(#loc189)
      %tmp17_53 = arith.andi %r0_mask_24, %tmp17_52 : tensor<1x1024xi1> loc(#loc189)
      %tmp17_54 = arith.constant 0.000000e+00 : f32 loc(#loc190)
      %tmp17_55 = arith.constant dense<0.000000e+00> : tensor<1x1024xf32> loc(#loc190)
      %tmp17_56 = arith.truncf %tmp17_55 : tensor<1x1024xf32> to tensor<1x1024xbf16> loc(#loc190)
      %tmp17_57 = tt.load %tmp17_51, %tmp17_53, %tmp17_56 evictionPolicy = evict_last : tensor<1x1024x!tt.ptr<bf16>> loc(#loc190)
      %tmp17_58 = arith.extf %tmp17_57 : tensor<1x1024xbf16> to tensor<1x1024xf32> loc(#loc191)
      %tmp8 = arith.constant 2.816000e+03 : f32 loc(#loc192)
      %tmp8_59 = arith.constant dense<2.816000e+03> : tensor<1x1xf32> loc(#loc192)
      %tmp9 = arith.divf %tmp4_11, %tmp8_59 : tensor<1x1xf32> loc(#loc193)
      %tmp10 = arith.constant 9.99999997E-7 : f32 loc(#loc194)
      %tmp10_60 = arith.constant dense<9.99999997E-7> : tensor<1x1xf32> loc(#loc194)
      %tmp11 = arith.addf %tmp9, %tmp10_60 : tensor<1x1xf32> loc(#loc195)
      %tmp12 = tt.extern_elementwise %tmp11 {libname = "", libpath = "", pure = true, symbol = "__nv_rsqrtf"} : (tensor<1x1xf32>) -> tensor<1x1xf32> loc(#loc196)
      %tmp13 = tt.broadcast %tmp12 : tensor<1x1xf32> -> tensor<1x1024xf32> loc(#loc197)
      %tmp13_61 = arith.mulf %tmp6_38, %tmp13 : tensor<1x1024xf32> loc(#loc197)
      %tmp16 = arith.mulf %tmp13_61, %tmp15_44 : tensor<1x1024xf32> loc(#loc198)
      %tmp18 = arith.addf %tmp16, %tmp17_58 : tensor<1x1024xf32> loc(#loc199)
      %tmp20 = arith.mulf %tmp18, %tmp18 : tensor<1x1024xf32> loc(#loc200)
      %tmp23 = arith.addf %_tmp22_22, %tmp20 : tensor<1x1024xf32> loc(#loc201)
      %_tmp22_62 = tt.broadcast %xmask_7 : tensor<1x1xi1> -> tensor<1x1024xi1> loc(#loc202)
      %_tmp22_63 = arith.andi %r0_mask_24, %_tmp22_62 : tensor<1x1024xi1> loc(#loc202)
      %_tmp22_64 = arith.select %_tmp22_63, %tmp23, %_tmp22_22 : tensor<1x1024xi1>, tensor<1x1024xf32> loc(#loc203)
      scf.yield %_tmp22_64 : tensor<1x1024xf32> loc(#loc60)
    } loc(#loc174)
    %tmp22 = tt.call @"triton.language.standard.sum__fp32S1_1024S__(1,)cconstexpr_1__(2,)cconstexpr_False__(3,)cNone"(%_tmp22_15) : (tensor<1x1024xf32>) -> tensor<1xf32> loc(#loc204)
    %tmp22_16 = tt.expand_dims %tmp22 {axis = 1 : i32} : tensor<1xf32> -> tensor<1x1xf32> loc(#loc205)
    %tmp43 = arith.constant 0 : i32 loc(#loc206)
    %tmp43_17 = tt.addptr %in_ptr3, %tmp43 : !tt.ptr<bf16>, i32 loc(#loc206)
    %tmp43_18 = tt.load %tmp43_17 : !tt.ptr<bf16> loc(#loc207)
    %tmp43_19 = arith.extf %tmp43_18 : bf16 to f32 loc(#loc208)
    %tmp44 = tt.splat %tmp43_19 : f32 -> tensor<1x1xf32> loc(#loc209)
    %c0_i32_20 = arith.constant 0 : i32 loc(#loc67)
    %c1024_i32_21 = arith.constant 1024 : i32 loc(#loc67)
    %10 = arith.bitcast %c0_i32_20 : i32 to i32 loc(#loc67)
    %11 = arith.bitcast %r0_numel_0 : i32 to i32 loc(#loc67)
    %12 = arith.bitcast %c1024_i32_21 : i32 to i32 loc(#loc67)
    %13 = ub.poison : i32 loc(#loc67)
    scf.for %r0_offset = %10 to %11 step %12  : i32 {
      %r0_index = tt.splat %r0_offset : i32 -> tensor<1x1024xi32> loc(#loc210)
      %r0_index_22 = arith.addi %r0_index, %r0_base_8 : tensor<1x1024xi32> loc(#loc210)
      %r0_mask = arith.constant dense<2816> : tensor<1x1024xi32> loc(#loc211)
      %r0_mask_23 = arith.cmpi slt, %r0_index_22, %r0_mask : tensor<1x1024xi32> loc(#loc211)
      %tmp24 = arith.constant 2816 : i32 loc(#loc212)
      %tmp24_24 = arith.constant 2816 : i32 loc(#loc212)
      %tmp24_25 = arith.constant dense<2816> : tensor<1x1xi32> loc(#loc212)
      %tmp24_26 = arith.muli %tmp24_25, %xindex_6 : tensor<1x1xi32> loc(#loc212)
      %tmp24_27 = tt.broadcast %tmp24_26 : tensor<1x1xi32> -> tensor<1x1024xi32> loc(#loc213)
      %tmp24_28 = arith.addi %r0_index_22, %tmp24_27 : tensor<1x1024xi32> loc(#loc213)
      %tmp24_29 = tt.splat %in_ptr0 : !tt.ptr<bf16> -> tensor<1x1024x!tt.ptr<bf16>> loc(#loc214)
      %tmp24_30 = tt.addptr %tmp24_29, %tmp24_28 : tensor<1x1024x!tt.ptr<bf16>>, tensor<1x1024xi32> loc(#loc214)
      %tmp24_31 = tt.broadcast %xmask_7 : tensor<1x1xi1> -> tensor<1x1024xi1> loc(#loc215)
      %tmp24_32 = arith.andi %r0_mask_23, %tmp24_31 : tensor<1x1024xi1> loc(#loc215)
      %tmp24_33 = arith.constant 0.000000e+00 : f32 loc(#loc216)
      %tmp24_34 = arith.constant dense<0.000000e+00> : tensor<1x1024xf32> loc(#loc216)
      %tmp24_35 = arith.truncf %tmp24_34 : tensor<1x1024xf32> to tensor<1x1024xbf16> loc(#loc216)
      %tmp24_36 = tt.load %tmp24_30, %tmp24_32, %tmp24_35 evictionPolicy = evict_first : tensor<1x1024x!tt.ptr<bf16>> loc(#loc216)
      %tmp24_37 = arith.extf %tmp24_36 : tensor<1x1024xbf16> to tensor<1x1024xf32> loc(#loc217)
      %tmp33 = tt.splat %in_ptr1 : !tt.ptr<bf16> -> tensor<1x1024x!tt.ptr<bf16>> loc(#loc218)
      %tmp33_38 = tt.addptr %tmp33, %r0_index_22 : tensor<1x1024x!tt.ptr<bf16>>, tensor<1x1024xi32> loc(#loc218)
      %tmp33_39 = arith.constant 0.000000e+00 : f32 loc(#loc219)
      %tmp33_40 = arith.constant dense<0.000000e+00> : tensor<1x1024xf32> loc(#loc219)
      %tmp33_41 = arith.truncf %tmp33_40 : tensor<1x1024xf32> to tensor<1x1024xbf16> loc(#loc219)
      %tmp33_42 = tt.load %tmp33_38, %r0_mask_23, %tmp33_41 evictionPolicy = evict_last : tensor<1x1024x!tt.ptr<bf16>> loc(#loc219)
      %tmp33_43 = arith.extf %tmp33_42 : tensor<1x1024xbf16> to tensor<1x1024xf32> loc(#loc220)
      %tmp35 = arith.constant 2816 : i32 loc(#loc221)
      %tmp35_44 = arith.constant 2816 : i32 loc(#loc221)
      %tmp35_45 = arith.constant dense<2816> : tensor<1x1xi32> loc(#loc221)
      %tmp35_46 = arith.muli %tmp35_45, %xindex_6 : tensor<1x1xi32> loc(#loc221)
      %tmp35_47 = tt.broadcast %tmp35_46 : tensor<1x1xi32> -> tensor<1x1024xi32> loc(#loc222)
      %tmp35_48 = arith.addi %r0_index_22, %tmp35_47 : tensor<1x1024xi32> loc(#loc222)
      %tmp35_49 = tt.splat %in_ptr2 : !tt.ptr<bf16> -> tensor<1x1024x!tt.ptr<bf16>> loc(#loc223)
      %tmp35_50 = tt.addptr %tmp35_49, %tmp35_48 : tensor<1x1024x!tt.ptr<bf16>>, tensor<1x1024xi32> loc(#loc223)
      %tmp35_51 = tt.broadcast %xmask_7 : tensor<1x1xi1> -> tensor<1x1024xi1> loc(#loc224)
      %tmp35_52 = arith.andi %r0_mask_23, %tmp35_51 : tensor<1x1024xi1> loc(#loc224)
      %tmp35_53 = arith.constant 0.000000e+00 : f32 loc(#loc225)
      %tmp35_54 = arith.constant dense<0.000000e+00> : tensor<1x1024xf32> loc(#loc225)
      %tmp35_55 = arith.truncf %tmp35_54 : tensor<1x1024xf32> to tensor<1x1024xbf16> loc(#loc225)
      %tmp35_56 = tt.load %tmp35_50, %tmp35_52, %tmp35_55 evictionPolicy = evict_first : tensor<1x1024x!tt.ptr<bf16>> loc(#loc225)
      %tmp35_57 = arith.extf %tmp35_56 : tensor<1x1024xbf16> to tensor<1x1024xf32> loc(#loc226)
      %tmp46 = tt.splat %in_ptr4 : !tt.ptr<bf16> -> tensor<1x1024x!tt.ptr<bf16>> loc(#loc227)
      %tmp46_58 = tt.addptr %tmp46, %r0_index_22 : tensor<1x1024x!tt.ptr<bf16>>, tensor<1x1024xi32> loc(#loc227)
      %tmp46_59 = arith.constant 0.000000e+00 : f32 loc(#loc228)
      %tmp46_60 = arith.constant dense<0.000000e+00> : tensor<1x1024xf32> loc(#loc228)
      %tmp46_61 = arith.truncf %tmp46_60 : tensor<1x1024xf32> to tensor<1x1024xbf16> loc(#loc228)
      %tmp46_62 = tt.load %tmp46_58, %r0_mask_23, %tmp46_61 evictionPolicy = evict_last : tensor<1x1024x!tt.ptr<bf16>> loc(#loc228)
      %tmp46_63 = arith.extf %tmp46_62 : tensor<1x1024xbf16> to tensor<1x1024xf32> loc(#loc229)
      %tmp48 = tt.splat %in_ptr5 : !tt.ptr<bf16> -> tensor<1x1024x!tt.ptr<bf16>> loc(#loc230)
      %tmp48_64 = tt.addptr %tmp48, %r0_index_22 : tensor<1x1024x!tt.ptr<bf16>>, tensor<1x1024xi32> loc(#loc230)
      %tmp48_65 = arith.constant 0.000000e+00 : f32 loc(#loc231)
      %tmp48_66 = arith.constant dense<0.000000e+00> : tensor<1x1024xf32> loc(#loc231)
      %tmp48_67 = arith.truncf %tmp48_66 : tensor<1x1024xf32> to tensor<1x1024xbf16> loc(#loc231)
      %tmp48_68 = tt.load %tmp48_64, %r0_mask_23, %tmp48_67 evictionPolicy = evict_last : tensor<1x1024x!tt.ptr<bf16>> loc(#loc231)
      %tmp48_69 = arith.extf %tmp48_68 : tensor<1x1024xbf16> to tensor<1x1024xf32> loc(#loc232)
      %tmp50 = tt.splat %in_ptr6 : !tt.ptr<bf16> -> tensor<1x1024x!tt.ptr<bf16>> loc(#loc233)
      %tmp50_70 = tt.addptr %tmp50, %r0_index_22 : tensor<1x1024x!tt.ptr<bf16>>, tensor<1x1024xi32> loc(#loc233)
      %tmp50_71 = arith.constant 0.000000e+00 : f32 loc(#loc234)
      %tmp50_72 = arith.constant dense<0.000000e+00> : tensor<1x1024xf32> loc(#loc234)
      %tmp50_73 = arith.truncf %tmp50_72 : tensor<1x1024xf32> to tensor<1x1024xbf16> loc(#loc234)
      %tmp50_74 = tt.load %tmp50_70, %r0_mask_23, %tmp50_73 evictionPolicy = evict_last : tensor<1x1024x!tt.ptr<bf16>> loc(#loc234)
      %tmp50_75 = arith.extf %tmp50_74 : tensor<1x1024xbf16> to tensor<1x1024xf32> loc(#loc235)
      %tmp26 = arith.constant 2.816000e+03 : f32 loc(#loc236)
      %tmp26_76 = arith.constant dense<2.816000e+03> : tensor<1x1xf32> loc(#loc236)
      %tmp27 = arith.divf %tmp4_11, %tmp26_76 : tensor<1x1xf32> loc(#loc237)
      %tmp28 = arith.constant 9.99999997E-7 : f32 loc(#loc238)
      %tmp28_77 = arith.constant dense<9.99999997E-7> : tensor<1x1xf32> loc(#loc238)
      %tmp29 = arith.addf %tmp27, %tmp28_77 : tensor<1x1xf32> loc(#loc239)
      %tmp30 = tt.extern_elementwise %tmp29 {libname = "", libpath = "", pure = true, symbol = "__nv_rsqrtf"} : (tensor<1x1xf32>) -> tensor<1x1xf32> loc(#loc240)
      %tmp31 = tt.broadcast %tmp30 : tensor<1x1xf32> -> tensor<1x1024xf32> loc(#loc241)
      %tmp31_78 = arith.mulf %tmp24_37, %tmp31 : tensor<1x1024xf32> loc(#loc241)
      %tmp34 = arith.mulf %tmp31_78, %tmp33_43 : tensor<1x1024xf32> loc(#loc242)
      %tmp36 = arith.addf %tmp34, %tmp35_57 : tensor<1x1024xf32> loc(#loc243)
      %tmp38 = arith.divf %tmp22_16, %tmp26_76 : tensor<1x1xf32> loc(#loc244)
      %tmp39 = arith.addf %tmp38, %tmp28_77 : tensor<1x1xf32> loc(#loc245)
      %tmp40 = tt.extern_elementwise %tmp39 {libname = "", libpath = "", pure = true, symbol = "__nv_rsqrtf"} : (tensor<1x1xf32>) -> tensor<1x1xf32> loc(#loc246)
      %tmp41 = tt.broadcast %tmp40 : tensor<1x1xf32> -> tensor<1x1024xf32> loc(#loc247)
      %tmp41_79 = arith.mulf %tmp36, %tmp41 : tensor<1x1024xf32> loc(#loc247)
      %tmp45 = tt.broadcast %tmp44 : tensor<1x1xf32> -> tensor<1x1024xf32> loc(#loc248)
      %tmp45_80 = arith.mulf %tmp41_79, %tmp45 : tensor<1x1024xf32> loc(#loc248)
      %tmp47 = arith.mulf %tmp45_80, %tmp46_63 : tensor<1x1024xf32> loc(#loc249)
      %tmp49 = arith.mulf %tmp41_79, %tmp48_69 : tensor<1x1024xf32> loc(#loc250)
      %tmp51 = arith.mulf %tmp41_79, %tmp50_75 : tensor<1x1024xf32> loc(#loc251)
      %c2816_i32 = arith.constant 2816 : i32 loc(#loc110)
      %c2816_i32_81 = arith.constant 2816 : i32 loc(#loc110)
      %cst = arith.constant dense<2816> : tensor<1x1xi32> loc(#loc110)
      %14 = arith.muli %cst, %xindex_6 : tensor<1x1xi32> loc(#loc110)
      %15 = tt.broadcast %14 : tensor<1x1xi32> -> tensor<1x1024xi32> loc(#loc111)
      %16 = arith.addi %r0_index_22, %15 : tensor<1x1024xi32> loc(#loc111)
      %17 = tt.splat %out_ptr4 : !tt.ptr<bf16> -> tensor<1x1024x!tt.ptr<bf16>> loc(#loc112)
      %18 = tt.addptr %17, %16 : tensor<1x1024x!tt.ptr<bf16>>, tensor<1x1024xi32> loc(#loc112)
      %19 = tt.broadcast %xmask_7 : tensor<1x1xi1> -> tensor<1x1024xi1> loc(#loc113)
      %20 = arith.andi %r0_mask_23, %19 : tensor<1x1024xi1> loc(#loc113)
      %21 = arith.truncf %tmp47 : tensor<1x1024xf32> to tensor<1x1024xbf16> loc(#loc114)
      tt.store %18, %21, %20 : tensor<1x1024x!tt.ptr<bf16>> loc(#loc114)
      %c2816_i32_82 = arith.constant 2816 : i32 loc(#loc115)
      %c2816_i32_83 = arith.constant 2816 : i32 loc(#loc115)
      %cst_84 = arith.constant dense<2816> : tensor<1x1xi32> loc(#loc115)
      %22 = arith.muli %cst_84, %xindex_6 : tensor<1x1xi32> loc(#loc115)
      %23 = tt.broadcast %22 : tensor<1x1xi32> -> tensor<1x1024xi32> loc(#loc116)
      %24 = arith.addi %r0_index_22, %23 : tensor<1x1024xi32> loc(#loc116)
      %25 = tt.splat %out_ptr5 : !tt.ptr<bf16> -> tensor<1x1024x!tt.ptr<bf16>> loc(#loc117)
      %26 = tt.addptr %25, %24 : tensor<1x1024x!tt.ptr<bf16>>, tensor<1x1024xi32> loc(#loc117)
      %27 = tt.broadcast %xmask_7 : tensor<1x1xi1> -> tensor<1x1024xi1> loc(#loc118)
      %28 = arith.andi %r0_mask_23, %27 : tensor<1x1024xi1> loc(#loc118)
      %29 = arith.truncf %tmp49 : tensor<1x1024xf32> to tensor<1x1024xbf16> loc(#loc119)
      tt.store %26, %29, %28 : tensor<1x1024x!tt.ptr<bf16>> loc(#loc119)
      %c2816_i32_85 = arith.constant 2816 : i32 loc(#loc120)
      %c2816_i32_86 = arith.constant 2816 : i32 loc(#loc120)
      %cst_87 = arith.constant dense<2816> : tensor<1x1xi32> loc(#loc120)
      %30 = arith.muli %cst_87, %xindex_6 : tensor<1x1xi32> loc(#loc120)
      %31 = tt.broadcast %30 : tensor<1x1xi32> -> tensor<1x1024xi32> loc(#loc121)
      %32 = arith.addi %r0_index_22, %31 : tensor<1x1024xi32> loc(#loc121)
      %33 = tt.splat %out_ptr6 : !tt.ptr<bf16> -> tensor<1x1024x!tt.ptr<bf16>> loc(#loc122)
      %34 = tt.addptr %33, %32 : tensor<1x1024x!tt.ptr<bf16>>, tensor<1x1024xi32> loc(#loc122)
      %35 = tt.broadcast %xmask_7 : tensor<1x1xi1> -> tensor<1x1024xi1> loc(#loc123)
      %36 = arith.andi %r0_mask_23, %35 : tensor<1x1024xi1> loc(#loc123)
      %37 = arith.truncf %tmp51 : tensor<1x1024xf32> to tensor<1x1024xbf16> loc(#loc124)
      tt.store %34, %37, %36 : tensor<1x1024x!tt.ptr<bf16>> loc(#loc124)
    } loc(#loc67)
    tt.return loc(#loc125)
  } loc(#loc)
  tt.func private @"triton.language.standard.sum__fp32S1_1024S__(1,)cconstexpr_1__(2,)cconstexpr_False__(3,)cNone"(%input: tensor<1x1024xf32> loc("input"(#loc126))) -> tensor<1xf32> attributes {noinline = false} {
    %0 = "tt.reduce"(%input) <{axis = 1 : i32}> ({
    ^bb0(%arg1: f32 loc(unknown), %arg2: f32 loc(unknown)):
      %2 = tt.call @triton.language.standard._sum_combine__fp32_fp32__(%arg1, %arg2) : (f32, f32) -> f32 loc(#loc127)
      tt.reduce.return %2 : f32 loc(#loc127)
    }) : (tensor<1x1024xf32>) -> tensor<1xf32> loc(#loc127)
    tt.return %0 : tensor<1xf32> loc(#loc129)
  ^bb1:  // no predecessors
    %1 = ub.poison : tensor<1xf32> loc(#loc130)
    tt.return %1 : tensor<1xf32> loc(#loc130)
  } loc(#loc126)
  tt.func private @triton.language.standard._sum_combine__fp32_fp32__(%a: f32 loc("a"(#loc131)), %b: f32 loc("b"(#loc131))) -> f32 attributes {noinline = false} {
    %0 = arith.addf %a, %b : f32 loc(#loc132)
    tt.return %0 : f32 loc(#loc133)
  ^bb1:  // no predecessors
    %1 = ub.poison : f32 loc(#loc134)
    tt.return %1 : f32 loc(#loc134)
  } loc(#loc131)
} loc(#loc)
#loc1 = loc("/home/ericbuehler/.cache/vllm/torch_compile_cache/torch_aot_compile/90537ea14f244a5187d6ecc853fbadcf440d710f29c8e182fe8151f3f7751a82/inductor_cache/uq/cuqnsmpnb253d5gk6lsswbh65wueglelzt47bnxpwicuk3cr4xmt.py":19:15)
#loc2 = loc("/home/ericbuehler/.cache/vllm/torch_compile_cache/torch_aot_compile/90537ea14f244a5187d6ecc853fbadcf440d710f29c8e182fe8151f3f7751a82/inductor_cache/uq/cuqnsmpnb253d5gk6lsswbh65wueglelzt47bnxpwicuk3cr4xmt.py":22:28)
#loc3 = loc("/home/ericbuehler/.cache/vllm/torch_compile_cache/torch_aot_compile/90537ea14f244a5187d6ecc853fbadcf440d710f29c8e182fe8151f3f7751a82/inductor_cache/uq/cuqnsmpnb253d5gk6lsswbh65wueglelzt47bnxpwicuk3cr4xmt.py":22:33)
#loc4 = loc("/home/ericbuehler/.cache/vllm/torch_compile_cache/torch_aot_compile/90537ea14f244a5187d6ecc853fbadcf440d710f29c8e182fe8151f3f7751a82/inductor_cache/uq/cuqnsmpnb253d5gk6lsswbh65wueglelzt47bnxpwicuk3cr4xmt.py":23:36)
#loc5 = loc("/home/ericbuehler/.cache/vllm/torch_compile_cache/torch_aot_compile/90537ea14f244a5187d6ecc853fbadcf440d710f29c8e182fe8151f3f7751a82/inductor_cache/uq/cuqnsmpnb253d5gk6lsswbh65wueglelzt47bnxpwicuk3cr4xmt.py":23:44)
#loc6 = loc("/home/ericbuehler/.cache/vllm/torch_compile_cache/torch_aot_compile/90537ea14f244a5187d6ecc853fbadcf440d710f29c8e182fe8151f3f7751a82/inductor_cache/uq/cuqnsmpnb253d5gk6lsswbh65wueglelzt47bnxpwicuk3cr4xmt.py":23:23)
#loc7 = loc("/home/ericbuehler/.cache/vllm/torch_compile_cache/torch_aot_compile/90537ea14f244a5187d6ecc853fbadcf440d710f29c8e182fe8151f3f7751a82/inductor_cache/uq/cuqnsmpnb253d5gk6lsswbh65wueglelzt47bnxpwicuk3cr4xmt.py":24:21)
#loc8 = loc("/home/ericbuehler/.cache/vllm/torch_compile_cache/torch_aot_compile/90537ea14f244a5187d6ecc853fbadcf440d710f29c8e182fe8151f3f7751a82/inductor_cache/uq/cuqnsmpnb253d5gk6lsswbh65wueglelzt47bnxpwicuk3cr4xmt.py":25:27)
#loc9 = loc("/home/ericbuehler/.cache/vllm/torch_compile_cache/torch_aot_compile/90537ea14f244a5187d6ecc853fbadcf440d710f29c8e182fe8151f3f7751a82/inductor_cache/uq/cuqnsmpnb253d5gk6lsswbh65wueglelzt47bnxpwicuk3cr4xmt.py":25:37)
#loc10 = loc("/home/ericbuehler/.cache/vllm/torch_compile_cache/torch_aot_compile/90537ea14f244a5187d6ecc853fbadcf440d710f29c8e182fe8151f3f7751a82/inductor_cache/uq/cuqnsmpnb253d5gk6lsswbh65wueglelzt47bnxpwicuk3cr4xmt.py":28:43)
#loc11 = loc("/home/ericbuehler/.cache/vllm/torch_compile_cache/torch_aot_compile/90537ea14f244a5187d6ecc853fbadcf440d710f29c8e182fe8151f3f7751a82/inductor_cache/uq/cuqnsmpnb253d5gk6lsswbh65wueglelzt47bnxpwicuk3cr4xmt.py":29:43)
#loc12 = loc("/home/ericbuehler/.cache/vllm/torch_compile_cache/torch_aot_compile/90537ea14f244a5187d6ecc853fbadcf440d710f29c8e182fe8151f3f7751a82/inductor_cache/uq/cuqnsmpnb253d5gk6lsswbh65wueglelzt47bnxpwicuk3cr4xmt.py":30:31)
#loc13 = loc("/home/ericbuehler/.cache/vllm/torch_compile_cache/torch_aot_compile/90537ea14f244a5187d6ecc853fbadcf440d710f29c8e182fe8151f3f7751a82/inductor_cache/uq/cuqnsmpnb253d5gk6lsswbh65wueglelzt47bnxpwicuk3cr4xmt.py":31:29)
#loc14 = loc("/home/ericbuehler/.cache/vllm/torch_compile_cache/torch_aot_compile/90537ea14f244a5187d6ecc853fbadcf440d710f29c8e182fe8151f3f7751a82/inductor_cache/uq/cuqnsmpnb253d5gk6lsswbh65wueglelzt47bnxpwicuk3cr4xmt.py":35:46)
#loc15 = loc("/home/ericbuehler/.cache/vllm/torch_compile_cache/torch_aot_compile/90537ea14f244a5187d6ecc853fbadcf440d710f29c8e182fe8151f3f7751a82/inductor_cache/uq/cuqnsmpnb253d5gk6lsswbh65wueglelzt47bnxpwicuk3cr4xmt.py":35:41)
#loc16 = loc("/home/ericbuehler/.cache/vllm/torch_compile_cache/torch_aot_compile/90537ea14f244a5187d6ecc853fbadcf440d710f29c8e182fe8151f3f7751a82/inductor_cache/uq/cuqnsmpnb253d5gk6lsswbh65wueglelzt47bnxpwicuk3cr4xmt.py":35:34)
#loc17 = loc("/home/ericbuehler/.cache/vllm/torch_compile_cache/torch_aot_compile/90537ea14f244a5187d6ecc853fbadcf440d710f29c8e182fe8151f3f7751a82/inductor_cache/uq/cuqnsmpnb253d5gk6lsswbh65wueglelzt47bnxpwicuk3cr4xmt.py":35:61)
#loc18 = loc("/home/ericbuehler/.cache/vllm/torch_compile_cache/torch_aot_compile/90537ea14f244a5187d6ecc853fbadcf440d710f29c8e182fe8151f3f7751a82/inductor_cache/uq/cuqnsmpnb253d5gk6lsswbh65wueglelzt47bnxpwicuk3cr4xmt.py":35:51)
#loc19 = loc("/home/ericbuehler/.cache/vllm/torch_compile_cache/torch_aot_compile/90537ea14f244a5187d6ecc853fbadcf440d710f29c8e182fe8151f3f7751a82/inductor_cache/uq/cuqnsmpnb253d5gk6lsswbh65wueglelzt47bnxpwicuk3cr4xmt.py":35:112)
#loc20 = loc("/home/ericbuehler/.cache/vllm/torch_compile_cache/torch_aot_compile/90537ea14f244a5187d6ecc853fbadcf440d710f29c8e182fe8151f3f7751a82/inductor_cache/uq/cuqnsmpnb253d5gk6lsswbh65wueglelzt47bnxpwicuk3cr4xmt.py":37:22)
#loc21 = loc("/home/ericbuehler/.cache/vllm/torch_compile_cache/torch_aot_compile/90537ea14f244a5187d6ecc853fbadcf440d710f29c8e182fe8151f3f7751a82/inductor_cache/uq/cuqnsmpnb253d5gk6lsswbh65wueglelzt47bnxpwicuk3cr4xmt.py":39:23)
#loc22 = loc("/home/ericbuehler/.cache/vllm/torch_compile_cache/torch_aot_compile/90537ea14f244a5187d6ecc853fbadcf440d710f29c8e182fe8151f3f7751a82/inductor_cache/uq/cuqnsmpnb253d5gk6lsswbh65wueglelzt47bnxpwicuk3cr4xmt.py":40:35)
#loc23 = loc("/home/ericbuehler/.cache/vllm/torch_compile_cache/torch_aot_compile/90537ea14f244a5187d6ecc853fbadcf440d710f29c8e182fe8151f3f7751a82/inductor_cache/uq/cuqnsmpnb253d5gk6lsswbh65wueglelzt47bnxpwicuk3cr4xmt.py":40:48)
#loc24 = loc("/home/ericbuehler/.cache/vllm/torch_compile_cache/torch_aot_compile/90537ea14f244a5187d6ecc853fbadcf440d710f29c8e182fe8151f3f7751a82/inductor_cache/uq/cuqnsmpnb253d5gk6lsswbh65wueglelzt47bnxpwicuk3cr4xmt.py":40:8)
#loc25 = loc("/home/ericbuehler/.cache/vllm/torch_compile_cache/torch_aot_compile/90537ea14f244a5187d6ecc853fbadcf440d710f29c8e182fe8151f3f7751a82/inductor_cache/uq/cuqnsmpnb253d5gk6lsswbh65wueglelzt47bnxpwicuk3cr4xmt.py":41:25)
#loc26 = loc("/home/ericbuehler/.cache/vllm/torch_compile_cache/torch_aot_compile/90537ea14f244a5187d6ecc853fbadcf440d710f29c8e182fe8151f3f7751a82/inductor_cache/uq/cuqnsmpnb253d5gk6lsswbh65wueglelzt47bnxpwicuk3cr4xmt.py":41:28)
#loc27 = loc("/home/ericbuehler/.cache/vllm/torch_compile_cache/torch_aot_compile/90537ea14f244a5187d6ecc853fbadcf440d710f29c8e182fe8151f3f7751a82/inductor_cache/uq/cuqnsmpnb253d5gk6lsswbh65wueglelzt47bnxpwicuk3cr4xmt.py":42:25)
#loc28 = loc("/home/ericbuehler/.cache/vllm/torch_compile_cache/torch_aot_compile/90537ea14f244a5187d6ecc853fbadcf440d710f29c8e182fe8151f3f7751a82/inductor_cache/uq/cuqnsmpnb253d5gk6lsswbh65wueglelzt47bnxpwicuk3cr4xmt.py":42:36)
#loc29 = loc("/home/ericbuehler/.cache/vllm/torch_compile_cache/torch_aot_compile/90537ea14f244a5187d6ecc853fbadcf440d710f29c8e182fe8151f3f7751a82/inductor_cache/uq/cuqnsmpnb253d5gk6lsswbh65wueglelzt47bnxpwicuk3cr4xmt.py":43:44)
#loc30 = loc("/home/ericbuehler/.cache/vllm/torch_compile_cache/torch_aot_compile/90537ea14f244a5187d6ecc853fbadcf440d710f29c8e182fe8151f3f7751a82/inductor_cache/uq/cuqnsmpnb253d5gk6lsswbh65wueglelzt47bnxpwicuk3cr4xmt.py":44:43)
#loc31 = loc("/home/ericbuehler/.cache/vllm/torch_compile_cache/torch_aot_compile/90537ea14f244a5187d6ecc853fbadcf440d710f29c8e182fe8151f3f7751a82/inductor_cache/uq/cuqnsmpnb253d5gk6lsswbh65wueglelzt47bnxpwicuk3cr4xmt.py":45:31)
#loc32 = loc("/home/ericbuehler/.cache/vllm/torch_compile_cache/torch_aot_compile/90537ea14f244a5187d6ecc853fbadcf440d710f29c8e182fe8151f3f7751a82/inductor_cache/uq/cuqnsmpnb253d5gk6lsswbh65wueglelzt47bnxpwicuk3cr4xmt.py":46:29)
#loc33 = loc("/home/ericbuehler/.cache/vllm/torch_compile_cache/torch_aot_compile/90537ea14f244a5187d6ecc853fbadcf440d710f29c8e182fe8151f3f7751a82/inductor_cache/uq/cuqnsmpnb253d5gk6lsswbh65wueglelzt47bnxpwicuk3cr4xmt.py":50:46)
#loc34 = loc("/home/ericbuehler/.cache/vllm/torch_compile_cache/torch_aot_compile/90537ea14f244a5187d6ecc853fbadcf440d710f29c8e182fe8151f3f7751a82/inductor_cache/uq/cuqnsmpnb253d5gk6lsswbh65wueglelzt47bnxpwicuk3cr4xmt.py":50:41)
#loc35 = loc("/home/ericbuehler/.cache/vllm/torch_compile_cache/torch_aot_compile/90537ea14f244a5187d6ecc853fbadcf440d710f29c8e182fe8151f3f7751a82/inductor_cache/uq/cuqnsmpnb253d5gk6lsswbh65wueglelzt47bnxpwicuk3cr4xmt.py":50:34)
#loc36 = loc("/home/ericbuehler/.cache/vllm/torch_compile_cache/torch_aot_compile/90537ea14f244a5187d6ecc853fbadcf440d710f29c8e182fe8151f3f7751a82/inductor_cache/uq/cuqnsmpnb253d5gk6lsswbh65wueglelzt47bnxpwicuk3cr4xmt.py":50:61)
#loc37 = loc("/home/ericbuehler/.cache/vllm/torch_compile_cache/torch_aot_compile/90537ea14f244a5187d6ecc853fbadcf440d710f29c8e182fe8151f3f7751a82/inductor_cache/uq/cuqnsmpnb253d5gk6lsswbh65wueglelzt47bnxpwicuk3cr4xmt.py":50:51)
#loc38 = loc("/home/ericbuehler/.cache/vllm/torch_compile_cache/torch_aot_compile/90537ea14f244a5187d6ecc853fbadcf440d710f29c8e182fe8151f3f7751a82/inductor_cache/uq/cuqnsmpnb253d5gk6lsswbh65wueglelzt47bnxpwicuk3cr4xmt.py":50:112)
#loc39 = loc("/home/ericbuehler/.cache/vllm/torch_compile_cache/torch_aot_compile/90537ea14f244a5187d6ecc853fbadcf440d710f29c8e182fe8151f3f7751a82/inductor_cache/uq/cuqnsmpnb253d5gk6lsswbh65wueglelzt47bnxpwicuk3cr4xmt.py":51:35)
#loc40 = loc("/home/ericbuehler/.cache/vllm/torch_compile_cache/torch_aot_compile/90537ea14f244a5187d6ecc853fbadcf440d710f29c8e182fe8151f3f7751a82/inductor_cache/uq/cuqnsmpnb253d5gk6lsswbh65wueglelzt47bnxpwicuk3cr4xmt.py":51:42)
#loc41 = loc("/home/ericbuehler/.cache/vllm/torch_compile_cache/torch_aot_compile/90537ea14f244a5187d6ecc853fbadcf440d710f29c8e182fe8151f3f7751a82/inductor_cache/uq/cuqnsmpnb253d5gk6lsswbh65wueglelzt47bnxpwicuk3cr4xmt.py":51:95)
#loc42 = loc("/home/ericbuehler/.cache/vllm/torch_compile_cache/torch_aot_compile/90537ea14f244a5187d6ecc853fbadcf440d710f29c8e182fe8151f3f7751a82/inductor_cache/uq/cuqnsmpnb253d5gk6lsswbh65wueglelzt47bnxpwicuk3cr4xmt.py":52:47)
#loc43 = loc("/home/ericbuehler/.cache/vllm/torch_compile_cache/torch_aot_compile/90537ea14f244a5187d6ecc853fbadcf440d710f29c8e182fe8151f3f7751a82/inductor_cache/uq/cuqnsmpnb253d5gk6lsswbh65wueglelzt47bnxpwicuk3cr4xmt.py":52:42)
#loc44 = loc("/home/ericbuehler/.cache/vllm/torch_compile_cache/torch_aot_compile/90537ea14f244a5187d6ecc853fbadcf440d710f29c8e182fe8151f3f7751a82/inductor_cache/uq/cuqnsmpnb253d5gk6lsswbh65wueglelzt47bnxpwicuk3cr4xmt.py":52:35)
#loc45 = loc("/home/ericbuehler/.cache/vllm/torch_compile_cache/torch_aot_compile/90537ea14f244a5187d6ecc853fbadcf440d710f29c8e182fe8151f3f7751a82/inductor_cache/uq/cuqnsmpnb253d5gk6lsswbh65wueglelzt47bnxpwicuk3cr4xmt.py":52:62)
#loc46 = loc("/home/ericbuehler/.cache/vllm/torch_compile_cache/torch_aot_compile/90537ea14f244a5187d6ecc853fbadcf440d710f29c8e182fe8151f3f7751a82/inductor_cache/uq/cuqnsmpnb253d5gk6lsswbh65wueglelzt47bnxpwicuk3cr4xmt.py":52:52)
#loc47 = loc("/home/ericbuehler/.cache/vllm/torch_compile_cache/torch_aot_compile/90537ea14f244a5187d6ecc853fbadcf440d710f29c8e182fe8151f3f7751a82/inductor_cache/uq/cuqnsmpnb253d5gk6lsswbh65wueglelzt47bnxpwicuk3cr4xmt.py":52:113)
#loc48 = loc("/home/ericbuehler/.cache/vllm/torch_compile_cache/torch_aot_compile/90537ea14f244a5187d6ecc853fbadcf440d710f29c8e182fe8151f3f7751a82/inductor_cache/uq/cuqnsmpnb253d5gk6lsswbh65wueglelzt47bnxpwicuk3cr4xmt.py":54:39)
#loc49 = loc("/home/ericbuehler/.cache/vllm/torch_compile_cache/torch_aot_compile/90537ea14f244a5187d6ecc853fbadcf440d710f29c8e182fe8151f3f7751a82/inductor_cache/uq/cuqnsmpnb253d5gk6lsswbh65wueglelzt47bnxpwicuk3cr4xmt.py":55:23)
#loc50 = loc("/home/ericbuehler/.cache/vllm/torch_compile_cache/torch_aot_compile/90537ea14f244a5187d6ecc853fbadcf440d710f29c8e182fe8151f3f7751a82/inductor_cache/uq/cuqnsmpnb253d5gk6lsswbh65wueglelzt47bnxpwicuk3cr4xmt.py":56:39)
#loc51 = loc("/home/ericbuehler/.cache/vllm/torch_compile_cache/torch_aot_compile/90537ea14f244a5187d6ecc853fbadcf440d710f29c8e182fe8151f3f7751a82/inductor_cache/uq/cuqnsmpnb253d5gk6lsswbh65wueglelzt47bnxpwicuk3cr4xmt.py":57:23)
#loc52 = loc("/home/ericbuehler/.cache/vllm/torch_compile_cache/torch_aot_compile/90537ea14f244a5187d6ecc853fbadcf440d710f29c8e182fe8151f3f7751a82/inductor_cache/uq/cuqnsmpnb253d5gk6lsswbh65wueglelzt47bnxpwicuk3cr4xmt.py":58:32)
#loc53 = loc("/home/ericbuehler/.cache/vllm/torch_compile_cache/torch_aot_compile/90537ea14f244a5187d6ecc853fbadcf440d710f29c8e182fe8151f3f7751a82/inductor_cache/uq/cuqnsmpnb253d5gk6lsswbh65wueglelzt47bnxpwicuk3cr4xmt.py":59:23)
#loc54 = loc("/home/ericbuehler/.cache/vllm/torch_compile_cache/torch_aot_compile/90537ea14f244a5187d6ecc853fbadcf440d710f29c8e182fe8151f3f7751a82/inductor_cache/uq/cuqnsmpnb253d5gk6lsswbh65wueglelzt47bnxpwicuk3cr4xmt.py":61:24)
#loc55 = loc("/home/ericbuehler/.cache/vllm/torch_compile_cache/torch_aot_compile/90537ea14f244a5187d6ecc853fbadcf440d710f29c8e182fe8151f3f7751a82/inductor_cache/uq/cuqnsmpnb253d5gk6lsswbh65wueglelzt47bnxpwicuk3cr4xmt.py":62:24)
#loc56 = loc("/home/ericbuehler/.cache/vllm/torch_compile_cache/torch_aot_compile/90537ea14f244a5187d6ecc853fbadcf440d710f29c8e182fe8151f3f7751a82/inductor_cache/uq/cuqnsmpnb253d5gk6lsswbh65wueglelzt47bnxpwicuk3cr4xmt.py":64:24)
#loc57 = loc("/home/ericbuehler/.cache/vllm/torch_compile_cache/torch_aot_compile/90537ea14f244a5187d6ecc853fbadcf440d710f29c8e182fe8151f3f7751a82/inductor_cache/uq/cuqnsmpnb253d5gk6lsswbh65wueglelzt47bnxpwicuk3cr4xmt.py":66:25)
#loc58 = loc("/home/ericbuehler/.cache/vllm/torch_compile_cache/torch_aot_compile/90537ea14f244a5187d6ecc853fbadcf440d710f29c8e182fe8151f3f7751a82/inductor_cache/uq/cuqnsmpnb253d5gk6lsswbh65wueglelzt47bnxpwicuk3cr4xmt.py":67:36)
#loc59 = loc("/home/ericbuehler/.cache/vllm/torch_compile_cache/torch_aot_compile/90537ea14f244a5187d6ecc853fbadcf440d710f29c8e182fe8151f3f7751a82/inductor_cache/uq/cuqnsmpnb253d5gk6lsswbh65wueglelzt47bnxpwicuk3cr4xmt.py":67:50)
#loc60 = loc("/home/ericbuehler/.cache/vllm/torch_compile_cache/torch_aot_compile/90537ea14f244a5187d6ecc853fbadcf440d710f29c8e182fe8151f3f7751a82/inductor_cache/uq/cuqnsmpnb253d5gk6lsswbh65wueglelzt47bnxpwicuk3cr4xmt.py":67:8)
#loc61 = loc("/home/ericbuehler/.cache/vllm/torch_compile_cache/torch_aot_compile/90537ea14f244a5187d6ecc853fbadcf440d710f29c8e182fe8151f3f7751a82/inductor_cache/uq/cuqnsmpnb253d5gk6lsswbh65wueglelzt47bnxpwicuk3cr4xmt.py":68:27)
#loc62 = loc("/home/ericbuehler/.cache/vllm/torch_compile_cache/torch_aot_compile/90537ea14f244a5187d6ecc853fbadcf440d710f29c8e182fe8151f3f7751a82/inductor_cache/uq/cuqnsmpnb253d5gk6lsswbh65wueglelzt47bnxpwicuk3cr4xmt.py":68:30)
#loc63 = loc("/home/ericbuehler/.cache/vllm/torch_compile_cache/torch_aot_compile/90537ea14f244a5187d6ecc853fbadcf440d710f29c8e182fe8151f3f7751a82/inductor_cache/uq/cuqnsmpnb253d5gk6lsswbh65wueglelzt47bnxpwicuk3cr4xmt.py":69:31)
#loc64 = loc("/home/ericbuehler/.cache/vllm/torch_compile_cache/torch_aot_compile/90537ea14f244a5187d6ecc853fbadcf440d710f29c8e182fe8151f3f7751a82/inductor_cache/uq/cuqnsmpnb253d5gk6lsswbh65wueglelzt47bnxpwicuk3cr4xmt.py":69:20)
#loc65 = loc("/home/ericbuehler/.cache/vllm/torch_compile_cache/torch_aot_compile/90537ea14f244a5187d6ecc853fbadcf440d710f29c8e182fe8151f3f7751a82/inductor_cache/uq/cuqnsmpnb253d5gk6lsswbh65wueglelzt47bnxpwicuk3cr4xmt.py":69:38)
#loc66 = loc("/home/ericbuehler/.cache/vllm/torch_compile_cache/torch_aot_compile/90537ea14f244a5187d6ecc853fbadcf440d710f29c8e182fe8151f3f7751a82/inductor_cache/uq/cuqnsmpnb253d5gk6lsswbh65wueglelzt47bnxpwicuk3cr4xmt.py":70:35)
#loc67 = loc("/home/ericbuehler/.cache/vllm/torch_compile_cache/torch_aot_compile/90537ea14f244a5187d6ecc853fbadcf440d710f29c8e182fe8151f3f7751a82/inductor_cache/uq/cuqnsmpnb253d5gk6lsswbh65wueglelzt47bnxpwicuk3cr4xmt.py":71:43)
#loc68 = loc("/home/ericbuehler/.cache/vllm/torch_compile_cache/torch_aot_compile/90537ea14f244a5187d6ecc853fbadcf440d710f29c8e182fe8151f3f7751a82/inductor_cache/uq/cuqnsmpnb253d5gk6lsswbh65wueglelzt47bnxpwicuk3cr4xmt.py":72:31)
#loc69 = loc("/home/ericbuehler/.cache/vllm/torch_compile_cache/torch_aot_compile/90537ea14f244a5187d6ecc853fbadcf440d710f29c8e182fe8151f3f7751a82/inductor_cache/uq/cuqnsmpnb253d5gk6lsswbh65wueglelzt47bnxpwicuk3cr4xmt.py":73:29)
#loc70 = loc("/home/ericbuehler/.cache/vllm/torch_compile_cache/torch_aot_compile/90537ea14f244a5187d6ecc853fbadcf440d710f29c8e182fe8151f3f7751a82/inductor_cache/uq/cuqnsmpnb253d5gk6lsswbh65wueglelzt47bnxpwicuk3cr4xmt.py":77:47)
#loc71 = loc("/home/ericbuehler/.cache/vllm/torch_compile_cache/torch_aot_compile/90537ea14f244a5187d6ecc853fbadcf440d710f29c8e182fe8151f3f7751a82/inductor_cache/uq/cuqnsmpnb253d5gk6lsswbh65wueglelzt47bnxpwicuk3cr4xmt.py":77:42)
#loc72 = loc("/home/ericbuehler/.cache/vllm/torch_compile_cache/torch_aot_compile/90537ea14f244a5187d6ecc853fbadcf440d710f29c8e182fe8151f3f7751a82/inductor_cache/uq/cuqnsmpnb253d5gk6lsswbh65wueglelzt47bnxpwicuk3cr4xmt.py":77:35)
#loc73 = loc("/home/ericbuehler/.cache/vllm/torch_compile_cache/torch_aot_compile/90537ea14f244a5187d6ecc853fbadcf440d710f29c8e182fe8151f3f7751a82/inductor_cache/uq/cuqnsmpnb253d5gk6lsswbh65wueglelzt47bnxpwicuk3cr4xmt.py":77:62)
#loc74 = loc("/home/ericbuehler/.cache/vllm/torch_compile_cache/torch_aot_compile/90537ea14f244a5187d6ecc853fbadcf440d710f29c8e182fe8151f3f7751a82/inductor_cache/uq/cuqnsmpnb253d5gk6lsswbh65wueglelzt47bnxpwicuk3cr4xmt.py":77:52)
#loc75 = loc("/home/ericbuehler/.cache/vllm/torch_compile_cache/torch_aot_compile/90537ea14f244a5187d6ecc853fbadcf440d710f29c8e182fe8151f3f7751a82/inductor_cache/uq/cuqnsmpnb253d5gk6lsswbh65wueglelzt47bnxpwicuk3cr4xmt.py":77:114)
#loc76 = loc("/home/ericbuehler/.cache/vllm/torch_compile_cache/torch_aot_compile/90537ea14f244a5187d6ecc853fbadcf440d710f29c8e182fe8151f3f7751a82/inductor_cache/uq/cuqnsmpnb253d5gk6lsswbh65wueglelzt47bnxpwicuk3cr4xmt.py":78:35)
#loc77 = loc("/home/ericbuehler/.cache/vllm/torch_compile_cache/torch_aot_compile/90537ea14f244a5187d6ecc853fbadcf440d710f29c8e182fe8151f3f7751a82/inductor_cache/uq/cuqnsmpnb253d5gk6lsswbh65wueglelzt47bnxpwicuk3cr4xmt.py":78:42)
#loc78 = loc("/home/ericbuehler/.cache/vllm/torch_compile_cache/torch_aot_compile/90537ea14f244a5187d6ecc853fbadcf440d710f29c8e182fe8151f3f7751a82/inductor_cache/uq/cuqnsmpnb253d5gk6lsswbh65wueglelzt47bnxpwicuk3cr4xmt.py":78:95)
#loc79 = loc("/home/ericbuehler/.cache/vllm/torch_compile_cache/torch_aot_compile/90537ea14f244a5187d6ecc853fbadcf440d710f29c8e182fe8151f3f7751a82/inductor_cache/uq/cuqnsmpnb253d5gk6lsswbh65wueglelzt47bnxpwicuk3cr4xmt.py":79:47)
#loc80 = loc("/home/ericbuehler/.cache/vllm/torch_compile_cache/torch_aot_compile/90537ea14f244a5187d6ecc853fbadcf440d710f29c8e182fe8151f3f7751a82/inductor_cache/uq/cuqnsmpnb253d5gk6lsswbh65wueglelzt47bnxpwicuk3cr4xmt.py":79:42)
#loc81 = loc("/home/ericbuehler/.cache/vllm/torch_compile_cache/torch_aot_compile/90537ea14f244a5187d6ecc853fbadcf440d710f29c8e182fe8151f3f7751a82/inductor_cache/uq/cuqnsmpnb253d5gk6lsswbh65wueglelzt47bnxpwicuk3cr4xmt.py":79:35)
#loc82 = loc("/home/ericbuehler/.cache/vllm/torch_compile_cache/torch_aot_compile/90537ea14f244a5187d6ecc853fbadcf440d710f29c8e182fe8151f3f7751a82/inductor_cache/uq/cuqnsmpnb253d5gk6lsswbh65wueglelzt47bnxpwicuk3cr4xmt.py":79:62)
#loc83 = loc("/home/ericbuehler/.cache/vllm/torch_compile_cache/torch_aot_compile/90537ea14f244a5187d6ecc853fbadcf440d710f29c8e182fe8151f3f7751a82/inductor_cache/uq/cuqnsmpnb253d5gk6lsswbh65wueglelzt47bnxpwicuk3cr4xmt.py":79:52)
#loc84 = loc("/home/ericbuehler/.cache/vllm/torch_compile_cache/torch_aot_compile/90537ea14f244a5187d6ecc853fbadcf440d710f29c8e182fe8151f3f7751a82/inductor_cache/uq/cuqnsmpnb253d5gk6lsswbh65wueglelzt47bnxpwicuk3cr4xmt.py":79:114)
#loc85 = loc("/home/ericbuehler/.cache/vllm/torch_compile_cache/torch_aot_compile/90537ea14f244a5187d6ecc853fbadcf440d710f29c8e182fe8151f3f7751a82/inductor_cache/uq/cuqnsmpnb253d5gk6lsswbh65wueglelzt47bnxpwicuk3cr4xmt.py":80:35)
#loc86 = loc("/home/ericbuehler/.cache/vllm/torch_compile_cache/torch_aot_compile/90537ea14f244a5187d6ecc853fbadcf440d710f29c8e182fe8151f3f7751a82/inductor_cache/uq/cuqnsmpnb253d5gk6lsswbh65wueglelzt47bnxpwicuk3cr4xmt.py":80:42)
#loc87 = loc("/home/ericbuehler/.cache/vllm/torch_compile_cache/torch_aot_compile/90537ea14f244a5187d6ecc853fbadcf440d710f29c8e182fe8151f3f7751a82/inductor_cache/uq/cuqnsmpnb253d5gk6lsswbh65wueglelzt47bnxpwicuk3cr4xmt.py":80:95)
#loc88 = loc("/home/ericbuehler/.cache/vllm/torch_compile_cache/torch_aot_compile/90537ea14f244a5187d6ecc853fbadcf440d710f29c8e182fe8151f3f7751a82/inductor_cache/uq/cuqnsmpnb253d5gk6lsswbh65wueglelzt47bnxpwicuk3cr4xmt.py":81:35)
#loc89 = loc("/home/ericbuehler/.cache/vllm/torch_compile_cache/torch_aot_compile/90537ea14f244a5187d6ecc853fbadcf440d710f29c8e182fe8151f3f7751a82/inductor_cache/uq/cuqnsmpnb253d5gk6lsswbh65wueglelzt47bnxpwicuk3cr4xmt.py":81:42)
#loc90 = loc("/home/ericbuehler/.cache/vllm/torch_compile_cache/torch_aot_compile/90537ea14f244a5187d6ecc853fbadcf440d710f29c8e182fe8151f3f7751a82/inductor_cache/uq/cuqnsmpnb253d5gk6lsswbh65wueglelzt47bnxpwicuk3cr4xmt.py":81:95)
#loc91 = loc("/home/ericbuehler/.cache/vllm/torch_compile_cache/torch_aot_compile/90537ea14f244a5187d6ecc853fbadcf440d710f29c8e182fe8151f3f7751a82/inductor_cache/uq/cuqnsmpnb253d5gk6lsswbh65wueglelzt47bnxpwicuk3cr4xmt.py":82:35)
#loc92 = loc("/home/ericbuehler/.cache/vllm/torch_compile_cache/torch_aot_compile/90537ea14f244a5187d6ecc853fbadcf440d710f29c8e182fe8151f3f7751a82/inductor_cache/uq/cuqnsmpnb253d5gk6lsswbh65wueglelzt47bnxpwicuk3cr4xmt.py":82:42)
#loc93 = loc("/home/ericbuehler/.cache/vllm/torch_compile_cache/torch_aot_compile/90537ea14f244a5187d6ecc853fbadcf440d710f29c8e182fe8151f3f7751a82/inductor_cache/uq/cuqnsmpnb253d5gk6lsswbh65wueglelzt47bnxpwicuk3cr4xmt.py":82:95)
#loc94 = loc("/home/ericbuehler/.cache/vllm/torch_compile_cache/torch_aot_compile/90537ea14f244a5187d6ecc853fbadcf440d710f29c8e182fe8151f3f7751a82/inductor_cache/uq/cuqnsmpnb253d5gk6lsswbh65wueglelzt47bnxpwicuk3cr4xmt.py":84:40)
#loc95 = loc("/home/ericbuehler/.cache/vllm/torch_compile_cache/torch_aot_compile/90537ea14f244a5187d6ecc853fbadcf440d710f29c8e182fe8151f3f7751a82/inductor_cache/uq/cuqnsmpnb253d5gk6lsswbh65wueglelzt47bnxpwicuk3cr4xmt.py":85:24)
#loc96 = loc("/home/ericbuehler/.cache/vllm/torch_compile_cache/torch_aot_compile/90537ea14f244a5187d6ecc853fbadcf440d710f29c8e182fe8151f3f7751a82/inductor_cache/uq/cuqnsmpnb253d5gk6lsswbh65wueglelzt47bnxpwicuk3cr4xmt.py":86:39)
#loc97 = loc("/home/ericbuehler/.cache/vllm/torch_compile_cache/torch_aot_compile/90537ea14f244a5187d6ecc853fbadcf440d710f29c8e182fe8151f3f7751a82/inductor_cache/uq/cuqnsmpnb253d5gk6lsswbh65wueglelzt47bnxpwicuk3cr4xmt.py":87:24)
#loc98 = loc("/home/ericbuehler/.cache/vllm/torch_compile_cache/torch_aot_compile/90537ea14f244a5187d6ecc853fbadcf440d710f29c8e182fe8151f3f7751a82/inductor_cache/uq/cuqnsmpnb253d5gk6lsswbh65wueglelzt47bnxpwicuk3cr4xmt.py":88:32)
#loc99 = loc("/home/ericbuehler/.cache/vllm/torch_compile_cache/torch_aot_compile/90537ea14f244a5187d6ecc853fbadcf440d710f29c8e182fe8151f3f7751a82/inductor_cache/uq/cuqnsmpnb253d5gk6lsswbh65wueglelzt47bnxpwicuk3cr4xmt.py":89:24)
#loc100 = loc("/home/ericbuehler/.cache/vllm/torch_compile_cache/torch_aot_compile/90537ea14f244a5187d6ecc853fbadcf440d710f29c8e182fe8151f3f7751a82/inductor_cache/uq/cuqnsmpnb253d5gk6lsswbh65wueglelzt47bnxpwicuk3cr4xmt.py":91:24)
#loc101 = loc("/home/ericbuehler/.cache/vllm/torch_compile_cache/torch_aot_compile/90537ea14f244a5187d6ecc853fbadcf440d710f29c8e182fe8151f3f7751a82/inductor_cache/uq/cuqnsmpnb253d5gk6lsswbh65wueglelzt47bnxpwicuk3cr4xmt.py":92:24)
#loc102 = loc("/home/ericbuehler/.cache/vllm/torch_compile_cache/torch_aot_compile/90537ea14f244a5187d6ecc853fbadcf440d710f29c8e182fe8151f3f7751a82/inductor_cache/uq/cuqnsmpnb253d5gk6lsswbh65wueglelzt47bnxpwicuk3cr4xmt.py":94:25)
#loc103 = loc("/home/ericbuehler/.cache/vllm/torch_compile_cache/torch_aot_compile/90537ea14f244a5187d6ecc853fbadcf440d710f29c8e182fe8151f3f7751a82/inductor_cache/uq/cuqnsmpnb253d5gk6lsswbh65wueglelzt47bnxpwicuk3cr4xmt.py":95:24)
#loc104 = loc("/home/ericbuehler/.cache/vllm/torch_compile_cache/torch_aot_compile/90537ea14f244a5187d6ecc853fbadcf440d710f29c8e182fe8151f3f7751a82/inductor_cache/uq/cuqnsmpnb253d5gk6lsswbh65wueglelzt47bnxpwicuk3cr4xmt.py":96:32)
#loc105 = loc("/home/ericbuehler/.cache/vllm/torch_compile_cache/torch_aot_compile/90537ea14f244a5187d6ecc853fbadcf440d710f29c8e182fe8151f3f7751a82/inductor_cache/uq/cuqnsmpnb253d5gk6lsswbh65wueglelzt47bnxpwicuk3cr4xmt.py":97:24)
#loc106 = loc("/home/ericbuehler/.cache/vllm/torch_compile_cache/torch_aot_compile/90537ea14f244a5187d6ecc853fbadcf440d710f29c8e182fe8151f3f7751a82/inductor_cache/uq/cuqnsmpnb253d5gk6lsswbh65wueglelzt47bnxpwicuk3cr4xmt.py":99:24)
#loc107 = loc("/home/ericbuehler/.cache/vllm/torch_compile_cache/torch_aot_compile/90537ea14f244a5187d6ecc853fbadcf440d710f29c8e182fe8151f3f7751a82/inductor_cache/uq/cuqnsmpnb253d5gk6lsswbh65wueglelzt47bnxpwicuk3cr4xmt.py":100:24)
#loc108 = loc("/home/ericbuehler/.cache/vllm/torch_compile_cache/torch_aot_compile/90537ea14f244a5187d6ecc853fbadcf440d710f29c8e182fe8151f3f7751a82/inductor_cache/uq/cuqnsmpnb253d5gk6lsswbh65wueglelzt47bnxpwicuk3cr4xmt.py":101:24)
#loc109 = loc("/home/ericbuehler/.cache/vllm/torch_compile_cache/torch_aot_compile/90537ea14f244a5187d6ecc853fbadcf440d710f29c8e182fe8151f3f7751a82/inductor_cache/uq/cuqnsmpnb253d5gk6lsswbh65wueglelzt47bnxpwicuk3cr4xmt.py":102:24)
#loc110 = loc("/home/ericbuehler/.cache/vllm/torch_compile_cache/torch_aot_compile/90537ea14f244a5187d6ecc853fbadcf440d710f29c8e182fe8151f3f7751a82/inductor_cache/uq/cuqnsmpnb253d5gk6lsswbh65wueglelzt47bnxpwicuk3cr4xmt.py":103:41)
#loc111 = loc("/home/ericbuehler/.cache/vllm/torch_compile_cache/torch_aot_compile/90537ea14f244a5187d6ecc853fbadcf440d710f29c8e182fe8151f3f7751a82/inductor_cache/uq/cuqnsmpnb253d5gk6lsswbh65wueglelzt47bnxpwicuk3cr4xmt.py":103:36)
#loc112 = loc("/home/ericbuehler/.cache/vllm/torch_compile_cache/torch_aot_compile/90537ea14f244a5187d6ecc853fbadcf440d710f29c8e182fe8151f3f7751a82/inductor_cache/uq/cuqnsmpnb253d5gk6lsswbh65wueglelzt47bnxpwicuk3cr4xmt.py":103:29)
#loc113 = loc("/home/ericbuehler/.cache/vllm/torch_compile_cache/torch_aot_compile/90537ea14f244a5187d6ecc853fbadcf440d710f29c8e182fe8151f3f7751a82/inductor_cache/uq/cuqnsmpnb253d5gk6lsswbh65wueglelzt47bnxpwicuk3cr4xmt.py":103:63)
#loc114 = loc("/home/ericbuehler/.cache/vllm/torch_compile_cache/torch_aot_compile/90537ea14f244a5187d6ecc853fbadcf440d710f29c8e182fe8151f3f7751a82/inductor_cache/uq/cuqnsmpnb253d5gk6lsswbh65wueglelzt47bnxpwicuk3cr4xmt.py":103:53)
#loc115 = loc("/home/ericbuehler/.cache/vllm/torch_compile_cache/torch_aot_compile/90537ea14f244a5187d6ecc853fbadcf440d710f29c8e182fe8151f3f7751a82/inductor_cache/uq/cuqnsmpnb253d5gk6lsswbh65wueglelzt47bnxpwicuk3cr4xmt.py":104:41)
#loc116 = loc("/home/ericbuehler/.cache/vllm/torch_compile_cache/torch_aot_compile/90537ea14f244a5187d6ecc853fbadcf440d710f29c8e182fe8151f3f7751a82/inductor_cache/uq/cuqnsmpnb253d5gk6lsswbh65wueglelzt47bnxpwicuk3cr4xmt.py":104:36)
#loc117 = loc("/home/ericbuehler/.cache/vllm/torch_compile_cache/torch_aot_compile/90537ea14f244a5187d6ecc853fbadcf440d710f29c8e182fe8151f3f7751a82/inductor_cache/uq/cuqnsmpnb253d5gk6lsswbh65wueglelzt47bnxpwicuk3cr4xmt.py":104:29)
#loc118 = loc("/home/ericbuehler/.cache/vllm/torch_compile_cache/torch_aot_compile/90537ea14f244a5187d6ecc853fbadcf440d710f29c8e182fe8151f3f7751a82/inductor_cache/uq/cuqnsmpnb253d5gk6lsswbh65wueglelzt47bnxpwicuk3cr4xmt.py":104:63)
#loc119 = loc("/home/ericbuehler/.cache/vllm/torch_compile_cache/torch_aot_compile/90537ea14f244a5187d6ecc853fbadcf440d710f29c8e182fe8151f3f7751a82/inductor_cache/uq/cuqnsmpnb253d5gk6lsswbh65wueglelzt47bnxpwicuk3cr4xmt.py":104:53)
#loc120 = loc("/home/ericbuehler/.cache/vllm/torch_compile_cache/torch_aot_compile/90537ea14f244a5187d6ecc853fbadcf440d710f29c8e182fe8151f3f7751a82/inductor_cache/uq/cuqnsmpnb253d5gk6lsswbh65wueglelzt47bnxpwicuk3cr4xmt.py":105:41)
#loc121 = loc("/home/ericbuehler/.cache/vllm/torch_compile_cache/torch_aot_compile/90537ea14f244a5187d6ecc853fbadcf440d710f29c8e182fe8151f3f7751a82/inductor_cache/uq/cuqnsmpnb253d5gk6lsswbh65wueglelzt47bnxpwicuk3cr4xmt.py":105:36)
#loc122 = loc("/home/ericbuehler/.cache/vllm/torch_compile_cache/torch_aot_compile/90537ea14f244a5187d6ecc853fbadcf440d710f29c8e182fe8151f3f7751a82/inductor_cache/uq/cuqnsmpnb253d5gk6lsswbh65wueglelzt47bnxpwicuk3cr4xmt.py":105:29)
#loc123 = loc("/home/ericbuehler/.cache/vllm/torch_compile_cache/torch_aot_compile/90537ea14f244a5187d6ecc853fbadcf440d710f29c8e182fe8151f3f7751a82/inductor_cache/uq/cuqnsmpnb253d5gk6lsswbh65wueglelzt47bnxpwicuk3cr4xmt.py":105:63)
#loc124 = loc("/home/ericbuehler/.cache/vllm/torch_compile_cache/torch_aot_compile/90537ea14f244a5187d6ecc853fbadcf440d710f29c8e182fe8151f3f7751a82/inductor_cache/uq/cuqnsmpnb253d5gk6lsswbh65wueglelzt47bnxpwicuk3cr4xmt.py":105:53)
#loc125 = loc("/home/ericbuehler/.cache/vllm/torch_compile_cache/torch_aot_compile/90537ea14f244a5187d6ecc853fbadcf440d710f29c8e182fe8151f3f7751a82/inductor_cache/uq/cuqnsmpnb253d5gk6lsswbh65wueglelzt47bnxpwicuk3cr4xmt.py":71:4)
#loc127 = loc("/home/ericbuehler/vllm/.venv-bench/lib/python3.12/site-packages/triton/language/standard.py":293:36)
#loc129 = loc("/home/ericbuehler/vllm/.venv-bench/lib/python3.12/site-packages/triton/language/standard.py":293:11)
#loc130 = loc("/home/ericbuehler/vllm/.venv-bench/lib/python3.12/site-packages/triton/language/standard.py":293:4)
#loc132 = loc("/home/ericbuehler/vllm/.venv-bench/lib/python3.12/site-packages/triton/language/standard.py":263:15)
#loc133 = loc("/home/ericbuehler/vllm/.venv-bench/lib/python3.12/site-packages/triton/language/standard.py":263:11)
#loc134 = loc("/home/ericbuehler/vllm/.venv-bench/lib/python3.12/site-packages/triton/language/standard.py":263:4)
#loc148 = loc("r0_numel"(#loc1))
#loc149 = loc("xoffset"(#loc2))
#loc150 = loc("xoffset"(#loc3))
#loc151 = loc("xindex"(#loc4))
#loc152 = loc("xindex"(#loc5))
#loc153 = loc("xindex"(#loc6))
#loc154 = loc("xmask"(#loc7))
#loc155 = loc("r0_base"(#loc8))
#loc156 = loc("r0_base"(#loc9))
#loc157 = loc("_tmp4"(#loc10))
#loc158 = loc("_tmp4"(#loc11))
#loc159 = loc("r0_index"(#loc12))
#loc160 = loc("r0_mask"(#loc13))
#loc161 = loc("tmp0"(#loc14))
#loc162 = loc("tmp0"(#loc15))
#loc163 = loc("tmp0"(#loc16))
#loc164 = loc("tmp0"(#loc17))
#loc165 = loc("tmp0"(#loc18))
#loc166 = loc("tmp0"(#loc19))
#loc167 = loc("tmp2"(#loc20))
#loc168 = loc("tmp5"(#loc21))
#loc169 = loc("_tmp4"(#loc22))
#loc170 = loc("_tmp4"(#loc23))
#loc171 = loc("tmp4"(#loc25))
#loc172 = loc("tmp4"(#loc26))
#loc173 = loc("_tmp22"(#loc29))
#loc174 = loc("_tmp22"(#loc30))
#loc175 = loc("r0_index"(#loc31))
#loc176 = loc("r0_mask"(#loc32))
#loc177 = loc("tmp6"(#loc33))
#loc178 = loc("tmp6"(#loc34))
#loc179 = loc("tmp6"(#loc35))
#loc180 = loc("tmp6"(#loc36))
#loc181 = loc("tmp6"(#loc37))
#loc182 = loc("tmp6"(#loc38))
#loc183 = loc("tmp15"(#loc39))
#loc184 = loc("tmp15"(#loc40))
#loc185 = loc("tmp15"(#loc41))
#loc186 = loc("tmp17"(#loc42))
#loc187 = loc("tmp17"(#loc43))
#loc188 = loc("tmp17"(#loc44))
#loc189 = loc("tmp17"(#loc45))
#loc190 = loc("tmp17"(#loc46))
#loc191 = loc("tmp17"(#loc47))
#loc192 = loc("tmp8"(#loc48))
#loc193 = loc("tmp9"(#loc49))
#loc194 = loc("tmp10"(#loc50))
#loc195 = loc("tmp11"(#loc51))
#loc196 = loc("tmp12"(#loc52))
#loc197 = loc("tmp13"(#loc53))
#loc198 = loc("tmp16"(#loc54))
#loc199 = loc("tmp18"(#loc55))
#loc200 = loc("tmp20"(#loc56))
#loc201 = loc("tmp23"(#loc57))
#loc202 = loc("_tmp22"(#loc58))
#loc203 = loc("_tmp22"(#loc59))
#loc204 = loc("tmp22"(#loc61))
#loc205 = loc("tmp22"(#loc62))
#loc206 = loc("tmp43"(#loc63))
#loc207 = loc("tmp43"(#loc64))
#loc208 = loc("tmp43"(#loc65))
#loc209 = loc("tmp44"(#loc66))
#loc210 = loc("r0_index"(#loc68))
#loc211 = loc("r0_mask"(#loc69))
#loc212 = loc("tmp24"(#loc70))
#loc213 = loc("tmp24"(#loc71))
#loc214 = loc("tmp24"(#loc72))
#loc215 = loc("tmp24"(#loc73))
#loc216 = loc("tmp24"(#loc74))
#loc217 = loc("tmp24"(#loc75))
#loc218 = loc("tmp33"(#loc76))
#loc219 = loc("tmp33"(#loc77))
#loc220 = loc("tmp33"(#loc78))
#loc221 = loc("tmp35"(#loc79))
#loc222 = loc("tmp35"(#loc80))
#loc223 = loc("tmp35"(#loc81))
#loc224 = loc("tmp35"(#loc82))
#loc225 = loc("tmp35"(#loc83))
#loc226 = loc("tmp35"(#loc84))
#loc227 = loc("tmp46"(#loc85))
#loc228 = loc("tmp46"(#loc86))
#loc229 = loc("tmp46"(#loc87))
#loc230 = loc("tmp48"(#loc88))
#loc231 = loc("tmp48"(#loc89))
#loc232 = loc("tmp48"(#loc90))
#loc233 = loc("tmp50"(#loc91))
#loc234 = loc("tmp50"(#loc92))
#loc235 = loc("tmp50"(#loc93))
#loc236 = loc("tmp26"(#loc94))
#loc237 = loc("tmp27"(#loc95))
#loc238 = loc("tmp28"(#loc96))
#loc239 = loc("tmp29"(#loc97))
#loc240 = loc("tmp30"(#loc98))
#loc241 = loc("tmp31"(#loc99))
#loc242 = loc("tmp34"(#loc100))
#loc243 = loc("tmp36"(#loc101))
#loc244 = loc("tmp38"(#loc102))
#loc245 = loc("tmp39"(#loc103))
#loc246 = loc("tmp40"(#loc104))
#loc247 = loc("tmp41"(#loc105))
#loc248 = loc("tmp45"(#loc106))
#loc249 = loc("tmp47"(#loc107))
#loc250 = loc("tmp49"(#loc108))
#loc251 = loc("tmp51"(#loc109))
