#loc = loc("/home/ericbuehler/.cache/vllm/torch_compile_cache/torch_aot_compile/90537ea14f244a5187d6ecc853fbadcf440d710f29c8e182fe8151f3f7751a82/inductor_cache/xj/cxjipvsk4xnaivt4rhppkbgyobk6bsnkrayv646prhto2uzbws5l.py":21:0)
#loc1 = loc(unknown)
#loc37 = loc("/home/ericbuehler/.cache/vllm/torch_compile_cache/torch_aot_compile/90537ea14f244a5187d6ecc853fbadcf440d710f29c8e182fe8151f3f7751a82/inductor_cache/xj/cxjipvsk4xnaivt4rhppkbgyobk6bsnkrayv646prhto2uzbws5l.py":52:29)
#loc70 = loc("/home/ericbuehler/.cache/vllm/torch_compile_cache/torch_aot_compile/90537ea14f244a5187d6ecc853fbadcf440d710f29c8e182fe8151f3f7751a82/inductor_cache/xj/cxjipvsk4xnaivt4rhppkbgyobk6bsnkrayv646prhto2uzbws5l.py":80:31)
#loc102 = loc("/home/ericbuehler/.cache/vllm/torch_compile_cache/torch_aot_compile/90537ea14f244a5187d6ecc853fbadcf440d710f29c8e182fe8151f3f7751a82/inductor_cache/xj/cxjipvsk4xnaivt4rhppkbgyobk6bsnkrayv646prhto2uzbws5l.py":108:31)
#loc125 = loc("in_ptr0"(#loc))
#loc126 = loc("out_ptr0"(#loc))
#loc127 = loc("out_ptr1"(#loc))
#loc128 = loc("out_ptr3"(#loc))
#loc129 = loc("xnumel_0"(#loc))
#loc130 = loc("xnumel_1"(#loc))
#loc131 = loc("xnumel_2"(#loc))
#loc161 = loc("tmp4"(#loc37))
#loc188 = loc("tmp10"(#loc70))
#loc215 = loc("tmp16"(#loc102))
#loc239 = loc(callsite(#loc1 at #loc161))
#loc241 = loc(callsite(#loc1 at #loc188))
#loc243 = loc(callsite(#loc1 at #loc215))
module {
  tt.func public @triton_(%in_ptr0: !tt.ptr<bf16> {tt.divisibility = 16 : i32} loc("in_ptr0"(#loc)), %out_ptr0: !tt.ptr<f32> {tt.divisibility = 16 : i32} loc("out_ptr0"(#loc)), %out_ptr1: !tt.ptr<f32> {tt.divisibility = 16 : i32} loc("out_ptr1"(#loc)), %out_ptr3: !tt.ptr<bf16> {tt.divisibility = 16 : i32} loc("out_ptr3"(#loc)), %xnumel_0: i32 {tt.divisibility = 16 : i32} loc("xnumel_0"(#loc)), %xnumel_1: i32 loc("xnumel_1"(#loc)), %xnumel_2: i32 loc("xnumel_2"(#loc))) attributes {noinline = false} {
    %c63_i32 = arith.constant 63 : i32 loc(#loc1)
    %cst = arith.constant dense<0.000000e+00> : tensor<64x8xbf16> loc(#loc1)
    %c8_i32 = arith.constant 8 : i32 loc(#loc1)
    %c256_i32 = arith.constant 256 : i32 loc(#loc1)
    %c0_i32 = arith.constant 0 : i32 loc(#loc1)
    %cst_0 = arith.constant dense<9.99999997E-7> : tensor<64x1xf32> loc(#loc1)
    %cst_1 = arith.constant dense<2.560000e+02> : tensor<64x1xf32> loc(#loc1)
    %cst_2 = arith.constant dense<6144> : tensor<1x8xi32> loc(#loc1)
    %cst_3 = arith.constant dense<4096> : tensor<1x8xi32> loc(#loc1)
    %cst_4 = arith.constant dense<8> : tensor<64x1xi32> loc(#loc1)
    %cst_5 = arith.constant dense<8192> : tensor<64x1xi32> loc(#loc1)
    %cst_6 = arith.constant dense<256> : tensor<64x1xi32> loc(#loc1)
    %cst_7 = arith.constant dense<256> : tensor<1x8xi32> loc(#loc1)
    %cst_8 = arith.constant dense<0.000000e+00> : tensor<64x8xf32> loc(#loc1)
    %cst_9 = arith.constant dense<16> : tensor<64x1xi32> loc(#loc1)
    %c64_i32 = arith.constant 64 : i32 loc(#loc1)
    %pid = tt.get_program_id x : i32 loc(#loc132)
    %num_xblocks_0 = arith.addi %xnumel_0, %c63_i32 : i32 loc(#loc232)
    %num_xblocks_0_10 = arith.divsi %num_xblocks_0, %c64_i32 : i32 loc(#loc233)
    %num_xblocks_1 = arith.addi %xnumel_1, %c63_i32 : i32 loc(#loc234)
    %num_xblocks_1_11 = arith.divsi %num_xblocks_1, %c64_i32 : i32 loc(#loc235)
    %num_xblocks_1_12 = arith.addi %num_xblocks_0_10, %num_xblocks_1_11 : i32 loc(#loc135)
    %num_xblocks_2 = arith.addi %xnumel_2, %c63_i32 : i32 loc(#loc236)
    %num_xblocks_2_13 = arith.divsi %num_xblocks_2, %c64_i32 : i32 loc(#loc237)
    %num_xblocks_2_14 = arith.addi %num_xblocks_1_12, %num_xblocks_2_13 : i32 loc(#loc137)
    %0 = arith.cmpi slt, %pid, %num_xblocks_0_10 : i32 loc(#loc10)
    scf.if %0 {
      %xoffset = arith.muli %pid, %c64_i32 : i32 loc(#loc138)
      %xindex = tt.make_range {end = 64 : i32, start = 0 : i32} : tensor<64xi32> loc(#loc139)
      %xindex_15 = tt.expand_dims %xindex {axis = 1 : i32} : tensor<64xi32> -> tensor<64x1xi32> loc(#loc140)
      %xindex_16 = tt.splat %xoffset : i32 -> tensor<64x1xi32> loc(#loc141)
      %xindex_17 = arith.addi %xindex_16, %xindex_15 : tensor<64x1xi32> loc(#loc141)
      %xmask = tt.splat %xnumel_0 : i32 -> tensor<64x1xi32> loc(#loc142)
      %xmask_18 = arith.cmpi slt, %xindex_17, %xmask : tensor<64x1xi32> loc(#loc142)
      %r0_base = tt.make_range {end = 8 : i32, start = 0 : i32} : tensor<8xi32> loc(#loc143)
      %r0_base_19 = tt.expand_dims %r0_base {axis = 0 : i32} : tensor<8xi32> -> tensor<1x8xi32> loc(#loc144)
      %x0 = arith.remsi %xindex_17, %cst_9 : tensor<64x1xi32> loc(#loc145)
      %x1 = arith.divsi %xindex_17, %cst_9 : tensor<64x1xi32> loc(#loc146)
      %_tmp4 = scf.for %r0_offset = %c0_i32 to %c256_i32 step %c8_i32 iter_args(%_tmp4_21 = %cst_8) -> (tensor<64x8xf32>)  : i32 {
        %r0_index = tt.splat %r0_offset : i32 -> tensor<1x8xi32> loc(#loc148)
        %r0_index_22 = arith.addi %r0_index, %r0_base_19 : tensor<1x8xi32> loc(#loc148)
        %r0_mask = arith.cmpi slt, %r0_index_22, %cst_7 : tensor<1x8xi32> loc(#loc149)
        %tmp0 = arith.muli %x0, %cst_6 : tensor<64x1xi32> loc(#loc150)
        %tmp0_23 = tt.broadcast %r0_index_22 : tensor<1x8xi32> -> tensor<64x8xi32> loc(#loc151)
        %tmp0_24 = tt.broadcast %tmp0 : tensor<64x1xi32> -> tensor<64x8xi32> loc(#loc151)
        %tmp0_25 = arith.addi %tmp0_23, %tmp0_24 : tensor<64x8xi32> loc(#loc151)
        %tmp0_26 = arith.muli %x1, %cst_5 : tensor<64x1xi32> loc(#loc152)
        %tmp0_27 = tt.broadcast %tmp0_26 : tensor<64x1xi32> -> tensor<64x8xi32> loc(#loc153)
        %tmp0_28 = arith.addi %tmp0_25, %tmp0_27 : tensor<64x8xi32> loc(#loc153)
        %tmp0_29 = tt.splat %in_ptr0 : !tt.ptr<bf16> -> tensor<64x8x!tt.ptr<bf16>> loc(#loc154)
        %tmp0_30 = tt.addptr %tmp0_29, %tmp0_28 : tensor<64x8x!tt.ptr<bf16>>, tensor<64x8xi32> loc(#loc154)
        %tmp0_31 = tt.broadcast %r0_mask : tensor<1x8xi1> -> tensor<64x8xi1> loc(#loc155)
        %tmp0_32 = tt.broadcast %xmask_18 : tensor<64x1xi1> -> tensor<64x8xi1> loc(#loc155)
        %tmp0_33 = arith.andi %tmp0_31, %tmp0_32 : tensor<64x8xi1> loc(#loc155)
        %tmp0_34 = tt.load %tmp0_30, %tmp0_33, %cst evictionPolicy = evict_first : tensor<64x8x!tt.ptr<bf16>> loc(#loc156)
        %tmp0_35 = arith.extf %tmp0_34 : tensor<64x8xbf16> to tensor<64x8xf32> loc(#loc157)
        %tmp2 = arith.mulf %tmp0_35, %tmp0_35 : tensor<64x8xf32> loc(#loc158)
        %tmp5 = arith.addf %_tmp4_21, %tmp2 : tensor<64x8xf32> loc(#loc159)
        %_tmp4_36 = arith.select %tmp0_33, %tmp5, %_tmp4_21 : tensor<64x8xi1>, tensor<64x8xf32> loc(#loc160)
        scf.yield %_tmp4_36 : tensor<64x8xf32> loc(#loc35)
      } loc(#loc147)
      %tmp4 = "tt.reduce"(%_tmp4) <{axis = 1 : i32}> ({
      ^bb0(%tmp4_21: f32 loc(callsite(#loc1 at #loc161)), %tmp4_22: f32 loc(callsite(#loc1 at #loc161))):
        %tmp4_23 = arith.addf %tmp4_21, %tmp4_22 : f32 loc(#loc244)
        tt.reduce.return %tmp4_23 : f32 loc(#loc238)
      }) : (tensor<64x8xf32>) -> tensor<64xf32> loc(#loc238)
      %tmp4_20 = tt.expand_dims %tmp4 {axis = 1 : i32} : tensor<64xf32> -> tensor<64x1xf32> loc(#loc162)
      %1 = tt.splat %out_ptr0 : !tt.ptr<f32> -> tensor<64x1x!tt.ptr<f32>> loc(#loc40)
      %2 = tt.addptr %1, %xindex_17 : tensor<64x1x!tt.ptr<f32>>, tensor<64x1xi32> loc(#loc40)
      tt.store %2, %tmp4_20, %xmask_18 : tensor<64x1x!tt.ptr<f32>> loc(#loc41)
    } else {
      %1 = arith.cmpi slt, %pid, %num_xblocks_1_12 : i32 loc(#loc42)
      scf.if %1 {
        %pid_offset = arith.subi %pid, %num_xblocks_0_10 : i32 loc(#loc163)
        %xoffset = arith.muli %pid_offset, %c64_i32 : i32 loc(#loc164)
        %xindex = tt.make_range {end = 64 : i32, start = 0 : i32} : tensor<64xi32> loc(#loc165)
        %xindex_15 = tt.expand_dims %xindex {axis = 1 : i32} : tensor<64xi32> -> tensor<64x1xi32> loc(#loc166)
        %xindex_16 = tt.splat %xoffset : i32 -> tensor<64x1xi32> loc(#loc167)
        %xindex_17 = arith.addi %xindex_16, %xindex_15 : tensor<64x1xi32> loc(#loc167)
        %xmask = tt.splat %xnumel_1 : i32 -> tensor<64x1xi32> loc(#loc168)
        %xmask_18 = arith.cmpi slt, %xindex_17, %xmask : tensor<64x1xi32> loc(#loc168)
        %r0_base = tt.make_range {end = 8 : i32, start = 0 : i32} : tensor<8xi32> loc(#loc169)
        %r0_base_19 = tt.expand_dims %r0_base {axis = 0 : i32} : tensor<8xi32> -> tensor<1x8xi32> loc(#loc170)
        %x4 = arith.remsi %xindex_17, %cst_4 : tensor<64x1xi32> loc(#loc171)
        %x5 = arith.divsi %xindex_17, %cst_4 : tensor<64x1xi32> loc(#loc172)
        %_tmp10 = scf.for %r0_offset = %c0_i32 to %c256_i32 step %c8_i32 iter_args(%_tmp10_21 = %cst_8) -> (tensor<64x8xf32>)  : i32 {
          %r0_index = tt.splat %r0_offset : i32 -> tensor<1x8xi32> loc(#loc174)
          %r0_index_22 = arith.addi %r0_index, %r0_base_19 : tensor<1x8xi32> loc(#loc174)
          %r0_mask = arith.cmpi slt, %r0_index_22, %cst_7 : tensor<1x8xi32> loc(#loc175)
          %tmp6 = arith.addi %r0_index_22, %cst_3 : tensor<1x8xi32> loc(#loc176)
          %tmp6_23 = arith.muli %x4, %cst_6 : tensor<64x1xi32> loc(#loc177)
          %tmp6_24 = tt.broadcast %tmp6 : tensor<1x8xi32> -> tensor<64x8xi32> loc(#loc178)
          %tmp6_25 = tt.broadcast %tmp6_23 : tensor<64x1xi32> -> tensor<64x8xi32> loc(#loc178)
          %tmp6_26 = arith.addi %tmp6_24, %tmp6_25 : tensor<64x8xi32> loc(#loc178)
          %tmp6_27 = arith.muli %x5, %cst_5 : tensor<64x1xi32> loc(#loc179)
          %tmp6_28 = tt.broadcast %tmp6_27 : tensor<64x1xi32> -> tensor<64x8xi32> loc(#loc180)
          %tmp6_29 = arith.addi %tmp6_26, %tmp6_28 : tensor<64x8xi32> loc(#loc180)
          %tmp6_30 = tt.splat %in_ptr0 : !tt.ptr<bf16> -> tensor<64x8x!tt.ptr<bf16>> loc(#loc181)
          %tmp6_31 = tt.addptr %tmp6_30, %tmp6_29 : tensor<64x8x!tt.ptr<bf16>>, tensor<64x8xi32> loc(#loc181)
          %tmp6_32 = tt.broadcast %r0_mask : tensor<1x8xi1> -> tensor<64x8xi1> loc(#loc182)
          %tmp6_33 = tt.broadcast %xmask_18 : tensor<64x1xi1> -> tensor<64x8xi1> loc(#loc182)
          %tmp6_34 = arith.andi %tmp6_32, %tmp6_33 : tensor<64x8xi1> loc(#loc182)
          %tmp6_35 = tt.load %tmp6_31, %tmp6_34, %cst evictionPolicy = evict_first : tensor<64x8x!tt.ptr<bf16>> loc(#loc183)
          %tmp6_36 = arith.extf %tmp6_35 : tensor<64x8xbf16> to tensor<64x8xf32> loc(#loc184)
          %tmp8 = arith.mulf %tmp6_36, %tmp6_36 : tensor<64x8xf32> loc(#loc185)
          %tmp11 = arith.addf %_tmp10_21, %tmp8 : tensor<64x8xf32> loc(#loc186)
          %_tmp10_37 = arith.select %tmp6_34, %tmp11, %_tmp10_21 : tensor<64x8xi1>, tensor<64x8xf32> loc(#loc187)
          scf.yield %_tmp10_37 : tensor<64x8xf32> loc(#loc69)
        } loc(#loc173)
        %tmp10 = "tt.reduce"(%_tmp10) <{axis = 1 : i32}> ({
        ^bb0(%tmp10_21: f32 loc(callsite(#loc1 at #loc188)), %tmp10_22: f32 loc(callsite(#loc1 at #loc188))):
          %tmp10_23 = arith.addf %tmp10_21, %tmp10_22 : f32 loc(#loc245)
          tt.reduce.return %tmp10_23 : f32 loc(#loc240)
        }) : (tensor<64x8xf32>) -> tensor<64xf32> loc(#loc240)
        %tmp10_20 = tt.expand_dims %tmp10 {axis = 1 : i32} : tensor<64xf32> -> tensor<64x1xf32> loc(#loc189)
        %2 = tt.splat %out_ptr1 : !tt.ptr<f32> -> tensor<64x1x!tt.ptr<f32>> loc(#loc72)
        %3 = tt.addptr %2, %xindex_17 : tensor<64x1x!tt.ptr<f32>>, tensor<64x1xi32> loc(#loc72)
        tt.store %3, %tmp10_20, %xmask_18 : tensor<64x1x!tt.ptr<f32>> loc(#loc73)
      } else {
        %2 = arith.cmpi slt, %pid, %num_xblocks_2_14 : i32 loc(#loc74)
        scf.if %2 {
          %pid_offset = arith.subi %pid, %num_xblocks_1_12 : i32 loc(#loc190)
          %xoffset = arith.muli %pid_offset, %c64_i32 : i32 loc(#loc191)
          %xindex = tt.make_range {end = 64 : i32, start = 0 : i32} : tensor<64xi32> loc(#loc192)
          %xindex_15 = tt.expand_dims %xindex {axis = 1 : i32} : tensor<64xi32> -> tensor<64x1xi32> loc(#loc193)
          %xindex_16 = tt.splat %xoffset : i32 -> tensor<64x1xi32> loc(#loc194)
          %xindex_17 = arith.addi %xindex_16, %xindex_15 : tensor<64x1xi32> loc(#loc194)
          %xmask = tt.splat %xnumel_2 : i32 -> tensor<64x1xi32> loc(#loc195)
          %xmask_18 = arith.cmpi slt, %xindex_17, %xmask : tensor<64x1xi32> loc(#loc195)
          %r0_base = tt.make_range {end = 8 : i32, start = 0 : i32} : tensor<8xi32> loc(#loc196)
          %r0_base_19 = tt.expand_dims %r0_base {axis = 0 : i32} : tensor<8xi32> -> tensor<1x8xi32> loc(#loc197)
          %x8 = arith.remsi %xindex_17, %cst_4 : tensor<64x1xi32> loc(#loc198)
          %x9 = arith.divsi %xindex_17, %cst_4 : tensor<64x1xi32> loc(#loc199)
          %_tmp16 = scf.for %r0_offset = %c0_i32 to %c256_i32 step %c8_i32 iter_args(%_tmp16_21 = %cst_8) -> (tensor<64x8xf32>)  : i32 {
            %r0_index = tt.splat %r0_offset : i32 -> tensor<1x8xi32> loc(#loc201)
            %r0_index_22 = arith.addi %r0_index, %r0_base_19 : tensor<1x8xi32> loc(#loc201)
            %r0_mask = arith.cmpi slt, %r0_index_22, %cst_7 : tensor<1x8xi32> loc(#loc202)
            %tmp12 = arith.addi %r0_index_22, %cst_2 : tensor<1x8xi32> loc(#loc203)
            %tmp12_23 = arith.muli %x8, %cst_6 : tensor<64x1xi32> loc(#loc204)
            %tmp12_24 = tt.broadcast %tmp12 : tensor<1x8xi32> -> tensor<64x8xi32> loc(#loc205)
            %tmp12_25 = tt.broadcast %tmp12_23 : tensor<64x1xi32> -> tensor<64x8xi32> loc(#loc205)
            %tmp12_26 = arith.addi %tmp12_24, %tmp12_25 : tensor<64x8xi32> loc(#loc205)
            %tmp12_27 = arith.muli %x9, %cst_5 : tensor<64x1xi32> loc(#loc206)
            %tmp12_28 = tt.broadcast %tmp12_27 : tensor<64x1xi32> -> tensor<64x8xi32> loc(#loc207)
            %tmp12_29 = arith.addi %tmp12_26, %tmp12_28 : tensor<64x8xi32> loc(#loc207)
            %tmp12_30 = tt.splat %in_ptr0 : !tt.ptr<bf16> -> tensor<64x8x!tt.ptr<bf16>> loc(#loc208)
            %tmp12_31 = tt.addptr %tmp12_30, %tmp12_29 : tensor<64x8x!tt.ptr<bf16>>, tensor<64x8xi32> loc(#loc208)
            %tmp12_32 = tt.broadcast %r0_mask : tensor<1x8xi1> -> tensor<64x8xi1> loc(#loc209)
            %tmp12_33 = tt.broadcast %xmask_18 : tensor<64x1xi1> -> tensor<64x8xi1> loc(#loc209)
            %tmp12_34 = arith.andi %tmp12_32, %tmp12_33 : tensor<64x8xi1> loc(#loc209)
            %tmp12_35 = tt.load %tmp12_31, %tmp12_34, %cst evictionPolicy = evict_last : tensor<64x8x!tt.ptr<bf16>> loc(#loc210)
            %tmp12_36 = arith.extf %tmp12_35 : tensor<64x8xbf16> to tensor<64x8xf32> loc(#loc211)
            %tmp14 = arith.mulf %tmp12_36, %tmp12_36 : tensor<64x8xf32> loc(#loc212)
            %tmp17 = arith.addf %_tmp16_21, %tmp14 : tensor<64x8xf32> loc(#loc213)
            %_tmp16_37 = arith.select %tmp12_34, %tmp17, %_tmp16_21 : tensor<64x8xi1>, tensor<64x8xf32> loc(#loc214)
            scf.yield %_tmp16_37 : tensor<64x8xf32> loc(#loc101)
          } loc(#loc200)
          %tmp16 = "tt.reduce"(%_tmp16) <{axis = 1 : i32}> ({
          ^bb0(%tmp16_21: f32 loc(callsite(#loc1 at #loc215)), %tmp16_22: f32 loc(callsite(#loc1 at #loc215))):
            %tmp16_23 = arith.addf %tmp16_21, %tmp16_22 : f32 loc(#loc246)
            tt.reduce.return %tmp16_23 : f32 loc(#loc242)
          }) : (tensor<64x8xf32>) -> tensor<64xf32> loc(#loc242)
          %tmp16_20 = tt.expand_dims %tmp16 {axis = 1 : i32} : tensor<64xf32> -> tensor<64x1xf32> loc(#loc216)
          scf.for %r0_offset = %c0_i32 to %c256_i32 step %c8_i32  : i32 {
            %r0_index = tt.splat %r0_offset : i32 -> tensor<1x8xi32> loc(#loc217)
            %r0_index_21 = arith.addi %r0_index, %r0_base_19 : tensor<1x8xi32> loc(#loc217)
            %r0_mask = arith.cmpi slt, %r0_index_21, %cst_7 : tensor<1x8xi32> loc(#loc218)
            %tmp18 = arith.addi %r0_index_21, %cst_2 : tensor<1x8xi32> loc(#loc219)
            %tmp18_22 = arith.muli %x8, %cst_6 : tensor<64x1xi32> loc(#loc220)
            %tmp18_23 = tt.broadcast %tmp18 : tensor<1x8xi32> -> tensor<64x8xi32> loc(#loc221)
            %tmp18_24 = tt.broadcast %tmp18_22 : tensor<64x1xi32> -> tensor<64x8xi32> loc(#loc221)
            %tmp18_25 = arith.addi %tmp18_23, %tmp18_24 : tensor<64x8xi32> loc(#loc221)
            %tmp18_26 = arith.muli %x9, %cst_5 : tensor<64x1xi32> loc(#loc222)
            %tmp18_27 = tt.broadcast %tmp18_26 : tensor<64x1xi32> -> tensor<64x8xi32> loc(#loc223)
            %tmp18_28 = arith.addi %tmp18_25, %tmp18_27 : tensor<64x8xi32> loc(#loc223)
            %tmp18_29 = tt.splat %in_ptr0 : !tt.ptr<bf16> -> tensor<64x8x!tt.ptr<bf16>> loc(#loc224)
            %tmp18_30 = tt.addptr %tmp18_29, %tmp18_28 : tensor<64x8x!tt.ptr<bf16>>, tensor<64x8xi32> loc(#loc224)
            %tmp18_31 = tt.broadcast %r0_mask : tensor<1x8xi1> -> tensor<64x8xi1> loc(#loc225)
            %tmp18_32 = tt.broadcast %xmask_18 : tensor<64x1xi1> -> tensor<64x8xi1> loc(#loc225)
            %tmp18_33 = arith.andi %tmp18_31, %tmp18_32 : tensor<64x8xi1> loc(#loc225)
            %tmp18_34 = tt.load %tmp18_30, %tmp18_33, %cst evictionPolicy = evict_first : tensor<64x8x!tt.ptr<bf16>> loc(#loc226)
            %tmp18_35 = arith.extf %tmp18_34 : tensor<64x8xbf16> to tensor<64x8xf32> loc(#loc227)
            %tmp21 = arith.divf %tmp16_20, %cst_1 : tensor<64x1xf32> loc(#loc228)
            %tmp23 = arith.addf %tmp21, %cst_0 : tensor<64x1xf32> loc(#loc229)
            %tmp24 = tt.extern_elementwise %tmp23 {libname = "", libpath = "", pure = true, symbol = "__nv_rsqrtf"} : (tensor<64x1xf32>) -> tensor<64x1xf32> loc(#loc230)
            %tmp25 = tt.broadcast %tmp24 : tensor<64x1xf32> -> tensor<64x8xf32> loc(#loc231)
            %tmp25_36 = arith.mulf %tmp18_35, %tmp25 : tensor<64x8xf32> loc(#loc231)
            %3 = arith.muli %xindex_17, %cst_6 : tensor<64x1xi32> loc(#loc120)
            %4 = tt.broadcast %r0_index_21 : tensor<1x8xi32> -> tensor<64x8xi32> loc(#loc121)
            %5 = tt.broadcast %3 : tensor<64x1xi32> -> tensor<64x8xi32> loc(#loc121)
            %6 = arith.addi %4, %5 : tensor<64x8xi32> loc(#loc121)
            %7 = tt.splat %out_ptr3 : !tt.ptr<bf16> -> tensor<64x8x!tt.ptr<bf16>> loc(#loc122)
            %8 = tt.addptr %7, %6 : tensor<64x8x!tt.ptr<bf16>>, tensor<64x8xi32> loc(#loc122)
            %9 = arith.truncf %tmp25_36 : tensor<64x8xf32> to tensor<64x8xbf16> loc(#loc123)
            tt.store %8, %9, %tmp18_33 : tensor<64x8x!tt.ptr<bf16>> loc(#loc123)
          } loc(#loc104)
        } loc(#loc75)
      } loc(#loc43)
    } loc(#loc11)
    tt.return loc(#loc124)
  } loc(#loc)
} loc(#loc)
#loc2 = loc("/home/ericbuehler/.cache/vllm/torch_compile_cache/torch_aot_compile/90537ea14f244a5187d6ecc853fbadcf440d710f29c8e182fe8151f3f7751a82/inductor_cache/xj/cxjipvsk4xnaivt4rhppkbgyobk6bsnkrayv646prhto2uzbws5l.py":22:24)
#loc3 = loc("/home/ericbuehler/vllm/.venv-bench/lib/python3.12/site-packages/triton/language/standard.py":43:17)
#loc4 = loc("/home/ericbuehler/.cache/vllm/torch_compile_cache/torch_aot_compile/90537ea14f244a5187d6ecc853fbadcf440d710f29c8e182fe8151f3f7751a82/inductor_cache/xj/cxjipvsk4xnaivt4rhppkbgyobk6bsnkrayv646prhto2uzbws5l.py":23:38)
#loc5 = loc("/home/ericbuehler/vllm/.venv-bench/lib/python3.12/site-packages/triton/language/standard.py":43:30)
#loc6 = loc("/home/ericbuehler/.cache/vllm/torch_compile_cache/torch_aot_compile/90537ea14f244a5187d6ecc853fbadcf440d710f29c8e182fe8151f3f7751a82/inductor_cache/xj/cxjipvsk4xnaivt4rhppkbgyobk6bsnkrayv646prhto2uzbws5l.py":24:54)
#loc7 = loc("/home/ericbuehler/.cache/vllm/torch_compile_cache/torch_aot_compile/90537ea14f244a5187d6ecc853fbadcf440d710f29c8e182fe8151f3f7751a82/inductor_cache/xj/cxjipvsk4xnaivt4rhppkbgyobk6bsnkrayv646prhto2uzbws5l.py":24:36)
#loc8 = loc("/home/ericbuehler/.cache/vllm/torch_compile_cache/torch_aot_compile/90537ea14f244a5187d6ecc853fbadcf440d710f29c8e182fe8151f3f7751a82/inductor_cache/xj/cxjipvsk4xnaivt4rhppkbgyobk6bsnkrayv646prhto2uzbws5l.py":25:54)
#loc9 = loc("/home/ericbuehler/.cache/vllm/torch_compile_cache/torch_aot_compile/90537ea14f244a5187d6ecc853fbadcf440d710f29c8e182fe8151f3f7751a82/inductor_cache/xj/cxjipvsk4xnaivt4rhppkbgyobk6bsnkrayv646prhto2uzbws5l.py":25:36)
#loc10 = loc("/home/ericbuehler/.cache/vllm/torch_compile_cache/torch_aot_compile/90537ea14f244a5187d6ecc853fbadcf440d710f29c8e182fe8151f3f7751a82/inductor_cache/xj/cxjipvsk4xnaivt4rhppkbgyobk6bsnkrayv646prhto2uzbws5l.py":26:13)
#loc11 = loc("/home/ericbuehler/.cache/vllm/torch_compile_cache/torch_aot_compile/90537ea14f244a5187d6ecc853fbadcf440d710f29c8e182fe8151f3f7751a82/inductor_cache/xj/cxjipvsk4xnaivt4rhppkbgyobk6bsnkrayv646prhto2uzbws5l.py":26:7)
#loc12 = loc("/home/ericbuehler/.cache/vllm/torch_compile_cache/torch_aot_compile/90537ea14f244a5187d6ecc853fbadcf440d710f29c8e182fe8151f3f7751a82/inductor_cache/xj/cxjipvsk4xnaivt4rhppkbgyobk6bsnkrayv646prhto2uzbws5l.py":31:31)
#loc13 = loc("/home/ericbuehler/.cache/vllm/torch_compile_cache/torch_aot_compile/90537ea14f244a5187d6ecc853fbadcf440d710f29c8e182fe8151f3f7751a82/inductor_cache/xj/cxjipvsk4xnaivt4rhppkbgyobk6bsnkrayv646prhto2uzbws5l.py":32:40)
#loc14 = loc("/home/ericbuehler/.cache/vllm/torch_compile_cache/torch_aot_compile/90537ea14f244a5187d6ecc853fbadcf440d710f29c8e182fe8151f3f7751a82/inductor_cache/xj/cxjipvsk4xnaivt4rhppkbgyobk6bsnkrayv646prhto2uzbws5l.py":32:48)
#loc15 = loc("/home/ericbuehler/.cache/vllm/torch_compile_cache/torch_aot_compile/90537ea14f244a5187d6ecc853fbadcf440d710f29c8e182fe8151f3f7751a82/inductor_cache/xj/cxjipvsk4xnaivt4rhppkbgyobk6bsnkrayv646prhto2uzbws5l.py":32:27)
#loc16 = loc("/home/ericbuehler/.cache/vllm/torch_compile_cache/torch_aot_compile/90537ea14f244a5187d6ecc853fbadcf440d710f29c8e182fe8151f3f7751a82/inductor_cache/xj/cxjipvsk4xnaivt4rhppkbgyobk6bsnkrayv646prhto2uzbws5l.py":33:25)
#loc17 = loc("/home/ericbuehler/.cache/vllm/torch_compile_cache/torch_aot_compile/90537ea14f244a5187d6ecc853fbadcf440d710f29c8e182fe8151f3f7751a82/inductor_cache/xj/cxjipvsk4xnaivt4rhppkbgyobk6bsnkrayv646prhto2uzbws5l.py":34:31)
#loc18 = loc("/home/ericbuehler/.cache/vllm/torch_compile_cache/torch_aot_compile/90537ea14f244a5187d6ecc853fbadcf440d710f29c8e182fe8151f3f7751a82/inductor_cache/xj/cxjipvsk4xnaivt4rhppkbgyobk6bsnkrayv646prhto2uzbws5l.py":34:41)
#loc19 = loc("/home/ericbuehler/.cache/vllm/torch_compile_cache/torch_aot_compile/90537ea14f244a5187d6ecc853fbadcf440d710f29c8e182fe8151f3f7751a82/inductor_cache/xj/cxjipvsk4xnaivt4rhppkbgyobk6bsnkrayv646prhto2uzbws5l.py":36:23)
#loc20 = loc("/home/ericbuehler/.cache/vllm/torch_compile_cache/torch_aot_compile/90537ea14f244a5187d6ecc853fbadcf440d710f29c8e182fe8151f3f7751a82/inductor_cache/xj/cxjipvsk4xnaivt4rhppkbgyobk6bsnkrayv646prhto2uzbws5l.py":37:23)
#loc21 = loc("/home/ericbuehler/.cache/vllm/torch_compile_cache/torch_aot_compile/90537ea14f244a5187d6ecc853fbadcf440d710f29c8e182fe8151f3f7751a82/inductor_cache/xj/cxjipvsk4xnaivt4rhppkbgyobk6bsnkrayv646prhto2uzbws5l.py":40:47)
#loc22 = loc("/home/ericbuehler/.cache/vllm/torch_compile_cache/torch_aot_compile/90537ea14f244a5187d6ecc853fbadcf440d710f29c8e182fe8151f3f7751a82/inductor_cache/xj/cxjipvsk4xnaivt4rhppkbgyobk6bsnkrayv646prhto2uzbws5l.py":41:35)
#loc23 = loc("/home/ericbuehler/.cache/vllm/torch_compile_cache/torch_aot_compile/90537ea14f244a5187d6ecc853fbadcf440d710f29c8e182fe8151f3f7751a82/inductor_cache/xj/cxjipvsk4xnaivt4rhppkbgyobk6bsnkrayv646prhto2uzbws5l.py":42:33)
#loc24 = loc("/home/ericbuehler/.cache/vllm/torch_compile_cache/torch_aot_compile/90537ea14f244a5187d6ecc853fbadcf440d710f29c8e182fe8151f3f7751a82/inductor_cache/xj/cxjipvsk4xnaivt4rhppkbgyobk6bsnkrayv646prhto2uzbws5l.py":46:49)
#loc25 = loc("/home/ericbuehler/.cache/vllm/torch_compile_cache/torch_aot_compile/90537ea14f244a5187d6ecc853fbadcf440d710f29c8e182fe8151f3f7751a82/inductor_cache/xj/cxjipvsk4xnaivt4rhppkbgyobk6bsnkrayv646prhto2uzbws5l.py":46:45)
#loc26 = loc("/home/ericbuehler/.cache/vllm/torch_compile_cache/torch_aot_compile/90537ea14f244a5187d6ecc853fbadcf440d710f29c8e182fe8151f3f7751a82/inductor_cache/xj/cxjipvsk4xnaivt4rhppkbgyobk6bsnkrayv646prhto2uzbws5l.py":46:59)
#loc27 = loc("/home/ericbuehler/.cache/vllm/torch_compile_cache/torch_aot_compile/90537ea14f244a5187d6ecc853fbadcf440d710f29c8e182fe8151f3f7751a82/inductor_cache/xj/cxjipvsk4xnaivt4rhppkbgyobk6bsnkrayv646prhto2uzbws5l.py":46:54)
#loc28 = loc("/home/ericbuehler/.cache/vllm/torch_compile_cache/torch_aot_compile/90537ea14f244a5187d6ecc853fbadcf440d710f29c8e182fe8151f3f7751a82/inductor_cache/xj/cxjipvsk4xnaivt4rhppkbgyobk6bsnkrayv646prhto2uzbws5l.py":46:38)
#loc29 = loc("/home/ericbuehler/.cache/vllm/torch_compile_cache/torch_aot_compile/90537ea14f244a5187d6ecc853fbadcf440d710f29c8e182fe8151f3f7751a82/inductor_cache/xj/cxjipvsk4xnaivt4rhppkbgyobk6bsnkrayv646prhto2uzbws5l.py":46:74)
#loc30 = loc("/home/ericbuehler/.cache/vllm/torch_compile_cache/torch_aot_compile/90537ea14f244a5187d6ecc853fbadcf440d710f29c8e182fe8151f3f7751a82/inductor_cache/xj/cxjipvsk4xnaivt4rhppkbgyobk6bsnkrayv646prhto2uzbws5l.py":46:64)
#loc31 = loc("/home/ericbuehler/.cache/vllm/torch_compile_cache/torch_aot_compile/90537ea14f244a5187d6ecc853fbadcf440d710f29c8e182fe8151f3f7751a82/inductor_cache/xj/cxjipvsk4xnaivt4rhppkbgyobk6bsnkrayv646prhto2uzbws5l.py":46:126)
#loc32 = loc("/home/ericbuehler/.cache/vllm/torch_compile_cache/torch_aot_compile/90537ea14f244a5187d6ecc853fbadcf440d710f29c8e182fe8151f3f7751a82/inductor_cache/xj/cxjipvsk4xnaivt4rhppkbgyobk6bsnkrayv646prhto2uzbws5l.py":48:26)
#loc33 = loc("/home/ericbuehler/.cache/vllm/torch_compile_cache/torch_aot_compile/90537ea14f244a5187d6ecc853fbadcf440d710f29c8e182fe8151f3f7751a82/inductor_cache/xj/cxjipvsk4xnaivt4rhppkbgyobk6bsnkrayv646prhto2uzbws5l.py":50:27)
#loc34 = loc("/home/ericbuehler/.cache/vllm/torch_compile_cache/torch_aot_compile/90537ea14f244a5187d6ecc853fbadcf440d710f29c8e182fe8151f3f7751a82/inductor_cache/xj/cxjipvsk4xnaivt4rhppkbgyobk6bsnkrayv646prhto2uzbws5l.py":51:52)
#loc35 = loc("/home/ericbuehler/.cache/vllm/torch_compile_cache/torch_aot_compile/90537ea14f244a5187d6ecc853fbadcf440d710f29c8e182fe8151f3f7751a82/inductor_cache/xj/cxjipvsk4xnaivt4rhppkbgyobk6bsnkrayv646prhto2uzbws5l.py":51:12)
#loc36 = loc("/home/ericbuehler/vllm/.venv-bench/lib/python3.12/site-packages/triton/language/standard.py":293:36)
#loc38 = loc("/home/ericbuehler/vllm/.venv-bench/lib/python3.12/site-packages/triton/language/standard.py":263:15)
#loc39 = loc("/home/ericbuehler/.cache/vllm/torch_compile_cache/torch_aot_compile/90537ea14f244a5187d6ecc853fbadcf440d710f29c8e182fe8151f3f7751a82/inductor_cache/xj/cxjipvsk4xnaivt4rhppkbgyobk6bsnkrayv646prhto2uzbws5l.py":52:32)
#loc40 = loc("/home/ericbuehler/.cache/vllm/torch_compile_cache/torch_aot_compile/90537ea14f244a5187d6ecc853fbadcf440d710f29c8e182fe8151f3f7751a82/inductor_cache/xj/cxjipvsk4xnaivt4rhppkbgyobk6bsnkrayv646prhto2uzbws5l.py":53:29)
#loc41 = loc("/home/ericbuehler/.cache/vllm/torch_compile_cache/torch_aot_compile/90537ea14f244a5187d6ecc853fbadcf440d710f29c8e182fe8151f3f7751a82/inductor_cache/xj/cxjipvsk4xnaivt4rhppkbgyobk6bsnkrayv646prhto2uzbws5l.py":53:40)
#loc42 = loc("/home/ericbuehler/.cache/vllm/torch_compile_cache/torch_aot_compile/90537ea14f244a5187d6ecc853fbadcf440d710f29c8e182fe8151f3f7751a82/inductor_cache/xj/cxjipvsk4xnaivt4rhppkbgyobk6bsnkrayv646prhto2uzbws5l.py":54:15)
#loc43 = loc("/home/ericbuehler/.cache/vllm/torch_compile_cache/torch_aot_compile/90537ea14f244a5187d6ecc853fbadcf440d710f29c8e182fe8151f3f7751a82/inductor_cache/xj/cxjipvsk4xnaivt4rhppkbgyobk6bsnkrayv646prhto2uzbws5l.py":54:9)
#loc44 = loc("/home/ericbuehler/.cache/vllm/torch_compile_cache/torch_aot_compile/90537ea14f244a5187d6ecc853fbadcf440d710f29c8e182fe8151f3f7751a82/inductor_cache/xj/cxjipvsk4xnaivt4rhppkbgyobk6bsnkrayv646prhto2uzbws5l.py":55:27)
#loc45 = loc("/home/ericbuehler/.cache/vllm/torch_compile_cache/torch_aot_compile/90537ea14f244a5187d6ecc853fbadcf440d710f29c8e182fe8151f3f7751a82/inductor_cache/xj/cxjipvsk4xnaivt4rhppkbgyobk6bsnkrayv646prhto2uzbws5l.py":59:31)
#loc46 = loc("/home/ericbuehler/.cache/vllm/torch_compile_cache/torch_aot_compile/90537ea14f244a5187d6ecc853fbadcf440d710f29c8e182fe8151f3f7751a82/inductor_cache/xj/cxjipvsk4xnaivt4rhppkbgyobk6bsnkrayv646prhto2uzbws5l.py":60:40)
#loc47 = loc("/home/ericbuehler/.cache/vllm/torch_compile_cache/torch_aot_compile/90537ea14f244a5187d6ecc853fbadcf440d710f29c8e182fe8151f3f7751a82/inductor_cache/xj/cxjipvsk4xnaivt4rhppkbgyobk6bsnkrayv646prhto2uzbws5l.py":60:48)
#loc48 = loc("/home/ericbuehler/.cache/vllm/torch_compile_cache/torch_aot_compile/90537ea14f244a5187d6ecc853fbadcf440d710f29c8e182fe8151f3f7751a82/inductor_cache/xj/cxjipvsk4xnaivt4rhppkbgyobk6bsnkrayv646prhto2uzbws5l.py":60:27)
#loc49 = loc("/home/ericbuehler/.cache/vllm/torch_compile_cache/torch_aot_compile/90537ea14f244a5187d6ecc853fbadcf440d710f29c8e182fe8151f3f7751a82/inductor_cache/xj/cxjipvsk4xnaivt4rhppkbgyobk6bsnkrayv646prhto2uzbws5l.py":61:25)
#loc50 = loc("/home/ericbuehler/.cache/vllm/torch_compile_cache/torch_aot_compile/90537ea14f244a5187d6ecc853fbadcf440d710f29c8e182fe8151f3f7751a82/inductor_cache/xj/cxjipvsk4xnaivt4rhppkbgyobk6bsnkrayv646prhto2uzbws5l.py":62:31)
#loc51 = loc("/home/ericbuehler/.cache/vllm/torch_compile_cache/torch_aot_compile/90537ea14f244a5187d6ecc853fbadcf440d710f29c8e182fe8151f3f7751a82/inductor_cache/xj/cxjipvsk4xnaivt4rhppkbgyobk6bsnkrayv646prhto2uzbws5l.py":62:41)
#loc52 = loc("/home/ericbuehler/.cache/vllm/torch_compile_cache/torch_aot_compile/90537ea14f244a5187d6ecc853fbadcf440d710f29c8e182fe8151f3f7751a82/inductor_cache/xj/cxjipvsk4xnaivt4rhppkbgyobk6bsnkrayv646prhto2uzbws5l.py":64:23)
#loc53 = loc("/home/ericbuehler/.cache/vllm/torch_compile_cache/torch_aot_compile/90537ea14f244a5187d6ecc853fbadcf440d710f29c8e182fe8151f3f7751a82/inductor_cache/xj/cxjipvsk4xnaivt4rhppkbgyobk6bsnkrayv646prhto2uzbws5l.py":65:23)
#loc54 = loc("/home/ericbuehler/.cache/vllm/torch_compile_cache/torch_aot_compile/90537ea14f244a5187d6ecc853fbadcf440d710f29c8e182fe8151f3f7751a82/inductor_cache/xj/cxjipvsk4xnaivt4rhppkbgyobk6bsnkrayv646prhto2uzbws5l.py":68:47)
#loc55 = loc("/home/ericbuehler/.cache/vllm/torch_compile_cache/torch_aot_compile/90537ea14f244a5187d6ecc853fbadcf440d710f29c8e182fe8151f3f7751a82/inductor_cache/xj/cxjipvsk4xnaivt4rhppkbgyobk6bsnkrayv646prhto2uzbws5l.py":69:35)
#loc56 = loc("/home/ericbuehler/.cache/vllm/torch_compile_cache/torch_aot_compile/90537ea14f244a5187d6ecc853fbadcf440d710f29c8e182fe8151f3f7751a82/inductor_cache/xj/cxjipvsk4xnaivt4rhppkbgyobk6bsnkrayv646prhto2uzbws5l.py":70:33)
#loc57 = loc("/home/ericbuehler/.cache/vllm/torch_compile_cache/torch_aot_compile/90537ea14f244a5187d6ecc853fbadcf440d710f29c8e182fe8151f3f7751a82/inductor_cache/xj/cxjipvsk4xnaivt4rhppkbgyobk6bsnkrayv646prhto2uzbws5l.py":74:45)
#loc58 = loc("/home/ericbuehler/.cache/vllm/torch_compile_cache/torch_aot_compile/90537ea14f244a5187d6ecc853fbadcf440d710f29c8e182fe8151f3f7751a82/inductor_cache/xj/cxjipvsk4xnaivt4rhppkbgyobk6bsnkrayv646prhto2uzbws5l.py":74:56)
#loc59 = loc("/home/ericbuehler/.cache/vllm/torch_compile_cache/torch_aot_compile/90537ea14f244a5187d6ecc853fbadcf440d710f29c8e182fe8151f3f7751a82/inductor_cache/xj/cxjipvsk4xnaivt4rhppkbgyobk6bsnkrayv646prhto2uzbws5l.py":74:52)
#loc60 = loc("/home/ericbuehler/.cache/vllm/torch_compile_cache/torch_aot_compile/90537ea14f244a5187d6ecc853fbadcf440d710f29c8e182fe8151f3f7751a82/inductor_cache/xj/cxjipvsk4xnaivt4rhppkbgyobk6bsnkrayv646prhto2uzbws5l.py":74:66)
#loc61 = loc("/home/ericbuehler/.cache/vllm/torch_compile_cache/torch_aot_compile/90537ea14f244a5187d6ecc853fbadcf440d710f29c8e182fe8151f3f7751a82/inductor_cache/xj/cxjipvsk4xnaivt4rhppkbgyobk6bsnkrayv646prhto2uzbws5l.py":74:61)
#loc62 = loc("/home/ericbuehler/.cache/vllm/torch_compile_cache/torch_aot_compile/90537ea14f244a5187d6ecc853fbadcf440d710f29c8e182fe8151f3f7751a82/inductor_cache/xj/cxjipvsk4xnaivt4rhppkbgyobk6bsnkrayv646prhto2uzbws5l.py":74:38)
#loc63 = loc("/home/ericbuehler/.cache/vllm/torch_compile_cache/torch_aot_compile/90537ea14f244a5187d6ecc853fbadcf440d710f29c8e182fe8151f3f7751a82/inductor_cache/xj/cxjipvsk4xnaivt4rhppkbgyobk6bsnkrayv646prhto2uzbws5l.py":74:81)
#loc64 = loc("/home/ericbuehler/.cache/vllm/torch_compile_cache/torch_aot_compile/90537ea14f244a5187d6ecc853fbadcf440d710f29c8e182fe8151f3f7751a82/inductor_cache/xj/cxjipvsk4xnaivt4rhppkbgyobk6bsnkrayv646prhto2uzbws5l.py":74:71)
#loc65 = loc("/home/ericbuehler/.cache/vllm/torch_compile_cache/torch_aot_compile/90537ea14f244a5187d6ecc853fbadcf440d710f29c8e182fe8151f3f7751a82/inductor_cache/xj/cxjipvsk4xnaivt4rhppkbgyobk6bsnkrayv646prhto2uzbws5l.py":74:133)
#loc66 = loc("/home/ericbuehler/.cache/vllm/torch_compile_cache/torch_aot_compile/90537ea14f244a5187d6ecc853fbadcf440d710f29c8e182fe8151f3f7751a82/inductor_cache/xj/cxjipvsk4xnaivt4rhppkbgyobk6bsnkrayv646prhto2uzbws5l.py":76:26)
#loc67 = loc("/home/ericbuehler/.cache/vllm/torch_compile_cache/torch_aot_compile/90537ea14f244a5187d6ecc853fbadcf440d710f29c8e182fe8151f3f7751a82/inductor_cache/xj/cxjipvsk4xnaivt4rhppkbgyobk6bsnkrayv646prhto2uzbws5l.py":78:29)
#loc68 = loc("/home/ericbuehler/.cache/vllm/torch_compile_cache/torch_aot_compile/90537ea14f244a5187d6ecc853fbadcf440d710f29c8e182fe8151f3f7751a82/inductor_cache/xj/cxjipvsk4xnaivt4rhppkbgyobk6bsnkrayv646prhto2uzbws5l.py":79:54)
#loc69 = loc("/home/ericbuehler/.cache/vllm/torch_compile_cache/torch_aot_compile/90537ea14f244a5187d6ecc853fbadcf440d710f29c8e182fe8151f3f7751a82/inductor_cache/xj/cxjipvsk4xnaivt4rhppkbgyobk6bsnkrayv646prhto2uzbws5l.py":79:12)
#loc71 = loc("/home/ericbuehler/.cache/vllm/torch_compile_cache/torch_aot_compile/90537ea14f244a5187d6ecc853fbadcf440d710f29c8e182fe8151f3f7751a82/inductor_cache/xj/cxjipvsk4xnaivt4rhppkbgyobk6bsnkrayv646prhto2uzbws5l.py":80:34)
#loc72 = loc("/home/ericbuehler/.cache/vllm/torch_compile_cache/torch_aot_compile/90537ea14f244a5187d6ecc853fbadcf440d710f29c8e182fe8151f3f7751a82/inductor_cache/xj/cxjipvsk4xnaivt4rhppkbgyobk6bsnkrayv646prhto2uzbws5l.py":81:29)
#loc73 = loc("/home/ericbuehler/.cache/vllm/torch_compile_cache/torch_aot_compile/90537ea14f244a5187d6ecc853fbadcf440d710f29c8e182fe8151f3f7751a82/inductor_cache/xj/cxjipvsk4xnaivt4rhppkbgyobk6bsnkrayv646prhto2uzbws5l.py":81:41)
#loc74 = loc("/home/ericbuehler/.cache/vllm/torch_compile_cache/torch_aot_compile/90537ea14f244a5187d6ecc853fbadcf440d710f29c8e182fe8151f3f7751a82/inductor_cache/xj/cxjipvsk4xnaivt4rhppkbgyobk6bsnkrayv646prhto2uzbws5l.py":82:15)
#loc75 = loc("/home/ericbuehler/.cache/vllm/torch_compile_cache/torch_aot_compile/90537ea14f244a5187d6ecc853fbadcf440d710f29c8e182fe8151f3f7751a82/inductor_cache/xj/cxjipvsk4xnaivt4rhppkbgyobk6bsnkrayv646prhto2uzbws5l.py":82:9)
#loc76 = loc("/home/ericbuehler/.cache/vllm/torch_compile_cache/torch_aot_compile/90537ea14f244a5187d6ecc853fbadcf440d710f29c8e182fe8151f3f7751a82/inductor_cache/xj/cxjipvsk4xnaivt4rhppkbgyobk6bsnkrayv646prhto2uzbws5l.py":83:27)
#loc77 = loc("/home/ericbuehler/.cache/vllm/torch_compile_cache/torch_aot_compile/90537ea14f244a5187d6ecc853fbadcf440d710f29c8e182fe8151f3f7751a82/inductor_cache/xj/cxjipvsk4xnaivt4rhppkbgyobk6bsnkrayv646prhto2uzbws5l.py":87:31)
#loc78 = loc("/home/ericbuehler/.cache/vllm/torch_compile_cache/torch_aot_compile/90537ea14f244a5187d6ecc853fbadcf440d710f29c8e182fe8151f3f7751a82/inductor_cache/xj/cxjipvsk4xnaivt4rhppkbgyobk6bsnkrayv646prhto2uzbws5l.py":88:40)
#loc79 = loc("/home/ericbuehler/.cache/vllm/torch_compile_cache/torch_aot_compile/90537ea14f244a5187d6ecc853fbadcf440d710f29c8e182fe8151f3f7751a82/inductor_cache/xj/cxjipvsk4xnaivt4rhppkbgyobk6bsnkrayv646prhto2uzbws5l.py":88:48)
#loc80 = loc("/home/ericbuehler/.cache/vllm/torch_compile_cache/torch_aot_compile/90537ea14f244a5187d6ecc853fbadcf440d710f29c8e182fe8151f3f7751a82/inductor_cache/xj/cxjipvsk4xnaivt4rhppkbgyobk6bsnkrayv646prhto2uzbws5l.py":88:27)
#loc81 = loc("/home/ericbuehler/.cache/vllm/torch_compile_cache/torch_aot_compile/90537ea14f244a5187d6ecc853fbadcf440d710f29c8e182fe8151f3f7751a82/inductor_cache/xj/cxjipvsk4xnaivt4rhppkbgyobk6bsnkrayv646prhto2uzbws5l.py":89:25)
#loc82 = loc("/home/ericbuehler/.cache/vllm/torch_compile_cache/torch_aot_compile/90537ea14f244a5187d6ecc853fbadcf440d710f29c8e182fe8151f3f7751a82/inductor_cache/xj/cxjipvsk4xnaivt4rhppkbgyobk6bsnkrayv646prhto2uzbws5l.py":90:31)
#loc83 = loc("/home/ericbuehler/.cache/vllm/torch_compile_cache/torch_aot_compile/90537ea14f244a5187d6ecc853fbadcf440d710f29c8e182fe8151f3f7751a82/inductor_cache/xj/cxjipvsk4xnaivt4rhppkbgyobk6bsnkrayv646prhto2uzbws5l.py":90:41)
#loc84 = loc("/home/ericbuehler/.cache/vllm/torch_compile_cache/torch_aot_compile/90537ea14f244a5187d6ecc853fbadcf440d710f29c8e182fe8151f3f7751a82/inductor_cache/xj/cxjipvsk4xnaivt4rhppkbgyobk6bsnkrayv646prhto2uzbws5l.py":92:23)
#loc85 = loc("/home/ericbuehler/.cache/vllm/torch_compile_cache/torch_aot_compile/90537ea14f244a5187d6ecc853fbadcf440d710f29c8e182fe8151f3f7751a82/inductor_cache/xj/cxjipvsk4xnaivt4rhppkbgyobk6bsnkrayv646prhto2uzbws5l.py":93:23)
#loc86 = loc("/home/ericbuehler/.cache/vllm/torch_compile_cache/torch_aot_compile/90537ea14f244a5187d6ecc853fbadcf440d710f29c8e182fe8151f3f7751a82/inductor_cache/xj/cxjipvsk4xnaivt4rhppkbgyobk6bsnkrayv646prhto2uzbws5l.py":96:47)
#loc87 = loc("/home/ericbuehler/.cache/vllm/torch_compile_cache/torch_aot_compile/90537ea14f244a5187d6ecc853fbadcf440d710f29c8e182fe8151f3f7751a82/inductor_cache/xj/cxjipvsk4xnaivt4rhppkbgyobk6bsnkrayv646prhto2uzbws5l.py":97:35)
#loc88 = loc("/home/ericbuehler/.cache/vllm/torch_compile_cache/torch_aot_compile/90537ea14f244a5187d6ecc853fbadcf440d710f29c8e182fe8151f3f7751a82/inductor_cache/xj/cxjipvsk4xnaivt4rhppkbgyobk6bsnkrayv646prhto2uzbws5l.py":98:33)
#loc89 = loc("/home/ericbuehler/.cache/vllm/torch_compile_cache/torch_aot_compile/90537ea14f244a5187d6ecc853fbadcf440d710f29c8e182fe8151f3f7751a82/inductor_cache/xj/cxjipvsk4xnaivt4rhppkbgyobk6bsnkrayv646prhto2uzbws5l.py":102:46)
#loc90 = loc("/home/ericbuehler/.cache/vllm/torch_compile_cache/torch_aot_compile/90537ea14f244a5187d6ecc853fbadcf440d710f29c8e182fe8151f3f7751a82/inductor_cache/xj/cxjipvsk4xnaivt4rhppkbgyobk6bsnkrayv646prhto2uzbws5l.py":102:58)
#loc91 = loc("/home/ericbuehler/.cache/vllm/torch_compile_cache/torch_aot_compile/90537ea14f244a5187d6ecc853fbadcf440d710f29c8e182fe8151f3f7751a82/inductor_cache/xj/cxjipvsk4xnaivt4rhppkbgyobk6bsnkrayv646prhto2uzbws5l.py":102:54)
#loc92 = loc("/home/ericbuehler/.cache/vllm/torch_compile_cache/torch_aot_compile/90537ea14f244a5187d6ecc853fbadcf440d710f29c8e182fe8151f3f7751a82/inductor_cache/xj/cxjipvsk4xnaivt4rhppkbgyobk6bsnkrayv646prhto2uzbws5l.py":102:68)
#loc93 = loc("/home/ericbuehler/.cache/vllm/torch_compile_cache/torch_aot_compile/90537ea14f244a5187d6ecc853fbadcf440d710f29c8e182fe8151f3f7751a82/inductor_cache/xj/cxjipvsk4xnaivt4rhppkbgyobk6bsnkrayv646prhto2uzbws5l.py":102:63)
#loc94 = loc("/home/ericbuehler/.cache/vllm/torch_compile_cache/torch_aot_compile/90537ea14f244a5187d6ecc853fbadcf440d710f29c8e182fe8151f3f7751a82/inductor_cache/xj/cxjipvsk4xnaivt4rhppkbgyobk6bsnkrayv646prhto2uzbws5l.py":102:39)
#loc95 = loc("/home/ericbuehler/.cache/vllm/torch_compile_cache/torch_aot_compile/90537ea14f244a5187d6ecc853fbadcf440d710f29c8e182fe8151f3f7751a82/inductor_cache/xj/cxjipvsk4xnaivt4rhppkbgyobk6bsnkrayv646prhto2uzbws5l.py":102:83)
#loc96 = loc("/home/ericbuehler/.cache/vllm/torch_compile_cache/torch_aot_compile/90537ea14f244a5187d6ecc853fbadcf440d710f29c8e182fe8151f3f7751a82/inductor_cache/xj/cxjipvsk4xnaivt4rhppkbgyobk6bsnkrayv646prhto2uzbws5l.py":102:73)
#loc97 = loc("/home/ericbuehler/.cache/vllm/torch_compile_cache/torch_aot_compile/90537ea14f244a5187d6ecc853fbadcf440d710f29c8e182fe8151f3f7751a82/inductor_cache/xj/cxjipvsk4xnaivt4rhppkbgyobk6bsnkrayv646prhto2uzbws5l.py":102:134)
#loc98 = loc("/home/ericbuehler/.cache/vllm/torch_compile_cache/torch_aot_compile/90537ea14f244a5187d6ecc853fbadcf440d710f29c8e182fe8151f3f7751a82/inductor_cache/xj/cxjipvsk4xnaivt4rhppkbgyobk6bsnkrayv646prhto2uzbws5l.py":104:28)
#loc99 = loc("/home/ericbuehler/.cache/vllm/torch_compile_cache/torch_aot_compile/90537ea14f244a5187d6ecc853fbadcf440d710f29c8e182fe8151f3f7751a82/inductor_cache/xj/cxjipvsk4xnaivt4rhppkbgyobk6bsnkrayv646prhto2uzbws5l.py":106:29)
#loc100 = loc("/home/ericbuehler/.cache/vllm/torch_compile_cache/torch_aot_compile/90537ea14f244a5187d6ecc853fbadcf440d710f29c8e182fe8151f3f7751a82/inductor_cache/xj/cxjipvsk4xnaivt4rhppkbgyobk6bsnkrayv646prhto2uzbws5l.py":107:54)
#loc101 = loc("/home/ericbuehler/.cache/vllm/torch_compile_cache/torch_aot_compile/90537ea14f244a5187d6ecc853fbadcf440d710f29c8e182fe8151f3f7751a82/inductor_cache/xj/cxjipvsk4xnaivt4rhppkbgyobk6bsnkrayv646prhto2uzbws5l.py":107:12)
#loc103 = loc("/home/ericbuehler/.cache/vllm/torch_compile_cache/torch_aot_compile/90537ea14f244a5187d6ecc853fbadcf440d710f29c8e182fe8151f3f7751a82/inductor_cache/xj/cxjipvsk4xnaivt4rhppkbgyobk6bsnkrayv646prhto2uzbws5l.py":108:34)
#loc104 = loc("/home/ericbuehler/.cache/vllm/torch_compile_cache/torch_aot_compile/90537ea14f244a5187d6ecc853fbadcf440d710f29c8e182fe8151f3f7751a82/inductor_cache/xj/cxjipvsk4xnaivt4rhppkbgyobk6bsnkrayv646prhto2uzbws5l.py":109:47)
#loc105 = loc("/home/ericbuehler/.cache/vllm/torch_compile_cache/torch_aot_compile/90537ea14f244a5187d6ecc853fbadcf440d710f29c8e182fe8151f3f7751a82/inductor_cache/xj/cxjipvsk4xnaivt4rhppkbgyobk6bsnkrayv646prhto2uzbws5l.py":110:35)
#loc106 = loc("/home/ericbuehler/.cache/vllm/torch_compile_cache/torch_aot_compile/90537ea14f244a5187d6ecc853fbadcf440d710f29c8e182fe8151f3f7751a82/inductor_cache/xj/cxjipvsk4xnaivt4rhppkbgyobk6bsnkrayv646prhto2uzbws5l.py":111:33)
#loc107 = loc("/home/ericbuehler/.cache/vllm/torch_compile_cache/torch_aot_compile/90537ea14f244a5187d6ecc853fbadcf440d710f29c8e182fe8151f3f7751a82/inductor_cache/xj/cxjipvsk4xnaivt4rhppkbgyobk6bsnkrayv646prhto2uzbws5l.py":115:46)
#loc108 = loc("/home/ericbuehler/.cache/vllm/torch_compile_cache/torch_aot_compile/90537ea14f244a5187d6ecc853fbadcf440d710f29c8e182fe8151f3f7751a82/inductor_cache/xj/cxjipvsk4xnaivt4rhppkbgyobk6bsnkrayv646prhto2uzbws5l.py":115:58)
#loc109 = loc("/home/ericbuehler/.cache/vllm/torch_compile_cache/torch_aot_compile/90537ea14f244a5187d6ecc853fbadcf440d710f29c8e182fe8151f3f7751a82/inductor_cache/xj/cxjipvsk4xnaivt4rhppkbgyobk6bsnkrayv646prhto2uzbws5l.py":115:54)
#loc110 = loc("/home/ericbuehler/.cache/vllm/torch_compile_cache/torch_aot_compile/90537ea14f244a5187d6ecc853fbadcf440d710f29c8e182fe8151f3f7751a82/inductor_cache/xj/cxjipvsk4xnaivt4rhppkbgyobk6bsnkrayv646prhto2uzbws5l.py":115:68)
#loc111 = loc("/home/ericbuehler/.cache/vllm/torch_compile_cache/torch_aot_compile/90537ea14f244a5187d6ecc853fbadcf440d710f29c8e182fe8151f3f7751a82/inductor_cache/xj/cxjipvsk4xnaivt4rhppkbgyobk6bsnkrayv646prhto2uzbws5l.py":115:63)
#loc112 = loc("/home/ericbuehler/.cache/vllm/torch_compile_cache/torch_aot_compile/90537ea14f244a5187d6ecc853fbadcf440d710f29c8e182fe8151f3f7751a82/inductor_cache/xj/cxjipvsk4xnaivt4rhppkbgyobk6bsnkrayv646prhto2uzbws5l.py":115:39)
#loc113 = loc("/home/ericbuehler/.cache/vllm/torch_compile_cache/torch_aot_compile/90537ea14f244a5187d6ecc853fbadcf440d710f29c8e182fe8151f3f7751a82/inductor_cache/xj/cxjipvsk4xnaivt4rhppkbgyobk6bsnkrayv646prhto2uzbws5l.py":115:83)
#loc114 = loc("/home/ericbuehler/.cache/vllm/torch_compile_cache/torch_aot_compile/90537ea14f244a5187d6ecc853fbadcf440d710f29c8e182fe8151f3f7751a82/inductor_cache/xj/cxjipvsk4xnaivt4rhppkbgyobk6bsnkrayv646prhto2uzbws5l.py":115:73)
#loc115 = loc("/home/ericbuehler/.cache/vllm/torch_compile_cache/torch_aot_compile/90537ea14f244a5187d6ecc853fbadcf440d710f29c8e182fe8151f3f7751a82/inductor_cache/xj/cxjipvsk4xnaivt4rhppkbgyobk6bsnkrayv646prhto2uzbws5l.py":115:135)
#loc116 = loc("/home/ericbuehler/.cache/vllm/torch_compile_cache/torch_aot_compile/90537ea14f244a5187d6ecc853fbadcf440d710f29c8e182fe8151f3f7751a82/inductor_cache/xj/cxjipvsk4xnaivt4rhppkbgyobk6bsnkrayv646prhto2uzbws5l.py":118:29)
#loc117 = loc("/home/ericbuehler/.cache/vllm/torch_compile_cache/torch_aot_compile/90537ea14f244a5187d6ecc853fbadcf440d710f29c8e182fe8151f3f7751a82/inductor_cache/xj/cxjipvsk4xnaivt4rhppkbgyobk6bsnkrayv646prhto2uzbws5l.py":120:28)
#loc118 = loc("/home/ericbuehler/.cache/vllm/torch_compile_cache/torch_aot_compile/90537ea14f244a5187d6ecc853fbadcf440d710f29c8e182fe8151f3f7751a82/inductor_cache/xj/cxjipvsk4xnaivt4rhppkbgyobk6bsnkrayv646prhto2uzbws5l.py":121:36)
#loc119 = loc("/home/ericbuehler/.cache/vllm/torch_compile_cache/torch_aot_compile/90537ea14f244a5187d6ecc853fbadcf440d710f29c8e182fe8151f3f7751a82/inductor_cache/xj/cxjipvsk4xnaivt4rhppkbgyobk6bsnkrayv646prhto2uzbws5l.py":122:28)
#loc120 = loc("/home/ericbuehler/.cache/vllm/torch_compile_cache/torch_aot_compile/90537ea14f244a5187d6ecc853fbadcf440d710f29c8e182fe8151f3f7751a82/inductor_cache/xj/cxjipvsk4xnaivt4rhppkbgyobk6bsnkrayv646prhto2uzbws5l.py":124:45)
#loc121 = loc("/home/ericbuehler/.cache/vllm/torch_compile_cache/torch_aot_compile/90537ea14f244a5187d6ecc853fbadcf440d710f29c8e182fe8151f3f7751a82/inductor_cache/xj/cxjipvsk4xnaivt4rhppkbgyobk6bsnkrayv646prhto2uzbws5l.py":124:41)
#loc122 = loc("/home/ericbuehler/.cache/vllm/torch_compile_cache/torch_aot_compile/90537ea14f244a5187d6ecc853fbadcf440d710f29c8e182fe8151f3f7751a82/inductor_cache/xj/cxjipvsk4xnaivt4rhppkbgyobk6bsnkrayv646prhto2uzbws5l.py":124:33)
#loc123 = loc("/home/ericbuehler/.cache/vllm/torch_compile_cache/torch_aot_compile/90537ea14f244a5187d6ecc853fbadcf440d710f29c8e182fe8151f3f7751a82/inductor_cache/xj/cxjipvsk4xnaivt4rhppkbgyobk6bsnkrayv646prhto2uzbws5l.py":124:58)
#loc124 = loc("/home/ericbuehler/.cache/vllm/torch_compile_cache/torch_aot_compile/90537ea14f244a5187d6ecc853fbadcf440d710f29c8e182fe8151f3f7751a82/inductor_cache/xj/cxjipvsk4xnaivt4rhppkbgyobk6bsnkrayv646prhto2uzbws5l.py":26:4)
#loc132 = loc("pid"(#loc2))
#loc133 = loc("num_xblocks_0"(#loc4))
#loc134 = loc("num_xblocks_1"(#loc6))
#loc135 = loc("num_xblocks_1"(#loc7))
#loc136 = loc("num_xblocks_2"(#loc8))
#loc137 = loc("num_xblocks_2"(#loc9))
#loc138 = loc("xoffset"(#loc12))
#loc139 = loc("xindex"(#loc13))
#loc140 = loc("xindex"(#loc14))
#loc141 = loc("xindex"(#loc15))
#loc142 = loc("xmask"(#loc16))
#loc143 = loc("r0_base"(#loc17))
#loc144 = loc("r0_base"(#loc18))
#loc145 = loc("x0"(#loc19))
#loc146 = loc("x1"(#loc20))
#loc147 = loc("_tmp4"(#loc21))
#loc148 = loc("r0_index"(#loc22))
#loc149 = loc("r0_mask"(#loc23))
#loc150 = loc("tmp0"(#loc24))
#loc151 = loc("tmp0"(#loc25))
#loc152 = loc("tmp0"(#loc26))
#loc153 = loc("tmp0"(#loc27))
#loc154 = loc("tmp0"(#loc28))
#loc155 = loc("tmp0"(#loc29))
#loc156 = loc("tmp0"(#loc30))
#loc157 = loc("tmp0"(#loc31))
#loc158 = loc("tmp2"(#loc32))
#loc159 = loc("tmp5"(#loc33))
#loc160 = loc("_tmp4"(#loc34))
#loc162 = loc("tmp4"(#loc39))
#loc163 = loc("pid_offset"(#loc44))
#loc164 = loc("xoffset"(#loc45))
#loc165 = loc("xindex"(#loc46))
#loc166 = loc("xindex"(#loc47))
#loc167 = loc("xindex"(#loc48))
#loc168 = loc("xmask"(#loc49))
#loc169 = loc("r0_base"(#loc50))
#loc170 = loc("r0_base"(#loc51))
#loc171 = loc("x4"(#loc52))
#loc172 = loc("x5"(#loc53))
#loc173 = loc("_tmp10"(#loc54))
#loc174 = loc("r0_index"(#loc55))
#loc175 = loc("r0_mask"(#loc56))
#loc176 = loc("tmp6"(#loc57))
#loc177 = loc("tmp6"(#loc58))
#loc178 = loc("tmp6"(#loc59))
#loc179 = loc("tmp6"(#loc60))
#loc180 = loc("tmp6"(#loc61))
#loc181 = loc("tmp6"(#loc62))
#loc182 = loc("tmp6"(#loc63))
#loc183 = loc("tmp6"(#loc64))
#loc184 = loc("tmp6"(#loc65))
#loc185 = loc("tmp8"(#loc66))
#loc186 = loc("tmp11"(#loc67))
#loc187 = loc("_tmp10"(#loc68))
#loc189 = loc("tmp10"(#loc71))
#loc190 = loc("pid_offset"(#loc76))
#loc191 = loc("xoffset"(#loc77))
#loc192 = loc("xindex"(#loc78))
#loc193 = loc("xindex"(#loc79))
#loc194 = loc("xindex"(#loc80))
#loc195 = loc("xmask"(#loc81))
#loc196 = loc("r0_base"(#loc82))
#loc197 = loc("r0_base"(#loc83))
#loc198 = loc("x8"(#loc84))
#loc199 = loc("x9"(#loc85))
#loc200 = loc("_tmp16"(#loc86))
#loc201 = loc("r0_index"(#loc87))
#loc202 = loc("r0_mask"(#loc88))
#loc203 = loc("tmp12"(#loc89))
#loc204 = loc("tmp12"(#loc90))
#loc205 = loc("tmp12"(#loc91))
#loc206 = loc("tmp12"(#loc92))
#loc207 = loc("tmp12"(#loc93))
#loc208 = loc("tmp12"(#loc94))
#loc209 = loc("tmp12"(#loc95))
#loc210 = loc("tmp12"(#loc96))
#loc211 = loc("tmp12"(#loc97))
#loc212 = loc("tmp14"(#loc98))
#loc213 = loc("tmp17"(#loc99))
#loc214 = loc("_tmp16"(#loc100))
#loc216 = loc("tmp16"(#loc103))
#loc217 = loc("r0_index"(#loc105))
#loc218 = loc("r0_mask"(#loc106))
#loc219 = loc("tmp18"(#loc107))
#loc220 = loc("tmp18"(#loc108))
#loc221 = loc("tmp18"(#loc109))
#loc222 = loc("tmp18"(#loc110))
#loc223 = loc("tmp18"(#loc111))
#loc224 = loc("tmp18"(#loc112))
#loc225 = loc("tmp18"(#loc113))
#loc226 = loc("tmp18"(#loc114))
#loc227 = loc("tmp18"(#loc115))
#loc228 = loc("tmp21"(#loc116))
#loc229 = loc("tmp23"(#loc117))
#loc230 = loc("tmp24"(#loc118))
#loc231 = loc("tmp25"(#loc119))
#loc232 = loc(callsite(#loc3 at #loc133))
#loc233 = loc(callsite(#loc5 at #loc133))
#loc234 = loc(callsite(#loc3 at #loc134))
#loc235 = loc(callsite(#loc5 at #loc134))
#loc236 = loc(callsite(#loc3 at #loc136))
#loc237 = loc(callsite(#loc5 at #loc136))
#loc238 = loc(callsite(#loc36 at #loc161))
#loc240 = loc(callsite(#loc36 at #loc188))
#loc242 = loc(callsite(#loc36 at #loc215))
#loc244 = loc(callsite(#loc38 at #loc238))
#loc245 = loc(callsite(#loc38 at #loc240))
#loc246 = loc(callsite(#loc38 at #loc242))
