#loc = loc("/home/ericbuehler/.cache/vllm/torch_compile_cache/torch_aot_compile/90537ea14f244a5187d6ecc853fbadcf440d710f29c8e182fe8151f3f7751a82/inductor_cache/7a/c7aoylswf2dcom36xl4wsid6mo7vnzppufi7m7hq7oyc3nvgolaq.py":21:0)
#loc132 = loc("/home/ericbuehler/vllm/.venv-bench/lib/python3.12/site-packages/triton/language/standard.py":34:0)
#loc137 = loc("/home/ericbuehler/vllm/.venv-bench/lib/python3.12/site-packages/triton/language/standard.py":287:0)
#loc139 = loc(unknown)
#loc142 = loc("/home/ericbuehler/vllm/.venv-bench/lib/python3.12/site-packages/triton/language/standard.py":262:0)
#loc146 = loc("in_ptr0"(#loc))
#loc147 = loc("out_ptr0"(#loc))
#loc148 = loc("out_ptr1"(#loc))
#loc149 = loc("out_ptr3"(#loc))
#loc150 = loc("xnumel_0"(#loc))
#loc151 = loc("xnumel_1"(#loc))
#loc152 = loc("xnumel_2"(#loc))
#loc264 = loc("x"(#loc132))
#loc265 = loc("input"(#loc137))
#loc266 = loc("a"(#loc142))
#loc267 = loc("b"(#loc142))
module {
  tt.func public @triton_red_fused_3(%in_ptr0: !tt.ptr<bf16> {tt.divisibility = 16 : i32} loc("in_ptr0"(#loc)), %out_ptr0: !tt.ptr<f32> {tt.divisibility = 16 : i32} loc("out_ptr0"(#loc)), %out_ptr1: !tt.ptr<f32> {tt.divisibility = 16 : i32} loc("out_ptr1"(#loc)), %out_ptr3: !tt.ptr<bf16> {tt.divisibility = 16 : i32} loc("out_ptr3"(#loc)), %xnumel_0: i32 {tt.divisibility = 16 : i32} loc("xnumel_0"(#loc)), %xnumel_1: i32 loc("xnumel_1"(#loc)), %xnumel_2: i32 loc("xnumel_2"(#loc))) attributes {noinline = false} {
    %pid = tt.get_program_id x : i32 loc(#loc153)
    %num_xblocks_0 = tt.call @"triton.language.standard.cdiv__i32__(1,)cconstexpr_64_"(%xnumel_0) : (i32) -> i32 loc(#loc154)
    %num_xblocks_1 = tt.call @"triton.language.standard.cdiv__i32__(1,)cconstexpr_64_"(%xnumel_1) : (i32) -> i32 loc(#loc155)
    %num_xblocks_1_0 = arith.addi %num_xblocks_0, %num_xblocks_1 : i32 loc(#loc156)
    %num_xblocks_2 = tt.call @"triton.language.standard.cdiv__i32__(1,)cconstexpr_64_"(%xnumel_2) : (i32) -> i32 loc(#loc157)
    %num_xblocks_2_1 = arith.addi %num_xblocks_1_0, %num_xblocks_2 : i32 loc(#loc158)
    %0 = arith.cmpi slt, %pid, %num_xblocks_0 : i32 loc(#loc7)
    scf.if %0 {
      %r0_numel = arith.constant 512 : i32 loc(#loc159)
      %xoffset = arith.constant 64 : i32 loc(#loc160)
      %xoffset_2 = arith.constant 64 : i32 loc(#loc160)
      %xoffset_3 = arith.muli %pid, %xoffset_2 : i32 loc(#loc160)
      %xindex = tt.make_range {end = 64 : i32, start = 0 : i32} : tensor<64xi32> loc(#loc161)
      %xindex_4 = tt.expand_dims %xindex {axis = 1 : i32} : tensor<64xi32> -> tensor<64x1xi32> loc(#loc162)
      %xindex_5 = tt.splat %xoffset_3 : i32 -> tensor<64x1xi32> loc(#loc163)
      %xindex_6 = arith.addi %xindex_5, %xindex_4 : tensor<64x1xi32> loc(#loc163)
      %xmask = tt.splat %xnumel_0 : i32 -> tensor<64x1xi32> loc(#loc164)
      %xmask_7 = arith.cmpi slt, %xindex_6, %xmask : tensor<64x1xi32> loc(#loc164)
      %r0_base = tt.make_range {end = 8 : i32, start = 0 : i32} : tensor<8xi32> loc(#loc165)
      %r0_base_8 = tt.expand_dims %r0_base {axis = 0 : i32} : tensor<8xi32> -> tensor<1x8xi32> loc(#loc166)
      %x0 = arith.constant 16 : i32 loc(#loc167)
      %x0_9 = arith.constant 16 : i32 loc(#loc167)
      %x0_10 = arith.constant dense<16> : tensor<64x1xi32> loc(#loc167)
      %x0_11 = arith.remsi %xindex_6, %x0_10 : tensor<64x1xi32> loc(#loc167)
      %x1 = arith.constant 16 : i32 loc(#loc168)
      %x1_12 = arith.constant 16 : i32 loc(#loc168)
      %x1_13 = arith.constant dense<16> : tensor<64x1xi32> loc(#loc168)
      %x1_14 = arith.divsi %xindex_6, %x1_13 : tensor<64x1xi32> loc(#loc168)
      %_tmp4 = arith.constant 0.000000e+00 : f32 loc(#loc169)
      %_tmp4_15 = arith.constant dense<0.000000e+00> : tensor<64x8xf32> loc(#loc169)
      %c0_i32 = arith.constant 0 : i32 loc(#loc20)
      %c8_i32 = arith.constant 8 : i32 loc(#loc20)
      %1 = arith.bitcast %c0_i32 : i32 to i32 loc(#loc20)
      %2 = arith.bitcast %r0_numel : i32 to i32 loc(#loc20)
      %3 = arith.bitcast %c8_i32 : i32 to i32 loc(#loc20)
      %4 = ub.poison : i32 loc(#loc20)
      %_tmp4_16 = scf.for %r0_offset = %1 to %2 step %3 iter_args(%_tmp4_18 = %_tmp4_15) -> (tensor<64x8xf32>)  : i32 {
        %r0_index = tt.splat %r0_offset : i32 -> tensor<1x8xi32> loc(#loc171)
        %r0_index_19 = arith.addi %r0_index, %r0_base_8 : tensor<1x8xi32> loc(#loc171)
        %r0_mask = arith.constant dense<512> : tensor<1x8xi32> loc(#loc172)
        %r0_mask_20 = arith.cmpi slt, %r0_index_19, %r0_mask : tensor<1x8xi32> loc(#loc172)
        %tmp0 = arith.constant 512 : i32 loc(#loc173)
        %tmp0_21 = arith.constant 512 : i32 loc(#loc173)
        %tmp0_22 = arith.constant dense<512> : tensor<64x1xi32> loc(#loc173)
        %tmp0_23 = arith.muli %tmp0_22, %x0_11 : tensor<64x1xi32> loc(#loc173)
        %tmp0_24 = tt.broadcast %r0_index_19 : tensor<1x8xi32> -> tensor<64x8xi32> loc(#loc174)
        %tmp0_25 = tt.broadcast %tmp0_23 : tensor<64x1xi32> -> tensor<64x8xi32> loc(#loc174)
        %tmp0_26 = arith.addi %tmp0_24, %tmp0_25 : tensor<64x8xi32> loc(#loc174)
        %tmp0_27 = arith.constant 10240 : i32 loc(#loc175)
        %tmp0_28 = arith.constant 10240 : i32 loc(#loc175)
        %tmp0_29 = arith.constant dense<10240> : tensor<64x1xi32> loc(#loc175)
        %tmp0_30 = arith.muli %tmp0_29, %x1_14 : tensor<64x1xi32> loc(#loc175)
        %tmp0_31 = tt.broadcast %tmp0_30 : tensor<64x1xi32> -> tensor<64x8xi32> loc(#loc176)
        %tmp0_32 = arith.addi %tmp0_26, %tmp0_31 : tensor<64x8xi32> loc(#loc176)
        %tmp0_33 = tt.splat %in_ptr0 : !tt.ptr<bf16> -> tensor<64x8x!tt.ptr<bf16>> loc(#loc177)
        %tmp0_34 = tt.addptr %tmp0_33, %tmp0_32 : tensor<64x8x!tt.ptr<bf16>>, tensor<64x8xi32> loc(#loc177)
        %tmp0_35 = tt.broadcast %r0_mask_20 : tensor<1x8xi1> -> tensor<64x8xi1> loc(#loc178)
        %tmp0_36 = tt.broadcast %xmask_7 : tensor<64x1xi1> -> tensor<64x8xi1> loc(#loc178)
        %tmp0_37 = arith.andi %tmp0_35, %tmp0_36 : tensor<64x8xi1> loc(#loc178)
        %tmp0_38 = arith.constant 0.000000e+00 : f32 loc(#loc179)
        %tmp0_39 = arith.constant dense<0.000000e+00> : tensor<64x8xf32> loc(#loc179)
        %tmp0_40 = arith.truncf %tmp0_39 : tensor<64x8xf32> to tensor<64x8xbf16> loc(#loc179)
        %tmp0_41 = tt.load %tmp0_34, %tmp0_37, %tmp0_40 evictionPolicy = evict_first : tensor<64x8x!tt.ptr<bf16>> loc(#loc179)
        %tmp0_42 = arith.extf %tmp0_41 : tensor<64x8xbf16> to tensor<64x8xf32> loc(#loc180)
        %tmp2 = arith.mulf %tmp0_42, %tmp0_42 : tensor<64x8xf32> loc(#loc181)
        %tmp5 = arith.addf %_tmp4_18, %tmp2 : tensor<64x8xf32> loc(#loc182)
        %_tmp4_43 = tt.broadcast %r0_mask_20 : tensor<1x8xi1> -> tensor<64x8xi1> loc(#loc183)
        %_tmp4_44 = tt.broadcast %xmask_7 : tensor<64x1xi1> -> tensor<64x8xi1> loc(#loc183)
        %_tmp4_45 = arith.andi %_tmp4_43, %_tmp4_44 : tensor<64x8xi1> loc(#loc183)
        %_tmp4_46 = arith.select %_tmp4_45, %tmp5, %_tmp4_18 : tensor<64x8xi1>, tensor<64x8xf32> loc(#loc184)
        scf.yield %_tmp4_46 : tensor<64x8xf32> loc(#loc35)
      } loc(#loc170)
      %tmp4 = tt.call @"triton.language.standard.sum__fp32S64_8S__(1,)cconstexpr_1__(2,)cconstexpr_False__(3,)cNone"(%_tmp4_16) : (tensor<64x8xf32>) -> tensor<64xf32> loc(#loc185)
      %tmp4_17 = tt.expand_dims %tmp4 {axis = 1 : i32} : tensor<64xf32> -> tensor<64x1xf32> loc(#loc186)
      %5 = tt.splat %out_ptr0 : !tt.ptr<f32> -> tensor<64x1x!tt.ptr<f32>> loc(#loc38)
      %6 = tt.addptr %5, %xindex_6 : tensor<64x1x!tt.ptr<f32>>, tensor<64x1xi32> loc(#loc38)
      tt.store %6, %tmp4_17, %xmask_7 : tensor<64x1x!tt.ptr<f32>> loc(#loc39)
    } else {
      %1 = arith.cmpi slt, %pid, %num_xblocks_1_0 : i32 loc(#loc40)
      scf.if %1 {
        %pid_offset = arith.subi %pid, %num_xblocks_0 : i32 loc(#loc187)
        %r0_numel = arith.constant 512 : i32 loc(#loc188)
        %xoffset = arith.constant 64 : i32 loc(#loc189)
        %xoffset_2 = arith.constant 64 : i32 loc(#loc189)
        %xoffset_3 = arith.muli %pid_offset, %xoffset_2 : i32 loc(#loc189)
        %xindex = tt.make_range {end = 64 : i32, start = 0 : i32} : tensor<64xi32> loc(#loc190)
        %xindex_4 = tt.expand_dims %xindex {axis = 1 : i32} : tensor<64xi32> -> tensor<64x1xi32> loc(#loc191)
        %xindex_5 = tt.splat %xoffset_3 : i32 -> tensor<64x1xi32> loc(#loc192)
        %xindex_6 = arith.addi %xindex_5, %xindex_4 : tensor<64x1xi32> loc(#loc192)
        %xmask = tt.splat %xnumel_1 : i32 -> tensor<64x1xi32> loc(#loc193)
        %xmask_7 = arith.cmpi slt, %xindex_6, %xmask : tensor<64x1xi32> loc(#loc193)
        %r0_base = tt.make_range {end = 8 : i32, start = 0 : i32} : tensor<8xi32> loc(#loc194)
        %r0_base_8 = tt.expand_dims %r0_base {axis = 0 : i32} : tensor<8xi32> -> tensor<1x8xi32> loc(#loc195)
        %x4 = arith.constant 2 : i32 loc(#loc196)
        %x4_9 = arith.constant 2 : i32 loc(#loc196)
        %x4_10 = arith.constant dense<2> : tensor<64x1xi32> loc(#loc196)
        %x4_11 = arith.remsi %xindex_6, %x4_10 : tensor<64x1xi32> loc(#loc196)
        %x5 = arith.constant 2 : i32 loc(#loc197)
        %x5_12 = arith.constant 2 : i32 loc(#loc197)
        %x5_13 = arith.constant dense<2> : tensor<64x1xi32> loc(#loc197)
        %x5_14 = arith.divsi %xindex_6, %x5_13 : tensor<64x1xi32> loc(#loc197)
        %_tmp10 = arith.constant 0.000000e+00 : f32 loc(#loc198)
        %_tmp10_15 = arith.constant dense<0.000000e+00> : tensor<64x8xf32> loc(#loc198)
        %c0_i32 = arith.constant 0 : i32 loc(#loc54)
        %c8_i32 = arith.constant 8 : i32 loc(#loc54)
        %2 = arith.bitcast %c0_i32 : i32 to i32 loc(#loc54)
        %3 = arith.bitcast %r0_numel : i32 to i32 loc(#loc54)
        %4 = arith.bitcast %c8_i32 : i32 to i32 loc(#loc54)
        %5 = ub.poison : i32 loc(#loc54)
        %_tmp10_16 = scf.for %r0_offset = %2 to %3 step %4 iter_args(%_tmp10_18 = %_tmp10_15) -> (tensor<64x8xf32>)  : i32 {
          %r0_index = tt.splat %r0_offset : i32 -> tensor<1x8xi32> loc(#loc200)
          %r0_index_19 = arith.addi %r0_index, %r0_base_8 : tensor<1x8xi32> loc(#loc200)
          %r0_mask = arith.constant dense<512> : tensor<1x8xi32> loc(#loc201)
          %r0_mask_20 = arith.cmpi slt, %r0_index_19, %r0_mask : tensor<1x8xi32> loc(#loc201)
          %tmp6 = arith.constant 8192 : i32 loc(#loc202)
          %tmp6_21 = arith.constant 8192 : i32 loc(#loc202)
          %tmp6_22 = arith.constant dense<8192> : tensor<1x8xi32> loc(#loc202)
          %tmp6_23 = arith.addi %tmp6_22, %r0_index_19 : tensor<1x8xi32> loc(#loc202)
          %tmp6_24 = arith.constant 512 : i32 loc(#loc203)
          %tmp6_25 = arith.constant 512 : i32 loc(#loc203)
          %tmp6_26 = arith.constant dense<512> : tensor<64x1xi32> loc(#loc203)
          %tmp6_27 = arith.muli %tmp6_26, %x4_11 : tensor<64x1xi32> loc(#loc203)
          %tmp6_28 = tt.broadcast %tmp6_23 : tensor<1x8xi32> -> tensor<64x8xi32> loc(#loc204)
          %tmp6_29 = tt.broadcast %tmp6_27 : tensor<64x1xi32> -> tensor<64x8xi32> loc(#loc204)
          %tmp6_30 = arith.addi %tmp6_28, %tmp6_29 : tensor<64x8xi32> loc(#loc204)
          %tmp6_31 = arith.constant 10240 : i32 loc(#loc205)
          %tmp6_32 = arith.constant 10240 : i32 loc(#loc205)
          %tmp6_33 = arith.constant dense<10240> : tensor<64x1xi32> loc(#loc205)
          %tmp6_34 = arith.muli %tmp6_33, %x5_14 : tensor<64x1xi32> loc(#loc205)
          %tmp6_35 = tt.broadcast %tmp6_34 : tensor<64x1xi32> -> tensor<64x8xi32> loc(#loc206)
          %tmp6_36 = arith.addi %tmp6_30, %tmp6_35 : tensor<64x8xi32> loc(#loc206)
          %tmp6_37 = tt.splat %in_ptr0 : !tt.ptr<bf16> -> tensor<64x8x!tt.ptr<bf16>> loc(#loc207)
          %tmp6_38 = tt.addptr %tmp6_37, %tmp6_36 : tensor<64x8x!tt.ptr<bf16>>, tensor<64x8xi32> loc(#loc207)
          %tmp6_39 = tt.broadcast %r0_mask_20 : tensor<1x8xi1> -> tensor<64x8xi1> loc(#loc208)
          %tmp6_40 = tt.broadcast %xmask_7 : tensor<64x1xi1> -> tensor<64x8xi1> loc(#loc208)
          %tmp6_41 = arith.andi %tmp6_39, %tmp6_40 : tensor<64x8xi1> loc(#loc208)
          %tmp6_42 = arith.constant 0.000000e+00 : f32 loc(#loc209)
          %tmp6_43 = arith.constant dense<0.000000e+00> : tensor<64x8xf32> loc(#loc209)
          %tmp6_44 = arith.truncf %tmp6_43 : tensor<64x8xf32> to tensor<64x8xbf16> loc(#loc209)
          %tmp6_45 = tt.load %tmp6_38, %tmp6_41, %tmp6_44 evictionPolicy = evict_first : tensor<64x8x!tt.ptr<bf16>> loc(#loc209)
          %tmp6_46 = arith.extf %tmp6_45 : tensor<64x8xbf16> to tensor<64x8xf32> loc(#loc210)
          %tmp8 = arith.mulf %tmp6_46, %tmp6_46 : tensor<64x8xf32> loc(#loc211)
          %tmp11 = arith.addf %_tmp10_18, %tmp8 : tensor<64x8xf32> loc(#loc212)
          %_tmp10_47 = tt.broadcast %r0_mask_20 : tensor<1x8xi1> -> tensor<64x8xi1> loc(#loc213)
          %_tmp10_48 = tt.broadcast %xmask_7 : tensor<64x1xi1> -> tensor<64x8xi1> loc(#loc213)
          %_tmp10_49 = arith.andi %_tmp10_47, %_tmp10_48 : tensor<64x8xi1> loc(#loc213)
          %_tmp10_50 = arith.select %_tmp10_49, %tmp11, %_tmp10_18 : tensor<64x8xi1>, tensor<64x8xf32> loc(#loc214)
          scf.yield %_tmp10_50 : tensor<64x8xf32> loc(#loc70)
        } loc(#loc199)
        %tmp10 = tt.call @"triton.language.standard.sum__fp32S64_8S__(1,)cconstexpr_1__(2,)cconstexpr_False__(3,)cNone"(%_tmp10_16) : (tensor<64x8xf32>) -> tensor<64xf32> loc(#loc215)
        %tmp10_17 = tt.expand_dims %tmp10 {axis = 1 : i32} : tensor<64xf32> -> tensor<64x1xf32> loc(#loc216)
        %6 = tt.splat %out_ptr1 : !tt.ptr<f32> -> tensor<64x1x!tt.ptr<f32>> loc(#loc73)
        %7 = tt.addptr %6, %xindex_6 : tensor<64x1x!tt.ptr<f32>>, tensor<64x1xi32> loc(#loc73)
        tt.store %7, %tmp10_17, %xmask_7 : tensor<64x1x!tt.ptr<f32>> loc(#loc74)
      } else {
        %2 = arith.cmpi slt, %pid, %num_xblocks_2_1 : i32 loc(#loc75)
        scf.if %2 {
          %pid_offset = arith.subi %pid, %num_xblocks_1_0 : i32 loc(#loc217)
          %r0_numel = arith.constant 512 : i32 loc(#loc218)
          %xoffset = arith.constant 64 : i32 loc(#loc219)
          %xoffset_2 = arith.constant 64 : i32 loc(#loc219)
          %xoffset_3 = arith.muli %pid_offset, %xoffset_2 : i32 loc(#loc219)
          %xindex = tt.make_range {end = 64 : i32, start = 0 : i32} : tensor<64xi32> loc(#loc220)
          %xindex_4 = tt.expand_dims %xindex {axis = 1 : i32} : tensor<64xi32> -> tensor<64x1xi32> loc(#loc221)
          %xindex_5 = tt.splat %xoffset_3 : i32 -> tensor<64x1xi32> loc(#loc222)
          %xindex_6 = arith.addi %xindex_5, %xindex_4 : tensor<64x1xi32> loc(#loc222)
          %xmask = tt.splat %xnumel_2 : i32 -> tensor<64x1xi32> loc(#loc223)
          %xmask_7 = arith.cmpi slt, %xindex_6, %xmask : tensor<64x1xi32> loc(#loc223)
          %r0_base = tt.make_range {end = 8 : i32, start = 0 : i32} : tensor<8xi32> loc(#loc224)
          %r0_base_8 = tt.expand_dims %r0_base {axis = 0 : i32} : tensor<8xi32> -> tensor<1x8xi32> loc(#loc225)
          %x8 = arith.constant 2 : i32 loc(#loc226)
          %x8_9 = arith.constant 2 : i32 loc(#loc226)
          %x8_10 = arith.constant dense<2> : tensor<64x1xi32> loc(#loc226)
          %x8_11 = arith.remsi %xindex_6, %x8_10 : tensor<64x1xi32> loc(#loc226)
          %x9 = arith.constant 2 : i32 loc(#loc227)
          %x9_12 = arith.constant 2 : i32 loc(#loc227)
          %x9_13 = arith.constant dense<2> : tensor<64x1xi32> loc(#loc227)
          %x9_14 = arith.divsi %xindex_6, %x9_13 : tensor<64x1xi32> loc(#loc227)
          %_tmp16 = arith.constant 0.000000e+00 : f32 loc(#loc228)
          %_tmp16_15 = arith.constant dense<0.000000e+00> : tensor<64x8xf32> loc(#loc228)
          %c0_i32 = arith.constant 0 : i32 loc(#loc89)
          %c8_i32 = arith.constant 8 : i32 loc(#loc89)
          %3 = arith.bitcast %c0_i32 : i32 to i32 loc(#loc89)
          %4 = arith.bitcast %r0_numel : i32 to i32 loc(#loc89)
          %5 = arith.bitcast %c8_i32 : i32 to i32 loc(#loc89)
          %6 = ub.poison : i32 loc(#loc89)
          %_tmp16_16 = scf.for %r0_offset = %3 to %4 step %5 iter_args(%_tmp16_20 = %_tmp16_15) -> (tensor<64x8xf32>)  : i32 {
            %r0_index = tt.splat %r0_offset : i32 -> tensor<1x8xi32> loc(#loc230)
            %r0_index_21 = arith.addi %r0_index, %r0_base_8 : tensor<1x8xi32> loc(#loc230)
            %r0_mask = arith.constant dense<512> : tensor<1x8xi32> loc(#loc231)
            %r0_mask_22 = arith.cmpi slt, %r0_index_21, %r0_mask : tensor<1x8xi32> loc(#loc231)
            %tmp12 = arith.constant 9216 : i32 loc(#loc232)
            %tmp12_23 = arith.constant 9216 : i32 loc(#loc232)
            %tmp12_24 = arith.constant dense<9216> : tensor<1x8xi32> loc(#loc232)
            %tmp12_25 = arith.addi %tmp12_24, %r0_index_21 : tensor<1x8xi32> loc(#loc232)
            %tmp12_26 = arith.constant 512 : i32 loc(#loc233)
            %tmp12_27 = arith.constant 512 : i32 loc(#loc233)
            %tmp12_28 = arith.constant dense<512> : tensor<64x1xi32> loc(#loc233)
            %tmp12_29 = arith.muli %tmp12_28, %x8_11 : tensor<64x1xi32> loc(#loc233)
            %tmp12_30 = tt.broadcast %tmp12_25 : tensor<1x8xi32> -> tensor<64x8xi32> loc(#loc234)
            %tmp12_31 = tt.broadcast %tmp12_29 : tensor<64x1xi32> -> tensor<64x8xi32> loc(#loc234)
            %tmp12_32 = arith.addi %tmp12_30, %tmp12_31 : tensor<64x8xi32> loc(#loc234)
            %tmp12_33 = arith.constant 10240 : i32 loc(#loc235)
            %tmp12_34 = arith.constant 10240 : i32 loc(#loc235)
            %tmp12_35 = arith.constant dense<10240> : tensor<64x1xi32> loc(#loc235)
            %tmp12_36 = arith.muli %tmp12_35, %x9_14 : tensor<64x1xi32> loc(#loc235)
            %tmp12_37 = tt.broadcast %tmp12_36 : tensor<64x1xi32> -> tensor<64x8xi32> loc(#loc236)
            %tmp12_38 = arith.addi %tmp12_32, %tmp12_37 : tensor<64x8xi32> loc(#loc236)
            %tmp12_39 = tt.splat %in_ptr0 : !tt.ptr<bf16> -> tensor<64x8x!tt.ptr<bf16>> loc(#loc237)
            %tmp12_40 = tt.addptr %tmp12_39, %tmp12_38 : tensor<64x8x!tt.ptr<bf16>>, tensor<64x8xi32> loc(#loc237)
            %tmp12_41 = tt.broadcast %r0_mask_22 : tensor<1x8xi1> -> tensor<64x8xi1> loc(#loc238)
            %tmp12_42 = tt.broadcast %xmask_7 : tensor<64x1xi1> -> tensor<64x8xi1> loc(#loc238)
            %tmp12_43 = arith.andi %tmp12_41, %tmp12_42 : tensor<64x8xi1> loc(#loc238)
            %tmp12_44 = arith.constant 0.000000e+00 : f32 loc(#loc239)
            %tmp12_45 = arith.constant dense<0.000000e+00> : tensor<64x8xf32> loc(#loc239)
            %tmp12_46 = arith.truncf %tmp12_45 : tensor<64x8xf32> to tensor<64x8xbf16> loc(#loc239)
            %tmp12_47 = tt.load %tmp12_40, %tmp12_43, %tmp12_46 evictionPolicy = evict_last : tensor<64x8x!tt.ptr<bf16>> loc(#loc239)
            %tmp12_48 = arith.extf %tmp12_47 : tensor<64x8xbf16> to tensor<64x8xf32> loc(#loc240)
            %tmp14 = arith.mulf %tmp12_48, %tmp12_48 : tensor<64x8xf32> loc(#loc241)
            %tmp17 = arith.addf %_tmp16_20, %tmp14 : tensor<64x8xf32> loc(#loc242)
            %_tmp16_49 = tt.broadcast %r0_mask_22 : tensor<1x8xi1> -> tensor<64x8xi1> loc(#loc243)
            %_tmp16_50 = tt.broadcast %xmask_7 : tensor<64x1xi1> -> tensor<64x8xi1> loc(#loc243)
            %_tmp16_51 = arith.andi %_tmp16_49, %_tmp16_50 : tensor<64x8xi1> loc(#loc243)
            %_tmp16_52 = arith.select %_tmp16_51, %tmp17, %_tmp16_20 : tensor<64x8xi1>, tensor<64x8xf32> loc(#loc244)
            scf.yield %_tmp16_52 : tensor<64x8xf32> loc(#loc105)
          } loc(#loc229)
          %tmp16 = tt.call @"triton.language.standard.sum__fp32S64_8S__(1,)cconstexpr_1__(2,)cconstexpr_False__(3,)cNone"(%_tmp16_16) : (tensor<64x8xf32>) -> tensor<64xf32> loc(#loc245)
          %tmp16_17 = tt.expand_dims %tmp16 {axis = 1 : i32} : tensor<64xf32> -> tensor<64x1xf32> loc(#loc246)
          %c0_i32_18 = arith.constant 0 : i32 loc(#loc108)
          %c8_i32_19 = arith.constant 8 : i32 loc(#loc108)
          %7 = arith.bitcast %c0_i32_18 : i32 to i32 loc(#loc108)
          %8 = arith.bitcast %r0_numel : i32 to i32 loc(#loc108)
          %9 = arith.bitcast %c8_i32_19 : i32 to i32 loc(#loc108)
          %10 = ub.poison : i32 loc(#loc108)
          scf.for %r0_offset = %7 to %8 step %9  : i32 {
            %r0_index = tt.splat %r0_offset : i32 -> tensor<1x8xi32> loc(#loc247)
            %r0_index_20 = arith.addi %r0_index, %r0_base_8 : tensor<1x8xi32> loc(#loc247)
            %r0_mask = arith.constant dense<512> : tensor<1x8xi32> loc(#loc248)
            %r0_mask_21 = arith.cmpi slt, %r0_index_20, %r0_mask : tensor<1x8xi32> loc(#loc248)
            %tmp18 = arith.constant 9216 : i32 loc(#loc249)
            %tmp18_22 = arith.constant 9216 : i32 loc(#loc249)
            %tmp18_23 = arith.constant dense<9216> : tensor<1x8xi32> loc(#loc249)
            %tmp18_24 = arith.addi %tmp18_23, %r0_index_20 : tensor<1x8xi32> loc(#loc249)
            %tmp18_25 = arith.constant 512 : i32 loc(#loc250)
            %tmp18_26 = arith.constant 512 : i32 loc(#loc250)
            %tmp18_27 = arith.constant dense<512> : tensor<64x1xi32> loc(#loc250)
            %tmp18_28 = arith.muli %tmp18_27, %x8_11 : tensor<64x1xi32> loc(#loc250)
            %tmp18_29 = tt.broadcast %tmp18_24 : tensor<1x8xi32> -> tensor<64x8xi32> loc(#loc251)
            %tmp18_30 = tt.broadcast %tmp18_28 : tensor<64x1xi32> -> tensor<64x8xi32> loc(#loc251)
            %tmp18_31 = arith.addi %tmp18_29, %tmp18_30 : tensor<64x8xi32> loc(#loc251)
            %tmp18_32 = arith.constant 10240 : i32 loc(#loc252)
            %tmp18_33 = arith.constant 10240 : i32 loc(#loc252)
            %tmp18_34 = arith.constant dense<10240> : tensor<64x1xi32> loc(#loc252)
            %tmp18_35 = arith.muli %tmp18_34, %x9_14 : tensor<64x1xi32> loc(#loc252)
            %tmp18_36 = tt.broadcast %tmp18_35 : tensor<64x1xi32> -> tensor<64x8xi32> loc(#loc253)
            %tmp18_37 = arith.addi %tmp18_31, %tmp18_36 : tensor<64x8xi32> loc(#loc253)
            %tmp18_38 = tt.splat %in_ptr0 : !tt.ptr<bf16> -> tensor<64x8x!tt.ptr<bf16>> loc(#loc254)
            %tmp18_39 = tt.addptr %tmp18_38, %tmp18_37 : tensor<64x8x!tt.ptr<bf16>>, tensor<64x8xi32> loc(#loc254)
            %tmp18_40 = tt.broadcast %r0_mask_21 : tensor<1x8xi1> -> tensor<64x8xi1> loc(#loc255)
            %tmp18_41 = tt.broadcast %xmask_7 : tensor<64x1xi1> -> tensor<64x8xi1> loc(#loc255)
            %tmp18_42 = arith.andi %tmp18_40, %tmp18_41 : tensor<64x8xi1> loc(#loc255)
            %tmp18_43 = arith.constant 0.000000e+00 : f32 loc(#loc256)
            %tmp18_44 = arith.constant dense<0.000000e+00> : tensor<64x8xf32> loc(#loc256)
            %tmp18_45 = arith.truncf %tmp18_44 : tensor<64x8xf32> to tensor<64x8xbf16> loc(#loc256)
            %tmp18_46 = tt.load %tmp18_39, %tmp18_42, %tmp18_45 evictionPolicy = evict_first : tensor<64x8x!tt.ptr<bf16>> loc(#loc256)
            %tmp18_47 = arith.extf %tmp18_46 : tensor<64x8xbf16> to tensor<64x8xf32> loc(#loc257)
            %tmp20 = arith.constant 5.120000e+02 : f32 loc(#loc258)
            %tmp20_48 = arith.constant dense<5.120000e+02> : tensor<1x1xf32> loc(#loc258)
            %tmp21 = arith.constant dense<5.120000e+02> : tensor<64x1xf32> loc(#loc259)
            %tmp21_49 = arith.divf %tmp16_17, %tmp21 : tensor<64x1xf32> loc(#loc259)
            %tmp22 = arith.constant 9.99999997E-7 : f32 loc(#loc260)
            %tmp22_50 = arith.constant dense<9.99999997E-7> : tensor<1x1xf32> loc(#loc260)
            %tmp23 = arith.constant dense<9.99999997E-7> : tensor<64x1xf32> loc(#loc261)
            %tmp23_51 = arith.addf %tmp21_49, %tmp23 : tensor<64x1xf32> loc(#loc261)
            %tmp24 = tt.extern_elementwise %tmp23_51 {libname = "", libpath = "", pure = true, symbol = "__nv_rsqrtf"} : (tensor<64x1xf32>) -> tensor<64x1xf32> loc(#loc262)
            %tmp25 = tt.broadcast %tmp24 : tensor<64x1xf32> -> tensor<64x8xf32> loc(#loc263)
            %tmp25_52 = arith.mulf %tmp18_47, %tmp25 : tensor<64x8xf32> loc(#loc263)
            %c512_i32 = arith.constant 512 : i32 loc(#loc126)
            %c512_i32_53 = arith.constant 512 : i32 loc(#loc126)
            %cst = arith.constant dense<512> : tensor<64x1xi32> loc(#loc126)
            %11 = arith.muli %cst, %xindex_6 : tensor<64x1xi32> loc(#loc126)
            %12 = tt.broadcast %r0_index_20 : tensor<1x8xi32> -> tensor<64x8xi32> loc(#loc127)
            %13 = tt.broadcast %11 : tensor<64x1xi32> -> tensor<64x8xi32> loc(#loc127)
            %14 = arith.addi %12, %13 : tensor<64x8xi32> loc(#loc127)
            %15 = tt.splat %out_ptr3 : !tt.ptr<bf16> -> tensor<64x8x!tt.ptr<bf16>> loc(#loc128)
            %16 = tt.addptr %15, %14 : tensor<64x8x!tt.ptr<bf16>>, tensor<64x8xi32> loc(#loc128)
            %17 = tt.broadcast %r0_mask_21 : tensor<1x8xi1> -> tensor<64x8xi1> loc(#loc129)
            %18 = tt.broadcast %xmask_7 : tensor<64x1xi1> -> tensor<64x8xi1> loc(#loc129)
            %19 = arith.andi %17, %18 : tensor<64x8xi1> loc(#loc129)
            %20 = arith.truncf %tmp25_52 : tensor<64x8xf32> to tensor<64x8xbf16> loc(#loc130)
            tt.store %16, %20, %19 : tensor<64x8x!tt.ptr<bf16>> loc(#loc130)
          } loc(#loc108)
        } else {
        } loc(#loc76)
      } loc(#loc41)
    } loc(#loc8)
    tt.return loc(#loc131)
  } loc(#loc)
  tt.func private @"triton.language.standard.cdiv__i32__(1,)cconstexpr_64_"(%x: i32 loc("x"(#loc132))) -> i32 attributes {noinline = false} {
    %c63_i32 = arith.constant 63 : i32 loc(#loc133)
    %c63_i32_0 = arith.constant 63 : i32 loc(#loc133)
    %0 = arith.addi %x, %c63_i32_0 : i32 loc(#loc133)
    %c64_i32 = arith.constant 64 : i32 loc(#loc134)
    %c64_i32_1 = arith.constant 64 : i32 loc(#loc134)
    %1 = arith.divsi %0, %c64_i32_1 : i32 loc(#loc134)
    tt.return %1 : i32 loc(#loc135)
  ^bb1:  // no predecessors
    %2 = ub.poison : i32 loc(#loc136)
    tt.return %2 : i32 loc(#loc136)
  } loc(#loc132)
  tt.func private @"triton.language.standard.sum__fp32S64_8S__(1,)cconstexpr_1__(2,)cconstexpr_False__(3,)cNone"(%input: tensor<64x8xf32> loc("input"(#loc137))) -> tensor<64xf32> attributes {noinline = false} {
    %0 = "tt.reduce"(%input) <{axis = 1 : i32}> ({
    ^bb0(%arg1: f32 loc(unknown), %arg2: f32 loc(unknown)):
      %2 = tt.call @triton.language.standard._sum_combine__fp32_fp32__(%arg1, %arg2) : (f32, f32) -> f32 loc(#loc138)
      tt.reduce.return %2 : f32 loc(#loc138)
    }) : (tensor<64x8xf32>) -> tensor<64xf32> loc(#loc138)
    tt.return %0 : tensor<64xf32> loc(#loc140)
  ^bb1:  // no predecessors
    %1 = ub.poison : tensor<64xf32> loc(#loc141)
    tt.return %1 : tensor<64xf32> loc(#loc141)
  } loc(#loc137)
  tt.func private @triton.language.standard._sum_combine__fp32_fp32__(%a: f32 loc("a"(#loc142)), %b: f32 loc("b"(#loc142))) -> f32 attributes {noinline = false} {
    %0 = arith.addf %a, %b : f32 loc(#loc143)
    tt.return %0 : f32 loc(#loc144)
  ^bb1:  // no predecessors
    %1 = ub.poison : f32 loc(#loc145)
    tt.return %1 : f32 loc(#loc145)
  } loc(#loc142)
} loc(#loc)
#loc1 = loc("/home/ericbuehler/.cache/vllm/torch_compile_cache/torch_aot_compile/90537ea14f244a5187d6ecc853fbadcf440d710f29c8e182fe8151f3f7751a82/inductor_cache/7a/c7aoylswf2dcom36xl4wsid6mo7vnzppufi7m7hq7oyc3nvgolaq.py":22:24)
#loc2 = loc("/home/ericbuehler/.cache/vllm/torch_compile_cache/torch_aot_compile/90537ea14f244a5187d6ecc853fbadcf440d710f29c8e182fe8151f3f7751a82/inductor_cache/7a/c7aoylswf2dcom36xl4wsid6mo7vnzppufi7m7hq7oyc3nvgolaq.py":23:38)
#loc3 = loc("/home/ericbuehler/.cache/vllm/torch_compile_cache/torch_aot_compile/90537ea14f244a5187d6ecc853fbadcf440d710f29c8e182fe8151f3f7751a82/inductor_cache/7a/c7aoylswf2dcom36xl4wsid6mo7vnzppufi7m7hq7oyc3nvgolaq.py":24:54)
#loc4 = loc("/home/ericbuehler/.cache/vllm/torch_compile_cache/torch_aot_compile/90537ea14f244a5187d6ecc853fbadcf440d710f29c8e182fe8151f3f7751a82/inductor_cache/7a/c7aoylswf2dcom36xl4wsid6mo7vnzppufi7m7hq7oyc3nvgolaq.py":24:36)
#loc5 = loc("/home/ericbuehler/.cache/vllm/torch_compile_cache/torch_aot_compile/90537ea14f244a5187d6ecc853fbadcf440d710f29c8e182fe8151f3f7751a82/inductor_cache/7a/c7aoylswf2dcom36xl4wsid6mo7vnzppufi7m7hq7oyc3nvgolaq.py":25:54)
#loc6 = loc("/home/ericbuehler/.cache/vllm/torch_compile_cache/torch_aot_compile/90537ea14f244a5187d6ecc853fbadcf440d710f29c8e182fe8151f3f7751a82/inductor_cache/7a/c7aoylswf2dcom36xl4wsid6mo7vnzppufi7m7hq7oyc3nvgolaq.py":25:36)
#loc7 = loc("/home/ericbuehler/.cache/vllm/torch_compile_cache/torch_aot_compile/90537ea14f244a5187d6ecc853fbadcf440d710f29c8e182fe8151f3f7751a82/inductor_cache/7a/c7aoylswf2dcom36xl4wsid6mo7vnzppufi7m7hq7oyc3nvgolaq.py":26:13)
#loc8 = loc("/home/ericbuehler/.cache/vllm/torch_compile_cache/torch_aot_compile/90537ea14f244a5187d6ecc853fbadcf440d710f29c8e182fe8151f3f7751a82/inductor_cache/7a/c7aoylswf2dcom36xl4wsid6mo7vnzppufi7m7hq7oyc3nvgolaq.py":26:7)
#loc9 = loc("/home/ericbuehler/.cache/vllm/torch_compile_cache/torch_aot_compile/90537ea14f244a5187d6ecc853fbadcf440d710f29c8e182fe8151f3f7751a82/inductor_cache/7a/c7aoylswf2dcom36xl4wsid6mo7vnzppufi7m7hq7oyc3nvgolaq.py":28:19)
#loc10 = loc("/home/ericbuehler/.cache/vllm/torch_compile_cache/torch_aot_compile/90537ea14f244a5187d6ecc853fbadcf440d710f29c8e182fe8151f3f7751a82/inductor_cache/7a/c7aoylswf2dcom36xl4wsid6mo7vnzppufi7m7hq7oyc3nvgolaq.py":31:31)
#loc11 = loc("/home/ericbuehler/.cache/vllm/torch_compile_cache/torch_aot_compile/90537ea14f244a5187d6ecc853fbadcf440d710f29c8e182fe8151f3f7751a82/inductor_cache/7a/c7aoylswf2dcom36xl4wsid6mo7vnzppufi7m7hq7oyc3nvgolaq.py":32:40)
#loc12 = loc("/home/ericbuehler/.cache/vllm/torch_compile_cache/torch_aot_compile/90537ea14f244a5187d6ecc853fbadcf440d710f29c8e182fe8151f3f7751a82/inductor_cache/7a/c7aoylswf2dcom36xl4wsid6mo7vnzppufi7m7hq7oyc3nvgolaq.py":32:48)
#loc13 = loc("/home/ericbuehler/.cache/vllm/torch_compile_cache/torch_aot_compile/90537ea14f244a5187d6ecc853fbadcf440d710f29c8e182fe8151f3f7751a82/inductor_cache/7a/c7aoylswf2dcom36xl4wsid6mo7vnzppufi7m7hq7oyc3nvgolaq.py":32:27)
#loc14 = loc("/home/ericbuehler/.cache/vllm/torch_compile_cache/torch_aot_compile/90537ea14f244a5187d6ecc853fbadcf440d710f29c8e182fe8151f3f7751a82/inductor_cache/7a/c7aoylswf2dcom36xl4wsid6mo7vnzppufi7m7hq7oyc3nvgolaq.py":33:25)
#loc15 = loc("/home/ericbuehler/.cache/vllm/torch_compile_cache/torch_aot_compile/90537ea14f244a5187d6ecc853fbadcf440d710f29c8e182fe8151f3f7751a82/inductor_cache/7a/c7aoylswf2dcom36xl4wsid6mo7vnzppufi7m7hq7oyc3nvgolaq.py":34:31)
#loc16 = loc("/home/ericbuehler/.cache/vllm/torch_compile_cache/torch_aot_compile/90537ea14f244a5187d6ecc853fbadcf440d710f29c8e182fe8151f3f7751a82/inductor_cache/7a/c7aoylswf2dcom36xl4wsid6mo7vnzppufi7m7hq7oyc3nvgolaq.py":34:41)
#loc17 = loc("/home/ericbuehler/.cache/vllm/torch_compile_cache/torch_aot_compile/90537ea14f244a5187d6ecc853fbadcf440d710f29c8e182fe8151f3f7751a82/inductor_cache/7a/c7aoylswf2dcom36xl4wsid6mo7vnzppufi7m7hq7oyc3nvgolaq.py":36:23)
#loc18 = loc("/home/ericbuehler/.cache/vllm/torch_compile_cache/torch_aot_compile/90537ea14f244a5187d6ecc853fbadcf440d710f29c8e182fe8151f3f7751a82/inductor_cache/7a/c7aoylswf2dcom36xl4wsid6mo7vnzppufi7m7hq7oyc3nvgolaq.py":37:23)
#loc19 = loc("/home/ericbuehler/.cache/vllm/torch_compile_cache/torch_aot_compile/90537ea14f244a5187d6ecc853fbadcf440d710f29c8e182fe8151f3f7751a82/inductor_cache/7a/c7aoylswf2dcom36xl4wsid6mo7vnzppufi7m7hq7oyc3nvgolaq.py":38:47)
#loc20 = loc("/home/ericbuehler/.cache/vllm/torch_compile_cache/torch_aot_compile/90537ea14f244a5187d6ecc853fbadcf440d710f29c8e182fe8151f3f7751a82/inductor_cache/7a/c7aoylswf2dcom36xl4wsid6mo7vnzppufi7m7hq7oyc3nvgolaq.py":40:47)
#loc21 = loc("/home/ericbuehler/.cache/vllm/torch_compile_cache/torch_aot_compile/90537ea14f244a5187d6ecc853fbadcf440d710f29c8e182fe8151f3f7751a82/inductor_cache/7a/c7aoylswf2dcom36xl4wsid6mo7vnzppufi7m7hq7oyc3nvgolaq.py":41:35)
#loc22 = loc("/home/ericbuehler/.cache/vllm/torch_compile_cache/torch_aot_compile/90537ea14f244a5187d6ecc853fbadcf440d710f29c8e182fe8151f3f7751a82/inductor_cache/7a/c7aoylswf2dcom36xl4wsid6mo7vnzppufi7m7hq7oyc3nvgolaq.py":42:33)
#loc23 = loc("/home/ericbuehler/.cache/vllm/torch_compile_cache/torch_aot_compile/90537ea14f244a5187d6ecc853fbadcf440d710f29c8e182fe8151f3f7751a82/inductor_cache/7a/c7aoylswf2dcom36xl4wsid6mo7vnzppufi7m7hq7oyc3nvgolaq.py":46:49)
#loc24 = loc("/home/ericbuehler/.cache/vllm/torch_compile_cache/torch_aot_compile/90537ea14f244a5187d6ecc853fbadcf440d710f29c8e182fe8151f3f7751a82/inductor_cache/7a/c7aoylswf2dcom36xl4wsid6mo7vnzppufi7m7hq7oyc3nvgolaq.py":46:45)
#loc25 = loc("/home/ericbuehler/.cache/vllm/torch_compile_cache/torch_aot_compile/90537ea14f244a5187d6ecc853fbadcf440d710f29c8e182fe8151f3f7751a82/inductor_cache/7a/c7aoylswf2dcom36xl4wsid6mo7vnzppufi7m7hq7oyc3nvgolaq.py":46:60)
#loc26 = loc("/home/ericbuehler/.cache/vllm/torch_compile_cache/torch_aot_compile/90537ea14f244a5187d6ecc853fbadcf440d710f29c8e182fe8151f3f7751a82/inductor_cache/7a/c7aoylswf2dcom36xl4wsid6mo7vnzppufi7m7hq7oyc3nvgolaq.py":46:54)
#loc27 = loc("/home/ericbuehler/.cache/vllm/torch_compile_cache/torch_aot_compile/90537ea14f244a5187d6ecc853fbadcf440d710f29c8e182fe8151f3f7751a82/inductor_cache/7a/c7aoylswf2dcom36xl4wsid6mo7vnzppufi7m7hq7oyc3nvgolaq.py":46:38)
#loc28 = loc("/home/ericbuehler/.cache/vllm/torch_compile_cache/torch_aot_compile/90537ea14f244a5187d6ecc853fbadcf440d710f29c8e182fe8151f3f7751a82/inductor_cache/7a/c7aoylswf2dcom36xl4wsid6mo7vnzppufi7m7hq7oyc3nvgolaq.py":46:75)
#loc29 = loc("/home/ericbuehler/.cache/vllm/torch_compile_cache/torch_aot_compile/90537ea14f244a5187d6ecc853fbadcf440d710f29c8e182fe8151f3f7751a82/inductor_cache/7a/c7aoylswf2dcom36xl4wsid6mo7vnzppufi7m7hq7oyc3nvgolaq.py":46:65)
#loc30 = loc("/home/ericbuehler/.cache/vllm/torch_compile_cache/torch_aot_compile/90537ea14f244a5187d6ecc853fbadcf440d710f29c8e182fe8151f3f7751a82/inductor_cache/7a/c7aoylswf2dcom36xl4wsid6mo7vnzppufi7m7hq7oyc3nvgolaq.py":46:127)
#loc31 = loc("/home/ericbuehler/.cache/vllm/torch_compile_cache/torch_aot_compile/90537ea14f244a5187d6ecc853fbadcf440d710f29c8e182fe8151f3f7751a82/inductor_cache/7a/c7aoylswf2dcom36xl4wsid6mo7vnzppufi7m7hq7oyc3nvgolaq.py":48:26)
#loc32 = loc("/home/ericbuehler/.cache/vllm/torch_compile_cache/torch_aot_compile/90537ea14f244a5187d6ecc853fbadcf440d710f29c8e182fe8151f3f7751a82/inductor_cache/7a/c7aoylswf2dcom36xl4wsid6mo7vnzppufi7m7hq7oyc3nvgolaq.py":50:27)
#loc33 = loc("/home/ericbuehler/.cache/vllm/torch_compile_cache/torch_aot_compile/90537ea14f244a5187d6ecc853fbadcf440d710f29c8e182fe8151f3f7751a82/inductor_cache/7a/c7aoylswf2dcom36xl4wsid6mo7vnzppufi7m7hq7oyc3nvgolaq.py":51:39)
#loc34 = loc("/home/ericbuehler/.cache/vllm/torch_compile_cache/torch_aot_compile/90537ea14f244a5187d6ecc853fbadcf440d710f29c8e182fe8151f3f7751a82/inductor_cache/7a/c7aoylswf2dcom36xl4wsid6mo7vnzppufi7m7hq7oyc3nvgolaq.py":51:52)
#loc35 = loc("/home/ericbuehler/.cache/vllm/torch_compile_cache/torch_aot_compile/90537ea14f244a5187d6ecc853fbadcf440d710f29c8e182fe8151f3f7751a82/inductor_cache/7a/c7aoylswf2dcom36xl4wsid6mo7vnzppufi7m7hq7oyc3nvgolaq.py":51:12)
#loc36 = loc("/home/ericbuehler/.cache/vllm/torch_compile_cache/torch_aot_compile/90537ea14f244a5187d6ecc853fbadcf440d710f29c8e182fe8151f3f7751a82/inductor_cache/7a/c7aoylswf2dcom36xl4wsid6mo7vnzppufi7m7hq7oyc3nvgolaq.py":52:29)
#loc37 = loc("/home/ericbuehler/.cache/vllm/torch_compile_cache/torch_aot_compile/90537ea14f244a5187d6ecc853fbadcf440d710f29c8e182fe8151f3f7751a82/inductor_cache/7a/c7aoylswf2dcom36xl4wsid6mo7vnzppufi7m7hq7oyc3nvgolaq.py":52:32)
#loc38 = loc("/home/ericbuehler/.cache/vllm/torch_compile_cache/torch_aot_compile/90537ea14f244a5187d6ecc853fbadcf440d710f29c8e182fe8151f3f7751a82/inductor_cache/7a/c7aoylswf2dcom36xl4wsid6mo7vnzppufi7m7hq7oyc3nvgolaq.py":53:29)
#loc39 = loc("/home/ericbuehler/.cache/vllm/torch_compile_cache/torch_aot_compile/90537ea14f244a5187d6ecc853fbadcf440d710f29c8e182fe8151f3f7751a82/inductor_cache/7a/c7aoylswf2dcom36xl4wsid6mo7vnzppufi7m7hq7oyc3nvgolaq.py":53:40)
#loc40 = loc("/home/ericbuehler/.cache/vllm/torch_compile_cache/torch_aot_compile/90537ea14f244a5187d6ecc853fbadcf440d710f29c8e182fe8151f3f7751a82/inductor_cache/7a/c7aoylswf2dcom36xl4wsid6mo7vnzppufi7m7hq7oyc3nvgolaq.py":54:15)
#loc41 = loc("/home/ericbuehler/.cache/vllm/torch_compile_cache/torch_aot_compile/90537ea14f244a5187d6ecc853fbadcf440d710f29c8e182fe8151f3f7751a82/inductor_cache/7a/c7aoylswf2dcom36xl4wsid6mo7vnzppufi7m7hq7oyc3nvgolaq.py":54:9)
#loc42 = loc("/home/ericbuehler/.cache/vllm/torch_compile_cache/torch_aot_compile/90537ea14f244a5187d6ecc853fbadcf440d710f29c8e182fe8151f3f7751a82/inductor_cache/7a/c7aoylswf2dcom36xl4wsid6mo7vnzppufi7m7hq7oyc3nvgolaq.py":55:27)
#loc43 = loc("/home/ericbuehler/.cache/vllm/torch_compile_cache/torch_aot_compile/90537ea14f244a5187d6ecc853fbadcf440d710f29c8e182fe8151f3f7751a82/inductor_cache/7a/c7aoylswf2dcom36xl4wsid6mo7vnzppufi7m7hq7oyc3nvgolaq.py":56:19)
#loc44 = loc("/home/ericbuehler/.cache/vllm/torch_compile_cache/torch_aot_compile/90537ea14f244a5187d6ecc853fbadcf440d710f29c8e182fe8151f3f7751a82/inductor_cache/7a/c7aoylswf2dcom36xl4wsid6mo7vnzppufi7m7hq7oyc3nvgolaq.py":59:31)
#loc45 = loc("/home/ericbuehler/.cache/vllm/torch_compile_cache/torch_aot_compile/90537ea14f244a5187d6ecc853fbadcf440d710f29c8e182fe8151f3f7751a82/inductor_cache/7a/c7aoylswf2dcom36xl4wsid6mo7vnzppufi7m7hq7oyc3nvgolaq.py":60:40)
#loc46 = loc("/home/ericbuehler/.cache/vllm/torch_compile_cache/torch_aot_compile/90537ea14f244a5187d6ecc853fbadcf440d710f29c8e182fe8151f3f7751a82/inductor_cache/7a/c7aoylswf2dcom36xl4wsid6mo7vnzppufi7m7hq7oyc3nvgolaq.py":60:48)
#loc47 = loc("/home/ericbuehler/.cache/vllm/torch_compile_cache/torch_aot_compile/90537ea14f244a5187d6ecc853fbadcf440d710f29c8e182fe8151f3f7751a82/inductor_cache/7a/c7aoylswf2dcom36xl4wsid6mo7vnzppufi7m7hq7oyc3nvgolaq.py":60:27)
#loc48 = loc("/home/ericbuehler/.cache/vllm/torch_compile_cache/torch_aot_compile/90537ea14f244a5187d6ecc853fbadcf440d710f29c8e182fe8151f3f7751a82/inductor_cache/7a/c7aoylswf2dcom36xl4wsid6mo7vnzppufi7m7hq7oyc3nvgolaq.py":61:25)
#loc49 = loc("/home/ericbuehler/.cache/vllm/torch_compile_cache/torch_aot_compile/90537ea14f244a5187d6ecc853fbadcf440d710f29c8e182fe8151f3f7751a82/inductor_cache/7a/c7aoylswf2dcom36xl4wsid6mo7vnzppufi7m7hq7oyc3nvgolaq.py":62:31)
#loc50 = loc("/home/ericbuehler/.cache/vllm/torch_compile_cache/torch_aot_compile/90537ea14f244a5187d6ecc853fbadcf440d710f29c8e182fe8151f3f7751a82/inductor_cache/7a/c7aoylswf2dcom36xl4wsid6mo7vnzppufi7m7hq7oyc3nvgolaq.py":62:41)
#loc51 = loc("/home/ericbuehler/.cache/vllm/torch_compile_cache/torch_aot_compile/90537ea14f244a5187d6ecc853fbadcf440d710f29c8e182fe8151f3f7751a82/inductor_cache/7a/c7aoylswf2dcom36xl4wsid6mo7vnzppufi7m7hq7oyc3nvgolaq.py":64:23)
#loc52 = loc("/home/ericbuehler/.cache/vllm/torch_compile_cache/torch_aot_compile/90537ea14f244a5187d6ecc853fbadcf440d710f29c8e182fe8151f3f7751a82/inductor_cache/7a/c7aoylswf2dcom36xl4wsid6mo7vnzppufi7m7hq7oyc3nvgolaq.py":65:23)
#loc53 = loc("/home/ericbuehler/.cache/vllm/torch_compile_cache/torch_aot_compile/90537ea14f244a5187d6ecc853fbadcf440d710f29c8e182fe8151f3f7751a82/inductor_cache/7a/c7aoylswf2dcom36xl4wsid6mo7vnzppufi7m7hq7oyc3nvgolaq.py":66:48)
#loc54 = loc("/home/ericbuehler/.cache/vllm/torch_compile_cache/torch_aot_compile/90537ea14f244a5187d6ecc853fbadcf440d710f29c8e182fe8151f3f7751a82/inductor_cache/7a/c7aoylswf2dcom36xl4wsid6mo7vnzppufi7m7hq7oyc3nvgolaq.py":68:47)
#loc55 = loc("/home/ericbuehler/.cache/vllm/torch_compile_cache/torch_aot_compile/90537ea14f244a5187d6ecc853fbadcf440d710f29c8e182fe8151f3f7751a82/inductor_cache/7a/c7aoylswf2dcom36xl4wsid6mo7vnzppufi7m7hq7oyc3nvgolaq.py":69:35)
#loc56 = loc("/home/ericbuehler/.cache/vllm/torch_compile_cache/torch_aot_compile/90537ea14f244a5187d6ecc853fbadcf440d710f29c8e182fe8151f3f7751a82/inductor_cache/7a/c7aoylswf2dcom36xl4wsid6mo7vnzppufi7m7hq7oyc3nvgolaq.py":70:33)
#loc57 = loc("/home/ericbuehler/.cache/vllm/torch_compile_cache/torch_aot_compile/90537ea14f244a5187d6ecc853fbadcf440d710f29c8e182fe8151f3f7751a82/inductor_cache/7a/c7aoylswf2dcom36xl4wsid6mo7vnzppufi7m7hq7oyc3nvgolaq.py":74:45)
#loc58 = loc("/home/ericbuehler/.cache/vllm/torch_compile_cache/torch_aot_compile/90537ea14f244a5187d6ecc853fbadcf440d710f29c8e182fe8151f3f7751a82/inductor_cache/7a/c7aoylswf2dcom36xl4wsid6mo7vnzppufi7m7hq7oyc3nvgolaq.py":74:56)
#loc59 = loc("/home/ericbuehler/.cache/vllm/torch_compile_cache/torch_aot_compile/90537ea14f244a5187d6ecc853fbadcf440d710f29c8e182fe8151f3f7751a82/inductor_cache/7a/c7aoylswf2dcom36xl4wsid6mo7vnzppufi7m7hq7oyc3nvgolaq.py":74:52)
#loc60 = loc("/home/ericbuehler/.cache/vllm/torch_compile_cache/torch_aot_compile/90537ea14f244a5187d6ecc853fbadcf440d710f29c8e182fe8151f3f7751a82/inductor_cache/7a/c7aoylswf2dcom36xl4wsid6mo7vnzppufi7m7hq7oyc3nvgolaq.py":74:67)
#loc61 = loc("/home/ericbuehler/.cache/vllm/torch_compile_cache/torch_aot_compile/90537ea14f244a5187d6ecc853fbadcf440d710f29c8e182fe8151f3f7751a82/inductor_cache/7a/c7aoylswf2dcom36xl4wsid6mo7vnzppufi7m7hq7oyc3nvgolaq.py":74:61)
#loc62 = loc("/home/ericbuehler/.cache/vllm/torch_compile_cache/torch_aot_compile/90537ea14f244a5187d6ecc853fbadcf440d710f29c8e182fe8151f3f7751a82/inductor_cache/7a/c7aoylswf2dcom36xl4wsid6mo7vnzppufi7m7hq7oyc3nvgolaq.py":74:38)
#loc63 = loc("/home/ericbuehler/.cache/vllm/torch_compile_cache/torch_aot_compile/90537ea14f244a5187d6ecc853fbadcf440d710f29c8e182fe8151f3f7751a82/inductor_cache/7a/c7aoylswf2dcom36xl4wsid6mo7vnzppufi7m7hq7oyc3nvgolaq.py":74:82)
#loc64 = loc("/home/ericbuehler/.cache/vllm/torch_compile_cache/torch_aot_compile/90537ea14f244a5187d6ecc853fbadcf440d710f29c8e182fe8151f3f7751a82/inductor_cache/7a/c7aoylswf2dcom36xl4wsid6mo7vnzppufi7m7hq7oyc3nvgolaq.py":74:72)
#loc65 = loc("/home/ericbuehler/.cache/vllm/torch_compile_cache/torch_aot_compile/90537ea14f244a5187d6ecc853fbadcf440d710f29c8e182fe8151f3f7751a82/inductor_cache/7a/c7aoylswf2dcom36xl4wsid6mo7vnzppufi7m7hq7oyc3nvgolaq.py":74:134)
#loc66 = loc("/home/ericbuehler/.cache/vllm/torch_compile_cache/torch_aot_compile/90537ea14f244a5187d6ecc853fbadcf440d710f29c8e182fe8151f3f7751a82/inductor_cache/7a/c7aoylswf2dcom36xl4wsid6mo7vnzppufi7m7hq7oyc3nvgolaq.py":76:26)
#loc67 = loc("/home/ericbuehler/.cache/vllm/torch_compile_cache/torch_aot_compile/90537ea14f244a5187d6ecc853fbadcf440d710f29c8e182fe8151f3f7751a82/inductor_cache/7a/c7aoylswf2dcom36xl4wsid6mo7vnzppufi7m7hq7oyc3nvgolaq.py":78:29)
#loc68 = loc("/home/ericbuehler/.cache/vllm/torch_compile_cache/torch_aot_compile/90537ea14f244a5187d6ecc853fbadcf440d710f29c8e182fe8151f3f7751a82/inductor_cache/7a/c7aoylswf2dcom36xl4wsid6mo7vnzppufi7m7hq7oyc3nvgolaq.py":79:40)
#loc69 = loc("/home/ericbuehler/.cache/vllm/torch_compile_cache/torch_aot_compile/90537ea14f244a5187d6ecc853fbadcf440d710f29c8e182fe8151f3f7751a82/inductor_cache/7a/c7aoylswf2dcom36xl4wsid6mo7vnzppufi7m7hq7oyc3nvgolaq.py":79:54)
#loc70 = loc("/home/ericbuehler/.cache/vllm/torch_compile_cache/torch_aot_compile/90537ea14f244a5187d6ecc853fbadcf440d710f29c8e182fe8151f3f7751a82/inductor_cache/7a/c7aoylswf2dcom36xl4wsid6mo7vnzppufi7m7hq7oyc3nvgolaq.py":79:12)
#loc71 = loc("/home/ericbuehler/.cache/vllm/torch_compile_cache/torch_aot_compile/90537ea14f244a5187d6ecc853fbadcf440d710f29c8e182fe8151f3f7751a82/inductor_cache/7a/c7aoylswf2dcom36xl4wsid6mo7vnzppufi7m7hq7oyc3nvgolaq.py":80:31)
#loc72 = loc("/home/ericbuehler/.cache/vllm/torch_compile_cache/torch_aot_compile/90537ea14f244a5187d6ecc853fbadcf440d710f29c8e182fe8151f3f7751a82/inductor_cache/7a/c7aoylswf2dcom36xl4wsid6mo7vnzppufi7m7hq7oyc3nvgolaq.py":80:34)
#loc73 = loc("/home/ericbuehler/.cache/vllm/torch_compile_cache/torch_aot_compile/90537ea14f244a5187d6ecc853fbadcf440d710f29c8e182fe8151f3f7751a82/inductor_cache/7a/c7aoylswf2dcom36xl4wsid6mo7vnzppufi7m7hq7oyc3nvgolaq.py":81:29)
#loc74 = loc("/home/ericbuehler/.cache/vllm/torch_compile_cache/torch_aot_compile/90537ea14f244a5187d6ecc853fbadcf440d710f29c8e182fe8151f3f7751a82/inductor_cache/7a/c7aoylswf2dcom36xl4wsid6mo7vnzppufi7m7hq7oyc3nvgolaq.py":81:41)
#loc75 = loc("/home/ericbuehler/.cache/vllm/torch_compile_cache/torch_aot_compile/90537ea14f244a5187d6ecc853fbadcf440d710f29c8e182fe8151f3f7751a82/inductor_cache/7a/c7aoylswf2dcom36xl4wsid6mo7vnzppufi7m7hq7oyc3nvgolaq.py":82:15)
#loc76 = loc("/home/ericbuehler/.cache/vllm/torch_compile_cache/torch_aot_compile/90537ea14f244a5187d6ecc853fbadcf440d710f29c8e182fe8151f3f7751a82/inductor_cache/7a/c7aoylswf2dcom36xl4wsid6mo7vnzppufi7m7hq7oyc3nvgolaq.py":82:9)
#loc77 = loc("/home/ericbuehler/.cache/vllm/torch_compile_cache/torch_aot_compile/90537ea14f244a5187d6ecc853fbadcf440d710f29c8e182fe8151f3f7751a82/inductor_cache/7a/c7aoylswf2dcom36xl4wsid6mo7vnzppufi7m7hq7oyc3nvgolaq.py":83:27)
#loc78 = loc("/home/ericbuehler/.cache/vllm/torch_compile_cache/torch_aot_compile/90537ea14f244a5187d6ecc853fbadcf440d710f29c8e182fe8151f3f7751a82/inductor_cache/7a/c7aoylswf2dcom36xl4wsid6mo7vnzppufi7m7hq7oyc3nvgolaq.py":84:19)
#loc79 = loc("/home/ericbuehler/.cache/vllm/torch_compile_cache/torch_aot_compile/90537ea14f244a5187d6ecc853fbadcf440d710f29c8e182fe8151f3f7751a82/inductor_cache/7a/c7aoylswf2dcom36xl4wsid6mo7vnzppufi7m7hq7oyc3nvgolaq.py":87:31)
#loc80 = loc("/home/ericbuehler/.cache/vllm/torch_compile_cache/torch_aot_compile/90537ea14f244a5187d6ecc853fbadcf440d710f29c8e182fe8151f3f7751a82/inductor_cache/7a/c7aoylswf2dcom36xl4wsid6mo7vnzppufi7m7hq7oyc3nvgolaq.py":88:40)
#loc81 = loc("/home/ericbuehler/.cache/vllm/torch_compile_cache/torch_aot_compile/90537ea14f244a5187d6ecc853fbadcf440d710f29c8e182fe8151f3f7751a82/inductor_cache/7a/c7aoylswf2dcom36xl4wsid6mo7vnzppufi7m7hq7oyc3nvgolaq.py":88:48)
#loc82 = loc("/home/ericbuehler/.cache/vllm/torch_compile_cache/torch_aot_compile/90537ea14f244a5187d6ecc853fbadcf440d710f29c8e182fe8151f3f7751a82/inductor_cache/7a/c7aoylswf2dcom36xl4wsid6mo7vnzppufi7m7hq7oyc3nvgolaq.py":88:27)
#loc83 = loc("/home/ericbuehler/.cache/vllm/torch_compile_cache/torch_aot_compile/90537ea14f244a5187d6ecc853fbadcf440d710f29c8e182fe8151f3f7751a82/inductor_cache/7a/c7aoylswf2dcom36xl4wsid6mo7vnzppufi7m7hq7oyc3nvgolaq.py":89:25)
#loc84 = loc("/home/ericbuehler/.cache/vllm/torch_compile_cache/torch_aot_compile/90537ea14f244a5187d6ecc853fbadcf440d710f29c8e182fe8151f3f7751a82/inductor_cache/7a/c7aoylswf2dcom36xl4wsid6mo7vnzppufi7m7hq7oyc3nvgolaq.py":90:31)
#loc85 = loc("/home/ericbuehler/.cache/vllm/torch_compile_cache/torch_aot_compile/90537ea14f244a5187d6ecc853fbadcf440d710f29c8e182fe8151f3f7751a82/inductor_cache/7a/c7aoylswf2dcom36xl4wsid6mo7vnzppufi7m7hq7oyc3nvgolaq.py":90:41)
#loc86 = loc("/home/ericbuehler/.cache/vllm/torch_compile_cache/torch_aot_compile/90537ea14f244a5187d6ecc853fbadcf440d710f29c8e182fe8151f3f7751a82/inductor_cache/7a/c7aoylswf2dcom36xl4wsid6mo7vnzppufi7m7hq7oyc3nvgolaq.py":92:23)
#loc87 = loc("/home/ericbuehler/.cache/vllm/torch_compile_cache/torch_aot_compile/90537ea14f244a5187d6ecc853fbadcf440d710f29c8e182fe8151f3f7751a82/inductor_cache/7a/c7aoylswf2dcom36xl4wsid6mo7vnzppufi7m7hq7oyc3nvgolaq.py":93:23)
#loc88 = loc("/home/ericbuehler/.cache/vllm/torch_compile_cache/torch_aot_compile/90537ea14f244a5187d6ecc853fbadcf440d710f29c8e182fe8151f3f7751a82/inductor_cache/7a/c7aoylswf2dcom36xl4wsid6mo7vnzppufi7m7hq7oyc3nvgolaq.py":94:48)
#loc89 = loc("/home/ericbuehler/.cache/vllm/torch_compile_cache/torch_aot_compile/90537ea14f244a5187d6ecc853fbadcf440d710f29c8e182fe8151f3f7751a82/inductor_cache/7a/c7aoylswf2dcom36xl4wsid6mo7vnzppufi7m7hq7oyc3nvgolaq.py":96:47)
#loc90 = loc("/home/ericbuehler/.cache/vllm/torch_compile_cache/torch_aot_compile/90537ea14f244a5187d6ecc853fbadcf440d710f29c8e182fe8151f3f7751a82/inductor_cache/7a/c7aoylswf2dcom36xl4wsid6mo7vnzppufi7m7hq7oyc3nvgolaq.py":97:35)
#loc91 = loc("/home/ericbuehler/.cache/vllm/torch_compile_cache/torch_aot_compile/90537ea14f244a5187d6ecc853fbadcf440d710f29c8e182fe8151f3f7751a82/inductor_cache/7a/c7aoylswf2dcom36xl4wsid6mo7vnzppufi7m7hq7oyc3nvgolaq.py":98:33)
#loc92 = loc("/home/ericbuehler/.cache/vllm/torch_compile_cache/torch_aot_compile/90537ea14f244a5187d6ecc853fbadcf440d710f29c8e182fe8151f3f7751a82/inductor_cache/7a/c7aoylswf2dcom36xl4wsid6mo7vnzppufi7m7hq7oyc3nvgolaq.py":102:46)
#loc93 = loc("/home/ericbuehler/.cache/vllm/torch_compile_cache/torch_aot_compile/90537ea14f244a5187d6ecc853fbadcf440d710f29c8e182fe8151f3f7751a82/inductor_cache/7a/c7aoylswf2dcom36xl4wsid6mo7vnzppufi7m7hq7oyc3nvgolaq.py":102:58)
#loc94 = loc("/home/ericbuehler/.cache/vllm/torch_compile_cache/torch_aot_compile/90537ea14f244a5187d6ecc853fbadcf440d710f29c8e182fe8151f3f7751a82/inductor_cache/7a/c7aoylswf2dcom36xl4wsid6mo7vnzppufi7m7hq7oyc3nvgolaq.py":102:54)
#loc95 = loc("/home/ericbuehler/.cache/vllm/torch_compile_cache/torch_aot_compile/90537ea14f244a5187d6ecc853fbadcf440d710f29c8e182fe8151f3f7751a82/inductor_cache/7a/c7aoylswf2dcom36xl4wsid6mo7vnzppufi7m7hq7oyc3nvgolaq.py":102:69)
#loc96 = loc("/home/ericbuehler/.cache/vllm/torch_compile_cache/torch_aot_compile/90537ea14f244a5187d6ecc853fbadcf440d710f29c8e182fe8151f3f7751a82/inductor_cache/7a/c7aoylswf2dcom36xl4wsid6mo7vnzppufi7m7hq7oyc3nvgolaq.py":102:63)
#loc97 = loc("/home/ericbuehler/.cache/vllm/torch_compile_cache/torch_aot_compile/90537ea14f244a5187d6ecc853fbadcf440d710f29c8e182fe8151f3f7751a82/inductor_cache/7a/c7aoylswf2dcom36xl4wsid6mo7vnzppufi7m7hq7oyc3nvgolaq.py":102:39)
#loc98 = loc("/home/ericbuehler/.cache/vllm/torch_compile_cache/torch_aot_compile/90537ea14f244a5187d6ecc853fbadcf440d710f29c8e182fe8151f3f7751a82/inductor_cache/7a/c7aoylswf2dcom36xl4wsid6mo7vnzppufi7m7hq7oyc3nvgolaq.py":102:84)
#loc99 = loc("/home/ericbuehler/.cache/vllm/torch_compile_cache/torch_aot_compile/90537ea14f244a5187d6ecc853fbadcf440d710f29c8e182fe8151f3f7751a82/inductor_cache/7a/c7aoylswf2dcom36xl4wsid6mo7vnzppufi7m7hq7oyc3nvgolaq.py":102:74)
#loc100 = loc("/home/ericbuehler/.cache/vllm/torch_compile_cache/torch_aot_compile/90537ea14f244a5187d6ecc853fbadcf440d710f29c8e182fe8151f3f7751a82/inductor_cache/7a/c7aoylswf2dcom36xl4wsid6mo7vnzppufi7m7hq7oyc3nvgolaq.py":102:135)
#loc101 = loc("/home/ericbuehler/.cache/vllm/torch_compile_cache/torch_aot_compile/90537ea14f244a5187d6ecc853fbadcf440d710f29c8e182fe8151f3f7751a82/inductor_cache/7a/c7aoylswf2dcom36xl4wsid6mo7vnzppufi7m7hq7oyc3nvgolaq.py":104:28)
#loc102 = loc("/home/ericbuehler/.cache/vllm/torch_compile_cache/torch_aot_compile/90537ea14f244a5187d6ecc853fbadcf440d710f29c8e182fe8151f3f7751a82/inductor_cache/7a/c7aoylswf2dcom36xl4wsid6mo7vnzppufi7m7hq7oyc3nvgolaq.py":106:29)
#loc103 = loc("/home/ericbuehler/.cache/vllm/torch_compile_cache/torch_aot_compile/90537ea14f244a5187d6ecc853fbadcf440d710f29c8e182fe8151f3f7751a82/inductor_cache/7a/c7aoylswf2dcom36xl4wsid6mo7vnzppufi7m7hq7oyc3nvgolaq.py":107:40)
#loc104 = loc("/home/ericbuehler/.cache/vllm/torch_compile_cache/torch_aot_compile/90537ea14f244a5187d6ecc853fbadcf440d710f29c8e182fe8151f3f7751a82/inductor_cache/7a/c7aoylswf2dcom36xl4wsid6mo7vnzppufi7m7hq7oyc3nvgolaq.py":107:54)
#loc105 = loc("/home/ericbuehler/.cache/vllm/torch_compile_cache/torch_aot_compile/90537ea14f244a5187d6ecc853fbadcf440d710f29c8e182fe8151f3f7751a82/inductor_cache/7a/c7aoylswf2dcom36xl4wsid6mo7vnzppufi7m7hq7oyc3nvgolaq.py":107:12)
#loc106 = loc("/home/ericbuehler/.cache/vllm/torch_compile_cache/torch_aot_compile/90537ea14f244a5187d6ecc853fbadcf440d710f29c8e182fe8151f3f7751a82/inductor_cache/7a/c7aoylswf2dcom36xl4wsid6mo7vnzppufi7m7hq7oyc3nvgolaq.py":108:31)
#loc107 = loc("/home/ericbuehler/.cache/vllm/torch_compile_cache/torch_aot_compile/90537ea14f244a5187d6ecc853fbadcf440d710f29c8e182fe8151f3f7751a82/inductor_cache/7a/c7aoylswf2dcom36xl4wsid6mo7vnzppufi7m7hq7oyc3nvgolaq.py":108:34)
#loc108 = loc("/home/ericbuehler/.cache/vllm/torch_compile_cache/torch_aot_compile/90537ea14f244a5187d6ecc853fbadcf440d710f29c8e182fe8151f3f7751a82/inductor_cache/7a/c7aoylswf2dcom36xl4wsid6mo7vnzppufi7m7hq7oyc3nvgolaq.py":109:47)
#loc109 = loc("/home/ericbuehler/.cache/vllm/torch_compile_cache/torch_aot_compile/90537ea14f244a5187d6ecc853fbadcf440d710f29c8e182fe8151f3f7751a82/inductor_cache/7a/c7aoylswf2dcom36xl4wsid6mo7vnzppufi7m7hq7oyc3nvgolaq.py":110:35)
#loc110 = loc("/home/ericbuehler/.cache/vllm/torch_compile_cache/torch_aot_compile/90537ea14f244a5187d6ecc853fbadcf440d710f29c8e182fe8151f3f7751a82/inductor_cache/7a/c7aoylswf2dcom36xl4wsid6mo7vnzppufi7m7hq7oyc3nvgolaq.py":111:33)
#loc111 = loc("/home/ericbuehler/.cache/vllm/torch_compile_cache/torch_aot_compile/90537ea14f244a5187d6ecc853fbadcf440d710f29c8e182fe8151f3f7751a82/inductor_cache/7a/c7aoylswf2dcom36xl4wsid6mo7vnzppufi7m7hq7oyc3nvgolaq.py":115:46)
#loc112 = loc("/home/ericbuehler/.cache/vllm/torch_compile_cache/torch_aot_compile/90537ea14f244a5187d6ecc853fbadcf440d710f29c8e182fe8151f3f7751a82/inductor_cache/7a/c7aoylswf2dcom36xl4wsid6mo7vnzppufi7m7hq7oyc3nvgolaq.py":115:58)
#loc113 = loc("/home/ericbuehler/.cache/vllm/torch_compile_cache/torch_aot_compile/90537ea14f244a5187d6ecc853fbadcf440d710f29c8e182fe8151f3f7751a82/inductor_cache/7a/c7aoylswf2dcom36xl4wsid6mo7vnzppufi7m7hq7oyc3nvgolaq.py":115:54)
#loc114 = loc("/home/ericbuehler/.cache/vllm/torch_compile_cache/torch_aot_compile/90537ea14f244a5187d6ecc853fbadcf440d710f29c8e182fe8151f3f7751a82/inductor_cache/7a/c7aoylswf2dcom36xl4wsid6mo7vnzppufi7m7hq7oyc3nvgolaq.py":115:69)
#loc115 = loc("/home/ericbuehler/.cache/vllm/torch_compile_cache/torch_aot_compile/90537ea14f244a5187d6ecc853fbadcf440d710f29c8e182fe8151f3f7751a82/inductor_cache/7a/c7aoylswf2dcom36xl4wsid6mo7vnzppufi7m7hq7oyc3nvgolaq.py":115:63)
#loc116 = loc("/home/ericbuehler/.cache/vllm/torch_compile_cache/torch_aot_compile/90537ea14f244a5187d6ecc853fbadcf440d710f29c8e182fe8151f3f7751a82/inductor_cache/7a/c7aoylswf2dcom36xl4wsid6mo7vnzppufi7m7hq7oyc3nvgolaq.py":115:39)
#loc117 = loc("/home/ericbuehler/.cache/vllm/torch_compile_cache/torch_aot_compile/90537ea14f244a5187d6ecc853fbadcf440d710f29c8e182fe8151f3f7751a82/inductor_cache/7a/c7aoylswf2dcom36xl4wsid6mo7vnzppufi7m7hq7oyc3nvgolaq.py":115:84)
#loc118 = loc("/home/ericbuehler/.cache/vllm/torch_compile_cache/torch_aot_compile/90537ea14f244a5187d6ecc853fbadcf440d710f29c8e182fe8151f3f7751a82/inductor_cache/7a/c7aoylswf2dcom36xl4wsid6mo7vnzppufi7m7hq7oyc3nvgolaq.py":115:74)
#loc119 = loc("/home/ericbuehler/.cache/vllm/torch_compile_cache/torch_aot_compile/90537ea14f244a5187d6ecc853fbadcf440d710f29c8e182fe8151f3f7751a82/inductor_cache/7a/c7aoylswf2dcom36xl4wsid6mo7vnzppufi7m7hq7oyc3nvgolaq.py":115:136)
#loc120 = loc("/home/ericbuehler/.cache/vllm/torch_compile_cache/torch_aot_compile/90537ea14f244a5187d6ecc853fbadcf440d710f29c8e182fe8151f3f7751a82/inductor_cache/7a/c7aoylswf2dcom36xl4wsid6mo7vnzppufi7m7hq7oyc3nvgolaq.py":117:43)
#loc121 = loc("/home/ericbuehler/.cache/vllm/torch_compile_cache/torch_aot_compile/90537ea14f244a5187d6ecc853fbadcf440d710f29c8e182fe8151f3f7751a82/inductor_cache/7a/c7aoylswf2dcom36xl4wsid6mo7vnzppufi7m7hq7oyc3nvgolaq.py":118:29)
#loc122 = loc("/home/ericbuehler/.cache/vllm/torch_compile_cache/torch_aot_compile/90537ea14f244a5187d6ecc853fbadcf440d710f29c8e182fe8151f3f7751a82/inductor_cache/7a/c7aoylswf2dcom36xl4wsid6mo7vnzppufi7m7hq7oyc3nvgolaq.py":119:43)
#loc123 = loc("/home/ericbuehler/.cache/vllm/torch_compile_cache/torch_aot_compile/90537ea14f244a5187d6ecc853fbadcf440d710f29c8e182fe8151f3f7751a82/inductor_cache/7a/c7aoylswf2dcom36xl4wsid6mo7vnzppufi7m7hq7oyc3nvgolaq.py":120:28)
#loc124 = loc("/home/ericbuehler/.cache/vllm/torch_compile_cache/torch_aot_compile/90537ea14f244a5187d6ecc853fbadcf440d710f29c8e182fe8151f3f7751a82/inductor_cache/7a/c7aoylswf2dcom36xl4wsid6mo7vnzppufi7m7hq7oyc3nvgolaq.py":121:36)
#loc125 = loc("/home/ericbuehler/.cache/vllm/torch_compile_cache/torch_aot_compile/90537ea14f244a5187d6ecc853fbadcf440d710f29c8e182fe8151f3f7751a82/inductor_cache/7a/c7aoylswf2dcom36xl4wsid6mo7vnzppufi7m7hq7oyc3nvgolaq.py":122:28)
#loc126 = loc("/home/ericbuehler/.cache/vllm/torch_compile_cache/torch_aot_compile/90537ea14f244a5187d6ecc853fbadcf440d710f29c8e182fe8151f3f7751a82/inductor_cache/7a/c7aoylswf2dcom36xl4wsid6mo7vnzppufi7m7hq7oyc3nvgolaq.py":124:45)
#loc127 = loc("/home/ericbuehler/.cache/vllm/torch_compile_cache/torch_aot_compile/90537ea14f244a5187d6ecc853fbadcf440d710f29c8e182fe8151f3f7751a82/inductor_cache/7a/c7aoylswf2dcom36xl4wsid6mo7vnzppufi7m7hq7oyc3nvgolaq.py":124:41)
#loc128 = loc("/home/ericbuehler/.cache/vllm/torch_compile_cache/torch_aot_compile/90537ea14f244a5187d6ecc853fbadcf440d710f29c8e182fe8151f3f7751a82/inductor_cache/7a/c7aoylswf2dcom36xl4wsid6mo7vnzppufi7m7hq7oyc3nvgolaq.py":124:33)
#loc129 = loc("/home/ericbuehler/.cache/vllm/torch_compile_cache/torch_aot_compile/90537ea14f244a5187d6ecc853fbadcf440d710f29c8e182fe8151f3f7751a82/inductor_cache/7a/c7aoylswf2dcom36xl4wsid6mo7vnzppufi7m7hq7oyc3nvgolaq.py":124:68)
#loc130 = loc("/home/ericbuehler/.cache/vllm/torch_compile_cache/torch_aot_compile/90537ea14f244a5187d6ecc853fbadcf440d710f29c8e182fe8151f3f7751a82/inductor_cache/7a/c7aoylswf2dcom36xl4wsid6mo7vnzppufi7m7hq7oyc3nvgolaq.py":124:58)
#loc131 = loc("/home/ericbuehler/.cache/vllm/torch_compile_cache/torch_aot_compile/90537ea14f244a5187d6ecc853fbadcf440d710f29c8e182fe8151f3f7751a82/inductor_cache/7a/c7aoylswf2dcom36xl4wsid6mo7vnzppufi7m7hq7oyc3nvgolaq.py":26:4)
#loc133 = loc("/home/ericbuehler/vllm/.venv-bench/lib/python3.12/site-packages/triton/language/standard.py":43:17)
#loc134 = loc("/home/ericbuehler/vllm/.venv-bench/lib/python3.12/site-packages/triton/language/standard.py":43:30)
#loc135 = loc("/home/ericbuehler/vllm/.venv-bench/lib/python3.12/site-packages/triton/language/standard.py":43:11)
#loc136 = loc("/home/ericbuehler/vllm/.venv-bench/lib/python3.12/site-packages/triton/language/standard.py":43:4)
#loc138 = loc("/home/ericbuehler/vllm/.venv-bench/lib/python3.12/site-packages/triton/language/standard.py":293:36)
#loc140 = loc("/home/ericbuehler/vllm/.venv-bench/lib/python3.12/site-packages/triton/language/standard.py":293:11)
#loc141 = loc("/home/ericbuehler/vllm/.venv-bench/lib/python3.12/site-packages/triton/language/standard.py":293:4)
#loc143 = loc("/home/ericbuehler/vllm/.venv-bench/lib/python3.12/site-packages/triton/language/standard.py":263:15)
#loc144 = loc("/home/ericbuehler/vllm/.venv-bench/lib/python3.12/site-packages/triton/language/standard.py":263:11)
#loc145 = loc("/home/ericbuehler/vllm/.venv-bench/lib/python3.12/site-packages/triton/language/standard.py":263:4)
#loc153 = loc("pid"(#loc1))
#loc154 = loc("num_xblocks_0"(#loc2))
#loc155 = loc("num_xblocks_1"(#loc3))
#loc156 = loc("num_xblocks_1"(#loc4))
#loc157 = loc("num_xblocks_2"(#loc5))
#loc158 = loc("num_xblocks_2"(#loc6))
#loc159 = loc("r0_numel"(#loc9))
#loc160 = loc("xoffset"(#loc10))
#loc161 = loc("xindex"(#loc11))
#loc162 = loc("xindex"(#loc12))
#loc163 = loc("xindex"(#loc13))
#loc164 = loc("xmask"(#loc14))
#loc165 = loc("r0_base"(#loc15))
#loc166 = loc("r0_base"(#loc16))
#loc167 = loc("x0"(#loc17))
#loc168 = loc("x1"(#loc18))
#loc169 = loc("_tmp4"(#loc19))
#loc170 = loc("_tmp4"(#loc20))
#loc171 = loc("r0_index"(#loc21))
#loc172 = loc("r0_mask"(#loc22))
#loc173 = loc("tmp0"(#loc23))
#loc174 = loc("tmp0"(#loc24))
#loc175 = loc("tmp0"(#loc25))
#loc176 = loc("tmp0"(#loc26))
#loc177 = loc("tmp0"(#loc27))
#loc178 = loc("tmp0"(#loc28))
#loc179 = loc("tmp0"(#loc29))
#loc180 = loc("tmp0"(#loc30))
#loc181 = loc("tmp2"(#loc31))
#loc182 = loc("tmp5"(#loc32))
#loc183 = loc("_tmp4"(#loc33))
#loc184 = loc("_tmp4"(#loc34))
#loc185 = loc("tmp4"(#loc36))
#loc186 = loc("tmp4"(#loc37))
#loc187 = loc("pid_offset"(#loc42))
#loc188 = loc("r0_numel"(#loc43))
#loc189 = loc("xoffset"(#loc44))
#loc190 = loc("xindex"(#loc45))
#loc191 = loc("xindex"(#loc46))
#loc192 = loc("xindex"(#loc47))
#loc193 = loc("xmask"(#loc48))
#loc194 = loc("r0_base"(#loc49))
#loc195 = loc("r0_base"(#loc50))
#loc196 = loc("x4"(#loc51))
#loc197 = loc("x5"(#loc52))
#loc198 = loc("_tmp10"(#loc53))
#loc199 = loc("_tmp10"(#loc54))
#loc200 = loc("r0_index"(#loc55))
#loc201 = loc("r0_mask"(#loc56))
#loc202 = loc("tmp6"(#loc57))
#loc203 = loc("tmp6"(#loc58))
#loc204 = loc("tmp6"(#loc59))
#loc205 = loc("tmp6"(#loc60))
#loc206 = loc("tmp6"(#loc61))
#loc207 = loc("tmp6"(#loc62))
#loc208 = loc("tmp6"(#loc63))
#loc209 = loc("tmp6"(#loc64))
#loc210 = loc("tmp6"(#loc65))
#loc211 = loc("tmp8"(#loc66))
#loc212 = loc("tmp11"(#loc67))
#loc213 = loc("_tmp10"(#loc68))
#loc214 = loc("_tmp10"(#loc69))
#loc215 = loc("tmp10"(#loc71))
#loc216 = loc("tmp10"(#loc72))
#loc217 = loc("pid_offset"(#loc77))
#loc218 = loc("r0_numel"(#loc78))
#loc219 = loc("xoffset"(#loc79))
#loc220 = loc("xindex"(#loc80))
#loc221 = loc("xindex"(#loc81))
#loc222 = loc("xindex"(#loc82))
#loc223 = loc("xmask"(#loc83))
#loc224 = loc("r0_base"(#loc84))
#loc225 = loc("r0_base"(#loc85))
#loc226 = loc("x8"(#loc86))
#loc227 = loc("x9"(#loc87))
#loc228 = loc("_tmp16"(#loc88))
#loc229 = loc("_tmp16"(#loc89))
#loc230 = loc("r0_index"(#loc90))
#loc231 = loc("r0_mask"(#loc91))
#loc232 = loc("tmp12"(#loc92))
#loc233 = loc("tmp12"(#loc93))
#loc234 = loc("tmp12"(#loc94))
#loc235 = loc("tmp12"(#loc95))
#loc236 = loc("tmp12"(#loc96))
#loc237 = loc("tmp12"(#loc97))
#loc238 = loc("tmp12"(#loc98))
#loc239 = loc("tmp12"(#loc99))
#loc240 = loc("tmp12"(#loc100))
#loc241 = loc("tmp14"(#loc101))
#loc242 = loc("tmp17"(#loc102))
#loc243 = loc("_tmp16"(#loc103))
#loc244 = loc("_tmp16"(#loc104))
#loc245 = loc("tmp16"(#loc106))
#loc246 = loc("tmp16"(#loc107))
#loc247 = loc("r0_index"(#loc109))
#loc248 = loc("r0_mask"(#loc110))
#loc249 = loc("tmp18"(#loc111))
#loc250 = loc("tmp18"(#loc112))
#loc251 = loc("tmp18"(#loc113))
#loc252 = loc("tmp18"(#loc114))
#loc253 = loc("tmp18"(#loc115))
#loc254 = loc("tmp18"(#loc116))
#loc255 = loc("tmp18"(#loc117))
#loc256 = loc("tmp18"(#loc118))
#loc257 = loc("tmp18"(#loc119))
#loc258 = loc("tmp20"(#loc120))
#loc259 = loc("tmp21"(#loc121))
#loc260 = loc("tmp22"(#loc122))
#loc261 = loc("tmp23"(#loc123))
#loc262 = loc("tmp24"(#loc124))
#loc263 = loc("tmp25"(#loc125))
