#loc = loc("/home/ericbuehler/.cache/vllm/torch_compile_cache/torch_aot_compile/90537ea14f244a5187d6ecc853fbadcf440d710f29c8e182fe8151f3f7751a82/inductor_cache/ny/cnyh4ooklbamdjqnz3gja4umbems3u6rb56m54v4yfzdfzic3bbe.py":21:0)
#loc1 = loc(unknown)
#loc25 = loc("/home/ericbuehler/.cache/vllm/torch_compile_cache/torch_aot_compile/90537ea14f244a5187d6ecc853fbadcf440d710f29c8e182fe8151f3f7751a82/inductor_cache/ny/cnyh4ooklbamdjqnz3gja4umbems3u6rb56m54v4yfzdfzic3bbe.py":52:29)
#loc51 = loc("/home/ericbuehler/.cache/vllm/torch_compile_cache/torch_aot_compile/90537ea14f244a5187d6ecc853fbadcf440d710f29c8e182fe8151f3f7751a82/inductor_cache/ny/cnyh4ooklbamdjqnz3gja4umbems3u6rb56m54v4yfzdfzic3bbe.py":80:31)
#loc76 = loc("/home/ericbuehler/.cache/vllm/torch_compile_cache/torch_aot_compile/90537ea14f244a5187d6ecc853fbadcf440d710f29c8e182fe8151f3f7751a82/inductor_cache/ny/cnyh4ooklbamdjqnz3gja4umbems3u6rb56m54v4yfzdfzic3bbe.py":108:31)
#loc89 = loc("in_ptr0"(#loc))
#loc90 = loc("out_ptr0"(#loc))
#loc91 = loc("out_ptr1"(#loc))
#loc92 = loc("out_ptr3"(#loc))
#loc93 = loc("xnumel_0"(#loc))
#loc94 = loc("xnumel_1"(#loc))
#loc95 = loc("xnumel_2"(#loc))
#loc116 = loc("tmp4"(#loc25))
#loc137 = loc("tmp10"(#loc51))
#loc158 = loc("tmp16"(#loc76))
#loc171 = loc(callsite(#loc1 at #loc116))
#loc176 = loc(callsite(#loc1 at #loc137))
#loc181 = loc(callsite(#loc1 at #loc158))
module {
  tt.func public @triton_(%in_ptr0: !tt.ptr<bf16> {tt.divisibility = 16 : i32} loc("in_ptr0"(#loc)), %out_ptr0: !tt.ptr<f32> {tt.divisibility = 16 : i32} loc("out_ptr0"(#loc)), %out_ptr1: !tt.ptr<f32> {tt.divisibility = 16 : i32} loc("out_ptr1"(#loc)), %out_ptr3: !tt.ptr<bf16> {tt.divisibility = 16 : i32} loc("out_ptr3"(#loc)), %xnumel_0: i32 {tt.divisibility = 16 : i32} loc("xnumel_0"(#loc)), %xnumel_1: i32 loc("xnumel_1"(#loc)), %xnumel_2: i32 loc("xnumel_2"(#loc))) attributes {noinline = false} {
    %c2_i32 = arith.constant 2 : i32 loc(#loc1)
    %c10240_i32 = arith.constant 10240 : i32 loc(#loc1)
    %c512_i32 = arith.constant 512 : i32 loc(#loc1)
    %c16_i32 = arith.constant 16 : i32 loc(#loc1)
    %cst = arith.constant dense<0.000000e+00> : tensor<1x512xbf16> loc(#loc1)
    %cst_0 = arith.constant dense<9.99999997E-7> : tensor<1x1xf32> loc(#loc1)
    %cst_1 = arith.constant dense<5.120000e+02> : tensor<1x1xf32> loc(#loc1)
    %cst_2 = arith.constant dense<9216> : tensor<1x512xi32> loc(#loc1)
    %cst_3 = arith.constant dense<8192> : tensor<1x512xi32> loc(#loc1)
    %cst_4 = arith.constant dense<512> : tensor<1x512xi32> loc(#loc1)
    %cst_5 = arith.constant dense<0.000000e+00> : tensor<1x512xf32> loc(#loc1)
    %pid = tt.get_program_id x : i32 loc(#loc96)
    %num_xblocks_1 = arith.addi %xnumel_0, %xnumel_1 : i32 loc(#loc97)
    %num_xblocks_2 = arith.addi %num_xblocks_1, %xnumel_2 : i32 loc(#loc98)
    %0 = arith.cmpi slt, %pid, %xnumel_0 : i32 loc(#loc5)
    scf.if %0 {
      %xmask = tt.splat %0 : i1 -> tensor<1x1xi1> loc(#loc99)
      %r0_base = tt.make_range {end = 512 : i32, start = 0 : i32} : tensor<512xi32> loc(#loc100)
      %r0_base_6 = tt.expand_dims %r0_base {axis = 0 : i32} : tensor<512xi32> -> tensor<1x512xi32> loc(#loc101)
      %x0 = arith.remsi %pid, %c16_i32 : i32 loc(#loc102)
      %x1 = arith.divsi %pid, %c16_i32 : i32 loc(#loc103)
      %r0_mask = arith.cmpi slt, %r0_base_6, %cst_4 : tensor<1x512xi32> loc(#loc104)
      %tmp0 = arith.muli %x0, %c512_i32 : i32 loc(#loc105)
      %tmp0_7 = tt.splat %tmp0 : i32 -> tensor<1x512xi32> loc(#loc167)
      %tmp0_8 = arith.addi %r0_base_6, %tmp0_7 : tensor<1x512xi32> loc(#loc106)
      %tmp0_9 = arith.muli %x1, %c10240_i32 : i32 loc(#loc107)
      %tmp0_10 = tt.splat %tmp0_9 : i32 -> tensor<1x512xi32> loc(#loc168)
      %tmp0_11 = arith.addi %tmp0_8, %tmp0_10 : tensor<1x512xi32> loc(#loc108)
      %tmp0_12 = tt.splat %in_ptr0 : !tt.ptr<bf16> -> tensor<1x512x!tt.ptr<bf16>> loc(#loc109)
      %tmp0_13 = tt.addptr %tmp0_12, %tmp0_11 : tensor<1x512x!tt.ptr<bf16>>, tensor<1x512xi32> loc(#loc109)
      %tmp0_14 = tt.splat %0 : i1 -> tensor<1x512xi1> loc(#loc169)
      %tmp0_15 = arith.andi %r0_mask, %tmp0_14 : tensor<1x512xi1> loc(#loc110)
      %tmp0_16 = tt.load %tmp0_13, %tmp0_15, %cst evictionPolicy = evict_first : tensor<1x512x!tt.ptr<bf16>> loc(#loc111)
      %tmp0_17 = arith.extf %tmp0_16 : tensor<1x512xbf16> to tensor<1x512xf32> loc(#loc112)
      %tmp2 = arith.mulf %tmp0_17, %tmp0_17 : tensor<1x512xf32> loc(#loc113)
      %tmp5 = arith.addf %tmp2, %cst_5 : tensor<1x512xf32> loc(#loc114)
      %_tmp4 = arith.select %tmp0_15, %tmp5, %cst_5 : tensor<1x512xi1>, tensor<1x512xf32> loc(#loc115)
      %tmp4 = "tt.reduce"(%_tmp4) <{axis = 1 : i32}> ({
      ^bb0(%tmp4_19: f32 loc(callsite(#loc1 at #loc116)), %tmp4_20: f32 loc(callsite(#loc1 at #loc116))):
        %tmp4_21 = arith.addf %tmp4_19, %tmp4_20 : f32 loc(#loc182)
        tt.reduce.return %tmp4_21 : f32 loc(#loc170)
      }) : (tensor<1x512xf32>) -> tensor<1xf32> loc(#loc170)
      %tmp4_18 = tt.expand_dims %tmp4 {axis = 1 : i32} : tensor<1xf32> -> tensor<1x1xf32> loc(#loc117)
      %1 = tt.addptr %out_ptr0, %pid : !tt.ptr<f32>, i32 loc(#loc28)
      %2 = tt.splat %1 : !tt.ptr<f32> -> tensor<1x1x!tt.ptr<f32>> loc(#loc28)
      tt.store %2, %tmp4_18, %xmask : tensor<1x1x!tt.ptr<f32>> loc(#loc29)
    } else {
      %1 = arith.cmpi slt, %pid, %num_xblocks_1 : i32 loc(#loc30)
      scf.if %1 {
        %pid_offset = arith.subi %pid, %xnumel_0 : i32 loc(#loc118)
        %xmask = arith.cmpi slt, %pid_offset, %xnumel_1 : i32 loc(#loc119)
        %xmask_6 = tt.splat %xmask : i1 -> tensor<1x1xi1> loc(#loc119)
        %r0_base = tt.make_range {end = 512 : i32, start = 0 : i32} : tensor<512xi32> loc(#loc120)
        %r0_base_7 = tt.expand_dims %r0_base {axis = 0 : i32} : tensor<512xi32> -> tensor<1x512xi32> loc(#loc121)
        %x4 = arith.remsi %pid_offset, %c2_i32 : i32 loc(#loc122)
        %x5 = arith.divsi %pid_offset, %c2_i32 : i32 loc(#loc123)
        %r0_mask = arith.cmpi slt, %r0_base_7, %cst_4 : tensor<1x512xi32> loc(#loc124)
        %tmp6 = arith.addi %r0_base_7, %cst_3 : tensor<1x512xi32> loc(#loc125)
        %tmp6_8 = arith.muli %x4, %c512_i32 : i32 loc(#loc126)
        %tmp6_9 = tt.splat %tmp6_8 : i32 -> tensor<1x512xi32> loc(#loc172)
        %tmp6_10 = arith.addi %tmp6, %tmp6_9 : tensor<1x512xi32> loc(#loc127)
        %tmp6_11 = arith.muli %x5, %c10240_i32 : i32 loc(#loc128)
        %tmp6_12 = tt.splat %tmp6_11 : i32 -> tensor<1x512xi32> loc(#loc173)
        %tmp6_13 = arith.addi %tmp6_10, %tmp6_12 : tensor<1x512xi32> loc(#loc129)
        %tmp6_14 = tt.splat %in_ptr0 : !tt.ptr<bf16> -> tensor<1x512x!tt.ptr<bf16>> loc(#loc130)
        %tmp6_15 = tt.addptr %tmp6_14, %tmp6_13 : tensor<1x512x!tt.ptr<bf16>>, tensor<1x512xi32> loc(#loc130)
        %tmp6_16 = tt.splat %xmask : i1 -> tensor<1x512xi1> loc(#loc174)
        %tmp6_17 = arith.andi %r0_mask, %tmp6_16 : tensor<1x512xi1> loc(#loc131)
        %tmp6_18 = tt.load %tmp6_15, %tmp6_17, %cst evictionPolicy = evict_first : tensor<1x512x!tt.ptr<bf16>> loc(#loc132)
        %tmp6_19 = arith.extf %tmp6_18 : tensor<1x512xbf16> to tensor<1x512xf32> loc(#loc133)
        %tmp8 = arith.mulf %tmp6_19, %tmp6_19 : tensor<1x512xf32> loc(#loc134)
        %tmp11 = arith.addf %tmp8, %cst_5 : tensor<1x512xf32> loc(#loc135)
        %_tmp10 = arith.select %tmp6_17, %tmp11, %cst_5 : tensor<1x512xi1>, tensor<1x512xf32> loc(#loc136)
        %tmp10 = "tt.reduce"(%_tmp10) <{axis = 1 : i32}> ({
        ^bb0(%tmp10_21: f32 loc(callsite(#loc1 at #loc137)), %tmp10_22: f32 loc(callsite(#loc1 at #loc137))):
          %tmp10_23 = arith.addf %tmp10_21, %tmp10_22 : f32 loc(#loc183)
          tt.reduce.return %tmp10_23 : f32 loc(#loc175)
        }) : (tensor<1x512xf32>) -> tensor<1xf32> loc(#loc175)
        %tmp10_20 = tt.expand_dims %tmp10 {axis = 1 : i32} : tensor<1xf32> -> tensor<1x1xf32> loc(#loc138)
        %2 = tt.addptr %out_ptr1, %pid_offset : !tt.ptr<f32>, i32 loc(#loc53)
        %3 = tt.splat %2 : !tt.ptr<f32> -> tensor<1x1x!tt.ptr<f32>> loc(#loc53)
        tt.store %3, %tmp10_20, %xmask_6 : tensor<1x1x!tt.ptr<f32>> loc(#loc54)
      } else {
        %2 = arith.cmpi slt, %pid, %num_xblocks_2 : i32 loc(#loc55)
        scf.if %2 {
          %pid_offset = arith.subi %pid, %num_xblocks_1 : i32 loc(#loc139)
          %xmask = arith.cmpi slt, %pid_offset, %xnumel_2 : i32 loc(#loc140)
          %r0_base = tt.make_range {end = 512 : i32, start = 0 : i32} : tensor<512xi32> loc(#loc141)
          %r0_base_6 = tt.expand_dims %r0_base {axis = 0 : i32} : tensor<512xi32> -> tensor<1x512xi32> loc(#loc142)
          %x8 = arith.remsi %pid_offset, %c2_i32 : i32 loc(#loc143)
          %x9 = arith.divsi %pid_offset, %c2_i32 : i32 loc(#loc144)
          %r0_mask = arith.cmpi slt, %r0_base_6, %cst_4 : tensor<1x512xi32> loc(#loc145)
          %tmp12 = arith.addi %r0_base_6, %cst_2 : tensor<1x512xi32> loc(#loc146)
          %tmp12_7 = arith.muli %x8, %c512_i32 : i32 loc(#loc147)
          %tmp12_8 = tt.splat %tmp12_7 : i32 -> tensor<1x512xi32> loc(#loc177)
          %tmp12_9 = arith.addi %tmp12, %tmp12_8 : tensor<1x512xi32> loc(#loc148)
          %tmp12_10 = arith.muli %x9, %c10240_i32 : i32 loc(#loc149)
          %tmp12_11 = tt.splat %tmp12_10 : i32 -> tensor<1x512xi32> loc(#loc178)
          %tmp12_12 = arith.addi %tmp12_9, %tmp12_11 : tensor<1x512xi32> loc(#loc150)
          %tmp12_13 = tt.splat %in_ptr0 : !tt.ptr<bf16> -> tensor<1x512x!tt.ptr<bf16>> loc(#loc151)
          %tmp12_14 = tt.addptr %tmp12_13, %tmp12_12 : tensor<1x512x!tt.ptr<bf16>>, tensor<1x512xi32> loc(#loc151)
          %tmp12_15 = tt.splat %xmask : i1 -> tensor<1x512xi1> loc(#loc179)
          %tmp12_16 = arith.andi %r0_mask, %tmp12_15 : tensor<1x512xi1> loc(#loc152)
          %tmp12_17 = tt.load %tmp12_14, %tmp12_16, %cst evictionPolicy = evict_last : tensor<1x512x!tt.ptr<bf16>> loc(#loc153)
          %tmp12_18 = arith.extf %tmp12_17 : tensor<1x512xbf16> to tensor<1x512xf32> loc(#loc154)
          %tmp14 = arith.mulf %tmp12_18, %tmp12_18 : tensor<1x512xf32> loc(#loc155)
          %tmp17 = arith.addf %tmp14, %cst_5 : tensor<1x512xf32> loc(#loc156)
          %_tmp16 = arith.select %tmp12_16, %tmp17, %cst_5 : tensor<1x512xi1>, tensor<1x512xf32> loc(#loc157)
          %tmp16 = "tt.reduce"(%_tmp16) <{axis = 1 : i32}> ({
          ^bb0(%tmp16_22: f32 loc(callsite(#loc1 at #loc158)), %tmp16_23: f32 loc(callsite(#loc1 at #loc158))):
            %tmp16_24 = arith.addf %tmp16_22, %tmp16_23 : f32 loc(#loc184)
            tt.reduce.return %tmp16_24 : f32 loc(#loc180)
          }) : (tensor<1x512xf32>) -> tensor<1xf32> loc(#loc180)
          %tmp16_19 = tt.expand_dims %tmp16 {axis = 1 : i32} : tensor<1xf32> -> tensor<1x1xf32> loc(#loc159)
          %tmp18 = tt.load %tmp12_14, %tmp12_16, %cst evictionPolicy = evict_first : tensor<1x512x!tt.ptr<bf16>> loc(#loc160)
          %tmp18_20 = arith.extf %tmp18 : tensor<1x512xbf16> to tensor<1x512xf32> loc(#loc161)
          %tmp21 = arith.divf %tmp16_19, %cst_1 : tensor<1x1xf32> loc(#loc162)
          %tmp23 = arith.addf %tmp21, %cst_0 : tensor<1x1xf32> loc(#loc163)
          %tmp24 = tt.extern_elementwise %tmp23 {libname = "", libpath = "", pure = true, symbol = "__nv_rsqrtf"} : (tensor<1x1xf32>) -> tensor<1x1xf32> loc(#loc164)
          %tmp25 = tt.broadcast %tmp24 : tensor<1x1xf32> -> tensor<1x512xf32> loc(#loc165)
          %tmp25_21 = arith.mulf %tmp18_20, %tmp25 : tensor<1x512xf32> loc(#loc165)
          %3 = arith.muli %pid_offset, %c512_i32 : i32 loc(#loc84)
          %4 = tt.splat %3 : i32 -> tensor<1x512xi32> loc(#loc166)
          %5 = arith.addi %r0_base_6, %4 : tensor<1x512xi32> loc(#loc85)
          %6 = tt.splat %out_ptr3 : !tt.ptr<bf16> -> tensor<1x512x!tt.ptr<bf16>> loc(#loc86)
          %7 = tt.addptr %6, %5 : tensor<1x512x!tt.ptr<bf16>>, tensor<1x512xi32> loc(#loc86)
          %8 = arith.truncf %tmp25_21 : tensor<1x512xf32> to tensor<1x512xbf16> loc(#loc87)
          tt.store %7, %8, %tmp12_16 : tensor<1x512x!tt.ptr<bf16>> loc(#loc87)
        } loc(#loc56)
      } loc(#loc31)
    } loc(#loc6)
    tt.return loc(#loc88)
  } loc(#loc)
} loc(#loc)
#loc2 = loc("/home/ericbuehler/.cache/vllm/torch_compile_cache/torch_aot_compile/90537ea14f244a5187d6ecc853fbadcf440d710f29c8e182fe8151f3f7751a82/inductor_cache/ny/cnyh4ooklbamdjqnz3gja4umbems3u6rb56m54v4yfzdfzic3bbe.py":22:24)
#loc3 = loc("/home/ericbuehler/.cache/vllm/torch_compile_cache/torch_aot_compile/90537ea14f244a5187d6ecc853fbadcf440d710f29c8e182fe8151f3f7751a82/inductor_cache/ny/cnyh4ooklbamdjqnz3gja4umbems3u6rb56m54v4yfzdfzic3bbe.py":24:36)
#loc4 = loc("/home/ericbuehler/.cache/vllm/torch_compile_cache/torch_aot_compile/90537ea14f244a5187d6ecc853fbadcf440d710f29c8e182fe8151f3f7751a82/inductor_cache/ny/cnyh4ooklbamdjqnz3gja4umbems3u6rb56m54v4yfzdfzic3bbe.py":25:36)
#loc5 = loc("/home/ericbuehler/.cache/vllm/torch_compile_cache/torch_aot_compile/90537ea14f244a5187d6ecc853fbadcf440d710f29c8e182fe8151f3f7751a82/inductor_cache/ny/cnyh4ooklbamdjqnz3gja4umbems3u6rb56m54v4yfzdfzic3bbe.py":26:13)
#loc6 = loc("/home/ericbuehler/.cache/vllm/torch_compile_cache/torch_aot_compile/90537ea14f244a5187d6ecc853fbadcf440d710f29c8e182fe8151f3f7751a82/inductor_cache/ny/cnyh4ooklbamdjqnz3gja4umbems3u6rb56m54v4yfzdfzic3bbe.py":26:7)
#loc7 = loc("/home/ericbuehler/.cache/vllm/torch_compile_cache/torch_aot_compile/90537ea14f244a5187d6ecc853fbadcf440d710f29c8e182fe8151f3f7751a82/inductor_cache/ny/cnyh4ooklbamdjqnz3gja4umbems3u6rb56m54v4yfzdfzic3bbe.py":33:25)
#loc8 = loc("/home/ericbuehler/.cache/vllm/torch_compile_cache/torch_aot_compile/90537ea14f244a5187d6ecc853fbadcf440d710f29c8e182fe8151f3f7751a82/inductor_cache/ny/cnyh4ooklbamdjqnz3gja4umbems3u6rb56m54v4yfzdfzic3bbe.py":34:31)
#loc9 = loc("/home/ericbuehler/.cache/vllm/torch_compile_cache/torch_aot_compile/90537ea14f244a5187d6ecc853fbadcf440d710f29c8e182fe8151f3f7751a82/inductor_cache/ny/cnyh4ooklbamdjqnz3gja4umbems3u6rb56m54v4yfzdfzic3bbe.py":34:41)
#loc10 = loc("/home/ericbuehler/.cache/vllm/torch_compile_cache/torch_aot_compile/90537ea14f244a5187d6ecc853fbadcf440d710f29c8e182fe8151f3f7751a82/inductor_cache/ny/cnyh4ooklbamdjqnz3gja4umbems3u6rb56m54v4yfzdfzic3bbe.py":36:23)
#loc11 = loc("/home/ericbuehler/.cache/vllm/torch_compile_cache/torch_aot_compile/90537ea14f244a5187d6ecc853fbadcf440d710f29c8e182fe8151f3f7751a82/inductor_cache/ny/cnyh4ooklbamdjqnz3gja4umbems3u6rb56m54v4yfzdfzic3bbe.py":37:23)
#loc12 = loc("/home/ericbuehler/.cache/vllm/torch_compile_cache/torch_aot_compile/90537ea14f244a5187d6ecc853fbadcf440d710f29c8e182fe8151f3f7751a82/inductor_cache/ny/cnyh4ooklbamdjqnz3gja4umbems3u6rb56m54v4yfzdfzic3bbe.py":42:33)
#loc13 = loc("/home/ericbuehler/.cache/vllm/torch_compile_cache/torch_aot_compile/90537ea14f244a5187d6ecc853fbadcf440d710f29c8e182fe8151f3f7751a82/inductor_cache/ny/cnyh4ooklbamdjqnz3gja4umbems3u6rb56m54v4yfzdfzic3bbe.py":46:49)
#loc14 = loc("/home/ericbuehler/.cache/vllm/torch_compile_cache/torch_aot_compile/90537ea14f244a5187d6ecc853fbadcf440d710f29c8e182fe8151f3f7751a82/inductor_cache/ny/cnyh4ooklbamdjqnz3gja4umbems3u6rb56m54v4yfzdfzic3bbe.py":46:45)
#loc15 = loc("/home/ericbuehler/.cache/vllm/torch_compile_cache/torch_aot_compile/90537ea14f244a5187d6ecc853fbadcf440d710f29c8e182fe8151f3f7751a82/inductor_cache/ny/cnyh4ooklbamdjqnz3gja4umbems3u6rb56m54v4yfzdfzic3bbe.py":46:60)
#loc16 = loc("/home/ericbuehler/.cache/vllm/torch_compile_cache/torch_aot_compile/90537ea14f244a5187d6ecc853fbadcf440d710f29c8e182fe8151f3f7751a82/inductor_cache/ny/cnyh4ooklbamdjqnz3gja4umbems3u6rb56m54v4yfzdfzic3bbe.py":46:54)
#loc17 = loc("/home/ericbuehler/.cache/vllm/torch_compile_cache/torch_aot_compile/90537ea14f244a5187d6ecc853fbadcf440d710f29c8e182fe8151f3f7751a82/inductor_cache/ny/cnyh4ooklbamdjqnz3gja4umbems3u6rb56m54v4yfzdfzic3bbe.py":46:38)
#loc18 = loc("/home/ericbuehler/.cache/vllm/torch_compile_cache/torch_aot_compile/90537ea14f244a5187d6ecc853fbadcf440d710f29c8e182fe8151f3f7751a82/inductor_cache/ny/cnyh4ooklbamdjqnz3gja4umbems3u6rb56m54v4yfzdfzic3bbe.py":46:75)
#loc19 = loc("/home/ericbuehler/.cache/vllm/torch_compile_cache/torch_aot_compile/90537ea14f244a5187d6ecc853fbadcf440d710f29c8e182fe8151f3f7751a82/inductor_cache/ny/cnyh4ooklbamdjqnz3gja4umbems3u6rb56m54v4yfzdfzic3bbe.py":46:65)
#loc20 = loc("/home/ericbuehler/.cache/vllm/torch_compile_cache/torch_aot_compile/90537ea14f244a5187d6ecc853fbadcf440d710f29c8e182fe8151f3f7751a82/inductor_cache/ny/cnyh4ooklbamdjqnz3gja4umbems3u6rb56m54v4yfzdfzic3bbe.py":46:127)
#loc21 = loc("/home/ericbuehler/.cache/vllm/torch_compile_cache/torch_aot_compile/90537ea14f244a5187d6ecc853fbadcf440d710f29c8e182fe8151f3f7751a82/inductor_cache/ny/cnyh4ooklbamdjqnz3gja4umbems3u6rb56m54v4yfzdfzic3bbe.py":48:26)
#loc22 = loc("/home/ericbuehler/.cache/vllm/torch_compile_cache/torch_aot_compile/90537ea14f244a5187d6ecc853fbadcf440d710f29c8e182fe8151f3f7751a82/inductor_cache/ny/cnyh4ooklbamdjqnz3gja4umbems3u6rb56m54v4yfzdfzic3bbe.py":50:27)
#loc23 = loc("/home/ericbuehler/.cache/vllm/torch_compile_cache/torch_aot_compile/90537ea14f244a5187d6ecc853fbadcf440d710f29c8e182fe8151f3f7751a82/inductor_cache/ny/cnyh4ooklbamdjqnz3gja4umbems3u6rb56m54v4yfzdfzic3bbe.py":51:52)
#loc24 = loc("/home/ericbuehler/vllm/.venv-bench/lib/python3.12/site-packages/triton/language/standard.py":293:36)
#loc26 = loc("/home/ericbuehler/vllm/.venv-bench/lib/python3.12/site-packages/triton/language/standard.py":263:15)
#loc27 = loc("/home/ericbuehler/.cache/vllm/torch_compile_cache/torch_aot_compile/90537ea14f244a5187d6ecc853fbadcf440d710f29c8e182fe8151f3f7751a82/inductor_cache/ny/cnyh4ooklbamdjqnz3gja4umbems3u6rb56m54v4yfzdfzic3bbe.py":52:32)
#loc28 = loc("/home/ericbuehler/.cache/vllm/torch_compile_cache/torch_aot_compile/90537ea14f244a5187d6ecc853fbadcf440d710f29c8e182fe8151f3f7751a82/inductor_cache/ny/cnyh4ooklbamdjqnz3gja4umbems3u6rb56m54v4yfzdfzic3bbe.py":53:29)
#loc29 = loc("/home/ericbuehler/.cache/vllm/torch_compile_cache/torch_aot_compile/90537ea14f244a5187d6ecc853fbadcf440d710f29c8e182fe8151f3f7751a82/inductor_cache/ny/cnyh4ooklbamdjqnz3gja4umbems3u6rb56m54v4yfzdfzic3bbe.py":53:40)
#loc30 = loc("/home/ericbuehler/.cache/vllm/torch_compile_cache/torch_aot_compile/90537ea14f244a5187d6ecc853fbadcf440d710f29c8e182fe8151f3f7751a82/inductor_cache/ny/cnyh4ooklbamdjqnz3gja4umbems3u6rb56m54v4yfzdfzic3bbe.py":54:15)
#loc31 = loc("/home/ericbuehler/.cache/vllm/torch_compile_cache/torch_aot_compile/90537ea14f244a5187d6ecc853fbadcf440d710f29c8e182fe8151f3f7751a82/inductor_cache/ny/cnyh4ooklbamdjqnz3gja4umbems3u6rb56m54v4yfzdfzic3bbe.py":54:9)
#loc32 = loc("/home/ericbuehler/.cache/vllm/torch_compile_cache/torch_aot_compile/90537ea14f244a5187d6ecc853fbadcf440d710f29c8e182fe8151f3f7751a82/inductor_cache/ny/cnyh4ooklbamdjqnz3gja4umbems3u6rb56m54v4yfzdfzic3bbe.py":55:27)
#loc33 = loc("/home/ericbuehler/.cache/vllm/torch_compile_cache/torch_aot_compile/90537ea14f244a5187d6ecc853fbadcf440d710f29c8e182fe8151f3f7751a82/inductor_cache/ny/cnyh4ooklbamdjqnz3gja4umbems3u6rb56m54v4yfzdfzic3bbe.py":61:25)
#loc34 = loc("/home/ericbuehler/.cache/vllm/torch_compile_cache/torch_aot_compile/90537ea14f244a5187d6ecc853fbadcf440d710f29c8e182fe8151f3f7751a82/inductor_cache/ny/cnyh4ooklbamdjqnz3gja4umbems3u6rb56m54v4yfzdfzic3bbe.py":62:31)
#loc35 = loc("/home/ericbuehler/.cache/vllm/torch_compile_cache/torch_aot_compile/90537ea14f244a5187d6ecc853fbadcf440d710f29c8e182fe8151f3f7751a82/inductor_cache/ny/cnyh4ooklbamdjqnz3gja4umbems3u6rb56m54v4yfzdfzic3bbe.py":62:41)
#loc36 = loc("/home/ericbuehler/.cache/vllm/torch_compile_cache/torch_aot_compile/90537ea14f244a5187d6ecc853fbadcf440d710f29c8e182fe8151f3f7751a82/inductor_cache/ny/cnyh4ooklbamdjqnz3gja4umbems3u6rb56m54v4yfzdfzic3bbe.py":64:23)
#loc37 = loc("/home/ericbuehler/.cache/vllm/torch_compile_cache/torch_aot_compile/90537ea14f244a5187d6ecc853fbadcf440d710f29c8e182fe8151f3f7751a82/inductor_cache/ny/cnyh4ooklbamdjqnz3gja4umbems3u6rb56m54v4yfzdfzic3bbe.py":65:23)
#loc38 = loc("/home/ericbuehler/.cache/vllm/torch_compile_cache/torch_aot_compile/90537ea14f244a5187d6ecc853fbadcf440d710f29c8e182fe8151f3f7751a82/inductor_cache/ny/cnyh4ooklbamdjqnz3gja4umbems3u6rb56m54v4yfzdfzic3bbe.py":70:33)
#loc39 = loc("/home/ericbuehler/.cache/vllm/torch_compile_cache/torch_aot_compile/90537ea14f244a5187d6ecc853fbadcf440d710f29c8e182fe8151f3f7751a82/inductor_cache/ny/cnyh4ooklbamdjqnz3gja4umbems3u6rb56m54v4yfzdfzic3bbe.py":74:45)
#loc40 = loc("/home/ericbuehler/.cache/vllm/torch_compile_cache/torch_aot_compile/90537ea14f244a5187d6ecc853fbadcf440d710f29c8e182fe8151f3f7751a82/inductor_cache/ny/cnyh4ooklbamdjqnz3gja4umbems3u6rb56m54v4yfzdfzic3bbe.py":74:56)
#loc41 = loc("/home/ericbuehler/.cache/vllm/torch_compile_cache/torch_aot_compile/90537ea14f244a5187d6ecc853fbadcf440d710f29c8e182fe8151f3f7751a82/inductor_cache/ny/cnyh4ooklbamdjqnz3gja4umbems3u6rb56m54v4yfzdfzic3bbe.py":74:52)
#loc42 = loc("/home/ericbuehler/.cache/vllm/torch_compile_cache/torch_aot_compile/90537ea14f244a5187d6ecc853fbadcf440d710f29c8e182fe8151f3f7751a82/inductor_cache/ny/cnyh4ooklbamdjqnz3gja4umbems3u6rb56m54v4yfzdfzic3bbe.py":74:67)
#loc43 = loc("/home/ericbuehler/.cache/vllm/torch_compile_cache/torch_aot_compile/90537ea14f244a5187d6ecc853fbadcf440d710f29c8e182fe8151f3f7751a82/inductor_cache/ny/cnyh4ooklbamdjqnz3gja4umbems3u6rb56m54v4yfzdfzic3bbe.py":74:61)
#loc44 = loc("/home/ericbuehler/.cache/vllm/torch_compile_cache/torch_aot_compile/90537ea14f244a5187d6ecc853fbadcf440d710f29c8e182fe8151f3f7751a82/inductor_cache/ny/cnyh4ooklbamdjqnz3gja4umbems3u6rb56m54v4yfzdfzic3bbe.py":74:38)
#loc45 = loc("/home/ericbuehler/.cache/vllm/torch_compile_cache/torch_aot_compile/90537ea14f244a5187d6ecc853fbadcf440d710f29c8e182fe8151f3f7751a82/inductor_cache/ny/cnyh4ooklbamdjqnz3gja4umbems3u6rb56m54v4yfzdfzic3bbe.py":74:82)
#loc46 = loc("/home/ericbuehler/.cache/vllm/torch_compile_cache/torch_aot_compile/90537ea14f244a5187d6ecc853fbadcf440d710f29c8e182fe8151f3f7751a82/inductor_cache/ny/cnyh4ooklbamdjqnz3gja4umbems3u6rb56m54v4yfzdfzic3bbe.py":74:72)
#loc47 = loc("/home/ericbuehler/.cache/vllm/torch_compile_cache/torch_aot_compile/90537ea14f244a5187d6ecc853fbadcf440d710f29c8e182fe8151f3f7751a82/inductor_cache/ny/cnyh4ooklbamdjqnz3gja4umbems3u6rb56m54v4yfzdfzic3bbe.py":74:134)
#loc48 = loc("/home/ericbuehler/.cache/vllm/torch_compile_cache/torch_aot_compile/90537ea14f244a5187d6ecc853fbadcf440d710f29c8e182fe8151f3f7751a82/inductor_cache/ny/cnyh4ooklbamdjqnz3gja4umbems3u6rb56m54v4yfzdfzic3bbe.py":76:26)
#loc49 = loc("/home/ericbuehler/.cache/vllm/torch_compile_cache/torch_aot_compile/90537ea14f244a5187d6ecc853fbadcf440d710f29c8e182fe8151f3f7751a82/inductor_cache/ny/cnyh4ooklbamdjqnz3gja4umbems3u6rb56m54v4yfzdfzic3bbe.py":78:29)
#loc50 = loc("/home/ericbuehler/.cache/vllm/torch_compile_cache/torch_aot_compile/90537ea14f244a5187d6ecc853fbadcf440d710f29c8e182fe8151f3f7751a82/inductor_cache/ny/cnyh4ooklbamdjqnz3gja4umbems3u6rb56m54v4yfzdfzic3bbe.py":79:54)
#loc52 = loc("/home/ericbuehler/.cache/vllm/torch_compile_cache/torch_aot_compile/90537ea14f244a5187d6ecc853fbadcf440d710f29c8e182fe8151f3f7751a82/inductor_cache/ny/cnyh4ooklbamdjqnz3gja4umbems3u6rb56m54v4yfzdfzic3bbe.py":80:34)
#loc53 = loc("/home/ericbuehler/.cache/vllm/torch_compile_cache/torch_aot_compile/90537ea14f244a5187d6ecc853fbadcf440d710f29c8e182fe8151f3f7751a82/inductor_cache/ny/cnyh4ooklbamdjqnz3gja4umbems3u6rb56m54v4yfzdfzic3bbe.py":81:29)
#loc54 = loc("/home/ericbuehler/.cache/vllm/torch_compile_cache/torch_aot_compile/90537ea14f244a5187d6ecc853fbadcf440d710f29c8e182fe8151f3f7751a82/inductor_cache/ny/cnyh4ooklbamdjqnz3gja4umbems3u6rb56m54v4yfzdfzic3bbe.py":81:41)
#loc55 = loc("/home/ericbuehler/.cache/vllm/torch_compile_cache/torch_aot_compile/90537ea14f244a5187d6ecc853fbadcf440d710f29c8e182fe8151f3f7751a82/inductor_cache/ny/cnyh4ooklbamdjqnz3gja4umbems3u6rb56m54v4yfzdfzic3bbe.py":82:15)
#loc56 = loc("/home/ericbuehler/.cache/vllm/torch_compile_cache/torch_aot_compile/90537ea14f244a5187d6ecc853fbadcf440d710f29c8e182fe8151f3f7751a82/inductor_cache/ny/cnyh4ooklbamdjqnz3gja4umbems3u6rb56m54v4yfzdfzic3bbe.py":82:9)
#loc57 = loc("/home/ericbuehler/.cache/vllm/torch_compile_cache/torch_aot_compile/90537ea14f244a5187d6ecc853fbadcf440d710f29c8e182fe8151f3f7751a82/inductor_cache/ny/cnyh4ooklbamdjqnz3gja4umbems3u6rb56m54v4yfzdfzic3bbe.py":83:27)
#loc58 = loc("/home/ericbuehler/.cache/vllm/torch_compile_cache/torch_aot_compile/90537ea14f244a5187d6ecc853fbadcf440d710f29c8e182fe8151f3f7751a82/inductor_cache/ny/cnyh4ooklbamdjqnz3gja4umbems3u6rb56m54v4yfzdfzic3bbe.py":89:25)
#loc59 = loc("/home/ericbuehler/.cache/vllm/torch_compile_cache/torch_aot_compile/90537ea14f244a5187d6ecc853fbadcf440d710f29c8e182fe8151f3f7751a82/inductor_cache/ny/cnyh4ooklbamdjqnz3gja4umbems3u6rb56m54v4yfzdfzic3bbe.py":90:31)
#loc60 = loc("/home/ericbuehler/.cache/vllm/torch_compile_cache/torch_aot_compile/90537ea14f244a5187d6ecc853fbadcf440d710f29c8e182fe8151f3f7751a82/inductor_cache/ny/cnyh4ooklbamdjqnz3gja4umbems3u6rb56m54v4yfzdfzic3bbe.py":90:41)
#loc61 = loc("/home/ericbuehler/.cache/vllm/torch_compile_cache/torch_aot_compile/90537ea14f244a5187d6ecc853fbadcf440d710f29c8e182fe8151f3f7751a82/inductor_cache/ny/cnyh4ooklbamdjqnz3gja4umbems3u6rb56m54v4yfzdfzic3bbe.py":92:23)
#loc62 = loc("/home/ericbuehler/.cache/vllm/torch_compile_cache/torch_aot_compile/90537ea14f244a5187d6ecc853fbadcf440d710f29c8e182fe8151f3f7751a82/inductor_cache/ny/cnyh4ooklbamdjqnz3gja4umbems3u6rb56m54v4yfzdfzic3bbe.py":93:23)
#loc63 = loc("/home/ericbuehler/.cache/vllm/torch_compile_cache/torch_aot_compile/90537ea14f244a5187d6ecc853fbadcf440d710f29c8e182fe8151f3f7751a82/inductor_cache/ny/cnyh4ooklbamdjqnz3gja4umbems3u6rb56m54v4yfzdfzic3bbe.py":98:33)
#loc64 = loc("/home/ericbuehler/.cache/vllm/torch_compile_cache/torch_aot_compile/90537ea14f244a5187d6ecc853fbadcf440d710f29c8e182fe8151f3f7751a82/inductor_cache/ny/cnyh4ooklbamdjqnz3gja4umbems3u6rb56m54v4yfzdfzic3bbe.py":102:46)
#loc65 = loc("/home/ericbuehler/.cache/vllm/torch_compile_cache/torch_aot_compile/90537ea14f244a5187d6ecc853fbadcf440d710f29c8e182fe8151f3f7751a82/inductor_cache/ny/cnyh4ooklbamdjqnz3gja4umbems3u6rb56m54v4yfzdfzic3bbe.py":102:58)
#loc66 = loc("/home/ericbuehler/.cache/vllm/torch_compile_cache/torch_aot_compile/90537ea14f244a5187d6ecc853fbadcf440d710f29c8e182fe8151f3f7751a82/inductor_cache/ny/cnyh4ooklbamdjqnz3gja4umbems3u6rb56m54v4yfzdfzic3bbe.py":102:54)
#loc67 = loc("/home/ericbuehler/.cache/vllm/torch_compile_cache/torch_aot_compile/90537ea14f244a5187d6ecc853fbadcf440d710f29c8e182fe8151f3f7751a82/inductor_cache/ny/cnyh4ooklbamdjqnz3gja4umbems3u6rb56m54v4yfzdfzic3bbe.py":102:69)
#loc68 = loc("/home/ericbuehler/.cache/vllm/torch_compile_cache/torch_aot_compile/90537ea14f244a5187d6ecc853fbadcf440d710f29c8e182fe8151f3f7751a82/inductor_cache/ny/cnyh4ooklbamdjqnz3gja4umbems3u6rb56m54v4yfzdfzic3bbe.py":102:63)
#loc69 = loc("/home/ericbuehler/.cache/vllm/torch_compile_cache/torch_aot_compile/90537ea14f244a5187d6ecc853fbadcf440d710f29c8e182fe8151f3f7751a82/inductor_cache/ny/cnyh4ooklbamdjqnz3gja4umbems3u6rb56m54v4yfzdfzic3bbe.py":102:39)
#loc70 = loc("/home/ericbuehler/.cache/vllm/torch_compile_cache/torch_aot_compile/90537ea14f244a5187d6ecc853fbadcf440d710f29c8e182fe8151f3f7751a82/inductor_cache/ny/cnyh4ooklbamdjqnz3gja4umbems3u6rb56m54v4yfzdfzic3bbe.py":102:84)
#loc71 = loc("/home/ericbuehler/.cache/vllm/torch_compile_cache/torch_aot_compile/90537ea14f244a5187d6ecc853fbadcf440d710f29c8e182fe8151f3f7751a82/inductor_cache/ny/cnyh4ooklbamdjqnz3gja4umbems3u6rb56m54v4yfzdfzic3bbe.py":102:74)
#loc72 = loc("/home/ericbuehler/.cache/vllm/torch_compile_cache/torch_aot_compile/90537ea14f244a5187d6ecc853fbadcf440d710f29c8e182fe8151f3f7751a82/inductor_cache/ny/cnyh4ooklbamdjqnz3gja4umbems3u6rb56m54v4yfzdfzic3bbe.py":102:135)
#loc73 = loc("/home/ericbuehler/.cache/vllm/torch_compile_cache/torch_aot_compile/90537ea14f244a5187d6ecc853fbadcf440d710f29c8e182fe8151f3f7751a82/inductor_cache/ny/cnyh4ooklbamdjqnz3gja4umbems3u6rb56m54v4yfzdfzic3bbe.py":104:28)
#loc74 = loc("/home/ericbuehler/.cache/vllm/torch_compile_cache/torch_aot_compile/90537ea14f244a5187d6ecc853fbadcf440d710f29c8e182fe8151f3f7751a82/inductor_cache/ny/cnyh4ooklbamdjqnz3gja4umbems3u6rb56m54v4yfzdfzic3bbe.py":106:29)
#loc75 = loc("/home/ericbuehler/.cache/vllm/torch_compile_cache/torch_aot_compile/90537ea14f244a5187d6ecc853fbadcf440d710f29c8e182fe8151f3f7751a82/inductor_cache/ny/cnyh4ooklbamdjqnz3gja4umbems3u6rb56m54v4yfzdfzic3bbe.py":107:54)
#loc77 = loc("/home/ericbuehler/.cache/vllm/torch_compile_cache/torch_aot_compile/90537ea14f244a5187d6ecc853fbadcf440d710f29c8e182fe8151f3f7751a82/inductor_cache/ny/cnyh4ooklbamdjqnz3gja4umbems3u6rb56m54v4yfzdfzic3bbe.py":108:34)
#loc78 = loc("/home/ericbuehler/.cache/vllm/torch_compile_cache/torch_aot_compile/90537ea14f244a5187d6ecc853fbadcf440d710f29c8e182fe8151f3f7751a82/inductor_cache/ny/cnyh4ooklbamdjqnz3gja4umbems3u6rb56m54v4yfzdfzic3bbe.py":115:74)
#loc79 = loc("/home/ericbuehler/.cache/vllm/torch_compile_cache/torch_aot_compile/90537ea14f244a5187d6ecc853fbadcf440d710f29c8e182fe8151f3f7751a82/inductor_cache/ny/cnyh4ooklbamdjqnz3gja4umbems3u6rb56m54v4yfzdfzic3bbe.py":115:136)
#loc80 = loc("/home/ericbuehler/.cache/vllm/torch_compile_cache/torch_aot_compile/90537ea14f244a5187d6ecc853fbadcf440d710f29c8e182fe8151f3f7751a82/inductor_cache/ny/cnyh4ooklbamdjqnz3gja4umbems3u6rb56m54v4yfzdfzic3bbe.py":118:29)
#loc81 = loc("/home/ericbuehler/.cache/vllm/torch_compile_cache/torch_aot_compile/90537ea14f244a5187d6ecc853fbadcf440d710f29c8e182fe8151f3f7751a82/inductor_cache/ny/cnyh4ooklbamdjqnz3gja4umbems3u6rb56m54v4yfzdfzic3bbe.py":120:28)
#loc82 = loc("/home/ericbuehler/.cache/vllm/torch_compile_cache/torch_aot_compile/90537ea14f244a5187d6ecc853fbadcf440d710f29c8e182fe8151f3f7751a82/inductor_cache/ny/cnyh4ooklbamdjqnz3gja4umbems3u6rb56m54v4yfzdfzic3bbe.py":121:36)
#loc83 = loc("/home/ericbuehler/.cache/vllm/torch_compile_cache/torch_aot_compile/90537ea14f244a5187d6ecc853fbadcf440d710f29c8e182fe8151f3f7751a82/inductor_cache/ny/cnyh4ooklbamdjqnz3gja4umbems3u6rb56m54v4yfzdfzic3bbe.py":122:28)
#loc84 = loc("/home/ericbuehler/.cache/vllm/torch_compile_cache/torch_aot_compile/90537ea14f244a5187d6ecc853fbadcf440d710f29c8e182fe8151f3f7751a82/inductor_cache/ny/cnyh4ooklbamdjqnz3gja4umbems3u6rb56m54v4yfzdfzic3bbe.py":124:45)
#loc85 = loc("/home/ericbuehler/.cache/vllm/torch_compile_cache/torch_aot_compile/90537ea14f244a5187d6ecc853fbadcf440d710f29c8e182fe8151f3f7751a82/inductor_cache/ny/cnyh4ooklbamdjqnz3gja4umbems3u6rb56m54v4yfzdfzic3bbe.py":124:41)
#loc86 = loc("/home/ericbuehler/.cache/vllm/torch_compile_cache/torch_aot_compile/90537ea14f244a5187d6ecc853fbadcf440d710f29c8e182fe8151f3f7751a82/inductor_cache/ny/cnyh4ooklbamdjqnz3gja4umbems3u6rb56m54v4yfzdfzic3bbe.py":124:33)
#loc87 = loc("/home/ericbuehler/.cache/vllm/torch_compile_cache/torch_aot_compile/90537ea14f244a5187d6ecc853fbadcf440d710f29c8e182fe8151f3f7751a82/inductor_cache/ny/cnyh4ooklbamdjqnz3gja4umbems3u6rb56m54v4yfzdfzic3bbe.py":124:58)
#loc88 = loc("/home/ericbuehler/.cache/vllm/torch_compile_cache/torch_aot_compile/90537ea14f244a5187d6ecc853fbadcf440d710f29c8e182fe8151f3f7751a82/inductor_cache/ny/cnyh4ooklbamdjqnz3gja4umbems3u6rb56m54v4yfzdfzic3bbe.py":26:4)
#loc96 = loc("pid"(#loc2))
#loc97 = loc("num_xblocks_1"(#loc3))
#loc98 = loc("num_xblocks_2"(#loc4))
#loc99 = loc("xmask"(#loc7))
#loc100 = loc("r0_base"(#loc8))
#loc101 = loc("r0_base"(#loc9))
#loc102 = loc("x0"(#loc10))
#loc103 = loc("x1"(#loc11))
#loc104 = loc("r0_mask"(#loc12))
#loc105 = loc("tmp0"(#loc13))
#loc106 = loc("tmp0"(#loc14))
#loc107 = loc("tmp0"(#loc15))
#loc108 = loc("tmp0"(#loc16))
#loc109 = loc("tmp0"(#loc17))
#loc110 = loc("tmp0"(#loc18))
#loc111 = loc("tmp0"(#loc19))
#loc112 = loc("tmp0"(#loc20))
#loc113 = loc("tmp2"(#loc21))
#loc114 = loc("tmp5"(#loc22))
#loc115 = loc("_tmp4"(#loc23))
#loc117 = loc("tmp4"(#loc27))
#loc118 = loc("pid_offset"(#loc32))
#loc119 = loc("xmask"(#loc33))
#loc120 = loc("r0_base"(#loc34))
#loc121 = loc("r0_base"(#loc35))
#loc122 = loc("x4"(#loc36))
#loc123 = loc("x5"(#loc37))
#loc124 = loc("r0_mask"(#loc38))
#loc125 = loc("tmp6"(#loc39))
#loc126 = loc("tmp6"(#loc40))
#loc127 = loc("tmp6"(#loc41))
#loc128 = loc("tmp6"(#loc42))
#loc129 = loc("tmp6"(#loc43))
#loc130 = loc("tmp6"(#loc44))
#loc131 = loc("tmp6"(#loc45))
#loc132 = loc("tmp6"(#loc46))
#loc133 = loc("tmp6"(#loc47))
#loc134 = loc("tmp8"(#loc48))
#loc135 = loc("tmp11"(#loc49))
#loc136 = loc("_tmp10"(#loc50))
#loc138 = loc("tmp10"(#loc52))
#loc139 = loc("pid_offset"(#loc57))
#loc140 = loc("xmask"(#loc58))
#loc141 = loc("r0_base"(#loc59))
#loc142 = loc("r0_base"(#loc60))
#loc143 = loc("x8"(#loc61))
#loc144 = loc("x9"(#loc62))
#loc145 = loc("r0_mask"(#loc63))
#loc146 = loc("tmp12"(#loc64))
#loc147 = loc("tmp12"(#loc65))
#loc148 = loc("tmp12"(#loc66))
#loc149 = loc("tmp12"(#loc67))
#loc150 = loc("tmp12"(#loc68))
#loc151 = loc("tmp12"(#loc69))
#loc152 = loc("tmp12"(#loc70))
#loc153 = loc("tmp12"(#loc71))
#loc154 = loc("tmp12"(#loc72))
#loc155 = loc("tmp14"(#loc73))
#loc156 = loc("tmp17"(#loc74))
#loc157 = loc("_tmp16"(#loc75))
#loc159 = loc("tmp16"(#loc77))
#loc160 = loc("tmp18"(#loc78))
#loc161 = loc("tmp18"(#loc79))
#loc162 = loc("tmp21"(#loc80))
#loc163 = loc("tmp23"(#loc81))
#loc164 = loc("tmp24"(#loc82))
#loc165 = loc("tmp25"(#loc83))
#loc166 = loc(fused[#loc85, #loc84])
#loc167 = loc(fused[#loc106, #loc105])
#loc168 = loc(fused[#loc108, #loc107])
#loc169 = loc(fused[#loc110, #loc99])
#loc170 = loc(callsite(#loc24 at #loc116))
#loc172 = loc(fused[#loc127, #loc126])
#loc173 = loc(fused[#loc129, #loc128])
#loc174 = loc(fused[#loc131, #loc119])
#loc175 = loc(callsite(#loc24 at #loc137))
#loc177 = loc(fused[#loc148, #loc147])
#loc178 = loc(fused[#loc150, #loc149])
#loc179 = loc(fused[#loc152, #loc140])
#loc180 = loc(callsite(#loc24 at #loc158))
#loc182 = loc(callsite(#loc26 at #loc170))
#loc183 = loc(callsite(#loc26 at #loc175))
#loc184 = loc(callsite(#loc26 at #loc180))
