#loc = loc("/home/ericbuehler/vllm/.venv-bench/lib/python3.12/site-packages/vllm/v1/attention/ops/triton_unified_attention.py":58:0)
#loc1 = loc(unknown)
#loc5 = loc("/home/ericbuehler/vllm/.venv-bench/lib/python3.12/site-packages/vllm/v1/attention/ops/triton_attention_helpers.py":67:68)
#loc6 = loc("/home/ericbuehler/vllm/.venv-bench/lib/python3.12/site-packages/vllm/v1/attention/ops/triton_unified_attention.py":157:73)
#loc8 = loc("left")
#loc9 = loc("right")
#loc136 = loc("/home/ericbuehler/vllm/.venv-bench/lib/python3.12/site-packages/vllm/v1/attention/ops/triton_attention_helpers.py":371:31)
#loc137 = loc("/home/ericbuehler/vllm/.venv-bench/lib/python3.12/site-packages/vllm/v1/attention/ops/triton_unified_attention.py":325:44)
#loc146 = loc("/home/ericbuehler/vllm/.venv-bench/lib/python3.12/site-packages/vllm/v1/attention/ops/triton_attention_helpers.py":378:17)
#loc170 = loc("output_ptr"(#loc))
#loc171 = loc("segm_output_ptr"(#loc))
#loc172 = loc("segm_max_ptr"(#loc))
#loc173 = loc("segm_expsum_ptr"(#loc))
#loc174 = loc("query_ptr"(#loc))
#loc175 = loc("key_cache_ptr"(#loc))
#loc176 = loc("value_cache_ptr"(#loc))
#loc177 = loc("block_tables_ptr"(#loc))
#loc178 = loc("seq_lens_ptr"(#loc))
#loc179 = loc("k_scale_cache_ptr"(#loc))
#loc180 = loc("v_scale_cache_ptr"(#loc))
#loc181 = loc("scale"(#loc))
#loc182 = loc("k_scale"(#loc))
#loc183 = loc("v_scale"(#loc))
#loc184 = loc("out_scale"(#loc))
#loc185 = loc("softcap"(#loc))
#loc186 = loc("block_table_stride"(#loc))
#loc187 = loc("query_stride_0"(#loc))
#loc188 = loc("query_stride_1"(#loc))
#loc189 = loc("output_stride_0"(#loc))
#loc190 = loc("output_stride_1"(#loc))
#loc191 = loc("qq_bias_stride_0"(#loc))
#loc192 = loc("stride_k_cache_0"(#loc))
#loc193 = loc("stride_k_cache_1"(#loc))
#loc194 = loc("stride_k_cache_2"(#loc))
#loc195 = loc("stride_v_cache_0"(#loc))
#loc196 = loc("stride_v_cache_1"(#loc))
#loc197 = loc("stride_v_cache_2"(#loc))
#loc198 = loc("stride_ks_blk"(#loc))
#loc199 = loc("stride_ks_slot"(#loc))
#loc200 = loc("stride_ks_head"(#loc))
#loc201 = loc("stride_vs_blk"(#loc))
#loc202 = loc("stride_vs_slot"(#loc))
#loc203 = loc("stride_vs_head"(#loc))
#loc204 = loc("query_start_len_ptr"(#loc))
#loc205 = loc("num_seqs"(#loc))
#loc209 = loc("seq_idx"(#loc5))
#loc210 = loc("left"(#loc8))
#loc211 = loc("right"(#loc9))
#loc327 = loc("m_j"(#loc136))
#loc334 = loc("l_j"(#loc146))
#loc354 = loc(callsite(#loc209 at #loc6))
#loc387 = loc(callsite(#loc327 at #loc137))
#loc394 = loc(callsite(#loc334 at #loc137))
#loc401 = loc(callsite(#loc210 at #loc354))
#loc402 = loc(callsite(#loc211 at #loc354))
#loc418 = loc(callsite(#loc1 at #loc387))
#loc420 = loc(callsite(#loc1 at #loc394))
module {
  tt.func public @kernel_unified_attention(%output_ptr: !tt.ptr<bf16> {tt.divisibility = 16 : i32} loc("output_ptr"(#loc)), %segm_output_ptr: !tt.ptr<bf16> {tt.divisibility = 16 : i32} loc("segm_output_ptr"(#loc)), %segm_max_ptr: !tt.ptr<bf16> {tt.divisibility = 16 : i32} loc("segm_max_ptr"(#loc)), %segm_expsum_ptr: !tt.ptr<bf16> {tt.divisibility = 16 : i32} loc("segm_expsum_ptr"(#loc)), %query_ptr: !tt.ptr<bf16> {tt.divisibility = 16 : i32} loc("query_ptr"(#loc)), %key_cache_ptr: !tt.ptr<bf16> {tt.divisibility = 16 : i32} loc("key_cache_ptr"(#loc)), %value_cache_ptr: !tt.ptr<bf16> {tt.divisibility = 16 : i32} loc("value_cache_ptr"(#loc)), %block_tables_ptr: !tt.ptr<i32> {tt.divisibility = 16 : i32} loc("block_tables_ptr"(#loc)), %seq_lens_ptr: !tt.ptr<i32> {tt.divisibility = 16 : i32} loc("seq_lens_ptr"(#loc)), %k_scale_cache_ptr: !tt.ptr<bf16> {tt.divisibility = 16 : i32} loc("k_scale_cache_ptr"(#loc)), %v_scale_cache_ptr: !tt.ptr<bf16> {tt.divisibility = 16 : i32} loc("v_scale_cache_ptr"(#loc)), %scale: f32 loc("scale"(#loc)), %k_scale: !tt.ptr<f32> {tt.divisibility = 16 : i32} loc("k_scale"(#loc)), %v_scale: !tt.ptr<f32> {tt.divisibility = 16 : i32} loc("v_scale"(#loc)), %out_scale: f32 loc("out_scale"(#loc)), %softcap: i32 {tt.divisibility = 16 : i32} loc("softcap"(#loc)), %block_table_stride: i64 loc("block_table_stride"(#loc)), %query_stride_0: i64 {tt.divisibility = 16 : i32} loc("query_stride_0"(#loc)), %query_stride_1: i64 {tt.divisibility = 16 : i32} loc("query_stride_1"(#loc)), %output_stride_0: i64 {tt.divisibility = 16 : i32} loc("output_stride_0"(#loc)), %output_stride_1: i64 {tt.divisibility = 16 : i32} loc("output_stride_1"(#loc)), %qq_bias_stride_0: i64 {tt.divisibility = 16 : i32} loc("qq_bias_stride_0"(#loc)), %stride_k_cache_0: i64 {tt.divisibility = 16 : i32} loc("stride_k_cache_0"(#loc)), %stride_k_cache_1: i64 {tt.divisibility = 16 : i32} loc("stride_k_cache_1"(#loc)), %stride_k_cache_2: i64 {tt.divisibility = 16 : i32} loc("stride_k_cache_2"(#loc)), %stride_v_cache_0: i64 {tt.divisibility = 16 : i32} loc("stride_v_cache_0"(#loc)), %stride_v_cache_1: i64 {tt.divisibility = 16 : i32} loc("stride_v_cache_1"(#loc)), %stride_v_cache_2: i64 {tt.divisibility = 16 : i32} loc("stride_v_cache_2"(#loc)), %stride_ks_blk: i64 {tt.divisibility = 16 : i32} loc("stride_ks_blk"(#loc)), %stride_ks_slot: i64 {tt.divisibility = 16 : i32} loc("stride_ks_slot"(#loc)), %stride_ks_head: i64 {tt.divisibility = 16 : i32} loc("stride_ks_head"(#loc)), %stride_vs_blk: i64 {tt.divisibility = 16 : i32} loc("stride_vs_blk"(#loc)), %stride_vs_slot: i64 {tt.divisibility = 16 : i32} loc("stride_vs_slot"(#loc)), %stride_vs_head: i64 {tt.divisibility = 16 : i32} loc("stride_vs_head"(#loc)), %query_start_len_ptr: !tt.ptr<i32> {tt.divisibility = 16 : i32} loc("query_start_len_ptr"(#loc)), %num_seqs: i32 {tt.divisibility = 16 : i32} loc("num_seqs"(#loc))) attributes {noinline = false} {
    %cst = arith.constant dense<0.000000e+00> : tensor<16xf32> loc(#loc1)
    %cst_0 = arith.constant dense<1024> : tensor<16x32xi32> loc(#loc1)
    %c7_i32 = arith.constant 7 : i32 loc(#loc1)
    %c-1023_i32 = arith.constant -1023 : i32 loc(#loc1)
    %c31_i32 = arith.constant 31 : i32 loc(#loc1)
    %cst_1 = arith.constant dense<0xFF800000> : tensor<16xf32> loc(#loc1)
    %cst_2 = arith.constant dense<0.000000e+00> : tensor<256x32xbf16> loc(#loc1)
    %c1_i32 = arith.constant 1 : i32 loc(#loc1)
    %cst_3 = arith.constant dense<0.000000e+00> : tensor<16x256xbf16> loc(#loc1)
    %cst_4 = arith.constant dense<0.000000e+00> : tensor<32x256xbf16> loc(#loc1)
    %cst_5 = arith.constant dense<1024> : tensor<32x1xi32> loc(#loc1)
    %cst_6 = arith.constant dense<0xFF800000> : tensor<16x32xf32> loc(#loc1)
    %cst_7 = arith.constant dense<0.000000e+00> : tensor<16x32xf32> loc(#loc1)
    %cst_8 = arith.constant dense<16> : tensor<32xi32> loc(#loc1)
    %c32_i32 = arith.constant 32 : i32 loc(#loc1)
    %cst_9 = arith.constant dense<1.000000e+00> : tensor<16xf32> loc(#loc1)
    %cst_10 = arith.constant dense<0.000000e+00> : tensor<16x256xf32> loc(#loc1)
    %cst_11 = arith.constant dense<16> : tensor<16xi32> loc(#loc1)
    %cst_12 = arith.constant dense<0> : tensor<16xi32> loc(#loc1)
    %cst_13 = arith.constant dense<1> : tensor<16xi32> loc(#loc1)
    %cst_14 = arith.constant dense<0> : tensor<256xi32> loc(#loc1)
    %cst_15 = arith.constant dense<1> : tensor<256xi32> loc(#loc1)
    %cst_16 = arith.constant dense<256> : tensor<256xi32> loc(#loc1)
    %cst_17 = arith.constant dense<2> : tensor<16xi32> loc(#loc1)
    %c2_i32 = arith.constant 2 : i32 loc(#loc1)
    %c8_i32 = arith.constant 8 : i32 loc(#loc1)
    %c0_i32 = arith.constant 0 : i32 loc(#loc1)
    %q_block_global_idx = tt.get_program_id x : i32 loc(#loc206)
    %kv_head_idx = tt.get_program_id y : i32 loc(#loc207)
    %right:2 = scf.while (%left = %c0_i32, %right_77 = %num_seqs) : (i32, i32) -> (i32, i32) {
      %seq_idx_78 = arith.cmpi slt, %left, %right_77 : i32 loc(#loc400)
      scf.condition(%seq_idx_78) %left, %right_77 : i32, i32 loc(#loc400)
    } do {
    ^bb0(%left: i32 loc(callsite(#loc210 at #loc354)), %right_77: i32 loc(callsite(#loc211 at #loc354))):
      %mid = arith.addi %left, %right_77 : i32 loc(#loc403)
      %right_78 = arith.divsi %mid, %c2_i32 : i32 loc(#loc404)
      %val = tt.addptr %query_start_len_ptr, %right_78 : !tt.ptr<i32>, i32 loc(#loc405)
      %val_79 = tt.load %val : !tt.ptr<i32> loc(#loc406)
      %mid_val = arith.divsi %val_79, %c8_i32 : i32 loc(#loc407)
      %mid_val_80 = arith.addi %mid_val, %right_78 : i32 loc(#loc408)
      %seq_idx_81 = arith.cmpi sle, %mid_val_80, %q_block_global_idx : i32 loc(#loc409)
      %seq_idx_82 = arith.select %seq_idx_81, %right_77, %right_78 : i32 loc(#loc410)
      %seq_idx_83 = scf.if %seq_idx_81 -> (i32) {
        %left_84 = arith.addi %right_78, %c1_i32 : i32 loc(#loc411)
        scf.yield %left_84 : i32 loc(#loc411)
      } else {
        scf.yield %left : i32 loc(#loc410)
      } loc(#loc410)
      scf.yield %seq_idx_83, %seq_idx_82 : i32, i32 loc(#loc412)
    } loc(#loc399)
    %seq_idx = arith.subi %right#0, %c1_i32 : i32 loc(#loc413)
    %q_block_start_idx = tt.addptr %query_start_len_ptr, %seq_idx : !tt.ptr<i32>, i32 loc(#loc357)
    %q_block_start_idx_18 = tt.load %q_block_start_idx : !tt.ptr<i32> loc(#loc358)
    %q_block_start_idx_19 = arith.divsi %q_block_start_idx_18, %c8_i32 : i32 loc(#loc359)
    %q_block_start_idx_20 = arith.addi %q_block_start_idx_19, %seq_idx : i32 loc(#loc360)
    %q_block_local_idx = arith.subi %q_block_global_idx, %q_block_start_idx_20 : i32 loc(#loc361)
    %cur_stop = tt.addptr %q_block_start_idx, %c1_i32 : !tt.ptr<i32>, i32 loc(#loc362)
    %cur_stop_21 = tt.load %cur_stop : !tt.ptr<i32> loc(#loc363)
    %cur_batch_query_len = arith.subi %cur_stop_21, %q_block_start_idx_18 : i32 loc(#loc364)
    %seq_len = tt.addptr %seq_lens_ptr, %seq_idx : !tt.ptr<i32>, i32 loc(#loc365)
    %seq_len_22 = tt.load %seq_len : !tt.ptr<i32> loc(#loc366)
    %0 = arith.muli %q_block_local_idx, %c8_i32 : i32 loc(#loc31)
    %1 = arith.cmpi sge, %0, %cur_batch_query_len : i32 loc(#loc32)
    cf.cond_br %1, ^bb1, ^bb2 loc(#loc32)
  ^bb1:  // pred: ^bb0
    tt.return loc(#loc33)
  ^bb2:  // pred: ^bb0
    %offs_m = tt.make_range {end = 16 : i32, start = 0 : i32} : tensor<16xi32> loc(#loc229)
    %offs_d = tt.make_range {end = 256 : i32, start = 0 : i32} : tensor<256xi32> loc(#loc230)
    %offs_t = tt.make_range {end = 32 : i32, start = 0 : i32} : tensor<32xi32> loc(#loc231)
    %query_pos = arith.divsi %offs_m, %cst_17 : tensor<16xi32> loc(#loc232)
    %query_pos_23 = tt.splat %0 : i32 -> tensor<16xi32> loc(#loc233)
    %query_pos_24 = arith.addi %query_pos_23, %query_pos : tensor<16xi32> loc(#loc233)
    %query_offset_0 = tt.splat %q_block_start_idx_18 : i32 -> tensor<16xi32> loc(#loc234)
    %query_offset_0_25 = arith.addi %query_offset_0, %query_pos_24 : tensor<16xi32> loc(#loc234)
    %query_offset_1 = arith.muli %kv_head_idx, %c2_i32 : i32 loc(#loc235)
    %query_offset_1_26 = arith.remsi %offs_m, %cst_17 : tensor<16xi32> loc(#loc236)
    %query_offset_1_27 = tt.splat %query_offset_1 : i32 -> tensor<16xi32> loc(#loc237)
    %query_offset_1_28 = arith.addi %query_offset_1_27, %query_offset_1_26 : tensor<16xi32> loc(#loc237)
    %query_offset = tt.expand_dims %query_offset_0_25 {axis = 1 : i32} : tensor<16xi32> -> tensor<16x1xi32> loc(#loc238)
    %query_offset_29 = arith.extsi %query_offset : tensor<16x1xi32> to tensor<16x1xi64> loc(#loc239)
    %query_offset_30 = tt.splat %query_stride_0 : i64 -> tensor<16x1xi64> loc(#loc239)
    %query_offset_31 = arith.muli %query_offset_29, %query_offset_30 : tensor<16x1xi64> loc(#loc239)
    %query_offset_32 = tt.expand_dims %query_offset_1_28 {axis = 1 : i32} : tensor<16xi32> -> tensor<16x1xi32> loc(#loc240)
    %query_offset_33 = arith.extsi %query_offset_32 : tensor<16x1xi32> to tensor<16x1xi64> loc(#loc241)
    %query_offset_34 = tt.splat %query_stride_1 : i64 -> tensor<16x1xi64> loc(#loc241)
    %query_offset_35 = arith.muli %query_offset_33, %query_offset_34 : tensor<16x1xi64> loc(#loc241)
    %query_offset_36 = arith.addi %query_offset_31, %query_offset_35 : tensor<16x1xi64> loc(#loc242)
    %query_offset_37 = tt.expand_dims %offs_d {axis = 0 : i32} : tensor<256xi32> -> tensor<1x256xi32> loc(#loc243)
    %query_offset_38 = arith.extsi %query_offset_37 : tensor<1x256xi32> to tensor<1x256xi64> loc(#loc244)
    %query_offset_39 = tt.broadcast %query_offset_36 : tensor<16x1xi64> -> tensor<16x256xi64> loc(#loc244)
    %query_offset_40 = tt.broadcast %query_offset_38 : tensor<1x256xi64> -> tensor<16x256xi64> loc(#loc244)
    %query_offset_41 = arith.addi %query_offset_39, %query_offset_40 : tensor<16x256xi64> loc(#loc244)
    %dim_mask = arith.cmpi slt, %offs_d, %cst_16 : tensor<256xi32> loc(#loc245)
    %dim_mask_42 = arith.select %dim_mask, %cst_15, %cst_14 : tensor<256xi1>, tensor<256xi32> loc(#loc246)
    %dim_mask_43 = arith.cmpi ne, %dim_mask_42, %cst_14 : tensor<256xi32> loc(#loc247)
    %query_mask_0 = tt.splat %cur_batch_query_len : i32 -> tensor<16xi32> loc(#loc248)
    %query_mask_0_44 = arith.cmpi slt, %query_pos_24, %query_mask_0 : tensor<16xi32> loc(#loc248)
    %query_mask_0_45 = arith.select %query_mask_0_44, %cst_13, %cst_12 : tensor<16xi1>, tensor<16xi32> loc(#loc249)
    %query_mask_0_46 = arith.cmpi ne, %query_mask_0_45, %cst_12 : tensor<16xi32> loc(#loc250)
    %query_mask_1 = arith.cmpi slt, %query_offset_1_28, %cst_11 : tensor<16xi32> loc(#loc251)
    %query_mask_1_47 = arith.select %query_mask_1, %cst_13, %cst_12 : tensor<16xi1>, tensor<16xi32> loc(#loc252)
    %query_mask_1_48 = arith.cmpi ne, %query_mask_1_47, %cst_12 : tensor<16xi32> loc(#loc253)
    %Q = tt.expand_dims %dim_mask_43 {axis = 0 : i32} : tensor<256xi1> -> tensor<1x256xi1> loc(#loc254)
    %Q_49 = tt.expand_dims %query_mask_0_46 {axis = 1 : i32} : tensor<16xi1> -> tensor<16x1xi1> loc(#loc255)
    %Q_50 = tt.broadcast %Q : tensor<1x256xi1> -> tensor<16x256xi1> loc(#loc256)
    %Q_51 = tt.broadcast %Q_49 : tensor<16x1xi1> -> tensor<16x256xi1> loc(#loc256)
    %Q_52 = arith.andi %Q_50, %Q_51 : tensor<16x256xi1> loc(#loc256)
    %Q_53 = tt.expand_dims %query_mask_1_48 {axis = 1 : i32} : tensor<16xi1> -> tensor<16x1xi1> loc(#loc257)
    %Q_54 = tt.broadcast %Q_53 : tensor<16x1xi1> -> tensor<16x256xi1> loc(#loc258)
    %Q_55 = arith.andi %Q_52, %Q_54 : tensor<16x256xi1> loc(#loc258)
    %Q_56 = tt.splat %query_ptr : !tt.ptr<bf16> -> tensor<16x256x!tt.ptr<bf16>> loc(#loc259)
    %Q_57 = tt.addptr %Q_56, %query_offset_41 : tensor<16x256x!tt.ptr<bf16>>, tensor<16x256xi64> loc(#loc259)
    %Q_58 = tt.load %Q_57, %Q_55, %cst_3 : tensor<16x256x!tt.ptr<bf16>> loc(#loc260)
    %block_table_offset = arith.extsi %seq_idx : i32 to i64 loc(#loc261)
    %block_table_offset_59 = arith.muli %block_table_offset, %block_table_stride : i64 loc(#loc261)
    %context_len = arith.subi %seq_len_22, %cur_batch_query_len : i32 loc(#loc262)
    %max_seq_prefix_len = arith.addi %context_len, %0 : i32 loc(#loc367)
    %max_seq_prefix_len_60 = arith.addi %max_seq_prefix_len, %c8_i32 : i32 loc(#loc368)
    %max_seq_prefix_len_61 = arith.minsi %max_seq_prefix_len_60, %seq_len_22 : i32 loc(#loc369)
    %num_tiles = arith.addi %max_seq_prefix_len_61, %c31_i32 : i32 loc(#loc414)
    %num_tiles_62 = arith.divsi %num_tiles, %c32_i32 : i32 loc(#loc415)
    %qpos_hi = arith.addi %0, %c7_i32 : i32 loc(#loc371)
    %qpos_hi_63 = arith.subi %cur_batch_query_len, %c1_i32 : i32 loc(#loc372)
    %qpos_hi_64 = arith.minsi %qpos_hi, %qpos_hi_63 : i32 loc(#loc373)
    %first_allowed_key = arith.addi %max_seq_prefix_len, %c-1023_i32 : i32 loc(#loc374)
    %last_allowed_key = arith.addi %context_len, %qpos_hi_64 : i32 loc(#loc375)
    %tile_start = arith.divsi %first_allowed_key, %c32_i32 : i32 loc(#loc376)
    %tile_start_65 = arith.maxsi %tile_start, %c0_i32 : i32 loc(#loc377)
    %tile_end = arith.divsi %last_allowed_key, %c32_i32 : i32 loc(#loc378)
    %tile_end_66 = arith.addi %tile_end, %c1_i32 : i32 loc(#loc379)
    %tile_end_67 = arith.minsi %tile_end_66, %num_tiles_62 : i32 loc(#loc380)
    %acc:3 = scf.for %j = %tile_start_65 to %tile_end_67 step %c1_i32 iter_args(%M = %cst_1, %L = %cst_9, %acc_77 = %cst_10) -> (tensor<16xf32>, tensor<16xf32>, tensor<16x256xf32>)  : i32 {
      %seq_offset = arith.muli %j, %c32_i32 : i32 loc(#loc278)
      %seq_offset_78 = tt.splat %seq_offset : i32 -> tensor<32xi32> loc(#loc279)
      %seq_offset_79 = arith.addi %seq_offset_78, %offs_t : tensor<32xi32> loc(#loc279)
      %tile_mask = tt.splat %max_seq_prefix_len_61 : i32 -> tensor<32xi32> loc(#loc280)
      %tile_mask_80 = arith.cmpi slt, %seq_offset_79, %tile_mask : tensor<32xi32> loc(#loc280)
      %physical_block_idx = tt.addptr %block_tables_ptr, %block_table_offset_59 : !tt.ptr<i32>, i64 loc(#loc281)
      %physical_block_idx_81 = arith.divsi %seq_offset_79, %cst_8 : tensor<32xi32> loc(#loc282)
      %physical_block_idx_82 = tt.splat %physical_block_idx : !tt.ptr<i32> -> tensor<32x!tt.ptr<i32>> loc(#loc283)
      %physical_block_idx_83 = tt.addptr %physical_block_idx_82, %physical_block_idx_81 : tensor<32x!tt.ptr<i32>>, tensor<32xi32> loc(#loc283)
      %physical_block_idx_84 = tt.load %physical_block_idx_83 : tensor<32x!tt.ptr<i32>> loc(#loc284)
      %physical_block_idx_85 = arith.extsi %physical_block_idx_84 : tensor<32xi32> to tensor<32xi64> loc(#loc285)
      %v_offset = tt.expand_dims %physical_block_idx_85 {axis = 1 : i32} : tensor<32xi64> -> tensor<32x1xi64> loc(#loc286)
      %v_offset_86 = tt.splat %stride_v_cache_0 : i64 -> tensor<32x1xi64> loc(#loc287)
      %v_offset_87 = arith.muli %v_offset, %v_offset_86 : tensor<32x1xi64> loc(#loc287)
      %v_offset_88 = arith.extsi %kv_head_idx : i32 to i64 loc(#loc288)
      %v_offset_89 = arith.muli %v_offset_88, %stride_v_cache_2 : i64 loc(#loc288)
      %v_offset_90 = tt.splat %v_offset_89 : i64 -> tensor<32x1xi64> loc(#loc289)
      %v_offset_91 = arith.addi %v_offset_87, %v_offset_90 : tensor<32x1xi64> loc(#loc289)
      %v_offset_92 = tt.broadcast %v_offset_91 : tensor<32x1xi64> -> tensor<32x256xi64> loc(#loc290)
      %v_offset_93 = tt.broadcast %query_offset_38 : tensor<1x256xi64> -> tensor<32x256xi64> loc(#loc290)
      %v_offset_94 = arith.addi %v_offset_92, %v_offset_93 : tensor<32x256xi64> loc(#loc290)
      %v_offset_95 = arith.remsi %seq_offset_79, %cst_8 : tensor<32xi32> loc(#loc291)
      %v_offset_96 = tt.expand_dims %v_offset_95 {axis = 1 : i32} : tensor<32xi32> -> tensor<32x1xi32> loc(#loc292)
      %v_offset_97 = arith.extsi %v_offset_96 : tensor<32x1xi32> to tensor<32x1xi64> loc(#loc293)
      %v_offset_98 = tt.splat %stride_v_cache_1 : i64 -> tensor<32x1xi64> loc(#loc293)
      %v_offset_99 = arith.muli %v_offset_97, %v_offset_98 : tensor<32x1xi64> loc(#loc293)
      %v_offset_100 = tt.broadcast %v_offset_99 : tensor<32x1xi64> -> tensor<32x256xi64> loc(#loc294)
      %v_offset_101 = arith.addi %v_offset_94, %v_offset_100 : tensor<32x256xi64> loc(#loc294)
      %k_offset = tt.expand_dims %physical_block_idx_85 {axis = 0 : i32} : tensor<32xi64> -> tensor<1x32xi64> loc(#loc295)
      %k_offset_102 = tt.splat %stride_k_cache_0 : i64 -> tensor<1x32xi64> loc(#loc296)
      %k_offset_103 = arith.muli %k_offset, %k_offset_102 : tensor<1x32xi64> loc(#loc296)
      %k_offset_104 = arith.muli %v_offset_88, %stride_k_cache_2 : i64 loc(#loc297)
      %k_offset_105 = tt.splat %k_offset_104 : i64 -> tensor<1x32xi64> loc(#loc298)
      %k_offset_106 = arith.addi %k_offset_103, %k_offset_105 : tensor<1x32xi64> loc(#loc298)
      %k_offset_107 = tt.expand_dims %offs_d {axis = 1 : i32} : tensor<256xi32> -> tensor<256x1xi32> loc(#loc299)
      %k_offset_108 = arith.extsi %k_offset_107 : tensor<256x1xi32> to tensor<256x1xi64> loc(#loc300)
      %k_offset_109 = tt.broadcast %k_offset_106 : tensor<1x32xi64> -> tensor<256x32xi64> loc(#loc300)
      %k_offset_110 = tt.broadcast %k_offset_108 : tensor<256x1xi64> -> tensor<256x32xi64> loc(#loc300)
      %k_offset_111 = arith.addi %k_offset_109, %k_offset_110 : tensor<256x32xi64> loc(#loc300)
      %k_offset_112 = tt.expand_dims %v_offset_95 {axis = 0 : i32} : tensor<32xi32> -> tensor<1x32xi32> loc(#loc301)
      %k_offset_113 = arith.extsi %k_offset_112 : tensor<1x32xi32> to tensor<1x32xi64> loc(#loc302)
      %k_offset_114 = tt.splat %stride_k_cache_1 : i64 -> tensor<1x32xi64> loc(#loc302)
      %k_offset_115 = arith.muli %k_offset_113, %k_offset_114 : tensor<1x32xi64> loc(#loc302)
      %k_offset_116 = tt.broadcast %k_offset_115 : tensor<1x32xi64> -> tensor<256x32xi64> loc(#loc303)
      %k_offset_117 = arith.addi %k_offset_111, %k_offset_116 : tensor<256x32xi64> loc(#loc303)
      %K_load = tt.expand_dims %dim_mask_43 {axis = 1 : i32} : tensor<256xi1> -> tensor<256x1xi1> loc(#loc304)
      %K_load_118 = tt.expand_dims %tile_mask_80 {axis = 0 : i32} : tensor<32xi1> -> tensor<1x32xi1> loc(#loc305)
      %K_load_119 = tt.broadcast %K_load : tensor<256x1xi1> -> tensor<256x32xi1> loc(#loc306)
      %K_load_120 = tt.broadcast %K_load_118 : tensor<1x32xi1> -> tensor<256x32xi1> loc(#loc306)
      %K_load_121 = arith.andi %K_load_119, %K_load_120 : tensor<256x32xi1> loc(#loc306)
      %K_load_122 = tt.splat %key_cache_ptr : !tt.ptr<bf16> -> tensor<256x32x!tt.ptr<bf16>> loc(#loc307)
      %K_load_123 = tt.addptr %K_load_122, %k_offset_117 : tensor<256x32x!tt.ptr<bf16>>, tensor<256x32xi64> loc(#loc307)
      %K_load_124 = tt.load %K_load_123, %K_load_121, %cst_2 : tensor<256x32x!tt.ptr<bf16>> loc(#loc308)
      %V_load = tt.expand_dims %tile_mask_80 {axis = 1 : i32} : tensor<32xi1> -> tensor<32x1xi1> loc(#loc309)
      %V_load_125 = tt.broadcast %Q : tensor<1x256xi1> -> tensor<32x256xi1> loc(#loc310)
      %V_load_126 = tt.broadcast %V_load : tensor<32x1xi1> -> tensor<32x256xi1> loc(#loc310)
      %V_load_127 = arith.andi %V_load_125, %V_load_126 : tensor<32x256xi1> loc(#loc310)
      %V_load_128 = tt.splat %value_cache_ptr : !tt.ptr<bf16> -> tensor<32x256x!tt.ptr<bf16>> loc(#loc311)
      %V_load_129 = tt.addptr %V_load_128, %v_offset_101 : tensor<32x256x!tt.ptr<bf16>>, tensor<32x256xi64> loc(#loc311)
      %V_load_130 = tt.load %V_load_129, %V_load_127, %cst_4 : tensor<32x256x!tt.ptr<bf16>> loc(#loc312)
      %query_abs_pos = tt.expand_dims %query_pos_24 {axis = 1 : i32} : tensor<16xi32> -> tensor<16x1xi32> loc(#loc313)
      %query_abs_pos_131 = tt.splat %context_len : i32 -> tensor<16x1xi32> loc(#loc314)
      %query_abs_pos_132 = arith.addi %query_abs_pos_131, %query_abs_pos : tensor<16x1xi32> loc(#loc314)
      %seq_mask = tt.expand_dims %seq_offset_79 {axis = 0 : i32} : tensor<32xi32> -> tensor<1x32xi32> loc(#loc382)
      %seq_mask_133 = tt.broadcast %seq_mask : tensor<1x32xi32> -> tensor<16x32xi32> loc(#loc383)
      %seq_mask_134 = tt.broadcast %query_abs_pos_132 : tensor<16x1xi32> -> tensor<16x32xi32> loc(#loc383)
      %seq_mask_135 = arith.cmpi sle, %seq_mask_133, %seq_mask_134 : tensor<16x32xi32> loc(#loc383)
      %seq_mask_136 = arith.subi %seq_mask_134, %seq_mask_133 : tensor<16x32xi32> loc(#loc384)
      %seq_mask_137 = arith.cmpi slt, %seq_mask_136, %cst_0 : tensor<16x32xi32> loc(#loc385)
      %seq_mask_138 = arith.andi %seq_mask_135, %seq_mask_137 : tensor<16x32xi1> loc(#loc386)
      %S = tt.dot %Q_58, %K_load_124, %cst_7, inputPrecision = tf32 : tensor<16x256xbf16> * tensor<256x32xbf16> -> tensor<16x32xf32> loc(#loc321)
      %S_139 = tt.splat %scale : f32 -> tensor<16x32xf32> loc(#loc322)
      %S_140 = arith.mulf %S_139, %S : tensor<16x32xf32> loc(#loc322)
      %S_141 = arith.addf %S_140, %cst_7 : tensor<16x32xf32> loc(#loc323)
      %S_142 = arith.andi %Q_53, %Q_49 : tensor<16x1xi1> loc(#loc324)
      %S_143 = tt.broadcast %S_142 : tensor<16x1xi1> -> tensor<16x32xi1> loc(#loc325)
      %S_144 = arith.andi %S_143, %seq_mask_138 : tensor<16x32xi1> loc(#loc325)
      %S_145 = arith.select %S_144, %S_141, %cst_6 : tensor<16x32xi1>, tensor<16x32xf32> loc(#loc326)
      %m_j = "tt.reduce"(%S_145) <{axis = 1 : i32}> ({
      ^bb0(%m_j_164: f32 loc(callsite(#loc1 at #loc387)), %m_j_165: f32 loc(callsite(#loc1 at #loc387))):
        %m_j_166 = arith.maxnumf %m_j_164, %m_j_165 : f32 loc(#loc421)
        tt.reduce.return %m_j_166 : f32 loc(#loc417)
      }) : (tensor<16x32xf32>) -> tensor<16xf32> loc(#loc417)
      %m_j_146 = arith.maxnumf %M, %m_j : tensor<16xf32> loc(#loc388)
      %m_j_147 = arith.cmpf ogt, %m_j_146, %cst_1 : tensor<16xf32> loc(#loc389)
      %m_j_148 = arith.select %m_j_147, %m_j_146, %cst : tensor<16xi1>, tensor<16xf32> loc(#loc390)
      %P = tt.expand_dims %m_j_148 {axis = 1 : i32} : tensor<16xf32> -> tensor<16x1xf32> loc(#loc391)
      %P_149 = tt.broadcast %P : tensor<16x1xf32> -> tensor<16x32xf32> loc(#loc392)
      %P_150 = arith.subf %S_145, %P_149 : tensor<16x32xf32> loc(#loc392)
      %P_151 = math.exp %P_150 : tensor<16x32xf32> loc(#loc393)
      %l_j = "tt.reduce"(%P_151) <{axis = 1 : i32}> ({
      ^bb0(%l_j_164: f32 loc(callsite(#loc1 at #loc394)), %l_j_165: f32 loc(callsite(#loc1 at #loc394))):
        %l_j_166 = arith.addf %l_j_164, %l_j_165 : f32 loc(#loc422)
        tt.reduce.return %l_j_166 : f32 loc(#loc419)
      }) : (tensor<16x32xf32>) -> tensor<16xf32> loc(#loc419)
      %alpha = arith.subf %M, %m_j_148 : tensor<16xf32> loc(#loc395)
      %alpha_152 = math.exp %alpha : tensor<16xf32> loc(#loc396)
      %L_new = arith.mulf %L, %alpha_152 : tensor<16xf32> loc(#loc397)
      %L_new_153 = arith.addf %L_new, %l_j : tensor<16xf32> loc(#loc398)
      %acc_154 = tt.expand_dims %alpha_152 {axis = 1 : i32} : tensor<16xf32> -> tensor<16x1xf32> loc(#loc339)
      %acc_155 = tt.broadcast %acc_154 : tensor<16x1xf32> -> tensor<16x256xf32> loc(#loc340)
      %acc_156 = arith.mulf %acc_77, %acc_155 : tensor<16x256xf32> loc(#loc340)
      %V = tt.expand_dims %seq_offset_79 {axis = 1 : i32} : tensor<32xi32> -> tensor<32x1xi32> loc(#loc341)
      %V_157 = tt.splat %max_seq_prefix_len : i32 -> tensor<32x1xi32> loc(#loc342)
      %V_158 = arith.subi %V_157, %V : tensor<32x1xi32> loc(#loc342)
      %V_159 = arith.cmpi slt, %V_158, %cst_5 : tensor<32x1xi32> loc(#loc343)
      %V_160 = tt.broadcast %V_159 : tensor<32x1xi1> -> tensor<32x256xi1> loc(#loc344)
      %V_161 = arith.select %V_160, %V_load_130, %cst_4 : tensor<32x256xi1>, tensor<32x256xbf16> loc(#loc344)
      %acc_162 = arith.truncf %P_151 : tensor<16x32xf32> to tensor<16x32xbf16> loc(#loc345)
      %acc_163 = tt.dot %acc_162, %V_161, %acc_156, inputPrecision = tf32 : tensor<16x32xbf16> * tensor<32x256xbf16> -> tensor<16x256xf32> loc(#loc346)
      scf.yield %m_j_148, %L_new_153, %acc_163 : tensor<16xf32>, tensor<16xf32>, tensor<16x256xf32> loc(#loc160)
    } loc(#loc416)
    %acc_68 = tt.expand_dims %acc#1 {axis = 1 : i32} : tensor<16xf32> -> tensor<16x1xf32> loc(#loc347)
    %acc_69 = tt.broadcast %acc_68 : tensor<16x1xf32> -> tensor<16x256xf32> loc(#loc348)
    %acc_70 = arith.divf %acc#2, %acc_69 : tensor<16x256xf32> loc(#loc348)
    %output_offset = tt.splat %output_stride_0 : i64 -> tensor<16x1xi64> loc(#loc349)
    %output_offset_71 = arith.muli %query_offset_29, %output_offset : tensor<16x1xi64> loc(#loc349)
    %output_offset_72 = tt.splat %output_stride_1 : i64 -> tensor<16x1xi64> loc(#loc350)
    %output_offset_73 = arith.muli %query_offset_33, %output_offset_72 : tensor<16x1xi64> loc(#loc350)
    %output_offset_74 = arith.addi %output_offset_71, %output_offset_73 : tensor<16x1xi64> loc(#loc351)
    %output_offset_75 = tt.broadcast %output_offset_74 : tensor<16x1xi64> -> tensor<16x256xi64> loc(#loc352)
    %output_offset_76 = arith.addi %output_offset_75, %query_offset_40 : tensor<16x256xi64> loc(#loc352)
    %2 = tt.splat %output_ptr : !tt.ptr<bf16> -> tensor<16x256x!tt.ptr<bf16>> loc(#loc167)
    %3 = tt.addptr %2, %output_offset_76 : tensor<16x256x!tt.ptr<bf16>>, tensor<16x256xi64> loc(#loc167)
    %4 = arith.truncf %acc_70 : tensor<16x256xf32> to tensor<16x256xbf16> loc(#loc168)
    tt.store %3, %4, %Q_55 : tensor<16x256x!tt.ptr<bf16>> loc(#loc168)
    tt.return loc(#loc169)
  } loc(#loc)
} loc(#loc)
#loc2 = loc("/home/ericbuehler/vllm/.venv-bench/lib/python3.12/site-packages/vllm/v1/attention/ops/triton_unified_attention.py":146:39)
#loc3 = loc("/home/ericbuehler/vllm/.venv-bench/lib/python3.12/site-packages/vllm/v1/attention/ops/triton_unified_attention.py":147:32)
#loc4 = loc("/home/ericbuehler/vllm/.venv-bench/lib/python3.12/site-packages/vllm/v1/attention/ops/triton_attention_helpers.py":96:4)
#loc7 = loc("/home/ericbuehler/vllm/.venv-bench/lib/python3.12/site-packages/vllm/v1/attention/ops/triton_attention_helpers.py":96:17)
#loc10 = loc("/home/ericbuehler/vllm/.venv-bench/lib/python3.12/site-packages/vllm/v1/attention/ops/triton_attention_helpers.py":97:22)
#loc11 = loc("/home/ericbuehler/vllm/.venv-bench/lib/python3.12/site-packages/vllm/v1/attention/ops/triton_attention_helpers.py":97:32)
#loc12 = loc("/home/ericbuehler/vllm/.venv-bench/lib/python3.12/site-packages/vllm/v1/attention/ops/triton_attention_helpers.py":98:44)
#loc13 = loc("/home/ericbuehler/vllm/.venv-bench/lib/python3.12/site-packages/vllm/v1/attention/ops/triton_attention_helpers.py":98:22)
#loc14 = loc("/home/ericbuehler/vllm/.venv-bench/lib/python3.12/site-packages/vllm/v1/attention/ops/triton_attention_helpers.py":99:25)
#loc15 = loc("/home/ericbuehler/vllm/.venv-bench/lib/python3.12/site-packages/vllm/v1/attention/ops/triton_attention_helpers.py":99:35)
#loc16 = loc("/home/ericbuehler/vllm/.venv-bench/lib/python3.12/site-packages/vllm/v1/attention/ops/triton_attention_helpers.py":101:22)
#loc17 = loc("/home/ericbuehler/vllm/.venv-bench/lib/python3.12/site-packages/vllm/v1/attention/ops/triton_attention_helpers.py":101:11)
#loc18 = loc("/home/ericbuehler/vllm/.venv-bench/lib/python3.12/site-packages/vllm/v1/attention/ops/triton_attention_helpers.py":102:25)
#loc19 = loc("/home/ericbuehler/vllm/.venv-bench/lib/python3.12/site-packages/vllm/v1/attention/ops/triton_attention_helpers.py":101:8)
#loc20 = loc("/home/ericbuehler/vllm/.venv-bench/lib/python3.12/site-packages/vllm/v1/attention/ops/triton_attention_helpers.py":106:18)
#loc21 = loc("/home/ericbuehler/vllm/.venv-bench/lib/python3.12/site-packages/vllm/v1/attention/ops/triton_attention_helpers.py":69:54)
#loc22 = loc("/home/ericbuehler/vllm/.venv-bench/lib/python3.12/site-packages/vllm/v1/attention/ops/triton_attention_helpers.py":69:32)
#loc23 = loc("/home/ericbuehler/vllm/.venv-bench/lib/python3.12/site-packages/vllm/v1/attention/ops/triton_attention_helpers.py":69:66)
#loc24 = loc("/home/ericbuehler/vllm/.venv-bench/lib/python3.12/site-packages/vllm/v1/attention/ops/triton_attention_helpers.py":69:76)
#loc25 = loc("/home/ericbuehler/vllm/.venv-bench/lib/python3.12/site-packages/vllm/v1/attention/ops/triton_attention_helpers.py":70:45)
#loc26 = loc("/home/ericbuehler/vllm/.venv-bench/lib/python3.12/site-packages/vllm/v1/attention/ops/triton_attention_helpers.py":72:55)
#loc27 = loc("/home/ericbuehler/vllm/.venv-bench/lib/python3.12/site-packages/vllm/v1/attention/ops/triton_attention_helpers.py":72:23)
#loc28 = loc("/home/ericbuehler/vllm/.venv-bench/lib/python3.12/site-packages/vllm/v1/attention/ops/triton_attention_helpers.py":73:37)
#loc29 = loc("/home/ericbuehler/vllm/.venv-bench/lib/python3.12/site-packages/vllm/v1/attention/ops/triton_attention_helpers.py":74:37)
#loc30 = loc("/home/ericbuehler/vllm/.venv-bench/lib/python3.12/site-packages/vllm/v1/attention/ops/triton_attention_helpers.py":74:22)
#loc31 = loc("/home/ericbuehler/vllm/.venv-bench/lib/python3.12/site-packages/vllm/v1/attention/ops/triton_unified_attention.py":160:27)
#loc32 = loc("/home/ericbuehler/vllm/.venv-bench/lib/python3.12/site-packages/vllm/v1/attention/ops/triton_unified_attention.py":160:38)
#loc33 = loc("/home/ericbuehler/vllm/.venv-bench/lib/python3.12/site-packages/vllm/v1/attention/ops/triton_unified_attention.py":161:8)
#loc34 = loc("/home/ericbuehler/vllm/.venv-bench/lib/python3.12/site-packages/vllm/v1/attention/ops/triton_unified_attention.py":170:26)
#loc35 = loc("/home/ericbuehler/vllm/.venv-bench/lib/python3.12/site-packages/vllm/v1/attention/ops/triton_unified_attention.py":171:26)
#loc36 = loc("/home/ericbuehler/vllm/.venv-bench/lib/python3.12/site-packages/vllm/v1/attention/ops/triton_unified_attention.py":172:26)
#loc37 = loc("/home/ericbuehler/vllm/.venv-bench/lib/python3.12/site-packages/vllm/v1/attention/ops/triton_unified_attention.py":173:56)
#loc38 = loc("/home/ericbuehler/vllm/.venv-bench/lib/python3.12/site-packages/vllm/v1/attention/ops/triton_unified_attention.py":173:46)
#loc39 = loc("/home/ericbuehler/vllm/.venv-bench/lib/python3.12/site-packages/vllm/v1/attention/ops/triton_unified_attention.py":175:52)
#loc40 = loc("/home/ericbuehler/vllm/.venv-bench/lib/python3.12/site-packages/vllm/v1/attention/ops/triton_unified_attention.py":176:35)
#loc41 = loc("/home/ericbuehler/vllm/.venv-bench/lib/python3.12/site-packages/vllm/v1/attention/ops/triton_unified_attention.py":176:65)
#loc42 = loc("/home/ericbuehler/vllm/.venv-bench/lib/python3.12/site-packages/vllm/v1/attention/ops/triton_unified_attention.py":176:56)
#loc43 = loc("/home/ericbuehler/vllm/.venv-bench/lib/python3.12/site-packages/vllm/v1/attention/ops/triton_unified_attention.py":178:23)
#loc44 = loc("/home/ericbuehler/vllm/.venv-bench/lib/python3.12/site-packages/vllm/v1/attention/ops/triton_unified_attention.py":178:34)
#loc45 = loc("/home/ericbuehler/vllm/.venv-bench/lib/python3.12/site-packages/vllm/v1/attention/ops/triton_unified_attention.py":179:25)
#loc46 = loc("/home/ericbuehler/vllm/.venv-bench/lib/python3.12/site-packages/vllm/v1/attention/ops/triton_unified_attention.py":179:36)
#loc47 = loc("/home/ericbuehler/vllm/.venv-bench/lib/python3.12/site-packages/vllm/v1/attention/ops/triton_unified_attention.py":179:10)
#loc48 = loc("/home/ericbuehler/vllm/.venv-bench/lib/python3.12/site-packages/vllm/v1/attention/ops/triton_unified_attention.py":180:17)
#loc49 = loc("/home/ericbuehler/vllm/.venv-bench/lib/python3.12/site-packages/vllm/v1/attention/ops/triton_unified_attention.py":180:10)
#loc50 = loc("/home/ericbuehler/vllm/.venv-bench/lib/python3.12/site-packages/vllm/v1/attention/ops/triton_unified_attention.py":183:33)
#loc51 = loc("/home/ericbuehler/vllm/.venv-bench/lib/python3.12/site-packages/vllm/v1/attention/ops/triton_unified_attention.py":183:47)
#loc52 = loc("/home/ericbuehler/vllm/.venv-bench/lib/python3.12/site-packages/vllm/v1/attention/ops/triton_unified_attention.py":183:53)
#loc53 = loc("/home/ericbuehler/vllm/.venv-bench/lib/python3.12/site-packages/vllm/v1/attention/ops/triton_unified_attention.py":184:40)
#loc54 = loc("/home/ericbuehler/vllm/.venv-bench/lib/python3.12/site-packages/vllm/v1/attention/ops/triton_unified_attention.py":184:64)
#loc55 = loc("/home/ericbuehler/vllm/.venv-bench/lib/python3.12/site-packages/vllm/v1/attention/ops/triton_unified_attention.py":184:70)
#loc56 = loc("/home/ericbuehler/vllm/.venv-bench/lib/python3.12/site-packages/vllm/v1/attention/ops/triton_unified_attention.py":185:45)
#loc57 = loc("/home/ericbuehler/vllm/.venv-bench/lib/python3.12/site-packages/vllm/v1/attention/ops/triton_unified_attention.py":185:65)
#loc58 = loc("/home/ericbuehler/vllm/.venv-bench/lib/python3.12/site-packages/vllm/v1/attention/ops/triton_unified_attention.py":185:71)
#loc59 = loc("/home/ericbuehler/vllm/.venv-bench/lib/python3.12/site-packages/vllm/v1/attention/ops/triton_unified_attention.py":190:22)
#loc60 = loc("/home/ericbuehler/vllm/.venv-bench/lib/python3.12/site-packages/vllm/v1/attention/ops/triton_unified_attention.py":190:46)
#loc61 = loc("/home/ericbuehler/vllm/.venv-bench/lib/python3.12/site-packages/vllm/v1/attention/ops/triton_unified_attention.py":190:33)
#loc62 = loc("/home/ericbuehler/vllm/.venv-bench/lib/python3.12/site-packages/vllm/v1/attention/ops/triton_unified_attention.py":190:70)
#loc63 = loc("/home/ericbuehler/vllm/.venv-bench/lib/python3.12/site-packages/vllm/v1/attention/ops/triton_unified_attention.py":190:57)
#loc64 = loc("/home/ericbuehler/vllm/.venv-bench/lib/python3.12/site-packages/vllm/v1/attention/ops/triton_unified_attention.py":189:20)
#loc65 = loc("/home/ericbuehler/vllm/.venv-bench/lib/python3.12/site-packages/vllm/v1/attention/ops/triton_unified_attention.py":189:8)
#loc66 = loc("/home/ericbuehler/vllm/.venv-bench/lib/python3.12/site-packages/vllm/v1/attention/ops/triton_unified_attention.py":194:35)
#loc67 = loc("/home/ericbuehler/vllm/.venv-bench/lib/python3.12/site-packages/vllm/v1/attention/ops/triton_unified_attention.py":203:28)
#loc68 = loc("/home/ericbuehler/vllm/.venv-bench/lib/python3.12/site-packages/vllm/v1/attention/ops/triton_attention_helpers.py":178:10)
#loc69 = loc("/home/ericbuehler/vllm/.venv-bench/lib/python3.12/site-packages/vllm/v1/attention/ops/triton_unified_attention.py":228:8)
#loc70 = loc("/home/ericbuehler/vllm/.venv-bench/lib/python3.12/site-packages/vllm/v1/attention/ops/triton_attention_helpers.py":180:10)
#loc71 = loc("/home/ericbuehler/vllm/.venv-bench/lib/python3.12/site-packages/vllm/v1/attention/ops/triton_attention_helpers.py":187:60)
#loc72 = loc("/home/ericbuehler/vllm/.venv-bench/lib/python3.12/site-packages/vllm/v1/attention/ops/triton_attention_helpers.py":24:20)
#loc73 = loc("/home/ericbuehler/vllm/.venv-bench/lib/python3.12/site-packages/vllm/v1/attention/ops/triton_attention_helpers.py":189:44)
#loc74 = loc("/home/ericbuehler/vllm/.venv-bench/lib/python3.12/site-packages/vllm/v1/attention/ops/triton_attention_helpers.py":24:26)
#loc75 = loc("/home/ericbuehler/vllm/.venv-bench/lib/python3.12/site-packages/vllm/v1/attention/ops/triton_attention_helpers.py":200:22)
#loc76 = loc("/home/ericbuehler/vllm/.venv-bench/lib/python3.12/site-packages/vllm/v1/attention/ops/triton_attention_helpers.py":201:34)
#loc77 = loc("/home/ericbuehler/vllm/.venv-bench/lib/python3.12/site-packages/vllm/v1/attention/ops/triton_attention_helpers.py":201:12)
#loc78 = loc("/home/ericbuehler/vllm/.venv-bench/lib/python3.12/site-packages/vllm/v1/attention/ops/triton_attention_helpers.py":214:57)
#loc79 = loc("/home/ericbuehler/vllm/.venv-bench/lib/python3.12/site-packages/vllm/v1/attention/ops/triton_attention_helpers.py":215:41)
#loc80 = loc("/home/ericbuehler/vllm/.venv-bench/lib/python3.12/site-packages/vllm/v1/attention/ops/triton_attention_helpers.py":217:56)
#loc81 = loc("/home/ericbuehler/vllm/.venv-bench/lib/python3.12/site-packages/vllm/v1/attention/ops/triton_attention_helpers.py":217:35)
#loc82 = loc("/home/ericbuehler/vllm/.venv-bench/lib/python3.12/site-packages/vllm/v1/attention/ops/triton_attention_helpers.py":218:51)
#loc83 = loc("/home/ericbuehler/vllm/.venv-bench/lib/python3.12/site-packages/vllm/v1/attention/ops/triton_attention_helpers.py":218:64)
#loc84 = loc("/home/ericbuehler/vllm/.venv-bench/lib/python3.12/site-packages/vllm/v1/attention/ops/triton_attention_helpers.py":218:67)
#loc85 = loc("/home/ericbuehler/vllm/.venv-bench/lib/python3.12/site-packages/vllm/v1/attention/ops/triton_unified_attention.py":232:28)
#loc86 = loc("/home/ericbuehler/vllm/.venv-bench/lib/python3.12/site-packages/vllm/v1/attention/ops/triton_unified_attention.py":233:25)
#loc87 = loc("/home/ericbuehler/vllm/.venv-bench/lib/python3.12/site-packages/vllm/v1/attention/ops/triton_unified_attention.py":233:37)
#loc88 = loc("/home/ericbuehler/vllm/.venv-bench/lib/python3.12/site-packages/vllm/v1/attention/ops/triton_unified_attention.py":234:33)
#loc89 = loc("/home/ericbuehler/vllm/.venv-bench/lib/python3.12/site-packages/vllm/v1/attention/ops/triton_unified_attention.py":237:31)
#loc90 = loc("/home/ericbuehler/vllm/.venv-bench/lib/python3.12/site-packages/vllm/v1/attention/ops/triton_unified_attention.py":237:66)
#loc91 = loc("/home/ericbuehler/vllm/.venv-bench/lib/python3.12/site-packages/vllm/v1/attention/ops/triton_unified_attention.py":237:52)
#loc92 = loc("/home/ericbuehler/vllm/.venv-bench/lib/python3.12/site-packages/vllm/v1/attention/ops/triton_unified_attention.py":237:12)
#loc93 = loc("/home/ericbuehler/vllm/.venv-bench/lib/python3.12/site-packages/vllm/v1/attention/ops/triton_unified_attention.py":238:13)
#loc94 = loc("/home/ericbuehler/vllm/.venv-bench/lib/python3.12/site-packages/vllm/v1/attention/ops/triton_unified_attention.py":241:31)
#loc95 = loc("/home/ericbuehler/vllm/.venv-bench/lib/python3.12/site-packages/vllm/v1/attention/ops/triton_unified_attention.py":241:42)
#loc96 = loc("/home/ericbuehler/vllm/.venv-bench/lib/python3.12/site-packages/vllm/v1/attention/ops/triton_unified_attention.py":242:28)
#loc97 = loc("/home/ericbuehler/vllm/.venv-bench/lib/python3.12/site-packages/vllm/v1/attention/ops/triton_unified_attention.py":242:14)
#loc98 = loc("/home/ericbuehler/vllm/.venv-bench/lib/python3.12/site-packages/vllm/v1/attention/ops/triton_unified_attention.py":243:14)
#loc99 = loc("/home/ericbuehler/vllm/.venv-bench/lib/python3.12/site-packages/vllm/v1/attention/ops/triton_unified_attention.py":244:28)
#loc100 = loc("/home/ericbuehler/vllm/.venv-bench/lib/python3.12/site-packages/vllm/v1/attention/ops/triton_unified_attention.py":244:40)
#loc101 = loc("/home/ericbuehler/vllm/.venv-bench/lib/python3.12/site-packages/vllm/v1/attention/ops/triton_unified_attention.py":244:51)
#loc102 = loc("/home/ericbuehler/vllm/.venv-bench/lib/python3.12/site-packages/vllm/v1/attention/ops/triton_unified_attention.py":244:14)
#loc103 = loc("/home/ericbuehler/vllm/.venv-bench/lib/python3.12/site-packages/vllm/v1/attention/ops/triton_unified_attention.py":247:31)
#loc104 = loc("/home/ericbuehler/vllm/.venv-bench/lib/python3.12/site-packages/vllm/v1/attention/ops/triton_unified_attention.py":247:42)
#loc105 = loc("/home/ericbuehler/vllm/.venv-bench/lib/python3.12/site-packages/vllm/v1/attention/ops/triton_unified_attention.py":248:28)
#loc106 = loc("/home/ericbuehler/vllm/.venv-bench/lib/python3.12/site-packages/vllm/v1/attention/ops/triton_unified_attention.py":248:14)
#loc107 = loc("/home/ericbuehler/vllm/.venv-bench/lib/python3.12/site-packages/vllm/v1/attention/ops/triton_unified_attention.py":249:21)
#loc108 = loc("/home/ericbuehler/vllm/.venv-bench/lib/python3.12/site-packages/vllm/v1/attention/ops/triton_unified_attention.py":249:14)
#loc109 = loc("/home/ericbuehler/vllm/.venv-bench/lib/python3.12/site-packages/vllm/v1/attention/ops/triton_unified_attention.py":250:40)
#loc110 = loc("/home/ericbuehler/vllm/.venv-bench/lib/python3.12/site-packages/vllm/v1/attention/ops/triton_unified_attention.py":250:51)
#loc111 = loc("/home/ericbuehler/vllm/.venv-bench/lib/python3.12/site-packages/vllm/v1/attention/ops/triton_unified_attention.py":250:14)
#loc112 = loc("/home/ericbuehler/vllm/.venv-bench/lib/python3.12/site-packages/vllm/v1/attention/ops/triton_unified_attention.py":255:26)
#loc113 = loc("/home/ericbuehler/vllm/.venv-bench/lib/python3.12/site-packages/vllm/v1/attention/ops/triton_unified_attention.py":255:47)
#loc114 = loc("/home/ericbuehler/vllm/.venv-bench/lib/python3.12/site-packages/vllm/v1/attention/ops/triton_unified_attention.py":255:37)
#loc115 = loc("/home/ericbuehler/vllm/.venv-bench/lib/python3.12/site-packages/vllm/v1/attention/ops/triton_unified_attention.py":254:28)
#loc116 = loc("/home/ericbuehler/vllm/.venv-bench/lib/python3.12/site-packages/vllm/v1/attention/ops/triton_unified_attention.py":254:12)
#loc117 = loc("/home/ericbuehler/vllm/.venv-bench/lib/python3.12/site-packages/vllm/v1/attention/ops/triton_unified_attention.py":262:47)
#loc118 = loc("/home/ericbuehler/vllm/.venv-bench/lib/python3.12/site-packages/vllm/v1/attention/ops/triton_unified_attention.py":262:37)
#loc119 = loc("/home/ericbuehler/vllm/.venv-bench/lib/python3.12/site-packages/vllm/v1/attention/ops/triton_unified_attention.py":261:30)
#loc120 = loc("/home/ericbuehler/vllm/.venv-bench/lib/python3.12/site-packages/vllm/v1/attention/ops/triton_unified_attention.py":261:12)
#loc121 = loc("/home/ericbuehler/vllm/.venv-bench/lib/python3.12/site-packages/vllm/v1/attention/ops/triton_unified_attention.py":286:48)
#loc122 = loc("/home/ericbuehler/vllm/.venv-bench/lib/python3.12/site-packages/vllm/v1/attention/ops/triton_unified_attention.py":286:38)
#loc123 = loc("/home/ericbuehler/vllm/.venv-bench/lib/python3.12/site-packages/vllm/v1/attention/ops/triton_attention_helpers.py":284:26)
#loc124 = loc("/home/ericbuehler/vllm/.venv-bench/lib/python3.12/site-packages/vllm/v1/attention/ops/triton_unified_attention.py":296:12)
#loc125 = loc("/home/ericbuehler/vllm/.venv-bench/lib/python3.12/site-packages/vllm/v1/attention/ops/triton_attention_helpers.py":284:38)
#loc126 = loc("/home/ericbuehler/vllm/.venv-bench/lib/python3.12/site-packages/vllm/v1/attention/ops/triton_attention_helpers.py":296:48)
#loc127 = loc("/home/ericbuehler/vllm/.venv-bench/lib/python3.12/site-packages/vllm/v1/attention/ops/triton_attention_helpers.py":296:62)
#loc128 = loc("/home/ericbuehler/vllm/.venv-bench/lib/python3.12/site-packages/vllm/v1/attention/ops/triton_attention_helpers.py":296:31)
#loc129 = loc("/home/ericbuehler/vllm/.venv-bench/lib/python3.12/site-packages/vllm/v1/attention/ops/triton_unified_attention.py":306:35)
#loc130 = loc("/home/ericbuehler/vllm/.venv-bench/lib/python3.12/site-packages/vllm/v1/attention/ops/triton_unified_attention.py":306:25)
#loc131 = loc("/home/ericbuehler/vllm/.venv-bench/lib/python3.12/site-packages/vllm/v1/attention/ops/triton_unified_attention.py":306:17)
#loc132 = loc("/home/ericbuehler/vllm/.venv-bench/lib/python3.12/site-packages/vllm/v1/attention/ops/triton_unified_attention.py":312:36)
#loc133 = loc("/home/ericbuehler/vllm/.venv-bench/lib/python3.12/site-packages/vllm/v1/attention/ops/triton_unified_attention.py":312:60)
#loc134 = loc("/home/ericbuehler/vllm/.venv-bench/lib/python3.12/site-packages/vllm/v1/attention/ops/triton_unified_attention.py":312:73)
#loc135 = loc("/home/ericbuehler/vllm/.venv-bench/lib/python3.12/site-packages/triton/language/standard.py":191:40)
#loc138 = loc("/home/ericbuehler/vllm/.venv-bench/lib/python3.12/site-packages/triton/language/standard.py":170:27)
#loc139 = loc("/home/ericbuehler/vllm/.venv-bench/lib/python3.12/site-packages/vllm/v1/attention/ops/triton_attention_helpers.py":371:24)
#loc140 = loc("/home/ericbuehler/vllm/.venv-bench/lib/python3.12/site-packages/vllm/v1/attention/ops/triton_attention_helpers.py":374:25)
#loc141 = loc("/home/ericbuehler/vllm/.venv-bench/lib/python3.12/site-packages/vllm/v1/attention/ops/triton_attention_helpers.py":374:45)
#loc142 = loc("/home/ericbuehler/vllm/.venv-bench/lib/python3.12/site-packages/vllm/v1/attention/ops/triton_attention_helpers.py":376:23)
#loc143 = loc("/home/ericbuehler/vllm/.venv-bench/lib/python3.12/site-packages/vllm/v1/attention/ops/triton_attention_helpers.py":376:19)
#loc144 = loc("/home/ericbuehler/vllm/.venv-bench/lib/python3.12/site-packages/vllm/v1/attention/ops/triton_attention_helpers.py":376:15)
#loc145 = loc("/home/ericbuehler/vllm/.venv-bench/lib/python3.12/site-packages/triton/language/standard.py":293:36)
#loc147 = loc("/home/ericbuehler/vllm/.venv-bench/lib/python3.12/site-packages/triton/language/standard.py":263:15)
#loc148 = loc("/home/ericbuehler/vllm/.venv-bench/lib/python3.12/site-packages/vllm/v1/attention/ops/triton_attention_helpers.py":380:23)
#loc149 = loc("/home/ericbuehler/vllm/.venv-bench/lib/python3.12/site-packages/vllm/v1/attention/ops/triton_attention_helpers.py":380:19)
#loc150 = loc("/home/ericbuehler/vllm/.venv-bench/lib/python3.12/site-packages/vllm/v1/attention/ops/triton_attention_helpers.py":382:16)
#loc151 = loc("/home/ericbuehler/vllm/.venv-bench/lib/python3.12/site-packages/vllm/v1/attention/ops/triton_attention_helpers.py":382:24)
#loc152 = loc("/home/ericbuehler/vllm/.venv-bench/lib/python3.12/site-packages/vllm/v1/attention/ops/triton_unified_attention.py":326:26)
#loc153 = loc("/home/ericbuehler/vllm/.venv-bench/lib/python3.12/site-packages/vllm/v1/attention/ops/triton_unified_attention.py":326:20)
#loc154 = loc("/home/ericbuehler/vllm/.venv-bench/lib/python3.12/site-packages/vllm/v1/attention/ops/triton_unified_attention.py":331:52)
#loc155 = loc("/home/ericbuehler/vllm/.venv-bench/lib/python3.12/site-packages/vllm/v1/attention/ops/triton_unified_attention.py":331:41)
#loc156 = loc("/home/ericbuehler/vllm/.venv-bench/lib/python3.12/site-packages/vllm/v1/attention/ops/triton_unified_attention.py":331:64)
#loc157 = loc("/home/ericbuehler/vllm/.venv-bench/lib/python3.12/site-packages/vllm/v1/attention/ops/triton_unified_attention.py":333:16)
#loc158 = loc("/home/ericbuehler/vllm/.venv-bench/lib/python3.12/site-packages/vllm/v1/attention/ops/triton_unified_attention.py":340:31)
#loc159 = loc("/home/ericbuehler/vllm/.venv-bench/lib/python3.12/site-packages/vllm/v1/attention/ops/triton_unified_attention.py":340:41)
#loc160 = loc("/home/ericbuehler/vllm/.venv-bench/lib/python3.12/site-packages/vllm/v1/attention/ops/triton_unified_attention.py":335:8)
#loc161 = loc("/home/ericbuehler/vllm/.venv-bench/lib/python3.12/site-packages/vllm/v1/attention/ops/triton_unified_attention.py":371:22)
#loc162 = loc("/home/ericbuehler/vllm/.venv-bench/lib/python3.12/site-packages/vllm/v1/attention/ops/triton_unified_attention.py":371:20)
#loc163 = loc("/home/ericbuehler/vllm/.venv-bench/lib/python3.12/site-packages/vllm/v1/attention/ops/triton_unified_attention.py":376:38)
#loc164 = loc("/home/ericbuehler/vllm/.venv-bench/lib/python3.12/site-packages/vllm/v1/attention/ops/triton_unified_attention.py":377:40)
#loc165 = loc("/home/ericbuehler/vllm/.venv-bench/lib/python3.12/site-packages/vllm/v1/attention/ops/triton_unified_attention.py":377:14)
#loc166 = loc("/home/ericbuehler/vllm/.venv-bench/lib/python3.12/site-packages/vllm/v1/attention/ops/triton_unified_attention.py":378:14)
#loc167 = loc("/home/ericbuehler/vllm/.venv-bench/lib/python3.12/site-packages/vllm/v1/attention/ops/triton_unified_attention.py":381:25)
#loc168 = loc("/home/ericbuehler/vllm/.venv-bench/lib/python3.12/site-packages/vllm/v1/attention/ops/triton_unified_attention.py":382:12)
#loc169 = loc("/home/ericbuehler/vllm/.venv-bench/lib/python3.12/site-packages/vllm/v1/attention/ops/triton_unified_attention.py":343:4)
#loc206 = loc("q_block_global_idx"(#loc2))
#loc207 = loc("kv_head_idx"(#loc3))
#loc208 = loc("left"(#loc4))
#loc212 = loc("mid"(#loc10))
#loc213 = loc("mid"(#loc11))
#loc214 = loc("val"(#loc12))
#loc215 = loc("val"(#loc13))
#loc216 = loc("mid_val"(#loc14))
#loc217 = loc("mid_val"(#loc15))
#loc218 = loc("left"(#loc18))
#loc219 = loc("q_block_start_idx"(#loc21))
#loc220 = loc("q_block_start_idx"(#loc22))
#loc221 = loc("q_block_start_idx"(#loc23))
#loc222 = loc("q_block_start_idx"(#loc24))
#loc223 = loc("q_block_local_idx"(#loc25))
#loc224 = loc("cur_stop"(#loc26))
#loc225 = loc("cur_stop"(#loc27))
#loc226 = loc("cur_batch_query_len"(#loc28))
#loc227 = loc("seq_len"(#loc29))
#loc228 = loc("seq_len"(#loc30))
#loc229 = loc("offs_m"(#loc34))
#loc230 = loc("offs_d"(#loc35))
#loc231 = loc("offs_t"(#loc36))
#loc232 = loc("query_pos"(#loc37))
#loc233 = loc("query_pos"(#loc38))
#loc234 = loc("query_offset_0"(#loc39))
#loc235 = loc("query_offset_1"(#loc40))
#loc236 = loc("query_offset_1"(#loc41))
#loc237 = loc("query_offset_1"(#loc42))
#loc238 = loc("query_offset"(#loc43))
#loc239 = loc("query_offset"(#loc44))
#loc240 = loc("query_offset"(#loc45))
#loc241 = loc("query_offset"(#loc46))
#loc242 = loc("query_offset"(#loc47))
#loc243 = loc("query_offset"(#loc48))
#loc244 = loc("query_offset"(#loc49))
#loc245 = loc("dim_mask"(#loc50))
#loc246 = loc("dim_mask"(#loc51))
#loc247 = loc("dim_mask"(#loc52))
#loc248 = loc("query_mask_0"(#loc53))
#loc249 = loc("query_mask_0"(#loc54))
#loc250 = loc("query_mask_0"(#loc55))
#loc251 = loc("query_mask_1"(#loc56))
#loc252 = loc("query_mask_1"(#loc57))
#loc253 = loc("query_mask_1"(#loc58))
#loc254 = loc("Q"(#loc59))
#loc255 = loc("Q"(#loc60))
#loc256 = loc("Q"(#loc61))
#loc257 = loc("Q"(#loc62))
#loc258 = loc("Q"(#loc63))
#loc259 = loc("Q"(#loc64))
#loc260 = loc("Q"(#loc65))
#loc261 = loc("block_table_offset"(#loc66))
#loc262 = loc("context_len"(#loc67))
#loc263 = loc("max_seq_prefix_len"(#loc68))
#loc264 = loc("max_seq_prefix_len"(#loc70))
#loc265 = loc("max_seq_prefix_len"(#loc71))
#loc266 = loc("num_tiles"(#loc73))
#loc267 = loc("qpos_hi"(#loc75))
#loc268 = loc("qpos_hi"(#loc76))
#loc269 = loc("qpos_hi"(#loc77))
#loc270 = loc("first_allowed_key"(#loc78))
#loc271 = loc("last_allowed_key"(#loc79))
#loc272 = loc("tile_start"(#loc80))
#loc273 = loc("tile_start"(#loc81))
#loc274 = loc("tile_end"(#loc82))
#loc275 = loc("tile_end"(#loc83))
#loc276 = loc("tile_end"(#loc84))
#loc277 = loc("M"(#loc85))
#loc278 = loc("seq_offset"(#loc86))
#loc279 = loc("seq_offset"(#loc87))
#loc280 = loc("tile_mask"(#loc88))
#loc281 = loc("physical_block_idx"(#loc89))
#loc282 = loc("physical_block_idx"(#loc90))
#loc283 = loc("physical_block_idx"(#loc91))
#loc284 = loc("physical_block_idx"(#loc92))
#loc285 = loc("physical_block_idx"(#loc93))
#loc286 = loc("v_offset"(#loc94))
#loc287 = loc("v_offset"(#loc95))
#loc288 = loc("v_offset"(#loc96))
#loc289 = loc("v_offset"(#loc97))
#loc290 = loc("v_offset"(#loc98))
#loc291 = loc("v_offset"(#loc99))
#loc292 = loc("v_offset"(#loc100))
#loc293 = loc("v_offset"(#loc101))
#loc294 = loc("v_offset"(#loc102))
#loc295 = loc("k_offset"(#loc103))
#loc296 = loc("k_offset"(#loc104))
#loc297 = loc("k_offset"(#loc105))
#loc298 = loc("k_offset"(#loc106))
#loc299 = loc("k_offset"(#loc107))
#loc300 = loc("k_offset"(#loc108))
#loc301 = loc("k_offset"(#loc109))
#loc302 = loc("k_offset"(#loc110))
#loc303 = loc("k_offset"(#loc111))
#loc304 = loc("K_load"(#loc112))
#loc305 = loc("K_load"(#loc113))
#loc306 = loc("K_load"(#loc114))
#loc307 = loc("K_load"(#loc115))
#loc308 = loc("K_load"(#loc116))
#loc309 = loc("V_load"(#loc117))
#loc310 = loc("V_load"(#loc118))
#loc311 = loc("V_load"(#loc119))
#loc312 = loc("V_load"(#loc120))
#loc313 = loc("query_abs_pos"(#loc121))
#loc314 = loc("query_abs_pos"(#loc122))
#loc315 = loc("seq_mask"(#loc123))
#loc316 = loc("seq_mask"(#loc124))
#loc317 = loc("seq_mask"(#loc125))
#loc318 = loc("seq_mask"(#loc126))
#loc319 = loc("seq_mask"(#loc127))
#loc320 = loc("seq_mask"(#loc128))
#loc321 = loc("S"(#loc129))
#loc322 = loc("S"(#loc130))
#loc323 = loc("S"(#loc131))
#loc324 = loc("S"(#loc132))
#loc325 = loc("S"(#loc133))
#loc326 = loc("S"(#loc134))
#loc328 = loc("m_j"(#loc139))
#loc329 = loc("m_j"(#loc140))
#loc330 = loc("m_j"(#loc141))
#loc331 = loc("P"(#loc142))
#loc332 = loc("P"(#loc143))
#loc333 = loc("P"(#loc144))
#loc335 = loc("alpha"(#loc148))
#loc336 = loc("alpha"(#loc149))
#loc337 = loc("L_new"(#loc150))
#loc338 = loc("L_new"(#loc151))
#loc339 = loc("acc"(#loc152))
#loc340 = loc("acc"(#loc153))
#loc341 = loc("V"(#loc154))
#loc342 = loc("V"(#loc155))
#loc343 = loc("V"(#loc156))
#loc344 = loc("V"(#loc157))
#loc345 = loc("acc"(#loc158))
#loc346 = loc("acc"(#loc159))
#loc347 = loc("acc"(#loc161))
#loc348 = loc("acc"(#loc162))
#loc349 = loc("output_offset"(#loc163))
#loc350 = loc("output_offset"(#loc164))
#loc351 = loc("output_offset"(#loc165))
#loc352 = loc("output_offset"(#loc166))
#loc353 = loc("right"(#loc208))
#loc355 = loc("right"(#loc213))
#loc356 = loc("left"(#loc218))
#loc357 = loc(callsite(#loc219 at #loc6))
#loc358 = loc(callsite(#loc220 at #loc6))
#loc359 = loc(callsite(#loc221 at #loc6))
#loc360 = loc(callsite(#loc222 at #loc6))
#loc361 = loc(callsite(#loc223 at #loc6))
#loc362 = loc(callsite(#loc224 at #loc6))
#loc363 = loc(callsite(#loc225 at #loc6))
#loc364 = loc(callsite(#loc226 at #loc6))
#loc365 = loc(callsite(#loc227 at #loc6))
#loc366 = loc(callsite(#loc228 at #loc6))
#loc367 = loc(callsite(#loc263 at #loc69))
#loc368 = loc(callsite(#loc264 at #loc69))
#loc369 = loc(callsite(#loc265 at #loc69))
#loc370 = loc(callsite(#loc266 at #loc69))
#loc371 = loc(callsite(#loc267 at #loc69))
#loc372 = loc(callsite(#loc268 at #loc69))
#loc373 = loc(callsite(#loc269 at #loc69))
#loc374 = loc(callsite(#loc270 at #loc69))
#loc375 = loc(callsite(#loc271 at #loc69))
#loc376 = loc(callsite(#loc272 at #loc69))
#loc377 = loc(callsite(#loc273 at #loc69))
#loc378 = loc(callsite(#loc274 at #loc69))
#loc379 = loc(callsite(#loc275 at #loc69))
#loc380 = loc(callsite(#loc276 at #loc69))
#loc381 = loc("L"(#loc277))
#loc382 = loc(callsite(#loc315 at #loc316))
#loc383 = loc(callsite(#loc317 at #loc316))
#loc384 = loc(callsite(#loc318 at #loc316))
#loc385 = loc(callsite(#loc319 at #loc316))
#loc386 = loc(callsite(#loc320 at #loc316))
#loc388 = loc(callsite(#loc328 at #loc137))
#loc389 = loc(callsite(#loc329 at #loc137))
#loc390 = loc(callsite(#loc330 at #loc137))
#loc391 = loc(callsite(#loc331 at #loc137))
#loc392 = loc(callsite(#loc332 at #loc137))
#loc393 = loc(callsite(#loc333 at #loc137))
#loc395 = loc(callsite(#loc335 at #loc137))
#loc396 = loc(callsite(#loc336 at #loc137))
#loc397 = loc(callsite(#loc337 at #loc137))
#loc398 = loc(callsite(#loc338 at #loc137))
#loc399 = loc(callsite(#loc353 at #loc354))
#loc400 = loc(callsite(#loc7 at #loc354))
#loc403 = loc(callsite(#loc212 at #loc354))
#loc404 = loc(callsite(#loc355 at #loc354))
#loc405 = loc(callsite(#loc214 at #loc354))
#loc406 = loc(callsite(#loc215 at #loc354))
#loc407 = loc(callsite(#loc216 at #loc354))
#loc408 = loc(callsite(#loc217 at #loc354))
#loc409 = loc(callsite(#loc16 at #loc354))
#loc410 = loc(callsite(#loc17 at #loc354))
#loc411 = loc(callsite(#loc356 at #loc354))
#loc412 = loc(callsite(#loc19 at #loc354))
#loc413 = loc(callsite(#loc20 at #loc354))
#loc414 = loc(callsite(#loc72 at #loc370))
#loc415 = loc(callsite(#loc74 at #loc370))
#loc416 = loc("acc"(#loc381))
#loc417 = loc(callsite(#loc135 at #loc387))
#loc419 = loc(callsite(#loc145 at #loc394))
#loc421 = loc(callsite(#loc138 at #loc417))
#loc422 = loc(callsite(#loc147 at #loc419))
