#loc = loc("/home/ericbuehler/.cache/vllm/torch_compile_cache/torch_aot_compile/90537ea14f244a5187d6ecc853fbadcf440d710f29c8e182fe8151f3f7751a82/inductor_cache/qx/cqxrpfohmbxcbxabgov5rbocjkj2dqpdzxiuvfm67ys7s4xokesf.py":22:0)
#loc1 = loc(unknown)
#loc22 = loc("/home/ericbuehler/.cache/vllm/torch_compile_cache/torch_aot_compile/90537ea14f244a5187d6ecc853fbadcf440d710f29c8e182fe8151f3f7751a82/inductor_cache/qx/cqxrpfohmbxcbxabgov5rbocjkj2dqpdzxiuvfm67ys7s4xokesf.py":47:25)
#loc36 = loc("in_ptr0"(#loc))
#loc37 = loc("out_ptr1"(#loc))
#loc38 = loc("xnumel"(#loc))
#loc39 = loc("r0_numel"(#loc))
#loc59 = loc("tmp4"(#loc22))
#loc72 = loc(callsite(#loc1 at #loc59))
module {
  tt.func public @triton_(%in_ptr0: !tt.ptr<bf16> {tt.divisibility = 16 : i32} loc("in_ptr0"(#loc)), %out_ptr1: !tt.ptr<bf16> {tt.divisibility = 16 : i32} loc("out_ptr1"(#loc)), %xnumel: i32 loc("xnumel"(#loc)), %r0_numel: i32 {tt.divisibility = 16 : i32} loc("r0_numel"(#loc))) attributes {noinline = false} {
    %c10240_i32 = arith.constant 10240 : i32 loc(#loc1)
    %c512_i32 = arith.constant 512 : i32 loc(#loc1)
    %c2_i32 = arith.constant 2 : i32 loc(#loc1)
    %cst = arith.constant dense<0.000000e+00> : tensor<1x512xbf16> loc(#loc1)
    %cst_0 = arith.constant dense<9.99999997E-7> : tensor<1x1xf32> loc(#loc1)
    %cst_1 = arith.constant dense<5.120000e+02> : tensor<1x1xf32> loc(#loc1)
    %cst_2 = arith.constant dense<9216> : tensor<1x512xi32> loc(#loc1)
    %cst_3 = arith.constant dense<512> : tensor<1x512xi32> loc(#loc1)
    %cst_4 = arith.constant dense<0.000000e+00> : tensor<1x512xf32> loc(#loc1)
    %xoffset = tt.get_program_id x : i32 loc(#loc40)
    %xmask = arith.cmpi slt, %xoffset, %xnumel : i32 loc(#loc41)
    %r0_base = tt.make_range {end = 512 : i32, start = 0 : i32} : tensor<512xi32> loc(#loc42)
    %r0_base_5 = tt.expand_dims %r0_base {axis = 0 : i32} : tensor<512xi32> -> tensor<1x512xi32> loc(#loc43)
    %x0 = arith.remsi %xoffset, %c2_i32 : i32 loc(#loc44)
    %x1 = arith.divsi %xoffset, %c2_i32 : i32 loc(#loc45)
    %r0_mask = arith.cmpi slt, %r0_base_5, %cst_3 : tensor<1x512xi32> loc(#loc46)
    %tmp0 = arith.addi %r0_base_5, %cst_2 : tensor<1x512xi32> loc(#loc47)
    %tmp0_6 = arith.muli %x0, %c512_i32 : i32 loc(#loc48)
    %tmp0_7 = tt.splat %tmp0_6 : i32 -> tensor<1x512xi32> loc(#loc68)
    %tmp0_8 = arith.addi %tmp0, %tmp0_7 : tensor<1x512xi32> loc(#loc49)
    %tmp0_9 = arith.muli %x1, %c10240_i32 : i32 loc(#loc50)
    %tmp0_10 = tt.splat %tmp0_9 : i32 -> tensor<1x512xi32> loc(#loc69)
    %tmp0_11 = arith.addi %tmp0_8, %tmp0_10 : tensor<1x512xi32> loc(#loc51)
    %tmp0_12 = tt.splat %in_ptr0 : !tt.ptr<bf16> -> tensor<1x512x!tt.ptr<bf16>> loc(#loc52)
    %tmp0_13 = tt.addptr %tmp0_12, %tmp0_11 : tensor<1x512x!tt.ptr<bf16>>, tensor<1x512xi32> loc(#loc52)
    %tmp0_14 = tt.splat %xmask : i1 -> tensor<1x512xi1> loc(#loc70)
    %tmp0_15 = arith.andi %r0_mask, %tmp0_14 : tensor<1x512xi1> loc(#loc53)
    %tmp0_16 = tt.load %tmp0_13, %tmp0_15, %cst evictionPolicy = evict_last : tensor<1x512x!tt.ptr<bf16>> loc(#loc54)
    %tmp0_17 = arith.extf %tmp0_16 : tensor<1x512xbf16> to tensor<1x512xf32> loc(#loc55)
    %tmp2 = arith.mulf %tmp0_17, %tmp0_17 : tensor<1x512xf32> loc(#loc56)
    %tmp5 = arith.addf %tmp2, %cst_4 : tensor<1x512xf32> loc(#loc57)
    %_tmp4 = arith.select %tmp0_15, %tmp5, %cst_4 : tensor<1x512xi1>, tensor<1x512xf32> loc(#loc58)
    %tmp4 = "tt.reduce"(%_tmp4) <{axis = 1 : i32}> ({
    ^bb0(%tmp4_21: f32 loc(callsite(#loc1 at #loc59)), %tmp4_22: f32 loc(callsite(#loc1 at #loc59))):
      %tmp4_23 = arith.addf %tmp4_21, %tmp4_22 : f32 loc(#loc73)
      tt.reduce.return %tmp4_23 : f32 loc(#loc71)
    }) : (tensor<1x512xf32>) -> tensor<1xf32> loc(#loc71)
    %tmp4_18 = tt.expand_dims %tmp4 {axis = 1 : i32} : tensor<1xf32> -> tensor<1x1xf32> loc(#loc60)
    %tmp6 = tt.load %tmp0_13, %tmp0_15, %cst evictionPolicy = evict_first : tensor<1x512x!tt.ptr<bf16>> loc(#loc61)
    %tmp6_19 = arith.extf %tmp6 : tensor<1x512xbf16> to tensor<1x512xf32> loc(#loc62)
    %tmp9 = arith.divf %tmp4_18, %cst_1 : tensor<1x1xf32> loc(#loc63)
    %tmp11 = arith.addf %tmp9, %cst_0 : tensor<1x1xf32> loc(#loc64)
    %tmp12 = tt.extern_elementwise %tmp11 {libname = "", libpath = "", pure = true, symbol = "__nv_rsqrtf"} : (tensor<1x1xf32>) -> tensor<1x1xf32> loc(#loc65)
    %tmp13 = tt.broadcast %tmp12 : tensor<1x1xf32> -> tensor<1x512xf32> loc(#loc66)
    %tmp13_20 = arith.mulf %tmp6_19, %tmp13 : tensor<1x512xf32> loc(#loc66)
    %0 = arith.muli %xoffset, %c512_i32 : i32 loc(#loc31)
    %1 = tt.splat %0 : i32 -> tensor<1x512xi32> loc(#loc67)
    %2 = arith.addi %r0_base_5, %1 : tensor<1x512xi32> loc(#loc32)
    %3 = tt.splat %out_ptr1 : !tt.ptr<bf16> -> tensor<1x512x!tt.ptr<bf16>> loc(#loc33)
    %4 = tt.addptr %3, %2 : tensor<1x512x!tt.ptr<bf16>>, tensor<1x512xi32> loc(#loc33)
    %5 = arith.truncf %tmp13_20 : tensor<1x512xf32> to tensor<1x512xbf16> loc(#loc34)
    tt.store %4, %5, %tmp0_15 : tensor<1x512x!tt.ptr<bf16>> loc(#loc34)
    tt.return loc(#loc35)
  } loc(#loc)
} loc(#loc)
#loc2 = loc("/home/ericbuehler/.cache/vllm/torch_compile_cache/torch_aot_compile/90537ea14f244a5187d6ecc853fbadcf440d710f29c8e182fe8151f3f7751a82/inductor_cache/qx/cqxrpfohmbxcbxabgov5rbocjkj2dqpdzxiuvfm67ys7s4xokesf.py":26:28)
#loc3 = loc("/home/ericbuehler/.cache/vllm/torch_compile_cache/torch_aot_compile/90537ea14f244a5187d6ecc853fbadcf440d710f29c8e182fe8151f3f7751a82/inductor_cache/qx/cqxrpfohmbxcbxabgov5rbocjkj2dqpdzxiuvfm67ys7s4xokesf.py":28:21)
#loc4 = loc("/home/ericbuehler/.cache/vllm/torch_compile_cache/torch_aot_compile/90537ea14f244a5187d6ecc853fbadcf440d710f29c8e182fe8151f3f7751a82/inductor_cache/qx/cqxrpfohmbxcbxabgov5rbocjkj2dqpdzxiuvfm67ys7s4xokesf.py":29:27)
#loc5 = loc("/home/ericbuehler/.cache/vllm/torch_compile_cache/torch_aot_compile/90537ea14f244a5187d6ecc853fbadcf440d710f29c8e182fe8151f3f7751a82/inductor_cache/qx/cqxrpfohmbxcbxabgov5rbocjkj2dqpdzxiuvfm67ys7s4xokesf.py":29:37)
#loc6 = loc("/home/ericbuehler/.cache/vllm/torch_compile_cache/torch_aot_compile/90537ea14f244a5187d6ecc853fbadcf440d710f29c8e182fe8151f3f7751a82/inductor_cache/qx/cqxrpfohmbxcbxabgov5rbocjkj2dqpdzxiuvfm67ys7s4xokesf.py":31:19)
#loc7 = loc("/home/ericbuehler/.cache/vllm/torch_compile_cache/torch_aot_compile/90537ea14f244a5187d6ecc853fbadcf440d710f29c8e182fe8151f3f7751a82/inductor_cache/qx/cqxrpfohmbxcbxabgov5rbocjkj2dqpdzxiuvfm67ys7s4xokesf.py":32:19)
#loc8 = loc("/home/ericbuehler/.cache/vllm/torch_compile_cache/torch_aot_compile/90537ea14f244a5187d6ecc853fbadcf440d710f29c8e182fe8151f3f7751a82/inductor_cache/qx/cqxrpfohmbxcbxabgov5rbocjkj2dqpdzxiuvfm67ys7s4xokesf.py":37:29)
#loc9 = loc("/home/ericbuehler/.cache/vllm/torch_compile_cache/torch_aot_compile/90537ea14f244a5187d6ecc853fbadcf440d710f29c8e182fe8151f3f7751a82/inductor_cache/qx/cqxrpfohmbxcbxabgov5rbocjkj2dqpdzxiuvfm67ys7s4xokesf.py":41:41)
#loc10 = loc("/home/ericbuehler/.cache/vllm/torch_compile_cache/torch_aot_compile/90537ea14f244a5187d6ecc853fbadcf440d710f29c8e182fe8151f3f7751a82/inductor_cache/qx/cqxrpfohmbxcbxabgov5rbocjkj2dqpdzxiuvfm67ys7s4xokesf.py":41:52)
#loc11 = loc("/home/ericbuehler/.cache/vllm/torch_compile_cache/torch_aot_compile/90537ea14f244a5187d6ecc853fbadcf440d710f29c8e182fe8151f3f7751a82/inductor_cache/qx/cqxrpfohmbxcbxabgov5rbocjkj2dqpdzxiuvfm67ys7s4xokesf.py":41:48)
#loc12 = loc("/home/ericbuehler/.cache/vllm/torch_compile_cache/torch_aot_compile/90537ea14f244a5187d6ecc853fbadcf440d710f29c8e182fe8151f3f7751a82/inductor_cache/qx/cqxrpfohmbxcbxabgov5rbocjkj2dqpdzxiuvfm67ys7s4xokesf.py":41:63)
#loc13 = loc("/home/ericbuehler/.cache/vllm/torch_compile_cache/torch_aot_compile/90537ea14f244a5187d6ecc853fbadcf440d710f29c8e182fe8151f3f7751a82/inductor_cache/qx/cqxrpfohmbxcbxabgov5rbocjkj2dqpdzxiuvfm67ys7s4xokesf.py":41:57)
#loc14 = loc("/home/ericbuehler/.cache/vllm/torch_compile_cache/torch_aot_compile/90537ea14f244a5187d6ecc853fbadcf440d710f29c8e182fe8151f3f7751a82/inductor_cache/qx/cqxrpfohmbxcbxabgov5rbocjkj2dqpdzxiuvfm67ys7s4xokesf.py":41:34)
#loc15 = loc("/home/ericbuehler/.cache/vllm/torch_compile_cache/torch_aot_compile/90537ea14f244a5187d6ecc853fbadcf440d710f29c8e182fe8151f3f7751a82/inductor_cache/qx/cqxrpfohmbxcbxabgov5rbocjkj2dqpdzxiuvfm67ys7s4xokesf.py":41:78)
#loc16 = loc("/home/ericbuehler/.cache/vllm/torch_compile_cache/torch_aot_compile/90537ea14f244a5187d6ecc853fbadcf440d710f29c8e182fe8151f3f7751a82/inductor_cache/qx/cqxrpfohmbxcbxabgov5rbocjkj2dqpdzxiuvfm67ys7s4xokesf.py":41:68)
#loc17 = loc("/home/ericbuehler/.cache/vllm/torch_compile_cache/torch_aot_compile/90537ea14f244a5187d6ecc853fbadcf440d710f29c8e182fe8151f3f7751a82/inductor_cache/qx/cqxrpfohmbxcbxabgov5rbocjkj2dqpdzxiuvfm67ys7s4xokesf.py":41:129)
#loc18 = loc("/home/ericbuehler/.cache/vllm/torch_compile_cache/torch_aot_compile/90537ea14f244a5187d6ecc853fbadcf440d710f29c8e182fe8151f3f7751a82/inductor_cache/qx/cqxrpfohmbxcbxabgov5rbocjkj2dqpdzxiuvfm67ys7s4xokesf.py":43:22)
#loc19 = loc("/home/ericbuehler/.cache/vllm/torch_compile_cache/torch_aot_compile/90537ea14f244a5187d6ecc853fbadcf440d710f29c8e182fe8151f3f7751a82/inductor_cache/qx/cqxrpfohmbxcbxabgov5rbocjkj2dqpdzxiuvfm67ys7s4xokesf.py":45:23)
#loc20 = loc("/home/ericbuehler/.cache/vllm/torch_compile_cache/torch_aot_compile/90537ea14f244a5187d6ecc853fbadcf440d710f29c8e182fe8151f3f7751a82/inductor_cache/qx/cqxrpfohmbxcbxabgov5rbocjkj2dqpdzxiuvfm67ys7s4xokesf.py":46:48)
#loc21 = loc("/home/ericbuehler/vllm/.venv-bench/lib/python3.12/site-packages/triton/language/standard.py":293:36)
#loc23 = loc("/home/ericbuehler/vllm/.venv-bench/lib/python3.12/site-packages/triton/language/standard.py":263:15)
#loc24 = loc("/home/ericbuehler/.cache/vllm/torch_compile_cache/torch_aot_compile/90537ea14f244a5187d6ecc853fbadcf440d710f29c8e182fe8151f3f7751a82/inductor_cache/qx/cqxrpfohmbxcbxabgov5rbocjkj2dqpdzxiuvfm67ys7s4xokesf.py":47:28)
#loc25 = loc("/home/ericbuehler/.cache/vllm/torch_compile_cache/torch_aot_compile/90537ea14f244a5187d6ecc853fbadcf440d710f29c8e182fe8151f3f7751a82/inductor_cache/qx/cqxrpfohmbxcbxabgov5rbocjkj2dqpdzxiuvfm67ys7s4xokesf.py":54:68)
#loc26 = loc("/home/ericbuehler/.cache/vllm/torch_compile_cache/torch_aot_compile/90537ea14f244a5187d6ecc853fbadcf440d710f29c8e182fe8151f3f7751a82/inductor_cache/qx/cqxrpfohmbxcbxabgov5rbocjkj2dqpdzxiuvfm67ys7s4xokesf.py":54:130)
#loc27 = loc("/home/ericbuehler/.cache/vllm/torch_compile_cache/torch_aot_compile/90537ea14f244a5187d6ecc853fbadcf440d710f29c8e182fe8151f3f7751a82/inductor_cache/qx/cqxrpfohmbxcbxabgov5rbocjkj2dqpdzxiuvfm67ys7s4xokesf.py":57:23)
#loc28 = loc("/home/ericbuehler/.cache/vllm/torch_compile_cache/torch_aot_compile/90537ea14f244a5187d6ecc853fbadcf440d710f29c8e182fe8151f3f7751a82/inductor_cache/qx/cqxrpfohmbxcbxabgov5rbocjkj2dqpdzxiuvfm67ys7s4xokesf.py":59:23)
#loc29 = loc("/home/ericbuehler/.cache/vllm/torch_compile_cache/torch_aot_compile/90537ea14f244a5187d6ecc853fbadcf440d710f29c8e182fe8151f3f7751a82/inductor_cache/qx/cqxrpfohmbxcbxabgov5rbocjkj2dqpdzxiuvfm67ys7s4xokesf.py":60:32)
#loc30 = loc("/home/ericbuehler/.cache/vllm/torch_compile_cache/torch_aot_compile/90537ea14f244a5187d6ecc853fbadcf440d710f29c8e182fe8151f3f7751a82/inductor_cache/qx/cqxrpfohmbxcbxabgov5rbocjkj2dqpdzxiuvfm67ys7s4xokesf.py":61:23)
#loc31 = loc("/home/ericbuehler/.cache/vllm/torch_compile_cache/torch_aot_compile/90537ea14f244a5187d6ecc853fbadcf440d710f29c8e182fe8151f3f7751a82/inductor_cache/qx/cqxrpfohmbxcbxabgov5rbocjkj2dqpdzxiuvfm67ys7s4xokesf.py":63:40)
#loc32 = loc("/home/ericbuehler/.cache/vllm/torch_compile_cache/torch_aot_compile/90537ea14f244a5187d6ecc853fbadcf440d710f29c8e182fe8151f3f7751a82/inductor_cache/qx/cqxrpfohmbxcbxabgov5rbocjkj2dqpdzxiuvfm67ys7s4xokesf.py":63:36)
#loc33 = loc("/home/ericbuehler/.cache/vllm/torch_compile_cache/torch_aot_compile/90537ea14f244a5187d6ecc853fbadcf440d710f29c8e182fe8151f3f7751a82/inductor_cache/qx/cqxrpfohmbxcbxabgov5rbocjkj2dqpdzxiuvfm67ys7s4xokesf.py":63:29)
#loc34 = loc("/home/ericbuehler/.cache/vllm/torch_compile_cache/torch_aot_compile/90537ea14f244a5187d6ecc853fbadcf440d710f29c8e182fe8151f3f7751a82/inductor_cache/qx/cqxrpfohmbxcbxabgov5rbocjkj2dqpdzxiuvfm67ys7s4xokesf.py":63:52)
#loc35 = loc("/home/ericbuehler/.cache/vllm/torch_compile_cache/torch_aot_compile/90537ea14f244a5187d6ecc853fbadcf440d710f29c8e182fe8151f3f7751a82/inductor_cache/qx/cqxrpfohmbxcbxabgov5rbocjkj2dqpdzxiuvfm67ys7s4xokesf.py":48:4)
#loc40 = loc("xoffset"(#loc2))
#loc41 = loc("xmask"(#loc3))
#loc42 = loc("r0_base"(#loc4))
#loc43 = loc("r0_base"(#loc5))
#loc44 = loc("x0"(#loc6))
#loc45 = loc("x1"(#loc7))
#loc46 = loc("r0_mask"(#loc8))
#loc47 = loc("tmp0"(#loc9))
#loc48 = loc("tmp0"(#loc10))
#loc49 = loc("tmp0"(#loc11))
#loc50 = loc("tmp0"(#loc12))
#loc51 = loc("tmp0"(#loc13))
#loc52 = loc("tmp0"(#loc14))
#loc53 = loc("tmp0"(#loc15))
#loc54 = loc("tmp0"(#loc16))
#loc55 = loc("tmp0"(#loc17))
#loc56 = loc("tmp2"(#loc18))
#loc57 = loc("tmp5"(#loc19))
#loc58 = loc("_tmp4"(#loc20))
#loc60 = loc("tmp4"(#loc24))
#loc61 = loc("tmp6"(#loc25))
#loc62 = loc("tmp6"(#loc26))
#loc63 = loc("tmp9"(#loc27))
#loc64 = loc("tmp11"(#loc28))
#loc65 = loc("tmp12"(#loc29))
#loc66 = loc("tmp13"(#loc30))
#loc67 = loc(fused[#loc32, #loc31])
#loc68 = loc(fused[#loc49, #loc48])
#loc69 = loc(fused[#loc51, #loc50])
#loc70 = loc(fused[#loc53, #loc41])
#loc71 = loc(callsite(#loc21 at #loc59))
#loc73 = loc(callsite(#loc23 at #loc71))
