#loc = loc("/home/ericbuehler/.cache/vllm/torch_compile_cache/torch_aot_compile/90537ea14f244a5187d6ecc853fbadcf440d710f29c8e182fe8151f3f7751a82/inductor_cache/at/catq2cw2r66rcedpj7qwttvfq62rszfvyhcnqhxji7qqqfyw2jdb.py":22:0)
#loc83 = loc("in_ptr0"(#loc))
#loc84 = loc("in_ptr1"(#loc))
#loc85 = loc("in_ptr2"(#loc))
#loc86 = loc("in_ptr3"(#loc))
#loc87 = loc("in_ptr4"(#loc))
#loc88 = loc("out_ptr0"(#loc))
#loc89 = loc("out_ptr1"(#loc))
#loc90 = loc("xnumel"(#loc))
module {
  tt.func public @triton_(%in_ptr0: !tt.ptr<bf16> {tt.divisibility = 16 : i32} loc("in_ptr0"(#loc)), %in_ptr1: !tt.ptr<f32> {tt.divisibility = 16 : i32} loc("in_ptr1"(#loc)), %in_ptr2: !tt.ptr<bf16> {tt.divisibility = 16 : i32} loc("in_ptr2"(#loc)), %in_ptr3: !tt.ptr<i64> {tt.divisibility = 16 : i32} loc("in_ptr3"(#loc)), %in_ptr4: !tt.ptr<bf16> {tt.divisibility = 16 : i32} loc("in_ptr4"(#loc)), %out_ptr0: !tt.ptr<bf16> {tt.divisibility = 16 : i32} loc("out_ptr0"(#loc)), %out_ptr1: !tt.ptr<bf16> {tt.divisibility = 16 : i32} loc("out_ptr1"(#loc)), %xnumel: i32 {tt.divisibility = 16 : i32} loc("xnumel"(#loc))) attributes {noinline = false} {
    %xoffset = tt.get_program_id x : i32 loc(#loc91)
    %xoffset_0 = arith.constant 1024 : i32 loc(#loc92)
    %xoffset_1 = arith.constant 1024 : i32 loc(#loc92)
    %xoffset_2 = arith.muli %xoffset, %xoffset_1 : i32 loc(#loc92)
    %xindex = tt.make_range {end = 1024 : i32, start = 0 : i32} : tensor<1024xi32> loc(#loc93)
    %xindex_3 = tt.splat %xoffset_2 : i32 -> tensor<1024xi32> loc(#loc94)
    %xindex_4 = arith.addi %xindex_3, %xindex : tensor<1024xi32> loc(#loc94)
    %xmask = tt.splat %xnumel : i32 -> tensor<1024xi32> loc(#loc95)
    %xmask_5 = arith.cmpi slt, %xindex_4, %xmask : tensor<1024xi32> loc(#loc95)
    %x0 = arith.constant 128 : i32 loc(#loc96)
    %x0_6 = arith.constant 128 : i32 loc(#loc96)
    %x0_7 = arith.constant dense<128> : tensor<1024xi32> loc(#loc96)
    %x0_8 = arith.remsi %xindex_4, %x0_7 : tensor<1024xi32> loc(#loc96)
    %x1 = arith.constant 128 : i32 loc(#loc97)
    %x1_9 = arith.constant 128 : i32 loc(#loc97)
    %x1_10 = arith.constant dense<128> : tensor<1024xi32> loc(#loc97)
    %x1_11 = arith.divsi %xindex_4, %x1_10 : tensor<1024xi32> loc(#loc97)
    %x1_12 = arith.constant 8 : i32 loc(#loc98)
    %x1_13 = arith.constant 8 : i32 loc(#loc98)
    %x1_14 = arith.constant dense<8> : tensor<1024xi32> loc(#loc98)
    %x1_15 = arith.remsi %x1_11, %x1_14 : tensor<1024xi32> loc(#loc98)
    %x2 = arith.constant 1024 : i32 loc(#loc99)
    %x2_16 = arith.constant 1024 : i32 loc(#loc99)
    %x2_17 = arith.constant dense<1024> : tensor<1024xi32> loc(#loc99)
    %x2_18 = arith.divsi %xindex_4, %x2_17 : tensor<1024xi32> loc(#loc99)
    %x3 = arith.constant 128 : i32 loc(#loc100)
    %x3_19 = arith.constant 128 : i32 loc(#loc100)
    %x3_20 = arith.constant dense<128> : tensor<1024xi32> loc(#loc100)
    %x3_21 = arith.divsi %xindex_4, %x3_20 : tensor<1024xi32> loc(#loc100)
    %tmp0 = arith.constant 4096 : i32 loc(#loc101)
    %tmp0_22 = arith.constant 4096 : i32 loc(#loc101)
    %tmp0_23 = arith.constant dense<4096> : tensor<1024xi32> loc(#loc101)
    %tmp0_24 = arith.addi %tmp0_23, %x0_8 : tensor<1024xi32> loc(#loc101)
    %tmp0_25 = arith.constant 256 : i32 loc(#loc102)
    %tmp0_26 = arith.constant 256 : i32 loc(#loc102)
    %tmp0_27 = arith.constant dense<256> : tensor<1024xi32> loc(#loc102)
    %tmp0_28 = arith.muli %tmp0_27, %x1_15 : tensor<1024xi32> loc(#loc102)
    %tmp0_29 = arith.addi %tmp0_24, %tmp0_28 : tensor<1024xi32> loc(#loc103)
    %tmp0_30 = arith.constant 8192 : i32 loc(#loc104)
    %tmp0_31 = arith.constant 8192 : i32 loc(#loc104)
    %tmp0_32 = arith.constant dense<8192> : tensor<1024xi32> loc(#loc104)
    %tmp0_33 = arith.muli %tmp0_32, %x2_18 : tensor<1024xi32> loc(#loc104)
    %tmp0_34 = arith.addi %tmp0_29, %tmp0_33 : tensor<1024xi32> loc(#loc105)
    %tmp0_35 = tt.splat %in_ptr0 : !tt.ptr<bf16> -> tensor<1024x!tt.ptr<bf16>> loc(#loc106)
    %tmp0_36 = tt.addptr %tmp0_35, %tmp0_34 : tensor<1024x!tt.ptr<bf16>>, tensor<1024xi32> loc(#loc106)
    %tmp0_37 = tt.load %tmp0_36, %xmask_5 : tensor<1024x!tt.ptr<bf16>> loc(#loc107)
    %tmp0_38 = arith.extf %tmp0_37 : tensor<1024xbf16> to tensor<1024xf32> loc(#loc108)
    %tmp2 = tt.splat %in_ptr1 : !tt.ptr<f32> -> tensor<1024x!tt.ptr<f32>> loc(#loc109)
    %tmp2_39 = tt.addptr %tmp2, %x3_21 : tensor<1024x!tt.ptr<f32>>, tensor<1024xi32> loc(#loc109)
    %tmp2_40 = tt.load %tmp2_39, %xmask_5 evictionPolicy = evict_last : tensor<1024x!tt.ptr<f32>> loc(#loc110)
    %tmp10 = tt.splat %in_ptr2 : !tt.ptr<bf16> -> tensor<1024x!tt.ptr<bf16>> loc(#loc111)
    %tmp10_41 = tt.addptr %tmp10, %x0_8 : tensor<1024x!tt.ptr<bf16>>, tensor<1024xi32> loc(#loc111)
    %tmp10_42 = tt.load %tmp10_41, %xmask_5 evictionPolicy = evict_last : tensor<1024x!tt.ptr<bf16>> loc(#loc112)
    %tmp10_43 = arith.extf %tmp10_42 : tensor<1024xbf16> to tensor<1024xf32> loc(#loc113)
    %tmp12 = tt.splat %in_ptr3 : !tt.ptr<i64> -> tensor<1024x!tt.ptr<i64>> loc(#loc114)
    %tmp12_44 = tt.addptr %tmp12, %x2_18 : tensor<1024x!tt.ptr<i64>>, tensor<1024xi32> loc(#loc114)
    %tmp12_45 = tt.load %tmp12_44, %xmask_5 evictionPolicy = evict_last : tensor<1024x!tt.ptr<i64>> loc(#loc115)
    %tmp20 = arith.constant 4224 : i32 loc(#loc116)
    %tmp20_46 = arith.constant 4224 : i32 loc(#loc116)
    %tmp20_47 = arith.constant dense<4224> : tensor<1024xi32> loc(#loc116)
    %tmp20_48 = arith.addi %tmp20_47, %x0_8 : tensor<1024xi32> loc(#loc116)
    %tmp20_49 = arith.constant 256 : i32 loc(#loc117)
    %tmp20_50 = arith.constant 256 : i32 loc(#loc117)
    %tmp20_51 = arith.constant dense<256> : tensor<1024xi32> loc(#loc117)
    %tmp20_52 = arith.muli %tmp20_51, %x1_15 : tensor<1024xi32> loc(#loc117)
    %tmp20_53 = arith.addi %tmp20_48, %tmp20_52 : tensor<1024xi32> loc(#loc118)
    %tmp20_54 = arith.constant 8192 : i32 loc(#loc119)
    %tmp20_55 = arith.constant 8192 : i32 loc(#loc119)
    %tmp20_56 = arith.constant dense<8192> : tensor<1024xi32> loc(#loc119)
    %tmp20_57 = arith.muli %tmp20_56, %x2_18 : tensor<1024xi32> loc(#loc119)
    %tmp20_58 = arith.addi %tmp20_53, %tmp20_57 : tensor<1024xi32> loc(#loc120)
    %tmp20_59 = tt.splat %in_ptr0 : !tt.ptr<bf16> -> tensor<1024x!tt.ptr<bf16>> loc(#loc121)
    %tmp20_60 = tt.addptr %tmp20_59, %tmp20_58 : tensor<1024x!tt.ptr<bf16>>, tensor<1024xi32> loc(#loc121)
    %tmp20_61 = tt.load %tmp20_60, %xmask_5 : tensor<1024x!tt.ptr<bf16>> loc(#loc122)
    %tmp20_62 = arith.extf %tmp20_61 : tensor<1024xbf16> to tensor<1024xf32> loc(#loc123)
    %tmp24 = arith.constant 128 : i32 loc(#loc124)
    %tmp24_63 = arith.constant 128 : i32 loc(#loc124)
    %tmp24_64 = arith.constant dense<128> : tensor<1024xi32> loc(#loc124)
    %tmp24_65 = arith.addi %tmp24_64, %x0_8 : tensor<1024xi32> loc(#loc124)
    %tmp24_66 = tt.splat %in_ptr2 : !tt.ptr<bf16> -> tensor<1024x!tt.ptr<bf16>> loc(#loc125)
    %tmp24_67 = tt.addptr %tmp24_66, %tmp24_65 : tensor<1024x!tt.ptr<bf16>>, tensor<1024xi32> loc(#loc125)
    %tmp24_68 = tt.load %tmp24_67, %xmask_5 evictionPolicy = evict_last : tensor<1024x!tt.ptr<bf16>> loc(#loc126)
    %tmp24_69 = arith.extf %tmp24_68 : tensor<1024xbf16> to tensor<1024xf32> loc(#loc127)
    %tmp3 = arith.constant 2.560000e+02 : f32 loc(#loc128)
    %tmp3_70 = arith.constant dense<2.560000e+02> : tensor<1xf32> loc(#loc128)
    %tmp4 = arith.constant dense<2.560000e+02> : tensor<1024xf32> loc(#loc129)
    %tmp4_71 = arith.divf %tmp2_40, %tmp4 : tensor<1024xf32> loc(#loc129)
    %tmp5 = arith.constant 9.99999997E-7 : f32 loc(#loc130)
    %tmp5_72 = arith.constant dense<9.99999997E-7> : tensor<1xf32> loc(#loc130)
    %tmp6 = arith.constant dense<9.99999997E-7> : tensor<1024xf32> loc(#loc131)
    %tmp6_73 = arith.addf %tmp4_71, %tmp6 : tensor<1024xf32> loc(#loc131)
    %tmp7 = tt.extern_elementwise %tmp6_73 {libname = "", libpath = "", pure = true, symbol = "__nv_rsqrtf"} : (tensor<1024xf32>) -> tensor<1024xf32> loc(#loc132)
    %tmp8 = arith.mulf %tmp0_38, %tmp7 : tensor<1024xf32> loc(#loc133)
    %tmp11 = arith.mulf %tmp8, %tmp10_43 : tensor<1024xf32> loc(#loc134)
    %tmp13 = arith.constant 262144 : i32 loc(#loc135)
    %tmp13_74 = arith.constant dense<262144> : tensor<1024xi32> loc(#loc135)
    %tmp14 = arith.extsi %tmp13_74 : tensor<1024xi32> to tensor<1024xi64> loc(#loc136)
    %tmp14_75 = arith.addi %tmp12_45, %tmp14 : tensor<1024xi64> loc(#loc136)
    %tmp15 = arith.constant 0 : i32 loc(#loc137)
    %tmp15_76 = arith.extsi %tmp15 : i32 to i64 loc(#loc137)
    %tmp15_77 = tt.splat %tmp15_76 : i64 -> tensor<1024xi64> loc(#loc137)
    %tmp15_78 = arith.cmpi slt, %tmp12_45, %tmp15_77 : tensor<1024xi64> loc(#loc137)
    %tmp16 = arith.select %tmp15_78, %tmp14_75, %tmp12_45 : tensor<1024xi1>, tensor<1024xi64> loc(#loc138)
    %c0_i32 = arith.constant 0 : i32 loc(#loc49)
    %0 = arith.extsi %c0_i32 : i32 to i64 loc(#loc49)
    %1 = tt.splat %0 : i64 -> tensor<1024xi64> loc(#loc49)
    %2 = arith.cmpi sle, %1, %tmp16 : tensor<1024xi64> loc(#loc49)
    %c262144_i32 = arith.constant 262144 : i32 loc(#loc50)
    %3 = arith.extsi %c262144_i32 : i32 to i64 loc(#loc50)
    %4 = tt.splat %3 : i64 -> tensor<1024xi64> loc(#loc50)
    %5 = arith.cmpi slt, %tmp16, %4 : tensor<1024xi64> loc(#loc50)
    %6 = arith.andi %2, %5 : tensor<1024xi1> loc(#loc51)
    %true = arith.constant true loc(#loc52)
    %cst = arith.constant dense<true> : tensor<1024xi1> loc(#loc52)
    %7 = arith.xori %xmask_5, %cst : tensor<1024xi1> loc(#loc52)
    %8 = arith.ori %6, %7 : tensor<1024xi1> loc(#loc53)
    tt.assert %8, "index out of bounds: 0 <= tmp16 < 262144" : tensor<1024xi1> loc(#loc54)
    %tmp18 = arith.constant 256 : i32 loc(#loc139)
    %tmp18_79 = arith.constant 256 : i64 loc(#loc139)
    %tmp18_80 = arith.constant dense<256> : tensor<1024xi64> loc(#loc139)
    %tmp18_81 = arith.muli %tmp18_80, %tmp16 : tensor<1024xi64> loc(#loc139)
    %tmp18_82 = arith.extsi %x0_8 : tensor<1024xi32> to tensor<1024xi64> loc(#loc140)
    %tmp18_83 = arith.addi %tmp18_82, %tmp18_81 : tensor<1024xi64> loc(#loc140)
    %tmp18_84 = tt.splat %in_ptr4 : !tt.ptr<bf16> -> tensor<1024x!tt.ptr<bf16>> loc(#loc141)
    %tmp18_85 = tt.addptr %tmp18_84, %tmp18_83 : tensor<1024x!tt.ptr<bf16>>, tensor<1024xi64> loc(#loc141)
    %tmp18_86 = tt.load %tmp18_85, %xmask_5 : tensor<1024x!tt.ptr<bf16>> loc(#loc142)
    %tmp18_87 = arith.extf %tmp18_86 : tensor<1024xbf16> to tensor<1024xf32> loc(#loc143)
    %tmp19 = arith.mulf %tmp11, %tmp18_87 : tensor<1024xf32> loc(#loc144)
    %tmp22 = arith.mulf %tmp20_62, %tmp7 : tensor<1024xf32> loc(#loc145)
    %tmp25 = arith.mulf %tmp22, %tmp24_69 : tensor<1024xf32> loc(#loc146)
    %tmp26 = arith.constant 128 : i32 loc(#loc147)
    %tmp26_88 = arith.constant 128 : i32 loc(#loc147)
    %tmp26_89 = arith.constant dense<128> : tensor<1024xi32> loc(#loc147)
    %tmp26_90 = arith.addi %tmp26_89, %x0_8 : tensor<1024xi32> loc(#loc147)
    %tmp26_91 = arith.constant 256 : i32 loc(#loc148)
    %tmp26_92 = arith.constant 256 : i64 loc(#loc148)
    %tmp26_93 = arith.constant dense<256> : tensor<1024xi64> loc(#loc148)
    %tmp26_94 = arith.muli %tmp26_93, %tmp16 : tensor<1024xi64> loc(#loc148)
    %tmp26_95 = arith.extsi %tmp26_90 : tensor<1024xi32> to tensor<1024xi64> loc(#loc149)
    %tmp26_96 = arith.addi %tmp26_95, %tmp26_94 : tensor<1024xi64> loc(#loc149)
    %tmp26_97 = tt.splat %in_ptr4 : !tt.ptr<bf16> -> tensor<1024x!tt.ptr<bf16>> loc(#loc150)
    %tmp26_98 = tt.addptr %tmp26_97, %tmp26_96 : tensor<1024x!tt.ptr<bf16>>, tensor<1024xi64> loc(#loc150)
    %tmp26_99 = tt.load %tmp26_98, %xmask_5 : tensor<1024x!tt.ptr<bf16>> loc(#loc151)
    %tmp26_100 = arith.extf %tmp26_99 : tensor<1024xbf16> to tensor<1024xf32> loc(#loc152)
    %tmp27 = arith.mulf %tmp25, %tmp26_100 : tensor<1024xf32> loc(#loc153)
    %tmp28 = arith.subf %tmp19, %tmp27 : tensor<1024xf32> loc(#loc154)
    %tmp29 = arith.mulf %tmp25, %tmp18_87 : tensor<1024xf32> loc(#loc155)
    %tmp30 = arith.mulf %tmp11, %tmp26_100 : tensor<1024xf32> loc(#loc156)
    %tmp31 = arith.addf %tmp29, %tmp30 : tensor<1024xf32> loc(#loc157)
    %c256_i32 = arith.constant 256 : i32 loc(#loc74)
    %c256_i32_101 = arith.constant 256 : i32 loc(#loc74)
    %cst_102 = arith.constant dense<256> : tensor<1024xi32> loc(#loc74)
    %9 = arith.muli %cst_102, %x3_21 : tensor<1024xi32> loc(#loc74)
    %10 = arith.addi %x0_8, %9 : tensor<1024xi32> loc(#loc75)
    %11 = tt.splat %out_ptr0 : !tt.ptr<bf16> -> tensor<1024x!tt.ptr<bf16>> loc(#loc76)
    %12 = tt.addptr %11, %10 : tensor<1024x!tt.ptr<bf16>>, tensor<1024xi32> loc(#loc76)
    %13 = arith.truncf %tmp28 : tensor<1024xf32> to tensor<1024xbf16> loc(#loc77)
    tt.store %12, %13, %xmask_5 : tensor<1024x!tt.ptr<bf16>> loc(#loc77)
    %c256_i32_103 = arith.constant 256 : i32 loc(#loc78)
    %c256_i32_104 = arith.constant 256 : i32 loc(#loc78)
    %cst_105 = arith.constant dense<256> : tensor<1024xi32> loc(#loc78)
    %14 = arith.muli %cst_105, %x3_21 : tensor<1024xi32> loc(#loc78)
    %15 = arith.addi %x0_8, %14 : tensor<1024xi32> loc(#loc79)
    %16 = tt.splat %out_ptr1 : !tt.ptr<bf16> -> tensor<1024x!tt.ptr<bf16>> loc(#loc80)
    %17 = tt.addptr %16, %15 : tensor<1024x!tt.ptr<bf16>>, tensor<1024xi32> loc(#loc80)
    %18 = arith.truncf %tmp31 : tensor<1024xf32> to tensor<1024xbf16> loc(#loc81)
    tt.store %17, %18, %xmask_5 : tensor<1024x!tt.ptr<bf16>> loc(#loc81)
    tt.return loc(#loc82)
  } loc(#loc)
} loc(#loc)
#loc1 = loc("/home/ericbuehler/.cache/vllm/torch_compile_cache/torch_aot_compile/90537ea14f244a5187d6ecc853fbadcf440d710f29c8e182fe8151f3f7751a82/inductor_cache/at/catq2cw2r66rcedpj7qwttvfq62rszfvyhcnqhxji7qqqfyw2jdb.py":23:28)
#loc2 = loc("/home/ericbuehler/.cache/vllm/torch_compile_cache/torch_aot_compile/90537ea14f244a5187d6ecc853fbadcf440d710f29c8e182fe8151f3f7751a82/inductor_cache/at/catq2cw2r66rcedpj7qwttvfq62rszfvyhcnqhxji7qqqfyw2jdb.py":23:33)
#loc3 = loc("/home/ericbuehler/.cache/vllm/torch_compile_cache/torch_aot_compile/90537ea14f244a5187d6ecc853fbadcf440d710f29c8e182fe8151f3f7751a82/inductor_cache/at/catq2cw2r66rcedpj7qwttvfq62rszfvyhcnqhxji7qqqfyw2jdb.py":24:36)
#loc4 = loc("/home/ericbuehler/.cache/vllm/torch_compile_cache/torch_aot_compile/90537ea14f244a5187d6ecc853fbadcf440d710f29c8e182fe8151f3f7751a82/inductor_cache/at/catq2cw2r66rcedpj7qwttvfq62rszfvyhcnqhxji7qqqfyw2jdb.py":24:23)
#loc5 = loc("/home/ericbuehler/.cache/vllm/torch_compile_cache/torch_aot_compile/90537ea14f244a5187d6ecc853fbadcf440d710f29c8e182fe8151f3f7751a82/inductor_cache/at/catq2cw2r66rcedpj7qwttvfq62rszfvyhcnqhxji7qqqfyw2jdb.py":25:21)
#loc6 = loc("/home/ericbuehler/.cache/vllm/torch_compile_cache/torch_aot_compile/90537ea14f244a5187d6ecc853fbadcf440d710f29c8e182fe8151f3f7751a82/inductor_cache/at/catq2cw2r66rcedpj7qwttvfq62rszfvyhcnqhxji7qqqfyw2jdb.py":26:19)
#loc7 = loc("/home/ericbuehler/.cache/vllm/torch_compile_cache/torch_aot_compile/90537ea14f244a5187d6ecc853fbadcf440d710f29c8e182fe8151f3f7751a82/inductor_cache/at/catq2cw2r66rcedpj7qwttvfq62rszfvyhcnqhxji7qqqfyw2jdb.py":27:21)
#loc8 = loc("/home/ericbuehler/.cache/vllm/torch_compile_cache/torch_aot_compile/90537ea14f244a5187d6ecc853fbadcf440d710f29c8e182fe8151f3f7751a82/inductor_cache/at/catq2cw2r66rcedpj7qwttvfq62rszfvyhcnqhxji7qqqfyw2jdb.py":27:28)
#loc9 = loc("/home/ericbuehler/.cache/vllm/torch_compile_cache/torch_aot_compile/90537ea14f244a5187d6ecc853fbadcf440d710f29c8e182fe8151f3f7751a82/inductor_cache/at/catq2cw2r66rcedpj7qwttvfq62rszfvyhcnqhxji7qqqfyw2jdb.py":28:19)
#loc10 = loc("/home/ericbuehler/.cache/vllm/torch_compile_cache/torch_aot_compile/90537ea14f244a5187d6ecc853fbadcf440d710f29c8e182fe8151f3f7751a82/inductor_cache/at/catq2cw2r66rcedpj7qwttvfq62rszfvyhcnqhxji7qqqfyw2jdb.py":29:19)
#loc11 = loc("/home/ericbuehler/.cache/vllm/torch_compile_cache/torch_aot_compile/90537ea14f244a5187d6ecc853fbadcf440d710f29c8e182fe8151f3f7751a82/inductor_cache/at/catq2cw2r66rcedpj7qwttvfq62rszfvyhcnqhxji7qqqfyw2jdb.py":30:37)
#loc12 = loc("/home/ericbuehler/.cache/vllm/torch_compile_cache/torch_aot_compile/90537ea14f244a5187d6ecc853fbadcf440d710f29c8e182fe8151f3f7751a82/inductor_cache/at/catq2cw2r66rcedpj7qwttvfq62rszfvyhcnqhxji7qqqfyw2jdb.py":30:46)
#loc13 = loc("/home/ericbuehler/.cache/vllm/torch_compile_cache/torch_aot_compile/90537ea14f244a5187d6ecc853fbadcf440d710f29c8e182fe8151f3f7751a82/inductor_cache/at/catq2cw2r66rcedpj7qwttvfq62rszfvyhcnqhxji7qqqfyw2jdb.py":30:42)
#loc14 = loc("/home/ericbuehler/.cache/vllm/torch_compile_cache/torch_aot_compile/90537ea14f244a5187d6ecc853fbadcf440d710f29c8e182fe8151f3f7751a82/inductor_cache/at/catq2cw2r66rcedpj7qwttvfq62rszfvyhcnqhxji7qqqfyw2jdb.py":30:56)
#loc15 = loc("/home/ericbuehler/.cache/vllm/torch_compile_cache/torch_aot_compile/90537ea14f244a5187d6ecc853fbadcf440d710f29c8e182fe8151f3f7751a82/inductor_cache/at/catq2cw2r66rcedpj7qwttvfq62rszfvyhcnqhxji7qqqfyw2jdb.py":30:51)
#loc16 = loc("/home/ericbuehler/.cache/vllm/torch_compile_cache/torch_aot_compile/90537ea14f244a5187d6ecc853fbadcf440d710f29c8e182fe8151f3f7751a82/inductor_cache/at/catq2cw2r66rcedpj7qwttvfq62rszfvyhcnqhxji7qqqfyw2jdb.py":30:30)
#loc17 = loc("/home/ericbuehler/.cache/vllm/torch_compile_cache/torch_aot_compile/90537ea14f244a5187d6ecc853fbadcf440d710f29c8e182fe8151f3f7751a82/inductor_cache/at/catq2cw2r66rcedpj7qwttvfq62rszfvyhcnqhxji7qqqfyw2jdb.py":30:61)
#loc18 = loc("/home/ericbuehler/.cache/vllm/torch_compile_cache/torch_aot_compile/90537ea14f244a5187d6ecc853fbadcf440d710f29c8e182fe8151f3f7751a82/inductor_cache/at/catq2cw2r66rcedpj7qwttvfq62rszfvyhcnqhxji7qqqfyw2jdb.py":30:71)
#loc19 = loc("/home/ericbuehler/.cache/vllm/torch_compile_cache/torch_aot_compile/90537ea14f244a5187d6ecc853fbadcf440d710f29c8e182fe8151f3f7751a82/inductor_cache/at/catq2cw2r66rcedpj7qwttvfq62rszfvyhcnqhxji7qqqfyw2jdb.py":31:30)
#loc20 = loc("/home/ericbuehler/.cache/vllm/torch_compile_cache/torch_aot_compile/90537ea14f244a5187d6ecc853fbadcf440d710f29c8e182fe8151f3f7751a82/inductor_cache/at/catq2cw2r66rcedpj7qwttvfq62rszfvyhcnqhxji7qqqfyw2jdb.py":31:35)
#loc21 = loc("/home/ericbuehler/.cache/vllm/torch_compile_cache/torch_aot_compile/90537ea14f244a5187d6ecc853fbadcf440d710f29c8e182fe8151f3f7751a82/inductor_cache/at/catq2cw2r66rcedpj7qwttvfq62rszfvyhcnqhxji7qqqfyw2jdb.py":32:31)
#loc22 = loc("/home/ericbuehler/.cache/vllm/torch_compile_cache/torch_aot_compile/90537ea14f244a5187d6ecc853fbadcf440d710f29c8e182fe8151f3f7751a82/inductor_cache/at/catq2cw2r66rcedpj7qwttvfq62rszfvyhcnqhxji7qqqfyw2jdb.py":32:36)
#loc23 = loc("/home/ericbuehler/.cache/vllm/torch_compile_cache/torch_aot_compile/90537ea14f244a5187d6ecc853fbadcf440d710f29c8e182fe8151f3f7751a82/inductor_cache/at/catq2cw2r66rcedpj7qwttvfq62rszfvyhcnqhxji7qqqfyw2jdb.py":32:76)
#loc24 = loc("/home/ericbuehler/.cache/vllm/torch_compile_cache/torch_aot_compile/90537ea14f244a5187d6ecc853fbadcf440d710f29c8e182fe8151f3f7751a82/inductor_cache/at/catq2cw2r66rcedpj7qwttvfq62rszfvyhcnqhxji7qqqfyw2jdb.py":33:31)
#loc25 = loc("/home/ericbuehler/.cache/vllm/torch_compile_cache/torch_aot_compile/90537ea14f244a5187d6ecc853fbadcf440d710f29c8e182fe8151f3f7751a82/inductor_cache/at/catq2cw2r66rcedpj7qwttvfq62rszfvyhcnqhxji7qqqfyw2jdb.py":33:36)
#loc26 = loc("/home/ericbuehler/.cache/vllm/torch_compile_cache/torch_aot_compile/90537ea14f244a5187d6ecc853fbadcf440d710f29c8e182fe8151f3f7751a82/inductor_cache/at/catq2cw2r66rcedpj7qwttvfq62rszfvyhcnqhxji7qqqfyw2jdb.py":34:38)
#loc27 = loc("/home/ericbuehler/.cache/vllm/torch_compile_cache/torch_aot_compile/90537ea14f244a5187d6ecc853fbadcf440d710f29c8e182fe8151f3f7751a82/inductor_cache/at/catq2cw2r66rcedpj7qwttvfq62rszfvyhcnqhxji7qqqfyw2jdb.py":34:47)
#loc28 = loc("/home/ericbuehler/.cache/vllm/torch_compile_cache/torch_aot_compile/90537ea14f244a5187d6ecc853fbadcf440d710f29c8e182fe8151f3f7751a82/inductor_cache/at/catq2cw2r66rcedpj7qwttvfq62rszfvyhcnqhxji7qqqfyw2jdb.py":34:43)
#loc29 = loc("/home/ericbuehler/.cache/vllm/torch_compile_cache/torch_aot_compile/90537ea14f244a5187d6ecc853fbadcf440d710f29c8e182fe8151f3f7751a82/inductor_cache/at/catq2cw2r66rcedpj7qwttvfq62rszfvyhcnqhxji7qqqfyw2jdb.py":34:57)
#loc30 = loc("/home/ericbuehler/.cache/vllm/torch_compile_cache/torch_aot_compile/90537ea14f244a5187d6ecc853fbadcf440d710f29c8e182fe8151f3f7751a82/inductor_cache/at/catq2cw2r66rcedpj7qwttvfq62rszfvyhcnqhxji7qqqfyw2jdb.py":34:52)
#loc31 = loc("/home/ericbuehler/.cache/vllm/torch_compile_cache/torch_aot_compile/90537ea14f244a5187d6ecc853fbadcf440d710f29c8e182fe8151f3f7751a82/inductor_cache/at/catq2cw2r66rcedpj7qwttvfq62rszfvyhcnqhxji7qqqfyw2jdb.py":34:31)
#loc32 = loc("/home/ericbuehler/.cache/vllm/torch_compile_cache/torch_aot_compile/90537ea14f244a5187d6ecc853fbadcf440d710f29c8e182fe8151f3f7751a82/inductor_cache/at/catq2cw2r66rcedpj7qwttvfq62rszfvyhcnqhxji7qqqfyw2jdb.py":34:62)
#loc33 = loc("/home/ericbuehler/.cache/vllm/torch_compile_cache/torch_aot_compile/90537ea14f244a5187d6ecc853fbadcf440d710f29c8e182fe8151f3f7751a82/inductor_cache/at/catq2cw2r66rcedpj7qwttvfq62rszfvyhcnqhxji7qqqfyw2jdb.py":34:72)
#loc34 = loc("/home/ericbuehler/.cache/vllm/torch_compile_cache/torch_aot_compile/90537ea14f244a5187d6ecc853fbadcf440d710f29c8e182fe8151f3f7751a82/inductor_cache/at/catq2cw2r66rcedpj7qwttvfq62rszfvyhcnqhxji7qqqfyw2jdb.py":35:37)
#loc35 = loc("/home/ericbuehler/.cache/vllm/torch_compile_cache/torch_aot_compile/90537ea14f244a5187d6ecc853fbadcf440d710f29c8e182fe8151f3f7751a82/inductor_cache/at/catq2cw2r66rcedpj7qwttvfq62rszfvyhcnqhxji7qqqfyw2jdb.py":35:31)
#loc36 = loc("/home/ericbuehler/.cache/vllm/torch_compile_cache/torch_aot_compile/90537ea14f244a5187d6ecc853fbadcf440d710f29c8e182fe8151f3f7751a82/inductor_cache/at/catq2cw2r66rcedpj7qwttvfq62rszfvyhcnqhxji7qqqfyw2jdb.py":35:42)
#loc37 = loc("/home/ericbuehler/.cache/vllm/torch_compile_cache/torch_aot_compile/90537ea14f244a5187d6ecc853fbadcf440d710f29c8e182fe8151f3f7751a82/inductor_cache/at/catq2cw2r66rcedpj7qwttvfq62rszfvyhcnqhxji7qqqfyw2jdb.py":35:82)
#loc38 = loc("/home/ericbuehler/.cache/vllm/torch_compile_cache/torch_aot_compile/90537ea14f244a5187d6ecc853fbadcf440d710f29c8e182fe8151f3f7751a82/inductor_cache/at/catq2cw2r66rcedpj7qwttvfq62rszfvyhcnqhxji7qqqfyw2jdb.py":37:31)
#loc39 = loc("/home/ericbuehler/.cache/vllm/torch_compile_cache/torch_aot_compile/90537ea14f244a5187d6ecc853fbadcf440d710f29c8e182fe8151f3f7751a82/inductor_cache/at/catq2cw2r66rcedpj7qwttvfq62rszfvyhcnqhxji7qqqfyw2jdb.py":38:19)
#loc40 = loc("/home/ericbuehler/.cache/vllm/torch_compile_cache/torch_aot_compile/90537ea14f244a5187d6ecc853fbadcf440d710f29c8e182fe8151f3f7751a82/inductor_cache/at/catq2cw2r66rcedpj7qwttvfq62rszfvyhcnqhxji7qqqfyw2jdb.py":39:31)
#loc41 = loc("/home/ericbuehler/.cache/vllm/torch_compile_cache/torch_aot_compile/90537ea14f244a5187d6ecc853fbadcf440d710f29c8e182fe8151f3f7751a82/inductor_cache/at/catq2cw2r66rcedpj7qwttvfq62rszfvyhcnqhxji7qqqfyw2jdb.py":40:18)
#loc42 = loc("/home/ericbuehler/.cache/vllm/torch_compile_cache/torch_aot_compile/90537ea14f244a5187d6ecc853fbadcf440d710f29c8e182fe8151f3f7751a82/inductor_cache/at/catq2cw2r66rcedpj7qwttvfq62rszfvyhcnqhxji7qqqfyw2jdb.py":41:27)
#loc43 = loc("/home/ericbuehler/.cache/vllm/torch_compile_cache/torch_aot_compile/90537ea14f244a5187d6ecc853fbadcf440d710f29c8e182fe8151f3f7751a82/inductor_cache/at/catq2cw2r66rcedpj7qwttvfq62rszfvyhcnqhxji7qqqfyw2jdb.py":42:18)
#loc44 = loc("/home/ericbuehler/.cache/vllm/torch_compile_cache/torch_aot_compile/90537ea14f244a5187d6ecc853fbadcf440d710f29c8e182fe8151f3f7751a82/inductor_cache/at/catq2cw2r66rcedpj7qwttvfq62rszfvyhcnqhxji7qqqfyw2jdb.py":44:19)
#loc45 = loc("/home/ericbuehler/.cache/vllm/torch_compile_cache/torch_aot_compile/90537ea14f244a5187d6ecc853fbadcf440d710f29c8e182fe8151f3f7751a82/inductor_cache/at/catq2cw2r66rcedpj7qwttvfq62rszfvyhcnqhxji7qqqfyw2jdb.py":45:38)
#loc46 = loc("/home/ericbuehler/.cache/vllm/torch_compile_cache/torch_aot_compile/90537ea14f244a5187d6ecc853fbadcf440d710f29c8e182fe8151f3f7751a82/inductor_cache/at/catq2cw2r66rcedpj7qwttvfq62rszfvyhcnqhxji7qqqfyw2jdb.py":46:20)
#loc47 = loc("/home/ericbuehler/.cache/vllm/torch_compile_cache/torch_aot_compile/90537ea14f244a5187d6ecc853fbadcf440d710f29c8e182fe8151f3f7751a82/inductor_cache/at/catq2cw2r66rcedpj7qwttvfq62rszfvyhcnqhxji7qqqfyw2jdb.py":47:20)
#loc48 = loc("/home/ericbuehler/.cache/vllm/torch_compile_cache/torch_aot_compile/90537ea14f244a5187d6ecc853fbadcf440d710f29c8e182fe8151f3f7751a82/inductor_cache/at/catq2cw2r66rcedpj7qwttvfq62rszfvyhcnqhxji7qqqfyw2jdb.py":48:35)
#loc49 = loc("/home/ericbuehler/.cache/vllm/torch_compile_cache/torch_aot_compile/90537ea14f244a5187d6ecc853fbadcf440d710f29c8e182fe8151f3f7751a82/inductor_cache/at/catq2cw2r66rcedpj7qwttvfq62rszfvyhcnqhxji7qqqfyw2jdb.py":49:28)
#loc50 = loc("/home/ericbuehler/.cache/vllm/torch_compile_cache/torch_aot_compile/90537ea14f244a5187d6ecc853fbadcf440d710f29c8e182fe8151f3f7751a82/inductor_cache/at/catq2cw2r66rcedpj7qwttvfq62rszfvyhcnqhxji7qqqfyw2jdb.py":49:46)
#loc51 = loc("/home/ericbuehler/.cache/vllm/torch_compile_cache/torch_aot_compile/90537ea14f244a5187d6ecc853fbadcf440d710f29c8e182fe8151f3f7751a82/inductor_cache/at/catq2cw2r66rcedpj7qwttvfq62rszfvyhcnqhxji7qqqfyw2jdb.py":49:38)
#loc52 = loc("/home/ericbuehler/.cache/vllm/torch_compile_cache/torch_aot_compile/90537ea14f244a5187d6ecc853fbadcf440d710f29c8e182fe8151f3f7751a82/inductor_cache/at/catq2cw2r66rcedpj7qwttvfq62rszfvyhcnqhxji7qqqfyw2jdb.py":49:59)
#loc53 = loc("/home/ericbuehler/.cache/vllm/torch_compile_cache/torch_aot_compile/90537ea14f244a5187d6ecc853fbadcf440d710f29c8e182fe8151f3f7751a82/inductor_cache/at/catq2cw2r66rcedpj7qwttvfq62rszfvyhcnqhxji7qqqfyw2jdb.py":49:57)
#loc54 = loc("/home/ericbuehler/.cache/vllm/torch_compile_cache/torch_aot_compile/90537ea14f244a5187d6ecc853fbadcf440d710f29c8e182fe8151f3f7751a82/inductor_cache/at/catq2cw2r66rcedpj7qwttvfq62rszfvyhcnqhxji7qqqfyw2jdb.py":49:67)
#loc55 = loc("/home/ericbuehler/.cache/vllm/torch_compile_cache/torch_aot_compile/90537ea14f244a5187d6ecc853fbadcf440d710f29c8e182fe8151f3f7751a82/inductor_cache/at/catq2cw2r66rcedpj7qwttvfq62rszfvyhcnqhxji7qqqfyw2jdb.py":50:40)
#loc56 = loc("/home/ericbuehler/.cache/vllm/torch_compile_cache/torch_aot_compile/90537ea14f244a5187d6ecc853fbadcf440d710f29c8e182fe8151f3f7751a82/inductor_cache/at/catq2cw2r66rcedpj7qwttvfq62rszfvyhcnqhxji7qqqfyw2jdb.py":50:36)
#loc57 = loc("/home/ericbuehler/.cache/vllm/torch_compile_cache/torch_aot_compile/90537ea14f244a5187d6ecc853fbadcf440d710f29c8e182fe8151f3f7751a82/inductor_cache/at/catq2cw2r66rcedpj7qwttvfq62rszfvyhcnqhxji7qqqfyw2jdb.py":50:31)
#loc58 = loc("/home/ericbuehler/.cache/vllm/torch_compile_cache/torch_aot_compile/90537ea14f244a5187d6ecc853fbadcf440d710f29c8e182fe8151f3f7751a82/inductor_cache/at/catq2cw2r66rcedpj7qwttvfq62rszfvyhcnqhxji7qqqfyw2jdb.py":50:48)
#loc59 = loc("/home/ericbuehler/.cache/vllm/torch_compile_cache/torch_aot_compile/90537ea14f244a5187d6ecc853fbadcf440d710f29c8e182fe8151f3f7751a82/inductor_cache/at/catq2cw2r66rcedpj7qwttvfq62rszfvyhcnqhxji7qqqfyw2jdb.py":50:58)
#loc60 = loc("/home/ericbuehler/.cache/vllm/torch_compile_cache/torch_aot_compile/90537ea14f244a5187d6ecc853fbadcf440d710f29c8e182fe8151f3f7751a82/inductor_cache/at/catq2cw2r66rcedpj7qwttvfq62rszfvyhcnqhxji7qqqfyw2jdb.py":51:20)
#loc61 = loc("/home/ericbuehler/.cache/vllm/torch_compile_cache/torch_aot_compile/90537ea14f244a5187d6ecc853fbadcf440d710f29c8e182fe8151f3f7751a82/inductor_cache/at/catq2cw2r66rcedpj7qwttvfq62rszfvyhcnqhxji7qqqfyw2jdb.py":53:20)
#loc62 = loc("/home/ericbuehler/.cache/vllm/torch_compile_cache/torch_aot_compile/90537ea14f244a5187d6ecc853fbadcf440d710f29c8e182fe8151f3f7751a82/inductor_cache/at/catq2cw2r66rcedpj7qwttvfq62rszfvyhcnqhxji7qqqfyw2jdb.py":55:20)
#loc63 = loc("/home/ericbuehler/.cache/vllm/torch_compile_cache/torch_aot_compile/90537ea14f244a5187d6ecc853fbadcf440d710f29c8e182fe8151f3f7751a82/inductor_cache/at/catq2cw2r66rcedpj7qwttvfq62rszfvyhcnqhxji7qqqfyw2jdb.py":56:37)
#loc64 = loc("/home/ericbuehler/.cache/vllm/torch_compile_cache/torch_aot_compile/90537ea14f244a5187d6ecc853fbadcf440d710f29c8e182fe8151f3f7751a82/inductor_cache/at/catq2cw2r66rcedpj7qwttvfq62rszfvyhcnqhxji7qqqfyw2jdb.py":56:46)
#loc65 = loc("/home/ericbuehler/.cache/vllm/torch_compile_cache/torch_aot_compile/90537ea14f244a5187d6ecc853fbadcf440d710f29c8e182fe8151f3f7751a82/inductor_cache/at/catq2cw2r66rcedpj7qwttvfq62rszfvyhcnqhxji7qqqfyw2jdb.py":56:42)
#loc66 = loc("/home/ericbuehler/.cache/vllm/torch_compile_cache/torch_aot_compile/90537ea14f244a5187d6ecc853fbadcf440d710f29c8e182fe8151f3f7751a82/inductor_cache/at/catq2cw2r66rcedpj7qwttvfq62rszfvyhcnqhxji7qqqfyw2jdb.py":56:31)
#loc67 = loc("/home/ericbuehler/.cache/vllm/torch_compile_cache/torch_aot_compile/90537ea14f244a5187d6ecc853fbadcf440d710f29c8e182fe8151f3f7751a82/inductor_cache/at/catq2cw2r66rcedpj7qwttvfq62rszfvyhcnqhxji7qqqfyw2jdb.py":56:54)
#loc68 = loc("/home/ericbuehler/.cache/vllm/torch_compile_cache/torch_aot_compile/90537ea14f244a5187d6ecc853fbadcf440d710f29c8e182fe8151f3f7751a82/inductor_cache/at/catq2cw2r66rcedpj7qwttvfq62rszfvyhcnqhxji7qqqfyw2jdb.py":56:64)
#loc69 = loc("/home/ericbuehler/.cache/vllm/torch_compile_cache/torch_aot_compile/90537ea14f244a5187d6ecc853fbadcf440d710f29c8e182fe8151f3f7751a82/inductor_cache/at/catq2cw2r66rcedpj7qwttvfq62rszfvyhcnqhxji7qqqfyw2jdb.py":57:20)
#loc70 = loc("/home/ericbuehler/.cache/vllm/torch_compile_cache/torch_aot_compile/90537ea14f244a5187d6ecc853fbadcf440d710f29c8e182fe8151f3f7751a82/inductor_cache/at/catq2cw2r66rcedpj7qwttvfq62rszfvyhcnqhxji7qqqfyw2jdb.py":58:20)
#loc71 = loc("/home/ericbuehler/.cache/vllm/torch_compile_cache/torch_aot_compile/90537ea14f244a5187d6ecc853fbadcf440d710f29c8e182fe8151f3f7751a82/inductor_cache/at/catq2cw2r66rcedpj7qwttvfq62rszfvyhcnqhxji7qqqfyw2jdb.py":59:20)
#loc72 = loc("/home/ericbuehler/.cache/vllm/torch_compile_cache/torch_aot_compile/90537ea14f244a5187d6ecc853fbadcf440d710f29c8e182fe8151f3f7751a82/inductor_cache/at/catq2cw2r66rcedpj7qwttvfq62rszfvyhcnqhxji7qqqfyw2jdb.py":60:20)
#loc73 = loc("/home/ericbuehler/.cache/vllm/torch_compile_cache/torch_aot_compile/90537ea14f244a5187d6ecc853fbadcf440d710f29c8e182fe8151f3f7751a82/inductor_cache/at/catq2cw2r66rcedpj7qwttvfq62rszfvyhcnqhxji7qqqfyw2jdb.py":61:20)
#loc74 = loc("/home/ericbuehler/.cache/vllm/torch_compile_cache/torch_aot_compile/90537ea14f244a5187d6ecc853fbadcf440d710f29c8e182fe8151f3f7751a82/inductor_cache/at/catq2cw2r66rcedpj7qwttvfq62rszfvyhcnqhxji7qqqfyw2jdb.py":62:34)
#loc75 = loc("/home/ericbuehler/.cache/vllm/torch_compile_cache/torch_aot_compile/90537ea14f244a5187d6ecc853fbadcf440d710f29c8e182fe8151f3f7751a82/inductor_cache/at/catq2cw2r66rcedpj7qwttvfq62rszfvyhcnqhxji7qqqfyw2jdb.py":62:30)
#loc76 = loc("/home/ericbuehler/.cache/vllm/torch_compile_cache/torch_aot_compile/90537ea14f244a5187d6ecc853fbadcf440d710f29c8e182fe8151f3f7751a82/inductor_cache/at/catq2cw2r66rcedpj7qwttvfq62rszfvyhcnqhxji7qqqfyw2jdb.py":62:25)
#loc77 = loc("/home/ericbuehler/.cache/vllm/torch_compile_cache/torch_aot_compile/90537ea14f244a5187d6ecc853fbadcf440d710f29c8e182fe8151f3f7751a82/inductor_cache/at/catq2cw2r66rcedpj7qwttvfq62rszfvyhcnqhxji7qqqfyw2jdb.py":62:46)
#loc78 = loc("/home/ericbuehler/.cache/vllm/torch_compile_cache/torch_aot_compile/90537ea14f244a5187d6ecc853fbadcf440d710f29c8e182fe8151f3f7751a82/inductor_cache/at/catq2cw2r66rcedpj7qwttvfq62rszfvyhcnqhxji7qqqfyw2jdb.py":63:34)
#loc79 = loc("/home/ericbuehler/.cache/vllm/torch_compile_cache/torch_aot_compile/90537ea14f244a5187d6ecc853fbadcf440d710f29c8e182fe8151f3f7751a82/inductor_cache/at/catq2cw2r66rcedpj7qwttvfq62rszfvyhcnqhxji7qqqfyw2jdb.py":63:30)
#loc80 = loc("/home/ericbuehler/.cache/vllm/torch_compile_cache/torch_aot_compile/90537ea14f244a5187d6ecc853fbadcf440d710f29c8e182fe8151f3f7751a82/inductor_cache/at/catq2cw2r66rcedpj7qwttvfq62rszfvyhcnqhxji7qqqfyw2jdb.py":63:25)
#loc81 = loc("/home/ericbuehler/.cache/vllm/torch_compile_cache/torch_aot_compile/90537ea14f244a5187d6ecc853fbadcf440d710f29c8e182fe8151f3f7751a82/inductor_cache/at/catq2cw2r66rcedpj7qwttvfq62rszfvyhcnqhxji7qqqfyw2jdb.py":63:46)
#loc82 = loc("/home/ericbuehler/.cache/vllm/torch_compile_cache/torch_aot_compile/90537ea14f244a5187d6ecc853fbadcf440d710f29c8e182fe8151f3f7751a82/inductor_cache/at/catq2cw2r66rcedpj7qwttvfq62rszfvyhcnqhxji7qqqfyw2jdb.py":63:4)
#loc91 = loc("xoffset"(#loc1))
#loc92 = loc("xoffset"(#loc2))
#loc93 = loc("xindex"(#loc3))
#loc94 = loc("xindex"(#loc4))
#loc95 = loc("xmask"(#loc5))
#loc96 = loc("x0"(#loc6))
#loc97 = loc("x1"(#loc7))
#loc98 = loc("x1"(#loc8))
#loc99 = loc("x2"(#loc9))
#loc100 = loc("x3"(#loc10))
#loc101 = loc("tmp0"(#loc11))
#loc102 = loc("tmp0"(#loc12))
#loc103 = loc("tmp0"(#loc13))
#loc104 = loc("tmp0"(#loc14))
#loc105 = loc("tmp0"(#loc15))
#loc106 = loc("tmp0"(#loc16))
#loc107 = loc("tmp0"(#loc17))
#loc108 = loc("tmp0"(#loc18))
#loc109 = loc("tmp2"(#loc19))
#loc110 = loc("tmp2"(#loc20))
#loc111 = loc("tmp10"(#loc21))
#loc112 = loc("tmp10"(#loc22))
#loc113 = loc("tmp10"(#loc23))
#loc114 = loc("tmp12"(#loc24))
#loc115 = loc("tmp12"(#loc25))
#loc116 = loc("tmp20"(#loc26))
#loc117 = loc("tmp20"(#loc27))
#loc118 = loc("tmp20"(#loc28))
#loc119 = loc("tmp20"(#loc29))
#loc120 = loc("tmp20"(#loc30))
#loc121 = loc("tmp20"(#loc31))
#loc122 = loc("tmp20"(#loc32))
#loc123 = loc("tmp20"(#loc33))
#loc124 = loc("tmp24"(#loc34))
#loc125 = loc("tmp24"(#loc35))
#loc126 = loc("tmp24"(#loc36))
#loc127 = loc("tmp24"(#loc37))
#loc128 = loc("tmp3"(#loc38))
#loc129 = loc("tmp4"(#loc39))
#loc130 = loc("tmp5"(#loc40))
#loc131 = loc("tmp6"(#loc41))
#loc132 = loc("tmp7"(#loc42))
#loc133 = loc("tmp8"(#loc43))
#loc134 = loc("tmp11"(#loc44))
#loc135 = loc("tmp13"(#loc45))
#loc136 = loc("tmp14"(#loc46))
#loc137 = loc("tmp15"(#loc47))
#loc138 = loc("tmp16"(#loc48))
#loc139 = loc("tmp18"(#loc55))
#loc140 = loc("tmp18"(#loc56))
#loc141 = loc("tmp18"(#loc57))
#loc142 = loc("tmp18"(#loc58))
#loc143 = loc("tmp18"(#loc59))
#loc144 = loc("tmp19"(#loc60))
#loc145 = loc("tmp22"(#loc61))
#loc146 = loc("tmp25"(#loc62))
#loc147 = loc("tmp26"(#loc63))
#loc148 = loc("tmp26"(#loc64))
#loc149 = loc("tmp26"(#loc65))
#loc150 = loc("tmp26"(#loc66))
#loc151 = loc("tmp26"(#loc67))
#loc152 = loc("tmp26"(#loc68))
#loc153 = loc("tmp27"(#loc69))
#loc154 = loc("tmp28"(#loc70))
#loc155 = loc("tmp29"(#loc71))
#loc156 = loc("tmp30"(#loc72))
#loc157 = loc("tmp31"(#loc73))
