#loc = loc("/home/ericbuehler/vllm/.venv-bench/lib/python3.12/site-packages/vllm/v1/attention/ops/triton_unified_attention.py":388:0)
#loc5 = loc("/home/ericbuehler/vllm/.venv-bench/lib/python3.12/site-packages/vllm/v1/attention/ops/triton_unified_attention.py":415:65)
#loc6 = loc(unknown)
#loc20 = loc("left")
#loc21 = loc("right")
#loc48 = loc("/home/ericbuehler/vllm/.venv-bench/lib/python3.12/site-packages/vllm/v1/attention/ops/triton_unified_attention.py":439:25)
#loc55 = loc("/home/ericbuehler/vllm/.venv-bench/lib/python3.12/site-packages/vllm/v1/attention/ops/triton_unified_attention.py":444:28)
#loc69 = loc("/home/ericbuehler/vllm/.venv-bench/lib/python3.12/site-packages/vllm/v1/attention/ops/triton_unified_attention.py":460:21)
#loc79 = loc("output_ptr"(#loc))
#loc80 = loc("segm_output_ptr"(#loc))
#loc81 = loc("segm_max_ptr"(#loc))
#loc82 = loc("segm_expsum_ptr"(#loc))
#loc83 = loc("seq_lens_ptr"(#loc))
#loc84 = loc("num_seqs"(#loc))
#loc85 = loc("out_scale_inv"(#loc))
#loc86 = loc("output_stride_0"(#loc))
#loc87 = loc("output_stride_1"(#loc))
#loc88 = loc("block_table_stride"(#loc))
#loc89 = loc("query_start_len_ptr"(#loc))
#loc93 = loc("seq_idx"(#loc5))
#loc106 = loc("left"(#loc20))
#loc107 = loc("right"(#loc21))
#loc127 = loc("overall_max"(#loc48))
#loc132 = loc("overall_expsum"(#loc55))
#loc145 = loc("acc_sum"(#loc69))
#loc157 = loc(callsite(#loc106 at #loc93))
#loc158 = loc(callsite(#loc107 at #loc93))
#loc173 = loc(callsite(#loc6 at #loc127))
#loc175 = loc(callsite(#loc6 at #loc132))
#loc177 = loc(callsite(#loc6 at #loc145))
module {
  tt.func public @reduce_segments(%output_ptr: !tt.ptr<bf16> {tt.divisibility = 16 : i32} loc("output_ptr"(#loc)), %segm_output_ptr: !tt.ptr<f32> {tt.divisibility = 16 : i32} loc("segm_output_ptr"(#loc)), %segm_max_ptr: !tt.ptr<f32> {tt.divisibility = 16 : i32} loc("segm_max_ptr"(#loc)), %segm_expsum_ptr: !tt.ptr<f32> {tt.divisibility = 16 : i32} loc("segm_expsum_ptr"(#loc)), %seq_lens_ptr: !tt.ptr<i32> {tt.divisibility = 16 : i32} loc("seq_lens_ptr"(#loc)), %num_seqs: i32 loc("num_seqs"(#loc)), %out_scale_inv: f32 loc("out_scale_inv"(#loc)), %output_stride_0: i64 {tt.divisibility = 16 : i32} loc("output_stride_0"(#loc)), %output_stride_1: i64 {tt.divisibility = 16 : i32} loc("output_stride_1"(#loc)), %block_table_stride: i64 loc("block_table_stride"(#loc)), %query_start_len_ptr: !tt.ptr<i32> {tt.divisibility = 16 : i32} loc("query_start_len_ptr"(#loc))) attributes {noinline = false} {
    %tiles_per_segment = arith.constant 255 : i32 loc(#loc178)
    %left = arith.constant 0 : i32 loc(#loc179)
    %seq_idx = arith.constant 2 : i32 loc(#loc154)
    %c1_i32 = arith.constant 1 : i32 loc(#loc6)
    %tiles_per_segment_0 = arith.constant 256 : i32 loc(#loc91)
    %acc = arith.constant dense<0.000000e+00> : tensor<512xf32> loc(#loc94)
    %segm_output = arith.constant dense<0.000000e+00> : tensor<16x512xf32> loc(#loc95)
    %segm_output_offset = arith.constant dense<512> : tensor<16x1xi32> loc(#loc96)
    %c8192_i32 = arith.constant 8192 : i32 loc(#loc6)
    %segm_output_offset_1 = arith.constant 131072 : i64 loc(#loc97)
    %segm_expsum = arith.constant dense<0.000000e+00> : tensor<16xf32> loc(#loc98)
    %cst = arith.constant 0.000000e+00 : f32 loc(#loc6)
    %segm_max = arith.constant dense<0xFF800000> : tensor<16xf32> loc(#loc99)
    %segm_offset = arith.constant 256 : i64 loc(#loc100)
    %cst_2 = arith.constant dense<0> : tensor<512xi32> loc(#loc6)
    %dim_mask = arith.constant dense<1> : tensor<512xi32> loc(#loc101)
    %dim_mask_3 = arith.constant dense<512> : tensor<512xi32> loc(#loc102)
    %c16_i32 = arith.constant 16 : i32 loc(#loc6)
    %query_token_idx = tt.get_program_id x : i32 loc(#loc103)
    %query_head_idx = tt.get_program_id y : i32 loc(#loc104)
    %right:2 = scf.while (%left_73 = %left, %right_74 = %num_seqs) : (i32, i32) -> (i32, i32) {
      %seq_idx_75 = arith.cmpi slt, %left_73, %right_74 : i32 loc(#loc156)
      scf.condition(%seq_idx_75) %left_73, %right_74 : i32, i32 loc(#loc156)
    } do {
    ^bb0(%left_73: i32 loc(callsite(#loc106 at #loc93)), %right_74: i32 loc(callsite(#loc107 at #loc93))):
      %mid = arith.addi %left_73, %right_74 : i32 loc(#loc159)
      %right_75 = arith.divsi %mid, %seq_idx : i32 loc(#loc181)
      %val = tt.addptr %query_start_len_ptr, %right_75 : !tt.ptr<i32>, i32 loc(#loc161)
      %val_76 = tt.load %val : !tt.ptr<i32> loc(#loc162)
      %seq_idx_77 = arith.cmpi sle, %val_76, %query_token_idx : i32 loc(#loc163)
      %seq_idx_78 = arith.select %seq_idx_77, %right_74, %right_75 : i32 loc(#loc164)
      %seq_idx_79 = scf.if %seq_idx_77 -> (i32) {
        %left_80 = arith.addi %right_75, %c1_i32 : i32 loc(#loc182)
        scf.yield %left_80 : i32 loc(#loc182)
      } else {
        scf.yield %left_73 : i32 loc(#loc164)
      } loc(#loc164)
      scf.yield %seq_idx_79, %seq_idx_78 : i32, i32 loc(#loc166)
    } loc(#loc180)
    %seq_idx_4 = arith.subi %right#0, %c1_i32 : i32 loc(#loc167)
    %seq_len = tt.addptr %seq_lens_ptr, %seq_idx_4 : !tt.ptr<i32>, i32 loc(#loc113)
    %seq_len_5 = tt.load %seq_len : !tt.ptr<i32> loc(#loc114)
    %tiles_per_segment_6 = arith.addi %seq_len_5, %tiles_per_segment : i32 loc(#loc178)
    %tiles_per_segment_7 = arith.divsi %tiles_per_segment_6, %tiles_per_segment_0 : i32 loc(#loc168)
    %act_num_segments = arith.muli %tiles_per_segment_7, %c16_i32 : i32 loc(#loc115)
    %act_num_segments_8 = arith.addi %seq_len_5, %act_num_segments : i32 loc(#loc169)
    %act_num_segments_9 = arith.subi %act_num_segments_8, %c1_i32 : i32 loc(#loc170)
    %act_num_segments_10 = arith.divsi %act_num_segments_9, %act_num_segments : i32 loc(#loc171)
    %segm_mask = tt.make_range {end = 16 : i32, start = 0 : i32} : tensor<16xi32> loc(#loc117)
    %segm_mask_11 = tt.splat %act_num_segments_10 : i32 -> tensor<16xi32> loc(#loc118)
    %segm_mask_12 = arith.cmpi slt, %segm_mask, %segm_mask_11 : tensor<16xi32> loc(#loc119)
    %dim_mask_13 = tt.make_range {end = 512 : i32, start = 0 : i32} : tensor<512xi32> loc(#loc120)
    %dim_mask_14 = arith.cmpi slt, %dim_mask_13, %dim_mask_3 : tensor<512xi32> loc(#loc102)
    %dim_mask_15 = arith.select %dim_mask_14, %dim_mask, %cst_2 : tensor<512xi1>, tensor<512xi32> loc(#loc101)
    %dim_mask_16 = arith.cmpi ne, %dim_mask_15, %cst_2 : tensor<512xi32> loc(#loc121)
    %segm_offset_17 = arith.extsi %query_token_idx : i32 to i64 loc(#loc122)
    %segm_offset_18 = arith.muli %segm_offset_17, %segm_offset : i64 loc(#loc100)
    %segm_offset_19 = arith.muli %query_head_idx, %c16_i32 : i32 loc(#loc123)
    %segm_offset_20 = arith.extsi %segm_offset_19 : i32 to i64 loc(#loc124)
    %segm_offset_21 = arith.addi %segm_offset_18, %segm_offset_20 : i64 loc(#loc124)
    %segm_offset_22 = arith.extsi %segm_mask : tensor<16xi32> to tensor<16xi64> loc(#loc125)
    %segm_offset_23 = tt.splat %segm_offset_21 : i64 -> tensor<16xi64> loc(#loc125)
    %segm_offset_24 = arith.addi %segm_offset_23, %segm_offset_22 : tensor<16xi64> loc(#loc125)
    %segm_max_25 = tt.splat %segm_max_ptr : !tt.ptr<f32> -> tensor<16x!tt.ptr<f32>> loc(#loc126)
    %segm_max_26 = tt.addptr %segm_max_25, %segm_offset_24 : tensor<16x!tt.ptr<f32>>, tensor<16xi64> loc(#loc126)
    %segm_max_27 = tt.load %segm_max_26, %segm_mask_12, %segm_max : tensor<16x!tt.ptr<f32>> loc(#loc99)
    %overall_max = tt.reshape %segm_max_27 allow_reorder : tensor<16xf32> -> tensor<16xf32> loc(#loc172)
    %overall_max_28 = "tt.reduce"(%overall_max) <{axis = 0 : i32}> ({
    ^bb0(%overall_max_73: f32 loc(callsite(#loc6 at #loc127)), %overall_max_74: f32 loc(callsite(#loc6 at #loc127))):
      %overall_max_75 = arith.maxnumf %overall_max_73, %overall_max_74 : f32 loc(#loc183)
      tt.reduce.return %overall_max_75 : f32 loc(#loc172)
    }) : (tensor<16xf32>) -> f32 loc(#loc172)
    %segm_expsum_29 = tt.splat %segm_expsum_ptr : !tt.ptr<f32> -> tensor<16x!tt.ptr<f32>> loc(#loc128)
    %segm_expsum_30 = tt.addptr %segm_expsum_29, %segm_offset_24 : tensor<16x!tt.ptr<f32>>, tensor<16xi64> loc(#loc128)
    %segm_expsum_31 = tt.load %segm_expsum_30, %segm_mask_12, %segm_expsum : tensor<16x!tt.ptr<f32>> loc(#loc98)
    %segm_expsum_32 = tt.splat %overall_max_28 : f32 -> tensor<16xf32> loc(#loc129)
    %segm_expsum_33 = arith.subf %segm_max_27, %segm_expsum_32 : tensor<16xf32> loc(#loc129)
    %segm_expsum_34 = math.exp %segm_expsum_33 : tensor<16xf32> loc(#loc130)
    %segm_expsum_35 = arith.mulf %segm_expsum_31, %segm_expsum_34 : tensor<16xf32> loc(#loc131)
    %overall_expsum = tt.reshape %segm_expsum_35 allow_reorder : tensor<16xf32> -> tensor<16xf32> loc(#loc174)
    %overall_expsum_36 = "tt.reduce"(%overall_expsum) <{axis = 0 : i32}> ({
    ^bb0(%overall_expsum_73: f32 loc(callsite(#loc6 at #loc132)), %overall_expsum_74: f32 loc(callsite(#loc6 at #loc132))):
      %overall_expsum_75 = arith.addf %overall_expsum_73, %overall_expsum_74 : f32 loc(#loc184)
      tt.reduce.return %overall_expsum_75 : f32 loc(#loc174)
    }) : (tensor<16xf32>) -> f32 loc(#loc174)
    %segm_output_offset_37 = arith.muli %segm_offset_17, %segm_output_offset_1 : i64 loc(#loc97)
    %segm_output_offset_38 = arith.muli %query_head_idx, %c8192_i32 : i32 loc(#loc133)
    %segm_output_offset_39 = arith.extsi %segm_output_offset_38 : i32 to i64 loc(#loc134)
    %segm_output_offset_40 = arith.addi %segm_output_offset_37, %segm_output_offset_39 : i64 loc(#loc134)
    %segm_output_offset_41 = tt.expand_dims %segm_mask {axis = 1 : i32} : tensor<16xi32> -> tensor<16x1xi32> loc(#loc135)
    %segm_output_offset_42 = arith.muli %segm_output_offset_41, %segm_output_offset : tensor<16x1xi32> loc(#loc96)
    %segm_output_offset_43 = arith.extsi %segm_output_offset_42 : tensor<16x1xi32> to tensor<16x1xi64> loc(#loc136)
    %segm_output_offset_44 = tt.splat %segm_output_offset_40 : i64 -> tensor<16x1xi64> loc(#loc136)
    %segm_output_offset_45 = arith.addi %segm_output_offset_44, %segm_output_offset_43 : tensor<16x1xi64> loc(#loc136)
    %segm_output_offset_46 = tt.expand_dims %dim_mask_13 {axis = 0 : i32} : tensor<512xi32> -> tensor<1x512xi32> loc(#loc137)
    %segm_output_offset_47 = arith.extsi %segm_output_offset_46 : tensor<1x512xi32> to tensor<1x512xi64> loc(#loc138)
    %segm_output_offset_48 = tt.broadcast %segm_output_offset_45 : tensor<16x1xi64> -> tensor<16x512xi64> loc(#loc138)
    %segm_output_offset_49 = tt.broadcast %segm_output_offset_47 : tensor<1x512xi64> -> tensor<16x512xi64> loc(#loc138)
    %segm_output_offset_50 = arith.addi %segm_output_offset_48, %segm_output_offset_49 : tensor<16x512xi64> loc(#loc138)
    %segm_output_51 = tt.expand_dims %segm_mask_12 {axis = 1 : i32} : tensor<16xi1> -> tensor<16x1xi1> loc(#loc139)
    %segm_output_52 = tt.expand_dims %dim_mask_16 {axis = 0 : i32} : tensor<512xi1> -> tensor<1x512xi1> loc(#loc140)
    %segm_output_53 = tt.broadcast %segm_output_51 : tensor<16x1xi1> -> tensor<16x512xi1> loc(#loc141)
    %segm_output_54 = tt.broadcast %segm_output_52 : tensor<1x512xi1> -> tensor<16x512xi1> loc(#loc141)
    %segm_output_55 = arith.andi %segm_output_53, %segm_output_54 : tensor<16x512xi1> loc(#loc141)
    %segm_output_56 = tt.splat %segm_output_ptr : !tt.ptr<f32> -> tensor<16x512x!tt.ptr<f32>> loc(#loc142)
    %segm_output_57 = tt.addptr %segm_output_56, %segm_output_offset_50 : tensor<16x512x!tt.ptr<f32>>, tensor<16x512xi64> loc(#loc142)
    %segm_output_58 = tt.load %segm_output_57, %segm_output_55, %segm_output : tensor<16x512x!tt.ptr<f32>> loc(#loc95)
    %segm_output_59 = tt.expand_dims %segm_expsum_34 {axis = 1 : i32} : tensor<16xf32> -> tensor<16x1xf32> loc(#loc143)
    %segm_output_60 = tt.broadcast %segm_output_59 : tensor<16x1xf32> -> tensor<16x512xf32> loc(#loc144)
    %segm_output_61 = arith.mulf %segm_output_58, %segm_output_60 : tensor<16x512xf32> loc(#loc144)
    %acc_sum = "tt.reduce"(%segm_output_61) <{axis = 0 : i32}> ({
    ^bb0(%acc_sum_73: f32 loc(callsite(#loc6 at #loc145)), %acc_sum_74: f32 loc(callsite(#loc6 at #loc145))):
      %acc_sum_75 = arith.addf %acc_sum_73, %acc_sum_74 : f32 loc(#loc185)
      tt.reduce.return %acc_sum_75 : f32 loc(#loc176)
    }) : (tensor<16x512xf32>) -> tensor<512xf32> loc(#loc176)
    %acc_62 = arith.cmpf oeq, %overall_expsum_36, %cst : f32 loc(#loc146)
    %acc_63 = tt.splat %overall_expsum_36 : f32 -> tensor<512xf32> loc(#loc147)
    %acc_64 = arith.divf %acc_sum, %acc_63 : tensor<512xf32> loc(#loc147)
    %acc_65 = tt.splat %acc_62 : i1 -> tensor<512xi1> loc(#loc94)
    %acc_66 = arith.select %acc_65, %acc, %acc_64 : tensor<512xi1>, tensor<512xf32> loc(#loc94)
    %output_offset = arith.muli %segm_offset_17, %output_stride_0 : i64 loc(#loc148)
    %output_offset_67 = arith.extsi %query_head_idx : i32 to i64 loc(#loc149)
    %output_offset_68 = arith.muli %output_offset_67, %output_stride_1 : i64 loc(#loc149)
    %output_offset_69 = arith.addi %output_offset, %output_offset_68 : i64 loc(#loc150)
    %output_offset_70 = arith.extsi %dim_mask_13 : tensor<512xi32> to tensor<512xi64> loc(#loc151)
    %output_offset_71 = tt.splat %output_offset_69 : i64 -> tensor<512xi64> loc(#loc151)
    %output_offset_72 = arith.addi %output_offset_71, %output_offset_70 : tensor<512xi64> loc(#loc151)
    %0 = tt.splat %output_ptr : !tt.ptr<bf16> -> tensor<512x!tt.ptr<bf16>> loc(#loc76)
    %1 = tt.addptr %0, %output_offset_72 : tensor<512x!tt.ptr<bf16>>, tensor<512xi64> loc(#loc76)
    %2 = arith.truncf %acc_66 : tensor<512xf32> to tensor<512xbf16> loc(#loc77)
    tt.store %1, %2, %dim_mask_16 : tensor<512x!tt.ptr<bf16>> loc(#loc77)
    tt.return loc(#loc78)
  } loc(#loc)
} loc(#loc)
#loc1 = loc("/home/ericbuehler/vllm/.venv-bench/lib/python3.12/site-packages/vllm/v1/attention/ops/triton_attention_helpers.py":24:20)
#loc2 = loc("/home/ericbuehler/vllm/.venv-bench/lib/python3.12/site-packages/vllm/v1/attention/ops/triton_unified_attention.py":423:41)
#loc3 = loc("/home/ericbuehler/vllm/.venv-bench/lib/python3.12/site-packages/vllm/v1/attention/ops/triton_unified_attention.py":423:56)
#loc4 = loc("/home/ericbuehler/vllm/.venv-bench/lib/python3.12/site-packages/vllm/v1/attention/ops/triton_attention_helpers.py":94:21)
#loc7 = loc("/home/ericbuehler/vllm/.venv-bench/lib/python3.12/site-packages/vllm/v1/attention/ops/triton_unified_attention.py":462:47)
#loc8 = loc("/home/ericbuehler/vllm/.venv-bench/lib/python3.12/site-packages/vllm/v1/attention/ops/triton_unified_attention.py":455:8)
#loc9 = loc("/home/ericbuehler/vllm/.venv-bench/lib/python3.12/site-packages/vllm/v1/attention/ops/triton_unified_attention.py":451:56)
#loc10 = loc("/home/ericbuehler/vllm/.venv-bench/lib/python3.12/site-packages/vllm/v1/attention/ops/triton_unified_attention.py":449:11)
#loc11 = loc("/home/ericbuehler/vllm/.venv-bench/lib/python3.12/site-packages/vllm/v1/attention/ops/triton_unified_attention.py":442:26)
#loc12 = loc("/home/ericbuehler/vllm/.venv-bench/lib/python3.12/site-packages/vllm/v1/attention/ops/triton_unified_attention.py":438:23)
#loc13 = loc("/home/ericbuehler/vllm/.venv-bench/lib/python3.12/site-packages/vllm/v1/attention/ops/triton_unified_attention.py":434:40)
#loc14 = loc("/home/ericbuehler/vllm/.venv-bench/lib/python3.12/site-packages/vllm/v1/attention/ops/triton_unified_attention.py":430:71)
#loc15 = loc("/home/ericbuehler/vllm/.venv-bench/lib/python3.12/site-packages/vllm/v1/attention/ops/triton_unified_attention.py":430:57)
#loc16 = loc("/home/ericbuehler/vllm/.venv-bench/lib/python3.12/site-packages/vllm/v1/attention/ops/triton_unified_attention.py":411:36)
#loc17 = loc("/home/ericbuehler/vllm/.venv-bench/lib/python3.12/site-packages/vllm/v1/attention/ops/triton_unified_attention.py":412:35)
#loc18 = loc("/home/ericbuehler/vllm/.venv-bench/lib/python3.12/site-packages/vllm/v1/attention/ops/triton_attention_helpers.py":96:4)
#loc19 = loc("/home/ericbuehler/vllm/.venv-bench/lib/python3.12/site-packages/vllm/v1/attention/ops/triton_attention_helpers.py":96:17)
#loc22 = loc("/home/ericbuehler/vllm/.venv-bench/lib/python3.12/site-packages/vllm/v1/attention/ops/triton_attention_helpers.py":97:22)
#loc23 = loc("/home/ericbuehler/vllm/.venv-bench/lib/python3.12/site-packages/vllm/v1/attention/ops/triton_attention_helpers.py":97:32)
#loc24 = loc("/home/ericbuehler/vllm/.venv-bench/lib/python3.12/site-packages/vllm/v1/attention/ops/triton_attention_helpers.py":98:44)
#loc25 = loc("/home/ericbuehler/vllm/.venv-bench/lib/python3.12/site-packages/vllm/v1/attention/ops/triton_attention_helpers.py":98:22)
#loc26 = loc("/home/ericbuehler/vllm/.venv-bench/lib/python3.12/site-packages/vllm/v1/attention/ops/triton_attention_helpers.py":101:22)
#loc27 = loc("/home/ericbuehler/vllm/.venv-bench/lib/python3.12/site-packages/vllm/v1/attention/ops/triton_attention_helpers.py":101:11)
#loc28 = loc("/home/ericbuehler/vllm/.venv-bench/lib/python3.12/site-packages/vllm/v1/attention/ops/triton_attention_helpers.py":102:25)
#loc29 = loc("/home/ericbuehler/vllm/.venv-bench/lib/python3.12/site-packages/vllm/v1/attention/ops/triton_attention_helpers.py":101:8)
#loc30 = loc("/home/ericbuehler/vllm/.venv-bench/lib/python3.12/site-packages/vllm/v1/attention/ops/triton_attention_helpers.py":106:18)
#loc31 = loc("/home/ericbuehler/vllm/.venv-bench/lib/python3.12/site-packages/vllm/v1/attention/ops/triton_unified_attention.py":419:37)
#loc32 = loc("/home/ericbuehler/vllm/.venv-bench/lib/python3.12/site-packages/vllm/v1/attention/ops/triton_unified_attention.py":419:22)
#loc33 = loc("/home/ericbuehler/vllm/.venv-bench/lib/python3.12/site-packages/vllm/v1/attention/ops/triton_attention_helpers.py":24:26)
#loc34 = loc("/home/ericbuehler/vllm/.venv-bench/lib/python3.12/site-packages/vllm/v1/attention/ops/triton_unified_attention.py":426:60)
#loc35 = loc("/home/ericbuehler/vllm/.venv-bench/lib/python3.12/site-packages/vllm/v1/attention/ops/triton_attention_helpers.py":24:16)
#loc36 = loc("/home/ericbuehler/vllm/.venv-bench/lib/python3.12/site-packages/vllm/v1/attention/ops/triton_unified_attention.py":426:40)
#loc37 = loc("/home/ericbuehler/vllm/.venv-bench/lib/python3.12/site-packages/vllm/v1/attention/ops/triton_unified_attention.py":427:29)
#loc38 = loc("/home/ericbuehler/vllm/.venv-bench/lib/python3.12/site-packages/vllm/v1/attention/ops/triton_unified_attention.py":428:32)
#loc39 = loc("/home/ericbuehler/vllm/.venv-bench/lib/python3.12/site-packages/vllm/v1/attention/ops/triton_unified_attention.py":427:53)
#loc40 = loc("/home/ericbuehler/vllm/.venv-bench/lib/python3.12/site-packages/vllm/v1/attention/ops/triton_unified_attention.py":430:37)
#loc41 = loc("/home/ericbuehler/vllm/.venv-bench/lib/python3.12/site-packages/vllm/v1/attention/ops/triton_unified_attention.py":430:77)
#loc42 = loc("/home/ericbuehler/vllm/.venv-bench/lib/python3.12/site-packages/vllm/v1/attention/ops/triton_unified_attention.py":434:27)
#loc43 = loc("/home/ericbuehler/vllm/.venv-bench/lib/python3.12/site-packages/vllm/v1/attention/ops/triton_unified_attention.py":435:27)
#loc44 = loc("/home/ericbuehler/vllm/.venv-bench/lib/python3.12/site-packages/vllm/v1/attention/ops/triton_unified_attention.py":435:10)
#loc45 = loc("/home/ericbuehler/vllm/.venv-bench/lib/python3.12/site-packages/vllm/v1/attention/ops/triton_unified_attention.py":436:10)
#loc46 = loc("/home/ericbuehler/vllm/.venv-bench/lib/python3.12/site-packages/vllm/v1/attention/ops/triton_unified_attention.py":438:38)
#loc47 = loc("/home/ericbuehler/vllm/.venv-bench/lib/python3.12/site-packages/triton/language/standard.py":191:40)
#loc49 = loc("/home/ericbuehler/vllm/.venv-bench/lib/python3.12/site-packages/triton/language/standard.py":170:27)
#loc50 = loc("/home/ericbuehler/vllm/.venv-bench/lib/python3.12/site-packages/vllm/v1/attention/ops/triton_unified_attention.py":442:44)
#loc51 = loc("/home/ericbuehler/vllm/.venv-bench/lib/python3.12/site-packages/vllm/v1/attention/ops/triton_unified_attention.py":443:50)
#loc52 = loc("/home/ericbuehler/vllm/.venv-bench/lib/python3.12/site-packages/vllm/v1/attention/ops/triton_unified_attention.py":443:39)
#loc53 = loc("/home/ericbuehler/vllm/.venv-bench/lib/python3.12/site-packages/vllm/v1/attention/ops/triton_unified_attention.py":443:32)
#loc54 = loc("/home/ericbuehler/vllm/.venv-bench/lib/python3.12/site-packages/triton/language/standard.py":293:36)
#loc56 = loc("/home/ericbuehler/vllm/.venv-bench/lib/python3.12/site-packages/triton/language/standard.py":263:15)
#loc57 = loc("/home/ericbuehler/vllm/.venv-bench/lib/python3.12/site-packages/vllm/v1/attention/ops/triton_unified_attention.py":450:28)
#loc58 = loc("/home/ericbuehler/vllm/.venv-bench/lib/python3.12/site-packages/vllm/v1/attention/ops/triton_unified_attention.py":450:10)
#loc59 = loc("/home/ericbuehler/vllm/.venv-bench/lib/python3.12/site-packages/vllm/v1/attention/ops/triton_unified_attention.py":451:45)
#loc60 = loc("/home/ericbuehler/vllm/.venv-bench/lib/python3.12/site-packages/vllm/v1/attention/ops/triton_unified_attention.py":451:10)
#loc61 = loc("/home/ericbuehler/vllm/.venv-bench/lib/python3.12/site-packages/vllm/v1/attention/ops/triton_unified_attention.py":452:41)
#loc62 = loc("/home/ericbuehler/vllm/.venv-bench/lib/python3.12/site-packages/vllm/v1/attention/ops/triton_unified_attention.py":452:10)
#loc63 = loc("/home/ericbuehler/vllm/.venv-bench/lib/python3.12/site-packages/vllm/v1/attention/ops/triton_unified_attention.py":456:23)
#loc64 = loc("/home/ericbuehler/vllm/.venv-bench/lib/python3.12/site-packages/vllm/v1/attention/ops/triton_unified_attention.py":456:43)
#loc65 = loc("/home/ericbuehler/vllm/.venv-bench/lib/python3.12/site-packages/vllm/v1/attention/ops/triton_unified_attention.py":456:34)
#loc66 = loc("/home/ericbuehler/vllm/.venv-bench/lib/python3.12/site-packages/vllm/v1/attention/ops/triton_unified_attention.py":455:26)
#loc67 = loc("/home/ericbuehler/vllm/.venv-bench/lib/python3.12/site-packages/vllm/v1/attention/ops/triton_unified_attention.py":459:50)
#loc68 = loc("/home/ericbuehler/vllm/.venv-bench/lib/python3.12/site-packages/vllm/v1/attention/ops/triton_unified_attention.py":459:19)
#loc70 = loc("/home/ericbuehler/vllm/.venv-bench/lib/python3.12/site-packages/vllm/v1/attention/ops/triton_unified_attention.py":462:37)
#loc71 = loc("/home/ericbuehler/vllm/.venv-bench/lib/python3.12/site-packages/vllm/v1/attention/ops/triton_unified_attention.py":462:57)
#loc72 = loc("/home/ericbuehler/vllm/.venv-bench/lib/python3.12/site-packages/vllm/v1/attention/ops/triton_unified_attention.py":470:26)
#loc73 = loc("/home/ericbuehler/vllm/.venv-bench/lib/python3.12/site-packages/vllm/v1/attention/ops/triton_unified_attention.py":471:27)
#loc74 = loc("/home/ericbuehler/vllm/.venv-bench/lib/python3.12/site-packages/vllm/v1/attention/ops/triton_unified_attention.py":471:10)
#loc75 = loc("/home/ericbuehler/vllm/.venv-bench/lib/python3.12/site-packages/vllm/v1/attention/ops/triton_unified_attention.py":472:10)
#loc76 = loc("/home/ericbuehler/vllm/.venv-bench/lib/python3.12/site-packages/vllm/v1/attention/ops/triton_unified_attention.py":474:26)
#loc77 = loc("/home/ericbuehler/vllm/.venv-bench/lib/python3.12/site-packages/vllm/v1/attention/ops/triton_unified_attention.py":474:41)
#loc78 = loc("/home/ericbuehler/vllm/.venv-bench/lib/python3.12/site-packages/vllm/v1/attention/ops/triton_unified_attention.py":474:4)
#loc90 = loc("tiles_per_segment"(#loc2))
#loc91 = loc("tiles_per_segment"(#loc3))
#loc92 = loc("left"(#loc4))
#loc94 = loc("acc"(#loc7))
#loc95 = loc("segm_output"(#loc8))
#loc96 = loc("segm_output_offset"(#loc9))
#loc97 = loc("segm_output_offset"(#loc10))
#loc98 = loc("segm_expsum"(#loc11))
#loc99 = loc("segm_max"(#loc12))
#loc100 = loc("segm_offset"(#loc13))
#loc101 = loc("dim_mask"(#loc14))
#loc102 = loc("dim_mask"(#loc15))
#loc103 = loc("query_token_idx"(#loc16))
#loc104 = loc("query_head_idx"(#loc17))
#loc105 = loc("left"(#loc18))
#loc108 = loc("mid"(#loc22))
#loc109 = loc("mid"(#loc23))
#loc110 = loc("val"(#loc24))
#loc111 = loc("val"(#loc25))
#loc112 = loc("left"(#loc28))
#loc113 = loc("seq_len"(#loc31))
#loc114 = loc("seq_len"(#loc32))
#loc115 = loc("act_num_segments"(#loc34))
#loc116 = loc("act_num_segments"(#loc36))
#loc117 = loc("segm_mask"(#loc37))
#loc118 = loc("segm_mask"(#loc38))
#loc119 = loc("segm_mask"(#loc39))
#loc120 = loc("dim_mask"(#loc40))
#loc121 = loc("dim_mask"(#loc41))
#loc122 = loc("segm_offset"(#loc42))
#loc123 = loc("segm_offset"(#loc43))
#loc124 = loc("segm_offset"(#loc44))
#loc125 = loc("segm_offset"(#loc45))
#loc126 = loc("segm_max"(#loc46))
#loc128 = loc("segm_expsum"(#loc50))
#loc129 = loc("segm_expsum"(#loc51))
#loc130 = loc("segm_expsum"(#loc52))
#loc131 = loc("segm_expsum"(#loc53))
#loc133 = loc("segm_output_offset"(#loc57))
#loc134 = loc("segm_output_offset"(#loc58))
#loc135 = loc("segm_output_offset"(#loc59))
#loc136 = loc("segm_output_offset"(#loc60))
#loc137 = loc("segm_output_offset"(#loc61))
#loc138 = loc("segm_output_offset"(#loc62))
#loc139 = loc("segm_output"(#loc63))
#loc140 = loc("segm_output"(#loc64))
#loc141 = loc("segm_output"(#loc65))
#loc142 = loc("segm_output"(#loc66))
#loc143 = loc("segm_output"(#loc67))
#loc144 = loc("segm_output"(#loc68))
#loc146 = loc("acc"(#loc70))
#loc147 = loc("acc"(#loc71))
#loc148 = loc("output_offset"(#loc72))
#loc149 = loc("output_offset"(#loc73))
#loc150 = loc("output_offset"(#loc74))
#loc151 = loc("output_offset"(#loc75))
#loc152 = loc(callsite(#loc1 at #loc90))
#loc153 = loc("left"(#loc92))
#loc154 = loc(callsite(#loc6 at #loc93))
#loc155 = loc("right"(#loc105))
#loc156 = loc(callsite(#loc19 at #loc93))
#loc159 = loc(callsite(#loc108 at #loc93))
#loc160 = loc("right"(#loc109))
#loc161 = loc(callsite(#loc110 at #loc93))
#loc162 = loc(callsite(#loc111 at #loc93))
#loc163 = loc(callsite(#loc26 at #loc93))
#loc164 = loc(callsite(#loc27 at #loc93))
#loc165 = loc("left"(#loc112))
#loc166 = loc(callsite(#loc29 at #loc93))
#loc167 = loc(callsite(#loc30 at #loc93))
#loc168 = loc(callsite(#loc33 at #loc90))
#loc169 = loc(callsite(#loc35 at #loc116))
#loc170 = loc(callsite(#loc1 at #loc116))
#loc171 = loc(callsite(#loc33 at #loc116))
#loc172 = loc(callsite(#loc47 at #loc127))
#loc174 = loc(callsite(#loc54 at #loc132))
#loc176 = loc(callsite(#loc54 at #loc145))
#loc178 = loc(fused[#loc152, #loc91])
#loc179 = loc(callsite(#loc153 at #loc93))
#loc180 = loc(callsite(#loc155 at #loc93))
#loc181 = loc(callsite(#loc160 at #loc93))
#loc182 = loc(callsite(#loc165 at #loc93))
#loc183 = loc(callsite(#loc49 at #loc172))
#loc184 = loc(callsite(#loc56 at #loc174))
#loc185 = loc(callsite(#loc56 at #loc176))
