#loc = loc("/home/ericbuehler/.cache/vllm/torch_compile_cache/torch_aot_compile/90537ea14f244a5187d6ecc853fbadcf440d710f29c8e182fe8151f3f7751a82/inductor_cache/xj/cxjipvsk4xnaivt4rhppkbgyobk6bsnkrayv646prhto2uzbws5l.py":21:0)
#loc1 = loc(unknown)
#loc36 = loc("/home/ericbuehler/.cache/vllm/torch_compile_cache/torch_aot_compile/90537ea14f244a5187d6ecc853fbadcf440d710f29c8e182fe8151f3f7751a82/inductor_cache/xj/cxjipvsk4xnaivt4rhppkbgyobk6bsnkrayv646prhto2uzbws5l.py":52:29)
#loc68 = loc("/home/ericbuehler/.cache/vllm/torch_compile_cache/torch_aot_compile/90537ea14f244a5187d6ecc853fbadcf440d710f29c8e182fe8151f3f7751a82/inductor_cache/xj/cxjipvsk4xnaivt4rhppkbgyobk6bsnkrayv646prhto2uzbws5l.py":80:31)
#loc99 = loc("/home/ericbuehler/.cache/vllm/torch_compile_cache/torch_aot_compile/90537ea14f244a5187d6ecc853fbadcf440d710f29c8e182fe8151f3f7751a82/inductor_cache/xj/cxjipvsk4xnaivt4rhppkbgyobk6bsnkrayv646prhto2uzbws5l.py":108:31)
#loc122 = loc("in_ptr0"(#loc))
#loc123 = loc("out_ptr0"(#loc))
#loc124 = loc("out_ptr1"(#loc))
#loc125 = loc("out_ptr3"(#loc))
#loc126 = loc("xnumel_0"(#loc))
#loc127 = loc("xnumel_1"(#loc))
#loc128 = loc("xnumel_2"(#loc))
#loc157 = loc("tmp4"(#loc36))
#loc183 = loc("tmp10"(#loc68))
#loc209 = loc("tmp16"(#loc99))
#loc233 = loc(callsite(#loc1 at #loc157))
#loc235 = loc(callsite(#loc1 at #loc183))
#loc237 = loc(callsite(#loc1 at #loc209))
module {
  tt.func public @triton_(%in_ptr0: !tt.ptr<bf16> {tt.divisibility = 16 : i32} loc("in_ptr0"(#loc)), %out_ptr0: !tt.ptr<f32> {tt.divisibility = 16 : i32} loc("out_ptr0"(#loc)), %out_ptr1: !tt.ptr<f32> {tt.divisibility = 16 : i32} loc("out_ptr1"(#loc)), %out_ptr3: !tt.ptr<bf16> {tt.divisibility = 16 : i32} loc("out_ptr3"(#loc)), %xnumel_0: i32 {tt.divisibility = 16 : i32} loc("xnumel_0"(#loc)), %xnumel_1: i32 loc("xnumel_1"(#loc)), %xnumel_2: i32 loc("xnumel_2"(#loc))) attributes {noinline = false} {
    %c63_i32 = arith.constant 63 : i32 loc(#loc1)
    %cst = arith.constant dense<0.000000e+00> : tensor<64x64xbf16> loc(#loc1)
    %c256_i32 = arith.constant 256 : i32 loc(#loc1)
    %c0_i32 = arith.constant 0 : i32 loc(#loc1)
    %cst_0 = arith.constant dense<9.99999997E-7> : tensor<64x1xf32> loc(#loc1)
    %cst_1 = arith.constant dense<2.560000e+02> : tensor<64x1xf32> loc(#loc1)
    %cst_2 = arith.constant dense<6144> : tensor<1x64xi32> loc(#loc1)
    %cst_3 = arith.constant dense<4096> : tensor<1x64xi32> loc(#loc1)
    %cst_4 = arith.constant dense<8> : tensor<64x1xi32> loc(#loc1)
    %cst_5 = arith.constant dense<8192> : tensor<64x1xi32> loc(#loc1)
    %cst_6 = arith.constant dense<256> : tensor<64x1xi32> loc(#loc1)
    %cst_7 = arith.constant dense<256> : tensor<1x64xi32> loc(#loc1)
    %cst_8 = arith.constant dense<0.000000e+00> : tensor<64x64xf32> loc(#loc1)
    %cst_9 = arith.constant dense<16> : tensor<64x1xi32> loc(#loc1)
    %c64_i32 = arith.constant 64 : i32 loc(#loc1)
    %pid = tt.get_program_id x : i32 loc(#loc129)
    %num_xblocks_0 = arith.addi %xnumel_0, %c63_i32 : i32 loc(#loc226)
    %num_xblocks_0_10 = arith.divsi %num_xblocks_0, %c64_i32 : i32 loc(#loc227)
    %num_xblocks_1 = arith.addi %xnumel_1, %c63_i32 : i32 loc(#loc228)
    %num_xblocks_1_11 = arith.divsi %num_xblocks_1, %c64_i32 : i32 loc(#loc229)
    %num_xblocks_1_12 = arith.addi %num_xblocks_0_10, %num_xblocks_1_11 : i32 loc(#loc132)
    %num_xblocks_2 = arith.addi %xnumel_2, %c63_i32 : i32 loc(#loc230)
    %num_xblocks_2_13 = arith.divsi %num_xblocks_2, %c64_i32 : i32 loc(#loc231)
    %num_xblocks_2_14 = arith.addi %num_xblocks_1_12, %num_xblocks_2_13 : i32 loc(#loc134)
    %0 = arith.cmpi slt, %pid, %num_xblocks_0_10 : i32 loc(#loc10)
    scf.if %0 {
      %xoffset = arith.muli %pid, %c64_i32 : i32 loc(#loc135)
      %xindex = tt.make_range {end = 64 : i32, start = 0 : i32} : tensor<64xi32> loc(#loc136)
      %xindex_15 = tt.expand_dims %xindex {axis = 1 : i32} : tensor<64xi32> -> tensor<64x1xi32> loc(#loc137)
      %xindex_16 = tt.splat %xoffset : i32 -> tensor<64x1xi32> loc(#loc138)
      %xindex_17 = arith.addi %xindex_16, %xindex_15 : tensor<64x1xi32> loc(#loc138)
      %xmask = tt.splat %xnumel_0 : i32 -> tensor<64x1xi32> loc(#loc139)
      %xmask_18 = arith.cmpi slt, %xindex_17, %xmask : tensor<64x1xi32> loc(#loc139)
      %r0_base = tt.expand_dims %xindex {axis = 0 : i32} : tensor<64xi32> -> tensor<1x64xi32> loc(#loc140)
      %x0 = arith.remsi %xindex_17, %cst_9 : tensor<64x1xi32> loc(#loc141)
      %x1 = arith.divsi %xindex_17, %cst_9 : tensor<64x1xi32> loc(#loc142)
      %_tmp4 = scf.for %r0_offset = %c0_i32 to %c256_i32 step %c64_i32 iter_args(%_tmp4_20 = %cst_8) -> (tensor<64x64xf32>)  : i32 {
        %r0_index = tt.splat %r0_offset : i32 -> tensor<1x64xi32> loc(#loc144)
        %r0_index_21 = arith.addi %r0_index, %r0_base : tensor<1x64xi32> loc(#loc144)
        %r0_mask = arith.cmpi slt, %r0_index_21, %cst_7 : tensor<1x64xi32> loc(#loc145)
        %tmp0 = arith.muli %x0, %cst_6 : tensor<64x1xi32> loc(#loc146)
        %tmp0_22 = tt.broadcast %r0_index_21 : tensor<1x64xi32> -> tensor<64x64xi32> loc(#loc147)
        %tmp0_23 = tt.broadcast %tmp0 : tensor<64x1xi32> -> tensor<64x64xi32> loc(#loc147)
        %tmp0_24 = arith.addi %tmp0_22, %tmp0_23 : tensor<64x64xi32> loc(#loc147)
        %tmp0_25 = arith.muli %x1, %cst_5 : tensor<64x1xi32> loc(#loc148)
        %tmp0_26 = tt.broadcast %tmp0_25 : tensor<64x1xi32> -> tensor<64x64xi32> loc(#loc149)
        %tmp0_27 = arith.addi %tmp0_24, %tmp0_26 : tensor<64x64xi32> loc(#loc149)
        %tmp0_28 = tt.splat %in_ptr0 : !tt.ptr<bf16> -> tensor<64x64x!tt.ptr<bf16>> loc(#loc150)
        %tmp0_29 = tt.addptr %tmp0_28, %tmp0_27 : tensor<64x64x!tt.ptr<bf16>>, tensor<64x64xi32> loc(#loc150)
        %tmp0_30 = tt.broadcast %r0_mask : tensor<1x64xi1> -> tensor<64x64xi1> loc(#loc151)
        %tmp0_31 = tt.broadcast %xmask_18 : tensor<64x1xi1> -> tensor<64x64xi1> loc(#loc151)
        %tmp0_32 = arith.andi %tmp0_30, %tmp0_31 : tensor<64x64xi1> loc(#loc151)
        %tmp0_33 = tt.load %tmp0_29, %tmp0_32, %cst evictionPolicy = evict_first : tensor<64x64x!tt.ptr<bf16>> loc(#loc152)
        %tmp0_34 = arith.extf %tmp0_33 : tensor<64x64xbf16> to tensor<64x64xf32> loc(#loc153)
        %tmp2 = arith.mulf %tmp0_34, %tmp0_34 : tensor<64x64xf32> loc(#loc154)
        %tmp5 = arith.addf %_tmp4_20, %tmp2 : tensor<64x64xf32> loc(#loc155)
        %_tmp4_35 = arith.select %tmp0_32, %tmp5, %_tmp4_20 : tensor<64x64xi1>, tensor<64x64xf32> loc(#loc156)
        scf.yield %_tmp4_35 : tensor<64x64xf32> loc(#loc34)
      } loc(#loc143)
      %tmp4 = "tt.reduce"(%_tmp4) <{axis = 1 : i32}> ({
      ^bb0(%tmp4_20: f32 loc(callsite(#loc1 at #loc157)), %tmp4_21: f32 loc(callsite(#loc1 at #loc157))):
        %tmp4_22 = arith.addf %tmp4_20, %tmp4_21 : f32 loc(#loc238)
        tt.reduce.return %tmp4_22 : f32 loc(#loc232)
      }) : (tensor<64x64xf32>) -> tensor<64xf32> loc(#loc232)
      %tmp4_19 = tt.expand_dims %tmp4 {axis = 1 : i32} : tensor<64xf32> -> tensor<64x1xf32> loc(#loc158)
      %1 = tt.splat %out_ptr0 : !tt.ptr<f32> -> tensor<64x1x!tt.ptr<f32>> loc(#loc39)
      %2 = tt.addptr %1, %xindex_17 : tensor<64x1x!tt.ptr<f32>>, tensor<64x1xi32> loc(#loc39)
      tt.store %2, %tmp4_19, %xmask_18 : tensor<64x1x!tt.ptr<f32>> loc(#loc40)
    } else {
      %1 = arith.cmpi slt, %pid, %num_xblocks_1_12 : i32 loc(#loc41)
      scf.if %1 {
        %pid_offset = arith.subi %pid, %num_xblocks_0_10 : i32 loc(#loc159)
        %xoffset = arith.muli %pid_offset, %c64_i32 : i32 loc(#loc160)
        %xindex = tt.make_range {end = 64 : i32, start = 0 : i32} : tensor<64xi32> loc(#loc161)
        %xindex_15 = tt.expand_dims %xindex {axis = 1 : i32} : tensor<64xi32> -> tensor<64x1xi32> loc(#loc162)
        %xindex_16 = tt.splat %xoffset : i32 -> tensor<64x1xi32> loc(#loc163)
        %xindex_17 = arith.addi %xindex_16, %xindex_15 : tensor<64x1xi32> loc(#loc163)
        %xmask = tt.splat %xnumel_1 : i32 -> tensor<64x1xi32> loc(#loc164)
        %xmask_18 = arith.cmpi slt, %xindex_17, %xmask : tensor<64x1xi32> loc(#loc164)
        %r0_base = tt.expand_dims %xindex {axis = 0 : i32} : tensor<64xi32> -> tensor<1x64xi32> loc(#loc165)
        %x4 = arith.remsi %xindex_17, %cst_4 : tensor<64x1xi32> loc(#loc166)
        %x5 = arith.divsi %xindex_17, %cst_4 : tensor<64x1xi32> loc(#loc167)
        %_tmp10 = scf.for %r0_offset = %c0_i32 to %c256_i32 step %c64_i32 iter_args(%_tmp10_20 = %cst_8) -> (tensor<64x64xf32>)  : i32 {
          %r0_index = tt.splat %r0_offset : i32 -> tensor<1x64xi32> loc(#loc169)
          %r0_index_21 = arith.addi %r0_index, %r0_base : tensor<1x64xi32> loc(#loc169)
          %r0_mask = arith.cmpi slt, %r0_index_21, %cst_7 : tensor<1x64xi32> loc(#loc170)
          %tmp6 = arith.addi %r0_index_21, %cst_3 : tensor<1x64xi32> loc(#loc171)
          %tmp6_22 = arith.muli %x4, %cst_6 : tensor<64x1xi32> loc(#loc172)
          %tmp6_23 = tt.broadcast %tmp6 : tensor<1x64xi32> -> tensor<64x64xi32> loc(#loc173)
          %tmp6_24 = tt.broadcast %tmp6_22 : tensor<64x1xi32> -> tensor<64x64xi32> loc(#loc173)
          %tmp6_25 = arith.addi %tmp6_23, %tmp6_24 : tensor<64x64xi32> loc(#loc173)
          %tmp6_26 = arith.muli %x5, %cst_5 : tensor<64x1xi32> loc(#loc174)
          %tmp6_27 = tt.broadcast %tmp6_26 : tensor<64x1xi32> -> tensor<64x64xi32> loc(#loc175)
          %tmp6_28 = arith.addi %tmp6_25, %tmp6_27 : tensor<64x64xi32> loc(#loc175)
          %tmp6_29 = tt.splat %in_ptr0 : !tt.ptr<bf16> -> tensor<64x64x!tt.ptr<bf16>> loc(#loc176)
          %tmp6_30 = tt.addptr %tmp6_29, %tmp6_28 : tensor<64x64x!tt.ptr<bf16>>, tensor<64x64xi32> loc(#loc176)
          %tmp6_31 = tt.broadcast %r0_mask : tensor<1x64xi1> -> tensor<64x64xi1> loc(#loc177)
          %tmp6_32 = tt.broadcast %xmask_18 : tensor<64x1xi1> -> tensor<64x64xi1> loc(#loc177)
          %tmp6_33 = arith.andi %tmp6_31, %tmp6_32 : tensor<64x64xi1> loc(#loc177)
          %tmp6_34 = tt.load %tmp6_30, %tmp6_33, %cst evictionPolicy = evict_first : tensor<64x64x!tt.ptr<bf16>> loc(#loc178)
          %tmp6_35 = arith.extf %tmp6_34 : tensor<64x64xbf16> to tensor<64x64xf32> loc(#loc179)
          %tmp8 = arith.mulf %tmp6_35, %tmp6_35 : tensor<64x64xf32> loc(#loc180)
          %tmp11 = arith.addf %_tmp10_20, %tmp8 : tensor<64x64xf32> loc(#loc181)
          %_tmp10_36 = arith.select %tmp6_33, %tmp11, %_tmp10_20 : tensor<64x64xi1>, tensor<64x64xf32> loc(#loc182)
          scf.yield %_tmp10_36 : tensor<64x64xf32> loc(#loc67)
        } loc(#loc168)
        %tmp10 = "tt.reduce"(%_tmp10) <{axis = 1 : i32}> ({
        ^bb0(%tmp10_20: f32 loc(callsite(#loc1 at #loc183)), %tmp10_21: f32 loc(callsite(#loc1 at #loc183))):
          %tmp10_22 = arith.addf %tmp10_20, %tmp10_21 : f32 loc(#loc239)
          tt.reduce.return %tmp10_22 : f32 loc(#loc234)
        }) : (tensor<64x64xf32>) -> tensor<64xf32> loc(#loc234)
        %tmp10_19 = tt.expand_dims %tmp10 {axis = 1 : i32} : tensor<64xf32> -> tensor<64x1xf32> loc(#loc184)
        %2 = tt.splat %out_ptr1 : !tt.ptr<f32> -> tensor<64x1x!tt.ptr<f32>> loc(#loc70)
        %3 = tt.addptr %2, %xindex_17 : tensor<64x1x!tt.ptr<f32>>, tensor<64x1xi32> loc(#loc70)
        tt.store %3, %tmp10_19, %xmask_18 : tensor<64x1x!tt.ptr<f32>> loc(#loc71)
      } else {
        %2 = arith.cmpi slt, %pid, %num_xblocks_2_14 : i32 loc(#loc72)
        scf.if %2 {
          %pid_offset = arith.subi %pid, %num_xblocks_1_12 : i32 loc(#loc185)
          %xoffset = arith.muli %pid_offset, %c64_i32 : i32 loc(#loc186)
          %xindex = tt.make_range {end = 64 : i32, start = 0 : i32} : tensor<64xi32> loc(#loc187)
          %xindex_15 = tt.expand_dims %xindex {axis = 1 : i32} : tensor<64xi32> -> tensor<64x1xi32> loc(#loc188)
          %xindex_16 = tt.splat %xoffset : i32 -> tensor<64x1xi32> loc(#loc189)
          %xindex_17 = arith.addi %xindex_16, %xindex_15 : tensor<64x1xi32> loc(#loc189)
          %xmask = tt.splat %xnumel_2 : i32 -> tensor<64x1xi32> loc(#loc190)
          %xmask_18 = arith.cmpi slt, %xindex_17, %xmask : tensor<64x1xi32> loc(#loc190)
          %r0_base = tt.expand_dims %xindex {axis = 0 : i32} : tensor<64xi32> -> tensor<1x64xi32> loc(#loc191)
          %x8 = arith.remsi %xindex_17, %cst_4 : tensor<64x1xi32> loc(#loc192)
          %x9 = arith.divsi %xindex_17, %cst_4 : tensor<64x1xi32> loc(#loc193)
          %_tmp16 = scf.for %r0_offset = %c0_i32 to %c256_i32 step %c64_i32 iter_args(%_tmp16_20 = %cst_8) -> (tensor<64x64xf32>)  : i32 {
            %r0_index = tt.splat %r0_offset : i32 -> tensor<1x64xi32> loc(#loc195)
            %r0_index_21 = arith.addi %r0_index, %r0_base : tensor<1x64xi32> loc(#loc195)
            %r0_mask = arith.cmpi slt, %r0_index_21, %cst_7 : tensor<1x64xi32> loc(#loc196)
            %tmp12 = arith.addi %r0_index_21, %cst_2 : tensor<1x64xi32> loc(#loc197)
            %tmp12_22 = arith.muli %x8, %cst_6 : tensor<64x1xi32> loc(#loc198)
            %tmp12_23 = tt.broadcast %tmp12 : tensor<1x64xi32> -> tensor<64x64xi32> loc(#loc199)
            %tmp12_24 = tt.broadcast %tmp12_22 : tensor<64x1xi32> -> tensor<64x64xi32> loc(#loc199)
            %tmp12_25 = arith.addi %tmp12_23, %tmp12_24 : tensor<64x64xi32> loc(#loc199)
            %tmp12_26 = arith.muli %x9, %cst_5 : tensor<64x1xi32> loc(#loc200)
            %tmp12_27 = tt.broadcast %tmp12_26 : tensor<64x1xi32> -> tensor<64x64xi32> loc(#loc201)
            %tmp12_28 = arith.addi %tmp12_25, %tmp12_27 : tensor<64x64xi32> loc(#loc201)
            %tmp12_29 = tt.splat %in_ptr0 : !tt.ptr<bf16> -> tensor<64x64x!tt.ptr<bf16>> loc(#loc202)
            %tmp12_30 = tt.addptr %tmp12_29, %tmp12_28 : tensor<64x64x!tt.ptr<bf16>>, tensor<64x64xi32> loc(#loc202)
            %tmp12_31 = tt.broadcast %r0_mask : tensor<1x64xi1> -> tensor<64x64xi1> loc(#loc203)
            %tmp12_32 = tt.broadcast %xmask_18 : tensor<64x1xi1> -> tensor<64x64xi1> loc(#loc203)
            %tmp12_33 = arith.andi %tmp12_31, %tmp12_32 : tensor<64x64xi1> loc(#loc203)
            %tmp12_34 = tt.load %tmp12_30, %tmp12_33, %cst evictionPolicy = evict_last : tensor<64x64x!tt.ptr<bf16>> loc(#loc204)
            %tmp12_35 = arith.extf %tmp12_34 : tensor<64x64xbf16> to tensor<64x64xf32> loc(#loc205)
            %tmp14 = arith.mulf %tmp12_35, %tmp12_35 : tensor<64x64xf32> loc(#loc206)
            %tmp17 = arith.addf %_tmp16_20, %tmp14 : tensor<64x64xf32> loc(#loc207)
            %_tmp16_36 = arith.select %tmp12_33, %tmp17, %_tmp16_20 : tensor<64x64xi1>, tensor<64x64xf32> loc(#loc208)
            scf.yield %_tmp16_36 : tensor<64x64xf32> loc(#loc98)
          } loc(#loc194)
          %tmp16 = "tt.reduce"(%_tmp16) <{axis = 1 : i32}> ({
          ^bb0(%tmp16_20: f32 loc(callsite(#loc1 at #loc209)), %tmp16_21: f32 loc(callsite(#loc1 at #loc209))):
            %tmp16_22 = arith.addf %tmp16_20, %tmp16_21 : f32 loc(#loc240)
            tt.reduce.return %tmp16_22 : f32 loc(#loc236)
          }) : (tensor<64x64xf32>) -> tensor<64xf32> loc(#loc236)
          %tmp16_19 = tt.expand_dims %tmp16 {axis = 1 : i32} : tensor<64xf32> -> tensor<64x1xf32> loc(#loc210)
          scf.for %r0_offset = %c0_i32 to %c256_i32 step %c64_i32  : i32 {
            %r0_index = tt.splat %r0_offset : i32 -> tensor<1x64xi32> loc(#loc211)
            %r0_index_20 = arith.addi %r0_index, %r0_base : tensor<1x64xi32> loc(#loc211)
            %r0_mask = arith.cmpi slt, %r0_index_20, %cst_7 : tensor<1x64xi32> loc(#loc212)
            %tmp18 = arith.addi %r0_index_20, %cst_2 : tensor<1x64xi32> loc(#loc213)
            %tmp18_21 = arith.muli %x8, %cst_6 : tensor<64x1xi32> loc(#loc214)
            %tmp18_22 = tt.broadcast %tmp18 : tensor<1x64xi32> -> tensor<64x64xi32> loc(#loc215)
            %tmp18_23 = tt.broadcast %tmp18_21 : tensor<64x1xi32> -> tensor<64x64xi32> loc(#loc215)
            %tmp18_24 = arith.addi %tmp18_22, %tmp18_23 : tensor<64x64xi32> loc(#loc215)
            %tmp18_25 = arith.muli %x9, %cst_5 : tensor<64x1xi32> loc(#loc216)
            %tmp18_26 = tt.broadcast %tmp18_25 : tensor<64x1xi32> -> tensor<64x64xi32> loc(#loc217)
            %tmp18_27 = arith.addi %tmp18_24, %tmp18_26 : tensor<64x64xi32> loc(#loc217)
            %tmp18_28 = tt.splat %in_ptr0 : !tt.ptr<bf16> -> tensor<64x64x!tt.ptr<bf16>> loc(#loc218)
            %tmp18_29 = tt.addptr %tmp18_28, %tmp18_27 : tensor<64x64x!tt.ptr<bf16>>, tensor<64x64xi32> loc(#loc218)
            %tmp18_30 = tt.broadcast %r0_mask : tensor<1x64xi1> -> tensor<64x64xi1> loc(#loc219)
            %tmp18_31 = tt.broadcast %xmask_18 : tensor<64x1xi1> -> tensor<64x64xi1> loc(#loc219)
            %tmp18_32 = arith.andi %tmp18_30, %tmp18_31 : tensor<64x64xi1> loc(#loc219)
            %tmp18_33 = tt.load %tmp18_29, %tmp18_32, %cst evictionPolicy = evict_first : tensor<64x64x!tt.ptr<bf16>> loc(#loc220)
            %tmp18_34 = arith.extf %tmp18_33 : tensor<64x64xbf16> to tensor<64x64xf32> loc(#loc221)
            %tmp21 = arith.divf %tmp16_19, %cst_1 : tensor<64x1xf32> loc(#loc222)
            %tmp23 = arith.addf %tmp21, %cst_0 : tensor<64x1xf32> loc(#loc223)
            %tmp24 = tt.extern_elementwise %tmp23 {libname = "", libpath = "", pure = true, symbol = "__nv_rsqrtf"} : (tensor<64x1xf32>) -> tensor<64x1xf32> loc(#loc224)
            %tmp25 = tt.broadcast %tmp24 : tensor<64x1xf32> -> tensor<64x64xf32> loc(#loc225)
            %tmp25_35 = arith.mulf %tmp18_34, %tmp25 : tensor<64x64xf32> loc(#loc225)
            %3 = arith.muli %xindex_17, %cst_6 : tensor<64x1xi32> loc(#loc117)
            %4 = tt.broadcast %r0_index_20 : tensor<1x64xi32> -> tensor<64x64xi32> loc(#loc118)
            %5 = tt.broadcast %3 : tensor<64x1xi32> -> tensor<64x64xi32> loc(#loc118)
            %6 = arith.addi %4, %5 : tensor<64x64xi32> loc(#loc118)
            %7 = tt.splat %out_ptr3 : !tt.ptr<bf16> -> tensor<64x64x!tt.ptr<bf16>> loc(#loc119)
            %8 = tt.addptr %7, %6 : tensor<64x64x!tt.ptr<bf16>>, tensor<64x64xi32> loc(#loc119)
            %9 = arith.truncf %tmp25_35 : tensor<64x64xf32> to tensor<64x64xbf16> loc(#loc120)
            tt.store %8, %9, %tmp18_32 : tensor<64x64x!tt.ptr<bf16>> loc(#loc120)
          } loc(#loc101)
        } loc(#loc73)
      } loc(#loc42)
    } loc(#loc11)
    tt.return loc(#loc121)
  } loc(#loc)
} loc(#loc)
#loc2 = loc("/home/ericbuehler/.cache/vllm/torch_compile_cache/torch_aot_compile/90537ea14f244a5187d6ecc853fbadcf440d710f29c8e182fe8151f3f7751a82/inductor_cache/xj/cxjipvsk4xnaivt4rhppkbgyobk6bsnkrayv646prhto2uzbws5l.py":22:24)
#loc3 = loc("/home/ericbuehler/vllm/.venv-bench/lib/python3.12/site-packages/triton/language/standard.py":43:17)
#loc4 = loc("/home/ericbuehler/.cache/vllm/torch_compile_cache/torch_aot_compile/90537ea14f244a5187d6ecc853fbadcf440d710f29c8e182fe8151f3f7751a82/inductor_cache/xj/cxjipvsk4xnaivt4rhppkbgyobk6bsnkrayv646prhto2uzbws5l.py":23:38)
#loc5 = loc("/home/ericbuehler/vllm/.venv-bench/lib/python3.12/site-packages/triton/language/standard.py":43:30)
#loc6 = loc("/home/ericbuehler/.cache/vllm/torch_compile_cache/torch_aot_compile/90537ea14f244a5187d6ecc853fbadcf440d710f29c8e182fe8151f3f7751a82/inductor_cache/xj/cxjipvsk4xnaivt4rhppkbgyobk6bsnkrayv646prhto2uzbws5l.py":24:54)
#loc7 = loc("/home/ericbuehler/.cache/vllm/torch_compile_cache/torch_aot_compile/90537ea14f244a5187d6ecc853fbadcf440d710f29c8e182fe8151f3f7751a82/inductor_cache/xj/cxjipvsk4xnaivt4rhppkbgyobk6bsnkrayv646prhto2uzbws5l.py":24:36)
#loc8 = loc("/home/ericbuehler/.cache/vllm/torch_compile_cache/torch_aot_compile/90537ea14f244a5187d6ecc853fbadcf440d710f29c8e182fe8151f3f7751a82/inductor_cache/xj/cxjipvsk4xnaivt4rhppkbgyobk6bsnkrayv646prhto2uzbws5l.py":25:54)
#loc9 = loc("/home/ericbuehler/.cache/vllm/torch_compile_cache/torch_aot_compile/90537ea14f244a5187d6ecc853fbadcf440d710f29c8e182fe8151f3f7751a82/inductor_cache/xj/cxjipvsk4xnaivt4rhppkbgyobk6bsnkrayv646prhto2uzbws5l.py":25:36)
#loc10 = loc("/home/ericbuehler/.cache/vllm/torch_compile_cache/torch_aot_compile/90537ea14f244a5187d6ecc853fbadcf440d710f29c8e182fe8151f3f7751a82/inductor_cache/xj/cxjipvsk4xnaivt4rhppkbgyobk6bsnkrayv646prhto2uzbws5l.py":26:13)
#loc11 = loc("/home/ericbuehler/.cache/vllm/torch_compile_cache/torch_aot_compile/90537ea14f244a5187d6ecc853fbadcf440d710f29c8e182fe8151f3f7751a82/inductor_cache/xj/cxjipvsk4xnaivt4rhppkbgyobk6bsnkrayv646prhto2uzbws5l.py":26:7)
#loc12 = loc("/home/ericbuehler/.cache/vllm/torch_compile_cache/torch_aot_compile/90537ea14f244a5187d6ecc853fbadcf440d710f29c8e182fe8151f3f7751a82/inductor_cache/xj/cxjipvsk4xnaivt4rhppkbgyobk6bsnkrayv646prhto2uzbws5l.py":31:31)
#loc13 = loc("/home/ericbuehler/.cache/vllm/torch_compile_cache/torch_aot_compile/90537ea14f244a5187d6ecc853fbadcf440d710f29c8e182fe8151f3f7751a82/inductor_cache/xj/cxjipvsk4xnaivt4rhppkbgyobk6bsnkrayv646prhto2uzbws5l.py":32:40)
#loc14 = loc("/home/ericbuehler/.cache/vllm/torch_compile_cache/torch_aot_compile/90537ea14f244a5187d6ecc853fbadcf440d710f29c8e182fe8151f3f7751a82/inductor_cache/xj/cxjipvsk4xnaivt4rhppkbgyobk6bsnkrayv646prhto2uzbws5l.py":32:48)
#loc15 = loc("/home/ericbuehler/.cache/vllm/torch_compile_cache/torch_aot_compile/90537ea14f244a5187d6ecc853fbadcf440d710f29c8e182fe8151f3f7751a82/inductor_cache/xj/cxjipvsk4xnaivt4rhppkbgyobk6bsnkrayv646prhto2uzbws5l.py":32:27)
#loc16 = loc("/home/ericbuehler/.cache/vllm/torch_compile_cache/torch_aot_compile/90537ea14f244a5187d6ecc853fbadcf440d710f29c8e182fe8151f3f7751a82/inductor_cache/xj/cxjipvsk4xnaivt4rhppkbgyobk6bsnkrayv646prhto2uzbws5l.py":33:25)
#loc17 = loc("/home/ericbuehler/.cache/vllm/torch_compile_cache/torch_aot_compile/90537ea14f244a5187d6ecc853fbadcf440d710f29c8e182fe8151f3f7751a82/inductor_cache/xj/cxjipvsk4xnaivt4rhppkbgyobk6bsnkrayv646prhto2uzbws5l.py":34:41)
#loc18 = loc("/home/ericbuehler/.cache/vllm/torch_compile_cache/torch_aot_compile/90537ea14f244a5187d6ecc853fbadcf440d710f29c8e182fe8151f3f7751a82/inductor_cache/xj/cxjipvsk4xnaivt4rhppkbgyobk6bsnkrayv646prhto2uzbws5l.py":36:23)
#loc19 = loc("/home/ericbuehler/.cache/vllm/torch_compile_cache/torch_aot_compile/90537ea14f244a5187d6ecc853fbadcf440d710f29c8e182fe8151f3f7751a82/inductor_cache/xj/cxjipvsk4xnaivt4rhppkbgyobk6bsnkrayv646prhto2uzbws5l.py":37:23)
#loc20 = loc("/home/ericbuehler/.cache/vllm/torch_compile_cache/torch_aot_compile/90537ea14f244a5187d6ecc853fbadcf440d710f29c8e182fe8151f3f7751a82/inductor_cache/xj/cxjipvsk4xnaivt4rhppkbgyobk6bsnkrayv646prhto2uzbws5l.py":40:47)
#loc21 = loc("/home/ericbuehler/.cache/vllm/torch_compile_cache/torch_aot_compile/90537ea14f244a5187d6ecc853fbadcf440d710f29c8e182fe8151f3f7751a82/inductor_cache/xj/cxjipvsk4xnaivt4rhppkbgyobk6bsnkrayv646prhto2uzbws5l.py":41:35)
#loc22 = loc("/home/ericbuehler/.cache/vllm/torch_compile_cache/torch_aot_compile/90537ea14f244a5187d6ecc853fbadcf440d710f29c8e182fe8151f3f7751a82/inductor_cache/xj/cxjipvsk4xnaivt4rhppkbgyobk6bsnkrayv646prhto2uzbws5l.py":42:33)
#loc23 = loc("/home/ericbuehler/.cache/vllm/torch_compile_cache/torch_aot_compile/90537ea14f244a5187d6ecc853fbadcf440d710f29c8e182fe8151f3f7751a82/inductor_cache/xj/cxjipvsk4xnaivt4rhppkbgyobk6bsnkrayv646prhto2uzbws5l.py":46:49)
#loc24 = loc("/home/ericbuehler/.cache/vllm/torch_compile_cache/torch_aot_compile/90537ea14f244a5187d6ecc853fbadcf440d710f29c8e182fe8151f3f7751a82/inductor_cache/xj/cxjipvsk4xnaivt4rhppkbgyobk6bsnkrayv646prhto2uzbws5l.py":46:45)
#loc25 = loc("/home/ericbuehler/.cache/vllm/torch_compile_cache/torch_aot_compile/90537ea14f244a5187d6ecc853fbadcf440d710f29c8e182fe8151f3f7751a82/inductor_cache/xj/cxjipvsk4xnaivt4rhppkbgyobk6bsnkrayv646prhto2uzbws5l.py":46:59)
#loc26 = loc("/home/ericbuehler/.cache/vllm/torch_compile_cache/torch_aot_compile/90537ea14f244a5187d6ecc853fbadcf440d710f29c8e182fe8151f3f7751a82/inductor_cache/xj/cxjipvsk4xnaivt4rhppkbgyobk6bsnkrayv646prhto2uzbws5l.py":46:54)
#loc27 = loc("/home/ericbuehler/.cache/vllm/torch_compile_cache/torch_aot_compile/90537ea14f244a5187d6ecc853fbadcf440d710f29c8e182fe8151f3f7751a82/inductor_cache/xj/cxjipvsk4xnaivt4rhppkbgyobk6bsnkrayv646prhto2uzbws5l.py":46:38)
#loc28 = loc("/home/ericbuehler/.cache/vllm/torch_compile_cache/torch_aot_compile/90537ea14f244a5187d6ecc853fbadcf440d710f29c8e182fe8151f3f7751a82/inductor_cache/xj/cxjipvsk4xnaivt4rhppkbgyobk6bsnkrayv646prhto2uzbws5l.py":46:74)
#loc29 = loc("/home/ericbuehler/.cache/vllm/torch_compile_cache/torch_aot_compile/90537ea14f244a5187d6ecc853fbadcf440d710f29c8e182fe8151f3f7751a82/inductor_cache/xj/cxjipvsk4xnaivt4rhppkbgyobk6bsnkrayv646prhto2uzbws5l.py":46:64)
#loc30 = loc("/home/ericbuehler/.cache/vllm/torch_compile_cache/torch_aot_compile/90537ea14f244a5187d6ecc853fbadcf440d710f29c8e182fe8151f3f7751a82/inductor_cache/xj/cxjipvsk4xnaivt4rhppkbgyobk6bsnkrayv646prhto2uzbws5l.py":46:126)
#loc31 = loc("/home/ericbuehler/.cache/vllm/torch_compile_cache/torch_aot_compile/90537ea14f244a5187d6ecc853fbadcf440d710f29c8e182fe8151f3f7751a82/inductor_cache/xj/cxjipvsk4xnaivt4rhppkbgyobk6bsnkrayv646prhto2uzbws5l.py":48:26)
#loc32 = loc("/home/ericbuehler/.cache/vllm/torch_compile_cache/torch_aot_compile/90537ea14f244a5187d6ecc853fbadcf440d710f29c8e182fe8151f3f7751a82/inductor_cache/xj/cxjipvsk4xnaivt4rhppkbgyobk6bsnkrayv646prhto2uzbws5l.py":50:27)
#loc33 = loc("/home/ericbuehler/.cache/vllm/torch_compile_cache/torch_aot_compile/90537ea14f244a5187d6ecc853fbadcf440d710f29c8e182fe8151f3f7751a82/inductor_cache/xj/cxjipvsk4xnaivt4rhppkbgyobk6bsnkrayv646prhto2uzbws5l.py":51:52)
#loc34 = loc("/home/ericbuehler/.cache/vllm/torch_compile_cache/torch_aot_compile/90537ea14f244a5187d6ecc853fbadcf440d710f29c8e182fe8151f3f7751a82/inductor_cache/xj/cxjipvsk4xnaivt4rhppkbgyobk6bsnkrayv646prhto2uzbws5l.py":51:12)
#loc35 = loc("/home/ericbuehler/vllm/.venv-bench/lib/python3.12/site-packages/triton/language/standard.py":293:36)
#loc37 = loc("/home/ericbuehler/vllm/.venv-bench/lib/python3.12/site-packages/triton/language/standard.py":263:15)
#loc38 = loc("/home/ericbuehler/.cache/vllm/torch_compile_cache/torch_aot_compile/90537ea14f244a5187d6ecc853fbadcf440d710f29c8e182fe8151f3f7751a82/inductor_cache/xj/cxjipvsk4xnaivt4rhppkbgyobk6bsnkrayv646prhto2uzbws5l.py":52:32)
#loc39 = loc("/home/ericbuehler/.cache/vllm/torch_compile_cache/torch_aot_compile/90537ea14f244a5187d6ecc853fbadcf440d710f29c8e182fe8151f3f7751a82/inductor_cache/xj/cxjipvsk4xnaivt4rhppkbgyobk6bsnkrayv646prhto2uzbws5l.py":53:29)
#loc40 = loc("/home/ericbuehler/.cache/vllm/torch_compile_cache/torch_aot_compile/90537ea14f244a5187d6ecc853fbadcf440d710f29c8e182fe8151f3f7751a82/inductor_cache/xj/cxjipvsk4xnaivt4rhppkbgyobk6bsnkrayv646prhto2uzbws5l.py":53:40)
#loc41 = loc("/home/ericbuehler/.cache/vllm/torch_compile_cache/torch_aot_compile/90537ea14f244a5187d6ecc853fbadcf440d710f29c8e182fe8151f3f7751a82/inductor_cache/xj/cxjipvsk4xnaivt4rhppkbgyobk6bsnkrayv646prhto2uzbws5l.py":54:15)
#loc42 = loc("/home/ericbuehler/.cache/vllm/torch_compile_cache/torch_aot_compile/90537ea14f244a5187d6ecc853fbadcf440d710f29c8e182fe8151f3f7751a82/inductor_cache/xj/cxjipvsk4xnaivt4rhppkbgyobk6bsnkrayv646prhto2uzbws5l.py":54:9)
#loc43 = loc("/home/ericbuehler/.cache/vllm/torch_compile_cache/torch_aot_compile/90537ea14f244a5187d6ecc853fbadcf440d710f29c8e182fe8151f3f7751a82/inductor_cache/xj/cxjipvsk4xnaivt4rhppkbgyobk6bsnkrayv646prhto2uzbws5l.py":55:27)
#loc44 = loc("/home/ericbuehler/.cache/vllm/torch_compile_cache/torch_aot_compile/90537ea14f244a5187d6ecc853fbadcf440d710f29c8e182fe8151f3f7751a82/inductor_cache/xj/cxjipvsk4xnaivt4rhppkbgyobk6bsnkrayv646prhto2uzbws5l.py":59:31)
#loc45 = loc("/home/ericbuehler/.cache/vllm/torch_compile_cache/torch_aot_compile/90537ea14f244a5187d6ecc853fbadcf440d710f29c8e182fe8151f3f7751a82/inductor_cache/xj/cxjipvsk4xnaivt4rhppkbgyobk6bsnkrayv646prhto2uzbws5l.py":60:40)
#loc46 = loc("/home/ericbuehler/.cache/vllm/torch_compile_cache/torch_aot_compile/90537ea14f244a5187d6ecc853fbadcf440d710f29c8e182fe8151f3f7751a82/inductor_cache/xj/cxjipvsk4xnaivt4rhppkbgyobk6bsnkrayv646prhto2uzbws5l.py":60:48)
#loc47 = loc("/home/ericbuehler/.cache/vllm/torch_compile_cache/torch_aot_compile/90537ea14f244a5187d6ecc853fbadcf440d710f29c8e182fe8151f3f7751a82/inductor_cache/xj/cxjipvsk4xnaivt4rhppkbgyobk6bsnkrayv646prhto2uzbws5l.py":60:27)
#loc48 = loc("/home/ericbuehler/.cache/vllm/torch_compile_cache/torch_aot_compile/90537ea14f244a5187d6ecc853fbadcf440d710f29c8e182fe8151f3f7751a82/inductor_cache/xj/cxjipvsk4xnaivt4rhppkbgyobk6bsnkrayv646prhto2uzbws5l.py":61:25)
#loc49 = loc("/home/ericbuehler/.cache/vllm/torch_compile_cache/torch_aot_compile/90537ea14f244a5187d6ecc853fbadcf440d710f29c8e182fe8151f3f7751a82/inductor_cache/xj/cxjipvsk4xnaivt4rhppkbgyobk6bsnkrayv646prhto2uzbws5l.py":62:41)
#loc50 = loc("/home/ericbuehler/.cache/vllm/torch_compile_cache/torch_aot_compile/90537ea14f244a5187d6ecc853fbadcf440d710f29c8e182fe8151f3f7751a82/inductor_cache/xj/cxjipvsk4xnaivt4rhppkbgyobk6bsnkrayv646prhto2uzbws5l.py":64:23)
#loc51 = loc("/home/ericbuehler/.cache/vllm/torch_compile_cache/torch_aot_compile/90537ea14f244a5187d6ecc853fbadcf440d710f29c8e182fe8151f3f7751a82/inductor_cache/xj/cxjipvsk4xnaivt4rhppkbgyobk6bsnkrayv646prhto2uzbws5l.py":65:23)
#loc52 = loc("/home/ericbuehler/.cache/vllm/torch_compile_cache/torch_aot_compile/90537ea14f244a5187d6ecc853fbadcf440d710f29c8e182fe8151f3f7751a82/inductor_cache/xj/cxjipvsk4xnaivt4rhppkbgyobk6bsnkrayv646prhto2uzbws5l.py":68:47)
#loc53 = loc("/home/ericbuehler/.cache/vllm/torch_compile_cache/torch_aot_compile/90537ea14f244a5187d6ecc853fbadcf440d710f29c8e182fe8151f3f7751a82/inductor_cache/xj/cxjipvsk4xnaivt4rhppkbgyobk6bsnkrayv646prhto2uzbws5l.py":69:35)
#loc54 = loc("/home/ericbuehler/.cache/vllm/torch_compile_cache/torch_aot_compile/90537ea14f244a5187d6ecc853fbadcf440d710f29c8e182fe8151f3f7751a82/inductor_cache/xj/cxjipvsk4xnaivt4rhppkbgyobk6bsnkrayv646prhto2uzbws5l.py":70:33)
#loc55 = loc("/home/ericbuehler/.cache/vllm/torch_compile_cache/torch_aot_compile/90537ea14f244a5187d6ecc853fbadcf440d710f29c8e182fe8151f3f7751a82/inductor_cache/xj/cxjipvsk4xnaivt4rhppkbgyobk6bsnkrayv646prhto2uzbws5l.py":74:45)
#loc56 = loc("/home/ericbuehler/.cache/vllm/torch_compile_cache/torch_aot_compile/90537ea14f244a5187d6ecc853fbadcf440d710f29c8e182fe8151f3f7751a82/inductor_cache/xj/cxjipvsk4xnaivt4rhppkbgyobk6bsnkrayv646prhto2uzbws5l.py":74:56)
#loc57 = loc("/home/ericbuehler/.cache/vllm/torch_compile_cache/torch_aot_compile/90537ea14f244a5187d6ecc853fbadcf440d710f29c8e182fe8151f3f7751a82/inductor_cache/xj/cxjipvsk4xnaivt4rhppkbgyobk6bsnkrayv646prhto2uzbws5l.py":74:52)
#loc58 = loc("/home/ericbuehler/.cache/vllm/torch_compile_cache/torch_aot_compile/90537ea14f244a5187d6ecc853fbadcf440d710f29c8e182fe8151f3f7751a82/inductor_cache/xj/cxjipvsk4xnaivt4rhppkbgyobk6bsnkrayv646prhto2uzbws5l.py":74:66)
#loc59 = loc("/home/ericbuehler/.cache/vllm/torch_compile_cache/torch_aot_compile/90537ea14f244a5187d6ecc853fbadcf440d710f29c8e182fe8151f3f7751a82/inductor_cache/xj/cxjipvsk4xnaivt4rhppkbgyobk6bsnkrayv646prhto2uzbws5l.py":74:61)
#loc60 = loc("/home/ericbuehler/.cache/vllm/torch_compile_cache/torch_aot_compile/90537ea14f244a5187d6ecc853fbadcf440d710f29c8e182fe8151f3f7751a82/inductor_cache/xj/cxjipvsk4xnaivt4rhppkbgyobk6bsnkrayv646prhto2uzbws5l.py":74:38)
#loc61 = loc("/home/ericbuehler/.cache/vllm/torch_compile_cache/torch_aot_compile/90537ea14f244a5187d6ecc853fbadcf440d710f29c8e182fe8151f3f7751a82/inductor_cache/xj/cxjipvsk4xnaivt4rhppkbgyobk6bsnkrayv646prhto2uzbws5l.py":74:81)
#loc62 = loc("/home/ericbuehler/.cache/vllm/torch_compile_cache/torch_aot_compile/90537ea14f244a5187d6ecc853fbadcf440d710f29c8e182fe8151f3f7751a82/inductor_cache/xj/cxjipvsk4xnaivt4rhppkbgyobk6bsnkrayv646prhto2uzbws5l.py":74:71)
#loc63 = loc("/home/ericbuehler/.cache/vllm/torch_compile_cache/torch_aot_compile/90537ea14f244a5187d6ecc853fbadcf440d710f29c8e182fe8151f3f7751a82/inductor_cache/xj/cxjipvsk4xnaivt4rhppkbgyobk6bsnkrayv646prhto2uzbws5l.py":74:133)
#loc64 = loc("/home/ericbuehler/.cache/vllm/torch_compile_cache/torch_aot_compile/90537ea14f244a5187d6ecc853fbadcf440d710f29c8e182fe8151f3f7751a82/inductor_cache/xj/cxjipvsk4xnaivt4rhppkbgyobk6bsnkrayv646prhto2uzbws5l.py":76:26)
#loc65 = loc("/home/ericbuehler/.cache/vllm/torch_compile_cache/torch_aot_compile/90537ea14f244a5187d6ecc853fbadcf440d710f29c8e182fe8151f3f7751a82/inductor_cache/xj/cxjipvsk4xnaivt4rhppkbgyobk6bsnkrayv646prhto2uzbws5l.py":78:29)
#loc66 = loc("/home/ericbuehler/.cache/vllm/torch_compile_cache/torch_aot_compile/90537ea14f244a5187d6ecc853fbadcf440d710f29c8e182fe8151f3f7751a82/inductor_cache/xj/cxjipvsk4xnaivt4rhppkbgyobk6bsnkrayv646prhto2uzbws5l.py":79:54)
#loc67 = loc("/home/ericbuehler/.cache/vllm/torch_compile_cache/torch_aot_compile/90537ea14f244a5187d6ecc853fbadcf440d710f29c8e182fe8151f3f7751a82/inductor_cache/xj/cxjipvsk4xnaivt4rhppkbgyobk6bsnkrayv646prhto2uzbws5l.py":79:12)
#loc69 = loc("/home/ericbuehler/.cache/vllm/torch_compile_cache/torch_aot_compile/90537ea14f244a5187d6ecc853fbadcf440d710f29c8e182fe8151f3f7751a82/inductor_cache/xj/cxjipvsk4xnaivt4rhppkbgyobk6bsnkrayv646prhto2uzbws5l.py":80:34)
#loc70 = loc("/home/ericbuehler/.cache/vllm/torch_compile_cache/torch_aot_compile/90537ea14f244a5187d6ecc853fbadcf440d710f29c8e182fe8151f3f7751a82/inductor_cache/xj/cxjipvsk4xnaivt4rhppkbgyobk6bsnkrayv646prhto2uzbws5l.py":81:29)
#loc71 = loc("/home/ericbuehler/.cache/vllm/torch_compile_cache/torch_aot_compile/90537ea14f244a5187d6ecc853fbadcf440d710f29c8e182fe8151f3f7751a82/inductor_cache/xj/cxjipvsk4xnaivt4rhppkbgyobk6bsnkrayv646prhto2uzbws5l.py":81:41)
#loc72 = loc("/home/ericbuehler/.cache/vllm/torch_compile_cache/torch_aot_compile/90537ea14f244a5187d6ecc853fbadcf440d710f29c8e182fe8151f3f7751a82/inductor_cache/xj/cxjipvsk4xnaivt4rhppkbgyobk6bsnkrayv646prhto2uzbws5l.py":82:15)
#loc73 = loc("/home/ericbuehler/.cache/vllm/torch_compile_cache/torch_aot_compile/90537ea14f244a5187d6ecc853fbadcf440d710f29c8e182fe8151f3f7751a82/inductor_cache/xj/cxjipvsk4xnaivt4rhppkbgyobk6bsnkrayv646prhto2uzbws5l.py":82:9)
#loc74 = loc("/home/ericbuehler/.cache/vllm/torch_compile_cache/torch_aot_compile/90537ea14f244a5187d6ecc853fbadcf440d710f29c8e182fe8151f3f7751a82/inductor_cache/xj/cxjipvsk4xnaivt4rhppkbgyobk6bsnkrayv646prhto2uzbws5l.py":83:27)
#loc75 = loc("/home/ericbuehler/.cache/vllm/torch_compile_cache/torch_aot_compile/90537ea14f244a5187d6ecc853fbadcf440d710f29c8e182fe8151f3f7751a82/inductor_cache/xj/cxjipvsk4xnaivt4rhppkbgyobk6bsnkrayv646prhto2uzbws5l.py":87:31)
#loc76 = loc("/home/ericbuehler/.cache/vllm/torch_compile_cache/torch_aot_compile/90537ea14f244a5187d6ecc853fbadcf440d710f29c8e182fe8151f3f7751a82/inductor_cache/xj/cxjipvsk4xnaivt4rhppkbgyobk6bsnkrayv646prhto2uzbws5l.py":88:40)
#loc77 = loc("/home/ericbuehler/.cache/vllm/torch_compile_cache/torch_aot_compile/90537ea14f244a5187d6ecc853fbadcf440d710f29c8e182fe8151f3f7751a82/inductor_cache/xj/cxjipvsk4xnaivt4rhppkbgyobk6bsnkrayv646prhto2uzbws5l.py":88:48)
#loc78 = loc("/home/ericbuehler/.cache/vllm/torch_compile_cache/torch_aot_compile/90537ea14f244a5187d6ecc853fbadcf440d710f29c8e182fe8151f3f7751a82/inductor_cache/xj/cxjipvsk4xnaivt4rhppkbgyobk6bsnkrayv646prhto2uzbws5l.py":88:27)
#loc79 = loc("/home/ericbuehler/.cache/vllm/torch_compile_cache/torch_aot_compile/90537ea14f244a5187d6ecc853fbadcf440d710f29c8e182fe8151f3f7751a82/inductor_cache/xj/cxjipvsk4xnaivt4rhppkbgyobk6bsnkrayv646prhto2uzbws5l.py":89:25)
#loc80 = loc("/home/ericbuehler/.cache/vllm/torch_compile_cache/torch_aot_compile/90537ea14f244a5187d6ecc853fbadcf440d710f29c8e182fe8151f3f7751a82/inductor_cache/xj/cxjipvsk4xnaivt4rhppkbgyobk6bsnkrayv646prhto2uzbws5l.py":90:41)
#loc81 = loc("/home/ericbuehler/.cache/vllm/torch_compile_cache/torch_aot_compile/90537ea14f244a5187d6ecc853fbadcf440d710f29c8e182fe8151f3f7751a82/inductor_cache/xj/cxjipvsk4xnaivt4rhppkbgyobk6bsnkrayv646prhto2uzbws5l.py":92:23)
#loc82 = loc("/home/ericbuehler/.cache/vllm/torch_compile_cache/torch_aot_compile/90537ea14f244a5187d6ecc853fbadcf440d710f29c8e182fe8151f3f7751a82/inductor_cache/xj/cxjipvsk4xnaivt4rhppkbgyobk6bsnkrayv646prhto2uzbws5l.py":93:23)
#loc83 = loc("/home/ericbuehler/.cache/vllm/torch_compile_cache/torch_aot_compile/90537ea14f244a5187d6ecc853fbadcf440d710f29c8e182fe8151f3f7751a82/inductor_cache/xj/cxjipvsk4xnaivt4rhppkbgyobk6bsnkrayv646prhto2uzbws5l.py":96:47)
#loc84 = loc("/home/ericbuehler/.cache/vllm/torch_compile_cache/torch_aot_compile/90537ea14f244a5187d6ecc853fbadcf440d710f29c8e182fe8151f3f7751a82/inductor_cache/xj/cxjipvsk4xnaivt4rhppkbgyobk6bsnkrayv646prhto2uzbws5l.py":97:35)
#loc85 = loc("/home/ericbuehler/.cache/vllm/torch_compile_cache/torch_aot_compile/90537ea14f244a5187d6ecc853fbadcf440d710f29c8e182fe8151f3f7751a82/inductor_cache/xj/cxjipvsk4xnaivt4rhppkbgyobk6bsnkrayv646prhto2uzbws5l.py":98:33)
#loc86 = loc("/home/ericbuehler/.cache/vllm/torch_compile_cache/torch_aot_compile/90537ea14f244a5187d6ecc853fbadcf440d710f29c8e182fe8151f3f7751a82/inductor_cache/xj/cxjipvsk4xnaivt4rhppkbgyobk6bsnkrayv646prhto2uzbws5l.py":102:46)
#loc87 = loc("/home/ericbuehler/.cache/vllm/torch_compile_cache/torch_aot_compile/90537ea14f244a5187d6ecc853fbadcf440d710f29c8e182fe8151f3f7751a82/inductor_cache/xj/cxjipvsk4xnaivt4rhppkbgyobk6bsnkrayv646prhto2uzbws5l.py":102:58)
#loc88 = loc("/home/ericbuehler/.cache/vllm/torch_compile_cache/torch_aot_compile/90537ea14f244a5187d6ecc853fbadcf440d710f29c8e182fe8151f3f7751a82/inductor_cache/xj/cxjipvsk4xnaivt4rhppkbgyobk6bsnkrayv646prhto2uzbws5l.py":102:54)
#loc89 = loc("/home/ericbuehler/.cache/vllm/torch_compile_cache/torch_aot_compile/90537ea14f244a5187d6ecc853fbadcf440d710f29c8e182fe8151f3f7751a82/inductor_cache/xj/cxjipvsk4xnaivt4rhppkbgyobk6bsnkrayv646prhto2uzbws5l.py":102:68)
#loc90 = loc("/home/ericbuehler/.cache/vllm/torch_compile_cache/torch_aot_compile/90537ea14f244a5187d6ecc853fbadcf440d710f29c8e182fe8151f3f7751a82/inductor_cache/xj/cxjipvsk4xnaivt4rhppkbgyobk6bsnkrayv646prhto2uzbws5l.py":102:63)
#loc91 = loc("/home/ericbuehler/.cache/vllm/torch_compile_cache/torch_aot_compile/90537ea14f244a5187d6ecc853fbadcf440d710f29c8e182fe8151f3f7751a82/inductor_cache/xj/cxjipvsk4xnaivt4rhppkbgyobk6bsnkrayv646prhto2uzbws5l.py":102:39)
#loc92 = loc("/home/ericbuehler/.cache/vllm/torch_compile_cache/torch_aot_compile/90537ea14f244a5187d6ecc853fbadcf440d710f29c8e182fe8151f3f7751a82/inductor_cache/xj/cxjipvsk4xnaivt4rhppkbgyobk6bsnkrayv646prhto2uzbws5l.py":102:83)
#loc93 = loc("/home/ericbuehler/.cache/vllm/torch_compile_cache/torch_aot_compile/90537ea14f244a5187d6ecc853fbadcf440d710f29c8e182fe8151f3f7751a82/inductor_cache/xj/cxjipvsk4xnaivt4rhppkbgyobk6bsnkrayv646prhto2uzbws5l.py":102:73)
#loc94 = loc("/home/ericbuehler/.cache/vllm/torch_compile_cache/torch_aot_compile/90537ea14f244a5187d6ecc853fbadcf440d710f29c8e182fe8151f3f7751a82/inductor_cache/xj/cxjipvsk4xnaivt4rhppkbgyobk6bsnkrayv646prhto2uzbws5l.py":102:134)
#loc95 = loc("/home/ericbuehler/.cache/vllm/torch_compile_cache/torch_aot_compile/90537ea14f244a5187d6ecc853fbadcf440d710f29c8e182fe8151f3f7751a82/inductor_cache/xj/cxjipvsk4xnaivt4rhppkbgyobk6bsnkrayv646prhto2uzbws5l.py":104:28)
#loc96 = loc("/home/ericbuehler/.cache/vllm/torch_compile_cache/torch_aot_compile/90537ea14f244a5187d6ecc853fbadcf440d710f29c8e182fe8151f3f7751a82/inductor_cache/xj/cxjipvsk4xnaivt4rhppkbgyobk6bsnkrayv646prhto2uzbws5l.py":106:29)
#loc97 = loc("/home/ericbuehler/.cache/vllm/torch_compile_cache/torch_aot_compile/90537ea14f244a5187d6ecc853fbadcf440d710f29c8e182fe8151f3f7751a82/inductor_cache/xj/cxjipvsk4xnaivt4rhppkbgyobk6bsnkrayv646prhto2uzbws5l.py":107:54)
#loc98 = loc("/home/ericbuehler/.cache/vllm/torch_compile_cache/torch_aot_compile/90537ea14f244a5187d6ecc853fbadcf440d710f29c8e182fe8151f3f7751a82/inductor_cache/xj/cxjipvsk4xnaivt4rhppkbgyobk6bsnkrayv646prhto2uzbws5l.py":107:12)
#loc100 = loc("/home/ericbuehler/.cache/vllm/torch_compile_cache/torch_aot_compile/90537ea14f244a5187d6ecc853fbadcf440d710f29c8e182fe8151f3f7751a82/inductor_cache/xj/cxjipvsk4xnaivt4rhppkbgyobk6bsnkrayv646prhto2uzbws5l.py":108:34)
#loc101 = loc("/home/ericbuehler/.cache/vllm/torch_compile_cache/torch_aot_compile/90537ea14f244a5187d6ecc853fbadcf440d710f29c8e182fe8151f3f7751a82/inductor_cache/xj/cxjipvsk4xnaivt4rhppkbgyobk6bsnkrayv646prhto2uzbws5l.py":109:47)
#loc102 = loc("/home/ericbuehler/.cache/vllm/torch_compile_cache/torch_aot_compile/90537ea14f244a5187d6ecc853fbadcf440d710f29c8e182fe8151f3f7751a82/inductor_cache/xj/cxjipvsk4xnaivt4rhppkbgyobk6bsnkrayv646prhto2uzbws5l.py":110:35)
#loc103 = loc("/home/ericbuehler/.cache/vllm/torch_compile_cache/torch_aot_compile/90537ea14f244a5187d6ecc853fbadcf440d710f29c8e182fe8151f3f7751a82/inductor_cache/xj/cxjipvsk4xnaivt4rhppkbgyobk6bsnkrayv646prhto2uzbws5l.py":111:33)
#loc104 = loc("/home/ericbuehler/.cache/vllm/torch_compile_cache/torch_aot_compile/90537ea14f244a5187d6ecc853fbadcf440d710f29c8e182fe8151f3f7751a82/inductor_cache/xj/cxjipvsk4xnaivt4rhppkbgyobk6bsnkrayv646prhto2uzbws5l.py":115:46)
#loc105 = loc("/home/ericbuehler/.cache/vllm/torch_compile_cache/torch_aot_compile/90537ea14f244a5187d6ecc853fbadcf440d710f29c8e182fe8151f3f7751a82/inductor_cache/xj/cxjipvsk4xnaivt4rhppkbgyobk6bsnkrayv646prhto2uzbws5l.py":115:58)
#loc106 = loc("/home/ericbuehler/.cache/vllm/torch_compile_cache/torch_aot_compile/90537ea14f244a5187d6ecc853fbadcf440d710f29c8e182fe8151f3f7751a82/inductor_cache/xj/cxjipvsk4xnaivt4rhppkbgyobk6bsnkrayv646prhto2uzbws5l.py":115:54)
#loc107 = loc("/home/ericbuehler/.cache/vllm/torch_compile_cache/torch_aot_compile/90537ea14f244a5187d6ecc853fbadcf440d710f29c8e182fe8151f3f7751a82/inductor_cache/xj/cxjipvsk4xnaivt4rhppkbgyobk6bsnkrayv646prhto2uzbws5l.py":115:68)
#loc108 = loc("/home/ericbuehler/.cache/vllm/torch_compile_cache/torch_aot_compile/90537ea14f244a5187d6ecc853fbadcf440d710f29c8e182fe8151f3f7751a82/inductor_cache/xj/cxjipvsk4xnaivt4rhppkbgyobk6bsnkrayv646prhto2uzbws5l.py":115:63)
#loc109 = loc("/home/ericbuehler/.cache/vllm/torch_compile_cache/torch_aot_compile/90537ea14f244a5187d6ecc853fbadcf440d710f29c8e182fe8151f3f7751a82/inductor_cache/xj/cxjipvsk4xnaivt4rhppkbgyobk6bsnkrayv646prhto2uzbws5l.py":115:39)
#loc110 = loc("/home/ericbuehler/.cache/vllm/torch_compile_cache/torch_aot_compile/90537ea14f244a5187d6ecc853fbadcf440d710f29c8e182fe8151f3f7751a82/inductor_cache/xj/cxjipvsk4xnaivt4rhppkbgyobk6bsnkrayv646prhto2uzbws5l.py":115:83)
#loc111 = loc("/home/ericbuehler/.cache/vllm/torch_compile_cache/torch_aot_compile/90537ea14f244a5187d6ecc853fbadcf440d710f29c8e182fe8151f3f7751a82/inductor_cache/xj/cxjipvsk4xnaivt4rhppkbgyobk6bsnkrayv646prhto2uzbws5l.py":115:73)
#loc112 = loc("/home/ericbuehler/.cache/vllm/torch_compile_cache/torch_aot_compile/90537ea14f244a5187d6ecc853fbadcf440d710f29c8e182fe8151f3f7751a82/inductor_cache/xj/cxjipvsk4xnaivt4rhppkbgyobk6bsnkrayv646prhto2uzbws5l.py":115:135)
#loc113 = loc("/home/ericbuehler/.cache/vllm/torch_compile_cache/torch_aot_compile/90537ea14f244a5187d6ecc853fbadcf440d710f29c8e182fe8151f3f7751a82/inductor_cache/xj/cxjipvsk4xnaivt4rhppkbgyobk6bsnkrayv646prhto2uzbws5l.py":118:29)
#loc114 = loc("/home/ericbuehler/.cache/vllm/torch_compile_cache/torch_aot_compile/90537ea14f244a5187d6ecc853fbadcf440d710f29c8e182fe8151f3f7751a82/inductor_cache/xj/cxjipvsk4xnaivt4rhppkbgyobk6bsnkrayv646prhto2uzbws5l.py":120:28)
#loc115 = loc("/home/ericbuehler/.cache/vllm/torch_compile_cache/torch_aot_compile/90537ea14f244a5187d6ecc853fbadcf440d710f29c8e182fe8151f3f7751a82/inductor_cache/xj/cxjipvsk4xnaivt4rhppkbgyobk6bsnkrayv646prhto2uzbws5l.py":121:36)
#loc116 = loc("/home/ericbuehler/.cache/vllm/torch_compile_cache/torch_aot_compile/90537ea14f244a5187d6ecc853fbadcf440d710f29c8e182fe8151f3f7751a82/inductor_cache/xj/cxjipvsk4xnaivt4rhppkbgyobk6bsnkrayv646prhto2uzbws5l.py":122:28)
#loc117 = loc("/home/ericbuehler/.cache/vllm/torch_compile_cache/torch_aot_compile/90537ea14f244a5187d6ecc853fbadcf440d710f29c8e182fe8151f3f7751a82/inductor_cache/xj/cxjipvsk4xnaivt4rhppkbgyobk6bsnkrayv646prhto2uzbws5l.py":124:45)
#loc118 = loc("/home/ericbuehler/.cache/vllm/torch_compile_cache/torch_aot_compile/90537ea14f244a5187d6ecc853fbadcf440d710f29c8e182fe8151f3f7751a82/inductor_cache/xj/cxjipvsk4xnaivt4rhppkbgyobk6bsnkrayv646prhto2uzbws5l.py":124:41)
#loc119 = loc("/home/ericbuehler/.cache/vllm/torch_compile_cache/torch_aot_compile/90537ea14f244a5187d6ecc853fbadcf440d710f29c8e182fe8151f3f7751a82/inductor_cache/xj/cxjipvsk4xnaivt4rhppkbgyobk6bsnkrayv646prhto2uzbws5l.py":124:33)
#loc120 = loc("/home/ericbuehler/.cache/vllm/torch_compile_cache/torch_aot_compile/90537ea14f244a5187d6ecc853fbadcf440d710f29c8e182fe8151f3f7751a82/inductor_cache/xj/cxjipvsk4xnaivt4rhppkbgyobk6bsnkrayv646prhto2uzbws5l.py":124:58)
#loc121 = loc("/home/ericbuehler/.cache/vllm/torch_compile_cache/torch_aot_compile/90537ea14f244a5187d6ecc853fbadcf440d710f29c8e182fe8151f3f7751a82/inductor_cache/xj/cxjipvsk4xnaivt4rhppkbgyobk6bsnkrayv646prhto2uzbws5l.py":26:4)
#loc129 = loc("pid"(#loc2))
#loc130 = loc("num_xblocks_0"(#loc4))
#loc131 = loc("num_xblocks_1"(#loc6))
#loc132 = loc("num_xblocks_1"(#loc7))
#loc133 = loc("num_xblocks_2"(#loc8))
#loc134 = loc("num_xblocks_2"(#loc9))
#loc135 = loc("xoffset"(#loc12))
#loc136 = loc("xindex"(#loc13))
#loc137 = loc("xindex"(#loc14))
#loc138 = loc("xindex"(#loc15))
#loc139 = loc("xmask"(#loc16))
#loc140 = loc("r0_base"(#loc17))
#loc141 = loc("x0"(#loc18))
#loc142 = loc("x1"(#loc19))
#loc143 = loc("_tmp4"(#loc20))
#loc144 = loc("r0_index"(#loc21))
#loc145 = loc("r0_mask"(#loc22))
#loc146 = loc("tmp0"(#loc23))
#loc147 = loc("tmp0"(#loc24))
#loc148 = loc("tmp0"(#loc25))
#loc149 = loc("tmp0"(#loc26))
#loc150 = loc("tmp0"(#loc27))
#loc151 = loc("tmp0"(#loc28))
#loc152 = loc("tmp0"(#loc29))
#loc153 = loc("tmp0"(#loc30))
#loc154 = loc("tmp2"(#loc31))
#loc155 = loc("tmp5"(#loc32))
#loc156 = loc("_tmp4"(#loc33))
#loc158 = loc("tmp4"(#loc38))
#loc159 = loc("pid_offset"(#loc43))
#loc160 = loc("xoffset"(#loc44))
#loc161 = loc("xindex"(#loc45))
#loc162 = loc("xindex"(#loc46))
#loc163 = loc("xindex"(#loc47))
#loc164 = loc("xmask"(#loc48))
#loc165 = loc("r0_base"(#loc49))
#loc166 = loc("x4"(#loc50))
#loc167 = loc("x5"(#loc51))
#loc168 = loc("_tmp10"(#loc52))
#loc169 = loc("r0_index"(#loc53))
#loc170 = loc("r0_mask"(#loc54))
#loc171 = loc("tmp6"(#loc55))
#loc172 = loc("tmp6"(#loc56))
#loc173 = loc("tmp6"(#loc57))
#loc174 = loc("tmp6"(#loc58))
#loc175 = loc("tmp6"(#loc59))
#loc176 = loc("tmp6"(#loc60))
#loc177 = loc("tmp6"(#loc61))
#loc178 = loc("tmp6"(#loc62))
#loc179 = loc("tmp6"(#loc63))
#loc180 = loc("tmp8"(#loc64))
#loc181 = loc("tmp11"(#loc65))
#loc182 = loc("_tmp10"(#loc66))
#loc184 = loc("tmp10"(#loc69))
#loc185 = loc("pid_offset"(#loc74))
#loc186 = loc("xoffset"(#loc75))
#loc187 = loc("xindex"(#loc76))
#loc188 = loc("xindex"(#loc77))
#loc189 = loc("xindex"(#loc78))
#loc190 = loc("xmask"(#loc79))
#loc191 = loc("r0_base"(#loc80))
#loc192 = loc("x8"(#loc81))
#loc193 = loc("x9"(#loc82))
#loc194 = loc("_tmp16"(#loc83))
#loc195 = loc("r0_index"(#loc84))
#loc196 = loc("r0_mask"(#loc85))
#loc197 = loc("tmp12"(#loc86))
#loc198 = loc("tmp12"(#loc87))
#loc199 = loc("tmp12"(#loc88))
#loc200 = loc("tmp12"(#loc89))
#loc201 = loc("tmp12"(#loc90))
#loc202 = loc("tmp12"(#loc91))
#loc203 = loc("tmp12"(#loc92))
#loc204 = loc("tmp12"(#loc93))
#loc205 = loc("tmp12"(#loc94))
#loc206 = loc("tmp14"(#loc95))
#loc207 = loc("tmp17"(#loc96))
#loc208 = loc("_tmp16"(#loc97))
#loc210 = loc("tmp16"(#loc100))
#loc211 = loc("r0_index"(#loc102))
#loc212 = loc("r0_mask"(#loc103))
#loc213 = loc("tmp18"(#loc104))
#loc214 = loc("tmp18"(#loc105))
#loc215 = loc("tmp18"(#loc106))
#loc216 = loc("tmp18"(#loc107))
#loc217 = loc("tmp18"(#loc108))
#loc218 = loc("tmp18"(#loc109))
#loc219 = loc("tmp18"(#loc110))
#loc220 = loc("tmp18"(#loc111))
#loc221 = loc("tmp18"(#loc112))
#loc222 = loc("tmp21"(#loc113))
#loc223 = loc("tmp23"(#loc114))
#loc224 = loc("tmp24"(#loc115))
#loc225 = loc("tmp25"(#loc116))
#loc226 = loc(callsite(#loc3 at #loc130))
#loc227 = loc(callsite(#loc5 at #loc130))
#loc228 = loc(callsite(#loc3 at #loc131))
#loc229 = loc(callsite(#loc5 at #loc131))
#loc230 = loc(callsite(#loc3 at #loc133))
#loc231 = loc(callsite(#loc5 at #loc133))
#loc232 = loc(callsite(#loc35 at #loc157))
#loc234 = loc(callsite(#loc35 at #loc183))
#loc236 = loc(callsite(#loc35 at #loc209))
#loc238 = loc(callsite(#loc37 at #loc232))
#loc239 = loc(callsite(#loc37 at #loc234))
#loc240 = loc(callsite(#loc37 at #loc236))
