#loc = loc("/home/ericbuehler/.cache/vllm/torch_compile_cache/torch_aot_compile/90537ea14f244a5187d6ecc853fbadcf440d710f29c8e182fe8151f3f7751a82/inductor_cache/zg/czgrhr6u5g5xv6aq3m3hvny5bcrpctiajnxanpqtuvh6g6bjevcc.py":22:0)
#loc74 = loc("in_ptr0"(#loc))
#loc75 = loc("in_ptr1"(#loc))
#loc76 = loc("in_ptr2"(#loc))
#loc77 = loc("in_ptr3"(#loc))
#loc78 = loc("in_ptr4"(#loc))
#loc79 = loc("out_ptr0"(#loc))
#loc80 = loc("out_ptr1"(#loc))
#loc81 = loc("xnumel"(#loc))
module {
  tt.func public @triton_(%in_ptr0: !tt.ptr<bf16> {tt.divisibility = 16 : i32} loc("in_ptr0"(#loc)), %in_ptr1: !tt.ptr<f32> {tt.divisibility = 16 : i32} loc("in_ptr1"(#loc)), %in_ptr2: !tt.ptr<bf16> {tt.divisibility = 16 : i32} loc("in_ptr2"(#loc)), %in_ptr3: !tt.ptr<i64> {tt.divisibility = 16 : i32} loc("in_ptr3"(#loc)), %in_ptr4: !tt.ptr<bf16> {tt.divisibility = 16 : i32} loc("in_ptr4"(#loc)), %out_ptr0: !tt.ptr<bf16> {tt.divisibility = 16 : i32} loc("out_ptr0"(#loc)), %out_ptr1: !tt.ptr<bf16> {tt.divisibility = 16 : i32} loc("out_ptr1"(#loc)), %xnumel: i32 {tt.divisibility = 16 : i32} loc("xnumel"(#loc))) attributes {noinline = false} {
    %cst = arith.constant dense<0> : tensor<512xi64> loc(#loc1)
    %cst_0 = arith.constant dense<262144> : tensor<512xi64> loc(#loc1)
    %cst_1 = arith.constant dense<512> : tensor<512xi64> loc(#loc1)
    %cst_2 = arith.constant dense<true> : tensor<512xi1> loc(#loc2)
    %tmp6 = arith.constant dense<9.99999997E-7> : tensor<512xf32> loc(#loc82)
    %tmp4 = arith.constant dense<5.120000e+02> : tensor<512xf32> loc(#loc83)
    %tmp20 = arith.constant dense<8448> : tensor<512xi32> loc(#loc84)
    %cst_3 = arith.constant dense<10240> : tensor<512xi32> loc(#loc1)
    %tmp0 = arith.constant dense<8192> : tensor<512xi32> loc(#loc85)
    %cst_4 = arith.constant dense<512> : tensor<512xi32> loc(#loc1)
    %x1 = arith.constant dense<2> : tensor<512xi32> loc(#loc86)
    %cst_5 = arith.constant dense<256> : tensor<512xi32> loc(#loc1)
    %c512_i32 = arith.constant 512 : i32 loc(#loc1)
    %xoffset = tt.get_program_id x : i32 loc(#loc87)
    %xoffset_6 = arith.muli %xoffset, %c512_i32 : i32 loc(#loc88)
    %xindex = tt.make_range {end = 512 : i32, start = 0 : i32} : tensor<512xi32> loc(#loc89)
    %xindex_7 = tt.splat %xoffset_6 : i32 -> tensor<512xi32> loc(#loc90)
    %xindex_8 = arith.addi %xindex_7, %xindex : tensor<512xi32> loc(#loc90)
    %xmask = tt.splat %xnumel : i32 -> tensor<512xi32> loc(#loc91)
    %xmask_9 = arith.cmpi slt, %xindex_8, %xmask : tensor<512xi32> loc(#loc91)
    %x0 = arith.remsi %xindex_8, %cst_5 : tensor<512xi32> loc(#loc92)
    %x1_10 = arith.divsi %xindex_8, %cst_5 : tensor<512xi32> loc(#loc93)
    %x1_11 = arith.remsi %x1_10, %x1 : tensor<512xi32> loc(#loc86)
    %x2 = arith.divsi %xindex_8, %cst_4 : tensor<512xi32> loc(#loc94)
    %tmp0_12 = arith.addi %x0, %tmp0 : tensor<512xi32> loc(#loc85)
    %tmp0_13 = arith.muli %x1_11, %cst_4 : tensor<512xi32> loc(#loc95)
    %tmp0_14 = arith.addi %tmp0_12, %tmp0_13 : tensor<512xi32> loc(#loc96)
    %tmp0_15 = arith.muli %x2, %cst_3 : tensor<512xi32> loc(#loc97)
    %tmp0_16 = arith.addi %tmp0_14, %tmp0_15 : tensor<512xi32> loc(#loc98)
    %tmp0_17 = tt.splat %in_ptr0 : !tt.ptr<bf16> -> tensor<512x!tt.ptr<bf16>> loc(#loc99)
    %tmp0_18 = tt.addptr %tmp0_17, %tmp0_16 : tensor<512x!tt.ptr<bf16>>, tensor<512xi32> loc(#loc99)
    %tmp0_19 = tt.load %tmp0_18, %xmask_9 : tensor<512x!tt.ptr<bf16>> loc(#loc100)
    %tmp0_20 = arith.extf %tmp0_19 : tensor<512xbf16> to tensor<512xf32> loc(#loc101)
    %tmp2 = tt.splat %in_ptr1 : !tt.ptr<f32> -> tensor<512x!tt.ptr<f32>> loc(#loc102)
    %tmp2_21 = tt.addptr %tmp2, %x1_10 : tensor<512x!tt.ptr<f32>>, tensor<512xi32> loc(#loc102)
    %tmp2_22 = tt.load %tmp2_21, %xmask_9 evictionPolicy = evict_last : tensor<512x!tt.ptr<f32>> loc(#loc103)
    %tmp10 = tt.splat %in_ptr2 : !tt.ptr<bf16> -> tensor<512x!tt.ptr<bf16>> loc(#loc104)
    %tmp10_23 = tt.addptr %tmp10, %x0 : tensor<512x!tt.ptr<bf16>>, tensor<512xi32> loc(#loc104)
    %tmp10_24 = tt.load %tmp10_23, %xmask_9 evictionPolicy = evict_last : tensor<512x!tt.ptr<bf16>> loc(#loc105)
    %tmp10_25 = arith.extf %tmp10_24 : tensor<512xbf16> to tensor<512xf32> loc(#loc106)
    %tmp12 = tt.splat %in_ptr3 : !tt.ptr<i64> -> tensor<512x!tt.ptr<i64>> loc(#loc107)
    %tmp12_26 = tt.addptr %tmp12, %x2 : tensor<512x!tt.ptr<i64>>, tensor<512xi32> loc(#loc107)
    %tmp12_27 = tt.load %tmp12_26, %xmask_9 evictionPolicy = evict_last : tensor<512x!tt.ptr<i64>> loc(#loc108)
    %tmp20_28 = arith.addi %x0, %tmp20 : tensor<512xi32> loc(#loc84)
    %tmp20_29 = arith.addi %tmp20_28, %tmp0_13 : tensor<512xi32> loc(#loc109)
    %tmp20_30 = arith.addi %tmp20_29, %tmp0_15 : tensor<512xi32> loc(#loc110)
    %tmp20_31 = tt.addptr %tmp0_17, %tmp20_30 : tensor<512x!tt.ptr<bf16>>, tensor<512xi32> loc(#loc111)
    %tmp20_32 = tt.load %tmp20_31, %xmask_9 : tensor<512x!tt.ptr<bf16>> loc(#loc112)
    %tmp20_33 = arith.extf %tmp20_32 : tensor<512xbf16> to tensor<512xf32> loc(#loc113)
    %tmp24 = arith.addi %x0, %cst_5 : tensor<512xi32> loc(#loc114)
    %tmp24_34 = tt.addptr %tmp10, %tmp24 : tensor<512x!tt.ptr<bf16>>, tensor<512xi32> loc(#loc115)
    %tmp24_35 = tt.load %tmp24_34, %xmask_9 evictionPolicy = evict_last : tensor<512x!tt.ptr<bf16>> loc(#loc116)
    %tmp24_36 = arith.extf %tmp24_35 : tensor<512xbf16> to tensor<512xf32> loc(#loc117)
    %tmp4_37 = arith.divf %tmp2_22, %tmp4 : tensor<512xf32> loc(#loc83)
    %tmp6_38 = arith.addf %tmp4_37, %tmp6 : tensor<512xf32> loc(#loc82)
    %tmp7 = tt.extern_elementwise %tmp6_38 {libname = "", libpath = "", pure = true, symbol = "__nv_rsqrtf"} : (tensor<512xf32>) -> tensor<512xf32> loc(#loc118)
    %tmp8 = arith.mulf %tmp0_20, %tmp7 : tensor<512xf32> loc(#loc119)
    %tmp11 = arith.mulf %tmp8, %tmp10_25 : tensor<512xf32> loc(#loc120)
    %tmp14 = arith.addi %tmp12_27, %cst_0 : tensor<512xi64> loc(#loc121)
    %tmp15 = arith.cmpi slt, %tmp12_27, %cst : tensor<512xi64> loc(#loc122)
    %tmp16 = arith.select %tmp15, %tmp14, %tmp12_27 : tensor<512xi1>, tensor<512xi64> loc(#loc123)
    %0 = arith.cmpi sge, %tmp16, %cst : tensor<512xi64> loc(#loc45)
    %1 = arith.cmpi slt, %tmp16, %cst_0 : tensor<512xi64> loc(#loc46)
    %2 = arith.andi %0, %1 : tensor<512xi1> loc(#loc47)
    %3 = arith.xori %xmask_9, %cst_2 : tensor<512xi1> loc(#loc2)
    %4 = arith.ori %2, %3 : tensor<512xi1> loc(#loc48)
    tt.assert %4, "index out of bounds: 0 <= tmp16 < 262144" : tensor<512xi1> loc(#loc49)
    %tmp18 = arith.muli %tmp16, %cst_1 : tensor<512xi64> loc(#loc124)
    %tmp18_39 = arith.extsi %x0 : tensor<512xi32> to tensor<512xi64> loc(#loc125)
    %tmp18_40 = arith.addi %tmp18_39, %tmp18 : tensor<512xi64> loc(#loc125)
    %tmp18_41 = tt.splat %in_ptr4 : !tt.ptr<bf16> -> tensor<512x!tt.ptr<bf16>> loc(#loc126)
    %tmp18_42 = tt.addptr %tmp18_41, %tmp18_40 : tensor<512x!tt.ptr<bf16>>, tensor<512xi64> loc(#loc126)
    %tmp18_43 = tt.load %tmp18_42, %xmask_9 : tensor<512x!tt.ptr<bf16>> loc(#loc127)
    %tmp18_44 = arith.extf %tmp18_43 : tensor<512xbf16> to tensor<512xf32> loc(#loc128)
    %tmp19 = arith.mulf %tmp11, %tmp18_44 : tensor<512xf32> loc(#loc129)
    %tmp22 = arith.mulf %tmp20_33, %tmp7 : tensor<512xf32> loc(#loc130)
    %tmp25 = arith.mulf %tmp22, %tmp24_36 : tensor<512xf32> loc(#loc131)
    %tmp26 = arith.extsi %tmp24 : tensor<512xi32> to tensor<512xi64> loc(#loc132)
    %tmp26_45 = arith.addi %tmp26, %tmp18 : tensor<512xi64> loc(#loc132)
    %tmp26_46 = tt.addptr %tmp18_41, %tmp26_45 : tensor<512x!tt.ptr<bf16>>, tensor<512xi64> loc(#loc133)
    %tmp26_47 = tt.load %tmp26_46, %xmask_9 : tensor<512x!tt.ptr<bf16>> loc(#loc134)
    %tmp26_48 = arith.extf %tmp26_47 : tensor<512xbf16> to tensor<512xf32> loc(#loc135)
    %tmp27 = arith.mulf %tmp25, %tmp26_48 : tensor<512xf32> loc(#loc136)
    %tmp28 = arith.subf %tmp19, %tmp27 : tensor<512xf32> loc(#loc137)
    %tmp29 = arith.mulf %tmp25, %tmp18_44 : tensor<512xf32> loc(#loc138)
    %tmp30 = arith.mulf %tmp11, %tmp26_48 : tensor<512xf32> loc(#loc139)
    %tmp31 = arith.addf %tmp29, %tmp30 : tensor<512xf32> loc(#loc140)
    %5 = arith.muli %x1_10, %cst_4 : tensor<512xi32> loc(#loc67)
    %6 = arith.addi %x0, %5 : tensor<512xi32> loc(#loc68)
    %7 = tt.splat %out_ptr0 : !tt.ptr<bf16> -> tensor<512x!tt.ptr<bf16>> loc(#loc69)
    %8 = tt.addptr %7, %6 : tensor<512x!tt.ptr<bf16>>, tensor<512xi32> loc(#loc69)
    %9 = arith.truncf %tmp28 : tensor<512xf32> to tensor<512xbf16> loc(#loc70)
    tt.store %8, %9, %xmask_9 : tensor<512x!tt.ptr<bf16>> loc(#loc70)
    %10 = tt.splat %out_ptr1 : !tt.ptr<bf16> -> tensor<512x!tt.ptr<bf16>> loc(#loc71)
    %11 = tt.addptr %10, %6 : tensor<512x!tt.ptr<bf16>>, tensor<512xi32> loc(#loc71)
    %12 = arith.truncf %tmp31 : tensor<512xf32> to tensor<512xbf16> loc(#loc72)
    tt.store %11, %12, %xmask_9 : tensor<512x!tt.ptr<bf16>> loc(#loc72)
    tt.return loc(#loc73)
  } loc(#loc)
} loc(#loc)
#loc1 = loc(unknown)
#loc2 = loc("/home/ericbuehler/.cache/vllm/torch_compile_cache/torch_aot_compile/90537ea14f244a5187d6ecc853fbadcf440d710f29c8e182fe8151f3f7751a82/inductor_cache/zg/czgrhr6u5g5xv6aq3m3hvny5bcrpctiajnxanpqtuvh6g6bjevcc.py":49:59)
#loc3 = loc("/home/ericbuehler/.cache/vllm/torch_compile_cache/torch_aot_compile/90537ea14f244a5187d6ecc853fbadcf440d710f29c8e182fe8151f3f7751a82/inductor_cache/zg/czgrhr6u5g5xv6aq3m3hvny5bcrpctiajnxanpqtuvh6g6bjevcc.py":40:18)
#loc4 = loc("/home/ericbuehler/.cache/vllm/torch_compile_cache/torch_aot_compile/90537ea14f244a5187d6ecc853fbadcf440d710f29c8e182fe8151f3f7751a82/inductor_cache/zg/czgrhr6u5g5xv6aq3m3hvny5bcrpctiajnxanpqtuvh6g6bjevcc.py":38:19)
#loc5 = loc("/home/ericbuehler/.cache/vllm/torch_compile_cache/torch_aot_compile/90537ea14f244a5187d6ecc853fbadcf440d710f29c8e182fe8151f3f7751a82/inductor_cache/zg/czgrhr6u5g5xv6aq3m3hvny5bcrpctiajnxanpqtuvh6g6bjevcc.py":34:38)
#loc6 = loc("/home/ericbuehler/.cache/vllm/torch_compile_cache/torch_aot_compile/90537ea14f244a5187d6ecc853fbadcf440d710f29c8e182fe8151f3f7751a82/inductor_cache/zg/czgrhr6u5g5xv6aq3m3hvny5bcrpctiajnxanpqtuvh6g6bjevcc.py":30:37)
#loc7 = loc("/home/ericbuehler/.cache/vllm/torch_compile_cache/torch_aot_compile/90537ea14f244a5187d6ecc853fbadcf440d710f29c8e182fe8151f3f7751a82/inductor_cache/zg/czgrhr6u5g5xv6aq3m3hvny5bcrpctiajnxanpqtuvh6g6bjevcc.py":27:28)
#loc8 = loc("/home/ericbuehler/.cache/vllm/torch_compile_cache/torch_aot_compile/90537ea14f244a5187d6ecc853fbadcf440d710f29c8e182fe8151f3f7751a82/inductor_cache/zg/czgrhr6u5g5xv6aq3m3hvny5bcrpctiajnxanpqtuvh6g6bjevcc.py":23:28)
#loc9 = loc("/home/ericbuehler/.cache/vllm/torch_compile_cache/torch_aot_compile/90537ea14f244a5187d6ecc853fbadcf440d710f29c8e182fe8151f3f7751a82/inductor_cache/zg/czgrhr6u5g5xv6aq3m3hvny5bcrpctiajnxanpqtuvh6g6bjevcc.py":23:33)
#loc10 = loc("/home/ericbuehler/.cache/vllm/torch_compile_cache/torch_aot_compile/90537ea14f244a5187d6ecc853fbadcf440d710f29c8e182fe8151f3f7751a82/inductor_cache/zg/czgrhr6u5g5xv6aq3m3hvny5bcrpctiajnxanpqtuvh6g6bjevcc.py":24:36)
#loc11 = loc("/home/ericbuehler/.cache/vllm/torch_compile_cache/torch_aot_compile/90537ea14f244a5187d6ecc853fbadcf440d710f29c8e182fe8151f3f7751a82/inductor_cache/zg/czgrhr6u5g5xv6aq3m3hvny5bcrpctiajnxanpqtuvh6g6bjevcc.py":24:23)
#loc12 = loc("/home/ericbuehler/.cache/vllm/torch_compile_cache/torch_aot_compile/90537ea14f244a5187d6ecc853fbadcf440d710f29c8e182fe8151f3f7751a82/inductor_cache/zg/czgrhr6u5g5xv6aq3m3hvny5bcrpctiajnxanpqtuvh6g6bjevcc.py":25:21)
#loc13 = loc("/home/ericbuehler/.cache/vllm/torch_compile_cache/torch_aot_compile/90537ea14f244a5187d6ecc853fbadcf440d710f29c8e182fe8151f3f7751a82/inductor_cache/zg/czgrhr6u5g5xv6aq3m3hvny5bcrpctiajnxanpqtuvh6g6bjevcc.py":26:19)
#loc14 = loc("/home/ericbuehler/.cache/vllm/torch_compile_cache/torch_aot_compile/90537ea14f244a5187d6ecc853fbadcf440d710f29c8e182fe8151f3f7751a82/inductor_cache/zg/czgrhr6u5g5xv6aq3m3hvny5bcrpctiajnxanpqtuvh6g6bjevcc.py":27:21)
#loc15 = loc("/home/ericbuehler/.cache/vllm/torch_compile_cache/torch_aot_compile/90537ea14f244a5187d6ecc853fbadcf440d710f29c8e182fe8151f3f7751a82/inductor_cache/zg/czgrhr6u5g5xv6aq3m3hvny5bcrpctiajnxanpqtuvh6g6bjevcc.py":28:19)
#loc16 = loc("/home/ericbuehler/.cache/vllm/torch_compile_cache/torch_aot_compile/90537ea14f244a5187d6ecc853fbadcf440d710f29c8e182fe8151f3f7751a82/inductor_cache/zg/czgrhr6u5g5xv6aq3m3hvny5bcrpctiajnxanpqtuvh6g6bjevcc.py":30:46)
#loc17 = loc("/home/ericbuehler/.cache/vllm/torch_compile_cache/torch_aot_compile/90537ea14f244a5187d6ecc853fbadcf440d710f29c8e182fe8151f3f7751a82/inductor_cache/zg/czgrhr6u5g5xv6aq3m3hvny5bcrpctiajnxanpqtuvh6g6bjevcc.py":30:42)
#loc18 = loc("/home/ericbuehler/.cache/vllm/torch_compile_cache/torch_aot_compile/90537ea14f244a5187d6ecc853fbadcf440d710f29c8e182fe8151f3f7751a82/inductor_cache/zg/czgrhr6u5g5xv6aq3m3hvny5bcrpctiajnxanpqtuvh6g6bjevcc.py":30:57)
#loc19 = loc("/home/ericbuehler/.cache/vllm/torch_compile_cache/torch_aot_compile/90537ea14f244a5187d6ecc853fbadcf440d710f29c8e182fe8151f3f7751a82/inductor_cache/zg/czgrhr6u5g5xv6aq3m3hvny5bcrpctiajnxanpqtuvh6g6bjevcc.py":30:51)
#loc20 = loc("/home/ericbuehler/.cache/vllm/torch_compile_cache/torch_aot_compile/90537ea14f244a5187d6ecc853fbadcf440d710f29c8e182fe8151f3f7751a82/inductor_cache/zg/czgrhr6u5g5xv6aq3m3hvny5bcrpctiajnxanpqtuvh6g6bjevcc.py":30:30)
#loc21 = loc("/home/ericbuehler/.cache/vllm/torch_compile_cache/torch_aot_compile/90537ea14f244a5187d6ecc853fbadcf440d710f29c8e182fe8151f3f7751a82/inductor_cache/zg/czgrhr6u5g5xv6aq3m3hvny5bcrpctiajnxanpqtuvh6g6bjevcc.py":30:62)
#loc22 = loc("/home/ericbuehler/.cache/vllm/torch_compile_cache/torch_aot_compile/90537ea14f244a5187d6ecc853fbadcf440d710f29c8e182fe8151f3f7751a82/inductor_cache/zg/czgrhr6u5g5xv6aq3m3hvny5bcrpctiajnxanpqtuvh6g6bjevcc.py":30:72)
#loc23 = loc("/home/ericbuehler/.cache/vllm/torch_compile_cache/torch_aot_compile/90537ea14f244a5187d6ecc853fbadcf440d710f29c8e182fe8151f3f7751a82/inductor_cache/zg/czgrhr6u5g5xv6aq3m3hvny5bcrpctiajnxanpqtuvh6g6bjevcc.py":31:30)
#loc24 = loc("/home/ericbuehler/.cache/vllm/torch_compile_cache/torch_aot_compile/90537ea14f244a5187d6ecc853fbadcf440d710f29c8e182fe8151f3f7751a82/inductor_cache/zg/czgrhr6u5g5xv6aq3m3hvny5bcrpctiajnxanpqtuvh6g6bjevcc.py":31:35)
#loc25 = loc("/home/ericbuehler/.cache/vllm/torch_compile_cache/torch_aot_compile/90537ea14f244a5187d6ecc853fbadcf440d710f29c8e182fe8151f3f7751a82/inductor_cache/zg/czgrhr6u5g5xv6aq3m3hvny5bcrpctiajnxanpqtuvh6g6bjevcc.py":32:31)
#loc26 = loc("/home/ericbuehler/.cache/vllm/torch_compile_cache/torch_aot_compile/90537ea14f244a5187d6ecc853fbadcf440d710f29c8e182fe8151f3f7751a82/inductor_cache/zg/czgrhr6u5g5xv6aq3m3hvny5bcrpctiajnxanpqtuvh6g6bjevcc.py":32:36)
#loc27 = loc("/home/ericbuehler/.cache/vllm/torch_compile_cache/torch_aot_compile/90537ea14f244a5187d6ecc853fbadcf440d710f29c8e182fe8151f3f7751a82/inductor_cache/zg/czgrhr6u5g5xv6aq3m3hvny5bcrpctiajnxanpqtuvh6g6bjevcc.py":32:76)
#loc28 = loc("/home/ericbuehler/.cache/vllm/torch_compile_cache/torch_aot_compile/90537ea14f244a5187d6ecc853fbadcf440d710f29c8e182fe8151f3f7751a82/inductor_cache/zg/czgrhr6u5g5xv6aq3m3hvny5bcrpctiajnxanpqtuvh6g6bjevcc.py":33:31)
#loc29 = loc("/home/ericbuehler/.cache/vllm/torch_compile_cache/torch_aot_compile/90537ea14f244a5187d6ecc853fbadcf440d710f29c8e182fe8151f3f7751a82/inductor_cache/zg/czgrhr6u5g5xv6aq3m3hvny5bcrpctiajnxanpqtuvh6g6bjevcc.py":33:36)
#loc30 = loc("/home/ericbuehler/.cache/vllm/torch_compile_cache/torch_aot_compile/90537ea14f244a5187d6ecc853fbadcf440d710f29c8e182fe8151f3f7751a82/inductor_cache/zg/czgrhr6u5g5xv6aq3m3hvny5bcrpctiajnxanpqtuvh6g6bjevcc.py":34:43)
#loc31 = loc("/home/ericbuehler/.cache/vllm/torch_compile_cache/torch_aot_compile/90537ea14f244a5187d6ecc853fbadcf440d710f29c8e182fe8151f3f7751a82/inductor_cache/zg/czgrhr6u5g5xv6aq3m3hvny5bcrpctiajnxanpqtuvh6g6bjevcc.py":34:52)
#loc32 = loc("/home/ericbuehler/.cache/vllm/torch_compile_cache/torch_aot_compile/90537ea14f244a5187d6ecc853fbadcf440d710f29c8e182fe8151f3f7751a82/inductor_cache/zg/czgrhr6u5g5xv6aq3m3hvny5bcrpctiajnxanpqtuvh6g6bjevcc.py":34:31)
#loc33 = loc("/home/ericbuehler/.cache/vllm/torch_compile_cache/torch_aot_compile/90537ea14f244a5187d6ecc853fbadcf440d710f29c8e182fe8151f3f7751a82/inductor_cache/zg/czgrhr6u5g5xv6aq3m3hvny5bcrpctiajnxanpqtuvh6g6bjevcc.py":34:63)
#loc34 = loc("/home/ericbuehler/.cache/vllm/torch_compile_cache/torch_aot_compile/90537ea14f244a5187d6ecc853fbadcf440d710f29c8e182fe8151f3f7751a82/inductor_cache/zg/czgrhr6u5g5xv6aq3m3hvny5bcrpctiajnxanpqtuvh6g6bjevcc.py":34:73)
#loc35 = loc("/home/ericbuehler/.cache/vllm/torch_compile_cache/torch_aot_compile/90537ea14f244a5187d6ecc853fbadcf440d710f29c8e182fe8151f3f7751a82/inductor_cache/zg/czgrhr6u5g5xv6aq3m3hvny5bcrpctiajnxanpqtuvh6g6bjevcc.py":35:37)
#loc36 = loc("/home/ericbuehler/.cache/vllm/torch_compile_cache/torch_aot_compile/90537ea14f244a5187d6ecc853fbadcf440d710f29c8e182fe8151f3f7751a82/inductor_cache/zg/czgrhr6u5g5xv6aq3m3hvny5bcrpctiajnxanpqtuvh6g6bjevcc.py":35:31)
#loc37 = loc("/home/ericbuehler/.cache/vllm/torch_compile_cache/torch_aot_compile/90537ea14f244a5187d6ecc853fbadcf440d710f29c8e182fe8151f3f7751a82/inductor_cache/zg/czgrhr6u5g5xv6aq3m3hvny5bcrpctiajnxanpqtuvh6g6bjevcc.py":35:42)
#loc38 = loc("/home/ericbuehler/.cache/vllm/torch_compile_cache/torch_aot_compile/90537ea14f244a5187d6ecc853fbadcf440d710f29c8e182fe8151f3f7751a82/inductor_cache/zg/czgrhr6u5g5xv6aq3m3hvny5bcrpctiajnxanpqtuvh6g6bjevcc.py":35:82)
#loc39 = loc("/home/ericbuehler/.cache/vllm/torch_compile_cache/torch_aot_compile/90537ea14f244a5187d6ecc853fbadcf440d710f29c8e182fe8151f3f7751a82/inductor_cache/zg/czgrhr6u5g5xv6aq3m3hvny5bcrpctiajnxanpqtuvh6g6bjevcc.py":41:27)
#loc40 = loc("/home/ericbuehler/.cache/vllm/torch_compile_cache/torch_aot_compile/90537ea14f244a5187d6ecc853fbadcf440d710f29c8e182fe8151f3f7751a82/inductor_cache/zg/czgrhr6u5g5xv6aq3m3hvny5bcrpctiajnxanpqtuvh6g6bjevcc.py":42:18)
#loc41 = loc("/home/ericbuehler/.cache/vllm/torch_compile_cache/torch_aot_compile/90537ea14f244a5187d6ecc853fbadcf440d710f29c8e182fe8151f3f7751a82/inductor_cache/zg/czgrhr6u5g5xv6aq3m3hvny5bcrpctiajnxanpqtuvh6g6bjevcc.py":44:19)
#loc42 = loc("/home/ericbuehler/.cache/vllm/torch_compile_cache/torch_aot_compile/90537ea14f244a5187d6ecc853fbadcf440d710f29c8e182fe8151f3f7751a82/inductor_cache/zg/czgrhr6u5g5xv6aq3m3hvny5bcrpctiajnxanpqtuvh6g6bjevcc.py":46:20)
#loc43 = loc("/home/ericbuehler/.cache/vllm/torch_compile_cache/torch_aot_compile/90537ea14f244a5187d6ecc853fbadcf440d710f29c8e182fe8151f3f7751a82/inductor_cache/zg/czgrhr6u5g5xv6aq3m3hvny5bcrpctiajnxanpqtuvh6g6bjevcc.py":47:20)
#loc44 = loc("/home/ericbuehler/.cache/vllm/torch_compile_cache/torch_aot_compile/90537ea14f244a5187d6ecc853fbadcf440d710f29c8e182fe8151f3f7751a82/inductor_cache/zg/czgrhr6u5g5xv6aq3m3hvny5bcrpctiajnxanpqtuvh6g6bjevcc.py":48:35)
#loc45 = loc("/home/ericbuehler/.cache/vllm/torch_compile_cache/torch_aot_compile/90537ea14f244a5187d6ecc853fbadcf440d710f29c8e182fe8151f3f7751a82/inductor_cache/zg/czgrhr6u5g5xv6aq3m3hvny5bcrpctiajnxanpqtuvh6g6bjevcc.py":49:28)
#loc46 = loc("/home/ericbuehler/.cache/vllm/torch_compile_cache/torch_aot_compile/90537ea14f244a5187d6ecc853fbadcf440d710f29c8e182fe8151f3f7751a82/inductor_cache/zg/czgrhr6u5g5xv6aq3m3hvny5bcrpctiajnxanpqtuvh6g6bjevcc.py":49:46)
#loc47 = loc("/home/ericbuehler/.cache/vllm/torch_compile_cache/torch_aot_compile/90537ea14f244a5187d6ecc853fbadcf440d710f29c8e182fe8151f3f7751a82/inductor_cache/zg/czgrhr6u5g5xv6aq3m3hvny5bcrpctiajnxanpqtuvh6g6bjevcc.py":49:38)
#loc48 = loc("/home/ericbuehler/.cache/vllm/torch_compile_cache/torch_aot_compile/90537ea14f244a5187d6ecc853fbadcf440d710f29c8e182fe8151f3f7751a82/inductor_cache/zg/czgrhr6u5g5xv6aq3m3hvny5bcrpctiajnxanpqtuvh6g6bjevcc.py":49:57)
#loc49 = loc("/home/ericbuehler/.cache/vllm/torch_compile_cache/torch_aot_compile/90537ea14f244a5187d6ecc853fbadcf440d710f29c8e182fe8151f3f7751a82/inductor_cache/zg/czgrhr6u5g5xv6aq3m3hvny5bcrpctiajnxanpqtuvh6g6bjevcc.py":49:67)
#loc50 = loc("/home/ericbuehler/.cache/vllm/torch_compile_cache/torch_aot_compile/90537ea14f244a5187d6ecc853fbadcf440d710f29c8e182fe8151f3f7751a82/inductor_cache/zg/czgrhr6u5g5xv6aq3m3hvny5bcrpctiajnxanpqtuvh6g6bjevcc.py":50:40)
#loc51 = loc("/home/ericbuehler/.cache/vllm/torch_compile_cache/torch_aot_compile/90537ea14f244a5187d6ecc853fbadcf440d710f29c8e182fe8151f3f7751a82/inductor_cache/zg/czgrhr6u5g5xv6aq3m3hvny5bcrpctiajnxanpqtuvh6g6bjevcc.py":50:36)
#loc52 = loc("/home/ericbuehler/.cache/vllm/torch_compile_cache/torch_aot_compile/90537ea14f244a5187d6ecc853fbadcf440d710f29c8e182fe8151f3f7751a82/inductor_cache/zg/czgrhr6u5g5xv6aq3m3hvny5bcrpctiajnxanpqtuvh6g6bjevcc.py":50:31)
#loc53 = loc("/home/ericbuehler/.cache/vllm/torch_compile_cache/torch_aot_compile/90537ea14f244a5187d6ecc853fbadcf440d710f29c8e182fe8151f3f7751a82/inductor_cache/zg/czgrhr6u5g5xv6aq3m3hvny5bcrpctiajnxanpqtuvh6g6bjevcc.py":50:48)
#loc54 = loc("/home/ericbuehler/.cache/vllm/torch_compile_cache/torch_aot_compile/90537ea14f244a5187d6ecc853fbadcf440d710f29c8e182fe8151f3f7751a82/inductor_cache/zg/czgrhr6u5g5xv6aq3m3hvny5bcrpctiajnxanpqtuvh6g6bjevcc.py":50:58)
#loc55 = loc("/home/ericbuehler/.cache/vllm/torch_compile_cache/torch_aot_compile/90537ea14f244a5187d6ecc853fbadcf440d710f29c8e182fe8151f3f7751a82/inductor_cache/zg/czgrhr6u5g5xv6aq3m3hvny5bcrpctiajnxanpqtuvh6g6bjevcc.py":51:20)
#loc56 = loc("/home/ericbuehler/.cache/vllm/torch_compile_cache/torch_aot_compile/90537ea14f244a5187d6ecc853fbadcf440d710f29c8e182fe8151f3f7751a82/inductor_cache/zg/czgrhr6u5g5xv6aq3m3hvny5bcrpctiajnxanpqtuvh6g6bjevcc.py":53:20)
#loc57 = loc("/home/ericbuehler/.cache/vllm/torch_compile_cache/torch_aot_compile/90537ea14f244a5187d6ecc853fbadcf440d710f29c8e182fe8151f3f7751a82/inductor_cache/zg/czgrhr6u5g5xv6aq3m3hvny5bcrpctiajnxanpqtuvh6g6bjevcc.py":55:20)
#loc58 = loc("/home/ericbuehler/.cache/vllm/torch_compile_cache/torch_aot_compile/90537ea14f244a5187d6ecc853fbadcf440d710f29c8e182fe8151f3f7751a82/inductor_cache/zg/czgrhr6u5g5xv6aq3m3hvny5bcrpctiajnxanpqtuvh6g6bjevcc.py":56:42)
#loc59 = loc("/home/ericbuehler/.cache/vllm/torch_compile_cache/torch_aot_compile/90537ea14f244a5187d6ecc853fbadcf440d710f29c8e182fe8151f3f7751a82/inductor_cache/zg/czgrhr6u5g5xv6aq3m3hvny5bcrpctiajnxanpqtuvh6g6bjevcc.py":56:31)
#loc60 = loc("/home/ericbuehler/.cache/vllm/torch_compile_cache/torch_aot_compile/90537ea14f244a5187d6ecc853fbadcf440d710f29c8e182fe8151f3f7751a82/inductor_cache/zg/czgrhr6u5g5xv6aq3m3hvny5bcrpctiajnxanpqtuvh6g6bjevcc.py":56:54)
#loc61 = loc("/home/ericbuehler/.cache/vllm/torch_compile_cache/torch_aot_compile/90537ea14f244a5187d6ecc853fbadcf440d710f29c8e182fe8151f3f7751a82/inductor_cache/zg/czgrhr6u5g5xv6aq3m3hvny5bcrpctiajnxanpqtuvh6g6bjevcc.py":56:64)
#loc62 = loc("/home/ericbuehler/.cache/vllm/torch_compile_cache/torch_aot_compile/90537ea14f244a5187d6ecc853fbadcf440d710f29c8e182fe8151f3f7751a82/inductor_cache/zg/czgrhr6u5g5xv6aq3m3hvny5bcrpctiajnxanpqtuvh6g6bjevcc.py":57:20)
#loc63 = loc("/home/ericbuehler/.cache/vllm/torch_compile_cache/torch_aot_compile/90537ea14f244a5187d6ecc853fbadcf440d710f29c8e182fe8151f3f7751a82/inductor_cache/zg/czgrhr6u5g5xv6aq3m3hvny5bcrpctiajnxanpqtuvh6g6bjevcc.py":58:20)
#loc64 = loc("/home/ericbuehler/.cache/vllm/torch_compile_cache/torch_aot_compile/90537ea14f244a5187d6ecc853fbadcf440d710f29c8e182fe8151f3f7751a82/inductor_cache/zg/czgrhr6u5g5xv6aq3m3hvny5bcrpctiajnxanpqtuvh6g6bjevcc.py":59:20)
#loc65 = loc("/home/ericbuehler/.cache/vllm/torch_compile_cache/torch_aot_compile/90537ea14f244a5187d6ecc853fbadcf440d710f29c8e182fe8151f3f7751a82/inductor_cache/zg/czgrhr6u5g5xv6aq3m3hvny5bcrpctiajnxanpqtuvh6g6bjevcc.py":60:20)
#loc66 = loc("/home/ericbuehler/.cache/vllm/torch_compile_cache/torch_aot_compile/90537ea14f244a5187d6ecc853fbadcf440d710f29c8e182fe8151f3f7751a82/inductor_cache/zg/czgrhr6u5g5xv6aq3m3hvny5bcrpctiajnxanpqtuvh6g6bjevcc.py":61:20)
#loc67 = loc("/home/ericbuehler/.cache/vllm/torch_compile_cache/torch_aot_compile/90537ea14f244a5187d6ecc853fbadcf440d710f29c8e182fe8151f3f7751a82/inductor_cache/zg/czgrhr6u5g5xv6aq3m3hvny5bcrpctiajnxanpqtuvh6g6bjevcc.py":62:34)
#loc68 = loc("/home/ericbuehler/.cache/vllm/torch_compile_cache/torch_aot_compile/90537ea14f244a5187d6ecc853fbadcf440d710f29c8e182fe8151f3f7751a82/inductor_cache/zg/czgrhr6u5g5xv6aq3m3hvny5bcrpctiajnxanpqtuvh6g6bjevcc.py":62:30)
#loc69 = loc("/home/ericbuehler/.cache/vllm/torch_compile_cache/torch_aot_compile/90537ea14f244a5187d6ecc853fbadcf440d710f29c8e182fe8151f3f7751a82/inductor_cache/zg/czgrhr6u5g5xv6aq3m3hvny5bcrpctiajnxanpqtuvh6g6bjevcc.py":62:25)
#loc70 = loc("/home/ericbuehler/.cache/vllm/torch_compile_cache/torch_aot_compile/90537ea14f244a5187d6ecc853fbadcf440d710f29c8e182fe8151f3f7751a82/inductor_cache/zg/czgrhr6u5g5xv6aq3m3hvny5bcrpctiajnxanpqtuvh6g6bjevcc.py":62:46)
#loc71 = loc("/home/ericbuehler/.cache/vllm/torch_compile_cache/torch_aot_compile/90537ea14f244a5187d6ecc853fbadcf440d710f29c8e182fe8151f3f7751a82/inductor_cache/zg/czgrhr6u5g5xv6aq3m3hvny5bcrpctiajnxanpqtuvh6g6bjevcc.py":63:25)
#loc72 = loc("/home/ericbuehler/.cache/vllm/torch_compile_cache/torch_aot_compile/90537ea14f244a5187d6ecc853fbadcf440d710f29c8e182fe8151f3f7751a82/inductor_cache/zg/czgrhr6u5g5xv6aq3m3hvny5bcrpctiajnxanpqtuvh6g6bjevcc.py":63:46)
#loc73 = loc("/home/ericbuehler/.cache/vllm/torch_compile_cache/torch_aot_compile/90537ea14f244a5187d6ecc853fbadcf440d710f29c8e182fe8151f3f7751a82/inductor_cache/zg/czgrhr6u5g5xv6aq3m3hvny5bcrpctiajnxanpqtuvh6g6bjevcc.py":63:4)
#loc82 = loc("tmp6"(#loc3))
#loc83 = loc("tmp4"(#loc4))
#loc84 = loc("tmp20"(#loc5))
#loc85 = loc("tmp0"(#loc6))
#loc86 = loc("x1"(#loc7))
#loc87 = loc("xoffset"(#loc8))
#loc88 = loc("xoffset"(#loc9))
#loc89 = loc("xindex"(#loc10))
#loc90 = loc("xindex"(#loc11))
#loc91 = loc("xmask"(#loc12))
#loc92 = loc("x0"(#loc13))
#loc93 = loc("x1"(#loc14))
#loc94 = loc("x2"(#loc15))
#loc95 = loc("tmp0"(#loc16))
#loc96 = loc("tmp0"(#loc17))
#loc97 = loc("tmp0"(#loc18))
#loc98 = loc("tmp0"(#loc19))
#loc99 = loc("tmp0"(#loc20))
#loc100 = loc("tmp0"(#loc21))
#loc101 = loc("tmp0"(#loc22))
#loc102 = loc("tmp2"(#loc23))
#loc103 = loc("tmp2"(#loc24))
#loc104 = loc("tmp10"(#loc25))
#loc105 = loc("tmp10"(#loc26))
#loc106 = loc("tmp10"(#loc27))
#loc107 = loc("tmp12"(#loc28))
#loc108 = loc("tmp12"(#loc29))
#loc109 = loc("tmp20"(#loc30))
#loc110 = loc("tmp20"(#loc31))
#loc111 = loc("tmp20"(#loc32))
#loc112 = loc("tmp20"(#loc33))
#loc113 = loc("tmp20"(#loc34))
#loc114 = loc("tmp24"(#loc35))
#loc115 = loc("tmp24"(#loc36))
#loc116 = loc("tmp24"(#loc37))
#loc117 = loc("tmp24"(#loc38))
#loc118 = loc("tmp7"(#loc39))
#loc119 = loc("tmp8"(#loc40))
#loc120 = loc("tmp11"(#loc41))
#loc121 = loc("tmp14"(#loc42))
#loc122 = loc("tmp15"(#loc43))
#loc123 = loc("tmp16"(#loc44))
#loc124 = loc("tmp18"(#loc50))
#loc125 = loc("tmp18"(#loc51))
#loc126 = loc("tmp18"(#loc52))
#loc127 = loc("tmp18"(#loc53))
#loc128 = loc("tmp18"(#loc54))
#loc129 = loc("tmp19"(#loc55))
#loc130 = loc("tmp22"(#loc56))
#loc131 = loc("tmp25"(#loc57))
#loc132 = loc("tmp26"(#loc58))
#loc133 = loc("tmp26"(#loc59))
#loc134 = loc("tmp26"(#loc60))
#loc135 = loc("tmp26"(#loc61))
#loc136 = loc("tmp27"(#loc62))
#loc137 = loc("tmp28"(#loc63))
#loc138 = loc("tmp29"(#loc64))
#loc139 = loc("tmp30"(#loc65))
#loc140 = loc("tmp31"(#loc66))
