#loc = loc("/home/ericbuehler/.cache/vllm/torch_compile_cache/torch_aot_compile/90537ea14f244a5187d6ecc853fbadcf440d710f29c8e182fe8151f3f7751a82/inductor_cache/gn/cgn2raf5osu5wsoad4qc6lzazbb5uwfkh6dfiazborewylq3ebf3.py":22:0)
#loc36 = loc("in_ptr0"(#loc))
#loc37 = loc("out_ptr0"(#loc))
#loc38 = loc("xnumel"(#loc))
module {
  tt.func public @triton_(%in_ptr0: !tt.ptr<bf16> {tt.divisibility = 16 : i32} loc("in_ptr0"(#loc)), %out_ptr0: !tt.ptr<bf16> {tt.divisibility = 16 : i32} loc("out_ptr0"(#loc)), %xnumel: i32 {tt.divisibility = 16 : i32} loc("xnumel"(#loc))) attributes {noinline = false} {
    %xoffset = tt.get_program_id x : i32 loc(#loc39)
    %xoffset_0 = arith.constant 1024 : i32 loc(#loc40)
    %xoffset_1 = arith.constant 1024 : i32 loc(#loc40)
    %xoffset_2 = arith.muli %xoffset, %xoffset_1 : i32 loc(#loc40)
    %xindex = tt.make_range {end = 1024 : i32, start = 0 : i32} : tensor<1024xi32> loc(#loc41)
    %xindex_3 = tt.splat %xoffset_2 : i32 -> tensor<1024xi32> loc(#loc42)
    %xindex_4 = arith.addi %xindex_3, %xindex : tensor<1024xi32> loc(#loc42)
    %xmask = tt.splat %xnumel : i32 -> tensor<1024xi32> loc(#loc43)
    %xmask_5 = arith.cmpi slt, %xindex_4, %xmask : tensor<1024xi32> loc(#loc43)
    %x0 = arith.constant 2112 : i32 loc(#loc44)
    %x0_6 = arith.constant 2112 : i32 loc(#loc44)
    %x0_7 = arith.constant dense<2112> : tensor<1024xi32> loc(#loc44)
    %x0_8 = arith.remsi %xindex_4, %x0_7 : tensor<1024xi32> loc(#loc44)
    %x1 = arith.constant 2112 : i32 loc(#loc45)
    %x1_9 = arith.constant 2112 : i32 loc(#loc45)
    %x1_10 = arith.constant dense<2112> : tensor<1024xi32> loc(#loc45)
    %x1_11 = arith.divsi %xindex_4, %x1_10 : tensor<1024xi32> loc(#loc45)
    %tmp0 = arith.constant 4224 : i32 loc(#loc46)
    %tmp0_12 = arith.constant 4224 : i32 loc(#loc46)
    %tmp0_13 = arith.constant dense<4224> : tensor<1024xi32> loc(#loc46)
    %tmp0_14 = arith.muli %tmp0_13, %x1_11 : tensor<1024xi32> loc(#loc46)
    %tmp0_15 = arith.addi %x0_8, %tmp0_14 : tensor<1024xi32> loc(#loc47)
    %tmp0_16 = tt.splat %in_ptr0 : !tt.ptr<bf16> -> tensor<1024x!tt.ptr<bf16>> loc(#loc48)
    %tmp0_17 = tt.addptr %tmp0_16, %tmp0_15 : tensor<1024x!tt.ptr<bf16>>, tensor<1024xi32> loc(#loc48)
    %tmp0_18 = tt.load %tmp0_17, %xmask_5 : tensor<1024x!tt.ptr<bf16>> loc(#loc49)
    %tmp0_19 = arith.extf %tmp0_18 : tensor<1024xbf16> to tensor<1024xf32> loc(#loc50)
    %tmp16 = arith.constant 2112 : i32 loc(#loc51)
    %tmp16_20 = arith.constant 2112 : i32 loc(#loc51)
    %tmp16_21 = arith.constant dense<2112> : tensor<1024xi32> loc(#loc51)
    %tmp16_22 = arith.addi %tmp16_21, %x0_8 : tensor<1024xi32> loc(#loc51)
    %tmp16_23 = arith.constant 4224 : i32 loc(#loc52)
    %tmp16_24 = arith.constant 4224 : i32 loc(#loc52)
    %tmp16_25 = arith.constant dense<4224> : tensor<1024xi32> loc(#loc52)
    %tmp16_26 = arith.muli %tmp16_25, %x1_11 : tensor<1024xi32> loc(#loc52)
    %tmp16_27 = arith.addi %tmp16_22, %tmp16_26 : tensor<1024xi32> loc(#loc53)
    %tmp16_28 = tt.splat %in_ptr0 : !tt.ptr<bf16> -> tensor<1024x!tt.ptr<bf16>> loc(#loc54)
    %tmp16_29 = tt.addptr %tmp16_28, %tmp16_27 : tensor<1024x!tt.ptr<bf16>>, tensor<1024xi32> loc(#loc54)
    %tmp16_30 = tt.load %tmp16_29, %xmask_5 : tensor<1024x!tt.ptr<bf16>> loc(#loc55)
    %tmp16_31 = arith.extf %tmp16_30 : tensor<1024xbf16> to tensor<1024xf32> loc(#loc56)
    %tmp2 = arith.constant 5.000000e-01 : f32 loc(#loc57)
    %tmp2_32 = arith.constant dense<5.000000e-01> : tensor<1xf32> loc(#loc57)
    %tmp3 = arith.constant dense<5.000000e-01> : tensor<1024xf32> loc(#loc58)
    %tmp3_33 = arith.mulf %tmp0_19, %tmp3 : tensor<1024xf32> loc(#loc58)
    %tmp4 = arith.mulf %tmp0_19, %tmp0_19 : tensor<1024xf32> loc(#loc59)
    %tmp5 = arith.mulf %tmp4, %tmp0_19 : tensor<1024xf32> loc(#loc60)
    %tmp6 = arith.constant 4.471500e-02 : f32 loc(#loc61)
    %tmp6_34 = arith.constant dense<4.471500e-02> : tensor<1xf32> loc(#loc61)
    %tmp7 = arith.constant dense<4.471500e-02> : tensor<1024xf32> loc(#loc62)
    %tmp7_35 = arith.mulf %tmp5, %tmp7 : tensor<1024xf32> loc(#loc62)
    %tmp8 = arith.addf %tmp0_19, %tmp7_35 : tensor<1024xf32> loc(#loc63)
    %tmp9 = arith.constant 0.797884583 : f32 loc(#loc64)
    %tmp9_36 = arith.constant dense<0.797884583> : tensor<1xf32> loc(#loc64)
    %tmp10 = arith.constant dense<0.797884583> : tensor<1024xf32> loc(#loc65)
    %tmp10_37 = arith.mulf %tmp8, %tmp10 : tensor<1024xf32> loc(#loc65)
    %tmp11 = tt.extern_elementwise %tmp10_37 {libname = "", libpath = "", pure = true, symbol = "__nv_tanhf"} : (tensor<1024xf32>) -> tensor<1024xf32> loc(#loc66)
    %tmp12 = arith.constant 1.000000e+00 : f32 loc(#loc67)
    %tmp12_38 = arith.constant dense<1.000000e+00> : tensor<1xf32> loc(#loc67)
    %tmp13 = arith.constant dense<1.000000e+00> : tensor<1024xf32> loc(#loc68)
    %tmp13_39 = arith.addf %tmp11, %tmp13 : tensor<1024xf32> loc(#loc68)
    %tmp14 = arith.mulf %tmp3_33, %tmp13_39 : tensor<1024xf32> loc(#loc69)
    %tmp17 = arith.mulf %tmp14, %tmp16_31 : tensor<1024xf32> loc(#loc70)
    %0 = tt.splat %out_ptr0 : !tt.ptr<bf16> -> tensor<1024x!tt.ptr<bf16>> loc(#loc33)
    %1 = tt.addptr %0, %xindex_4 : tensor<1024x!tt.ptr<bf16>>, tensor<1024xi32> loc(#loc33)
    %2 = arith.truncf %tmp17 : tensor<1024xf32> to tensor<1024xbf16> loc(#loc34)
    tt.store %1, %2, %xmask_5 : tensor<1024x!tt.ptr<bf16>> loc(#loc34)
    tt.return loc(#loc35)
  } loc(#loc)
} loc(#loc)
#loc1 = loc("/home/ericbuehler/.cache/vllm/torch_compile_cache/torch_aot_compile/90537ea14f244a5187d6ecc853fbadcf440d710f29c8e182fe8151f3f7751a82/inductor_cache/gn/cgn2raf5osu5wsoad4qc6lzazbb5uwfkh6dfiazborewylq3ebf3.py":23:28)
#loc2 = loc("/home/ericbuehler/.cache/vllm/torch_compile_cache/torch_aot_compile/90537ea14f244a5187d6ecc853fbadcf440d710f29c8e182fe8151f3f7751a82/inductor_cache/gn/cgn2raf5osu5wsoad4qc6lzazbb5uwfkh6dfiazborewylq3ebf3.py":23:33)
#loc3 = loc("/home/ericbuehler/.cache/vllm/torch_compile_cache/torch_aot_compile/90537ea14f244a5187d6ecc853fbadcf440d710f29c8e182fe8151f3f7751a82/inductor_cache/gn/cgn2raf5osu5wsoad4qc6lzazbb5uwfkh6dfiazborewylq3ebf3.py":24:36)
#loc4 = loc("/home/ericbuehler/.cache/vllm/torch_compile_cache/torch_aot_compile/90537ea14f244a5187d6ecc853fbadcf440d710f29c8e182fe8151f3f7751a82/inductor_cache/gn/cgn2raf5osu5wsoad4qc6lzazbb5uwfkh6dfiazborewylq3ebf3.py":24:23)
#loc5 = loc("/home/ericbuehler/.cache/vllm/torch_compile_cache/torch_aot_compile/90537ea14f244a5187d6ecc853fbadcf440d710f29c8e182fe8151f3f7751a82/inductor_cache/gn/cgn2raf5osu5wsoad4qc6lzazbb5uwfkh6dfiazborewylq3ebf3.py":25:21)
#loc6 = loc("/home/ericbuehler/.cache/vllm/torch_compile_cache/torch_aot_compile/90537ea14f244a5187d6ecc853fbadcf440d710f29c8e182fe8151f3f7751a82/inductor_cache/gn/cgn2raf5osu5wsoad4qc6lzazbb5uwfkh6dfiazborewylq3ebf3.py":26:19)
#loc7 = loc("/home/ericbuehler/.cache/vllm/torch_compile_cache/torch_aot_compile/90537ea14f244a5187d6ecc853fbadcf440d710f29c8e182fe8151f3f7751a82/inductor_cache/gn/cgn2raf5osu5wsoad4qc6lzazbb5uwfkh6dfiazborewylq3ebf3.py":27:19)
#loc8 = loc("/home/ericbuehler/.cache/vllm/torch_compile_cache/torch_aot_compile/90537ea14f244a5187d6ecc853fbadcf440d710f29c8e182fe8151f3f7751a82/inductor_cache/gn/cgn2raf5osu5wsoad4qc6lzazbb5uwfkh6dfiazborewylq3ebf3.py":29:40)
#loc9 = loc("/home/ericbuehler/.cache/vllm/torch_compile_cache/torch_aot_compile/90537ea14f244a5187d6ecc853fbadcf440d710f29c8e182fe8151f3f7751a82/inductor_cache/gn/cgn2raf5osu5wsoad4qc6lzazbb5uwfkh6dfiazborewylq3ebf3.py":29:35)
#loc10 = loc("/home/ericbuehler/.cache/vllm/torch_compile_cache/torch_aot_compile/90537ea14f244a5187d6ecc853fbadcf440d710f29c8e182fe8151f3f7751a82/inductor_cache/gn/cgn2raf5osu5wsoad4qc6lzazbb5uwfkh6dfiazborewylq3ebf3.py":29:30)
#loc11 = loc("/home/ericbuehler/.cache/vllm/torch_compile_cache/torch_aot_compile/90537ea14f244a5187d6ecc853fbadcf440d710f29c8e182fe8151f3f7751a82/inductor_cache/gn/cgn2raf5osu5wsoad4qc6lzazbb5uwfkh6dfiazborewylq3ebf3.py":29:45)
#loc12 = loc("/home/ericbuehler/.cache/vllm/torch_compile_cache/torch_aot_compile/90537ea14f244a5187d6ecc853fbadcf440d710f29c8e182fe8151f3f7751a82/inductor_cache/gn/cgn2raf5osu5wsoad4qc6lzazbb5uwfkh6dfiazborewylq3ebf3.py":29:55)
#loc13 = loc("/home/ericbuehler/.cache/vllm/torch_compile_cache/torch_aot_compile/90537ea14f244a5187d6ecc853fbadcf440d710f29c8e182fe8151f3f7751a82/inductor_cache/gn/cgn2raf5osu5wsoad4qc6lzazbb5uwfkh6dfiazborewylq3ebf3.py":30:38)
#loc14 = loc("/home/ericbuehler/.cache/vllm/torch_compile_cache/torch_aot_compile/90537ea14f244a5187d6ecc853fbadcf440d710f29c8e182fe8151f3f7751a82/inductor_cache/gn/cgn2raf5osu5wsoad4qc6lzazbb5uwfkh6dfiazborewylq3ebf3.py":30:48)
#loc15 = loc("/home/ericbuehler/.cache/vllm/torch_compile_cache/torch_aot_compile/90537ea14f244a5187d6ecc853fbadcf440d710f29c8e182fe8151f3f7751a82/inductor_cache/gn/cgn2raf5osu5wsoad4qc6lzazbb5uwfkh6dfiazborewylq3ebf3.py":30:43)
#loc16 = loc("/home/ericbuehler/.cache/vllm/torch_compile_cache/torch_aot_compile/90537ea14f244a5187d6ecc853fbadcf440d710f29c8e182fe8151f3f7751a82/inductor_cache/gn/cgn2raf5osu5wsoad4qc6lzazbb5uwfkh6dfiazborewylq3ebf3.py":30:31)
#loc17 = loc("/home/ericbuehler/.cache/vllm/torch_compile_cache/torch_aot_compile/90537ea14f244a5187d6ecc853fbadcf440d710f29c8e182fe8151f3f7751a82/inductor_cache/gn/cgn2raf5osu5wsoad4qc6lzazbb5uwfkh6dfiazborewylq3ebf3.py":30:53)
#loc18 = loc("/home/ericbuehler/.cache/vllm/torch_compile_cache/torch_aot_compile/90537ea14f244a5187d6ecc853fbadcf440d710f29c8e182fe8151f3f7751a82/inductor_cache/gn/cgn2raf5osu5wsoad4qc6lzazbb5uwfkh6dfiazborewylq3ebf3.py":30:63)
#loc19 = loc("/home/ericbuehler/.cache/vllm/torch_compile_cache/torch_aot_compile/90537ea14f244a5187d6ecc853fbadcf440d710f29c8e182fe8151f3f7751a82/inductor_cache/gn/cgn2raf5osu5wsoad4qc6lzazbb5uwfkh6dfiazborewylq3ebf3.py":32:29)
#loc20 = loc("/home/ericbuehler/.cache/vllm/torch_compile_cache/torch_aot_compile/90537ea14f244a5187d6ecc853fbadcf440d710f29c8e182fe8151f3f7751a82/inductor_cache/gn/cgn2raf5osu5wsoad4qc6lzazbb5uwfkh6dfiazborewylq3ebf3.py":33:18)
#loc21 = loc("/home/ericbuehler/.cache/vllm/torch_compile_cache/torch_aot_compile/90537ea14f244a5187d6ecc853fbadcf440d710f29c8e182fe8151f3f7751a82/inductor_cache/gn/cgn2raf5osu5wsoad4qc6lzazbb5uwfkh6dfiazborewylq3ebf3.py":34:18)
#loc22 = loc("/home/ericbuehler/.cache/vllm/torch_compile_cache/torch_aot_compile/90537ea14f244a5187d6ecc853fbadcf440d710f29c8e182fe8151f3f7751a82/inductor_cache/gn/cgn2raf5osu5wsoad4qc6lzazbb5uwfkh6dfiazborewylq3ebf3.py":35:18)
#loc23 = loc("/home/ericbuehler/.cache/vllm/torch_compile_cache/torch_aot_compile/90537ea14f244a5187d6ecc853fbadcf440d710f29c8e182fe8151f3f7751a82/inductor_cache/gn/cgn2raf5osu5wsoad4qc6lzazbb5uwfkh6dfiazborewylq3ebf3.py":36:34)
#loc24 = loc("/home/ericbuehler/.cache/vllm/torch_compile_cache/torch_aot_compile/90537ea14f244a5187d6ecc853fbadcf440d710f29c8e182fe8151f3f7751a82/inductor_cache/gn/cgn2raf5osu5wsoad4qc6lzazbb5uwfkh6dfiazborewylq3ebf3.py":37:18)
#loc25 = loc("/home/ericbuehler/.cache/vllm/torch_compile_cache/torch_aot_compile/90537ea14f244a5187d6ecc853fbadcf440d710f29c8e182fe8151f3f7751a82/inductor_cache/gn/cgn2raf5osu5wsoad4qc6lzazbb5uwfkh6dfiazborewylq3ebf3.py":38:18)
#loc26 = loc("/home/ericbuehler/.cache/vllm/torch_compile_cache/torch_aot_compile/90537ea14f244a5187d6ecc853fbadcf440d710f29c8e182fe8151f3f7751a82/inductor_cache/gn/cgn2raf5osu5wsoad4qc6lzazbb5uwfkh6dfiazborewylq3ebf3.py":39:44)
#loc27 = loc("/home/ericbuehler/.cache/vllm/torch_compile_cache/torch_aot_compile/90537ea14f244a5187d6ecc853fbadcf440d710f29c8e182fe8151f3f7751a82/inductor_cache/gn/cgn2raf5osu5wsoad4qc6lzazbb5uwfkh6dfiazborewylq3ebf3.py":40:19)
#loc28 = loc("/home/ericbuehler/.cache/vllm/torch_compile_cache/torch_aot_compile/90537ea14f244a5187d6ecc853fbadcf440d710f29c8e182fe8151f3f7751a82/inductor_cache/gn/cgn2raf5osu5wsoad4qc6lzazbb5uwfkh6dfiazborewylq3ebf3.py":41:27)
#loc29 = loc("/home/ericbuehler/.cache/vllm/torch_compile_cache/torch_aot_compile/90537ea14f244a5187d6ecc853fbadcf440d710f29c8e182fe8151f3f7751a82/inductor_cache/gn/cgn2raf5osu5wsoad4qc6lzazbb5uwfkh6dfiazborewylq3ebf3.py":42:30)
#loc30 = loc("/home/ericbuehler/.cache/vllm/torch_compile_cache/torch_aot_compile/90537ea14f244a5187d6ecc853fbadcf440d710f29c8e182fe8151f3f7751a82/inductor_cache/gn/cgn2raf5osu5wsoad4qc6lzazbb5uwfkh6dfiazborewylq3ebf3.py":43:20)
#loc31 = loc("/home/ericbuehler/.cache/vllm/torch_compile_cache/torch_aot_compile/90537ea14f244a5187d6ecc853fbadcf440d710f29c8e182fe8151f3f7751a82/inductor_cache/gn/cgn2raf5osu5wsoad4qc6lzazbb5uwfkh6dfiazborewylq3ebf3.py":44:19)
#loc32 = loc("/home/ericbuehler/.cache/vllm/torch_compile_cache/torch_aot_compile/90537ea14f244a5187d6ecc853fbadcf440d710f29c8e182fe8151f3f7751a82/inductor_cache/gn/cgn2raf5osu5wsoad4qc6lzazbb5uwfkh6dfiazborewylq3ebf3.py":46:20)
#loc33 = loc("/home/ericbuehler/.cache/vllm/torch_compile_cache/torch_aot_compile/90537ea14f244a5187d6ecc853fbadcf440d710f29c8e182fe8151f3f7751a82/inductor_cache/gn/cgn2raf5osu5wsoad4qc6lzazbb5uwfkh6dfiazborewylq3ebf3.py":47:25)
#loc34 = loc("/home/ericbuehler/.cache/vllm/torch_compile_cache/torch_aot_compile/90537ea14f244a5187d6ecc853fbadcf440d710f29c8e182fe8151f3f7751a82/inductor_cache/gn/cgn2raf5osu5wsoad4qc6lzazbb5uwfkh6dfiazborewylq3ebf3.py":47:37)
#loc35 = loc("/home/ericbuehler/.cache/vllm/torch_compile_cache/torch_aot_compile/90537ea14f244a5187d6ecc853fbadcf440d710f29c8e182fe8151f3f7751a82/inductor_cache/gn/cgn2raf5osu5wsoad4qc6lzazbb5uwfkh6dfiazborewylq3ebf3.py":47:4)
#loc39 = loc("xoffset"(#loc1))
#loc40 = loc("xoffset"(#loc2))
#loc41 = loc("xindex"(#loc3))
#loc42 = loc("xindex"(#loc4))
#loc43 = loc("xmask"(#loc5))
#loc44 = loc("x0"(#loc6))
#loc45 = loc("x1"(#loc7))
#loc46 = loc("tmp0"(#loc8))
#loc47 = loc("tmp0"(#loc9))
#loc48 = loc("tmp0"(#loc10))
#loc49 = loc("tmp0"(#loc11))
#loc50 = loc("tmp0"(#loc12))
#loc51 = loc("tmp16"(#loc13))
#loc52 = loc("tmp16"(#loc14))
#loc53 = loc("tmp16"(#loc15))
#loc54 = loc("tmp16"(#loc16))
#loc55 = loc("tmp16"(#loc17))
#loc56 = loc("tmp16"(#loc18))
#loc57 = loc("tmp2"(#loc19))
#loc58 = loc("tmp3"(#loc20))
#loc59 = loc("tmp4"(#loc21))
#loc60 = loc("tmp5"(#loc22))
#loc61 = loc("tmp6"(#loc23))
#loc62 = loc("tmp7"(#loc24))
#loc63 = loc("tmp8"(#loc25))
#loc64 = loc("tmp9"(#loc26))
#loc65 = loc("tmp10"(#loc27))
#loc66 = loc("tmp11"(#loc28))
#loc67 = loc("tmp12"(#loc29))
#loc68 = loc("tmp13"(#loc30))
#loc69 = loc("tmp14"(#loc31))
#loc70 = loc("tmp17"(#loc32))
