#loc = loc("/home/ericbuehler/vllm/.venv-bench/lib/python3.12/site-packages/vllm/v1/attention/ops/triton_unified_attention.py":388:0)
#loc65 = loc("/home/ericbuehler/vllm/.venv-bench/lib/python3.12/site-packages/vllm/v1/attention/ops/triton_attention_helpers.py":79:0)
#loc70 = loc("left")
#loc71 = loc("right")
#loc83 = loc("/home/ericbuehler/vllm/.venv-bench/lib/python3.12/site-packages/vllm/v1/attention/ops/triton_attention_helpers.py":22:0)
#loc89 = loc("/home/ericbuehler/vllm/.venv-bench/lib/python3.12/site-packages/triton/language/standard.py":177:0)
#loc91 = loc(unknown)
#loc94 = loc("/home/ericbuehler/vllm/.venv-bench/lib/python3.12/site-packages/triton/language/standard.py":169:0)
#loc98 = loc("/home/ericbuehler/vllm/.venv-bench/lib/python3.12/site-packages/triton/language/standard.py":287:0)
#loc102 = loc("/home/ericbuehler/vllm/.venv-bench/lib/python3.12/site-packages/triton/language/standard.py":262:0)
#loc106 = loc("output_ptr"(#loc))
#loc107 = loc("segm_output_ptr"(#loc))
#loc108 = loc("segm_max_ptr"(#loc))
#loc109 = loc("segm_expsum_ptr"(#loc))
#loc110 = loc("seq_lens_ptr"(#loc))
#loc111 = loc("out_scale_inv"(#loc))
#loc112 = loc("output_stride_0"(#loc))
#loc113 = loc("output_stride_1"(#loc))
#loc114 = loc("block_table_stride"(#loc))
#loc115 = loc("query_start_len_ptr"(#loc))
#loc177 = loc("query_start_len_ptr"(#loc65))
#loc178 = loc("target_idx"(#loc65))
#loc182 = loc("left"(#loc70))
#loc183 = loc("right"(#loc71))
#loc189 = loc("x"(#loc83))
#loc190 = loc("y"(#loc83))
#loc191 = loc("input"(#loc89))
#loc192 = loc("a"(#loc94))
#loc193 = loc("b"(#loc94))
#loc194 = loc("input"(#loc98))
#loc195 = loc("a"(#loc102))
#loc196 = loc("b"(#loc102))
module {
  tt.func public @reduce_segments(%output_ptr: !tt.ptr<bf16> {tt.divisibility = 16 : i32} loc("output_ptr"(#loc)), %segm_output_ptr: !tt.ptr<f32> {tt.divisibility = 16 : i32} loc("segm_output_ptr"(#loc)), %segm_max_ptr: !tt.ptr<f32> {tt.divisibility = 16 : i32} loc("segm_max_ptr"(#loc)), %segm_expsum_ptr: !tt.ptr<f32> {tt.divisibility = 16 : i32} loc("segm_expsum_ptr"(#loc)), %seq_lens_ptr: !tt.ptr<i32> {tt.divisibility = 16 : i32} loc("seq_lens_ptr"(#loc)), %out_scale_inv: f32 loc("out_scale_inv"(#loc)), %output_stride_0: i64 {tt.divisibility = 16 : i32} loc("output_stride_0"(#loc)), %output_stride_1: i64 {tt.divisibility = 16 : i32} loc("output_stride_1"(#loc)), %block_table_stride: i64 loc("block_table_stride"(#loc)), %query_start_len_ptr: !tt.ptr<i32> {tt.divisibility = 16 : i32} loc("query_start_len_ptr"(#loc))) attributes {noinline = false} {
    %query_token_idx = tt.get_program_id x : i32 loc(#loc116)
    %query_head_idx = tt.get_program_id y : i32 loc(#loc117)
    %seq_idx = tt.call @"vllm.v1.attention.ops.triton_attention_helpers.find_seq_idx__Pi32_i32__(2,)cconstexpr_1__(3,)cconstexpr_8__(4,)cconstexpr_False_"(%query_start_len_ptr, %query_token_idx) : (!tt.ptr<i32>, i32) -> i32 loc(#loc118)
    %seq_len = tt.addptr %seq_lens_ptr, %seq_idx : !tt.ptr<i32>, i32 loc(#loc119)
    %seq_len_0 = tt.load %seq_len : !tt.ptr<i32> loc(#loc120)
    %num_segments = arith.constant 16 : i32 loc(#loc121)
    %tiles_per_segment = arith.constant 32 : i32 loc(#loc122)
    %tiles_per_segment_1 = arith.constant 32 : i32 loc(#loc122)
    %tiles_per_segment_2 = arith.extsi %num_segments : i32 to i64 loc(#loc122)
    %tiles_per_segment_3 = arith.extsi %tiles_per_segment_1 : i32 to i64 loc(#loc122)
    %tiles_per_segment_4 = arith.muli %tiles_per_segment_2, %tiles_per_segment_3 : i64 loc(#loc122)
    %tiles_per_segment_5 = arith.constant 2147483647 : i64 loc(#loc122)
    %tiles_per_segment_6 = arith.constant -2147483648 : i64 loc(#loc122)
    %tiles_per_segment_7 = arith.cmpi sle, %tiles_per_segment_4, %tiles_per_segment_5 : i64 loc(#loc122)
    %tiles_per_segment_8 = arith.cmpi sge, %tiles_per_segment_4, %tiles_per_segment_6 : i64 loc(#loc122)
    %tiles_per_segment_9 = arith.andi %tiles_per_segment_7, %tiles_per_segment_8 : i1 loc(#loc122)
    %tiles_per_segment_10 = arith.muli %num_segments, %tiles_per_segment_1 : i32 loc(#loc122)
    %tiles_per_segment_11 = tt.call @vllm.v1.attention.ops.triton_attention_helpers.cdiv_fn__i32_i32__(%seq_len_0, %tiles_per_segment_10) : (i32, i32) -> i32 loc(#loc123)
    %act_num_segments = arith.constant 32 : i32 loc(#loc124)
    %act_num_segments_12 = arith.constant 32 : i32 loc(#loc124)
    %act_num_segments_13 = arith.extsi %tiles_per_segment_11 : i32 to i64 loc(#loc124)
    %act_num_segments_14 = arith.extsi %act_num_segments_12 : i32 to i64 loc(#loc124)
    %act_num_segments_15 = arith.muli %act_num_segments_13, %act_num_segments_14 : i64 loc(#loc124)
    %act_num_segments_16 = arith.constant 2147483647 : i64 loc(#loc124)
    %act_num_segments_17 = arith.constant -2147483648 : i64 loc(#loc124)
    %act_num_segments_18 = arith.cmpi sle, %act_num_segments_15, %act_num_segments_16 : i64 loc(#loc124)
    %act_num_segments_19 = arith.cmpi sge, %act_num_segments_15, %act_num_segments_17 : i64 loc(#loc124)
    %act_num_segments_20 = arith.andi %act_num_segments_18, %act_num_segments_19 : i1 loc(#loc124)
    %act_num_segments_21 = arith.muli %tiles_per_segment_11, %act_num_segments_12 : i32 loc(#loc124)
    %act_num_segments_22 = tt.call @vllm.v1.attention.ops.triton_attention_helpers.cdiv_fn__i32_i32__(%seq_len_0, %act_num_segments_21) : (i32, i32) -> i32 loc(#loc125)
    %segm_mask = tt.make_range {end = 16 : i32, start = 0 : i32} : tensor<16xi32> loc(#loc126)
    %segm_mask_23 = tt.splat %act_num_segments_22 : i32 -> tensor<16xi32> loc(#loc127)
    %segm_mask_24 = arith.cmpi slt, %segm_mask, %segm_mask_23 : tensor<16xi32> loc(#loc128)
    %dim_mask = tt.make_range {end = 256 : i32, start = 0 : i32} : tensor<256xi32> loc(#loc129)
    %dim_mask_25 = arith.constant 256 : i32 loc(#loc130)
    %dim_mask_26 = arith.constant dense<256> : tensor<256xi32> loc(#loc130)
    %dim_mask_27 = arith.cmpi slt, %dim_mask, %dim_mask_26 : tensor<256xi32> loc(#loc130)
    %dim_mask_28 = arith.constant 1 : i32 loc(#loc131)
    %dim_mask_29 = arith.constant 0 : i32 loc(#loc131)
    %dim_mask_30 = arith.constant 1 : i32 loc(#loc131)
    %dim_mask_31 = arith.constant 0 : i32 loc(#loc131)
    %dim_mask_32 = arith.constant dense<1> : tensor<256xi32> loc(#loc131)
    %dim_mask_33 = arith.constant dense<0> : tensor<256xi32> loc(#loc131)
    %dim_mask_34 = arith.select %dim_mask_27, %dim_mask_32, %dim_mask_33 : tensor<256xi1>, tensor<256xi32> loc(#loc131)
    %dim_mask_35 = arith.constant 0 : i32 loc(#loc132)
    %dim_mask_36 = arith.constant dense<0> : tensor<256xi32> loc(#loc132)
    %dim_mask_37 = arith.cmpi ne, %dim_mask_34, %dim_mask_36 : tensor<256xi32> loc(#loc132)
    %segm_offset = arith.extsi %query_token_idx : i32 to i64 loc(#loc133)
    %segm_offset_38 = arith.constant 256 : i32 loc(#loc134)
    %segm_offset_39 = arith.constant 256 : i64 loc(#loc134)
    %segm_offset_40 = arith.muli %segm_offset, %segm_offset_39 : i64 loc(#loc134)
    %segm_offset_41 = arith.constant 16 : i32 loc(#loc135)
    %segm_offset_42 = arith.constant 16 : i32 loc(#loc135)
    %segm_offset_43 = arith.extsi %query_head_idx : i32 to i64 loc(#loc135)
    %segm_offset_44 = arith.extsi %segm_offset_42 : i32 to i64 loc(#loc135)
    %segm_offset_45 = arith.muli %segm_offset_43, %segm_offset_44 : i64 loc(#loc135)
    %segm_offset_46 = arith.constant 2147483647 : i64 loc(#loc135)
    %segm_offset_47 = arith.constant -2147483648 : i64 loc(#loc135)
    %segm_offset_48 = arith.cmpi sle, %segm_offset_45, %segm_offset_46 : i64 loc(#loc135)
    %segm_offset_49 = arith.cmpi sge, %segm_offset_45, %segm_offset_47 : i64 loc(#loc135)
    %segm_offset_50 = arith.andi %segm_offset_48, %segm_offset_49 : i1 loc(#loc135)
    %segm_offset_51 = arith.muli %query_head_idx, %segm_offset_42 : i32 loc(#loc135)
    %segm_offset_52 = arith.extsi %segm_offset_51 : i32 to i64 loc(#loc136)
    %segm_offset_53 = arith.addi %segm_offset_40, %segm_offset_52 : i64 loc(#loc136)
    %segm_offset_54 = tt.make_range {end = 16 : i32, start = 0 : i32} : tensor<16xi32> loc(#loc137)
    %segm_offset_55 = arith.extsi %segm_offset_54 : tensor<16xi32> to tensor<16xi64> loc(#loc138)
    %segm_offset_56 = tt.splat %segm_offset_53 : i64 -> tensor<16xi64> loc(#loc138)
    %segm_offset_57 = arith.addi %segm_offset_56, %segm_offset_55 : tensor<16xi64> loc(#loc138)
    %segm_max = tt.splat %segm_max_ptr : !tt.ptr<f32> -> tensor<16x!tt.ptr<f32>> loc(#loc139)
    %segm_max_58 = tt.addptr %segm_max, %segm_offset_57 : tensor<16x!tt.ptr<f32>>, tensor<16xi64> loc(#loc139)
    %segm_max_59 = arith.constant 0xFF800000 : f32 loc(#loc140)
    %segm_max_60 = arith.constant dense<0xFF800000> : tensor<16xf32> loc(#loc140)
    %segm_max_61 = tt.load %segm_max_58, %segm_mask_24, %segm_max_60 : tensor<16x!tt.ptr<f32>> loc(#loc140)
    %overall_max = tt.call @"triton.language.standard.max__fp32S16S__(1,)cNone_(2,)cconstexpr_False__(3,)cconstexpr_True__(4,)cconstexpr_False_"(%segm_max_61) : (tensor<16xf32>) -> f32 loc(#loc141)
    %segm_expsum = tt.splat %segm_expsum_ptr : !tt.ptr<f32> -> tensor<16x!tt.ptr<f32>> loc(#loc142)
    %segm_expsum_62 = tt.addptr %segm_expsum, %segm_offset_57 : tensor<16x!tt.ptr<f32>>, tensor<16xi64> loc(#loc142)
    %segm_expsum_63 = arith.constant 0.000000e+00 : f32 loc(#loc143)
    %segm_expsum_64 = arith.constant dense<0.000000e+00> : tensor<16xf32> loc(#loc143)
    %segm_expsum_65 = tt.load %segm_expsum_62, %segm_mask_24, %segm_expsum_64 : tensor<16x!tt.ptr<f32>> loc(#loc143)
    %segm_expsum_66 = tt.splat %overall_max : f32 -> tensor<16xf32> loc(#loc144)
    %segm_expsum_67 = arith.subf %segm_max_61, %segm_expsum_66 : tensor<16xf32> loc(#loc144)
    %segm_expsum_68 = math.exp %segm_expsum_67 : tensor<16xf32> loc(#loc145)
    %segm_expsum_69 = arith.mulf %segm_expsum_65, %segm_expsum_68 : tensor<16xf32> loc(#loc146)
    %overall_expsum = tt.call @"triton.language.standard.sum__fp32S16S__(1,)cNone_(2,)cconstexpr_False__(3,)cNone"(%segm_expsum_69) : (tensor<16xf32>) -> f32 loc(#loc147)
    %segm_output_offset = arith.extsi %query_token_idx : i32 to i64 loc(#loc148)
    %segm_output_offset_70 = arith.constant 65536 : i32 loc(#loc149)
    %segm_output_offset_71 = arith.constant 65536 : i64 loc(#loc149)
    %segm_output_offset_72 = arith.muli %segm_output_offset, %segm_output_offset_71 : i64 loc(#loc149)
    %segm_output_offset_73 = arith.constant 4096 : i32 loc(#loc150)
    %segm_output_offset_74 = arith.constant 4096 : i32 loc(#loc150)
    %segm_output_offset_75 = arith.extsi %query_head_idx : i32 to i64 loc(#loc150)
    %segm_output_offset_76 = arith.extsi %segm_output_offset_74 : i32 to i64 loc(#loc150)
    %segm_output_offset_77 = arith.muli %segm_output_offset_75, %segm_output_offset_76 : i64 loc(#loc150)
    %segm_output_offset_78 = arith.constant 2147483647 : i64 loc(#loc150)
    %segm_output_offset_79 = arith.constant -2147483648 : i64 loc(#loc150)
    %segm_output_offset_80 = arith.cmpi sle, %segm_output_offset_77, %segm_output_offset_78 : i64 loc(#loc150)
    %segm_output_offset_81 = arith.cmpi sge, %segm_output_offset_77, %segm_output_offset_79 : i64 loc(#loc150)
    %segm_output_offset_82 = arith.andi %segm_output_offset_80, %segm_output_offset_81 : i1 loc(#loc150)
    %segm_output_offset_83 = arith.muli %query_head_idx, %segm_output_offset_74 : i32 loc(#loc150)
    %segm_output_offset_84 = arith.extsi %segm_output_offset_83 : i32 to i64 loc(#loc151)
    %segm_output_offset_85 = arith.addi %segm_output_offset_72, %segm_output_offset_84 : i64 loc(#loc151)
    %segm_output_offset_86 = tt.make_range {end = 16 : i32, start = 0 : i32} : tensor<16xi32> loc(#loc152)
    %segm_output_offset_87 = tt.expand_dims %segm_output_offset_86 {axis = 1 : i32} : tensor<16xi32> -> tensor<16x1xi32> loc(#loc153)
    %segm_output_offset_88 = arith.constant 256 : i32 loc(#loc154)
    %segm_output_offset_89 = arith.constant 256 : i32 loc(#loc154)
    %segm_output_offset_90 = arith.constant dense<256> : tensor<16x1xi32> loc(#loc154)
    %segm_output_offset_91 = arith.extsi %segm_output_offset_87 : tensor<16x1xi32> to tensor<16x1xi64> loc(#loc154)
    %segm_output_offset_92 = arith.extsi %segm_output_offset_90 : tensor<16x1xi32> to tensor<16x1xi64> loc(#loc154)
    %segm_output_offset_93 = arith.muli %segm_output_offset_91, %segm_output_offset_92 : tensor<16x1xi64> loc(#loc154)
    %segm_output_offset_94 = arith.constant 2147483647 : i64 loc(#loc154)
    %segm_output_offset_95 = arith.constant -2147483648 : i64 loc(#loc154)
    %segm_output_offset_96 = arith.constant dense<2147483647> : tensor<16x1xi64> loc(#loc154)
    %segm_output_offset_97 = arith.cmpi sle, %segm_output_offset_93, %segm_output_offset_96 : tensor<16x1xi64> loc(#loc154)
    %segm_output_offset_98 = arith.constant dense<-2147483648> : tensor<16x1xi64> loc(#loc154)
    %segm_output_offset_99 = arith.cmpi sge, %segm_output_offset_93, %segm_output_offset_98 : tensor<16x1xi64> loc(#loc154)
    %segm_output_offset_100 = arith.andi %segm_output_offset_97, %segm_output_offset_99 : tensor<16x1xi1> loc(#loc154)
    %segm_output_offset_101 = arith.muli %segm_output_offset_87, %segm_output_offset_90 : tensor<16x1xi32> loc(#loc154)
    %segm_output_offset_102 = arith.extsi %segm_output_offset_101 : tensor<16x1xi32> to tensor<16x1xi64> loc(#loc155)
    %segm_output_offset_103 = tt.splat %segm_output_offset_85 : i64 -> tensor<16x1xi64> loc(#loc155)
    %segm_output_offset_104 = arith.addi %segm_output_offset_103, %segm_output_offset_102 : tensor<16x1xi64> loc(#loc155)
    %segm_output_offset_105 = tt.make_range {end = 256 : i32, start = 0 : i32} : tensor<256xi32> loc(#loc156)
    %segm_output_offset_106 = tt.expand_dims %segm_output_offset_105 {axis = 0 : i32} : tensor<256xi32> -> tensor<1x256xi32> loc(#loc157)
    %segm_output_offset_107 = arith.extsi %segm_output_offset_106 : tensor<1x256xi32> to tensor<1x256xi64> loc(#loc158)
    %segm_output_offset_108 = tt.broadcast %segm_output_offset_104 : tensor<16x1xi64> -> tensor<16x256xi64> loc(#loc158)
    %segm_output_offset_109 = tt.broadcast %segm_output_offset_107 : tensor<1x256xi64> -> tensor<16x256xi64> loc(#loc158)
    %segm_output_offset_110 = arith.addi %segm_output_offset_108, %segm_output_offset_109 : tensor<16x256xi64> loc(#loc158)
    %segm_output = tt.expand_dims %segm_mask_24 {axis = 1 : i32} : tensor<16xi1> -> tensor<16x1xi1> loc(#loc159)
    %segm_output_111 = tt.expand_dims %dim_mask_37 {axis = 0 : i32} : tensor<256xi1> -> tensor<1x256xi1> loc(#loc160)
    %segm_output_112 = tt.broadcast %segm_output : tensor<16x1xi1> -> tensor<16x256xi1> loc(#loc161)
    %segm_output_113 = tt.broadcast %segm_output_111 : tensor<1x256xi1> -> tensor<16x256xi1> loc(#loc161)
    %segm_output_114 = arith.andi %segm_output_112, %segm_output_113 : tensor<16x256xi1> loc(#loc161)
    %segm_output_115 = tt.splat %segm_output_ptr : !tt.ptr<f32> -> tensor<16x256x!tt.ptr<f32>> loc(#loc162)
    %segm_output_116 = tt.addptr %segm_output_115, %segm_output_offset_110 : tensor<16x256x!tt.ptr<f32>>, tensor<16x256xi64> loc(#loc162)
    %segm_output_117 = arith.constant 0.000000e+00 : f32 loc(#loc163)
    %segm_output_118 = arith.constant dense<0.000000e+00> : tensor<16x256xf32> loc(#loc163)
    %segm_output_119 = tt.load %segm_output_116, %segm_output_114, %segm_output_118 : tensor<16x256x!tt.ptr<f32>> loc(#loc163)
    %segm_output_120 = tt.splat %overall_max : f32 -> tensor<16xf32> loc(#loc164)
    %segm_output_121 = arith.subf %segm_max_61, %segm_output_120 : tensor<16xf32> loc(#loc164)
    %segm_output_122 = math.exp %segm_output_121 : tensor<16xf32> loc(#loc165)
    %segm_output_123 = tt.expand_dims %segm_output_122 {axis = 1 : i32} : tensor<16xf32> -> tensor<16x1xf32> loc(#loc166)
    %segm_output_124 = tt.broadcast %segm_output_123 : tensor<16x1xf32> -> tensor<16x256xf32> loc(#loc167)
    %segm_output_125 = arith.mulf %segm_output_119, %segm_output_124 : tensor<16x256xf32> loc(#loc167)
    %acc_sum = tt.call @"triton.language.standard.sum__fp32S16_256S__(1,)cconstexpr_0__(2,)cconstexpr_False__(3,)cNone"(%segm_output_125) : (tensor<16x256xf32>) -> tensor<256xf32> loc(#loc168)
    %acc = arith.constant 0.000000e+00 : f32 loc(#loc169)
    %acc_126 = arith.cmpf oeq, %overall_expsum, %acc : f32 loc(#loc169)
    %acc_127 = tt.splat %overall_expsum : f32 -> tensor<256xf32> loc(#loc170)
    %acc_128 = arith.divf %acc_sum, %acc_127 : tensor<256xf32> loc(#loc170)
    %acc_129 = arith.constant 0.000000e+00 : f32 loc(#loc171)
    %acc_130 = arith.constant 0.000000e+00 : f32 loc(#loc171)
    %acc_131 = arith.constant dense<0.000000e+00> : tensor<256xf32> loc(#loc171)
    %acc_132 = tt.splat %acc_126 : i1 -> tensor<256xi1> loc(#loc171)
    %acc_133 = arith.select %acc_132, %acc_131, %acc_128 : tensor<256xi1>, tensor<256xf32> loc(#loc171)
    %output_offset = arith.extsi %query_token_idx : i32 to i64 loc(#loc172)
    %output_offset_134 = arith.muli %output_offset, %output_stride_0 : i64 loc(#loc172)
    %output_offset_135 = arith.extsi %query_head_idx : i32 to i64 loc(#loc173)
    %output_offset_136 = arith.muli %output_offset_135, %output_stride_1 : i64 loc(#loc173)
    %output_offset_137 = arith.addi %output_offset_134, %output_offset_136 : i64 loc(#loc174)
    %output_offset_138 = tt.make_range {end = 256 : i32, start = 0 : i32} : tensor<256xi32> loc(#loc175)
    %output_offset_139 = arith.extsi %output_offset_138 : tensor<256xi32> to tensor<256xi64> loc(#loc176)
    %output_offset_140 = tt.splat %output_offset_137 : i64 -> tensor<256xi64> loc(#loc176)
    %output_offset_141 = arith.addi %output_offset_140, %output_offset_139 : tensor<256xi64> loc(#loc176)
    %0 = tt.splat %output_ptr : !tt.ptr<bf16> -> tensor<256x!tt.ptr<bf16>> loc(#loc62)
    %1 = tt.addptr %0, %output_offset_141 : tensor<256x!tt.ptr<bf16>>, tensor<256xi64> loc(#loc62)
    %2 = arith.truncf %acc_133 : tensor<256xf32> to tensor<256xbf16> loc(#loc63)
    tt.store %1, %2, %dim_mask_37 : tensor<256x!tt.ptr<bf16>> loc(#loc63)
    tt.return loc(#loc64)
  } loc(#loc)
  tt.func private @"vllm.v1.attention.ops.triton_attention_helpers.find_seq_idx__Pi32_i32__(2,)cconstexpr_1__(3,)cconstexpr_8__(4,)cconstexpr_False_"(%query_start_len_ptr: !tt.ptr<i32> loc("query_start_len_ptr"(#loc65)), %target_idx: i32 loc("target_idx"(#loc65))) -> i32 attributes {noinline = false} {
    %left = arith.constant 0 : i32 loc(#loc197)
    %right = arith.constant 1 : i32 loc(#loc198)
    %right_0:2 = scf.while (%left_2 = %left, %right_3 = %right) : (i32, i32) -> (i32, i32) {
      %8 = arith.cmpi slt, %left_2, %right_3 : i32 loc(#loc69)
      scf.condition(%8) %left_2, %right_3 : i32, i32 loc(#loc69)
    } do {
    ^bb0(%left_2: i32 loc("left"(#loc70)), %right_3: i32 loc("right"(#loc71))):
      %mid = arith.extsi %left_2 : i32 to i64 loc(#loc184)
      %mid_4 = arith.extsi %right_3 : i32 to i64 loc(#loc184)
      %mid_5 = arith.addi %mid, %mid_4 : i64 loc(#loc184)
      %mid_6 = arith.constant 2147483647 : i64 loc(#loc184)
      %mid_7 = arith.constant -2147483648 : i64 loc(#loc184)
      %mid_8 = arith.cmpi sle, %mid_5, %mid_6 : i64 loc(#loc184)
      %mid_9 = arith.cmpi sge, %mid_5, %mid_7 : i64 loc(#loc184)
      %mid_10 = arith.andi %mid_8, %mid_9 : i1 loc(#loc184)
      %mid_11 = arith.addi %left_2, %right_3 : i32 loc(#loc184)
      %mid_12 = arith.constant 2 : i32 loc(#loc185)
      %mid_13 = arith.constant 2 : i32 loc(#loc185)
      %right_14 = arith.divsi %mid_11, %mid_13 : i32 loc(#loc200)
      %val = tt.addptr %query_start_len_ptr, %right_14 : !tt.ptr<i32>, i32 loc(#loc186)
      %val_15 = tt.load %val : !tt.ptr<i32> loc(#loc187)
      %8 = arith.cmpi sle, %val_15, %target_idx : i32 loc(#loc76)
      %9:2 = scf.if %8 -> (i32, i32) {
        %left_16 = arith.constant 1 : i32 loc(#loc188)
        %left_17 = arith.constant 1 : i32 loc(#loc188)
        %left_18 = arith.extsi %right_14 : i32 to i64 loc(#loc188)
        %left_19 = arith.extsi %left_17 : i32 to i64 loc(#loc188)
        %left_20 = arith.addi %left_18, %left_19 : i64 loc(#loc188)
        %left_21 = arith.constant 2147483647 : i64 loc(#loc188)
        %left_22 = arith.constant -2147483648 : i64 loc(#loc188)
        %left_23 = arith.cmpi sle, %left_20, %left_21 : i64 loc(#loc188)
        %left_24 = arith.cmpi sge, %left_20, %left_22 : i64 loc(#loc188)
        %left_25 = arith.andi %left_23, %left_24 : i1 loc(#loc188)
        %left_26 = arith.addi %right_14, %left_17 : i32 loc(#loc201)
        scf.yield %left_26, %right_3 : i32, i32 loc(#loc201)
      } else {
        scf.yield %left_2, %right_14 : i32, i32 loc(#loc77)
      } loc(#loc77)
      scf.yield %9#0, %9#1 : i32, i32 loc(#loc79)
    } loc(#loc199)
    %c1_i32 = arith.constant 1 : i32 loc(#loc80)
    %c1_i32_1 = arith.constant 1 : i32 loc(#loc80)
    %0 = arith.extsi %right_0#0 : i32 to i64 loc(#loc80)
    %1 = arith.extsi %c1_i32_1 : i32 to i64 loc(#loc80)
    %2 = arith.subi %0, %1 : i64 loc(#loc80)
    %c2147483647_i64 = arith.constant 2147483647 : i64 loc(#loc80)
    %c-2147483648_i64 = arith.constant -2147483648 : i64 loc(#loc80)
    %3 = arith.cmpi sle, %2, %c2147483647_i64 : i64 loc(#loc80)
    %4 = arith.cmpi sge, %2, %c-2147483648_i64 : i64 loc(#loc80)
    %5 = arith.andi %3, %4 : i1 loc(#loc80)
    %6 = arith.subi %right_0#0, %c1_i32_1 : i32 loc(#loc80)
    tt.return %6 : i32 loc(#loc81)
  ^bb1:  // no predecessors
    %7 = ub.poison : i32 loc(#loc82)
    tt.return %7 : i32 loc(#loc82)
  } loc(#loc65)
  tt.func private @vllm.v1.attention.ops.triton_attention_helpers.cdiv_fn__i32_i32__(%x: i32 loc("x"(#loc83)), %y: i32 loc("y"(#loc83))) -> i32 attributes {noinline = false} {
    %0 = arith.extsi %x : i32 to i64 loc(#loc84)
    %1 = arith.extsi %y : i32 to i64 loc(#loc84)
    %2 = arith.addi %0, %1 : i64 loc(#loc84)
    %c2147483647_i64 = arith.constant 2147483647 : i64 loc(#loc84)
    %c-2147483648_i64 = arith.constant -2147483648 : i64 loc(#loc84)
    %3 = arith.cmpi sle, %2, %c2147483647_i64 : i64 loc(#loc84)
    %4 = arith.cmpi sge, %2, %c-2147483648_i64 : i64 loc(#loc84)
    %5 = arith.andi %3, %4 : i1 loc(#loc84)
    %6 = arith.addi %x, %y : i32 loc(#loc84)
    %c1_i32 = arith.constant 1 : i32 loc(#loc85)
    %c1_i32_0 = arith.constant 1 : i32 loc(#loc85)
    %7 = arith.extsi %6 : i32 to i64 loc(#loc85)
    %8 = arith.extsi %c1_i32_0 : i32 to i64 loc(#loc85)
    %9 = arith.subi %7, %8 : i64 loc(#loc85)
    %c2147483647_i64_1 = arith.constant 2147483647 : i64 loc(#loc85)
    %c-2147483648_i64_2 = arith.constant -2147483648 : i64 loc(#loc85)
    %10 = arith.cmpi sle, %9, %c2147483647_i64_1 : i64 loc(#loc85)
    %11 = arith.cmpi sge, %9, %c-2147483648_i64_2 : i64 loc(#loc85)
    %12 = arith.andi %10, %11 : i1 loc(#loc85)
    %13 = arith.subi %6, %c1_i32_0 : i32 loc(#loc85)
    %14 = arith.divsi %13, %y : i32 loc(#loc86)
    tt.return %14 : i32 loc(#loc87)
  ^bb1:  // no predecessors
    %15 = ub.poison : i32 loc(#loc88)
    tt.return %15 : i32 loc(#loc88)
  } loc(#loc83)
  tt.func private @"triton.language.standard.max__fp32S16S__(1,)cNone_(2,)cconstexpr_False__(3,)cconstexpr_True__(4,)cconstexpr_False_"(%input: tensor<16xf32> loc("input"(#loc89))) -> f32 attributes {noinline = false} {
    %0 = tt.reshape %input allow_reorder : tensor<16xf32> -> tensor<16xf32> loc(#loc90)
    %1 = "tt.reduce"(%0) <{axis = 0 : i32}> ({
    ^bb0(%arg1: f32 loc(unknown), %arg2: f32 loc(unknown)):
      %3 = tt.call @triton.language.standard._elementwise_max__fp32_fp32__(%arg1, %arg2) : (f32, f32) -> f32 loc(#loc90)
      tt.reduce.return %3 : f32 loc(#loc90)
    }) : (tensor<16xf32>) -> f32 loc(#loc90)
    tt.return %1 : f32 loc(#loc92)
  ^bb1:  // no predecessors
    %2 = ub.poison : f32 loc(#loc93)
    tt.return %2 : f32 loc(#loc93)
  } loc(#loc89)
  tt.func private @triton.language.standard._elementwise_max__fp32_fp32__(%a: f32 loc("a"(#loc94)), %b: f32 loc("b"(#loc94))) -> f32 attributes {noinline = false} {
    %0 = arith.maxnumf %a, %b : f32 loc(#loc95)
    tt.return %0 : f32 loc(#loc96)
  ^bb1:  // no predecessors
    %1 = ub.poison : f32 loc(#loc97)
    tt.return %1 : f32 loc(#loc97)
  } loc(#loc94)
  tt.func private @"triton.language.standard.sum__fp32S16S__(1,)cNone_(2,)cconstexpr_False__(3,)cNone"(%input: tensor<16xf32> loc("input"(#loc98))) -> f32 attributes {noinline = false} {
    %0 = tt.reshape %input allow_reorder : tensor<16xf32> -> tensor<16xf32> loc(#loc99)
    %1 = "tt.reduce"(%0) <{axis = 0 : i32}> ({
    ^bb0(%arg1: f32 loc(unknown), %arg2: f32 loc(unknown)):
      %3 = tt.call @triton.language.standard._sum_combine__fp32_fp32__(%arg1, %arg2) : (f32, f32) -> f32 loc(#loc99)
      tt.reduce.return %3 : f32 loc(#loc99)
    }) : (tensor<16xf32>) -> f32 loc(#loc99)
    tt.return %1 : f32 loc(#loc100)
  ^bb1:  // no predecessors
    %2 = ub.poison : f32 loc(#loc101)
    tt.return %2 : f32 loc(#loc101)
  } loc(#loc98)
  tt.func private @triton.language.standard._sum_combine__fp32_fp32__(%a: f32 loc("a"(#loc102)), %b: f32 loc("b"(#loc102))) -> f32 attributes {noinline = false} {
    %0 = arith.addf %a, %b : f32 loc(#loc103)
    tt.return %0 : f32 loc(#loc104)
  ^bb1:  // no predecessors
    %1 = ub.poison : f32 loc(#loc105)
    tt.return %1 : f32 loc(#loc105)
  } loc(#loc102)
  tt.func private @"triton.language.standard.sum__fp32S16_256S__(1,)cconstexpr_0__(2,)cconstexpr_False__(3,)cNone"(%input: tensor<16x256xf32> loc("input"(#loc98))) -> tensor<256xf32> attributes {noinline = false} {
    %0 = "tt.reduce"(%input) <{axis = 0 : i32}> ({
    ^bb0(%arg1: f32 loc(unknown), %arg2: f32 loc(unknown)):
      %2 = tt.call @triton.language.standard._sum_combine__fp32_fp32__(%arg1, %arg2) : (f32, f32) -> f32 loc(#loc99)
      tt.reduce.return %2 : f32 loc(#loc99)
    }) : (tensor<16x256xf32>) -> tensor<256xf32> loc(#loc99)
    tt.return %0 : tensor<256xf32> loc(#loc100)
  ^bb1:  // no predecessors
    %1 = ub.poison : tensor<256xf32> loc(#loc101)
    tt.return %1 : tensor<256xf32> loc(#loc101)
  } loc(#loc98)
} loc(#loc)
#loc1 = loc("/home/ericbuehler/vllm/.venv-bench/lib/python3.12/site-packages/vllm/v1/attention/ops/triton_unified_attention.py":411:36)
#loc2 = loc("/home/ericbuehler/vllm/.venv-bench/lib/python3.12/site-packages/vllm/v1/attention/ops/triton_unified_attention.py":412:35)
#loc3 = loc("/home/ericbuehler/vllm/.venv-bench/lib/python3.12/site-packages/vllm/v1/attention/ops/triton_unified_attention.py":415:65)
#loc4 = loc("/home/ericbuehler/vllm/.venv-bench/lib/python3.12/site-packages/vllm/v1/attention/ops/triton_unified_attention.py":419:37)
#loc5 = loc("/home/ericbuehler/vllm/.venv-bench/lib/python3.12/site-packages/vllm/v1/attention/ops/triton_unified_attention.py":419:22)
#loc6 = loc("/home/ericbuehler/vllm/.venv-bench/lib/python3.12/site-packages/vllm/v1/attention/ops/triton_unified_attention.py":422:19)
#loc7 = loc("/home/ericbuehler/vllm/.venv-bench/lib/python3.12/site-packages/vllm/v1/attention/ops/triton_unified_attention.py":423:56)
#loc8 = loc("/home/ericbuehler/vllm/.venv-bench/lib/python3.12/site-packages/vllm/v1/attention/ops/triton_unified_attention.py":423:41)
#loc9 = loc("/home/ericbuehler/vllm/.venv-bench/lib/python3.12/site-packages/vllm/v1/attention/ops/triton_unified_attention.py":426:60)
#loc10 = loc("/home/ericbuehler/vllm/.venv-bench/lib/python3.12/site-packages/vllm/v1/attention/ops/triton_unified_attention.py":426:40)
#loc11 = loc("/home/ericbuehler/vllm/.venv-bench/lib/python3.12/site-packages/vllm/v1/attention/ops/triton_unified_attention.py":427:29)
#loc12 = loc("/home/ericbuehler/vllm/.venv-bench/lib/python3.12/site-packages/vllm/v1/attention/ops/triton_unified_attention.py":428:32)
#loc13 = loc("/home/ericbuehler/vllm/.venv-bench/lib/python3.12/site-packages/vllm/v1/attention/ops/triton_unified_attention.py":427:53)
#loc14 = loc("/home/ericbuehler/vllm/.venv-bench/lib/python3.12/site-packages/vllm/v1/attention/ops/triton_unified_attention.py":430:37)
#loc15 = loc("/home/ericbuehler/vllm/.venv-bench/lib/python3.12/site-packages/vllm/v1/attention/ops/triton_unified_attention.py":430:57)
#loc16 = loc("/home/ericbuehler/vllm/.venv-bench/lib/python3.12/site-packages/vllm/v1/attention/ops/triton_unified_attention.py":430:71)
#loc17 = loc("/home/ericbuehler/vllm/.venv-bench/lib/python3.12/site-packages/vllm/v1/attention/ops/triton_unified_attention.py":430:77)
#loc18 = loc("/home/ericbuehler/vllm/.venv-bench/lib/python3.12/site-packages/vllm/v1/attention/ops/triton_unified_attention.py":434:27)
#loc19 = loc("/home/ericbuehler/vllm/.venv-bench/lib/python3.12/site-packages/vllm/v1/attention/ops/triton_unified_attention.py":434:40)
#loc20 = loc("/home/ericbuehler/vllm/.venv-bench/lib/python3.12/site-packages/vllm/v1/attention/ops/triton_unified_attention.py":435:27)
#loc21 = loc("/home/ericbuehler/vllm/.venv-bench/lib/python3.12/site-packages/vllm/v1/attention/ops/triton_unified_attention.py":435:10)
#loc22 = loc("/home/ericbuehler/vllm/.venv-bench/lib/python3.12/site-packages/vllm/v1/attention/ops/triton_unified_attention.py":436:23)
#loc23 = loc("/home/ericbuehler/vllm/.venv-bench/lib/python3.12/site-packages/vllm/v1/attention/ops/triton_unified_attention.py":436:10)
#loc24 = loc("/home/ericbuehler/vllm/.venv-bench/lib/python3.12/site-packages/vllm/v1/attention/ops/triton_unified_attention.py":438:38)
#loc25 = loc("/home/ericbuehler/vllm/.venv-bench/lib/python3.12/site-packages/vllm/v1/attention/ops/triton_unified_attention.py":438:23)
#loc26 = loc("/home/ericbuehler/vllm/.venv-bench/lib/python3.12/site-packages/vllm/v1/attention/ops/triton_unified_attention.py":439:25)
#loc27 = loc("/home/ericbuehler/vllm/.venv-bench/lib/python3.12/site-packages/vllm/v1/attention/ops/triton_unified_attention.py":442:44)
#loc28 = loc("/home/ericbuehler/vllm/.venv-bench/lib/python3.12/site-packages/vllm/v1/attention/ops/triton_unified_attention.py":442:26)
#loc29 = loc("/home/ericbuehler/vllm/.venv-bench/lib/python3.12/site-packages/vllm/v1/attention/ops/triton_unified_attention.py":443:50)
#loc30 = loc("/home/ericbuehler/vllm/.venv-bench/lib/python3.12/site-packages/vllm/v1/attention/ops/triton_unified_attention.py":443:39)
#loc31 = loc("/home/ericbuehler/vllm/.venv-bench/lib/python3.12/site-packages/vllm/v1/attention/ops/triton_unified_attention.py":443:32)
#loc32 = loc("/home/ericbuehler/vllm/.venv-bench/lib/python3.12/site-packages/vllm/v1/attention/ops/triton_unified_attention.py":444:28)
#loc33 = loc("/home/ericbuehler/vllm/.venv-bench/lib/python3.12/site-packages/vllm/v1/attention/ops/triton_unified_attention.py":448:27)
#loc34 = loc("/home/ericbuehler/vllm/.venv-bench/lib/python3.12/site-packages/vllm/v1/attention/ops/triton_unified_attention.py":449:11)
#loc35 = loc("/home/ericbuehler/vllm/.venv-bench/lib/python3.12/site-packages/vllm/v1/attention/ops/triton_unified_attention.py":450:28)
#loc36 = loc("/home/ericbuehler/vllm/.venv-bench/lib/python3.12/site-packages/vllm/v1/attention/ops/triton_unified_attention.py":450:10)
#loc37 = loc("/home/ericbuehler/vllm/.venv-bench/lib/python3.12/site-packages/vllm/v1/attention/ops/triton_unified_attention.py":451:23)
#loc38 = loc("/home/ericbuehler/vllm/.venv-bench/lib/python3.12/site-packages/vllm/v1/attention/ops/triton_unified_attention.py":451:45)
#loc39 = loc("/home/ericbuehler/vllm/.venv-bench/lib/python3.12/site-packages/vllm/v1/attention/ops/triton_unified_attention.py":451:56)
#loc40 = loc("/home/ericbuehler/vllm/.venv-bench/lib/python3.12/site-packages/vllm/v1/attention/ops/triton_unified_attention.py":451:10)
#loc41 = loc("/home/ericbuehler/vllm/.venv-bench/lib/python3.12/site-packages/vllm/v1/attention/ops/triton_unified_attention.py":452:23)
#loc42 = loc("/home/ericbuehler/vllm/.venv-bench/lib/python3.12/site-packages/vllm/v1/attention/ops/triton_unified_attention.py":452:41)
#loc43 = loc("/home/ericbuehler/vllm/.venv-bench/lib/python3.12/site-packages/vllm/v1/attention/ops/triton_unified_attention.py":452:10)
#loc44 = loc("/home/ericbuehler/vllm/.venv-bench/lib/python3.12/site-packages/vllm/v1/attention/ops/triton_unified_attention.py":456:23)
#loc45 = loc("/home/ericbuehler/vllm/.venv-bench/lib/python3.12/site-packages/vllm/v1/attention/ops/triton_unified_attention.py":456:43)
#loc46 = loc("/home/ericbuehler/vllm/.venv-bench/lib/python3.12/site-packages/vllm/v1/attention/ops/triton_unified_attention.py":456:34)
#loc47 = loc("/home/ericbuehler/vllm/.venv-bench/lib/python3.12/site-packages/vllm/v1/attention/ops/triton_unified_attention.py":455:26)
#loc48 = loc("/home/ericbuehler/vllm/.venv-bench/lib/python3.12/site-packages/vllm/v1/attention/ops/triton_unified_attention.py":455:8)
#loc49 = loc("/home/ericbuehler/vllm/.venv-bench/lib/python3.12/site-packages/vllm/v1/attention/ops/triton_unified_attention.py":459:37)
#loc50 = loc("/home/ericbuehler/vllm/.venv-bench/lib/python3.12/site-packages/vllm/v1/attention/ops/triton_unified_attention.py":459:26)
#loc51 = loc("/home/ericbuehler/vllm/.venv-bench/lib/python3.12/site-packages/vllm/v1/attention/ops/triton_unified_attention.py":459:50)
#loc52 = loc("/home/ericbuehler/vllm/.venv-bench/lib/python3.12/site-packages/vllm/v1/attention/ops/triton_unified_attention.py":459:19)
#loc53 = loc("/home/ericbuehler/vllm/.venv-bench/lib/python3.12/site-packages/vllm/v1/attention/ops/triton_unified_attention.py":460:21)
#loc54 = loc("/home/ericbuehler/vllm/.venv-bench/lib/python3.12/site-packages/vllm/v1/attention/ops/triton_unified_attention.py":462:37)
#loc55 = loc("/home/ericbuehler/vllm/.venv-bench/lib/python3.12/site-packages/vllm/v1/attention/ops/triton_unified_attention.py":462:57)
#loc56 = loc("/home/ericbuehler/vllm/.venv-bench/lib/python3.12/site-packages/vllm/v1/attention/ops/triton_unified_attention.py":462:47)
#loc57 = loc("/home/ericbuehler/vllm/.venv-bench/lib/python3.12/site-packages/vllm/v1/attention/ops/triton_unified_attention.py":470:26)
#loc58 = loc("/home/ericbuehler/vllm/.venv-bench/lib/python3.12/site-packages/vllm/v1/attention/ops/triton_unified_attention.py":471:27)
#loc59 = loc("/home/ericbuehler/vllm/.venv-bench/lib/python3.12/site-packages/vllm/v1/attention/ops/triton_unified_attention.py":471:10)
#loc60 = loc("/home/ericbuehler/vllm/.venv-bench/lib/python3.12/site-packages/vllm/v1/attention/ops/triton_unified_attention.py":472:23)
#loc61 = loc("/home/ericbuehler/vllm/.venv-bench/lib/python3.12/site-packages/vllm/v1/attention/ops/triton_unified_attention.py":472:10)
#loc62 = loc("/home/ericbuehler/vllm/.venv-bench/lib/python3.12/site-packages/vllm/v1/attention/ops/triton_unified_attention.py":474:26)
#loc63 = loc("/home/ericbuehler/vllm/.venv-bench/lib/python3.12/site-packages/vllm/v1/attention/ops/triton_unified_attention.py":474:41)
#loc64 = loc("/home/ericbuehler/vllm/.venv-bench/lib/python3.12/site-packages/vllm/v1/attention/ops/triton_unified_attention.py":474:4)
#loc66 = loc("/home/ericbuehler/vllm/.venv-bench/lib/python3.12/site-packages/vllm/v1/attention/ops/triton_attention_helpers.py":94:21)
#loc67 = loc("/home/ericbuehler/vllm/.venv-bench/lib/python3.12/site-packages/vllm/v1/attention/ops/triton_attention_helpers.py":95:12)
#loc68 = loc("/home/ericbuehler/vllm/.venv-bench/lib/python3.12/site-packages/vllm/v1/attention/ops/triton_attention_helpers.py":96:4)
#loc69 = loc("/home/ericbuehler/vllm/.venv-bench/lib/python3.12/site-packages/vllm/v1/attention/ops/triton_attention_helpers.py":96:17)
#loc72 = loc("/home/ericbuehler/vllm/.venv-bench/lib/python3.12/site-packages/vllm/v1/attention/ops/triton_attention_helpers.py":97:22)
#loc73 = loc("/home/ericbuehler/vllm/.venv-bench/lib/python3.12/site-packages/vllm/v1/attention/ops/triton_attention_helpers.py":97:32)
#loc74 = loc("/home/ericbuehler/vllm/.venv-bench/lib/python3.12/site-packages/vllm/v1/attention/ops/triton_attention_helpers.py":98:44)
#loc75 = loc("/home/ericbuehler/vllm/.venv-bench/lib/python3.12/site-packages/vllm/v1/attention/ops/triton_attention_helpers.py":98:22)
#loc76 = loc("/home/ericbuehler/vllm/.venv-bench/lib/python3.12/site-packages/vllm/v1/attention/ops/triton_attention_helpers.py":101:22)
#loc77 = loc("/home/ericbuehler/vllm/.venv-bench/lib/python3.12/site-packages/vllm/v1/attention/ops/triton_attention_helpers.py":101:11)
#loc78 = loc("/home/ericbuehler/vllm/.venv-bench/lib/python3.12/site-packages/vllm/v1/attention/ops/triton_attention_helpers.py":102:25)
#loc79 = loc("/home/ericbuehler/vllm/.venv-bench/lib/python3.12/site-packages/vllm/v1/attention/ops/triton_attention_helpers.py":101:8)
#loc80 = loc("/home/ericbuehler/vllm/.venv-bench/lib/python3.12/site-packages/vllm/v1/attention/ops/triton_attention_helpers.py":106:18)
#loc81 = loc("/home/ericbuehler/vllm/.venv-bench/lib/python3.12/site-packages/vllm/v1/attention/ops/triton_attention_helpers.py":106:11)
#loc82 = loc("/home/ericbuehler/vllm/.venv-bench/lib/python3.12/site-packages/vllm/v1/attention/ops/triton_attention_helpers.py":106:4)
#loc84 = loc("/home/ericbuehler/vllm/.venv-bench/lib/python3.12/site-packages/vllm/v1/attention/ops/triton_attention_helpers.py":24:16)
#loc85 = loc("/home/ericbuehler/vllm/.venv-bench/lib/python3.12/site-packages/vllm/v1/attention/ops/triton_attention_helpers.py":24:20)
#loc86 = loc("/home/ericbuehler/vllm/.venv-bench/lib/python3.12/site-packages/vllm/v1/attention/ops/triton_attention_helpers.py":24:26)
#loc87 = loc("/home/ericbuehler/vllm/.venv-bench/lib/python3.12/site-packages/vllm/v1/attention/ops/triton_attention_helpers.py":24:11)
#loc88 = loc("/home/ericbuehler/vllm/.venv-bench/lib/python3.12/site-packages/vllm/v1/attention/ops/triton_attention_helpers.py":24:4)
#loc90 = loc("/home/ericbuehler/vllm/.venv-bench/lib/python3.12/site-packages/triton/language/standard.py":191:40)
#loc92 = loc("/home/ericbuehler/vllm/.venv-bench/lib/python3.12/site-packages/triton/language/standard.py":191:15)
#loc93 = loc("/home/ericbuehler/vllm/.venv-bench/lib/python3.12/site-packages/triton/language/standard.py":179:4)
#loc95 = loc("/home/ericbuehler/vllm/.venv-bench/lib/python3.12/site-packages/triton/language/standard.py":170:27)
#loc96 = loc("/home/ericbuehler/vllm/.venv-bench/lib/python3.12/site-packages/triton/language/standard.py":170:11)
#loc97 = loc("/home/ericbuehler/vllm/.venv-bench/lib/python3.12/site-packages/triton/language/standard.py":170:4)
#loc99 = loc("/home/ericbuehler/vllm/.venv-bench/lib/python3.12/site-packages/triton/language/standard.py":293:36)
#loc100 = loc("/home/ericbuehler/vllm/.venv-bench/lib/python3.12/site-packages/triton/language/standard.py":293:11)
#loc101 = loc("/home/ericbuehler/vllm/.venv-bench/lib/python3.12/site-packages/triton/language/standard.py":293:4)
#loc103 = loc("/home/ericbuehler/vllm/.venv-bench/lib/python3.12/site-packages/triton/language/standard.py":263:15)
#loc104 = loc("/home/ericbuehler/vllm/.venv-bench/lib/python3.12/site-packages/triton/language/standard.py":263:11)
#loc105 = loc("/home/ericbuehler/vllm/.venv-bench/lib/python3.12/site-packages/triton/language/standard.py":263:4)
#loc116 = loc("query_token_idx"(#loc1))
#loc117 = loc("query_head_idx"(#loc2))
#loc118 = loc("seq_idx"(#loc3))
#loc119 = loc("seq_len"(#loc4))
#loc120 = loc("seq_len"(#loc5))
#loc121 = loc("num_segments"(#loc6))
#loc122 = loc("tiles_per_segment"(#loc7))
#loc123 = loc("tiles_per_segment"(#loc8))
#loc124 = loc("act_num_segments"(#loc9))
#loc125 = loc("act_num_segments"(#loc10))
#loc126 = loc("segm_mask"(#loc11))
#loc127 = loc("segm_mask"(#loc12))
#loc128 = loc("segm_mask"(#loc13))
#loc129 = loc("dim_mask"(#loc14))
#loc130 = loc("dim_mask"(#loc15))
#loc131 = loc("dim_mask"(#loc16))
#loc132 = loc("dim_mask"(#loc17))
#loc133 = loc("segm_offset"(#loc18))
#loc134 = loc("segm_offset"(#loc19))
#loc135 = loc("segm_offset"(#loc20))
#loc136 = loc("segm_offset"(#loc21))
#loc137 = loc("segm_offset"(#loc22))
#loc138 = loc("segm_offset"(#loc23))
#loc139 = loc("segm_max"(#loc24))
#loc140 = loc("segm_max"(#loc25))
#loc141 = loc("overall_max"(#loc26))
#loc142 = loc("segm_expsum"(#loc27))
#loc143 = loc("segm_expsum"(#loc28))
#loc144 = loc("segm_expsum"(#loc29))
#loc145 = loc("segm_expsum"(#loc30))
#loc146 = loc("segm_expsum"(#loc31))
#loc147 = loc("overall_expsum"(#loc32))
#loc148 = loc("segm_output_offset"(#loc33))
#loc149 = loc("segm_output_offset"(#loc34))
#loc150 = loc("segm_output_offset"(#loc35))
#loc151 = loc("segm_output_offset"(#loc36))
#loc152 = loc("segm_output_offset"(#loc37))
#loc153 = loc("segm_output_offset"(#loc38))
#loc154 = loc("segm_output_offset"(#loc39))
#loc155 = loc("segm_output_offset"(#loc40))
#loc156 = loc("segm_output_offset"(#loc41))
#loc157 = loc("segm_output_offset"(#loc42))
#loc158 = loc("segm_output_offset"(#loc43))
#loc159 = loc("segm_output"(#loc44))
#loc160 = loc("segm_output"(#loc45))
#loc161 = loc("segm_output"(#loc46))
#loc162 = loc("segm_output"(#loc47))
#loc163 = loc("segm_output"(#loc48))
#loc164 = loc("segm_output"(#loc49))
#loc165 = loc("segm_output"(#loc50))
#loc166 = loc("segm_output"(#loc51))
#loc167 = loc("segm_output"(#loc52))
#loc168 = loc("acc_sum"(#loc53))
#loc169 = loc("acc"(#loc54))
#loc170 = loc("acc"(#loc55))
#loc171 = loc("acc"(#loc56))
#loc172 = loc("output_offset"(#loc57))
#loc173 = loc("output_offset"(#loc58))
#loc174 = loc("output_offset"(#loc59))
#loc175 = loc("output_offset"(#loc60))
#loc176 = loc("output_offset"(#loc61))
#loc179 = loc("left"(#loc66))
#loc180 = loc("right"(#loc67))
#loc181 = loc("left"(#loc68))
#loc184 = loc("mid"(#loc72))
#loc185 = loc("mid"(#loc73))
#loc186 = loc("val"(#loc74))
#loc187 = loc("val"(#loc75))
#loc188 = loc("left"(#loc78))
#loc197 = loc("left"(#loc179))
#loc198 = loc("right"(#loc180))
#loc199 = loc("right"(#loc181))
#loc200 = loc("right"(#loc185))
#loc201 = loc("left"(#loc188))
