#loc = loc("/home/ericbuehler/.cache/vllm/torch_compile_cache/torch_aot_compile/90537ea14f244a5187d6ecc853fbadcf440d710f29c8e182fe8151f3f7751a82/inductor_cache/zq/czqdiet2jk54e3kdy53lssddqcjdwsga6gkeyjjhbrqpjdoziifc.py":20:0)
#loc55 = loc("/home/ericbuehler/vllm/.venv-bench/lib/python3.12/site-packages/triton/language/standard.py":34:0)
#loc60 = loc("in_ptr0"(#loc))
#loc61 = loc("in_ptr1"(#loc))
#loc62 = loc("out_ptr0"(#loc))
#loc63 = loc("out_ptr1"(#loc))
#loc64 = loc("xnumel_0"(#loc))
#loc65 = loc("xnumel_1"(#loc))
#loc111 = loc("x"(#loc55))
module {
  tt.func public @triton_(%in_ptr0: !tt.ptr<bf16> {tt.divisibility = 16 : i32} loc("in_ptr0"(#loc)), %in_ptr1: !tt.ptr<bf16> {tt.divisibility = 16 : i32} loc("in_ptr1"(#loc)), %out_ptr0: !tt.ptr<f32> {tt.divisibility = 16 : i32} loc("out_ptr0"(#loc)), %out_ptr1: !tt.ptr<bf16> {tt.divisibility = 16 : i32} loc("out_ptr1"(#loc)), %xnumel_0: i32 {tt.divisibility = 16 : i32} loc("xnumel_0"(#loc)), %xnumel_1: i32 {tt.divisibility = 16 : i32} loc("xnumel_1"(#loc))) attributes {noinline = false} {
    %pid = tt.get_program_id x : i32 loc(#loc66)
    %num_xblocks_0 = tt.call @"triton.language.standard.cdiv__i32__(1,)cconstexpr_512_"(%xnumel_0) : (i32) -> i32 loc(#loc67)
    %num_xblocks_1 = tt.call @"triton.language.standard.cdiv__i32__(1,)cconstexpr_512_"(%xnumel_1) : (i32) -> i32 loc(#loc68)
    %num_xblocks_1_0 = arith.addi %num_xblocks_0, %num_xblocks_1 : i32 loc(#loc69)
    %0 = arith.cmpi slt, %pid, %num_xblocks_0 : i32 loc(#loc5)
    scf.if %0 {
      %r0_numel = arith.constant 1 : i32 loc(#loc70)
      %xoffset = arith.constant 512 : i32 loc(#loc71)
      %xoffset_1 = arith.constant 512 : i32 loc(#loc71)
      %xoffset_2 = arith.muli %pid, %xoffset_1 : i32 loc(#loc71)
      %xindex = tt.make_range {end = 512 : i32, start = 0 : i32} : tensor<512xi32> loc(#loc72)
      %xindex_3 = tt.splat %xoffset_2 : i32 -> tensor<512xi32> loc(#loc73)
      %xindex_4 = arith.addi %xindex_3, %xindex : tensor<512xi32> loc(#loc73)
      %xmask = tt.splat %xnumel_0 : i32 -> tensor<512xi32> loc(#loc74)
      %xmask_5 = arith.cmpi slt, %xindex_4, %xmask : tensor<512xi32> loc(#loc74)
      %tmp0 = tt.splat %in_ptr0 : !tt.ptr<bf16> -> tensor<512x!tt.ptr<bf16>> loc(#loc75)
      %tmp0_6 = tt.addptr %tmp0, %xindex_4 : tensor<512x!tt.ptr<bf16>>, tensor<512xi32> loc(#loc75)
      %tmp0_7 = tt.load %tmp0_6, %xmask_5 : tensor<512x!tt.ptr<bf16>> loc(#loc76)
      %tmp0_8 = arith.extf %tmp0_7 : tensor<512xbf16> to tensor<512xf32> loc(#loc77)
      %1 = tt.splat %out_ptr0 : !tt.ptr<f32> -> tensor<512x!tt.ptr<f32>> loc(#loc15)
      %2 = tt.addptr %1, %xindex_4 : tensor<512x!tt.ptr<f32>>, tensor<512xi32> loc(#loc15)
      tt.store %2, %tmp0_8, %xmask_5 : tensor<512x!tt.ptr<f32>> loc(#loc16)
    } else {
      %1 = arith.cmpi slt, %pid, %num_xblocks_1_0 : i32 loc(#loc17)
      scf.if %1 {
        %pid_offset = arith.subi %pid, %num_xblocks_0 : i32 loc(#loc78)
        %r0_numel = arith.constant 1 : i32 loc(#loc79)
        %xoffset = arith.constant 512 : i32 loc(#loc80)
        %xoffset_1 = arith.constant 512 : i32 loc(#loc80)
        %xoffset_2 = arith.muli %pid_offset, %xoffset_1 : i32 loc(#loc80)
        %xindex = tt.make_range {end = 512 : i32, start = 0 : i32} : tensor<512xi32> loc(#loc81)
        %xindex_3 = tt.splat %xoffset_2 : i32 -> tensor<512xi32> loc(#loc82)
        %xindex_4 = arith.addi %xindex_3, %xindex : tensor<512xi32> loc(#loc82)
        %xmask = tt.splat %xnumel_1 : i32 -> tensor<512xi32> loc(#loc83)
        %xmask_5 = arith.cmpi slt, %xindex_4, %xmask : tensor<512xi32> loc(#loc83)
        %x1 = arith.constant 2112 : i32 loc(#loc84)
        %x1_6 = arith.constant 2112 : i32 loc(#loc84)
        %x1_7 = arith.constant dense<2112> : tensor<512xi32> loc(#loc84)
        %x1_8 = arith.remsi %xindex_4, %x1_7 : tensor<512xi32> loc(#loc84)
        %x2 = arith.constant 2112 : i32 loc(#loc85)
        %x2_9 = arith.constant 2112 : i32 loc(#loc85)
        %x2_10 = arith.constant dense<2112> : tensor<512xi32> loc(#loc85)
        %x2_11 = arith.divsi %xindex_4, %x2_10 : tensor<512xi32> loc(#loc85)
        %tmp2 = arith.constant 4224 : i32 loc(#loc86)
        %tmp2_12 = arith.constant 4224 : i32 loc(#loc86)
        %tmp2_13 = arith.constant dense<4224> : tensor<512xi32> loc(#loc86)
        %tmp2_14 = arith.muli %tmp2_13, %x2_11 : tensor<512xi32> loc(#loc86)
        %tmp2_15 = arith.addi %x1_8, %tmp2_14 : tensor<512xi32> loc(#loc87)
        %tmp2_16 = tt.splat %in_ptr1 : !tt.ptr<bf16> -> tensor<512x!tt.ptr<bf16>> loc(#loc88)
        %tmp2_17 = tt.addptr %tmp2_16, %tmp2_15 : tensor<512x!tt.ptr<bf16>>, tensor<512xi32> loc(#loc88)
        %tmp2_18 = tt.load %tmp2_17, %xmask_5 : tensor<512x!tt.ptr<bf16>> loc(#loc89)
        %tmp2_19 = arith.extf %tmp2_18 : tensor<512xbf16> to tensor<512xf32> loc(#loc90)
        %tmp18 = arith.constant 2112 : i32 loc(#loc91)
        %tmp18_20 = arith.constant 2112 : i32 loc(#loc91)
        %tmp18_21 = arith.constant dense<2112> : tensor<512xi32> loc(#loc91)
        %tmp18_22 = arith.addi %tmp18_21, %x1_8 : tensor<512xi32> loc(#loc91)
        %tmp18_23 = arith.constant 4224 : i32 loc(#loc92)
        %tmp18_24 = arith.constant 4224 : i32 loc(#loc92)
        %tmp18_25 = arith.constant dense<4224> : tensor<512xi32> loc(#loc92)
        %tmp18_26 = arith.muli %tmp18_25, %x2_11 : tensor<512xi32> loc(#loc92)
        %tmp18_27 = arith.addi %tmp18_22, %tmp18_26 : tensor<512xi32> loc(#loc93)
        %tmp18_28 = tt.splat %in_ptr1 : !tt.ptr<bf16> -> tensor<512x!tt.ptr<bf16>> loc(#loc94)
        %tmp18_29 = tt.addptr %tmp18_28, %tmp18_27 : tensor<512x!tt.ptr<bf16>>, tensor<512xi32> loc(#loc94)
        %tmp18_30 = tt.load %tmp18_29, %xmask_5 : tensor<512x!tt.ptr<bf16>> loc(#loc95)
        %tmp18_31 = arith.extf %tmp18_30 : tensor<512xbf16> to tensor<512xf32> loc(#loc96)
        %tmp4 = arith.constant 5.000000e-01 : f32 loc(#loc97)
        %tmp4_32 = arith.constant dense<5.000000e-01> : tensor<1xf32> loc(#loc97)
        %tmp5 = arith.constant dense<5.000000e-01> : tensor<512xf32> loc(#loc98)
        %tmp5_33 = arith.mulf %tmp2_19, %tmp5 : tensor<512xf32> loc(#loc98)
        %tmp6 = arith.mulf %tmp2_19, %tmp2_19 : tensor<512xf32> loc(#loc99)
        %tmp7 = arith.mulf %tmp6, %tmp2_19 : tensor<512xf32> loc(#loc100)
        %tmp8 = arith.constant 4.471500e-02 : f32 loc(#loc101)
        %tmp8_34 = arith.constant dense<4.471500e-02> : tensor<1xf32> loc(#loc101)
        %tmp9 = arith.constant dense<4.471500e-02> : tensor<512xf32> loc(#loc102)
        %tmp9_35 = arith.mulf %tmp7, %tmp9 : tensor<512xf32> loc(#loc102)
        %tmp10 = arith.addf %tmp2_19, %tmp9_35 : tensor<512xf32> loc(#loc103)
        %tmp11 = arith.constant 0.797884583 : f32 loc(#loc104)
        %tmp11_36 = arith.constant dense<0.797884583> : tensor<1xf32> loc(#loc104)
        %tmp12 = arith.constant dense<0.797884583> : tensor<512xf32> loc(#loc105)
        %tmp12_37 = arith.mulf %tmp10, %tmp12 : tensor<512xf32> loc(#loc105)
        %tmp13 = tt.extern_elementwise %tmp12_37 {libname = "", libpath = "", pure = true, symbol = "__nv_tanhf"} : (tensor<512xf32>) -> tensor<512xf32> loc(#loc106)
        %tmp14 = arith.constant 1.000000e+00 : f32 loc(#loc107)
        %tmp14_38 = arith.constant dense<1.000000e+00> : tensor<1xf32> loc(#loc107)
        %tmp15 = arith.constant dense<1.000000e+00> : tensor<512xf32> loc(#loc108)
        %tmp15_39 = arith.addf %tmp13, %tmp15 : tensor<512xf32> loc(#loc108)
        %tmp16 = arith.mulf %tmp5_33, %tmp15_39 : tensor<512xf32> loc(#loc109)
        %tmp19 = arith.mulf %tmp16, %tmp18_31 : tensor<512xf32> loc(#loc110)
        %2 = tt.splat %out_ptr1 : !tt.ptr<bf16> -> tensor<512x!tt.ptr<bf16>> loc(#loc52)
        %3 = tt.addptr %2, %xindex_4 : tensor<512x!tt.ptr<bf16>>, tensor<512xi32> loc(#loc52)
        %4 = arith.truncf %tmp19 : tensor<512xf32> to tensor<512xbf16> loc(#loc53)
        tt.store %3, %4, %xmask_5 : tensor<512x!tt.ptr<bf16>> loc(#loc53)
      } else {
      } loc(#loc18)
    } loc(#loc6)
    tt.return loc(#loc54)
  } loc(#loc)
  tt.func private @"triton.language.standard.cdiv__i32__(1,)cconstexpr_512_"(%x: i32 loc("x"(#loc55))) -> i32 attributes {noinline = false} {
    %c511_i32 = arith.constant 511 : i32 loc(#loc56)
    %c511_i32_0 = arith.constant 511 : i32 loc(#loc56)
    %0 = arith.addi %x, %c511_i32_0 : i32 loc(#loc56)
    %c512_i32 = arith.constant 512 : i32 loc(#loc57)
    %c512_i32_1 = arith.constant 512 : i32 loc(#loc57)
    %1 = arith.divsi %0, %c512_i32_1 : i32 loc(#loc57)
    tt.return %1 : i32 loc(#loc58)
  ^bb1:  // no predecessors
    %2 = ub.poison : i32 loc(#loc59)
    tt.return %2 : i32 loc(#loc59)
  } loc(#loc55)
} loc(#loc)
#loc1 = loc("/home/ericbuehler/.cache/vllm/torch_compile_cache/torch_aot_compile/90537ea14f244a5187d6ecc853fbadcf440d710f29c8e182fe8151f3f7751a82/inductor_cache/zq/czqdiet2jk54e3kdy53lssddqcjdwsga6gkeyjjhbrqpjdoziifc.py":21:24)
#loc2 = loc("/home/ericbuehler/.cache/vllm/torch_compile_cache/torch_aot_compile/90537ea14f244a5187d6ecc853fbadcf440d710f29c8e182fe8151f3f7751a82/inductor_cache/zq/czqdiet2jk54e3kdy53lssddqcjdwsga6gkeyjjhbrqpjdoziifc.py":22:38)
#loc3 = loc("/home/ericbuehler/.cache/vllm/torch_compile_cache/torch_aot_compile/90537ea14f244a5187d6ecc853fbadcf440d710f29c8e182fe8151f3f7751a82/inductor_cache/zq/czqdiet2jk54e3kdy53lssddqcjdwsga6gkeyjjhbrqpjdoziifc.py":23:54)
#loc4 = loc("/home/ericbuehler/.cache/vllm/torch_compile_cache/torch_aot_compile/90537ea14f244a5187d6ecc853fbadcf440d710f29c8e182fe8151f3f7751a82/inductor_cache/zq/czqdiet2jk54e3kdy53lssddqcjdwsga6gkeyjjhbrqpjdoziifc.py":23:36)
#loc5 = loc("/home/ericbuehler/.cache/vllm/torch_compile_cache/torch_aot_compile/90537ea14f244a5187d6ecc853fbadcf440d710f29c8e182fe8151f3f7751a82/inductor_cache/zq/czqdiet2jk54e3kdy53lssddqcjdwsga6gkeyjjhbrqpjdoziifc.py":24:13)
#loc6 = loc("/home/ericbuehler/.cache/vllm/torch_compile_cache/torch_aot_compile/90537ea14f244a5187d6ecc853fbadcf440d710f29c8e182fe8151f3f7751a82/inductor_cache/zq/czqdiet2jk54e3kdy53lssddqcjdwsga6gkeyjjhbrqpjdoziifc.py":24:7)
#loc7 = loc("/home/ericbuehler/.cache/vllm/torch_compile_cache/torch_aot_compile/90537ea14f244a5187d6ecc853fbadcf440d710f29c8e182fe8151f3f7751a82/inductor_cache/zq/czqdiet2jk54e3kdy53lssddqcjdwsga6gkeyjjhbrqpjdoziifc.py":26:19)
#loc8 = loc("/home/ericbuehler/.cache/vllm/torch_compile_cache/torch_aot_compile/90537ea14f244a5187d6ecc853fbadcf440d710f29c8e182fe8151f3f7751a82/inductor_cache/zq/czqdiet2jk54e3kdy53lssddqcjdwsga6gkeyjjhbrqpjdoziifc.py":27:31)
#loc9 = loc("/home/ericbuehler/.cache/vllm/torch_compile_cache/torch_aot_compile/90537ea14f244a5187d6ecc853fbadcf440d710f29c8e182fe8151f3f7751a82/inductor_cache/zq/czqdiet2jk54e3kdy53lssddqcjdwsga6gkeyjjhbrqpjdoziifc.py":28:40)
#loc10 = loc("/home/ericbuehler/.cache/vllm/torch_compile_cache/torch_aot_compile/90537ea14f244a5187d6ecc853fbadcf440d710f29c8e182fe8151f3f7751a82/inductor_cache/zq/czqdiet2jk54e3kdy53lssddqcjdwsga6gkeyjjhbrqpjdoziifc.py":28:27)
#loc11 = loc("/home/ericbuehler/.cache/vllm/torch_compile_cache/torch_aot_compile/90537ea14f244a5187d6ecc853fbadcf440d710f29c8e182fe8151f3f7751a82/inductor_cache/zq/czqdiet2jk54e3kdy53lssddqcjdwsga6gkeyjjhbrqpjdoziifc.py":29:25)
#loc12 = loc("/home/ericbuehler/.cache/vllm/torch_compile_cache/torch_aot_compile/90537ea14f244a5187d6ecc853fbadcf440d710f29c8e182fe8151f3f7751a82/inductor_cache/zq/czqdiet2jk54e3kdy53lssddqcjdwsga6gkeyjjhbrqpjdoziifc.py":31:34)
#loc13 = loc("/home/ericbuehler/.cache/vllm/torch_compile_cache/torch_aot_compile/90537ea14f244a5187d6ecc853fbadcf440d710f29c8e182fe8151f3f7751a82/inductor_cache/zq/czqdiet2jk54e3kdy53lssddqcjdwsga6gkeyjjhbrqpjdoziifc.py":31:39)
#loc14 = loc("/home/ericbuehler/.cache/vllm/torch_compile_cache/torch_aot_compile/90537ea14f244a5187d6ecc853fbadcf440d710f29c8e182fe8151f3f7751a82/inductor_cache/zq/czqdiet2jk54e3kdy53lssddqcjdwsga6gkeyjjhbrqpjdoziifc.py":31:49)
#loc15 = loc("/home/ericbuehler/.cache/vllm/torch_compile_cache/torch_aot_compile/90537ea14f244a5187d6ecc853fbadcf440d710f29c8e182fe8151f3f7751a82/inductor_cache/zq/czqdiet2jk54e3kdy53lssddqcjdwsga6gkeyjjhbrqpjdoziifc.py":33:29)
#loc16 = loc("/home/ericbuehler/.cache/vllm/torch_compile_cache/torch_aot_compile/90537ea14f244a5187d6ecc853fbadcf440d710f29c8e182fe8151f3f7751a82/inductor_cache/zq/czqdiet2jk54e3kdy53lssddqcjdwsga6gkeyjjhbrqpjdoziifc.py":33:40)
#loc17 = loc("/home/ericbuehler/.cache/vllm/torch_compile_cache/torch_aot_compile/90537ea14f244a5187d6ecc853fbadcf440d710f29c8e182fe8151f3f7751a82/inductor_cache/zq/czqdiet2jk54e3kdy53lssddqcjdwsga6gkeyjjhbrqpjdoziifc.py":34:15)
#loc18 = loc("/home/ericbuehler/.cache/vllm/torch_compile_cache/torch_aot_compile/90537ea14f244a5187d6ecc853fbadcf440d710f29c8e182fe8151f3f7751a82/inductor_cache/zq/czqdiet2jk54e3kdy53lssddqcjdwsga6gkeyjjhbrqpjdoziifc.py":34:9)
#loc19 = loc("/home/ericbuehler/.cache/vllm/torch_compile_cache/torch_aot_compile/90537ea14f244a5187d6ecc853fbadcf440d710f29c8e182fe8151f3f7751a82/inductor_cache/zq/czqdiet2jk54e3kdy53lssddqcjdwsga6gkeyjjhbrqpjdoziifc.py":35:27)
#loc20 = loc("/home/ericbuehler/.cache/vllm/torch_compile_cache/torch_aot_compile/90537ea14f244a5187d6ecc853fbadcf440d710f29c8e182fe8151f3f7751a82/inductor_cache/zq/czqdiet2jk54e3kdy53lssddqcjdwsga6gkeyjjhbrqpjdoziifc.py":36:19)
#loc21 = loc("/home/ericbuehler/.cache/vllm/torch_compile_cache/torch_aot_compile/90537ea14f244a5187d6ecc853fbadcf440d710f29c8e182fe8151f3f7751a82/inductor_cache/zq/czqdiet2jk54e3kdy53lssddqcjdwsga6gkeyjjhbrqpjdoziifc.py":37:31)
#loc22 = loc("/home/ericbuehler/.cache/vllm/torch_compile_cache/torch_aot_compile/90537ea14f244a5187d6ecc853fbadcf440d710f29c8e182fe8151f3f7751a82/inductor_cache/zq/czqdiet2jk54e3kdy53lssddqcjdwsga6gkeyjjhbrqpjdoziifc.py":38:40)
#loc23 = loc("/home/ericbuehler/.cache/vllm/torch_compile_cache/torch_aot_compile/90537ea14f244a5187d6ecc853fbadcf440d710f29c8e182fe8151f3f7751a82/inductor_cache/zq/czqdiet2jk54e3kdy53lssddqcjdwsga6gkeyjjhbrqpjdoziifc.py":38:27)
#loc24 = loc("/home/ericbuehler/.cache/vllm/torch_compile_cache/torch_aot_compile/90537ea14f244a5187d6ecc853fbadcf440d710f29c8e182fe8151f3f7751a82/inductor_cache/zq/czqdiet2jk54e3kdy53lssddqcjdwsga6gkeyjjhbrqpjdoziifc.py":39:25)
#loc25 = loc("/home/ericbuehler/.cache/vllm/torch_compile_cache/torch_aot_compile/90537ea14f244a5187d6ecc853fbadcf440d710f29c8e182fe8151f3f7751a82/inductor_cache/zq/czqdiet2jk54e3kdy53lssddqcjdwsga6gkeyjjhbrqpjdoziifc.py":40:23)
#loc26 = loc("/home/ericbuehler/.cache/vllm/torch_compile_cache/torch_aot_compile/90537ea14f244a5187d6ecc853fbadcf440d710f29c8e182fe8151f3f7751a82/inductor_cache/zq/czqdiet2jk54e3kdy53lssddqcjdwsga6gkeyjjhbrqpjdoziifc.py":41:23)
#loc27 = loc("/home/ericbuehler/.cache/vllm/torch_compile_cache/torch_aot_compile/90537ea14f244a5187d6ecc853fbadcf440d710f29c8e182fe8151f3f7751a82/inductor_cache/zq/czqdiet2jk54e3kdy53lssddqcjdwsga6gkeyjjhbrqpjdoziifc.py":43:44)
#loc28 = loc("/home/ericbuehler/.cache/vllm/torch_compile_cache/torch_aot_compile/90537ea14f244a5187d6ecc853fbadcf440d710f29c8e182fe8151f3f7751a82/inductor_cache/zq/czqdiet2jk54e3kdy53lssddqcjdwsga6gkeyjjhbrqpjdoziifc.py":43:39)
#loc29 = loc("/home/ericbuehler/.cache/vllm/torch_compile_cache/torch_aot_compile/90537ea14f244a5187d6ecc853fbadcf440d710f29c8e182fe8151f3f7751a82/inductor_cache/zq/czqdiet2jk54e3kdy53lssddqcjdwsga6gkeyjjhbrqpjdoziifc.py":43:34)
#loc30 = loc("/home/ericbuehler/.cache/vllm/torch_compile_cache/torch_aot_compile/90537ea14f244a5187d6ecc853fbadcf440d710f29c8e182fe8151f3f7751a82/inductor_cache/zq/czqdiet2jk54e3kdy53lssddqcjdwsga6gkeyjjhbrqpjdoziifc.py":43:49)
#loc31 = loc("/home/ericbuehler/.cache/vllm/torch_compile_cache/torch_aot_compile/90537ea14f244a5187d6ecc853fbadcf440d710f29c8e182fe8151f3f7751a82/inductor_cache/zq/czqdiet2jk54e3kdy53lssddqcjdwsga6gkeyjjhbrqpjdoziifc.py":43:59)
#loc32 = loc("/home/ericbuehler/.cache/vllm/torch_compile_cache/torch_aot_compile/90537ea14f244a5187d6ecc853fbadcf440d710f29c8e182fe8151f3f7751a82/inductor_cache/zq/czqdiet2jk54e3kdy53lssddqcjdwsga6gkeyjjhbrqpjdoziifc.py":44:42)
#loc33 = loc("/home/ericbuehler/.cache/vllm/torch_compile_cache/torch_aot_compile/90537ea14f244a5187d6ecc853fbadcf440d710f29c8e182fe8151f3f7751a82/inductor_cache/zq/czqdiet2jk54e3kdy53lssddqcjdwsga6gkeyjjhbrqpjdoziifc.py":44:52)
#loc34 = loc("/home/ericbuehler/.cache/vllm/torch_compile_cache/torch_aot_compile/90537ea14f244a5187d6ecc853fbadcf440d710f29c8e182fe8151f3f7751a82/inductor_cache/zq/czqdiet2jk54e3kdy53lssddqcjdwsga6gkeyjjhbrqpjdoziifc.py":44:47)
#loc35 = loc("/home/ericbuehler/.cache/vllm/torch_compile_cache/torch_aot_compile/90537ea14f244a5187d6ecc853fbadcf440d710f29c8e182fe8151f3f7751a82/inductor_cache/zq/czqdiet2jk54e3kdy53lssddqcjdwsga6gkeyjjhbrqpjdoziifc.py":44:35)
#loc36 = loc("/home/ericbuehler/.cache/vllm/torch_compile_cache/torch_aot_compile/90537ea14f244a5187d6ecc853fbadcf440d710f29c8e182fe8151f3f7751a82/inductor_cache/zq/czqdiet2jk54e3kdy53lssddqcjdwsga6gkeyjjhbrqpjdoziifc.py":44:57)
#loc37 = loc("/home/ericbuehler/.cache/vllm/torch_compile_cache/torch_aot_compile/90537ea14f244a5187d6ecc853fbadcf440d710f29c8e182fe8151f3f7751a82/inductor_cache/zq/czqdiet2jk54e3kdy53lssddqcjdwsga6gkeyjjhbrqpjdoziifc.py":44:67)
#loc38 = loc("/home/ericbuehler/.cache/vllm/torch_compile_cache/torch_aot_compile/90537ea14f244a5187d6ecc853fbadcf440d710f29c8e182fe8151f3f7751a82/inductor_cache/zq/czqdiet2jk54e3kdy53lssddqcjdwsga6gkeyjjhbrqpjdoziifc.py":46:33)
#loc39 = loc("/home/ericbuehler/.cache/vllm/torch_compile_cache/torch_aot_compile/90537ea14f244a5187d6ecc853fbadcf440d710f29c8e182fe8151f3f7751a82/inductor_cache/zq/czqdiet2jk54e3kdy53lssddqcjdwsga6gkeyjjhbrqpjdoziifc.py":47:22)
#loc40 = loc("/home/ericbuehler/.cache/vllm/torch_compile_cache/torch_aot_compile/90537ea14f244a5187d6ecc853fbadcf440d710f29c8e182fe8151f3f7751a82/inductor_cache/zq/czqdiet2jk54e3kdy53lssddqcjdwsga6gkeyjjhbrqpjdoziifc.py":48:22)
#loc41 = loc("/home/ericbuehler/.cache/vllm/torch_compile_cache/torch_aot_compile/90537ea14f244a5187d6ecc853fbadcf440d710f29c8e182fe8151f3f7751a82/inductor_cache/zq/czqdiet2jk54e3kdy53lssddqcjdwsga6gkeyjjhbrqpjdoziifc.py":49:22)
#loc42 = loc("/home/ericbuehler/.cache/vllm/torch_compile_cache/torch_aot_compile/90537ea14f244a5187d6ecc853fbadcf440d710f29c8e182fe8151f3f7751a82/inductor_cache/zq/czqdiet2jk54e3kdy53lssddqcjdwsga6gkeyjjhbrqpjdoziifc.py":50:38)
#loc43 = loc("/home/ericbuehler/.cache/vllm/torch_compile_cache/torch_aot_compile/90537ea14f244a5187d6ecc853fbadcf440d710f29c8e182fe8151f3f7751a82/inductor_cache/zq/czqdiet2jk54e3kdy53lssddqcjdwsga6gkeyjjhbrqpjdoziifc.py":51:22)
#loc44 = loc("/home/ericbuehler/.cache/vllm/torch_compile_cache/torch_aot_compile/90537ea14f244a5187d6ecc853fbadcf440d710f29c8e182fe8151f3f7751a82/inductor_cache/zq/czqdiet2jk54e3kdy53lssddqcjdwsga6gkeyjjhbrqpjdoziifc.py":52:23)
#loc45 = loc("/home/ericbuehler/.cache/vllm/torch_compile_cache/torch_aot_compile/90537ea14f244a5187d6ecc853fbadcf440d710f29c8e182fe8151f3f7751a82/inductor_cache/zq/czqdiet2jk54e3kdy53lssddqcjdwsga6gkeyjjhbrqpjdoziifc.py":53:49)
#loc46 = loc("/home/ericbuehler/.cache/vllm/torch_compile_cache/torch_aot_compile/90537ea14f244a5187d6ecc853fbadcf440d710f29c8e182fe8151f3f7751a82/inductor_cache/zq/czqdiet2jk54e3kdy53lssddqcjdwsga6gkeyjjhbrqpjdoziifc.py":54:24)
#loc47 = loc("/home/ericbuehler/.cache/vllm/torch_compile_cache/torch_aot_compile/90537ea14f244a5187d6ecc853fbadcf440d710f29c8e182fe8151f3f7751a82/inductor_cache/zq/czqdiet2jk54e3kdy53lssddqcjdwsga6gkeyjjhbrqpjdoziifc.py":55:31)
#loc48 = loc("/home/ericbuehler/.cache/vllm/torch_compile_cache/torch_aot_compile/90537ea14f244a5187d6ecc853fbadcf440d710f29c8e182fe8151f3f7751a82/inductor_cache/zq/czqdiet2jk54e3kdy53lssddqcjdwsga6gkeyjjhbrqpjdoziifc.py":56:34)
#loc49 = loc("/home/ericbuehler/.cache/vllm/torch_compile_cache/torch_aot_compile/90537ea14f244a5187d6ecc853fbadcf440d710f29c8e182fe8151f3f7751a82/inductor_cache/zq/czqdiet2jk54e3kdy53lssddqcjdwsga6gkeyjjhbrqpjdoziifc.py":57:24)
#loc50 = loc("/home/ericbuehler/.cache/vllm/torch_compile_cache/torch_aot_compile/90537ea14f244a5187d6ecc853fbadcf440d710f29c8e182fe8151f3f7751a82/inductor_cache/zq/czqdiet2jk54e3kdy53lssddqcjdwsga6gkeyjjhbrqpjdoziifc.py":58:23)
#loc51 = loc("/home/ericbuehler/.cache/vllm/torch_compile_cache/torch_aot_compile/90537ea14f244a5187d6ecc853fbadcf440d710f29c8e182fe8151f3f7751a82/inductor_cache/zq/czqdiet2jk54e3kdy53lssddqcjdwsga6gkeyjjhbrqpjdoziifc.py":60:24)
#loc52 = loc("/home/ericbuehler/.cache/vllm/torch_compile_cache/torch_aot_compile/90537ea14f244a5187d6ecc853fbadcf440d710f29c8e182fe8151f3f7751a82/inductor_cache/zq/czqdiet2jk54e3kdy53lssddqcjdwsga6gkeyjjhbrqpjdoziifc.py":61:29)
#loc53 = loc("/home/ericbuehler/.cache/vllm/torch_compile_cache/torch_aot_compile/90537ea14f244a5187d6ecc853fbadcf440d710f29c8e182fe8151f3f7751a82/inductor_cache/zq/czqdiet2jk54e3kdy53lssddqcjdwsga6gkeyjjhbrqpjdoziifc.py":61:41)
#loc54 = loc("/home/ericbuehler/.cache/vllm/torch_compile_cache/torch_aot_compile/90537ea14f244a5187d6ecc853fbadcf440d710f29c8e182fe8151f3f7751a82/inductor_cache/zq/czqdiet2jk54e3kdy53lssddqcjdwsga6gkeyjjhbrqpjdoziifc.py":24:4)
#loc56 = loc("/home/ericbuehler/vllm/.venv-bench/lib/python3.12/site-packages/triton/language/standard.py":43:17)
#loc57 = loc("/home/ericbuehler/vllm/.venv-bench/lib/python3.12/site-packages/triton/language/standard.py":43:30)
#loc58 = loc("/home/ericbuehler/vllm/.venv-bench/lib/python3.12/site-packages/triton/language/standard.py":43:11)
#loc59 = loc("/home/ericbuehler/vllm/.venv-bench/lib/python3.12/site-packages/triton/language/standard.py":43:4)
#loc66 = loc("pid"(#loc1))
#loc67 = loc("num_xblocks_0"(#loc2))
#loc68 = loc("num_xblocks_1"(#loc3))
#loc69 = loc("num_xblocks_1"(#loc4))
#loc70 = loc("r0_numel"(#loc7))
#loc71 = loc("xoffset"(#loc8))
#loc72 = loc("xindex"(#loc9))
#loc73 = loc("xindex"(#loc10))
#loc74 = loc("xmask"(#loc11))
#loc75 = loc("tmp0"(#loc12))
#loc76 = loc("tmp0"(#loc13))
#loc77 = loc("tmp0"(#loc14))
#loc78 = loc("pid_offset"(#loc19))
#loc79 = loc("r0_numel"(#loc20))
#loc80 = loc("xoffset"(#loc21))
#loc81 = loc("xindex"(#loc22))
#loc82 = loc("xindex"(#loc23))
#loc83 = loc("xmask"(#loc24))
#loc84 = loc("x1"(#loc25))
#loc85 = loc("x2"(#loc26))
#loc86 = loc("tmp2"(#loc27))
#loc87 = loc("tmp2"(#loc28))
#loc88 = loc("tmp2"(#loc29))
#loc89 = loc("tmp2"(#loc30))
#loc90 = loc("tmp2"(#loc31))
#loc91 = loc("tmp18"(#loc32))
#loc92 = loc("tmp18"(#loc33))
#loc93 = loc("tmp18"(#loc34))
#loc94 = loc("tmp18"(#loc35))
#loc95 = loc("tmp18"(#loc36))
#loc96 = loc("tmp18"(#loc37))
#loc97 = loc("tmp4"(#loc38))
#loc98 = loc("tmp5"(#loc39))
#loc99 = loc("tmp6"(#loc40))
#loc100 = loc("tmp7"(#loc41))
#loc101 = loc("tmp8"(#loc42))
#loc102 = loc("tmp9"(#loc43))
#loc103 = loc("tmp10"(#loc44))
#loc104 = loc("tmp11"(#loc45))
#loc105 = loc("tmp12"(#loc46))
#loc106 = loc("tmp13"(#loc47))
#loc107 = loc("tmp14"(#loc48))
#loc108 = loc("tmp15"(#loc49))
#loc109 = loc("tmp16"(#loc50))
#loc110 = loc("tmp19"(#loc51))
