#loc = loc("/home/ericbuehler/.cache/vllm/torch_compile_cache/torch_aot_compile/90537ea14f244a5187d6ecc853fbadcf440d710f29c8e182fe8151f3f7751a82/inductor_cache/5l/c5loz4g3mlm6zkb4qrnujncbf7g5ymhswkj3bgyao3jtiedkn5va.py":18:0)
#loc176 = loc("/home/ericbuehler/vllm/.venv-bench/lib/python3.12/site-packages/triton/language/standard.py":287:0)
#loc178 = loc(unknown)
#loc181 = loc("/home/ericbuehler/vllm/.venv-bench/lib/python3.12/site-packages/triton/language/standard.py":262:0)
#loc185 = loc("in_out_ptr0"(#loc))
#loc186 = loc("in_ptr0"(#loc))
#loc187 = loc("in_ptr1"(#loc))
#loc188 = loc("in_ptr2"(#loc))
#loc189 = loc("in_ptr3"(#loc))
#loc190 = loc("in_ptr4"(#loc))
#loc191 = loc("in_ptr5"(#loc))
#loc192 = loc("in_ptr6"(#loc))
#loc193 = loc("in_ptr7"(#loc))
#loc194 = loc("in_ptr8"(#loc))
#loc195 = loc("in_ptr9"(#loc))
#loc196 = loc("out_ptr2"(#loc))
#loc197 = loc("out_ptr5"(#loc))
#loc198 = loc("xnumel"(#loc))
#loc199 = loc("r0_numel"(#loc))
#loc354 = loc("input"(#loc176))
#loc355 = loc("a"(#loc181))
#loc356 = loc("b"(#loc181))
module {
  tt.func public @triton_red_fused_add_mul_rms_norm_2(%in_out_ptr0: !tt.ptr<bf16> {tt.divisibility = 16 : i32} loc("in_out_ptr0"(#loc)), %in_ptr0: !tt.ptr<bf16> {tt.divisibility = 16 : i32} loc("in_ptr0"(#loc)), %in_ptr1: !tt.ptr<bf16> {tt.divisibility = 16 : i32} loc("in_ptr1"(#loc)), %in_ptr2: !tt.ptr<bf16> {tt.divisibility = 16 : i32} loc("in_ptr2"(#loc)), %in_ptr3: !tt.ptr<bf16> {tt.divisibility = 16 : i32} loc("in_ptr3"(#loc)), %in_ptr4: !tt.ptr<bf16> {tt.divisibility = 16 : i32} loc("in_ptr4"(#loc)), %in_ptr5: !tt.ptr<f32> {tt.divisibility = 16 : i32} loc("in_ptr5"(#loc)), %in_ptr6: !tt.ptr<bf16> {tt.divisibility = 16 : i32} loc("in_ptr6"(#loc)), %in_ptr7: !tt.ptr<bf16> {tt.divisibility = 16 : i32} loc("in_ptr7"(#loc)), %in_ptr8: !tt.ptr<bf16> {tt.divisibility = 16 : i32} loc("in_ptr8"(#loc)), %in_ptr9: !tt.ptr<bf16> {tt.divisibility = 16 : i32} loc("in_ptr9"(#loc)), %out_ptr2: !tt.ptr<f32> {tt.divisibility = 16 : i32} loc("out_ptr2"(#loc)), %out_ptr5: !tt.ptr<bf16> {tt.divisibility = 16 : i32} loc("out_ptr5"(#loc)), %xnumel: i32 loc("xnumel"(#loc)), %r0_numel: i32 {tt.divisibility = 16 : i32} loc("r0_numel"(#loc))) attributes {noinline = false} {
    %r0_numel_0 = arith.constant 2816 : i32 loc(#loc200)
    %xoffset = tt.get_program_id x : i32 loc(#loc201)
    %xoffset_1 = arith.constant 1 : i32 loc(#loc202)
    %xoffset_2 = arith.constant 1 : i32 loc(#loc202)
    %xoffset_3 = arith.muli %xoffset, %xoffset_2 : i32 loc(#loc202)
    %xindex = tt.make_range {end = 1 : i32, start = 0 : i32} : tensor<1xi32> loc(#loc203)
    %xindex_4 = tt.expand_dims %xindex {axis = 1 : i32} : tensor<1xi32> -> tensor<1x1xi32> loc(#loc204)
    %xindex_5 = tt.splat %xoffset_3 : i32 -> tensor<1x1xi32> loc(#loc205)
    %xindex_6 = arith.addi %xindex_5, %xindex_4 : tensor<1x1xi32> loc(#loc205)
    %xmask = tt.splat %xnumel : i32 -> tensor<1x1xi32> loc(#loc206)
    %xmask_7 = arith.cmpi slt, %xindex_6, %xmask : tensor<1x1xi32> loc(#loc206)
    %r0_base = tt.make_range {end = 1024 : i32, start = 0 : i32} : tensor<1024xi32> loc(#loc207)
    %r0_base_8 = tt.expand_dims %r0_base {axis = 0 : i32} : tensor<1024xi32> -> tensor<1x1024xi32> loc(#loc208)
    %_tmp4 = arith.constant 0.000000e+00 : f32 loc(#loc209)
    %_tmp4_9 = arith.constant dense<0.000000e+00> : tensor<1x1024xf32> loc(#loc209)
    %c0_i32 = arith.constant 0 : i32 loc(#loc11)
    %c1024_i32 = arith.constant 1024 : i32 loc(#loc11)
    %0 = arith.bitcast %c0_i32 : i32 to i32 loc(#loc11)
    %1 = arith.bitcast %r0_numel_0 : i32 to i32 loc(#loc11)
    %2 = arith.bitcast %c1024_i32 : i32 to i32 loc(#loc11)
    %3 = ub.poison : i32 loc(#loc11)
    %_tmp4_10 = scf.for %r0_offset = %0 to %1 step %2 iter_args(%_tmp4_34 = %_tmp4_9) -> (tensor<1x1024xf32>)  : i32 {
      %r0_index = tt.splat %r0_offset : i32 -> tensor<1x1024xi32> loc(#loc211)
      %r0_index_35 = arith.addi %r0_index, %r0_base_8 : tensor<1x1024xi32> loc(#loc211)
      %r0_mask = arith.constant dense<2816> : tensor<1x1024xi32> loc(#loc212)
      %r0_mask_36 = arith.cmpi slt, %r0_index_35, %r0_mask : tensor<1x1024xi32> loc(#loc212)
      %tmp0 = arith.constant 2816 : i32 loc(#loc213)
      %tmp0_37 = arith.constant 2816 : i32 loc(#loc213)
      %tmp0_38 = arith.constant dense<2816> : tensor<1x1xi32> loc(#loc213)
      %tmp0_39 = arith.muli %tmp0_38, %xindex_6 : tensor<1x1xi32> loc(#loc213)
      %tmp0_40 = tt.broadcast %tmp0_39 : tensor<1x1xi32> -> tensor<1x1024xi32> loc(#loc214)
      %tmp0_41 = arith.addi %r0_index_35, %tmp0_40 : tensor<1x1024xi32> loc(#loc214)
      %tmp0_42 = tt.splat %in_ptr0 : !tt.ptr<bf16> -> tensor<1x1024x!tt.ptr<bf16>> loc(#loc215)
      %tmp0_43 = tt.addptr %tmp0_42, %tmp0_41 : tensor<1x1024x!tt.ptr<bf16>>, tensor<1x1024xi32> loc(#loc215)
      %tmp0_44 = tt.broadcast %xmask_7 : tensor<1x1xi1> -> tensor<1x1024xi1> loc(#loc216)
      %tmp0_45 = arith.andi %r0_mask_36, %tmp0_44 : tensor<1x1024xi1> loc(#loc216)
      %tmp0_46 = arith.constant 0.000000e+00 : f32 loc(#loc217)
      %tmp0_47 = arith.constant dense<0.000000e+00> : tensor<1x1024xf32> loc(#loc217)
      %tmp0_48 = arith.truncf %tmp0_47 : tensor<1x1024xf32> to tensor<1x1024xbf16> loc(#loc217)
      %tmp0_49 = tt.load %tmp0_43, %tmp0_45, %tmp0_48 evictionPolicy = evict_last : tensor<1x1024x!tt.ptr<bf16>> loc(#loc217)
      %tmp0_50 = arith.extf %tmp0_49 : tensor<1x1024xbf16> to tensor<1x1024xf32> loc(#loc218)
      %tmp2 = arith.mulf %tmp0_50, %tmp0_50 : tensor<1x1024xf32> loc(#loc219)
      %tmp5 = arith.addf %_tmp4_34, %tmp2 : tensor<1x1024xf32> loc(#loc220)
      %_tmp4_51 = tt.broadcast %xmask_7 : tensor<1x1xi1> -> tensor<1x1024xi1> loc(#loc221)
      %_tmp4_52 = arith.andi %r0_mask_36, %_tmp4_51 : tensor<1x1024xi1> loc(#loc221)
      %_tmp4_53 = arith.select %_tmp4_52, %tmp5, %_tmp4_34 : tensor<1x1024xi1>, tensor<1x1024xf32> loc(#loc222)
      scf.yield %_tmp4_53 : tensor<1x1024xf32> loc(#loc24)
    } loc(#loc210)
    %tmp4 = tt.call @"triton.language.standard.sum__fp32S1_1024S__(1,)cconstexpr_1__(2,)cconstexpr_False__(3,)cNone"(%_tmp4_10) : (tensor<1x1024xf32>) -> tensor<1xf32> loc(#loc223)
    %tmp4_11 = tt.expand_dims %tmp4 {axis = 1 : i32} : tensor<1xf32> -> tensor<1x1xf32> loc(#loc224)
    %_tmp10 = arith.constant 0.000000e+00 : f32 loc(#loc225)
    %_tmp10_12 = arith.constant dense<0.000000e+00> : tensor<1x1024xf32> loc(#loc225)
    %c0_i32_13 = arith.constant 0 : i32 loc(#loc28)
    %c1024_i32_14 = arith.constant 1024 : i32 loc(#loc28)
    %4 = arith.bitcast %c0_i32_13 : i32 to i32 loc(#loc28)
    %5 = arith.bitcast %r0_numel_0 : i32 to i32 loc(#loc28)
    %6 = arith.bitcast %c1024_i32_14 : i32 to i32 loc(#loc28)
    %7 = ub.poison : i32 loc(#loc28)
    %_tmp10_15 = scf.for %r0_offset = %4 to %5 step %6 iter_args(%_tmp10_34 = %_tmp10_12) -> (tensor<1x1024xf32>)  : i32 {
      %r0_index = tt.splat %r0_offset : i32 -> tensor<1x1024xi32> loc(#loc227)
      %r0_index_35 = arith.addi %r0_index, %r0_base_8 : tensor<1x1024xi32> loc(#loc227)
      %r0_mask = arith.constant dense<2816> : tensor<1x1024xi32> loc(#loc228)
      %r0_mask_36 = arith.cmpi slt, %r0_index_35, %r0_mask : tensor<1x1024xi32> loc(#loc228)
      %tmp6 = arith.constant 2816 : i32 loc(#loc229)
      %tmp6_37 = arith.constant 2816 : i32 loc(#loc229)
      %tmp6_38 = arith.constant dense<2816> : tensor<1x1xi32> loc(#loc229)
      %tmp6_39 = arith.muli %tmp6_38, %xindex_6 : tensor<1x1xi32> loc(#loc229)
      %tmp6_40 = tt.broadcast %tmp6_39 : tensor<1x1xi32> -> tensor<1x1024xi32> loc(#loc230)
      %tmp6_41 = arith.addi %r0_index_35, %tmp6_40 : tensor<1x1024xi32> loc(#loc230)
      %tmp6_42 = tt.splat %in_ptr1 : !tt.ptr<bf16> -> tensor<1x1024x!tt.ptr<bf16>> loc(#loc231)
      %tmp6_43 = tt.addptr %tmp6_42, %tmp6_41 : tensor<1x1024x!tt.ptr<bf16>>, tensor<1x1024xi32> loc(#loc231)
      %tmp6_44 = tt.broadcast %xmask_7 : tensor<1x1xi1> -> tensor<1x1024xi1> loc(#loc232)
      %tmp6_45 = arith.andi %r0_mask_36, %tmp6_44 : tensor<1x1024xi1> loc(#loc232)
      %tmp6_46 = arith.constant 0.000000e+00 : f32 loc(#loc233)
      %tmp6_47 = arith.constant dense<0.000000e+00> : tensor<1x1024xf32> loc(#loc233)
      %tmp6_48 = arith.truncf %tmp6_47 : tensor<1x1024xf32> to tensor<1x1024xbf16> loc(#loc233)
      %tmp6_49 = tt.load %tmp6_43, %tmp6_45, %tmp6_48 evictionPolicy = evict_last : tensor<1x1024x!tt.ptr<bf16>> loc(#loc233)
      %tmp6_50 = arith.extf %tmp6_49 : tensor<1x1024xbf16> to tensor<1x1024xf32> loc(#loc234)
      %tmp8 = arith.mulf %tmp6_50, %tmp6_50 : tensor<1x1024xf32> loc(#loc235)
      %tmp11 = arith.addf %_tmp10_34, %tmp8 : tensor<1x1024xf32> loc(#loc236)
      %_tmp10_51 = tt.broadcast %xmask_7 : tensor<1x1xi1> -> tensor<1x1024xi1> loc(#loc237)
      %_tmp10_52 = arith.andi %r0_mask_36, %_tmp10_51 : tensor<1x1024xi1> loc(#loc237)
      %_tmp10_53 = arith.select %_tmp10_52, %tmp11, %_tmp10_34 : tensor<1x1024xi1>, tensor<1x1024xf32> loc(#loc238)
      scf.yield %_tmp10_53 : tensor<1x1024xf32> loc(#loc41)
    } loc(#loc226)
    %tmp10 = tt.call @"triton.language.standard.sum__fp32S1_1024S__(1,)cconstexpr_1__(2,)cconstexpr_False__(3,)cNone"(%_tmp10_15) : (tensor<1x1024xf32>) -> tensor<1xf32> loc(#loc239)
    %tmp10_16 = tt.expand_dims %tmp10 {axis = 1 : i32} : tensor<1xf32> -> tensor<1x1xf32> loc(#loc240)
    %_tmp36 = arith.constant 0.000000e+00 : f32 loc(#loc241)
    %_tmp36_17 = arith.constant dense<0.000000e+00> : tensor<1x1024xf32> loc(#loc241)
    %c0_i32_18 = arith.constant 0 : i32 loc(#loc45)
    %c1024_i32_19 = arith.constant 1024 : i32 loc(#loc45)
    %8 = arith.bitcast %c0_i32_18 : i32 to i32 loc(#loc45)
    %9 = arith.bitcast %r0_numel_0 : i32 to i32 loc(#loc45)
    %10 = arith.bitcast %c1024_i32_19 : i32 to i32 loc(#loc45)
    %11 = ub.poison : i32 loc(#loc45)
    %_tmp36_20 = scf.for %r0_offset = %8 to %9 step %10 iter_args(%_tmp36_34 = %_tmp36_17) -> (tensor<1x1024xf32>)  : i32 {
      %r0_index = tt.splat %r0_offset : i32 -> tensor<1x1024xi32> loc(#loc243)
      %r0_index_35 = arith.addi %r0_index, %r0_base_8 : tensor<1x1024xi32> loc(#loc243)
      %r0_mask = arith.constant dense<2816> : tensor<1x1024xi32> loc(#loc244)
      %r0_mask_36 = arith.cmpi slt, %r0_index_35, %r0_mask : tensor<1x1024xi32> loc(#loc244)
      %tmp12 = arith.constant 2816 : i32 loc(#loc245)
      %tmp12_37 = arith.constant 2816 : i32 loc(#loc245)
      %tmp12_38 = arith.constant dense<2816> : tensor<1x1xi32> loc(#loc245)
      %tmp12_39 = arith.muli %tmp12_38, %xindex_6 : tensor<1x1xi32> loc(#loc245)
      %tmp12_40 = tt.broadcast %tmp12_39 : tensor<1x1xi32> -> tensor<1x1024xi32> loc(#loc246)
      %tmp12_41 = arith.addi %r0_index_35, %tmp12_40 : tensor<1x1024xi32> loc(#loc246)
      %tmp12_42 = tt.splat %in_ptr0 : !tt.ptr<bf16> -> tensor<1x1024x!tt.ptr<bf16>> loc(#loc247)
      %tmp12_43 = tt.addptr %tmp12_42, %tmp12_41 : tensor<1x1024x!tt.ptr<bf16>>, tensor<1x1024xi32> loc(#loc247)
      %tmp12_44 = tt.broadcast %xmask_7 : tensor<1x1xi1> -> tensor<1x1024xi1> loc(#loc248)
      %tmp12_45 = arith.andi %r0_mask_36, %tmp12_44 : tensor<1x1024xi1> loc(#loc248)
      %tmp12_46 = arith.constant 0.000000e+00 : f32 loc(#loc249)
      %tmp12_47 = arith.constant dense<0.000000e+00> : tensor<1x1024xf32> loc(#loc249)
      %tmp12_48 = arith.truncf %tmp12_47 : tensor<1x1024xf32> to tensor<1x1024xbf16> loc(#loc249)
      %tmp12_49 = tt.load %tmp12_43, %tmp12_45, %tmp12_48 evictionPolicy = evict_first : tensor<1x1024x!tt.ptr<bf16>> loc(#loc249)
      %tmp12_50 = arith.extf %tmp12_49 : tensor<1x1024xbf16> to tensor<1x1024xf32> loc(#loc250)
      %tmp21 = tt.splat %in_ptr2 : !tt.ptr<bf16> -> tensor<1x1024x!tt.ptr<bf16>> loc(#loc251)
      %tmp21_51 = tt.addptr %tmp21, %r0_index_35 : tensor<1x1024x!tt.ptr<bf16>>, tensor<1x1024xi32> loc(#loc251)
      %tmp21_52 = arith.constant 0.000000e+00 : f32 loc(#loc252)
      %tmp21_53 = arith.constant dense<0.000000e+00> : tensor<1x1024xf32> loc(#loc252)
      %tmp21_54 = arith.truncf %tmp21_53 : tensor<1x1024xf32> to tensor<1x1024xbf16> loc(#loc252)
      %tmp21_55 = tt.load %tmp21_51, %r0_mask_36, %tmp21_54 evictionPolicy = evict_last : tensor<1x1024x!tt.ptr<bf16>> loc(#loc252)
      %tmp21_56 = arith.extf %tmp21_55 : tensor<1x1024xbf16> to tensor<1x1024xf32> loc(#loc253)
      %tmp23 = arith.constant 2816 : i32 loc(#loc254)
      %tmp23_57 = arith.constant 2816 : i32 loc(#loc254)
      %tmp23_58 = arith.constant dense<2816> : tensor<1x1xi32> loc(#loc254)
      %tmp23_59 = arith.muli %tmp23_58, %xindex_6 : tensor<1x1xi32> loc(#loc254)
      %tmp23_60 = tt.broadcast %tmp23_59 : tensor<1x1xi32> -> tensor<1x1024xi32> loc(#loc255)
      %tmp23_61 = arith.addi %r0_index_35, %tmp23_60 : tensor<1x1024xi32> loc(#loc255)
      %tmp23_62 = tt.splat %in_ptr1 : !tt.ptr<bf16> -> tensor<1x1024x!tt.ptr<bf16>> loc(#loc256)
      %tmp23_63 = tt.addptr %tmp23_62, %tmp23_61 : tensor<1x1024x!tt.ptr<bf16>>, tensor<1x1024xi32> loc(#loc256)
      %tmp23_64 = tt.broadcast %xmask_7 : tensor<1x1xi1> -> tensor<1x1024xi1> loc(#loc257)
      %tmp23_65 = arith.andi %r0_mask_36, %tmp23_64 : tensor<1x1024xi1> loc(#loc257)
      %tmp23_66 = arith.constant 0.000000e+00 : f32 loc(#loc258)
      %tmp23_67 = arith.constant dense<0.000000e+00> : tensor<1x1024xf32> loc(#loc258)
      %tmp23_68 = arith.truncf %tmp23_67 : tensor<1x1024xf32> to tensor<1x1024xbf16> loc(#loc258)
      %tmp23_69 = tt.load %tmp23_63, %tmp23_65, %tmp23_68 evictionPolicy = evict_first : tensor<1x1024x!tt.ptr<bf16>> loc(#loc258)
      %tmp23_70 = arith.extf %tmp23_69 : tensor<1x1024xbf16> to tensor<1x1024xf32> loc(#loc259)
      %tmp30 = tt.splat %in_ptr3 : !tt.ptr<bf16> -> tensor<1x1024x!tt.ptr<bf16>> loc(#loc260)
      %tmp30_71 = tt.addptr %tmp30, %r0_index_35 : tensor<1x1024x!tt.ptr<bf16>>, tensor<1x1024xi32> loc(#loc260)
      %tmp30_72 = arith.constant 0.000000e+00 : f32 loc(#loc261)
      %tmp30_73 = arith.constant dense<0.000000e+00> : tensor<1x1024xf32> loc(#loc261)
      %tmp30_74 = arith.truncf %tmp30_73 : tensor<1x1024xf32> to tensor<1x1024xbf16> loc(#loc261)
      %tmp30_75 = tt.load %tmp30_71, %r0_mask_36, %tmp30_74 evictionPolicy = evict_last : tensor<1x1024x!tt.ptr<bf16>> loc(#loc261)
      %tmp30_76 = arith.extf %tmp30_75 : tensor<1x1024xbf16> to tensor<1x1024xf32> loc(#loc262)
      %tmp14 = arith.constant 2.816000e+03 : f32 loc(#loc263)
      %tmp14_77 = arith.constant dense<2.816000e+03> : tensor<1x1xf32> loc(#loc263)
      %tmp15 = arith.divf %tmp4_11, %tmp14_77 : tensor<1x1xf32> loc(#loc264)
      %tmp16 = arith.constant 9.99999997E-7 : f32 loc(#loc265)
      %tmp16_78 = arith.constant dense<9.99999997E-7> : tensor<1x1xf32> loc(#loc265)
      %tmp17 = arith.addf %tmp15, %tmp16_78 : tensor<1x1xf32> loc(#loc266)
      %tmp18 = tt.extern_elementwise %tmp17 {libname = "", libpath = "", pure = true, symbol = "__nv_rsqrtf"} : (tensor<1x1xf32>) -> tensor<1x1xf32> loc(#loc267)
      %tmp19 = tt.broadcast %tmp18 : tensor<1x1xf32> -> tensor<1x1024xf32> loc(#loc268)
      %tmp19_79 = arith.mulf %tmp12_50, %tmp19 : tensor<1x1024xf32> loc(#loc268)
      %tmp22 = arith.mulf %tmp19_79, %tmp21_56 : tensor<1x1024xf32> loc(#loc269)
      %tmp25 = arith.divf %tmp10_16, %tmp14_77 : tensor<1x1xf32> loc(#loc270)
      %tmp26 = arith.addf %tmp25, %tmp16_78 : tensor<1x1xf32> loc(#loc271)
      %tmp27 = tt.extern_elementwise %tmp26 {libname = "", libpath = "", pure = true, symbol = "__nv_rsqrtf"} : (tensor<1x1xf32>) -> tensor<1x1xf32> loc(#loc272)
      %tmp28 = tt.broadcast %tmp27 : tensor<1x1xf32> -> tensor<1x1024xf32> loc(#loc273)
      %tmp28_80 = arith.mulf %tmp23_70, %tmp28 : tensor<1x1024xf32> loc(#loc273)
      %tmp31 = arith.mulf %tmp28_80, %tmp30_76 : tensor<1x1024xf32> loc(#loc274)
      %tmp32 = arith.addf %tmp22, %tmp31 : tensor<1x1024xf32> loc(#loc275)
      %tmp34 = arith.mulf %tmp32, %tmp32 : tensor<1x1024xf32> loc(#loc276)
      %tmp37 = arith.addf %_tmp36_34, %tmp34 : tensor<1x1024xf32> loc(#loc277)
      %_tmp36_81 = tt.broadcast %xmask_7 : tensor<1x1xi1> -> tensor<1x1024xi1> loc(#loc278)
      %_tmp36_82 = arith.andi %r0_mask_36, %_tmp36_81 : tensor<1x1024xi1> loc(#loc278)
      %_tmp36_83 = arith.select %_tmp36_82, %tmp37, %_tmp36_34 : tensor<1x1024xi1>, tensor<1x1024xf32> loc(#loc279)
      %c2816_i32 = arith.constant 2816 : i32 loc(#loc83)
      %c2816_i32_84 = arith.constant 2816 : i32 loc(#loc83)
      %cst = arith.constant dense<2816> : tensor<1x1xi32> loc(#loc83)
      %20 = arith.muli %cst, %xindex_6 : tensor<1x1xi32> loc(#loc83)
      %21 = tt.broadcast %20 : tensor<1x1xi32> -> tensor<1x1024xi32> loc(#loc84)
      %22 = arith.addi %r0_index_35, %21 : tensor<1x1024xi32> loc(#loc84)
      %23 = tt.splat %out_ptr2 : !tt.ptr<f32> -> tensor<1x1024x!tt.ptr<f32>> loc(#loc85)
      %24 = tt.addptr %23, %22 : tensor<1x1024x!tt.ptr<f32>>, tensor<1x1024xi32> loc(#loc85)
      %25 = tt.broadcast %xmask_7 : tensor<1x1xi1> -> tensor<1x1024xi1> loc(#loc86)
      %26 = arith.andi %r0_mask_36, %25 : tensor<1x1024xi1> loc(#loc86)
      tt.store %24, %tmp32, %26 : tensor<1x1024x!tt.ptr<f32>> loc(#loc87)
      scf.yield %_tmp36_83 : tensor<1x1024xf32> loc(#loc88)
    } loc(#loc242)
    %tmp36 = tt.call @"triton.language.standard.sum__fp32S1_1024S__(1,)cconstexpr_1__(2,)cconstexpr_False__(3,)cNone"(%_tmp36_20) : (tensor<1x1024xf32>) -> tensor<1xf32> loc(#loc280)
    %tmp36_21 = tt.expand_dims %tmp36 {axis = 1 : i32} : tensor<1xf32> -> tensor<1x1xf32> loc(#loc281)
    %tmp50 = tt.splat %in_ptr5 : !tt.ptr<f32> -> tensor<1x1x!tt.ptr<f32>> loc(#loc282)
    %tmp50_22 = tt.addptr %tmp50, %xindex_6 : tensor<1x1x!tt.ptr<f32>>, tensor<1x1xi32> loc(#loc282)
    %tmp50_23 = tt.load %tmp50_22, %xmask_7 evictionPolicy = evict_last : tensor<1x1x!tt.ptr<f32>> loc(#loc283)
    %tmp61 = arith.constant 0 : i32 loc(#loc284)
    %tmp61_24 = tt.addptr %in_ptr8, %tmp61 : !tt.ptr<bf16>, i32 loc(#loc284)
    %tmp61_25 = tt.load %tmp61_24 : !tt.ptr<bf16> loc(#loc285)
    %tmp61_26 = arith.extf %tmp61_25 : bf16 to f32 loc(#loc286)
    %tmp62 = tt.splat %tmp61_26 : f32 -> tensor<1x1xf32> loc(#loc287)
    %_tmp67 = arith.constant 0.000000e+00 : f32 loc(#loc288)
    %_tmp67_27 = arith.constant dense<0.000000e+00> : tensor<1x1024xf32> loc(#loc288)
    %c0_i32_28 = arith.constant 0 : i32 loc(#loc98)
    %c1024_i32_29 = arith.constant 1024 : i32 loc(#loc98)
    %12 = arith.bitcast %c0_i32_28 : i32 to i32 loc(#loc98)
    %13 = arith.bitcast %r0_numel_0 : i32 to i32 loc(#loc98)
    %14 = arith.bitcast %c1024_i32_29 : i32 to i32 loc(#loc98)
    %15 = ub.poison : i32 loc(#loc98)
    %_tmp67_30 = scf.for %r0_offset = %12 to %13 step %14 iter_args(%_tmp67_34 = %_tmp67_27) -> (tensor<1x1024xf32>)  : i32 {
      %r0_index = tt.splat %r0_offset : i32 -> tensor<1x1024xi32> loc(#loc290)
      %r0_index_35 = arith.addi %r0_index, %r0_base_8 : tensor<1x1024xi32> loc(#loc290)
      %r0_mask = arith.constant dense<2816> : tensor<1x1024xi32> loc(#loc291)
      %r0_mask_36 = arith.cmpi slt, %r0_index_35, %r0_mask : tensor<1x1024xi32> loc(#loc291)
      %tmp38 = arith.constant 2816 : i32 loc(#loc292)
      %tmp38_37 = arith.constant 2816 : i32 loc(#loc292)
      %tmp38_38 = arith.constant dense<2816> : tensor<1x1xi32> loc(#loc292)
      %tmp38_39 = arith.muli %tmp38_38, %xindex_6 : tensor<1x1xi32> loc(#loc292)
      %tmp38_40 = tt.broadcast %tmp38_39 : tensor<1x1xi32> -> tensor<1x1024xi32> loc(#loc293)
      %tmp38_41 = arith.addi %r0_index_35, %tmp38_40 : tensor<1x1024xi32> loc(#loc293)
      %tmp38_42 = tt.splat %out_ptr2 : !tt.ptr<f32> -> tensor<1x1024x!tt.ptr<f32>> loc(#loc294)
      %tmp38_43 = tt.addptr %tmp38_42, %tmp38_41 : tensor<1x1024x!tt.ptr<f32>>, tensor<1x1024xi32> loc(#loc294)
      %tmp38_44 = tt.broadcast %xmask_7 : tensor<1x1xi1> -> tensor<1x1024xi1> loc(#loc295)
      %tmp38_45 = arith.andi %r0_mask_36, %tmp38_44 : tensor<1x1024xi1> loc(#loc295)
      %tmp38_46 = arith.constant 0.000000e+00 : f32 loc(#loc296)
      %tmp38_47 = arith.constant dense<0.000000e+00> : tensor<1x1024xf32> loc(#loc296)
      %tmp38_48 = tt.load %tmp38_43, %tmp38_45, %tmp38_47 evictionPolicy = evict_first : tensor<1x1024x!tt.ptr<f32>> loc(#loc296)
      %tmp46 = tt.splat %in_ptr4 : !tt.ptr<bf16> -> tensor<1x1024x!tt.ptr<bf16>> loc(#loc297)
      %tmp46_49 = tt.addptr %tmp46, %r0_index_35 : tensor<1x1024x!tt.ptr<bf16>>, tensor<1x1024xi32> loc(#loc297)
      %tmp46_50 = arith.constant 0.000000e+00 : f32 loc(#loc298)
      %tmp46_51 = arith.constant dense<0.000000e+00> : tensor<1x1024xf32> loc(#loc298)
      %tmp46_52 = arith.truncf %tmp46_51 : tensor<1x1024xf32> to tensor<1x1024xbf16> loc(#loc298)
      %tmp46_53 = tt.load %tmp46_49, %r0_mask_36, %tmp46_52 evictionPolicy = evict_last : tensor<1x1024x!tt.ptr<bf16>> loc(#loc298)
      %tmp46_54 = arith.extf %tmp46_53 : tensor<1x1024xbf16> to tensor<1x1024xf32> loc(#loc299)
      %tmp48 = arith.constant 2816 : i32 loc(#loc300)
      %tmp48_55 = arith.constant 2816 : i32 loc(#loc300)
      %tmp48_56 = arith.constant dense<2816> : tensor<1x1xi32> loc(#loc300)
      %tmp48_57 = arith.muli %tmp48_56, %xindex_6 : tensor<1x1xi32> loc(#loc300)
      %tmp48_58 = tt.broadcast %tmp48_57 : tensor<1x1xi32> -> tensor<1x1024xi32> loc(#loc301)
      %tmp48_59 = arith.addi %r0_index_35, %tmp48_58 : tensor<1x1024xi32> loc(#loc301)
      %tmp48_60 = tt.splat %in_out_ptr0 : !tt.ptr<bf16> -> tensor<1x1024x!tt.ptr<bf16>> loc(#loc302)
      %tmp48_61 = tt.addptr %tmp48_60, %tmp48_59 : tensor<1x1024x!tt.ptr<bf16>>, tensor<1x1024xi32> loc(#loc302)
      %tmp48_62 = tt.broadcast %xmask_7 : tensor<1x1xi1> -> tensor<1x1024xi1> loc(#loc303)
      %tmp48_63 = arith.andi %r0_mask_36, %tmp48_62 : tensor<1x1024xi1> loc(#loc303)
      %tmp48_64 = arith.constant 0.000000e+00 : f32 loc(#loc304)
      %tmp48_65 = arith.constant dense<0.000000e+00> : tensor<1x1024xf32> loc(#loc304)
      %tmp48_66 = arith.truncf %tmp48_65 : tensor<1x1024xf32> to tensor<1x1024xbf16> loc(#loc304)
      %tmp48_67 = tt.load %tmp48_61, %tmp48_63, %tmp48_66 evictionPolicy = evict_first : tensor<1x1024x!tt.ptr<bf16>> loc(#loc304)
      %tmp48_68 = arith.extf %tmp48_67 : tensor<1x1024xbf16> to tensor<1x1024xf32> loc(#loc305)
      %tmp56 = tt.splat %in_ptr6 : !tt.ptr<bf16> -> tensor<1x1024x!tt.ptr<bf16>> loc(#loc306)
      %tmp56_69 = tt.addptr %tmp56, %r0_index_35 : tensor<1x1024x!tt.ptr<bf16>>, tensor<1x1024xi32> loc(#loc306)
      %tmp56_70 = arith.constant 0.000000e+00 : f32 loc(#loc307)
      %tmp56_71 = arith.constant dense<0.000000e+00> : tensor<1x1024xf32> loc(#loc307)
      %tmp56_72 = arith.truncf %tmp56_71 : tensor<1x1024xf32> to tensor<1x1024xbf16> loc(#loc307)
      %tmp56_73 = tt.load %tmp56_69, %r0_mask_36, %tmp56_72 evictionPolicy = evict_last : tensor<1x1024x!tt.ptr<bf16>> loc(#loc307)
      %tmp56_74 = arith.extf %tmp56_73 : tensor<1x1024xbf16> to tensor<1x1024xf32> loc(#loc308)
      %tmp58 = arith.constant 2816 : i32 loc(#loc309)
      %tmp58_75 = arith.constant 2816 : i32 loc(#loc309)
      %tmp58_76 = arith.constant dense<2816> : tensor<1x1xi32> loc(#loc309)
      %tmp58_77 = arith.muli %tmp58_76, %xindex_6 : tensor<1x1xi32> loc(#loc309)
      %tmp58_78 = tt.broadcast %tmp58_77 : tensor<1x1xi32> -> tensor<1x1024xi32> loc(#loc310)
      %tmp58_79 = arith.addi %r0_index_35, %tmp58_78 : tensor<1x1024xi32> loc(#loc310)
      %tmp58_80 = tt.splat %in_ptr7 : !tt.ptr<bf16> -> tensor<1x1024x!tt.ptr<bf16>> loc(#loc311)
      %tmp58_81 = tt.addptr %tmp58_80, %tmp58_79 : tensor<1x1024x!tt.ptr<bf16>>, tensor<1x1024xi32> loc(#loc311)
      %tmp58_82 = tt.broadcast %xmask_7 : tensor<1x1xi1> -> tensor<1x1024xi1> loc(#loc312)
      %tmp58_83 = arith.andi %r0_mask_36, %tmp58_82 : tensor<1x1024xi1> loc(#loc312)
      %tmp58_84 = arith.constant 0.000000e+00 : f32 loc(#loc313)
      %tmp58_85 = arith.constant dense<0.000000e+00> : tensor<1x1024xf32> loc(#loc313)
      %tmp58_86 = arith.truncf %tmp58_85 : tensor<1x1024xf32> to tensor<1x1024xbf16> loc(#loc313)
      %tmp58_87 = tt.load %tmp58_81, %tmp58_83, %tmp58_86 evictionPolicy = evict_first : tensor<1x1024x!tt.ptr<bf16>> loc(#loc313)
      %tmp58_88 = arith.extf %tmp58_87 : tensor<1x1024xbf16> to tensor<1x1024xf32> loc(#loc314)
      %tmp39 = arith.constant 2.816000e+03 : f32 loc(#loc315)
      %tmp39_89 = arith.constant dense<2.816000e+03> : tensor<1x1xf32> loc(#loc315)
      %tmp40 = arith.divf %tmp36_21, %tmp39_89 : tensor<1x1xf32> loc(#loc316)
      %tmp41 = arith.constant 9.99999997E-7 : f32 loc(#loc317)
      %tmp41_90 = arith.constant dense<9.99999997E-7> : tensor<1x1xf32> loc(#loc317)
      %tmp42 = arith.addf %tmp40, %tmp41_90 : tensor<1x1xf32> loc(#loc318)
      %tmp43 = tt.extern_elementwise %tmp42 {libname = "", libpath = "", pure = true, symbol = "__nv_rsqrtf"} : (tensor<1x1xf32>) -> tensor<1x1xf32> loc(#loc319)
      %tmp44 = tt.broadcast %tmp43 : tensor<1x1xf32> -> tensor<1x1024xf32> loc(#loc320)
      %tmp44_91 = arith.mulf %tmp38_48, %tmp44 : tensor<1x1024xf32> loc(#loc320)
      %tmp47 = arith.mulf %tmp44_91, %tmp46_54 : tensor<1x1024xf32> loc(#loc321)
      %tmp51 = arith.divf %tmp50_23, %tmp39_89 : tensor<1x1xf32> loc(#loc322)
      %tmp52 = arith.addf %tmp51, %tmp41_90 : tensor<1x1xf32> loc(#loc323)
      %tmp53 = tt.extern_elementwise %tmp52 {libname = "", libpath = "", pure = true, symbol = "__nv_rsqrtf"} : (tensor<1x1xf32>) -> tensor<1x1xf32> loc(#loc324)
      %tmp54 = tt.broadcast %tmp53 : tensor<1x1xf32> -> tensor<1x1024xf32> loc(#loc325)
      %tmp54_92 = arith.mulf %tmp48_68, %tmp54 : tensor<1x1024xf32> loc(#loc325)
      %tmp57 = arith.mulf %tmp54_92, %tmp56_74 : tensor<1x1024xf32> loc(#loc326)
      %tmp59 = arith.addf %tmp57, %tmp58_88 : tensor<1x1024xf32> loc(#loc327)
      %tmp60 = arith.addf %tmp47, %tmp59 : tensor<1x1024xf32> loc(#loc328)
      %tmp63 = tt.broadcast %tmp62 : tensor<1x1xf32> -> tensor<1x1024xf32> loc(#loc329)
      %tmp63_93 = arith.mulf %tmp60, %tmp63 : tensor<1x1024xf32> loc(#loc329)
      %tmp65 = arith.mulf %tmp63_93, %tmp63_93 : tensor<1x1024xf32> loc(#loc330)
      %tmp68 = arith.addf %_tmp67_34, %tmp65 : tensor<1x1024xf32> loc(#loc331)
      %_tmp67_94 = tt.broadcast %xmask_7 : tensor<1x1xi1> -> tensor<1x1024xi1> loc(#loc332)
      %_tmp67_95 = arith.andi %r0_mask_36, %_tmp67_94 : tensor<1x1024xi1> loc(#loc332)
      %_tmp67_96 = arith.select %_tmp67_95, %tmp68, %_tmp67_34 : tensor<1x1024xi1>, tensor<1x1024xf32> loc(#loc333)
      %c2816_i32 = arith.constant 2816 : i32 loc(#loc143)
      %c2816_i32_97 = arith.constant 2816 : i32 loc(#loc143)
      %cst = arith.constant dense<2816> : tensor<1x1xi32> loc(#loc143)
      %20 = arith.muli %cst, %xindex_6 : tensor<1x1xi32> loc(#loc143)
      %21 = tt.broadcast %20 : tensor<1x1xi32> -> tensor<1x1024xi32> loc(#loc144)
      %22 = arith.addi %r0_index_35, %21 : tensor<1x1024xi32> loc(#loc144)
      %23 = tt.splat %in_out_ptr0 : !tt.ptr<bf16> -> tensor<1x1024x!tt.ptr<bf16>> loc(#loc145)
      %24 = tt.addptr %23, %22 : tensor<1x1024x!tt.ptr<bf16>>, tensor<1x1024xi32> loc(#loc145)
      %25 = tt.broadcast %xmask_7 : tensor<1x1xi1> -> tensor<1x1024xi1> loc(#loc146)
      %26 = arith.andi %r0_mask_36, %25 : tensor<1x1024xi1> loc(#loc146)
      %27 = arith.truncf %tmp63_93 : tensor<1x1024xf32> to tensor<1x1024xbf16> loc(#loc147)
      tt.store %24, %27, %26 : tensor<1x1024x!tt.ptr<bf16>> loc(#loc147)
      scf.yield %_tmp67_96 : tensor<1x1024xf32> loc(#loc148)
    } loc(#loc289)
    %tmp67 = tt.call @"triton.language.standard.sum__fp32S1_1024S__(1,)cconstexpr_1__(2,)cconstexpr_False__(3,)cNone"(%_tmp67_30) : (tensor<1x1024xf32>) -> tensor<1xf32> loc(#loc334)
    %tmp67_31 = tt.expand_dims %tmp67 {axis = 1 : i32} : tensor<1xf32> -> tensor<1x1xf32> loc(#loc335)
    %c0_i32_32 = arith.constant 0 : i32 loc(#loc151)
    %c1024_i32_33 = arith.constant 1024 : i32 loc(#loc151)
    %16 = arith.bitcast %c0_i32_32 : i32 to i32 loc(#loc151)
    %17 = arith.bitcast %r0_numel_0 : i32 to i32 loc(#loc151)
    %18 = arith.bitcast %c1024_i32_33 : i32 to i32 loc(#loc151)
    %19 = ub.poison : i32 loc(#loc151)
    scf.for %r0_offset = %16 to %17 step %18  : i32 {
      %r0_index = tt.splat %r0_offset : i32 -> tensor<1x1024xi32> loc(#loc336)
      %r0_index_34 = arith.addi %r0_index, %r0_base_8 : tensor<1x1024xi32> loc(#loc336)
      %r0_mask = arith.constant dense<2816> : tensor<1x1024xi32> loc(#loc337)
      %r0_mask_35 = arith.cmpi slt, %r0_index_34, %r0_mask : tensor<1x1024xi32> loc(#loc337)
      %tmp69 = arith.constant 2816 : i32 loc(#loc338)
      %tmp69_36 = arith.constant 2816 : i32 loc(#loc338)
      %tmp69_37 = arith.constant dense<2816> : tensor<1x1xi32> loc(#loc338)
      %tmp69_38 = arith.muli %tmp69_37, %xindex_6 : tensor<1x1xi32> loc(#loc338)
      %tmp69_39 = tt.broadcast %tmp69_38 : tensor<1x1xi32> -> tensor<1x1024xi32> loc(#loc339)
      %tmp69_40 = arith.addi %r0_index_34, %tmp69_39 : tensor<1x1024xi32> loc(#loc339)
      %tmp69_41 = tt.splat %in_out_ptr0 : !tt.ptr<bf16> -> tensor<1x1024x!tt.ptr<bf16>> loc(#loc340)
      %tmp69_42 = tt.addptr %tmp69_41, %tmp69_40 : tensor<1x1024x!tt.ptr<bf16>>, tensor<1x1024xi32> loc(#loc340)
      %tmp69_43 = tt.broadcast %xmask_7 : tensor<1x1xi1> -> tensor<1x1024xi1> loc(#loc341)
      %tmp69_44 = arith.andi %r0_mask_35, %tmp69_43 : tensor<1x1024xi1> loc(#loc341)
      %tmp69_45 = arith.constant 0.000000e+00 : f32 loc(#loc342)
      %tmp69_46 = arith.constant dense<0.000000e+00> : tensor<1x1024xf32> loc(#loc342)
      %tmp69_47 = arith.truncf %tmp69_46 : tensor<1x1024xf32> to tensor<1x1024xbf16> loc(#loc342)
      %tmp69_48 = tt.load %tmp69_42, %tmp69_44, %tmp69_47 evictionPolicy = evict_first : tensor<1x1024x!tt.ptr<bf16>> loc(#loc342)
      %tmp69_49 = arith.extf %tmp69_48 : tensor<1x1024xbf16> to tensor<1x1024xf32> loc(#loc343)
      %tmp78 = tt.splat %in_ptr9 : !tt.ptr<bf16> -> tensor<1x1024x!tt.ptr<bf16>> loc(#loc344)
      %tmp78_50 = tt.addptr %tmp78, %r0_index_34 : tensor<1x1024x!tt.ptr<bf16>>, tensor<1x1024xi32> loc(#loc344)
      %tmp78_51 = arith.constant 0.000000e+00 : f32 loc(#loc345)
      %tmp78_52 = arith.constant dense<0.000000e+00> : tensor<1x1024xf32> loc(#loc345)
      %tmp78_53 = arith.truncf %tmp78_52 : tensor<1x1024xf32> to tensor<1x1024xbf16> loc(#loc345)
      %tmp78_54 = tt.load %tmp78_50, %r0_mask_35, %tmp78_53 evictionPolicy = evict_last : tensor<1x1024x!tt.ptr<bf16>> loc(#loc345)
      %tmp78_55 = arith.extf %tmp78_54 : tensor<1x1024xbf16> to tensor<1x1024xf32> loc(#loc346)
      %tmp71 = arith.constant 2.816000e+03 : f32 loc(#loc347)
      %tmp71_56 = arith.constant dense<2.816000e+03> : tensor<1x1xf32> loc(#loc347)
      %tmp72 = arith.divf %tmp67_31, %tmp71_56 : tensor<1x1xf32> loc(#loc348)
      %tmp73 = arith.constant 9.99999997E-7 : f32 loc(#loc349)
      %tmp73_57 = arith.constant dense<9.99999997E-7> : tensor<1x1xf32> loc(#loc349)
      %tmp74 = arith.addf %tmp72, %tmp73_57 : tensor<1x1xf32> loc(#loc350)
      %tmp75 = tt.extern_elementwise %tmp74 {libname = "", libpath = "", pure = true, symbol = "__nv_rsqrtf"} : (tensor<1x1xf32>) -> tensor<1x1xf32> loc(#loc351)
      %tmp76 = tt.broadcast %tmp75 : tensor<1x1xf32> -> tensor<1x1024xf32> loc(#loc352)
      %tmp76_58 = arith.mulf %tmp69_49, %tmp76 : tensor<1x1024xf32> loc(#loc352)
      %tmp79 = arith.mulf %tmp76_58, %tmp78_55 : tensor<1x1024xf32> loc(#loc353)
      %c2816_i32 = arith.constant 2816 : i32 loc(#loc170)
      %c2816_i32_59 = arith.constant 2816 : i32 loc(#loc170)
      %cst = arith.constant dense<2816> : tensor<1x1xi32> loc(#loc170)
      %20 = arith.muli %cst, %xindex_6 : tensor<1x1xi32> loc(#loc170)
      %21 = tt.broadcast %20 : tensor<1x1xi32> -> tensor<1x1024xi32> loc(#loc171)
      %22 = arith.addi %r0_index_34, %21 : tensor<1x1024xi32> loc(#loc171)
      %23 = tt.splat %out_ptr5 : !tt.ptr<bf16> -> tensor<1x1024x!tt.ptr<bf16>> loc(#loc172)
      %24 = tt.addptr %23, %22 : tensor<1x1024x!tt.ptr<bf16>>, tensor<1x1024xi32> loc(#loc172)
      %25 = tt.broadcast %xmask_7 : tensor<1x1xi1> -> tensor<1x1024xi1> loc(#loc173)
      %26 = arith.andi %r0_mask_35, %25 : tensor<1x1024xi1> loc(#loc173)
      %27 = arith.truncf %tmp79 : tensor<1x1024xf32> to tensor<1x1024xbf16> loc(#loc174)
      tt.store %24, %27, %26 : tensor<1x1024x!tt.ptr<bf16>> loc(#loc174)
    } loc(#loc151)
    tt.return loc(#loc175)
  } loc(#loc)
  tt.func private @"triton.language.standard.sum__fp32S1_1024S__(1,)cconstexpr_1__(2,)cconstexpr_False__(3,)cNone"(%input: tensor<1x1024xf32> loc("input"(#loc176))) -> tensor<1xf32> attributes {noinline = false} {
    %0 = "tt.reduce"(%input) <{axis = 1 : i32}> ({
    ^bb0(%arg1: f32 loc(unknown), %arg2: f32 loc(unknown)):
      %2 = tt.call @triton.language.standard._sum_combine__fp32_fp32__(%arg1, %arg2) : (f32, f32) -> f32 loc(#loc177)
      tt.reduce.return %2 : f32 loc(#loc177)
    }) : (tensor<1x1024xf32>) -> tensor<1xf32> loc(#loc177)
    tt.return %0 : tensor<1xf32> loc(#loc179)
  ^bb1:  // no predecessors
    %1 = ub.poison : tensor<1xf32> loc(#loc180)
    tt.return %1 : tensor<1xf32> loc(#loc180)
  } loc(#loc176)
  tt.func private @triton.language.standard._sum_combine__fp32_fp32__(%a: f32 loc("a"(#loc181)), %b: f32 loc("b"(#loc181))) -> f32 attributes {noinline = false} {
    %0 = arith.addf %a, %b : f32 loc(#loc182)
    tt.return %0 : f32 loc(#loc183)
  ^bb1:  // no predecessors
    %1 = ub.poison : f32 loc(#loc184)
    tt.return %1 : f32 loc(#loc184)
  } loc(#loc181)
} loc(#loc)
#loc1 = loc("/home/ericbuehler/.cache/vllm/torch_compile_cache/torch_aot_compile/90537ea14f244a5187d6ecc853fbadcf440d710f29c8e182fe8151f3f7751a82/inductor_cache/5l/c5loz4g3mlm6zkb4qrnujncbf7g5ymhswkj3bgyao3jtiedkn5va.py":19:15)
#loc2 = loc("/home/ericbuehler/.cache/vllm/torch_compile_cache/torch_aot_compile/90537ea14f244a5187d6ecc853fbadcf440d710f29c8e182fe8151f3f7751a82/inductor_cache/5l/c5loz4g3mlm6zkb4qrnujncbf7g5ymhswkj3bgyao3jtiedkn5va.py":22:28)
#loc3 = loc("/home/ericbuehler/.cache/vllm/torch_compile_cache/torch_aot_compile/90537ea14f244a5187d6ecc853fbadcf440d710f29c8e182fe8151f3f7751a82/inductor_cache/5l/c5loz4g3mlm6zkb4qrnujncbf7g5ymhswkj3bgyao3jtiedkn5va.py":22:33)
#loc4 = loc("/home/ericbuehler/.cache/vllm/torch_compile_cache/torch_aot_compile/90537ea14f244a5187d6ecc853fbadcf440d710f29c8e182fe8151f3f7751a82/inductor_cache/5l/c5loz4g3mlm6zkb4qrnujncbf7g5ymhswkj3bgyao3jtiedkn5va.py":23:36)
#loc5 = loc("/home/ericbuehler/.cache/vllm/torch_compile_cache/torch_aot_compile/90537ea14f244a5187d6ecc853fbadcf440d710f29c8e182fe8151f3f7751a82/inductor_cache/5l/c5loz4g3mlm6zkb4qrnujncbf7g5ymhswkj3bgyao3jtiedkn5va.py":23:44)
#loc6 = loc("/home/ericbuehler/.cache/vllm/torch_compile_cache/torch_aot_compile/90537ea14f244a5187d6ecc853fbadcf440d710f29c8e182fe8151f3f7751a82/inductor_cache/5l/c5loz4g3mlm6zkb4qrnujncbf7g5ymhswkj3bgyao3jtiedkn5va.py":23:23)
#loc7 = loc("/home/ericbuehler/.cache/vllm/torch_compile_cache/torch_aot_compile/90537ea14f244a5187d6ecc853fbadcf440d710f29c8e182fe8151f3f7751a82/inductor_cache/5l/c5loz4g3mlm6zkb4qrnujncbf7g5ymhswkj3bgyao3jtiedkn5va.py":24:21)
#loc8 = loc("/home/ericbuehler/.cache/vllm/torch_compile_cache/torch_aot_compile/90537ea14f244a5187d6ecc853fbadcf440d710f29c8e182fe8151f3f7751a82/inductor_cache/5l/c5loz4g3mlm6zkb4qrnujncbf7g5ymhswkj3bgyao3jtiedkn5va.py":25:27)
#loc9 = loc("/home/ericbuehler/.cache/vllm/torch_compile_cache/torch_aot_compile/90537ea14f244a5187d6ecc853fbadcf440d710f29c8e182fe8151f3f7751a82/inductor_cache/5l/c5loz4g3mlm6zkb4qrnujncbf7g5ymhswkj3bgyao3jtiedkn5va.py":25:37)
#loc10 = loc("/home/ericbuehler/.cache/vllm/torch_compile_cache/torch_aot_compile/90537ea14f244a5187d6ecc853fbadcf440d710f29c8e182fe8151f3f7751a82/inductor_cache/5l/c5loz4g3mlm6zkb4qrnujncbf7g5ymhswkj3bgyao3jtiedkn5va.py":28:43)
#loc11 = loc("/home/ericbuehler/.cache/vllm/torch_compile_cache/torch_aot_compile/90537ea14f244a5187d6ecc853fbadcf440d710f29c8e182fe8151f3f7751a82/inductor_cache/5l/c5loz4g3mlm6zkb4qrnujncbf7g5ymhswkj3bgyao3jtiedkn5va.py":29:43)
#loc12 = loc("/home/ericbuehler/.cache/vllm/torch_compile_cache/torch_aot_compile/90537ea14f244a5187d6ecc853fbadcf440d710f29c8e182fe8151f3f7751a82/inductor_cache/5l/c5loz4g3mlm6zkb4qrnujncbf7g5ymhswkj3bgyao3jtiedkn5va.py":30:31)
#loc13 = loc("/home/ericbuehler/.cache/vllm/torch_compile_cache/torch_aot_compile/90537ea14f244a5187d6ecc853fbadcf440d710f29c8e182fe8151f3f7751a82/inductor_cache/5l/c5loz4g3mlm6zkb4qrnujncbf7g5ymhswkj3bgyao3jtiedkn5va.py":31:29)
#loc14 = loc("/home/ericbuehler/.cache/vllm/torch_compile_cache/torch_aot_compile/90537ea14f244a5187d6ecc853fbadcf440d710f29c8e182fe8151f3f7751a82/inductor_cache/5l/c5loz4g3mlm6zkb4qrnujncbf7g5ymhswkj3bgyao3jtiedkn5va.py":35:46)
#loc15 = loc("/home/ericbuehler/.cache/vllm/torch_compile_cache/torch_aot_compile/90537ea14f244a5187d6ecc853fbadcf440d710f29c8e182fe8151f3f7751a82/inductor_cache/5l/c5loz4g3mlm6zkb4qrnujncbf7g5ymhswkj3bgyao3jtiedkn5va.py":35:41)
#loc16 = loc("/home/ericbuehler/.cache/vllm/torch_compile_cache/torch_aot_compile/90537ea14f244a5187d6ecc853fbadcf440d710f29c8e182fe8151f3f7751a82/inductor_cache/5l/c5loz4g3mlm6zkb4qrnujncbf7g5ymhswkj3bgyao3jtiedkn5va.py":35:34)
#loc17 = loc("/home/ericbuehler/.cache/vllm/torch_compile_cache/torch_aot_compile/90537ea14f244a5187d6ecc853fbadcf440d710f29c8e182fe8151f3f7751a82/inductor_cache/5l/c5loz4g3mlm6zkb4qrnujncbf7g5ymhswkj3bgyao3jtiedkn5va.py":35:61)
#loc18 = loc("/home/ericbuehler/.cache/vllm/torch_compile_cache/torch_aot_compile/90537ea14f244a5187d6ecc853fbadcf440d710f29c8e182fe8151f3f7751a82/inductor_cache/5l/c5loz4g3mlm6zkb4qrnujncbf7g5ymhswkj3bgyao3jtiedkn5va.py":35:51)
#loc19 = loc("/home/ericbuehler/.cache/vllm/torch_compile_cache/torch_aot_compile/90537ea14f244a5187d6ecc853fbadcf440d710f29c8e182fe8151f3f7751a82/inductor_cache/5l/c5loz4g3mlm6zkb4qrnujncbf7g5ymhswkj3bgyao3jtiedkn5va.py":35:112)
#loc20 = loc("/home/ericbuehler/.cache/vllm/torch_compile_cache/torch_aot_compile/90537ea14f244a5187d6ecc853fbadcf440d710f29c8e182fe8151f3f7751a82/inductor_cache/5l/c5loz4g3mlm6zkb4qrnujncbf7g5ymhswkj3bgyao3jtiedkn5va.py":37:22)
#loc21 = loc("/home/ericbuehler/.cache/vllm/torch_compile_cache/torch_aot_compile/90537ea14f244a5187d6ecc853fbadcf440d710f29c8e182fe8151f3f7751a82/inductor_cache/5l/c5loz4g3mlm6zkb4qrnujncbf7g5ymhswkj3bgyao3jtiedkn5va.py":39:23)
#loc22 = loc("/home/ericbuehler/.cache/vllm/torch_compile_cache/torch_aot_compile/90537ea14f244a5187d6ecc853fbadcf440d710f29c8e182fe8151f3f7751a82/inductor_cache/5l/c5loz4g3mlm6zkb4qrnujncbf7g5ymhswkj3bgyao3jtiedkn5va.py":40:35)
#loc23 = loc("/home/ericbuehler/.cache/vllm/torch_compile_cache/torch_aot_compile/90537ea14f244a5187d6ecc853fbadcf440d710f29c8e182fe8151f3f7751a82/inductor_cache/5l/c5loz4g3mlm6zkb4qrnujncbf7g5ymhswkj3bgyao3jtiedkn5va.py":40:48)
#loc24 = loc("/home/ericbuehler/.cache/vllm/torch_compile_cache/torch_aot_compile/90537ea14f244a5187d6ecc853fbadcf440d710f29c8e182fe8151f3f7751a82/inductor_cache/5l/c5loz4g3mlm6zkb4qrnujncbf7g5ymhswkj3bgyao3jtiedkn5va.py":40:8)
#loc25 = loc("/home/ericbuehler/.cache/vllm/torch_compile_cache/torch_aot_compile/90537ea14f244a5187d6ecc853fbadcf440d710f29c8e182fe8151f3f7751a82/inductor_cache/5l/c5loz4g3mlm6zkb4qrnujncbf7g5ymhswkj3bgyao3jtiedkn5va.py":41:25)
#loc26 = loc("/home/ericbuehler/.cache/vllm/torch_compile_cache/torch_aot_compile/90537ea14f244a5187d6ecc853fbadcf440d710f29c8e182fe8151f3f7751a82/inductor_cache/5l/c5loz4g3mlm6zkb4qrnujncbf7g5ymhswkj3bgyao3jtiedkn5va.py":41:28)
#loc27 = loc("/home/ericbuehler/.cache/vllm/torch_compile_cache/torch_aot_compile/90537ea14f244a5187d6ecc853fbadcf440d710f29c8e182fe8151f3f7751a82/inductor_cache/5l/c5loz4g3mlm6zkb4qrnujncbf7g5ymhswkj3bgyao3jtiedkn5va.py":42:44)
#loc28 = loc("/home/ericbuehler/.cache/vllm/torch_compile_cache/torch_aot_compile/90537ea14f244a5187d6ecc853fbadcf440d710f29c8e182fe8151f3f7751a82/inductor_cache/5l/c5loz4g3mlm6zkb4qrnujncbf7g5ymhswkj3bgyao3jtiedkn5va.py":43:43)
#loc29 = loc("/home/ericbuehler/.cache/vllm/torch_compile_cache/torch_aot_compile/90537ea14f244a5187d6ecc853fbadcf440d710f29c8e182fe8151f3f7751a82/inductor_cache/5l/c5loz4g3mlm6zkb4qrnujncbf7g5ymhswkj3bgyao3jtiedkn5va.py":44:31)
#loc30 = loc("/home/ericbuehler/.cache/vllm/torch_compile_cache/torch_aot_compile/90537ea14f244a5187d6ecc853fbadcf440d710f29c8e182fe8151f3f7751a82/inductor_cache/5l/c5loz4g3mlm6zkb4qrnujncbf7g5ymhswkj3bgyao3jtiedkn5va.py":45:29)
#loc31 = loc("/home/ericbuehler/.cache/vllm/torch_compile_cache/torch_aot_compile/90537ea14f244a5187d6ecc853fbadcf440d710f29c8e182fe8151f3f7751a82/inductor_cache/5l/c5loz4g3mlm6zkb4qrnujncbf7g5ymhswkj3bgyao3jtiedkn5va.py":49:46)
#loc32 = loc("/home/ericbuehler/.cache/vllm/torch_compile_cache/torch_aot_compile/90537ea14f244a5187d6ecc853fbadcf440d710f29c8e182fe8151f3f7751a82/inductor_cache/5l/c5loz4g3mlm6zkb4qrnujncbf7g5ymhswkj3bgyao3jtiedkn5va.py":49:41)
#loc33 = loc("/home/ericbuehler/.cache/vllm/torch_compile_cache/torch_aot_compile/90537ea14f244a5187d6ecc853fbadcf440d710f29c8e182fe8151f3f7751a82/inductor_cache/5l/c5loz4g3mlm6zkb4qrnujncbf7g5ymhswkj3bgyao3jtiedkn5va.py":49:34)
#loc34 = loc("/home/ericbuehler/.cache/vllm/torch_compile_cache/torch_aot_compile/90537ea14f244a5187d6ecc853fbadcf440d710f29c8e182fe8151f3f7751a82/inductor_cache/5l/c5loz4g3mlm6zkb4qrnujncbf7g5ymhswkj3bgyao3jtiedkn5va.py":49:61)
#loc35 = loc("/home/ericbuehler/.cache/vllm/torch_compile_cache/torch_aot_compile/90537ea14f244a5187d6ecc853fbadcf440d710f29c8e182fe8151f3f7751a82/inductor_cache/5l/c5loz4g3mlm6zkb4qrnujncbf7g5ymhswkj3bgyao3jtiedkn5va.py":49:51)
#loc36 = loc("/home/ericbuehler/.cache/vllm/torch_compile_cache/torch_aot_compile/90537ea14f244a5187d6ecc853fbadcf440d710f29c8e182fe8151f3f7751a82/inductor_cache/5l/c5loz4g3mlm6zkb4qrnujncbf7g5ymhswkj3bgyao3jtiedkn5va.py":49:112)
#loc37 = loc("/home/ericbuehler/.cache/vllm/torch_compile_cache/torch_aot_compile/90537ea14f244a5187d6ecc853fbadcf440d710f29c8e182fe8151f3f7751a82/inductor_cache/5l/c5loz4g3mlm6zkb4qrnujncbf7g5ymhswkj3bgyao3jtiedkn5va.py":51:22)
#loc38 = loc("/home/ericbuehler/.cache/vllm/torch_compile_cache/torch_aot_compile/90537ea14f244a5187d6ecc853fbadcf440d710f29c8e182fe8151f3f7751a82/inductor_cache/5l/c5loz4g3mlm6zkb4qrnujncbf7g5ymhswkj3bgyao3jtiedkn5va.py":53:25)
#loc39 = loc("/home/ericbuehler/.cache/vllm/torch_compile_cache/torch_aot_compile/90537ea14f244a5187d6ecc853fbadcf440d710f29c8e182fe8151f3f7751a82/inductor_cache/5l/c5loz4g3mlm6zkb4qrnujncbf7g5ymhswkj3bgyao3jtiedkn5va.py":54:36)
#loc40 = loc("/home/ericbuehler/.cache/vllm/torch_compile_cache/torch_aot_compile/90537ea14f244a5187d6ecc853fbadcf440d710f29c8e182fe8151f3f7751a82/inductor_cache/5l/c5loz4g3mlm6zkb4qrnujncbf7g5ymhswkj3bgyao3jtiedkn5va.py":54:50)
#loc41 = loc("/home/ericbuehler/.cache/vllm/torch_compile_cache/torch_aot_compile/90537ea14f244a5187d6ecc853fbadcf440d710f29c8e182fe8151f3f7751a82/inductor_cache/5l/c5loz4g3mlm6zkb4qrnujncbf7g5ymhswkj3bgyao3jtiedkn5va.py":54:8)
#loc42 = loc("/home/ericbuehler/.cache/vllm/torch_compile_cache/torch_aot_compile/90537ea14f244a5187d6ecc853fbadcf440d710f29c8e182fe8151f3f7751a82/inductor_cache/5l/c5loz4g3mlm6zkb4qrnujncbf7g5ymhswkj3bgyao3jtiedkn5va.py":55:27)
#loc43 = loc("/home/ericbuehler/.cache/vllm/torch_compile_cache/torch_aot_compile/90537ea14f244a5187d6ecc853fbadcf440d710f29c8e182fe8151f3f7751a82/inductor_cache/5l/c5loz4g3mlm6zkb4qrnujncbf7g5ymhswkj3bgyao3jtiedkn5va.py":55:30)
#loc44 = loc("/home/ericbuehler/.cache/vllm/torch_compile_cache/torch_aot_compile/90537ea14f244a5187d6ecc853fbadcf440d710f29c8e182fe8151f3f7751a82/inductor_cache/5l/c5loz4g3mlm6zkb4qrnujncbf7g5ymhswkj3bgyao3jtiedkn5va.py":56:44)
#loc45 = loc("/home/ericbuehler/.cache/vllm/torch_compile_cache/torch_aot_compile/90537ea14f244a5187d6ecc853fbadcf440d710f29c8e182fe8151f3f7751a82/inductor_cache/5l/c5loz4g3mlm6zkb4qrnujncbf7g5ymhswkj3bgyao3jtiedkn5va.py":57:43)
#loc46 = loc("/home/ericbuehler/.cache/vllm/torch_compile_cache/torch_aot_compile/90537ea14f244a5187d6ecc853fbadcf440d710f29c8e182fe8151f3f7751a82/inductor_cache/5l/c5loz4g3mlm6zkb4qrnujncbf7g5ymhswkj3bgyao3jtiedkn5va.py":58:31)
#loc47 = loc("/home/ericbuehler/.cache/vllm/torch_compile_cache/torch_aot_compile/90537ea14f244a5187d6ecc853fbadcf440d710f29c8e182fe8151f3f7751a82/inductor_cache/5l/c5loz4g3mlm6zkb4qrnujncbf7g5ymhswkj3bgyao3jtiedkn5va.py":59:29)
#loc48 = loc("/home/ericbuehler/.cache/vllm/torch_compile_cache/torch_aot_compile/90537ea14f244a5187d6ecc853fbadcf440d710f29c8e182fe8151f3f7751a82/inductor_cache/5l/c5loz4g3mlm6zkb4qrnujncbf7g5ymhswkj3bgyao3jtiedkn5va.py":63:47)
#loc49 = loc("/home/ericbuehler/.cache/vllm/torch_compile_cache/torch_aot_compile/90537ea14f244a5187d6ecc853fbadcf440d710f29c8e182fe8151f3f7751a82/inductor_cache/5l/c5loz4g3mlm6zkb4qrnujncbf7g5ymhswkj3bgyao3jtiedkn5va.py":63:42)
#loc50 = loc("/home/ericbuehler/.cache/vllm/torch_compile_cache/torch_aot_compile/90537ea14f244a5187d6ecc853fbadcf440d710f29c8e182fe8151f3f7751a82/inductor_cache/5l/c5loz4g3mlm6zkb4qrnujncbf7g5ymhswkj3bgyao3jtiedkn5va.py":63:35)
#loc51 = loc("/home/ericbuehler/.cache/vllm/torch_compile_cache/torch_aot_compile/90537ea14f244a5187d6ecc853fbadcf440d710f29c8e182fe8151f3f7751a82/inductor_cache/5l/c5loz4g3mlm6zkb4qrnujncbf7g5ymhswkj3bgyao3jtiedkn5va.py":63:62)
#loc52 = loc("/home/ericbuehler/.cache/vllm/torch_compile_cache/torch_aot_compile/90537ea14f244a5187d6ecc853fbadcf440d710f29c8e182fe8151f3f7751a82/inductor_cache/5l/c5loz4g3mlm6zkb4qrnujncbf7g5ymhswkj3bgyao3jtiedkn5va.py":63:52)
#loc53 = loc("/home/ericbuehler/.cache/vllm/torch_compile_cache/torch_aot_compile/90537ea14f244a5187d6ecc853fbadcf440d710f29c8e182fe8151f3f7751a82/inductor_cache/5l/c5loz4g3mlm6zkb4qrnujncbf7g5ymhswkj3bgyao3jtiedkn5va.py":63:114)
#loc54 = loc("/home/ericbuehler/.cache/vllm/torch_compile_cache/torch_aot_compile/90537ea14f244a5187d6ecc853fbadcf440d710f29c8e182fe8151f3f7751a82/inductor_cache/5l/c5loz4g3mlm6zkb4qrnujncbf7g5ymhswkj3bgyao3jtiedkn5va.py":64:35)
#loc55 = loc("/home/ericbuehler/.cache/vllm/torch_compile_cache/torch_aot_compile/90537ea14f244a5187d6ecc853fbadcf440d710f29c8e182fe8151f3f7751a82/inductor_cache/5l/c5loz4g3mlm6zkb4qrnujncbf7g5ymhswkj3bgyao3jtiedkn5va.py":64:42)
#loc56 = loc("/home/ericbuehler/.cache/vllm/torch_compile_cache/torch_aot_compile/90537ea14f244a5187d6ecc853fbadcf440d710f29c8e182fe8151f3f7751a82/inductor_cache/5l/c5loz4g3mlm6zkb4qrnujncbf7g5ymhswkj3bgyao3jtiedkn5va.py":64:95)
#loc57 = loc("/home/ericbuehler/.cache/vllm/torch_compile_cache/torch_aot_compile/90537ea14f244a5187d6ecc853fbadcf440d710f29c8e182fe8151f3f7751a82/inductor_cache/5l/c5loz4g3mlm6zkb4qrnujncbf7g5ymhswkj3bgyao3jtiedkn5va.py":65:47)
#loc58 = loc("/home/ericbuehler/.cache/vllm/torch_compile_cache/torch_aot_compile/90537ea14f244a5187d6ecc853fbadcf440d710f29c8e182fe8151f3f7751a82/inductor_cache/5l/c5loz4g3mlm6zkb4qrnujncbf7g5ymhswkj3bgyao3jtiedkn5va.py":65:42)
#loc59 = loc("/home/ericbuehler/.cache/vllm/torch_compile_cache/torch_aot_compile/90537ea14f244a5187d6ecc853fbadcf440d710f29c8e182fe8151f3f7751a82/inductor_cache/5l/c5loz4g3mlm6zkb4qrnujncbf7g5ymhswkj3bgyao3jtiedkn5va.py":65:35)
#loc60 = loc("/home/ericbuehler/.cache/vllm/torch_compile_cache/torch_aot_compile/90537ea14f244a5187d6ecc853fbadcf440d710f29c8e182fe8151f3f7751a82/inductor_cache/5l/c5loz4g3mlm6zkb4qrnujncbf7g5ymhswkj3bgyao3jtiedkn5va.py":65:62)
#loc61 = loc("/home/ericbuehler/.cache/vllm/torch_compile_cache/torch_aot_compile/90537ea14f244a5187d6ecc853fbadcf440d710f29c8e182fe8151f3f7751a82/inductor_cache/5l/c5loz4g3mlm6zkb4qrnujncbf7g5ymhswkj3bgyao3jtiedkn5va.py":65:52)
#loc62 = loc("/home/ericbuehler/.cache/vllm/torch_compile_cache/torch_aot_compile/90537ea14f244a5187d6ecc853fbadcf440d710f29c8e182fe8151f3f7751a82/inductor_cache/5l/c5loz4g3mlm6zkb4qrnujncbf7g5ymhswkj3bgyao3jtiedkn5va.py":65:114)
#loc63 = loc("/home/ericbuehler/.cache/vllm/torch_compile_cache/torch_aot_compile/90537ea14f244a5187d6ecc853fbadcf440d710f29c8e182fe8151f3f7751a82/inductor_cache/5l/c5loz4g3mlm6zkb4qrnujncbf7g5ymhswkj3bgyao3jtiedkn5va.py":66:35)
#loc64 = loc("/home/ericbuehler/.cache/vllm/torch_compile_cache/torch_aot_compile/90537ea14f244a5187d6ecc853fbadcf440d710f29c8e182fe8151f3f7751a82/inductor_cache/5l/c5loz4g3mlm6zkb4qrnujncbf7g5ymhswkj3bgyao3jtiedkn5va.py":66:42)
#loc65 = loc("/home/ericbuehler/.cache/vllm/torch_compile_cache/torch_aot_compile/90537ea14f244a5187d6ecc853fbadcf440d710f29c8e182fe8151f3f7751a82/inductor_cache/5l/c5loz4g3mlm6zkb4qrnujncbf7g5ymhswkj3bgyao3jtiedkn5va.py":66:95)
#loc66 = loc("/home/ericbuehler/.cache/vllm/torch_compile_cache/torch_aot_compile/90537ea14f244a5187d6ecc853fbadcf440d710f29c8e182fe8151f3f7751a82/inductor_cache/5l/c5loz4g3mlm6zkb4qrnujncbf7g5ymhswkj3bgyao3jtiedkn5va.py":68:40)
#loc67 = loc("/home/ericbuehler/.cache/vllm/torch_compile_cache/torch_aot_compile/90537ea14f244a5187d6ecc853fbadcf440d710f29c8e182fe8151f3f7751a82/inductor_cache/5l/c5loz4g3mlm6zkb4qrnujncbf7g5ymhswkj3bgyao3jtiedkn5va.py":69:24)
#loc68 = loc("/home/ericbuehler/.cache/vllm/torch_compile_cache/torch_aot_compile/90537ea14f244a5187d6ecc853fbadcf440d710f29c8e182fe8151f3f7751a82/inductor_cache/5l/c5loz4g3mlm6zkb4qrnujncbf7g5ymhswkj3bgyao3jtiedkn5va.py":70:39)
#loc69 = loc("/home/ericbuehler/.cache/vllm/torch_compile_cache/torch_aot_compile/90537ea14f244a5187d6ecc853fbadcf440d710f29c8e182fe8151f3f7751a82/inductor_cache/5l/c5loz4g3mlm6zkb4qrnujncbf7g5ymhswkj3bgyao3jtiedkn5va.py":71:24)
#loc70 = loc("/home/ericbuehler/.cache/vllm/torch_compile_cache/torch_aot_compile/90537ea14f244a5187d6ecc853fbadcf440d710f29c8e182fe8151f3f7751a82/inductor_cache/5l/c5loz4g3mlm6zkb4qrnujncbf7g5ymhswkj3bgyao3jtiedkn5va.py":72:32)
#loc71 = loc("/home/ericbuehler/.cache/vllm/torch_compile_cache/torch_aot_compile/90537ea14f244a5187d6ecc853fbadcf440d710f29c8e182fe8151f3f7751a82/inductor_cache/5l/c5loz4g3mlm6zkb4qrnujncbf7g5ymhswkj3bgyao3jtiedkn5va.py":73:24)
#loc72 = loc("/home/ericbuehler/.cache/vllm/torch_compile_cache/torch_aot_compile/90537ea14f244a5187d6ecc853fbadcf440d710f29c8e182fe8151f3f7751a82/inductor_cache/5l/c5loz4g3mlm6zkb4qrnujncbf7g5ymhswkj3bgyao3jtiedkn5va.py":75:24)
#loc73 = loc("/home/ericbuehler/.cache/vllm/torch_compile_cache/torch_aot_compile/90537ea14f244a5187d6ecc853fbadcf440d710f29c8e182fe8151f3f7751a82/inductor_cache/5l/c5loz4g3mlm6zkb4qrnujncbf7g5ymhswkj3bgyao3jtiedkn5va.py":77:25)
#loc74 = loc("/home/ericbuehler/.cache/vllm/torch_compile_cache/torch_aot_compile/90537ea14f244a5187d6ecc853fbadcf440d710f29c8e182fe8151f3f7751a82/inductor_cache/5l/c5loz4g3mlm6zkb4qrnujncbf7g5ymhswkj3bgyao3jtiedkn5va.py":78:24)
#loc75 = loc("/home/ericbuehler/.cache/vllm/torch_compile_cache/torch_aot_compile/90537ea14f244a5187d6ecc853fbadcf440d710f29c8e182fe8151f3f7751a82/inductor_cache/5l/c5loz4g3mlm6zkb4qrnujncbf7g5ymhswkj3bgyao3jtiedkn5va.py":79:32)
#loc76 = loc("/home/ericbuehler/.cache/vllm/torch_compile_cache/torch_aot_compile/90537ea14f244a5187d6ecc853fbadcf440d710f29c8e182fe8151f3f7751a82/inductor_cache/5l/c5loz4g3mlm6zkb4qrnujncbf7g5ymhswkj3bgyao3jtiedkn5va.py":80:24)
#loc77 = loc("/home/ericbuehler/.cache/vllm/torch_compile_cache/torch_aot_compile/90537ea14f244a5187d6ecc853fbadcf440d710f29c8e182fe8151f3f7751a82/inductor_cache/5l/c5loz4g3mlm6zkb4qrnujncbf7g5ymhswkj3bgyao3jtiedkn5va.py":82:24)
#loc78 = loc("/home/ericbuehler/.cache/vllm/torch_compile_cache/torch_aot_compile/90537ea14f244a5187d6ecc853fbadcf440d710f29c8e182fe8151f3f7751a82/inductor_cache/5l/c5loz4g3mlm6zkb4qrnujncbf7g5ymhswkj3bgyao3jtiedkn5va.py":83:24)
#loc79 = loc("/home/ericbuehler/.cache/vllm/torch_compile_cache/torch_aot_compile/90537ea14f244a5187d6ecc853fbadcf440d710f29c8e182fe8151f3f7751a82/inductor_cache/5l/c5loz4g3mlm6zkb4qrnujncbf7g5ymhswkj3bgyao3jtiedkn5va.py":85:24)
#loc80 = loc("/home/ericbuehler/.cache/vllm/torch_compile_cache/torch_aot_compile/90537ea14f244a5187d6ecc853fbadcf440d710f29c8e182fe8151f3f7751a82/inductor_cache/5l/c5loz4g3mlm6zkb4qrnujncbf7g5ymhswkj3bgyao3jtiedkn5va.py":87:25)
#loc81 = loc("/home/ericbuehler/.cache/vllm/torch_compile_cache/torch_aot_compile/90537ea14f244a5187d6ecc853fbadcf440d710f29c8e182fe8151f3f7751a82/inductor_cache/5l/c5loz4g3mlm6zkb4qrnujncbf7g5ymhswkj3bgyao3jtiedkn5va.py":88:36)
#loc82 = loc("/home/ericbuehler/.cache/vllm/torch_compile_cache/torch_aot_compile/90537ea14f244a5187d6ecc853fbadcf440d710f29c8e182fe8151f3f7751a82/inductor_cache/5l/c5loz4g3mlm6zkb4qrnujncbf7g5ymhswkj3bgyao3jtiedkn5va.py":88:50)
#loc83 = loc("/home/ericbuehler/.cache/vllm/torch_compile_cache/torch_aot_compile/90537ea14f244a5187d6ecc853fbadcf440d710f29c8e182fe8151f3f7751a82/inductor_cache/5l/c5loz4g3mlm6zkb4qrnujncbf7g5ymhswkj3bgyao3jtiedkn5va.py":89:41)
#loc84 = loc("/home/ericbuehler/.cache/vllm/torch_compile_cache/torch_aot_compile/90537ea14f244a5187d6ecc853fbadcf440d710f29c8e182fe8151f3f7751a82/inductor_cache/5l/c5loz4g3mlm6zkb4qrnujncbf7g5ymhswkj3bgyao3jtiedkn5va.py":89:36)
#loc85 = loc("/home/ericbuehler/.cache/vllm/torch_compile_cache/torch_aot_compile/90537ea14f244a5187d6ecc853fbadcf440d710f29c8e182fe8151f3f7751a82/inductor_cache/5l/c5loz4g3mlm6zkb4qrnujncbf7g5ymhswkj3bgyao3jtiedkn5va.py":89:29)
#loc86 = loc("/home/ericbuehler/.cache/vllm/torch_compile_cache/torch_aot_compile/90537ea14f244a5187d6ecc853fbadcf440d710f29c8e182fe8151f3f7751a82/inductor_cache/5l/c5loz4g3mlm6zkb4qrnujncbf7g5ymhswkj3bgyao3jtiedkn5va.py":89:63)
#loc87 = loc("/home/ericbuehler/.cache/vllm/torch_compile_cache/torch_aot_compile/90537ea14f244a5187d6ecc853fbadcf440d710f29c8e182fe8151f3f7751a82/inductor_cache/5l/c5loz4g3mlm6zkb4qrnujncbf7g5ymhswkj3bgyao3jtiedkn5va.py":89:53)
#loc88 = loc("/home/ericbuehler/.cache/vllm/torch_compile_cache/torch_aot_compile/90537ea14f244a5187d6ecc853fbadcf440d710f29c8e182fe8151f3f7751a82/inductor_cache/5l/c5loz4g3mlm6zkb4qrnujncbf7g5ymhswkj3bgyao3jtiedkn5va.py":89:8)
#loc89 = loc("/home/ericbuehler/.cache/vllm/torch_compile_cache/torch_aot_compile/90537ea14f244a5187d6ecc853fbadcf440d710f29c8e182fe8151f3f7751a82/inductor_cache/5l/c5loz4g3mlm6zkb4qrnujncbf7g5ymhswkj3bgyao3jtiedkn5va.py":90:27)
#loc90 = loc("/home/ericbuehler/.cache/vllm/torch_compile_cache/torch_aot_compile/90537ea14f244a5187d6ecc853fbadcf440d710f29c8e182fe8151f3f7751a82/inductor_cache/5l/c5loz4g3mlm6zkb4qrnujncbf7g5ymhswkj3bgyao3jtiedkn5va.py":90:30)
#loc91 = loc("/home/ericbuehler/.cache/vllm/torch_compile_cache/torch_aot_compile/90537ea14f244a5187d6ecc853fbadcf440d710f29c8e182fe8151f3f7751a82/inductor_cache/5l/c5loz4g3mlm6zkb4qrnujncbf7g5ymhswkj3bgyao3jtiedkn5va.py":91:31)
#loc92 = loc("/home/ericbuehler/.cache/vllm/torch_compile_cache/torch_aot_compile/90537ea14f244a5187d6ecc853fbadcf440d710f29c8e182fe8151f3f7751a82/inductor_cache/5l/c5loz4g3mlm6zkb4qrnujncbf7g5ymhswkj3bgyao3jtiedkn5va.py":91:36)
#loc93 = loc("/home/ericbuehler/.cache/vllm/torch_compile_cache/torch_aot_compile/90537ea14f244a5187d6ecc853fbadcf440d710f29c8e182fe8151f3f7751a82/inductor_cache/5l/c5loz4g3mlm6zkb4qrnujncbf7g5ymhswkj3bgyao3jtiedkn5va.py":92:31)
#loc94 = loc("/home/ericbuehler/.cache/vllm/torch_compile_cache/torch_aot_compile/90537ea14f244a5187d6ecc853fbadcf440d710f29c8e182fe8151f3f7751a82/inductor_cache/5l/c5loz4g3mlm6zkb4qrnujncbf7g5ymhswkj3bgyao3jtiedkn5va.py":92:20)
#loc95 = loc("/home/ericbuehler/.cache/vllm/torch_compile_cache/torch_aot_compile/90537ea14f244a5187d6ecc853fbadcf440d710f29c8e182fe8151f3f7751a82/inductor_cache/5l/c5loz4g3mlm6zkb4qrnujncbf7g5ymhswkj3bgyao3jtiedkn5va.py":92:38)
#loc96 = loc("/home/ericbuehler/.cache/vllm/torch_compile_cache/torch_aot_compile/90537ea14f244a5187d6ecc853fbadcf440d710f29c8e182fe8151f3f7751a82/inductor_cache/5l/c5loz4g3mlm6zkb4qrnujncbf7g5ymhswkj3bgyao3jtiedkn5va.py":93:35)
#loc97 = loc("/home/ericbuehler/.cache/vllm/torch_compile_cache/torch_aot_compile/90537ea14f244a5187d6ecc853fbadcf440d710f29c8e182fe8151f3f7751a82/inductor_cache/5l/c5loz4g3mlm6zkb4qrnujncbf7g5ymhswkj3bgyao3jtiedkn5va.py":94:44)
#loc98 = loc("/home/ericbuehler/.cache/vllm/torch_compile_cache/torch_aot_compile/90537ea14f244a5187d6ecc853fbadcf440d710f29c8e182fe8151f3f7751a82/inductor_cache/5l/c5loz4g3mlm6zkb4qrnujncbf7g5ymhswkj3bgyao3jtiedkn5va.py":95:43)
#loc99 = loc("/home/ericbuehler/.cache/vllm/torch_compile_cache/torch_aot_compile/90537ea14f244a5187d6ecc853fbadcf440d710f29c8e182fe8151f3f7751a82/inductor_cache/5l/c5loz4g3mlm6zkb4qrnujncbf7g5ymhswkj3bgyao3jtiedkn5va.py":96:31)
#loc100 = loc("/home/ericbuehler/.cache/vllm/torch_compile_cache/torch_aot_compile/90537ea14f244a5187d6ecc853fbadcf440d710f29c8e182fe8151f3f7751a82/inductor_cache/5l/c5loz4g3mlm6zkb4qrnujncbf7g5ymhswkj3bgyao3jtiedkn5va.py":97:29)
#loc101 = loc("/home/ericbuehler/.cache/vllm/torch_compile_cache/torch_aot_compile/90537ea14f244a5187d6ecc853fbadcf440d710f29c8e182fe8151f3f7751a82/inductor_cache/5l/c5loz4g3mlm6zkb4qrnujncbf7g5ymhswkj3bgyao3jtiedkn5va.py":101:48)
#loc102 = loc("/home/ericbuehler/.cache/vllm/torch_compile_cache/torch_aot_compile/90537ea14f244a5187d6ecc853fbadcf440d710f29c8e182fe8151f3f7751a82/inductor_cache/5l/c5loz4g3mlm6zkb4qrnujncbf7g5ymhswkj3bgyao3jtiedkn5va.py":101:43)
#loc103 = loc("/home/ericbuehler/.cache/vllm/torch_compile_cache/torch_aot_compile/90537ea14f244a5187d6ecc853fbadcf440d710f29c8e182fe8151f3f7751a82/inductor_cache/5l/c5loz4g3mlm6zkb4qrnujncbf7g5ymhswkj3bgyao3jtiedkn5va.py":101:36)
#loc104 = loc("/home/ericbuehler/.cache/vllm/torch_compile_cache/torch_aot_compile/90537ea14f244a5187d6ecc853fbadcf440d710f29c8e182fe8151f3f7751a82/inductor_cache/5l/c5loz4g3mlm6zkb4qrnujncbf7g5ymhswkj3bgyao3jtiedkn5va.py":101:63)
#loc105 = loc("/home/ericbuehler/.cache/vllm/torch_compile_cache/torch_aot_compile/90537ea14f244a5187d6ecc853fbadcf440d710f29c8e182fe8151f3f7751a82/inductor_cache/5l/c5loz4g3mlm6zkb4qrnujncbf7g5ymhswkj3bgyao3jtiedkn5va.py":101:53)
#loc106 = loc("/home/ericbuehler/.cache/vllm/torch_compile_cache/torch_aot_compile/90537ea14f244a5187d6ecc853fbadcf440d710f29c8e182fe8151f3f7751a82/inductor_cache/5l/c5loz4g3mlm6zkb4qrnujncbf7g5ymhswkj3bgyao3jtiedkn5va.py":102:35)
#loc107 = loc("/home/ericbuehler/.cache/vllm/torch_compile_cache/torch_aot_compile/90537ea14f244a5187d6ecc853fbadcf440d710f29c8e182fe8151f3f7751a82/inductor_cache/5l/c5loz4g3mlm6zkb4qrnujncbf7g5ymhswkj3bgyao3jtiedkn5va.py":102:42)
#loc108 = loc("/home/ericbuehler/.cache/vllm/torch_compile_cache/torch_aot_compile/90537ea14f244a5187d6ecc853fbadcf440d710f29c8e182fe8151f3f7751a82/inductor_cache/5l/c5loz4g3mlm6zkb4qrnujncbf7g5ymhswkj3bgyao3jtiedkn5va.py":102:95)
#loc109 = loc("/home/ericbuehler/.cache/vllm/torch_compile_cache/torch_aot_compile/90537ea14f244a5187d6ecc853fbadcf440d710f29c8e182fe8151f3f7751a82/inductor_cache/5l/c5loz4g3mlm6zkb4qrnujncbf7g5ymhswkj3bgyao3jtiedkn5va.py":103:51)
#loc110 = loc("/home/ericbuehler/.cache/vllm/torch_compile_cache/torch_aot_compile/90537ea14f244a5187d6ecc853fbadcf440d710f29c8e182fe8151f3f7751a82/inductor_cache/5l/c5loz4g3mlm6zkb4qrnujncbf7g5ymhswkj3bgyao3jtiedkn5va.py":103:46)
#loc111 = loc("/home/ericbuehler/.cache/vllm/torch_compile_cache/torch_aot_compile/90537ea14f244a5187d6ecc853fbadcf440d710f29c8e182fe8151f3f7751a82/inductor_cache/5l/c5loz4g3mlm6zkb4qrnujncbf7g5ymhswkj3bgyao3jtiedkn5va.py":103:39)
#loc112 = loc("/home/ericbuehler/.cache/vllm/torch_compile_cache/torch_aot_compile/90537ea14f244a5187d6ecc853fbadcf440d710f29c8e182fe8151f3f7751a82/inductor_cache/5l/c5loz4g3mlm6zkb4qrnujncbf7g5ymhswkj3bgyao3jtiedkn5va.py":103:66)
#loc113 = loc("/home/ericbuehler/.cache/vllm/torch_compile_cache/torch_aot_compile/90537ea14f244a5187d6ecc853fbadcf440d710f29c8e182fe8151f3f7751a82/inductor_cache/5l/c5loz4g3mlm6zkb4qrnujncbf7g5ymhswkj3bgyao3jtiedkn5va.py":103:56)
#loc114 = loc("/home/ericbuehler/.cache/vllm/torch_compile_cache/torch_aot_compile/90537ea14f244a5187d6ecc853fbadcf440d710f29c8e182fe8151f3f7751a82/inductor_cache/5l/c5loz4g3mlm6zkb4qrnujncbf7g5ymhswkj3bgyao3jtiedkn5va.py":103:118)
#loc115 = loc("/home/ericbuehler/.cache/vllm/torch_compile_cache/torch_aot_compile/90537ea14f244a5187d6ecc853fbadcf440d710f29c8e182fe8151f3f7751a82/inductor_cache/5l/c5loz4g3mlm6zkb4qrnujncbf7g5ymhswkj3bgyao3jtiedkn5va.py":104:35)
#loc116 = loc("/home/ericbuehler/.cache/vllm/torch_compile_cache/torch_aot_compile/90537ea14f244a5187d6ecc853fbadcf440d710f29c8e182fe8151f3f7751a82/inductor_cache/5l/c5loz4g3mlm6zkb4qrnujncbf7g5ymhswkj3bgyao3jtiedkn5va.py":104:42)
#loc117 = loc("/home/ericbuehler/.cache/vllm/torch_compile_cache/torch_aot_compile/90537ea14f244a5187d6ecc853fbadcf440d710f29c8e182fe8151f3f7751a82/inductor_cache/5l/c5loz4g3mlm6zkb4qrnujncbf7g5ymhswkj3bgyao3jtiedkn5va.py":104:95)
#loc118 = loc("/home/ericbuehler/.cache/vllm/torch_compile_cache/torch_aot_compile/90537ea14f244a5187d6ecc853fbadcf440d710f29c8e182fe8151f3f7751a82/inductor_cache/5l/c5loz4g3mlm6zkb4qrnujncbf7g5ymhswkj3bgyao3jtiedkn5va.py":105:47)
#loc119 = loc("/home/ericbuehler/.cache/vllm/torch_compile_cache/torch_aot_compile/90537ea14f244a5187d6ecc853fbadcf440d710f29c8e182fe8151f3f7751a82/inductor_cache/5l/c5loz4g3mlm6zkb4qrnujncbf7g5ymhswkj3bgyao3jtiedkn5va.py":105:42)
#loc120 = loc("/home/ericbuehler/.cache/vllm/torch_compile_cache/torch_aot_compile/90537ea14f244a5187d6ecc853fbadcf440d710f29c8e182fe8151f3f7751a82/inductor_cache/5l/c5loz4g3mlm6zkb4qrnujncbf7g5ymhswkj3bgyao3jtiedkn5va.py":105:35)
#loc121 = loc("/home/ericbuehler/.cache/vllm/torch_compile_cache/torch_aot_compile/90537ea14f244a5187d6ecc853fbadcf440d710f29c8e182fe8151f3f7751a82/inductor_cache/5l/c5loz4g3mlm6zkb4qrnujncbf7g5ymhswkj3bgyao3jtiedkn5va.py":105:62)
#loc122 = loc("/home/ericbuehler/.cache/vllm/torch_compile_cache/torch_aot_compile/90537ea14f244a5187d6ecc853fbadcf440d710f29c8e182fe8151f3f7751a82/inductor_cache/5l/c5loz4g3mlm6zkb4qrnujncbf7g5ymhswkj3bgyao3jtiedkn5va.py":105:52)
#loc123 = loc("/home/ericbuehler/.cache/vllm/torch_compile_cache/torch_aot_compile/90537ea14f244a5187d6ecc853fbadcf440d710f29c8e182fe8151f3f7751a82/inductor_cache/5l/c5loz4g3mlm6zkb4qrnujncbf7g5ymhswkj3bgyao3jtiedkn5va.py":105:114)
#loc124 = loc("/home/ericbuehler/.cache/vllm/torch_compile_cache/torch_aot_compile/90537ea14f244a5187d6ecc853fbadcf440d710f29c8e182fe8151f3f7751a82/inductor_cache/5l/c5loz4g3mlm6zkb4qrnujncbf7g5ymhswkj3bgyao3jtiedkn5va.py":106:40)
#loc125 = loc("/home/ericbuehler/.cache/vllm/torch_compile_cache/torch_aot_compile/90537ea14f244a5187d6ecc853fbadcf440d710f29c8e182fe8151f3f7751a82/inductor_cache/5l/c5loz4g3mlm6zkb4qrnujncbf7g5ymhswkj3bgyao3jtiedkn5va.py":107:25)
#loc126 = loc("/home/ericbuehler/.cache/vllm/torch_compile_cache/torch_aot_compile/90537ea14f244a5187d6ecc853fbadcf440d710f29c8e182fe8151f3f7751a82/inductor_cache/5l/c5loz4g3mlm6zkb4qrnujncbf7g5ymhswkj3bgyao3jtiedkn5va.py":108:39)
#loc127 = loc("/home/ericbuehler/.cache/vllm/torch_compile_cache/torch_aot_compile/90537ea14f244a5187d6ecc853fbadcf440d710f29c8e182fe8151f3f7751a82/inductor_cache/5l/c5loz4g3mlm6zkb4qrnujncbf7g5ymhswkj3bgyao3jtiedkn5va.py":109:24)
#loc128 = loc("/home/ericbuehler/.cache/vllm/torch_compile_cache/torch_aot_compile/90537ea14f244a5187d6ecc853fbadcf440d710f29c8e182fe8151f3f7751a82/inductor_cache/5l/c5loz4g3mlm6zkb4qrnujncbf7g5ymhswkj3bgyao3jtiedkn5va.py":110:32)
#loc129 = loc("/home/ericbuehler/.cache/vllm/torch_compile_cache/torch_aot_compile/90537ea14f244a5187d6ecc853fbadcf440d710f29c8e182fe8151f3f7751a82/inductor_cache/5l/c5loz4g3mlm6zkb4qrnujncbf7g5ymhswkj3bgyao3jtiedkn5va.py":111:24)
#loc130 = loc("/home/ericbuehler/.cache/vllm/torch_compile_cache/torch_aot_compile/90537ea14f244a5187d6ecc853fbadcf440d710f29c8e182fe8151f3f7751a82/inductor_cache/5l/c5loz4g3mlm6zkb4qrnujncbf7g5ymhswkj3bgyao3jtiedkn5va.py":113:24)
#loc131 = loc("/home/ericbuehler/.cache/vllm/torch_compile_cache/torch_aot_compile/90537ea14f244a5187d6ecc853fbadcf440d710f29c8e182fe8151f3f7751a82/inductor_cache/5l/c5loz4g3mlm6zkb4qrnujncbf7g5ymhswkj3bgyao3jtiedkn5va.py":115:25)
#loc132 = loc("/home/ericbuehler/.cache/vllm/torch_compile_cache/torch_aot_compile/90537ea14f244a5187d6ecc853fbadcf440d710f29c8e182fe8151f3f7751a82/inductor_cache/5l/c5loz4g3mlm6zkb4qrnujncbf7g5ymhswkj3bgyao3jtiedkn5va.py":116:24)
#loc133 = loc("/home/ericbuehler/.cache/vllm/torch_compile_cache/torch_aot_compile/90537ea14f244a5187d6ecc853fbadcf440d710f29c8e182fe8151f3f7751a82/inductor_cache/5l/c5loz4g3mlm6zkb4qrnujncbf7g5ymhswkj3bgyao3jtiedkn5va.py":117:32)
#loc134 = loc("/home/ericbuehler/.cache/vllm/torch_compile_cache/torch_aot_compile/90537ea14f244a5187d6ecc853fbadcf440d710f29c8e182fe8151f3f7751a82/inductor_cache/5l/c5loz4g3mlm6zkb4qrnujncbf7g5ymhswkj3bgyao3jtiedkn5va.py":118:24)
#loc135 = loc("/home/ericbuehler/.cache/vllm/torch_compile_cache/torch_aot_compile/90537ea14f244a5187d6ecc853fbadcf440d710f29c8e182fe8151f3f7751a82/inductor_cache/5l/c5loz4g3mlm6zkb4qrnujncbf7g5ymhswkj3bgyao3jtiedkn5va.py":120:24)
#loc136 = loc("/home/ericbuehler/.cache/vllm/torch_compile_cache/torch_aot_compile/90537ea14f244a5187d6ecc853fbadcf440d710f29c8e182fe8151f3f7751a82/inductor_cache/5l/c5loz4g3mlm6zkb4qrnujncbf7g5ymhswkj3bgyao3jtiedkn5va.py":121:24)
#loc137 = loc("/home/ericbuehler/.cache/vllm/torch_compile_cache/torch_aot_compile/90537ea14f244a5187d6ecc853fbadcf440d710f29c8e182fe8151f3f7751a82/inductor_cache/5l/c5loz4g3mlm6zkb4qrnujncbf7g5ymhswkj3bgyao3jtiedkn5va.py":122:24)
#loc138 = loc("/home/ericbuehler/.cache/vllm/torch_compile_cache/torch_aot_compile/90537ea14f244a5187d6ecc853fbadcf440d710f29c8e182fe8151f3f7751a82/inductor_cache/5l/c5loz4g3mlm6zkb4qrnujncbf7g5ymhswkj3bgyao3jtiedkn5va.py":123:24)
#loc139 = loc("/home/ericbuehler/.cache/vllm/torch_compile_cache/torch_aot_compile/90537ea14f244a5187d6ecc853fbadcf440d710f29c8e182fe8151f3f7751a82/inductor_cache/5l/c5loz4g3mlm6zkb4qrnujncbf7g5ymhswkj3bgyao3jtiedkn5va.py":125:24)
#loc140 = loc("/home/ericbuehler/.cache/vllm/torch_compile_cache/torch_aot_compile/90537ea14f244a5187d6ecc853fbadcf440d710f29c8e182fe8151f3f7751a82/inductor_cache/5l/c5loz4g3mlm6zkb4qrnujncbf7g5ymhswkj3bgyao3jtiedkn5va.py":127:25)
#loc141 = loc("/home/ericbuehler/.cache/vllm/torch_compile_cache/torch_aot_compile/90537ea14f244a5187d6ecc853fbadcf440d710f29c8e182fe8151f3f7751a82/inductor_cache/5l/c5loz4g3mlm6zkb4qrnujncbf7g5ymhswkj3bgyao3jtiedkn5va.py":128:36)
#loc142 = loc("/home/ericbuehler/.cache/vllm/torch_compile_cache/torch_aot_compile/90537ea14f244a5187d6ecc853fbadcf440d710f29c8e182fe8151f3f7751a82/inductor_cache/5l/c5loz4g3mlm6zkb4qrnujncbf7g5ymhswkj3bgyao3jtiedkn5va.py":128:50)
#loc143 = loc("/home/ericbuehler/.cache/vllm/torch_compile_cache/torch_aot_compile/90537ea14f244a5187d6ecc853fbadcf440d710f29c8e182fe8151f3f7751a82/inductor_cache/5l/c5loz4g3mlm6zkb4qrnujncbf7g5ymhswkj3bgyao3jtiedkn5va.py":129:44)
#loc144 = loc("/home/ericbuehler/.cache/vllm/torch_compile_cache/torch_aot_compile/90537ea14f244a5187d6ecc853fbadcf440d710f29c8e182fe8151f3f7751a82/inductor_cache/5l/c5loz4g3mlm6zkb4qrnujncbf7g5ymhswkj3bgyao3jtiedkn5va.py":129:39)
#loc145 = loc("/home/ericbuehler/.cache/vllm/torch_compile_cache/torch_aot_compile/90537ea14f244a5187d6ecc853fbadcf440d710f29c8e182fe8151f3f7751a82/inductor_cache/5l/c5loz4g3mlm6zkb4qrnujncbf7g5ymhswkj3bgyao3jtiedkn5va.py":129:32)
#loc146 = loc("/home/ericbuehler/.cache/vllm/torch_compile_cache/torch_aot_compile/90537ea14f244a5187d6ecc853fbadcf440d710f29c8e182fe8151f3f7751a82/inductor_cache/5l/c5loz4g3mlm6zkb4qrnujncbf7g5ymhswkj3bgyao3jtiedkn5va.py":129:66)
#loc147 = loc("/home/ericbuehler/.cache/vllm/torch_compile_cache/torch_aot_compile/90537ea14f244a5187d6ecc853fbadcf440d710f29c8e182fe8151f3f7751a82/inductor_cache/5l/c5loz4g3mlm6zkb4qrnujncbf7g5ymhswkj3bgyao3jtiedkn5va.py":129:56)
#loc148 = loc("/home/ericbuehler/.cache/vllm/torch_compile_cache/torch_aot_compile/90537ea14f244a5187d6ecc853fbadcf440d710f29c8e182fe8151f3f7751a82/inductor_cache/5l/c5loz4g3mlm6zkb4qrnujncbf7g5ymhswkj3bgyao3jtiedkn5va.py":129:8)
#loc149 = loc("/home/ericbuehler/.cache/vllm/torch_compile_cache/torch_aot_compile/90537ea14f244a5187d6ecc853fbadcf440d710f29c8e182fe8151f3f7751a82/inductor_cache/5l/c5loz4g3mlm6zkb4qrnujncbf7g5ymhswkj3bgyao3jtiedkn5va.py":130:27)
#loc150 = loc("/home/ericbuehler/.cache/vllm/torch_compile_cache/torch_aot_compile/90537ea14f244a5187d6ecc853fbadcf440d710f29c8e182fe8151f3f7751a82/inductor_cache/5l/c5loz4g3mlm6zkb4qrnujncbf7g5ymhswkj3bgyao3jtiedkn5va.py":130:30)
#loc151 = loc("/home/ericbuehler/.cache/vllm/torch_compile_cache/torch_aot_compile/90537ea14f244a5187d6ecc853fbadcf440d710f29c8e182fe8151f3f7751a82/inductor_cache/5l/c5loz4g3mlm6zkb4qrnujncbf7g5ymhswkj3bgyao3jtiedkn5va.py":131:43)
#loc152 = loc("/home/ericbuehler/.cache/vllm/torch_compile_cache/torch_aot_compile/90537ea14f244a5187d6ecc853fbadcf440d710f29c8e182fe8151f3f7751a82/inductor_cache/5l/c5loz4g3mlm6zkb4qrnujncbf7g5ymhswkj3bgyao3jtiedkn5va.py":132:31)
#loc153 = loc("/home/ericbuehler/.cache/vllm/torch_compile_cache/torch_aot_compile/90537ea14f244a5187d6ecc853fbadcf440d710f29c8e182fe8151f3f7751a82/inductor_cache/5l/c5loz4g3mlm6zkb4qrnujncbf7g5ymhswkj3bgyao3jtiedkn5va.py":133:29)
#loc154 = loc("/home/ericbuehler/.cache/vllm/torch_compile_cache/torch_aot_compile/90537ea14f244a5187d6ecc853fbadcf440d710f29c8e182fe8151f3f7751a82/inductor_cache/5l/c5loz4g3mlm6zkb4qrnujncbf7g5ymhswkj3bgyao3jtiedkn5va.py":137:51)
#loc155 = loc("/home/ericbuehler/.cache/vllm/torch_compile_cache/torch_aot_compile/90537ea14f244a5187d6ecc853fbadcf440d710f29c8e182fe8151f3f7751a82/inductor_cache/5l/c5loz4g3mlm6zkb4qrnujncbf7g5ymhswkj3bgyao3jtiedkn5va.py":137:46)
#loc156 = loc("/home/ericbuehler/.cache/vllm/torch_compile_cache/torch_aot_compile/90537ea14f244a5187d6ecc853fbadcf440d710f29c8e182fe8151f3f7751a82/inductor_cache/5l/c5loz4g3mlm6zkb4qrnujncbf7g5ymhswkj3bgyao3jtiedkn5va.py":137:39)
#loc157 = loc("/home/ericbuehler/.cache/vllm/torch_compile_cache/torch_aot_compile/90537ea14f244a5187d6ecc853fbadcf440d710f29c8e182fe8151f3f7751a82/inductor_cache/5l/c5loz4g3mlm6zkb4qrnujncbf7g5ymhswkj3bgyao3jtiedkn5va.py":137:66)
#loc158 = loc("/home/ericbuehler/.cache/vllm/torch_compile_cache/torch_aot_compile/90537ea14f244a5187d6ecc853fbadcf440d710f29c8e182fe8151f3f7751a82/inductor_cache/5l/c5loz4g3mlm6zkb4qrnujncbf7g5ymhswkj3bgyao3jtiedkn5va.py":137:56)
#loc159 = loc("/home/ericbuehler/.cache/vllm/torch_compile_cache/torch_aot_compile/90537ea14f244a5187d6ecc853fbadcf440d710f29c8e182fe8151f3f7751a82/inductor_cache/5l/c5loz4g3mlm6zkb4qrnujncbf7g5ymhswkj3bgyao3jtiedkn5va.py":137:118)
#loc160 = loc("/home/ericbuehler/.cache/vllm/torch_compile_cache/torch_aot_compile/90537ea14f244a5187d6ecc853fbadcf440d710f29c8e182fe8151f3f7751a82/inductor_cache/5l/c5loz4g3mlm6zkb4qrnujncbf7g5ymhswkj3bgyao3jtiedkn5va.py":138:35)
#loc161 = loc("/home/ericbuehler/.cache/vllm/torch_compile_cache/torch_aot_compile/90537ea14f244a5187d6ecc853fbadcf440d710f29c8e182fe8151f3f7751a82/inductor_cache/5l/c5loz4g3mlm6zkb4qrnujncbf7g5ymhswkj3bgyao3jtiedkn5va.py":138:42)
#loc162 = loc("/home/ericbuehler/.cache/vllm/torch_compile_cache/torch_aot_compile/90537ea14f244a5187d6ecc853fbadcf440d710f29c8e182fe8151f3f7751a82/inductor_cache/5l/c5loz4g3mlm6zkb4qrnujncbf7g5ymhswkj3bgyao3jtiedkn5va.py":138:95)
#loc163 = loc("/home/ericbuehler/.cache/vllm/torch_compile_cache/torch_aot_compile/90537ea14f244a5187d6ecc853fbadcf440d710f29c8e182fe8151f3f7751a82/inductor_cache/5l/c5loz4g3mlm6zkb4qrnujncbf7g5ymhswkj3bgyao3jtiedkn5va.py":140:40)
#loc164 = loc("/home/ericbuehler/.cache/vllm/torch_compile_cache/torch_aot_compile/90537ea14f244a5187d6ecc853fbadcf440d710f29c8e182fe8151f3f7751a82/inductor_cache/5l/c5loz4g3mlm6zkb4qrnujncbf7g5ymhswkj3bgyao3jtiedkn5va.py":141:25)
#loc165 = loc("/home/ericbuehler/.cache/vllm/torch_compile_cache/torch_aot_compile/90537ea14f244a5187d6ecc853fbadcf440d710f29c8e182fe8151f3f7751a82/inductor_cache/5l/c5loz4g3mlm6zkb4qrnujncbf7g5ymhswkj3bgyao3jtiedkn5va.py":142:39)
#loc166 = loc("/home/ericbuehler/.cache/vllm/torch_compile_cache/torch_aot_compile/90537ea14f244a5187d6ecc853fbadcf440d710f29c8e182fe8151f3f7751a82/inductor_cache/5l/c5loz4g3mlm6zkb4qrnujncbf7g5ymhswkj3bgyao3jtiedkn5va.py":143:24)
#loc167 = loc("/home/ericbuehler/.cache/vllm/torch_compile_cache/torch_aot_compile/90537ea14f244a5187d6ecc853fbadcf440d710f29c8e182fe8151f3f7751a82/inductor_cache/5l/c5loz4g3mlm6zkb4qrnujncbf7g5ymhswkj3bgyao3jtiedkn5va.py":144:32)
#loc168 = loc("/home/ericbuehler/.cache/vllm/torch_compile_cache/torch_aot_compile/90537ea14f244a5187d6ecc853fbadcf440d710f29c8e182fe8151f3f7751a82/inductor_cache/5l/c5loz4g3mlm6zkb4qrnujncbf7g5ymhswkj3bgyao3jtiedkn5va.py":145:24)
#loc169 = loc("/home/ericbuehler/.cache/vllm/torch_compile_cache/torch_aot_compile/90537ea14f244a5187d6ecc853fbadcf440d710f29c8e182fe8151f3f7751a82/inductor_cache/5l/c5loz4g3mlm6zkb4qrnujncbf7g5ymhswkj3bgyao3jtiedkn5va.py":147:24)
#loc170 = loc("/home/ericbuehler/.cache/vllm/torch_compile_cache/torch_aot_compile/90537ea14f244a5187d6ecc853fbadcf440d710f29c8e182fe8151f3f7751a82/inductor_cache/5l/c5loz4g3mlm6zkb4qrnujncbf7g5ymhswkj3bgyao3jtiedkn5va.py":148:41)
#loc171 = loc("/home/ericbuehler/.cache/vllm/torch_compile_cache/torch_aot_compile/90537ea14f244a5187d6ecc853fbadcf440d710f29c8e182fe8151f3f7751a82/inductor_cache/5l/c5loz4g3mlm6zkb4qrnujncbf7g5ymhswkj3bgyao3jtiedkn5va.py":148:36)
#loc172 = loc("/home/ericbuehler/.cache/vllm/torch_compile_cache/torch_aot_compile/90537ea14f244a5187d6ecc853fbadcf440d710f29c8e182fe8151f3f7751a82/inductor_cache/5l/c5loz4g3mlm6zkb4qrnujncbf7g5ymhswkj3bgyao3jtiedkn5va.py":148:29)
#loc173 = loc("/home/ericbuehler/.cache/vllm/torch_compile_cache/torch_aot_compile/90537ea14f244a5187d6ecc853fbadcf440d710f29c8e182fe8151f3f7751a82/inductor_cache/5l/c5loz4g3mlm6zkb4qrnujncbf7g5ymhswkj3bgyao3jtiedkn5va.py":148:63)
#loc174 = loc("/home/ericbuehler/.cache/vllm/torch_compile_cache/torch_aot_compile/90537ea14f244a5187d6ecc853fbadcf440d710f29c8e182fe8151f3f7751a82/inductor_cache/5l/c5loz4g3mlm6zkb4qrnujncbf7g5ymhswkj3bgyao3jtiedkn5va.py":148:53)
#loc175 = loc("/home/ericbuehler/.cache/vllm/torch_compile_cache/torch_aot_compile/90537ea14f244a5187d6ecc853fbadcf440d710f29c8e182fe8151f3f7751a82/inductor_cache/5l/c5loz4g3mlm6zkb4qrnujncbf7g5ymhswkj3bgyao3jtiedkn5va.py":131:4)
#loc177 = loc("/home/ericbuehler/vllm/.venv-bench/lib/python3.12/site-packages/triton/language/standard.py":293:36)
#loc179 = loc("/home/ericbuehler/vllm/.venv-bench/lib/python3.12/site-packages/triton/language/standard.py":293:11)
#loc180 = loc("/home/ericbuehler/vllm/.venv-bench/lib/python3.12/site-packages/triton/language/standard.py":293:4)
#loc182 = loc("/home/ericbuehler/vllm/.venv-bench/lib/python3.12/site-packages/triton/language/standard.py":263:15)
#loc183 = loc("/home/ericbuehler/vllm/.venv-bench/lib/python3.12/site-packages/triton/language/standard.py":263:11)
#loc184 = loc("/home/ericbuehler/vllm/.venv-bench/lib/python3.12/site-packages/triton/language/standard.py":263:4)
#loc200 = loc("r0_numel"(#loc1))
#loc201 = loc("xoffset"(#loc2))
#loc202 = loc("xoffset"(#loc3))
#loc203 = loc("xindex"(#loc4))
#loc204 = loc("xindex"(#loc5))
#loc205 = loc("xindex"(#loc6))
#loc206 = loc("xmask"(#loc7))
#loc207 = loc("r0_base"(#loc8))
#loc208 = loc("r0_base"(#loc9))
#loc209 = loc("_tmp4"(#loc10))
#loc210 = loc("_tmp4"(#loc11))
#loc211 = loc("r0_index"(#loc12))
#loc212 = loc("r0_mask"(#loc13))
#loc213 = loc("tmp0"(#loc14))
#loc214 = loc("tmp0"(#loc15))
#loc215 = loc("tmp0"(#loc16))
#loc216 = loc("tmp0"(#loc17))
#loc217 = loc("tmp0"(#loc18))
#loc218 = loc("tmp0"(#loc19))
#loc219 = loc("tmp2"(#loc20))
#loc220 = loc("tmp5"(#loc21))
#loc221 = loc("_tmp4"(#loc22))
#loc222 = loc("_tmp4"(#loc23))
#loc223 = loc("tmp4"(#loc25))
#loc224 = loc("tmp4"(#loc26))
#loc225 = loc("_tmp10"(#loc27))
#loc226 = loc("_tmp10"(#loc28))
#loc227 = loc("r0_index"(#loc29))
#loc228 = loc("r0_mask"(#loc30))
#loc229 = loc("tmp6"(#loc31))
#loc230 = loc("tmp6"(#loc32))
#loc231 = loc("tmp6"(#loc33))
#loc232 = loc("tmp6"(#loc34))
#loc233 = loc("tmp6"(#loc35))
#loc234 = loc("tmp6"(#loc36))
#loc235 = loc("tmp8"(#loc37))
#loc236 = loc("tmp11"(#loc38))
#loc237 = loc("_tmp10"(#loc39))
#loc238 = loc("_tmp10"(#loc40))
#loc239 = loc("tmp10"(#loc42))
#loc240 = loc("tmp10"(#loc43))
#loc241 = loc("_tmp36"(#loc44))
#loc242 = loc("_tmp36"(#loc45))
#loc243 = loc("r0_index"(#loc46))
#loc244 = loc("r0_mask"(#loc47))
#loc245 = loc("tmp12"(#loc48))
#loc246 = loc("tmp12"(#loc49))
#loc247 = loc("tmp12"(#loc50))
#loc248 = loc("tmp12"(#loc51))
#loc249 = loc("tmp12"(#loc52))
#loc250 = loc("tmp12"(#loc53))
#loc251 = loc("tmp21"(#loc54))
#loc252 = loc("tmp21"(#loc55))
#loc253 = loc("tmp21"(#loc56))
#loc254 = loc("tmp23"(#loc57))
#loc255 = loc("tmp23"(#loc58))
#loc256 = loc("tmp23"(#loc59))
#loc257 = loc("tmp23"(#loc60))
#loc258 = loc("tmp23"(#loc61))
#loc259 = loc("tmp23"(#loc62))
#loc260 = loc("tmp30"(#loc63))
#loc261 = loc("tmp30"(#loc64))
#loc262 = loc("tmp30"(#loc65))
#loc263 = loc("tmp14"(#loc66))
#loc264 = loc("tmp15"(#loc67))
#loc265 = loc("tmp16"(#loc68))
#loc266 = loc("tmp17"(#loc69))
#loc267 = loc("tmp18"(#loc70))
#loc268 = loc("tmp19"(#loc71))
#loc269 = loc("tmp22"(#loc72))
#loc270 = loc("tmp25"(#loc73))
#loc271 = loc("tmp26"(#loc74))
#loc272 = loc("tmp27"(#loc75))
#loc273 = loc("tmp28"(#loc76))
#loc274 = loc("tmp31"(#loc77))
#loc275 = loc("tmp32"(#loc78))
#loc276 = loc("tmp34"(#loc79))
#loc277 = loc("tmp37"(#loc80))
#loc278 = loc("_tmp36"(#loc81))
#loc279 = loc("_tmp36"(#loc82))
#loc280 = loc("tmp36"(#loc89))
#loc281 = loc("tmp36"(#loc90))
#loc282 = loc("tmp50"(#loc91))
#loc283 = loc("tmp50"(#loc92))
#loc284 = loc("tmp61"(#loc93))
#loc285 = loc("tmp61"(#loc94))
#loc286 = loc("tmp61"(#loc95))
#loc287 = loc("tmp62"(#loc96))
#loc288 = loc("_tmp67"(#loc97))
#loc289 = loc("_tmp67"(#loc98))
#loc290 = loc("r0_index"(#loc99))
#loc291 = loc("r0_mask"(#loc100))
#loc292 = loc("tmp38"(#loc101))
#loc293 = loc("tmp38"(#loc102))
#loc294 = loc("tmp38"(#loc103))
#loc295 = loc("tmp38"(#loc104))
#loc296 = loc("tmp38"(#loc105))
#loc297 = loc("tmp46"(#loc106))
#loc298 = loc("tmp46"(#loc107))
#loc299 = loc("tmp46"(#loc108))
#loc300 = loc("tmp48"(#loc109))
#loc301 = loc("tmp48"(#loc110))
#loc302 = loc("tmp48"(#loc111))
#loc303 = loc("tmp48"(#loc112))
#loc304 = loc("tmp48"(#loc113))
#loc305 = loc("tmp48"(#loc114))
#loc306 = loc("tmp56"(#loc115))
#loc307 = loc("tmp56"(#loc116))
#loc308 = loc("tmp56"(#loc117))
#loc309 = loc("tmp58"(#loc118))
#loc310 = loc("tmp58"(#loc119))
#loc311 = loc("tmp58"(#loc120))
#loc312 = loc("tmp58"(#loc121))
#loc313 = loc("tmp58"(#loc122))
#loc314 = loc("tmp58"(#loc123))
#loc315 = loc("tmp39"(#loc124))
#loc316 = loc("tmp40"(#loc125))
#loc317 = loc("tmp41"(#loc126))
#loc318 = loc("tmp42"(#loc127))
#loc319 = loc("tmp43"(#loc128))
#loc320 = loc("tmp44"(#loc129))
#loc321 = loc("tmp47"(#loc130))
#loc322 = loc("tmp51"(#loc131))
#loc323 = loc("tmp52"(#loc132))
#loc324 = loc("tmp53"(#loc133))
#loc325 = loc("tmp54"(#loc134))
#loc326 = loc("tmp57"(#loc135))
#loc327 = loc("tmp59"(#loc136))
#loc328 = loc("tmp60"(#loc137))
#loc329 = loc("tmp63"(#loc138))
#loc330 = loc("tmp65"(#loc139))
#loc331 = loc("tmp68"(#loc140))
#loc332 = loc("_tmp67"(#loc141))
#loc333 = loc("_tmp67"(#loc142))
#loc334 = loc("tmp67"(#loc149))
#loc335 = loc("tmp67"(#loc150))
#loc336 = loc("r0_index"(#loc152))
#loc337 = loc("r0_mask"(#loc153))
#loc338 = loc("tmp69"(#loc154))
#loc339 = loc("tmp69"(#loc155))
#loc340 = loc("tmp69"(#loc156))
#loc341 = loc("tmp69"(#loc157))
#loc342 = loc("tmp69"(#loc158))
#loc343 = loc("tmp69"(#loc159))
#loc344 = loc("tmp78"(#loc160))
#loc345 = loc("tmp78"(#loc161))
#loc346 = loc("tmp78"(#loc162))
#loc347 = loc("tmp71"(#loc163))
#loc348 = loc("tmp72"(#loc164))
#loc349 = loc("tmp73"(#loc165))
#loc350 = loc("tmp74"(#loc166))
#loc351 = loc("tmp75"(#loc167))
#loc352 = loc("tmp76"(#loc168))
#loc353 = loc("tmp79"(#loc169))
